…
stepvalue: 100000
stepvalue: 150000
type: "Nesterov"
I0612 11:05:13.874054  4990 solver.cpp:86] Creating training net from train_net file: examples/stochastic_depth/residual_train54.prototxt
I0612 11:05:13.891945  4990 net.cpp:148] Initializing net from parameters:
state {
  phase: TRAIN
}
layer {
  name: "Data1"
  type: "Data"
  top: "Data1"
  top: "Data2"
  transform_param {
    mirror: true
    crop_size: 32
  }
  data_param {
    source: "/scratch/pas282/caffe/examples/cifar10/cifar10_train_leveldb_padding0"
    batch_size: 128
    backend: LEVELDB
  }
}
layer {
  name: "Convolution1"
  type: "Convolution"
  bottom: "Data1"
  top: "Convolution1"
  convolution_param {
    num_output: 16
    bias_term: true
    pad: 1
    kernel_size: 3
    stride: 1
    weight_filler {
      type: "msra"
    }
    bias_filler {
      type: "constant"
    }
  }
}
layer {
  name: "BatchNorm1"
  type: "BatchNorm"
  bottom: "Convolution1"
  top: "Convolution1"
  param {
    lr_mult: 0
    decay_mult: 0
  }
  param {
    lr_mult: 0
    decay_mult: 0
  }
  param {
    lr_mult: 0
    decay_mult: 0
  }
}
layer {
  name: "Scale1"
  type: "Scale"
  bottom: "Convolution1"
  top: "Convolution1"
  scale_param {
    bias_term: true
  }
}
layer {
  name: "ReLU1"
  type: "ReLU"
  bottom: "Convolution1"
  top: "Convolution1"
}
layer {
  name: "Convolution2"
  type: "Convolution"
  bottom: "Convolution1"
  top: "Convolution2"
  convolution_param {
    num_output: 16
    bias_term: true
    pad: 1
    kernel_size: 3
    stride: 1
    weight_filler {
      type: "msra"
    }
    bias_filler {
      type: "constant"
    }
  }
}
layer {
  name: "BatchNorm2"
  type: "BatchNorm"
  bottom: "Convolution2"
  top: "Convolution2"
  param {
    lr_mult: 0
    decay_mult: 0
  }
  param {
    lr_mult: 0
    decay_mult: 0
  }
  param {
    lr_mult: 0
    decay_mult: 0
  }
}
layer {
  name: "Scale2"
  type: "Scale"
  bottom: "Convolution2"
  top: "Convolution2"
  scale_param {
    bias_term: true
  }
}
layer {
  name: "ReLU2"
  type: "ReLU"
  bottom: "Convolution2"
  top: "Convolution2"
}
layer {
  name: "Convolution3"
  type: "Convolution"
  bottom: "Convolution2"
  top: "Convolution3"
  convolution_param {
    num_output: 16
    bias_term: true
    pad: 1
    kernel_size: 3
    stride: 1
    weight_filler {
      type: "msra"
    }
    bias_filler {
      type: "constant"
    }
  }
}
layer {
  name: "BatchNorm3"
  type: "BatchNorm"
  bottom: "Convolution3"
  top: "Convolution3"
  param {
    lr_mult: 0
    decay_mult: 0
  }
  param {
    lr_mult: 0
    decay_mult: 0
  }
  param {
    lr_mult: 0
    decay_mult: 0
  }
}
layer {
  name: "Scale3"
  type: "Scale"
  bottom: "Convolution3"
  top: "Convolution3"
  scale_param {
    bias_term: true
  }
}
layer {
  name: "Eltwise1"
  type: "Eltwise"
  bottom: "Convolution1"
  bottom: "Convolution3"
  top: "Eltwise1"
  eltwise_param {
    operation: SUM
  }
}
layer {
  name: "ReLU3"
  type: "ReLU"
  bottom: "Eltwise1"
  top: "Eltwise1"
}
layer {
  name: "Convolution4"
  type: "Convolution"
  bottom: "Eltwise1"
  top: "Convolution4"
  convolution_param {
    num_output: 16
    bias_term: true
    pad: 1
    kernel_size: 3
    stride: 1
    weight_filler {
      type: "msra"
    }
    bias_filler {
      type: "constant"
    }
  }
}
layer {
  name: "BatchNorm4"
  type: "BatchNorm"
  bottom: "Convolution4"
  top: "Convolution4"
  param {
    lr_mult: 0
    decay_mult: 0
  }
  param {
    lr_mult: 0
    decay_mult: 0
  }
  param {
    lr_mult: 0
    decay_mult: 0
  }
}
layer {
  name: "Scale4"
  type: "Scale"
  bottom: "Convolution4"
  top: "Convolution4"
  scale_param {
    bias_term: true
  }
}
layer {
  name: "ReLU4"
  type: "ReLU"
  bottom: "Convolution4"
  top: "Convolution4"
}
layer {
  name: "Convolution5"
  type: "Convolution"
  bottom: "Convolution4"
  top: "Convolution5"
  convolution_param {
    num_output: 16
    bias_term: true
    pad: 1
    kernel_size: 3
    stride: 1
    weight_filler {
      type: "msra"
    }
    bias_filler {
      type: "constant"
    }
  }
}
layer {
  name: "BatchNorm5"
  type: "BatchNorm"
  bottom: "Convolution5"
  top: "Convolution5"
  param {
    lr_mult: 0
    decay_mult: 0
  }
  param {
    lr_mult: 0
    decay_mult: 0
  }
  param {
    lr_mult: 0
    decay_mult: 0
  }
}
layer {
  name: "Scale5"
  type: "Scale"
  bottom: "Convolution5"
  top: "Convolution5"
  scale_param {
    bias_term: true
  }
}
layer {
  name: "Eltwise2"
  type: "Eltwise"
  bottom: "Eltwise1"
  bottom: "Convolution5"
  top: "Eltwise2"
  eltwise_param {
    operation: SUM
  }
}
layer {
  name: "ReLU5"
  type: "ReLU"
  bottom: "Eltwise2"
  top: "Eltwise2"
}
layer {
  name: "Convolution6"
  type: "Convolution"
  bottom: "Eltwise2"
  top: "Convolution6"
  convolution_param {
    num_output: 16
    bias_term: true
    pad: 1
    kernel_size: 3
    stride: 1
    weight_filler {
      type: "msra"
    }
    bias_filler {
      type: "constant"
    }
  }
}
layer {
  name: "BatchNorm6"
  type: "BatchNorm"
  bottom: "Convolution6"
  top: "Convolution6"
  param {
    lr_mult: 0
    decay_mult: 0
  }
  param {
    lr_mult: 0
    decay_mult: 0
  }
  param {
    lr_mult: 0
    decay_mult: 0
  }
}
layer {
  name: "Scale6"
  type: "Scale"
  bottom: "Convolution6"
  top: "Convolution6"
  scale_param {
    bias_term: true
  }
}
layer {
  name: "ReLU6"
  type: "ReLU"
  bottom: "Convolution6"
  top: "Convolution6"
}
layer {
  name: "Convolution7"
  type: "Convolution"
  bottom: "Convolution6"
  top: "Convolution7"
  convolution_param {
    num_output: 16
    bias_term: true
    pad: 1
    kernel_size: 3
    stride: 1
    weight_filler {
      type: "msra"
    }
    bias_filler {
      type: "constant"
    }
  }
}
layer {
  name: "BatchNorm7"
  type: "BatchNorm"
  bottom: "Convolution7"
  top: "Convolution7"
  param {
    lr_mult: 0
    decay_mult: 0
  }
  param {
    lr_mult: 0
    decay_mult: 0
  }
  param {
    lr_mult: 0
    decay_mult: 0
  }
}
layer {
  name: "Scale7"
  type: "Scale"
  bottom: "Convolution7"
  top: "Convolution7"
  scale_param {
    bias_term: true
  }
}
layer {
  name: "Eltwise3"
  type: "Eltwise"
  bottom: "Eltwise2"
  bottom: "Convolution7"
  top: "Eltwise3"
  eltwise_param {
    operation: SUM
  }
}
layer {
  name: "ReLU7"
  type: "ReLU"
  bottom: "Eltwise3"
  top: "Eltwise3"
}
layer {
  name: "Convolution8"
  type: "Convolution"
  bottom: "Eltwise3"
  top: "Convolution8"
  convolution_param {
    num_output: 16
    bias_term: true
    pad: 1
    kernel_size: 3
    stride: 1
    weight_filler {
      type: "msra"
    }
    bias_filler {
      type: "constant"
    }
  }
}
layer {
  name: "BatchNorm8"
  type: "BatchNorm"
  bottom: "Convolution8"
  top: "Convolution8"
  param {
    lr_mult: 0
    decay_mult: 0
  }
  param {
    lr_mult: 0
    decay_mult: 0
  }
  param {
    lr_mult: 0
    decay_mult: 0
  }
}
layer {
  name: "Scale8"
  type: "Scale"
  bottom: "Convolution8"
  top: "Convolution8"
  scale_param {
    bias_term: true
  }
}
layer {
  name: "ReLU8"
  type: "ReLU"
  bottom: "Convolution8"
  top: "Convolution8"
}
layer {
  name: "Convolution9"
  type: "Convolution"
  bottom: "Convolution8"
  top: "Convolution9"
  convolution_param {
    num_output: 16
    bias_term: true
    pad: 1
    kernel_size: 3
    stride: 1
    weight_filler {
      type: "msra"
    }
    bias_filler {
      type: "constant"
    }
  }
}
layer {
  name: "BatchNorm9"
  type: "BatchNorm"
  bottom: "Convolution9"
  top: "Convolution9"
  param {
    lr_mult: 0
    decay_mult: 0
  }
  param {
    lr_mult: 0
    decay_mult: 0
  }
  param {
    lr_mult: 0
    decay_mult: 0
  }
}
layer {
  name: "Scale9"
  type: "Scale"
  bottom: "Convolution9"
  top: "Convolution9"
  scale_param {
    bias_term: true
  }
}
layer {
  name: "Eltwise4"
  type: "Eltwise"
  bottom: "Eltwise3"
  bottom: "Convolution9"
  top: "Eltwise4"
  eltwise_param {
    operation: SUM
  }
}
layer {
  name: "ReLU9"
  type: "ReLU"
  bottom: "Eltwise4"
  top: "Eltwise4"
}
layer {
  name: "Convolution10"
  type: "Convolution"
  bottom: "Eltwise4"
  top: "Convolution10"
  convolution_param {
    num_output: 16
    bias_term: true
    pad: 1
    kernel_size: 3
    stride: 1
    weight_filler {
      type: "msra"
    }
    bias_filler {
      type: "constant"
    }
  }
}
layer {
  name: "BatchNorm10"
  type: "BatchNorm"
  bottom: "Convolution10"
  top: "Convolution10"
  param {
    lr_mult: 0
    decay_mult: 0
  }
  param {
    lr_mult: 0
    decay_mult: 0
  }
  param {
    lr_mult: 0
    decay_mult: 0
  }
}
layer {
  name: "Scale10"
  type: "Scale"
  bottom: "Convolution10"
  top: "Convolution10"
  scale_param {
    bias_term: true
  }
}
layer {
  name: "ReLU10"
  type: "ReLU"
  bottom: "Convolution10"
  top: "Convolution10"
}
layer {
  name: "Convolution11"
  type: "Convolution"
  bottom: "Convolution10"
  top: "Convolution11"
  convolution_param {
    num_output: 16
    bias_term: true
    pad: 1
    kernel_size: 3
    stride: 1
    weight_filler {
      type: "msra"
    }
    bias_filler {
      type: "constant"
    }
  }
}
layer {
  name: "BatchNorm11"
  type: "BatchNorm"
  bottom: "Convolution11"
  top: "Convolution11"
  param {
    lr_mult: 0
    decay_mult: 0
  }
  param {
    lr_mult: 0
    decay_mult: 0
  }
  param {
    lr_mult: 0
    decay_mult: 0
  }
}
layer {
  name: "Scale11"
  type: "Scale"
  bottom: "Convolution11"
  top: "Convolution11"
  scale_param {
    bias_term: true
  }
}
layer {
  name: "Eltwise5"
  type: "Eltwise"
  bottom: "Eltwise4"
  bottom: "Convolution11"
  top: "Eltwise5"
  eltwise_param {
    operation: SUM
  }
}
layer {
  name: "ReLU11"
  type: "ReLU"
  bottom: "Eltwise5"
  top: "Eltwise5"
}
layer {
  name: "Convolution12"
  type: "Convolution"
  bottom: "Eltwise5"
  top: "Convolution12"
  convolution_param {
    num_output: 16
    bias_term: true
    pad: 1
    kernel_size: 3
    stride: 1
    weight_filler {
      type: "msra"
    }
    bias_filler {
      type: "constant"
    }
  }
}
layer {
  name: "BatchNorm12"
  type: "BatchNorm"
  bottom: "Convolution12"
  top: "Convolution12"
  param {
    lr_mult: 0
    decay_mult: 0
  }
  param {
    lr_mult: 0
    decay_mult: 0
  }
  param {
    lr_mult: 0
    decay_mult: 0
  }
}
layer {
  name: "Scale12"
  type: "Scale"
  bottom: "Convolution12"
  top: "Convolution12"
  scale_param {
    bias_term: true
  }
}
layer {
  name: "ReLU12"
  type: "ReLU"
  bottom: "Convolution12"
  top: "Convolution12"
}
layer {
  name: "Convolution13"
  type: "Convolution"
  bottom: "Convolution12"
  top: "Convolution13"
  convolution_param {
    num_output: 16
    bias_term: true
    pad: 1
    kernel_size: 3
    stride: 1
    weight_filler {
      type: "msra"
    }
    bias_filler {
      type: "constant"
    }
  }
}
layer {
  name: "BatchNorm13"
  type: "BatchNorm"
  bottom: "Convolution13"
  top: "Convolution13"
  param {
    lr_mult: 0
    decay_mult: 0
  }
  param {
    lr_mult: 0
    decay_mult: 0
  }
  param {
    lr_mult: 0
    decay_mult: 0
  }
}
layer {
  name: "Scale13"
  type: "Scale"
  bottom: "Convolution13"
  top: "Convolution13"
  scale_param {
    bias_term: true
  }
}
layer {
  name: "Eltwise6"
  type: "Eltwise"
  bottom: "Eltwise5"
  bottom: "Convolution13"
  top: "Eltwise6"
  eltwise_param {
    operation: SUM
  }
}
layer {
  name: "ReLU13"
  type: "ReLU"
  bottom: "Eltwise6"
  top: "Eltwise6"
}
layer {
  name: "Convolution14"
  type: "Convolution"
  bottom: "Eltwise6"
  top: "Convolution14"
  convolution_param {
    num_output: 16
    bias_term: true
    pad: 1
    kernel_size: 3
    stride: 1
    weight_filler {
      type: "msra"
    }
    bias_filler {
      type: "constant"
    }
  }
}
layer {
  name: "BatchNorm14"
  type: "BatchNorm"
  bottom: "Convolution14"
  top: "Convolution14"
  param {
    lr_mult: 0
    decay_mult: 0
  }
  param {
    lr_mult: 0
    decay_mult: 0
  }
  param {
    lr_mult: 0
    decay_mult: 0
  }
}
layer {
  name: "Scale14"
  type: "Scale"
  bottom: "Convolution14"
  top: "Convolution14"
  scale_param {
    bias_term: true
  }
}
layer {
  name: "ReLU14"
  type: "ReLU"
  bottom: "Convolution14"
  top: "Convolution14"
}
layer {
  name: "Convolution15"
  type: "Convolution"
  bottom: "Convolution14"
  top: "Convolution15"
  convolution_param {
    num_output: 16
    bias_term: true
    pad: 1
    kernel_size: 3
    stride: 1
    weight_filler {
      type: "msra"
    }
    bias_filler {
      type: "constant"
    }
  }
}
layer {
  name: "BatchNorm15"
  type: "BatchNorm"
  bottom: "Convolution15"
  top: "Convolution15"
  param {
    lr_mult: 0
    decay_mult: 0
  }
  param {
    lr_mult: 0
    decay_mult: 0
  }
  param {
    lr_mult: 0
    decay_mult: 0
  }
}
layer {
  name: "Scale15"
  type: "Scale"
  bottom: "Convolution15"
  top: "Convolution15"
  scale_param {
    bias_term: true
  }
}
layer {
  name: "Eltwise7"
  type: "Eltwise"
  bottom: "Eltwise6"
  bottom: "Convolution15"
  top: "Eltwise7"
  eltwise_param {
    operation: SUM
  }
}
layer {
  name: "ReLU15"
  type: "ReLU"
  bottom: "Eltwise7"
  top: "Eltwise7"
}
layer {
  name: "Convolution16"
  type: "Convolution"
  bottom: "Eltwise7"
  top: "Convolution16"
  convolution_param {
    num_output: 16
    bias_term: true
    pad: 1
    kernel_size: 3
    stride: 1
    weight_filler {
      type: "msra"
    }
    bias_filler {
      type: "constant"
    }
  }
}
layer {
  name: "BatchNorm16"
  type: "BatchNorm"
  bottom: "Convolution16"
  top: "Convolution16"
  param {
    lr_mult: 0
    decay_mult: 0
  }
  param {
    lr_mult: 0
    decay_mult: 0
  }
  param {
    lr_mult: 0
    decay_mult: 0
  }
}
layer {
  name: "Scale16"
  type: "Scale"
  bottom: "Convolution16"
  top: "Convolution16"
  scale_param {
    bias_term: true
  }
}
layer {
  name: "ReLU16"
  type: "ReLU"
  bottom: "Convolution16"
  top: "Convolution16"
}
layer {
  name: "Convolution17"
  type: "Convolution"
  bottom: "Convolution16"
  top: "Convolution17"
  convolution_param {
    num_output: 16
    bias_term: true
    pad: 1
    kernel_size: 3
    stride: 1
    weight_filler {
      type: "msra"
    }
    bias_filler {
      type: "constant"
    }
  }
}
layer {
  name: "BatchNorm17"
  type: "BatchNorm"
  bottom: "Convolution17"
  top: "Convolution17"
  param {
    lr_mult: 0
    decay_mult: 0
  }
  param {
    lr_mult: 0
    decay_mult: 0
  }
  param {
    lr_mult: 0
    decay_mult: 0
  }
}
layer {
  name: "Scale17"
  type: "Scale"
  bottom: "Convolution17"
  top: "Convolution17"
  scale_param {
    bias_term: true
  }
}
layer {
  name: "Eltwise8"
  type: "Eltwise"
  bottom: "Eltwise7"
  bottom: "Convolution17"
  top: "Eltwise8"
  eltwise_param {
    operation: SUM
  }
}
layer {
  name: "ReLU17"
  type: "ReLU"
  bottom: "Eltwise8"
  top: "Eltwise8"
}
layer {
  name: "Convolution18"
  type: "Convolution"
  bottom: "Eltwise8"
  top: "Convolution18"
  convolution_param {
    num_output: 16
    bias_term: true
    pad: 1
    kernel_size: 3
    stride: 1
    weight_filler {
      type: "msra"
    }
    bias_filler {
      type: "constant"
    }
  }
}
layer {
  name: "BatchNorm18"
  type: "BatchNorm"
  bottom: "Convolution18"
  top: "Convolution18"
  param {
    lr_mult: 0
    decay_mult: 0
  }
  param {
    lr_mult: 0
    decay_mult: 0
  }
  param {
    lr_mult: 0
    decay_mult: 0
  }
}
layer {
  name: "Scale18"
  type: "Scale"
  bottom: "Convolution18"
  top: "Convolution18"
  scale_param {
    bias_term: true
  }
}
layer {
  name: "ReLU18"
  type: "ReLU"
  bottom: "Convolution18"
  top: "Convolution18"
}
layer {
  name: "Convolution19"
  type: "Convolution"
  bottom: "Convolution18"
  top: "Convolution19"
  convolution_param {
    num_output: 16
    bias_term: true
    pad: 1
    kernel_size: 3
    stride: 1
    weight_filler {
      type: "msra"
    }
    bias_filler {
      type: "constant"
    }
  }
}
layer {
  name: "BatchNorm19"
  type: "BatchNorm"
  bottom: "Convolution19"
  top: "Convolution19"
  param {
    lr_mult: 0
    decay_mult: 0
  }
  param {
    lr_mult: 0
    decay_mult: 0
  }
  param {
    lr_mult: 0
    decay_mult: 0
  }
}
layer {
  name: "Scale19"
  type: "Scale"
  bottom: "Convolution19"
  top: "Convolution19"
  scale_param {
    bias_term: true
  }
}
layer {
  name: "Eltwise9"
  type: "Eltwise"
  bottom: "Eltwise8"
  bottom: "Convolution19"
  top: "Eltwise9"
  eltwise_param {
    operation: SUM
  }
}
layer {
  name: "ReLU19"
  type: "ReLU"
  bottom: "Eltwise9"
  top: "Eltwise9"
}
layer {
  name: "Convolution20"
  type: "Convolution"
  bottom: "Eltwise9"
  top: "Convolution20"
  convolution_param {
    num_output: 16
    bias_term: true
    pad: 1
    kernel_size: 3
    stride: 1
    weight_filler {
      type: "msra"
    }
    bias_filler {
      type: "constant"
    }
  }
}
layer {
  name: "BatchNorm20"
  type: "BatchNorm"
  bottom: "Convolution20"
  top: "Convolution20"
  param {
    lr_mult: 0
    decay_mult: 0
  }
  param {
    lr_mult: 0
    decay_mult: 0
  }
  param {
    lr_mult: 0
    decay_mult: 0
  }
}
layer {
  name: "Scale20"
  type: "Scale"
  bottom: "Convolution20"
  top: "Convolution20"
  scale_param {
    bias_term: true
  }
}
layer {
  name: "ReLU20"
  type: "ReLU"
  bottom: "Convolution20"
  top: "Convolution20"
}
layer {
  name: "Convolution21"
  type: "Convolution"
  bottom: "Convolution20"
  top: "Convolution21"
  convolution_param {
    num_output: 16
    bias_term: true
    pad: 1
    kernel_size: 3
    stride: 1
    weight_filler {
      type: "msra"
    }
    bias_filler {
      type: "constant"
    }
  }
}
layer {
  name: "BatchNorm21"
  type: "BatchNorm"
  bottom: "Convolution21"
  top: "Convolution21"
  param {
    lr_mult: 0
    decay_mult: 0
  }
  param {
    lr_mult: 0
    decay_mult: 0
  }
  param {
    lr_mult: 0
    decay_mult: 0
  }
}
layer {
  name: "Scale21"
  type: "Scale"
  bottom: "Convolution21"
  top: "Convolution21"
  scale_param {
    bias_term: true
  }
}
layer {
  name: "Eltwise10"
  type: "Eltwise"
  bottom: "Eltwise9"
  bottom: "Convolution21"
  top: "Eltwise10"
  eltwise_param {
    operation: SUM
  }
}
layer {
  name: "ReLU21"
  type: "ReLU"
  bottom: "Eltwise10"
  top: "Eltwise10"
}
layer {
  name: "Convolution22"
  type: "Convolution"
  bottom: "Eltwise10"
  top: "Convolution22"
  convolution_param {
    num_output: 16
    bias_term: true
    pad: 1
    kernel_size: 3
    stride: 1
    weight_filler {
      type: "msra"
    }
    bias_filler {
      type: "constant"
    }
  }
}
layer {
  name: "BatchNorm22"
  type: "BatchNorm"
  bottom: "Convolution22"
  top: "Convolution22"
  param {
    lr_mult: 0
    decay_mult: 0
  }
  param {
    lr_mult: 0
    decay_mult: 0
  }
  param {
    lr_mult: 0
    decay_mult: 0
  }
}
layer {
  name: "Scale22"
  type: "Scale"
  bottom: "Convolution22"
  top: "Convolution22"
  scale_param {
    bias_term: true
  }
}
layer {
  name: "ReLU22"
  type: "ReLU"
  bottom: "Convolution22"
  top: "Convolution22"
}
layer {
  name: "Convolution23"
  type: "Convolution"
  bottom: "Convolution22"
  top: "Convolution23"
  convolution_param {
    num_output: 16
    bias_term: true
    pad: 1
    kernel_size: 3
    stride: 1
    weight_filler {
      type: "msra"
    }
    bias_filler {
      type: "constant"
    }
  }
}
layer {
  name: "BatchNorm23"
  type: "BatchNorm"
  bottom: "Convolution23"
  top: "Convolution23"
  param {
    lr_mult: 0
    decay_mult: 0
  }
  param {
    lr_mult: 0
    decay_mult: 0
  }
  param {
    lr_mult: 0
    decay_mult: 0
  }
}
layer {
  name: "Scale23"
  type: "Scale"
  bottom: "Convolution23"
  top: "Convolution23"
  scale_param {
    bias_term: true
  }
}
layer {
  name: "Eltwise11"
  type: "Eltwise"
  bottom: "Eltwise10"
  bottom: "Convolution23"
  top: "Eltwise11"
  eltwise_param {
    operation: SUM
  }
}
layer {
  name: "ReLU23"
  type: "ReLU"
  bottom: "Eltwise11"
  top: "Eltwise11"
}
layer {
  name: "Convolution24"
  type: "Convolution"
  bottom: "Eltwise11"
  top: "Convolution24"
  convolution_param {
    num_output: 16
    bias_term: true
    pad: 1
    kernel_size: 3
    stride: 1
    weight_filler {
      type: "msra"
    }
    bias_filler {
      type: "constant"
    }
  }
}
layer {
  name: "BatchNorm24"
  type: "BatchNorm"
  bottom: "Convolution24"
  top: "Convolution24"
  param {
    lr_mult: 0
    decay_mult: 0
  }
  param {
    lr_mult: 0
    decay_mult: 0
  }
  param {
    lr_mult: 0
    decay_mult: 0
  }
}
layer {
  name: "Scale24"
  type: "Scale"
  bottom: "Convolution24"
  top: "Convolution24"
  scale_param {
    bias_term: true
  }
}
layer {
  name: "ReLU24"
  type: "ReLU"
  bottom: "Convolution24"
  top: "Convolution24"
}
layer {
  name: "Convolution25"
  type: "Convolution"
  bottom: "Convolution24"
  top: "Convolution25"
  convolution_param {
    num_output: 16
    bias_term: true
    pad: 1
    kernel_size: 3
    stride: 1
    weight_filler {
      type: "msra"
    }
    bias_filler {
      type: "constant"
    }
  }
}
layer {
  name: "BatchNorm25"
  type: "BatchNorm"
  bottom: "Convolution25"
  top: "Convolution25"
  param {
    lr_mult: 0
    decay_mult: 0
  }
  param {
    lr_mult: 0
    decay_mult: 0
  }
  param {
    lr_mult: 0
    decay_mult: 0
  }
}
layer {
  name: "Scale25"
  type: "Scale"
  bottom: "Convolution25"
  top: "Convolution25"
  scale_param {
    bias_term: true
  }
}
layer {
  name: "Eltwise12"
  type: "Eltwise"
  bottom: "Eltwise11"
  bottom: "Convolution25"
  top: "Eltwise12"
  eltwise_param {
    operation: SUM
  }
}
layer {
  name: "ReLU25"
  type: "ReLU"
  bottom: "Eltwise12"
  top: "Eltwise12"
}
layer {
  name: "Convolution26"
  type: "Convolution"
  bottom: "Eltwise12"
  top: "Convolution26"
  convolution_param {
    num_output: 16
    bias_term: true
    pad: 1
    kernel_size: 3
    stride: 1
    weight_filler {
      type: "msra"
    }
    bias_filler {
      type: "constant"
    }
  }
}
layer {
  name: "BatchNorm26"
  type: "BatchNorm"
  bottom: "Convolution26"
  top: "Convolution26"
  param {
    lr_mult: 0
    decay_mult: 0
  }
  param {
    lr_mult: 0
    decay_mult: 0
  }
  param {
    lr_mult: 0
    decay_mult: 0
  }
}
layer {
  name: "Scale26"
  type: "Scale"
  bottom: "Convolution26"
  top: "Convolution26"
  scale_param {
    bias_term: true
  }
}
layer {
  name: "ReLU26"
  type: "ReLU"
  bottom: "Convolution26"
  top: "Convolution26"
}
layer {
  name: "Convolution27"
  type: "Convolution"
  bottom: "Convolution26"
  top: "Convolution27"
  convolution_param {
    num_output: 16
    bias_term: true
    pad: 1
    kernel_size: 3
    stride: 1
    weight_filler {
      type: "msra"
    }
    bias_filler {
      type: "constant"
    }
  }
}
layer {
  name: "BatchNorm27"
  type: "BatchNorm"
  bottom: "Convolution27"
  top: "Convolution27"
  param {
    lr_mult: 0
    decay_mult: 0
  }
  param {
    lr_mult: 0
    decay_mult: 0
  }
  param {
    lr_mult: 0
    decay_mult: 0
  }
}
layer {
  name: "Scale27"
  type: "Scale"
  bottom: "Convolution27"
  top: "Convolution27"
  scale_param {
    bias_term: true
  }
}
layer {
  name: "Eltwise13"
  type: "Eltwise"
  bottom: "Eltwise12"
  bottom: "Convolution27"
  top: "Eltwise13"
  eltwise_param {
    operation: SUM
  }
}
layer {
  name: "ReLU27"
  type: "ReLU"
  bottom: "Eltwise13"
  top: "Eltwise13"
}
layer {
  name: "Convolution28"
  type: "Convolution"
  bottom: "Eltwise13"
  top: "Convolution28"
  convolution_param {
    num_output: 16
    bias_term: true
    pad: 1
    kernel_size: 3
    stride: 1
    weight_filler {
      type: "msra"
    }
    bias_filler {
      type: "constant"
    }
  }
}
layer {
  name: "BatchNorm28"
  type: "BatchNorm"
  bottom: "Convolution28"
  top: "Convolution28"
  param {
    lr_mult: 0
    decay_mult: 0
  }
  param {
    lr_mult: 0
    decay_mult: 0
  }
  param {
    lr_mult: 0
    decay_mult: 0
  }
}
layer {
  name: "Scale28"
  type: "Scale"
  bottom: "Convolution28"
  top: "Convolution28"
  scale_param {
    bias_term: true
  }
}
layer {
  name: "ReLU28"
  type: "ReLU"
  bottom: "Convolution28"
  top: "Convolution28"
}
layer {
  name: "Convolution29"
  type: "Convolution"
  bottom: "Convolution28"
  top: "Convolution29"
  convolution_param {
    num_output: 16
    bias_term: true
    pad: 1
    kernel_size: 3
    stride: 1
    weight_filler {
      type: "msra"
    }
    bias_filler {
      type: "constant"
    }
  }
}
layer {
  name: "BatchNorm29"
  type: "BatchNorm"
  bottom: "Convolution29"
  top: "Convolution29"
  param {
    lr_mult: 0
    decay_mult: 0
  }
  param {
    lr_mult: 0
    decay_mult: 0
  }
  param {
    lr_mult: 0
    decay_mult: 0
  }
}
layer {
  name: "Scale29"
  type: "Scale"
  bottom: "Convolution29"
  top: "Convolution29"
  scale_param {
    bias_term: true
  }
}
layer {
  name: "Eltwise14"
  type: "Eltwise"
  bottom: "Eltwise13"
  bottom: "Convolution29"
  top: "Eltwise14"
  eltwise_param {
    operation: SUM
  }
}
layer {
  name: "ReLU29"
  type: "ReLU"
  bottom: "Eltwise14"
  top: "Eltwise14"
}
layer {
  name: "Convolution30"
  type: "Convolution"
  bottom: "Eltwise14"
  top: "Convolution30"
  convolution_param {
    num_output: 16
    bias_term: true
    pad: 1
    kernel_size: 3
    stride: 1
    weight_filler {
      type: "msra"
    }
    bias_filler {
      type: "constant"
    }
  }
}
layer {
  name: "BatchNorm30"
  type: "BatchNorm"
  bottom: "Convolution30"
  top: "Convolution30"
  param {
    lr_mult: 0
    decay_mult: 0
  }
  param {
    lr_mult: 0
    decay_mult: 0
  }
  param {
    lr_mult: 0
    decay_mult: 0
  }
}
layer {
  name: "Scale30"
  type: "Scale"
  bottom: "Convolution30"
  top: "Convolution30"
  scale_param {
    bias_term: true
  }
}
layer {
  name: "ReLU30"
  type: "ReLU"
  bottom: "Convolution30"
  top: "Convolution30"
}
layer {
  name: "Convolution31"
  type: "Convolution"
  bottom: "Convolution30"
  top: "Convolution31"
  convolution_param {
    num_output: 16
    bias_term: true
    pad: 1
    kernel_size: 3
    stride: 1
    weight_filler {
      type: "msra"
    }
    bias_filler {
      type: "constant"
    }
  }
}
layer {
  name: "BatchNorm31"
  type: "BatchNorm"
  bottom: "Convolution31"
  top: "Convolution31"
  param {
    lr_mult: 0
    decay_mult: 0
  }
  param {
    lr_mult: 0
    decay_mult: 0
  }
  param {
    lr_mult: 0
    decay_mult: 0
  }
}
layer {
  name: "Scale31"
  type: "Scale"
  bottom: "Convolution31"
  top: "Convolution31"
  scale_param {
    bias_term: true
  }
}
layer {
  name: "Eltwise15"
  type: "Eltwise"
  bottom: "Eltwise14"
  bottom: "Convolution31"
  top: "Eltwise15"
  eltwise_param {
    operation: SUM
  }
}
layer {
  name: "ReLU31"
  type: "ReLU"
  bottom: "Eltwise15"
  top: "Eltwise15"
}
layer {
  name: "Convolution32"
  type: "Convolution"
  bottom: "Eltwise15"
  top: "Convolution32"
  convolution_param {
    num_output: 16
    bias_term: true
    pad: 1
    kernel_size: 3
    stride: 1
    weight_filler {
      type: "msra"
    }
    bias_filler {
      type: "constant"
    }
  }
}
layer {
  name: "BatchNorm32"
  type: "BatchNorm"
  bottom: "Convolution32"
  top: "Convolution32"
  param {
    lr_mult: 0
    decay_mult: 0
  }
  param {
    lr_mult: 0
    decay_mult: 0
  }
  param {
    lr_mult: 0
    decay_mult: 0
  }
}
layer {
  name: "Scale32"
  type: "Scale"
  bottom: "Convolution32"
  top: "Convolution32"
  scale_param {
    bias_term: true
  }
}
layer {
  name: "ReLU32"
  type: "ReLU"
  bottom: "Convolution32"
  top: "Convolution32"
}
layer {
  name: "Convolution33"
  type: "Convolution"
  bottom: "Convolution32"
  top: "Convolution33"
  convolution_param {
    num_output: 16
    bias_term: true
    pad: 1
    kernel_size: 3
    stride: 1
    weight_filler {
      type: "msra"
    }
    bias_filler {
      type: "constant"
    }
  }
}
layer {
  name: "BatchNorm33"
  type: "BatchNorm"
  bottom: "Convolution33"
  top: "Convolution33"
  param {
    lr_mult: 0
    decay_mult: 0
  }
  param {
    lr_mult: 0
    decay_mult: 0
  }
  param {
    lr_mult: 0
    decay_mult: 0
  }
}
layer {
  name: "Scale33"
  type: "Scale"
  bottom: "Convolution33"
  top: "Convolution33"
  scale_param {
    bias_term: true
  }
}
layer {
  name: "Eltwise16"
  type: "Eltwise"
  bottom: "Eltwise15"
  bottom: "Convolution33"
  top: "Eltwise16"
  eltwise_param {
    operation: SUM
  }
}
layer {
  name: "ReLU33"
  type: "ReLU"
  bottom: "Eltwise16"
  top: "Eltwise16"
}
layer {
  name: "Convolution34"
  type: "Convolution"
  bottom: "Eltwise16"
  top: "Convolution34"
  convolution_param {
    num_output: 16
    bias_term: true
    pad: 1
    kernel_size: 3
    stride: 1
    weight_filler {
      type: "msra"
    }
    bias_filler {
      type: "constant"
    }
  }
}
layer {
  name: "BatchNorm34"
  type: "BatchNorm"
  bottom: "Convolution34"
  top: "Convolution34"
  param {
    lr_mult: 0
    decay_mult: 0
  }
  param {
    lr_mult: 0
    decay_mult: 0
  }
  param {
    lr_mult: 0
    decay_mult: 0
  }
}
layer {
  name: "Scale34"
  type: "Scale"
  bottom: "Convolution34"
  top: "Convolution34"
  scale_param {
    bias_term: true
  }
}
layer {
  name: "ReLU34"
  type: "ReLU"
  bottom: "Convolution34"
  top: "Convolution34"
}
layer {
  name: "Convolution35"
  type: "Convolution"
  bottom: "Convolution34"
  top: "Convolution35"
  convolution_param {
    num_output: 16
    bias_term: true
    pad: 1
    kernel_size: 3
    stride: 1
    weight_filler {
      type: "msra"
    }
    bias_filler {
      type: "constant"
    }
  }
}
layer {
  name: "BatchNorm35"
  type: "BatchNorm"
  bottom: "Convolution35"
  top: "Convolution35"
  param {
    lr_mult: 0
    decay_mult: 0
  }
  param {
    lr_mult: 0
    decay_mult: 0
  }
  param {
    lr_mult: 0
    decay_mult: 0
  }
}
layer {
  name: "Scale35"
  type: "Scale"
  bottom: "Convolution35"
  top: "Convolution35"
  scale_param {
    bias_term: true
  }
}
layer {
  name: "Eltwise17"
  type: "Eltwise"
  bottom: "Eltwise16"
  bottom: "Convolution35"
  top: "Eltwise17"
  eltwise_param {
    operation: SUM
  }
}
layer {
  name: "ReLU35"
  type: "ReLU"
  bottom: "Eltwise17"
  top: "Eltwise17"
}
layer {
  name: "Convolution36"
  type: "Convolution"
  bottom: "Eltwise17"
  top: "Convolution36"
  convolution_param {
    num_output: 16
    bias_term: true
    pad: 1
    kernel_size: 3
    stride: 1
    weight_filler {
      type: "msra"
    }
    bias_filler {
      type: "constant"
    }
  }
}
layer {
I0612 11:05:13.895017  4990 layer_factory.hpp:77] Creating layer Data1
I0612 11:05:13.896220  4990 net.cpp:190] Creating Layer Data1
I0612 11:05:13.896245  4990 net.cpp:589] Data1 -> Data1
I0612 11:05:13.896308  4990 net.cpp:589] Data1 -> Data2
I0612 11:05:13.936085  4994 db_leveldb.cpp:18] Opened leveldb /scratch/pas282/caffe/examples/cifar10/cifar10_train_leveldb_padding0
I0612 11:05:13.972379  4990 data_layer.cpp:41] output data size: 128,3,32,32
I0612 11:05:13.978691  4990 net.cpp:240] Setting up Data1
I0612 11:05:13.978737  4990 net.cpp:247] Top shape: 128 3 32 32 (393216)
I0612 11:05:13.978750  4990 net.cpp:247] Top shape: 128 (128)
I0612 11:05:13.978757  4990 net.cpp:255] Memory required for data: 1573376
I0612 11:05:13.978776  4990 layer_factory.hpp:77] Creating layer Convolution1
I0612 11:05:13.978814  4990 net.cpp:190] Creating Layer Convolution1
I0612 11:05:13.978828  4990 net.cpp:615] Convolution1 <- Data1
I0612 11:05:13.978858  4990 net.cpp:589] Convolution1 -> Convolution1
I0612 11:05:13.980504  4990 net.cpp:240] Setting up Convolution1
I0612 11:05:13.980538  4990 net.cpp:247] Top shape: 128 16 32 32 (2097152)
I0612 11:05:13.980546  4990 net.cpp:255] Memory required for data: 9961984
I0612 11:05:13.980586  4990 layer_factory.hpp:77] Creating layer BatchNorm1
I0612 11:05:13.980618  4990 net.cpp:190] Creating Layer BatchNorm1
I0612 11:05:13.980625  4990 net.cpp:615] BatchNorm1 <- Convolution1
I0612 11:05:13.980643  4990 net.cpp:576] BatchNorm1 -> Convolution1 (in-place)
I0612 11:05:13.980981  4990 net.cpp:240] Setting up BatchNorm1
I0612 11:05:13.980998  4990 net.cpp:247] Top shape: 128 16 32 32 (2097152)
I0612 11:05:13.981003  4990 net.cpp:255] Memory required for data: 18350592
I0612 11:05:13.981030  4990 layer_factory.hpp:77] Creating layer Scale1
I0612 11:05:13.981045  4990 net.cpp:190] Creating Layer Scale1
I0612 11:05:13.981051  4990 net.cpp:615] Scale1 <- Convolution1
I0612 11:05:13.981065  4990 net.cpp:576] Scale1 -> Convolution1 (in-place)
I0612 11:05:13.981130  4990 layer_factory.hpp:77] Creating layer Scale1
I0612 11:05:13.981339  4990 net.cpp:240] Setting up Scale1
I0612 11:05:13.981360  4990 net.cpp:247] Top shape: 128 16 32 32 (2097152)
I0612 11:05:13.981367  4990 net.cpp:255] Memory required for data: 26739200
I0612 11:05:13.981386  4990 layer_factory.hpp:77] Creating layer ReLU1
I0612 11:05:13.981402  4990 net.cpp:190] Creating Layer ReLU1
I0612 11:05:13.981408  4990 net.cpp:615] ReLU1 <- Convolution1
I0612 11:05:13.981418  4990 net.cpp:576] ReLU1 -> Convolution1 (in-place)
I0612 11:05:13.981439  4990 net.cpp:240] Setting up ReLU1
I0612 11:05:13.981449  4990 net.cpp:247] Top shape: 128 16 32 32 (2097152)
I0612 11:05:13.981456  4990 net.cpp:255] Memory required for data: 35127808
I0612 11:05:13.981462  4990 layer_factory.hpp:77] Creating layer Convolution1_ReLU1_0_split
I0612 11:05:13.981482  4990 net.cpp:190] Creating Layer Convolution1_ReLU1_0_split
I0612 11:05:13.981488  4990 net.cpp:615] Convolution1_ReLU1_0_split <- Convolution1
I0612 11:05:13.981503  4990 net.cpp:589] Convolution1_ReLU1_0_split -> Convolution1_ReLU1_0_split_0
I0612 11:05:13.981514  4990 net.cpp:589] Convolution1_ReLU1_0_split -> Convolution1_ReLU1_0_split_1
I0612 11:05:13.981583  4990 net.cpp:240] Setting up Convolution1_ReLU1_0_split
I0612 11:05:13.981600  4990 net.cpp:247] Top shape: 128 16 32 32 (2097152)
I0612 11:05:13.981611  4990 net.cpp:247] Top shape: 128 16 32 32 (2097152)
I0612 11:05:13.981616  4990 net.cpp:255] Memory required for data: 51905024
I0612 11:05:13.981622  4990 layer_factory.hpp:77] Creating layer Convolution2
I0612 11:05:13.981639  4990 net.cpp:190] Creating Layer Convolution2
I0612 11:05:13.981647  4990 net.cpp:615] Convolution2 <- Convolution1_ReLU1_0_split_0
I0612 11:05:13.981659  4990 net.cpp:589] Convolution2 -> Convolution2
I0612 11:05:13.983454  4990 net.cpp:240] Setting up Convolution2
I0612 11:05:13.983481  4990 net.cpp:247] Top shape: 128 16 32 32 (2097152)
I0612 11:05:13.983489  4990 net.cpp:255] Memory required for data: 60293632
I0612 11:05:13.983510  4990 layer_factory.hpp:77] Creating layer BatchNorm2
I0612 11:05:13.983530  4990 net.cpp:190] Creating Layer BatchNorm2
I0612 11:05:13.983537  4990 net.cpp:615] BatchNorm2 <- Convolution2
I0612 11:05:13.983548  4990 net.cpp:576] BatchNorm2 -> Convolution2 (in-place)
I0612 11:05:13.983865  4990 net.cpp:240] Setting up BatchNorm2
I0612 11:05:13.983880  4990 net.cpp:247] Top shape: 128 16 32 32 (2097152)
I0612 11:05:13.983886  4990 net.cpp:255] Memory required for data: 68682240
I0612 11:05:13.983904  4990 layer_factory.hpp:77] Creating layer Scale2
I0612 11:05:13.983924  4990 net.cpp:190] Creating Layer Scale2
I0612 11:05:13.983932  4990 net.cpp:615] Scale2 <- Convolution2
I0612 11:05:13.983944  4990 net.cpp:576] Scale2 -> Convolution2 (in-place)
I0612 11:05:13.984004  4990 layer_factory.hpp:77] Creating layer Scale2
I0612 11:05:13.984186  4990 net.cpp:240] Setting up Scale2
I0612 11:05:13.984201  4990 net.cpp:247] Top shape: 128 16 32 32 (2097152)
I0612 11:05:13.984207  4990 net.cpp:255] Memory required for data: 77070848
I0612 11:05:13.984222  4990 layer_factory.hpp:77] Creating layer ReLU2
I0612 11:05:13.984235  4990 net.cpp:190] Creating Layer ReLU2
I0612 11:05:13.984242  4990 net.cpp:615] ReLU2 <- Convolution2
I0612 11:05:13.984251  4990 net.cpp:576] ReLU2 -> Convolution2 (in-place)
I0612 11:05:13.984262  4990 net.cpp:240] Setting up ReLU2
I0612 11:05:13.984272  4990 net.cpp:247] Top shape: 128 16 32 32 (2097152)
I0612 11:05:13.984278  4990 net.cpp:255] Memory required for data: 85459456
I0612 11:05:13.984285  4990 layer_factory.hpp:77] Creating layer Convolution3
I0612 11:05:13.984305  4990 net.cpp:190] Creating Layer Convolution3
I0612 11:05:13.984313  4990 net.cpp:615] Convolution3 <- Convolution2
I0612 11:05:13.984328  4990 net.cpp:589] Convolution3 -> Convolution3
I0612 11:05:13.984812  4990 net.cpp:240] Setting up Convolution3
I0612 11:05:13.984829  4990 net.cpp:247] Top shape: 128 16 32 32 (2097152)
I0612 11:05:13.984836  4990 net.cpp:255] Memory required for data: 93848064
I0612 11:05:13.984851  4990 layer_factory.hpp:77] Creating layer BatchNorm3
I0612 11:05:13.984868  4990 net.cpp:190] Creating Layer BatchNorm3
I0612 11:05:13.984881  4990 net.cpp:615] BatchNorm3 <- Convolution3
I0612 11:05:13.984896  4990 net.cpp:576] BatchNorm3 -> Convolution3 (in-place)
I0612 11:05:13.985198  4990 net.cpp:240] Setting up BatchNorm3
I0612 11:05:13.985213  4990 net.cpp:247] Top shape: 128 16 32 32 (2097152)
I0612 11:05:13.985219  4990 net.cpp:255] Memory required for data: 102236672
I0612 11:05:13.985247  4990 layer_factory.hpp:77] Creating layer Scale3
I0612 11:05:13.985260  4990 net.cpp:190] Creating Layer Scale3
I0612 11:05:13.985266  4990 net.cpp:615] Scale3 <- Convolution3
I0612 11:05:13.985276  4990 net.cpp:576] Scale3 -> Convolution3 (in-place)
I0612 11:05:13.985342  4990 layer_factory.hpp:77] Creating layer Scale3
I0612 11:05:13.985534  4990 net.cpp:240] Setting up Scale3
I0612 11:05:13.985546  4990 net.cpp:247] Top shape: 128 16 32 32 (2097152)
I0612 11:05:13.985553  4990 net.cpp:255] Memory required for data: 110625280
I0612 11:05:13.985566  4990 layer_factory.hpp:77] Creating layer Eltwise1
I0612 11:05:13.985585  4990 net.cpp:190] Creating Layer Eltwise1
I0612 11:05:13.985594  4990 net.cpp:615] Eltwise1 <- Convolution1_ReLU1_0_split_1
I0612 11:05:13.985601  4990 net.cpp:615] Eltwise1 <- Convolution3
I0612 11:05:13.985611  4990 net.cpp:589] Eltwise1 -> Eltwise1
I0612 11:05:13.985800  4990 net.cpp:240] Setting up Eltwise1
I0612 11:05:13.985816  4990 net.cpp:247] Top shape: 128 16 32 32 (2097152)
I0612 11:05:13.985823  4990 net.cpp:255] Memory required for data: 119013888
I0612 11:05:13.985831  4990 layer_factory.hpp:77] Creating layer ReLU3
I0612 11:05:13.985841  4990 net.cpp:190] Creating Layer ReLU3
I0612 11:05:13.985847  4990 net.cpp:615] ReLU3 <- Eltwise1
I0612 11:05:13.985865  4990 net.cpp:576] ReLU3 -> Eltwise1 (in-place)
I0612 11:05:13.985877  4990 net.cpp:240] Setting up ReLU3
I0612 11:05:13.985885  4990 net.cpp:247] Top shape: 128 16 32 32 (2097152)
I0612 11:05:13.985893  4990 net.cpp:255] Memory required for data: 127402496
I0612 11:05:13.985898  4990 layer_factory.hpp:77] Creating layer Eltwise1_ReLU3_0_split
I0612 11:05:13.985908  4990 net.cpp:190] Creating Layer Eltwise1_ReLU3_0_split
I0612 11:05:13.985914  4990 net.cpp:615] Eltwise1_ReLU3_0_split <- Eltwise1
I0612 11:05:13.985923  4990 net.cpp:589] Eltwise1_ReLU3_0_split -> Eltwise1_ReLU3_0_split_0
I0612 11:05:13.985934  4990 net.cpp:589] Eltwise1_ReLU3_0_split -> Eltwise1_ReLU3_0_split_1
I0612 11:05:13.985993  4990 net.cpp:240] Setting up Eltwise1_ReLU3_0_split
I0612 11:05:13.986006  4990 net.cpp:247] Top shape: 128 16 32 32 (2097152)
I0612 11:05:13.986013  4990 net.cpp:247] Top shape: 128 16 32 32 (2097152)
I0612 11:05:13.986019  4990 net.cpp:255] Memory required for data: 144179712
I0612 11:05:13.986027  4990 layer_factory.hpp:77] Creating layer Convolution4
I0612 11:05:13.986045  4990 net.cpp:190] Creating Layer Convolution4
I0612 11:05:13.986052  4990 net.cpp:615] Convolution4 <- Eltwise1_ReLU3_0_split_0
I0612 11:05:13.986068  4990 net.cpp:589] Convolution4 -> Convolution4
I0612 11:05:13.986567  4990 net.cpp:240] Setting up Convolution4
I0612 11:05:13.986584  4990 net.cpp:247] Top shape: 128 16 32 32 (2097152)
I0612 11:05:13.986591  4990 net.cpp:255] Memory required for data: 152568320
I0612 11:05:13.986605  4990 layer_factory.hpp:77] Creating layer BatchNorm4
I0612 11:05:13.986618  4990 net.cpp:190] Creating Layer BatchNorm4
I0612 11:05:13.986625  4990 net.cpp:615] BatchNorm4 <- Convolution4
I0612 11:05:13.986636  4990 net.cpp:576] BatchNorm4 -> Convolution4 (in-place)
I0612 11:05:13.986951  4990 net.cpp:240] Setting up BatchNorm4
I0612 11:05:13.986966  4990 net.cpp:247] Top shape: 128 16 32 32 (2097152)
I0612 11:05:13.986973  4990 net.cpp:255] Memory required for data: 160956928
I0612 11:05:13.986991  4990 layer_factory.hpp:77] Creating layer Scale4
I0612 11:05:13.987004  4990 net.cpp:190] Creating Layer Scale4
I0612 11:05:13.987011  4990 net.cpp:615] Scale4 <- Convolution4
I0612 11:05:13.987021  4990 net.cpp:576] Scale4 -> Convolution4 (in-place)
I0612 11:05:13.987087  4990 layer_factory.hpp:77] Creating layer Scale4
I0612 11:05:13.987278  4990 net.cpp:240] Setting up Scale4
I0612 11:05:13.987299  4990 net.cpp:247] Top shape: 128 16 32 32 (2097152)
I0612 11:05:13.987306  4990 net.cpp:255] Memory required for data: 169345536
I0612 11:05:13.987329  4990 layer_factory.hpp:77] Creating layer ReLU4
I0612 11:05:13.987341  4990 net.cpp:190] Creating Layer ReLU4
I0612 11:05:13.987350  4990 net.cpp:615] ReLU4 <- Convolution4
I0612 11:05:13.987363  4990 net.cpp:576] ReLU4 -> Convolution4 (in-place)
I0612 11:05:13.987375  4990 net.cpp:240] Setting up ReLU4
I0612 11:05:13.987385  4990 net.cpp:247] Top shape: 128 16 32 32 (2097152)
I0612 11:05:13.987390  4990 net.cpp:255] Memory required for data: 177734144
I0612 11:05:13.987396  4990 layer_factory.hpp:77] Creating layer Convolution5
I0612 11:05:13.987412  4990 net.cpp:190] Creating Layer Convolution5
I0612 11:05:13.987419  4990 net.cpp:615] Convolution5 <- Convolution4
I0612 11:05:13.987433  4990 net.cpp:589] Convolution5 -> Convolution5
I0612 11:05:13.987936  4990 net.cpp:240] Setting up Convolution5
I0612 11:05:13.987952  4990 net.cpp:247] Top shape: 128 16 32 32 (2097152)
I0612 11:05:13.987959  4990 net.cpp:255] Memory required for data: 186122752
I0612 11:05:13.987973  4990 layer_factory.hpp:77] Creating layer BatchNorm5
I0612 11:05:13.987985  4990 net.cpp:190] Creating Layer BatchNorm5
I0612 11:05:13.987992  4990 net.cpp:615] BatchNorm5 <- Convolution5
I0612 11:05:13.988004  4990 net.cpp:576] BatchNorm5 -> Convolution5 (in-place)
I0612 11:05:13.988350  4990 net.cpp:240] Setting up BatchNorm5
I0612 11:05:13.988366  4990 net.cpp:247] Top shape: 128 16 32 32 (2097152)
I0612 11:05:13.988373  4990 net.cpp:255] Memory required for data: 194511360
I0612 11:05:13.988401  4990 layer_factory.hpp:77] Creating layer Scale5
I0612 11:05:13.988415  4990 net.cpp:190] Creating Layer Scale5
I0612 11:05:13.988422  4990 net.cpp:615] Scale5 <- Convolution5
I0612 11:05:13.988432  4990 net.cpp:576] Scale5 -> Convolution5 (in-place)
I0612 11:05:13.988625  4990 layer_factory.hpp:77] Creating layer Scale5
I0612 11:05:13.988826  4990 net.cpp:240] Setting up Scale5
I0612 11:05:13.988840  4990 net.cpp:247] Top shape: 128 16 32 32 (2097152)
I0612 11:05:13.988847  4990 net.cpp:255] Memory required for data: 202899968
I0612 11:05:13.988862  4990 layer_factory.hpp:77] Creating layer Eltwise2
I0612 11:05:13.988873  4990 net.cpp:190] Creating Layer Eltwise2
I0612 11:05:13.988879  4990 net.cpp:615] Eltwise2 <- Eltwise1_ReLU3_0_split_1
I0612 11:05:13.988888  4990 net.cpp:615] Eltwise2 <- Convolution5
I0612 11:05:13.988901  4990 net.cpp:589] Eltwise2 -> Eltwise2
I0612 11:05:13.988945  4990 net.cpp:240] Setting up Eltwise2
I0612 11:05:13.988955  4990 net.cpp:247] Top shape: 128 16 32 32 (2097152)
I0612 11:05:13.988961  4990 net.cpp:255] Memory required for data: 211288576
I0612 11:05:13.988967  4990 layer_factory.hpp:77] Creating layer ReLU5
I0612 11:05:13.988978  4990 net.cpp:190] Creating Layer ReLU5
I0612 11:05:13.988986  4990 net.cpp:615] ReLU5 <- Eltwise2
I0612 11:05:13.988993  4990 net.cpp:576] ReLU5 -> Eltwise2 (in-place)
I0612 11:05:13.989004  4990 net.cpp:240] Setting up ReLU5
I0612 11:05:13.989013  4990 net.cpp:247] Top shape: 128 16 32 32 (2097152)
I0612 11:05:13.989019  4990 net.cpp:255] Memory required for data: 219677184
I0612 11:05:13.989025  4990 layer_factory.hpp:77] Creating layer Eltwise2_ReLU5_0_split
I0612 11:05:13.989039  4990 net.cpp:190] Creating Layer Eltwise2_ReLU5_0_split
I0612 11:05:13.989047  4990 net.cpp:615] Eltwise2_ReLU5_0_split <- Eltwise2
I0612 11:05:13.989055  4990 net.cpp:589] Eltwise2_ReLU5_0_split -> Eltwise2_ReLU5_0_split_0
I0612 11:05:13.989066  4990 net.cpp:589] Eltwise2_ReLU5_0_split -> Eltwise2_ReLU5_0_split_1
I0612 11:05:13.989127  4990 net.cpp:240] Setting up Eltwise2_ReLU5_0_split
I0612 11:05:13.989137  4990 net.cpp:247] Top shape: 128 16 32 32 (2097152)
I0612 11:05:13.989145  4990 net.cpp:247] Top shape: 128 16 32 32 (2097152)
I0612 11:05:13.989151  4990 net.cpp:255] Memory required for data: 236454400
I0612 11:05:13.989157  4990 layer_factory.hpp:77] Creating layer Convolution6
I0612 11:05:13.989172  4990 net.cpp:190] Creating Layer Convolution6
I0612 11:05:13.989186  4990 net.cpp:615] Convolution6 <- Eltwise2_ReLU5_0_split_0
I0612 11:05:13.989197  4990 net.cpp:589] Convolution6 -> Convolution6
I0612 11:05:13.989707  4990 net.cpp:240] Setting up Convolution6
I0612 11:05:13.989724  4990 net.cpp:247] Top shape: 128 16 32 32 (2097152)
I0612 11:05:13.989730  4990 net.cpp:255] Memory required for data: 244843008
I0612 11:05:13.989744  4990 layer_factory.hpp:77] Creating layer BatchNorm6
I0612 11:05:13.989759  4990 net.cpp:190] Creating Layer BatchNorm6
I0612 11:05:13.989766  4990 net.cpp:615] BatchNorm6 <- Convolution6
I0612 11:05:13.989775  4990 net.cpp:576] BatchNorm6 -> Convolution6 (in-place)
I0612 11:05:13.990082  4990 net.cpp:240] Setting up BatchNorm6
I0612 11:05:13.990094  4990 net.cpp:247] Top shape: 128 16 32 32 (2097152)
I0612 11:05:13.990100  4990 net.cpp:255] Memory required for data: 253231616
I0612 11:05:13.990118  4990 layer_factory.hpp:77] Creating layer Scale6
I0612 11:05:13.990130  4990 net.cpp:190] Creating Layer Scale6
I0612 11:05:13.990136  4990 net.cpp:615] Scale6 <- Convolution6
I0612 11:05:13.990146  4990 net.cpp:576] Scale6 -> Convolution6 (in-place)
I0612 11:05:13.990213  4990 layer_factory.hpp:77] Creating layer Scale6
I0612 11:05:13.990406  4990 net.cpp:240] Setting up Scale6
I0612 11:05:13.990420  4990 net.cpp:247] Top shape: 128 16 32 32 (2097152)
I0612 11:05:13.990427  4990 net.cpp:255] Memory required for data: 261620224
I0612 11:05:13.990447  4990 layer_factory.hpp:77] Creating layer ReLU6
I0612 11:05:13.990463  4990 net.cpp:190] Creating Layer ReLU6
I0612 11:05:13.990469  4990 net.cpp:615] ReLU6 <- Convolution6
I0612 11:05:13.990478  4990 net.cpp:576] ReLU6 -> Convolution6 (in-place)
I0612 11:05:13.990490  4990 net.cpp:240] Setting up ReLU6
I0612 11:05:13.990499  4990 net.cpp:247] Top shape: 128 16 32 32 (2097152)
I0612 11:05:13.990505  4990 net.cpp:255] Memory required for data: 270008832
I0612 11:05:13.990511  4990 layer_factory.hpp:77] Creating layer Convolution7
I0612 11:05:13.990532  4990 net.cpp:190] Creating Layer Convolution7
I0612 11:05:13.990540  4990 net.cpp:615] Convolution7 <- Convolution6
I0612 11:05:13.990556  4990 net.cpp:589] Convolution7 -> Convolution7
I0612 11:05:13.991066  4990 net.cpp:240] Setting up Convolution7
I0612 11:05:13.991086  4990 net.cpp:247] Top shape: 128 16 32 32 (2097152)
I0612 11:05:13.991093  4990 net.cpp:255] Memory required for data: 278397440
I0612 11:05:13.991107  4990 layer_factory.hpp:77] Creating layer BatchNorm7
I0612 11:05:13.991119  4990 net.cpp:190] Creating Layer BatchNorm7
I0612 11:05:13.991125  4990 net.cpp:615] BatchNorm7 <- Convolution7
I0612 11:05:13.991139  4990 net.cpp:576] BatchNorm7 -> Convolution7 (in-place)
I0612 11:05:13.991441  4990 net.cpp:240] Setting up BatchNorm7
I0612 11:05:13.991453  4990 net.cpp:247] Top shape: 128 16 32 32 (2097152)
I0612 11:05:13.991459  4990 net.cpp:255] Memory required for data: 286786048
I0612 11:05:13.991477  4990 layer_factory.hpp:77] Creating layer Scale7
I0612 11:05:13.991499  4990 net.cpp:190] Creating Layer Scale7
I0612 11:05:13.991508  4990 net.cpp:615] Scale7 <- Convolution7
I0612 11:05:13.991516  4990 net.cpp:576] Scale7 -> Convolution7 (in-place)
I0612 11:05:13.991570  4990 layer_factory.hpp:77] Creating layer Scale7
I0612 11:05:13.991756  4990 net.cpp:240] Setting up Scale7
I0612 11:05:13.991770  4990 net.cpp:247] Top shape: 128 16 32 32 (2097152)
I0612 11:05:13.991775  4990 net.cpp:255] Memory required for data: 295174656
I0612 11:05:13.991792  4990 layer_factory.hpp:77] Creating layer Eltwise3
I0612 11:05:13.991803  4990 net.cpp:190] Creating Layer Eltwise3
I0612 11:05:13.991811  4990 net.cpp:615] Eltwise3 <- Eltwise2_ReLU5_0_split_1
I0612 11:05:13.991818  4990 net.cpp:615] Eltwise3 <- Convolution7
I0612 11:05:13.991827  4990 net.cpp:589] Eltwise3 -> Eltwise3
I0612 11:05:13.991883  4990 net.cpp:240] Setting up Eltwise3
I0612 11:05:13.991894  4990 net.cpp:247] Top shape: 128 16 32 32 (2097152)
I0612 11:05:13.991900  4990 net.cpp:255] Memory required for data: 303563264
I0612 11:05:13.991906  4990 layer_factory.hpp:77] Creating layer ReLU7
I0612 11:05:13.991925  4990 net.cpp:190] Creating Layer ReLU7
I0612 11:05:13.991932  4990 net.cpp:615] ReLU7 <- Eltwise3
I0612 11:05:13.991941  4990 net.cpp:576] ReLU7 -> Eltwise3 (in-place)
I0612 11:05:13.991955  4990 net.cpp:240] Setting up ReLU7
I0612 11:05:13.991963  4990 net.cpp:247] Top shape: 128 16 32 32 (2097152)
I0612 11:05:13.991969  4990 net.cpp:255] Memory required for data: 311951872
I0612 11:05:13.991974  4990 layer_factory.hpp:77] Creating layer Eltwise3_ReLU7_0_split
I0612 11:05:13.991983  4990 net.cpp:190] Creating Layer Eltwise3_ReLU7_0_split
I0612 11:05:13.991989  4990 net.cpp:615] Eltwise3_ReLU7_0_split <- Eltwise3
I0612 11:05:13.991999  4990 net.cpp:589] Eltwise3_ReLU7_0_split -> Eltwise3_ReLU7_0_split_0
I0612 11:05:13.992014  4990 net.cpp:589] Eltwise3_ReLU7_0_split -> Eltwise3_ReLU7_0_split_1
I0612 11:05:13.992069  4990 net.cpp:240] Setting up Eltwise3_ReLU7_0_split
I0612 11:05:13.992079  4990 net.cpp:247] Top shape: 128 16 32 32 (2097152)
I0612 11:05:13.992087  4990 net.cpp:247] Top shape: 128 16 32 32 (2097152)
I0612 11:05:13.992094  4990 net.cpp:255] Memory required for data: 328729088
I0612 11:05:13.992099  4990 layer_factory.hpp:77] Creating layer Convolution8
I0612 11:05:13.992117  4990 net.cpp:190] Creating Layer Convolution8
I0612 11:05:13.992125  4990 net.cpp:615] Convolution8 <- Eltwise3_ReLU7_0_split_0
I0612 11:05:13.992136  4990 net.cpp:589] Convolution8 -> Convolution8
I0612 11:05:13.992633  4990 net.cpp:240] Setting up Convolution8
I0612 11:05:13.992648  4990 net.cpp:247] Top shape: 128 16 32 32 (2097152)
I0612 11:05:13.992655  4990 net.cpp:255] Memory required for data: 337117696
I0612 11:05:13.992669  4990 layer_factory.hpp:77] Creating layer BatchNorm8
I0612 11:05:13.992683  4990 net.cpp:190] Creating Layer BatchNorm8
I0612 11:05:13.992691  4990 net.cpp:615] BatchNorm8 <- Convolution8
I0612 11:05:13.992704  4990 net.cpp:576] BatchNorm8 -> Convolution8 (in-place)
I0612 11:05:13.993008  4990 net.cpp:240] Setting up BatchNorm8
I0612 11:05:13.993021  4990 net.cpp:247] Top shape: 128 16 32 32 (2097152)
I0612 11:05:13.993026  4990 net.cpp:255] Memory required for data: 345506304
I0612 11:05:13.993043  4990 layer_factory.hpp:77] Creating layer Scale8
I0612 11:05:13.993060  4990 net.cpp:190] Creating Layer Scale8
I0612 11:05:13.993067  4990 net.cpp:615] Scale8 <- Convolution8
I0612 11:05:13.993077  4990 net.cpp:576] Scale8 -> Convolution8 (in-place)
I0612 11:05:13.993136  4990 layer_factory.hpp:77] Creating layer Scale8
I0612 11:05:13.993314  4990 net.cpp:240] Setting up Scale8
I0612 11:05:13.993327  4990 net.cpp:247] Top shape: 128 16 32 32 (2097152)
I0612 11:05:13.993333  4990 net.cpp:255] Memory required for data: 353894912
I0612 11:05:13.993348  4990 layer_factory.hpp:77] Creating layer ReLU8
I0612 11:05:13.993360  4990 net.cpp:190] Creating Layer ReLU8
I0612 11:05:13.993366  4990 net.cpp:615] ReLU8 <- Convolution8
I0612 11:05:13.993376  4990 net.cpp:576] ReLU8 -> Convolution8 (in-place)
I0612 11:05:13.993387  4990 net.cpp:240] Setting up ReLU8
I0612 11:05:13.993396  4990 net.cpp:247] Top shape: 128 16 32 32 (2097152)
I0612 11:05:13.993402  4990 net.cpp:255] Memory required for data: 362283520
I0612 11:05:13.993408  4990 layer_factory.hpp:77] Creating layer Convolution9
I0612 11:05:13.993440  4990 net.cpp:190] Creating Layer Convolution9
I0612 11:05:13.993448  4990 net.cpp:615] Convolution9 <- Convolution8
I0612 11:05:13.993458  4990 net.cpp:589] Convolution9 -> Convolution9
I0612 11:05:13.993943  4990 net.cpp:240] Setting up Convolution9
I0612 11:05:13.993959  4990 net.cpp:247] Top shape: 128 16 32 32 (2097152)
I0612 11:05:13.993965  4990 net.cpp:255] Memory required for data: 370672128
I0612 11:05:13.993981  4990 layer_factory.hpp:77] Creating layer BatchNorm9
I0612 11:05:13.993996  4990 net.cpp:190] Creating Layer BatchNorm9
I0612 11:05:13.994004  4990 net.cpp:615] BatchNorm9 <- Convolution9
I0612 11:05:13.994015  4990 net.cpp:576] BatchNorm9 -> Convolution9 (in-place)
I0612 11:05:13.994316  4990 net.cpp:240] Setting up BatchNorm9
I0612 11:05:13.994329  4990 net.cpp:247] Top shape: 128 16 32 32 (2097152)
I0612 11:05:13.994340  4990 net.cpp:255] Memory required for data: 379060736
I0612 11:05:13.994371  4990 layer_factory.hpp:77] Creating layer Scale9
I0612 11:05:13.994390  4990 net.cpp:190] Creating Layer Scale9
I0612 11:05:13.994397  4990 net.cpp:615] Scale9 <- Convolution9
I0612 11:05:13.994406  4990 net.cpp:576] Scale9 -> Convolution9 (in-place)
I0612 11:05:13.994467  4990 layer_factory.hpp:77] Creating layer Scale9
I0612 11:05:13.994663  4990 net.cpp:240] Setting up Scale9
I0612 11:05:13.994674  4990 net.cpp:247] Top shape: 128 16 32 32 (2097152)
I0612 11:05:13.994680  4990 net.cpp:255] Memory required for data: 387449344
I0612 11:05:13.994693  4990 layer_factory.hpp:77] Creating layer Eltwise4
I0612 11:05:13.994704  4990 net.cpp:190] Creating Layer Eltwise4
I0612 11:05:13.994710  4990 net.cpp:615] Eltwise4 <- Eltwise3_ReLU7_0_split_1
I0612 11:05:13.994721  4990 net.cpp:615] Eltwise4 <- Convolution9
I0612 11:05:13.994730  4990 net.cpp:589] Eltwise4 -> Eltwise4
I0612 11:05:13.994770  4990 net.cpp:240] Setting up Eltwise4
I0612 11:05:13.994781  4990 net.cpp:247] Top shape: 128 16 32 32 (2097152)
I0612 11:05:13.994786  4990 net.cpp:255] Memory required for data: 395837952
I0612 11:05:13.994792  4990 layer_factory.hpp:77] Creating layer ReLU9
I0612 11:05:13.994803  4990 net.cpp:190] Creating Layer ReLU9
I0612 11:05:13.994809  4990 net.cpp:615] ReLU9 <- Eltwise4
I0612 11:05:13.994817  4990 net.cpp:576] ReLU9 -> Eltwise4 (in-place)
I0612 11:05:13.994828  4990 net.cpp:240] Setting up ReLU9
I0612 11:05:13.994837  4990 net.cpp:247] Top shape: 128 16 32 32 (2097152)
I0612 11:05:13.994843  4990 net.cpp:255] Memory required for data: 404226560
I0612 11:05:13.994848  4990 layer_factory.hpp:77] Creating layer Eltwise4_ReLU9_0_split
I0612 11:05:13.994860  4990 net.cpp:190] Creating Layer Eltwise4_ReLU9_0_split
I0612 11:05:13.994866  4990 net.cpp:615] Eltwise4_ReLU9_0_split <- Eltwise4
I0612 11:05:13.994874  4990 net.cpp:589] Eltwise4_ReLU9_0_split -> Eltwise4_ReLU9_0_split_0
I0612 11:05:13.994884  4990 net.cpp:589] Eltwise4_ReLU9_0_split -> Eltwise4_ReLU9_0_split_1
I0612 11:05:13.994937  4990 net.cpp:240] Setting up Eltwise4_ReLU9_0_split
I0612 11:05:13.994947  4990 net.cpp:247] Top shape: 128 16 32 32 (2097152)
I0612 11:05:13.994954  4990 net.cpp:247] Top shape: 128 16 32 32 (2097152)
I0612 11:05:13.994961  4990 net.cpp:255] Memory required for data: 421003776
I0612 11:05:13.994966  4990 layer_factory.hpp:77] Creating layer Convolution10
I0612 11:05:13.994979  4990 net.cpp:190] Creating Layer Convolution10
I0612 11:05:13.994985  4990 net.cpp:615] Convolution10 <- Eltwise4_ReLU9_0_split_0
I0612 11:05:13.994995  4990 net.cpp:589] Convolution10 -> Convolution10
I0612 11:05:13.995462  4990 net.cpp:240] Setting up Convolution10
I0612 11:05:13.995476  4990 net.cpp:247] Top shape: 128 16 32 32 (2097152)
I0612 11:05:13.995482  4990 net.cpp:255] Memory required for data: 429392384
I0612 11:05:13.995514  4990 layer_factory.hpp:77] Creating layer BatchNorm10
I0612 11:05:13.995530  4990 net.cpp:190] Creating Layer BatchNorm10
I0612 11:05:13.995537  4990 net.cpp:615] BatchNorm10 <- Convolution10
I0612 11:05:13.995546  4990 net.cpp:576] BatchNorm10 -> Convolution10 (in-place)
I0612 11:05:13.995841  4990 net.cpp:240] Setting up BatchNorm10
I0612 11:05:13.995853  4990 net.cpp:247] Top shape: 128 16 32 32 (2097152)
I0612 11:05:13.995858  4990 net.cpp:255] Memory required for data: 437780992
I0612 11:05:13.995874  4990 layer_factory.hpp:77] Creating layer Scale10
I0612 11:05:13.995885  4990 net.cpp:190] Creating Layer Scale10
I0612 11:05:13.995892  4990 net.cpp:615] Scale10 <- Convolution10
I0612 11:05:13.995901  4990 net.cpp:576] Scale10 -> Convolution10 (in-place)
I0612 11:05:13.995970  4990 layer_factory.hpp:77] Creating layer Scale10
I0612 11:05:13.996142  4990 net.cpp:240] Setting up Scale10
I0612 11:05:13.996155  4990 net.cpp:247] Top shape: 128 16 32 32 (2097152)
I0612 11:05:13.996160  4990 net.cpp:255] Memory required for data: 446169600
I0612 11:05:13.996173  4990 layer_factory.hpp:77] Creating layer ReLU10
I0612 11:05:13.996191  4990 net.cpp:190] Creating Layer ReLU10
I0612 11:05:13.996199  4990 net.cpp:615] ReLU10 <- Convolution10
I0612 11:05:13.996208  4990 net.cpp:576] ReLU10 -> Convolution10 (in-place)
I0612 11:05:13.996219  4990 net.cpp:240] Setting up ReLU10
I0612 11:05:13.996228  4990 net.cpp:247] Top shape: 128 16 32 32 (2097152)
I0612 11:05:13.996234  4990 net.cpp:255] Memory required for data: 454558208
I0612 11:05:13.996240  4990 layer_factory.hpp:77] Creating layer Convolution11
I0612 11:05:13.996259  4990 net.cpp:190] Creating Layer Convolution11
I0612 11:05:13.996266  4990 net.cpp:615] Convolution11 <- Convolution10
I0612 11:05:13.996279  4990 net.cpp:589] Convolution11 -> Convolution11
I0612 11:05:13.996737  4990 net.cpp:240] Setting up Convolution11
I0612 11:05:13.996753  4990 net.cpp:247] Top shape: 128 16 32 32 (2097152)
I0612 11:05:13.996760  4990 net.cpp:255] Memory required for data: 462946816
I0612 11:05:13.996774  4990 layer_factory.hpp:77] Creating layer BatchNorm11
I0612 11:05:13.996788  4990 net.cpp:190] Creating Layer BatchNorm11
I0612 11:05:13.996793  4990 net.cpp:615] BatchNorm11 <- Convolution11
I0612 11:05:13.996803  4990 net.cpp:576] BatchNorm11 -> Convolution11 (in-place)
I0612 11:05:13.997095  4990 net.cpp:240] Setting up BatchNorm11
I0612 11:05:13.997108  4990 net.cpp:247] Top shape: 128 16 32 32 (2097152)
I0612 11:05:13.997114  4990 net.cpp:255] Memory required for data: 471335424
I0612 11:05:13.997130  4990 layer_factory.hpp:77] Creating layer Scale11
I0612 11:05:13.997141  4990 net.cpp:190] Creating Layer Scale11
I0612 11:05:13.997148  4990 net.cpp:615] Scale11 <- Convolution11
I0612 11:05:13.997155  4990 net.cpp:576] Scale11 -> Convolution11 (in-place)
I0612 11:05:13.997212  4990 layer_factory.hpp:77] Creating layer Scale11
I0612 11:05:13.997387  4990 net.cpp:240] Setting up Scale11
I0612 11:05:13.997400  4990 net.cpp:247] Top shape: 128 16 32 32 (2097152)
I0612 11:05:13.997405  4990 net.cpp:255] Memory required for data: 479724032
I0612 11:05:13.997421  4990 layer_factory.hpp:77] Creating layer Eltwise5
I0612 11:05:13.997431  4990 net.cpp:190] Creating Layer Eltwise5
I0612 11:05:13.997455  4990 net.cpp:615] Eltwise5 <- Eltwise4_ReLU9_0_split_1
I0612 11:05:13.997462  4990 net.cpp:615] Eltwise5 <- Convolution11
I0612 11:05:13.997474  4990 net.cpp:589] Eltwise5 -> Eltwise5
I0612 11:05:13.997509  4990 net.cpp:240] Setting up Eltwise5
I0612 11:05:13.997519  4990 net.cpp:247] Top shape: 128 16 32 32 (2097152)
I0612 11:05:13.997524  4990 net.cpp:255] Memory required for data: 488112640
I0612 11:05:13.997529  4990 layer_factory.hpp:77] Creating layer ReLU11
I0612 11:05:13.997542  4990 net.cpp:190] Creating Layer ReLU11
I0612 11:05:13.997548  4990 net.cpp:615] ReLU11 <- Eltwise5
I0612 11:05:13.997557  4990 net.cpp:576] ReLU11 -> Eltwise5 (in-place)
I0612 11:05:13.997570  4990 net.cpp:240] Setting up ReLU11
I0612 11:05:13.997576  4990 net.cpp:247] Top shape: 128 16 32 32 (2097152)
I0612 11:05:13.997582  4990 net.cpp:255] Memory required for data: 496501248
I0612 11:05:13.997588  4990 layer_factory.hpp:77] Creating layer Eltwise5_ReLU11_0_split
I0612 11:05:13.997597  4990 net.cpp:190] Creating Layer Eltwise5_ReLU11_0_split
I0612 11:05:13.997602  4990 net.cpp:615] Eltwise5_ReLU11_0_split <- Eltwise5
I0612 11:05:13.997614  4990 net.cpp:589] Eltwise5_ReLU11_0_split -> Eltwise5_ReLU11_0_split_0
I0612 11:05:13.997625  4990 net.cpp:589] Eltwise5_ReLU11_0_split -> Eltwise5_ReLU11_0_split_1
I0612 11:05:13.997678  4990 net.cpp:240] Setting up Eltwise5_ReLU11_0_split
I0612 11:05:13.997687  4990 net.cpp:247] Top shape: 128 16 32 32 (2097152)
I0612 11:05:13.997694  4990 net.cpp:247] Top shape: 128 16 32 32 (2097152)
I0612 11:05:13.997700  4990 net.cpp:255] Memory required for data: 513278464
I0612 11:05:13.997705  4990 layer_factory.hpp:77] Creating layer Convolution12
I0612 11:05:13.997725  4990 net.cpp:190] Creating Layer Convolution12
I0612 11:05:13.997731  4990 net.cpp:615] Convolution12 <- Eltwise5_ReLU11_0_split_0
I0612 11:05:13.997741  4990 net.cpp:589] Convolution12 -> Convolution12
I0612 11:05:13.998214  4990 net.cpp:240] Setting up Convolution12
I0612 11:05:13.998229  4990 net.cpp:247] Top shape: 128 16 32 32 (2097152)
I0612 11:05:13.998234  4990 net.cpp:255] Memory required for data: 521667072
I0612 11:05:13.998247  4990 layer_factory.hpp:77] Creating layer BatchNorm12
I0612 11:05:13.998257  4990 net.cpp:190] Creating Layer BatchNorm12
I0612 11:05:13.998263  4990 net.cpp:615] BatchNorm12 <- Convolution12
I0612 11:05:13.998275  4990 net.cpp:576] BatchNorm12 -> Convolution12 (in-place)
I0612 11:05:13.998574  4990 net.cpp:240] Setting up BatchNorm12
I0612 11:05:13.998586  4990 net.cpp:247] Top shape: 128 16 32 32 (2097152)
I0612 11:05:13.998592  4990 net.cpp:255] Memory required for data: 530055680
I0612 11:05:13.998607  4990 layer_factory.hpp:77] Creating layer Scale12
I0612 11:05:13.998618  4990 net.cpp:190] Creating Layer Scale12
I0612 11:05:13.998625  4990 net.cpp:615] Scale12 <- Convolution12
I0612 11:05:13.998636  4990 net.cpp:576] Scale12 -> Convolution12 (in-place)
I0612 11:05:13.998689  4990 layer_factory.hpp:77] Creating layer Scale12
I0612 11:05:13.998868  4990 net.cpp:240] Setting up Scale12
I0612 11:05:13.998881  4990 net.cpp:247] Top shape: 128 16 32 32 (2097152)
I0612 11:05:13.998886  4990 net.cpp:255] Memory required for data: 538444288
I0612 11:05:13.998899  4990 layer_factory.hpp:77] Creating layer ReLU12
I0612 11:05:13.998913  4990 net.cpp:190] Creating Layer ReLU12
I0612 11:05:13.998919  4990 net.cpp:615] ReLU12 <- Convolution12
I0612 11:05:13.998929  4990 net.cpp:576] ReLU12 -> Convolution12 (in-place)
I0612 11:05:13.998937  4990 net.cpp:240] Setting up ReLU12
I0612 11:05:13.998945  4990 net.cpp:247] Top shape: 128 16 32 32 (2097152)
I0612 11:05:13.998950  4990 net.cpp:255] Memory required for data: 546832896
I0612 11:05:13.998956  4990 layer_factory.hpp:77] Creating layer Convolution13
I0612 11:05:13.998975  4990 net.cpp:190] Creating Layer Convolution13
I0612 11:05:13.998980  4990 net.cpp:615] Convolution13 <- Convolution12
I0612 11:05:13.998991  4990 net.cpp:589] Convolution13 -> Convolution13
I0612 11:05:13.999454  4990 net.cpp:240] Setting up Convolution13
I0612 11:05:13.999469  4990 net.cpp:247] Top shape: 128 16 32 32 (2097152)
I0612 11:05:13.999475  4990 net.cpp:255] Memory required for data: 555221504
I0612 11:05:13.999487  4990 layer_factory.hpp:77] Creating layer BatchNorm13
I0612 11:05:13.999497  4990 net.cpp:190] Creating Layer BatchNorm13
I0612 11:05:13.999503  4990 net.cpp:615] BatchNorm13 <- Convolution13
I0612 11:05:13.999516  4990 net.cpp:576] BatchNorm13 -> Convolution13 (in-place)
I0612 11:05:13.999802  4990 net.cpp:240] Setting up BatchNorm13
I0612 11:05:13.999814  4990 net.cpp:247] Top shape: 128 16 32 32 (2097152)
I0612 11:05:13.999819  4990 net.cpp:255] Memory required for data: 563610112
I0612 11:05:13.999835  4990 layer_factory.hpp:77] Creating layer Scale13
I0612 11:05:13.999845  4990 net.cpp:190] Creating Layer Scale13
I0612 11:05:13.999850  4990 net.cpp:615] Scale13 <- Convolution13
I0612 11:05:13.999862  4990 net.cpp:576] Scale13 -> Convolution13 (in-place)
I0612 11:05:13.999912  4990 layer_factory.hpp:77] Creating layer Scale13
I0612 11:05:14.000078  4990 net.cpp:240] Setting up Scale13
I0612 11:05:14.000092  4990 net.cpp:247] Top shape: 128 16 32 32 (2097152)
I0612 11:05:14.000097  4990 net.cpp:255] Memory required for data: 571998720
I0612 11:05:14.000110  4990 layer_factory.hpp:77] Creating layer Eltwise6
I0612 11:05:14.000123  4990 net.cpp:190] Creating Layer Eltwise6
I0612 11:05:14.000130  4990 net.cpp:615] Eltwise6 <- Eltwise5_ReLU11_0_split_1
I0612 11:05:14.000138  4990 net.cpp:615] Eltwise6 <- Convolution13
I0612 11:05:14.000146  4990 net.cpp:589] Eltwise6 -> Eltwise6
I0612 11:05:14.000190  4990 net.cpp:240] Setting up Eltwise6
I0612 11:05:14.000203  4990 net.cpp:247] Top shape: 128 16 32 32 (2097152)
I0612 11:05:14.000210  4990 net.cpp:255] Memory required for data: 580387328
I0612 11:05:14.000216  4990 layer_factory.hpp:77] Creating layer ReLU13
I0612 11:05:14.000236  4990 net.cpp:190] Creating Layer ReLU13
I0612 11:05:14.000242  4990 net.cpp:615] ReLU13 <- Eltwise6
I0612 11:05:14.000258  4990 net.cpp:576] ReLU13 -> Eltwise6 (in-place)
I0612 11:05:14.000269  4990 net.cpp:240] Setting up ReLU13
I0612 11:05:14.000277  4990 net.cpp:247] Top shape: 128 16 32 32 (2097152)
I0612 11:05:14.000283  4990 net.cpp:255] Memory required for data: 588775936
I0612 11:05:14.000288  4990 layer_factory.hpp:77] Creating layer Eltwise6_ReLU13_0_split
I0612 11:05:14.000296  4990 net.cpp:190] Creating Layer Eltwise6_ReLU13_0_split
I0612 11:05:14.000301  4990 net.cpp:615] Eltwise6_ReLU13_0_split <- Eltwise6
I0612 11:05:14.000309  4990 net.cpp:589] Eltwise6_ReLU13_0_split -> Eltwise6_ReLU13_0_split_0
I0612 11:05:14.000319  4990 net.cpp:589] Eltwise6_ReLU13_0_split -> Eltwise6_ReLU13_0_split_1
I0612 11:05:14.000372  4990 net.cpp:240] Setting up Eltwise6_ReLU13_0_split
I0612 11:05:14.000383  4990 net.cpp:247] Top shape: 128 16 32 32 (2097152)
I0612 11:05:14.000391  4990 net.cpp:247] Top shape: 128 16 32 32 (2097152)
I0612 11:05:14.000396  4990 net.cpp:255] Memory required for data: 605553152
I0612 11:05:14.000401  4990 layer_factory.hpp:77] Creating layer Convolution14
I0612 11:05:14.000416  4990 net.cpp:190] Creating Layer Convolution14
I0612 11:05:14.000422  4990 net.cpp:615] Convolution14 <- Eltwise6_ReLU13_0_split_0
I0612 11:05:14.000435  4990 net.cpp:589] Convolution14 -> Convolution14
I0612 11:05:14.000890  4990 net.cpp:240] Setting up Convolution14
I0612 11:05:14.000905  4990 net.cpp:247] Top shape: 128 16 32 32 (2097152)
I0612 11:05:14.000910  4990 net.cpp:255] Memory required for data: 613941760
I0612 11:05:14.000923  4990 layer_factory.hpp:77] Creating layer BatchNorm14
I0612 11:05:14.000933  4990 net.cpp:190] Creating Layer BatchNorm14
I0612 11:05:14.000939  4990 net.cpp:615] BatchNorm14 <- Convolution14
I0612 11:05:14.000952  4990 net.cpp:576] BatchNorm14 -> Convolution14 (in-place)
I0612 11:05:14.001242  4990 net.cpp:240] Setting up BatchNorm14
I0612 11:05:14.001255  4990 net.cpp:247] Top shape: 128 16 32 32 (2097152)
I0612 11:05:14.001261  4990 net.cpp:255] Memory required for data: 622330368
I0612 11:05:14.001277  4990 layer_factory.hpp:77] Creating layer Scale14
I0612 11:05:14.001287  4990 net.cpp:190] Creating Layer Scale14
I0612 11:05:14.001293  4990 net.cpp:615] Scale14 <- Convolution14
I0612 11:05:14.001307  4990 net.cpp:576] Scale14 -> Convolution14 (in-place)
I0612 11:05:14.001356  4990 layer_factory.hpp:77] Creating layer Scale14
I0612 11:05:14.001519  4990 net.cpp:240] Setting up Scale14
I0612 11:05:14.001531  4990 net.cpp:247] Top shape: 128 16 32 32 (2097152)
I0612 11:05:14.001538  4990 net.cpp:255] Memory required for data: 630718976
I0612 11:05:14.001550  4990 layer_factory.hpp:77] Creating layer ReLU14
I0612 11:05:14.001564  4990 net.cpp:190] Creating Layer ReLU14
I0612 11:05:14.001569  4990 net.cpp:615] ReLU14 <- Convolution14
I0612 11:05:14.001579  4990 net.cpp:576] ReLU14 -> Convolution14 (in-place)
I0612 11:05:14.001587  4990 net.cpp:240] Setting up ReLU14
I0612 11:05:14.001595  4990 net.cpp:247] Top shape: 128 16 32 32 (2097152)
I0612 11:05:14.001601  4990 net.cpp:255] Memory required for data: 639107584
I0612 11:05:14.001606  4990 layer_factory.hpp:77] Creating layer Convolution15
I0612 11:05:14.001623  4990 net.cpp:190] Creating Layer Convolution15
I0612 11:05:14.001631  4990 net.cpp:615] Convolution15 <- Convolution14
I0612 11:05:14.001639  4990 net.cpp:589] Convolution15 -> Convolution15
I0612 11:05:14.002100  4990 net.cpp:240] Setting up Convolution15
I0612 11:05:14.002115  4990 net.cpp:247] Top shape: 128 16 32 32 (2097152)
I0612 11:05:14.002120  4990 net.cpp:255] Memory required for data: 647496192
I0612 11:05:14.002133  4990 layer_factory.hpp:77] Creating layer BatchNorm15
I0612 11:05:14.002147  4990 net.cpp:190] Creating Layer BatchNorm15
I0612 11:05:14.002154  4990 net.cpp:615] BatchNorm15 <- Convolution15
I0612 11:05:14.002162  4990 net.cpp:576] BatchNorm15 -> Convolution15 (in-place)
I0612 11:05:14.002454  4990 net.cpp:240] Setting up BatchNorm15
I0612 11:05:14.002467  4990 net.cpp:247] Top shape: 128 16 32 32 (2097152)
I0612 11:05:14.002473  4990 net.cpp:255] Memory required for data: 655884800
I0612 11:05:14.002495  4990 layer_factory.hpp:77] Creating layer Scale15
I0612 11:05:14.002506  4990 net.cpp:190] Creating Layer Scale15
I0612 11:05:14.002511  4990 net.cpp:615] Scale15 <- Convolution15
I0612 11:05:14.002524  4990 net.cpp:576] Scale15 -> Convolution15 (in-place)
I0612 11:05:14.002575  4990 layer_factory.hpp:77] Creating layer Scale15
I0612 11:05:14.002739  4990 net.cpp:240] Setting up Scale15
I0612 11:05:14.002754  4990 net.cpp:247] Top shape: 128 16 32 32 (2097152)
I0612 11:05:14.002760  4990 net.cpp:255] Memory required for data: 664273408
I0612 11:05:14.002774  4990 layer_factory.hpp:77] Creating layer Eltwise7
I0612 11:05:14.002787  4990 net.cpp:190] Creating Layer Eltwise7
I0612 11:05:14.002795  4990 net.cpp:615] Eltwise7 <- Eltwise6_ReLU13_0_split_1
I0612 11:05:14.002802  4990 net.cpp:615] Eltwise7 <- Convolution15
I0612 11:05:14.002811  4990 net.cpp:589] Eltwise7 -> Eltwise7
I0612 11:05:14.002852  4990 net.cpp:240] Setting up Eltwise7
I0612 11:05:14.002864  4990 net.cpp:247] Top shape: 128 16 32 32 (2097152)
I0612 11:05:14.002869  4990 net.cpp:255] Memory required for data: 672662016
I0612 11:05:14.002876  4990 layer_factory.hpp:77] Creating layer ReLU15
I0612 11:05:14.002883  4990 net.cpp:190] Creating Layer ReLU15
I0612 11:05:14.002889  4990 net.cpp:615] ReLU15 <- Eltwise7
I0612 11:05:14.002900  4990 net.cpp:576] ReLU15 -> Eltwise7 (in-place)
I0612 11:05:14.002910  4990 net.cpp:240] Setting up ReLU15
I0612 11:05:14.002918  4990 net.cpp:247] Top shape: 128 16 32 32 (2097152)
I0612 11:05:14.002923  4990 net.cpp:255] Memory required for data: 681050624
I0612 11:05:14.002928  4990 layer_factory.hpp:77] Creating layer Eltwise7_ReLU15_0_split
I0612 11:05:14.002938  4990 net.cpp:190] Creating Layer Eltwise7_ReLU15_0_split
I0612 11:05:14.002943  4990 net.cpp:615] Eltwise7_ReLU15_0_split <- Eltwise7
I0612 11:05:14.002951  4990 net.cpp:589] Eltwise7_ReLU15_0_split -> Eltwise7_ReLU15_0_split_0
I0612 11:05:14.002961  4990 net.cpp:589] Eltwise7_ReLU15_0_split -> Eltwise7_ReLU15_0_split_1
I0612 11:05:14.003018  4990 net.cpp:240] Setting up Eltwise7_ReLU15_0_split
I0612 11:05:14.003029  4990 net.cpp:247] Top shape: 128 16 32 32 (2097152)
I0612 11:05:14.003036  4990 net.cpp:247] Top shape: 128 16 32 32 (2097152)
I0612 11:05:14.003041  4990 net.cpp:255] Memory required for data: 697827840
I0612 11:05:14.003047  4990 layer_factory.hpp:77] Creating layer Convolution16
I0612 11:05:14.003064  4990 net.cpp:190] Creating Layer Convolution16
I0612 11:05:14.003070  4990 net.cpp:615] Convolution16 <- Eltwise7_ReLU15_0_split_0
I0612 11:05:14.003082  4990 net.cpp:589] Convolution16 -> Convolution16
I0612 11:05:14.003551  4990 net.cpp:240] Setting up Convolution16
I0612 11:05:14.003566  4990 net.cpp:247] Top shape: 128 16 32 32 (2097152)
I0612 11:05:14.003571  4990 net.cpp:255] Memory required for data: 706216448
I0612 11:05:14.003584  4990 layer_factory.hpp:77] Creating layer BatchNorm16
I0612 11:05:14.003598  4990 net.cpp:190] Creating Layer BatchNorm16
I0612 11:05:14.003605  4990 net.cpp:615] BatchNorm16 <- Convolution16
I0612 11:05:14.003617  4990 net.cpp:576] BatchNorm16 -> Convolution16 (in-place)
I0612 11:05:14.003904  4990 net.cpp:240] Setting up BatchNorm16
I0612 11:05:14.003916  4990 net.cpp:247] Top shape: 128 16 32 32 (2097152)
I0612 11:05:14.003921  4990 net.cpp:255] Memory required for data: 714605056
I0612 11:05:14.003937  4990 layer_factory.hpp:77] Creating layer Scale16
I0612 11:05:14.003952  4990 net.cpp:190] Creating Layer Scale16
I0612 11:05:14.003958  4990 net.cpp:615] Scale16 <- Convolution16
I0612 11:05:14.003967  4990 net.cpp:576] Scale16 -> Convolution16 (in-place)
I0612 11:05:14.004017  4990 layer_factory.hpp:77] Creating layer Scale16
I0612 11:05:14.004202  4990 net.cpp:240] Setting up Scale16
I0612 11:05:14.004215  4990 net.cpp:247] Top shape: 128 16 32 32 (2097152)
I0612 11:05:14.004221  4990 net.cpp:255] Memory required for data: 722993664
I0612 11:05:14.004235  4990 layer_factory.hpp:77] Creating layer ReLU16
I0612 11:05:14.004245  4990 net.cpp:190] Creating Layer ReLU16
I0612 11:05:14.004257  4990 net.cpp:615] ReLU16 <- Convolution16
I0612 11:05:14.004266  4990 net.cpp:576] ReLU16 -> Convolution16 (in-place)
I0612 11:05:14.004276  4990 net.cpp:240] Setting up ReLU16
I0612 11:05:14.004284  4990 net.cpp:247] Top shape: 128 16 32 32 (2097152)
I0612 11:05:14.004289  4990 net.cpp:255] Memory required for data: 731382272
I0612 11:05:14.004295  4990 layer_factory.hpp:77] Creating layer Convolution17
I0612 11:05:14.004313  4990 net.cpp:190] Creating Layer Convolution17
I0612 11:05:14.004323  4990 net.cpp:615] Convolution17 <- Convolution16
I0612 11:05:14.004331  4990 net.cpp:589] Convolution17 -> Convolution17
I0612 11:05:14.004801  4990 net.cpp:240] Setting up Convolution17
I0612 11:05:14.004814  4990 net.cpp:247] Top shape: 128 16 32 32 (2097152)
I0612 11:05:14.004820  4990 net.cpp:255] Memory required for data: 739770880
I0612 11:05:14.004833  4990 layer_factory.hpp:77] Creating layer BatchNorm17
I0612 11:05:14.004848  4990 net.cpp:190] Creating Layer BatchNorm17
I0612 11:05:14.004853  4990 net.cpp:615] BatchNorm17 <- Convolution17
I0612 11:05:14.004864  4990 net.cpp:576] BatchNorm17 -> Convolution17 (in-place)
I0612 11:05:14.005152  4990 net.cpp:240] Setting up BatchNorm17
I0612 11:05:14.005164  4990 net.cpp:247] Top shape: 128 16 32 32 (2097152)
I0612 11:05:14.005170  4990 net.cpp:255] Memory required for data: 748159488
I0612 11:05:14.005185  4990 layer_factory.hpp:77] Creating layer Scale17
I0612 11:05:14.005199  4990 net.cpp:190] Creating Layer Scale17
I0612 11:05:14.005206  4990 net.cpp:615] Scale17 <- Convolution17
I0612 11:05:14.005214  4990 net.cpp:576] Scale17 -> Convolution17 (in-place)
I0612 11:05:14.005270  4990 layer_factory.hpp:77] Creating layer Scale17
I0612 11:05:14.005441  4990 net.cpp:240] Setting up Scale17
I0612 11:05:14.005453  4990 net.cpp:247] Top shape: 128 16 32 32 (2097152)
I0612 11:05:14.005460  4990 net.cpp:255] Memory required for data: 756548096
I0612 11:05:14.005472  4990 layer_factory.hpp:77] Creating layer Eltwise8
I0612 11:05:14.005483  4990 net.cpp:190] Creating Layer Eltwise8
I0612 11:05:14.005491  4990 net.cpp:615] Eltwise8 <- Eltwise7_ReLU15_0_split_1
I0612 11:05:14.005506  4990 net.cpp:615] Eltwise8 <- Convolution17
I0612 11:05:14.005516  4990 net.cpp:589] Eltwise8 -> Eltwise8
I0612 11:05:14.005556  4990 net.cpp:240] Setting up Eltwise8
I0612 11:05:14.005568  4990 net.cpp:247] Top shape: 128 16 32 32 (2097152)
I0612 11:05:14.005573  4990 net.cpp:255] Memory required for data: 764936704
I0612 11:05:14.005578  4990 layer_factory.hpp:77] Creating layer ReLU17
I0612 11:05:14.005589  4990 net.cpp:190] Creating Layer ReLU17
I0612 11:05:14.005594  4990 net.cpp:615] ReLU17 <- Eltwise8
I0612 11:05:14.005601  4990 net.cpp:576] ReLU17 -> Eltwise8 (in-place)
I0612 11:05:14.005611  4990 net.cpp:240] Setting up ReLU17
I0612 11:05:14.005620  4990 net.cpp:247] Top shape: 128 16 32 32 (2097152)
I0612 11:05:14.005625  4990 net.cpp:255] Memory required for data: 773325312
I0612 11:05:14.005630  4990 layer_factory.hpp:77] Creating layer Eltwise8_ReLU17_0_split
I0612 11:05:14.005642  4990 net.cpp:190] Creating Layer Eltwise8_ReLU17_0_split
I0612 11:05:14.005648  4990 net.cpp:615] Eltwise8_ReLU17_0_split <- Eltwise8
I0612 11:05:14.005656  4990 net.cpp:589] Eltwise8_ReLU17_0_split -> Eltwise8_ReLU17_0_split_0
I0612 11:05:14.005666  4990 net.cpp:589] Eltwise8_ReLU17_0_split -> Eltwise8_ReLU17_0_split_1
I0612 11:05:14.005720  4990 net.cpp:240] Setting up Eltwise8_ReLU17_0_split
I0612 11:05:14.005731  4990 net.cpp:247] Top shape: 128 16 32 32 (2097152)
I0612 11:05:14.005738  4990 net.cpp:247] Top shape: 128 16 32 32 (2097152)
I0612 11:05:14.005744  4990 net.cpp:255] Memory required for data: 790102528
I0612 11:05:14.005749  4990 layer_factory.hpp:77] Creating layer Convolution18
I0612 11:05:14.005764  4990 net.cpp:190] Creating Layer Convolution18
I0612 11:05:14.005770  4990 net.cpp:615] Convolution18 <- Eltwise8_ReLU17_0_split_0
I0612 11:05:14.005780  4990 net.cpp:589] Convolution18 -> Convolution18
I0612 11:05:14.006244  4990 net.cpp:240] Setting up Convolution18
I0612 11:05:14.006263  4990 net.cpp:247] Top shape: 128 16 32 32 (2097152)
I0612 11:05:14.006269  4990 net.cpp:255] Memory required for data: 798491136
I0612 11:05:14.006283  4990 layer_factory.hpp:77] Creating layer BatchNorm18
I0612 11:05:14.006296  4990 net.cpp:190] Creating Layer BatchNorm18
I0612 11:05:14.006304  4990 net.cpp:615] BatchNorm18 <- Convolution18
I0612 11:05:14.006312  4990 net.cpp:576] BatchNorm18 -> Convolution18 (in-place)
I0612 11:05:14.006615  4990 net.cpp:240] Setting up BatchNorm18
I0612 11:05:14.006628  4990 net.cpp:247] Top shape: 128 16 32 32 (2097152)
I0612 11:05:14.006634  4990 net.cpp:255] Memory required for data: 806879744
I0612 11:05:14.006649  4990 layer_factory.hpp:77] Creating layer Scale18
I0612 11:05:14.006660  4990 net.cpp:190] Creating Layer Scale18
I0612 11:05:14.006666  4990 net.cpp:615] Scale18 <- Convolution18
I0612 11:05:14.006675  4990 net.cpp:576] Scale18 -> Convolution18 (in-place)
I0612 11:05:14.006729  4990 layer_factory.hpp:77] Creating layer Scale18
I0612 11:05:14.006894  4990 net.cpp:240] Setting up Scale18
I0612 11:05:14.006906  4990 net.cpp:247] Top shape: 128 16 32 32 (2097152)
I0612 11:05:14.006911  4990 net.cpp:255] Memory required for data: 815268352
I0612 11:05:14.006925  4990 layer_factory.hpp:77] Creating layer ReLU18
I0612 11:05:14.006935  4990 net.cpp:190] Creating Layer ReLU18
I0612 11:05:14.006942  4990 net.cpp:615] ReLU18 <- Convolution18
I0612 11:05:14.006949  4990 net.cpp:576] ReLU18 -> Convolution18 (in-place)
I0612 11:05:14.006961  4990 net.cpp:240] Setting up ReLU18
I0612 11:05:14.006968  4990 net.cpp:247] Top shape: 128 16 32 32 (2097152)
I0612 11:05:14.006973  4990 net.cpp:255] Memory required for data: 823656960
I0612 11:05:14.006978  4990 layer_factory.hpp:77] Creating layer Convolution19
I0612 11:05:14.006992  4990 net.cpp:190] Creating Layer Convolution19
I0612 11:05:14.006997  4990 net.cpp:615] Convolution19 <- Convolution18
I0612 11:05:14.007009  4990 net.cpp:589] Convolution19 -> Convolution19
I0612 11:05:14.007467  4990 net.cpp:240] Setting up Convolution19
I0612 11:05:14.007479  4990 net.cpp:247] Top shape: 128 16 32 32 (2097152)
I0612 11:05:14.007485  4990 net.cpp:255] Memory required for data: 832045568
I0612 11:05:14.007498  4990 layer_factory.hpp:77] Creating layer BatchNorm19
I0612 11:05:14.007508  4990 net.cpp:190] Creating Layer BatchNorm19
I0612 11:05:14.007513  4990 net.cpp:615] BatchNorm19 <- Convolution19
I0612 11:05:14.007524  4990 net.cpp:576] BatchNorm19 -> Convolution19 (in-place)
I0612 11:05:14.007796  4990 net.cpp:240] Setting up BatchNorm19
I0612 11:05:14.007807  4990 net.cpp:247] Top shape: 128 16 32 32 (2097152)
I0612 11:05:14.007812  4990 net.cpp:255] Memory required for data: 840434176
I0612 11:05:14.007851  4990 layer_factory.hpp:77] Creating layer Scale19
I0612 11:05:14.007863  4990 net.cpp:190] Creating Layer Scale19
I0612 11:05:14.007869  4990 net.cpp:615] Scale19 <- Convolution19
I0612 11:05:14.007877  4990 net.cpp:576] Scale19 -> Convolution19 (in-place)
I0612 11:05:14.007935  4990 layer_factory.hpp:77] Creating layer Scale19
I0612 11:05:14.008095  4990 net.cpp:240] Setting up Scale19
I0612 11:05:14.008106  4990 net.cpp:247] Top shape: 128 16 32 32 (2097152)
I0612 11:05:14.008111  4990 net.cpp:255] Memory required for data: 848822784
I0612 11:05:14.008123  4990 layer_factory.hpp:77] Creating layer Eltwise9
I0612 11:05:14.008137  4990 net.cpp:190] Creating Layer Eltwise9
I0612 11:05:14.008144  4990 net.cpp:615] Eltwise9 <- Eltwise8_ReLU17_0_split_1
I0612 11:05:14.008152  4990 net.cpp:615] Eltwise9 <- Convolution19
I0612 11:05:14.008159  4990 net.cpp:589] Eltwise9 -> Eltwise9
I0612 11:05:14.008193  4990 net.cpp:240] Setting up Eltwise9
I0612 11:05:14.008203  4990 net.cpp:247] Top shape: 128 16 32 32 (2097152)
I0612 11:05:14.008208  4990 net.cpp:255] Memory required for data: 857211392
I0612 11:05:14.008213  4990 layer_factory.hpp:77] Creating layer ReLU19
I0612 11:05:14.008221  4990 net.cpp:190] Creating Layer ReLU19
I0612 11:05:14.008227  4990 net.cpp:615] ReLU19 <- Eltwise9
I0612 11:05:14.008244  4990 net.cpp:576] ReLU19 -> Eltwise9 (in-place)
I0612 11:05:14.008255  4990 net.cpp:240] Setting up ReLU19
I0612 11:05:14.008261  4990 net.cpp:247] Top shape: 128 16 32 32 (2097152)
I0612 11:05:14.008267  4990 net.cpp:255] Memory required for data: 865600000
I0612 11:05:14.008272  4990 layer_factory.hpp:77] Creating layer Eltwise9_ReLU19_0_split
I0612 11:05:14.008280  4990 net.cpp:190] Creating Layer Eltwise9_ReLU19_0_split
I0612 11:05:14.008285  4990 net.cpp:615] Eltwise9_ReLU19_0_split <- Eltwise9
I0612 11:05:14.008296  4990 net.cpp:589] Eltwise9_ReLU19_0_split -> Eltwise9_ReLU19_0_split_0
I0612 11:05:14.008306  4990 net.cpp:589] Eltwise9_ReLU19_0_split -> Eltwise9_ReLU19_0_split_1
I0612 11:05:14.008357  4990 net.cpp:240] Setting up Eltwise9_ReLU19_0_split
I0612 11:05:14.008366  4990 net.cpp:247] Top shape: 128 16 32 32 (2097152)
I0612 11:05:14.008373  4990 net.cpp:247] Top shape: 128 16 32 32 (2097152)
I0612 11:05:14.008378  4990 net.cpp:255] Memory required for data: 882377216
I0612 11:05:14.008384  4990 layer_factory.hpp:77] Creating layer Convolution20
I0612 11:05:14.008399  4990 net.cpp:190] Creating Layer Convolution20
I0612 11:05:14.008404  4990 net.cpp:615] Convolution20 <- Eltwise9_ReLU19_0_split_0
I0612 11:05:14.008421  4990 net.cpp:589] Convolution20 -> Convolution20
I0612 11:05:14.008857  4990 net.cpp:240] Setting up Convolution20
I0612 11:05:14.008872  4990 net.cpp:247] Top shape: 128 16 32 32 (2097152)
I0612 11:05:14.008877  4990 net.cpp:255] Memory required for data: 890765824
I0612 11:05:14.008889  4990 layer_factory.hpp:77] Creating layer BatchNorm20
I0612 11:05:14.008898  4990 net.cpp:190] Creating Layer BatchNorm20
I0612 11:05:14.008904  4990 net.cpp:615] BatchNorm20 <- Convolution20
I0612 11:05:14.008915  4990 net.cpp:576] BatchNorm20 -> Convolution20 (in-place)
I0612 11:05:14.009186  4990 net.cpp:240] Setting up BatchNorm20
I0612 11:05:14.009196  4990 net.cpp:247] Top shape: 128 16 32 32 (2097152)
I0612 11:05:14.009202  4990 net.cpp:255] Memory required for data: 899154432
I0612 11:05:14.009215  4990 layer_factory.hpp:77] Creating layer Scale20
I0612 11:05:14.009225  4990 net.cpp:190] Creating Layer Scale20
I0612 11:05:14.009230  4990 net.cpp:615] Scale20 <- Convolution20
I0612 11:05:14.009238  4990 net.cpp:576] Scale20 -> Convolution20 (in-place)
I0612 11:05:14.009289  4990 layer_factory.hpp:77] Creating layer Scale20
I0612 11:05:14.009445  4990 net.cpp:240] Setting up Scale20
I0612 11:05:14.009456  4990 net.cpp:247] Top shape: 128 16 32 32 (2097152)
I0612 11:05:14.009461  4990 net.cpp:255] Memory required for data: 907543040
I0612 11:05:14.009474  4990 layer_factory.hpp:77] Creating layer ReLU20
I0612 11:05:14.009484  4990 net.cpp:190] Creating Layer ReLU20
I0612 11:05:14.009493  4990 net.cpp:615] ReLU20 <- Convolution20
I0612 11:05:14.009501  4990 net.cpp:576] ReLU20 -> Convolution20 (in-place)
I0612 11:05:14.009510  4990 net.cpp:240] Setting up ReLU20
I0612 11:05:14.009518  4990 net.cpp:247] Top shape: 128 16 32 32 (2097152)
I0612 11:05:14.009523  4990 net.cpp:255] Memory required for data: 915931648
I0612 11:05:14.009528  4990 layer_factory.hpp:77] Creating layer Convolution21
I0612 11:05:14.009544  4990 net.cpp:190] Creating Layer Convolution21
I0612 11:05:14.009551  4990 net.cpp:615] Convolution21 <- Convolution20
I0612 11:05:14.009559  4990 net.cpp:589] Convolution21 -> Convolution21
I0612 11:05:14.010004  4990 net.cpp:240] Setting up Convolution21
I0612 11:05:14.010017  4990 net.cpp:247] Top shape: 128 16 32 32 (2097152)
I0612 11:05:14.010022  4990 net.cpp:255] Memory required for data: 924320256
I0612 11:05:14.010035  4990 layer_factory.hpp:77] Creating layer BatchNorm21
I0612 11:05:14.010046  4990 net.cpp:190] Creating Layer BatchNorm21
I0612 11:05:14.010051  4990 net.cpp:615] BatchNorm21 <- Convolution21
I0612 11:05:14.010061  4990 net.cpp:576] BatchNorm21 -> Convolution21 (in-place)
I0612 11:05:14.010337  4990 net.cpp:240] Setting up BatchNorm21
I0612 11:05:14.010349  4990 net.cpp:247] Top shape: 128 16 32 32 (2097152)
I0612 11:05:14.010362  4990 net.cpp:255] Memory required for data: 932708864
I0612 11:05:14.010382  4990 layer_factory.hpp:77] Creating layer Scale21
I0612 11:05:14.010393  4990 net.cpp:190] Creating Layer Scale21
I0612 11:05:14.010399  4990 net.cpp:615] Scale21 <- Convolution21
I0612 11:05:14.010411  4990 net.cpp:576] Scale21 -> Convolution21 (in-place)
I0612 11:05:14.010462  4990 layer_factory.hpp:77] Creating layer Scale21
I0612 11:05:14.010622  4990 net.cpp:240] Setting up Scale21
I0612 11:05:14.010633  4990 net.cpp:247] Top shape: 128 16 32 32 (2097152)
I0612 11:05:14.010638  4990 net.cpp:255] Memory required for data: 941097472
I0612 11:05:14.010651  4990 layer_factory.hpp:77] Creating layer Eltwise10
I0612 11:05:14.010664  4990 net.cpp:190] Creating Layer Eltwise10
I0612 11:05:14.010670  4990 net.cpp:615] Eltwise10 <- Eltwise9_ReLU19_0_split_1
I0612 11:05:14.010677  4990 net.cpp:615] Eltwise10 <- Convolution21
I0612 11:05:14.010685  4990 net.cpp:589] Eltwise10 -> Eltwise10
I0612 11:05:14.010723  4990 net.cpp:240] Setting up Eltwise10
I0612 11:05:14.010733  4990 net.cpp:247] Top shape: 128 16 32 32 (2097152)
I0612 11:05:14.010738  4990 net.cpp:255] Memory required for data: 949486080
I0612 11:05:14.010743  4990 layer_factory.hpp:77] Creating layer ReLU21
I0612 11:05:14.010751  4990 net.cpp:190] Creating Layer ReLU21
I0612 11:05:14.010757  4990 net.cpp:615] ReLU21 <- Eltwise10
I0612 11:05:14.010767  4990 net.cpp:576] ReLU21 -> Eltwise10 (in-place)
I0612 11:05:14.010776  4990 net.cpp:240] Setting up ReLU21
I0612 11:05:14.010783  4990 net.cpp:247] Top shape: 128 16 32 32 (2097152)
I0612 11:05:14.010789  4990 net.cpp:255] Memory required for data: 957874688
I0612 11:05:14.010794  4990 layer_factory.hpp:77] Creating layer Eltwise10_ReLU21_0_split
I0612 11:05:14.010802  4990 net.cpp:190] Creating Layer Eltwise10_ReLU21_0_split
I0612 11:05:14.010807  4990 net.cpp:615] Eltwise10_ReLU21_0_split <- Eltwise10
I0612 11:05:14.010814  4990 net.cpp:589] Eltwise10_ReLU21_0_split -> Eltwise10_ReLU21_0_split_0
I0612 11:05:14.010825  4990 net.cpp:589] Eltwise10_ReLU21_0_split -> Eltwise10_ReLU21_0_split_1
I0612 11:05:14.010876  4990 net.cpp:240] Setting up Eltwise10_ReLU21_0_split
I0612 11:05:14.010886  4990 net.cpp:247] Top shape: 128 16 32 32 (2097152)
I0612 11:05:14.010893  4990 net.cpp:247] Top shape: 128 16 32 32 (2097152)
I0612 11:05:14.010898  4990 net.cpp:255] Memory required for data: 974651904
I0612 11:05:14.010903  4990 layer_factory.hpp:77] Creating layer Convolution22
I0612 11:05:14.010920  4990 net.cpp:190] Creating Layer Convolution22
I0612 11:05:14.010926  4990 net.cpp:615] Convolution22 <- Eltwise10_ReLU21_0_split_0
I0612 11:05:14.010936  4990 net.cpp:589] Convolution22 -> Convolution22
I0612 11:05:14.011373  4990 net.cpp:240] Setting up Convolution22
I0612 11:05:14.011386  4990 net.cpp:247] Top shape: 128 16 32 32 (2097152)
I0612 11:05:14.011392  4990 net.cpp:255] Memory required for data: 983040512
I0612 11:05:14.011405  4990 layer_factory.hpp:77] Creating layer BatchNorm22
I0612 11:05:14.011418  4990 net.cpp:190] Creating Layer BatchNorm22
I0612 11:05:14.011425  4990 net.cpp:615] BatchNorm22 <- Convolution22
I0612 11:05:14.011435  4990 net.cpp:576] BatchNorm22 -> Convolution22 (in-place)
I0612 11:05:14.011706  4990 net.cpp:240] Setting up BatchNorm22
I0612 11:05:14.011718  4990 net.cpp:247] Top shape: 128 16 32 32 (2097152)
I0612 11:05:14.011723  4990 net.cpp:255] Memory required for data: 991429120
I0612 11:05:14.011737  4990 layer_factory.hpp:77] Creating layer Scale22
I0612 11:05:14.011761  4990 net.cpp:190] Creating Layer Scale22
I0612 11:05:14.011768  4990 net.cpp:615] Scale22 <- Convolution22
I0612 11:05:14.011776  4990 net.cpp:576] Scale22 -> Convolution22 (in-place)
I0612 11:05:14.011828  4990 layer_factory.hpp:77] Creating layer Scale22
I0612 11:05:14.011998  4990 net.cpp:240] Setting up Scale22
I0612 11:05:14.012011  4990 net.cpp:247] Top shape: 128 16 32 32 (2097152)
I0612 11:05:14.012017  4990 net.cpp:255] Memory required for data: 999817728
I0612 11:05:14.012030  4990 layer_factory.hpp:77] Creating layer ReLU22
I0612 11:05:14.012039  4990 net.cpp:190] Creating Layer ReLU22
I0612 11:05:14.012051  4990 net.cpp:615] ReLU22 <- Convolution22
I0612 11:05:14.012063  4990 net.cpp:576] ReLU22 -> Convolution22 (in-place)
I0612 11:05:14.012073  4990 net.cpp:240] Setting up ReLU22
I0612 11:05:14.012080  4990 net.cpp:247] Top shape: 128 16 32 32 (2097152)
I0612 11:05:14.012085  4990 net.cpp:255] Memory required for data: 1008206336
I0612 11:05:14.012090  4990 layer_factory.hpp:77] Creating layer Convolution23
I0612 11:05:14.012107  4990 net.cpp:190] Creating Layer Convolution23
I0612 11:05:14.012114  4990 net.cpp:615] Convolution23 <- Convolution22
I0612 11:05:14.012122  4990 net.cpp:589] Convolution23 -> Convolution23
I0612 11:05:14.012558  4990 net.cpp:240] Setting up Convolution23
I0612 11:05:14.012572  4990 net.cpp:247] Top shape: 128 16 32 32 (2097152)
I0612 11:05:14.012576  4990 net.cpp:255] Memory required for data: 1016594944
I0612 11:05:14.012589  4990 layer_factory.hpp:77] Creating layer BatchNorm23
I0612 11:05:14.012605  4990 net.cpp:190] Creating Layer BatchNorm23
I0612 11:05:14.012611  4990 net.cpp:615] BatchNorm23 <- Convolution23
I0612 11:05:14.012619  4990 net.cpp:576] BatchNorm23 -> Convolution23 (in-place)
I0612 11:05:14.012887  4990 net.cpp:240] Setting up BatchNorm23
I0612 11:05:14.012897  4990 net.cpp:247] Top shape: 128 16 32 32 (2097152)
I0612 11:05:14.012902  4990 net.cpp:255] Memory required for data: 1024983552
I0612 11:05:14.012922  4990 layer_factory.hpp:77] Creating layer Scale23
I0612 11:05:14.012931  4990 net.cpp:190] Creating Layer Scale23
I0612 11:05:14.012938  4990 net.cpp:615] Scale23 <- Convolution23
I0612 11:05:14.012945  4990 net.cpp:576] Scale23 -> Convolution23 (in-place)
I0612 11:05:14.012995  4990 layer_factory.hpp:77] Creating layer Scale23
I0612 11:05:14.013157  4990 net.cpp:240] Setting up Scale23
I0612 11:05:14.013169  4990 net.cpp:247] Top shape: 128 16 32 32 (2097152)
I0612 11:05:14.013173  4990 net.cpp:255] Memory required for data: 1033372160
I0612 11:05:14.013186  4990 layer_factory.hpp:77] Creating layer Eltwise11
I0612 11:05:14.013198  4990 net.cpp:190] Creating Layer Eltwise11
I0612 11:05:14.013206  4990 net.cpp:615] Eltwise11 <- Eltwise10_ReLU21_0_split_1
I0612 11:05:14.013212  4990 net.cpp:615] Eltwise11 <- Convolution23
I0612 11:05:14.013221  4990 net.cpp:589] Eltwise11 -> Eltwise11
I0612 11:05:14.013257  4990 net.cpp:240] Setting up Eltwise11
I0612 11:05:14.013267  4990 net.cpp:247] Top shape: 128 16 32 32 (2097152)
I0612 11:05:14.013273  4990 net.cpp:255] Memory required for data: 1041760768
I0612 11:05:14.013278  4990 layer_factory.hpp:77] Creating layer ReLU23
I0612 11:05:14.013286  4990 net.cpp:190] Creating Layer ReLU23
I0612 11:05:14.013293  4990 net.cpp:615] ReLU23 <- Eltwise11
I0612 11:05:14.013303  4990 net.cpp:576] ReLU23 -> Eltwise11 (in-place)
I0612 11:05:14.013312  4990 net.cpp:240] Setting up ReLU23
I0612 11:05:14.013319  4990 net.cpp:247] Top shape: 128 16 32 32 (2097152)
I0612 11:05:14.013324  4990 net.cpp:255] Memory required for data: 1050149376
I0612 11:05:14.013330  4990 layer_factory.hpp:77] Creating layer Eltwise11_ReLU23_0_split
I0612 11:05:14.013337  4990 net.cpp:190] Creating Layer Eltwise11_ReLU23_0_split
I0612 11:05:14.013344  4990 net.cpp:615] Eltwise11_ReLU23_0_split <- Eltwise11
I0612 11:05:14.013350  4990 net.cpp:589] Eltwise11_ReLU23_0_split -> Eltwise11_ReLU23_0_split_0
I0612 11:05:14.013360  4990 net.cpp:589] Eltwise11_ReLU23_0_split -> Eltwise11_ReLU23_0_split_1
I0612 11:05:14.013411  4990 net.cpp:240] Setting up Eltwise11_ReLU23_0_split
I0612 11:05:14.013422  4990 net.cpp:247] Top shape: 128 16 32 32 (2097152)
I0612 11:05:14.013429  4990 net.cpp:247] Top shape: 128 16 32 32 (2097152)
I0612 11:05:14.013434  4990 net.cpp:255] Memory required for data: 1066926592
I0612 11:05:14.013439  4990 layer_factory.hpp:77] Creating layer Convolution24
I0612 11:05:14.013453  4990 net.cpp:190] Creating Layer Convolution24
I0612 11:05:14.013458  4990 net.cpp:615] Convolution24 <- Eltwise11_ReLU23_0_split_0
I0612 11:05:14.013470  4990 net.cpp:589] Convolution24 -> Convolution24
I0612 11:05:14.013906  4990 net.cpp:240] Setting up Convolution24
I0612 11:05:14.013923  4990 net.cpp:247] Top shape: 128 16 32 32 (2097152)
I0612 11:05:14.013929  4990 net.cpp:255] Memory required for data: 1075315200
I0612 11:05:14.013942  4990 layer_factory.hpp:77] Creating layer BatchNorm24
I0612 11:05:14.013952  4990 net.cpp:190] Creating Layer BatchNorm24
I0612 11:05:14.013958  4990 net.cpp:615] BatchNorm24 <- Convolution24
I0612 11:05:14.013967  4990 net.cpp:576] BatchNorm24 -> Convolution24 (in-place)
I0612 11:05:14.014245  4990 net.cpp:240] Setting up BatchNorm24
I0612 11:05:14.014257  4990 net.cpp:247] Top shape: 128 16 32 32 (2097152)
I0612 11:05:14.014262  4990 net.cpp:255] Memory required for data: 1083703808
I0612 11:05:14.014277  4990 layer_factory.hpp:77] Creating layer Scale24
I0612 11:05:14.014288  4990 net.cpp:190] Creating Layer Scale24
I0612 11:05:14.014293  4990 net.cpp:615] Scale24 <- Convolution24
I0612 11:05:14.014302  4990 net.cpp:576] Scale24 -> Convolution24 (in-place)
I0612 11:05:14.014367  4990 layer_factory.hpp:77] Creating layer Scale24
I0612 11:05:14.014528  4990 net.cpp:240] Setting up Scale24
I0612 11:05:14.014539  4990 net.cpp:247] Top shape: 128 16 32 32 (2097152)
I0612 11:05:14.014545  4990 net.cpp:255] Memory required for data: 1092092416
I0612 11:05:14.014560  4990 layer_factory.hpp:77] Creating layer ReLU24
I0612 11:05:14.014570  4990 net.cpp:190] Creating Layer ReLU24
I0612 11:05:14.014576  4990 net.cpp:615] ReLU24 <- Convolution24
I0612 11:05:14.014587  4990 net.cpp:576] ReLU24 -> Convolution24 (in-place)
I0612 11:05:14.014596  4990 net.cpp:240] Setting up ReLU24
I0612 11:05:14.014605  4990 net.cpp:247] Top shape: 128 16 32 32 (2097152)
I0612 11:05:14.014610  4990 net.cpp:255] Memory required for data: 1100481024
I0612 11:05:14.014614  4990 layer_factory.hpp:77] Creating layer Convolution25
I0612 11:05:14.014627  4990 net.cpp:190] Creating Layer Convolution25
I0612 11:05:14.014632  4990 net.cpp:615] Convolution25 <- Convolution24
I0612 11:05:14.014644  4990 net.cpp:589] Convolution25 -> Convolution25
I0612 11:05:14.015085  4990 net.cpp:240] Setting up Convolution25
I0612 11:05:14.015099  4990 net.cpp:247] Top shape: 128 16 32 32 (2097152)
I0612 11:05:14.015105  4990 net.cpp:255] Memory required for data: 1108869632
I0612 11:05:14.015117  4990 layer_factory.hpp:77] Creating layer BatchNorm25
I0612 11:05:14.015127  4990 net.cpp:190] Creating Layer BatchNorm25
I0612 11:05:14.015132  4990 net.cpp:615] BatchNorm25 <- Convolution25
I0612 11:05:14.015143  4990 net.cpp:576] BatchNorm25 -> Convolution25 (in-place)
I0612 11:05:14.015414  4990 net.cpp:240] Setting up BatchNorm25
I0612 11:05:14.015425  4990 net.cpp:247] Top shape: 128 16 32 32 (2097152)
I0612 11:05:14.015430  4990 net.cpp:255] Memory required for data: 1117258240
I0612 11:05:14.015446  4990 layer_factory.hpp:77] Creating layer Scale25
I0612 11:05:14.015456  4990 net.cpp:190] Creating Layer Scale25
I0612 11:05:14.015462  4990 net.cpp:615] Scale25 <- Convolution25
I0612 11:05:14.015470  4990 net.cpp:576] Scale25 -> Convolution25 (in-place)
I0612 11:05:14.015522  4990 layer_factory.hpp:77] Creating layer Scale25
I0612 11:05:14.015683  4990 net.cpp:240] Setting up Scale25
I0612 11:05:14.015694  4990 net.cpp:247] Top shape: 128 16 32 32 (2097152)
I0612 11:05:14.015699  4990 net.cpp:255] Memory required for data: 1125646848
I0612 11:05:14.015712  4990 layer_factory.hpp:77] Creating layer Eltwise12
I0612 11:05:14.015724  4990 net.cpp:190] Creating Layer Eltwise12
I0612 11:05:14.015732  4990 net.cpp:615] Eltwise12 <- Eltwise11_ReLU23_0_split_1
I0612 11:05:14.015738  4990 net.cpp:615] Eltwise12 <- Convolution25
I0612 11:05:14.015746  4990 net.cpp:589] Eltwise12 -> Eltwise12
I0612 11:05:14.015784  4990 net.cpp:240] Setting up Eltwise12
I0612 11:05:14.015794  4990 net.cpp:247] Top shape: 128 16 32 32 (2097152)
I0612 11:05:14.015799  4990 net.cpp:255] Memory required for data: 1134035456
I0612 11:05:14.015804  4990 layer_factory.hpp:77] Creating layer ReLU25
I0612 11:05:14.015812  4990 net.cpp:190] Creating Layer ReLU25
I0612 11:05:14.015818  4990 net.cpp:615] ReLU25 <- Eltwise12
I0612 11:05:14.015836  4990 net.cpp:576] ReLU25 -> Eltwise12 (in-place)
I0612 11:05:14.015844  4990 net.cpp:240] Setting up ReLU25
I0612 11:05:14.015852  4990 net.cpp:247] Top shape: 128 16 32 32 (2097152)
I0612 11:05:14.015857  4990 net.cpp:255] Memory required for data: 1142424064
I0612 11:05:14.015862  4990 layer_factory.hpp:77] Creating layer Eltwise12_ReLU25_0_split
I0612 11:05:14.015872  4990 net.cpp:190] Creating Layer Eltwise12_ReLU25_0_split
I0612 11:05:14.015877  4990 net.cpp:615] Eltwise12_ReLU25_0_split <- Eltwise12
I0612 11:05:14.015883  4990 net.cpp:589] Eltwise12_ReLU25_0_split -> Eltwise12_ReLU25_0_split_0
I0612 11:05:14.015893  4990 net.cpp:589] Eltwise12_ReLU25_0_split -> Eltwise12_ReLU25_0_split_1
I0612 11:05:14.015954  4990 net.cpp:240] Setting up Eltwise12_ReLU25_0_split
I0612 11:05:14.015967  4990 net.cpp:247] Top shape: 128 16 32 32 (2097152)
I0612 11:05:14.015976  4990 net.cpp:247] Top shape: 128 16 32 32 (2097152)
I0612 11:05:14.015981  4990 net.cpp:255] Memory required for data: 1159201280
I0612 11:05:14.015986  4990 layer_factory.hpp:77] Creating layer Convolution26
I0612 11:05:14.016000  4990 net.cpp:190] Creating Layer Convolution26
I0612 11:05:14.016005  4990 net.cpp:615] Convolution26 <- Eltwise12_ReLU25_0_split_0
I0612 11:05:14.016016  4990 net.cpp:589] Convolution26 -> Convolution26
I0612 11:05:14.016463  4990 net.cpp:240] Setting up Convolution26
I0612 11:05:14.016475  4990 net.cpp:247] Top shape: 128 16 32 32 (2097152)
I0612 11:05:14.016481  4990 net.cpp:255] Memory required for data: 1167589888
I0612 11:05:14.016494  4990 layer_factory.hpp:77] Creating layer BatchNorm26
I0612 11:05:14.016507  4990 net.cpp:190] Creating Layer BatchNorm26
I0612 11:05:14.016513  4990 net.cpp:615] BatchNorm26 <- Convolution26
I0612 11:05:14.016521  4990 net.cpp:576] BatchNorm26 -> Convolution26 (in-place)
I0612 11:05:14.016803  4990 net.cpp:240] Setting up BatchNorm26
I0612 11:05:14.016814  4990 net.cpp:247] Top shape: 128 16 32 32 (2097152)
I0612 11:05:14.016819  4990 net.cpp:255] Memory required for data: 1175978496
I0612 11:05:14.016837  4990 layer_factory.hpp:77] Creating layer Scale26
I0612 11:05:14.016866  4990 net.cpp:190] Creating Layer Scale26
I0612 11:05:14.016873  4990 net.cpp:615] Scale26 <- Convolution26
I0612 11:05:14.016882  4990 net.cpp:576] Scale26 -> Convolution26 (in-place)
I0612 11:05:14.016938  4990 layer_factory.hpp:77] Creating layer Scale26
I0612 11:05:14.017102  4990 net.cpp:240] Setting up Scale26
I0612 11:05:14.017113  4990 net.cpp:247] Top shape: 128 16 32 32 (2097152)
I0612 11:05:14.017118  4990 net.cpp:255] Memory required for data: 1184367104
I0612 11:05:14.017132  4990 layer_factory.hpp:77] Creating layer ReLU26
I0612 11:05:14.017140  4990 net.cpp:190] Creating Layer ReLU26
I0612 11:05:14.017146  4990 net.cpp:615] ReLU26 <- Convolution26
I0612 11:05:14.017158  4990 net.cpp:576] ReLU26 -> Convolution26 (in-place)
I0612 11:05:14.017168  4990 net.cpp:240] Setting up ReLU26
I0612 11:05:14.017175  4990 net.cpp:247] Top shape: 128 16 32 32 (2097152)
I0612 11:05:14.017180  4990 net.cpp:255] Memory required for data: 1192755712
I0612 11:05:14.017186  4990 layer_factory.hpp:77] Creating layer Convolution27
I0612 11:05:14.017199  4990 net.cpp:190] Creating Layer Convolution27
I0612 11:05:14.017204  4990 net.cpp:615] Convolution27 <- Convolution26
I0612 11:05:14.017213  4990 net.cpp:589] Convolution27 -> Convolution27
I0612 11:05:14.017657  4990 net.cpp:240] Setting up Convolution27
I0612 11:05:14.017670  4990 net.cpp:247] Top shape: 128 16 32 32 (2097152)
I0612 11:05:14.017675  4990 net.cpp:255] Memory required for data: 1201144320
I0612 11:05:14.017688  4990 layer_factory.hpp:77] Creating layer BatchNorm27
I0612 11:05:14.017701  4990 net.cpp:190] Creating Layer BatchNorm27
I0612 11:05:14.017707  4990 net.cpp:615] BatchNorm27 <- Convolution27
I0612 11:05:14.017715  4990 net.cpp:576] BatchNorm27 -> Convolution27 (in-place)
I0612 11:05:14.018002  4990 net.cpp:240] Setting up BatchNorm27
I0612 11:05:14.018013  4990 net.cpp:247] Top shape: 128 16 32 32 (2097152)
I0612 11:05:14.018023  4990 net.cpp:255] Memory required for data: 1209532928
I0612 11:05:14.018043  4990 layer_factory.hpp:77] Creating layer Scale27
I0612 11:05:14.018052  4990 net.cpp:190] Creating Layer Scale27
I0612 11:05:14.018059  4990 net.cpp:615] Scale27 <- Convolution27
I0612 11:05:14.018066  4990 net.cpp:576] Scale27 -> Convolution27 (in-place)
I0612 11:05:14.018117  4990 layer_factory.hpp:77] Creating layer Scale27
I0612 11:05:14.018281  4990 net.cpp:240] Setting up Scale27
I0612 11:05:14.018292  4990 net.cpp:247] Top shape: 128 16 32 32 (2097152)
I0612 11:05:14.018297  4990 net.cpp:255] Memory required for data: 1217921536
I0612 11:05:14.018311  4990 layer_factory.hpp:77] Creating layer Eltwise13
I0612 11:05:14.018326  4990 net.cpp:190] Creating Layer Eltwise13
I0612 11:05:14.018333  4990 net.cpp:615] Eltwise13 <- Eltwise12_ReLU25_0_split_1
I0612 11:05:14.018342  4990 net.cpp:615] Eltwise13 <- Convolution27
I0612 11:05:14.018350  4990 net.cpp:589] Eltwise13 -> Eltwise13
I0612 11:05:14.018402  4990 net.cpp:240] Setting up Eltwise13
I0612 11:05:14.018424  4990 net.cpp:247] Top shape: 128 16 32 32 (2097152)
I0612 11:05:14.018429  4990 net.cpp:255] Memory required for data: 1226310144
I0612 11:05:14.018434  4990 layer_factory.hpp:77] Creating layer ReLU27
I0612 11:05:14.018441  4990 net.cpp:190] Creating Layer ReLU27
I0612 11:05:14.018446  4990 net.cpp:615] ReLU27 <- Eltwise13
I0612 11:05:14.018457  4990 net.cpp:576] ReLU27 -> Eltwise13 (in-place)
I0612 11:05:14.018465  4990 net.cpp:240] Setting up ReLU27
I0612 11:05:14.018472  4990 net.cpp:247] Top shape: 128 16 32 32 (2097152)
I0612 11:05:14.018477  4990 net.cpp:255] Memory required for data: 1234698752
I0612 11:05:14.018482  4990 layer_factory.hpp:77] Creating layer Eltwise13_ReLU27_0_split
I0612 11:05:14.018491  4990 net.cpp:190] Creating Layer Eltwise13_ReLU27_0_split
I0612 11:05:14.018494  4990 net.cpp:615] Eltwise13_ReLU27_0_split <- Eltwise13
I0612 11:05:14.018501  4990 net.cpp:589] Eltwise13_ReLU27_0_split -> Eltwise13_ReLU27_0_split_0
I0612 11:05:14.018510  4990 net.cpp:589] Eltwise13_ReLU27_0_split -> Eltwise13_ReLU27_0_split_1
I0612 11:05:14.018560  4990 net.cpp:240] Setting up Eltwise13_ReLU27_0_split
I0612 11:05:14.018569  4990 net.cpp:247] Top shape: 128 16 32 32 (2097152)
I0612 11:05:14.018576  4990 net.cpp:247] Top shape: 128 16 32 32 (2097152)
I0612 11:05:14.018581  4990 net.cpp:255] Memory required for data: 1251475968
I0612 11:05:14.018586  4990 layer_factory.hpp:77] Creating layer Convolution28
I0612 11:05:14.018599  4990 net.cpp:190] Creating Layer Convolution28
I0612 11:05:14.018604  4990 net.cpp:615] Convolution28 <- Eltwise13_ReLU27_0_split_0
I0612 11:05:14.018616  4990 net.cpp:589] Convolution28 -> Convolution28
I0612 11:05:14.019032  4990 net.cpp:240] Setting up Convolution28
I0612 11:05:14.019044  4990 net.cpp:247] Top shape: 128 16 32 32 (2097152)
I0612 11:05:14.019049  4990 net.cpp:255] Memory required for data: 1259864576
I0612 11:05:14.019062  4990 layer_factory.hpp:77] Creating layer BatchNorm28
I0612 11:05:14.019070  4990 net.cpp:190] Creating Layer BatchNorm28
I0612 11:05:14.019076  4990 net.cpp:615] BatchNorm28 <- Convolution28
I0612 11:05:14.019088  4990 net.cpp:576] BatchNorm28 -> Convolution28 (in-place)
I0612 11:05:14.019362  4990 net.cpp:240] Setting up BatchNorm28
I0612 11:05:14.019373  4990 net.cpp:247] Top shape: 128 16 32 32 (2097152)
I0612 11:05:14.019378  4990 net.cpp:255] Memory required for data: 1268253184
I0612 11:05:14.019393  4990 layer_factory.hpp:77] Creating layer Scale28
I0612 11:05:14.019403  4990 net.cpp:190] Creating Layer Scale28
I0612 11:05:14.019409  4990 net.cpp:615] Scale28 <- Convolution28
I0612 11:05:14.019417  4990 net.cpp:576] Scale28 -> Convolution28 (in-place)
I0612 11:05:14.019466  4990 layer_factory.hpp:77] Creating layer Scale28
I0612 11:05:14.019623  4990 net.cpp:240] Setting up Scale28
I0612 11:05:14.019634  4990 net.cpp:247] Top shape: 128 16 32 32 (2097152)
I0612 11:05:14.019639  4990 net.cpp:255] Memory required for data: 1276641792
I0612 11:05:14.019651  4990 layer_factory.hpp:77] Creating layer ReLU28
I0612 11:05:14.019665  4990 net.cpp:190] Creating Layer ReLU28
I0612 11:05:14.019670  4990 net.cpp:615] ReLU28 <- Convolution28
I0612 11:05:14.019681  4990 net.cpp:576] ReLU28 -> Convolution28 (in-place)
I0612 11:05:14.019691  4990 net.cpp:240] Setting up ReLU28
I0612 11:05:14.019698  4990 net.cpp:247] Top shape: 128 16 32 32 (2097152)
I0612 11:05:14.019703  4990 net.cpp:255] Memory required for data: 1285030400
I0612 11:05:14.019708  4990 layer_factory.hpp:77] Creating layer Convolution29
I0612 11:05:14.019723  4990 net.cpp:190] Creating Layer Convolution29
I0612 11:05:14.019729  4990 net.cpp:615] Convolution29 <- Convolution28
I0612 11:05:14.019738  4990 net.cpp:589] Convolution29 -> Convolution29
I0612 11:05:14.020161  4990 net.cpp:240] Setting up Convolution29
I0612 11:05:14.020174  4990 net.cpp:247] Top shape: 128 16 32 32 (2097152)
I0612 11:05:14.020179  4990 net.cpp:255] Memory required for data: 1293419008
I0612 11:05:14.020191  4990 layer_factory.hpp:77] Creating layer BatchNorm29
I0612 11:05:14.020200  4990 net.cpp:190] Creating Layer BatchNorm29
I0612 11:05:14.020205  4990 net.cpp:615] BatchNorm29 <- Convolution29
I0612 11:05:14.020216  4990 net.cpp:576] BatchNorm29 -> Convolution29 (in-place)
I0612 11:05:14.020478  4990 net.cpp:240] Setting up BatchNorm29
I0612 11:05:14.020488  4990 net.cpp:247] Top shape: 128 16 32 32 (2097152)
I0612 11:05:14.020493  4990 net.cpp:255] Memory required for data: 1301807616
I0612 11:05:14.020508  4990 layer_factory.hpp:77] Creating layer Scale29
I0612 11:05:14.020516  4990 net.cpp:190] Creating Layer Scale29
I0612 11:05:14.020521  4990 net.cpp:615] Scale29 <- Convolution29
I0612 11:05:14.020532  4990 net.cpp:576] Scale29 -> Convolution29 (in-place)
I0612 11:05:14.020578  4990 layer_factory.hpp:77] Creating layer Scale29
I0612 11:05:14.020732  4990 net.cpp:240] Setting up Scale29
I0612 11:05:14.020743  4990 net.cpp:247] Top shape: 128 16 32 32 (2097152)
I0612 11:05:14.020748  4990 net.cpp:255] Memory required for data: 1310196224
I0612 11:05:14.020761  4990 layer_factory.hpp:77] Creating layer Eltwise14
I0612 11:05:14.020771  4990 net.cpp:190] Creating Layer Eltwise14
I0612 11:05:14.020778  4990 net.cpp:615] Eltwise14 <- Eltwise13_ReLU27_0_split_1
I0612 11:05:14.020786  4990 net.cpp:615] Eltwise14 <- Convolution29
I0612 11:05:14.020792  4990 net.cpp:589] Eltwise14 -> Eltwise14
I0612 11:05:14.020831  4990 net.cpp:240] Setting up Eltwise14
I0612 11:05:14.020841  4990 net.cpp:247] Top shape: 128 16 32 32 (2097152)
I0612 11:05:14.020846  4990 net.cpp:255] Memory required for data: 1318584832
I0612 11:05:14.020851  4990 layer_factory.hpp:77] Creating layer ReLU29
I0612 11:05:14.020859  4990 net.cpp:190] Creating Layer ReLU29
I0612 11:05:14.020864  4990 net.cpp:615] ReLU29 <- Eltwise14
I0612 11:05:14.020874  4990 net.cpp:576] ReLU29 -> Eltwise14 (in-place)
I0612 11:05:14.020882  4990 net.cpp:240] Setting up ReLU29
I0612 11:05:14.020889  4990 net.cpp:247] Top shape: 128 16 32 32 (2097152)
I0612 11:05:14.020895  4990 net.cpp:255] Memory required for data: 1326973440
I0612 11:05:14.020900  4990 layer_factory.hpp:77] Creating layer Eltwise14_ReLU29_0_split
I0612 11:05:14.020907  4990 net.cpp:190] Creating Layer Eltwise14_ReLU29_0_split
I0612 11:05:14.020912  4990 net.cpp:615] Eltwise14_ReLU29_0_split <- Eltwise14
I0612 11:05:14.020920  4990 net.cpp:589] Eltwise14_ReLU29_0_split -> Eltwise14_ReLU29_0_split_0
I0612 11:05:14.020927  4990 net.cpp:589] Eltwise14_ReLU29_0_split -> Eltwise14_ReLU29_0_split_1
I0612 11:05:14.020978  4990 net.cpp:240] Setting up Eltwise14_ReLU29_0_split
I0612 11:05:14.020987  4990 net.cpp:247] Top shape: 128 16 32 32 (2097152)
I0612 11:05:14.020993  4990 net.cpp:247] Top shape: 128 16 32 32 (2097152)
I0612 11:05:14.020998  4990 net.cpp:255] Memory required for data: 1343750656
I0612 11:05:14.021003  4990 layer_factory.hpp:77] Creating layer Convolution30
I0612 11:05:14.021018  4990 net.cpp:190] Creating Layer Convolution30
I0612 11:05:14.021023  4990 net.cpp:615] Convolution30 <- Eltwise14_ReLU29_0_split_0
I0612 11:05:14.021033  4990 net.cpp:589] Convolution30 -> Convolution30
I0612 11:05:14.021457  4990 net.cpp:240] Setting up Convolution30
I0612 11:05:14.021471  4990 net.cpp:247] Top shape: 128 16 32 32 (2097152)
I0612 11:05:14.021476  4990 net.cpp:255] Memory required for data: 1352139264
I0612 11:05:14.021487  4990 layer_factory.hpp:77] Creating layer BatchNorm30
I0612 11:05:14.021502  4990 net.cpp:190] Creating Layer BatchNorm30
I0612 11:05:14.021507  4990 net.cpp:615] BatchNorm30 <- Convolution30
I0612 11:05:14.021519  4990 net.cpp:576] BatchNorm30 -> Convolution30 (in-place)
I0612 11:05:14.021776  4990 net.cpp:240] Setting up BatchNorm30
I0612 11:05:14.021787  4990 net.cpp:247] Top shape: 128 16 32 32 (2097152)
I0612 11:05:14.021792  4990 net.cpp:255] Memory required for data: 1360527872
I0612 11:05:14.021806  4990 layer_factory.hpp:77] Creating layer Scale30
I0612 11:05:14.021818  4990 net.cpp:190] Creating Layer Scale30
I0612 11:05:14.021824  4990 net.cpp:615] Scale30 <- Convolution30
I0612 11:05:14.021831  4990 net.cpp:576] Scale30 -> Convolution30 (in-place)
I0612 11:05:14.021879  4990 layer_factory.hpp:77] Creating layer Scale30
I0612 11:05:14.022032  4990 net.cpp:240] Setting up Scale30
I0612 11:05:14.022043  4990 net.cpp:247] Top shape: 128 16 32 32 (2097152)
I0612 11:05:14.022048  4990 net.cpp:255] Memory required for data: 1368916480
I0612 11:05:14.022059  4990 layer_factory.hpp:77] Creating layer ReLU30
I0612 11:05:14.022068  4990 net.cpp:190] Creating Layer ReLU30
I0612 11:05:14.022073  4990 net.cpp:615] ReLU30 <- Convolution30
I0612 11:05:14.022085  4990 net.cpp:576] ReLU30 -> Convolution30 (in-place)
I0612 11:05:14.022095  4990 net.cpp:240] Setting up ReLU30
I0612 11:05:14.022101  4990 net.cpp:247] Top shape: 128 16 32 32 (2097152)
I0612 11:05:14.022106  4990 net.cpp:255] Memory required for data: 1377305088
I0612 11:05:14.022111  4990 layer_factory.hpp:77] Creating layer Convolution31
I0612 11:05:14.022126  4990 net.cpp:190] Creating Layer Convolution31
I0612 11:05:14.022131  4990 net.cpp:615] Convolution31 <- Convolution30
I0612 11:05:14.022140  4990 net.cpp:589] Convolution31 -> Convolution31
I0612 11:05:14.022573  4990 net.cpp:240] Setting up Convolution31
I0612 11:05:14.022588  4990 net.cpp:247] Top shape: 128 16 32 32 (2097152)
I0612 11:05:14.022593  4990 net.cpp:255] Memory required for data: 1385693696
I0612 11:05:14.022604  4990 layer_factory.hpp:77] Creating layer BatchNorm31
I0612 11:05:14.022616  4990 net.cpp:190] Creating Layer BatchNorm31
I0612 11:05:14.022622  4990 net.cpp:615] BatchNorm31 <- Convolution31
I0612 11:05:14.022632  4990 net.cpp:576] BatchNorm31 -> Convolution31 (in-place)
I0612 11:05:14.022894  4990 net.cpp:240] Setting up BatchNorm31
I0612 11:05:14.022905  4990 net.cpp:247] Top shape: 128 16 32 32 (2097152)
I0612 11:05:14.022910  4990 net.cpp:255] Memory required for data: 1394082304
I0612 11:05:14.022927  4990 layer_factory.hpp:77] Creating layer Scale31
I0612 11:05:14.022936  4990 net.cpp:190] Creating Layer Scale31
I0612 11:05:14.022941  4990 net.cpp:615] Scale31 <- Convolution31
I0612 11:05:14.022949  4990 net.cpp:576] Scale31 -> Convolution31 (in-place)
I0612 11:05:14.023000  4990 layer_factory.hpp:77] Creating layer Scale31
I0612 11:05:14.023155  4990 net.cpp:240] Setting up Scale31
I0612 11:05:14.023165  4990 net.cpp:247] Top shape: 128 16 32 32 (2097152)
I0612 11:05:14.023170  4990 net.cpp:255] Memory required for data: 1402470912
I0612 11:05:14.023182  4990 layer_factory.hpp:77] Creating layer Eltwise15
I0612 11:05:14.023191  4990 net.cpp:190] Creating Layer Eltwise15
I0612 11:05:14.023197  4990 net.cpp:615] Eltwise15 <- Eltwise14_ReLU29_0_split_1
I0612 11:05:14.023208  4990 net.cpp:615] Eltwise15 <- Convolution31
I0612 11:05:14.023216  4990 net.cpp:589] Eltwise15 -> Eltwise15
I0612 11:05:14.023252  4990 net.cpp:240] Setting up Eltwise15
I0612 11:05:14.023262  4990 net.cpp:247] Top shape: 128 16 32 32 (2097152)
I0612 11:05:14.023267  4990 net.cpp:255] Memory required for data: 1410859520
I0612 11:05:14.023272  4990 layer_factory.hpp:77] Creating layer ReLU31
I0612 11:05:14.023279  4990 net.cpp:190] Creating Layer ReLU31
I0612 11:05:14.023289  4990 net.cpp:615] ReLU31 <- Eltwise15
I0612 11:05:14.023296  4990 net.cpp:576] ReLU31 -> Eltwise15 (in-place)
I0612 11:05:14.023305  4990 net.cpp:240] Setting up ReLU31
I0612 11:05:14.023313  4990 net.cpp:247] Top shape: 128 16 32 32 (2097152)
I0612 11:05:14.023316  4990 net.cpp:255] Memory required for data: 1419248128
I0612 11:05:14.023321  4990 layer_factory.hpp:77] Creating layer Eltwise15_ReLU31_0_split
I0612 11:05:14.023332  4990 net.cpp:190] Creating Layer Eltwise15_ReLU31_0_split
I0612 11:05:14.023337  4990 net.cpp:615] Eltwise15_ReLU31_0_split <- Eltwise15
I0612 11:05:14.023344  4990 net.cpp:589] Eltwise15_ReLU31_0_split -> Eltwise15_ReLU31_0_split_0
I0612 11:05:14.023353  4990 net.cpp:589] Eltwise15_ReLU31_0_split -> Eltwise15_ReLU31_0_split_1
I0612 11:05:14.023402  4990 net.cpp:240] Setting up Eltwise15_ReLU31_0_split
I0612 11:05:14.023411  4990 net.cpp:247] Top shape: 128 16 32 32 (2097152)
I0612 11:05:14.023418  4990 net.cpp:247] Top shape: 128 16 32 32 (2097152)
I0612 11:05:14.023423  4990 net.cpp:255] Memory required for data: 1436025344
I0612 11:05:14.023428  4990 layer_factory.hpp:77] Creating layer Convolution32
I0612 11:05:14.023440  4990 net.cpp:190] Creating Layer Convolution32
I0612 11:05:14.023447  4990 net.cpp:615] Convolution32 <- Eltwise15_ReLU31_0_split_0
I0612 11:05:14.023455  4990 net.cpp:589] Convolution32 -> Convolution32
I0612 11:05:14.023869  4990 net.cpp:240] Setting up Convolution32
I0612 11:05:14.023881  4990 net.cpp:247] Top shape: 128 16 32 32 (2097152)
I0612 11:05:14.023886  4990 net.cpp:255] Memory required for data: 1444413952
I0612 11:05:14.023898  4990 layer_factory.hpp:77] Creating layer BatchNorm32
I0612 11:05:14.023912  4990 net.cpp:190] Creating Layer BatchNorm32
I0612 11:05:14.023918  4990 net.cpp:615] BatchNorm32 <- Convolution32
I0612 11:05:14.023926  4990 net.cpp:576] BatchNorm32 -> Convolution32 (in-place)
I0612 11:05:14.024181  4990 net.cpp:240] Setting up BatchNorm32
I0612 11:05:14.024193  4990 net.cpp:247] Top shape: 128 16 32 32 (2097152)
I0612 11:05:14.024197  4990 net.cpp:255] Memory required for data: 1452802560
I0612 11:05:14.024211  4990 layer_factory.hpp:77] Creating layer Scale32
I0612 11:05:14.024220  4990 net.cpp:190] Creating Layer Scale32
I0612 11:05:14.024225  4990 net.cpp:615] Scale32 <- Convolution32
I0612 11:05:14.024233  4990 net.cpp:576] Scale32 -> Convolution32 (in-place)
I0612 11:05:14.024283  4990 layer_factory.hpp:77] Creating layer Scale32
I0612 11:05:14.024440  4990 net.cpp:240] Setting up Scale32
I0612 11:05:14.024449  4990 net.cpp:247] Top shape: 128 16 32 32 (2097152)
I0612 11:05:14.024454  4990 net.cpp:255] Memory required for data: 1461191168
I0612 11:05:14.024471  4990 layer_factory.hpp:77] Creating layer ReLU32
I0612 11:05:14.024480  4990 net.cpp:190] Creating Layer ReLU32
I0612 11:05:14.024487  4990 net.cpp:615] ReLU32 <- Convolution32
I0612 11:05:14.024497  4990 net.cpp:576] ReLU32 -> Convolution32 (in-place)
I0612 11:05:14.024505  4990 net.cpp:240] Setting up ReLU32
I0612 11:05:14.024513  4990 net.cpp:247] Top shape: 128 16 32 32 (2097152)
I0612 11:05:14.024516  4990 net.cpp:255] Memory required for data: 1469579776
I0612 11:05:14.024521  4990 layer_factory.hpp:77] Creating layer Convolution33
I0612 11:05:14.024534  4990 net.cpp:190] Creating Layer Convolution33
I0612 11:05:14.024539  4990 net.cpp:615] Convolution33 <- Convolution32
I0612 11:05:14.024550  4990 net.cpp:589] Convolution33 -> Convolution33
I0612 11:05:14.024966  4990 net.cpp:240] Setting up Convolution33
I0612 11:05:14.024977  4990 net.cpp:247] Top shape: 128 16 32 32 (2097152)
I0612 11:05:14.024982  4990 net.cpp:255] Memory required for data: 1477968384
I0612 11:05:14.024994  4990 layer_factory.hpp:77] Creating layer BatchNorm33
I0612 11:05:14.025003  4990 net.cpp:190] Creating Layer BatchNorm33
I0612 11:05:14.025009  4990 net.cpp:615] BatchNorm33 <- Convolution33
I0612 11:05:14.025019  4990 net.cpp:576] BatchNorm33 -> Convolution33 (in-place)
I0612 11:05:14.025279  4990 net.cpp:240] Setting up BatchNorm33
I0612 11:05:14.025288  4990 net.cpp:247] Top shape: 128 16 32 32 (2097152)
I0612 11:05:14.025297  4990 net.cpp:255] Memory required for data: 1486356992
I0612 11:05:14.025312  4990 layer_factory.hpp:77] Creating layer Scale33
I0612 11:05:14.025321  4990 net.cpp:190] Creating Layer Scale33
I0612 11:05:14.025326  4990 net.cpp:615] Scale33 <- Convolution33
I0612 11:05:14.025334  4990 net.cpp:576] Scale33 -> Convolution33 (in-place)
I0612 11:05:14.025384  4990 layer_factory.hpp:77] Creating layer Scale33
I0612 11:05:14.025537  4990 net.cpp:240] Setting up Scale33
I0612 11:05:14.025547  4990 net.cpp:247] Top shape: 128 16 32 32 (2097152)
I0612 11:05:14.025552  4990 net.cpp:255] Memory required for data: 1494745600
I0612 11:05:14.025564  4990 layer_factory.hpp:77] Creating layer Eltwise16
I0612 11:05:14.025576  4990 net.cpp:190] Creating Layer Eltwise16
I0612 11:05:14.025583  4990 net.cpp:615] Eltwise16 <- Eltwise15_ReLU31_0_split_1
I0612 11:05:14.025590  4990 net.cpp:615] Eltwise16 <- Convolution33
I0612 11:05:14.025598  4990 net.cpp:589] Eltwise16 -> Eltwise16
I0612 11:05:14.025629  4990 net.cpp:240] Setting up Eltwise16
I0612 11:05:14.025638  4990 net.cpp:247] Top shape: 128 16 32 32 (2097152)
I0612 11:05:14.025642  4990 net.cpp:255] Memory required for data: 1503134208
I0612 11:05:14.025648  4990 layer_factory.hpp:77] Creating layer ReLU33
I0612 11:05:14.025660  4990 net.cpp:190] Creating Layer ReLU33
I0612 11:05:14.025665  4990 net.cpp:615] ReLU33 <- Eltwise16
I0612 11:05:14.025674  4990 net.cpp:576] ReLU33 -> Eltwise16 (in-place)
I0612 11:05:14.025683  4990 net.cpp:240] Setting up ReLU33
I0612 11:05:14.025691  4990 net.cpp:247] Top shape: 128 16 32 32 (2097152)
I0612 11:05:14.025696  4990 net.cpp:255] Memory required for data: 1511522816
I0612 11:05:14.025701  4990 layer_factory.hpp:77] Creating layer Eltwise16_ReLU33_0_split
I0612 11:05:14.025708  4990 net.cpp:190] Creating Layer Eltwise16_ReLU33_0_split
I0612 11:05:14.025712  4990 net.cpp:615] Eltwise16_ReLU33_0_split <- Eltwise16
I0612 11:05:14.025719  4990 net.cpp:589] Eltwise16_ReLU33_0_split -> Eltwise16_ReLU33_0_split_0
I0612 11:05:14.025728  4990 net.cpp:589] Eltwise16_ReLU33_0_split -> Eltwise16_ReLU33_0_split_1
I0612 11:05:14.025776  4990 net.cpp:240] Setting up Eltwise16_ReLU33_0_split
I0612 11:05:14.025785  4990 net.cpp:247] Top shape: 128 16 32 32 (2097152)
I0612 11:05:14.025791  4990 net.cpp:247] Top shape: 128 16 32 32 (2097152)
I0612 11:05:14.025796  4990 net.cpp:255] Memory required for data: 1528300032
I0612 11:05:14.025801  4990 layer_factory.hpp:77] Creating layer Convolution34
I0612 11:05:14.025815  4990 net.cpp:190] Creating Layer Convolution34
I0612 11:05:14.025821  4990 net.cpp:615] Convolution34 <- Eltwise16_ReLU33_0_split_0
I0612 11:05:14.025830  4990 net.cpp:589] Convolution34 -> Convolution34
I0612 11:05:14.026253  4990 net.cpp:240] Setting up Convolution34
I0612 11:05:14.026265  4990 net.cpp:247] Top shape: 128 16 32 32 (2097152)
I0612 11:05:14.026270  4990 net.cpp:255] Memory required for data: 1536688640
I0612 11:05:14.026283  4990 layer_factory.hpp:77] Creating layer BatchNorm34
I0612 11:05:14.026295  4990 net.cpp:190] Creating Layer BatchNorm34
I0612 11:05:14.026301  4990 net.cpp:615] BatchNorm34 <- Convolution34
I0612 11:05:14.026309  4990 net.cpp:576] BatchNorm34 -> Convolution34 (in-place)
I0612 11:05:14.026581  4990 net.cpp:240] Setting up BatchNorm34
I0612 11:05:14.026592  4990 net.cpp:247] Top shape: 128 16 32 32 (2097152)
I0612 11:05:14.026597  4990 net.cpp:255] Memory required for data: 1545077248
I0612 11:05:14.026612  4990 layer_factory.hpp:77] Creating layer Scale34
I0612 11:05:14.026629  4990 net.cpp:190] Creating Layer Scale34
I0612 11:05:14.026636  4990 net.cpp:615] Scale34 <- Convolution34
I0612 11:05:14.026643  4990 net.cpp:576] Scale34 -> Convolution34 (in-place)
I0612 11:05:14.026690  4990 layer_factory.hpp:77] Creating layer Scale34
I0612 11:05:14.026845  4990 net.cpp:240] Setting up Scale34
I0612 11:05:14.026859  4990 net.cpp:247] Top shape: 128 16 32 32 (2097152)
I0612 11:05:14.026865  4990 net.cpp:255] Memory required for data: 1553465856
I0612 11:05:14.026880  4990 layer_factory.hpp:77] Creating layer ReLU34
I0612 11:05:14.026890  4990 net.cpp:190] Creating Layer ReLU34
I0612 11:05:14.026895  4990 net.cpp:615] ReLU34 <- Convolution34
I0612 11:05:14.026903  4990 net.cpp:576] ReLU34 -> Convolution34 (in-place)
I0612 11:05:14.026912  4990 net.cpp:240] Setting up ReLU34
I0612 11:05:14.026919  4990 net.cpp:247] Top shape: 128 16 32 32 (2097152)
I0612 11:05:14.026924  4990 net.cpp:255] Memory required for data: 1561854464
I0612 11:05:14.026928  4990 layer_factory.hpp:77] Creating layer Convolution35
I0612 11:05:14.026945  4990 net.cpp:190] Creating Layer Convolution35
I0612 11:05:14.026952  4990 net.cpp:615] Convolution35 <- Convolution34
I0612 11:05:14.026962  4990 net.cpp:589] Convolution35 -> Convolution35
I0612 11:05:14.027384  4990 net.cpp:240] Setting up Convolution35
I0612 11:05:14.027395  4990 net.cpp:247] Top shape: 128 16 32 32 (2097152)
I0612 11:05:14.027400  4990 net.cpp:255] Memory required for data: 1570243072
I0612 11:05:14.027412  4990 layer_factory.hpp:77] Creating layer BatchNorm35
I0612 11:05:14.027426  4990 net.cpp:190] Creating Layer BatchNorm35
I0612 11:05:14.027431  4990 net.cpp:615] BatchNorm35 <- Convolution35
I0612 11:05:14.027441  4990 net.cpp:576] BatchNorm35 -> Convolution35 (in-place)
I0612 11:05:14.027696  4990 net.cpp:240] Setting up BatchNorm35
I0612 11:05:14.027707  4990 net.cpp:247] Top shape: 128 16 32 32 (2097152)
I0612 11:05:14.027711  4990 net.cpp:255] Memory required for data: 1578631680
I0612 11:05:14.027726  4990 layer_factory.hpp:77] Creating layer Scale35
I0612 11:05:14.027739  4990 net.cpp:190] Creating Layer Scale35
I0612 11:05:14.027745  4990 net.cpp:615] Scale35 <- Convolution35
I0612 11:05:14.027751  4990 net.cpp:576] Scale35 -> Convolution35 (in-place)
I0612 11:05:14.027801  4990 layer_factory.hpp:77] Creating layer Scale35
I0612 11:05:14.027956  4990 net.cpp:240] Setting up Scale35
I0612 11:05:14.027966  4990 net.cpp:247] Top shape: 128 16 32 32 (2097152)
I0612 11:05:14.027971  4990 net.cpp:255] Memory required for data: 1587020288
I0612 11:05:14.027982  4990 layer_factory.hpp:77] Creating layer Eltwise17
I0612 11:05:14.027992  4990 net.cpp:190] Creating Layer Eltwise17
I0612 11:05:14.027997  4990 net.cpp:615] Eltwise17 <- Eltwise16_ReLU33_0_split_1
I0612 11:05:14.028004  4990 net.cpp:615] Eltwise17 <- Convolution35
I0612 11:05:14.028015  4990 net.cpp:589] Eltwise17 -> Eltwise17
I0612 11:05:14.028053  4990 net.cpp:240] Setting up Eltwise17
I0612 11:05:14.028061  4990 net.cpp:247] Top shape: 128 16 32 32 (2097152)
I0612 11:05:14.028066  4990 net.cpp:255] Memory required for data: 1595408896
I0612 11:05:14.028071  4990 layer_factory.hpp:77] Creating layer ReLU35
I0612 11:05:14.028079  4990 net.cpp:190] Creating Layer ReLU35
I0612 11:05:14.028084  4990 net.cpp:615] ReLU35 <- Eltwise17
I0612 11:05:14.028091  4990 net.cpp:576] ReLU35 -> Eltwise17 (in-place)
I0612 11:05:14.028100  4990 net.cpp:240] Setting up ReLU35
I0612 11:05:14.028106  4990 net.cpp:247] Top shape: 128 16 32 32 (2097152)
I0612 11:05:14.028111  4990 net.cpp:255] Memory required for data: 1603797504
I0612 11:05:14.028115  4990 layer_factory.hpp:77] Creating layer Eltwise17_ReLU35_0_split
I0612 11:05:14.028123  4990 net.cpp:190] Creating Layer Eltwise17_ReLU35_0_split
I0612 11:05:14.028128  4990 net.cpp:615] Eltwise17_ReLU35_0_split <- Eltwise17
I0612 11:05:14.028137  4990 net.cpp:589] Eltwise17_ReLU35_0_split -> Eltwise17_ReLU35_0_split_0
I0612 11:05:14.028147  4990 net.cpp:589] Eltwise17_ReLU35_0_split -> Eltwise17_ReLU35_0_split_1
I0612 11:05:14.028197  4990 net.cpp:240] Setting up Eltwise17_ReLU35_0_split
I0612 11:05:14.028206  4990 net.cpp:247] Top shape: 128 16 32 32 (2097152)
I0612 11:05:14.028213  4990 net.cpp:247] Top shape: 128 16 32 32 (2097152)
I0612 11:05:14.028218  4990 net.cpp:255] Memory required for data: 1620574720
I0612 11:05:14.028223  4990 layer_factory.hpp:77] Creating layer Convolution36
I0612 11:05:14.028234  4990 net.cpp:190] Creating Layer Convolution36
I0612 11:05:14.028240  4990 net.cpp:615] Convolution36 <- Eltwise17_ReLU35_0_split_0
I0612 11:05:14.028256  4990 net.cpp:589] Convolution36 -> Convolution36
I0612 11:05:14.028692  4990 net.cpp:240] Setting up Convolution36
I0612 11:05:14.028704  4990 net.cpp:247] Top shape: 128 16 32 32 (2097152)
I0612 11:05:14.028709  4990 net.cpp:255] Memory required for data: 1628963328
I0612 11:05:14.028722  4990 layer_factory.hpp:77] Creating layer BatchNorm36
I0612 11:05:14.028733  4990 net.cpp:190] Creating Layer BatchNorm36
I0612 11:05:14.028739  4990 net.cpp:615] BatchNorm36 <- Convolution36
I0612 11:05:14.028748  4990 net.cpp:576] BatchNorm36 -> Convolution36 (in-place)
I0612 11:05:14.029011  4990 net.cpp:240] Setting up BatchNorm36
I0612 11:05:14.029022  4990 net.cpp:247] Top shape: 128 16 32 32 (2097152)
I0612 11:05:14.029027  4990 net.cpp:255] Memory required for data: 1637351936
I0612 11:05:14.029042  4990 layer_factory.hpp:77] Creating layer Scale36
I0612 11:05:14.029052  4990 net.cpp:190] Creating Layer Scale36
I0612 11:05:14.029057  4990 net.cpp:615] Scale36 <- Convolution36
I0612 11:05:14.029064  4990 net.cpp:576] Scale36 -> Convolution36 (in-place)
I0612 11:05:14.029114  4990 layer_factory.hpp:77] Creating layer Scale36
I0612 11:05:14.029271  4990 net.cpp:240] Setting up Scale36
I0612 11:05:14.029281  4990 net.cpp:247] Top shape: 128 16 32 32 (2097152)
I0612 11:05:14.029286  4990 net.cpp:255] Memory required for data: 1645740544
I0612 11:05:14.029297  4990 layer_factory.hpp:77] Creating layer ReLU36
I0612 11:05:14.029309  4990 net.cpp:190] Creating Layer ReLU36
I0612 11:05:14.029315  4990 net.cpp:615] ReLU36 <- Convolution36
I0612 11:05:14.029323  4990 net.cpp:576] ReLU36 -> Convolution36 (in-place)
I0612 11:05:14.029331  4990 net.cpp:240] Setting up ReLU36
I0612 11:05:14.029338  4990 net.cpp:247] Top shape: 128 16 32 32 (2097152)
I0612 11:05:14.029343  4990 net.cpp:255] Memory required for data: 1654129152
I0612 11:05:14.029348  4990 layer_factory.hpp:77] Creating layer Convolution37
I0612 11:05:14.029362  4990 net.cpp:190] Creating Layer Convolution37
I0612 11:05:14.029367  4990 net.cpp:615] Convolution37 <- Convolution36
I0612 11:05:14.029379  4990 net.cpp:589] Convolution37 -> Convolution37
I0612 11:05:14.029793  4990 net.cpp:240] Setting up Convolution37
I0612 11:05:14.029805  4990 net.cpp:247] Top shape: 128 16 32 32 (2097152)
I0612 11:05:14.029810  4990 net.cpp:255] Memory required for data: 1662517760
I0612 11:05:14.029822  4990 layer_factory.hpp:77] Creating layer BatchNorm37
I0612 11:05:14.029839  4990 net.cpp:190] Creating Layer BatchNorm37
I0612 11:05:14.029844  4990 net.cpp:615] BatchNorm37 <- Convolution37
I0612 11:05:14.029851  4990 net.cpp:576] BatchNorm37 -> Convolution37 (in-place)
I0612 11:05:14.030108  4990 net.cpp:240] Setting up BatchNorm37
I0612 11:05:14.030119  4990 net.cpp:247] Top shape: 128 16 32 32 (2097152)
I0612 11:05:14.030124  4990 net.cpp:255] Memory required for data: 1670906368
I0612 11:05:14.030177  4990 layer_factory.hpp:77] Creating layer Scale37
I0612 11:05:14.030189  4990 net.cpp:190] Creating Layer Scale37
I0612 11:05:14.030195  4990 net.cpp:615] Scale37 <- Convolution37
I0612 11:05:14.030203  4990 net.cpp:576] Scale37 -> Convolution37 (in-place)
I0612 11:05:14.030256  4990 layer_factory.hpp:77] Creating layer Scale37
I0612 11:05:14.030427  4990 net.cpp:240] Setting up Scale37
I0612 11:05:14.030441  4990 net.cpp:247] Top shape: 128 16 32 32 (2097152)
I0612 11:05:14.030446  4990 net.cpp:255] Memory required for data: 1679294976
I0612 11:05:14.030457  4990 layer_factory.hpp:77] Creating layer Eltwise18
I0612 11:05:14.030467  4990 net.cpp:190] Creating Layer Eltwise18
I0612 11:05:14.030473  4990 net.cpp:615] Eltwise18 <- Eltwise17_ReLU35_0_split_1
I0612 11:05:14.030479  4990 net.cpp:615] Eltwise18 <- Convolution37
I0612 11:05:14.030490  4990 net.cpp:589] Eltwise18 -> Eltwise18
I0612 11:05:14.030524  4990 net.cpp:240] Setting up Eltwise18
I0612 11:05:14.030536  4990 net.cpp:247] Top shape: 128 16 32 32 (2097152)
I0612 11:05:14.030541  4990 net.cpp:255] Memory required for data: 1687683584
I0612 11:05:14.030546  4990 layer_factory.hpp:77] Creating layer ReLU37
I0612 11:05:14.030560  4990 net.cpp:190] Creating Layer ReLU37
I0612 11:05:14.030565  4990 net.cpp:615] ReLU37 <- Eltwise18
I0612 11:05:14.030571  4990 net.cpp:576] ReLU37 -> Eltwise18 (in-place)
I0612 11:05:14.030580  4990 net.cpp:240] Setting up ReLU37
I0612 11:05:14.030586  4990 net.cpp:247] Top shape: 128 16 32 32 (2097152)
I0612 11:05:14.030591  4990 net.cpp:255] Memory required for data: 1696072192
I0612 11:05:14.030596  4990 layer_factory.hpp:77] Creating layer Eltwise18_ReLU37_0_split
I0612 11:05:14.030604  4990 net.cpp:190] Creating Layer Eltwise18_ReLU37_0_split
I0612 11:05:14.030608  4990 net.cpp:615] Eltwise18_ReLU37_0_split <- Eltwise18
I0612 11:05:14.030619  4990 net.cpp:589] Eltwise18_ReLU37_0_split -> Eltwise18_ReLU37_0_split_0
I0612 11:05:14.030628  4990 net.cpp:589] Eltwise18_ReLU37_0_split -> Eltwise18_ReLU37_0_split_1
I0612 11:05:14.030689  4990 net.cpp:240] Setting up Eltwise18_ReLU37_0_split
I0612 11:05:14.030696  4990 net.cpp:247] Top shape: 128 16 32 32 (2097152)
I0612 11:05:14.030702  4990 net.cpp:247] Top shape: 128 16 32 32 (2097152)
I0612 11:05:14.030707  4990 net.cpp:255] Memory required for data: 1712849408
I0612 11:05:14.030711  4990 layer_factory.hpp:77] Creating layer Pooling1
I0612 11:05:14.030725  4990 net.cpp:190] Creating Layer Pooling1
I0612 11:05:14.030730  4990 net.cpp:615] Pooling1 <- Eltwise18_ReLU37_0_split_0
I0612 11:05:14.030737  4990 net.cpp:589] Pooling1 -> Pooling1
I0612 11:05:14.030786  4990 net.cpp:240] Setting up Pooling1
I0612 11:05:14.030794  4990 net.cpp:247] Top shape: 128 16 16 16 (524288)
I0612 11:05:14.030799  4990 net.cpp:255] Memory required for data: 1714946560
I0612 11:05:14.030804  4990 layer_factory.hpp:77] Creating layer Input1
I0612 11:05:14.030818  4990 net.cpp:190] Creating Layer Input1
I0612 11:05:14.030825  4990 net.cpp:589] Input1 -> Input1
I0612 11:05:14.030864  4990 net.cpp:240] Setting up Input1
I0612 11:05:14.030874  4990 net.cpp:247] Top shape: 128 16 16 16 (524288)
I0612 11:05:14.030879  4990 net.cpp:255] Memory required for data: 1717043712
I0612 11:05:14.030882  4990 layer_factory.hpp:77] Creating layer Concat1
I0612 11:05:14.030891  4990 net.cpp:190] Creating Layer Concat1
I0612 11:05:14.030897  4990 net.cpp:615] Concat1 <- Pooling1
I0612 11:05:14.030903  4990 net.cpp:615] Concat1 <- Input1
I0612 11:05:14.030917  4990 net.cpp:589] Concat1 -> Concat1
I0612 11:05:14.030956  4990 net.cpp:240] Setting up Concat1
I0612 11:05:14.030964  4990 net.cpp:247] Top shape: 128 32 16 16 (1048576)
I0612 11:05:14.030969  4990 net.cpp:255] Memory required for data: 1721238016
I0612 11:05:14.030974  4990 layer_factory.hpp:77] Creating layer Convolution38
I0612 11:05:14.030988  4990 net.cpp:190] Creating Layer Convolution38
I0612 11:05:14.030995  4990 net.cpp:615] Convolution38 <- Eltwise18_ReLU37_0_split_1
I0612 11:05:14.031004  4990 net.cpp:589] Convolution38 -> Convolution38
I0612 11:05:14.032331  4990 net.cpp:240] Setting up Convolution38
I0612 11:05:14.032351  4990 net.cpp:247] Top shape: 128 32 16 16 (1048576)
I0612 11:05:14.032356  4990 net.cpp:255] Memory required for data: 1725432320
I0612 11:05:14.032371  4990 layer_factory.hpp:77] Creating layer BatchNorm38
I0612 11:05:14.032382  4990 net.cpp:190] Creating Layer BatchNorm38
I0612 11:05:14.032389  4990 net.cpp:615] BatchNorm38 <- Convolution38
I0612 11:05:14.032397  4990 net.cpp:576] BatchNorm38 -> Convolution38 (in-place)
I0612 11:05:14.032649  4990 net.cpp:240] Setting up BatchNorm38
I0612 11:05:14.032660  4990 net.cpp:247] Top shape: 128 32 16 16 (1048576)
I0612 11:05:14.032665  4990 net.cpp:255] Memory required for data: 1729626624
I0612 11:05:14.032681  4990 layer_factory.hpp:77] Creating layer Scale38
I0612 11:05:14.032691  4990 net.cpp:190] Creating Layer Scale38
I0612 11:05:14.032696  4990 net.cpp:615] Scale38 <- Convolution38
I0612 11:05:14.032703  4990 net.cpp:576] Scale38 -> Convolution38 (in-place)
I0612 11:05:14.032752  4990 layer_factory.hpp:77] Creating layer Scale38
I0612 11:05:14.032902  4990 net.cpp:240] Setting up Scale38
I0612 11:05:14.032912  4990 net.cpp:247] Top shape: 128 32 16 16 (1048576)
I0612 11:05:14.032920  4990 net.cpp:255] Memory required for data: 1733820928
I0612 11:05:14.032935  4990 layer_factory.hpp:77] Creating layer ReLU38
I0612 11:05:14.032944  4990 net.cpp:190] Creating Layer ReLU38
I0612 11:05:14.032950  4990 net.cpp:615] ReLU38 <- Convolution38
I0612 11:05:14.032958  4990 net.cpp:576] ReLU38 -> Convolution38 (in-place)
I0612 11:05:14.032968  4990 net.cpp:240] Setting up ReLU38
I0612 11:05:14.032975  4990 net.cpp:247] Top shape: 128 32 16 16 (1048576)
I0612 11:05:14.032980  4990 net.cpp:255] Memory required for data: 1738015232
I0612 11:05:14.032984  4990 layer_factory.hpp:77] Creating layer Convolution39
I0612 11:05:14.032997  4990 net.cpp:190] Creating Layer Convolution39
I0612 11:05:14.033002  4990 net.cpp:615] Convolution39 <- Convolution38
I0612 11:05:14.033016  4990 net.cpp:589] Convolution39 -> Convolution39
I0612 11:05:14.033730  4990 net.cpp:240] Setting up Convolution39
I0612 11:05:14.033741  4990 net.cpp:247] Top shape: 128 32 16 16 (1048576)
I0612 11:05:14.033746  4990 net.cpp:255] Memory required for data: 1742209536
I0612 11:05:14.033758  4990 layer_factory.hpp:77] Creating layer BatchNorm39
I0612 11:05:14.033767  4990 net.cpp:190] Creating Layer BatchNorm39
I0612 11:05:14.033772  4990 net.cpp:615] BatchNorm39 <- Convolution39
I0612 11:05:14.033782  4990 net.cpp:576] BatchNorm39 -> Convolution39 (in-place)
I0612 11:05:14.034029  4990 net.cpp:240] Setting up BatchNorm39
I0612 11:05:14.034039  4990 net.cpp:247] Top shape: 128 32 16 16 (1048576)
I0612 11:05:14.034044  4990 net.cpp:255] Memory required for data: 1746403840
I0612 11:05:14.034059  4990 layer_factory.hpp:77] Creating layer Scale39
I0612 11:05:14.034067  4990 net.cpp:190] Creating Layer Scale39
I0612 11:05:14.034072  4990 net.cpp:615] Scale39 <- Convolution39
I0612 11:05:14.034080  4990 net.cpp:576] Scale39 -> Convolution39 (in-place)
I0612 11:05:14.034126  4990 layer_factory.hpp:77] Creating layer Scale39
I0612 11:05:14.034276  4990 net.cpp:240] Setting up Scale39
I0612 11:05:14.034286  4990 net.cpp:247] Top shape: 128 32 16 16 (1048576)
I0612 11:05:14.034291  4990 net.cpp:255] Memory required for data: 1750598144
I0612 11:05:14.034301  4990 layer_factory.hpp:77] Creating layer Eltwise19
I0612 11:05:14.034310  4990 net.cpp:190] Creating Layer Eltwise19
I0612 11:05:14.034317  4990 net.cpp:615] Eltwise19 <- Concat1
I0612 11:05:14.034327  4990 net.cpp:615] Eltwise19 <- Convolution39
I0612 11:05:14.034334  4990 net.cpp:589] Eltwise19 -> Eltwise19
I0612 11:05:14.034370  4990 net.cpp:240] Setting up Eltwise19
I0612 11:05:14.034380  4990 net.cpp:247] Top shape: 128 32 16 16 (1048576)
I0612 11:05:14.034384  4990 net.cpp:255] Memory required for data: 1754792448
I0612 11:05:14.034389  4990 layer_factory.hpp:77] Creating layer ReLU39
I0612 11:05:14.034402  4990 net.cpp:190] Creating Layer ReLU39
I0612 11:05:14.034409  4990 net.cpp:615] ReLU39 <- Eltwise19
I0612 11:05:14.034415  4990 net.cpp:576] ReLU39 -> Eltwise19 (in-place)
I0612 11:05:14.034423  4990 net.cpp:240] Setting up ReLU39
I0612 11:05:14.034430  4990 net.cpp:247] Top shape: 128 32 16 16 (1048576)
I0612 11:05:14.034435  4990 net.cpp:255] Memory required for data: 1758986752
I0612 11:05:14.034440  4990 layer_factory.hpp:77] Creating layer Eltwise19_ReLU39_0_split
I0612 11:05:14.034446  4990 net.cpp:190] Creating Layer Eltwise19_ReLU39_0_split
I0612 11:05:14.034451  4990 net.cpp:615] Eltwise19_ReLU39_0_split <- Eltwise19
I0612 11:05:14.034461  4990 net.cpp:589] Eltwise19_ReLU39_0_split -> Eltwise19_ReLU39_0_split_0
I0612 11:05:14.034469  4990 net.cpp:589] Eltwise19_ReLU39_0_split -> Eltwise19_ReLU39_0_split_1
I0612 11:05:14.034518  4990 net.cpp:240] Setting up Eltwise19_ReLU39_0_split
I0612 11:05:14.034528  4990 net.cpp:247] Top shape: 128 32 16 16 (1048576)
I0612 11:05:14.034533  4990 net.cpp:247] Top shape: 128 32 16 16 (1048576)
I0612 11:05:14.034538  4990 net.cpp:255] Memory required for data: 1767375360
I0612 11:05:14.034543  4990 layer_factory.hpp:77] Creating layer Convolution40
I0612 11:05:14.034556  4990 net.cpp:190] Creating Layer Convolution40
I0612 11:05:14.034566  4990 net.cpp:615] Convolution40 <- Eltwise19_ReLU39_0_split_0
I0612 11:05:14.034575  4990 net.cpp:589] Convolution40 -> Convolution40
I0612 11:05:14.035291  4990 net.cpp:240] Setting up Convolution40
I0612 11:05:14.035303  4990 net.cpp:247] Top shape: 128 32 16 16 (1048576)
I0612 11:05:14.035308  4990 net.cpp:255] Memory required for data: 1771569664
I0612 11:05:14.035320  4990 layer_factory.hpp:77] Creating layer BatchNorm40
I0612 11:05:14.035332  4990 net.cpp:190] Creating Layer BatchNorm40
I0612 11:05:14.035338  4990 net.cpp:615] BatchNorm40 <- Convolution40
I0612 11:05:14.035346  4990 net.cpp:576] BatchNorm40 -> Convolution40 (in-place)
I0612 11:05:14.035601  4990 net.cpp:240] Setting up BatchNorm40
I0612 11:05:14.035612  4990 net.cpp:247] Top shape: 128 32 16 16 (1048576)
I0612 11:05:14.035617  4990 net.cpp:255] Memory required for data: 1775763968
I0612 11:05:14.035631  4990 layer_factory.hpp:77] Creating layer Scale40
I0612 11:05:14.035640  4990 net.cpp:190] Creating Layer Scale40
I0612 11:05:14.035646  4990 net.cpp:615] Scale40 <- Convolution40
I0612 11:05:14.035656  4990 net.cpp:576] Scale40 -> Convolution40 (in-place)
I0612 11:05:14.035701  4990 layer_factory.hpp:77] Creating layer Scale40
I0612 11:05:14.035850  4990 net.cpp:240] Setting up Scale40
I0612 11:05:14.035862  4990 net.cpp:247] Top shape: 128 32 16 16 (1048576)
I0612 11:05:14.035867  4990 net.cpp:255] Memory required for data: 1779958272
I0612 11:05:14.035879  4990 layer_factory.hpp:77] Creating layer ReLU40
I0612 11:05:14.035887  4990 net.cpp:190] Creating Layer ReLU40
I0612 11:05:14.035893  4990 net.cpp:615] ReLU40 <- Convolution40
I0612 11:05:14.035900  4990 net.cpp:576] ReLU40 -> Convolution40 (in-place)
I0612 11:05:14.035908  4990 net.cpp:240] Setting up ReLU40
I0612 11:05:14.035915  4990 net.cpp:247] Top shape: 128 32 16 16 (1048576)
I0612 11:05:14.035919  4990 net.cpp:255] Memory required for data: 1784152576
I0612 11:05:14.035924  4990 layer_factory.hpp:77] Creating layer Convolution41
I0612 11:05:14.035939  4990 net.cpp:190] Creating Layer Convolution41
I0612 11:05:14.035944  4990 net.cpp:615] Convolution41 <- Convolution40
I0612 11:05:14.035955  4990 net.cpp:589] Convolution41 -> Convolution41
I0612 11:05:14.036669  4990 net.cpp:240] Setting up Convolution41
I0612 11:05:14.036682  4990 net.cpp:247] Top shape: 128 32 16 16 (1048576)
I0612 11:05:14.036687  4990 net.cpp:255] Memory required for data: 1788346880
I0612 11:05:14.036698  4990 layer_factory.hpp:77] Creating layer BatchNorm41
I0612 11:05:14.036710  4990 net.cpp:190] Creating Layer BatchNorm41
I0612 11:05:14.036716  4990 net.cpp:615] BatchNorm41 <- Convolution41
I0612 11:05:14.036725  4990 net.cpp:576] BatchNorm41 -> Convolution41 (in-place)
I0612 11:05:14.036967  4990 net.cpp:240] Setting up BatchNorm41
I0612 11:05:14.036978  4990 net.cpp:247] Top shape: 128 32 16 16 (1048576)
I0612 11:05:14.036983  4990 net.cpp:255] Memory required for data: 1792541184
I0612 11:05:14.036995  4990 layer_factory.hpp:77] Creating layer Scale41
I0612 11:05:14.037006  4990 net.cpp:190] Creating Layer Scale41
I0612 11:05:14.037012  4990 net.cpp:615] Scale41 <- Convolution41
I0612 11:05:14.037019  4990 net.cpp:576] Scale41 -> Convolution41 (in-place)
I0612 11:05:14.037062  4990 layer_factory.hpp:77] Creating layer Scale41
I0612 11:05:14.037212  4990 net.cpp:240] Setting up Scale41
I0612 11:05:14.037222  4990 net.cpp:247] Top shape: 128 32 16 16 (1048576)
I0612 11:05:14.037226  4990 net.cpp:255] Memory required for data: 1796735488
I0612 11:05:14.037237  4990 layer_factory.hpp:77] Creating layer Eltwise20
I0612 11:05:14.037246  4990 net.cpp:190] Creating Layer Eltwise20
I0612 11:05:14.037252  4990 net.cpp:615] Eltwise20 <- Eltwise19_ReLU39_0_split_1
I0612 11:05:14.037259  4990 net.cpp:615] Eltwise20 <- Convolution41
I0612 11:05:14.037272  4990 net.cpp:589] Eltwise20 -> Eltwise20
I0612 11:05:14.037298  4990 net.cpp:240] Setting up Eltwise20
I0612 11:05:14.037307  4990 net.cpp:247] Top shape: 128 32 16 16 (1048576)
I0612 11:05:14.037312  4990 net.cpp:255] Memory required for data: 1800929792
I0612 11:05:14.037320  4990 layer_factory.hpp:77] Creating layer ReLU41
I0612 11:05:14.037331  4990 net.cpp:190] Creating Layer ReLU41
I0612 11:05:14.037336  4990 net.cpp:615] ReLU41 <- Eltwise20
I0612 11:05:14.037343  4990 net.cpp:576] ReLU41 -> Eltwise20 (in-place)
I0612 11:05:14.037351  4990 net.cpp:240] Setting up ReLU41
I0612 11:05:14.037358  4990 net.cpp:247] Top shape: 128 32 16 16 (1048576)
I0612 11:05:14.037363  4990 net.cpp:255] Memory required for data: 1805124096
I0612 11:05:14.037367  4990 layer_factory.hpp:77] Creating layer Eltwise20_ReLU41_0_split
I0612 11:05:14.037374  4990 net.cpp:190] Creating Layer Eltwise20_ReLU41_0_split
I0612 11:05:14.037379  4990 net.cpp:615] Eltwise20_ReLU41_0_split <- Eltwise20
I0612 11:05:14.037385  4990 net.cpp:589] Eltwise20_ReLU41_0_split -> Eltwise20_ReLU41_0_split_0
I0612 11:05:14.037397  4990 net.cpp:589] Eltwise20_ReLU41_0_split -> Eltwise20_ReLU41_0_split_1
I0612 11:05:14.037442  4990 net.cpp:240] Setting up Eltwise20_ReLU41_0_split
I0612 11:05:14.037449  4990 net.cpp:247] Top shape: 128 32 16 16 (1048576)
I0612 11:05:14.037456  4990 net.cpp:247] Top shape: 128 32 16 16 (1048576)
I0612 11:05:14.037461  4990 net.cpp:255] Memory required for data: 1813512704
I0612 11:05:14.037466  4990 layer_factory.hpp:77] Creating layer Convolution42
I0612 11:05:14.037479  4990 net.cpp:190] Creating Layer Convolution42
I0612 11:05:14.037485  4990 net.cpp:615] Convolution42 <- Eltwise20_ReLU41_0_split_0
I0612 11:05:14.037494  4990 net.cpp:589] Convolution42 -> Convolution42
I0612 11:05:14.038214  4990 net.cpp:240] Setting up Convolution42
I0612 11:05:14.038225  4990 net.cpp:247] Top shape: 128 32 16 16 (1048576)
I0612 11:05:14.038230  4990 net.cpp:255] Memory required for data: 1817707008
I0612 11:05:14.038242  4990 layer_factory.hpp:77] Creating layer BatchNorm42
I0612 11:05:14.038254  4990 net.cpp:190] Creating Layer BatchNorm42
I0612 11:05:14.038259  4990 net.cpp:615] BatchNorm42 <- Convolution42
I0612 11:05:14.038267  4990 net.cpp:576] BatchNorm42 -> Convolution42 (in-place)
I0612 11:05:14.038518  4990 net.cpp:240] Setting up BatchNorm42
I0612 11:05:14.038530  4990 net.cpp:247] Top shape: 128 32 16 16 (1048576)
I0612 11:05:14.038534  4990 net.cpp:255] Memory required for data: 1821901312
I0612 11:05:14.038549  4990 layer_factory.hpp:77] Creating layer Scale42
I0612 11:05:14.038561  4990 net.cpp:190] Creating Layer Scale42
I0612 11:05:14.038568  4990 net.cpp:615] Scale42 <- Convolution42
I0612 11:05:14.038574  4990 net.cpp:576] Scale42 -> Convolution42 (in-place)
I0612 11:05:14.038620  4990 layer_factory.hpp:77] Creating layer Scale42
I0612 11:05:14.038766  4990 net.cpp:240] Setting up Scale42
I0612 11:05:14.038775  4990 net.cpp:247] Top shape: 128 32 16 16 (1048576)
I0612 11:05:14.038780  4990 net.cpp:255] Memory required for data: 1826095616
I0612 11:05:14.038791  4990 layer_factory.hpp:77] Creating layer ReLU42
I0612 11:05:14.038802  4990 net.cpp:190] Creating Layer ReLU42
I0612 11:05:14.038808  4990 net.cpp:615] ReLU42 <- Convolution42
I0612 11:05:14.038815  4990 net.cpp:576] ReLU42 -> Convolution42 (in-place)
I0612 11:05:14.038823  4990 net.cpp:240] Setting up ReLU42
I0612 11:05:14.038830  4990 net.cpp:247] Top shape: 128 32 16 16 (1048576)
I0612 11:05:14.038836  4990 net.cpp:255] Memory required for data: 1830289920
I0612 11:05:14.038839  4990 layer_factory.hpp:77] Creating layer Convolution43
I0612 11:05:14.038854  4990 net.cpp:190] Creating Layer Convolution43
I0612 11:05:14.038859  4990 net.cpp:615] Convolution43 <- Convolution42
I0612 11:05:14.038867  4990 net.cpp:589] Convolution43 -> Convolution43
I0612 11:05:14.039585  4990 net.cpp:240] Setting up Convolution43
I0612 11:05:14.039598  4990 net.cpp:247] Top shape: 128 32 16 16 (1048576)
I0612 11:05:14.039603  4990 net.cpp:255] Memory required for data: 1834484224
I0612 11:05:14.039615  4990 layer_factory.hpp:77] Creating layer BatchNorm43
I0612 11:05:14.039628  4990 net.cpp:190] Creating Layer BatchNorm43
I0612 11:05:14.039633  4990 net.cpp:615] BatchNorm43 <- Convolution43
I0612 11:05:14.039640  4990 net.cpp:576] BatchNorm43 -> Convolution43 (in-place)
I0612 11:05:14.039893  4990 net.cpp:240] Setting up BatchNorm43
I0612 11:05:14.039903  4990 net.cpp:247] Top shape: 128 32 16 16 (1048576)
I0612 11:05:14.039908  4990 net.cpp:255] Memory required for data: 1838678528
I0612 11:05:14.039926  4990 layer_factory.hpp:77] Creating layer Scale43
I0612 11:05:14.039934  4990 net.cpp:190] Creating Layer Scale43
I0612 11:05:14.039939  4990 net.cpp:615] Scale43 <- Convolution43
I0612 11:05:14.039947  4990 net.cpp:576] Scale43 -> Convolution43 (in-place)
I0612 11:05:14.039993  4990 layer_factory.hpp:77] Creating layer Scale43
I0612 11:05:14.040140  4990 net.cpp:240] Setting up Scale43
I0612 11:05:14.040149  4990 net.cpp:247] Top shape: 128 32 16 16 (1048576)
I0612 11:05:14.040154  4990 net.cpp:255] Memory required for data: 1842872832
I0612 11:05:14.040169  4990 layer_factory.hpp:77] Creating layer Eltwise21
I0612 11:05:14.040179  4990 net.cpp:190] Creating Layer Eltwise21
I0612 11:05:14.040184  4990 net.cpp:615] Eltwise21 <- Eltwise20_ReLU41_0_split_1
I0612 11:05:14.040191  4990 net.cpp:615] Eltwise21 <- Convolution43
I0612 11:05:14.040201  4990 net.cpp:589] Eltwise21 -> Eltwise21
I0612 11:05:14.040226  4990 net.cpp:240] Setting up Eltwise21
I0612 11:05:14.040235  4990 net.cpp:247] Top shape: 128 32 16 16 (1048576)
I0612 11:05:14.040238  4990 net.cpp:255] Memory required for data: 1847067136
I0612 11:05:14.040243  4990 layer_factory.hpp:77] Creating layer ReLU43
I0612 11:05:14.040251  4990 net.cpp:190] Creating Layer ReLU43
I0612 11:05:14.040256  4990 net.cpp:615] ReLU43 <- Eltwise21
I0612 11:05:14.040266  4990 net.cpp:576] ReLU43 -> Eltwise21 (in-place)
I0612 11:05:14.040274  4990 net.cpp:240] Setting up ReLU43
I0612 11:05:14.040280  4990 net.cpp:247] Top shape: 128 32 16 16 (1048576)
I0612 11:05:14.040285  4990 net.cpp:255] Memory required for data: 1851261440
I0612 11:05:14.040289  4990 layer_factory.hpp:77] Creating layer Eltwise21_ReLU43_0_split
I0612 11:05:14.040297  4990 net.cpp:190] Creating Layer Eltwise21_ReLU43_0_split
I0612 11:05:14.040302  4990 net.cpp:615] Eltwise21_ReLU43_0_split <- Eltwise21
I0612 11:05:14.040308  4990 net.cpp:589] Eltwise21_ReLU43_0_split -> Eltwise21_ReLU43_0_split_0
I0612 11:05:14.040316  4990 net.cpp:589] Eltwise21_ReLU43_0_split -> Eltwise21_ReLU43_0_split_1
I0612 11:05:14.040364  4990 net.cpp:240] Setting up Eltwise21_ReLU43_0_split
I0612 11:05:14.040372  4990 net.cpp:247] Top shape: 128 32 16 16 (1048576)
I0612 11:05:14.040379  4990 net.cpp:247] Top shape: 128 32 16 16 (1048576)
I0612 11:05:14.040382  4990 net.cpp:255] Memory required for data: 1859650048
I0612 11:05:14.040387  4990 layer_factory.hpp:77] Creating layer Convolution44
I0612 11:05:14.040398  4990 net.cpp:190] Creating Layer Convolution44
I0612 11:05:14.040405  4990 net.cpp:615] Convolution44 <- Eltwise21_ReLU43_0_split_0
I0612 11:05:14.040416  4990 net.cpp:589] Convolution44 -> Convolution44
…
I0612 11:05:14.389255  4990 net.cpp:576] BatchNorm92 -> Convolution92 (in-place)
I0612 11:05:14.389484  4990 net.cpp:240] Setting up BatchNorm92
I0612 11:05:14.389493  4990 net.cpp:247] Top shape: 128 64 8 8 (524288)
I0612 11:05:14.389497  4990 net.cpp:255] Memory required for data: 2767717888
I0612 11:05:14.389510  4990 layer_factory.hpp:77] Creating layer Scale92
I0612 11:05:14.389518  4990 net.cpp:190] Creating Layer Scale92
I0612 11:05:14.389523  4990 net.cpp:615] Scale92 <- Convolution92
I0612 11:05:14.389530  4990 net.cpp:576] Scale92 -> Convolution92 (in-place)
I0612 11:05:14.389570  4990 layer_factory.hpp:77] Creating layer Scale92
I0612 11:05:14.389706  4990 net.cpp:240] Setting up Scale92
I0612 11:05:14.389714  4990 net.cpp:247] Top shape: 128 64 8 8 (524288)
I0612 11:05:14.389717  4990 net.cpp:255] Memory required for data: 2769815040
I0612 11:05:14.389727  4990 layer_factory.hpp:77] Creating layer ReLU92
I0612 11:05:14.389735  4990 net.cpp:190] Creating Layer ReLU92
I0612 11:05:14.389739  4990 net.cpp:615] ReLU92 <- Convolution92
I0612 11:05:14.389747  4990 net.cpp:576] ReLU92 -> Convolution92 (in-place)
I0612 11:05:14.389755  4990 net.cpp:240] Setting up ReLU92
I0612 11:05:14.389760  4990 net.cpp:247] Top shape: 128 64 8 8 (524288)
I0612 11:05:14.389763  4990 net.cpp:255] Memory required for data: 2771912192
I0612 11:05:14.389767  4990 layer_factory.hpp:77] Creating layer Convolution93
I0612 11:05:14.389780  4990 net.cpp:190] Creating Layer Convolution93
I0612 11:05:14.389786  4990 net.cpp:615] Convolution93 <- Convolution92
I0612 11:05:14.389791  4990 net.cpp:589] Convolution93 -> Convolution93
I0612 11:05:14.391432  4990 net.cpp:240] Setting up Convolution93
I0612 11:05:14.391443  4990 net.cpp:247] Top shape: 128 64 8 8 (524288)
I0612 11:05:14.391448  4990 net.cpp:255] Memory required for data: 2774009344
I0612 11:05:14.391456  4990 layer_factory.hpp:77] Creating layer BatchNorm93
I0612 11:05:14.391474  4990 net.cpp:190] Creating Layer BatchNorm93
I0612 11:05:14.391479  4990 net.cpp:615] BatchNorm93 <- Convolution93
I0612 11:05:14.391487  4990 net.cpp:576] BatchNorm93 -> Convolution93 (in-place)
I0612 11:05:14.391715  4990 net.cpp:240] Setting up BatchNorm93
I0612 11:05:14.391722  4990 net.cpp:247] Top shape: 128 64 8 8 (524288)
I0612 11:05:14.391726  4990 net.cpp:255] Memory required for data: 2776106496
I0612 11:05:14.391739  4990 layer_factory.hpp:77] Creating layer Scale93
I0612 11:05:14.391746  4990 net.cpp:190] Creating Layer Scale93
I0612 11:05:14.391752  4990 net.cpp:615] Scale93 <- Convolution93
I0612 11:05:14.391757  4990 net.cpp:576] Scale93 -> Convolution93 (in-place)
I0612 11:05:14.391799  4990 layer_factory.hpp:77] Creating layer Scale93
I0612 11:05:14.391935  4990 net.cpp:240] Setting up Scale93
I0612 11:05:14.391943  4990 net.cpp:247] Top shape: 128 64 8 8 (524288)
I0612 11:05:14.391947  4990 net.cpp:255] Memory required for data: 2778203648
I0612 11:05:14.391957  4990 layer_factory.hpp:77] Creating layer Eltwise46
I0612 11:05:14.391965  4990 net.cpp:190] Creating Layer Eltwise46
I0612 11:05:14.391971  4990 net.cpp:615] Eltwise46 <- Eltwise45_ReLU91_0_split_1
I0612 11:05:14.391976  4990 net.cpp:615] Eltwise46 <- Convolution93
I0612 11:05:14.391983  4990 net.cpp:589] Eltwise46 -> Eltwise46
I0612 11:05:14.392004  4990 net.cpp:240] Setting up Eltwise46
I0612 11:05:14.392010  4990 net.cpp:247] Top shape: 128 64 8 8 (524288)
I0612 11:05:14.392014  4990 net.cpp:255] Memory required for data: 2780300800
I0612 11:05:14.392017  4990 layer_factory.hpp:77] Creating layer ReLU93
I0612 11:05:14.392029  4990 net.cpp:190] Creating Layer ReLU93
I0612 11:05:14.392033  4990 net.cpp:615] ReLU93 <- Eltwise46
I0612 11:05:14.392038  4990 net.cpp:576] ReLU93 -> Eltwise46 (in-place)
I0612 11:05:14.392045  4990 net.cpp:240] Setting up ReLU93
I0612 11:05:14.392050  4990 net.cpp:247] Top shape: 128 64 8 8 (524288)
I0612 11:05:14.392055  4990 net.cpp:255] Memory required for data: 2782397952
I0612 11:05:14.392058  4990 layer_factory.hpp:77] Creating layer Eltwise46_ReLU93_0_split
I0612 11:05:14.392063  4990 net.cpp:190] Creating Layer Eltwise46_ReLU93_0_split
I0612 11:05:14.392067  4990 net.cpp:615] Eltwise46_ReLU93_0_split <- Eltwise46
I0612 11:05:14.392073  4990 net.cpp:589] Eltwise46_ReLU93_0_split -> Eltwise46_ReLU93_0_split_0
I0612 11:05:14.392081  4990 net.cpp:589] Eltwise46_ReLU93_0_split -> Eltwise46_ReLU93_0_split_1
I0612 11:05:14.392122  4990 net.cpp:240] Setting up Eltwise46_ReLU93_0_split
I0612 11:05:14.392128  4990 net.cpp:247] Top shape: 128 64 8 8 (524288)
I0612 11:05:14.392133  4990 net.cpp:247] Top shape: 128 64 8 8 (524288)
I0612 11:05:14.392137  4990 net.cpp:255] Memory required for data: 2786592256
I0612 11:05:14.392141  4990 layer_factory.hpp:77] Creating layer Convolution94
I0612 11:05:14.392154  4990 net.cpp:190] Creating Layer Convolution94
I0612 11:05:14.392159  4990 net.cpp:615] Convolution94 <- Eltwise46_ReLU93_0_split_0
I0612 11:05:14.392168  4990 net.cpp:589] Convolution94 -> Convolution94
I0612 11:05:14.394482  4990 net.cpp:240] Setting up Convolution94
I0612 11:05:14.394500  4990 net.cpp:247] Top shape: 128 64 8 8 (524288)
I0612 11:05:14.394503  4990 net.cpp:255] Memory required for data: 2788689408
I0612 11:05:14.394515  4990 layer_factory.hpp:77] Creating layer BatchNorm94
I0612 11:05:14.394527  4990 net.cpp:190] Creating Layer BatchNorm94
I0612 11:05:14.394533  4990 net.cpp:615] BatchNorm94 <- Convolution94
I0612 11:05:14.394539  4990 net.cpp:576] BatchNorm94 -> Convolution94 (in-place)
I0612 11:05:14.394772  4990 net.cpp:240] Setting up BatchNorm94
I0612 11:05:14.394779  4990 net.cpp:247] Top shape: 128 64 8 8 (524288)
I0612 11:05:14.394783  4990 net.cpp:255] Memory required for data: 2790786560
I0612 11:05:14.394795  4990 layer_factory.hpp:77] Creating layer Scale94
I0612 11:05:14.394803  4990 net.cpp:190] Creating Layer Scale94
I0612 11:05:14.394807  4990 net.cpp:615] Scale94 <- Convolution94
I0612 11:05:14.394812  4990 net.cpp:576] Scale94 -> Convolution94 (in-place)
I0612 11:05:14.394858  4990 layer_factory.hpp:77] Creating layer Scale94
I0612 11:05:14.394994  4990 net.cpp:240] Setting up Scale94
I0612 11:05:14.395000  4990 net.cpp:247] Top shape: 128 64 8 8 (524288)
I0612 11:05:14.395009  4990 net.cpp:255] Memory required for data: 2792883712
I0612 11:05:14.395020  4990 layer_factory.hpp:77] Creating layer ReLU94
I0612 11:05:14.395027  4990 net.cpp:190] Creating Layer ReLU94
I0612 11:05:14.395032  4990 net.cpp:615] ReLU94 <- Convolution94
I0612 11:05:14.395038  4990 net.cpp:576] ReLU94 -> Convolution94 (in-place)
I0612 11:05:14.395045  4990 net.cpp:240] Setting up ReLU94
I0612 11:05:14.395051  4990 net.cpp:247] Top shape: 128 64 8 8 (524288)
I0612 11:05:14.395054  4990 net.cpp:255] Memory required for data: 2794980864
I0612 11:05:14.395059  4990 layer_factory.hpp:77] Creating layer Convolution95
I0612 11:05:14.395073  4990 net.cpp:190] Creating Layer Convolution95
I0612 11:05:14.395078  4990 net.cpp:615] Convolution95 <- Convolution94
I0612 11:05:14.395087  4990 net.cpp:589] Convolution95 -> Convolution95
I0612 11:05:14.396718  4990 net.cpp:240] Setting up Convolution95
I0612 11:05:14.396728  4990 net.cpp:247] Top shape: 128 64 8 8 (524288)
I0612 11:05:14.396733  4990 net.cpp:255] Memory required for data: 2797078016
I0612 11:05:14.396741  4990 layer_factory.hpp:77] Creating layer BatchNorm95
I0612 11:05:14.396752  4990 net.cpp:190] Creating Layer BatchNorm95
I0612 11:05:14.396757  4990 net.cpp:615] BatchNorm95 <- Convolution95
I0612 11:05:14.396766  4990 net.cpp:576] BatchNorm95 -> Convolution95 (in-place)
I0612 11:05:14.396992  4990 net.cpp:240] Setting up BatchNorm95
I0612 11:05:14.397001  4990 net.cpp:247] Top shape: 128 64 8 8 (524288)
I0612 11:05:14.397004  4990 net.cpp:255] Memory required for data: 2799175168
I0612 11:05:14.397017  4990 layer_factory.hpp:77] Creating layer Scale95
I0612 11:05:14.397030  4990 net.cpp:190] Creating Layer Scale95
I0612 11:05:14.397035  4990 net.cpp:615] Scale95 <- Convolution95
I0612 11:05:14.397042  4990 net.cpp:576] Scale95 -> Convolution95 (in-place)
I0612 11:05:14.397083  4990 layer_factory.hpp:77] Creating layer Scale95
I0612 11:05:14.397217  4990 net.cpp:240] Setting up Scale95
I0612 11:05:14.397224  4990 net.cpp:247] Top shape: 128 64 8 8 (524288)
I0612 11:05:14.397228  4990 net.cpp:255] Memory required for data: 2801272320
I0612 11:05:14.397243  4990 layer_factory.hpp:77] Creating layer Eltwise47
I0612 11:05:14.397253  4990 net.cpp:190] Creating Layer Eltwise47
I0612 11:05:14.397258  4990 net.cpp:615] Eltwise47 <- Eltwise46_ReLU93_0_split_1
I0612 11:05:14.397264  4990 net.cpp:615] Eltwise47 <- Convolution95
I0612 11:05:14.397272  4990 net.cpp:589] Eltwise47 -> Eltwise47
I0612 11:05:14.397295  4990 net.cpp:240] Setting up Eltwise47
I0612 11:05:14.397302  4990 net.cpp:247] Top shape: 128 64 8 8 (524288)
I0612 11:05:14.397305  4990 net.cpp:255] Memory required for data: 2803369472
I0612 11:05:14.397310  4990 layer_factory.hpp:77] Creating layer ReLU95
I0612 11:05:14.397317  4990 net.cpp:190] Creating Layer ReLU95
I0612 11:05:14.397321  4990 net.cpp:615] ReLU95 <- Eltwise47
I0612 11:05:14.397330  4990 net.cpp:576] ReLU95 -> Eltwise47 (in-place)
I0612 11:05:14.397336  4990 net.cpp:240] Setting up ReLU95
I0612 11:05:14.397341  4990 net.cpp:247] Top shape: 128 64 8 8 (524288)
I0612 11:05:14.397344  4990 net.cpp:255] Memory required for data: 2805466624
I0612 11:05:14.397348  4990 layer_factory.hpp:77] Creating layer Eltwise47_ReLU95_0_split
I0612 11:05:14.397354  4990 net.cpp:190] Creating Layer Eltwise47_ReLU95_0_split
I0612 11:05:14.397358  4990 net.cpp:615] Eltwise47_ReLU95_0_split <- Eltwise47
I0612 11:05:14.397363  4990 net.cpp:589] Eltwise47_ReLU95_0_split -> Eltwise47_ReLU95_0_split_0
I0612 11:05:14.397372  4990 net.cpp:589] Eltwise47_ReLU95_0_split -> Eltwise47_ReLU95_0_split_1
I0612 11:05:14.397414  4990 net.cpp:240] Setting up Eltwise47_ReLU95_0_split
I0612 11:05:14.397421  4990 net.cpp:247] Top shape: 128 64 8 8 (524288)
I0612 11:05:14.397426  4990 net.cpp:247] Top shape: 128 64 8 8 (524288)
I0612 11:05:14.397430  4990 net.cpp:255] Memory required for data: 2809660928
I0612 11:05:14.397434  4990 layer_factory.hpp:77] Creating layer Convolution96
I0612 11:05:14.397444  4990 net.cpp:190] Creating Layer Convolution96
I0612 11:05:14.397454  4990 net.cpp:615] Convolution96 <- Eltwise47_ReLU95_0_split_0
I0612 11:05:14.397464  4990 net.cpp:589] Convolution96 -> Convolution96
I0612 11:05:14.399111  4990 net.cpp:240] Setting up Convolution96
I0612 11:05:14.399121  4990 net.cpp:247] Top shape: 128 64 8 8 (524288)
I0612 11:05:14.399126  4990 net.cpp:255] Memory required for data: 2811758080
I0612 11:05:14.399137  4990 layer_factory.hpp:77] Creating layer BatchNorm96
I0612 11:05:14.399144  4990 net.cpp:190] Creating Layer BatchNorm96
I0612 11:05:14.399149  4990 net.cpp:615] BatchNorm96 <- Convolution96
I0612 11:05:14.399158  4990 net.cpp:576] BatchNorm96 -> Convolution96 (in-place)
I0612 11:05:14.399386  4990 net.cpp:240] Setting up BatchNorm96
I0612 11:05:14.399394  4990 net.cpp:247] Top shape: 128 64 8 8 (524288)
I0612 11:05:14.399399  4990 net.cpp:255] Memory required for data: 2813855232
I0612 11:05:14.399411  4990 layer_factory.hpp:77] Creating layer Scale96
I0612 11:05:14.399420  4990 net.cpp:190] Creating Layer Scale96
I0612 11:05:14.399423  4990 net.cpp:615] Scale96 <- Convolution96
I0612 11:05:14.399431  4990 net.cpp:576] Scale96 -> Convolution96 (in-place)
I0612 11:05:14.399472  4990 layer_factory.hpp:77] Creating layer Scale96
I0612 11:05:14.399606  4990 net.cpp:240] Setting up Scale96
I0612 11:05:14.399615  4990 net.cpp:247] Top shape: 128 64 8 8 (524288)
I0612 11:05:14.399618  4990 net.cpp:255] Memory required for data: 2815952384
I0612 11:05:14.399627  4990 layer_factory.hpp:77] Creating layer ReLU96
I0612 11:05:14.399636  4990 net.cpp:190] Creating Layer ReLU96
I0612 11:05:14.399641  4990 net.cpp:615] ReLU96 <- Convolution96
I0612 11:05:14.399648  4990 net.cpp:576] ReLU96 -> Convolution96 (in-place)
I0612 11:05:14.399655  4990 net.cpp:240] Setting up ReLU96
I0612 11:05:14.399662  4990 net.cpp:247] Top shape: 128 64 8 8 (524288)
I0612 11:05:14.399664  4990 net.cpp:255] Memory required for data: 2818049536
I0612 11:05:14.399668  4990 layer_factory.hpp:77] Creating layer Convolution97
I0612 11:05:14.399700  4990 net.cpp:190] Creating Layer Convolution97
I0612 11:05:14.399705  4990 net.cpp:615] Convolution97 <- Convolution96
I0612 11:05:14.399713  4990 net.cpp:589] Convolution97 -> Convolution97
I0612 11:05:14.401347  4990 net.cpp:240] Setting up Convolution97
I0612 11:05:14.401358  4990 net.cpp:247] Top shape: 128 64 8 8 (524288)
I0612 11:05:14.401362  4990 net.cpp:255] Memory required for data: 2820146688
I0612 11:05:14.401372  4990 layer_factory.hpp:77] Creating layer BatchNorm97
I0612 11:05:14.401382  4990 net.cpp:190] Creating Layer BatchNorm97
I0612 11:05:14.401387  4990 net.cpp:615] BatchNorm97 <- Convolution97
I0612 11:05:14.401393  4990 net.cpp:576] BatchNorm97 -> Convolution97 (in-place)
I0612 11:05:14.401623  4990 net.cpp:240] Setting up BatchNorm97
I0612 11:05:14.401633  4990 net.cpp:247] Top shape: 128 64 8 8 (524288)
I0612 11:05:14.401636  4990 net.cpp:255] Memory required for data: 2822243840
I0612 11:05:14.401649  4990 layer_factory.hpp:77] Creating layer Scale97
I0612 11:05:14.401656  4990 net.cpp:190] Creating Layer Scale97
I0612 11:05:14.401661  4990 net.cpp:615] Scale97 <- Convolution97
I0612 11:05:14.401666  4990 net.cpp:576] Scale97 -> Convolution97 (in-place)
I0612 11:05:14.401710  4990 layer_factory.hpp:77] Creating layer Scale97
I0612 11:05:14.401849  4990 net.cpp:240] Setting up Scale97
I0612 11:05:14.401857  4990 net.cpp:247] Top shape: 128 64 8 8 (524288)
I0612 11:05:14.401861  4990 net.cpp:255] Memory required for data: 2824340992
I0612 11:05:14.401870  4990 layer_factory.hpp:77] Creating layer Eltwise48
I0612 11:05:14.401890  4990 net.cpp:190] Creating Layer Eltwise48
I0612 11:05:14.401896  4990 net.cpp:615] Eltwise48 <- Eltwise47_ReLU95_0_split_1
I0612 11:05:14.401902  4990 net.cpp:615] Eltwise48 <- Convolution97
I0612 11:05:14.401908  4990 net.cpp:589] Eltwise48 -> Eltwise48
I0612 11:05:14.401932  4990 net.cpp:240] Setting up Eltwise48
I0612 11:05:14.401938  4990 net.cpp:247] Top shape: 128 64 8 8 (524288)
I0612 11:05:14.401942  4990 net.cpp:255] Memory required for data: 2826438144
I0612 11:05:14.401949  4990 layer_factory.hpp:77] Creating layer ReLU97
I0612 11:05:14.401965  4990 net.cpp:190] Creating Layer ReLU97
I0612 11:05:14.401970  4990 net.cpp:615] ReLU97 <- Eltwise48
I0612 11:05:14.401976  4990 net.cpp:576] ReLU97 -> Eltwise48 (in-place)
I0612 11:05:14.401983  4990 net.cpp:240] Setting up ReLU97
I0612 11:05:14.401988  4990 net.cpp:247] Top shape: 128 64 8 8 (524288)
I0612 11:05:14.401993  4990 net.cpp:255] Memory required for data: 2828535296
I0612 11:05:14.401996  4990 layer_factory.hpp:77] Creating layer Eltwise48_ReLU97_0_split
I0612 11:05:14.402003  4990 net.cpp:190] Creating Layer Eltwise48_ReLU97_0_split
I0612 11:05:14.402006  4990 net.cpp:615] Eltwise48_ReLU97_0_split <- Eltwise48
I0612 11:05:14.402012  4990 net.cpp:589] Eltwise48_ReLU97_0_split -> Eltwise48_ReLU97_0_split_0
I0612 11:05:14.402019  4990 net.cpp:589] Eltwise48_ReLU97_0_split -> Eltwise48_ReLU97_0_split_1
I0612 11:05:14.402063  4990 net.cpp:240] Setting up Eltwise48_ReLU97_0_split
I0612 11:05:14.402070  4990 net.cpp:247] Top shape: 128 64 8 8 (524288)
I0612 11:05:14.402076  4990 net.cpp:247] Top shape: 128 64 8 8 (524288)
I0612 11:05:14.402079  4990 net.cpp:255] Memory required for data: 2832729600
I0612 11:05:14.402083  4990 layer_factory.hpp:77] Creating layer Convolution98
I0612 11:05:14.402098  4990 net.cpp:190] Creating Layer Convolution98
I0612 11:05:14.402103  4990 net.cpp:615] Convolution98 <- Eltwise48_ReLU97_0_split_0
I0612 11:05:14.402112  4990 net.cpp:589] Convolution98 -> Convolution98
I0612 11:05:14.403774  4990 net.cpp:240] Setting up Convolution98
I0612 11:05:14.403785  4990 net.cpp:247] Top shape: 128 64 8 8 (524288)
I0612 11:05:14.403789  4990 net.cpp:255] Memory required for data: 2834826752
I0612 11:05:14.403800  4990 layer_factory.hpp:77] Creating layer BatchNorm98
I0612 11:05:14.403810  4990 net.cpp:190] Creating Layer BatchNorm98
I0612 11:05:14.403815  4990 net.cpp:615] BatchNorm98 <- Convolution98
I0612 11:05:14.403823  4990 net.cpp:576] BatchNorm98 -> Convolution98 (in-place)
I0612 11:05:14.404050  4990 net.cpp:240] Setting up BatchNorm98
I0612 11:05:14.404058  4990 net.cpp:247] Top shape: 128 64 8 8 (524288)
I0612 11:05:14.404062  4990 net.cpp:255] Memory required for data: 2836923904
I0612 11:05:14.404074  4990 layer_factory.hpp:77] Creating layer Scale98
I0612 11:05:14.404085  4990 net.cpp:190] Creating Layer Scale98
I0612 11:05:14.404090  4990 net.cpp:615] Scale98 <- Convolution98
I0612 11:05:14.404096  4990 net.cpp:576] Scale98 -> Convolution98 (in-place)
I0612 11:05:14.404139  4990 layer_factory.hpp:77] Creating layer Scale98
I0612 11:05:14.404278  4990 net.cpp:240] Setting up Scale98
I0612 11:05:14.404285  4990 net.cpp:247] Top shape: 128 64 8 8 (524288)
I0612 11:05:14.404289  4990 net.cpp:255] Memory required for data: 2839021056
I0612 11:05:14.404300  4990 layer_factory.hpp:77] Creating layer ReLU98
I0612 11:05:14.404309  4990 net.cpp:190] Creating Layer ReLU98
I0612 11:05:14.404314  4990 net.cpp:615] ReLU98 <- Convolution98
I0612 11:05:14.404320  4990 net.cpp:576] ReLU98 -> Convolution98 (in-place)
I0612 11:05:14.404326  4990 net.cpp:240] Setting up ReLU98
I0612 11:05:14.404332  4990 net.cpp:247] Top shape: 128 64 8 8 (524288)
I0612 11:05:14.404336  4990 net.cpp:255] Memory required for data: 2841118208
I0612 11:05:14.404340  4990 layer_factory.hpp:77] Creating layer Convolution99
I0612 11:05:14.404353  4990 net.cpp:190] Creating Layer Convolution99
I0612 11:05:14.404357  4990 net.cpp:615] Convolution99 <- Convolution98
I0612 11:05:14.404366  4990 net.cpp:589] Convolution99 -> Convolution99
I0612 11:05:14.406002  4990 net.cpp:240] Setting up Convolution99
I0612 11:05:14.406013  4990 net.cpp:247] Top shape: 128 64 8 8 (524288)
I0612 11:05:14.406016  4990 net.cpp:255] Memory required for data: 2843215360
I0612 11:05:14.406025  4990 layer_factory.hpp:77] Creating layer BatchNorm99
I0612 11:05:14.406034  4990 net.cpp:190] Creating Layer BatchNorm99
I0612 11:05:14.406038  4990 net.cpp:615] BatchNorm99 <- Convolution99
I0612 11:05:14.406047  4990 net.cpp:576] BatchNorm99 -> Convolution99 (in-place)
I0612 11:05:14.406283  4990 net.cpp:240] Setting up BatchNorm99
I0612 11:05:14.406292  4990 net.cpp:247] Top shape: 128 64 8 8 (524288)
I0612 11:05:14.406296  4990 net.cpp:255] Memory required for data: 2845312512
I0612 11:05:14.406307  4990 layer_factory.hpp:77] Creating layer Scale99
I0612 11:05:14.406316  4990 net.cpp:190] Creating Layer Scale99
I0612 11:05:14.406319  4990 net.cpp:615] Scale99 <- Convolution99
I0612 11:05:14.406327  4990 net.cpp:576] Scale99 -> Convolution99 (in-place)
I0612 11:05:14.406376  4990 layer_factory.hpp:77] Creating layer Scale99
I0612 11:05:14.406512  4990 net.cpp:240] Setting up Scale99
I0612 11:05:14.406520  4990 net.cpp:247] Top shape: 128 64 8 8 (524288)
I0612 11:05:14.406524  4990 net.cpp:255] Memory required for data: 2847409664
I0612 11:05:14.406534  4990 layer_factory.hpp:77] Creating layer Eltwise49
I0612 11:05:14.406543  4990 net.cpp:190] Creating Layer Eltwise49
I0612 11:05:14.406548  4990 net.cpp:615] Eltwise49 <- Eltwise48_ReLU97_0_split_1
I0612 11:05:14.406553  4990 net.cpp:615] Eltwise49 <- Convolution99
I0612 11:05:14.406563  4990 net.cpp:589] Eltwise49 -> Eltwise49
I0612 11:05:14.406585  4990 net.cpp:240] Setting up Eltwise49
I0612 11:05:14.406592  4990 net.cpp:247] Top shape: 128 64 8 8 (524288)
I0612 11:05:14.406596  4990 net.cpp:255] Memory required for data: 2849506816
I0612 11:05:14.406600  4990 layer_factory.hpp:77] Creating layer ReLU99
I0612 11:05:14.406610  4990 net.cpp:190] Creating Layer ReLU99
I0612 11:05:14.406615  4990 net.cpp:615] ReLU99 <- Eltwise49
I0612 11:05:14.406620  4990 net.cpp:576] ReLU99 -> Eltwise49 (in-place)
I0612 11:05:14.406626  4990 net.cpp:240] Setting up ReLU99
I0612 11:05:14.406631  4990 net.cpp:247] Top shape: 128 64 8 8 (524288)
I0612 11:05:14.406635  4990 net.cpp:255] Memory required for data: 2851603968
I0612 11:05:14.406640  4990 layer_factory.hpp:77] Creating layer Eltwise49_ReLU99_0_split
I0612 11:05:14.406646  4990 net.cpp:190] Creating Layer Eltwise49_ReLU99_0_split
I0612 11:05:14.406648  4990 net.cpp:615] Eltwise49_ReLU99_0_split <- Eltwise49
I0612 11:05:14.406654  4990 net.cpp:589] Eltwise49_ReLU99_0_split -> Eltwise49_ReLU99_0_split_0
I0612 11:05:14.406841  4990 net.cpp:589] Eltwise49_ReLU99_0_split -> Eltwise49_ReLU99_0_split_1
I0612 11:05:14.406894  4990 net.cpp:240] Setting up Eltwise49_ReLU99_0_split
I0612 11:05:14.406905  4990 net.cpp:247] Top shape: 128 64 8 8 (524288)
I0612 11:05:14.406911  4990 net.cpp:247] Top shape: 128 64 8 8 (524288)
I0612 11:05:14.406914  4990 net.cpp:255] Memory required for data: 2855798272
I0612 11:05:14.406919  4990 layer_factory.hpp:77] Creating layer Convolution100
I0612 11:05:14.406932  4990 net.cpp:190] Creating Layer Convolution100
I0612 11:05:14.406937  4990 net.cpp:615] Convolution100 <- Eltwise49_ReLU99_0_split_0
I0612 11:05:14.406947  4990 net.cpp:589] Convolution100 -> Convolution100
I0612 11:05:14.408586  4990 net.cpp:240] Setting up Convolution100
I0612 11:05:14.408596  4990 net.cpp:247] Top shape: 128 64 8 8 (524288)
I0612 11:05:14.408601  4990 net.cpp:255] Memory required for data: 2857895424
I0612 11:05:14.408610  4990 layer_factory.hpp:77] Creating layer BatchNorm100
I0612 11:05:14.408622  4990 net.cpp:190] Creating Layer BatchNorm100
I0612 11:05:14.408627  4990 net.cpp:615] BatchNorm100 <- Convolution100
I0612 11:05:14.408635  4990 net.cpp:576] BatchNorm100 -> Convolution100 (in-place)
I0612 11:05:14.408864  4990 net.cpp:240] Setting up BatchNorm100
I0612 11:05:14.408872  4990 net.cpp:247] Top shape: 128 64 8 8 (524288)
I0612 11:05:14.408876  4990 net.cpp:255] Memory required for data: 2859992576
I0612 11:05:14.408890  4990 layer_factory.hpp:77] Creating layer Scale100
I0612 11:05:14.408900  4990 net.cpp:190] Creating Layer Scale100
I0612 11:05:14.408905  4990 net.cpp:615] Scale100 <- Convolution100
I0612 11:05:14.408911  4990 net.cpp:576] Scale100 -> Convolution100 (in-place)
I0612 11:05:14.408957  4990 layer_factory.hpp:77] Creating layer Scale100
I0612 11:05:14.409090  4990 net.cpp:240] Setting up Scale100
I0612 11:05:14.409098  4990 net.cpp:247] Top shape: 128 64 8 8 (524288)
I0612 11:05:14.409106  4990 net.cpp:255] Memory required for data: 2862089728
I0612 11:05:14.409121  4990 layer_factory.hpp:77] Creating layer ReLU100
I0612 11:05:14.409129  4990 net.cpp:190] Creating Layer ReLU100
I0612 11:05:14.409134  4990 net.cpp:615] ReLU100 <- Convolution100
I0612 11:05:14.409142  4990 net.cpp:576] ReLU100 -> Convolution100 (in-place)
I0612 11:05:14.409149  4990 net.cpp:240] Setting up ReLU100
I0612 11:05:14.409154  4990 net.cpp:247] Top shape: 128 64 8 8 (524288)
I0612 11:05:14.409158  4990 net.cpp:255] Memory required for data: 2864186880
I0612 11:05:14.409164  4990 layer_factory.hpp:77] Creating layer Convolution101
I0612 11:05:14.409178  4990 net.cpp:190] Creating Layer Convolution101
I0612 11:05:14.409181  4990 net.cpp:615] Convolution101 <- Convolution100
I0612 11:05:14.409191  4990 net.cpp:589] Convolution101 -> Convolution101
I0612 11:05:14.411500  4990 net.cpp:240] Setting up Convolution101
I0612 11:05:14.411517  4990 net.cpp:247] Top shape: 128 64 8 8 (524288)
I0612 11:05:14.411521  4990 net.cpp:255] Memory required for data: 2866284032
I0612 11:05:14.411533  4990 layer_factory.hpp:77] Creating layer BatchNorm101
I0612 11:05:14.411545  4990 net.cpp:190] Creating Layer BatchNorm101
I0612 11:05:14.411550  4990 net.cpp:615] BatchNorm101 <- Convolution101
I0612 11:05:14.411558  4990 net.cpp:576] BatchNorm101 -> Convolution101 (in-place)
I0612 11:05:14.411789  4990 net.cpp:240] Setting up BatchNorm101
I0612 11:05:14.411798  4990 net.cpp:247] Top shape: 128 64 8 8 (524288)
I0612 11:05:14.411801  4990 net.cpp:255] Memory required for data: 2868381184
I0612 11:05:14.411818  4990 layer_factory.hpp:77] Creating layer Scale101
I0612 11:05:14.411829  4990 net.cpp:190] Creating Layer Scale101
I0612 11:05:14.411834  4990 net.cpp:615] Scale101 <- Convolution101
I0612 11:05:14.411840  4990 net.cpp:576] Scale101 -> Convolution101 (in-place)
I0612 11:05:14.411885  4990 layer_factory.hpp:77] Creating layer Scale101
I0612 11:05:14.412022  4990 net.cpp:240] Setting up Scale101
I0612 11:05:14.412030  4990 net.cpp:247] Top shape: 128 64 8 8 (524288)
I0612 11:05:14.412034  4990 net.cpp:255] Memory required for data: 2870478336
I0612 11:05:14.412045  4990 layer_factory.hpp:77] Creating layer Eltwise50
I0612 11:05:14.412055  4990 net.cpp:190] Creating Layer Eltwise50
I0612 11:05:14.412060  4990 net.cpp:615] Eltwise50 <- Eltwise49_ReLU99_0_split_1
I0612 11:05:14.412065  4990 net.cpp:615] Eltwise50 <- Convolution101
I0612 11:05:14.412075  4990 net.cpp:589] Eltwise50 -> Eltwise50
I0612 11:05:14.412096  4990 net.cpp:240] Setting up Eltwise50
I0612 11:05:14.412102  4990 net.cpp:247] Top shape: 128 64 8 8 (524288)
I0612 11:05:14.412106  4990 net.cpp:255] Memory required for data: 2872575488
I0612 11:05:14.412111  4990 layer_factory.hpp:77] Creating layer ReLU101
I0612 11:05:14.412118  4990 net.cpp:190] Creating Layer ReLU101
I0612 11:05:14.412123  4990 net.cpp:615] ReLU101 <- Eltwise50
I0612 11:05:14.412132  4990 net.cpp:576] ReLU101 -> Eltwise50 (in-place)
I0612 11:05:14.412139  4990 net.cpp:240] Setting up ReLU101
I0612 11:05:14.412144  4990 net.cpp:247] Top shape: 128 64 8 8 (524288)
I0612 11:05:14.412148  4990 net.cpp:255] Memory required for data: 2874672640
I0612 11:05:14.412153  4990 layer_factory.hpp:77] Creating layer Eltwise50_ReLU101_0_split
I0612 11:05:14.412375  4990 net.cpp:190] Creating Layer Eltwise50_ReLU101_0_split
I0612 11:05:14.412384  4990 net.cpp:615] Eltwise50_ReLU101_0_split <- Eltwise50
I0612 11:05:14.412391  4990 net.cpp:589] Eltwise50_ReLU101_0_split -> Eltwise50_ReLU101_0_split_0
I0612 11:05:14.412400  4990 net.cpp:589] Eltwise50_ReLU101_0_split -> Eltwise50_ReLU101_0_split_1
I0612 11:05:14.412448  4990 net.cpp:240] Setting up Eltwise50_ReLU101_0_split
I0612 11:05:14.412461  4990 net.cpp:247] Top shape: 128 64 8 8 (524288)
I0612 11:05:14.412466  4990 net.cpp:247] Top shape: 128 64 8 8 (524288)
I0612 11:05:14.412469  4990 net.cpp:255] Memory required for data: 2878866944
I0612 11:05:14.412474  4990 layer_factory.hpp:77] Creating layer Convolution102
I0612 11:05:14.412487  4990 net.cpp:190] Creating Layer Convolution102
I0612 11:05:14.412495  4990 net.cpp:615] Convolution102 <- Eltwise50_ReLU101_0_split_0
I0612 11:05:14.412505  4990 net.cpp:589] Convolution102 -> Convolution102
I0612 11:05:14.414155  4990 net.cpp:240] Setting up Convolution102
I0612 11:05:14.414166  4990 net.cpp:247] Top shape: 128 64 8 8 (524288)
I0612 11:05:14.414170  4990 net.cpp:255] Memory required for data: 2880964096
I0612 11:05:14.414180  4990 layer_factory.hpp:77] Creating layer BatchNorm102
I0612 11:05:14.414191  4990 net.cpp:190] Creating Layer BatchNorm102
I0612 11:05:14.414197  4990 net.cpp:615] BatchNorm102 <- Convolution102
I0612 11:05:14.414203  4990 net.cpp:576] BatchNorm102 -> Convolution102 (in-place)
I0612 11:05:14.414445  4990 net.cpp:240] Setting up BatchNorm102
I0612 11:05:14.414454  4990 net.cpp:247] Top shape: 128 64 8 8 (524288)
I0612 11:05:14.414458  4990 net.cpp:255] Memory required for data: 2883061248
I0612 11:05:14.414471  4990 layer_factory.hpp:77] Creating layer Scale102
I0612 11:05:14.414484  4990 net.cpp:190] Creating Layer Scale102
I0612 11:05:14.414489  4990 net.cpp:615] Scale102 <- Convolution102
I0612 11:05:14.414494  4990 net.cpp:576] Scale102 -> Convolution102 (in-place)
I0612 11:05:14.414535  4990 layer_factory.hpp:77] Creating layer Scale102
I0612 11:05:14.414677  4990 net.cpp:240] Setting up Scale102
I0612 11:05:14.414685  4990 net.cpp:247] Top shape: 128 64 8 8 (524288)
I0612 11:05:14.414690  4990 net.cpp:255] Memory required for data: 2885158400
I0612 11:05:14.414698  4990 layer_factory.hpp:77] Creating layer ReLU102
I0612 11:05:14.414710  4990 net.cpp:190] Creating Layer ReLU102
I0612 11:05:14.414715  4990 net.cpp:615] ReLU102 <- Convolution102
I0612 11:05:14.414721  4990 net.cpp:576] ReLU102 -> Convolution102 (in-place)
I0612 11:05:14.414727  4990 net.cpp:240] Setting up ReLU102
I0612 11:05:14.414733  4990 net.cpp:247] Top shape: 128 64 8 8 (524288)
I0612 11:05:14.414737  4990 net.cpp:255] Memory required for data: 2887255552
I0612 11:05:14.414741  4990 layer_factory.hpp:77] Creating layer Convolution103
I0612 11:05:14.414754  4990 net.cpp:190] Creating Layer Convolution103
I0612 11:05:14.414759  4990 net.cpp:615] Convolution103 <- Convolution102
I0612 11:05:14.414767  4990 net.cpp:589] Convolution103 -> Convolution103
I0612 11:05:14.416402  4990 net.cpp:240] Setting up Convolution103
I0612 11:05:14.416412  4990 net.cpp:247] Top shape: 128 64 8 8 (524288)
I0612 11:05:14.416416  4990 net.cpp:255] Memory required for data: 2889352704
I0612 11:05:14.416426  4990 layer_factory.hpp:77] Creating layer BatchNorm103
I0612 11:05:14.416436  4990 net.cpp:190] Creating Layer BatchNorm103
I0612 11:05:14.416441  4990 net.cpp:615] BatchNorm103 <- Convolution103
I0612 11:05:14.416447  4990 net.cpp:576] BatchNorm103 -> Convolution103 (in-place)
I0612 11:05:14.416677  4990 net.cpp:240] Setting up BatchNorm103
I0612 11:05:14.416685  4990 net.cpp:247] Top shape: 128 64 8 8 (524288)
I0612 11:05:14.416689  4990 net.cpp:255] Memory required for data: 2891449856
I0612 11:05:14.416700  4990 layer_factory.hpp:77] Creating layer Scale103
I0612 11:05:14.416709  4990 net.cpp:190] Creating Layer Scale103
I0612 11:05:14.416714  4990 net.cpp:615] Scale103 <- Convolution103
I0612 11:05:14.416719  4990 net.cpp:576] Scale103 -> Convolution103 (in-place)
I0612 11:05:14.416764  4990 layer_factory.hpp:77] Creating layer Scale103
I0612 11:05:14.416901  4990 net.cpp:240] Setting up Scale103
I0612 11:05:14.416909  4990 net.cpp:247] Top shape: 128 64 8 8 (524288)
I0612 11:05:14.416913  4990 net.cpp:255] Memory required for data: 2893547008
I0612 11:05:14.416923  4990 layer_factory.hpp:77] Creating layer Eltwise51
I0612 11:05:14.416934  4990 net.cpp:190] Creating Layer Eltwise51
I0612 11:05:14.416940  4990 net.cpp:615] Eltwise51 <- Eltwise50_ReLU101_0_split_1
I0612 11:05:14.416945  4990 net.cpp:615] Eltwise51 <- Convolution103
I0612 11:05:14.416951  4990 net.cpp:589] Eltwise51 -> Eltwise51
I0612 11:05:14.416980  4990 net.cpp:240] Setting up Eltwise51
I0612 11:05:14.416988  4990 net.cpp:247] Top shape: 128 64 8 8 (524288)
I0612 11:05:14.416996  4990 net.cpp:255] Memory required for data: 2895644160
I0612 11:05:14.416999  4990 layer_factory.hpp:77] Creating layer ReLU103
I0612 11:05:14.417006  4990 net.cpp:190] Creating Layer ReLU103
I0612 11:05:14.417011  4990 net.cpp:615] ReLU103 <- Eltwise51
I0612 11:05:14.417019  4990 net.cpp:576] ReLU103 -> Eltwise51 (in-place)
I0612 11:05:14.417026  4990 net.cpp:240] Setting up ReLU103
I0612 11:05:14.417032  4990 net.cpp:247] Top shape: 128 64 8 8 (524288)
I0612 11:05:14.417035  4990 net.cpp:255] Memory required for data: 2897741312
I0612 11:05:14.417039  4990 layer_factory.hpp:77] Creating layer Eltwise51_ReLU103_0_split
I0612 11:05:14.417045  4990 net.cpp:190] Creating Layer Eltwise51_ReLU103_0_split
I0612 11:05:14.417049  4990 net.cpp:615] Eltwise51_ReLU103_0_split <- Eltwise51
I0612 11:05:14.417054  4990 net.cpp:589] Eltwise51_ReLU103_0_split -> Eltwise51_ReLU103_0_split_0
I0612 11:05:14.417062  4990 net.cpp:589] Eltwise51_ReLU103_0_split -> Eltwise51_ReLU103_0_split_1
I0612 11:05:14.417105  4990 net.cpp:240] Setting up Eltwise51_ReLU103_0_split
I0612 11:05:14.417112  4990 net.cpp:247] Top shape: 128 64 8 8 (524288)
I0612 11:05:14.417117  4990 net.cpp:247] Top shape: 128 64 8 8 (524288)
I0612 11:05:14.417121  4990 net.cpp:255] Memory required for data: 2901935616
I0612 11:05:14.417125  4990 layer_factory.hpp:77] Creating layer Convolution104
I0612 11:05:14.417140  4990 net.cpp:190] Creating Layer Convolution104
I0612 11:05:14.417145  4990 net.cpp:615] Convolution104 <- Eltwise51_ReLU103_0_split_0
I0612 11:05:14.417151  4990 net.cpp:589] Convolution104 -> Convolution104
I0612 11:05:14.418808  4990 net.cpp:240] Setting up Convolution104
I0612 11:05:14.418819  4990 net.cpp:247] Top shape: 128 64 8 8 (524288)
I0612 11:05:14.418823  4990 net.cpp:255] Memory required for data: 2904032768
I0612 11:05:14.418833  4990 layer_factory.hpp:77] Creating layer BatchNorm104
I0612 11:05:14.418843  4990 net.cpp:190] Creating Layer BatchNorm104
I0612 11:05:14.418848  4990 net.cpp:615] BatchNorm104 <- Convolution104
I0612 11:05:14.418856  4990 net.cpp:576] BatchNorm104 -> Convolution104 (in-place)
I0612 11:05:14.419087  4990 net.cpp:240] Setting up BatchNorm104
I0612 11:05:14.419095  4990 net.cpp:247] Top shape: 128 64 8 8 (524288)
I0612 11:05:14.419098  4990 net.cpp:255] Memory required for data: 2906129920
I0612 11:05:14.419112  4990 layer_factory.hpp:77] Creating layer Scale104
I0612 11:05:14.419121  4990 net.cpp:190] Creating Layer Scale104
I0612 11:05:14.419126  4990 net.cpp:615] Scale104 <- Convolution104
I0612 11:05:14.419132  4990 net.cpp:576] Scale104 -> Convolution104 (in-place)
I0612 11:05:14.419174  4990 layer_factory.hpp:77] Creating layer Scale104
I0612 11:05:14.419312  4990 net.cpp:240] Setting up Scale104
I0612 11:05:14.419319  4990 net.cpp:247] Top shape: 128 64 8 8 (524288)
I0612 11:05:14.419322  4990 net.cpp:255] Memory required for data: 2908227072
I0612 11:05:14.419334  4990 layer_factory.hpp:77] Creating layer ReLU104
I0612 11:05:14.419342  4990 net.cpp:190] Creating Layer ReLU104
I0612 11:05:14.419347  4990 net.cpp:615] ReLU104 <- Convolution104
I0612 11:05:14.419354  4990 net.cpp:576] ReLU104 -> Convolution104 (in-place)
I0612 11:05:14.419361  4990 net.cpp:240] Setting up ReLU104
I0612 11:05:14.419368  4990 net.cpp:247] Top shape: 128 64 8 8 (524288)
I0612 11:05:14.419371  4990 net.cpp:255] Memory required for data: 2910324224
I0612 11:05:14.419374  4990 layer_factory.hpp:77] Creating layer Convolution105
I0612 11:05:14.419386  4990 net.cpp:190] Creating Layer Convolution105
I0612 11:05:14.419390  4990 net.cpp:615] Convolution105 <- Convolution104
I0612 11:05:14.419399  4990 net.cpp:589] Convolution105 -> Convolution105
I0612 11:05:14.421033  4990 net.cpp:240] Setting up Convolution105
I0612 11:05:14.421043  4990 net.cpp:247] Top shape: 128 64 8 8 (524288)
I0612 11:05:14.421047  4990 net.cpp:255] Memory required for data: 2912421376
I0612 11:05:14.421058  4990 layer_factory.hpp:77] Creating layer BatchNorm105
I0612 11:05:14.421066  4990 net.cpp:190] Creating Layer BatchNorm105
I0612 11:05:14.421074  4990 net.cpp:615] BatchNorm105 <- Convolution105
I0612 11:05:14.421082  4990 net.cpp:576] BatchNorm105 -> Convolution105 (in-place)
I0612 11:05:14.421320  4990 net.cpp:240] Setting up BatchNorm105
I0612 11:05:14.421329  4990 net.cpp:247] Top shape: 128 64 8 8 (524288)
I0612 11:05:14.421332  4990 net.cpp:255] Memory required for data: 2914518528
I0612 11:05:14.421344  4990 layer_factory.hpp:77] Creating layer Scale105
I0612 11:05:14.421353  4990 net.cpp:190] Creating Layer Scale105
I0612 11:05:14.421358  4990 net.cpp:615] Scale105 <- Convolution105
I0612 11:05:14.421366  4990 net.cpp:576] Scale105 -> Convolution105 (in-place)
I0612 11:05:14.421407  4990 layer_factory.hpp:77] Creating layer Scale105
I0612 11:05:14.421548  4990 net.cpp:240] Setting up Scale105
I0612 11:05:14.421556  4990 net.cpp:247] Top shape: 128 64 8 8 (524288)
I0612 11:05:14.421561  4990 net.cpp:255] Memory required for data: 2916615680
I0612 11:05:14.421569  4990 layer_factory.hpp:77] Creating layer Eltwise52
I0612 11:05:14.421578  4990 net.cpp:190] Creating Layer Eltwise52
I0612 11:05:14.421583  4990 net.cpp:615] Eltwise52 <- Eltwise51_ReLU103_0_split_1
I0612 11:05:14.421588  4990 net.cpp:615] Eltwise52 <- Convolution105
I0612 11:05:14.421597  4990 net.cpp:589] Eltwise52 -> Eltwise52
I0612 11:05:14.421619  4990 net.cpp:240] Setting up Eltwise52
I0612 11:05:14.421625  4990 net.cpp:247] Top shape: 128 64 8 8 (524288)
I0612 11:05:14.421629  4990 net.cpp:255] Memory required for data: 2918712832
I0612 11:05:14.421633  4990 layer_factory.hpp:77] Creating layer ReLU105
I0612 11:05:14.421643  4990 net.cpp:190] Creating Layer ReLU105
I0612 11:05:14.421646  4990 net.cpp:615] ReLU105 <- Eltwise52
I0612 11:05:14.421651  4990 net.cpp:576] ReLU105 -> Eltwise52 (in-place)
I0612 11:05:14.421658  4990 net.cpp:240] Setting up ReLU105
I0612 11:05:14.421663  4990 net.cpp:247] Top shape: 128 64 8 8 (524288)
I0612 11:05:14.421668  4990 net.cpp:255] Memory required for data: 2920809984
I0612 11:05:14.421672  4990 layer_factory.hpp:77] Creating layer Eltwise52_ReLU105_0_split
I0612 11:05:14.421679  4990 net.cpp:190] Creating Layer Eltwise52_ReLU105_0_split
I0612 11:05:14.421681  4990 net.cpp:615] Eltwise52_ReLU105_0_split <- Eltwise52
I0612 11:05:14.421689  4990 net.cpp:589] Eltwise52_ReLU105_0_split -> Eltwise52_ReLU105_0_split_0
I0612 11:05:14.421697  4990 net.cpp:589] Eltwise52_ReLU105_0_split -> Eltwise52_ReLU105_0_split_1
I0612 11:05:14.421737  4990 net.cpp:240] Setting up Eltwise52_ReLU105_0_split
I0612 11:05:14.421744  4990 net.cpp:247] Top shape: 128 64 8 8 (524288)
I0612 11:05:14.421749  4990 net.cpp:247] Top shape: 128 64 8 8 (524288)
I0612 11:05:14.421752  4990 net.cpp:255] Memory required for data: 2925004288
I0612 11:05:14.421756  4990 layer_factory.hpp:77] Creating layer Convolution106
I0612 11:05:14.421771  4990 net.cpp:190] Creating Layer Convolution106
I0612 11:05:14.421774  4990 net.cpp:615] Convolution106 <- Eltwise52_ReLU105_0_split_0
I0612 11:05:14.421782  4990 net.cpp:589] Convolution106 -> Convolution106
I0612 11:05:14.423432  4990 net.cpp:240] Setting up Convolution106
I0612 11:05:14.423444  4990 net.cpp:247] Top shape: 128 64 8 8 (524288)
I0612 11:05:14.423447  4990 net.cpp:255] Memory required for data: 2927101440
I0612 11:05:14.423457  4990 layer_factory.hpp:77] Creating layer BatchNorm106
I0612 11:05:14.423468  4990 net.cpp:190] Creating Layer BatchNorm106
I0612 11:05:14.423473  4990 net.cpp:615] BatchNorm106 <- Convolution106
I0612 11:05:14.423480  4990 net.cpp:576] BatchNorm106 -> Convolution106 (in-place)
I0612 11:05:14.423712  4990 net.cpp:240] Setting up BatchNorm106
I0612 11:05:14.423720  4990 net.cpp:247] Top shape: 128 64 8 8 (524288)
I0612 11:05:14.423724  4990 net.cpp:255] Memory required for data: 2929198592
I0612 11:05:14.423735  4990 layer_factory.hpp:77] Creating layer Scale106
I0612 11:05:14.423744  4990 net.cpp:190] Creating Layer Scale106
I0612 11:05:14.423749  4990 net.cpp:615] Scale106 <- Convolution106
I0612 11:05:14.423755  4990 net.cpp:576] Scale106 -> Convolution106 (in-place)
I0612 11:05:14.423800  4990 layer_factory.hpp:77] Creating layer Scale106
I0612 11:05:14.423944  4990 net.cpp:240] Setting up Scale106
I0612 11:05:14.423952  4990 net.cpp:247] Top shape: 128 64 8 8 (524288)
I0612 11:05:14.423956  4990 net.cpp:255] Memory required for data: 2931295744
I0612 11:05:14.423966  4990 layer_factory.hpp:77] Creating layer ReLU106
I0612 11:05:14.423976  4990 net.cpp:190] Creating Layer ReLU106
I0612 11:05:14.423981  4990 net.cpp:615] ReLU106 <- Convolution106
I0612 11:05:14.423987  4990 net.cpp:576] ReLU106 -> Convolution106 (in-place)
I0612 11:05:14.423995  4990 net.cpp:240] Setting up ReLU106
I0612 11:05:14.424000  4990 net.cpp:247] Top shape: 128 64 8 8 (524288)
I0612 11:05:14.424003  4990 net.cpp:255] Memory required for data: 2933392896
I0612 11:05:14.424007  4990 layer_factory.hpp:77] Creating layer Convolution107
I0612 11:05:14.424022  4990 net.cpp:190] Creating Layer Convolution107
I0612 11:05:14.424027  4990 net.cpp:615] Convolution107 <- Convolution106
I0612 11:05:14.424036  4990 net.cpp:589] Convolution107 -> Convolution107
I0612 11:05:14.425676  4990 net.cpp:240] Setting up Convolution107
I0612 11:05:14.425688  4990 net.cpp:247] Top shape: 128 64 8 8 (524288)
I0612 11:05:14.425691  4990 net.cpp:255] Memory required for data: 2935490048
I0612 11:05:14.425700  4990 layer_factory.hpp:77] Creating layer BatchNorm107
I0612 11:05:14.425711  4990 net.cpp:190] Creating Layer BatchNorm107
I0612 11:05:14.425716  4990 net.cpp:615] BatchNorm107 <- Convolution107
I0612 11:05:14.425724  4990 net.cpp:576] BatchNorm107 -> Convolution107 (in-place)
I0612 11:05:14.425953  4990 net.cpp:240] Setting up BatchNorm107
I0612 11:05:14.425961  4990 net.cpp:247] Top shape: 128 64 8 8 (524288)
I0612 11:05:14.425966  4990 net.cpp:255] Memory required for data: 2937587200
I0612 11:05:14.425976  4990 layer_factory.hpp:77] Creating layer Scale107
I0612 11:05:14.425988  4990 net.cpp:190] Creating Layer Scale107
I0612 11:05:14.425993  4990 net.cpp:615] Scale107 <- Convolution107
I0612 11:05:14.425999  4990 net.cpp:576] Scale107 -> Convolution107 (in-place)
I0612 11:05:14.426043  4990 layer_factory.hpp:77] Creating layer Scale107
I0612 11:05:14.426179  4990 net.cpp:240] Setting up Scale107
I0612 11:05:14.426187  4990 net.cpp:247] Top shape: 128 64 8 8 (524288)
I0612 11:05:14.426192  4990 net.cpp:255] Memory required for data: 2939684352
I0612 11:05:14.426201  4990 layer_factory.hpp:77] Creating layer Eltwise53
I0612 11:05:14.426211  4990 net.cpp:190] Creating Layer Eltwise53
I0612 11:05:14.426218  4990 net.cpp:615] Eltwise53 <- Eltwise52_ReLU105_0_split_1
I0612 11:05:14.426223  4990 net.cpp:615] Eltwise53 <- Convolution107
I0612 11:05:14.426229  4990 net.cpp:589] Eltwise53 -> Eltwise53
I0612 11:05:14.426252  4990 net.cpp:240] Setting up Eltwise53
I0612 11:05:14.426259  4990 net.cpp:247] Top shape: 128 64 8 8 (524288)
I0612 11:05:14.426262  4990 net.cpp:255] Memory required for data: 2941781504
I0612 11:05:14.426266  4990 layer_factory.hpp:77] Creating layer ReLU107
I0612 11:05:14.426272  4990 net.cpp:190] Creating Layer ReLU107
I0612 11:05:14.426277  4990 net.cpp:615] ReLU107 <- Eltwise53
I0612 11:05:14.426285  4990 net.cpp:576] ReLU107 -> Eltwise53 (in-place)
I0612 11:05:14.426292  4990 net.cpp:240] Setting up ReLU107
I0612 11:05:14.426297  4990 net.cpp:247] Top shape: 128 64 8 8 (524288)
I0612 11:05:14.426301  4990 net.cpp:255] Memory required for data: 2943878656
I0612 11:05:14.426306  4990 layer_factory.hpp:77] Creating layer Eltwise53_ReLU107_0_split
I0612 11:05:14.426311  4990 net.cpp:190] Creating Layer Eltwise53_ReLU107_0_split
I0612 11:05:14.426316  4990 net.cpp:615] Eltwise53_ReLU107_0_split <- Eltwise53
I0612 11:05:14.426321  4990 net.cpp:589] Eltwise53_ReLU107_0_split -> Eltwise53_ReLU107_0_split_0
I0612 11:05:14.426327  4990 net.cpp:589] Eltwise53_ReLU107_0_split -> Eltwise53_ReLU107_0_split_1
I0612 11:05:14.426378  4990 net.cpp:240] Setting up Eltwise53_ReLU107_0_split
I0612 11:05:14.426388  4990 net.cpp:247] Top shape: 128 64 8 8 (524288)
I0612 11:05:14.426393  4990 net.cpp:247] Top shape: 128 64 8 8 (524288)
I0612 11:05:14.426395  4990 net.cpp:255] Memory required for data: 2948072960
I0612 11:05:14.426403  4990 layer_factory.hpp:77] Creating layer Convolution108
I0612 11:05:14.426414  4990 net.cpp:190] Creating Layer Convolution108
I0612 11:05:14.426419  4990 net.cpp:615] Convolution108 <- Eltwise53_ReLU107_0_split_0
I0612 11:05:14.426429  4990 net.cpp:589] Convolution108 -> Convolution108
I0612 11:05:14.428733  4990 net.cpp:240] Setting up Convolution108
I0612 11:05:14.428750  4990 net.cpp:247] Top shape: 128 64 8 8 (524288)
I0612 11:05:14.428755  4990 net.cpp:255] Memory required for data: 2950170112
I0612 11:05:14.428766  4990 layer_factory.hpp:77] Creating layer BatchNorm108
I0612 11:05:14.428778  4990 net.cpp:190] Creating Layer BatchNorm108
I0612 11:05:14.428784  4990 net.cpp:615] BatchNorm108 <- Convolution108
I0612 11:05:14.428792  4990 net.cpp:576] BatchNorm108 -> Convolution108 (in-place)
I0612 11:05:14.429026  4990 net.cpp:240] Setting up BatchNorm108
I0612 11:05:14.429034  4990 net.cpp:247] Top shape: 128 64 8 8 (524288)
I0612 11:05:14.429039  4990 net.cpp:255] Memory required for data: 2952267264
I0612 11:05:14.429052  4990 layer_factory.hpp:77] Creating layer Scale108
I0612 11:05:14.429062  4990 net.cpp:190] Creating Layer Scale108
I0612 11:05:14.429066  4990 net.cpp:615] Scale108 <- Convolution108
I0612 11:05:14.429072  4990 net.cpp:576] Scale108 -> Convolution108 (in-place)
I0612 11:05:14.429117  4990 layer_factory.hpp:77] Creating layer Scale108
I0612 11:05:14.429262  4990 net.cpp:240] Setting up Scale108
I0612 11:05:14.429270  4990 net.cpp:247] Top shape: 128 64 8 8 (524288)
I0612 11:05:14.429275  4990 net.cpp:255] Memory required for data: 2954364416
I0612 11:05:14.429283  4990 layer_factory.hpp:77] Creating layer ReLU108
I0612 11:05:14.429291  4990 net.cpp:190] Creating Layer ReLU108
I0612 11:05:14.429296  4990 net.cpp:615] ReLU108 <- Convolution108
I0612 11:05:14.429304  4990 net.cpp:576] ReLU108 -> Convolution108 (in-place)
I0612 11:05:14.429312  4990 net.cpp:240] Setting up ReLU108
I0612 11:05:14.429317  4990 net.cpp:247] Top shape: 128 64 8 8 (524288)
I0612 11:05:14.429322  4990 net.cpp:255] Memory required for data: 2956461568
I0612 11:05:14.429325  4990 layer_factory.hpp:77] Creating layer Convolution109
I0612 11:05:14.429339  4990 net.cpp:190] Creating Layer Convolution109
I0612 11:05:14.429343  4990 net.cpp:615] Convolution109 <- Convolution108
I0612 11:05:14.429352  4990 net.cpp:589] Convolution109 -> Convolution109
I0612 11:05:14.431006  4990 net.cpp:240] Setting up Convolution109
I0612 11:05:14.431017  4990 net.cpp:247] Top shape: 128 64 8 8 (524288)
I0612 11:05:14.431021  4990 net.cpp:255] Memory required for data: 2958558720
I0612 11:05:14.431031  4990 layer_factory.hpp:77] Creating layer BatchNorm109
I0612 11:05:14.431041  4990 net.cpp:190] Creating Layer BatchNorm109
I0612 11:05:14.431046  4990 net.cpp:615] BatchNorm109 <- Convolution109
I0612 11:05:14.431053  4990 net.cpp:576] BatchNorm109 -> Convolution109 (in-place)
I0612 11:05:14.431293  4990 net.cpp:240] Setting up BatchNorm109
I0612 11:05:14.431303  4990 net.cpp:247] Top shape: 128 64 8 8 (524288)
I0612 11:05:14.431305  4990 net.cpp:255] Memory required for data: 2960655872
I0612 11:05:14.431318  4990 layer_factory.hpp:77] Creating layer Scale109
I0612 11:05:14.431324  4990 net.cpp:190] Creating Layer Scale109
I0612 11:05:14.431329  4990 net.cpp:615] Scale109 <- Convolution109
I0612 11:05:14.431337  4990 net.cpp:576] Scale109 -> Convolution109 (in-place)
I0612 11:05:14.431380  4990 layer_factory.hpp:77] Creating layer Scale109
I0612 11:05:14.431522  4990 net.cpp:240] Setting up Scale109
I0612 11:05:14.431531  4990 net.cpp:247] Top shape: 128 64 8 8 (524288)
I0612 11:05:14.431535  4990 net.cpp:255] Memory required for data: 2962753024
I0612 11:05:14.431545  4990 layer_factory.hpp:77] Creating layer Eltwise54
I0612 11:05:14.431552  4990 net.cpp:190] Creating Layer Eltwise54
I0612 11:05:14.431557  4990 net.cpp:615] Eltwise54 <- Eltwise53_ReLU107_0_split_1
I0612 11:05:14.431563  4990 net.cpp:615] Eltwise54 <- Convolution109
I0612 11:05:14.431571  4990 net.cpp:589] Eltwise54 -> Eltwise54
I0612 11:05:14.431599  4990 net.cpp:240] Setting up Eltwise54
I0612 11:05:14.431609  4990 net.cpp:247] Top shape: 128 64 8 8 (524288)
I0612 11:05:14.431613  4990 net.cpp:255] Memory required for data: 2964850176
I0612 11:05:14.431618  4990 layer_factory.hpp:77] Creating layer ReLU109
I0612 11:05:14.431625  4990 net.cpp:190] Creating Layer ReLU109
I0612 11:05:14.431629  4990 net.cpp:615] ReLU109 <- Eltwise54
I0612 11:05:14.431635  4990 net.cpp:576] ReLU109 -> Eltwise54 (in-place)
I0612 11:05:14.431643  4990 net.cpp:240] Setting up ReLU109
I0612 11:05:14.431648  4990 net.cpp:247] Top shape: 128 64 8 8 (524288)
I0612 11:05:14.431651  4990 net.cpp:255] Memory required for data: 2966947328
I0612 11:05:14.431654  4990 layer_factory.hpp:77] Creating layer Pooling4
I0612 11:05:14.431664  4990 net.cpp:190] Creating Layer Pooling4
I0612 11:05:14.431669  4990 net.cpp:615] Pooling4 <- Eltwise54
I0612 11:05:14.431675  4990 net.cpp:589] Pooling4 -> Pooling4
I0612 11:05:14.431704  4990 net.cpp:240] Setting up Pooling4
I0612 11:05:14.431711  4990 net.cpp:247] Top shape: 128 64 1 1 (8192)
I0612 11:05:14.431715  4990 net.cpp:255] Memory required for data: 2966980096
I0612 11:05:14.431718  4990 layer_factory.hpp:77] Creating layer InnerProduct1
I0612 11:05:14.431728  4990 net.cpp:190] Creating Layer InnerProduct1
I0612 11:05:14.431733  4990 net.cpp:615] InnerProduct1 <- Pooling4
I0612 11:05:14.431742  4990 net.cpp:589] InnerProduct1 -> InnerProduct1
I0612 11:05:14.431980  4990 net.cpp:240] Setting up InnerProduct1
I0612 11:05:14.431991  4990 net.cpp:247] Top shape: 128 10 (1280)
I0612 11:05:14.431994  4990 net.cpp:255] Memory required for data: 2966985216
I0612 11:05:14.432005  4990 layer_factory.hpp:77] Creating layer InnerProduct1_InnerProduct1_0_split
I0612 11:05:14.432014  4990 net.cpp:190] Creating Layer InnerProduct1_InnerProduct1_0_split
I0612 11:05:14.432019  4990 net.cpp:615] InnerProduct1_InnerProduct1_0_split <- InnerProduct1
I0612 11:05:14.432026  4990 net.cpp:589] InnerProduct1_InnerProduct1_0_split -> InnerProduct1_InnerProduct1_0_split_0
I0612 11:05:14.432036  4990 net.cpp:589] InnerProduct1_InnerProduct1_0_split -> InnerProduct1_InnerProduct1_0_split_1
I0612 11:05:14.432075  4990 net.cpp:240] Setting up InnerProduct1_InnerProduct1_0_split
I0612 11:05:14.432082  4990 net.cpp:247] Top shape: 128 10 (1280)
I0612 11:05:14.432087  4990 net.cpp:247] Top shape: 128 10 (1280)
I0612 11:05:14.432091  4990 net.cpp:255] Memory required for data: 2966995456
I0612 11:05:14.432096  4990 layer_factory.hpp:77] Creating layer Accuracy
I0612 11:05:14.432104  4990 net.cpp:190] Creating Layer Accuracy
I0612 11:05:14.432109  4990 net.cpp:615] Accuracy <- InnerProduct1_InnerProduct1_0_split_0
I0612 11:05:14.432114  4990 net.cpp:615] Accuracy <- Data2_Data1_1_split_0
I0612 11:05:14.432121  4990 net.cpp:589] Accuracy -> Accuracy
…
