…
stepvalue: 150000
type: "Nesterov"
I0612 11:07:31.559618  5211 solver.cpp:86] Creating training net from train_net file: examples/stochastic_depth/residual_train54.prototxt
I0612 11:07:31.575456  5211 net.cpp:148] Initializing net from parameters: 
state {
  phase: TRAIN
}
layer {
  name: "Data1"
  type: "Data"
  top: "Data1"
  top: "Data2"
  transform_param {
    mirror: true
    crop_size: 32
  }
  data_param {
    source: "/scratch/pas282/caffe/examples/cifar10/cifar10_train_leveldb_padding1"
    batch_size: 128
    backend: LEVELDB
  }
}
layer {
  name: "Convolution1"
  type: "Convolution"
  bottom: "Data1"
  top: "Convolution1"
  convolution_param {
    num_output: 16
    bias_term: true
    pad: 1
    kernel_size: 3
    stride: 1
    weight_filler {
      type: "msra"
    }
    bias_filler {
      type: "constant"
    }
  }
}
layer {
  name: "BatchNorm1"
  type: "BatchNorm"
  bottom: "Convolution1"
  top: "Convolution1"
  param {
    lr_mult: 0
    decay_mult: 0
  }
  param {
    lr_mult: 0
    decay_mult: 0
  }
  param {
    lr_mult: 0
    decay_mult: 0
  }
}
layer {
  name: "Scale1"
  type: "Scale"
  bottom: "Convolution1"
  top: "Convolution1"
  scale_param {
    bias_term: true
  }
}
layer {
  name: "ReLU1"
  type: "ReLU"
  bottom: "Convolution1"
  top: "Convolution1"
}
layer {
  name: "Convolution2"
  type: "Convolution"
  bottom: "Convolution1"
  top: "Convolution2"
  convolution_param {
    num_output: 16
    bias_term: true
    pad: 1
    kernel_size: 3
    stride: 1
    weight_filler {
      type: "msra"
    }
    bias_filler {
      type: "constant"
    }
  }
}
layer {
  name: "BatchNorm2"
  type: "BatchNorm"
  bottom: "Convolution2"
  top: "Convolution2"
  param {
    lr_mult: 0
    decay_mult: 0
  }
  param {
    lr_mult: 0
    decay_mult: 0
  }
  param {
    lr_mult: 0
    decay_mult: 0
  }
}
layer {
  name: "Scale2"
  type: "Scale"
  bottom: "Convolution2"
  top: "Convolution2"
  scale_param {
    bias_term: true
  }
}
layer {
  name: "ReLU2"
  type: "ReLU"
  bottom: "Convolution2"
  top: "Convolution2"
}
layer {
  name: "Convolution3"
  type: "Convolution"
  bottom: "Convolution2"
  top: "Convolution3"
  convolution_param {
    num_output: 16
    bias_term: true
    pad: 1
    kernel_size: 3
    stride: 1
    weight_filler {
      type: "msra"
    }
    bias_filler {
      type: "constant"
    }
  }
}
layer {
  name: "BatchNorm3"
  type: "BatchNorm"
  bottom: "Convolution3"
  top: "Convolution3"
  param {
    lr_mult: 0
    decay_mult: 0
  }
  param {
    lr_mult: 0
    decay_mult: 0
  }
  param {
    lr_mult: 0
    decay_mult: 0
  }
}
layer {
  name: "Scale3"
  type: "Scale"
  bottom: "Convolution3"
  top: "Convolution3"
  scale_param {
    bias_term: true
  }
}
layer {
  name: "Eltwise1"
  type: "Eltwise"
  bottom: "Convolution1"
  bottom: "Convolution3"
  top: "Eltwise1"
  eltwise_param {
    operation: SUM
  }
}
layer {
  name: "ReLU3"
  type: "ReLU"
  bottom: "Eltwise1"
  top: "Eltwise1"
}
layer {
  name: "Convolution4"
  type: "Convolution"
  bottom: "Eltwise1"
  top: "Convolution4"
  convolution_param {
    num_output: 16
    bias_term: true
    pad: 1
    kernel_size: 3
    stride: 1
    weight_filler {
      type: "msra"
    }
    bias_filler {
      type: "constant"
    }
  }
}
layer {
  name: "BatchNorm4"
  type: "BatchNorm"
  bottom: "Convolution4"
  top: "Convolution4"
  param {
    lr_mult: 0
    decay_mult: 0
  }
  param {
    lr_mult: 0
    decay_mult: 0
  }
  param {
    lr_mult: 0
    decay_mult: 0
  }
}
layer {
  name: "Scale4"
  type: "Scale"
  bottom: "Convolution4"
  top: "Convolution4"
  scale_param {
    bias_term: true
  }
}
layer {
  name: "ReLU4"
  type: "ReLU"
  bottom: "Convolution4"
  top: "Convolution4"
}
layer {
  name: "Convolution5"
  type: "Convolution"
  bottom: "Convolution4"
  top: "Convolution5"
  convolution_param {
    num_output: 16
    bias_term: true
    pad: 1
    kernel_size: 3
    stride: 1
    weight_filler {
      type: "msra"
    }
    bias_filler {
      type: "constant"
    }
  }
}
layer {
  name: "BatchNorm5"
  type: "BatchNorm"
  bottom: "Convolution5"
  top: "Convolution5"
  param {
    lr_mult: 0
    decay_mult: 0
  }
  param {
    lr_mult: 0
    decay_mult: 0
  }
  param {
    lr_mult: 0
    decay_mult: 0
  }
}
layer {
  name: "Scale5"
  type: "Scale"
  bottom: "Convolution5"
  top: "Convolution5"
  scale_param {
    bias_term: true
  }
}
layer {
  name: "Eltwise2"
  type: "Eltwise"
  bottom: "Eltwise1"
  bottom: "Convolution5"
  top: "Eltwise2"
  eltwise_param {
    operation: SUM
  }
}
layer {
  name: "ReLU5"
  type: "ReLU"
  bottom: "Eltwise2"
  top: "Eltwise2"
}
layer {
  name: "Convolution6"
  type: "Convolution"
  bottom: "Eltwise2"
  top: "Convolution6"
  convolution_param {
    num_output: 16
    bias_term: true
    pad: 1
    kernel_size: 3
    stride: 1
    weight_filler {
      type: "msra"
    }
    bias_filler {
      type: "constant"
    }
  }
}
layer {
  name: "BatchNorm6"
  type: "BatchNorm"
  bottom: "Convolution6"
  top: "Convolution6"
  param {
    lr_mult: 0
    decay_mult: 0
  }
  param {
    lr_mult: 0
    decay_mult: 0
  }
  param {
    lr_mult: 0
    decay_mult: 0
  }
}
layer {
  name: "Scale6"
  type: "Scale"
  bottom: "Convolution6"
  top: "Convolution6"
  scale_param {
    bias_term: true
  }
}
layer {
  name: "ReLU6"
  type: "ReLU"
  bottom: "Convolution6"
  top: "Convolution6"
}
layer {
  name: "Convolution7"
  type: "Convolution"
  bottom: "Convolution6"
  top: "Convolution7"
  convolution_param {
    num_output: 16
    bias_term: true
    pad: 1
    kernel_size: 3
    stride: 1
    weight_filler {
      type: "msra"
    }
    bias_filler {
      type: "constant"
    }
  }
}
layer {
  name: "BatchNorm7"
  type: "BatchNorm"
  bottom: "Convolution7"
  top: "Convolution7"
  param {
    lr_mult: 0
    decay_mult: 0
  }
  param {
    lr_mult: 0
    decay_mult: 0
  }
  param {
    lr_mult: 0
    decay_mult: 0
  }
}
layer {
  name: "Scale7"
  type: "Scale"
  bottom: "Convolution7"
  top: "Convolution7"
  scale_param {
    bias_term: true
  }
}
layer {
  name: "Eltwise3"
  type: "Eltwise"
  bottom: "Eltwise2"
  bottom: "Convolution7"
  top: "Eltwise3"
  eltwise_param {
    operation: SUM
  }
}
layer {
  name: "ReLU7"
  type: "ReLU"
  bottom: "Eltwise3"
  top: "Eltwise3"
}
layer {
  name: "Convolution8"
  type: "Convolution"
  bottom: "Eltwise3"
  top: "Convolution8"
  convolution_param {
    num_output: 16
    bias_term: true
    pad: 1
    kernel_size: 3
    stride: 1
    weight_filler {
      type: "msra"
    }
    bias_filler {
      type: "constant"
    }
  }
}
layer {
  name: "BatchNorm8"
  type: "BatchNorm"
  bottom: "Convolution8"
  top: "Convolution8"
  param {
    lr_mult: 0
    decay_mult: 0
  }
  param {
    lr_mult: 0
    decay_mult: 0
  }
  param {
    lr_mult: 0
    decay_mult: 0
  }
}
layer {
  name: "Scale8"
  type: "Scale"
  bottom: "Convolution8"
  top: "Convolution8"
  scale_param {
    bias_term: true
  }
}
layer {
  name: "ReLU8"
  type: "ReLU"
  bottom: "Convolution8"
  top: "Convolution8"
}
layer {
  name: "Convolution9"
  type: "Convolution"
  bottom: "Convolution8"
  top: "Convolution9"
  convolution_param {
    num_output: 16
    bias_term: true
    pad: 1
    kernel_size: 3
    stride: 1
    weight_filler {
      type: "msra"
    }
    bias_filler {
      type: "constant"
    }
  }
}
layer {
  name: "BatchNorm9"
  type: "BatchNorm"
  bottom: "Convolution9"
  top: "Convolution9"
  param {
    lr_mult: 0
    decay_mult: 0
  }
  param {
    lr_mult: 0
    decay_mult: 0
  }
  param {
    lr_mult: 0
    decay_mult: 0
  }
}
layer {
  name: "Scale9"
  type: "Scale"
  bottom: "Convolution9"
  top: "Convolution9"
  scale_param {
    bias_term: true
  }
}
layer {
  name: "Eltwise4"
  type: "Eltwise"
  bottom: "Eltwise3"
  bottom: "Convolution9"
  top: "Eltwise4"
  eltwise_param {
    operation: SUM
  }
}
layer {
  name: "ReLU9"
  type: "ReLU"
  bottom: "Eltwise4"
  top: "Eltwise4"
}
layer {
  name: "Convolution10"
  type: "Convolution"
  bottom: "Eltwise4"
  top: "Convolution10"
  convolution_param {
    num_output: 16
    bias_term: true
    pad: 1
    kernel_size: 3
    stride: 1
    weight_filler {
      type: "msra"
    }
    bias_filler {
      type: "constant"
    }
  }
}
layer {
  name: "BatchNorm10"
  type: "BatchNorm"
  bottom: "Convolution10"
  top: "Convolution10"
  param {
    lr_mult: 0
    decay_mult: 0
  }
  param {
    lr_mult: 0
    decay_mult: 0
  }
  param {
    lr_mult: 0
    decay_mult: 0
  }
}
layer {
  name: "Scale10"
  type: "Scale"
  bottom: "Convolution10"
  top: "Convolution10"
  scale_param {
    bias_term: true
  }
}
layer {
  name: "ReLU10"
  type: "ReLU"
  bottom: "Convolution10"
  top: "Convolution10"
}
layer {
  name: "Convolution11"
  type: "Convolution"
  bottom: "Convolution10"
  top: "Convolution11"
  convolution_param {
    num_output: 16
    bias_term: true
    pad: 1
    kernel_size: 3
    stride: 1
    weight_filler {
      type: "msra"
    }
    bias_filler {
      type: "constant"
    }
  }
}
layer {
  name: "BatchNorm11"
  type: "BatchNorm"
  bottom: "Convolution11"
  top: "Convolution11"
  param {
    lr_mult: 0
    decay_mult: 0
  }
  param {
    lr_mult: 0
    decay_mult: 0
  }
  param {
    lr_mult: 0
    decay_mult: 0
  }
}
layer {
  name: "Scale11"
  type: "Scale"
  bottom: "Convolution11"
  top: "Convolution11"
  scale_param {
    bias_term: true
  }
}
layer {
  name: "Eltwise5"
  type: "Eltwise"
  bottom: "Eltwise4"
  bottom: "Convolution11"
  top: "Eltwise5"
  eltwise_param {
    operation: SUM
  }
}
layer {
  name: "ReLU11"
  type: "ReLU"
  bottom: "Eltwise5"
  top: "Eltwise5"
}
layer {
  name: "Convolution12"
  type: "Convolution"
  bottom: "Eltwise5"
  top: "Convolution12"
  convolution_param {
    num_output: 16
    bias_term: true
    pad: 1
    kernel_size: 3
    stride: 1
    weight_filler {
      type: "msra"
    }
    bias_filler {
      type: "constant"
    }
  }
}
layer {
  name: "BatchNorm12"
  type: "BatchNorm"
  bottom: "Convolution12"
  top: "Convolution12"
  param {
    lr_mult: 0
    decay_mult: 0
  }
  param {
    lr_mult: 0
    decay_mult: 0
  }
  param {
    lr_mult: 0
    decay_mult: 0
  }
}
layer {
  name: "Scale12"
  type: "Scale"
  bottom: "Convolution12"
  top: "Convolution12"
  scale_param {
    bias_term: true
  }
}
layer {
  name: "ReLU12"
  type: "ReLU"
  bottom: "Convolution12"
  top: "Convolution12"
}
layer {
  name: "Convolution13"
  type: "Convolution"
  bottom: "Convolution12"
  top: "Convolution13"
  convolution_param {
    num_output: 16
    bias_term: true
    pad: 1
    kernel_size: 3
    stride: 1
    weight_filler {
      type: "msra"
    }
    bias_filler {
      type: "constant"
    }
  }
}
layer {
  name: "BatchNorm13"
  type: "BatchNorm"
  bottom: "Convolution13"
  top: "Convolution13"
  param {
    lr_mult: 0
    decay_mult: 0
  }
  param {
    lr_mult: 0
    decay_mult: 0
  }
  param {
    lr_mult: 0
    decay_mult: 0
  }
}
layer {
  name: "Scale13"
  type: "Scale"
  bottom: "Convolution13"
  top: "Convolution13"
  scale_param {
    bias_term: true
  }
}
layer {
  name: "Eltwise6"
  type: "Eltwise"
  bottom: "Eltwise5"
  bottom: "Convolution13"
  top: "Eltwise6"
  eltwise_param {
    operation: SUM
  }
}
layer {
  name: "ReLU13"
  type: "ReLU"
  bottom: "Eltwise6"
  top: "Eltwise6"
}
layer {
  name: "Convolution14"
  type: "Convolution"
  bottom: "Eltwise6"
  top: "Convolution14"
  convolution_param {
    num_output: 16
    bias_term: true
    pad: 1
    kernel_size: 3
    stride: 1
    weight_filler {
      type: "msra"
    }
    bias_filler {
      type: "constant"
    }
  }
}
layer {
  name: "BatchNorm14"
  type: "BatchNorm"
  bottom: "Convolution14"
  top: "Convolution14"
  param {
    lr_mult: 0
    decay_mult: 0
  }
  param {
    lr_mult: 0
    decay_mult: 0
  }
  param {
    lr_mult: 0
    decay_mult: 0
  }
}
layer {
  name: "Scale14"
  type: "Scale"
  bottom: "Convolution14"
  top: "Convolution14"
  scale_param {
    bias_term: true
  }
}
layer {
  name: "ReLU14"
  type: "ReLU"
  bottom: "Convolution14"
  top: "Convolution14"
}
layer {
  name: "Convolution15"
  type: "Convolution"
  bottom: "Convolution14"
  top: "Convolution15"
  convolution_param {
    num_output: 16
    bias_term: true
    pad: 1
    kernel_size: 3
    stride: 1
    weight_filler {
      type: "msra"
    }
    bias_filler {
      type: "constant"
    }
  }
}
layer {
  name: "BatchNorm15"
  type: "BatchNorm"
  bottom: "Convolution15"
  top: "Convolution15"
  param {
    lr_mult: 0
    decay_mult: 0
  }
  param {
    lr_mult: 0
    decay_mult: 0
  }
  param {
    lr_mult: 0
    decay_mult: 0
  }
}
layer {
  name: "Scale15"
  type: "Scale"
  bottom: "Convolution15"
  top: "Convolution15"
  scale_param {
    bias_term: true
  }
}
layer {
  name: "Eltwise7"
  type: "Eltwise"
  bottom: "Eltwise6"
  bottom: "Convolution15"
  top: "Eltwise7"
  eltwise_param {
    operation: SUM
  }
}
layer {
  name: "ReLU15"
  type: "ReLU"
  bottom: "Eltwise7"
  top: "Eltwise7"
}
layer {
  name: "Convolution16"
  type: "Convolution"
  bottom: "Eltwise7"
  top: "Convolution16"
  convolution_param {
    num_output: 16
    bias_term: true
    pad: 1
    kernel_size: 3
    stride: 1
    weight_filler {
      type: "msra"
    }
    bias_filler {
      type: "constant"
    }
  }
}
layer {
  name: "BatchNorm16"
  type: "BatchNorm"
  bottom: "Convolution16"
  top: "Convolution16"
  param {
    lr_mult: 0
    decay_mult: 0
  }
  param {
    lr_mult: 0
    decay_mult: 0
  }
  param {
    lr_mult: 0
    decay_mult: 0
  }
}
layer {
  name: "Scale16"
  type: "Scale"
  bottom: "Convolution16"
  top: "Convolution16"
  scale_param {
    bias_term: true
  }
}
layer {
  name: "ReLU16"
  type: "ReLU"
  bottom: "Convolution16"
  top: "Convolution16"
}
layer {
  name: "Convolution17"
  type: "Convolution"
  bottom: "Convolution16"
  top: "Convolution17"
  convolution_param {
    num_output: 16
    bias_term: true
    pad: 1
    kernel_size: 3
    stride: 1
    weight_filler {
      type: "msra"
    }
    bias_filler {
      type: "constant"
    }
  }
}
layer {
  name: "BatchNorm17"
  type: "BatchNorm"
  bottom: "Convolution17"
  top: "Convolution17"
  param {
    lr_mult: 0
    decay_mult: 0
  }
  param {
    lr_mult: 0
    decay_mult: 0
  }
  param {
    lr_mult: 0
    decay_mult: 0
  }
}
layer {
  name: "Scale17"
  type: "Scale"
  bottom: "Convolution17"
  top: "Convolution17"
  scale_param {
    bias_term: true
  }
}
layer {
  name: "Eltwise8"
  type: "Eltwise"
  bottom: "Eltwise7"
  bottom: "Convolution17"
  top: "Eltwise8"
  eltwise_param {
    operation: SUM
  }
}
layer {
  name: "ReLU17"
  type: "ReLU"
  bottom: "Eltwise8"
  top: "Eltwise8"
}
layer {
  name: "Convolution18"
  type: "Convolution"
  bottom: "Eltwise8"
  top: "Convolution18"
  convolution_param {
    num_output: 16
    bias_term: true
    pad: 1
    kernel_size: 3
    stride: 1
    weight_filler {
      type: "msra"
    }
    bias_filler {
      type: "constant"
    }
  }
}
layer {
  name: "BatchNorm18"
  type: "BatchNorm"
  bottom: "Convolution18"
  top: "Convolution18"
  param {
    lr_mult: 0
    decay_mult: 0
  }
  param {
    lr_mult: 0
    decay_mult: 0
  }
  param {
    lr_mult: 0
    decay_mult: 0
  }
}
layer {
  name: "Scale18"
  type: "Scale"
  bottom: "Convolution18"
  top: "Convolution18"
  scale_param {
    bias_term: true
  }
}
layer {
  name: "ReLU18"
  type: "ReLU"
  bottom: "Convolution18"
  top: "Convolution18"
}
layer {
  name: "Convolution19"
  type: "Convolution"
  bottom: "Convolution18"
  top: "Convolution19"
  convolution_param {
    num_output: 16
    bias_term: true
    pad: 1
    kernel_size: 3
    stride: 1
    weight_filler {
      type: "msra"
    }
    bias_filler {
      type: "constant"
    }
  }
}
layer {
  name: "BatchNorm19"
  type: "BatchNorm"
  bottom: "Convolution19"
  top: "Convolution19"
  param {
    lr_mult: 0
    decay_mult: 0
  }
  param {
    lr_mult: 0
    decay_mult: 0
  }
  param {
    lr_mult: 0
    decay_mult: 0
  }
}
layer {
  name: "Scale19"
  type: "Scale"
  bottom: "Convolution19"
  top: "Convolution19"
  scale_param {
    bias_term: true
  }
}
layer {
  name: "Eltwise9"
  type: "Eltwise"
  bottom: "Eltwise8"
  bottom: "Convolution19"
  top: "Eltwise9"
  eltwise_param {
    operation: SUM
  }
}
layer {
  name: "ReLU19"
  type: "ReLU"
  bottom: "Eltwise9"
  top: "Eltwise9"
}
layer {
  name: "Convolution20"
  type: "Convolution"
  bottom: "Eltwise9"
  top: "Convolution20"
  convolution_param {
    num_output: 16
    bias_term: true
    pad: 1
    kernel_size: 3
    stride: 1
    weight_filler {
      type: "msra"
    }
    bias_filler {
      type: "constant"
    }
  }
}
layer {
  name: "BatchNorm20"
  type: "BatchNorm"
  bottom: "Convolution20"
  top: "Convolution20"
  param {
    lr_mult: 0
    decay_mult: 0
  }
  param {
    lr_mult: 0
    decay_mult: 0
  }
  param {
    lr_mult: 0
    decay_mult: 0
  }
}
layer {
  name: "Scale20"
  type: "Scale"
  bottom: "Convolution20"
  top: "Convolution20"
  scale_param {
    bias_term: true
  }
}
layer {
  name: "ReLU20"
  type: "ReLU"
  bottom: "Convolution20"
  top: "Convolution20"
}
layer {
  name: "Convolution21"
  type: "Convolution"
  bottom: "Convolution20"
  top: "Convolution21"
  convolution_param {
    num_output: 16
    bias_term: true
    pad: 1
    kernel_size: 3
    stride: 1
    weight_filler {
      type: "msra"
    }
    bias_filler {
      type: "constant"
    }
  }
}
layer {
  name: "BatchNorm21"
  type: "BatchNorm"
  bottom: "Convolution21"
  top: "Convolution21"
  param {
    lr_mult: 0
    decay_mult: 0
  }
  param {
    lr_mult: 0
    decay_mult: 0
  }
  param {
    lr_mult: 0
    decay_mult: 0
  }
}
layer {
  name: "Scale21"
  type: "Scale"
  bottom: "Convolution21"
  top: "Convolution21"
  scale_param {
    bias_term: true
  }
}
layer {
  name: "Eltwise10"
  type: "Eltwise"
  bottom: "Eltwise9"
  bottom: "Convolution21"
  top: "Eltwise10"
  eltwise_param {
    operation: SUM
  }
}
layer {
  name: "ReLU21"
  type: "ReLU"
  bottom: "Eltwise10"
  top: "Eltwise10"
}
layer {
  name: "Convolution22"
  type: "Convolution"
  bottom: "Eltwise10"
  top: "Convolution22"
  convolution_param {
    num_output: 16
    bias_term: true
    pad: 1
    kernel_size: 3
    stride: 1
    weight_filler {
      type: "msra"
    }
    bias_filler {
      type: "constant"
    }
  }
}
layer {
  name: "BatchNorm22"
  type: "BatchNorm"
  bottom: "Convolution22"
  top: "Convolution22"
  param {
    lr_mult: 0
    decay_mult: 0
  }
  param {
    lr_mult: 0
    decay_mult: 0
  }
  param {
    lr_mult: 0
    decay_mult: 0
  }
}
layer {
  name: "Scale22"
  type: "Scale"
  bottom: "Convolution22"
  top: "Convolution22"
  scale_param {
    bias_term: true
  }
}
layer {
  name: "ReLU22"
  type: "ReLU"
  bottom: "Convolution22"
  top: "Convolution22"
}
layer {
  name: "Convolution23"
  type: "Convolution"
  bottom: "Convolution22"
  top: "Convolution23"
  convolution_param {
    num_output: 16
    bias_term: true
    pad: 1
    kernel_size: 3
    stride: 1
    weight_filler {
      type: "msra"
    }
    bias_filler {
      type: "constant"
    }
  }
}
layer {
  name: "BatchNorm23"
  type: "BatchNorm"
  bottom: "Convolution23"
  top: "Convolution23"
  param {
    lr_mult: 0
    decay_mult: 0
  }
  param {
    lr_mult: 0
    decay_mult: 0
  }
  param {
    lr_mult: 0
    decay_mult: 0
  }
}
layer {
  name: "Scale23"
  type: "Scale"
  bottom: "Convolution23"
  top: "Convolution23"
  scale_param {
    bias_term: true
  }
}
layer {
  name: "Eltwise11"
  type: "Eltwise"
  bottom: "Eltwise10"
  bottom: "Convolution23"
  top: "Eltwise11"
  eltwise_param {
    operation: SUM
  }
}
layer {
  name: "ReLU23"
  type: "ReLU"
  bottom: "Eltwise11"
  top: "Eltwise11"
}
layer {
  name: "Convolution24"
  type: "Convolution"
  bottom: "Eltwise11"
  top: "Convolution24"
  convolution_param {
    num_output: 16
    bias_term: true
    pad: 1
    kernel_size: 3
    stride: 1
    weight_filler {
      type: "msra"
    }
    bias_filler {
      type: "constant"
    }
  }
}
layer {
  name: "BatchNorm24"
  type: "BatchNorm"
  bottom: "Convolution24"
  top: "Convolution24"
  param {
    lr_mult: 0
    decay_mult: 0
  }
  param {
    lr_mult: 0
    decay_mult: 0
  }
  param {
    lr_mult: 0
    decay_mult: 0
  }
}
layer {
  name: "Scale24"
  type: "Scale"
  bottom: "Convolution24"
  top: "Convolution24"
  scale_param {
    bias_term: true
  }
}
layer {
  name: "ReLU24"
  type: "ReLU"
  bottom: "Convolution24"
  top: "Convolution24"
}
layer {
  name: "Convolution25"
  type: "Convolution"
  bottom: "Convolution24"
  top: "Convolution25"
  convolution_param {
    num_output: 16
    bias_term: true
    pad: 1
    kernel_size: 3
    stride: 1
    weight_filler {
      type: "msra"
    }
    bias_filler {
      type: "constant"
    }
  }
}
layer {
  name: "BatchNorm25"
  type: "BatchNorm"
  bottom: "Convolution25"
  top: "Convolution25"
  param {
    lr_mult: 0
    decay_mult: 0
  }
  param {
    lr_mult: 0
    decay_mult: 0
  }
  param {
    lr_mult: 0
    decay_mult: 0
  }
}
layer {
  name: "Scale25"
  type: "Scale"
  bottom: "Convolution25"
  top: "Convolution25"
  scale_param {
    bias_term: true
  }
}
layer {
  name: "Eltwise12"
  type: "Eltwise"
  bottom: "Eltwise11"
  bottom: "Convolution25"
  top: "Eltwise12"
  eltwise_param {
    operation: SUM
  }
}
layer {
  name: "ReLU25"
  type: "ReLU"
  bottom: "Eltwise12"
  top: "Eltwise12"
}
layer {
  name: "Convolution26"
  type: "Convolution"
  bottom: "Eltwise12"
  top: "Convolution26"
  convolution_param {
    num_output: 16
    bias_term: true
    pad: 1
    kernel_size: 3
    stride: 1
    weight_filler {
      type: "msra"
    }
    bias_filler {
      type: "constant"
    }
  }
}
layer {
  name: "BatchNorm26"
  type: "BatchNorm"
  bottom: "Convolution26"
  top: "Convolution26"
  param {
    lr_mult: 0
    decay_mult: 0
  }
  param {
    lr_mult: 0
    decay_mult: 0
  }
  param {
    lr_mult: 0
    decay_mult: 0
  }
}
layer {
  name: "Scale26"
  type: "Scale"
  bottom: "Convolution26"
  top: "Convolution26"
  scale_param {
    bias_term: true
  }
}
layer {
  name: "ReLU26"
  type: "ReLU"
  bottom: "Convolution26"
  top: "Convolution26"
}
layer {
  name: "Convolution27"
  type: "Convolution"
  bottom: "Convolution26"
  top: "Convolution27"
  convolution_param {
    num_output: 16
    bias_term: true
    pad: 1
    kernel_size: 3
    stride: 1
    weight_filler {
      type: "msra"
    }
    bias_filler {
      type: "constant"
    }
  }
}
layer {
  name: "BatchNorm27"
  type: "BatchNorm"
  bottom: "Convolution27"
  top: "Convolution27"
  param {
    lr_mult: 0
    decay_mult: 0
  }
  param {
    lr_mult: 0
    decay_mult: 0
  }
  param {
    lr_mult: 0
    decay_mult: 0
  }
}
layer {
  name: "Scale27"
  type: "Scale"
  bottom: "Convolution27"
  top: "Convolution27"
  scale_param {
    bias_term: true
  }
}
layer {
  name: "Eltwise13"
  type: "Eltwise"
  bottom: "Eltwise12"
  bottom: "Convolution27"
  top: "Eltwise13"
  eltwise_param {
    operation: SUM
  }
}
layer {
  name: "ReLU27"
  type: "ReLU"
  bottom: "Eltwise13"
  top: "Eltwise13"
}
layer {
  name: "Convolution28"
  type: "Convolution"
  bottom: "Eltwise13"
  top: "Convolution28"
  convolution_param {
    num_output: 16
    bias_term: true
    pad: 1
    kernel_size: 3
    stride: 1
    weight_filler {
      type: "msra"
    }
    bias_filler {
      type: "constant"
    }
  }
}
layer {
  name: "BatchNorm28"
  type: "BatchNorm"
  bottom: "Convolution28"
  top: "Convolution28"
  param {
    lr_mult: 0
    decay_mult: 0
  }
  param {
    lr_mult: 0
    decay_mult: 0
  }
  param {
    lr_mult: 0
    decay_mult: 0
  }
}
layer {
  name: "Scale28"
  type: "Scale"
  bottom: "Convolution28"
  top: "Convolution28"
  scale_param {
    bias_term: true
  }
}
layer {
  name: "ReLU28"
  type: "ReLU"
  bottom: "Convolution28"
  top: "Convolution28"
}
layer {
  name: "Convolution29"
  type: "Convolution"
  bottom: "Convolution28"
  top: "Convolution29"
  convolution_param {
    num_output: 16
    bias_term: true
    pad: 1
    kernel_size: 3
    stride: 1
    weight_filler {
      type: "msra"
    }
    bias_filler {
      type: "constant"
    }
  }
}
layer {
  name: "BatchNorm29"
  type: "BatchNorm"
  bottom: "Convolution29"
  top: "Convolution29"
  param {
    lr_mult: 0
    decay_mult: 0
  }
  param {
    lr_mult: 0
    decay_mult: 0
  }
  param {
    lr_mult: 0
    decay_mult: 0
  }
}
layer {
  name: "Scale29"
  type: "Scale"
  bottom: "Convolution29"
  top: "Convolution29"
  scale_param {
    bias_term: true
  }
}
layer {
  name: "Eltwise14"
  type: "Eltwise"
  bottom: "Eltwise13"
  bottom: "Convolution29"
  top: "Eltwise14"
  eltwise_param {
    operation: SUM
  }
}
layer {
  name: "ReLU29"
  type: "ReLU"
  bottom: "Eltwise14"
  top: "Eltwise14"
}
layer {
  name: "Convolution30"
  type: "Convolution"
  bottom: "Eltwise14"
  top: "Convolution30"
  convolution_param {
    num_output: 16
    bias_term: true
    pad: 1
    kernel_size: 3
    stride: 1
    weight_filler {
      type: "msra"
    }
    bias_filler {
      type: "constant"
    }
  }
}
layer {
  name: "BatchNorm30"
  type: "BatchNorm"
  bottom: "Convolution30"
  top: "Convolution30"
  param {
    lr_mult: 0
    decay_mult: 0
  }
  param {
    lr_mult: 0
    decay_mult: 0
  }
  param {
    lr_mult: 0
    decay_mult: 0
  }
}
layer {
  name: "Scale30"
  type: "Scale"
  bottom: "Convolution30"
  top: "Convolution30"
  scale_param {
    bias_term: true
  }
}
layer {
  name: "ReLU30"
  type: "ReLU"
  bottom: "Convolution30"
  top: "Convolution30"
}
layer {
  name: "Convolution31"
  type: "Convolution"
  bottom: "Convolution30"
  top: "Convolution31"
  convolution_param {
    num_output: 16
    bias_term: true
    pad: 1
    kernel_size: 3
    stride: 1
    weight_filler {
      type: "msra"
    }
    bias_filler {
      type: "constant"
    }
  }
}
layer {
  name: "BatchNorm31"
  type: "BatchNorm"
  bottom: "Convolution31"
  top: "Convolution31"
  param {
    lr_mult: 0
    decay_mult: 0
  }
  param {
    lr_mult: 0
    decay_mult: 0
  }
  param {
    lr_mult: 0
    decay_mult: 0
  }
}
layer {
  name: "Scale31"
  type: "Scale"
  bottom: "Convolution31"
  top: "Convolution31"
  scale_param {
    bias_term: true
  }
}
layer {
  name: "Eltwise15"
  type: "Eltwise"
  bottom: "Eltwise14"
  bottom: "Convolution31"
  top: "Eltwise15"
  eltwise_param {
    operation: SUM
  }
}
layer {
  name: "ReLU31"
  type: "ReLU"
  bottom: "Eltwise15"
  top: "Eltwise15"
}
layer {
  name: "Convolution32"
  type: "Convolution"
  bottom: "Eltwise15"
  top: "Convolution32"
  convolution_param {
    num_output: 16
    bias_term: true
    pad: 1
    kernel_size: 3
    stride: 1
    weight_filler {
      type: "msra"
    }
    bias_filler {
      type: "constant"
    }
  }
}
layer {
  name: "BatchNorm32"
  type: "BatchNorm"
  bottom: "Convolution32"
  top: "Convolution32"
  param {
    lr_mult: 0
    decay_mult: 0
  }
  param {
    lr_mult: 0
    decay_mult: 0
  }
  param {
    lr_mult: 0
    decay_mult: 0
  }
}
layer {
  name: "Scale32"
  type: "Scale"
  bottom: "Convolution32"
  top: "Convolution32"
  scale_param {
    bias_term: true
  }
}
layer {
  name: "ReLU32"
  type: "ReLU"
  bottom: "Convolution32"
  top: "Convolution32"
}
layer {
  name: "Convolution33"
  type: "Convolution"
  bottom: "Convolution32"
  top: "Convolution33"
  convolution_param {
    num_output: 16
    bias_term: true
    pad: 1
    kernel_size: 3
    stride: 1
    weight_filler {
      type: "msra"
    }
    bias_filler {
      type: "constant"
    }
  }
}
layer {
  name: "BatchNorm33"
  type: "BatchNorm"
  bottom: "Convolution33"
  top: "Convolution33"
  param {
    lr_mult: 0
    decay_mult: 0
  }
  param {
    lr_mult: 0
    decay_mult: 0
  }
  param {
    lr_mult: 0
    decay_mult: 0
  }
}
layer {
  name: "Scale33"
  type: "Scale"
  bottom: "Convolution33"
  top: "Convolution33"
  scale_param {
    bias_term: true
  }
}
layer {
  name: "Eltwise16"
  type: "Eltwise"
  bottom: "Eltwise15"
  bottom: "Convolution33"
  top: "Eltwise16"
  eltwise_param {
    operation: SUM
  }
}
layer {
  name: "ReLU33"
  type: "ReLU"
  bottom: "Eltwise16"
  top: "Eltwise16"
}
layer {
  name: "Convolution34"
  type: "Convolution"
  bottom: "Eltwise16"
  top: "Convolution34"
  convolution_param {
    num_output: 16
    bias_term: true
    pad: 1
    kernel_size: 3
    stride: 1
    weight_filler {
      type: "msra"
    }
    bias_filler {
      type: "constant"
    }
  }
}
layer {
  name: "BatchNorm34"
  type: "BatchNorm"
  bottom: "Convolution34"
  top: "Convolution34"
  param {
    lr_mult: 0
    decay_mult: 0
  }
  param {
    lr_mult: 0
    decay_mult: 0
  }
  param {
    lr_mult: 0
    decay_mult: 0
  }
}
layer {
  name: "Scale34"
  type: "Scale"
  bottom: "Convolution34"
  top: "Convolution34"
  scale_param {
    bias_term: true
  }
}
layer {
  name: "ReLU34"
  type: "ReLU"
  bottom: "Convolution34"
  top: "Convolution34"
}
layer {
  name: "Convolution35"
  type: "Convolution"
  bottom: "Convolution34"
  top: "Convolution35"
  convolution_param {
    num_output: 16
    bias_term: true
    pad: 1
    kernel_size: 3
    stride: 1
    weight_filler {
      type: "msra"
    }
    bias_filler {
      type: "constant"
    }
  }
}
layer {
  name: "BatchNorm35"
  type: "BatchNorm"
  bottom: "Convolution35"
  top: "Convolution35"
  param {
    lr_mult: 0
    decay_mult: 0
  }
  param {
    lr_mult: 0
    decay_mult: 0
  }
  param {
    lr_mult: 0
    decay_mult: 0
  }
}
layer {
  name: "Scale35"
  type: "Scale"
  bottom: "Convolution35"
  top: "Convolution35"
  scale_param {
    bias_term: true
  }
}
layer {
  name: "Eltwise17"
  type: "Eltwise"
  bottom: "Eltwise16"
  bottom: "Convolution35"
  top: "Eltwise17"
  eltwise_param {
    operation: SUM
  }
}
layer {
  name: "ReLU35"
  type: "ReLU"
  bottom: "Eltwise17"
  top: "Eltwise17"
}
layer {
  name: "Convolution36"
  type: "Convolution"
  bottom: "Eltwise17"
  top: "Convolution36"
  convolution_param {
    num_output: 16
    bias_term: true
    pad: 1
    kernel_size: 3
    stride: 1
    weight_filler {
      type: "msra"
    }
    bias_filler {
      type: "constant"
    }
  }
}
layer {
I0612 11:07:31.578055  5211 layer_factory.hpp:77] Creating layer Data1
I0612 11:07:31.579046  5211 net.cpp:190] Creating Layer Data1
I0612 11:07:31.579068  5211 net.cpp:589] Data1 -> Data1
I0612 11:07:31.579113  5211 net.cpp:589] Data1 -> Data2
I0612 11:07:31.624685  5215 db_leveldb.cpp:18] Opened leveldb /scratch/pas282/caffe/examples/cifar10/cifar10_train_leveldb_padding1
I0612 11:07:31.643713  5211 data_layer.cpp:41] output data size: 128,3,32,32
I0612 11:07:31.651753  5211 net.cpp:240] Setting up Data1
I0612 11:07:31.651796  5211 net.cpp:247] Top shape: 128 3 32 32 (393216)
I0612 11:07:31.651809  5211 net.cpp:247] Top shape: 128 (128)
I0612 11:07:31.651818  5211 net.cpp:255] Memory required for data: 1573376
I0612 11:07:31.651836  5211 layer_factory.hpp:77] Creating layer Convolution1
I0612 11:07:31.651876  5211 net.cpp:190] Creating Layer Convolution1
I0612 11:07:31.651890  5211 net.cpp:615] Convolution1 <- Data1
I0612 11:07:31.651916  5211 net.cpp:589] Convolution1 -> Convolution1
I0612 11:07:31.654014  5211 net.cpp:240] Setting up Convolution1
I0612 11:07:31.654042  5211 net.cpp:247] Top shape: 128 16 32 32 (2097152)
I0612 11:07:31.654050  5211 net.cpp:255] Memory required for data: 9961984
I0612 11:07:31.654086  5211 layer_factory.hpp:77] Creating layer BatchNorm1
I0612 11:07:31.654110  5211 net.cpp:190] Creating Layer BatchNorm1
I0612 11:07:31.654119  5211 net.cpp:615] BatchNorm1 <- Convolution1
I0612 11:07:31.654129  5211 net.cpp:576] BatchNorm1 -> Convolution1 (in-place)
I0612 11:07:31.654495  5211 net.cpp:240] Setting up BatchNorm1
I0612 11:07:31.654510  5211 net.cpp:247] Top shape: 128 16 32 32 (2097152)
I0612 11:07:31.654516  5211 net.cpp:255] Memory required for data: 18350592
I0612 11:07:31.654542  5211 layer_factory.hpp:77] Creating layer Scale1
I0612 11:07:31.654564  5211 net.cpp:190] Creating Layer Scale1
I0612 11:07:31.654572  5211 net.cpp:615] Scale1 <- Convolution1
I0612 11:07:31.654582  5211 net.cpp:576] Scale1 -> Convolution1 (in-place)
I0612 11:07:31.654644  5211 layer_factory.hpp:77] Creating layer Scale1
I0612 11:07:31.654832  5211 net.cpp:240] Setting up Scale1
I0612 11:07:31.654856  5211 net.cpp:247] Top shape: 128 16 32 32 (2097152)
I0612 11:07:31.654863  5211 net.cpp:255] Memory required for data: 26739200
I0612 11:07:31.654880  5211 layer_factory.hpp:77] Creating layer ReLU1
I0612 11:07:31.654893  5211 net.cpp:190] Creating Layer ReLU1
I0612 11:07:31.654899  5211 net.cpp:615] ReLU1 <- Convolution1
I0612 11:07:31.654908  5211 net.cpp:576] ReLU1 -> Convolution1 (in-place)
I0612 11:07:31.654927  5211 net.cpp:240] Setting up ReLU1
I0612 11:07:31.654935  5211 net.cpp:247] Top shape: 128 16 32 32 (2097152)
I0612 11:07:31.654942  5211 net.cpp:255] Memory required for data: 35127808
I0612 11:07:31.654947  5211 layer_factory.hpp:77] Creating layer Convolution1_ReLU1_0_split
I0612 11:07:31.654970  5211 net.cpp:190] Creating Layer Convolution1_ReLU1_0_split
I0612 11:07:31.654978  5211 net.cpp:615] Convolution1_ReLU1_0_split <- Convolution1
I0612 11:07:31.654986  5211 net.cpp:589] Convolution1_ReLU1_0_split -> Convolution1_ReLU1_0_split_0
I0612 11:07:31.654999  5211 net.cpp:589] Convolution1_ReLU1_0_split -> Convolution1_ReLU1_0_split_1
I0612 11:07:31.655061  5211 net.cpp:240] Setting up Convolution1_ReLU1_0_split
I0612 11:07:31.655071  5211 net.cpp:247] Top shape: 128 16 32 32 (2097152)
I0612 11:07:31.655081  5211 net.cpp:247] Top shape: 128 16 32 32 (2097152)
I0612 11:07:31.655086  5211 net.cpp:255] Memory required for data: 51905024
I0612 11:07:31.655093  5211 layer_factory.hpp:77] Creating layer Convolution2
I0612 11:07:31.655107  5211 net.cpp:190] Creating Layer Convolution2
I0612 11:07:31.655114  5211 net.cpp:615] Convolution2 <- Convolution1_ReLU1_0_split_0
I0612 11:07:31.655125  5211 net.cpp:589] Convolution2 -> Convolution2
I0612 11:07:31.656708  5211 net.cpp:240] Setting up Convolution2
I0612 11:07:31.656730  5211 net.cpp:247] Top shape: 128 16 32 32 (2097152)
I0612 11:07:31.656738  5211 net.cpp:255] Memory required for data: 60293632
I0612 11:07:31.656759  5211 layer_factory.hpp:77] Creating layer BatchNorm2
I0612 11:07:31.656775  5211 net.cpp:190] Creating Layer BatchNorm2
I0612 11:07:31.656783  5211 net.cpp:615] BatchNorm2 <- Convolution2
I0612 11:07:31.656796  5211 net.cpp:576] BatchNorm2 -> Convolution2 (in-place)
I0612 11:07:31.657119  5211 net.cpp:240] Setting up BatchNorm2
I0612 11:07:31.657132  5211 net.cpp:247] Top shape: 128 16 32 32 (2097152)
I0612 11:07:31.657140  5211 net.cpp:255] Memory required for data: 68682240
I0612 11:07:31.657157  5211 layer_factory.hpp:77] Creating layer Scale2
I0612 11:07:31.657178  5211 net.cpp:190] Creating Layer Scale2
I0612 11:07:31.657187  5211 net.cpp:615] Scale2 <- Convolution2
I0612 11:07:31.657197  5211 net.cpp:576] Scale2 -> Convolution2 (in-place)
I0612 11:07:31.657258  5211 layer_factory.hpp:77] Creating layer Scale2
I0612 11:07:31.657438  5211 net.cpp:240] Setting up Scale2
I0612 11:07:31.657449  5211 net.cpp:247] Top shape: 128 16 32 32 (2097152)
I0612 11:07:31.657455  5211 net.cpp:255] Memory required for data: 77070848
I0612 11:07:31.657470  5211 layer_factory.hpp:77] Creating layer ReLU2
I0612 11:07:31.657481  5211 net.cpp:190] Creating Layer ReLU2
I0612 11:07:31.657488  5211 net.cpp:615] ReLU2 <- Convolution2
I0612 11:07:31.657500  5211 net.cpp:576] ReLU2 -> Convolution2 (in-place)
I0612 11:07:31.657512  5211 net.cpp:240] Setting up ReLU2
I0612 11:07:31.657522  5211 net.cpp:247] Top shape: 128 16 32 32 (2097152)
I0612 11:07:31.657531  5211 net.cpp:255] Memory required for data: 85459456
I0612 11:07:31.657536  5211 layer_factory.hpp:77] Creating layer Convolution3
I0612 11:07:31.657557  5211 net.cpp:190] Creating Layer Convolution3
I0612 11:07:31.657564  5211 net.cpp:615] Convolution3 <- Convolution2
I0612 11:07:31.657577  5211 net.cpp:589] Convolution3 -> Convolution3
I0612 11:07:31.658083  5211 net.cpp:240] Setting up Convolution3
I0612 11:07:31.658097  5211 net.cpp:247] Top shape: 128 16 32 32 (2097152)
I0612 11:07:31.658104  5211 net.cpp:255] Memory required for data: 93848064
I0612 11:07:31.658118  5211 layer_factory.hpp:77] Creating layer BatchNorm3
I0612 11:07:31.658133  5211 net.cpp:190] Creating Layer BatchNorm3
I0612 11:07:31.658145  5211 net.cpp:615] BatchNorm3 <- Convolution3
I0612 11:07:31.658164  5211 net.cpp:576] BatchNorm3 -> Convolution3 (in-place)
I0612 11:07:31.658485  5211 net.cpp:240] Setting up BatchNorm3
I0612 11:07:31.658501  5211 net.cpp:247] Top shape: 128 16 32 32 (2097152)
I0612 11:07:31.658507  5211 net.cpp:255] Memory required for data: 102236672
I0612 11:07:31.658535  5211 layer_factory.hpp:77] Creating layer Scale3
I0612 11:07:31.658548  5211 net.cpp:190] Creating Layer Scale3
I0612 11:07:31.658555  5211 net.cpp:615] Scale3 <- Convolution3
I0612 11:07:31.658565  5211 net.cpp:576] Scale3 -> Convolution3 (in-place)
I0612 11:07:31.658623  5211 layer_factory.hpp:77] Creating layer Scale3
I0612 11:07:31.658803  5211 net.cpp:240] Setting up Scale3
I0612 11:07:31.658815  5211 net.cpp:247] Top shape: 128 16 32 32 (2097152)
I0612 11:07:31.658821  5211 net.cpp:255] Memory required for data: 110625280
I0612 11:07:31.658835  5211 layer_factory.hpp:77] Creating layer Eltwise1
I0612 11:07:31.658861  5211 net.cpp:190] Creating Layer Eltwise1
I0612 11:07:31.658869  5211 net.cpp:615] Eltwise1 <- Convolution1_ReLU1_0_split_1
I0612 11:07:31.658879  5211 net.cpp:615] Eltwise1 <- Convolution3
I0612 11:07:31.658888  5211 net.cpp:589] Eltwise1 -> Eltwise1
I0612 11:07:31.658939  5211 net.cpp:240] Setting up Eltwise1
I0612 11:07:31.658951  5211 net.cpp:247] Top shape: 128 16 32 32 (2097152)
I0612 11:07:31.658957  5211 net.cpp:255] Memory required for data: 119013888
I0612 11:07:31.658962  5211 layer_factory.hpp:77] Creating layer ReLU3
I0612 11:07:31.658972  5211 net.cpp:190] Creating Layer ReLU3
I0612 11:07:31.658979  5211 net.cpp:615] ReLU3 <- Eltwise1
I0612 11:07:31.658992  5211 net.cpp:576] ReLU3 -> Eltwise1 (in-place)
I0612 11:07:31.659003  5211 net.cpp:240] Setting up ReLU3
I0612 11:07:31.659010  5211 net.cpp:247] Top shape: 128 16 32 32 (2097152)
I0612 11:07:31.659018  5211 net.cpp:255] Memory required for data: 127402496
I0612 11:07:31.659024  5211 layer_factory.hpp:77] Creating layer Eltwise1_ReLU3_0_split
I0612 11:07:31.659034  5211 net.cpp:190] Creating Layer Eltwise1_ReLU3_0_split
I0612 11:07:31.659039  5211 net.cpp:615] Eltwise1_ReLU3_0_split <- Eltwise1
I0612 11:07:31.659047  5211 net.cpp:589] Eltwise1_ReLU3_0_split -> Eltwise1_ReLU3_0_split_0
I0612 11:07:31.659061  5211 net.cpp:589] Eltwise1_ReLU3_0_split -> Eltwise1_ReLU3_0_split_1
I0612 11:07:31.659216  5211 net.cpp:240] Setting up Eltwise1_ReLU3_0_split
I0612 11:07:31.659231  5211 net.cpp:247] Top shape: 128 16 32 32 (2097152)
I0612 11:07:31.659241  5211 net.cpp:247] Top shape: 128 16 32 32 (2097152)
I0612 11:07:31.659246  5211 net.cpp:255] Memory required for data: 144179712
I0612 11:07:31.659253  5211 layer_factory.hpp:77] Creating layer Convolution4
I0612 11:07:31.659273  5211 net.cpp:190] Creating Layer Convolution4
I0612 11:07:31.659281  5211 net.cpp:615] Convolution4 <- Eltwise1_ReLU3_0_split_0
I0612 11:07:31.659296  5211 net.cpp:589] Convolution4 -> Convolution4
I0612 11:07:31.659809  5211 net.cpp:240] Setting up Convolution4
I0612 11:07:31.659823  5211 net.cpp:247] Top shape: 128 16 32 32 (2097152)
I0612 11:07:31.659832  5211 net.cpp:255] Memory required for data: 152568320
I0612 11:07:31.659847  5211 layer_factory.hpp:77] Creating layer BatchNorm4
I0612 11:07:31.659859  5211 net.cpp:190] Creating Layer BatchNorm4
I0612 11:07:31.659867  5211 net.cpp:615] BatchNorm4 <- Convolution4
I0612 11:07:31.659879  5211 net.cpp:576] BatchNorm4 -> Convolution4 (in-place)
I0612 11:07:31.660188  5211 net.cpp:240] Setting up BatchNorm4
I0612 11:07:31.660200  5211 net.cpp:247] Top shape: 128 16 32 32 (2097152)
I0612 11:07:31.660207  5211 net.cpp:255] Memory required for data: 160956928
I0612 11:07:31.660224  5211 layer_factory.hpp:77] Creating layer Scale4
I0612 11:07:31.660235  5211 net.cpp:190] Creating Layer Scale4
I0612 11:07:31.660243  5211 net.cpp:615] Scale4 <- Convolution4
I0612 11:07:31.660251  5211 net.cpp:576] Scale4 -> Convolution4 (in-place)
I0612 11:07:31.660306  5211 layer_factory.hpp:77] Creating layer Scale4
I0612 11:07:31.660480  5211 net.cpp:240] Setting up Scale4
I0612 11:07:31.660495  5211 net.cpp:247] Top shape: 128 16 32 32 (2097152)
I0612 11:07:31.660502  5211 net.cpp:255] Memory required for data: 169345536
I0612 11:07:31.660516  5211 layer_factory.hpp:77] Creating layer ReLU4
I0612 11:07:31.660529  5211 net.cpp:190] Creating Layer ReLU4
I0612 11:07:31.660537  5211 net.cpp:615] ReLU4 <- Convolution4
I0612 11:07:31.660547  5211 net.cpp:576] ReLU4 -> Convolution4 (in-place)
I0612 11:07:31.660557  5211 net.cpp:240] Setting up ReLU4
I0612 11:07:31.660567  5211 net.cpp:247] Top shape: 128 16 32 32 (2097152)
I0612 11:07:31.660573  5211 net.cpp:255] Memory required for data: 177734144
I0612 11:07:31.660578  5211 layer_factory.hpp:77] Creating layer Convolution5
I0612 11:07:31.660595  5211 net.cpp:190] Creating Layer Convolution5
I0612 11:07:31.660603  5211 net.cpp:615] Convolution5 <- Convolution4
I0612 11:07:31.660614  5211 net.cpp:589] Convolution5 -> Convolution5
I0612 11:07:31.661126  5211 net.cpp:240] Setting up Convolution5
I0612 11:07:31.661140  5211 net.cpp:247] Top shape: 128 16 32 32 (2097152)
I0612 11:07:31.661147  5211 net.cpp:255] Memory required for data: 186122752
I0612 11:07:31.661161  5211 layer_factory.hpp:77] Creating layer BatchNorm5
I0612 11:07:31.661172  5211 net.cpp:190] Creating Layer BatchNorm5
I0612 11:07:31.661180  5211 net.cpp:615] BatchNorm5 <- Convolution5
I0612 11:07:31.661191  5211 net.cpp:576] BatchNorm5 -> Convolution5 (in-place)
I0612 11:07:31.661510  5211 net.cpp:240] Setting up BatchNorm5
I0612 11:07:31.661522  5211 net.cpp:247] Top shape: 128 16 32 32 (2097152)
I0612 11:07:31.661530  5211 net.cpp:255] Memory required for data: 194511360
I0612 11:07:31.661557  5211 layer_factory.hpp:77] Creating layer Scale5
I0612 11:07:31.661568  5211 net.cpp:190] Creating Layer Scale5
I0612 11:07:31.661576  5211 net.cpp:615] Scale5 <- Convolution5
I0612 11:07:31.661586  5211 net.cpp:576] Scale5 -> Convolution5 (in-place)
I0612 11:07:31.661644  5211 layer_factory.hpp:77] Creating layer Scale5
I0612 11:07:31.661842  5211 net.cpp:240] Setting up Scale5
I0612 11:07:31.661854  5211 net.cpp:247] Top shape: 128 16 32 32 (2097152)
I0612 11:07:31.661862  5211 net.cpp:255] Memory required for data: 202899968
I0612 11:07:31.661876  5211 layer_factory.hpp:77] Creating layer Eltwise2
I0612 11:07:31.661895  5211 net.cpp:190] Creating Layer Eltwise2
I0612 11:07:31.661901  5211 net.cpp:615] Eltwise2 <- Eltwise1_ReLU3_0_split_1
I0612 11:07:31.661911  5211 net.cpp:615] Eltwise2 <- Convolution5
I0612 11:07:31.661921  5211 net.cpp:589] Eltwise2 -> Eltwise2
I0612 11:07:31.662050  5211 net.cpp:240] Setting up Eltwise2
I0612 11:07:31.662063  5211 net.cpp:247] Top shape: 128 16 32 32 (2097152)
I0612 11:07:31.662070  5211 net.cpp:255] Memory required for data: 211288576
I0612 11:07:31.662076  5211 layer_factory.hpp:77] Creating layer ReLU5
I0612 11:07:31.662086  5211 net.cpp:190] Creating Layer ReLU5
I0612 11:07:31.662092  5211 net.cpp:615] ReLU5 <- Eltwise2
I0612 11:07:31.662104  5211 net.cpp:576] ReLU5 -> Eltwise2 (in-place)
I0612 11:07:31.662117  5211 net.cpp:240] Setting up ReLU5
I0612 11:07:31.662124  5211 net.cpp:247] Top shape: 128 16 32 32 (2097152)
I0612 11:07:31.662132  5211 net.cpp:255] Memory required for data: 219677184
I0612 11:07:31.662137  5211 layer_factory.hpp:77] Creating layer Eltwise2_ReLU5_0_split
I0612 11:07:31.662147  5211 net.cpp:190] Creating Layer Eltwise2_ReLU5_0_split
I0612 11:07:31.662153  5211 net.cpp:615] Eltwise2_ReLU5_0_split <- Eltwise2
I0612 11:07:31.662163  5211 net.cpp:589] Eltwise2_ReLU5_0_split -> Eltwise2_ReLU5_0_split_0
I0612 11:07:31.662173  5211 net.cpp:589] Eltwise2_ReLU5_0_split -> Eltwise2_ReLU5_0_split_1
I0612 11:07:31.662235  5211 net.cpp:240] Setting up Eltwise2_ReLU5_0_split
I0612 11:07:31.662246  5211 net.cpp:247] Top shape: 128 16 32 32 (2097152)
I0612 11:07:31.662255  5211 net.cpp:247] Top shape: 128 16 32 32 (2097152)
I0612 11:07:31.662261  5211 net.cpp:255] Memory required for data: 236454400
I0612 11:07:31.662267  5211 layer_factory.hpp:77] Creating layer Convolution6
I0612 11:07:31.662281  5211 net.cpp:190] Creating Layer Convolution6
I0612 11:07:31.662293  5211 net.cpp:615] Convolution6 <- Eltwise2_ReLU5_0_split_0
I0612 11:07:31.662307  5211 net.cpp:589] Convolution6 -> Convolution6
I0612 11:07:31.662835  5211 net.cpp:240] Setting up Convolution6
I0612 11:07:31.662850  5211 net.cpp:247] Top shape: 128 16 32 32 (2097152)
I0612 11:07:31.662856  5211 net.cpp:255] Memory required for data: 244843008
I0612 11:07:31.662873  5211 layer_factory.hpp:77] Creating layer BatchNorm6
I0612 11:07:31.662883  5211 net.cpp:190] Creating Layer BatchNorm6
I0612 11:07:31.662890  5211 net.cpp:615] BatchNorm6 <- Convolution6
I0612 11:07:31.662899  5211 net.cpp:576] BatchNorm6 -> Convolution6 (in-place)
I0612 11:07:31.662924  5219 blocking_queue.cpp:50] Waiting for data
I0612 11:07:31.663203  5211 net.cpp:240] Setting up BatchNorm6
I0612 11:07:31.663215  5211 net.cpp:247] Top shape: 128 16 32 32 (2097152)
I0612 11:07:31.663223  5211 net.cpp:255] Memory required for data: 253231616
I0612 11:07:31.663240  5211 layer_factory.hpp:77] Creating layer Scale6
I0612 11:07:31.663251  5211 net.cpp:190] Creating Layer Scale6
I0612 11:07:31.663259  5211 net.cpp:615] Scale6 <- Convolution6
I0612 11:07:31.663267  5211 net.cpp:576] Scale6 -> Convolution6 (in-place)
I0612 11:07:31.663326  5211 layer_factory.hpp:77] Creating layer Scale6
I0612 11:07:31.663499  5211 net.cpp:240] Setting up Scale6
I0612 11:07:31.663511  5211 net.cpp:247] Top shape: 128 16 32 32 (2097152)
I0612 11:07:31.663517  5211 net.cpp:255] Memory required for data: 261620224
I0612 11:07:31.663534  5211 layer_factory.hpp:77] Creating layer ReLU6
I0612 11:07:31.663545  5211 net.cpp:190] Creating Layer ReLU6
I0612 11:07:31.663552  5211 net.cpp:615] ReLU6 <- Convolution6
I0612 11:07:31.663563  5211 net.cpp:576] ReLU6 -> Convolution6 (in-place)
I0612 11:07:31.663574  5211 net.cpp:240] Setting up ReLU6
I0612 11:07:31.663583  5211 net.cpp:247] Top shape: 128 16 32 32 (2097152)
I0612 11:07:31.663590  5211 net.cpp:255] Memory required for data: 270008832
I0612 11:07:31.663596  5211 layer_factory.hpp:77] Creating layer Convolution7
I0612 11:07:31.663611  5211 net.cpp:190] Creating Layer Convolution7
I0612 11:07:31.663619  5211 net.cpp:615] Convolution7 <- Convolution6
I0612 11:07:31.663631  5211 net.cpp:589] Convolution7 -> Convolution7
I0612 11:07:31.664139  5211 net.cpp:240] Setting up Convolution7
I0612 11:07:31.664154  5211 net.cpp:247] Top shape: 128 16 32 32 (2097152)
I0612 11:07:31.664162  5211 net.cpp:255] Memory required for data: 278397440
I0612 11:07:31.664176  5211 layer_factory.hpp:77] Creating layer BatchNorm7
I0612 11:07:31.664187  5211 net.cpp:190] Creating Layer BatchNorm7
I0612 11:07:31.664194  5211 net.cpp:615] BatchNorm7 <- Convolution7
I0612 11:07:31.664206  5211 net.cpp:576] BatchNorm7 -> Convolution7 (in-place)
I0612 11:07:31.664510  5211 net.cpp:240] Setting up BatchNorm7
I0612 11:07:31.664523  5211 net.cpp:247] Top shape: 128 16 32 32 (2097152)
I0612 11:07:31.664530  5211 net.cpp:255] Memory required for data: 286786048
I0612 11:07:31.664546  5211 layer_factory.hpp:77] Creating layer Scale7
I0612 11:07:31.664561  5211 net.cpp:190] Creating Layer Scale7
I0612 11:07:31.664568  5211 net.cpp:615] Scale7 <- Convolution7
I0612 11:07:31.664580  5211 net.cpp:576] Scale7 -> Convolution7 (in-place)
I0612 11:07:31.664638  5211 layer_factory.hpp:77] Creating layer Scale7
I0612 11:07:31.664819  5211 net.cpp:240] Setting up Scale7
I0612 11:07:31.664830  5211 net.cpp:247] Top shape: 128 16 32 32 (2097152)
I0612 11:07:31.664836  5211 net.cpp:255] Memory required for data: 295174656
I0612 11:07:31.664850  5211 layer_factory.hpp:77] Creating layer Eltwise3
I0612 11:07:31.664863  5211 net.cpp:190] Creating Layer Eltwise3
I0612 11:07:31.664870  5211 net.cpp:615] Eltwise3 <- Eltwise2_ReLU5_0_split_1
I0612 11:07:31.664878  5211 net.cpp:615] Eltwise3 <- Convolution7
I0612 11:07:31.664887  5211 net.cpp:589] Eltwise3 -> Eltwise3
I0612 11:07:31.664929  5211 net.cpp:240] Setting up Eltwise3
I0612 11:07:31.664939  5211 net.cpp:247] Top shape: 128 16 32 32 (2097152)
I0612 11:07:31.664945  5211 net.cpp:255] Memory required for data: 303563264
I0612 11:07:31.664957  5211 layer_factory.hpp:77] Creating layer ReLU7
I0612 11:07:31.664966  5211 net.cpp:190] Creating Layer ReLU7
I0612 11:07:31.664973  5211 net.cpp:615] ReLU7 <- Eltwise3
I0612 11:07:31.664985  5211 net.cpp:576] ReLU7 -> Eltwise3 (in-place)
I0612 11:07:31.664996  5211 net.cpp:240] Setting up ReLU7
I0612 11:07:31.665005  5211 net.cpp:247] Top shape: 128 16 32 32 (2097152)
I0612 11:07:31.665011  5211 net.cpp:255] Memory required for data: 311951872
I0612 11:07:31.665019  5211 layer_factory.hpp:77] Creating layer Eltwise3_ReLU7_0_split
I0612 11:07:31.665026  5211 net.cpp:190] Creating Layer Eltwise3_ReLU7_0_split
I0612 11:07:31.665033  5211 net.cpp:615] Eltwise3_ReLU7_0_split <- Eltwise3
I0612 11:07:31.665042  5211 net.cpp:589] Eltwise3_ReLU7_0_split -> Eltwise3_ReLU7_0_split_0
I0612 11:07:31.665055  5211 net.cpp:589] Eltwise3_ReLU7_0_split -> Eltwise3_ReLU7_0_split_1
I0612 11:07:31.665108  5211 net.cpp:240] Setting up Eltwise3_ReLU7_0_split
I0612 11:07:31.665118  5211 net.cpp:247] Top shape: 128 16 32 32 (2097152)
I0612 11:07:31.665127  5211 net.cpp:247] Top shape: 128 16 32 32 (2097152)
I0612 11:07:31.665132  5211 net.cpp:255] Memory required for data: 328729088
I0612 11:07:31.665138  5211 layer_factory.hpp:77] Creating layer Convolution8
I0612 11:07:31.665154  5211 net.cpp:190] Creating Layer Convolution8
I0612 11:07:31.665161  5211 net.cpp:615] Convolution8 <- Eltwise3_ReLU7_0_split_0
I0612 11:07:31.665172  5211 net.cpp:589] Convolution8 -> Convolution8
I0612 11:07:31.665679  5211 net.cpp:240] Setting up Convolution8
I0612 11:07:31.665693  5211 net.cpp:247] Top shape: 128 16 32 32 (2097152)
I0612 11:07:31.665699  5211 net.cpp:255] Memory required for data: 337117696
I0612 11:07:31.665712  5211 layer_factory.hpp:77] Creating layer BatchNorm8
I0612 11:07:31.665725  5211 net.cpp:190] Creating Layer BatchNorm8
I0612 11:07:31.665734  5211 net.cpp:615] BatchNorm8 <- Convolution8
I0612 11:07:31.665745  5211 net.cpp:576] BatchNorm8 -> Convolution8 (in-place)
I0612 11:07:31.666055  5211 net.cpp:240] Setting up BatchNorm8
I0612 11:07:31.666067  5211 net.cpp:247] Top shape: 128 16 32 32 (2097152)
I0612 11:07:31.666074  5211 net.cpp:255] Memory required for data: 345506304
I0612 11:07:31.666091  5211 layer_factory.hpp:77] Creating layer Scale8
I0612 11:07:31.666105  5211 net.cpp:190] Creating Layer Scale8
I0612 11:07:31.666112  5211 net.cpp:615] Scale8 <- Convolution8
I0612 11:07:31.666122  5211 net.cpp:576] Scale8 -> Convolution8 (in-place)
I0612 11:07:31.666178  5211 layer_factory.hpp:77] Creating layer Scale8
I0612 11:07:31.666366  5211 net.cpp:240] Setting up Scale8
I0612 11:07:31.666379  5211 net.cpp:247] Top shape: 128 16 32 32 (2097152)
I0612 11:07:31.666386  5211 net.cpp:255] Memory required for data: 353894912
I0612 11:07:31.666400  5211 layer_factory.hpp:77] Creating layer ReLU8
I0612 11:07:31.666412  5211 net.cpp:190] Creating Layer ReLU8
I0612 11:07:31.666420  5211 net.cpp:615] ReLU8 <- Convolution8
I0612 11:07:31.666434  5211 net.cpp:576] ReLU8 -> Convolution8 (in-place)
I0612 11:07:31.666445  5211 net.cpp:240] Setting up ReLU8
I0612 11:07:31.666453  5211 net.cpp:247] Top shape: 128 16 32 32 (2097152)
I0612 11:07:31.666461  5211 net.cpp:255] Memory required for data: 362283520
I0612 11:07:31.666467  5211 layer_factory.hpp:77] Creating layer Convolution9
I0612 11:07:31.666484  5211 net.cpp:190] Creating Layer Convolution9
I0612 11:07:31.666491  5211 net.cpp:615] Convolution9 <- Convolution8
I0612 11:07:31.666501  5211 net.cpp:589] Convolution9 -> Convolution9
I0612 11:07:31.666996  5211 net.cpp:240] Setting up Convolution9
I0612 11:07:31.667009  5211 net.cpp:247] Top shape: 128 16 32 32 (2097152)
I0612 11:07:31.667016  5211 net.cpp:255] Memory required for data: 370672128
I0612 11:07:31.667028  5211 layer_factory.hpp:77] Creating layer BatchNorm9
I0612 11:07:31.667040  5211 net.cpp:190] Creating Layer BatchNorm9
I0612 11:07:31.667047  5211 net.cpp:615] BatchNorm9 <- Convolution9
I0612 11:07:31.667055  5211 net.cpp:576] BatchNorm9 -> Convolution9 (in-place)
I0612 11:07:31.667336  5211 net.cpp:240] Setting up BatchNorm9
I0612 11:07:31.667351  5211 net.cpp:247] Top shape: 128 16 32 32 (2097152)
I0612 11:07:31.667357  5211 net.cpp:255] Memory required for data: 379060736
I0612 11:07:31.667377  5211 layer_factory.hpp:77] Creating layer Scale9
I0612 11:07:31.667387  5211 net.cpp:190] Creating Layer Scale9
I0612 11:07:31.667393  5211 net.cpp:615] Scale9 <- Convolution9
I0612 11:07:31.667402  5211 net.cpp:576] Scale9 -> Convolution9 (in-place)
I0612 11:07:31.667456  5211 layer_factory.hpp:77] Creating layer Scale9
I0612 11:07:31.667619  5211 net.cpp:240] Setting up Scale9
I0612 11:07:31.667629  5211 net.cpp:247] Top shape: 128 16 32 32 (2097152)
I0612 11:07:31.667635  5211 net.cpp:255] Memory required for data: 387449344
I0612 11:07:31.667649  5211 layer_factory.hpp:77] Creating layer Eltwise4
I0612 11:07:31.667665  5211 net.cpp:190] Creating Layer Eltwise4
I0612 11:07:31.667671  5211 net.cpp:615] Eltwise4 <- Eltwise3_ReLU7_0_split_1
I0612 11:07:31.667680  5211 net.cpp:615] Eltwise4 <- Convolution9
I0612 11:07:31.667690  5211 net.cpp:589] Eltwise4 -> Eltwise4
I0612 11:07:31.667729  5211 net.cpp:240] Setting up Eltwise4
I0612 11:07:31.667739  5211 net.cpp:247] Top shape: 128 16 32 32 (2097152)
I0612 11:07:31.667745  5211 net.cpp:255] Memory required for data: 395837952
I0612 11:07:31.667752  5211 layer_factory.hpp:77] Creating layer ReLU9
I0612 11:07:31.667762  5211 net.cpp:190] Creating Layer ReLU9
I0612 11:07:31.667768  5211 net.cpp:615] ReLU9 <- Eltwise4
I0612 11:07:31.667778  5211 net.cpp:576] ReLU9 -> Eltwise4 (in-place)
I0612 11:07:31.667788  5211 net.cpp:240] Setting up ReLU9
I0612 11:07:31.667796  5211 net.cpp:247] Top shape: 128 16 32 32 (2097152)
I0612 11:07:31.667801  5211 net.cpp:255] Memory required for data: 404226560
I0612 11:07:31.667807  5211 layer_factory.hpp:77] Creating layer Eltwise4_ReLU9_0_split
I0612 11:07:31.667816  5211 net.cpp:190] Creating Layer Eltwise4_ReLU9_0_split
I0612 11:07:31.667821  5211 net.cpp:615] Eltwise4_ReLU9_0_split <- Eltwise4
I0612 11:07:31.667829  5211 net.cpp:589] Eltwise4_ReLU9_0_split -> Eltwise4_ReLU9_0_split_0
I0612 11:07:31.667840  5211 net.cpp:589] Eltwise4_ReLU9_0_split -> Eltwise4_ReLU9_0_split_1
I0612 11:07:31.667892  5211 net.cpp:240] Setting up Eltwise4_ReLU9_0_split
I0612 11:07:31.667902  5211 net.cpp:247] Top shape: 128 16 32 32 (2097152)
I0612 11:07:31.667911  5211 net.cpp:247] Top shape: 128 16 32 32 (2097152)
I0612 11:07:31.667917  5211 net.cpp:255] Memory required for data: 421003776
I0612 11:07:31.667922  5211 layer_factory.hpp:77] Creating layer Convolution10
I0612 11:07:31.667935  5211 net.cpp:190] Creating Layer Convolution10
I0612 11:07:31.667943  5211 net.cpp:615] Convolution10 <- Eltwise4_ReLU9_0_split_0
I0612 11:07:31.667956  5211 net.cpp:589] Convolution10 -> Convolution10
I0612 11:07:31.668427  5211 net.cpp:240] Setting up Convolution10
I0612 11:07:31.668439  5211 net.cpp:247] Top shape: 128 16 32 32 (2097152)
I0612 11:07:31.668447  5211 net.cpp:255] Memory required for data: 429392384
I0612 11:07:31.668473  5211 layer_factory.hpp:77] Creating layer BatchNorm10
I0612 11:07:31.668488  5211 net.cpp:190] Creating Layer BatchNorm10
I0612 11:07:31.668494  5211 net.cpp:615] BatchNorm10 <- Convolution10
I0612 11:07:31.668504  5211 net.cpp:576] BatchNorm10 -> Convolution10 (in-place)
I0612 11:07:31.668788  5211 net.cpp:240] Setting up BatchNorm10
I0612 11:07:31.668800  5211 net.cpp:247] Top shape: 128 16 32 32 (2097152)
I0612 11:07:31.668807  5211 net.cpp:255] Memory required for data: 437780992
I0612 11:07:31.668823  5211 layer_factory.hpp:77] Creating layer Scale10
I0612 11:07:31.668833  5211 net.cpp:190] Creating Layer Scale10
I0612 11:07:31.668838  5211 net.cpp:615] Scale10 <- Convolution10
I0612 11:07:31.668846  5211 net.cpp:576] Scale10 -> Convolution10 (in-place)
I0612 11:07:31.668898  5211 layer_factory.hpp:77] Creating layer Scale10
I0612 11:07:31.669075  5211 net.cpp:240] Setting up Scale10
I0612 11:07:31.669086  5211 net.cpp:247] Top shape: 128 16 32 32 (2097152)
I0612 11:07:31.669092  5211 net.cpp:255] Memory required for data: 446169600
I0612 11:07:31.669113  5211 layer_factory.hpp:77] Creating layer ReLU10
I0612 11:07:31.669124  5211 net.cpp:190] Creating Layer ReLU10
I0612 11:07:31.669131  5211 net.cpp:615] ReLU10 <- Convolution10
I0612 11:07:31.669139  5211 net.cpp:576] ReLU10 -> Convolution10 (in-place)
I0612 11:07:31.669149  5211 net.cpp:240] Setting up ReLU10
I0612 11:07:31.669158  5211 net.cpp:247] Top shape: 128 16 32 32 (2097152)
I0612 11:07:31.669163  5211 net.cpp:255] Memory required for data: 454558208
I0612 11:07:31.669169  5211 layer_factory.hpp:77] Creating layer Convolution11
I0612 11:07:31.669185  5211 net.cpp:190] Creating Layer Convolution11
I0612 11:07:31.669191  5211 net.cpp:615] Convolution11 <- Convolution10
I0612 11:07:31.669203  5211 net.cpp:589] Convolution11 -> Convolution11
I0612 11:07:31.669679  5211 net.cpp:240] Setting up Convolution11
I0612 11:07:31.669692  5211 net.cpp:247] Top shape: 128 16 32 32 (2097152)
I0612 11:07:31.669697  5211 net.cpp:255] Memory required for data: 462946816
I0612 11:07:31.669710  5211 layer_factory.hpp:77] Creating layer BatchNorm11
I0612 11:07:31.669720  5211 net.cpp:190] Creating Layer BatchNorm11
I0612 11:07:31.669726  5211 net.cpp:615] BatchNorm11 <- Convolution11
I0612 11:07:31.669739  5211 net.cpp:576] BatchNorm11 -> Convolution11 (in-place)
I0612 11:07:31.670044  5211 net.cpp:240] Setting up BatchNorm11
I0612 11:07:31.670055  5211 net.cpp:247] Top shape: 128 16 32 32 (2097152)
I0612 11:07:31.670061  5211 net.cpp:255] Memory required for data: 471335424
I0612 11:07:31.670079  5211 layer_factory.hpp:77] Creating layer Scale11
I0612 11:07:31.670089  5211 net.cpp:190] Creating Layer Scale11
I0612 11:07:31.670096  5211 net.cpp:615] Scale11 <- Convolution11
I0612 11:07:31.670104  5211 net.cpp:576] Scale11 -> Convolution11 (in-place)
I0612 11:07:31.670163  5211 layer_factory.hpp:77] Creating layer Scale11
I0612 11:07:31.670326  5211 net.cpp:240] Setting up Scale11
I0612 11:07:31.670337  5211 net.cpp:247] Top shape: 128 16 32 32 (2097152)
I0612 11:07:31.670342  5211 net.cpp:255] Memory required for data: 479724032
I0612 11:07:31.670364  5211 layer_factory.hpp:77] Creating layer Eltwise5
I0612 11:07:31.670377  5211 net.cpp:190] Creating Layer Eltwise5
I0612 11:07:31.670383  5211 net.cpp:615] Eltwise5 <- Eltwise4_ReLU9_0_split_1
I0612 11:07:31.670392  5211 net.cpp:615] Eltwise5 <- Convolution11
I0612 11:07:31.670403  5211 net.cpp:589] Eltwise5 -> Eltwise5
I0612 11:07:31.670439  5211 net.cpp:240] Setting up Eltwise5
I0612 11:07:31.670449  5211 net.cpp:247] Top shape: 128 16 32 32 (2097152)
I0612 11:07:31.670455  5211 net.cpp:255] Memory required for data: 488112640
I0612 11:07:31.670461  5211 layer_factory.hpp:77] Creating layer ReLU11
I0612 11:07:31.670474  5211 net.cpp:190] Creating Layer ReLU11
I0612 11:07:31.670480  5211 net.cpp:615] ReLU11 <- Eltwise5
I0612 11:07:31.670487  5211 net.cpp:576] ReLU11 -> Eltwise5 (in-place)
I0612 11:07:31.670497  5211 net.cpp:240] Setting up ReLU11
I0612 11:07:31.670506  5211 net.cpp:247] Top shape: 128 16 32 32 (2097152)
I0612 11:07:31.670511  5211 net.cpp:255] Memory required for data: 496501248
I0612 11:07:31.670516  5211 layer_factory.hpp:77] Creating layer Eltwise5_ReLU11_0_split
I0612 11:07:31.670524  5211 net.cpp:190] Creating Layer Eltwise5_ReLU11_0_split
I0612 11:07:31.670531  5211 net.cpp:615] Eltwise5_ReLU11_0_split <- Eltwise5
I0612 11:07:31.670542  5211 net.cpp:589] Eltwise5_ReLU11_0_split -> Eltwise5_ReLU11_0_split_0
I0612 11:07:31.670552  5211 net.cpp:589] Eltwise5_ReLU11_0_split -> Eltwise5_ReLU11_0_split_1
I0612 11:07:31.670603  5211 net.cpp:240] Setting up Eltwise5_ReLU11_0_split
I0612 11:07:31.670613  5211 net.cpp:247] Top shape: 128 16 32 32 (2097152)
I0612 11:07:31.670620  5211 net.cpp:247] Top shape: 128 16 32 32 (2097152)
I0612 11:07:31.670627  5211 net.cpp:255] Memory required for data: 513278464
I0612 11:07:31.670632  5211 layer_factory.hpp:77] Creating layer Convolution12
I0612 11:07:31.670646  5211 net.cpp:190] Creating Layer Convolution12
I0612 11:07:31.670653  5211 net.cpp:615] Convolution12 <- Eltwise5_ReLU11_0_split_0
I0612 11:07:31.670671  5211 net.cpp:589] Convolution12 -> Convolution12
I0612 11:07:31.671147  5211 net.cpp:240] Setting up Convolution12
I0612 11:07:31.671160  5211 net.cpp:247] Top shape: 128 16 32 32 (2097152)
I0612 11:07:31.671167  5211 net.cpp:255] Memory required for data: 521667072
I0612 11:07:31.671181  5211 layer_factory.hpp:77] Creating layer BatchNorm12
I0612 11:07:31.671192  5211 net.cpp:190] Creating Layer BatchNorm12
I0612 11:07:31.671198  5211 net.cpp:615] BatchNorm12 <- Convolution12
I0612 11:07:31.671211  5211 net.cpp:576] BatchNorm12 -> Convolution12 (in-place)
I0612 11:07:31.671501  5211 net.cpp:240] Setting up BatchNorm12
I0612 11:07:31.671514  5211 net.cpp:247] Top shape: 128 16 32 32 (2097152)
I0612 11:07:31.671519  5211 net.cpp:255] Memory required for data: 530055680
I0612 11:07:31.671535  5211 layer_factory.hpp:77] Creating layer Scale12
I0612 11:07:31.671545  5211 net.cpp:190] Creating Layer Scale12
I0612 11:07:31.671552  5211 net.cpp:615] Scale12 <- Convolution12
I0612 11:07:31.671567  5211 net.cpp:576] Scale12 -> Convolution12 (in-place)
I0612 11:07:31.671618  5211 layer_factory.hpp:77] Creating layer Scale12
I0612 11:07:31.671788  5211 net.cpp:240] Setting up Scale12
I0612 11:07:31.671799  5211 net.cpp:247] Top shape: 128 16 32 32 (2097152)
I0612 11:07:31.671805  5211 net.cpp:255] Memory required for data: 538444288
I0612 11:07:31.671818  5211 layer_factory.hpp:77] Creating layer ReLU12
I0612 11:07:31.671829  5211 net.cpp:190] Creating Layer ReLU12
I0612 11:07:31.671836  5211 net.cpp:615] ReLU12 <- Convolution12
I0612 11:07:31.671844  5211 net.cpp:576] ReLU12 -> Convolution12 (in-place)
I0612 11:07:31.671854  5211 net.cpp:240] Setting up ReLU12
I0612 11:07:31.671864  5211 net.cpp:247] Top shape: 128 16 32 32 (2097152)
I0612 11:07:31.671869  5211 net.cpp:255] Memory required for data: 546832896
I0612 11:07:31.671875  5211 layer_factory.hpp:77] Creating layer Convolution13
I0612 11:07:31.671891  5211 net.cpp:190] Creating Layer Convolution13
I0612 11:07:31.671897  5211 net.cpp:615] Convolution13 <- Convolution12
I0612 11:07:31.671908  5211 net.cpp:589] Convolution13 -> Convolution13
I0612 11:07:31.672384  5211 net.cpp:240] Setting up Convolution13
I0612 11:07:31.672395  5211 net.cpp:247] Top shape: 128 16 32 32 (2097152)
I0612 11:07:31.672402  5211 net.cpp:255] Memory required for data: 555221504
I0612 11:07:31.672415  5211 layer_factory.hpp:77] Creating layer BatchNorm13
I0612 11:07:31.672428  5211 net.cpp:190] Creating Layer BatchNorm13
I0612 11:07:31.672435  5211 net.cpp:615] BatchNorm13 <- Convolution13
I0612 11:07:31.672444  5211 net.cpp:576] BatchNorm13 -> Convolution13 (in-place)
I0612 11:07:31.672737  5211 net.cpp:240] Setting up BatchNorm13
I0612 11:07:31.672749  5211 net.cpp:247] Top shape: 128 16 32 32 (2097152)
I0612 11:07:31.672755  5211 net.cpp:255] Memory required for data: 563610112
I0612 11:07:31.672770  5211 layer_factory.hpp:77] Creating layer Scale13
I0612 11:07:31.672782  5211 net.cpp:190] Creating Layer Scale13
I0612 11:07:31.672788  5211 net.cpp:615] Scale13 <- Convolution13
I0612 11:07:31.672797  5211 net.cpp:576] Scale13 -> Convolution13 (in-place)
I0612 11:07:31.672847  5211 layer_factory.hpp:77] Creating layer Scale13
I0612 11:07:31.673014  5211 net.cpp:240] Setting up Scale13
I0612 11:07:31.673027  5211 net.cpp:247] Top shape: 128 16 32 32 (2097152)
I0612 11:07:31.673033  5211 net.cpp:255] Memory required for data: 571998720
I0612 11:07:31.673046  5211 layer_factory.hpp:77] Creating layer Eltwise6
I0612 11:07:31.673056  5211 net.cpp:190] Creating Layer Eltwise6
I0612 11:07:31.673063  5211 net.cpp:615] Eltwise6 <- Eltwise5_ReLU11_0_split_1
I0612 11:07:31.673071  5211 net.cpp:615] Eltwise6 <- Convolution13
I0612 11:07:31.673079  5211 net.cpp:589] Eltwise6 -> Eltwise6
I0612 11:07:31.673123  5211 net.cpp:240] Setting up Eltwise6
I0612 11:07:31.673133  5211 net.cpp:247] Top shape: 128 16 32 32 (2097152)
I0612 11:07:31.673140  5211 net.cpp:255] Memory required for data: 580387328
I0612 11:07:31.673146  5211 layer_factory.hpp:77] Creating layer ReLU13
I0612 11:07:31.673164  5211 net.cpp:190] Creating Layer ReLU13
I0612 11:07:31.673177  5211 net.cpp:615] ReLU13 <- Eltwise6
I0612 11:07:31.673187  5211 net.cpp:576] ReLU13 -> Eltwise6 (in-place)
I0612 11:07:31.673197  5211 net.cpp:240] Setting up ReLU13
I0612 11:07:31.673205  5211 net.cpp:247] Top shape: 128 16 32 32 (2097152)
I0612 11:07:31.673210  5211 net.cpp:255] Memory required for data: 588775936
I0612 11:07:31.673218  5211 layer_factory.hpp:77] Creating layer Eltwise6_ReLU13_0_split
I0612 11:07:31.673225  5211 net.cpp:190] Creating Layer Eltwise6_ReLU13_0_split
I0612 11:07:31.673231  5211 net.cpp:615] Eltwise6_ReLU13_0_split <- Eltwise6
I0612 11:07:31.673240  5211 net.cpp:589] Eltwise6_ReLU13_0_split -> Eltwise6_ReLU13_0_split_0
I0612 11:07:31.673251  5211 net.cpp:589] Eltwise6_ReLU13_0_split -> Eltwise6_ReLU13_0_split_1
I0612 11:07:31.673303  5211 net.cpp:240] Setting up Eltwise6_ReLU13_0_split
I0612 11:07:31.673313  5211 net.cpp:247] Top shape: 128 16 32 32 (2097152)
I0612 11:07:31.673321  5211 net.cpp:247] Top shape: 128 16 32 32 (2097152)
I0612 11:07:31.673326  5211 net.cpp:255] Memory required for data: 605553152
I0612 11:07:31.673332  5211 layer_factory.hpp:77] Creating layer Convolution14
I0612 11:07:31.673352  5211 net.cpp:190] Creating Layer Convolution14
I0612 11:07:31.673358  5211 net.cpp:615] Convolution14 <- Eltwise6_ReLU13_0_split_0
I0612 11:07:31.673368  5211 net.cpp:589] Convolution14 -> Convolution14
I0612 11:07:31.673851  5211 net.cpp:240] Setting up Convolution14
I0612 11:07:31.673864  5211 net.cpp:247] Top shape: 128 16 32 32 (2097152)
I0612 11:07:31.673871  5211 net.cpp:255] Memory required for data: 613941760
I0612 11:07:31.673883  5211 layer_factory.hpp:77] Creating layer BatchNorm14
I0612 11:07:31.673893  5211 net.cpp:190] Creating Layer BatchNorm14
I0612 11:07:31.673900  5211 net.cpp:615] BatchNorm14 <- Convolution14
I0612 11:07:31.673912  5211 net.cpp:576] BatchNorm14 -> Convolution14 (in-place)
I0612 11:07:31.674206  5211 net.cpp:240] Setting up BatchNorm14
I0612 11:07:31.674218  5211 net.cpp:247] Top shape: 128 16 32 32 (2097152)
I0612 11:07:31.674224  5211 net.cpp:255] Memory required for data: 622330368
I0612 11:07:31.674242  5211 layer_factory.hpp:77] Creating layer Scale14
I0612 11:07:31.674252  5211 net.cpp:190] Creating Layer Scale14
I0612 11:07:31.674258  5211 net.cpp:615] Scale14 <- Convolution14
I0612 11:07:31.674273  5211 net.cpp:576] Scale14 -> Convolution14 (in-place)
I0612 11:07:31.674321  5211 layer_factory.hpp:77] Creating layer Scale14
I0612 11:07:31.674499  5211 net.cpp:240] Setting up Scale14
I0612 11:07:31.674510  5211 net.cpp:247] Top shape: 128 16 32 32 (2097152)
I0612 11:07:31.674516  5211 net.cpp:255] Memory required for data: 630718976
I0612 11:07:31.674530  5211 layer_factory.hpp:77] Creating layer ReLU14
I0612 11:07:31.674541  5211 net.cpp:190] Creating Layer ReLU14
I0612 11:07:31.674547  5211 net.cpp:615] ReLU14 <- Convolution14
I0612 11:07:31.674556  5211 net.cpp:576] ReLU14 -> Convolution14 (in-place)
I0612 11:07:31.674566  5211 net.cpp:240] Setting up ReLU14
I0612 11:07:31.674574  5211 net.cpp:247] Top shape: 128 16 32 32 (2097152)
I0612 11:07:31.674581  5211 net.cpp:255] Memory required for data: 639107584
I0612 11:07:31.674585  5211 layer_factory.hpp:77] Creating layer Convolution15
I0612 11:07:31.674602  5211 net.cpp:190] Creating Layer Convolution15
I0612 11:07:31.674607  5211 net.cpp:615] Convolution15 <- Convolution14
I0612 11:07:31.674619  5211 net.cpp:589] Convolution15 -> Convolution15
I0612 11:07:31.675108  5211 net.cpp:240] Setting up Convolution15
I0612 11:07:31.675120  5211 net.cpp:247] Top shape: 128 16 32 32 (2097152)
I0612 11:07:31.675127  5211 net.cpp:255] Memory required for data: 647496192
I0612 11:07:31.675139  5211 layer_factory.hpp:77] Creating layer BatchNorm15
I0612 11:07:31.675153  5211 net.cpp:190] Creating Layer BatchNorm15
I0612 11:07:31.675158  5211 net.cpp:615] BatchNorm15 <- Convolution15
I0612 11:07:31.675168  5211 net.cpp:576] BatchNorm15 -> Convolution15 (in-place)
I0612 11:07:31.675456  5211 net.cpp:240] Setting up BatchNorm15
I0612 11:07:31.675467  5211 net.cpp:247] Top shape: 128 16 32 32 (2097152)
I0612 11:07:31.675477  5211 net.cpp:255] Memory required for data: 655884800
I0612 11:07:31.675495  5211 layer_factory.hpp:77] Creating layer Scale15
I0612 11:07:31.675505  5211 net.cpp:190] Creating Layer Scale15
I0612 11:07:31.675511  5211 net.cpp:615] Scale15 <- Convolution15
I0612 11:07:31.675524  5211 net.cpp:576] Scale15 -> Convolution15 (in-place)
I0612 11:07:31.675573  5211 layer_factory.hpp:77] Creating layer Scale15
I0612 11:07:31.675736  5211 net.cpp:240] Setting up Scale15
I0612 11:07:31.675746  5211 net.cpp:247] Top shape: 128 16 32 32 (2097152)
I0612 11:07:31.675752  5211 net.cpp:255] Memory required for data: 664273408
I0612 11:07:31.675765  5211 layer_factory.hpp:77] Creating layer Eltwise7
I0612 11:07:31.675778  5211 net.cpp:190] Creating Layer Eltwise7
I0612 11:07:31.675786  5211 net.cpp:615] Eltwise7 <- Eltwise6_ReLU13_0_split_1
I0612 11:07:31.675793  5211 net.cpp:615] Eltwise7 <- Convolution15
I0612 11:07:31.675804  5211 net.cpp:589] Eltwise7 -> Eltwise7
I0612 11:07:31.675846  5211 net.cpp:240] Setting up Eltwise7
I0612 11:07:31.675856  5211 net.cpp:247] Top shape: 128 16 32 32 (2097152)
I0612 11:07:31.675863  5211 net.cpp:255] Memory required for data: 672662016
I0612 11:07:31.675868  5211 layer_factory.hpp:77] Creating layer ReLU15
I0612 11:07:31.675876  5211 net.cpp:190] Creating Layer ReLU15
I0612 11:07:31.675882  5211 net.cpp:615] ReLU15 <- Eltwise7
I0612 11:07:31.675894  5211 net.cpp:576] ReLU15 -> Eltwise7 (in-place)
I0612 11:07:31.675904  5211 net.cpp:240] Setting up ReLU15
I0612 11:07:31.675912  5211 net.cpp:247] Top shape: 128 16 32 32 (2097152)
I0612 11:07:31.675917  5211 net.cpp:255] Memory required for data: 681050624
I0612 11:07:31.675923  5211 layer_factory.hpp:77] Creating layer Eltwise7_ReLU15_0_split
I0612 11:07:31.675932  5211 net.cpp:190] Creating Layer Eltwise7_ReLU15_0_split
I0612 11:07:31.675938  5211 net.cpp:615] Eltwise7_ReLU15_0_split <- Eltwise7
I0612 11:07:31.675946  5211 net.cpp:589] Eltwise7_ReLU15_0_split -> Eltwise7_ReLU15_0_split_0
I0612 11:07:31.675957  5211 net.cpp:589] Eltwise7_ReLU15_0_split -> Eltwise7_ReLU15_0_split_1
I0612 11:07:31.676012  5211 net.cpp:240] Setting up Eltwise7_ReLU15_0_split
I0612 11:07:31.676023  5211 net.cpp:247] Top shape: 128 16 32 32 (2097152)
I0612 11:07:31.676030  5211 net.cpp:247] Top shape: 128 16 32 32 (2097152)
I0612 11:07:31.676035  5211 net.cpp:255] Memory required for data: 697827840
I0612 11:07:31.676041  5211 layer_factory.hpp:77] Creating layer Convolution16
I0612 11:07:31.676057  5211 net.cpp:190] Creating Layer Convolution16
I0612 11:07:31.676064  5211 net.cpp:615] Convolution16 <- Eltwise7_ReLU15_0_split_0
I0612 11:07:31.676074  5211 net.cpp:589] Convolution16 -> Convolution16
I0612 11:07:31.676555  5211 net.cpp:240] Setting up Convolution16
I0612 11:07:31.676568  5211 net.cpp:247] Top shape: 128 16 32 32 (2097152)
I0612 11:07:31.676573  5211 net.cpp:255] Memory required for data: 706216448
I0612 11:07:31.676586  5211 layer_factory.hpp:77] Creating layer BatchNorm16
I0612 11:07:31.676599  5211 net.cpp:190] Creating Layer BatchNorm16
I0612 11:07:31.676605  5211 net.cpp:615] BatchNorm16 <- Convolution16
I0612 11:07:31.676616  5211 net.cpp:576] BatchNorm16 -> Convolution16 (in-place)
I0612 11:07:31.676908  5211 net.cpp:240] Setting up BatchNorm16
I0612 11:07:31.676920  5211 net.cpp:247] Top shape: 128 16 32 32 (2097152)
I0612 11:07:31.676926  5211 net.cpp:255] Memory required for data: 714605056
I0612 11:07:31.676942  5211 layer_factory.hpp:77] Creating layer Scale16
I0612 11:07:31.676955  5211 net.cpp:190] Creating Layer Scale16
I0612 11:07:31.676961  5211 net.cpp:615] Scale16 <- Convolution16
I0612 11:07:31.676970  5211 net.cpp:576] Scale16 -> Convolution16 (in-place)
I0612 11:07:31.677026  5211 layer_factory.hpp:77] Creating layer Scale16
I0612 11:07:31.677196  5211 net.cpp:240] Setting up Scale16
I0612 11:07:31.677206  5211 net.cpp:247] Top shape: 128 16 32 32 (2097152)
I0612 11:07:31.677212  5211 net.cpp:255] Memory required for data: 722993664
I0612 11:07:31.677227  5211 layer_factory.hpp:77] Creating layer ReLU16
I0612 11:07:31.677239  5211 net.cpp:190] Creating Layer ReLU16
I0612 11:07:31.677245  5211 net.cpp:615] ReLU16 <- Convolution16
I0612 11:07:31.677256  5211 net.cpp:576] ReLU16 -> Convolution16 (in-place)
I0612 11:07:31.677268  5211 net.cpp:240] Setting up ReLU16
I0612 11:07:31.677275  5211 net.cpp:247] Top shape: 128 16 32 32 (2097152)
I0612 11:07:31.677281  5211 net.cpp:255] Memory required for data: 731382272
I0612 11:07:31.677286  5211 layer_factory.hpp:77] Creating layer Convolution17
I0612 11:07:31.677302  5211 net.cpp:190] Creating Layer Convolution17
I0612 11:07:31.677309  5211 net.cpp:615] Convolution17 <- Convolution16
I0612 11:07:31.677319  5211 net.cpp:589] Convolution17 -> Convolution17
I0612 11:07:31.677803  5211 net.cpp:240] Setting up Convolution17
I0612 11:07:31.677814  5211 net.cpp:247] Top shape: 128 16 32 32 (2097152)
I0612 11:07:31.677820  5211 net.cpp:255] Memory required for data: 739770880
I0612 11:07:31.677834  5211 layer_factory.hpp:77] Creating layer BatchNorm17
I0612 11:07:31.677848  5211 net.cpp:190] Creating Layer BatchNorm17
I0612 11:07:31.677855  5211 net.cpp:615] BatchNorm17 <- Convolution17
I0612 11:07:31.677863  5211 net.cpp:576] BatchNorm17 -> Convolution17 (in-place)
I0612 11:07:31.678156  5211 net.cpp:240] Setting up BatchNorm17
I0612 11:07:31.678169  5211 net.cpp:247] Top shape: 128 16 32 32 (2097152)
I0612 11:07:31.678174  5211 net.cpp:255] Memory required for data: 748159488
I0612 11:07:31.678194  5211 layer_factory.hpp:77] Creating layer Scale17
I0612 11:07:31.678205  5211 net.cpp:190] Creating Layer Scale17
I0612 11:07:31.678210  5211 net.cpp:615] Scale17 <- Convolution17
I0612 11:07:31.678220  5211 net.cpp:576] Scale17 -> Convolution17 (in-place)
I0612 11:07:31.678272  5211 layer_factory.hpp:77] Creating layer Scale17
I0612 11:07:31.678453  5211 net.cpp:240] Setting up Scale17
I0612 11:07:31.678465  5211 net.cpp:247] Top shape: 128 16 32 32 (2097152)
I0612 11:07:31.678472  5211 net.cpp:255] Memory required for data: 756548096
I0612 11:07:31.678485  5211 layer_factory.hpp:77] Creating layer Eltwise8
I0612 11:07:31.678498  5211 net.cpp:190] Creating Layer Eltwise8
I0612 11:07:31.678505  5211 net.cpp:615] Eltwise8 <- Eltwise7_ReLU15_0_split_1
I0612 11:07:31.678524  5211 net.cpp:615] Eltwise8 <- Convolution17
I0612 11:07:31.678532  5211 net.cpp:589] Eltwise8 -> Eltwise8
I0612 11:07:31.678567  5211 net.cpp:240] Setting up Eltwise8
I0612 11:07:31.678576  5211 net.cpp:247] Top shape: 128 16 32 32 (2097152)
I0612 11:07:31.678581  5211 net.cpp:255] Memory required for data: 764936704
I0612 11:07:31.678586  5211 layer_factory.hpp:77] Creating layer ReLU17
I0612 11:07:31.678596  5211 net.cpp:190] Creating Layer ReLU17
I0612 11:07:31.678601  5211 net.cpp:615] ReLU17 <- Eltwise8
I0612 11:07:31.678611  5211 net.cpp:576] ReLU17 -> Eltwise8 (in-place)
I0612 11:07:31.678620  5211 net.cpp:240] Setting up ReLU17
I0612 11:07:31.678628  5211 net.cpp:247] Top shape: 128 16 32 32 (2097152)
I0612 11:07:31.678633  5211 net.cpp:255] Memory required for data: 773325312
I0612 11:07:31.678638  5211 layer_factory.hpp:77] Creating layer Eltwise8_ReLU17_0_split
I0612 11:07:31.678647  5211 net.cpp:190] Creating Layer Eltwise8_ReLU17_0_split
I0612 11:07:31.678653  5211 net.cpp:615] Eltwise8_ReLU17_0_split <- Eltwise8
I0612 11:07:31.678659  5211 net.cpp:589] Eltwise8_ReLU17_0_split -> Eltwise8_ReLU17_0_split_0
I0612 11:07:31.678670  5211 net.cpp:589] Eltwise8_ReLU17_0_split -> Eltwise8_ReLU17_0_split_1
I0612 11:07:31.678724  5211 net.cpp:240] Setting up Eltwise8_ReLU17_0_split
I0612 11:07:31.678732  5211 net.cpp:247] Top shape: 128 16 32 32 (2097152)
I0612 11:07:31.678740  5211 net.cpp:247] Top shape: 128 16 32 32 (2097152)
I0612 11:07:31.678745  5211 net.cpp:255] Memory required for data: 790102528
I0612 11:07:31.678750  5211 layer_factory.hpp:77] Creating layer Convolution18
I0612 11:07:31.678761  5211 net.cpp:190] Creating Layer Convolution18
I0612 11:07:31.678767  5211 net.cpp:615] Convolution18 <- Eltwise8_ReLU17_0_split_0
I0612 11:07:31.678781  5211 net.cpp:589] Convolution18 -> Convolution18
I0612 11:07:31.679251  5211 net.cpp:240] Setting up Convolution18
I0612 11:07:31.679263  5211 net.cpp:247] Top shape: 128 16 32 32 (2097152)
I0612 11:07:31.679270  5211 net.cpp:255] Memory required for data: 798491136
I0612 11:07:31.679281  5211 layer_factory.hpp:77] Creating layer BatchNorm18
I0612 11:07:31.679291  5211 net.cpp:190] Creating Layer BatchNorm18
I0612 11:07:31.679297  5211 net.cpp:615] BatchNorm18 <- Convolution18
I0612 11:07:31.679306  5211 net.cpp:576] BatchNorm18 -> Convolution18 (in-place)
I0612 11:07:31.679590  5211 net.cpp:240] Setting up BatchNorm18
I0612 11:07:31.679601  5211 net.cpp:247] Top shape: 128 16 32 32 (2097152)
I0612 11:07:31.679606  5211 net.cpp:255] Memory required for data: 806879744
I0612 11:07:31.679621  5211 layer_factory.hpp:77] Creating layer Scale18
I0612 11:07:31.679631  5211 net.cpp:190] Creating Layer Scale18
I0612 11:07:31.679637  5211 net.cpp:615] Scale18 <- Convolution18
I0612 11:07:31.679646  5211 net.cpp:576] Scale18 -> Convolution18 (in-place)
I0612 11:07:31.679703  5211 layer_factory.hpp:77] Creating layer Scale18
I0612 11:07:31.679859  5211 net.cpp:240] Setting up Scale18
I0612 11:07:31.679870  5211 net.cpp:247] Top shape: 128 16 32 32 (2097152)
I0612 11:07:31.679875  5211 net.cpp:255] Memory required for data: 815268352
I0612 11:07:31.679890  5211 layer_factory.hpp:77] Creating layer ReLU18
I0612 11:07:31.679899  5211 net.cpp:190] Creating Layer ReLU18
I0612 11:07:31.679906  5211 net.cpp:615] ReLU18 <- Convolution18
I0612 11:07:31.679916  5211 net.cpp:576] ReLU18 -> Convolution18 (in-place)
I0612 11:07:31.679926  5211 net.cpp:240] Setting up ReLU18
I0612 11:07:31.679934  5211 net.cpp:247] Top shape: 128 16 32 32 (2097152)
I0612 11:07:31.679939  5211 net.cpp:255] Memory required for data: 823656960
I0612 11:07:31.679945  5211 layer_factory.hpp:77] Creating layer Convolution19
I0612 11:07:31.679957  5211 net.cpp:190] Creating Layer Convolution19
I0612 11:07:31.679963  5211 net.cpp:615] Convolution19 <- Convolution18
I0612 11:07:31.679975  5211 net.cpp:589] Convolution19 -> Convolution19
I0612 11:07:31.680443  5211 net.cpp:240] Setting up Convolution19
I0612 11:07:31.680454  5211 net.cpp:247] Top shape: 128 16 32 32 (2097152)
I0612 11:07:31.680459  5211 net.cpp:255] Memory required for data: 832045568
I0612 11:07:31.680472  5211 layer_factory.hpp:77] Creating layer BatchNorm19
I0612 11:07:31.680481  5211 net.cpp:190] Creating Layer BatchNorm19
I0612 11:07:31.680487  5211 net.cpp:615] BatchNorm19 <- Convolution19
I0612 11:07:31.680498  5211 net.cpp:576] BatchNorm19 -> Convolution19 (in-place)
I0612 11:07:31.680783  5211 net.cpp:240] Setting up BatchNorm19
I0612 11:07:31.680794  5211 net.cpp:247] Top shape: 128 16 32 32 (2097152)
I0612 11:07:31.680799  5211 net.cpp:255] Memory required for data: 840434176
I0612 11:07:31.680838  5211 layer_factory.hpp:77] Creating layer Scale19
I0612 11:07:31.680850  5211 net.cpp:190] Creating Layer Scale19
I0612 11:07:31.680855  5211 net.cpp:615] Scale19 <- Convolution19
I0612 11:07:31.680865  5211 net.cpp:576] Scale19 -> Convolution19 (in-place)
I0612 11:07:31.680922  5211 layer_factory.hpp:77] Creating layer Scale19
I0612 11:07:31.681083  5211 net.cpp:240] Setting up Scale19
I0612 11:07:31.681093  5211 net.cpp:247] Top shape: 128 16 32 32 (2097152)
I0612 11:07:31.681099  5211 net.cpp:255] Memory required for data: 848822784
I0612 11:07:31.681112  5211 layer_factory.hpp:77] Creating layer Eltwise9
I0612 11:07:31.681123  5211 net.cpp:190] Creating Layer Eltwise9
I0612 11:07:31.681129  5211 net.cpp:615] Eltwise9 <- Eltwise8_ReLU17_0_split_1
I0612 11:07:31.681136  5211 net.cpp:615] Eltwise9 <- Convolution19
I0612 11:07:31.681145  5211 net.cpp:589] Eltwise9 -> Eltwise9
I0612 11:07:31.681182  5211 net.cpp:240] Setting up Eltwise9
I0612 11:07:31.681190  5211 net.cpp:247] Top shape: 128 16 32 32 (2097152)
I0612 11:07:31.681196  5211 net.cpp:255] Memory required for data: 857211392
I0612 11:07:31.681201  5211 layer_factory.hpp:77] Creating layer ReLU19
I0612 11:07:31.681210  5211 net.cpp:190] Creating Layer ReLU19
I0612 11:07:31.681218  5211 net.cpp:615] ReLU19 <- Eltwise9
I0612 11:07:31.681229  5211 net.cpp:576] ReLU19 -> Eltwise9 (in-place)
I0612 11:07:31.681239  5211 net.cpp:240] Setting up ReLU19
I0612 11:07:31.681247  5211 net.cpp:247] Top shape: 128 16 32 32 (2097152)
I0612 11:07:31.681252  5211 net.cpp:255] Memory required for data: 865600000
I0612 11:07:31.681257  5211 layer_factory.hpp:77] Creating layer Eltwise9_ReLU19_0_split
I0612 11:07:31.681265  5211 net.cpp:190] Creating Layer Eltwise9_ReLU19_0_split
I0612 11:07:31.681270  5211 net.cpp:615] Eltwise9_ReLU19_0_split <- Eltwise9
I0612 11:07:31.681280  5211 net.cpp:589] Eltwise9_ReLU19_0_split -> Eltwise9_ReLU19_0_split_0
I0612 11:07:31.681290  5211 net.cpp:589] Eltwise9_ReLU19_0_split -> Eltwise9_ReLU19_0_split_1
I0612 11:07:31.681340  5211 net.cpp:240] Setting up Eltwise9_ReLU19_0_split
I0612 11:07:31.681349  5211 net.cpp:247] Top shape: 128 16 32 32 (2097152)
I0612 11:07:31.681355  5211 net.cpp:247] Top shape: 128 16 32 32 (2097152)
I0612 11:07:31.681361  5211 net.cpp:255] Memory required for data: 882377216
I0612 11:07:31.681366  5211 layer_factory.hpp:77] Creating layer Convolution20
I0612 11:07:31.681380  5211 net.cpp:190] Creating Layer Convolution20
I0612 11:07:31.681385  5211 net.cpp:615] Convolution20 <- Eltwise9_ReLU19_0_split_0
I0612 11:07:31.681397  5211 net.cpp:589] Convolution20 -> Convolution20
I0612 11:07:31.681850  5211 net.cpp:240] Setting up Convolution20
I0612 11:07:31.681861  5211 net.cpp:247] Top shape: 128 16 32 32 (2097152)
I0612 11:07:31.681867  5211 net.cpp:255] Memory required for data: 890765824
I0612 11:07:31.681879  5211 layer_factory.hpp:77] Creating layer BatchNorm20
I0612 11:07:31.681890  5211 net.cpp:190] Creating Layer BatchNorm20
I0612 11:07:31.681895  5211 net.cpp:615] BatchNorm20 <- Convolution20
I0612 11:07:31.681905  5211 net.cpp:576] BatchNorm20 -> Convolution20 (in-place)
I0612 11:07:31.682178  5211 net.cpp:240] Setting up BatchNorm20
I0612 11:07:31.682188  5211 net.cpp:247] Top shape: 128 16 32 32 (2097152)
I0612 11:07:31.682193  5211 net.cpp:255] Memory required for data: 899154432
I0612 11:07:31.682209  5211 layer_factory.hpp:77] Creating layer Scale20
I0612 11:07:31.682217  5211 net.cpp:190] Creating Layer Scale20
I0612 11:07:31.682224  5211 net.cpp:615] Scale20 <- Convolution20
I0612 11:07:31.682231  5211 net.cpp:576] Scale20 -> Convolution20 (in-place)
I0612 11:07:31.682281  5211 layer_factory.hpp:77] Creating layer Scale20
I0612 11:07:31.682452  5211 net.cpp:240] Setting up Scale20
I0612 11:07:31.682464  5211 net.cpp:247] Top shape: 128 16 32 32 (2097152)
I0612 11:07:31.682469  5211 net.cpp:255] Memory required for data: 907543040
I0612 11:07:31.682482  5211 layer_factory.hpp:77] Creating layer ReLU20
I0612 11:07:31.682490  5211 net.cpp:190] Creating Layer ReLU20
I0612 11:07:31.682497  5211 net.cpp:615] ReLU20 <- Convolution20
I0612 11:07:31.682507  5211 net.cpp:576] ReLU20 -> Convolution20 (in-place)
I0612 11:07:31.682517  5211 net.cpp:240] Setting up ReLU20
I0612 11:07:31.682524  5211 net.cpp:247] Top shape: 128 16 32 32 (2097152)
I0612 11:07:31.682529  5211 net.cpp:255] Memory required for data: 915931648
I0612 11:07:31.682535  5211 layer_factory.hpp:77] Creating layer Convolution21
I0612 11:07:31.682550  5211 net.cpp:190] Creating Layer Convolution21
I0612 11:07:31.682556  5211 net.cpp:615] Convolution21 <- Convolution20
I0612 11:07:31.682565  5211 net.cpp:589] Convolution21 -> Convolution21
I0612 11:07:31.683019  5211 net.cpp:240] Setting up Convolution21
I0612 11:07:31.683030  5211 net.cpp:247] Top shape: 128 16 32 32 (2097152)
I0612 11:07:31.683037  5211 net.cpp:255] Memory required for data: 924320256
I0612 11:07:31.683048  5211 layer_factory.hpp:77] Creating layer BatchNorm21
I0612 11:07:31.683058  5211 net.cpp:190] Creating Layer BatchNorm21
I0612 11:07:31.683063  5211 net.cpp:615] BatchNorm21 <- Convolution21
I0612 11:07:31.683074  5211 net.cpp:576] BatchNorm21 -> Convolution21 (in-place)
I0612 11:07:31.683346  5211 net.cpp:240] Setting up BatchNorm21
I0612 11:07:31.683356  5211 net.cpp:247] Top shape: 128 16 32 32 (2097152)
I0612 11:07:31.683364  5211 net.cpp:255] Memory required for data: 932708864
I0612 11:07:31.683379  5211 layer_factory.hpp:77] Creating layer Scale21
I0612 11:07:31.683388  5211 net.cpp:190] Creating Layer Scale21
I0612 11:07:31.683394  5211 net.cpp:615] Scale21 <- Convolution21
I0612 11:07:31.683404  5211 net.cpp:576] Scale21 -> Convolution21 (in-place)
I0612 11:07:31.683452  5211 layer_factory.hpp:77] Creating layer Scale21
I0612 11:07:31.683609  5211 net.cpp:240] Setting up Scale21
I0612 11:07:31.683619  5211 net.cpp:247] Top shape: 128 16 32 32 (2097152)
I0612 11:07:31.683624  5211 net.cpp:255] Memory required for data: 941097472
I0612 11:07:31.683636  5211 layer_factory.hpp:77] Creating layer Eltwise10
I0612 11:07:31.683647  5211 net.cpp:190] Creating Layer Eltwise10
I0612 11:07:31.683655  5211 net.cpp:615] Eltwise10 <- Eltwise9_ReLU19_0_split_1
I0612 11:07:31.683661  5211 net.cpp:615] Eltwise10 <- Convolution21
I0612 11:07:31.683670  5211 net.cpp:589] Eltwise10 -> Eltwise10
I0612 11:07:31.683704  5211 net.cpp:240] Setting up Eltwise10
I0612 11:07:31.683714  5211 net.cpp:247] Top shape: 128 16 32 32 (2097152)
I0612 11:07:31.683719  5211 net.cpp:255] Memory required for data: 949486080
I0612 11:07:31.683724  5211 layer_factory.hpp:77] Creating layer ReLU21
I0612 11:07:31.683733  5211 net.cpp:190] Creating Layer ReLU21
I0612 11:07:31.683738  5211 net.cpp:615] ReLU21 <- Eltwise10
I0612 11:07:31.683748  5211 net.cpp:576] ReLU21 -> Eltwise10 (in-place)
I0612 11:07:31.683758  5211 net.cpp:240] Setting up ReLU21
I0612 11:07:31.683765  5211 net.cpp:247] Top shape: 128 16 32 32 (2097152)
I0612 11:07:31.683771  5211 net.cpp:255] Memory required for data: 957874688
I0612 11:07:31.683776  5211 layer_factory.hpp:77] Creating layer Eltwise10_ReLU21_0_split
I0612 11:07:31.683784  5211 net.cpp:190] Creating Layer Eltwise10_ReLU21_0_split
I0612 11:07:31.683790  5211 net.cpp:615] Eltwise10_ReLU21_0_split <- Eltwise10
I0612 11:07:31.683797  5211 net.cpp:589] Eltwise10_ReLU21_0_split -> Eltwise10_ReLU21_0_split_0
I0612 11:07:31.683807  5211 net.cpp:589] Eltwise10_ReLU21_0_split -> Eltwise10_ReLU21_0_split_1
I0612 11:07:31.683856  5211 net.cpp:240] Setting up Eltwise10_ReLU21_0_split
I0612 11:07:31.683866  5211 net.cpp:247] Top shape: 128 16 32 32 (2097152)
I0612 11:07:31.683873  5211 net.cpp:247] Top shape: 128 16 32 32 (2097152)
I0612 11:07:31.683878  5211 net.cpp:255] Memory required for data: 974651904
I0612 11:07:31.683883  5211 layer_factory.hpp:77] Creating layer Convolution22
I0612 11:07:31.683898  5211 net.cpp:190] Creating Layer Convolution22
I0612 11:07:31.683904  5211 net.cpp:615] Convolution22 <- Eltwise10_ReLU21_0_split_0
I0612 11:07:31.683914  5211 net.cpp:589] Convolution22 -> Convolution22
I0612 11:07:31.684365  5211 net.cpp:240] Setting up Convolution22
I0612 11:07:31.684376  5211 net.cpp:247] Top shape: 128 16 32 32 (2097152)
I0612 11:07:31.684382  5211 net.cpp:255] Memory required for data: 983040512
I0612 11:07:31.684394  5211 layer_factory.hpp:77] Creating layer BatchNorm22
I0612 11:07:31.684406  5211 net.cpp:190] Creating Layer BatchNorm22
I0612 11:07:31.684413  5211 net.cpp:615] BatchNorm22 <- Convolution22
I0612 11:07:31.684422  5211 net.cpp:576] BatchNorm22 -> Convolution22 (in-place)
I0612 11:07:31.684700  5211 net.cpp:240] Setting up BatchNorm22
I0612 11:07:31.684710  5211 net.cpp:247] Top shape: 128 16 32 32 (2097152)
I0612 11:07:31.684715  5211 net.cpp:255] Memory required for data: 991429120
I0612 11:07:31.684731  5211 layer_factory.hpp:77] Creating layer Scale22
I0612 11:07:31.684743  5211 net.cpp:190] Creating Layer Scale22
I0612 11:07:31.684749  5211 net.cpp:615] Scale22 <- Convolution22
I0612 11:07:31.684757  5211 net.cpp:576] Scale22 -> Convolution22 (in-place)
I0612 11:07:31.684804  5211 layer_factory.hpp:77] Creating layer Scale22
I0612 11:07:31.684964  5211 net.cpp:240] Setting up Scale22
I0612 11:07:31.684976  5211 net.cpp:247] Top shape: 128 16 32 32 (2097152)
I0612 11:07:31.684983  5211 net.cpp:255] Memory required for data: 999817728
I0612 11:07:31.684994  5211 layer_factory.hpp:77] Creating layer ReLU22
I0612 11:07:31.685006  5211 net.cpp:190] Creating Layer ReLU22
I0612 11:07:31.685014  5211 net.cpp:615] ReLU22 <- Convolution22
I0612 11:07:31.685020  5211 net.cpp:576] ReLU22 -> Convolution22 (in-place)
I0612 11:07:31.685030  5211 net.cpp:240] Setting up ReLU22
I0612 11:07:31.685037  5211 net.cpp:247] Top shape: 128 16 32 32 (2097152)
I0612 11:07:31.685044  5211 net.cpp:255] Memory required for data: 1008206336
I0612 11:07:31.685048  5211 layer_factory.hpp:77] Creating layer Convolution23
I0612 11:07:31.685063  5211 net.cpp:190] Creating Layer Convolution23
I0612 11:07:31.685070  5211 net.cpp:615] Convolution23 <- Convolution22
I0612 11:07:31.685081  5211 net.cpp:589] Convolution23 -> Convolution23
I0612 11:07:31.685528  5211 net.cpp:240] Setting up Convolution23
I0612 11:07:31.685539  5211 net.cpp:247] Top shape: 128 16 32 32 (2097152)
I0612 11:07:31.685544  5211 net.cpp:255] Memory required for data: 1016594944
I0612 11:07:31.685556  5211 layer_factory.hpp:77] Creating layer BatchNorm23
I0612 11:07:31.685569  5211 net.cpp:190] Creating Layer BatchNorm23
I0612 11:07:31.685575  5211 net.cpp:615] BatchNorm23 <- Convolution23
I0612 11:07:31.685585  5211 net.cpp:576] BatchNorm23 -> Convolution23 (in-place)
I0612 11:07:31.685850  5211 net.cpp:240] Setting up BatchNorm23
I0612 11:07:31.685859  5211 net.cpp:247] Top shape: 128 16 32 32 (2097152)
I0612 11:07:31.685865  5211 net.cpp:255] Memory required for data: 1024983552
I0612 11:07:31.685880  5211 layer_factory.hpp:77] Creating layer Scale23
I0612 11:07:31.685891  5211 net.cpp:190] Creating Layer Scale23
I0612 11:07:31.685897  5211 net.cpp:615] Scale23 <- Convolution23
I0612 11:07:31.685905  5211 net.cpp:576] Scale23 -> Convolution23 (in-place)
I0612 11:07:31.685956  5211 layer_factory.hpp:77] Creating layer Scale23
I0612 11:07:31.686117  5211 net.cpp:240] Setting up Scale23
I0612 11:07:31.686127  5211 net.cpp:247] Top shape: 128 16 32 32 (2097152)
I0612 11:07:31.686132  5211 net.cpp:255] Memory required for data: 1033372160
I0612 11:07:31.686144  5211 layer_factory.hpp:77] Creating layer Eltwise11
I0612 11:07:31.686153  5211 net.cpp:190] Creating Layer Eltwise11
I0612 11:07:31.686161  5211 net.cpp:615] Eltwise11 <- Eltwise10_ReLU21_0_split_1
I0612 11:07:31.686167  5211 net.cpp:615] Eltwise11 <- Convolution23
I0612 11:07:31.686178  5211 net.cpp:589] Eltwise11 -> Eltwise11
I0612 11:07:31.686211  5211 net.cpp:240] Setting up Eltwise11
I0612 11:07:31.686223  5211 net.cpp:247] Top shape: 128 16 32 32 (2097152)
I0612 11:07:31.686228  5211 net.cpp:255] Memory required for data: 1041760768
I0612 11:07:31.686233  5211 layer_factory.hpp:77] Creating layer ReLU23
I0612 11:07:31.686241  5211 net.cpp:190] Creating Layer ReLU23
I0612 11:07:31.686247  5211 net.cpp:615] ReLU23 <- Eltwise11
I0612 11:07:31.686254  5211 net.cpp:576] ReLU23 -> Eltwise11 (in-place)
I0612 11:07:31.686264  5211 net.cpp:240] Setting up ReLU23
I0612 11:07:31.686271  5211 net.cpp:247] Top shape: 128 16 32 32 (2097152)
I0612 11:07:31.686277  5211 net.cpp:255] Memory required for data: 1050149376
I0612 11:07:31.686282  5211 layer_factory.hpp:77] Creating layer Eltwise11_ReLU23_0_split
I0612 11:07:31.686290  5211 net.cpp:190] Creating Layer Eltwise11_ReLU23_0_split
I0612 11:07:31.686295  5211 net.cpp:615] Eltwise11_ReLU23_0_split <- Eltwise11
I0612 11:07:31.686305  5211 net.cpp:589] Eltwise11_ReLU23_0_split -> Eltwise11_ReLU23_0_split_0
I0612 11:07:31.686316  5211 net.cpp:589] Eltwise11_ReLU23_0_split -> Eltwise11_ReLU23_0_split_1
I0612 11:07:31.686370  5211 net.cpp:240] Setting up Eltwise11_ReLU23_0_split
I0612 11:07:31.686383  5211 net.cpp:247] Top shape: 128 16 32 32 (2097152)
I0612 11:07:31.686390  5211 net.cpp:247] Top shape: 128 16 32 32 (2097152)
I0612 11:07:31.686395  5211 net.cpp:255] Memory required for data: 1066926592
I0612 11:07:31.686401  5211 layer_factory.hpp:77] Creating layer Convolution24
I0612 11:07:31.686414  5211 net.cpp:190] Creating Layer Convolution24
I0612 11:07:31.686419  5211 net.cpp:615] Convolution24 <- Eltwise11_ReLU23_0_split_0
I0612 11:07:31.686429  5211 net.cpp:589] Convolution24 -> Convolution24
I0612 11:07:31.686898  5211 net.cpp:240] Setting up Convolution24
I0612 11:07:31.686910  5211 net.cpp:247] Top shape: 128 16 32 32 (2097152)
I0612 11:07:31.686916  5211 net.cpp:255] Memory required for data: 1075315200
I0612 11:07:31.686929  5211 layer_factory.hpp:77] Creating layer BatchNorm24
I0612 11:07:31.686941  5211 net.cpp:190] Creating Layer BatchNorm24
I0612 11:07:31.686947  5211 net.cpp:615] BatchNorm24 <- Convolution24
I0612 11:07:31.686955  5211 net.cpp:576] BatchNorm24 -> Convolution24 (in-place)
I0612 11:07:31.687223  5211 net.cpp:240] Setting up BatchNorm24
I0612 11:07:31.687234  5211 net.cpp:247] Top shape: 128 16 32 32 (2097152)
I0612 11:07:31.687239  5211 net.cpp:255] Memory required for data: 1083703808
I0612 11:07:31.687258  5211 layer_factory.hpp:77] Creating layer Scale24
I0612 11:07:31.687268  5211 net.cpp:190] Creating Layer Scale24
I0612 11:07:31.687273  5211 net.cpp:615] Scale24 <- Convolution24
I0612 11:07:31.687281  5211 net.cpp:576] Scale24 -> Convolution24 (in-place)
I0612 11:07:31.687331  5211 layer_factory.hpp:77] Creating layer Scale24
I0612 11:07:31.687489  5211 net.cpp:240] Setting up Scale24
I0612 11:07:31.687500  5211 net.cpp:247] Top shape: 128 16 32 32 (2097152)
I0612 11:07:31.687505  5211 net.cpp:255] Memory required for data: 1092092416
I0612 11:07:31.687517  5211 layer_factory.hpp:77] Creating layer ReLU24
I0612 11:07:31.687530  5211 net.cpp:190] Creating Layer ReLU24
I0612 11:07:31.687536  5211 net.cpp:615] ReLU24 <- Convolution24
I0612 11:07:31.687543  5211 net.cpp:576] ReLU24 -> Convolution24 (in-place)
I0612 11:07:31.687553  5211 net.cpp:240] Setting up ReLU24
I0612 11:07:31.687561  5211 net.cpp:247] Top shape: 128 16 32 32 (2097152)
I0612 11:07:31.687566  5211 net.cpp:255] Memory required for data: 1100481024
I0612 11:07:31.687572  5211 layer_factory.hpp:77] Creating layer Convolution25
I0612 11:07:31.687585  5211 net.cpp:190] Creating Layer Convolution25
I0612 11:07:31.687592  5211 net.cpp:615] Convolution25 <- Convolution24
I0612 11:07:31.687602  5211 net.cpp:589] Convolution25 -> Convolution25
I0612 11:07:31.688052  5211 net.cpp:240] Setting up Convolution25
I0612 11:07:31.688063  5211 net.cpp:247] Top shape: 128 16 32 32 (2097152)
I0612 11:07:31.688069  5211 net.cpp:255] Memory required for data: 1108869632
I0612 11:07:31.688081  5211 layer_factory.hpp:77] Creating layer BatchNorm25
I0612 11:07:31.688091  5211 net.cpp:190] Creating Layer BatchNorm25
I0612 11:07:31.688097  5211 net.cpp:615] BatchNorm25 <- Convolution25
I0612 11:07:31.688105  5211 net.cpp:576] BatchNorm25 -> Convolution25 (in-place)
I0612 11:07:31.688380  5211 net.cpp:240] Setting up BatchNorm25
I0612 11:07:31.688390  5211 net.cpp:247] Top shape: 128 16 32 32 (2097152)
I0612 11:07:31.688395  5211 net.cpp:255] Memory required for data: 1117258240
I0612 11:07:31.688410  5211 layer_factory.hpp:77] Creating layer Scale25
I0612 11:07:31.688419  5211 net.cpp:190] Creating Layer Scale25
I0612 11:07:31.688424  5211 net.cpp:615] Scale25 <- Convolution25
I0612 11:07:31.688432  5211 net.cpp:576] Scale25 -> Convolution25 (in-place)
I0612 11:07:31.688483  5211 layer_factory.hpp:77] Creating layer Scale25
I0612 11:07:31.688637  5211 net.cpp:240] Setting up Scale25
I0612 11:07:31.688647  5211 net.cpp:247] Top shape: 128 16 32 32 (2097152)
I0612 11:07:31.688652  5211 net.cpp:255] Memory required for data: 1125646848
I0612 11:07:31.688668  5211 layer_factory.hpp:77] Creating layer Eltwise12
I0612 11:07:31.688678  5211 net.cpp:190] Creating Layer Eltwise12
I0612 11:07:31.688683  5211 net.cpp:615] Eltwise12 <- Eltwise11_ReLU23_0_split_1
I0612 11:07:31.688690  5211 net.cpp:615] Eltwise12 <- Convolution25
I0612 11:07:31.688701  5211 net.cpp:589] Eltwise12 -> Eltwise12
I0612 11:07:31.688735  5211 net.cpp:240] Setting up Eltwise12
I0612 11:07:31.688745  5211 net.cpp:247] Top shape: 128 16 32 32 (2097152)
I0612 11:07:31.688750  5211 net.cpp:255] Memory required for data: 1134035456
I0612 11:07:31.688755  5211 layer_factory.hpp:77] Creating layer ReLU25
I0612 11:07:31.688769  5211 net.cpp:190] Creating Layer ReLU25
I0612 11:07:31.688781  5211 net.cpp:615] ReLU25 <- Eltwise12
I0612 11:07:31.688788  5211 net.cpp:576] ReLU25 -> Eltwise12 (in-place)
I0612 11:07:31.688797  5211 net.cpp:240] Setting up ReLU25
I0612 11:07:31.688805  5211 net.cpp:247] Top shape: 128 16 32 32 (2097152)
I0612 11:07:31.688810  5211 net.cpp:255] Memory required for data: 1142424064
I0612 11:07:31.688817  5211 layer_factory.hpp:77] Creating layer Eltwise12_ReLU25_0_split
I0612 11:07:31.688823  5211 net.cpp:190] Creating Layer Eltwise12_ReLU25_0_split
I0612 11:07:31.688828  5211 net.cpp:615] Eltwise12_ReLU25_0_split <- Eltwise12
I0612 11:07:31.688838  5211 net.cpp:589] Eltwise12_ReLU25_0_split -> Eltwise12_ReLU25_0_split_0
I0612 11:07:31.688849  5211 net.cpp:589] Eltwise12_ReLU25_0_split -> Eltwise12_ReLU25_0_split_1
I0612 11:07:31.688910  5211 net.cpp:240] Setting up Eltwise12_ReLU25_0_split
I0612 11:07:31.688918  5211 net.cpp:247] Top shape: 128 16 32 32 (2097152)
I0612 11:07:31.688926  5211 net.cpp:247] Top shape: 128 16 32 32 (2097152)
I0612 11:07:31.688931  5211 net.cpp:255] Memory required for data: 1159201280
I0612 11:07:31.688937  5211 layer_factory.hpp:77] Creating layer Convolution26
I0612 11:07:31.688952  5211 net.cpp:190] Creating Layer Convolution26
I0612 11:07:31.688958  5211 net.cpp:615] Convolution26 <- Eltwise12_ReLU25_0_split_0
I0612 11:07:31.688968  5211 net.cpp:589] Convolution26 -> Convolution26
I0612 11:07:31.689420  5211 net.cpp:240] Setting up Convolution26
I0612 11:07:31.689431  5211 net.cpp:247] Top shape: 128 16 32 32 (2097152)
I0612 11:07:31.689437  5211 net.cpp:255] Memory required for data: 1167589888
I0612 11:07:31.689450  5211 layer_factory.hpp:77] Creating layer BatchNorm26
I0612 11:07:31.689461  5211 net.cpp:190] Creating Layer BatchNorm26
I0612 11:07:31.689470  5211 net.cpp:615] BatchNorm26 <- Convolution26
I0612 11:07:31.689477  5211 net.cpp:576] BatchNorm26 -> Convolution26 (in-place)
I0612 11:07:31.689759  5211 net.cpp:240] Setting up BatchNorm26
I0612 11:07:31.689770  5211 net.cpp:247] Top shape: 128 16 32 32 (2097152)
I0612 11:07:31.689775  5211 net.cpp:255] Memory required for data: 1175978496
I0612 11:07:31.689797  5211 layer_factory.hpp:77] Creating layer Scale26
I0612 11:07:31.689822  5211 net.cpp:190] Creating Layer Scale26
I0612 11:07:31.689829  5211 net.cpp:615] Scale26 <- Convolution26
I0612 11:07:31.689837  5211 net.cpp:576] Scale26 -> Convolution26 (in-place)
I0612 11:07:31.689889  5211 layer_factory.hpp:77] Creating layer Scale26
I0612 11:07:31.690058  5211 net.cpp:240] Setting up Scale26
I0612 11:07:31.690068  5211 net.cpp:247] Top shape: 128 16 32 32 (2097152)
I0612 11:07:31.690074  5211 net.cpp:255] Memory required for data: 1184367104
I0612 11:07:31.690088  5211 layer_factory.hpp:77] Creating layer ReLU26
I0612 11:07:31.690095  5211 net.cpp:190] Creating Layer ReLU26
I0612 11:07:31.690101  5211 net.cpp:615] ReLU26 <- Convolution26
I0612 11:07:31.690109  5211 net.cpp:576] ReLU26 -> Convolution26 (in-place)
I0612 11:07:31.690119  5211 net.cpp:240] Setting up ReLU26
I0612 11:07:31.690126  5211 net.cpp:247] Top shape: 128 16 32 32 (2097152)
I0612 11:07:31.690132  5211 net.cpp:255] Memory required for data: 1192755712
I0612 11:07:31.690137  5211 layer_factory.hpp:77] Creating layer Convolution27
I0612 11:07:31.690152  5211 net.cpp:190] Creating Layer Convolution27
I0612 11:07:31.690158  5211 net.cpp:615] Convolution27 <- Convolution26
I0612 11:07:31.690168  5211 net.cpp:589] Convolution27 -> Convolution27
I0612 11:07:31.690644  5211 net.cpp:240] Setting up Convolution27
I0612 11:07:31.690655  5211 net.cpp:247] Top shape: 128 16 32 32 (2097152)
I0612 11:07:31.690660  5211 net.cpp:255] Memory required for data: 1201144320
I0612 11:07:31.690672  5211 layer_factory.hpp:77] Creating layer BatchNorm27
I0612 11:07:31.690685  5211 net.cpp:190] Creating Layer BatchNorm27
I0612 11:07:31.690691  5211 net.cpp:615] BatchNorm27 <- Convolution27
I0612 11:07:31.690701  5211 net.cpp:576] BatchNorm27 -> Convolution27 (in-place)
I0612 11:07:31.690963  5211 net.cpp:240] Setting up BatchNorm27
I0612 11:07:31.690973  5211 net.cpp:247] Top shape: 128 16 32 32 (2097152)
I0612 11:07:31.690980  5211 net.cpp:255] Memory required for data: 1209532928
I0612 11:07:31.690995  5211 layer_factory.hpp:77] Creating layer Scale27
I0612 11:07:31.691007  5211 net.cpp:190] Creating Layer Scale27
I0612 11:07:31.691014  5211 net.cpp:615] Scale27 <- Convolution27
I0612 11:07:31.691020  5211 net.cpp:576] Scale27 -> Convolution27 (in-place)
I0612 11:07:31.691069  5211 layer_factory.hpp:77] Creating layer Scale27
I0612 11:07:31.691223  5211 net.cpp:240] Setting up Scale27
I0612 11:07:31.691233  5211 net.cpp:247] Top shape: 128 16 32 32 (2097152)
I0612 11:07:31.691238  5211 net.cpp:255] Memory required for data: 1217921536
I0612 11:07:31.691251  5211 layer_factory.hpp:77] Creating layer Eltwise13
I0612 11:07:31.691258  5211 net.cpp:190] Creating Layer Eltwise13
I0612 11:07:31.691265  5211 net.cpp:615] Eltwise13 <- Eltwise12_ReLU25_0_split_1
I0612 11:07:31.691272  5211 net.cpp:615] Eltwise13 <- Convolution27
I0612 11:07:31.691282  5211 net.cpp:589] Eltwise13 -> Eltwise13
I0612 11:07:31.691316  5211 net.cpp:240] Setting up Eltwise13
I0612 11:07:31.691325  5211 net.cpp:247] Top shape: 128 16 32 32 (2097152)
I0612 11:07:31.691329  5211 net.cpp:255] Memory required for data: 1226310144
I0612 11:07:31.691334  5211 layer_factory.hpp:77] Creating layer ReLU27
I0612 11:07:31.691344  5211 net.cpp:190] Creating Layer ReLU27
I0612 11:07:31.691349  5211 net.cpp:615] ReLU27 <- Eltwise13
I0612 11:07:31.691355  5211 net.cpp:576] ReLU27 -> Eltwise13 (in-place)
I0612 11:07:31.691365  5211 net.cpp:240] Setting up ReLU27
I0612 11:07:31.691371  5211 net.cpp:247] Top shape: 128 16 32 32 (2097152)
I0612 11:07:31.691376  5211 net.cpp:255] Memory required for data: 1234698752
I0612 11:07:31.691382  5211 layer_factory.hpp:77] Creating layer Eltwise13_ReLU27_0_split
I0612 11:07:31.691395  5211 net.cpp:190] Creating Layer Eltwise13_ReLU27_0_split
I0612 11:07:31.691401  5211 net.cpp:615] Eltwise13_ReLU27_0_split <- Eltwise13
I0612 11:07:31.691407  5211 net.cpp:589] Eltwise13_ReLU27_0_split -> Eltwise13_ReLU27_0_split_0
I0612 11:07:31.691417  5211 net.cpp:589] Eltwise13_ReLU27_0_split -> Eltwise13_ReLU27_0_split_1
I0612 11:07:31.691464  5211 net.cpp:240] Setting up Eltwise13_ReLU27_0_split
I0612 11:07:31.691473  5211 net.cpp:247] Top shape: 128 16 32 32 (2097152)
I0612 11:07:31.691479  5211 net.cpp:247] Top shape: 128 16 32 32 (2097152)
I0612 11:07:31.691484  5211 net.cpp:255] Memory required for data: 1251475968
I0612 11:07:31.691489  5211 layer_factory.hpp:77] Creating layer Convolution28
I0612 11:07:31.691501  5211 net.cpp:190] Creating Layer Convolution28
I0612 11:07:31.691507  5211 net.cpp:615] Convolution28 <- Eltwise13_ReLU27_0_split_0
I0612 11:07:31.691516  5211 net.cpp:589] Convolution28 -> Convolution28
I0612 11:07:31.691941  5211 net.cpp:240] Setting up Convolution28
I0612 11:07:31.691951  5211 net.cpp:247] Top shape: 128 16 32 32 (2097152)
I0612 11:07:31.691957  5211 net.cpp:255] Memory required for data: 1259864576
I0612 11:07:31.691969  5211 layer_factory.hpp:77] Creating layer BatchNorm28
I0612 11:07:31.691980  5211 net.cpp:190] Creating Layer BatchNorm28
I0612 11:07:31.691987  5211 net.cpp:615] BatchNorm28 <- Convolution28
I0612 11:07:31.691993  5211 net.cpp:576] BatchNorm28 -> Convolution28 (in-place)
I0612 11:07:31.692255  5211 net.cpp:240] Setting up BatchNorm28
I0612 11:07:31.692265  5211 net.cpp:247] Top shape: 128 16 32 32 (2097152)
I0612 11:07:31.692270  5211 net.cpp:255] Memory required for data: 1268253184
I0612 11:07:31.692284  5211 layer_factory.hpp:77] Creating layer Scale28
I0612 11:07:31.692294  5211 net.cpp:190] Creating Layer Scale28
I0612 11:07:31.692299  5211 net.cpp:615] Scale28 <- Convolution28
I0612 11:07:31.692307  5211 net.cpp:576] Scale28 -> Convolution28 (in-place)
I0612 11:07:31.692353  5211 layer_factory.hpp:77] Creating layer Scale28
I0612 11:07:31.692503  5211 net.cpp:240] Setting up Scale28
I0612 11:07:31.692512  5211 net.cpp:247] Top shape: 128 16 32 32 (2097152)
I0612 11:07:31.692517  5211 net.cpp:255] Memory required for data: 1276641792
I0612 11:07:31.692534  5211 layer_factory.hpp:77] Creating layer ReLU28
I0612 11:07:31.692543  5211 net.cpp:190] Creating Layer ReLU28
I0612 11:07:31.692549  5211 net.cpp:615] ReLU28 <- Convolution28
I0612 11:07:31.692556  5211 net.cpp:576] ReLU28 -> Convolution28 (in-place)
I0612 11:07:31.692565  5211 net.cpp:240] Setting up ReLU28
I0612 11:07:31.692572  5211 net.cpp:247] Top shape: 128 16 32 32 (2097152)
I0612 11:07:31.692579  5211 net.cpp:255] Memory required for data: 1285030400
I0612 11:07:31.692584  5211 layer_factory.hpp:77] Creating layer Convolution29
I0612 11:07:31.692597  5211 net.cpp:190] Creating Layer Convolution29
I0612 11:07:31.692602  5211 net.cpp:615] Convolution29 <- Convolution28
I0612 11:07:31.692613  5211 net.cpp:589] Convolution29 -> Convolution29
I0612 11:07:31.693043  5211 net.cpp:240] Setting up Convolution29
I0612 11:07:31.693054  5211 net.cpp:247] Top shape: 128 16 32 32 (2097152)
I0612 11:07:31.693059  5211 net.cpp:255] Memory required for data: 1293419008
I0612 11:07:31.693070  5211 layer_factory.hpp:77] Creating layer BatchNorm29
I0612 11:07:31.693079  5211 net.cpp:190] Creating Layer BatchNorm29
I0612 11:07:31.693086  5211 net.cpp:615] BatchNorm29 <- Convolution29
I0612 11:07:31.693096  5211 net.cpp:576] BatchNorm29 -> Convolution29 (in-place)
I0612 11:07:31.693356  5211 net.cpp:240] Setting up BatchNorm29
I0612 11:07:31.693366  5211 net.cpp:247] Top shape: 128 16 32 32 (2097152)
I0612 11:07:31.693370  5211 net.cpp:255] Memory required for data: 1301807616
I0612 11:07:31.693384  5211 layer_factory.hpp:77] Creating layer Scale29
I0612 11:07:31.693393  5211 net.cpp:190] Creating Layer Scale29
I0612 11:07:31.693398  5211 net.cpp:615] Scale29 <- Convolution29
I0612 11:07:31.693406  5211 net.cpp:576] Scale29 -> Convolution29 (in-place)
I0612 11:07:31.693452  5211 layer_factory.hpp:77] Creating layer Scale29
I0612 11:07:31.693609  5211 net.cpp:240] Setting up Scale29
I0612 11:07:31.693619  5211 net.cpp:247] Top shape: 128 16 32 32 (2097152)
I0612 11:07:31.693624  5211 net.cpp:255] Memory required for data: 1310196224
I0612 11:07:31.693635  5211 layer_factory.hpp:77] Creating layer Eltwise14
I0612 11:07:31.693645  5211 net.cpp:190] Creating Layer Eltwise14
I0612 11:07:31.693650  5211 net.cpp:615] Eltwise14 <- Eltwise13_ReLU27_0_split_1
I0612 11:07:31.693656  5211 net.cpp:615] Eltwise14 <- Convolution29
I0612 11:07:31.693667  5211 net.cpp:589] Eltwise14 -> Eltwise14
I0612 11:07:31.693699  5211 net.cpp:240] Setting up Eltwise14
I0612 11:07:31.693707  5211 net.cpp:247] Top shape: 128 16 32 32 (2097152)
I0612 11:07:31.693713  5211 net.cpp:255] Memory required for data: 1318584832
I0612 11:07:31.693718  5211 layer_factory.hpp:77] Creating layer ReLU29
I0612 11:07:31.693728  5211 net.cpp:190] Creating Layer ReLU29
I0612 11:07:31.693733  5211 net.cpp:615] ReLU29 <- Eltwise14
I0612 11:07:31.693742  5211 net.cpp:576] ReLU29 -> Eltwise14 (in-place)
I0612 11:07:31.693750  5211 net.cpp:240] Setting up ReLU29
I0612 11:07:31.693758  5211 net.cpp:247] Top shape: 128 16 32 32 (2097152)
I0612 11:07:31.693763  5211 net.cpp:255] Memory required for data: 1326973440
I0612 11:07:31.693768  5211 layer_factory.hpp:77] Creating layer Eltwise14_ReLU29_0_split
I0612 11:07:31.693776  5211 net.cpp:190] Creating Layer Eltwise14_ReLU29_0_split
I0612 11:07:31.693783  5211 net.cpp:615] Eltwise14_ReLU29_0_split <- Eltwise14
I0612 11:07:31.693789  5211 net.cpp:589] Eltwise14_ReLU29_0_split -> Eltwise14_ReLU29_0_split_0
I0612 11:07:31.693799  5211 net.cpp:589] Eltwise14_ReLU29_0_split -> Eltwise14_ReLU29_0_split_1
I0612 11:07:31.693847  5211 net.cpp:240] Setting up Eltwise14_ReLU29_0_split
I0612 11:07:31.693856  5211 net.cpp:247] Top shape: 128 16 32 32 (2097152)
I0612 11:07:31.693862  5211 net.cpp:247] Top shape: 128 16 32 32 (2097152)
I0612 11:07:31.693867  5211 net.cpp:255] Memory required for data: 1343750656
I0612 11:07:31.693872  5211 layer_factory.hpp:77] Creating layer Convolution30
I0612 11:07:31.693886  5211 net.cpp:190] Creating Layer Convolution30
I0612 11:07:31.693892  5211 net.cpp:615] Convolution30 <- Eltwise14_ReLU29_0_split_0
I0612 11:07:31.693912  5211 net.cpp:589] Convolution30 -> Convolution30
I0612 11:07:31.694351  5211 net.cpp:240] Setting up Convolution30
I0612 11:07:31.694370  5211 net.cpp:247] Top shape: 128 16 32 32 (2097152)
I0612 11:07:31.694375  5211 net.cpp:255] Memory required for data: 1352139264
I0612 11:07:31.694386  5211 layer_factory.hpp:77] Creating layer BatchNorm30
I0612 11:07:31.694399  5211 net.cpp:190] Creating Layer BatchNorm30
I0612 11:07:31.694406  5211 net.cpp:615] BatchNorm30 <- Convolution30
I0612 11:07:31.694413  5211 net.cpp:576] BatchNorm30 -> Convolution30 (in-place)
I0612 11:07:31.694679  5211 net.cpp:240] Setting up BatchNorm30
I0612 11:07:31.694689  5211 net.cpp:247] Top shape: 128 16 32 32 (2097152)
I0612 11:07:31.694694  5211 net.cpp:255] Memory required for data: 1360527872
I0612 11:07:31.694708  5211 layer_factory.hpp:77] Creating layer Scale30
I0612 11:07:31.694717  5211 net.cpp:190] Creating Layer Scale30
I0612 11:07:31.694722  5211 net.cpp:615] Scale30 <- Convolution30
I0612 11:07:31.694732  5211 net.cpp:576] Scale30 -> Convolution30 (in-place)
I0612 11:07:31.694778  5211 layer_factory.hpp:77] Creating layer Scale30
I0612 11:07:31.694936  5211 net.cpp:240] Setting up Scale30
I0612 11:07:31.694946  5211 net.cpp:247] Top shape: 128 16 32 32 (2097152)
I0612 11:07:31.694950  5211 net.cpp:255] Memory required for data: 1368916480
I0612 11:07:31.694964  5211 layer_factory.hpp:77] Creating layer ReLU30
I0612 11:07:31.694973  5211 net.cpp:190] Creating Layer ReLU30
I0612 11:07:31.694978  5211 net.cpp:615] ReLU30 <- Convolution30
I0612 11:07:31.694986  5211 net.cpp:576] ReLU30 -> Convolution30 (in-place)
I0612 11:07:31.694995  5211 net.cpp:240] Setting up ReLU30
I0612 11:07:31.695003  5211 net.cpp:247] Top shape: 128 16 32 32 (2097152)
I0612 11:07:31.695008  5211 net.cpp:255] Memory required for data: 1377305088
I0612 11:07:31.695013  5211 layer_factory.hpp:77] Creating layer Convolution31
I0612 11:07:31.695026  5211 net.cpp:190] Creating Layer Convolution31
I0612 11:07:31.695032  5211 net.cpp:615] Convolution31 <- Convolution30
I0612 11:07:31.695044  5211 net.cpp:589] Convolution31 -> Convolution31
I0612 11:07:31.695477  5211 net.cpp:240] Setting up Convolution31
I0612 11:07:31.695487  5211 net.cpp:247] Top shape: 128 16 32 32 (2097152)
I0612 11:07:31.695492  5211 net.cpp:255] Memory required for data: 1385693696
I0612 11:07:31.695505  5211 layer_factory.hpp:77] Creating layer BatchNorm31
I0612 11:07:31.695516  5211 net.cpp:190] Creating Layer BatchNorm31
I0612 11:07:31.695523  5211 net.cpp:615] BatchNorm31 <- Convolution31
I0612 11:07:31.695533  5211 net.cpp:576] BatchNorm31 -> Convolution31 (in-place)
I0612 11:07:31.695796  5211 net.cpp:240] Setting up BatchNorm31
I0612 11:07:31.695806  5211 net.cpp:247] Top shape: 128 16 32 32 (2097152)
I0612 11:07:31.695811  5211 net.cpp:255] Memory required for data: 1394082304
I0612 11:07:31.695825  5211 layer_factory.hpp:77] Creating layer Scale31
I0612 11:07:31.695837  5211 net.cpp:190] Creating Layer Scale31
I0612 11:07:31.695842  5211 net.cpp:615] Scale31 <- Convolution31
I0612 11:07:31.695849  5211 net.cpp:576] Scale31 -> Convolution31 (in-place)
I0612 11:07:31.695894  5211 layer_factory.hpp:77] Creating layer Scale31
I0612 11:07:31.696048  5211 net.cpp:240] Setting up Scale31
I0612 11:07:31.696058  5211 net.cpp:247] Top shape: 128 16 32 32 (2097152)
I0612 11:07:31.696063  5211 net.cpp:255] Memory required for data: 1402470912
I0612 11:07:31.696074  5211 layer_factory.hpp:77] Creating layer Eltwise15
I0612 11:07:31.696084  5211 net.cpp:190] Creating Layer Eltwise15
I0612 11:07:31.696089  5211 net.cpp:615] Eltwise15 <- Eltwise14_ReLU29_0_split_1
I0612 11:07:31.696096  5211 net.cpp:615] Eltwise15 <- Convolution31
I0612 11:07:31.696106  5211 net.cpp:589] Eltwise15 -> Eltwise15
I0612 11:07:31.696138  5211 net.cpp:240] Setting up Eltwise15
I0612 11:07:31.696149  5211 net.cpp:247] Top shape: 128 16 32 32 (2097152)
I0612 11:07:31.696154  5211 net.cpp:255] Memory required for data: 1410859520
I0612 11:07:31.696159  5211 layer_factory.hpp:77] Creating layer ReLU31
I0612 11:07:31.696171  5211 net.cpp:190] Creating Layer ReLU31
I0612 11:07:31.696177  5211 net.cpp:615] ReLU31 <- Eltwise15
I0612 11:07:31.696183  5211 net.cpp:576] ReLU31 -> Eltwise15 (in-place)
I0612 11:07:31.696192  5211 net.cpp:240] Setting up ReLU31
I0612 11:07:31.696200  5211 net.cpp:247] Top shape: 128 16 32 32 (2097152)
I0612 11:07:31.696205  5211 net.cpp:255] Memory required for data: 1419248128
I0612 11:07:31.696210  5211 layer_factory.hpp:77] Creating layer Eltwise15_ReLU31_0_split
I0612 11:07:31.696218  5211 net.cpp:190] Creating Layer Eltwise15_ReLU31_0_split
I0612 11:07:31.696223  5211 net.cpp:615] Eltwise15_ReLU31_0_split <- Eltwise15
I0612 11:07:31.696233  5211 net.cpp:589] Eltwise15_ReLU31_0_split -> Eltwise15_ReLU31_0_split_0
I0612 11:07:31.696241  5211 net.cpp:589] Eltwise15_ReLU31_0_split -> Eltwise15_ReLU31_0_split_1
I0612 11:07:31.696287  5211 net.cpp:240] Setting up Eltwise15_ReLU31_0_split
I0612 11:07:31.696295  5211 net.cpp:247] Top shape: 128 16 32 32 (2097152)
I0612 11:07:31.696302  5211 net.cpp:247] Top shape: 128 16 32 32 (2097152)
I0612 11:07:31.696307  5211 net.cpp:255] Memory required for data: 1436025344
I0612 11:07:31.696312  5211 layer_factory.hpp:77] Creating layer Convolution32
I0612 11:07:31.696326  5211 net.cpp:190] Creating Layer Convolution32
I0612 11:07:31.696332  5211 net.cpp:615] Convolution32 <- Eltwise15_ReLU31_0_split_0
I0612 11:07:31.696341  5211 net.cpp:589] Convolution32 -> Convolution32
I0612 11:07:31.696775  5211 net.cpp:240] Setting up Convolution32
I0612 11:07:31.696786  5211 net.cpp:247] Top shape: 128 16 32 32 (2097152)
I0612 11:07:31.696791  5211 net.cpp:255] Memory required for data: 1444413952
I0612 11:07:31.696804  5211 layer_factory.hpp:77] Creating layer BatchNorm32
I0612 11:07:31.696815  5211 net.cpp:190] Creating Layer BatchNorm32
I0612 11:07:31.696821  5211 net.cpp:615] BatchNorm32 <- Convolution32
I0612 11:07:31.696830  5211 net.cpp:576] BatchNorm32 -> Convolution32 (in-place)
I0612 11:07:31.697091  5211 net.cpp:240] Setting up BatchNorm32
I0612 11:07:31.697101  5211 net.cpp:247] Top shape: 128 16 32 32 (2097152)
I0612 11:07:31.697106  5211 net.cpp:255] Memory required for data: 1452802560
I0612 11:07:31.697124  5211 layer_factory.hpp:77] Creating layer Scale32
I0612 11:07:31.697134  5211 net.cpp:190] Creating Layer Scale32
I0612 11:07:31.697139  5211 net.cpp:615] Scale32 <- Convolution32
I0612 11:07:31.697146  5211 net.cpp:576] Scale32 -> Convolution32 (in-place)
I0612 11:07:31.697194  5211 layer_factory.hpp:77] Creating layer Scale32
I0612 11:07:31.697350  5211 net.cpp:240] Setting up Scale32
I0612 11:07:31.697358  5211 net.cpp:247] Top shape: 128 16 32 32 (2097152)
I0612 11:07:31.697363  5211 net.cpp:255] Memory required for data: 1461191168
I0612 11:07:31.697376  5211 layer_factory.hpp:77] Creating layer ReLU32
I0612 11:07:31.697386  5211 net.cpp:190] Creating Layer ReLU32
I0612 11:07:31.697392  5211 net.cpp:615] ReLU32 <- Convolution32
I0612 11:07:31.697399  5211 net.cpp:576] ReLU32 -> Convolution32 (in-place)
I0612 11:07:31.697408  5211 net.cpp:240] Setting up ReLU32
I0612 11:07:31.697417  5211 net.cpp:247] Top shape: 128 16 32 32 (2097152)
I0612 11:07:31.697420  5211 net.cpp:255] Memory required for data: 1469579776
I0612 11:07:31.697427  5211 layer_factory.hpp:77] Creating layer Convolution33
I0612 11:07:31.697439  5211 net.cpp:190] Creating Layer Convolution33
I0612 11:07:31.697444  5211 net.cpp:615] Convolution33 <- Convolution32
I0612 11:07:31.697453  5211 net.cpp:589] Convolution33 -> Convolution33
I0612 11:07:31.697880  5211 net.cpp:240] Setting up Convolution33
I0612 11:07:31.697890  5211 net.cpp:247] Top shape: 128 16 32 32 (2097152)
I0612 11:07:31.697896  5211 net.cpp:255] Memory required for data: 1477968384
I0612 11:07:31.697907  5211 layer_factory.hpp:77] Creating layer BatchNorm33
I0612 11:07:31.697918  5211 net.cpp:190] Creating Layer BatchNorm33
I0612 11:07:31.697924  5211 net.cpp:615] BatchNorm33 <- Convolution33
I0612 11:07:31.697932  5211 net.cpp:576] BatchNorm33 -> Convolution33 (in-place)
I0612 11:07:31.698191  5211 net.cpp:240] Setting up BatchNorm33
I0612 11:07:31.698205  5211 net.cpp:247] Top shape: 128 16 32 32 (2097152)
I0612 11:07:31.698210  5211 net.cpp:255] Memory required for data: 1486356992
I0612 11:07:31.698225  5211 layer_factory.hpp:77] Creating layer Scale33
I0612 11:07:31.698235  5211 net.cpp:190] Creating Layer Scale33
I0612 11:07:31.698240  5211 net.cpp:615] Scale33 <- Convolution33
I0612 11:07:31.698246  5211 net.cpp:576] Scale33 -> Convolution33 (in-place)
I0612 11:07:31.698299  5211 layer_factory.hpp:77] Creating layer Scale33
I0612 11:07:31.698459  5211 net.cpp:240] Setting up Scale33
I0612 11:07:31.698469  5211 net.cpp:247] Top shape: 128 16 32 32 (2097152)
I0612 11:07:31.698474  5211 net.cpp:255] Memory required for data: 1494745600
I0612 11:07:31.698488  5211 layer_factory.hpp:77] Creating layer Eltwise16
I0612 11:07:31.698498  5211 net.cpp:190] Creating Layer Eltwise16
I0612 11:07:31.698505  5211 net.cpp:615] Eltwise16 <- Eltwise15_ReLU31_0_split_1
I0612 11:07:31.698513  5211 net.cpp:615] Eltwise16 <- Convolution33
I0612 11:07:31.698523  5211 net.cpp:589] Eltwise16 -> Eltwise16
I0612 11:07:31.698554  5211 net.cpp:240] Setting up Eltwise16
I0612 11:07:31.698562  5211 net.cpp:247] Top shape: 128 16 32 32 (2097152)
I0612 11:07:31.698566  5211 net.cpp:255] Memory required for data: 1503134208
I0612 11:07:31.698571  5211 layer_factory.hpp:77] Creating layer ReLU33
I0612 11:07:31.698582  5211 net.cpp:190] Creating Layer ReLU33
I0612 11:07:31.698588  5211 net.cpp:615] ReLU33 <- Eltwise16
I0612 11:07:31.698596  5211 net.cpp:576] ReLU33 -> Eltwise16 (in-place)
I0612 11:07:31.698604  5211 net.cpp:240] Setting up ReLU33
I0612 11:07:31.698611  5211 net.cpp:247] Top shape: 128 16 32 32 (2097152)
I0612 11:07:31.698616  5211 net.cpp:255] Memory required for data: 1511522816
I0612 11:07:31.698621  5211 layer_factory.hpp:77] Creating layer Eltwise16_ReLU33_0_split
I0612 11:07:31.698629  5211 net.cpp:190] Creating Layer Eltwise16_ReLU33_0_split
I0612 11:07:31.698634  5211 net.cpp:615] Eltwise16_ReLU33_0_split <- Eltwise16
I0612 11:07:31.698643  5211 net.cpp:589] Eltwise16_ReLU33_0_split -> Eltwise16_ReLU33_0_split_0
I0612 11:07:31.698653  5211 net.cpp:589] Eltwise16_ReLU33_0_split -> Eltwise16_ReLU33_0_split_1
I0612 11:07:31.698701  5211 net.cpp:240] Setting up Eltwise16_ReLU33_0_split
I0612 11:07:31.698710  5211 net.cpp:247] Top shape: 128 16 32 32 (2097152)
I0612 11:07:31.698716  5211 net.cpp:247] Top shape: 128 16 32 32 (2097152)
I0612 11:07:31.698721  5211 net.cpp:255] Memory required for data: 1528300032
I0612 11:07:31.698726  5211 layer_factory.hpp:77] Creating layer Convolution34
I0612 11:07:31.698737  5211 net.cpp:190] Creating Layer Convolution34
I0612 11:07:31.698743  5211 net.cpp:615] Convolution34 <- Eltwise16_ReLU33_0_split_0
I0612 11:07:31.698755  5211 net.cpp:589] Convolution34 -> Convolution34
I0612 11:07:31.699190  5211 net.cpp:240] Setting up Convolution34
I0612 11:07:31.699201  5211 net.cpp:247] Top shape: 128 16 32 32 (2097152)
I0612 11:07:31.699206  5211 net.cpp:255] Memory required for data: 1536688640
I0612 11:07:31.699218  5211 layer_factory.hpp:77] Creating layer BatchNorm34
I0612 11:07:31.699228  5211 net.cpp:190] Creating Layer BatchNorm34
I0612 11:07:31.699232  5211 net.cpp:615] BatchNorm34 <- Convolution34
I0612 11:07:31.699242  5211 net.cpp:576] BatchNorm34 -> Convolution34 (in-place)
I0612 11:07:31.699506  5211 net.cpp:240] Setting up BatchNorm34
I0612 11:07:31.699515  5211 net.cpp:247] Top shape: 128 16 32 32 (2097152)
I0612 11:07:31.699520  5211 net.cpp:255] Memory required for data: 1545077248
I0612 11:07:31.699534  5211 layer_factory.hpp:77] Creating layer Scale34
I0612 11:07:31.699543  5211 net.cpp:190] Creating Layer Scale34
I0612 11:07:31.699549  5211 net.cpp:615] Scale34 <- Convolution34
I0612 11:07:31.699559  5211 net.cpp:576] Scale34 -> Convolution34 (in-place)
I0612 11:07:31.699605  5211 layer_factory.hpp:77] Creating layer Scale34
I0612 11:07:31.699761  5211 net.cpp:240] Setting up Scale34
I0612 11:07:31.699771  5211 net.cpp:247] Top shape: 128 16 32 32 (2097152)
I0612 11:07:31.699776  5211 net.cpp:255] Memory required for data: 1553465856
I0612 11:07:31.699791  5211 layer_factory.hpp:77] Creating layer ReLU34
I0612 11:07:31.699802  5211 net.cpp:190] Creating Layer ReLU34
I0612 11:07:31.699808  5211 net.cpp:615] ReLU34 <- Convolution34
I0612 11:07:31.699816  5211 net.cpp:576] ReLU34 -> Convolution34 (in-place)
I0612 11:07:31.699826  5211 net.cpp:240] Setting up ReLU34
I0612 11:07:31.699832  5211 net.cpp:247] Top shape: 128 16 32 32 (2097152)
I0612 11:07:31.699837  5211 net.cpp:255] Memory required for data: 1561854464
I0612 11:07:31.699842  5211 layer_factory.hpp:77] Creating layer Convolution35
I0612 11:07:31.699856  5211 net.cpp:190] Creating Layer Convolution35
I0612 11:07:31.699862  5211 net.cpp:615] Convolution35 <- Convolution34
I0612 11:07:31.699870  5211 net.cpp:589] Convolution35 -> Convolution35
I0612 11:07:31.700310  5211 net.cpp:240] Setting up Convolution35
I0612 11:07:31.700321  5211 net.cpp:247] Top shape: 128 16 32 32 (2097152)
I0612 11:07:31.700326  5211 net.cpp:255] Memory required for data: 1570243072
I0612 11:07:31.700337  5211 layer_factory.hpp:77] Creating layer BatchNorm35
I0612 11:07:31.700350  5211 net.cpp:190] Creating Layer BatchNorm35
I0612 11:07:31.700356  5211 net.cpp:615] BatchNorm35 <- Convolution35
I0612 11:07:31.700362  5211 net.cpp:576] BatchNorm35 -> Convolution35 (in-place)
I0612 11:07:31.700621  5211 net.cpp:240] Setting up BatchNorm35
I0612 11:07:31.700631  5211 net.cpp:247] Top shape: 128 16 32 32 (2097152)
I0612 11:07:31.700636  5211 net.cpp:255] Memory required for data: 1578631680
I0612 11:07:31.700651  5211 layer_factory.hpp:77] Creating layer Scale35
I0612 11:07:31.700662  5211 net.cpp:190] Creating Layer Scale35
I0612 11:07:31.700669  5211 net.cpp:615] Scale35 <- Convolution35
I0612 11:07:31.700675  5211 net.cpp:576] Scale35 -> Convolution35 (in-place)
I0612 11:07:31.700719  5211 layer_factory.hpp:77] Creating layer Scale35
I0612 11:07:31.700870  5211 net.cpp:240] Setting up Scale35
I0612 11:07:31.700881  5211 net.cpp:247] Top shape: 128 16 32 32 (2097152)
I0612 11:07:31.700886  5211 net.cpp:255] Memory required for data: 1587020288
I0612 11:07:31.700897  5211 layer_factory.hpp:77] Creating layer Eltwise17
I0612 11:07:31.700906  5211 net.cpp:190] Creating Layer Eltwise17
I0612 11:07:31.700912  5211 net.cpp:615] Eltwise17 <- Eltwise16_ReLU33_0_split_1
I0612 11:07:31.700919  5211 net.cpp:615] Eltwise17 <- Convolution35
I0612 11:07:31.700927  5211 net.cpp:589] Eltwise17 -> Eltwise17
I0612 11:07:31.700964  5211 net.cpp:240] Setting up Eltwise17
I0612 11:07:31.700973  5211 net.cpp:247] Top shape: 128 16 32 32 (2097152)
I0612 11:07:31.700978  5211 net.cpp:255] Memory required for data: 1595408896
I0612 11:07:31.700989  5211 layer_factory.hpp:77] Creating layer ReLU35
I0612 11:07:31.700999  5211 net.cpp:190] Creating Layer ReLU35
I0612 11:07:31.701004  5211 net.cpp:615] ReLU35 <- Eltwise17
I0612 11:07:31.701011  5211 net.cpp:576] ReLU35 -> Eltwise17 (in-place)
I0612 11:07:31.701020  5211 net.cpp:240] Setting up ReLU35
I0612 11:07:31.701027  5211 net.cpp:247] Top shape: 128 16 32 32 (2097152)
I0612 11:07:31.701032  5211 net.cpp:255] Memory required for data: 1603797504
I0612 11:07:31.701037  5211 layer_factory.hpp:77] Creating layer Eltwise17_ReLU35_0_split
I0612 11:07:31.701045  5211 net.cpp:190] Creating Layer Eltwise17_ReLU35_0_split
I0612 11:07:31.701050  5211 net.cpp:615] Eltwise17_ReLU35_0_split <- Eltwise17
I0612 11:07:31.701057  5211 net.cpp:589] Eltwise17_ReLU35_0_split -> Eltwise17_ReLU35_0_split_0
I0612 11:07:31.701068  5211 net.cpp:589] Eltwise17_ReLU35_0_split -> Eltwise17_ReLU35_0_split_1
I0612 11:07:31.701114  5211 net.cpp:240] Setting up Eltwise17_ReLU35_0_split
I0612 11:07:31.701122  5211 net.cpp:247] Top shape: 128 16 32 32 (2097152)
I0612 11:07:31.701129  5211 net.cpp:247] Top shape: 128 16 32 32 (2097152)
I0612 11:07:31.701134  5211 net.cpp:255] Memory required for data: 1620574720
I0612 11:07:31.701139  5211 layer_factory.hpp:77] Creating layer Convolution36
I0612 11:07:31.701153  5211 net.cpp:190] Creating Layer Convolution36
I0612 11:07:31.701164  5211 net.cpp:615] Convolution36 <- Eltwise17_ReLU35_0_split_0
I0612 11:07:31.701174  5211 net.cpp:589] Convolution36 -> Convolution36
I0612 11:07:31.701620  5211 net.cpp:240] Setting up Convolution36
I0612 11:07:31.701632  5211 net.cpp:247] Top shape: 128 16 32 32 (2097152)
I0612 11:07:31.701638  5211 net.cpp:255] Memory required for data: 1628963328
I0612 11:07:31.701650  5211 layer_factory.hpp:77] Creating layer BatchNorm36
I0612 11:07:31.701663  5211 net.cpp:190] Creating Layer BatchNorm36
I0612 11:07:31.701668  5211 net.cpp:615] BatchNorm36 <- Convolution36
I0612 11:07:31.701678  5211 net.cpp:576] BatchNorm36 -> Convolution36 (in-place)
I0612 11:07:31.701944  5211 net.cpp:240] Setting up BatchNorm36
I0612 11:07:31.701954  5211 net.cpp:247] Top shape: 128 16 32 32 (2097152)
I0612 11:07:31.701959  5211 net.cpp:255] Memory required for data: 1637351936
I0612 11:07:31.701974  5211 layer_factory.hpp:77] Creating layer Scale36
I0612 11:07:31.701985  5211 net.cpp:190] Creating Layer Scale36
I0612 11:07:31.701992  5211 net.cpp:615] Scale36 <- Convolution36
I0612 11:07:31.701998  5211 net.cpp:576] Scale36 -> Convolution36 (in-place)
I0612 11:07:31.702049  5211 layer_factory.hpp:77] Creating layer Scale36
I0612 11:07:31.702201  5211 net.cpp:240] Setting up Scale36
I0612 11:07:31.702211  5211 net.cpp:247] Top shape: 128 16 32 32 (2097152)
I0612 11:07:31.702216  5211 net.cpp:255] Memory required for data: 1645740544
I0612 11:07:31.702229  5211 layer_factory.hpp:77] Creating layer ReLU36
I0612 11:07:31.702236  5211 net.cpp:190] Creating Layer ReLU36
I0612 11:07:31.702242  5211 net.cpp:615] ReLU36 <- Convolution36
I0612 11:07:31.702252  5211 net.cpp:576] ReLU36 -> Convolution36 (in-place)
I0612 11:07:31.702261  5211 net.cpp:240] Setting up ReLU36
I0612 11:07:31.702268  5211 net.cpp:247] Top shape: 128 16 32 32 (2097152)
I0612 11:07:31.702273  5211 net.cpp:255] Memory required for data: 1654129152
I0612 11:07:31.702278  5211 layer_factory.hpp:77] Creating layer Convolution37
I0612 11:07:31.702292  5211 net.cpp:190] Creating Layer Convolution37
I0612 11:07:31.702298  5211 net.cpp:615] Convolution37 <- Convolution36
I0612 11:07:31.702306  5211 net.cpp:589] Convolution37 -> Convolution37
I0612 11:07:31.702750  5211 net.cpp:240] Setting up Convolution37
I0612 11:07:31.702762  5211 net.cpp:247] Top shape: 128 16 32 32 (2097152)
I0612 11:07:31.702776  5211 net.cpp:255] Memory required for data: 1662517760
I0612 11:07:31.702788  5211 layer_factory.hpp:77] Creating layer BatchNorm37
I0612 11:07:31.702798  5211 net.cpp:190] Creating Layer BatchNorm37
I0612 11:07:31.702805  5211 net.cpp:615] BatchNorm37 <- Convolution37
I0612 11:07:31.702811  5211 net.cpp:576] BatchNorm37 -> Convolution37 (in-place)
I0612 11:07:31.703059  5211 net.cpp:240] Setting up BatchNorm37
I0612 11:07:31.703068  5211 net.cpp:247] Top shape: 128 16 32 32 (2097152)
I0612 11:07:31.703073  5211 net.cpp:255] Memory required for data: 1670906368
I0612 11:07:31.703120  5211 layer_factory.hpp:77] Creating layer Scale37
I0612 11:07:31.703132  5211 net.cpp:190] Creating Layer Scale37
I0612 11:07:31.703137  5211 net.cpp:615] Scale37 <- Convolution37
I0612 11:07:31.703145  5211 net.cpp:576] Scale37 -> Convolution37 (in-place)
I0612 11:07:31.703192  5211 layer_factory.hpp:77] Creating layer Scale37
I0612 11:07:31.703341  5211 net.cpp:240] Setting up Scale37
I0612 11:07:31.703349  5211 net.cpp:247] Top shape: 128 16 32 32 (2097152)
I0612 11:07:31.703354  5211 net.cpp:255] Memory required for data: 1679294976
I0612 11:07:31.703368  5211 layer_factory.hpp:77] Creating layer Eltwise18
I0612 11:07:31.703377  5211 net.cpp:190] Creating Layer Eltwise18
I0612 11:07:31.703383  5211 net.cpp:615] Eltwise18 <- Eltwise17_ReLU35_0_split_1
I0612 11:07:31.703389  5211 net.cpp:615] Eltwise18 <- Convolution37
I0612 11:07:31.703397  5211 net.cpp:589] Eltwise18 -> Eltwise18
I0612 11:07:31.703431  5211 net.cpp:240] Setting up Eltwise18
I0612 11:07:31.703439  5211 net.cpp:247] Top shape: 128 16 32 32 (2097152)
I0612 11:07:31.703444  5211 net.cpp:255] Memory required for data: 1687683584
I0612 11:07:31.703452  5211 layer_factory.hpp:77] Creating layer ReLU37
I0612 11:07:31.703462  5211 net.cpp:190] Creating Layer ReLU37
I0612 11:07:31.703469  5211 net.cpp:615] ReLU37 <- Eltwise18
I0612 11:07:31.703475  5211 net.cpp:576] ReLU37 -> Eltwise18 (in-place)
I0612 11:07:31.703483  5211 net.cpp:240] Setting up ReLU37
I0612 11:07:31.703490  5211 net.cpp:247] Top shape: 128 16 32 32 (2097152)
I0612 11:07:31.703495  5211 net.cpp:255] Memory required for data: 1696072192
I0612 11:07:31.703500  5211 layer_factory.hpp:77] Creating layer Eltwise18_ReLU37_0_split
I0612 11:07:31.703507  5211 net.cpp:190] Creating Layer Eltwise18_ReLU37_0_split
I0612 11:07:31.703512  5211 net.cpp:615] Eltwise18_ReLU37_0_split <- Eltwise18
I0612 11:07:31.703519  5211 net.cpp:589] Eltwise18_ReLU37_0_split -> Eltwise18_ReLU37_0_split_0
I0612 11:07:31.703531  5211 net.cpp:589] Eltwise18_ReLU37_0_split -> Eltwise18_ReLU37_0_split_1
I0612 11:07:31.703577  5211 net.cpp:240] Setting up Eltwise18_ReLU37_0_split
I0612 11:07:31.703585  5211 net.cpp:247] Top shape: 128 16 32 32 (2097152)
I0612 11:07:31.703591  5211 net.cpp:247] Top shape: 128 16 32 32 (2097152)
I0612 11:07:31.703595  5211 net.cpp:255] Memory required for data: 1712849408
I0612 11:07:31.703600  5211 layer_factory.hpp:77] Creating layer Pooling1
I0612 11:07:31.703611  5211 net.cpp:190] Creating Layer Pooling1
I0612 11:07:31.703618  5211 net.cpp:615] Pooling1 <- Eltwise18_ReLU37_0_split_0
I0612 11:07:31.703624  5211 net.cpp:589] Pooling1 -> Pooling1
I0612 11:07:31.703667  5211 net.cpp:240] Setting up Pooling1
I0612 11:07:31.703675  5211 net.cpp:247] Top shape: 128 16 16 16 (524288)
I0612 11:07:31.703680  5211 net.cpp:255] Memory required for data: 1714946560
I0612 11:07:31.703685  5211 layer_factory.hpp:77] Creating layer Input1
I0612 11:07:31.703694  5211 net.cpp:190] Creating Layer Input1
I0612 11:07:31.703704  5211 net.cpp:589] Input1 -> Input1
I0612 11:07:31.703744  5211 net.cpp:240] Setting up Input1
I0612 11:07:31.703753  5211 net.cpp:247] Top shape: 128 16 16 16 (524288)
I0612 11:07:31.703758  5211 net.cpp:255] Memory required for data: 1717043712
I0612 11:07:31.703763  5211 layer_factory.hpp:77] Creating layer Concat1
I0612 11:07:31.703770  5211 net.cpp:190] Creating Layer Concat1
I0612 11:07:31.703776  5211 net.cpp:615] Concat1 <- Pooling1
I0612 11:07:31.703783  5211 net.cpp:615] Concat1 <- Input1
I0612 11:07:31.703790  5211 net.cpp:589] Concat1 -> Concat1
I0612 11:07:31.703826  5211 net.cpp:240] Setting up Concat1
I0612 11:07:31.703835  5211 net.cpp:247] Top shape: 128 32 16 16 (1048576)
I0612 11:07:31.703841  5211 net.cpp:255] Memory required for data: 1721238016
I0612 11:07:31.703846  5211 layer_factory.hpp:77] Creating layer Convolution38
I0612 11:07:31.703857  5211 net.cpp:190] Creating Layer Convolution38
I0612 11:07:31.703863  5211 net.cpp:615] Convolution38 <- Eltwise18_ReLU37_0_split_1
I0612 11:07:31.703874  5211 net.cpp:589] Convolution38 -> Convolution38
I0612 11:07:31.705101  5211 net.cpp:240] Setting up Convolution38
I0612 11:07:31.705118  5211 net.cpp:247] Top shape: 128 32 16 16 (1048576)
I0612 11:07:31.705124  5211 net.cpp:255] Memory required for data: 1725432320
I0612 11:07:31.705137  5211 layer_factory.hpp:77] Creating layer BatchNorm38
I0612 11:07:31.705149  5211 net.cpp:190] Creating Layer BatchNorm38
I0612 11:07:31.705157  5211 net.cpp:615] BatchNorm38 <- Convolution38
I0612 11:07:31.705164  5211 net.cpp:576] BatchNorm38 -> Convolution38 (in-place)
I0612 11:07:31.705413  5211 net.cpp:240] Setting up BatchNorm38
I0612 11:07:31.705422  5211 net.cpp:247] Top shape: 128 32 16 16 (1048576)
I0612 11:07:31.705427  5211 net.cpp:255] Memory required for data: 1729626624
I0612 11:07:31.705441  5211 layer_factory.hpp:77] Creating layer Scale38
I0612 11:07:31.705453  5211 net.cpp:190] Creating Layer Scale38
I0612 11:07:31.705459  5211 net.cpp:615] Scale38 <- Convolution38
I0612 11:07:31.705466  5211 net.cpp:576] Scale38 -> Convolution38 (in-place)
I0612 11:07:31.705514  5211 layer_factory.hpp:77] Creating layer Scale38
I0612 11:07:31.705665  5211 net.cpp:240] Setting up Scale38
I0612 11:07:31.705680  5211 net.cpp:247] Top shape: 128 32 16 16 (1048576)
I0612 11:07:31.705685  5211 net.cpp:255] Memory required for data: 1733820928
I0612 11:07:31.705698  5211 layer_factory.hpp:77] Creating layer ReLU38
I0612 11:07:31.705708  5211 net.cpp:190] Creating Layer ReLU38
I0612 11:07:31.705714  5211 net.cpp:615] ReLU38 <- Convolution38
I0612 11:07:31.705721  5211 net.cpp:576] ReLU38 -> Convolution38 (in-place)
I0612 11:07:31.705730  5211 net.cpp:240] Setting up ReLU38
I0612 11:07:31.705737  5211 net.cpp:247] Top shape: 128 32 16 16 (1048576)
I0612 11:07:31.705742  5211 net.cpp:255] Memory required for data: 1738015232
I0612 11:07:31.705747  5211 layer_factory.hpp:77] Creating layer Convolution39
I0612 11:07:31.705761  5211 net.cpp:190] Creating Layer Convolution39
I0612 11:07:31.705766  5211 net.cpp:615] Convolution39 <- Convolution38
I0612 11:07:31.705775  5211 net.cpp:589] Convolution39 -> Convolution39
I0612 11:07:31.706734  5211 net.cpp:240] Setting up Convolution39
I0612 11:07:31.706775  5211 net.cpp:247] Top shape: 128 32 16 16 (1048576)
I0612 11:07:31.706784  5211 net.cpp:255] Memory required for data: 1742209536
I0612 11:07:31.706806  5211 layer_factory.hpp:77] Creating layer BatchNorm39
I0612 11:07:31.706827  5211 net.cpp:190] Creating Layer BatchNorm39
I0612 11:07:31.706837  5211 net.cpp:615] BatchNorm39 <- Convolution39
I0612 11:07:31.706851  5211 net.cpp:576] BatchNorm39 -> Convolution39 (in-place)
I0612 11:07:31.707211  5211 net.cpp:240] Setting up BatchNorm39
I0612 11:07:31.707226  5211 net.cpp:247] Top shape: 128 32 16 16 (1048576)
I0612 11:07:31.707232  5211 net.cpp:255] Memory required for data: 1746403840
I0612 11:07:31.707260  5211 layer_factory.hpp:77] Creating layer Scale39
I0612 11:07:31.707274  5211 net.cpp:190] Creating Layer Scale39
I0612 11:07:31.707283  5211 net.cpp:615] Scale39 <- Convolution39
I0612 11:07:31.707293  5211 net.cpp:576] Scale39 -> Convolution39 (in-place)
I0612 11:07:31.707360  5211 layer_factory.hpp:77] Creating layer Scale39
I0612 11:07:31.707569  5211 net.cpp:240] Setting up Scale39
I0612 11:07:31.707581  5211 net.cpp:247] Top shape: 128 32 16 16 (1048576)
I0612 11:07:31.707588  5211 net.cpp:255] Memory required for data: 1750598144
I0612 11:07:31.707604  5211 layer_factory.hpp:77] Creating layer Eltwise19
I0612 11:07:31.707622  5211 net.cpp:190] Creating Layer Eltwise19
I0612 11:07:31.707629  5211 net.cpp:615] Eltwise19 <- Concat1
I0612 11:07:31.707639  5211 net.cpp:615] Eltwise19 <- Convolution39
I0612 11:07:31.707655  5211 net.cpp:589] Eltwise19 -> Eltwise19
I0612 11:07:31.707690  5211 net.cpp:240] Setting up Eltwise19
I0612 11:07:31.707701  5211 net.cpp:247] Top shape: 128 32 16 16 (1048576)
I0612 11:07:31.707708  5211 net.cpp:255] Memory required for data: 1754792448
I0612 11:07:31.707715  5211 layer_factory.hpp:77] Creating layer ReLU39
I0612 11:07:31.707726  5211 net.cpp:190] Creating Layer ReLU39
I0612 11:07:31.707733  5211 net.cpp:615] ReLU39 <- Eltwise19
I0612 11:07:31.707746  5211 net.cpp:576] ReLU39 -> Eltwise19 (in-place)
I0612 11:07:31.707759  5211 net.cpp:240] Setting up ReLU39
I0612 11:07:31.707768  5211 net.cpp:247] Top shape: 128 32 16 16 (1048576)
I0612 11:07:31.707775  5211 net.cpp:255] Memory required for data: 1758986752
I0612 11:07:31.707782  5211 layer_factory.hpp:77] Creating layer Eltwise19_ReLU39_0_split
I0612 11:07:31.707792  5211 net.cpp:190] Creating Layer Eltwise19_ReLU39_0_split
I0612 11:07:31.707799  5211 net.cpp:615] Eltwise19_ReLU39_0_split <- Eltwise19
I0612 11:07:31.707809  5211 net.cpp:589] Eltwise19_ReLU39_0_split -> Eltwise19_ReLU39_0_split_0
I0612 11:07:31.707821  5211 net.cpp:589] Eltwise19_ReLU39_0_split -> Eltwise19_ReLU39_0_split_1
I0612 11:07:31.707886  5211 net.cpp:240] Setting up Eltwise19_ReLU39_0_split
I0612 11:07:31.707897  5211 net.cpp:247] Top shape: 128 32 16 16 (1048576)
I0612 11:07:31.707906  5211 net.cpp:247] Top shape: 128 32 16 16 (1048576)
I0612 11:07:31.707913  5211 net.cpp:255] Memory required for data: 1767375360
I0612 11:07:31.707919  5211 layer_factory.hpp:77] Creating layer Convolution40
I0612 11:07:31.707944  5211 net.cpp:190] Creating Layer Convolution40
I0612 11:07:31.707952  5211 net.cpp:615] Convolution40 <- Eltwise19_ReLU39_0_split_0
I0612 11:07:31.707968  5211 net.cpp:589] Convolution40 -> Convolution40
I0612 11:07:31.709034  5211 net.cpp:240] Setting up Convolution40
I0612 11:07:31.709049  5211 net.cpp:247] Top shape: 128 32 16 16 (1048576)
I0612 11:07:31.709056  5211 net.cpp:255] Memory required for data: 1771569664
I0612 11:07:31.709074  5211 layer_factory.hpp:77] Creating layer BatchNorm40
I0612 11:07:31.709085  5211 net.cpp:190] Creating Layer BatchNorm40
I0612 11:07:31.709094  5211 net.cpp:615] BatchNorm40 <- Convolution40
I0612 11:07:31.709106  5211 net.cpp:576] BatchNorm40 -> Convolution40 (in-place)
I0612 11:07:31.709450  5211 net.cpp:240] Setting up BatchNorm40
I0612 11:07:31.709463  5211 net.cpp:247] Top shape: 128 32 16 16 (1048576)
I0612 11:07:31.709470  5211 net.cpp:255] Memory required for data: 1775763968
I0612 11:07:31.709491  5211 layer_factory.hpp:77] Creating layer Scale40
I0612 11:07:31.709502  5211 net.cpp:190] Creating Layer Scale40
I0612 11:07:31.709509  5211 net.cpp:615] Scale40 <- Convolution40
I0612 11:07:31.709519  5211 net.cpp:576] Scale40 -> Convolution40 (in-place)
I0612 11:07:31.709581  5211 layer_factory.hpp:77] Creating layer Scale40
I0612 11:07:31.709782  5211 net.cpp:240] Setting up Scale40
I0612 11:07:31.709795  5211 net.cpp:247] Top shape: 128 32 16 16 (1048576)
I0612 11:07:31.709801  5211 net.cpp:255] Memory required for data: 1779958272
I0612 11:07:31.709816  5211 layer_factory.hpp:77] Creating layer ReLU40
I0612 11:07:31.709830  5211 net.cpp:190] Creating Layer ReLU40
I0612 11:07:31.709838  5211 net.cpp:615] ReLU40 <- Convolution40
I0612 11:07:31.709848  5211 net.cpp:576] ReLU40 -> Convolution40 (in-place)
I0612 11:07:31.709859  5211 net.cpp:240] Setting up ReLU40
I0612 11:07:31.709869  5211 net.cpp:247] Top shape: 128 32 16 16 (1048576)
I0612 11:07:31.709875  5211 net.cpp:255] Memory required for data: 1784152576
I0612 11:07:31.709882  5211 layer_factory.hpp:77] Creating layer Convolution41
I0612 11:07:31.709902  5211 net.cpp:190] Creating Layer Convolution41
I0612 11:07:31.709909  5211 net.cpp:615] Convolution41 <- Convolution40
I0612 11:07:31.709920  5211 net.cpp:589] Convolution41 -> Convolution41
I0612 11:07:31.711005  5211 net.cpp:240] Setting up Convolution41
I0612 11:07:31.711024  5211 net.cpp:247] Top shape: 128 32 16 16 (1048576)
I0612 11:07:31.711030  5211 net.cpp:255] Memory required for data: 1788346880
I0612 11:07:31.711047  5211 layer_factory.hpp:77] Creating layer BatchNorm41
I0612 11:07:31.711063  5211 net.cpp:190] Creating Layer BatchNorm41
I0612 11:07:31.711072  5211 net.cpp:615] BatchNorm41 <- Convolution41
I0612 11:07:31.711083  5211 net.cpp:576] BatchNorm41 -> Convolution41 (in-place)
I0612 11:07:31.711590  5211 net.cpp:240] Setting up BatchNorm41
I0612 11:07:31.711611  5211 net.cpp:247] Top shape: 128 32 16 16 (1048576)
I0612 11:07:31.711618  5211 net.cpp:255] Memory required for data: 1792541184
I0612 11:07:31.711642  5211 layer_factory.hpp:77] Creating layer Scale41
I0612 11:07:31.711655  5211 net.cpp:190] Creating Layer Scale41
I0612 11:07:31.711663  5211 net.cpp:615] Scale41 <- Convolution41
I0612 11:07:31.711678  5211 net.cpp:576] Scale41 -> Convolution41 (in-place)
I0612 11:07:31.711745  5211 layer_factory.hpp:77] Creating layer Scale41
I0612 11:07:31.711961  5211 net.cpp:240] Setting up Scale41
I0612 11:07:31.711976  5211 net.cpp:247] Top shape: 128 32 16 16 (1048576)
I0612 11:07:31.711982  5211 net.cpp:255] Memory required for data: 1796735488
I0612 11:07:31.711999  5211 layer_factory.hpp:77] Creating layer Eltwise20
I0612 11:07:31.712015  5211 net.cpp:190] Creating Layer Eltwise20
I0612 11:07:31.712024  5211 net.cpp:615] Eltwise20 <- Eltwise19_ReLU39_0_split_1
I0612 11:07:31.712035  5211 net.cpp:615] Eltwise20 <- Convolution41
I0612 11:07:31.712046  5211 net.cpp:589] Eltwise20 -> Eltwise20
I0612 11:07:31.712086  5211 net.cpp:240] Setting up Eltwise20
I0612 11:07:31.712100  5211 net.cpp:247] Top shape: 128 32 16 16 (1048576)
I0612 11:07:31.712112  5211 net.cpp:255] Memory required for data: 1800929792
I0612 11:07:31.712121  5211 layer_factory.hpp:77] Creating layer ReLU41
I0612 11:07:31.712131  5211 net.cpp:190] Creating Layer ReLU41
I0612 11:07:31.712139  5211 net.cpp:615] ReLU41 <- Eltwise20
I0612 11:07:31.712157  5211 net.cpp:576] ReLU41 -> Eltwise20 (in-place)
I0612 11:07:31.712170  5211 net.cpp:240] Setting up ReLU41
I0612 11:07:31.712182  5211 net.cpp:247] Top shape: 128 32 16 16 (1048576)
I0612 11:07:31.712188  5211 net.cpp:255] Memory required for data: 1805124096
I0612 11:07:31.712195  5211 layer_factory.hpp:77] Creating layer Eltwise20_ReLU41_0_split
I0612 11:07:31.712205  5211 net.cpp:190] Creating Layer Eltwise20_ReLU41_0_split
I0612 11:07:31.712213  5211 net.cpp:615] Eltwise20_ReLU41_0_split <- Eltwise20
I0612 11:07:31.712224  5211 net.cpp:589] Eltwise20_ReLU41_0_split -> Eltwise20_ReLU41_0_split_0
I0612 11:07:31.712237  5211 net.cpp:589] Eltwise20_ReLU41_0_split -> Eltwise20_ReLU41_0_split_1
I0612 11:07:31.712308  5211 net.cpp:240] Setting up Eltwise20_ReLU41_0_split
I0612 11:07:31.712321  5211 net.cpp:247] Top shape: 128 32 16 16 (1048576)
I0612 11:07:31.712329  5211 net.cpp:247] Top shape: 128 32 16 16 (1048576)
I0612 11:07:31.712337  5211 net.cpp:255] Memory required for data: 1813512704
I0612 11:07:31.712343  5211 layer_factory.hpp:77] Creating layer Convolution42
I0612 11:07:31.712375  5211 net.cpp:190] Creating Layer Convolution42
I0612 11:07:31.712384  5211 net.cpp:615] Convolution42 <- Eltwise20_ReLU41_0_split_0
I0612 11:07:31.712398  5211 net.cpp:589] Convolution42 -> Convolution42
I0612 11:07:31.713536  5211 net.cpp:240] Setting up Convolution42
I0612 11:07:31.713551  5211 net.cpp:247] Top shape: 128 32 16 16 (1048576)
I0612 11:07:31.713558  5211 net.cpp:255] Memory required for data: 1817707008
I0612 11:07:31.713577  5211 layer_factory.hpp:77] Creating layer BatchNorm42
I0612 11:07:31.713593  5211 net.cpp:190] Creating Layer BatchNorm42
I0612 11:07:31.713601  5211 net.cpp:615] BatchNorm42 <- Convolution42
I0612 11:07:31.713615  5211 net.cpp:576] BatchNorm42 -> Convolution42 (in-place)
I0612 11:07:31.713976  5211 net.cpp:240] Setting up BatchNorm42
I0612 11:07:31.713990  5211 net.cpp:247] Top shape: 128 32 16 16 (1048576)
I0612 11:07:31.713997  5211 net.cpp:255] Memory required for data: 1821901312
I0612 11:07:31.714018  5211 layer_factory.hpp:77] Creating layer Scale42
I0612 11:07:31.714035  5211 net.cpp:190] Creating Layer Scale42
I0612 11:07:31.714043  5211 net.cpp:615] Scale42 <- Convolution42
I0612 11:07:31.714053  5211 net.cpp:576] Scale42 -> Convolution42 (in-place)
I0612 11:07:31.714115  5211 layer_factory.hpp:77] Creating layer Scale42
I0612 11:07:31.714332  5211 net.cpp:240] Setting up Scale42
I0612 11:07:31.714346  5211 net.cpp:247] Top shape: 128 32 16 16 (1048576)
I0612 11:07:31.714364  5211 net.cpp:255] Memory required for data: 1826095616
I0612 11:07:31.714381  5211 layer_factory.hpp:77] Creating layer ReLU42
I0612 11:07:31.714393  5211 net.cpp:190] Creating Layer ReLU42
I0612 11:07:31.714402  5211 net.cpp:615] ReLU42 <- Convolution42
I0612 11:07:31.714416  5211 net.cpp:576] ReLU42 -> Convolution42 (in-place)
I0612 11:07:31.714431  5211 net.cpp:240] Setting up ReLU42
I0612 11:07:31.714440  5211 net.cpp:247] Top shape: 128 32 16 16 (1048576)
I0612 11:07:31.714447  5211 net.cpp:255] Memory required for data: 1830289920
I0612 11:07:31.714454  5211 layer_factory.hpp:77] Creating layer Convolution43
I0612 11:07:31.714475  5211 net.cpp:190] Creating Layer Convolution43
I0612 11:07:31.714483  5211 net.cpp:615] Convolution43 <- Convolution42
I0612 11:07:31.714495  5211 net.cpp:589] Convolution43 -> Convolution43
I0612 11:07:31.715618  5211 net.cpp:240] Setting up Convolution43
I0612 11:07:31.715634  5211 net.cpp:247] Top shape: 128 32 16 16 (1048576)
I0612 11:07:31.715641  5211 net.cpp:255] Memory required for data: 1834484224
I0612 11:07:31.715658  5211 layer_factory.hpp:77] Creating layer BatchNorm43
I0612 11:07:31.715674  5211 net.cpp:190] Creating Layer BatchNorm43
I0612 11:07:31.715683  5211 net.cpp:615] BatchNorm43 <- Convolution43
I0612 11:07:31.715699  5211 net.cpp:576] BatchNorm43 -> Convolution43 (in-place)
I0612 11:07:31.716068  5211 net.cpp:240] Setting up BatchNorm43
I0612 11:07:31.716083  5211 net.cpp:247] Top shape: 128 32 16 16 (1048576)
I0612 11:07:31.716090  5211 net.cpp:255] Memory required for data: 1838678528
I0612 11:07:31.716110  5211 layer_factory.hpp:77] Creating layer Scale43
I0612 11:07:31.716127  5211 net.cpp:190] Creating Layer Scale43
I0612 11:07:31.716135  5211 net.cpp:615] Scale43 <- Convolution43
I0612 11:07:31.716146  5211 net.cpp:576] Scale43 -> Convolution43 (in-place)
I0612 11:07:31.716212  5211 layer_factory.hpp:77] Creating layer Scale43
I0612 11:07:31.716430  5211 net.cpp:240] Setting up Scale43
I0612 11:07:31.716444  5211 net.cpp:247] Top shape: 128 32 16 16 (1048576)
I0612 11:07:31.716450  5211 net.cpp:255] Memory required for data: 1842872832
I0612 11:07:31.716467  5211 layer_factory.hpp:77] Creating layer Eltwise21
I0612 11:07:31.716486  5211 net.cpp:190] Creating Layer Eltwise21
I0612 11:07:31.716496  5211 net.cpp:615] Eltwise21 <- Eltwise20_ReLU41_0_split_1
I0612 11:07:31.716506  5211 net.cpp:615] Eltwise21 <- Convolution43
I0612 11:07:31.716518  5211 net.cpp:589] Eltwise21 -> Eltwise21
I0612 11:07:31.716557  5211 net.cpp:240] Setting up Eltwise21
I0612 11:07:31.716570  5211 net.cpp:247] Top shape: 128 32 16 16 (1048576)
I0612 11:07:31.716576  5211 net.cpp:255] Memory required for data: 1847067136
I0612 11:07:31.716584  5211 layer_factory.hpp:77] Creating layer ReLU43
I0612 11:07:31.716595  5211 net.cpp:190] Creating Layer ReLU43
I0612 11:07:31.716603  5211 net.cpp:615] ReLU43 <- Eltwise21
I0612 11:07:31.716612  5211 net.cpp:576] ReLU43 -> Eltwise21 (in-place)
I0612 11:07:31.716625  5211 net.cpp:240] Setting up ReLU43
I0612 11:07:31.716635  5211 net.cpp:247] Top shape: 128 32 16 16 (1048576)
I0612 11:07:31.716642  5211 net.cpp:255] Memory required for data: 1851261440
I0612 11:07:31.716650  5211 layer_factory.hpp:77] Creating layer Eltwise21_ReLU43_0_split
I0612 11:07:31.716665  5211 net.cpp:190] Creating Layer Eltwise21_ReLU43_0_split
I0612 11:07:31.716673  5211 net.cpp:615] Eltwise21_ReLU43_0_split <- Eltwise21
I0612 11:07:31.716684  5211 net.cpp:589] Eltwise21_ReLU43_0_split -> Eltwise21_ReLU43_0_split_0
I0612 11:07:31.716698  5211 net.cpp:589] Eltwise21_ReLU43_0_split -> Eltwise21_ReLU43_0_split_1
I0612 11:07:31.716768  5211 net.cpp:240] Setting up Eltwise21_ReLU43_0_split
I0612 11:07:31.716778  5211 net.cpp:247] Top shape: 128 32 16 16 (1048576)
I0612 11:07:31.716789  5211 net.cpp:247] Top shape: 128 32 16 16 (1048576)
I0612 11:07:31.716795  5211 net.cpp:255] Memory required for data: 1859650048
I0612 11:07:31.716802  5211 layer_factory.hpp:77] Creating layer Convolution44
I0612 11:07:31.716820  5211 net.cpp:190] Creating Layer Convolution44
I0612 11:07:31.716827  5211 net.cpp:615] Convolution44 <- Eltwise21_ReLU43_0_split_0
I0612 11:07:31.716840  5211 net.cpp:589] Convolution44 -> Convolution44
…
I0612 11:07:32.145220  5211 net.cpp:576] BatchNorm92 -> Convolution92 (in-place)
I0612 11:07:32.145481  5211 net.cpp:240] Setting up BatchNorm92
I0612 11:07:32.145490  5211 net.cpp:247] Top shape: 128 64 8 8 (524288)
I0612 11:07:32.145494  5211 net.cpp:255] Memory required for data: 2767717888
I0612 11:07:32.145509  5211 layer_factory.hpp:77] Creating layer Scale92
I0612 11:07:32.145516  5211 net.cpp:190] Creating Layer Scale92
I0612 11:07:32.145521  5211 net.cpp:615] Scale92 <- Convolution92
I0612 11:07:32.145527  5211 net.cpp:576] Scale92 -> Convolution92 (in-place)
I0612 11:07:32.145576  5211 layer_factory.hpp:77] Creating layer Scale92
I0612 11:07:32.145725  5211 net.cpp:240] Setting up Scale92
I0612 11:07:32.145733  5211 net.cpp:247] Top shape: 128 64 8 8 (524288)
I0612 11:07:32.145737  5211 net.cpp:255] Memory required for data: 2769815040
I0612 11:07:32.145750  5211 layer_factory.hpp:77] Creating layer ReLU92
I0612 11:07:32.145758  5211 net.cpp:190] Creating Layer ReLU92
I0612 11:07:32.145763  5211 net.cpp:615] ReLU92 <- Convolution92
I0612 11:07:32.145769  5211 net.cpp:576] ReLU92 -> Convolution92 (in-place)
I0612 11:07:32.145777  5211 net.cpp:240] Setting up ReLU92
I0612 11:07:32.145783  5211 net.cpp:247] Top shape: 128 64 8 8 (524288)
I0612 11:07:32.145787  5211 net.cpp:255] Memory required for data: 2771912192
I0612 11:07:32.145792  5211 layer_factory.hpp:77] Creating layer Convolution93
I0612 11:07:32.145804  5211 net.cpp:190] Creating Layer Convolution93
I0612 11:07:32.145809  5211 net.cpp:615] Convolution93 <- Convolution92
I0612 11:07:32.145818  5211 net.cpp:589] Convolution93 -> Convolution93
I0612 11:07:32.147698  5211 net.cpp:240] Setting up Convolution93
I0612 11:07:32.147708  5211 net.cpp:247] Top shape: 128 64 8 8 (524288)
I0612 11:07:32.147712  5211 net.cpp:255] Memory required for data: 2774009344
I0612 11:07:32.147723  5211 layer_factory.hpp:77] Creating layer BatchNorm93
I0612 11:07:32.147732  5211 net.cpp:190] Creating Layer BatchNorm93
I0612 11:07:32.147738  5211 net.cpp:615] BatchNorm93 <- Convolution93
I0612 11:07:32.147749  5211 net.cpp:576] BatchNorm93 -> Convolution93 (in-place)
I0612 11:07:32.147990  5211 net.cpp:240] Setting up BatchNorm93
I0612 11:07:32.147999  5211 net.cpp:247] Top shape: 128 64 8 8 (524288)
I0612 11:07:32.148002  5211 net.cpp:255] Memory required for data: 2776106496
I0612 11:07:32.148015  5211 layer_factory.hpp:77] Creating layer Scale93
I0612 11:07:32.148025  5211 net.cpp:190] Creating Layer Scale93
I0612 11:07:32.148030  5211 net.cpp:615] Scale93 <- Convolution93
I0612 11:07:32.148036  5211 net.cpp:576] Scale93 -> Convolution93 (in-place)
I0612 11:07:32.148079  5211 layer_factory.hpp:77] Creating layer Scale93
I0612 11:07:32.148227  5211 net.cpp:240] Setting up Scale93
I0612 11:07:32.148236  5211 net.cpp:247] Top shape: 128 64 8 8 (524288)
I0612 11:07:32.148239  5211 net.cpp:255] Memory required for data: 2778203648
I0612 11:07:32.148255  5211 layer_factory.hpp:77] Creating layer Eltwise46
I0612 11:07:32.148263  5211 net.cpp:190] Creating Layer Eltwise46
I0612 11:07:32.148269  5211 net.cpp:615] Eltwise46 <- Eltwise45_ReLU91_0_split_1
I0612 11:07:32.148275  5211 net.cpp:615] Eltwise46 <- Convolution93
I0612 11:07:32.148283  5211 net.cpp:589] Eltwise46 -> Eltwise46
I0612 11:07:32.148306  5211 net.cpp:240] Setting up Eltwise46
I0612 11:07:32.148314  5211 net.cpp:247] Top shape: 128 64 8 8 (524288)
I0612 11:07:32.148319  5211 net.cpp:255] Memory required for data: 2780300800
I0612 11:07:32.148322  5211 layer_factory.hpp:77] Creating layer ReLU93
I0612 11:07:32.148329  5211 net.cpp:190] Creating Layer ReLU93
I0612 11:07:32.148334  5211 net.cpp:615] ReLU93 <- Eltwise46
I0612 11:07:32.148341  5211 net.cpp:576] ReLU93 -> Eltwise46 (in-place)
I0612 11:07:32.148350  5211 net.cpp:240] Setting up ReLU93
I0612 11:07:32.148355  5211 net.cpp:247] Top shape: 128 64 8 8 (524288)
I0612 11:07:32.148360  5211 net.cpp:255] Memory required for data: 2782397952
I0612 11:07:32.148363  5211 layer_factory.hpp:77] Creating layer Eltwise46_ReLU93_0_split
I0612 11:07:32.148370  5211 net.cpp:190] Creating Layer Eltwise46_ReLU93_0_split
I0612 11:07:32.148373  5211 net.cpp:615] Eltwise46_ReLU93_0_split <- Eltwise46
I0612 11:07:32.148380  5211 net.cpp:589] Eltwise46_ReLU93_0_split -> Eltwise46_ReLU93_0_split_0
I0612 11:07:32.148388  5211 net.cpp:589] Eltwise46_ReLU93_0_split -> Eltwise46_ReLU93_0_split_1
I0612 11:07:32.148432  5211 net.cpp:240] Setting up Eltwise46_ReLU93_0_split
I0612 11:07:32.148438  5211 net.cpp:247] Top shape: 128 64 8 8 (524288)
I0612 11:07:32.148443  5211 net.cpp:247] Top shape: 128 64 8 8 (524288)
I0612 11:07:32.148447  5211 net.cpp:255] Memory required for data: 2786592256
I0612 11:07:32.148452  5211 layer_factory.hpp:77] Creating layer Convolution94
I0612 11:07:32.148461  5211 net.cpp:190] Creating Layer Convolution94
I0612 11:07:32.148466  5211 net.cpp:615] Convolution94 <- Eltwise46_ReLU93_0_split_0
I0612 11:07:32.148476  5211 net.cpp:589] Convolution94 -> Convolution94
I0612 11:07:32.153774  5211 net.cpp:240] Setting up Convolution94
I0612 11:07:32.153831  5211 net.cpp:247] Top shape: 128 64 8 8 (524288)
I0612 11:07:32.153836  5211 net.cpp:255] Memory required for data: 2788689408
I0612 11:07:32.153908  5211 layer_factory.hpp:77] Creating layer BatchNorm94
I0612 11:07:32.153964  5211 net.cpp:190] Creating Layer BatchNorm94
I0612 11:07:32.154044  5211 net.cpp:615] BatchNorm94 <- Convolution94
I0612 11:07:32.154063  5211 net.cpp:576] BatchNorm94 -> Convolution94 (in-place)
I0612 11:07:32.154323  5211 net.cpp:240] Setting up BatchNorm94
I0612 11:07:32.154332  5211 net.cpp:247] Top shape: 128 64 8 8 (524288)
I0612 11:07:32.154336  5211 net.cpp:255] Memory required for data: 2790786560
I0612 11:07:32.154362  5211 layer_factory.hpp:77] Creating layer Scale94
I0612 11:07:32.154372  5211 net.cpp:190] Creating Layer Scale94
I0612 11:07:32.154377  5211 net.cpp:615] Scale94 <- Convolution94
I0612 11:07:32.154384  5211 net.cpp:576] Scale94 -> Convolution94 (in-place)
I0612 11:07:32.154433  5211 layer_factory.hpp:77] Creating layer Scale94
I0612 11:07:32.154583  5211 net.cpp:240] Setting up Scale94
I0612 11:07:32.154592  5211 net.cpp:247] Top shape: 128 64 8 8 (524288)
I0612 11:07:32.154599  5211 net.cpp:255] Memory required for data: 2792883712
I0612 11:07:32.154610  5211 layer_factory.hpp:77] Creating layer ReLU94
I0612 11:07:32.154631  5211 net.cpp:190] Creating Layer ReLU94
I0612 11:07:32.154636  5211 net.cpp:615] ReLU94 <- Convolution94
I0612 11:07:32.154645  5211 net.cpp:576] ReLU94 -> Convolution94 (in-place)
I0612 11:07:32.154654  5211 net.cpp:240] Setting up ReLU94
I0612 11:07:32.154660  5211 net.cpp:247] Top shape: 128 64 8 8 (524288)
I0612 11:07:32.154664  5211 net.cpp:255] Memory required for data: 2794980864
I0612 11:07:32.154669  5211 layer_factory.hpp:77] Creating layer Convolution95
I0612 11:07:32.154690  5211 net.cpp:190] Creating Layer Convolution95
I0612 11:07:32.154695  5211 net.cpp:615] Convolution95 <- Convolution94
I0612 11:07:32.154703  5211 net.cpp:589] Convolution95 -> Convolution95
I0612 11:07:32.156636  5211 net.cpp:240] Setting up Convolution95
I0612 11:07:32.156647  5211 net.cpp:247] Top shape: 128 64 8 8 (524288)
I0612 11:07:32.156651  5211 net.cpp:255] Memory required for data: 2797078016
I0612 11:07:32.156662  5211 layer_factory.hpp:77] Creating layer BatchNorm95
I0612 11:07:32.156680  5211 net.cpp:190] Creating Layer BatchNorm95
I0612 11:07:32.156687  5211 net.cpp:615] BatchNorm95 <- Convolution95
I0612 11:07:32.156695  5211 net.cpp:576] BatchNorm95 -> Convolution95 (in-place)
I0612 11:07:32.156944  5211 net.cpp:240] Setting up BatchNorm95
I0612 11:07:32.156952  5211 net.cpp:247] Top shape: 128 64 8 8 (524288)
I0612 11:07:32.156956  5211 net.cpp:255] Memory required for data: 2799175168
I0612 11:07:32.156973  5211 layer_factory.hpp:77] Creating layer Scale95
I0612 11:07:32.156983  5211 net.cpp:190] Creating Layer Scale95
I0612 11:07:32.156990  5211 net.cpp:615] Scale95 <- Convolution95
I0612 11:07:32.156996  5211 net.cpp:576] Scale95 -> Convolution95 (in-place)
I0612 11:07:32.157038  5211 layer_factory.hpp:77] Creating layer Scale95
I0612 11:07:32.157187  5211 net.cpp:240] Setting up Scale95
I0612 11:07:32.157196  5211 net.cpp:247] Top shape: 128 64 8 8 (524288)
I0612 11:07:32.157199  5211 net.cpp:255] Memory required for data: 2801272320
I0612 11:07:32.157209  5211 layer_factory.hpp:77] Creating layer Eltwise47
I0612 11:07:32.157228  5211 net.cpp:190] Creating Layer Eltwise47
I0612 11:07:32.157271  5211 net.cpp:615] Eltwise47 <- Eltwise46_ReLU93_0_split_1
I0612 11:07:32.157281  5211 net.cpp:615] Eltwise47 <- Convolution95
I0612 11:07:32.157289  5211 net.cpp:589] Eltwise47 -> Eltwise47
I0612 11:07:32.157315  5211 net.cpp:240] Setting up Eltwise47
I0612 11:07:32.157325  5211 net.cpp:247] Top shape: 128 64 8 8 (524288)
I0612 11:07:32.157328  5211 net.cpp:255] Memory required for data: 2803369472
I0612 11:07:32.157332  5211 layer_factory.hpp:77] Creating layer ReLU95
I0612 11:07:32.157344  5211 net.cpp:190] Creating Layer ReLU95
I0612 11:07:32.157349  5211 net.cpp:615] ReLU95 <- Eltwise47
I0612 11:07:32.157356  5211 net.cpp:576] ReLU95 -> Eltwise47 (in-place)
I0612 11:07:32.157362  5211 net.cpp:240] Setting up ReLU95
I0612 11:07:32.157368  5211 net.cpp:247] Top shape: 128 64 8 8 (524288)
I0612 11:07:32.157372  5211 net.cpp:255] Memory required for data: 2805466624
I0612 11:07:32.157377  5211 layer_factory.hpp:77] Creating layer Eltwise47_ReLU95_0_split
I0612 11:07:32.157383  5211 net.cpp:190] Creating Layer Eltwise47_ReLU95_0_split
I0612 11:07:32.157387  5211 net.cpp:615] Eltwise47_ReLU95_0_split <- Eltwise47
I0612 11:07:32.157395  5211 net.cpp:589] Eltwise47_ReLU95_0_split -> Eltwise47_ReLU95_0_split_0
I0612 11:07:32.157413  5211 net.cpp:589] Eltwise47_ReLU95_0_split -> Eltwise47_ReLU95_0_split_1
I0612 11:07:32.157459  5211 net.cpp:240] Setting up Eltwise47_ReLU95_0_split
I0612 11:07:32.157469  5211 net.cpp:247] Top shape: 128 64 8 8 (524288)
I0612 11:07:32.157474  5211 net.cpp:247] Top shape: 128 64 8 8 (524288)
I0612 11:07:32.157479  5211 net.cpp:255] Memory required for data: 2809660928
I0612 11:07:32.157488  5211 layer_factory.hpp:77] Creating layer Convolution96
I0612 11:07:32.157503  5211 net.cpp:190] Creating Layer Convolution96
I0612 11:07:32.157511  5211 net.cpp:615] Convolution96 <- Eltwise47_ReLU95_0_split_0
I0612 11:07:32.157521  5211 net.cpp:589] Convolution96 -> Convolution96
I0612 11:07:32.159346  5211 net.cpp:240] Setting up Convolution96
I0612 11:07:32.159358  5211 net.cpp:247] Top shape: 128 64 8 8 (524288)
I0612 11:07:32.159361  5211 net.cpp:255] Memory required for data: 2811758080
I0612 11:07:32.159374  5211 layer_factory.hpp:77] Creating layer BatchNorm96
I0612 11:07:32.159394  5211 net.cpp:190] Creating Layer BatchNorm96
I0612 11:07:32.159400  5211 net.cpp:615] BatchNorm96 <- Convolution96
I0612 11:07:32.159406  5211 net.cpp:576] BatchNorm96 -> Convolution96 (in-place)
I0612 11:07:32.159641  5211 net.cpp:240] Setting up BatchNorm96
I0612 11:07:32.159649  5211 net.cpp:247] Top shape: 128 64 8 8 (524288)
I0612 11:07:32.159653  5211 net.cpp:255] Memory required for data: 2813855232
I0612 11:07:32.159665  5211 layer_factory.hpp:77] Creating layer Scale96
I0612 11:07:32.159672  5211 net.cpp:190] Creating Layer Scale96
I0612 11:07:32.159677  5211 net.cpp:615] Scale96 <- Convolution96
I0612 11:07:32.159683  5211 net.cpp:576] Scale96 -> Convolution96 (in-place)
I0612 11:07:32.159729  5211 layer_factory.hpp:77] Creating layer Scale96
I0612 11:07:32.159871  5211 net.cpp:240] Setting up Scale96
I0612 11:07:32.159881  5211 net.cpp:247] Top shape: 128 64 8 8 (524288)
I0612 11:07:32.159885  5211 net.cpp:255] Memory required for data: 2815952384
I0612 11:07:32.159895  5211 layer_factory.hpp:77] Creating layer ReLU96
I0612 11:07:32.159910  5211 net.cpp:190] Creating Layer ReLU96
I0612 11:07:32.159915  5211 net.cpp:615] ReLU96 <- Convolution96
I0612 11:07:32.159921  5211 net.cpp:576] ReLU96 -> Convolution96 (in-place)
I0612 11:07:32.159929  5211 net.cpp:240] Setting up ReLU96
I0612 11:07:32.159934  5211 net.cpp:247] Top shape: 128 64 8 8 (524288)
I0612 11:07:32.159939  5211 net.cpp:255] Memory required for data: 2818049536
I0612 11:07:32.159942  5211 layer_factory.hpp:77] Creating layer Convolution97
I0612 11:07:32.159967  5211 net.cpp:190] Creating Layer Convolution97
I0612 11:07:32.159972  5211 net.cpp:615] Convolution97 <- Convolution96
I0612 11:07:32.159983  5211 net.cpp:589] Convolution97 -> Convolution97
I0612 11:07:32.161824  5211 net.cpp:240] Setting up Convolution97
I0612 11:07:32.161837  5211 net.cpp:247] Top shape: 128 64 8 8 (524288)
I0612 11:07:32.161842  5211 net.cpp:255] Memory required for data: 2820146688
I0612 11:07:32.161852  5211 layer_factory.hpp:77] Creating layer BatchNorm97
I0612 11:07:32.161872  5211 net.cpp:190] Creating Layer BatchNorm97
I0612 11:07:32.161878  5211 net.cpp:615] BatchNorm97 <- Convolution97
I0612 11:07:32.161886  5211 net.cpp:576] BatchNorm97 -> Convolution97 (in-place)
I0612 11:07:32.162127  5211 net.cpp:240] Setting up BatchNorm97
I0612 11:07:32.162135  5211 net.cpp:247] Top shape: 128 64 8 8 (524288)
I0612 11:07:32.162139  5211 net.cpp:255] Memory required for data: 2822243840
I0612 11:07:32.162153  5211 layer_factory.hpp:77] Creating layer Scale97
I0612 11:07:32.162161  5211 net.cpp:190] Creating Layer Scale97
I0612 11:07:32.162166  5211 net.cpp:615] Scale97 <- Convolution97
I0612 11:07:32.162173  5211 net.cpp:576] Scale97 -> Convolution97 (in-place)
I0612 11:07:32.162216  5211 layer_factory.hpp:77] Creating layer Scale97
I0612 11:07:32.162363  5211 net.cpp:240] Setting up Scale97
I0612 11:07:32.162371  5211 net.cpp:247] Top shape: 128 64 8 8 (524288)
I0612 11:07:32.162375  5211 net.cpp:255] Memory required for data: 2824340992
I0612 11:07:32.162386  5211 layer_factory.hpp:77] Creating layer Eltwise48
I0612 11:07:32.162405  5211 net.cpp:190] Creating Layer Eltwise48
I0612 11:07:32.162410  5211 net.cpp:615] Eltwise48 <- Eltwise47_ReLU95_0_split_1
I0612 11:07:32.162416  5211 net.cpp:615] Eltwise48 <- Convolution97
I0612 11:07:32.162425  5211 net.cpp:589] Eltwise48 -> Eltwise48
I0612 11:07:32.162454  5211 net.cpp:240] Setting up Eltwise48
I0612 11:07:32.162461  5211 net.cpp:247] Top shape: 128 64 8 8 (524288)
I0612 11:07:32.162466  5211 net.cpp:255] Memory required for data: 2826438144
I0612 11:07:32.162473  5211 layer_factory.hpp:77] Creating layer ReLU97
I0612 11:07:32.162487  5211 net.cpp:190] Creating Layer ReLU97
I0612 11:07:32.162492  5211 net.cpp:615] ReLU97 <- Eltwise48
I0612 11:07:32.162500  5211 net.cpp:576] ReLU97 -> Eltwise48 (in-place)
I0612 11:07:32.162508  5211 net.cpp:240] Setting up ReLU97
I0612 11:07:32.162513  5211 net.cpp:247] Top shape: 128 64 8 8 (524288)
I0612 11:07:32.162518  5211 net.cpp:255] Memory required for data: 2828535296
I0612 11:07:32.162521  5211 layer_factory.hpp:77] Creating layer Eltwise48_ReLU97_0_split
I0612 11:07:32.162531  5211 net.cpp:190] Creating Layer Eltwise48_ReLU97_0_split
I0612 11:07:32.162536  5211 net.cpp:615] Eltwise48_ReLU97_0_split <- Eltwise48
I0612 11:07:32.162542  5211 net.cpp:589] Eltwise48_ReLU97_0_split -> Eltwise48_ReLU97_0_split_0
I0612 11:07:32.162550  5211 net.cpp:589] Eltwise48_ReLU97_0_split -> Eltwise48_ReLU97_0_split_1
I0612 11:07:32.162595  5211 net.cpp:240] Setting up Eltwise48_ReLU97_0_split
I0612 11:07:32.162602  5211 net.cpp:247] Top shape: 128 64 8 8 (524288)
I0612 11:07:32.162607  5211 net.cpp:247] Top shape: 128 64 8 8 (524288)
I0612 11:07:32.162611  5211 net.cpp:255] Memory required for data: 2832729600
I0612 11:07:32.162616  5211 layer_factory.hpp:77] Creating layer Convolution98
I0612 11:07:32.162636  5211 net.cpp:190] Creating Layer Convolution98
I0612 11:07:32.162642  5211 net.cpp:615] Convolution98 <- Eltwise48_ReLU97_0_split_0
I0612 11:07:32.162650  5211 net.cpp:589] Convolution98 -> Convolution98
I0612 11:07:32.164410  5211 net.cpp:240] Setting up Convolution98
I0612 11:07:32.164419  5211 net.cpp:247] Top shape: 128 64 8 8 (524288)
I0612 11:07:32.164424  5211 net.cpp:255] Memory required for data: 2834826752
I0612 11:07:32.164433  5211 layer_factory.hpp:77] Creating layer BatchNorm98
I0612 11:07:32.164450  5211 net.cpp:190] Creating Layer BatchNorm98
I0612 11:07:32.164455  5211 net.cpp:615] BatchNorm98 <- Convolution98
I0612 11:07:32.164464  5211 net.cpp:576] BatchNorm98 -> Convolution98 (in-place)
I0612 11:07:32.164702  5211 net.cpp:240] Setting up BatchNorm98
I0612 11:07:32.164710  5211 net.cpp:247] Top shape: 128 64 8 8 (524288)
I0612 11:07:32.164715  5211 net.cpp:255] Memory required for data: 2836923904
I0612 11:07:32.164727  5211 layer_factory.hpp:77] Creating layer Scale98
I0612 11:07:32.164736  5211 net.cpp:190] Creating Layer Scale98
I0612 11:07:32.164741  5211 net.cpp:615] Scale98 <- Convolution98
I0612 11:07:32.164746  5211 net.cpp:576] Scale98 -> Convolution98 (in-place)
I0612 11:07:32.164788  5211 layer_factory.hpp:77] Creating layer Scale98
I0612 11:07:32.164929  5211 net.cpp:240] Setting up Scale98
I0612 11:07:32.164937  5211 net.cpp:247] Top shape: 128 64 8 8 (524288)
I0612 11:07:32.164940  5211 net.cpp:255] Memory required for data: 2839021056
I0612 11:07:32.164952  5211 layer_factory.hpp:77] Creating layer ReLU98
I0612 11:07:32.164958  5211 net.cpp:190] Creating Layer ReLU98
I0612 11:07:32.164963  5211 net.cpp:615] ReLU98 <- Convolution98
I0612 11:07:32.164970  5211 net.cpp:576] ReLU98 -> Convolution98 (in-place)
I0612 11:07:32.164978  5211 net.cpp:240] Setting up ReLU98
I0612 11:07:32.164984  5211 net.cpp:247] Top shape: 128 64 8 8 (524288)
I0612 11:07:32.164988  5211 net.cpp:255] Memory required for data: 2841118208
I0612 11:07:32.164993  5211 layer_factory.hpp:77] Creating layer Convolution99
I0612 11:07:32.165024  5211 net.cpp:190] Creating Layer Convolution99
I0612 11:07:32.165029  5211 net.cpp:615] Convolution99 <- Convolution98
I0612 11:07:32.165035  5211 net.cpp:589] Convolution99 -> Convolution99
I0612 11:07:32.166796  5211 net.cpp:240] Setting up Convolution99
I0612 11:07:32.166807  5211 net.cpp:247] Top shape: 128 64 8 8 (524288)
I0612 11:07:32.166811  5211 net.cpp:255] Memory required for data: 2843215360
I0612 11:07:32.166821  5211 layer_factory.hpp:77] Creating layer BatchNorm99
I0612 11:07:32.166836  5211 net.cpp:190] Creating Layer BatchNorm99
I0612 11:07:32.166841  5211 net.cpp:615] BatchNorm99 <- Convolution99
I0612 11:07:32.166847  5211 net.cpp:576] BatchNorm99 -> Convolution99 (in-place)
I0612 11:07:32.167093  5211 net.cpp:240] Setting up BatchNorm99
I0612 11:07:32.167100  5211 net.cpp:247] Top shape: 128 64 8 8 (524288)
I0612 11:07:32.167104  5211 net.cpp:255] Memory required for data: 2845312512
I0612 11:07:32.167116  5211 layer_factory.hpp:77] Creating layer Scale99
I0612 11:07:32.167129  5211 net.cpp:190] Creating Layer Scale99
I0612 11:07:32.167135  5211 net.cpp:615] Scale99 <- Convolution99
I0612 11:07:32.167140  5211 net.cpp:576] Scale99 -> Convolution99 (in-place)
I0612 11:07:32.167186  5211 layer_factory.hpp:77] Creating layer Scale99
I0612 11:07:32.167327  5211 net.cpp:240] Setting up Scale99
I0612 11:07:32.167335  5211 net.cpp:247] Top shape: 128 64 8 8 (524288)
I0612 11:07:32.167340  5211 net.cpp:255] Memory required for data: 2847409664
I0612 11:07:32.167349  5211 layer_factory.hpp:77] Creating layer Eltwise49
I0612 11:07:32.167367  5211 net.cpp:190] Creating Layer Eltwise49
I0612 11:07:32.167373  5211 net.cpp:615] Eltwise49 <- Eltwise48_ReLU97_0_split_1
I0612 11:07:32.167379  5211 net.cpp:615] Eltwise49 <- Convolution99
I0612 11:07:32.167387  5211 net.cpp:589] Eltwise49 -> Eltwise49
I0612 11:07:32.167409  5211 net.cpp:240] Setting up Eltwise49
I0612 11:07:32.167417  5211 net.cpp:247] Top shape: 128 64 8 8 (524288)
I0612 11:07:32.167420  5211 net.cpp:255] Memory required for data: 2849506816
I0612 11:07:32.167424  5211 layer_factory.hpp:77] Creating layer ReLU99
I0612 11:07:32.167433  5211 net.cpp:190] Creating Layer ReLU99
I0612 11:07:32.167438  5211 net.cpp:615] ReLU99 <- Eltwise49
I0612 11:07:32.167443  5211 net.cpp:576] ReLU99 -> Eltwise49 (in-place)
I0612 11:07:32.167453  5211 net.cpp:240] Setting up ReLU99
I0612 11:07:32.167459  5211 net.cpp:247] Top shape: 128 64 8 8 (524288)
I0612 11:07:32.167462  5211 net.cpp:255] Memory required for data: 2851603968
I0612 11:07:32.167466  5211 layer_factory.hpp:77] Creating layer Eltwise49_ReLU99_0_split
I0612 11:07:32.167472  5211 net.cpp:190] Creating Layer Eltwise49_ReLU99_0_split
I0612 11:07:32.167476  5211 net.cpp:615] Eltwise49_ReLU99_0_split <- Eltwise49
I0612 11:07:32.167482  5211 net.cpp:589] Eltwise49_ReLU99_0_split -> Eltwise49_ReLU99_0_split_0
I0612 11:07:32.168222  5211 net.cpp:589] Eltwise49_ReLU99_0_split -> Eltwise49_ReLU99_0_split_1
I0612 11:07:32.168278  5211 net.cpp:240] Setting up Eltwise49_ReLU99_0_split
I0612 11:07:32.168288  5211 net.cpp:247] Top shape: 128 64 8 8 (524288)
I0612 11:07:32.168293  5211 net.cpp:247] Top shape: 128 64 8 8 (524288)
I0612 11:07:32.168298  5211 net.cpp:255] Memory required for data: 2855798272
I0612 11:07:32.168306  5211 layer_factory.hpp:77] Creating layer Convolution100
I0612 11:07:32.168323  5211 net.cpp:190] Creating Layer Convolution100
I0612 11:07:32.168329  5211 net.cpp:615] Convolution100 <- Eltwise49_ReLU99_0_split_0
I0612 11:07:32.168339  5211 net.cpp:589] Convolution100 -> Convolution100
I0612 11:07:32.170100  5211 net.cpp:240] Setting up Convolution100
I0612 11:07:32.170110  5211 net.cpp:247] Top shape: 128 64 8 8 (524288)
I0612 11:07:32.170114  5211 net.cpp:255] Memory required for data: 2857895424
I0612 11:07:32.170131  5211 layer_factory.hpp:77] Creating layer BatchNorm100
I0612 11:07:32.170153  5211 net.cpp:190] Creating Layer BatchNorm100
I0612 11:07:32.170159  5211 net.cpp:615] BatchNorm100 <- Convolution100
I0612 11:07:32.170166  5211 net.cpp:576] BatchNorm100 -> Convolution100 (in-place)
I0612 11:07:32.170416  5211 net.cpp:240] Setting up BatchNorm100
I0612 11:07:32.170425  5211 net.cpp:247] Top shape: 128 64 8 8 (524288)
I0612 11:07:32.170429  5211 net.cpp:255] Memory required for data: 2859992576
I0612 11:07:32.170441  5211 layer_factory.hpp:77] Creating layer Scale100
I0612 11:07:32.170464  5211 net.cpp:190] Creating Layer Scale100
I0612 11:07:32.170469  5211 net.cpp:615] Scale100 <- Convolution100
I0612 11:07:32.170480  5211 net.cpp:576] Scale100 -> Convolution100 (in-place)
I0612 11:07:32.170531  5211 layer_factory.hpp:77] Creating layer Scale100
I0612 11:07:32.170665  5211 net.cpp:240] Setting up Scale100
I0612 11:07:32.170671  5211 net.cpp:247] Top shape: 128 64 8 8 (524288)
I0612 11:07:32.170682  5211 net.cpp:255] Memory required for data: 2862089728
I0612 11:07:32.170692  5211 layer_factory.hpp:77] Creating layer ReLU100
I0612 11:07:32.170703  5211 net.cpp:190] Creating Layer ReLU100
I0612 11:07:32.170708  5211 net.cpp:615] ReLU100 <- Convolution100
I0612 11:07:32.170713  5211 net.cpp:576] ReLU100 -> Convolution100 (in-place)
I0612 11:07:32.170722  5211 net.cpp:240] Setting up ReLU100
I0612 11:07:32.170727  5211 net.cpp:247] Top shape: 128 64 8 8 (524288)
I0612 11:07:32.170730  5211 net.cpp:255] Memory required for data: 2864186880
I0612 11:07:32.170739  5211 layer_factory.hpp:77] Creating layer Convolution101
I0612 11:07:32.170759  5211 net.cpp:190] Creating Layer Convolution101
I0612 11:07:32.170763  5211 net.cpp:615] Convolution101 <- Convolution100
I0612 11:07:32.170770  5211 net.cpp:589] Convolution101 -> Convolution101
I0612 11:07:32.173344  5211 net.cpp:240] Setting up Convolution101
I0612 11:07:32.173360  5211 net.cpp:247] Top shape: 128 64 8 8 (524288)
I0612 11:07:32.173364  5211 net.cpp:255] Memory required for data: 2866284032
I0612 11:07:32.173375  5211 layer_factory.hpp:77] Creating layer BatchNorm101
I0612 11:07:32.173385  5211 net.cpp:190] Creating Layer BatchNorm101
I0612 11:07:32.173390  5211 net.cpp:615] BatchNorm101 <- Convolution101
I0612 11:07:32.173398  5211 net.cpp:576] BatchNorm101 -> Convolution101 (in-place)
I0612 11:07:32.173624  5211 net.cpp:240] Setting up BatchNorm101
I0612 11:07:32.173632  5211 net.cpp:247] Top shape: 128 64 8 8 (524288)
I0612 11:07:32.173636  5211 net.cpp:255] Memory required for data: 2868381184
I0612 11:07:32.173650  5211 layer_factory.hpp:77] Creating layer Scale101
I0612 11:07:32.173667  5211 net.cpp:190] Creating Layer Scale101
I0612 11:07:32.173673  5211 net.cpp:615] Scale101 <- Convolution101
I0612 11:07:32.173679  5211 net.cpp:576] Scale101 -> Convolution101 (in-place)
I0612 11:07:32.173722  5211 layer_factory.hpp:77] Creating layer Scale101
I0612 11:07:32.173856  5211 net.cpp:240] Setting up Scale101
I0612 11:07:32.173864  5211 net.cpp:247] Top shape: 128 64 8 8 (524288)
I0612 11:07:32.173868  5211 net.cpp:255] Memory required for data: 2870478336
I0612 11:07:32.173882  5211 layer_factory.hpp:77] Creating layer Eltwise50
I0612 11:07:32.173897  5211 net.cpp:190] Creating Layer Eltwise50
I0612 11:07:32.173902  5211 net.cpp:615] Eltwise50 <- Eltwise49_ReLU99_0_split_1
I0612 11:07:32.173908  5211 net.cpp:615] Eltwise50 <- Convolution101
I0612 11:07:32.173914  5211 net.cpp:589] Eltwise50 -> Eltwise50
I0612 11:07:32.173939  5211 net.cpp:240] Setting up Eltwise50
I0612 11:07:32.173946  5211 net.cpp:247] Top shape: 128 64 8 8 (524288)
I0612 11:07:32.173950  5211 net.cpp:255] Memory required for data: 2872575488
I0612 11:07:32.173954  5211 layer_factory.hpp:77] Creating layer ReLU101
I0612 11:07:32.173959  5211 net.cpp:190] Creating Layer ReLU101
I0612 11:07:32.173964  5211 net.cpp:615] ReLU101 <- Eltwise50
I0612 11:07:32.173969  5211 net.cpp:576] ReLU101 -> Eltwise50 (in-place)
I0612 11:07:32.173976  5211 net.cpp:240] Setting up ReLU101
I0612 11:07:32.173981  5211 net.cpp:247] Top shape: 128 64 8 8 (524288)
I0612 11:07:32.173985  5211 net.cpp:255] Memory required for data: 2874672640
I0612 11:07:32.173990  5211 layer_factory.hpp:77] Creating layer Eltwise50_ReLU101_0_split
I0612 11:07:32.174834  5211 net.cpp:190] Creating Layer Eltwise50_ReLU101_0_split
I0612 11:07:32.174844  5211 net.cpp:615] Eltwise50_ReLU101_0_split <- Eltwise50
I0612 11:07:32.174850  5211 net.cpp:589] Eltwise50_ReLU101_0_split -> Eltwise50_ReLU101_0_split_0
I0612 11:07:32.174860  5211 net.cpp:589] Eltwise50_ReLU101_0_split -> Eltwise50_ReLU101_0_split_1
I0612 11:07:32.174909  5211 net.cpp:240] Setting up Eltwise50_ReLU101_0_split
I0612 11:07:32.174917  5211 net.cpp:247] Top shape: 128 64 8 8 (524288)
I0612 11:07:32.174922  5211 net.cpp:247] Top shape: 128 64 8 8 (524288)
I0612 11:07:32.174926  5211 net.cpp:255] Memory required for data: 2878866944
I0612 11:07:32.174931  5211 layer_factory.hpp:77] Creating layer Convolution102
I0612 11:07:32.174943  5211 net.cpp:190] Creating Layer Convolution102
I0612 11:07:32.174952  5211 net.cpp:615] Convolution102 <- Eltwise50_ReLU101_0_split_0
I0612 11:07:32.174959  5211 net.cpp:589] Convolution102 -> Convolution102
I0612 11:07:32.176653  5211 net.cpp:240] Setting up Convolution102
I0612 11:07:32.176667  5211 net.cpp:247] Top shape: 128 64 8 8 (524288)
I0612 11:07:32.176671  5211 net.cpp:255] Memory required for data: 2880964096
I0612 11:07:32.176681  5211 layer_factory.hpp:77] Creating layer BatchNorm102
I0612 11:07:32.176689  5211 net.cpp:190] Creating Layer BatchNorm102
I0612 11:07:32.176694  5211 net.cpp:615] BatchNorm102 <- Convolution102
I0612 11:07:32.176702  5211 net.cpp:576] BatchNorm102 -> Convolution102 (in-place)
I0612 11:07:32.176931  5211 net.cpp:240] Setting up BatchNorm102
I0612 11:07:32.176939  5211 net.cpp:247] Top shape: 128 64 8 8 (524288)
I0612 11:07:32.176942  5211 net.cpp:255] Memory required for data: 2883061248
I0612 11:07:32.176954  5211 layer_factory.hpp:77] Creating layer Scale102
I0612 11:07:32.176969  5211 net.cpp:190] Creating Layer Scale102
I0612 11:07:32.176973  5211 net.cpp:615] Scale102 <- Convolution102
I0612 11:07:32.176981  5211 net.cpp:576] Scale102 -> Convolution102 (in-place)
I0612 11:07:32.177023  5211 layer_factory.hpp:77] Creating layer Scale102
I0612 11:07:32.177165  5211 net.cpp:240] Setting up Scale102
I0612 11:07:32.177172  5211 net.cpp:247] Top shape: 128 64 8 8 (524288)
I0612 11:07:32.177176  5211 net.cpp:255] Memory required for data: 2885158400
I0612 11:07:32.177186  5211 layer_factory.hpp:77] Creating layer ReLU102
I0612 11:07:32.177194  5211 net.cpp:190] Creating Layer ReLU102
I0612 11:07:32.177198  5211 net.cpp:615] ReLU102 <- Convolution102
I0612 11:07:32.177204  5211 net.cpp:576] ReLU102 -> Convolution102 (in-place)
I0612 11:07:32.177211  5211 net.cpp:240] Setting up ReLU102
I0612 11:07:32.177217  5211 net.cpp:247] Top shape: 128 64 8 8 (524288)
I0612 11:07:32.177220  5211 net.cpp:255] Memory required for data: 2887255552
I0612 11:07:32.177229  5211 layer_factory.hpp:77] Creating layer Convolution103
I0612 11:07:32.177248  5211 net.cpp:190] Creating Layer Convolution103
I0612 11:07:32.177253  5211 net.cpp:615] Convolution103 <- Convolution102
I0612 11:07:32.177259  5211 net.cpp:589] Convolution103 -> Convolution103
I0612 11:07:32.178943  5211 net.cpp:240] Setting up Convolution103
I0612 11:07:32.178952  5211 net.cpp:247] Top shape: 128 64 8 8 (524288)
I0612 11:07:32.178956  5211 net.cpp:255] Memory required for data: 2889352704
I0612 11:07:32.178966  5211 layer_factory.hpp:77] Creating layer BatchNorm103
I0612 11:07:32.178975  5211 net.cpp:190] Creating Layer BatchNorm103
I0612 11:07:32.178980  5211 net.cpp:615] BatchNorm103 <- Convolution103
I0612 11:07:32.178989  5211 net.cpp:576] BatchNorm103 -> Convolution103 (in-place)
I0612 11:07:32.179214  5211 net.cpp:240] Setting up BatchNorm103
I0612 11:07:32.179221  5211 net.cpp:247] Top shape: 128 64 8 8 (524288)
I0612 11:07:32.179224  5211 net.cpp:255] Memory required for data: 2891449856
I0612 11:07:32.179239  5211 layer_factory.hpp:77] Creating layer Scale103
I0612 11:07:32.179246  5211 net.cpp:190] Creating Layer Scale103
I0612 11:07:32.179251  5211 net.cpp:615] Scale103 <- Convolution103
I0612 11:07:32.179257  5211 net.cpp:576] Scale103 -> Convolution103 (in-place)
I0612 11:07:32.179298  5211 layer_factory.hpp:77] Creating layer Scale103
I0612 11:07:32.179437  5211 net.cpp:240] Setting up Scale103
I0612 11:07:32.179445  5211 net.cpp:247] Top shape: 128 64 8 8 (524288)
I0612 11:07:32.179448  5211 net.cpp:255] Memory required for data: 2893547008
I0612 11:07:32.179458  5211 layer_factory.hpp:77] Creating layer Eltwise51
I0612 11:07:32.179471  5211 net.cpp:190] Creating Layer Eltwise51
I0612 11:07:32.179476  5211 net.cpp:615] Eltwise51 <- Eltwise50_ReLU101_0_split_1
I0612 11:07:32.179484  5211 net.cpp:615] Eltwise51 <- Convolution103
I0612 11:07:32.179491  5211 net.cpp:589] Eltwise51 -> Eltwise51
I0612 11:07:32.179513  5211 net.cpp:240] Setting up Eltwise51
I0612 11:07:32.179520  5211 net.cpp:247] Top shape: 128 64 8 8 (524288)
I0612 11:07:32.179529  5211 net.cpp:255] Memory required for data: 2895644160
I0612 11:07:32.179539  5211 layer_factory.hpp:77] Creating layer ReLU103
I0612 11:07:32.179548  5211 net.cpp:190] Creating Layer ReLU103
I0612 11:07:32.179553  5211 net.cpp:615] ReLU103 <- Eltwise51
I0612 11:07:32.179558  5211 net.cpp:576] ReLU103 -> Eltwise51 (in-place)
I0612 11:07:32.179565  5211 net.cpp:240] Setting up ReLU103
I0612 11:07:32.179570  5211 net.cpp:247] Top shape: 128 64 8 8 (524288)
I0612 11:07:32.179574  5211 net.cpp:255] Memory required for data: 2897741312
I0612 11:07:32.179577  5211 layer_factory.hpp:77] Creating layer Eltwise51_ReLU103_0_split
I0612 11:07:32.179582  5211 net.cpp:190] Creating Layer Eltwise51_ReLU103_0_split
I0612 11:07:32.179586  5211 net.cpp:615] Eltwise51_ReLU103_0_split <- Eltwise51
I0612 11:07:32.179592  5211 net.cpp:589] Eltwise51_ReLU103_0_split -> Eltwise51_ReLU103_0_split_0
I0612 11:07:32.179600  5211 net.cpp:589] Eltwise51_ReLU103_0_split -> Eltwise51_ReLU103_0_split_1
I0612 11:07:32.179642  5211 net.cpp:240] Setting up Eltwise51_ReLU103_0_split
I0612 11:07:32.179649  5211 net.cpp:247] Top shape: 128 64 8 8 (524288)
I0612 11:07:32.179654  5211 net.cpp:247] Top shape: 128 64 8 8 (524288)
I0612 11:07:32.179657  5211 net.cpp:255] Memory required for data: 2901935616
I0612 11:07:32.179661  5211 layer_factory.hpp:77] Creating layer Convolution104
I0612 11:07:32.179672  5211 net.cpp:190] Creating Layer Convolution104
I0612 11:07:32.179677  5211 net.cpp:615] Convolution104 <- Eltwise51_ReLU103_0_split_0
I0612 11:07:32.179685  5211 net.cpp:589] Convolution104 -> Convolution104
I0612 11:07:32.181368  5211 net.cpp:240] Setting up Convolution104
I0612 11:07:32.181377  5211 net.cpp:247] Top shape: 128 64 8 8 (524288)
I0612 11:07:32.181381  5211 net.cpp:255] Memory required for data: 2904032768
I0612 11:07:32.181391  5211 layer_factory.hpp:77] Creating layer BatchNorm104
I0612 11:07:32.181401  5211 net.cpp:190] Creating Layer BatchNorm104
I0612 11:07:32.181406  5211 net.cpp:615] BatchNorm104 <- Convolution104
I0612 11:07:32.181411  5211 net.cpp:576] BatchNorm104 -> Convolution104 (in-place)
I0612 11:07:32.181649  5211 net.cpp:240] Setting up BatchNorm104
I0612 11:07:32.181658  5211 net.cpp:247] Top shape: 128 64 8 8 (524288)
I0612 11:07:32.181660  5211 net.cpp:255] Memory required for data: 2906129920
I0612 11:07:32.181682  5211 layer_factory.hpp:77] Creating layer Scale104
I0612 11:07:32.181701  5211 net.cpp:190] Creating Layer Scale104
I0612 11:07:32.181706  5211 net.cpp:615] Scale104 <- Convolution104
I0612 11:07:32.181712  5211 net.cpp:576] Scale104 -> Convolution104 (in-place)
I0612 11:07:32.181754  5211 layer_factory.hpp:77] Creating layer Scale104
I0612 11:07:32.181891  5211 net.cpp:240] Setting up Scale104
I0612 11:07:32.181898  5211 net.cpp:247] Top shape: 128 64 8 8 (524288)
I0612 11:07:32.181902  5211 net.cpp:255] Memory required for data: 2908227072
I0612 11:07:32.181911  5211 layer_factory.hpp:77] Creating layer ReLU104
I0612 11:07:32.181921  5211 net.cpp:190] Creating Layer ReLU104
I0612 11:07:32.181926  5211 net.cpp:615] ReLU104 <- Convolution104
I0612 11:07:32.181932  5211 net.cpp:576] ReLU104 -> Convolution104 (in-place)
I0612 11:07:32.181939  5211 net.cpp:240] Setting up ReLU104
I0612 11:07:32.181944  5211 net.cpp:247] Top shape: 128 64 8 8 (524288)
I0612 11:07:32.181948  5211 net.cpp:255] Memory required for data: 2910324224
I0612 11:07:32.181951  5211 layer_factory.hpp:77] Creating layer Convolution105
I0612 11:07:32.181975  5211 net.cpp:190] Creating Layer Convolution105
I0612 11:07:32.181980  5211 net.cpp:615] Convolution105 <- Convolution104
I0612 11:07:32.181987  5211 net.cpp:589] Convolution105 -> Convolution105
I0612 11:07:32.183679  5211 net.cpp:240] Setting up Convolution105
I0612 11:07:32.183689  5211 net.cpp:247] Top shape: 128 64 8 8 (524288)
I0612 11:07:32.183693  5211 net.cpp:255] Memory required for data: 2912421376
I0612 11:07:32.183702  5211 layer_factory.hpp:77] Creating layer BatchNorm105
I0612 11:07:32.183712  5211 net.cpp:190] Creating Layer BatchNorm105
I0612 11:07:32.183719  5211 net.cpp:615] BatchNorm105 <- Convolution105
I0612 11:07:32.183730  5211 net.cpp:576] BatchNorm105 -> Convolution105 (in-place)
I0612 11:07:32.183966  5211 net.cpp:240] Setting up BatchNorm105
I0612 11:07:32.183974  5211 net.cpp:247] Top shape: 128 64 8 8 (524288)
I0612 11:07:32.183979  5211 net.cpp:255] Memory required for data: 2914518528
I0612 11:07:32.183996  5211 layer_factory.hpp:77] Creating layer Scale105
I0612 11:07:32.184011  5211 net.cpp:190] Creating Layer Scale105
I0612 11:07:32.184016  5211 net.cpp:615] Scale105 <- Convolution105
I0612 11:07:32.184022  5211 net.cpp:576] Scale105 -> Convolution105 (in-place)
I0612 11:07:32.184068  5211 layer_factory.hpp:77] Creating layer Scale105
I0612 11:07:32.184204  5211 net.cpp:240] Setting up Scale105
I0612 11:07:32.184213  5211 net.cpp:247] Top shape: 128 64 8 8 (524288)
I0612 11:07:32.184217  5211 net.cpp:255] Memory required for data: 2916615680
I0612 11:07:32.184227  5211 layer_factory.hpp:77] Creating layer Eltwise52
I0612 11:07:32.184238  5211 net.cpp:190] Creating Layer Eltwise52
I0612 11:07:32.184244  5211 net.cpp:615] Eltwise52 <- Eltwise51_ReLU103_0_split_1
I0612 11:07:32.184250  5211 net.cpp:615] Eltwise52 <- Convolution105
I0612 11:07:32.184257  5211 net.cpp:589] Eltwise52 -> Eltwise52
I0612 11:07:32.184283  5211 net.cpp:240] Setting up Eltwise52
I0612 11:07:32.184289  5211 net.cpp:247] Top shape: 128 64 8 8 (524288)
I0612 11:07:32.184293  5211 net.cpp:255] Memory required for data: 2918712832
I0612 11:07:32.184298  5211 layer_factory.hpp:77] Creating layer ReLU105
I0612 11:07:32.184303  5211 net.cpp:190] Creating Layer ReLU105
I0612 11:07:32.184306  5211 net.cpp:615] ReLU105 <- Eltwise52
I0612 11:07:32.184314  5211 net.cpp:576] ReLU105 -> Eltwise52 (in-place)
I0612 11:07:32.184321  5211 net.cpp:240] Setting up ReLU105
I0612 11:07:32.184326  5211 net.cpp:247] Top shape: 128 64 8 8 (524288)
I0612 11:07:32.184330  5211 net.cpp:255] Memory required for data: 2920809984
I0612 11:07:32.184334  5211 layer_factory.hpp:77] Creating layer Eltwise52_ReLU105_0_split
I0612 11:07:32.184340  5211 net.cpp:190] Creating Layer Eltwise52_ReLU105_0_split
I0612 11:07:32.184342  5211 net.cpp:615] Eltwise52_ReLU105_0_split <- Eltwise52
I0612 11:07:32.184348  5211 net.cpp:589] Eltwise52_ReLU105_0_split -> Eltwise52_ReLU105_0_split_0
I0612 11:07:32.184355  5211 net.cpp:589] Eltwise52_ReLU105_0_split -> Eltwise52_ReLU105_0_split_1
I0612 11:07:32.184397  5211 net.cpp:240] Setting up Eltwise52_ReLU105_0_split
I0612 11:07:32.184403  5211 net.cpp:247] Top shape: 128 64 8 8 (524288)
I0612 11:07:32.184408  5211 net.cpp:247] Top shape: 128 64 8 8 (524288)
I0612 11:07:32.184412  5211 net.cpp:255] Memory required for data: 2925004288
I0612 11:07:32.184420  5211 layer_factory.hpp:77] Creating layer Convolution106
I0612 11:07:32.184439  5211 net.cpp:190] Creating Layer Convolution106
I0612 11:07:32.184444  5211 net.cpp:615] Convolution106 <- Eltwise52_ReLU105_0_split_0
I0612 11:07:32.184453  5211 net.cpp:589] Convolution106 -> Convolution106
I0612 11:07:32.186142  5211 net.cpp:240] Setting up Convolution106
I0612 11:07:32.186151  5211 net.cpp:247] Top shape: 128 64 8 8 (524288)
I0612 11:07:32.186156  5211 net.cpp:255] Memory required for data: 2927101440
I0612 11:07:32.186164  5211 layer_factory.hpp:77] Creating layer BatchNorm106
I0612 11:07:32.186184  5211 net.cpp:190] Creating Layer BatchNorm106
I0612 11:07:32.186190  5211 net.cpp:615] BatchNorm106 <- Convolution106
I0612 11:07:32.186197  5211 net.cpp:576] BatchNorm106 -> Convolution106 (in-place)
I0612 11:07:32.186431  5211 net.cpp:240] Setting up BatchNorm106
I0612 11:07:32.186439  5211 net.cpp:247] Top shape: 128 64 8 8 (524288)
I0612 11:07:32.186444  5211 net.cpp:255] Memory required for data: 2929198592
I0612 11:07:32.186456  5211 layer_factory.hpp:77] Creating layer Scale106
I0612 11:07:32.186471  5211 net.cpp:190] Creating Layer Scale106
I0612 11:07:32.186476  5211 net.cpp:615] Scale106 <- Convolution106
I0612 11:07:32.186482  5211 net.cpp:576] Scale106 -> Convolution106 (in-place)
I0612 11:07:32.186527  5211 layer_factory.hpp:77] Creating layer Scale106
I0612 11:07:32.186668  5211 net.cpp:240] Setting up Scale106
I0612 11:07:32.186676  5211 net.cpp:247] Top shape: 128 64 8 8 (524288)
I0612 11:07:32.186679  5211 net.cpp:255] Memory required for data: 2931295744
I0612 11:07:32.186689  5211 layer_factory.hpp:77] Creating layer ReLU106
I0612 11:07:32.186697  5211 net.cpp:190] Creating Layer ReLU106
I0612 11:07:32.186702  5211 net.cpp:615] ReLU106 <- Convolution106
I0612 11:07:32.186709  5211 net.cpp:576] ReLU106 -> Convolution106 (in-place)
I0612 11:07:32.186717  5211 net.cpp:240] Setting up ReLU106
I0612 11:07:32.186722  5211 net.cpp:247] Top shape: 128 64 8 8 (524288)
I0612 11:07:32.186725  5211 net.cpp:255] Memory required for data: 2933392896
I0612 11:07:32.186734  5211 layer_factory.hpp:77] Creating layer Convolution107
I0612 11:07:32.186748  5211 net.cpp:190] Creating Layer Convolution107
I0612 11:07:32.186753  5211 net.cpp:615] Convolution107 <- Convolution106
I0612 11:07:32.186763  5211 net.cpp:589] Convolution107 -> Convolution107
I0612 11:07:32.188443  5211 net.cpp:240] Setting up Convolution107
I0612 11:07:32.188453  5211 net.cpp:247] Top shape: 128 64 8 8 (524288)
I0612 11:07:32.188457  5211 net.cpp:255] Memory required for data: 2935490048
I0612 11:07:32.188467  5211 layer_factory.hpp:77] Creating layer BatchNorm107
I0612 11:07:32.188482  5211 net.cpp:190] Creating Layer BatchNorm107
I0612 11:07:32.188486  5211 net.cpp:615] BatchNorm107 <- Convolution107
I0612 11:07:32.188494  5211 net.cpp:576] BatchNorm107 -> Convolution107 (in-place)
I0612 11:07:32.188726  5211 net.cpp:240] Setting up BatchNorm107
I0612 11:07:32.188735  5211 net.cpp:247] Top shape: 128 64 8 8 (524288)
I0612 11:07:32.188738  5211 net.cpp:255] Memory required for data: 2937587200
I0612 11:07:32.188750  5211 layer_factory.hpp:77] Creating layer Scale107
I0612 11:07:32.188758  5211 net.cpp:190] Creating Layer Scale107
I0612 11:07:32.188762  5211 net.cpp:615] Scale107 <- Convolution107
I0612 11:07:32.188771  5211 net.cpp:576] Scale107 -> Convolution107 (in-place)
I0612 11:07:32.188812  5211 layer_factory.hpp:77] Creating layer Scale107
I0612 11:07:32.188949  5211 net.cpp:240] Setting up Scale107
I0612 11:07:32.188957  5211 net.cpp:247] Top shape: 128 64 8 8 (524288)
I0612 11:07:32.188961  5211 net.cpp:255] Memory required for data: 2939684352
I0612 11:07:32.188971  5211 layer_factory.hpp:77] Creating layer Eltwise53
I0612 11:07:32.188982  5211 net.cpp:190] Creating Layer Eltwise53
I0612 11:07:32.188987  5211 net.cpp:615] Eltwise53 <- Eltwise52_ReLU105_0_split_1
I0612 11:07:32.188995  5211 net.cpp:615] Eltwise53 <- Convolution107
I0612 11:07:32.189002  5211 net.cpp:589] Eltwise53 -> Eltwise53
I0612 11:07:32.189023  5211 net.cpp:240] Setting up Eltwise53
I0612 11:07:32.189033  5211 net.cpp:247] Top shape: 128 64 8 8 (524288)
I0612 11:07:32.189036  5211 net.cpp:255] Memory required for data: 2941781504
I0612 11:07:32.189040  5211 layer_factory.hpp:77] Creating layer ReLU107
I0612 11:07:32.189045  5211 net.cpp:190] Creating Layer ReLU107
I0612 11:07:32.189050  5211 net.cpp:615] ReLU107 <- Eltwise53
I0612 11:07:32.189055  5211 net.cpp:576] ReLU107 -> Eltwise53 (in-place)
I0612 11:07:32.189061  5211 net.cpp:240] Setting up ReLU107
I0612 11:07:32.189067  5211 net.cpp:247] Top shape: 128 64 8 8 (524288)
I0612 11:07:32.189070  5211 net.cpp:255] Memory required for data: 2943878656
I0612 11:07:32.189074  5211 layer_factory.hpp:77] Creating layer Eltwise53_ReLU107_0_split
I0612 11:07:32.189079  5211 net.cpp:190] Creating Layer Eltwise53_ReLU107_0_split
I0612 11:07:32.189083  5211 net.cpp:615] Eltwise53_ReLU107_0_split <- Eltwise53
I0612 11:07:32.189090  5211 net.cpp:589] Eltwise53_ReLU107_0_split -> Eltwise53_ReLU107_0_split_0
I0612 11:07:32.189098  5211 net.cpp:589] Eltwise53_ReLU107_0_split -> Eltwise53_ReLU107_0_split_1
I0612 11:07:32.189137  5211 net.cpp:240] Setting up Eltwise53_ReLU107_0_split
I0612 11:07:32.189143  5211 net.cpp:247] Top shape: 128 64 8 8 (524288)
I0612 11:07:32.189148  5211 net.cpp:247] Top shape: 128 64 8 8 (524288)
I0612 11:07:32.189152  5211 net.cpp:255] Memory required for data: 2948072960
I0612 11:07:32.189158  5211 layer_factory.hpp:77] Creating layer Convolution108
I0612 11:07:32.189177  5211 net.cpp:190] Creating Layer Convolution108
I0612 11:07:32.189182  5211 net.cpp:615] Convolution108 <- Eltwise53_ReLU107_0_split_0
I0612 11:07:32.189190  5211 net.cpp:589] Convolution108 -> Convolution108
I0612 11:07:32.191512  5211 net.cpp:240] Setting up Convolution108
I0612 11:07:32.191527  5211 net.cpp:247] Top shape: 128 64 8 8 (524288)
I0612 11:07:32.191531  5211 net.cpp:255] Memory required for data: 2950170112
I0612 11:07:32.191548  5211 layer_factory.hpp:77] Creating layer BatchNorm108
I0612 11:07:32.191560  5211 net.cpp:190] Creating Layer BatchNorm108
I0612 11:07:32.191565  5211 net.cpp:615] BatchNorm108 <- Convolution108
I0612 11:07:32.191571  5211 net.cpp:576] BatchNorm108 -> Convolution108 (in-place)
I0612 11:07:32.191807  5211 net.cpp:240] Setting up BatchNorm108
I0612 11:07:32.191814  5211 net.cpp:247] Top shape: 128 64 8 8 (524288)
I0612 11:07:32.191818  5211 net.cpp:255] Memory required for data: 2952267264
I0612 11:07:32.191829  5211 layer_factory.hpp:77] Creating layer Scale108
I0612 11:07:32.191840  5211 net.cpp:190] Creating Layer Scale108
I0612 11:07:32.191845  5211 net.cpp:615] Scale108 <- Convolution108
I0612 11:07:32.191851  5211 net.cpp:576] Scale108 -> Convolution108 (in-place)
I0612 11:07:32.191895  5211 layer_factory.hpp:77] Creating layer Scale108
I0612 11:07:32.192034  5211 net.cpp:240] Setting up Scale108
I0612 11:07:32.192042  5211 net.cpp:247] Top shape: 128 64 8 8 (524288)
I0612 11:07:32.192046  5211 net.cpp:255] Memory required for data: 2954364416
I0612 11:07:32.192056  5211 layer_factory.hpp:77] Creating layer ReLU108
I0612 11:07:32.192071  5211 net.cpp:190] Creating Layer ReLU108
I0612 11:07:32.192076  5211 net.cpp:615] ReLU108 <- Convolution108
I0612 11:07:32.192082  5211 net.cpp:576] ReLU108 -> Convolution108 (in-place)
I0612 11:07:32.192090  5211 net.cpp:240] Setting up ReLU108
I0612 11:07:32.192095  5211 net.cpp:247] Top shape: 128 64 8 8 (524288)
I0612 11:07:32.192100  5211 net.cpp:255] Memory required for data: 2956461568
I0612 11:07:32.192102  5211 layer_factory.hpp:77] Creating layer Convolution109
I0612 11:07:32.192116  5211 net.cpp:190] Creating Layer Convolution109
I0612 11:07:32.192121  5211 net.cpp:615] Convolution109 <- Convolution108
I0612 11:07:32.192128  5211 net.cpp:589] Convolution109 -> Convolution109
I0612 11:07:32.193814  5211 net.cpp:240] Setting up Convolution109
I0612 11:07:32.193822  5211 net.cpp:247] Top shape: 128 64 8 8 (524288)
I0612 11:07:32.193826  5211 net.cpp:255] Memory required for data: 2958558720
I0612 11:07:32.193835  5211 layer_factory.hpp:77] Creating layer BatchNorm109
I0612 11:07:32.193851  5211 net.cpp:190] Creating Layer BatchNorm109
I0612 11:07:32.193856  5211 net.cpp:615] BatchNorm109 <- Convolution109
I0612 11:07:32.193862  5211 net.cpp:576] BatchNorm109 -> Convolution109 (in-place)
I0612 11:07:32.194100  5211 net.cpp:240] Setting up BatchNorm109
I0612 11:07:32.194108  5211 net.cpp:247] Top shape: 128 64 8 8 (524288)
I0612 11:07:32.194113  5211 net.cpp:255] Memory required for data: 2960655872
I0612 11:07:32.194128  5211 layer_factory.hpp:77] Creating layer Scale109
I0612 11:07:32.194135  5211 net.cpp:190] Creating Layer Scale109
I0612 11:07:32.194139  5211 net.cpp:615] Scale109 <- Convolution109
I0612 11:07:32.194145  5211 net.cpp:576] Scale109 -> Convolution109 (in-place)
I0612 11:07:32.194190  5211 layer_factory.hpp:77] Creating layer Scale109
I0612 11:07:32.194324  5211 net.cpp:240] Setting up Scale109
I0612 11:07:32.194334  5211 net.cpp:247] Top shape: 128 64 8 8 (524288)
I0612 11:07:32.194337  5211 net.cpp:255] Memory required for data: 2962753024
I0612 11:07:32.194346  5211 layer_factory.hpp:77] Creating layer Eltwise54
I0612 11:07:32.194360  5211 net.cpp:190] Creating Layer Eltwise54
I0612 11:07:32.194365  5211 net.cpp:615] Eltwise54 <- Eltwise53_ReLU107_0_split_1
I0612 11:07:32.194371  5211 net.cpp:615] Eltwise54 <- Convolution109
I0612 11:07:32.194377  5211 net.cpp:589] Eltwise54 -> Eltwise54
I0612 11:07:32.194413  5211 net.cpp:240] Setting up Eltwise54
I0612 11:07:32.194422  5211 net.cpp:247] Top shape: 128 64 8 8 (524288)
I0612 11:07:32.194425  5211 net.cpp:255] Memory required for data: 2964850176
I0612 11:07:32.194429  5211 layer_factory.hpp:77] Creating layer ReLU109
I0612 11:07:32.194435  5211 net.cpp:190] Creating Layer ReLU109
I0612 11:07:32.194439  5211 net.cpp:615] ReLU109 <- Eltwise54
I0612 11:07:32.194447  5211 net.cpp:576] ReLU109 -> Eltwise54 (in-place)
I0612 11:07:32.194454  5211 net.cpp:240] Setting up ReLU109
I0612 11:07:32.194460  5211 net.cpp:247] Top shape: 128 64 8 8 (524288)
I0612 11:07:32.194463  5211 net.cpp:255] Memory required for data: 2966947328
I0612 11:07:32.194468  5211 layer_factory.hpp:77] Creating layer Pooling4
I0612 11:07:32.194473  5211 net.cpp:190] Creating Layer Pooling4
I0612 11:07:32.194478  5211 net.cpp:615] Pooling4 <- Eltwise54
I0612 11:07:32.194484  5211 net.cpp:589] Pooling4 -> Pooling4
I0612 11:07:32.194514  5211 net.cpp:240] Setting up Pooling4
I0612 11:07:32.194521  5211 net.cpp:247] Top shape: 128 64 1 1 (8192)
I0612 11:07:32.194525  5211 net.cpp:255] Memory required for data: 2966980096
I0612 11:07:32.194535  5211 layer_factory.hpp:77] Creating layer InnerProduct1
I0612 11:07:32.194551  5211 net.cpp:190] Creating Layer InnerProduct1
I0612 11:07:32.194555  5211 net.cpp:615] InnerProduct1 <- Pooling4
I0612 11:07:32.194561  5211 net.cpp:589] InnerProduct1 -> InnerProduct1
I0612 11:07:32.195051  5211 net.cpp:240] Setting up InnerProduct1
I0612 11:07:32.195061  5211 net.cpp:247] Top shape: 128 10 (1280)
I0612 11:07:32.195065  5211 net.cpp:255] Memory required for data: 2966985216
I0612 11:07:32.195075  5211 layer_factory.hpp:77] Creating layer InnerProduct1_InnerProduct1_0_split
I0612 11:07:32.195082  5211 net.cpp:190] Creating Layer InnerProduct1_InnerProduct1_0_split
I0612 11:07:32.195087  5211 net.cpp:615] InnerProduct1_InnerProduct1_0_split <- InnerProduct1
I0612 11:07:32.195096  5211 net.cpp:589] InnerProduct1_InnerProduct1_0_split -> InnerProduct1_InnerProduct1_0_split_0
I0612 11:07:32.195104  5211 net.cpp:589] InnerProduct1_InnerProduct1_0_split -> InnerProduct1_InnerProduct1_0_split_1
I0612 11:07:32.195142  5211 net.cpp:240] Setting up InnerProduct1_InnerProduct1_0_split
I0612 11:07:32.195148  5211 net.cpp:247] Top shape: 128 10 (1280)
I0612 11:07:32.195153  5211 net.cpp:247] Top shape: 128 10 (1280)
I0612 11:07:32.195158  5211 net.cpp:255] Memory required for data: 2966995456
I0612 11:07:32.195160  5211 layer_factory.hpp:77] Creating layer Accuracy
I0612 11:07:32.195170  5211 net.cpp:190] Creating Layer Accuracy
I0612 11:07:32.195174  5211 net.cpp:615] Accuracy <- InnerProduct1_InnerProduct1_0_split_0
I0612 11:07:32.195180  5211 net.cpp:615] Accuracy <- Data2_Data1_1_split_0
I0612 11:07:32.195193  5211 net.cpp:589] Accuracy -> Accuracy
…
