…
stepvalue: 150000
type: "Nesterov"
I0619 10:03:31.333153 29673 solver.cpp:86] Creating training net from train_net file: examples/stochastic_depth/residual_train54.prototxt
I0619 10:03:31.352520 29673 net.cpp:148] Initializing net from parameters: 
state {
  phase: TRAIN
}
layer {
  name: "Data1"
  type: "Data"
  top: "Data1"
  top: "Data2"
  transform_param {
    mirror: true
    crop_size: 32
  }
  data_param {
    source: "/scratch/pas282/caffe/examples/cifar10/cifar10_train_leveldb_padding0"
    batch_size: 128
    backend: LEVELDB
  }
}
layer {
  name: "Convolution1"
  type: "Convolution"
  bottom: "Data1"
  top: "Convolution1"
  convolution_param {
    num_output: 16
    bias_term: true
    pad: 1
    kernel_size: 3
    stride: 1
    weight_filler {
      type: "msra"
    }
    bias_filler {
      type: "constant"
    }
  }
}
layer {
  name: "BatchNorm1"
  type: "BatchNorm"
  bottom: "Convolution1"
  top: "Convolution1"
  param {
    lr_mult: 0
    decay_mult: 0
  }
  param {
    lr_mult: 0
    decay_mult: 0
  }
  param {
    lr_mult: 0
    decay_mult: 0
  }
}
layer {
  name: "Scale1"
  type: "Scale"
  bottom: "Convolution1"
  top: "Convolution1"
  scale_param {
    bias_term: true
  }
}
layer {
  name: "ReLU1"
  type: "ReLU"
  bottom: "Convolution1"
  top: "Convolution1"
}
layer {
  name: "Convolution2"
  type: "Convolution"
  bottom: "Convolution1"
  top: "Convolution2"
  convolution_param {
    num_output: 16
    bias_term: true
    pad: 1
    kernel_size: 3
    stride: 1
    weight_filler {
      type: "msra"
    }
    bias_filler {
      type: "constant"
    }
  }
}
layer {
  name: "BatchNorm2"
  type: "BatchNorm"
  bottom: "Convolution2"
  top: "Convolution2"
  param {
    lr_mult: 0
    decay_mult: 0
  }
  param {
    lr_mult: 0
    decay_mult: 0
  }
  param {
    lr_mult: 0
    decay_mult: 0
  }
}
layer {
  name: "Scale2"
  type: "Scale"
  bottom: "Convolution2"
  top: "Convolution2"
  scale_param {
    bias_term: true
  }
}
layer {
  name: "ReLU2"
  type: "ReLU"
  bottom: "Convolution2"
  top: "Convolution2"
}
layer {
  name: "Convolution3"
  type: "Convolution"
  bottom: "Convolution2"
  top: "Convolution3"
  convolution_param {
    num_output: 16
    bias_term: true
    pad: 1
    kernel_size: 3
    stride: 1
    weight_filler {
      type: "msra"
    }
    bias_filler {
      type: "constant"
    }
  }
}
layer {
  name: "BatchNorm3"
  type: "BatchNorm"
  bottom: "Convolution3"
  top: "Convolution3"
  param {
    lr_mult: 0
    decay_mult: 0
  }
  param {
    lr_mult: 0
    decay_mult: 0
  }
  param {
    lr_mult: 0
    decay_mult: 0
  }
}
layer {
  name: "Scale3"
  type: "Scale"
  bottom: "Convolution3"
  top: "Convolution3"
  scale_param {
    bias_term: true
  }
}
layer {
  name: "Eltwise1"
  type: "Eltwise"
  bottom: "Convolution1"
  bottom: "Convolution3"
  top: "Eltwise1"
  eltwise_param {
    operation: SUM
  }
}
layer {
  name: "ReLU3"
  type: "ReLU"
  bottom: "Eltwise1"
  top: "Eltwise1"
}
layer {
  name: "Convolution4"
  type: "Convolution"
  bottom: "Eltwise1"
  top: "Convolution4"
  convolution_param {
    num_output: 16
    bias_term: true
    pad: 1
    kernel_size: 3
    stride: 1
    weight_filler {
      type: "msra"
    }
    bias_filler {
      type: "constant"
    }
  }
}
layer {
  name: "BatchNorm4"
  type: "BatchNorm"
  bottom: "Convolution4"
  top: "Convolution4"
  param {
    lr_mult: 0
    decay_mult: 0
  }
  param {
    lr_mult: 0
    decay_mult: 0
  }
  param {
    lr_mult: 0
    decay_mult: 0
  }
}
layer {
  name: "Scale4"
  type: "Scale"
  bottom: "Convolution4"
  top: "Convolution4"
  scale_param {
    bias_term: true
  }
}
layer {
  name: "ReLU4"
  type: "ReLU"
  bottom: "Convolution4"
  top: "Convolution4"
}
layer {
  name: "Convolution5"
  type: "Convolution"
  bottom: "Convolution4"
  top: "Convolution5"
  convolution_param {
    num_output: 16
    bias_term: true
    pad: 1
    kernel_size: 3
    stride: 1
    weight_filler {
      type: "msra"
    }
    bias_filler {
      type: "constant"
    }
  }
}
layer {
  name: "BatchNorm5"
  type: "BatchNorm"
  bottom: "Convolution5"
  top: "Convolution5"
  param {
    lr_mult: 0
    decay_mult: 0
  }
  param {
    lr_mult: 0
    decay_mult: 0
  }
  param {
    lr_mult: 0
    decay_mult: 0
  }
}
layer {
  name: "Scale5"
  type: "Scale"
  bottom: "Convolution5"
  top: "Convolution5"
  scale_param {
    bias_term: true
  }
}
layer {
  name: "Eltwise2"
  type: "Eltwise"
  bottom: "Eltwise1"
  bottom: "Convolution5"
  top: "Eltwise2"
  eltwise_param {
    operation: SUM
  }
}
layer {
  name: "ReLU5"
  type: "ReLU"
  bottom: "Eltwise2"
  top: "Eltwise2"
}
layer {
  name: "Convolution6"
  type: "Convolution"
  bottom: "Eltwise2"
  top: "Convolution6"
  convolution_param {
    num_output: 16
    bias_term: true
    pad: 1
    kernel_size: 3
    stride: 1
    weight_filler {
      type: "msra"
    }
    bias_filler {
      type: "constant"
    }
  }
}
layer {
  name: "BatchNorm6"
  type: "BatchNorm"
  bottom: "Convolution6"
  top: "Convolution6"
  param {
    lr_mult: 0
    decay_mult: 0
  }
  param {
    lr_mult: 0
    decay_mult: 0
  }
  param {
    lr_mult: 0
    decay_mult: 0
  }
}
layer {
  name: "Scale6"
  type: "Scale"
  bottom: "Convolution6"
  top: "Convolution6"
  scale_param {
    bias_term: true
  }
}
layer {
  name: "ReLU6"
  type: "ReLU"
  bottom: "Convolution6"
  top: "Convolution6"
}
layer {
  name: "Convolution7"
  type: "Convolution"
  bottom: "Convolution6"
  top: "Convolution7"
  convolution_param {
    num_output: 16
    bias_term: true
    pad: 1
    kernel_size: 3
    stride: 1
    weight_filler {
      type: "msra"
    }
    bias_filler {
      type: "constant"
    }
  }
}
layer {
  name: "BatchNorm7"
  type: "BatchNorm"
  bottom: "Convolution7"
  top: "Convolution7"
  param {
    lr_mult: 0
    decay_mult: 0
  }
  param {
    lr_mult: 0
    decay_mult: 0
  }
  param {
    lr_mult: 0
    decay_mult: 0
  }
}
layer {
  name: "Scale7"
  type: "Scale"
  bottom: "Convolution7"
  top: "Convolution7"
  scale_param {
    bias_term: true
  }
}
layer {
  name: "Eltwise3"
  type: "Eltwise"
  bottom: "Eltwise2"
  bottom: "Convolution7"
  top: "Eltwise3"
  eltwise_param {
    operation: SUM
  }
}
layer {
  name: "ReLU7"
  type: "ReLU"
  bottom: "Eltwise3"
  top: "Eltwise3"
}
layer {
  name: "Convolution8"
  type: "Convolution"
  bottom: "Eltwise3"
  top: "Convolution8"
  convolution_param {
    num_output: 16
    bias_term: true
    pad: 1
    kernel_size: 3
    stride: 1
    weight_filler {
      type: "msra"
    }
    bias_filler {
      type: "constant"
    }
  }
}
layer {
  name: "BatchNorm8"
  type: "BatchNorm"
  bottom: "Convolution8"
  top: "Convolution8"
  param {
    lr_mult: 0
    decay_mult: 0
  }
  param {
    lr_mult: 0
    decay_mult: 0
  }
  param {
    lr_mult: 0
    decay_mult: 0
  }
}
layer {
  name: "Scale8"
  type: "Scale"
  bottom: "Convolution8"
  top: "Convolution8"
  scale_param {
    bias_term: true
  }
}
layer {
  name: "ReLU8"
  type: "ReLU"
  bottom: "Convolution8"
  top: "Convolution8"
}
layer {
  name: "Convolution9"
  type: "Convolution"
  bottom: "Convolution8"
  top: "Convolution9"
  convolution_param {
    num_output: 16
    bias_term: true
    pad: 1
    kernel_size: 3
    stride: 1
    weight_filler {
      type: "msra"
    }
    bias_filler {
      type: "constant"
    }
  }
}
layer {
  name: "BatchNorm9"
  type: "BatchNorm"
  bottom: "Convolution9"
  top: "Convolution9"
  param {
    lr_mult: 0
    decay_mult: 0
  }
  param {
    lr_mult: 0
    decay_mult: 0
  }
  param {
    lr_mult: 0
    decay_mult: 0
  }
}
layer {
  name: "Scale9"
  type: "Scale"
  bottom: "Convolution9"
  top: "Convolution9"
  scale_param {
    bias_term: true
  }
}
layer {
  name: "Eltwise4"
  type: "Eltwise"
  bottom: "Eltwise3"
  bottom: "Convolution9"
  top: "Eltwise4"
  eltwise_param {
    operation: SUM
  }
}
layer {
  name: "ReLU9"
  type: "ReLU"
  bottom: "Eltwise4"
  top: "Eltwise4"
}
layer {
  name: "Convolution10"
  type: "Convolution"
  bottom: "Eltwise4"
  top: "Convolution10"
  convolution_param {
    num_output: 16
    bias_term: true
    pad: 1
    kernel_size: 3
    stride: 1
    weight_filler {
      type: "msra"
    }
    bias_filler {
      type: "constant"
    }
  }
}
layer {
  name: "BatchNorm10"
  type: "BatchNorm"
  bottom: "Convolution10"
  top: "Convolution10"
  param {
    lr_mult: 0
    decay_mult: 0
  }
  param {
    lr_mult: 0
    decay_mult: 0
  }
  param {
    lr_mult: 0
    decay_mult: 0
  }
}
layer {
  name: "Scale10"
  type: "Scale"
  bottom: "Convolution10"
  top: "Convolution10"
  scale_param {
    bias_term: true
  }
}
layer {
  name: "ReLU10"
  type: "ReLU"
  bottom: "Convolution10"
  top: "Convolution10"
}
layer {
  name: "Convolution11"
  type: "Convolution"
  bottom: "Convolution10"
  top: "Convolution11"
  convolution_param {
    num_output: 16
    bias_term: true
    pad: 1
    kernel_size: 3
    stride: 1
    weight_filler {
      type: "msra"
    }
    bias_filler {
      type: "constant"
    }
  }
}
layer {
  name: "BatchNorm11"
  type: "BatchNorm"
  bottom: "Convolution11"
  top: "Convolution11"
  param {
    lr_mult: 0
    decay_mult: 0
  }
  param {
    lr_mult: 0
    decay_mult: 0
  }
  param {
    lr_mult: 0
    decay_mult: 0
  }
}
layer {
  name: "Scale11"
  type: "Scale"
  bottom: "Convolution11"
  top: "Convolution11"
  scale_param {
    bias_term: true
  }
}
layer {
  name: "Eltwise5"
  type: "Eltwise"
  bottom: "Eltwise4"
  bottom: "Convolution11"
  top: "Eltwise5"
  eltwise_param {
    operation: SUM
  }
}
layer {
  name: "ReLU11"
  type: "ReLU"
  bottom: "Eltwise5"
  top: "Eltwise5"
}
layer {
  name: "Convolution12"
  type: "Convolution"
  bottom: "Eltwise5"
  top: "Convolution12"
  convolution_param {
    num_output: 16
    bias_term: true
    pad: 1
    kernel_size: 3
    stride: 1
    weight_filler {
      type: "msra"
    }
    bias_filler {
      type: "constant"
    }
  }
}
layer {
  name: "BatchNorm12"
  type: "BatchNorm"
  bottom: "Convolution12"
  top: "Convolution12"
  param {
    lr_mult: 0
    decay_mult: 0
  }
  param {
    lr_mult: 0
    decay_mult: 0
  }
  param {
    lr_mult: 0
    decay_mult: 0
  }
}
layer {
  name: "Scale12"
  type: "Scale"
  bottom: "Convolution12"
  top: "Convolution12"
  scale_param {
    bias_term: true
  }
}
layer {
  name: "ReLU12"
  type: "ReLU"
  bottom: "Convolution12"
  top: "Convolution12"
}
layer {
  name: "Convolution13"
  type: "Convolution"
  bottom: "Convolution12"
  top: "Convolution13"
  convolution_param {
    num_output: 16
    bias_term: true
    pad: 1
    kernel_size: 3
    stride: 1
    weight_filler {
      type: "msra"
    }
    bias_filler {
      type: "constant"
    }
  }
}
layer {
  name: "BatchNorm13"
  type: "BatchNorm"
  bottom: "Convolution13"
  top: "Convolution13"
  param {
    lr_mult: 0
    decay_mult: 0
  }
  param {
    lr_mult: 0
    decay_mult: 0
  }
  param {
    lr_mult: 0
    decay_mult: 0
  }
}
layer {
  name: "Scale13"
  type: "Scale"
  bottom: "Convolution13"
  top: "Convolution13"
  scale_param {
    bias_term: true
  }
}
layer {
  name: "Eltwise6"
  type: "Eltwise"
  bottom: "Eltwise5"
  bottom: "Convolution13"
  top: "Eltwise6"
  eltwise_param {
    operation: SUM
  }
}
layer {
  name: "ReLU13"
  type: "ReLU"
  bottom: "Eltwise6"
  top: "Eltwise6"
}
layer {
  name: "Convolution14"
  type: "Convolution"
  bottom: "Eltwise6"
  top: "Convolution14"
  convolution_param {
    num_output: 16
    bias_term: true
    pad: 1
    kernel_size: 3
    stride: 1
    weight_filler {
      type: "msra"
    }
    bias_filler {
      type: "constant"
    }
  }
}
layer {
  name: "BatchNorm14"
  type: "BatchNorm"
  bottom: "Convolution14"
  top: "Convolution14"
  param {
    lr_mult: 0
    decay_mult: 0
  }
  param {
    lr_mult: 0
    decay_mult: 0
  }
  param {
    lr_mult: 0
    decay_mult: 0
  }
}
layer {
  name: "Scale14"
  type: "Scale"
  bottom: "Convolution14"
  top: "Convolution14"
  scale_param {
    bias_term: true
  }
}
layer {
  name: "ReLU14"
  type: "ReLU"
  bottom: "Convolution14"
  top: "Convolution14"
}
layer {
  name: "Convolution15"
  type: "Convolution"
  bottom: "Convolution14"
  top: "Convolution15"
  convolution_param {
    num_output: 16
    bias_term: true
    pad: 1
    kernel_size: 3
    stride: 1
    weight_filler {
      type: "msra"
    }
    bias_filler {
      type: "constant"
    }
  }
}
layer {
  name: "BatchNorm15"
  type: "BatchNorm"
  bottom: "Convolution15"
  top: "Convolution15"
  param {
    lr_mult: 0
    decay_mult: 0
  }
  param {
    lr_mult: 0
    decay_mult: 0
  }
  param {
    lr_mult: 0
    decay_mult: 0
  }
}
layer {
  name: "Scale15"
  type: "Scale"
  bottom: "Convolution15"
  top: "Convolution15"
  scale_param {
    bias_term: true
  }
}
layer {
  name: "Eltwise7"
  type: "Eltwise"
  bottom: "Eltwise6"
  bottom: "Convolution15"
  top: "Eltwise7"
  eltwise_param {
    operation: SUM
  }
}
layer {
  name: "ReLU15"
  type: "ReLU"
  bottom: "Eltwise7"
  top: "Eltwise7"
}
layer {
  name: "Convolution16"
  type: "Convolution"
  bottom: "Eltwise7"
  top: "Convolution16"
  convolution_param {
    num_output: 16
    bias_term: true
    pad: 1
    kernel_size: 3
    stride: 1
    weight_filler {
      type: "msra"
    }
    bias_filler {
      type: "constant"
    }
  }
}
layer {
  name: "BatchNorm16"
  type: "BatchNorm"
  bottom: "Convolution16"
  top: "Convolution16"
  param {
    lr_mult: 0
    decay_mult: 0
  }
  param {
    lr_mult: 0
    decay_mult: 0
  }
  param {
    lr_mult: 0
    decay_mult: 0
  }
}
layer {
  name: "Scale16"
  type: "Scale"
  bottom: "Convolution16"
  top: "Convolution16"
  scale_param {
    bias_term: true
  }
}
layer {
  name: "ReLU16"
  type: "ReLU"
  bottom: "Convolution16"
  top: "Convolution16"
}
layer {
  name: "Convolution17"
  type: "Convolution"
  bottom: "Convolution16"
  top: "Convolution17"
  convolution_param {
    num_output: 16
    bias_term: true
    pad: 1
    kernel_size: 3
    stride: 1
    weight_filler {
      type: "msra"
    }
    bias_filler {
      type: "constant"
    }
  }
}
layer {
  name: "BatchNorm17"
  type: "BatchNorm"
  bottom: "Convolution17"
  top: "Convolution17"
  param {
    lr_mult: 0
    decay_mult: 0
  }
  param {
    lr_mult: 0
    decay_mult: 0
  }
  param {
    lr_mult: 0
    decay_mult: 0
  }
}
layer {
  name: "Scale17"
  type: "Scale"
  bottom: "Convolution17"
  top: "Convolution17"
  scale_param {
    bias_term: true
  }
}
layer {
  name: "Eltwise8"
  type: "Eltwise"
  bottom: "Eltwise7"
  bottom: "Convolution17"
  top: "Eltwise8"
  eltwise_param {
    operation: SUM
  }
}
layer {
  name: "ReLU17"
  type: "ReLU"
  bottom: "Eltwise8"
  top: "Eltwise8"
}
layer {
  name: "Convolution18"
  type: "Convolution"
  bottom: "Eltwise8"
  top: "Convolution18"
  convolution_param {
    num_output: 16
    bias_term: true
    pad: 1
    kernel_size: 3
    stride: 1
    weight_filler {
      type: "msra"
    }
    bias_filler {
      type: "constant"
    }
  }
}
layer {
  name: "BatchNorm18"
  type: "BatchNorm"
  bottom: "Convolution18"
  top: "Convolution18"
  param {
    lr_mult: 0
    decay_mult: 0
  }
  param {
    lr_mult: 0
    decay_mult: 0
  }
  param {
    lr_mult: 0
    decay_mult: 0
  }
}
layer {
  name: "Scale18"
  type: "Scale"
  bottom: "Convolution18"
  top: "Convolution18"
  scale_param {
    bias_term: true
  }
}
layer {
  name: "ReLU18"
  type: "ReLU"
  bottom: "Convolution18"
  top: "Convolution18"
}
layer {
  name: "Convolution19"
  type: "Convolution"
  bottom: "Convolution18"
  top: "Convolution19"
  convolution_param {
    num_output: 16
    bias_term: true
    pad: 1
    kernel_size: 3
    stride: 1
    weight_filler {
      type: "msra"
    }
    bias_filler {
      type: "constant"
    }
  }
}
layer {
  name: "BatchNorm19"
  type: "BatchNorm"
  bottom: "Convolution19"
  top: "Convolution19"
  param {
    lr_mult: 0
    decay_mult: 0
  }
  param {
    lr_mult: 0
    decay_mult: 0
  }
  param {
    lr_mult: 0
    decay_mult: 0
  }
}
layer {
  name: "Scale19"
  type: "Scale"
  bottom: "Convolution19"
  top: "Convolution19"
  scale_param {
    bias_term: true
  }
}
layer {
  name: "Eltwise9"
  type: "Eltwise"
  bottom: "Eltwise8"
  bottom: "Convolution19"
  top: "Eltwise9"
  eltwise_param {
    operation: SUM
  }
}
layer {
  name: "ReLU19"
  type: "ReLU"
  bottom: "Eltwise9"
  top: "Eltwise9"
}
layer {
  name: "Convolution20"
  type: "Convolution"
  bottom: "Eltwise9"
  top: "Convolution20"
  convolution_param {
    num_output: 16
    bias_term: true
    pad: 1
    kernel_size: 3
    stride: 1
    weight_filler {
      type: "msra"
    }
    bias_filler {
      type: "constant"
    }
  }
}
layer {
  name: "BatchNorm20"
  type: "BatchNorm"
  bottom: "Convolution20"
  top: "Convolution20"
  param {
    lr_mult: 0
    decay_mult: 0
  }
  param {
    lr_mult: 0
    decay_mult: 0
  }
  param {
    lr_mult: 0
    decay_mult: 0
  }
}
layer {
  name: "Scale20"
  type: "Scale"
  bottom: "Convolution20"
  top: "Convolution20"
  scale_param {
    bias_term: true
  }
}
layer {
  name: "ReLU20"
  type: "ReLU"
  bottom: "Convolution20"
  top: "Convolution20"
}
layer {
  name: "Convolution21"
  type: "Convolution"
  bottom: "Convolution20"
  top: "Convolution21"
  convolution_param {
    num_output: 16
    bias_term: true
    pad: 1
    kernel_size: 3
    stride: 1
    weight_filler {
      type: "msra"
    }
    bias_filler {
      type: "constant"
    }
  }
}
layer {
  name: "BatchNorm21"
  type: "BatchNorm"
  bottom: "Convolution21"
  top: "Convolution21"
  param {
    lr_mult: 0
    decay_mult: 0
  }
  param {
    lr_mult: 0
    decay_mult: 0
  }
  param {
    lr_mult: 0
    decay_mult: 0
  }
}
layer {
  name: "Scale21"
  type: "Scale"
  bottom: "Convolution21"
  top: "Convolution21"
  scale_param {
    bias_term: true
  }
}
layer {
  name: "Eltwise10"
  type: "Eltwise"
  bottom: "Eltwise9"
  bottom: "Convolution21"
  top: "Eltwise10"
  eltwise_param {
    operation: SUM
  }
}
layer {
  name: "ReLU21"
  type: "ReLU"
  bottom: "Eltwise10"
  top: "Eltwise10"
}
layer {
  name: "Convolution22"
  type: "Convolution"
  bottom: "Eltwise10"
  top: "Convolution22"
  convolution_param {
    num_output: 16
    bias_term: true
    pad: 1
    kernel_size: 3
    stride: 1
    weight_filler {
      type: "msra"
    }
    bias_filler {
      type: "constant"
    }
  }
}
layer {
  name: "BatchNorm22"
  type: "BatchNorm"
  bottom: "Convolution22"
  top: "Convolution22"
  param {
    lr_mult: 0
    decay_mult: 0
  }
  param {
    lr_mult: 0
    decay_mult: 0
  }
  param {
    lr_mult: 0
    decay_mult: 0
  }
}
layer {
  name: "Scale22"
  type: "Scale"
  bottom: "Convolution22"
  top: "Convolution22"
  scale_param {
    bias_term: true
  }
}
layer {
  name: "ReLU22"
  type: "ReLU"
  bottom: "Convolution22"
  top: "Convolution22"
}
layer {
  name: "Convolution23"
  type: "Convolution"
  bottom: "Convolution22"
  top: "Convolution23"
  convolution_param {
    num_output: 16
    bias_term: true
    pad: 1
    kernel_size: 3
    stride: 1
    weight_filler {
      type: "msra"
    }
    bias_filler {
      type: "constant"
    }
  }
}
layer {
  name: "BatchNorm23"
  type: "BatchNorm"
  bottom: "Convolution23"
  top: "Convolution23"
  param {
    lr_mult: 0
    decay_mult: 0
  }
  param {
    lr_mult: 0
    decay_mult: 0
  }
  param {
    lr_mult: 0
    decay_mult: 0
  }
}
layer {
  name: "Scale23"
  type: "Scale"
  bottom: "Convolution23"
  top: "Convolution23"
  scale_param {
    bias_term: true
  }
}
layer {
  name: "Eltwise11"
  type: "Eltwise"
  bottom: "Eltwise10"
  bottom: "Convolution23"
  top: "Eltwise11"
  eltwise_param {
    operation: SUM
  }
}
layer {
  name: "ReLU23"
  type: "ReLU"
  bottom: "Eltwise11"
  top: "Eltwise11"
}
layer {
  name: "Convolution24"
  type: "Convolution"
  bottom: "Eltwise11"
  top: "Convolution24"
  convolution_param {
    num_output: 16
    bias_term: true
    pad: 1
    kernel_size: 3
    stride: 1
    weight_filler {
      type: "msra"
    }
    bias_filler {
      type: "constant"
    }
  }
}
layer {
  name: "BatchNorm24"
  type: "BatchNorm"
  bottom: "Convolution24"
  top: "Convolution24"
  param {
    lr_mult: 0
    decay_mult: 0
  }
  param {
    lr_mult: 0
    decay_mult: 0
  }
  param {
    lr_mult: 0
    decay_mult: 0
  }
}
layer {
  name: "Scale24"
  type: "Scale"
  bottom: "Convolution24"
  top: "Convolution24"
  scale_param {
    bias_term: true
  }
}
layer {
  name: "ReLU24"
  type: "ReLU"
  bottom: "Convolution24"
  top: "Convolution24"
}
layer {
  name: "Convolution25"
  type: "Convolution"
  bottom: "Convolution24"
  top: "Convolution25"
  convolution_param {
    num_output: 16
    bias_term: true
    pad: 1
    kernel_size: 3
    stride: 1
    weight_filler {
      type: "msra"
    }
    bias_filler {
      type: "constant"
    }
  }
}
layer {
  name: "BatchNorm25"
  type: "BatchNorm"
  bottom: "Convolution25"
  top: "Convolution25"
  param {
    lr_mult: 0
    decay_mult: 0
  }
  param {
    lr_mult: 0
    decay_mult: 0
  }
  param {
    lr_mult: 0
    decay_mult: 0
  }
}
layer {
  name: "Scale25"
  type: "Scale"
  bottom: "Convolution25"
  top: "Convolution25"
  scale_param {
    bias_term: true
  }
}
layer {
  name: "Eltwise12"
  type: "Eltwise"
  bottom: "Eltwise11"
  bottom: "Convolution25"
  top: "Eltwise12"
  eltwise_param {
    operation: SUM
  }
}
layer {
  name: "ReLU25"
  type: "ReLU"
  bottom: "Eltwise12"
  top: "Eltwise12"
}
layer {
  name: "Convolution26"
  type: "Convolution"
  bottom: "Eltwise12"
  top: "Convolution26"
  convolution_param {
    num_output: 16
    bias_term: true
    pad: 1
    kernel_size: 3
    stride: 1
    weight_filler {
      type: "msra"
    }
    bias_filler {
      type: "constant"
    }
  }
}
layer {
  name: "BatchNorm26"
  type: "BatchNorm"
  bottom: "Convolution26"
  top: "Convolution26"
  param {
    lr_mult: 0
    decay_mult: 0
  }
  param {
    lr_mult: 0
    decay_mult: 0
  }
  param {
    lr_mult: 0
    decay_mult: 0
  }
}
layer {
  name: "Scale26"
  type: "Scale"
  bottom: "Convolution26"
  top: "Convolution26"
  scale_param {
    bias_term: true
  }
}
layer {
  name: "ReLU26"
  type: "ReLU"
  bottom: "Convolution26"
  top: "Convolution26"
}
layer {
  name: "Convolution27"
  type: "Convolution"
  bottom: "Convolution26"
  top: "Convolution27"
  convolution_param {
    num_output: 16
    bias_term: true
    pad: 1
    kernel_size: 3
    stride: 1
    weight_filler {
      type: "msra"
    }
    bias_filler {
      type: "constant"
    }
  }
}
layer {
  name: "BatchNorm27"
  type: "BatchNorm"
  bottom: "Convolution27"
  top: "Convolution27"
  param {
    lr_mult: 0
    decay_mult: 0
  }
  param {
    lr_mult: 0
    decay_mult: 0
  }
  param {
    lr_mult: 0
    decay_mult: 0
  }
}
layer {
  name: "Scale27"
  type: "Scale"
  bottom: "Convolution27"
  top: "Convolution27"
  scale_param {
    bias_term: true
  }
}
layer {
  name: "Eltwise13"
  type: "Eltwise"
  bottom: "Eltwise12"
  bottom: "Convolution27"
  top: "Eltwise13"
  eltwise_param {
    operation: SUM
  }
}
layer {
  name: "ReLU27"
  type: "ReLU"
  bottom: "Eltwise13"
  top: "Eltwise13"
}
layer {
  name: "Convolution28"
  type: "Convolution"
  bottom: "Eltwise13"
  top: "Convolution28"
  convolution_param {
    num_output: 16
    bias_term: true
    pad: 1
    kernel_size: 3
    stride: 1
    weight_filler {
      type: "msra"
    }
    bias_filler {
      type: "constant"
    }
  }
}
layer {
  name: "BatchNorm28"
  type: "BatchNorm"
  bottom: "Convolution28"
  top: "Convolution28"
  param {
    lr_mult: 0
    decay_mult: 0
  }
  param {
    lr_mult: 0
    decay_mult: 0
  }
  param {
    lr_mult: 0
    decay_mult: 0
  }
}
layer {
  name: "Scale28"
  type: "Scale"
  bottom: "Convolution28"
  top: "Convolution28"
  scale_param {
    bias_term: true
  }
}
layer {
  name: "ReLU28"
  type: "ReLU"
  bottom: "Convolution28"
  top: "Convolution28"
}
layer {
  name: "Convolution29"
  type: "Convolution"
  bottom: "Convolution28"
  top: "Convolution29"
  convolution_param {
    num_output: 16
    bias_term: true
    pad: 1
    kernel_size: 3
    stride: 1
    weight_filler {
      type: "msra"
    }
    bias_filler {
      type: "constant"
    }
  }
}
layer {
  name: "BatchNorm29"
  type: "BatchNorm"
  bottom: "Convolution29"
  top: "Convolution29"
  param {
    lr_mult: 0
    decay_mult: 0
  }
  param {
    lr_mult: 0
    decay_mult: 0
  }
  param {
    lr_mult: 0
    decay_mult: 0
  }
}
layer {
  name: "Scale29"
  type: "Scale"
  bottom: "Convolution29"
  top: "Convolution29"
  scale_param {
    bias_term: true
  }
}
layer {
  name: "Eltwise14"
  type: "Eltwise"
  bottom: "Eltwise13"
  bottom: "Convolution29"
  top: "Eltwise14"
  eltwise_param {
    operation: SUM
  }
}
layer {
  name: "ReLU29"
  type: "ReLU"
  bottom: "Eltwise14"
  top: "Eltwise14"
}
layer {
  name: "Convolution30"
  type: "Convolution"
  bottom: "Eltwise14"
  top: "Convolution30"
  convolution_param {
    num_output: 16
    bias_term: true
    pad: 1
    kernel_size: 3
    stride: 1
    weight_filler {
      type: "msra"
    }
    bias_filler {
      type: "constant"
    }
  }
}
layer {
  name: "BatchNorm30"
  type: "BatchNorm"
  bottom: "Convolution30"
  top: "Convolution30"
  param {
    lr_mult: 0
    decay_mult: 0
  }
  param {
    lr_mult: 0
    decay_mult: 0
  }
  param {
    lr_mult: 0
    decay_mult: 0
  }
}
layer {
  name: "Scale30"
  type: "Scale"
  bottom: "Convolution30"
  top: "Convolution30"
  scale_param {
    bias_term: true
  }
}
layer {
  name: "ReLU30"
  type: "ReLU"
  bottom: "Convolution30"
  top: "Convolution30"
}
layer {
  name: "Convolution31"
  type: "Convolution"
  bottom: "Convolution30"
  top: "Convolution31"
  convolution_param {
    num_output: 16
    bias_term: true
    pad: 1
    kernel_size: 3
    stride: 1
    weight_filler {
      type: "msra"
    }
    bias_filler {
      type: "constant"
    }
  }
}
layer {
  name: "BatchNorm31"
  type: "BatchNorm"
  bottom: "Convolution31"
  top: "Convolution31"
  param {
    lr_mult: 0
    decay_mult: 0
  }
  param {
    lr_mult: 0
    decay_mult: 0
  }
  param {
    lr_mult: 0
    decay_mult: 0
  }
}
layer {
  name: "Scale31"
  type: "Scale"
  bottom: "Convolution31"
  top: "Convolution31"
  scale_param {
    bias_term: true
  }
}
layer {
  name: "Eltwise15"
  type: "Eltwise"
  bottom: "Eltwise14"
  bottom: "Convolution31"
  top: "Eltwise15"
  eltwise_param {
    operation: SUM
  }
}
layer {
  name: "ReLU31"
  type: "ReLU"
  bottom: "Eltwise15"
  top: "Eltwise15"
}
layer {
  name: "Convolution32"
  type: "Convolution"
  bottom: "Eltwise15"
  top: "Convolution32"
  convolution_param {
    num_output: 16
    bias_term: true
    pad: 1
    kernel_size: 3
    stride: 1
    weight_filler {
      type: "msra"
    }
    bias_filler {
      type: "constant"
    }
  }
}
layer {
  name: "BatchNorm32"
  type: "BatchNorm"
  bottom: "Convolution32"
  top: "Convolution32"
  param {
    lr_mult: 0
    decay_mult: 0
  }
  param {
    lr_mult: 0
    decay_mult: 0
  }
  param {
    lr_mult: 0
    decay_mult: 0
  }
}
layer {
  name: "Scale32"
  type: "Scale"
  bottom: "Convolution32"
  top: "Convolution32"
  scale_param {
    bias_term: true
  }
}
layer {
  name: "ReLU32"
  type: "ReLU"
  bottom: "Convolution32"
  top: "Convolution32"
}
layer {
  name: "Convolution33"
  type: "Convolution"
  bottom: "Convolution32"
  top: "Convolution33"
  convolution_param {
    num_output: 16
    bias_term: true
    pad: 1
    kernel_size: 3
    stride: 1
    weight_filler {
      type: "msra"
    }
    bias_filler {
      type: "constant"
    }
  }
}
layer {
  name: "BatchNorm33"
  type: "BatchNorm"
  bottom: "Convolution33"
  top: "Convolution33"
  param {
    lr_mult: 0
    decay_mult: 0
  }
  param {
    lr_mult: 0
    decay_mult: 0
  }
  param {
    lr_mult: 0
    decay_mult: 0
  }
}
layer {
  name: "Scale33"
  type: "Scale"
  bottom: "Convolution33"
  top: "Convolution33"
  scale_param {
    bias_term: true
  }
}
layer {
  name: "Eltwise16"
  type: "Eltwise"
  bottom: "Eltwise15"
  bottom: "Convolution33"
  top: "Eltwise16"
  eltwise_param {
    operation: SUM
  }
}
layer {
  name: "ReLU33"
  type: "ReLU"
  bottom: "Eltwise16"
  top: "Eltwise16"
}
layer {
  name: "Convolution34"
  type: "Convolution"
  bottom: "Eltwise16"
  top: "Convolution34"
  convolution_param {
    num_output: 16
    bias_term: true
    pad: 1
    kernel_size: 3
    stride: 1
    weight_filler {
      type: "msra"
    }
    bias_filler {
      type: "constant"
    }
  }
}
layer {
  name: "BatchNorm34"
  type: "BatchNorm"
  bottom: "Convolution34"
  top: "Convolution34"
  param {
    lr_mult: 0
    decay_mult: 0
  }
  param {
    lr_mult: 0
    decay_mult: 0
  }
  param {
    lr_mult: 0
    decay_mult: 0
  }
}
layer {
  name: "Scale34"
  type: "Scale"
  bottom: "Convolution34"
  top: "Convolution34"
  scale_param {
    bias_term: true
  }
}
layer {
  name: "ReLU34"
  type: "ReLU"
  bottom: "Convolution34"
  top: "Convolution34"
}
layer {
  name: "Convolution35"
  type: "Convolution"
  bottom: "Convolution34"
  top: "Convolution35"
  convolution_param {
    num_output: 16
    bias_term: true
    pad: 1
    kernel_size: 3
    stride: 1
    weight_filler {
      type: "msra"
    }
    bias_filler {
      type: "constant"
    }
  }
}
layer {
  name: "BatchNorm35"
  type: "BatchNorm"
  bottom: "Convolution35"
  top: "Convolution35"
  param {
    lr_mult: 0
    decay_mult: 0
  }
  param {
    lr_mult: 0
    decay_mult: 0
  }
  param {
    lr_mult: 0
    decay_mult: 0
  }
}
layer {
  name: "Scale35"
  type: "Scale"
  bottom: "Convolution35"
  top: "Convolution35"
  scale_param {
    bias_term: true
  }
}
layer {
  name: "Eltwise17"
  type: "Eltwise"
  bottom: "Eltwise16"
  bottom: "Convolution35"
  top: "Eltwise17"
  eltwise_param {
    operation: SUM
  }
}
layer {
  name: "ReLU35"
  type: "ReLU"
  bottom: "Eltwise17"
  top: "Eltwise17"
}
layer {
  name: "Convolution36"
  type: "Convolution"
  bottom: "Eltwise17"
  top: "Convolution36"
  convolution_param {
    num_output: 16
    bias_term: true
    pad: 1
    kernel_size: 3
    stride: 1
    weight_filler {
      type: "msra"
    }
    bias_filler {
      type: "constant"
    }
  }
}
layer {
I0619 10:03:31.355633 29673 layer_factory.hpp:77] Creating layer Data1
I0619 10:03:31.356706 29673 net.cpp:190] Creating Layer Data1
I0619 10:03:31.356731 29673 net.cpp:589] Data1 -> Data1
I0619 10:03:31.356781 29673 net.cpp:589] Data1 -> Data2
I0619 10:03:31.396060 29677 db_leveldb.cpp:18] Opened leveldb /scratch/pas282/caffe/examples/cifar10/cifar10_train_leveldb_padding0
I0619 10:03:31.415201 29673 data_layer.cpp:41] output data size: 128,3,32,32
I0619 10:03:31.421084 29673 net.cpp:240] Setting up Data1
I0619 10:03:31.421126 29673 net.cpp:247] Top shape: 128 3 32 32 (393216)
I0619 10:03:31.421140 29673 net.cpp:247] Top shape: 128 (128)
I0619 10:03:31.421149 29673 net.cpp:255] Memory required for data: 1573376
I0619 10:03:31.421166 29673 layer_factory.hpp:77] Creating layer Convolution1
I0619 10:03:31.421216 29673 net.cpp:190] Creating Layer Convolution1
I0619 10:03:31.421229 29673 net.cpp:615] Convolution1 <- Data1
I0619 10:03:31.421252 29673 net.cpp:589] Convolution1 -> Convolution1
I0619 10:03:31.422698 29673 net.cpp:240] Setting up Convolution1
I0619 10:03:31.422722 29673 net.cpp:247] Top shape: 128 16 32 32 (2097152)
I0619 10:03:31.422729 29673 net.cpp:255] Memory required for data: 9961984
I0619 10:03:31.422765 29673 layer_factory.hpp:77] Creating layer BatchNorm1
I0619 10:03:31.422785 29673 net.cpp:190] Creating Layer BatchNorm1
I0619 10:03:31.422793 29673 net.cpp:615] BatchNorm1 <- Convolution1
I0619 10:03:31.422804 29673 net.cpp:576] BatchNorm1 -> Convolution1 (in-place)
I0619 10:03:31.423143 29673 net.cpp:240] Setting up BatchNorm1
I0619 10:03:31.423158 29673 net.cpp:247] Top shape: 128 16 32 32 (2097152)
I0619 10:03:31.423164 29673 net.cpp:255] Memory required for data: 18350592
I0619 10:03:31.423193 29673 layer_factory.hpp:77] Creating layer Scale1
I0619 10:03:31.423207 29673 net.cpp:190] Creating Layer Scale1
I0619 10:03:31.423213 29673 net.cpp:615] Scale1 <- Convolution1
I0619 10:03:31.423223 29673 net.cpp:576] Scale1 -> Convolution1 (in-place)
I0619 10:03:31.423471 29673 layer_factory.hpp:77] Creating layer Scale1
I0619 10:03:31.423666 29673 net.cpp:240] Setting up Scale1
I0619 10:03:31.423686 29673 net.cpp:247] Top shape: 128 16 32 32 (2097152)
I0619 10:03:31.423692 29673 net.cpp:255] Memory required for data: 26739200
I0619 10:03:31.423708 29673 layer_factory.hpp:77] Creating layer ReLU1
I0619 10:03:31.423724 29673 net.cpp:190] Creating Layer ReLU1
I0619 10:03:31.423732 29673 net.cpp:615] ReLU1 <- Convolution1
I0619 10:03:31.423741 29673 net.cpp:576] ReLU1 -> Convolution1 (in-place)
I0619 10:03:31.423753 29673 net.cpp:240] Setting up ReLU1
I0619 10:03:31.423763 29673 net.cpp:247] Top shape: 128 16 32 32 (2097152)
I0619 10:03:31.423769 29673 net.cpp:255] Memory required for data: 35127808
I0619 10:03:31.423775 29673 layer_factory.hpp:77] Creating layer Convolution1_ReLU1_0_split
I0619 10:03:31.423800 29673 net.cpp:190] Creating Layer Convolution1_ReLU1_0_split
I0619 10:03:31.423807 29673 net.cpp:615] Convolution1_ReLU1_0_split <- Convolution1
I0619 10:03:31.423817 29673 net.cpp:589] Convolution1_ReLU1_0_split -> Convolution1_ReLU1_0_split_0
I0619 10:03:31.423830 29673 net.cpp:589] Convolution1_ReLU1_0_split -> Convolution1_ReLU1_0_split_1
I0619 10:03:31.423889 29673 net.cpp:240] Setting up Convolution1_ReLU1_0_split
I0619 10:03:31.423900 29673 net.cpp:247] Top shape: 128 16 32 32 (2097152)
I0619 10:03:31.423910 29673 net.cpp:247] Top shape: 128 16 32 32 (2097152)
I0619 10:03:31.423916 29673 net.cpp:255] Memory required for data: 51905024
I0619 10:03:31.423923 29673 layer_factory.hpp:77] Creating layer Convolution2
I0619 10:03:31.423943 29673 net.cpp:190] Creating Layer Convolution2
I0619 10:03:31.423950 29673 net.cpp:615] Convolution2 <- Convolution1_ReLU1_0_split_0
I0619 10:03:31.423961 29673 net.cpp:589] Convolution2 -> Convolution2
I0619 10:03:31.425338 29673 net.cpp:240] Setting up Convolution2
I0619 10:03:31.425360 29673 net.cpp:247] Top shape: 128 16 32 32 (2097152)
I0619 10:03:31.425369 29673 net.cpp:255] Memory required for data: 60293632
I0619 10:03:31.425397 29673 layer_factory.hpp:77] Creating layer BatchNorm2
I0619 10:03:31.425415 29673 net.cpp:190] Creating Layer BatchNorm2
I0619 10:03:31.425421 29673 net.cpp:615] BatchNorm2 <- Convolution2
I0619 10:03:31.425432 29673 net.cpp:576] BatchNorm2 -> Convolution2 (in-place)
I0619 10:03:31.425786 29673 net.cpp:240] Setting up BatchNorm2
I0619 10:03:31.425801 29673 net.cpp:247] Top shape: 128 16 32 32 (2097152)
I0619 10:03:31.425806 29673 net.cpp:255] Memory required for data: 68682240
I0619 10:03:31.425828 29673 layer_factory.hpp:77] Creating layer Scale2
I0619 10:03:31.425843 29673 net.cpp:190] Creating Layer Scale2
I0619 10:03:31.425849 29673 net.cpp:615] Scale2 <- Convolution2
I0619 10:03:31.425859 29673 net.cpp:576] Scale2 -> Convolution2 (in-place)
I0619 10:03:31.425940 29673 layer_factory.hpp:77] Creating layer Scale2
I0619 10:03:31.426259 29673 net.cpp:240] Setting up Scale2
I0619 10:03:31.426275 29673 net.cpp:247] Top shape: 128 16 32 32 (2097152)
I0619 10:03:31.426280 29673 net.cpp:255] Memory required for data: 77070848
I0619 10:03:31.426295 29673 layer_factory.hpp:77] Creating layer ReLU2
I0619 10:03:31.426311 29673 net.cpp:190] Creating Layer ReLU2
I0619 10:03:31.426317 29673 net.cpp:615] ReLU2 <- Convolution2
I0619 10:03:31.426326 29673 net.cpp:576] ReLU2 -> Convolution2 (in-place)
I0619 10:03:31.426338 29673 net.cpp:240] Setting up ReLU2
I0619 10:03:31.426347 29673 net.cpp:247] Top shape: 128 16 32 32 (2097152)
I0619 10:03:31.426364 29673 net.cpp:255] Memory required for data: 85459456
I0619 10:03:31.426372 29673 layer_factory.hpp:77] Creating layer Convolution3
I0619 10:03:31.426389 29673 net.cpp:190] Creating Layer Convolution3
I0619 10:03:31.426396 29673 net.cpp:615] Convolution3 <- Convolution2
I0619 10:03:31.426406 29673 net.cpp:589] Convolution3 -> Convolution3
I0619 10:03:31.426903 29673 net.cpp:240] Setting up Convolution3
I0619 10:03:31.426916 29673 net.cpp:247] Top shape: 128 16 32 32 (2097152)
I0619 10:03:31.426923 29673 net.cpp:255] Memory required for data: 93848064
I0619 10:03:31.426937 29673 layer_factory.hpp:77] Creating layer BatchNorm3
I0619 10:03:31.426950 29673 net.cpp:190] Creating Layer BatchNorm3
I0619 10:03:31.426962 29673 net.cpp:615] BatchNorm3 <- Convolution3
I0619 10:03:31.426972 29673 net.cpp:576] BatchNorm3 -> Convolution3 (in-place)
I0619 10:03:31.427271 29673 net.cpp:240] Setting up BatchNorm3
I0619 10:03:31.427284 29673 net.cpp:247] Top shape: 128 16 32 32 (2097152)
I0619 10:03:31.427290 29673 net.cpp:255] Memory required for data: 102236672
I0619 10:03:31.427314 29673 layer_factory.hpp:77] Creating layer Scale3
I0619 10:03:31.427325 29673 net.cpp:190] Creating Layer Scale3
I0619 10:03:31.427332 29673 net.cpp:615] Scale3 <- Convolution3
I0619 10:03:31.427345 29673 net.cpp:576] Scale3 -> Convolution3 (in-place)
I0619 10:03:31.427400 29673 layer_factory.hpp:77] Creating layer Scale3
I0619 10:03:31.427577 29673 net.cpp:240] Setting up Scale3
I0619 10:03:31.427590 29673 net.cpp:247] Top shape: 128 16 32 32 (2097152)
I0619 10:03:31.427597 29673 net.cpp:255] Memory required for data: 110625280
I0619 10:03:31.427610 29673 layer_factory.hpp:77] Creating layer Eltwise1
I0619 10:03:31.427637 29673 net.cpp:190] Creating Layer Eltwise1
I0619 10:03:31.427644 29673 net.cpp:615] Eltwise1 <- Convolution1_ReLU1_0_split_1
I0619 10:03:31.427654 29673 net.cpp:615] Eltwise1 <- Convolution3
I0619 10:03:31.427664 29673 net.cpp:589] Eltwise1 -> Eltwise1
I0619 10:03:31.427712 29673 net.cpp:240] Setting up Eltwise1
I0619 10:03:31.427724 29673 net.cpp:247] Top shape: 128 16 32 32 (2097152)
I0619 10:03:31.427731 29673 net.cpp:255] Memory required for data: 119013888
I0619 10:03:31.427736 29673 layer_factory.hpp:77] Creating layer ReLU3
I0619 10:03:31.427745 29673 net.cpp:190] Creating Layer ReLU3
I0619 10:03:31.427752 29673 net.cpp:615] ReLU3 <- Eltwise1
I0619 10:03:31.427765 29673 net.cpp:576] ReLU3 -> Eltwise1 (in-place)
I0619 10:03:31.427777 29673 net.cpp:240] Setting up ReLU3
I0619 10:03:31.427785 29673 net.cpp:247] Top shape: 128 16 32 32 (2097152)
I0619 10:03:31.427793 29673 net.cpp:255] Memory required for data: 127402496
I0619 10:03:31.427798 29673 layer_factory.hpp:77] Creating layer Eltwise1_ReLU3_0_split
I0619 10:03:31.427808 29673 net.cpp:190] Creating Layer Eltwise1_ReLU3_0_split
I0619 10:03:31.427814 29673 net.cpp:615] Eltwise1_ReLU3_0_split <- Eltwise1
I0619 10:03:31.427822 29673 net.cpp:589] Eltwise1_ReLU3_0_split -> Eltwise1_ReLU3_0_split_0
I0619 10:03:31.427836 29673 net.cpp:589] Eltwise1_ReLU3_0_split -> Eltwise1_ReLU3_0_split_1
I0619 10:03:31.427893 29673 net.cpp:240] Setting up Eltwise1_ReLU3_0_split
I0619 10:03:31.427906 29673 net.cpp:247] Top shape: 128 16 32 32 (2097152)
I0619 10:03:31.427913 29673 net.cpp:247] Top shape: 128 16 32 32 (2097152)
I0619 10:03:31.427920 29673 net.cpp:255] Memory required for data: 144179712
I0619 10:03:31.427927 29673 layer_factory.hpp:77] Creating layer Convolution4
I0619 10:03:31.427947 29673 net.cpp:190] Creating Layer Convolution4
I0619 10:03:31.427954 29673 net.cpp:615] Convolution4 <- Eltwise1_ReLU3_0_split_0
I0619 10:03:31.427965 29673 net.cpp:589] Convolution4 -> Convolution4
I0619 10:03:31.427973 29678 blocking_queue.cpp:50] Waiting for data
I0619 10:03:31.428458 29673 net.cpp:240] Setting up Convolution4
I0619 10:03:31.428472 29673 net.cpp:247] Top shape: 128 16 32 32 (2097152)
I0619 10:03:31.428478 29673 net.cpp:255] Memory required for data: 152568320
I0619 10:03:31.428493 29673 layer_factory.hpp:77] Creating layer BatchNorm4
I0619 10:03:31.428508 29673 net.cpp:190] Creating Layer BatchNorm4
I0619 10:03:31.428514 29673 net.cpp:615] BatchNorm4 <- Convolution4
I0619 10:03:31.428526 29673 net.cpp:576] BatchNorm4 -> Convolution4 (in-place)
I0619 10:03:31.428822 29673 net.cpp:240] Setting up BatchNorm4
I0619 10:03:31.428834 29673 net.cpp:247] Top shape: 128 16 32 32 (2097152)
I0619 10:03:31.428840 29673 net.cpp:255] Memory required for data: 160956928
I0619 10:03:31.428858 29673 layer_factory.hpp:77] Creating layer Scale4
I0619 10:03:31.428871 29673 net.cpp:190] Creating Layer Scale4
I0619 10:03:31.428879 29673 net.cpp:615] Scale4 <- Convolution4
I0619 10:03:31.428887 29673 net.cpp:576] Scale4 -> Convolution4 (in-place)
I0619 10:03:31.428941 29673 layer_factory.hpp:77] Creating layer Scale4
I0619 10:03:31.429127 29673 net.cpp:240] Setting up Scale4
I0619 10:03:31.429141 29673 net.cpp:247] Top shape: 128 16 32 32 (2097152)
I0619 10:03:31.429147 29673 net.cpp:255] Memory required for data: 169345536
I0619 10:03:31.429160 29673 layer_factory.hpp:77] Creating layer ReLU4
I0619 10:03:31.429172 29673 net.cpp:190] Creating Layer ReLU4
I0619 10:03:31.429178 29673 net.cpp:615] ReLU4 <- Convolution4
I0619 10:03:31.429190 29673 net.cpp:576] ReLU4 -> Convolution4 (in-place)
I0619 10:03:31.429201 29673 net.cpp:240] Setting up ReLU4
I0619 10:03:31.429211 29673 net.cpp:247] Top shape: 128 16 32 32 (2097152)
I0619 10:03:31.429217 29673 net.cpp:255] Memory required for data: 177734144
I0619 10:03:31.429224 29673 layer_factory.hpp:77] Creating layer Convolution5
I0619 10:03:31.429240 29673 net.cpp:190] Creating Layer Convolution5
I0619 10:03:31.429247 29673 net.cpp:615] Convolution5 <- Convolution4
I0619 10:03:31.429257 29673 net.cpp:589] Convolution5 -> Convolution5
I0619 10:03:31.429800 29673 net.cpp:240] Setting up Convolution5
I0619 10:03:31.429816 29673 net.cpp:247] Top shape: 128 16 32 32 (2097152)
I0619 10:03:31.429823 29673 net.cpp:255] Memory required for data: 186122752
I0619 10:03:31.429837 29673 layer_factory.hpp:77] Creating layer BatchNorm5
I0619 10:03:31.429855 29673 net.cpp:190] Creating Layer BatchNorm5
I0619 10:03:31.429862 29673 net.cpp:615] BatchNorm5 <- Convolution5
I0619 10:03:31.429875 29673 net.cpp:576] BatchNorm5 -> Convolution5 (in-place)
I0619 10:03:31.430253 29673 net.cpp:240] Setting up BatchNorm5
I0619 10:03:31.430269 29673 net.cpp:247] Top shape: 128 16 32 32 (2097152)
I0619 10:03:31.430276 29673 net.cpp:255] Memory required for data: 194511360
I0619 10:03:31.430305 29673 layer_factory.hpp:77] Creating layer Scale5
I0619 10:03:31.430318 29673 net.cpp:190] Creating Layer Scale5
I0619 10:03:31.430325 29673 net.cpp:615] Scale5 <- Convolution5
I0619 10:03:31.430335 29673 net.cpp:576] Scale5 -> Convolution5 (in-place)
I0619 10:03:31.430441 29673 layer_factory.hpp:77] Creating layer Scale5
I0619 10:03:31.430625 29673 net.cpp:240] Setting up Scale5
I0619 10:03:31.430639 29673 net.cpp:247] Top shape: 128 16 32 32 (2097152)
I0619 10:03:31.430645 29673 net.cpp:255] Memory required for data: 202899968
I0619 10:03:31.430660 29673 layer_factory.hpp:77] Creating layer Eltwise2
I0619 10:03:31.430671 29673 net.cpp:190] Creating Layer Eltwise2
I0619 10:03:31.430680 29673 net.cpp:615] Eltwise2 <- Eltwise1_ReLU3_0_split_1
I0619 10:03:31.430687 29673 net.cpp:615] Eltwise2 <- Convolution5
I0619 10:03:31.430701 29673 net.cpp:589] Eltwise2 -> Eltwise2
I0619 10:03:31.430737 29673 net.cpp:240] Setting up Eltwise2
I0619 10:03:31.430748 29673 net.cpp:247] Top shape: 128 16 32 32 (2097152)
I0619 10:03:31.430754 29673 net.cpp:255] Memory required for data: 211288576
I0619 10:03:31.430762 29673 layer_factory.hpp:77] Creating layer ReLU5
I0619 10:03:31.430773 29673 net.cpp:190] Creating Layer ReLU5
I0619 10:03:31.430780 29673 net.cpp:615] ReLU5 <- Eltwise2
I0619 10:03:31.430789 29673 net.cpp:576] ReLU5 -> Eltwise2 (in-place)
I0619 10:03:31.430800 29673 net.cpp:240] Setting up ReLU5
I0619 10:03:31.430809 29673 net.cpp:247] Top shape: 128 16 32 32 (2097152)
I0619 10:03:31.430815 29673 net.cpp:255] Memory required for data: 219677184
I0619 10:03:31.430821 29673 layer_factory.hpp:77] Creating layer Eltwise2_ReLU5_0_split
I0619 10:03:31.430831 29673 net.cpp:190] Creating Layer Eltwise2_ReLU5_0_split
I0619 10:03:31.430837 29673 net.cpp:615] Eltwise2_ReLU5_0_split <- Eltwise2
I0619 10:03:31.430846 29673 net.cpp:589] Eltwise2_ReLU5_0_split -> Eltwise2_ReLU5_0_split_0
I0619 10:03:31.430857 29673 net.cpp:589] Eltwise2_ReLU5_0_split -> Eltwise2_ReLU5_0_split_1
I0619 10:03:31.430915 29673 net.cpp:240] Setting up Eltwise2_ReLU5_0_split
I0619 10:03:31.430927 29673 net.cpp:247] Top shape: 128 16 32 32 (2097152)
I0619 10:03:31.430934 29673 net.cpp:247] Top shape: 128 16 32 32 (2097152)
I0619 10:03:31.430940 29673 net.cpp:255] Memory required for data: 236454400
I0619 10:03:31.430946 29673 layer_factory.hpp:77] Creating layer Convolution6
I0619 10:03:31.430968 29673 net.cpp:190] Creating Layer Convolution6
I0619 10:03:31.430976 29673 net.cpp:615] Convolution6 <- Eltwise2_ReLU5_0_split_0
I0619 10:03:31.430989 29673 net.cpp:589] Convolution6 -> Convolution6
I0619 10:03:31.431480 29673 net.cpp:240] Setting up Convolution6
I0619 10:03:31.431493 29673 net.cpp:247] Top shape: 128 16 32 32 (2097152)
I0619 10:03:31.431500 29673 net.cpp:255] Memory required for data: 244843008
I0619 10:03:31.431514 29673 layer_factory.hpp:77] Creating layer BatchNorm6
I0619 10:03:31.431529 29673 net.cpp:190] Creating Layer BatchNorm6
I0619 10:03:31.431535 29673 net.cpp:615] BatchNorm6 <- Convolution6
I0619 10:03:31.431545 29673 net.cpp:576] BatchNorm6 -> Convolution6 (in-place)
I0619 10:03:31.431844 29673 net.cpp:240] Setting up BatchNorm6
I0619 10:03:31.431857 29673 net.cpp:247] Top shape: 128 16 32 32 (2097152)
I0619 10:03:31.431864 29673 net.cpp:255] Memory required for data: 253231616
I0619 10:03:31.431880 29673 layer_factory.hpp:77] Creating layer Scale6
I0619 10:03:31.431891 29673 net.cpp:190] Creating Layer Scale6
I0619 10:03:31.431898 29673 net.cpp:615] Scale6 <- Convolution6
I0619 10:03:31.431910 29673 net.cpp:576] Scale6 -> Convolution6 (in-place)
I0619 10:03:31.431962 29673 layer_factory.hpp:77] Creating layer Scale6
I0619 10:03:31.432142 29673 net.cpp:240] Setting up Scale6
I0619 10:03:31.432153 29673 net.cpp:247] Top shape: 128 16 32 32 (2097152)
I0619 10:03:31.432159 29673 net.cpp:255] Memory required for data: 261620224
I0619 10:03:31.432176 29673 layer_factory.hpp:77] Creating layer ReLU6
I0619 10:03:31.432188 29673 net.cpp:190] Creating Layer ReLU6
I0619 10:03:31.432193 29673 net.cpp:615] ReLU6 <- Convolution6
I0619 10:03:31.432204 29673 net.cpp:576] ReLU6 -> Convolution6 (in-place)
I0619 10:03:31.432214 29673 net.cpp:240] Setting up ReLU6
I0619 10:03:31.432224 29673 net.cpp:247] Top shape: 128 16 32 32 (2097152)
I0619 10:03:31.432229 29673 net.cpp:255] Memory required for data: 270008832
I0619 10:03:31.432235 29673 layer_factory.hpp:77] Creating layer Convolution7
I0619 10:03:31.432253 29673 net.cpp:190] Creating Layer Convolution7
I0619 10:03:31.432260 29673 net.cpp:615] Convolution7 <- Convolution6
I0619 10:03:31.432272 29673 net.cpp:589] Convolution7 -> Convolution7
I0619 10:03:31.432776 29673 net.cpp:240] Setting up Convolution7
I0619 10:03:31.432792 29673 net.cpp:247] Top shape: 128 16 32 32 (2097152)
I0619 10:03:31.432798 29673 net.cpp:255] Memory required for data: 278397440
I0619 10:03:31.432812 29673 layer_factory.hpp:77] Creating layer BatchNorm7
I0619 10:03:31.432827 29673 net.cpp:190] Creating Layer BatchNorm7
I0619 10:03:31.432834 29673 net.cpp:615] BatchNorm7 <- Convolution7
I0619 10:03:31.432847 29673 net.cpp:576] BatchNorm7 -> Convolution7 (in-place)
I0619 10:03:31.433140 29673 net.cpp:240] Setting up BatchNorm7
I0619 10:03:31.433152 29673 net.cpp:247] Top shape: 128 16 32 32 (2097152)
I0619 10:03:31.433158 29673 net.cpp:255] Memory required for data: 286786048
I0619 10:03:31.433176 29673 layer_factory.hpp:77] Creating layer Scale7
I0619 10:03:31.433193 29673 net.cpp:190] Creating Layer Scale7
I0619 10:03:31.433200 29673 net.cpp:615] Scale7 <- Convolution7
I0619 10:03:31.433210 29673 net.cpp:576] Scale7 -> Convolution7 (in-place)
I0619 10:03:31.433265 29673 layer_factory.hpp:77] Creating layer Scale7
I0619 10:03:31.433441 29673 net.cpp:240] Setting up Scale7
I0619 10:03:31.433454 29673 net.cpp:247] Top shape: 128 16 32 32 (2097152)
I0619 10:03:31.433459 29673 net.cpp:255] Memory required for data: 295174656
I0619 10:03:31.433473 29673 layer_factory.hpp:77] Creating layer Eltwise3
I0619 10:03:31.433490 29673 net.cpp:190] Creating Layer Eltwise3
I0619 10:03:31.433497 29673 net.cpp:615] Eltwise3 <- Eltwise2_ReLU5_0_split_1
I0619 10:03:31.433506 29673 net.cpp:615] Eltwise3 <- Convolution7
I0619 10:03:31.433516 29673 net.cpp:589] Eltwise3 -> Eltwise3
I0619 10:03:31.433554 29673 net.cpp:240] Setting up Eltwise3
I0619 10:03:31.433565 29673 net.cpp:247] Top shape: 128 16 32 32 (2097152)
I0619 10:03:31.433573 29673 net.cpp:255] Memory required for data: 303563264
I0619 10:03:31.433583 29673 layer_factory.hpp:77] Creating layer ReLU7
I0619 10:03:31.433593 29673 net.cpp:190] Creating Layer ReLU7
I0619 10:03:31.433599 29673 net.cpp:615] ReLU7 <- Eltwise3
I0619 10:03:31.433611 29673 net.cpp:576] ReLU7 -> Eltwise3 (in-place)
I0619 10:03:31.433622 29673 net.cpp:240] Setting up ReLU7
I0619 10:03:31.433631 29673 net.cpp:247] Top shape: 128 16 32 32 (2097152)
I0619 10:03:31.433639 29673 net.cpp:255] Memory required for data: 311951872
I0619 10:03:31.433645 29673 layer_factory.hpp:77] Creating layer Eltwise3_ReLU7_0_split
I0619 10:03:31.433653 29673 net.cpp:190] Creating Layer Eltwise3_ReLU7_0_split
I0619 10:03:31.433660 29673 net.cpp:615] Eltwise3_ReLU7_0_split <- Eltwise3
I0619 10:03:31.433668 29673 net.cpp:589] Eltwise3_ReLU7_0_split -> Eltwise3_ReLU7_0_split_0
I0619 10:03:31.433679 29673 net.cpp:589] Eltwise3_ReLU7_0_split -> Eltwise3_ReLU7_0_split_1
I0619 10:03:31.433735 29673 net.cpp:240] Setting up Eltwise3_ReLU7_0_split
I0619 10:03:31.433745 29673 net.cpp:247] Top shape: 128 16 32 32 (2097152)
I0619 10:03:31.433754 29673 net.cpp:247] Top shape: 128 16 32 32 (2097152)
I0619 10:03:31.433760 29673 net.cpp:255] Memory required for data: 328729088
I0619 10:03:31.433766 29673 layer_factory.hpp:77] Creating layer Convolution8
I0619 10:03:31.433780 29673 net.cpp:190] Creating Layer Convolution8
I0619 10:03:31.433787 29673 net.cpp:615] Convolution8 <- Eltwise3_ReLU7_0_split_0
I0619 10:03:31.433801 29673 net.cpp:589] Convolution8 -> Convolution8
I0619 10:03:31.434296 29673 net.cpp:240] Setting up Convolution8
I0619 10:03:31.434309 29673 net.cpp:247] Top shape: 128 16 32 32 (2097152)
I0619 10:03:31.434315 29673 net.cpp:255] Memory required for data: 337117696
I0619 10:03:31.434330 29673 layer_factory.hpp:77] Creating layer BatchNorm8
I0619 10:03:31.434340 29673 net.cpp:190] Creating Layer BatchNorm8
I0619 10:03:31.434347 29673 net.cpp:615] BatchNorm8 <- Convolution8
I0619 10:03:31.434371 29673 net.cpp:576] BatchNorm8 -> Convolution8 (in-place)
I0619 10:03:31.434679 29673 net.cpp:240] Setting up BatchNorm8
I0619 10:03:31.434691 29673 net.cpp:247] Top shape: 128 16 32 32 (2097152)
I0619 10:03:31.434697 29673 net.cpp:255] Memory required for data: 345506304
I0619 10:03:31.434716 29673 layer_factory.hpp:77] Creating layer Scale8
I0619 10:03:31.434726 29673 net.cpp:190] Creating Layer Scale8
I0619 10:03:31.434733 29673 net.cpp:615] Scale8 <- Convolution8
I0619 10:03:31.434743 29673 net.cpp:576] Scale8 -> Convolution8 (in-place)
I0619 10:03:31.434798 29673 layer_factory.hpp:77] Creating layer Scale8
I0619 10:03:31.434985 29673 net.cpp:240] Setting up Scale8
I0619 10:03:31.434998 29673 net.cpp:247] Top shape: 128 16 32 32 (2097152)
I0619 10:03:31.435003 29673 net.cpp:255] Memory required for data: 353894912
I0619 10:03:31.435017 29673 layer_factory.hpp:77] Creating layer ReLU8
I0619 10:03:31.435027 29673 net.cpp:190] Creating Layer ReLU8
I0619 10:03:31.435034 29673 net.cpp:615] ReLU8 <- Convolution8
I0619 10:03:31.435045 29673 net.cpp:576] ReLU8 -> Convolution8 (in-place)
I0619 10:03:31.435056 29673 net.cpp:240] Setting up ReLU8
I0619 10:03:31.435065 29673 net.cpp:247] Top shape: 128 16 32 32 (2097152)
I0619 10:03:31.435070 29673 net.cpp:255] Memory required for data: 362283520
I0619 10:03:31.435076 29673 layer_factory.hpp:77] Creating layer Convolution9
I0619 10:03:31.435091 29673 net.cpp:190] Creating Layer Convolution9
I0619 10:03:31.435096 29673 net.cpp:615] Convolution9 <- Convolution8
I0619 10:03:31.435111 29673 net.cpp:589] Convolution9 -> Convolution9
I0619 10:03:31.435577 29673 net.cpp:240] Setting up Convolution9
I0619 10:03:31.435590 29673 net.cpp:247] Top shape: 128 16 32 32 (2097152)
I0619 10:03:31.435596 29673 net.cpp:255] Memory required for data: 370672128
I0619 10:03:31.435609 29673 layer_factory.hpp:77] Creating layer BatchNorm9
I0619 10:03:31.435619 29673 net.cpp:190] Creating Layer BatchNorm9
I0619 10:03:31.435626 29673 net.cpp:615] BatchNorm9 <- Convolution9
I0619 10:03:31.435637 29673 net.cpp:576] BatchNorm9 -> Convolution9 (in-place)
I0619 10:03:31.435921 29673 net.cpp:240] Setting up BatchNorm9
I0619 10:03:31.435937 29673 net.cpp:247] Top shape: 128 16 32 32 (2097152)
I0619 10:03:31.435943 29673 net.cpp:255] Memory required for data: 379060736
I0619 10:03:31.435961 29673 layer_factory.hpp:77] Creating layer Scale9
I0619 10:03:31.435971 29673 net.cpp:190] Creating Layer Scale9
I0619 10:03:31.435976 29673 net.cpp:615] Scale9 <- Convolution9
I0619 10:03:31.435986 29673 net.cpp:576] Scale9 -> Convolution9 (in-place)
I0619 10:03:31.436038 29673 layer_factory.hpp:77] Creating layer Scale9
I0619 10:03:31.436205 29673 net.cpp:240] Setting up Scale9
I0619 10:03:31.436216 29673 net.cpp:247] Top shape: 128 16 32 32 (2097152)
I0619 10:03:31.436223 29673 net.cpp:255] Memory required for data: 387449344
I0619 10:03:31.436235 29673 layer_factory.hpp:77] Creating layer Eltwise4
I0619 10:03:31.436245 29673 net.cpp:190] Creating Layer Eltwise4
I0619 10:03:31.436252 29673 net.cpp:615] Eltwise4 <- Eltwise3_ReLU7_0_split_1
I0619 10:03:31.436264 29673 net.cpp:615] Eltwise4 <- Convolution9
I0619 10:03:31.436272 29673 net.cpp:589] Eltwise4 -> Eltwise4
I0619 10:03:31.436306 29673 net.cpp:240] Setting up Eltwise4
I0619 10:03:31.436316 29673 net.cpp:247] Top shape: 128 16 32 32 (2097152)
I0619 10:03:31.436321 29673 net.cpp:255] Memory required for data: 395837952
I0619 10:03:31.436327 29673 layer_factory.hpp:77] Creating layer ReLU9
I0619 10:03:31.436339 29673 net.cpp:190] Creating Layer ReLU9
I0619 10:03:31.436345 29673 net.cpp:615] ReLU9 <- Eltwise4
I0619 10:03:31.436353 29673 net.cpp:576] ReLU9 -> Eltwise4 (in-place)
I0619 10:03:31.436363 29673 net.cpp:240] Setting up ReLU9
I0619 10:03:31.436372 29673 net.cpp:247] Top shape: 128 16 32 32 (2097152)
I0619 10:03:31.436378 29673 net.cpp:255] Memory required for data: 404226560
I0619 10:03:31.436383 29673 layer_factory.hpp:77] Creating layer Eltwise4_ReLU9_0_split
I0619 10:03:31.436394 29673 net.cpp:190] Creating Layer Eltwise4_ReLU9_0_split
I0619 10:03:31.436400 29673 net.cpp:615] Eltwise4_ReLU9_0_split <- Eltwise4
I0619 10:03:31.436409 29673 net.cpp:589] Eltwise4_ReLU9_0_split -> Eltwise4_ReLU9_0_split_0
I0619 10:03:31.436419 29673 net.cpp:589] Eltwise4_ReLU9_0_split -> Eltwise4_ReLU9_0_split_1
I0619 10:03:31.436487 29673 net.cpp:240] Setting up Eltwise4_ReLU9_0_split
I0619 10:03:31.436501 29673 net.cpp:247] Top shape: 128 16 32 32 (2097152)
I0619 10:03:31.436508 29673 net.cpp:247] Top shape: 128 16 32 32 (2097152)
I0619 10:03:31.436513 29673 net.cpp:255] Memory required for data: 421003776
I0619 10:03:31.436520 29673 layer_factory.hpp:77] Creating layer Convolution10
I0619 10:03:31.436537 29673 net.cpp:190] Creating Layer Convolution10
I0619 10:03:31.436543 29673 net.cpp:615] Convolution10 <- Eltwise4_ReLU9_0_split_0
I0619 10:03:31.436554 29673 net.cpp:589] Convolution10 -> Convolution10
I0619 10:03:31.437031 29673 net.cpp:240] Setting up Convolution10
I0619 10:03:31.437043 29673 net.cpp:247] Top shape: 128 16 32 32 (2097152)
I0619 10:03:31.437049 29673 net.cpp:255] Memory required for data: 429392384
I0619 10:03:31.437080 29673 layer_factory.hpp:77] Creating layer BatchNorm10
I0619 10:03:31.437108 29673 net.cpp:190] Creating Layer BatchNorm10
I0619 10:03:31.437117 29673 net.cpp:615] BatchNorm10 <- Convolution10
I0619 10:03:31.437127 29673 net.cpp:576] BatchNorm10 -> Convolution10 (in-place)
I0619 10:03:31.437412 29673 net.cpp:240] Setting up BatchNorm10
I0619 10:03:31.437422 29673 net.cpp:247] Top shape: 128 16 32 32 (2097152)
I0619 10:03:31.437428 29673 net.cpp:255] Memory required for data: 437780992
I0619 10:03:31.437445 29673 layer_factory.hpp:77] Creating layer Scale10
I0619 10:03:31.437455 29673 net.cpp:190] Creating Layer Scale10
I0619 10:03:31.437461 29673 net.cpp:615] Scale10 <- Convolution10
I0619 10:03:31.437474 29673 net.cpp:576] Scale10 -> Convolution10 (in-place)
I0619 10:03:31.437521 29673 layer_factory.hpp:77] Creating layer Scale10
I0619 10:03:31.437685 29673 net.cpp:240] Setting up Scale10
I0619 10:03:31.437696 29673 net.cpp:247] Top shape: 128 16 32 32 (2097152)
I0619 10:03:31.437702 29673 net.cpp:255] Memory required for data: 446169600
I0619 10:03:31.437722 29673 layer_factory.hpp:77] Creating layer ReLU10
I0619 10:03:31.437736 29673 net.cpp:190] Creating Layer ReLU10
I0619 10:03:31.437742 29673 net.cpp:615] ReLU10 <- Convolution10
I0619 10:03:31.437750 29673 net.cpp:576] ReLU10 -> Convolution10 (in-place)
I0619 10:03:31.437760 29673 net.cpp:240] Setting up ReLU10
I0619 10:03:31.437769 29673 net.cpp:247] Top shape: 128 16 32 32 (2097152)
I0619 10:03:31.437775 29673 net.cpp:255] Memory required for data: 454558208
I0619 10:03:31.437780 29673 layer_factory.hpp:77] Creating layer Convolution11
I0619 10:03:31.437798 29673 net.cpp:190] Creating Layer Convolution11
I0619 10:03:31.437803 29673 net.cpp:615] Convolution11 <- Convolution10
I0619 10:03:31.437816 29673 net.cpp:589] Convolution11 -> Convolution11
I0619 10:03:31.438287 29673 net.cpp:240] Setting up Convolution11
I0619 10:03:31.438299 29673 net.cpp:247] Top shape: 128 16 32 32 (2097152)
I0619 10:03:31.438305 29673 net.cpp:255] Memory required for data: 462946816
I0619 10:03:31.438318 29673 layer_factory.hpp:77] Creating layer BatchNorm11
I0619 10:03:31.438331 29673 net.cpp:190] Creating Layer BatchNorm11
I0619 10:03:31.438338 29673 net.cpp:615] BatchNorm11 <- Convolution11
I0619 10:03:31.438347 29673 net.cpp:576] BatchNorm11 -> Convolution11 (in-place)
I0619 10:03:31.438657 29673 net.cpp:240] Setting up BatchNorm11
I0619 10:03:31.438668 29673 net.cpp:247] Top shape: 128 16 32 32 (2097152)
I0619 10:03:31.438674 29673 net.cpp:255] Memory required for data: 471335424
I0619 10:03:31.438691 29673 layer_factory.hpp:77] Creating layer Scale11
I0619 10:03:31.438704 29673 net.cpp:190] Creating Layer Scale11
I0619 10:03:31.438710 29673 net.cpp:615] Scale11 <- Convolution11
I0619 10:03:31.438719 29673 net.cpp:576] Scale11 -> Convolution11 (in-place)
I0619 10:03:31.438767 29673 layer_factory.hpp:77] Creating layer Scale11
I0619 10:03:31.438930 29673 net.cpp:240] Setting up Scale11
I0619 10:03:31.438943 29673 net.cpp:247] Top shape: 128 16 32 32 (2097152)
I0619 10:03:31.438948 29673 net.cpp:255] Memory required for data: 479724032
I0619 10:03:31.438962 29673 layer_factory.hpp:77] Creating layer Eltwise5
I0619 10:03:31.438972 29673 net.cpp:190] Creating Layer Eltwise5
I0619 10:03:31.438980 29673 net.cpp:615] Eltwise5 <- Eltwise4_ReLU9_0_split_1
I0619 10:03:31.438988 29673 net.cpp:615] Eltwise5 <- Convolution11
I0619 10:03:31.438997 29673 net.cpp:589] Eltwise5 -> Eltwise5
I0619 10:03:31.439034 29673 net.cpp:240] Setting up Eltwise5
I0619 10:03:31.439045 29673 net.cpp:247] Top shape: 128 16 32 32 (2097152)
I0619 10:03:31.439050 29673 net.cpp:255] Memory required for data: 488112640
I0619 10:03:31.439056 29673 layer_factory.hpp:77] Creating layer ReLU11
I0619 10:03:31.439067 29673 net.cpp:190] Creating Layer ReLU11
I0619 10:03:31.439074 29673 net.cpp:615] ReLU11 <- Eltwise5
I0619 10:03:31.439081 29673 net.cpp:576] ReLU11 -> Eltwise5 (in-place)
I0619 10:03:31.439091 29673 net.cpp:240] Setting up ReLU11
I0619 10:03:31.439100 29673 net.cpp:247] Top shape: 128 16 32 32 (2097152)
I0619 10:03:31.439105 29673 net.cpp:255] Memory required for data: 496501248
I0619 10:03:31.439111 29673 layer_factory.hpp:77] Creating layer Eltwise5_ReLU11_0_split
I0619 10:03:31.439119 29673 net.cpp:190] Creating Layer Eltwise5_ReLU11_0_split
I0619 10:03:31.439126 29673 net.cpp:615] Eltwise5_ReLU11_0_split <- Eltwise5
I0619 10:03:31.439154 29673 net.cpp:589] Eltwise5_ReLU11_0_split -> Eltwise5_ReLU11_0_split_0
I0619 10:03:31.439168 29673 net.cpp:589] Eltwise5_ReLU11_0_split -> Eltwise5_ReLU11_0_split_1
I0619 10:03:31.439221 29673 net.cpp:240] Setting up Eltwise5_ReLU11_0_split
I0619 10:03:31.439231 29673 net.cpp:247] Top shape: 128 16 32 32 (2097152)
I0619 10:03:31.439239 29673 net.cpp:247] Top shape: 128 16 32 32 (2097152)
I0619 10:03:31.439244 29673 net.cpp:255] Memory required for data: 513278464
I0619 10:03:31.439250 29673 layer_factory.hpp:77] Creating layer Convolution12
I0619 10:03:31.439267 29673 net.cpp:190] Creating Layer Convolution12
I0619 10:03:31.439275 29673 net.cpp:615] Convolution12 <- Eltwise5_ReLU11_0_split_0
I0619 10:03:31.439290 29673 net.cpp:589] Convolution12 -> Convolution12
I0619 10:03:31.439755 29673 net.cpp:240] Setting up Convolution12
I0619 10:03:31.439769 29673 net.cpp:247] Top shape: 128 16 32 32 (2097152)
I0619 10:03:31.439774 29673 net.cpp:255] Memory required for data: 521667072
I0619 10:03:31.439787 29673 layer_factory.hpp:77] Creating layer BatchNorm12
I0619 10:03:31.439802 29673 net.cpp:190] Creating Layer BatchNorm12
I0619 10:03:31.439810 29673 net.cpp:615] BatchNorm12 <- Convolution12
I0619 10:03:31.439821 29673 net.cpp:576] BatchNorm12 -> Convolution12 (in-place)
I0619 10:03:31.440101 29673 net.cpp:240] Setting up BatchNorm12
I0619 10:03:31.440112 29673 net.cpp:247] Top shape: 128 16 32 32 (2097152)
I0619 10:03:31.440119 29673 net.cpp:255] Memory required for data: 530055680
I0619 10:03:31.440137 29673 layer_factory.hpp:77] Creating layer Scale12
I0619 10:03:31.440147 29673 net.cpp:190] Creating Layer Scale12
I0619 10:03:31.440153 29673 net.cpp:615] Scale12 <- Convolution12
I0619 10:03:31.440162 29673 net.cpp:576] Scale12 -> Convolution12 (in-place)
I0619 10:03:31.440213 29673 layer_factory.hpp:77] Creating layer Scale12
I0619 10:03:31.440387 29673 net.cpp:240] Setting up Scale12
I0619 10:03:31.440397 29673 net.cpp:247] Top shape: 128 16 32 32 (2097152)
I0619 10:03:31.440403 29673 net.cpp:255] Memory required for data: 538444288
I0619 10:03:31.440417 29673 layer_factory.hpp:77] Creating layer ReLU12
I0619 10:03:31.440425 29673 net.cpp:190] Creating Layer ReLU12
I0619 10:03:31.440433 29673 net.cpp:615] ReLU12 <- Convolution12
I0619 10:03:31.440443 29673 net.cpp:576] ReLU12 -> Convolution12 (in-place)
I0619 10:03:31.440454 29673 net.cpp:240] Setting up ReLU12
I0619 10:03:31.440464 29673 net.cpp:247] Top shape: 128 16 32 32 (2097152)
I0619 10:03:31.440469 29673 net.cpp:255] Memory required for data: 546832896
I0619 10:03:31.440474 29673 layer_factory.hpp:77] Creating layer Convolution13
I0619 10:03:31.440490 29673 net.cpp:190] Creating Layer Convolution13
I0619 10:03:31.440497 29673 net.cpp:615] Convolution13 <- Convolution12
I0619 10:03:31.440507 29673 net.cpp:589] Convolution13 -> Convolution13
I0619 10:03:31.440970 29673 net.cpp:240] Setting up Convolution13
I0619 10:03:31.440982 29673 net.cpp:247] Top shape: 128 16 32 32 (2097152)
I0619 10:03:31.440989 29673 net.cpp:255] Memory required for data: 555221504
I0619 10:03:31.441001 29673 layer_factory.hpp:77] Creating layer BatchNorm13
I0619 10:03:31.441015 29673 net.cpp:190] Creating Layer BatchNorm13
I0619 10:03:31.441020 29673 net.cpp:615] BatchNorm13 <- Convolution13
I0619 10:03:31.441030 29673 net.cpp:576] BatchNorm13 -> Convolution13 (in-place)
I0619 10:03:31.441336 29673 net.cpp:240] Setting up BatchNorm13
I0619 10:03:31.441350 29673 net.cpp:247] Top shape: 128 16 32 32 (2097152)
I0619 10:03:31.441356 29673 net.cpp:255] Memory required for data: 563610112
I0619 10:03:31.441373 29673 layer_factory.hpp:77] Creating layer Scale13
I0619 10:03:31.441385 29673 net.cpp:190] Creating Layer Scale13
I0619 10:03:31.441390 29673 net.cpp:615] Scale13 <- Convolution13
I0619 10:03:31.441400 29673 net.cpp:576] Scale13 -> Convolution13 (in-place)
I0619 10:03:31.441452 29673 layer_factory.hpp:77] Creating layer Scale13
I0619 10:03:31.441623 29673 net.cpp:240] Setting up Scale13
I0619 10:03:31.441634 29673 net.cpp:247] Top shape: 128 16 32 32 (2097152)
I0619 10:03:31.441639 29673 net.cpp:255] Memory required for data: 571998720
I0619 10:03:31.441653 29673 layer_factory.hpp:77] Creating layer Eltwise6
I0619 10:03:31.441665 29673 net.cpp:190] Creating Layer Eltwise6
I0619 10:03:31.441673 29673 net.cpp:615] Eltwise6 <- Eltwise5_ReLU11_0_split_1
I0619 10:03:31.441681 29673 net.cpp:615] Eltwise6 <- Convolution13
I0619 10:03:31.441690 29673 net.cpp:589] Eltwise6 -> Eltwise6
I0619 10:03:31.441732 29673 net.cpp:240] Setting up Eltwise6
I0619 10:03:31.441743 29673 net.cpp:247] Top shape: 128 16 32 32 (2097152)
I0619 10:03:31.441748 29673 net.cpp:255] Memory required for data: 580387328
I0619 10:03:31.441754 29673 layer_factory.hpp:77] Creating layer ReLU13
I0619 10:03:31.441774 29673 net.cpp:190] Creating Layer ReLU13
I0619 10:03:31.441787 29673 net.cpp:615] ReLU13 <- Eltwise6
I0619 10:03:31.441797 29673 net.cpp:576] ReLU13 -> Eltwise6 (in-place)
I0619 10:03:31.441807 29673 net.cpp:240] Setting up ReLU13
I0619 10:03:31.441817 29673 net.cpp:247] Top shape: 128 16 32 32 (2097152)
I0619 10:03:31.441822 29673 net.cpp:255] Memory required for data: 588775936
I0619 10:03:31.441828 29673 layer_factory.hpp:77] Creating layer Eltwise6_ReLU13_0_split
I0619 10:03:31.441836 29673 net.cpp:190] Creating Layer Eltwise6_ReLU13_0_split
I0619 10:03:31.441843 29673 net.cpp:615] Eltwise6_ReLU13_0_split <- Eltwise6
I0619 10:03:31.441850 29673 net.cpp:589] Eltwise6_ReLU13_0_split -> Eltwise6_ReLU13_0_split_0
I0619 10:03:31.441864 29673 net.cpp:589] Eltwise6_ReLU13_0_split -> Eltwise6_ReLU13_0_split_1
I0619 10:03:31.441915 29673 net.cpp:240] Setting up Eltwise6_ReLU13_0_split
I0619 10:03:31.441926 29673 net.cpp:247] Top shape: 128 16 32 32 (2097152)
I0619 10:03:31.441932 29673 net.cpp:247] Top shape: 128 16 32 32 (2097152)
I0619 10:03:31.441938 29673 net.cpp:255] Memory required for data: 605553152
I0619 10:03:31.441944 29673 layer_factory.hpp:77] Creating layer Convolution14
I0619 10:03:31.441961 29673 net.cpp:190] Creating Layer Convolution14
I0619 10:03:31.441967 29673 net.cpp:615] Convolution14 <- Eltwise6_ReLU13_0_split_0
I0619 10:03:31.441978 29673 net.cpp:589] Convolution14 -> Convolution14
I0619 10:03:31.442452 29673 net.cpp:240] Setting up Convolution14
I0619 10:03:31.442466 29673 net.cpp:247] Top shape: 128 16 32 32 (2097152)
I0619 10:03:31.442472 29673 net.cpp:255] Memory required for data: 613941760
I0619 10:03:31.442486 29673 layer_factory.hpp:77] Creating layer BatchNorm14
I0619 10:03:31.442498 29673 net.cpp:190] Creating Layer BatchNorm14
I0619 10:03:31.442505 29673 net.cpp:615] BatchNorm14 <- Convolution14
I0619 10:03:31.442517 29673 net.cpp:576] BatchNorm14 -> Convolution14 (in-place)
I0619 10:03:31.442798 29673 net.cpp:240] Setting up BatchNorm14
I0619 10:03:31.442809 29673 net.cpp:247] Top shape: 128 16 32 32 (2097152)
I0619 10:03:31.442816 29673 net.cpp:255] Memory required for data: 622330368
I0619 10:03:31.442831 29673 layer_factory.hpp:77] Creating layer Scale14
I0619 10:03:31.442847 29673 net.cpp:190] Creating Layer Scale14
I0619 10:03:31.442852 29673 net.cpp:615] Scale14 <- Convolution14
I0619 10:03:31.442862 29673 net.cpp:576] Scale14 -> Convolution14 (in-place)
I0619 10:03:31.442912 29673 layer_factory.hpp:77] Creating layer Scale14
I0619 10:03:31.443079 29673 net.cpp:240] Setting up Scale14
I0619 10:03:31.443090 29673 net.cpp:247] Top shape: 128 16 32 32 (2097152)
I0619 10:03:31.443095 29673 net.cpp:255] Memory required for data: 630718976
I0619 10:03:31.443109 29673 layer_factory.hpp:77] Creating layer ReLU14
I0619 10:03:31.443119 29673 net.cpp:190] Creating Layer ReLU14
I0619 10:03:31.443125 29673 net.cpp:615] ReLU14 <- Convolution14
I0619 10:03:31.443135 29673 net.cpp:576] ReLU14 -> Convolution14 (in-place)
I0619 10:03:31.443146 29673 net.cpp:240] Setting up ReLU14
I0619 10:03:31.443155 29673 net.cpp:247] Top shape: 128 16 32 32 (2097152)
I0619 10:03:31.443161 29673 net.cpp:255] Memory required for data: 639107584
I0619 10:03:31.443166 29673 layer_factory.hpp:77] Creating layer Convolution15
I0619 10:03:31.443182 29673 net.cpp:190] Creating Layer Convolution15
I0619 10:03:31.443188 29673 net.cpp:615] Convolution15 <- Convolution14
I0619 10:03:31.443198 29673 net.cpp:589] Convolution15 -> Convolution15
I0619 10:03:31.443676 29673 net.cpp:240] Setting up Convolution15
I0619 10:03:31.443689 29673 net.cpp:247] Top shape: 128 16 32 32 (2097152)
I0619 10:03:31.443696 29673 net.cpp:255] Memory required for data: 647496192
I0619 10:03:31.443708 29673 layer_factory.hpp:77] Creating layer BatchNorm15
I0619 10:03:31.443725 29673 net.cpp:190] Creating Layer BatchNorm15
I0619 10:03:31.443732 29673 net.cpp:615] BatchNorm15 <- Convolution15
I0619 10:03:31.443742 29673 net.cpp:576] BatchNorm15 -> Convolution15 (in-place)
I0619 10:03:31.444020 29673 net.cpp:240] Setting up BatchNorm15
I0619 10:03:31.444031 29673 net.cpp:247] Top shape: 128 16 32 32 (2097152)
I0619 10:03:31.444041 29673 net.cpp:255] Memory required for data: 655884800
I0619 10:03:31.444061 29673 layer_factory.hpp:77] Creating layer Scale15
I0619 10:03:31.444072 29673 net.cpp:190] Creating Layer Scale15
I0619 10:03:31.444077 29673 net.cpp:615] Scale15 <- Convolution15
I0619 10:03:31.444087 29673 net.cpp:576] Scale15 -> Convolution15 (in-place)
I0619 10:03:31.444138 29673 layer_factory.hpp:77] Creating layer Scale15
I0619 10:03:31.444303 29673 net.cpp:240] Setting up Scale15
I0619 10:03:31.444314 29673 net.cpp:247] Top shape: 128 16 32 32 (2097152)
I0619 10:03:31.444320 29673 net.cpp:255] Memory required for data: 664273408
I0619 10:03:31.444334 29673 layer_factory.hpp:77] Creating layer Eltwise7
I0619 10:03:31.444350 29673 net.cpp:190] Creating Layer Eltwise7
I0619 10:03:31.444356 29673 net.cpp:615] Eltwise7 <- Eltwise6_ReLU13_0_split_1
I0619 10:03:31.444365 29673 net.cpp:615] Eltwise7 <- Convolution15
I0619 10:03:31.444373 29673 net.cpp:589] Eltwise7 -> Eltwise7
I0619 10:03:31.444411 29673 net.cpp:240] Setting up Eltwise7
I0619 10:03:31.444422 29673 net.cpp:247] Top shape: 128 16 32 32 (2097152)
I0619 10:03:31.444427 29673 net.cpp:255] Memory required for data: 672662016
I0619 10:03:31.444432 29673 layer_factory.hpp:77] Creating layer ReLU15
I0619 10:03:31.444442 29673 net.cpp:190] Creating Layer ReLU15
I0619 10:03:31.444447 29673 net.cpp:615] ReLU15 <- Eltwise7
I0619 10:03:31.444458 29673 net.cpp:576] ReLU15 -> Eltwise7 (in-place)
I0619 10:03:31.444468 29673 net.cpp:240] Setting up ReLU15
I0619 10:03:31.444478 29673 net.cpp:247] Top shape: 128 16 32 32 (2097152)
I0619 10:03:31.444483 29673 net.cpp:255] Memory required for data: 681050624
I0619 10:03:31.444489 29673 layer_factory.hpp:77] Creating layer Eltwise7_ReLU15_0_split
I0619 10:03:31.444497 29673 net.cpp:190] Creating Layer Eltwise7_ReLU15_0_split
I0619 10:03:31.444504 29673 net.cpp:615] Eltwise7_ReLU15_0_split <- Eltwise7
I0619 10:03:31.444511 29673 net.cpp:589] Eltwise7_ReLU15_0_split -> Eltwise7_ReLU15_0_split_0
I0619 10:03:31.444521 29673 net.cpp:589] Eltwise7_ReLU15_0_split -> Eltwise7_ReLU15_0_split_1
I0619 10:03:31.444574 29673 net.cpp:240] Setting up Eltwise7_ReLU15_0_split
I0619 10:03:31.444584 29673 net.cpp:247] Top shape: 128 16 32 32 (2097152)
I0619 10:03:31.444592 29673 net.cpp:247] Top shape: 128 16 32 32 (2097152)
I0619 10:03:31.444597 29673 net.cpp:255] Memory required for data: 697827840
I0619 10:03:31.444603 29673 layer_factory.hpp:77] Creating layer Convolution16
I0619 10:03:31.444617 29673 net.cpp:190] Creating Layer Convolution16
I0619 10:03:31.444622 29673 net.cpp:615] Convolution16 <- Eltwise7_ReLU15_0_split_0
I0619 10:03:31.444635 29673 net.cpp:589] Convolution16 -> Convolution16
I0619 10:03:31.445102 29673 net.cpp:240] Setting up Convolution16
I0619 10:03:31.445114 29673 net.cpp:247] Top shape: 128 16 32 32 (2097152)
I0619 10:03:31.445121 29673 net.cpp:255] Memory required for data: 706216448
I0619 10:03:31.445133 29673 layer_factory.hpp:77] Creating layer BatchNorm16
I0619 10:03:31.445143 29673 net.cpp:190] Creating Layer BatchNorm16
I0619 10:03:31.445149 29673 net.cpp:615] BatchNorm16 <- Convolution16
I0619 10:03:31.445161 29673 net.cpp:576] BatchNorm16 -> Convolution16 (in-place)
I0619 10:03:31.445464 29673 net.cpp:240] Setting up BatchNorm16
I0619 10:03:31.445477 29673 net.cpp:247] Top shape: 128 16 32 32 (2097152)
I0619 10:03:31.445482 29673 net.cpp:255] Memory required for data: 714605056
I0619 10:03:31.445499 29673 layer_factory.hpp:77] Creating layer Scale16
I0619 10:03:31.445509 29673 net.cpp:190] Creating Layer Scale16
I0619 10:03:31.445516 29673 net.cpp:615] Scale16 <- Convolution16
I0619 10:03:31.445524 29673 net.cpp:576] Scale16 -> Convolution16 (in-place)
I0619 10:03:31.445580 29673 layer_factory.hpp:77] Creating layer Scale16
I0619 10:03:31.445754 29673 net.cpp:240] Setting up Scale16
I0619 10:03:31.445765 29673 net.cpp:247] Top shape: 128 16 32 32 (2097152)
I0619 10:03:31.445771 29673 net.cpp:255] Memory required for data: 722993664
I0619 10:03:31.445785 29673 layer_factory.hpp:77] Creating layer ReLU16
I0619 10:03:31.445798 29673 net.cpp:190] Creating Layer ReLU16
I0619 10:03:31.445806 29673 net.cpp:615] ReLU16 <- Convolution16
I0619 10:03:31.445817 29673 net.cpp:576] ReLU16 -> Convolution16 (in-place)
I0619 10:03:31.445827 29673 net.cpp:240] Setting up ReLU16
I0619 10:03:31.445837 29673 net.cpp:247] Top shape: 128 16 32 32 (2097152)
I0619 10:03:31.445842 29673 net.cpp:255] Memory required for data: 731382272
I0619 10:03:31.445848 29673 layer_factory.hpp:77] Creating layer Convolution17
I0619 10:03:31.445861 29673 net.cpp:190] Creating Layer Convolution17
I0619 10:03:31.445868 29673 net.cpp:615] Convolution17 <- Convolution16
I0619 10:03:31.445881 29673 net.cpp:589] Convolution17 -> Convolution17
I0619 10:03:31.446367 29673 net.cpp:240] Setting up Convolution17
I0619 10:03:31.446382 29673 net.cpp:247] Top shape: 128 16 32 32 (2097152)
I0619 10:03:31.446388 29673 net.cpp:255] Memory required for data: 739770880
I0619 10:03:31.446400 29673 layer_factory.hpp:77] Creating layer BatchNorm17
I0619 10:03:31.446411 29673 net.cpp:190] Creating Layer BatchNorm17
I0619 10:03:31.446418 29673 net.cpp:615] BatchNorm17 <- Convolution17
I0619 10:03:31.446429 29673 net.cpp:576] BatchNorm17 -> Convolution17 (in-place)
I0619 10:03:31.446734 29673 net.cpp:240] Setting up BatchNorm17
I0619 10:03:31.446746 29673 net.cpp:247] Top shape: 128 16 32 32 (2097152)
I0619 10:03:31.446753 29673 net.cpp:255] Memory required for data: 748159488
I0619 10:03:31.446769 29673 layer_factory.hpp:77] Creating layer Scale17
I0619 10:03:31.446779 29673 net.cpp:190] Creating Layer Scale17
I0619 10:03:31.446795 29673 net.cpp:615] Scale17 <- Convolution17
I0619 10:03:31.446806 29673 net.cpp:576] Scale17 -> Convolution17 (in-place)
I0619 10:03:31.446853 29673 layer_factory.hpp:77] Creating layer Scale17
I0619 10:03:31.447011 29673 net.cpp:240] Setting up Scale17
I0619 10:03:31.447022 29673 net.cpp:247] Top shape: 128 16 32 32 (2097152)
I0619 10:03:31.447027 29673 net.cpp:255] Memory required for data: 756548096
I0619 10:03:31.447039 29673 layer_factory.hpp:77] Creating layer Eltwise8
I0619 10:03:31.447052 29673 net.cpp:190] Creating Layer Eltwise8
I0619 10:03:31.447058 29673 net.cpp:615] Eltwise8 <- Eltwise7_ReLU15_0_split_1
I0619 10:03:31.447067 29673 net.cpp:615] Eltwise8 <- Convolution17
I0619 10:03:31.447074 29673 net.cpp:589] Eltwise8 -> Eltwise8
I0619 10:03:31.447110 29673 net.cpp:240] Setting up Eltwise8
I0619 10:03:31.447119 29673 net.cpp:247] Top shape: 128 16 32 32 (2097152)
I0619 10:03:31.447124 29673 net.cpp:255] Memory required for data: 764936704
I0619 10:03:31.447130 29673 layer_factory.hpp:77] Creating layer ReLU17
I0619 10:03:31.447139 29673 net.cpp:190] Creating Layer ReLU17
I0619 10:03:31.447144 29673 net.cpp:615] ReLU17 <- Eltwise8
I0619 10:03:31.447154 29673 net.cpp:576] ReLU17 -> Eltwise8 (in-place)
I0619 10:03:31.447165 29673 net.cpp:240] Setting up ReLU17
I0619 10:03:31.447172 29673 net.cpp:247] Top shape: 128 16 32 32 (2097152)
I0619 10:03:31.447177 29673 net.cpp:255] Memory required for data: 773325312
I0619 10:03:31.447183 29673 layer_factory.hpp:77] Creating layer Eltwise8_ReLU17_0_split
I0619 10:03:31.447191 29673 net.cpp:190] Creating Layer Eltwise8_ReLU17_0_split
I0619 10:03:31.447196 29673 net.cpp:615] Eltwise8_ReLU17_0_split <- Eltwise8
I0619 10:03:31.447203 29673 net.cpp:589] Eltwise8_ReLU17_0_split -> Eltwise8_ReLU17_0_split_0
I0619 10:03:31.447213 29673 net.cpp:589] Eltwise8_ReLU17_0_split -> Eltwise8_ReLU17_0_split_1
I0619 10:03:31.447263 29673 net.cpp:240] Setting up Eltwise8_ReLU17_0_split
I0619 10:03:31.447273 29673 net.cpp:247] Top shape: 128 16 32 32 (2097152)
I0619 10:03:31.447279 29673 net.cpp:247] Top shape: 128 16 32 32 (2097152)
I0619 10:03:31.447285 29673 net.cpp:255] Memory required for data: 790102528
I0619 10:03:31.447290 29673 layer_factory.hpp:77] Creating layer Convolution18
I0619 10:03:31.447309 29673 net.cpp:190] Creating Layer Convolution18
I0619 10:03:31.447316 29673 net.cpp:615] Convolution18 <- Eltwise8_ReLU17_0_split_0
I0619 10:03:31.447325 29673 net.cpp:589] Convolution18 -> Convolution18
I0619 10:03:31.447779 29673 net.cpp:240] Setting up Convolution18
I0619 10:03:31.447793 29673 net.cpp:247] Top shape: 128 16 32 32 (2097152)
I0619 10:03:31.447798 29673 net.cpp:255] Memory required for data: 798491136
I0619 10:03:31.447810 29673 layer_factory.hpp:77] Creating layer BatchNorm18
I0619 10:03:31.447824 29673 net.cpp:190] Creating Layer BatchNorm18
I0619 10:03:31.447829 29673 net.cpp:615] BatchNorm18 <- Convolution18
I0619 10:03:31.447839 29673 net.cpp:576] BatchNorm18 -> Convolution18 (in-place)
I0619 10:03:31.448122 29673 net.cpp:240] Setting up BatchNorm18
I0619 10:03:31.448132 29673 net.cpp:247] Top shape: 128 16 32 32 (2097152)
I0619 10:03:31.448137 29673 net.cpp:255] Memory required for data: 806879744
I0619 10:03:31.448153 29673 layer_factory.hpp:77] Creating layer Scale18
I0619 10:03:31.448163 29673 net.cpp:190] Creating Layer Scale18
I0619 10:03:31.448168 29673 net.cpp:615] Scale18 <- Convolution18
I0619 10:03:31.448179 29673 net.cpp:576] Scale18 -> Convolution18 (in-place)
I0619 10:03:31.448226 29673 layer_factory.hpp:77] Creating layer Scale18
I0619 10:03:31.448386 29673 net.cpp:240] Setting up Scale18
I0619 10:03:31.448396 29673 net.cpp:247] Top shape: 128 16 32 32 (2097152)
I0619 10:03:31.448401 29673 net.cpp:255] Memory required for data: 815268352
I0619 10:03:31.448417 29673 layer_factory.hpp:77] Creating layer ReLU18
I0619 10:03:31.448426 29673 net.cpp:190] Creating Layer ReLU18
I0619 10:03:31.448432 29673 net.cpp:615] ReLU18 <- Convolution18
I0619 10:03:31.448439 29673 net.cpp:576] ReLU18 -> Convolution18 (in-place)
I0619 10:03:31.448449 29673 net.cpp:240] Setting up ReLU18
I0619 10:03:31.448457 29673 net.cpp:247] Top shape: 128 16 32 32 (2097152)
I0619 10:03:31.448462 29673 net.cpp:255] Memory required for data: 823656960
I0619 10:03:31.448468 29673 layer_factory.hpp:77] Creating layer Convolution19
I0619 10:03:31.448483 29673 net.cpp:190] Creating Layer Convolution19
I0619 10:03:31.448489 29673 net.cpp:615] Convolution19 <- Convolution18
I0619 10:03:31.448501 29673 net.cpp:589] Convolution19 -> Convolution19
I0619 10:03:31.448953 29673 net.cpp:240] Setting up Convolution19
I0619 10:03:31.448966 29673 net.cpp:247] Top shape: 128 16 32 32 (2097152)
I0619 10:03:31.448971 29673 net.cpp:255] Memory required for data: 832045568
I0619 10:03:31.448983 29673 layer_factory.hpp:77] Creating layer BatchNorm19
I0619 10:03:31.448995 29673 net.cpp:190] Creating Layer BatchNorm19
I0619 10:03:31.449002 29673 net.cpp:615] BatchNorm19 <- Convolution19
I0619 10:03:31.449012 29673 net.cpp:576] BatchNorm19 -> Convolution19 (in-place)
I0619 10:03:31.449286 29673 net.cpp:240] Setting up BatchNorm19
I0619 10:03:31.449296 29673 net.cpp:247] Top shape: 128 16 32 32 (2097152)
I0619 10:03:31.449301 29673 net.cpp:255] Memory required for data: 840434176
I0619 10:03:31.449339 29673 layer_factory.hpp:77] Creating layer Scale19
I0619 10:03:31.449352 29673 net.cpp:190] Creating Layer Scale19
I0619 10:03:31.449358 29673 net.cpp:615] Scale19 <- Convolution19
I0619 10:03:31.449371 29673 net.cpp:576] Scale19 -> Convolution19 (in-place)
I0619 10:03:31.449420 29673 layer_factory.hpp:77] Creating layer Scale19
I0619 10:03:31.449579 29673 net.cpp:240] Setting up Scale19
I0619 10:03:31.449589 29673 net.cpp:247] Top shape: 128 16 32 32 (2097152)
I0619 10:03:31.449594 29673 net.cpp:255] Memory required for data: 848822784
I0619 10:03:31.449606 29673 layer_factory.hpp:77] Creating layer Eltwise9
I0619 10:03:31.449616 29673 net.cpp:190] Creating Layer Eltwise9
I0619 10:03:31.449623 29673 net.cpp:615] Eltwise9 <- Eltwise8_ReLU17_0_split_1
I0619 10:03:31.449630 29673 net.cpp:615] Eltwise9 <- Convolution19
I0619 10:03:31.449638 29673 net.cpp:589] Eltwise9 -> Eltwise9
I0619 10:03:31.449673 29673 net.cpp:240] Setting up Eltwise9
I0619 10:03:31.449683 29673 net.cpp:247] Top shape: 128 16 32 32 (2097152)
I0619 10:03:31.449688 29673 net.cpp:255] Memory required for data: 857211392
I0619 10:03:31.449694 29673 layer_factory.hpp:77] Creating layer ReLU19
I0619 10:03:31.449702 29673 net.cpp:190] Creating Layer ReLU19
I0619 10:03:31.449712 29673 net.cpp:615] ReLU19 <- Eltwise9
I0619 10:03:31.449723 29673 net.cpp:576] ReLU19 -> Eltwise9 (in-place)
I0619 10:03:31.449733 29673 net.cpp:240] Setting up ReLU19
I0619 10:03:31.449740 29673 net.cpp:247] Top shape: 128 16 32 32 (2097152)
I0619 10:03:31.449746 29673 net.cpp:255] Memory required for data: 865600000
I0619 10:03:31.449751 29673 layer_factory.hpp:77] Creating layer Eltwise9_ReLU19_0_split
I0619 10:03:31.449759 29673 net.cpp:190] Creating Layer Eltwise9_ReLU19_0_split
I0619 10:03:31.449764 29673 net.cpp:615] Eltwise9_ReLU19_0_split <- Eltwise9
I0619 10:03:31.449772 29673 net.cpp:589] Eltwise9_ReLU19_0_split -> Eltwise9_ReLU19_0_split_0
I0619 10:03:31.449782 29673 net.cpp:589] Eltwise9_ReLU19_0_split -> Eltwise9_ReLU19_0_split_1
I0619 10:03:31.449832 29673 net.cpp:240] Setting up Eltwise9_ReLU19_0_split
I0619 10:03:31.449841 29673 net.cpp:247] Top shape: 128 16 32 32 (2097152)
I0619 10:03:31.449849 29673 net.cpp:247] Top shape: 128 16 32 32 (2097152)
I0619 10:03:31.449854 29673 net.cpp:255] Memory required for data: 882377216
I0619 10:03:31.449861 29673 layer_factory.hpp:77] Creating layer Convolution20
I0619 10:03:31.449874 29673 net.cpp:190] Creating Layer Convolution20
I0619 10:03:31.449882 29673 net.cpp:615] Convolution20 <- Eltwise9_ReLU19_0_split_0
I0619 10:03:31.449892 29673 net.cpp:589] Convolution20 -> Convolution20
I0619 10:03:31.450346 29673 net.cpp:240] Setting up Convolution20
I0619 10:03:31.450367 29673 net.cpp:247] Top shape: 128 16 32 32 (2097152)
I0619 10:03:31.450373 29673 net.cpp:255] Memory required for data: 890765824
I0619 10:03:31.450387 29673 layer_factory.hpp:77] Creating layer BatchNorm20
I0619 10:03:31.450399 29673 net.cpp:190] Creating Layer BatchNorm20
I0619 10:03:31.450407 29673 net.cpp:615] BatchNorm20 <- Convolution20
I0619 10:03:31.450417 29673 net.cpp:576] BatchNorm20 -> Convolution20 (in-place)
I0619 10:03:31.450693 29673 net.cpp:240] Setting up BatchNorm20
I0619 10:03:31.450705 29673 net.cpp:247] Top shape: 128 16 32 32 (2097152)
I0619 10:03:31.450711 29673 net.cpp:255] Memory required for data: 899154432
I0619 10:03:31.450726 29673 layer_factory.hpp:77] Creating layer Scale20
I0619 10:03:31.450737 29673 net.cpp:190] Creating Layer Scale20
I0619 10:03:31.450744 29673 net.cpp:615] Scale20 <- Convolution20
I0619 10:03:31.450752 29673 net.cpp:576] Scale20 -> Convolution20 (in-place)
I0619 10:03:31.450801 29673 layer_factory.hpp:77] Creating layer Scale20
I0619 10:03:31.450975 29673 net.cpp:240] Setting up Scale20
I0619 10:03:31.450987 29673 net.cpp:247] Top shape: 128 16 32 32 (2097152)
I0619 10:03:31.450992 29673 net.cpp:255] Memory required for data: 907543040
I0619 10:03:31.451004 29673 layer_factory.hpp:77] Creating layer ReLU20
I0619 10:03:31.451014 29673 net.cpp:190] Creating Layer ReLU20
I0619 10:03:31.451020 29673 net.cpp:615] ReLU20 <- Convolution20
I0619 10:03:31.451031 29673 net.cpp:576] ReLU20 -> Convolution20 (in-place)
I0619 10:03:31.451041 29673 net.cpp:240] Setting up ReLU20
I0619 10:03:31.451050 29673 net.cpp:247] Top shape: 128 16 32 32 (2097152)
I0619 10:03:31.451055 29673 net.cpp:255] Memory required for data: 915931648
I0619 10:03:31.451061 29673 layer_factory.hpp:77] Creating layer Convolution21
I0619 10:03:31.451076 29673 net.cpp:190] Creating Layer Convolution21
I0619 10:03:31.451081 29673 net.cpp:615] Convolution21 <- Convolution20
I0619 10:03:31.451091 29673 net.cpp:589] Convolution21 -> Convolution21
I0619 10:03:31.451537 29673 net.cpp:240] Setting up Convolution21
I0619 10:03:31.451548 29673 net.cpp:247] Top shape: 128 16 32 32 (2097152)
I0619 10:03:31.451555 29673 net.cpp:255] Memory required for data: 924320256
I0619 10:03:31.451566 29673 layer_factory.hpp:77] Creating layer BatchNorm21
I0619 10:03:31.451578 29673 net.cpp:190] Creating Layer BatchNorm21
I0619 10:03:31.451587 29673 net.cpp:615] BatchNorm21 <- Convolution21
I0619 10:03:31.451596 29673 net.cpp:576] BatchNorm21 -> Convolution21 (in-place)
I0619 10:03:31.451866 29673 net.cpp:240] Setting up BatchNorm21
I0619 10:03:31.451877 29673 net.cpp:247] Top shape: 128 16 32 32 (2097152)
I0619 10:03:31.451889 29673 net.cpp:255] Memory required for data: 932708864
I0619 10:03:31.451907 29673 layer_factory.hpp:77] Creating layer Scale21
I0619 10:03:31.451916 29673 net.cpp:190] Creating Layer Scale21
I0619 10:03:31.451922 29673 net.cpp:615] Scale21 <- Convolution21
I0619 10:03:31.451930 29673 net.cpp:576] Scale21 -> Convolution21 (in-place)
I0619 10:03:31.451980 29673 layer_factory.hpp:77] Creating layer Scale21
I0619 10:03:31.452148 29673 net.cpp:240] Setting up Scale21
I0619 10:03:31.452159 29673 net.cpp:247] Top shape: 128 16 32 32 (2097152)
I0619 10:03:31.452165 29673 net.cpp:255] Memory required for data: 941097472
I0619 10:03:31.452178 29673 layer_factory.hpp:77] Creating layer Eltwise10
I0619 10:03:31.452195 29673 net.cpp:190] Creating Layer Eltwise10
I0619 10:03:31.452203 29673 net.cpp:615] Eltwise10 <- Eltwise9_ReLU19_0_split_1
I0619 10:03:31.452210 29673 net.cpp:615] Eltwise10 <- Convolution21
I0619 10:03:31.452219 29673 net.cpp:589] Eltwise10 -> Eltwise10
I0619 10:03:31.452256 29673 net.cpp:240] Setting up Eltwise10
I0619 10:03:31.452266 29673 net.cpp:247] Top shape: 128 16 32 32 (2097152)
I0619 10:03:31.452271 29673 net.cpp:255] Memory required for data: 949486080
I0619 10:03:31.452276 29673 layer_factory.hpp:77] Creating layer ReLU21
I0619 10:03:31.452286 29673 net.cpp:190] Creating Layer ReLU21
I0619 10:03:31.452291 29673 net.cpp:615] ReLU21 <- Eltwise10
I0619 10:03:31.452301 29673 net.cpp:576] ReLU21 -> Eltwise10 (in-place)
I0619 10:03:31.452311 29673 net.cpp:240] Setting up ReLU21
I0619 10:03:31.452318 29673 net.cpp:247] Top shape: 128 16 32 32 (2097152)
I0619 10:03:31.452324 29673 net.cpp:255] Memory required for data: 957874688
I0619 10:03:31.452329 29673 layer_factory.hpp:77] Creating layer Eltwise10_ReLU21_0_split
I0619 10:03:31.452338 29673 net.cpp:190] Creating Layer Eltwise10_ReLU21_0_split
I0619 10:03:31.452343 29673 net.cpp:615] Eltwise10_ReLU21_0_split <- Eltwise10
I0619 10:03:31.452352 29673 net.cpp:589] Eltwise10_ReLU21_0_split -> Eltwise10_ReLU21_0_split_0
I0619 10:03:31.452361 29673 net.cpp:589] Eltwise10_ReLU21_0_split -> Eltwise10_ReLU21_0_split_1
I0619 10:03:31.452414 29673 net.cpp:240] Setting up Eltwise10_ReLU21_0_split
I0619 10:03:31.452424 29673 net.cpp:247] Top shape: 128 16 32 32 (2097152)
I0619 10:03:31.452430 29673 net.cpp:247] Top shape: 128 16 32 32 (2097152)
I0619 10:03:31.452435 29673 net.cpp:255] Memory required for data: 974651904
I0619 10:03:31.452441 29673 layer_factory.hpp:77] Creating layer Convolution22
I0619 10:03:31.452453 29673 net.cpp:190] Creating Layer Convolution22
I0619 10:03:31.452460 29673 net.cpp:615] Convolution22 <- Eltwise10_ReLU21_0_split_0
I0619 10:03:31.452472 29673 net.cpp:589] Convolution22 -> Convolution22
I0619 10:03:31.452927 29673 net.cpp:240] Setting up Convolution22
I0619 10:03:31.452939 29673 net.cpp:247] Top shape: 128 16 32 32 (2097152)
I0619 10:03:31.452944 29673 net.cpp:255] Memory required for data: 983040512
I0619 10:03:31.452957 29673 layer_factory.hpp:77] Creating layer BatchNorm22
I0619 10:03:31.452966 29673 net.cpp:190] Creating Layer BatchNorm22
I0619 10:03:31.452973 29673 net.cpp:615] BatchNorm22 <- Convolution22
I0619 10:03:31.452981 29673 net.cpp:576] BatchNorm22 -> Convolution22 (in-place)
I0619 10:03:31.453259 29673 net.cpp:240] Setting up BatchNorm22
I0619 10:03:31.453269 29673 net.cpp:247] Top shape: 128 16 32 32 (2097152)
I0619 10:03:31.453274 29673 net.cpp:255] Memory required for data: 991429120
I0619 10:03:31.453290 29673 layer_factory.hpp:77] Creating layer Scale22
I0619 10:03:31.453299 29673 net.cpp:190] Creating Layer Scale22
I0619 10:03:31.453305 29673 net.cpp:615] Scale22 <- Convolution22
I0619 10:03:31.453313 29673 net.cpp:576] Scale22 -> Convolution22 (in-place)
I0619 10:03:31.453363 29673 layer_factory.hpp:77] Creating layer Scale22
I0619 10:03:31.453527 29673 net.cpp:240] Setting up Scale22
I0619 10:03:31.453538 29673 net.cpp:247] Top shape: 128 16 32 32 (2097152)
I0619 10:03:31.453543 29673 net.cpp:255] Memory required for data: 999817728
I0619 10:03:31.453557 29673 layer_factory.hpp:77] Creating layer ReLU22
I0619 10:03:31.453572 29673 net.cpp:190] Creating Layer ReLU22
I0619 10:03:31.453579 29673 net.cpp:615] ReLU22 <- Convolution22
I0619 10:03:31.453588 29673 net.cpp:576] ReLU22 -> Convolution22 (in-place)
I0619 10:03:31.453598 29673 net.cpp:240] Setting up ReLU22
I0619 10:03:31.453605 29673 net.cpp:247] Top shape: 128 16 32 32 (2097152)
I0619 10:03:31.453611 29673 net.cpp:255] Memory required for data: 1008206336
I0619 10:03:31.453616 29673 layer_factory.hpp:77] Creating layer Convolution23
I0619 10:03:31.453631 29673 net.cpp:190] Creating Layer Convolution23
I0619 10:03:31.453637 29673 net.cpp:615] Convolution23 <- Convolution22
I0619 10:03:31.453649 29673 net.cpp:589] Convolution23 -> Convolution23
I0619 10:03:31.454094 29673 net.cpp:240] Setting up Convolution23
I0619 10:03:31.454105 29673 net.cpp:247] Top shape: 128 16 32 32 (2097152)
I0619 10:03:31.454111 29673 net.cpp:255] Memory required for data: 1016594944
I0619 10:03:31.454123 29673 layer_factory.hpp:77] Creating layer BatchNorm23
I0619 10:03:31.454133 29673 net.cpp:190] Creating Layer BatchNorm23
I0619 10:03:31.454139 29673 net.cpp:615] BatchNorm23 <- Convolution23
I0619 10:03:31.454147 29673 net.cpp:576] BatchNorm23 -> Convolution23 (in-place)
I0619 10:03:31.454440 29673 net.cpp:240] Setting up BatchNorm23
I0619 10:03:31.454453 29673 net.cpp:247] Top shape: 128 16 32 32 (2097152)
I0619 10:03:31.454458 29673 net.cpp:255] Memory required for data: 1024983552
I0619 10:03:31.454475 29673 layer_factory.hpp:77] Creating layer Scale23
I0619 10:03:31.454484 29673 net.cpp:190] Creating Layer Scale23
I0619 10:03:31.454490 29673 net.cpp:615] Scale23 <- Convolution23
I0619 10:03:31.454499 29673 net.cpp:576] Scale23 -> Convolution23 (in-place)
I0619 10:03:31.454556 29673 layer_factory.hpp:77] Creating layer Scale23
I0619 10:03:31.454715 29673 net.cpp:240] Setting up Scale23
I0619 10:03:31.454725 29673 net.cpp:247] Top shape: 128 16 32 32 (2097152)
I0619 10:03:31.454731 29673 net.cpp:255] Memory required for data: 1033372160
I0619 10:03:31.454746 29673 layer_factory.hpp:77] Creating layer Eltwise11
I0619 10:03:31.454756 29673 net.cpp:190] Creating Layer Eltwise11
I0619 10:03:31.454763 29673 net.cpp:615] Eltwise11 <- Eltwise10_ReLU21_0_split_1
I0619 10:03:31.454771 29673 net.cpp:615] Eltwise11 <- Convolution23
I0619 10:03:31.454782 29673 net.cpp:589] Eltwise11 -> Eltwise11
I0619 10:03:31.454814 29673 net.cpp:240] Setting up Eltwise11
I0619 10:03:31.454824 29673 net.cpp:247] Top shape: 128 16 32 32 (2097152)
I0619 10:03:31.454829 29673 net.cpp:255] Memory required for data: 1041760768
I0619 10:03:31.454834 29673 layer_factory.hpp:77] Creating layer ReLU23
I0619 10:03:31.454846 29673 net.cpp:190] Creating Layer ReLU23
I0619 10:03:31.454852 29673 net.cpp:615] ReLU23 <- Eltwise11
I0619 10:03:31.454859 29673 net.cpp:576] ReLU23 -> Eltwise11 (in-place)
I0619 10:03:31.454869 29673 net.cpp:240] Setting up ReLU23
I0619 10:03:31.454876 29673 net.cpp:247] Top shape: 128 16 32 32 (2097152)
I0619 10:03:31.454882 29673 net.cpp:255] Memory required for data: 1050149376
I0619 10:03:31.454887 29673 layer_factory.hpp:77] Creating layer Eltwise11_ReLU23_0_split
I0619 10:03:31.454895 29673 net.cpp:190] Creating Layer Eltwise11_ReLU23_0_split
I0619 10:03:31.454903 29673 net.cpp:615] Eltwise11_ReLU23_0_split <- Eltwise11
I0619 10:03:31.454911 29673 net.cpp:589] Eltwise11_ReLU23_0_split -> Eltwise11_ReLU23_0_split_0
I0619 10:03:31.454921 29673 net.cpp:589] Eltwise11_ReLU23_0_split -> Eltwise11_ReLU23_0_split_1
I0619 10:03:31.454972 29673 net.cpp:240] Setting up Eltwise11_ReLU23_0_split
I0619 10:03:31.454982 29673 net.cpp:247] Top shape: 128 16 32 32 (2097152)
I0619 10:03:31.454989 29673 net.cpp:247] Top shape: 128 16 32 32 (2097152)
I0619 10:03:31.454994 29673 net.cpp:255] Memory required for data: 1066926592
I0619 10:03:31.455000 29673 layer_factory.hpp:77] Creating layer Convolution24
I0619 10:03:31.455016 29673 net.cpp:190] Creating Layer Convolution24
I0619 10:03:31.455024 29673 net.cpp:615] Convolution24 <- Eltwise11_ReLU23_0_split_0
I0619 10:03:31.455034 29673 net.cpp:589] Convolution24 -> Convolution24
I0619 10:03:31.455484 29673 net.cpp:240] Setting up Convolution24
I0619 10:03:31.455497 29673 net.cpp:247] Top shape: 128 16 32 32 (2097152)
I0619 10:03:31.455502 29673 net.cpp:255] Memory required for data: 1075315200
I0619 10:03:31.455515 29673 layer_factory.hpp:77] Creating layer BatchNorm24
I0619 10:03:31.455528 29673 net.cpp:190] Creating Layer BatchNorm24
I0619 10:03:31.455534 29673 net.cpp:615] BatchNorm24 <- Convolution24
I0619 10:03:31.455543 29673 net.cpp:576] BatchNorm24 -> Convolution24 (in-place)
I0619 10:03:31.455816 29673 net.cpp:240] Setting up BatchNorm24
I0619 10:03:31.455826 29673 net.cpp:247] Top shape: 128 16 32 32 (2097152)
I0619 10:03:31.455832 29673 net.cpp:255] Memory required for data: 1083703808
I0619 10:03:31.455847 29673 layer_factory.hpp:77] Creating layer Scale24
I0619 10:03:31.455857 29673 net.cpp:190] Creating Layer Scale24
I0619 10:03:31.455862 29673 net.cpp:615] Scale24 <- Convolution24
I0619 10:03:31.455873 29673 net.cpp:576] Scale24 -> Convolution24 (in-place)
I0619 10:03:31.455919 29673 layer_factory.hpp:77] Creating layer Scale24
I0619 10:03:31.456079 29673 net.cpp:240] Setting up Scale24
I0619 10:03:31.456089 29673 net.cpp:247] Top shape: 128 16 32 32 (2097152)
I0619 10:03:31.456094 29673 net.cpp:255] Memory required for data: 1092092416
I0619 10:03:31.456106 29673 layer_factory.hpp:77] Creating layer ReLU24
I0619 10:03:31.456117 29673 net.cpp:190] Creating Layer ReLU24
I0619 10:03:31.456123 29673 net.cpp:615] ReLU24 <- Convolution24
I0619 10:03:31.456131 29673 net.cpp:576] ReLU24 -> Convolution24 (in-place)
I0619 10:03:31.456141 29673 net.cpp:240] Setting up ReLU24
I0619 10:03:31.456149 29673 net.cpp:247] Top shape: 128 16 32 32 (2097152)
I0619 10:03:31.456154 29673 net.cpp:255] Memory required for data: 1100481024
I0619 10:03:31.456161 29673 layer_factory.hpp:77] Creating layer Convolution25
I0619 10:03:31.456176 29673 net.cpp:190] Creating Layer Convolution25
I0619 10:03:31.456182 29673 net.cpp:615] Convolution25 <- Convolution24
I0619 10:03:31.456192 29673 net.cpp:589] Convolution25 -> Convolution25
I0619 10:03:31.456657 29673 net.cpp:240] Setting up Convolution25
I0619 10:03:31.456670 29673 net.cpp:247] Top shape: 128 16 32 32 (2097152)
I0619 10:03:31.456675 29673 net.cpp:255] Memory required for data: 1108869632
I0619 10:03:31.456687 29673 layer_factory.hpp:77] Creating layer BatchNorm25
I0619 10:03:31.456699 29673 net.cpp:190] Creating Layer BatchNorm25
I0619 10:03:31.456707 29673 net.cpp:615] BatchNorm25 <- Convolution25
I0619 10:03:31.456714 29673 net.cpp:576] BatchNorm25 -> Convolution25 (in-place)
I0619 10:03:31.456990 29673 net.cpp:240] Setting up BatchNorm25
I0619 10:03:31.457000 29673 net.cpp:247] Top shape: 128 16 32 32 (2097152)
I0619 10:03:31.457006 29673 net.cpp:255] Memory required for data: 1117258240
I0619 10:03:31.457021 29673 layer_factory.hpp:77] Creating layer Scale25
I0619 10:03:31.457031 29673 net.cpp:190] Creating Layer Scale25
I0619 10:03:31.457037 29673 net.cpp:615] Scale25 <- Convolution25
I0619 10:03:31.457047 29673 net.cpp:576] Scale25 -> Convolution25 (in-place)
I0619 10:03:31.457094 29673 layer_factory.hpp:77] Creating layer Scale25
I0619 10:03:31.457254 29673 net.cpp:240] Setting up Scale25
I0619 10:03:31.457264 29673 net.cpp:247] Top shape: 128 16 32 32 (2097152)
I0619 10:03:31.457270 29673 net.cpp:255] Memory required for data: 1125646848
I0619 10:03:31.457283 29673 layer_factory.hpp:77] Creating layer Eltwise12
I0619 10:03:31.457294 29673 net.cpp:190] Creating Layer Eltwise12
I0619 10:03:31.457301 29673 net.cpp:615] Eltwise12 <- Eltwise11_ReLU23_0_split_1
I0619 10:03:31.457309 29673 net.cpp:615] Eltwise12 <- Convolution25
I0619 10:03:31.457317 29673 net.cpp:589] Eltwise12 -> Eltwise12
I0619 10:03:31.457353 29673 net.cpp:240] Setting up Eltwise12
I0619 10:03:31.457362 29673 net.cpp:247] Top shape: 128 16 32 32 (2097152)
I0619 10:03:31.457367 29673 net.cpp:255] Memory required for data: 1134035456
I0619 10:03:31.457373 29673 layer_factory.hpp:77] Creating layer ReLU25
I0619 10:03:31.457381 29673 net.cpp:190] Creating Layer ReLU25
I0619 10:03:31.457394 29673 net.cpp:615] ReLU25 <- Eltwise12
I0619 10:03:31.457402 29673 net.cpp:576] ReLU25 -> Eltwise12 (in-place)
I0619 10:03:31.457412 29673 net.cpp:240] Setting up ReLU25
I0619 10:03:31.457420 29673 net.cpp:247] Top shape: 128 16 32 32 (2097152)
I0619 10:03:31.457425 29673 net.cpp:255] Memory required for data: 1142424064
I0619 10:03:31.457432 29673 layer_factory.hpp:77] Creating layer Eltwise12_ReLU25_0_split
I0619 10:03:31.457439 29673 net.cpp:190] Creating Layer Eltwise12_ReLU25_0_split
I0619 10:03:31.457444 29673 net.cpp:615] Eltwise12_ReLU25_0_split <- Eltwise12
I0619 10:03:31.457453 29673 net.cpp:589] Eltwise12_ReLU25_0_split -> Eltwise12_ReLU25_0_split_0
I0619 10:03:31.457466 29673 net.cpp:589] Eltwise12_ReLU25_0_split -> Eltwise12_ReLU25_0_split_1
I0619 10:03:31.457527 29673 net.cpp:240] Setting up Eltwise12_ReLU25_0_split
I0619 10:03:31.457537 29673 net.cpp:247] Top shape: 128 16 32 32 (2097152)
I0619 10:03:31.457545 29673 net.cpp:247] Top shape: 128 16 32 32 (2097152)
I0619 10:03:31.457551 29673 net.cpp:255] Memory required for data: 1159201280
I0619 10:03:31.457556 29673 layer_factory.hpp:77] Creating layer Convolution26
I0619 10:03:31.457569 29673 net.cpp:190] Creating Layer Convolution26
I0619 10:03:31.457576 29673 net.cpp:615] Convolution26 <- Eltwise12_ReLU25_0_split_0
I0619 10:03:31.457588 29673 net.cpp:589] Convolution26 -> Convolution26
I0619 10:03:31.458042 29673 net.cpp:240] Setting up Convolution26
I0619 10:03:31.458053 29673 net.cpp:247] Top shape: 128 16 32 32 (2097152)
I0619 10:03:31.458060 29673 net.cpp:255] Memory required for data: 1167589888
I0619 10:03:31.458071 29673 layer_factory.hpp:77] Creating layer BatchNorm26
I0619 10:03:31.458081 29673 net.cpp:190] Creating Layer BatchNorm26
I0619 10:03:31.458087 29673 net.cpp:615] BatchNorm26 <- Convolution26
I0619 10:03:31.458098 29673 net.cpp:576] BatchNorm26 -> Convolution26 (in-place)
I0619 10:03:31.458395 29673 net.cpp:240] Setting up BatchNorm26
I0619 10:03:31.458406 29673 net.cpp:247] Top shape: 128 16 32 32 (2097152)
I0619 10:03:31.458411 29673 net.cpp:255] Memory required for data: 1175978496
I0619 10:03:31.458427 29673 layer_factory.hpp:77] Creating layer Scale26
I0619 10:03:31.458452 29673 net.cpp:190] Creating Layer Scale26
I0619 10:03:31.458459 29673 net.cpp:615] Scale26 <- Convolution26
I0619 10:03:31.458468 29673 net.cpp:576] Scale26 -> Convolution26 (in-place)
I0619 10:03:31.458520 29673 layer_factory.hpp:77] Creating layer Scale26
I0619 10:03:31.458689 29673 net.cpp:240] Setting up Scale26
I0619 10:03:31.458700 29673 net.cpp:247] Top shape: 128 16 32 32 (2097152)
I0619 10:03:31.458706 29673 net.cpp:255] Memory required for data: 1184367104
I0619 10:03:31.458719 29673 layer_factory.hpp:77] Creating layer ReLU26
I0619 10:03:31.458730 29673 net.cpp:190] Creating Layer ReLU26
I0619 10:03:31.458736 29673 net.cpp:615] ReLU26 <- Convolution26
I0619 10:03:31.458755 29673 net.cpp:576] ReLU26 -> Convolution26 (in-place)
I0619 10:03:31.458763 29673 net.cpp:240] Setting up ReLU26
I0619 10:03:31.458770 29673 net.cpp:247] Top shape: 128 16 32 32 (2097152)
I0619 10:03:31.458775 29673 net.cpp:255] Memory required for data: 1192755712
I0619 10:03:31.458781 29673 layer_factory.hpp:77] Creating layer Convolution27
I0619 10:03:31.458796 29673 net.cpp:190] Creating Layer Convolution27
I0619 10:03:31.458801 29673 net.cpp:615] Convolution27 <- Convolution26
I0619 10:03:31.458809 29673 net.cpp:589] Convolution27 -> Convolution27
I0619 10:03:31.459233 29673 net.cpp:240] Setting up Convolution27
I0619 10:03:31.459244 29673 net.cpp:247] Top shape: 128 16 32 32 (2097152)
I0619 10:03:31.459249 29673 net.cpp:255] Memory required for data: 1201144320
I0619 10:03:31.459259 29673 layer_factory.hpp:77] Creating layer BatchNorm27
I0619 10:03:31.459271 29673 net.cpp:190] Creating Layer BatchNorm27
I0619 10:03:31.459277 29673 net.cpp:615] BatchNorm27 <- Convolution27
I0619 10:03:31.459285 29673 net.cpp:576] BatchNorm27 -> Convolution27 (in-place)
I0619 10:03:31.459549 29673 net.cpp:240] Setting up BatchNorm27
I0619 10:03:31.459558 29673 net.cpp:247] Top shape: 128 16 32 32 (2097152)
I0619 10:03:31.459568 29673 net.cpp:255] Memory required for data: 1209532928
I0619 10:03:31.459584 29673 layer_factory.hpp:77] Creating layer Scale27
I0619 10:03:31.459594 29673 net.cpp:190] Creating Layer Scale27
I0619 10:03:31.459599 29673 net.cpp:615] Scale27 <- Convolution27
I0619 10:03:31.459605 29673 net.cpp:576] Scale27 -> Convolution27 (in-place)
I0619 10:03:31.459656 29673 layer_factory.hpp:77] Creating layer Scale27
I0619 10:03:31.459810 29673 net.cpp:240] Setting up Scale27
I0619 10:03:31.459820 29673 net.cpp:247] Top shape: 128 16 32 32 (2097152)
I0619 10:03:31.459825 29673 net.cpp:255] Memory required for data: 1217921536
I0619 10:03:31.459841 29673 layer_factory.hpp:77] Creating layer Eltwise13
I0619 10:03:31.459851 29673 net.cpp:190] Creating Layer Eltwise13
I0619 10:03:31.459856 29673 net.cpp:615] Eltwise13 <- Eltwise12_ReLU25_0_split_1
I0619 10:03:31.459863 29673 net.cpp:615] Eltwise13 <- Convolution27
I0619 10:03:31.459874 29673 net.cpp:589] Eltwise13 -> Eltwise13
I0619 10:03:31.459905 29673 net.cpp:240] Setting up Eltwise13
I0619 10:03:31.459914 29673 net.cpp:247] Top shape: 128 16 32 32 (2097152)
I0619 10:03:31.459919 29673 net.cpp:255] Memory required for data: 1226310144
I0619 10:03:31.459924 29673 layer_factory.hpp:77] Creating layer ReLU27
I0619 10:03:31.459934 29673 net.cpp:190] Creating Layer ReLU27
I0619 10:03:31.459940 29673 net.cpp:615] ReLU27 <- Eltwise13
I0619 10:03:31.459947 29673 net.cpp:576] ReLU27 -> Eltwise13 (in-place)
I0619 10:03:31.459956 29673 net.cpp:240] Setting up ReLU27
I0619 10:03:31.459964 29673 net.cpp:247] Top shape: 128 16 32 32 (2097152)
I0619 10:03:31.459969 29673 net.cpp:255] Memory required for data: 1234698752
I0619 10:03:31.459974 29673 layer_factory.hpp:77] Creating layer Eltwise13_ReLU27_0_split
I0619 10:03:31.459981 29673 net.cpp:190] Creating Layer Eltwise13_ReLU27_0_split
I0619 10:03:31.459986 29673 net.cpp:615] Eltwise13_ReLU27_0_split <- Eltwise13
I0619 10:03:31.459996 29673 net.cpp:589] Eltwise13_ReLU27_0_split -> Eltwise13_ReLU27_0_split_0
I0619 10:03:31.460006 29673 net.cpp:589] Eltwise13_ReLU27_0_split -> Eltwise13_ReLU27_0_split_1
I0619 10:03:31.460054 29673 net.cpp:240] Setting up Eltwise13_ReLU27_0_split
I0619 10:03:31.460063 29673 net.cpp:247] Top shape: 128 16 32 32 (2097152)
I0619 10:03:31.460070 29673 net.cpp:247] Top shape: 128 16 32 32 (2097152)
I0619 10:03:31.460075 29673 net.cpp:255] Memory required for data: 1251475968
I0619 10:03:31.460080 29673 layer_factory.hpp:77] Creating layer Convolution28
I0619 10:03:31.460094 29673 net.cpp:190] Creating Layer Convolution28
I0619 10:03:31.460100 29673 net.cpp:615] Convolution28 <- Eltwise13_ReLU27_0_split_0
I0619 10:03:31.460109 29673 net.cpp:589] Convolution28 -> Convolution28
I0619 10:03:31.460535 29673 net.cpp:240] Setting up Convolution28
I0619 10:03:31.460546 29673 net.cpp:247] Top shape: 128 16 32 32 (2097152)
I0619 10:03:31.460551 29673 net.cpp:255] Memory required for data: 1259864576
I0619 10:03:31.460562 29673 layer_factory.hpp:77] Creating layer BatchNorm28
I0619 10:03:31.460572 29673 net.cpp:190] Creating Layer BatchNorm28
I0619 10:03:31.460577 29673 net.cpp:615] BatchNorm28 <- Convolution28
I0619 10:03:31.460587 29673 net.cpp:576] BatchNorm28 -> Convolution28 (in-place)
I0619 10:03:31.460851 29673 net.cpp:240] Setting up BatchNorm28
I0619 10:03:31.460862 29673 net.cpp:247] Top shape: 128 16 32 32 (2097152)
I0619 10:03:31.460867 29673 net.cpp:255] Memory required for data: 1268253184
I0619 10:03:31.460882 29673 layer_factory.hpp:77] Creating layer Scale28
I0619 10:03:31.460891 29673 net.cpp:190] Creating Layer Scale28
I0619 10:03:31.460896 29673 net.cpp:615] Scale28 <- Convolution28
I0619 10:03:31.460906 29673 net.cpp:576] Scale28 -> Convolution28 (in-place)
I0619 10:03:31.460950 29673 layer_factory.hpp:77] Creating layer Scale28
I0619 10:03:31.461103 29673 net.cpp:240] Setting up Scale28
I0619 10:03:31.461113 29673 net.cpp:247] Top shape: 128 16 32 32 (2097152)
I0619 10:03:31.461118 29673 net.cpp:255] Memory required for data: 1276641792
I0619 10:03:31.461133 29673 layer_factory.hpp:77] Creating layer ReLU28
I0619 10:03:31.461145 29673 net.cpp:190] Creating Layer ReLU28
I0619 10:03:31.461151 29673 net.cpp:615] ReLU28 <- Convolution28
I0619 10:03:31.461158 29673 net.cpp:576] ReLU28 -> Convolution28 (in-place)
I0619 10:03:31.461168 29673 net.cpp:240] Setting up ReLU28
I0619 10:03:31.461175 29673 net.cpp:247] Top shape: 128 16 32 32 (2097152)
I0619 10:03:31.461180 29673 net.cpp:255] Memory required for data: 1285030400
I0619 10:03:31.461185 29673 layer_factory.hpp:77] Creating layer Convolution29
I0619 10:03:31.461199 29673 net.cpp:190] Creating Layer Convolution29
I0619 10:03:31.461205 29673 net.cpp:615] Convolution29 <- Convolution28
I0619 10:03:31.461215 29673 net.cpp:589] Convolution29 -> Convolution29
I0619 10:03:31.461650 29673 net.cpp:240] Setting up Convolution29
I0619 10:03:31.461663 29673 net.cpp:247] Top shape: 128 16 32 32 (2097152)
I0619 10:03:31.461668 29673 net.cpp:255] Memory required for data: 1293419008
I0619 10:03:31.461678 29673 layer_factory.hpp:77] Creating layer BatchNorm29
I0619 10:03:31.461690 29673 net.cpp:190] Creating Layer BatchNorm29
I0619 10:03:31.461696 29673 net.cpp:615] BatchNorm29 <- Convolution29
I0619 10:03:31.461704 29673 net.cpp:576] BatchNorm29 -> Convolution29 (in-place)
I0619 10:03:31.461971 29673 net.cpp:240] Setting up BatchNorm29
I0619 10:03:31.461982 29673 net.cpp:247] Top shape: 128 16 32 32 (2097152)
I0619 10:03:31.461987 29673 net.cpp:255] Memory required for data: 1301807616
I0619 10:03:31.462000 29673 layer_factory.hpp:77] Creating layer Scale29
I0619 10:03:31.462013 29673 net.cpp:190] Creating Layer Scale29
I0619 10:03:31.462018 29673 net.cpp:615] Scale29 <- Convolution29
I0619 10:03:31.462025 29673 net.cpp:576] Scale29 -> Convolution29 (in-place)
I0619 10:03:31.462070 29673 layer_factory.hpp:77] Creating layer Scale29
I0619 10:03:31.462226 29673 net.cpp:240] Setting up Scale29
I0619 10:03:31.462239 29673 net.cpp:247] Top shape: 128 16 32 32 (2097152)
I0619 10:03:31.462244 29673 net.cpp:255] Memory required for data: 1310196224
I0619 10:03:31.462255 29673 layer_factory.hpp:77] Creating layer Eltwise14
I0619 10:03:31.462263 29673 net.cpp:190] Creating Layer Eltwise14
I0619 10:03:31.462270 29673 net.cpp:615] Eltwise14 <- Eltwise13_ReLU27_0_split_1
I0619 10:03:31.462276 29673 net.cpp:615] Eltwise14 <- Convolution29
I0619 10:03:31.462285 29673 net.cpp:589] Eltwise14 -> Eltwise14
I0619 10:03:31.462319 29673 net.cpp:240] Setting up Eltwise14
I0619 10:03:31.462328 29673 net.cpp:247] Top shape: 128 16 32 32 (2097152)
I0619 10:03:31.462333 29673 net.cpp:255] Memory required for data: 1318584832
I0619 10:03:31.462338 29673 layer_factory.hpp:77] Creating layer ReLU29
I0619 10:03:31.462348 29673 net.cpp:190] Creating Layer ReLU29
I0619 10:03:31.462360 29673 net.cpp:615] ReLU29 <- Eltwise14
I0619 10:03:31.462368 29673 net.cpp:576] ReLU29 -> Eltwise14 (in-place)
I0619 10:03:31.462378 29673 net.cpp:240] Setting up ReLU29
I0619 10:03:31.462384 29673 net.cpp:247] Top shape: 128 16 32 32 (2097152)
I0619 10:03:31.462389 29673 net.cpp:255] Memory required for data: 1326973440
I0619 10:03:31.462395 29673 layer_factory.hpp:77] Creating layer Eltwise14_ReLU29_0_split
I0619 10:03:31.462402 29673 net.cpp:190] Creating Layer Eltwise14_ReLU29_0_split
I0619 10:03:31.462407 29673 net.cpp:615] Eltwise14_ReLU29_0_split <- Eltwise14
I0619 10:03:31.462417 29673 net.cpp:589] Eltwise14_ReLU29_0_split -> Eltwise14_ReLU29_0_split_0
I0619 10:03:31.462427 29673 net.cpp:589] Eltwise14_ReLU29_0_split -> Eltwise14_ReLU29_0_split_1
I0619 10:03:31.462476 29673 net.cpp:240] Setting up Eltwise14_ReLU29_0_split
I0619 10:03:31.462484 29673 net.cpp:247] Top shape: 128 16 32 32 (2097152)
I0619 10:03:31.462491 29673 net.cpp:247] Top shape: 128 16 32 32 (2097152)
I0619 10:03:31.462496 29673 net.cpp:255] Memory required for data: 1343750656
I0619 10:03:31.462501 29673 layer_factory.hpp:77] Creating layer Convolution30
I0619 10:03:31.462515 29673 net.cpp:190] Creating Layer Convolution30
I0619 10:03:31.462522 29673 net.cpp:615] Convolution30 <- Eltwise14_ReLU29_0_split_0
I0619 10:03:31.462535 29673 net.cpp:589] Convolution30 -> Convolution30
I0619 10:03:31.462973 29673 net.cpp:240] Setting up Convolution30
I0619 10:03:31.462985 29673 net.cpp:247] Top shape: 128 16 32 32 (2097152)
I0619 10:03:31.462990 29673 net.cpp:255] Memory required for data: 1352139264
I0619 10:03:31.463002 29673 layer_factory.hpp:77] Creating layer BatchNorm30
I0619 10:03:31.463014 29673 net.cpp:190] Creating Layer BatchNorm30
I0619 10:03:31.463021 29673 net.cpp:615] BatchNorm30 <- Convolution30
I0619 10:03:31.463030 29673 net.cpp:576] BatchNorm30 -> Convolution30 (in-place)
I0619 10:03:31.463299 29673 net.cpp:240] Setting up BatchNorm30
I0619 10:03:31.463309 29673 net.cpp:247] Top shape: 128 16 32 32 (2097152)
I0619 10:03:31.463313 29673 net.cpp:255] Memory required for data: 1360527872
I0619 10:03:31.463330 29673 layer_factory.hpp:77] Creating layer Scale30
I0619 10:03:31.463340 29673 net.cpp:190] Creating Layer Scale30
I0619 10:03:31.463346 29673 net.cpp:615] Scale30 <- Convolution30
I0619 10:03:31.463352 29673 net.cpp:576] Scale30 -> Convolution30 (in-place)
I0619 10:03:31.463399 29673 layer_factory.hpp:77] Creating layer Scale30
I0619 10:03:31.463552 29673 net.cpp:240] Setting up Scale30
I0619 10:03:31.463562 29673 net.cpp:247] Top shape: 128 16 32 32 (2097152)
I0619 10:03:31.463567 29673 net.cpp:255] Memory required for data: 1368916480
I0619 10:03:31.463578 29673 layer_factory.hpp:77] Creating layer ReLU30
I0619 10:03:31.463587 29673 net.cpp:190] Creating Layer ReLU30
I0619 10:03:31.463593 29673 net.cpp:615] ReLU30 <- Convolution30
I0619 10:03:31.463603 29673 net.cpp:576] ReLU30 -> Convolution30 (in-place)
I0619 10:03:31.463611 29673 net.cpp:240] Setting up ReLU30
I0619 10:03:31.463619 29673 net.cpp:247] Top shape: 128 16 32 32 (2097152)
I0619 10:03:31.463624 29673 net.cpp:255] Memory required for data: 1377305088
I0619 10:03:31.463629 29673 layer_factory.hpp:77] Creating layer Convolution31
I0619 10:03:31.463645 29673 net.cpp:190] Creating Layer Convolution31
I0619 10:03:31.463650 29673 net.cpp:615] Convolution31 <- Convolution30
I0619 10:03:31.463660 29673 net.cpp:589] Convolution31 -> Convolution31
I0619 10:03:31.464089 29673 net.cpp:240] Setting up Convolution31
I0619 10:03:31.464099 29673 net.cpp:247] Top shape: 128 16 32 32 (2097152)
I0619 10:03:31.464104 29673 net.cpp:255] Memory required for data: 1385693696
I0619 10:03:31.464117 29673 layer_factory.hpp:77] Creating layer BatchNorm31
I0619 10:03:31.464128 29673 net.cpp:190] Creating Layer BatchNorm31
I0619 10:03:31.464133 29673 net.cpp:615] BatchNorm31 <- Convolution31
I0619 10:03:31.464141 29673 net.cpp:576] BatchNorm31 -> Convolution31 (in-place)
I0619 10:03:31.464402 29673 net.cpp:240] Setting up BatchNorm31
I0619 10:03:31.464412 29673 net.cpp:247] Top shape: 128 16 32 32 (2097152)
I0619 10:03:31.464417 29673 net.cpp:255] Memory required for data: 1394082304
I0619 10:03:31.464434 29673 layer_factory.hpp:77] Creating layer Scale31
I0619 10:03:31.464443 29673 net.cpp:190] Creating Layer Scale31
I0619 10:03:31.464448 29673 net.cpp:615] Scale31 <- Convolution31
I0619 10:03:31.464457 29673 net.cpp:576] Scale31 -> Convolution31 (in-place)
I0619 10:03:31.464503 29673 layer_factory.hpp:77] Creating layer Scale31
I0619 10:03:31.464659 29673 net.cpp:240] Setting up Scale31
I0619 10:03:31.464669 29673 net.cpp:247] Top shape: 128 16 32 32 (2097152)
I0619 10:03:31.464674 29673 net.cpp:255] Memory required for data: 1402470912
I0619 10:03:31.464685 29673 layer_factory.hpp:77] Creating layer Eltwise15
I0619 10:03:31.464700 29673 net.cpp:190] Creating Layer Eltwise15
I0619 10:03:31.464707 29673 net.cpp:615] Eltwise15 <- Eltwise14_ReLU29_0_split_1
I0619 10:03:31.464715 29673 net.cpp:615] Eltwise15 <- Convolution31
I0619 10:03:31.464722 29673 net.cpp:589] Eltwise15 -> Eltwise15
I0619 10:03:31.464756 29673 net.cpp:240] Setting up Eltwise15
I0619 10:03:31.464766 29673 net.cpp:247] Top shape: 128 16 32 32 (2097152)
I0619 10:03:31.464771 29673 net.cpp:255] Memory required for data: 1410859520
I0619 10:03:31.464776 29673 layer_factory.hpp:77] Creating layer ReLU31
I0619 10:03:31.464792 29673 net.cpp:190] Creating Layer ReLU31
I0619 10:03:31.464797 29673 net.cpp:615] ReLU31 <- Eltwise15
I0619 10:03:31.464807 29673 net.cpp:576] ReLU31 -> Eltwise15 (in-place)
I0619 10:03:31.464817 29673 net.cpp:240] Setting up ReLU31
I0619 10:03:31.464824 29673 net.cpp:247] Top shape: 128 16 32 32 (2097152)
I0619 10:03:31.464829 29673 net.cpp:255] Memory required for data: 1419248128
I0619 10:03:31.464834 29673 layer_factory.hpp:77] Creating layer Eltwise15_ReLU31_0_split
I0619 10:03:31.464843 29673 net.cpp:190] Creating Layer Eltwise15_ReLU31_0_split
I0619 10:03:31.464848 29673 net.cpp:615] Eltwise15_ReLU31_0_split <- Eltwise15
I0619 10:03:31.464854 29673 net.cpp:589] Eltwise15_ReLU31_0_split -> Eltwise15_ReLU31_0_split_0
I0619 10:03:31.464864 29673 net.cpp:589] Eltwise15_ReLU31_0_split -> Eltwise15_ReLU31_0_split_1
I0619 10:03:31.464915 29673 net.cpp:240] Setting up Eltwise15_ReLU31_0_split
I0619 10:03:31.464923 29673 net.cpp:247] Top shape: 128 16 32 32 (2097152)
I0619 10:03:31.464929 29673 net.cpp:247] Top shape: 128 16 32 32 (2097152)
I0619 10:03:31.464934 29673 net.cpp:255] Memory required for data: 1436025344
I0619 10:03:31.464939 29673 layer_factory.hpp:77] Creating layer Convolution32
I0619 10:03:31.464951 29673 net.cpp:190] Creating Layer Convolution32
I0619 10:03:31.464957 29673 net.cpp:615] Convolution32 <- Eltwise15_ReLU31_0_split_0
I0619 10:03:31.464968 29673 net.cpp:589] Convolution32 -> Convolution32
I0619 10:03:31.465395 29673 net.cpp:240] Setting up Convolution32
I0619 10:03:31.465405 29673 net.cpp:247] Top shape: 128 16 32 32 (2097152)
I0619 10:03:31.465410 29673 net.cpp:255] Memory required for data: 1444413952
I0619 10:03:31.465422 29673 layer_factory.hpp:77] Creating layer BatchNorm32
I0619 10:03:31.465431 29673 net.cpp:190] Creating Layer BatchNorm32
I0619 10:03:31.465437 29673 net.cpp:615] BatchNorm32 <- Convolution32
I0619 10:03:31.465450 29673 net.cpp:576] BatchNorm32 -> Convolution32 (in-place)
I0619 10:03:31.465711 29673 net.cpp:240] Setting up BatchNorm32
I0619 10:03:31.465721 29673 net.cpp:247] Top shape: 128 16 32 32 (2097152)
I0619 10:03:31.465726 29673 net.cpp:255] Memory required for data: 1452802560
I0619 10:03:31.465740 29673 layer_factory.hpp:77] Creating layer Scale32
I0619 10:03:31.465749 29673 net.cpp:190] Creating Layer Scale32
I0619 10:03:31.465754 29673 net.cpp:615] Scale32 <- Convolution32
I0619 10:03:31.465761 29673 net.cpp:576] Scale32 -> Convolution32 (in-place)
I0619 10:03:31.465808 29673 layer_factory.hpp:77] Creating layer Scale32
I0619 10:03:31.465962 29673 net.cpp:240] Setting up Scale32
I0619 10:03:31.465972 29673 net.cpp:247] Top shape: 128 16 32 32 (2097152)
I0619 10:03:31.465977 29673 net.cpp:255] Memory required for data: 1461191168
I0619 10:03:31.465989 29673 layer_factory.hpp:77] Creating layer ReLU32
I0619 10:03:31.465997 29673 net.cpp:190] Creating Layer ReLU32
I0619 10:03:31.466003 29673 net.cpp:615] ReLU32 <- Convolution32
I0619 10:03:31.466019 29673 net.cpp:576] ReLU32 -> Convolution32 (in-place)
I0619 10:03:31.466029 29673 net.cpp:240] Setting up ReLU32
I0619 10:03:31.466037 29673 net.cpp:247] Top shape: 128 16 32 32 (2097152)
I0619 10:03:31.466042 29673 net.cpp:255] Memory required for data: 1469579776
I0619 10:03:31.466047 29673 layer_factory.hpp:77] Creating layer Convolution33
I0619 10:03:31.466061 29673 net.cpp:190] Creating Layer Convolution33
I0619 10:03:31.466068 29673 net.cpp:615] Convolution33 <- Convolution32
I0619 10:03:31.466076 29673 net.cpp:589] Convolution33 -> Convolution33
I0619 10:03:31.466511 29673 net.cpp:240] Setting up Convolution33
I0619 10:03:31.466523 29673 net.cpp:247] Top shape: 128 16 32 32 (2097152)
I0619 10:03:31.466528 29673 net.cpp:255] Memory required for data: 1477968384
I0619 10:03:31.466539 29673 layer_factory.hpp:77] Creating layer BatchNorm33
I0619 10:03:31.466548 29673 net.cpp:190] Creating Layer BatchNorm33
I0619 10:03:31.466554 29673 net.cpp:615] BatchNorm33 <- Convolution33
I0619 10:03:31.466564 29673 net.cpp:576] BatchNorm33 -> Convolution33 (in-place)
I0619 10:03:31.466836 29673 net.cpp:240] Setting up BatchNorm33
I0619 10:03:31.466852 29673 net.cpp:247] Top shape: 128 16 32 32 (2097152)
I0619 10:03:31.466857 29673 net.cpp:255] Memory required for data: 1486356992
I0619 10:03:31.466873 29673 layer_factory.hpp:77] Creating layer Scale33
I0619 10:03:31.466881 29673 net.cpp:190] Creating Layer Scale33
I0619 10:03:31.466887 29673 net.cpp:615] Scale33 <- Convolution33
I0619 10:03:31.466897 29673 net.cpp:576] Scale33 -> Convolution33 (in-place)
I0619 10:03:31.466943 29673 layer_factory.hpp:77] Creating layer Scale33
I0619 10:03:31.467095 29673 net.cpp:240] Setting up Scale33
I0619 10:03:31.467106 29673 net.cpp:247] Top shape: 128 16 32 32 (2097152)
I0619 10:03:31.467111 29673 net.cpp:255] Memory required for data: 1494745600
I0619 10:03:31.467123 29673 layer_factory.hpp:77] Creating layer Eltwise16
I0619 10:03:31.467133 29673 net.cpp:190] Creating Layer Eltwise16
I0619 10:03:31.467140 29673 net.cpp:615] Eltwise16 <- Eltwise15_ReLU31_0_split_1
I0619 10:03:31.467147 29673 net.cpp:615] Eltwise16 <- Convolution33
I0619 10:03:31.467154 29673 net.cpp:589] Eltwise16 -> Eltwise16
I0619 10:03:31.467190 29673 net.cpp:240] Setting up Eltwise16
I0619 10:03:31.467198 29673 net.cpp:247] Top shape: 128 16 32 32 (2097152)
I0619 10:03:31.467203 29673 net.cpp:255] Memory required for data: 1503134208
I0619 10:03:31.467208 29673 layer_factory.hpp:77] Creating layer ReLU33
I0619 10:03:31.467216 29673 net.cpp:190] Creating Layer ReLU33
I0619 10:03:31.467221 29673 net.cpp:615] ReLU33 <- Eltwise16
I0619 10:03:31.467231 29673 net.cpp:576] ReLU33 -> Eltwise16 (in-place)
I0619 10:03:31.467239 29673 net.cpp:240] Setting up ReLU33
I0619 10:03:31.467247 29673 net.cpp:247] Top shape: 128 16 32 32 (2097152)
I0619 10:03:31.467252 29673 net.cpp:255] Memory required for data: 1511522816
I0619 10:03:31.467257 29673 layer_factory.hpp:77] Creating layer Eltwise16_ReLU33_0_split
I0619 10:03:31.467265 29673 net.cpp:190] Creating Layer Eltwise16_ReLU33_0_split
I0619 10:03:31.467270 29673 net.cpp:615] Eltwise16_ReLU33_0_split <- Eltwise16
I0619 10:03:31.467278 29673 net.cpp:589] Eltwise16_ReLU33_0_split -> Eltwise16_ReLU33_0_split_0
I0619 10:03:31.467286 29673 net.cpp:589] Eltwise16_ReLU33_0_split -> Eltwise16_ReLU33_0_split_1
I0619 10:03:31.467335 29673 net.cpp:240] Setting up Eltwise16_ReLU33_0_split
I0619 10:03:31.467344 29673 net.cpp:247] Top shape: 128 16 32 32 (2097152)
I0619 10:03:31.467351 29673 net.cpp:247] Top shape: 128 16 32 32 (2097152)
I0619 10:03:31.467356 29673 net.cpp:255] Memory required for data: 1528300032
I0619 10:03:31.467361 29673 layer_factory.hpp:77] Creating layer Convolution34
I0619 10:03:31.467375 29673 net.cpp:190] Creating Layer Convolution34
I0619 10:03:31.467381 29673 net.cpp:615] Convolution34 <- Eltwise16_ReLU33_0_split_0
I0619 10:03:31.467391 29673 net.cpp:589] Convolution34 -> Convolution34
I0619 10:03:31.467816 29673 net.cpp:240] Setting up Convolution34
I0619 10:03:31.467828 29673 net.cpp:247] Top shape: 128 16 32 32 (2097152)
I0619 10:03:31.467833 29673 net.cpp:255] Memory required for data: 1536688640
I0619 10:03:31.467844 29673 layer_factory.hpp:77] Creating layer BatchNorm34
I0619 10:03:31.467856 29673 net.cpp:190] Creating Layer BatchNorm34
I0619 10:03:31.467861 29673 net.cpp:615] BatchNorm34 <- Convolution34
I0619 10:03:31.467871 29673 net.cpp:576] BatchNorm34 -> Convolution34 (in-place)
I0619 10:03:31.468134 29673 net.cpp:240] Setting up BatchNorm34
I0619 10:03:31.468144 29673 net.cpp:247] Top shape: 128 16 32 32 (2097152)
I0619 10:03:31.468149 29673 net.cpp:255] Memory required for data: 1545077248
I0619 10:03:31.468164 29673 layer_factory.hpp:77] Creating layer Scale34
I0619 10:03:31.468175 29673 net.cpp:190] Creating Layer Scale34
I0619 10:03:31.468181 29673 net.cpp:615] Scale34 <- Convolution34
I0619 10:03:31.468189 29673 net.cpp:576] Scale34 -> Convolution34 (in-place)
I0619 10:03:31.468236 29673 layer_factory.hpp:77] Creating layer Scale34
I0619 10:03:31.468399 29673 net.cpp:240] Setting up Scale34
I0619 10:03:31.468408 29673 net.cpp:247] Top shape: 128 16 32 32 (2097152)
I0619 10:03:31.468413 29673 net.cpp:255] Memory required for data: 1553465856
I0619 10:03:31.468428 29673 layer_factory.hpp:77] Creating layer ReLU34
I0619 10:03:31.468437 29673 net.cpp:190] Creating Layer ReLU34
I0619 10:03:31.468443 29673 net.cpp:615] ReLU34 <- Convolution34
I0619 10:03:31.468453 29673 net.cpp:576] ReLU34 -> Convolution34 (in-place)
I0619 10:03:31.468462 29673 net.cpp:240] Setting up ReLU34
I0619 10:03:31.468471 29673 net.cpp:247] Top shape: 128 16 32 32 (2097152)
I0619 10:03:31.468475 29673 net.cpp:255] Memory required for data: 1561854464
I0619 10:03:31.468480 29673 layer_factory.hpp:77] Creating layer Convolution35
I0619 10:03:31.468494 29673 net.cpp:190] Creating Layer Convolution35
I0619 10:03:31.468500 29673 net.cpp:615] Convolution35 <- Convolution34
I0619 10:03:31.468508 29673 net.cpp:589] Convolution35 -> Convolution35
I0619 10:03:31.468942 29673 net.cpp:240] Setting up Convolution35
I0619 10:03:31.468955 29673 net.cpp:247] Top shape: 128 16 32 32 (2097152)
I0619 10:03:31.468960 29673 net.cpp:255] Memory required for data: 1570243072
I0619 10:03:31.468971 29673 layer_factory.hpp:77] Creating layer BatchNorm35
I0619 10:03:31.468982 29673 net.cpp:190] Creating Layer BatchNorm35
I0619 10:03:31.468991 29673 net.cpp:615] BatchNorm35 <- Convolution35
I0619 10:03:31.468997 29673 net.cpp:576] BatchNorm35 -> Convolution35 (in-place)
I0619 10:03:31.469264 29673 net.cpp:240] Setting up BatchNorm35
I0619 10:03:31.469275 29673 net.cpp:247] Top shape: 128 16 32 32 (2097152)
I0619 10:03:31.469280 29673 net.cpp:255] Memory required for data: 1578631680
I0619 10:03:31.469297 29673 layer_factory.hpp:77] Creating layer Scale35
I0619 10:03:31.469306 29673 net.cpp:190] Creating Layer Scale35
I0619 10:03:31.469312 29673 net.cpp:615] Scale35 <- Convolution35
I0619 10:03:31.469319 29673 net.cpp:576] Scale35 -> Convolution35 (in-place)
I0619 10:03:31.469367 29673 layer_factory.hpp:77] Creating layer Scale35
I0619 10:03:31.469521 29673 net.cpp:240] Setting up Scale35
I0619 10:03:31.469530 29673 net.cpp:247] Top shape: 128 16 32 32 (2097152)
I0619 10:03:31.469535 29673 net.cpp:255] Memory required for data: 1587020288
I0619 10:03:31.469547 29673 layer_factory.hpp:77] Creating layer Eltwise17
I0619 10:03:31.469558 29673 net.cpp:190] Creating Layer Eltwise17
I0619 10:03:31.469565 29673 net.cpp:615] Eltwise17 <- Eltwise16_ReLU33_0_split_1
I0619 10:03:31.469573 29673 net.cpp:615] Eltwise17 <- Convolution35
I0619 10:03:31.469580 29673 net.cpp:589] Eltwise17 -> Eltwise17
I0619 10:03:31.469614 29673 net.cpp:240] Setting up Eltwise17
I0619 10:03:31.469624 29673 net.cpp:247] Top shape: 128 16 32 32 (2097152)
I0619 10:03:31.469629 29673 net.cpp:255] Memory required for data: 1595408896
I0619 10:03:31.469633 29673 layer_factory.hpp:77] Creating layer ReLU35
I0619 10:03:31.469641 29673 net.cpp:190] Creating Layer ReLU35
I0619 10:03:31.469646 29673 net.cpp:615] ReLU35 <- Eltwise17
I0619 10:03:31.469655 29673 net.cpp:576] ReLU35 -> Eltwise17 (in-place)
I0619 10:03:31.469665 29673 net.cpp:240] Setting up ReLU35
I0619 10:03:31.469672 29673 net.cpp:247] Top shape: 128 16 32 32 (2097152)
I0619 10:03:31.469677 29673 net.cpp:255] Memory required for data: 1603797504
I0619 10:03:31.469682 29673 layer_factory.hpp:77] Creating layer Eltwise17_ReLU35_0_split
I0619 10:03:31.469689 29673 net.cpp:190] Creating Layer Eltwise17_ReLU35_0_split
I0619 10:03:31.469694 29673 net.cpp:615] Eltwise17_ReLU35_0_split <- Eltwise17
I0619 10:03:31.469702 29673 net.cpp:589] Eltwise17_ReLU35_0_split -> Eltwise17_ReLU35_0_split_0
I0619 10:03:31.469712 29673 net.cpp:589] Eltwise17_ReLU35_0_split -> Eltwise17_ReLU35_0_split_1
I0619 10:03:31.469760 29673 net.cpp:240] Setting up Eltwise17_ReLU35_0_split
I0619 10:03:31.469769 29673 net.cpp:247] Top shape: 128 16 32 32 (2097152)
I0619 10:03:31.469776 29673 net.cpp:247] Top shape: 128 16 32 32 (2097152)
I0619 10:03:31.469781 29673 net.cpp:255] Memory required for data: 1620574720
I0619 10:03:31.469786 29673 layer_factory.hpp:77] Creating layer Convolution36
I0619 10:03:31.469799 29673 net.cpp:190] Creating Layer Convolution36
I0619 10:03:31.469810 29673 net.cpp:615] Convolution36 <- Eltwise17_ReLU35_0_split_0
I0619 10:03:31.469823 29673 net.cpp:589] Convolution36 -> Convolution36
I0619 10:03:31.470258 29673 net.cpp:240] Setting up Convolution36
I0619 10:03:31.470269 29673 net.cpp:247] Top shape: 128 16 32 32 (2097152)
I0619 10:03:31.470275 29673 net.cpp:255] Memory required for data: 1628963328
I0619 10:03:31.470286 29673 layer_factory.hpp:77] Creating layer BatchNorm36
I0619 10:03:31.470295 29673 net.cpp:190] Creating Layer BatchNorm36
I0619 10:03:31.470300 29673 net.cpp:615] BatchNorm36 <- Convolution36
I0619 10:03:31.470309 29673 net.cpp:576] BatchNorm36 -> Convolution36 (in-place)
I0619 10:03:31.470588 29673 net.cpp:240] Setting up BatchNorm36
I0619 10:03:31.470599 29673 net.cpp:247] Top shape: 128 16 32 32 (2097152)
I0619 10:03:31.470603 29673 net.cpp:255] Memory required for data: 1637351936
I0619 10:03:31.470618 29673 layer_factory.hpp:77] Creating layer Scale36
I0619 10:03:31.470626 29673 net.cpp:190] Creating Layer Scale36
I0619 10:03:31.470631 29673 net.cpp:615] Scale36 <- Convolution36
I0619 10:03:31.470639 29673 net.cpp:576] Scale36 -> Convolution36 (in-place)
I0619 10:03:31.470687 29673 layer_factory.hpp:77] Creating layer Scale36
I0619 10:03:31.470839 29673 net.cpp:240] Setting up Scale36
I0619 10:03:31.470849 29673 net.cpp:247] Top shape: 128 16 32 32 (2097152)
I0619 10:03:31.470854 29673 net.cpp:255] Memory required for data: 1645740544
I0619 10:03:31.470866 29673 layer_factory.hpp:77] Creating layer ReLU36
I0619 10:03:31.470875 29673 net.cpp:190] Creating Layer ReLU36
I0619 10:03:31.470880 29673 net.cpp:615] ReLU36 <- Convolution36
I0619 10:03:31.470890 29673 net.cpp:576] ReLU36 -> Convolution36 (in-place)
I0619 10:03:31.470898 29673 net.cpp:240] Setting up ReLU36
I0619 10:03:31.470906 29673 net.cpp:247] Top shape: 128 16 32 32 (2097152)
I0619 10:03:31.470911 29673 net.cpp:255] Memory required for data: 1654129152
I0619 10:03:31.470916 29673 layer_factory.hpp:77] Creating layer Convolution37
I0619 10:03:31.470927 29673 net.cpp:190] Creating Layer Convolution37
I0619 10:03:31.470932 29673 net.cpp:615] Convolution37 <- Convolution36
I0619 10:03:31.470942 29673 net.cpp:589] Convolution37 -> Convolution37
I0619 10:03:31.471349 29673 net.cpp:240] Setting up Convolution37
I0619 10:03:31.471360 29673 net.cpp:247] Top shape: 128 16 32 32 (2097152)
I0619 10:03:31.471365 29673 net.cpp:255] Memory required for data: 1662517760
I0619 10:03:31.471376 29673 layer_factory.hpp:77] Creating layer BatchNorm37
I0619 10:03:31.471385 29673 net.cpp:190] Creating Layer BatchNorm37
I0619 10:03:31.471390 29673 net.cpp:615] BatchNorm37 <- Convolution37
I0619 10:03:31.471400 29673 net.cpp:576] BatchNorm37 -> Convolution37 (in-place)
I0619 10:03:31.471648 29673 net.cpp:240] Setting up BatchNorm37
I0619 10:03:31.471657 29673 net.cpp:247] Top shape: 128 16 32 32 (2097152)
I0619 10:03:31.471662 29673 net.cpp:255] Memory required for data: 1670906368
I0619 10:03:31.471721 29673 layer_factory.hpp:77] Creating layer Scale37
I0619 10:03:31.471731 29673 net.cpp:190] Creating Layer Scale37
I0619 10:03:31.471737 29673 net.cpp:615] Scale37 <- Convolution37
I0619 10:03:31.471745 29673 net.cpp:576] Scale37 -> Convolution37 (in-place)
I0619 10:03:31.471793 29673 layer_factory.hpp:77] Creating layer Scale37
I0619 10:03:31.471937 29673 net.cpp:240] Setting up Scale37
I0619 10:03:31.471947 29673 net.cpp:247] Top shape: 128 16 32 32 (2097152)
I0619 10:03:31.471952 29673 net.cpp:255] Memory required for data: 1679294976
I0619 10:03:31.471963 29673 layer_factory.hpp:77] Creating layer Eltwise18
I0619 10:03:31.471971 29673 net.cpp:190] Creating Layer Eltwise18
I0619 10:03:31.471977 29673 net.cpp:615] Eltwise18 <- Eltwise17_ReLU35_0_split_1
I0619 10:03:31.471988 29673 net.cpp:615] Eltwise18 <- Convolution37
I0619 10:03:31.471997 29673 net.cpp:589] Eltwise18 -> Eltwise18
I0619 10:03:31.472029 29673 net.cpp:240] Setting up Eltwise18
I0619 10:03:31.472038 29673 net.cpp:247] Top shape: 128 16 32 32 (2097152)
I0619 10:03:31.472043 29673 net.cpp:255] Memory required for data: 1687683584
I0619 10:03:31.472051 29673 layer_factory.hpp:77] Creating layer ReLU37
I0619 10:03:31.472059 29673 net.cpp:190] Creating Layer ReLU37
I0619 10:03:31.472064 29673 net.cpp:615] ReLU37 <- Eltwise18
I0619 10:03:31.472071 29673 net.cpp:576] ReLU37 -> Eltwise18 (in-place)
I0619 10:03:31.472079 29673 net.cpp:240] Setting up ReLU37
I0619 10:03:31.472086 29673 net.cpp:247] Top shape: 128 16 32 32 (2097152)
I0619 10:03:31.472091 29673 net.cpp:255] Memory required for data: 1696072192
I0619 10:03:31.472095 29673 layer_factory.hpp:77] Creating layer Eltwise18_ReLU37_0_split
I0619 10:03:31.472106 29673 net.cpp:190] Creating Layer Eltwise18_ReLU37_0_split
I0619 10:03:31.472111 29673 net.cpp:615] Eltwise18_ReLU37_0_split <- Eltwise18
I0619 10:03:31.472118 29673 net.cpp:589] Eltwise18_ReLU37_0_split -> Eltwise18_ReLU37_0_split_0
I0619 10:03:31.472127 29673 net.cpp:589] Eltwise18_ReLU37_0_split -> Eltwise18_ReLU37_0_split_1
I0619 10:03:31.472177 29673 net.cpp:240] Setting up Eltwise18_ReLU37_0_split
I0619 10:03:31.472187 29673 net.cpp:247] Top shape: 128 16 32 32 (2097152)
I0619 10:03:31.472193 29673 net.cpp:247] Top shape: 128 16 32 32 (2097152)
I0619 10:03:31.472198 29673 net.cpp:255] Memory required for data: 1712849408
I0619 10:03:31.472201 29673 layer_factory.hpp:77] Creating layer Pooling1
I0619 10:03:31.472210 29673 net.cpp:190] Creating Layer Pooling1
I0619 10:03:31.472215 29673 net.cpp:615] Pooling1 <- Eltwise18_ReLU37_0_split_0
I0619 10:03:31.472223 29673 net.cpp:589] Pooling1 -> Pooling1
I0619 10:03:31.472281 29673 net.cpp:240] Setting up Pooling1
I0619 10:03:31.472290 29673 net.cpp:247] Top shape: 128 16 16 16 (524288)
I0619 10:03:31.472295 29673 net.cpp:255] Memory required for data: 1714946560
I0619 10:03:31.472300 29673 layer_factory.hpp:77] Creating layer Input1
I0619 10:03:31.472309 29673 net.cpp:190] Creating Layer Input1
I0619 10:03:31.472316 29673 net.cpp:589] Input1 -> Input1
I0619 10:03:31.472352 29673 net.cpp:240] Setting up Input1
I0619 10:03:31.472360 29673 net.cpp:247] Top shape: 128 16 16 16 (524288)
I0619 10:03:31.472365 29673 net.cpp:255] Memory required for data: 1717043712
I0619 10:03:31.472369 29673 layer_factory.hpp:77] Creating layer Concat1
I0619 10:03:31.472381 29673 net.cpp:190] Creating Layer Concat1
I0619 10:03:31.472388 29673 net.cpp:615] Concat1 <- Pooling1
I0619 10:03:31.472393 29673 net.cpp:615] Concat1 <- Input1
I0619 10:03:31.472401 29673 net.cpp:589] Concat1 -> Concat1
I0619 10:03:31.472436 29673 net.cpp:240] Setting up Concat1
I0619 10:03:31.472445 29673 net.cpp:247] Top shape: 128 32 16 16 (1048576)
I0619 10:03:31.472450 29673 net.cpp:255] Memory required for data: 1721238016
I0619 10:03:31.472455 29673 layer_factory.hpp:77] Creating layer Convolution38
I0619 10:03:31.472468 29673 net.cpp:190] Creating Layer Convolution38
I0619 10:03:31.472475 29673 net.cpp:615] Convolution38 <- Eltwise18_ReLU37_0_split_1
I0619 10:03:31.472486 29673 net.cpp:589] Convolution38 -> Convolution38
I0619 10:03:31.473852 29673 net.cpp:240] Setting up Convolution38
I0619 10:03:31.473872 29673 net.cpp:247] Top shape: 128 32 16 16 (1048576)
I0619 10:03:31.473877 29673 net.cpp:255] Memory required for data: 1725432320
I0619 10:03:31.473891 29673 layer_factory.hpp:77] Creating layer BatchNorm38
I0619 10:03:31.473901 29673 net.cpp:190] Creating Layer BatchNorm38
I0619 10:03:31.473906 29673 net.cpp:615] BatchNorm38 <- Convolution38
I0619 10:03:31.473917 29673 net.cpp:576] BatchNorm38 -> Convolution38 (in-place)
I0619 10:03:31.474169 29673 net.cpp:240] Setting up BatchNorm38
I0619 10:03:31.474179 29673 net.cpp:247] Top shape: 128 32 16 16 (1048576)
I0619 10:03:31.474184 29673 net.cpp:255] Memory required for data: 1729626624
I0619 10:03:31.474200 29673 layer_factory.hpp:77] Creating layer Scale38
I0619 10:03:31.474208 29673 net.cpp:190] Creating Layer Scale38
I0619 10:03:31.474213 29673 net.cpp:615] Scale38 <- Convolution38
I0619 10:03:31.474220 29673 net.cpp:576] Scale38 -> Convolution38 (in-place)
I0619 10:03:31.474268 29673 layer_factory.hpp:77] Creating layer Scale38
I0619 10:03:31.474427 29673 net.cpp:240] Setting up Scale38
I0619 10:03:31.474442 29673 net.cpp:247] Top shape: 128 32 16 16 (1048576)
I0619 10:03:31.474447 29673 net.cpp:255] Memory required for data: 1733820928
I0619 10:03:31.474460 29673 layer_factory.hpp:77] Creating layer ReLU38
I0619 10:03:31.474468 29673 net.cpp:190] Creating Layer ReLU38
I0619 10:03:31.474474 29673 net.cpp:615] ReLU38 <- Convolution38
I0619 10:03:31.474484 29673 net.cpp:576] ReLU38 -> Convolution38 (in-place)
I0619 10:03:31.474493 29673 net.cpp:240] Setting up ReLU38
I0619 10:03:31.474500 29673 net.cpp:247] Top shape: 128 32 16 16 (1048576)
I0619 10:03:31.474505 29673 net.cpp:255] Memory required for data: 1738015232
I0619 10:03:31.474510 29673 layer_factory.hpp:77] Creating layer Convolution39
I0619 10:03:31.474522 29673 net.cpp:190] Creating Layer Convolution39
I0619 10:03:31.474527 29673 net.cpp:615] Convolution39 <- Convolution38
I0619 10:03:31.474539 29673 net.cpp:589] Convolution39 -> Convolution39
I0619 10:03:31.475273 29673 net.cpp:240] Setting up Convolution39
I0619 10:03:31.475284 29673 net.cpp:247] Top shape: 128 32 16 16 (1048576)
I0619 10:03:31.475289 29673 net.cpp:255] Memory required for data: 1742209536
I0619 10:03:31.475301 29673 layer_factory.hpp:77] Creating layer BatchNorm39
I0619 10:03:31.475309 29673 net.cpp:190] Creating Layer BatchNorm39
I0619 10:03:31.475314 29673 net.cpp:615] BatchNorm39 <- Convolution39
I0619 10:03:31.475324 29673 net.cpp:576] BatchNorm39 -> Convolution39 (in-place)
I0619 10:03:31.475575 29673 net.cpp:240] Setting up BatchNorm39
I0619 10:03:31.475584 29673 net.cpp:247] Top shape: 128 32 16 16 (1048576)
I0619 10:03:31.475589 29673 net.cpp:255] Memory required for data: 1746403840
I0619 10:03:31.475603 29673 layer_factory.hpp:77] Creating layer Scale39
I0619 10:03:31.475611 29673 net.cpp:190] Creating Layer Scale39
I0619 10:03:31.475616 29673 net.cpp:615] Scale39 <- Convolution39
I0619 10:03:31.475623 29673 net.cpp:576] Scale39 -> Convolution39 (in-place)
I0619 10:03:31.475668 29673 layer_factory.hpp:77] Creating layer Scale39
I0619 10:03:31.475821 29673 net.cpp:240] Setting up Scale39
I0619 10:03:31.475829 29673 net.cpp:247] Top shape: 128 32 16 16 (1048576)
I0619 10:03:31.475834 29673 net.cpp:255] Memory required for data: 1750598144
I0619 10:03:31.475846 29673 layer_factory.hpp:77] Creating layer Eltwise19
I0619 10:03:31.475857 29673 net.cpp:190] Creating Layer Eltwise19
I0619 10:03:31.475862 29673 net.cpp:615] Eltwise19 <- Concat1
I0619 10:03:31.475868 29673 net.cpp:615] Eltwise19 <- Convolution39
I0619 10:03:31.475877 29673 net.cpp:589] Eltwise19 -> Eltwise19
I0619 10:03:31.475901 29673 net.cpp:240] Setting up Eltwise19
I0619 10:03:31.475909 29673 net.cpp:247] Top shape: 128 32 16 16 (1048576)
I0619 10:03:31.475914 29673 net.cpp:255] Memory required for data: 1754792448
I0619 10:03:31.475919 29673 layer_factory.hpp:77] Creating layer ReLU39
I0619 10:03:31.475932 29673 net.cpp:190] Creating Layer ReLU39
I0619 10:03:31.475937 29673 net.cpp:615] ReLU39 <- Eltwise19
I0619 10:03:31.475944 29673 net.cpp:576] ReLU39 -> Eltwise19 (in-place)
I0619 10:03:31.475953 29673 net.cpp:240] Setting up ReLU39
I0619 10:03:31.475960 29673 net.cpp:247] Top shape: 128 32 16 16 (1048576)
I0619 10:03:31.475965 29673 net.cpp:255] Memory required for data: 1758986752
I0619 10:03:31.475970 29673 layer_factory.hpp:77] Creating layer Eltwise19_ReLU39_0_split
I0619 10:03:31.475980 29673 net.cpp:190] Creating Layer Eltwise19_ReLU39_0_split
I0619 10:03:31.475986 29673 net.cpp:615] Eltwise19_ReLU39_0_split <- Eltwise19
I0619 10:03:31.475993 29673 net.cpp:589] Eltwise19_ReLU39_0_split -> Eltwise19_ReLU39_0_split_0
I0619 10:03:31.476002 29673 net.cpp:589] Eltwise19_ReLU39_0_split -> Eltwise19_ReLU39_0_split_1
I0619 10:03:31.476050 29673 net.cpp:240] Setting up Eltwise19_ReLU39_0_split
I0619 10:03:31.476059 29673 net.cpp:247] Top shape: 128 32 16 16 (1048576)
I0619 10:03:31.476065 29673 net.cpp:247] Top shape: 128 32 16 16 (1048576)
I0619 10:03:31.476070 29673 net.cpp:255] Memory required for data: 1767375360
I0619 10:03:31.476075 29673 layer_factory.hpp:77] Creating layer Convolution40
I0619 10:03:31.476092 29673 net.cpp:190] Creating Layer Convolution40
I0619 10:03:31.476099 29673 net.cpp:615] Convolution40 <- Eltwise19_ReLU39_0_split_0
I0619 10:03:31.476109 29673 net.cpp:589] Convolution40 -> Convolution40
I0619 10:03:31.476846 29673 net.cpp:240] Setting up Convolution40
I0619 10:03:31.476857 29673 net.cpp:247] Top shape: 128 32 16 16 (1048576)
I0619 10:03:31.476862 29673 net.cpp:255] Memory required for data: 1771569664
I0619 10:03:31.476874 29673 layer_factory.hpp:77] Creating layer BatchNorm40
I0619 10:03:31.476886 29673 net.cpp:190] Creating Layer BatchNorm40
I0619 10:03:31.476891 29673 net.cpp:615] BatchNorm40 <- Convolution40
I0619 10:03:31.476902 29673 net.cpp:576] BatchNorm40 -> Convolution40 (in-place)
I0619 10:03:31.477145 29673 net.cpp:240] Setting up BatchNorm40
I0619 10:03:31.477154 29673 net.cpp:247] Top shape: 128 32 16 16 (1048576)
I0619 10:03:31.477159 29673 net.cpp:255] Memory required for data: 1775763968
I0619 10:03:31.477172 29673 layer_factory.hpp:77] Creating layer Scale40
I0619 10:03:31.477183 29673 net.cpp:190] Creating Layer Scale40
I0619 10:03:31.477190 29673 net.cpp:615] Scale40 <- Convolution40
I0619 10:03:31.477196 29673 net.cpp:576] Scale40 -> Convolution40 (in-place)
I0619 10:03:31.477236 29673 layer_factory.hpp:77] Creating layer Scale40
I0619 10:03:31.477382 29673 net.cpp:240] Setting up Scale40
I0619 10:03:31.477392 29673 net.cpp:247] Top shape: 128 32 16 16 (1048576)
I0619 10:03:31.477396 29673 net.cpp:255] Memory required for data: 1779958272
I0619 10:03:31.477407 29673 layer_factory.hpp:77] Creating layer ReLU40
I0619 10:03:31.477416 29673 net.cpp:190] Creating Layer ReLU40
I0619 10:03:31.477421 29673 net.cpp:615] ReLU40 <- Convolution40
I0619 10:03:31.477427 29673 net.cpp:576] ReLU40 -> Convolution40 (in-place)
I0619 10:03:31.477437 29673 net.cpp:240] Setting up ReLU40
I0619 10:03:31.477443 29673 net.cpp:247] Top shape: 128 32 16 16 (1048576)
I0619 10:03:31.477447 29673 net.cpp:255] Memory required for data: 1784152576
I0619 10:03:31.477452 29673 layer_factory.hpp:77] Creating layer Convolution41
I0619 10:03:31.477468 29673 net.cpp:190] Creating Layer Convolution41
I0619 10:03:31.477473 29673 net.cpp:615] Convolution41 <- Convolution40
I0619 10:03:31.477483 29673 net.cpp:589] Convolution41 -> Convolution41
I0619 10:03:31.478229 29673 net.cpp:240] Setting up Convolution41
I0619 10:03:31.478240 29673 net.cpp:247] Top shape: 128 32 16 16 (1048576)
I0619 10:03:31.478245 29673 net.cpp:255] Memory required for data: 1788346880
I0619 10:03:31.478255 29673 layer_factory.hpp:77] Creating layer BatchNorm41
I0619 10:03:31.478267 29673 net.cpp:190] Creating Layer BatchNorm41
I0619 10:03:31.478272 29673 net.cpp:615] BatchNorm41 <- Convolution41
I0619 10:03:31.478282 29673 net.cpp:576] BatchNorm41 -> Convolution41 (in-place)
I0619 10:03:31.478538 29673 net.cpp:240] Setting up BatchNorm41
I0619 10:03:31.478549 29673 net.cpp:247] Top shape: 128 32 16 16 (1048576)
I0619 10:03:31.478554 29673 net.cpp:255] Memory required for data: 1792541184
I0619 10:03:31.478569 29673 layer_factory.hpp:77] Creating layer Scale41
I0619 10:03:31.478579 29673 net.cpp:190] Creating Layer Scale41
I0619 10:03:31.478585 29673 net.cpp:615] Scale41 <- Convolution41
I0619 10:03:31.478591 29673 net.cpp:576] Scale41 -> Convolution41 (in-place)
I0619 10:03:31.478633 29673 layer_factory.hpp:77] Creating layer Scale41
I0619 10:03:31.478782 29673 net.cpp:240] Setting up Scale41
I0619 10:03:31.478791 29673 net.cpp:247] Top shape: 128 32 16 16 (1048576)
I0619 10:03:31.478796 29673 net.cpp:255] Memory required for data: 1796735488
I0619 10:03:31.478807 29673 layer_factory.hpp:77] Creating layer Eltwise20
I0619 10:03:31.478816 29673 net.cpp:190] Creating Layer Eltwise20
I0619 10:03:31.478821 29673 net.cpp:615] Eltwise20 <- Eltwise19_ReLU39_0_split_1
I0619 10:03:31.478831 29673 net.cpp:615] Eltwise20 <- Convolution41
I0619 10:03:31.478839 29673 net.cpp:589] Eltwise20 -> Eltwise20
I0619 10:03:31.478863 29673 net.cpp:240] Setting up Eltwise20
I0619 10:03:31.478874 29673 net.cpp:247] Top shape: 128 32 16 16 (1048576)
I0619 10:03:31.478883 29673 net.cpp:255] Memory required for data: 1800929792
I0619 10:03:31.478888 29673 layer_factory.hpp:77] Creating layer ReLU41
I0619 10:03:31.478895 29673 net.cpp:190] Creating Layer ReLU41
I0619 10:03:31.478900 29673 net.cpp:615] ReLU41 <- Eltwise20
I0619 10:03:31.478907 29673 net.cpp:576] ReLU41 -> Eltwise20 (in-place)
I0619 10:03:31.478915 29673 net.cpp:240] Setting up ReLU41
I0619 10:03:31.478922 29673 net.cpp:247] Top shape: 128 32 16 16 (1048576)
I0619 10:03:31.478927 29673 net.cpp:255] Memory required for data: 1805124096
I0619 10:03:31.478932 29673 layer_factory.hpp:77] Creating layer Eltwise20_ReLU41_0_split
I0619 10:03:31.478940 29673 net.cpp:190] Creating Layer Eltwise20_ReLU41_0_split
I0619 10:03:31.478945 29673 net.cpp:615] Eltwise20_ReLU41_0_split <- Eltwise20
I0619 10:03:31.478955 29673 net.cpp:589] Eltwise20_ReLU41_0_split -> Eltwise20_ReLU41_0_split_0
I0619 10:03:31.478963 29673 net.cpp:589] Eltwise20_ReLU41_0_split -> Eltwise20_ReLU41_0_split_1
I0619 10:03:31.479007 29673 net.cpp:240] Setting up Eltwise20_ReLU41_0_split
I0619 10:03:31.479017 29673 net.cpp:247] Top shape: 128 32 16 16 (1048576)
I0619 10:03:31.479022 29673 net.cpp:247] Top shape: 128 32 16 16 (1048576)
I0619 10:03:31.479027 29673 net.cpp:255] Memory required for data: 1813512704
I0619 10:03:31.479032 29673 layer_factory.hpp:77] Creating layer Convolution42
I0619 10:03:31.479045 29673 net.cpp:190] Creating Layer Convolution42
I0619 10:03:31.479051 29673 net.cpp:615] Convolution42 <- Eltwise20_ReLU41_0_split_0
I0619 10:03:31.479060 29673 net.cpp:589] Convolution42 -> Convolution42
I0619 10:03:31.479797 29673 net.cpp:240] Setting up Convolution42
I0619 10:03:31.479807 29673 net.cpp:247] Top shape: 128 32 16 16 (1048576)
I0619 10:03:31.479812 29673 net.cpp:255] Memory required for data: 1817707008
I0619 10:03:31.479825 29673 layer_factory.hpp:77] Creating layer BatchNorm42
I0619 10:03:31.479835 29673 net.cpp:190] Creating Layer BatchNorm42
I0619 10:03:31.479840 29673 net.cpp:615] BatchNorm42 <- Convolution42
I0619 10:03:31.479848 29673 net.cpp:576] BatchNorm42 -> Convolution42 (in-place)
I0619 10:03:31.480098 29673 net.cpp:240] Setting up BatchNorm42
I0619 10:03:31.480108 29673 net.cpp:247] Top shape: 128 32 16 16 (1048576)
I0619 10:03:31.480113 29673 net.cpp:255] Memory required for data: 1821901312
I0619 10:03:31.480129 29673 layer_factory.hpp:77] Creating layer Scale42
I0619 10:03:31.480136 29673 net.cpp:190] Creating Layer Scale42
I0619 10:03:31.480141 29673 net.cpp:615] Scale42 <- Convolution42
I0619 10:03:31.480149 29673 net.cpp:576] Scale42 -> Convolution42 (in-place)
I0619 10:03:31.480193 29673 layer_factory.hpp:77] Creating layer Scale42
I0619 10:03:31.480340 29673 net.cpp:240] Setting up Scale42
I0619 10:03:31.480350 29673 net.cpp:247] Top shape: 128 32 16 16 (1048576)
I0619 10:03:31.480353 29673 net.cpp:255] Memory required for data: 1826095616
I0619 10:03:31.480367 29673 layer_factory.hpp:77] Creating layer ReLU42
I0619 10:03:31.480376 29673 net.cpp:190] Creating Layer ReLU42
I0619 10:03:31.480381 29673 net.cpp:615] ReLU42 <- Convolution42
I0619 10:03:31.480387 29673 net.cpp:576] ReLU42 -> Convolution42 (in-place)
I0619 10:03:31.480398 29673 net.cpp:240] Setting up ReLU42
I0619 10:03:31.480406 29673 net.cpp:247] Top shape: 128 32 16 16 (1048576)
I0619 10:03:31.480411 29673 net.cpp:255] Memory required for data: 1830289920
I0619 10:03:31.480415 29673 layer_factory.hpp:77] Creating layer Convolution43
I0619 10:03:31.480427 29673 net.cpp:190] Creating Layer Convolution43
I0619 10:03:31.480432 29673 net.cpp:615] Convolution43 <- Convolution42
I0619 10:03:31.480442 29673 net.cpp:589] Convolution43 -> Convolution43
I0619 10:03:31.481173 29673 net.cpp:240] Setting up Convolution43
I0619 10:03:31.481184 29673 net.cpp:247] Top shape: 128 32 16 16 (1048576)
I0619 10:03:31.481189 29673 net.cpp:255] Memory required for data: 1834484224
I0619 10:03:31.481200 29673 layer_factory.hpp:77] Creating layer BatchNorm43
I0619 10:03:31.481209 29673 net.cpp:190] Creating Layer BatchNorm43
I0619 10:03:31.481215 29673 net.cpp:615] BatchNorm43 <- Convolution43
I0619 10:03:31.481228 29673 net.cpp:576] BatchNorm43 -> Convolution43 (in-place)
I0619 10:03:31.481479 29673 net.cpp:240] Setting up BatchNorm43
I0619 10:03:31.481488 29673 net.cpp:247] Top shape: 128 32 16 16 (1048576)
I0619 10:03:31.481493 29673 net.cpp:255] Memory required for data: 1838678528
I0619 10:03:31.481508 29673 layer_factory.hpp:77] Creating layer Scale43
I0619 10:03:31.481515 29673 net.cpp:190] Creating Layer Scale43
I0619 10:03:31.481520 29673 net.cpp:615] Scale43 <- Convolution43
I0619 10:03:31.481528 29673 net.cpp:576] Scale43 -> Convolution43 (in-place)
I0619 10:03:31.481570 29673 layer_factory.hpp:77] Creating layer Scale43
I0619 10:03:31.481721 29673 net.cpp:240] Setting up Scale43
I0619 10:03:31.481730 29673 net.cpp:247] Top shape: 128 32 16 16 (1048576)
I0619 10:03:31.481735 29673 net.cpp:255] Memory required for data: 1842872832
I0619 10:03:31.481746 29673 layer_factory.hpp:77] Creating layer Eltwise21
I0619 10:03:31.481755 29673 net.cpp:190] Creating Layer Eltwise21
I0619 10:03:31.481760 29673 net.cpp:615] Eltwise21 <- Eltwise20_ReLU41_0_split_1
I0619 10:03:31.481770 29673 net.cpp:615] Eltwise21 <- Convolution43
I0619 10:03:31.481777 29673 net.cpp:589] Eltwise21 -> Eltwise21
I0619 10:03:31.481801 29673 net.cpp:240] Setting up Eltwise21
I0619 10:03:31.481808 29673 net.cpp:247] Top shape: 128 32 16 16 (1048576)
I0619 10:03:31.481813 29673 net.cpp:255] Memory required for data: 1847067136
I0619 10:03:31.481818 29673 layer_factory.hpp:77] Creating layer ReLU43
I0619 10:03:31.481832 29673 net.cpp:190] Creating Layer ReLU43
I0619 10:03:31.481837 29673 net.cpp:615] ReLU43 <- Eltwise21
I0619 10:03:31.481844 29673 net.cpp:576] ReLU43 -> Eltwise21 (in-place)
I0619 10:03:31.481853 29673 net.cpp:240] Setting up ReLU43
I0619 10:03:31.481859 29673 net.cpp:247] Top shape: 128 32 16 16 (1048576)
I0619 10:03:31.481864 29673 net.cpp:255] Memory required for data: 1851261440
I0619 10:03:31.481869 29673 layer_factory.hpp:77] Creating layer Eltwise21_ReLU43_0_split
I0619 10:03:31.481876 29673 net.cpp:190] Creating Layer Eltwise21_ReLU43_0_split
I0619 10:03:31.481881 29673 net.cpp:615] Eltwise21_ReLU43_0_split <- Eltwise21
I0619 10:03:31.481890 29673 net.cpp:589] Eltwise21_ReLU43_0_split -> Eltwise21_ReLU43_0_split_0
I0619 10:03:31.481899 29673 net.cpp:589] Eltwise21_ReLU43_0_split -> Eltwise21_ReLU43_0_split_1
I0619 10:03:31.481946 29673 net.cpp:240] Setting up Eltwise21_ReLU43_0_split
I0619 10:03:31.481956 29673 net.cpp:247] Top shape: 128 32 16 16 (1048576)
I0619 10:03:31.481961 29673 net.cpp:247] Top shape: 128 32 16 16 (1048576)
I0619 10:03:31.481966 29673 net.cpp:255] Memory required for data: 1859650048
I0619 10:03:31.481971 29673 layer_factory.hpp:77] Creating layer Convolution44
I0619 10:03:31.481981 29673 net.cpp:190] Creating Layer Convolution44
I0619 10:03:31.481987 29673 net.cpp:615] Convolution44 <- Eltwise21_ReLU43_0_split_0
I0619 10:03:31.481998 29673 net.cpp:589] Convolution44 -> Convolution44
…
I0619 10:03:31.835625 29673 net.cpp:576] BatchNorm92 -> Convolution92 (in-place)
I0619 10:03:31.835853 29673 net.cpp:240] Setting up BatchNorm92
I0619 10:03:31.835861 29673 net.cpp:247] Top shape: 128 64 8 8 (524288)
I0619 10:03:31.835865 29673 net.cpp:255] Memory required for data: 2767717888
I0619 10:03:31.835876 29673 layer_factory.hpp:77] Creating layer Scale92
I0619 10:03:31.835883 29673 net.cpp:190] Creating Layer Scale92
I0619 10:03:31.835888 29673 net.cpp:615] Scale92 <- Convolution92
I0619 10:03:31.835896 29673 net.cpp:576] Scale92 -> Convolution92 (in-place)
I0619 10:03:31.835934 29673 layer_factory.hpp:77] Creating layer Scale92
I0619 10:03:31.836069 29673 net.cpp:240] Setting up Scale92
I0619 10:03:31.836077 29673 net.cpp:247] Top shape: 128 64 8 8 (524288)
I0619 10:03:31.836081 29673 net.cpp:255] Memory required for data: 2769815040
I0619 10:03:31.836091 29673 layer_factory.hpp:77] Creating layer ReLU92
I0619 10:03:31.836097 29673 net.cpp:190] Creating Layer ReLU92
I0619 10:03:31.836102 29673 net.cpp:615] ReLU92 <- Convolution92
I0619 10:03:31.836109 29673 net.cpp:576] ReLU92 -> Convolution92 (in-place)
I0619 10:03:31.836117 29673 net.cpp:240] Setting up ReLU92
I0619 10:03:31.836122 29673 net.cpp:247] Top shape: 128 64 8 8 (524288)
I0619 10:03:31.836127 29673 net.cpp:255] Memory required for data: 2771912192
I0619 10:03:31.836130 29673 layer_factory.hpp:77] Creating layer Convolution93
I0619 10:03:31.836141 29673 net.cpp:190] Creating Layer Convolution93
I0619 10:03:31.836145 29673 net.cpp:615] Convolution93 <- Convolution92
I0619 10:03:31.836153 29673 net.cpp:589] Convolution93 -> Convolution93
I0619 10:03:31.837779 29673 net.cpp:240] Setting up Convolution93
I0619 10:03:31.837787 29673 net.cpp:247] Top shape: 128 64 8 8 (524288)
I0619 10:03:31.837791 29673 net.cpp:255] Memory required for data: 2774009344
I0619 10:03:31.837802 29673 layer_factory.hpp:77] Creating layer BatchNorm93
I0619 10:03:31.837812 29673 net.cpp:190] Creating Layer BatchNorm93
I0619 10:03:31.837817 29673 net.cpp:615] BatchNorm93 <- Convolution93
I0619 10:03:31.837826 29673 net.cpp:576] BatchNorm93 -> Convolution93 (in-place)
I0619 10:03:31.838058 29673 net.cpp:240] Setting up BatchNorm93
I0619 10:03:31.838068 29673 net.cpp:247] Top shape: 128 64 8 8 (524288)
I0619 10:03:31.838071 29673 net.cpp:255] Memory required for data: 2776106496
I0619 10:03:31.838083 29673 layer_factory.hpp:77] Creating layer Scale93
I0619 10:03:31.838089 29673 net.cpp:190] Creating Layer Scale93
I0619 10:03:31.838094 29673 net.cpp:615] Scale93 <- Convolution93
I0619 10:03:31.838100 29673 net.cpp:576] Scale93 -> Convolution93 (in-place)
I0619 10:03:31.838141 29673 layer_factory.hpp:77] Creating layer Scale93
I0619 10:03:31.838277 29673 net.cpp:240] Setting up Scale93
I0619 10:03:31.838284 29673 net.cpp:247] Top shape: 128 64 8 8 (524288)
I0619 10:03:31.838289 29673 net.cpp:255] Memory required for data: 2778203648
I0619 10:03:31.838297 29673 layer_factory.hpp:77] Creating layer Eltwise46
I0619 10:03:31.838306 29673 net.cpp:190] Creating Layer Eltwise46
I0619 10:03:31.838312 29673 net.cpp:615] Eltwise46 <- Eltwise45_ReLU91_0_split_1
I0619 10:03:31.838318 29673 net.cpp:615] Eltwise46 <- Convolution93
I0619 10:03:31.838325 29673 net.cpp:589] Eltwise46 -> Eltwise46
I0619 10:03:31.838345 29673 net.cpp:240] Setting up Eltwise46
I0619 10:03:31.838351 29673 net.cpp:247] Top shape: 128 64 8 8 (524288)
I0619 10:03:31.838361 29673 net.cpp:255] Memory required for data: 2780300800
I0619 10:03:31.838364 29673 layer_factory.hpp:77] Creating layer ReLU93
I0619 10:03:31.838373 29673 net.cpp:190] Creating Layer ReLU93
I0619 10:03:31.838377 29673 net.cpp:615] ReLU93 <- Eltwise46
I0619 10:03:31.838383 29673 net.cpp:576] ReLU93 -> Eltwise46 (in-place)
I0619 10:03:31.838390 29673 net.cpp:240] Setting up ReLU93
I0619 10:03:31.838397 29673 net.cpp:247] Top shape: 128 64 8 8 (524288)
I0619 10:03:31.838400 29673 net.cpp:255] Memory required for data: 2782397952
I0619 10:03:31.838403 29673 layer_factory.hpp:77] Creating layer Eltwise46_ReLU93_0_split
I0619 10:03:31.838409 29673 net.cpp:190] Creating Layer Eltwise46_ReLU93_0_split
I0619 10:03:31.838413 29673 net.cpp:615] Eltwise46_ReLU93_0_split <- Eltwise46
I0619 10:03:31.838419 29673 net.cpp:589] Eltwise46_ReLU93_0_split -> Eltwise46_ReLU93_0_split_0
I0619 10:03:31.838428 29673 net.cpp:589] Eltwise46_ReLU93_0_split -> Eltwise46_ReLU93_0_split_1
I0619 10:03:31.838470 29673 net.cpp:240] Setting up Eltwise46_ReLU93_0_split
I0619 10:03:31.838477 29673 net.cpp:247] Top shape: 128 64 8 8 (524288)
I0619 10:03:31.838482 29673 net.cpp:247] Top shape: 128 64 8 8 (524288)
I0619 10:03:31.838486 29673 net.cpp:255] Memory required for data: 2786592256
I0619 10:03:31.838490 29673 layer_factory.hpp:77] Creating layer Convolution94
I0619 10:03:31.838501 29673 net.cpp:190] Creating Layer Convolution94
I0619 10:03:31.838506 29673 net.cpp:615] Convolution94 <- Eltwise46_ReLU93_0_split_0
I0619 10:03:31.838513 29673 net.cpp:589] Convolution94 -> Convolution94
I0619 10:03:31.840801 29673 net.cpp:240] Setting up Convolution94
I0619 10:03:31.840814 29673 net.cpp:247] Top shape: 128 64 8 8 (524288)
I0619 10:03:31.840818 29673 net.cpp:255] Memory required for data: 2788689408
I0619 10:03:31.840828 29673 layer_factory.hpp:77] Creating layer BatchNorm94
I0619 10:03:31.840839 29673 net.cpp:190] Creating Layer BatchNorm94
I0619 10:03:31.840844 29673 net.cpp:615] BatchNorm94 <- Convolution94
I0619 10:03:31.840850 29673 net.cpp:576] BatchNorm94 -> Convolution94 (in-place)
I0619 10:03:31.841085 29673 net.cpp:240] Setting up BatchNorm94
I0619 10:03:31.841094 29673 net.cpp:247] Top shape: 128 64 8 8 (524288)
I0619 10:03:31.841097 29673 net.cpp:255] Memory required for data: 2790786560
I0619 10:03:31.841109 29673 layer_factory.hpp:77] Creating layer Scale94
I0619 10:03:31.841116 29673 net.cpp:190] Creating Layer Scale94
I0619 10:03:31.841121 29673 net.cpp:615] Scale94 <- Convolution94
I0619 10:03:31.841127 29673 net.cpp:576] Scale94 -> Convolution94 (in-place)
I0619 10:03:31.841172 29673 layer_factory.hpp:77] Creating layer Scale94
I0619 10:03:31.841305 29673 net.cpp:240] Setting up Scale94
I0619 10:03:31.841313 29673 net.cpp:247] Top shape: 128 64 8 8 (524288)
I0619 10:03:31.841321 29673 net.cpp:255] Memory required for data: 2792883712
I0619 10:03:31.841333 29673 layer_factory.hpp:77] Creating layer ReLU94
I0619 10:03:31.841341 29673 net.cpp:190] Creating Layer ReLU94
I0619 10:03:31.841344 29673 net.cpp:615] ReLU94 <- Convolution94
I0619 10:03:31.841351 29673 net.cpp:576] ReLU94 -> Convolution94 (in-place)
I0619 10:03:31.841357 29673 net.cpp:240] Setting up ReLU94
I0619 10:03:31.841363 29673 net.cpp:247] Top shape: 128 64 8 8 (524288)
I0619 10:03:31.841367 29673 net.cpp:255] Memory required for data: 2794980864
I0619 10:03:31.841377 29673 layer_factory.hpp:77] Creating layer Convolution95
I0619 10:03:31.841388 29673 net.cpp:190] Creating Layer Convolution95
I0619 10:03:31.841392 29673 net.cpp:615] Convolution95 <- Convolution94
I0619 10:03:31.841401 29673 net.cpp:589] Convolution95 -> Convolution95
I0619 10:03:31.843039 29673 net.cpp:240] Setting up Convolution95
I0619 10:03:31.843050 29673 net.cpp:247] Top shape: 128 64 8 8 (524288)
I0619 10:03:31.843053 29673 net.cpp:255] Memory required for data: 2797078016
I0619 10:03:31.843063 29673 layer_factory.hpp:77] Creating layer BatchNorm95
I0619 10:03:31.843073 29673 net.cpp:190] Creating Layer BatchNorm95
I0619 10:03:31.843078 29673 net.cpp:615] BatchNorm95 <- Convolution95
I0619 10:03:31.843086 29673 net.cpp:576] BatchNorm95 -> Convolution95 (in-place)
I0619 10:03:31.843312 29673 net.cpp:240] Setting up BatchNorm95
I0619 10:03:31.843320 29673 net.cpp:247] Top shape: 128 64 8 8 (524288)
I0619 10:03:31.843324 29673 net.cpp:255] Memory required for data: 2799175168
I0619 10:03:31.843335 29673 layer_factory.hpp:77] Creating layer Scale95
I0619 10:03:31.843345 29673 net.cpp:190] Creating Layer Scale95
I0619 10:03:31.843349 29673 net.cpp:615] Scale95 <- Convolution95
I0619 10:03:31.843355 29673 net.cpp:576] Scale95 -> Convolution95 (in-place)
I0619 10:03:31.843396 29673 layer_factory.hpp:77] Creating layer Scale95
I0619 10:03:31.843535 29673 net.cpp:240] Setting up Scale95
I0619 10:03:31.843544 29673 net.cpp:247] Top shape: 128 64 8 8 (524288)
I0619 10:03:31.843546 29673 net.cpp:255] Memory required for data: 2801272320
I0619 10:03:31.843559 29673 layer_factory.hpp:77] Creating layer Eltwise47
I0619 10:03:31.843566 29673 net.cpp:190] Creating Layer Eltwise47
I0619 10:03:31.843572 29673 net.cpp:615] Eltwise47 <- Eltwise46_ReLU93_0_split_1
I0619 10:03:31.843577 29673 net.cpp:615] Eltwise47 <- Convolution95
I0619 10:03:31.843585 29673 net.cpp:589] Eltwise47 -> Eltwise47
I0619 10:03:31.843607 29673 net.cpp:240] Setting up Eltwise47
I0619 10:03:31.843614 29673 net.cpp:247] Top shape: 128 64 8 8 (524288)
I0619 10:03:31.843617 29673 net.cpp:255] Memory required for data: 2803369472
I0619 10:03:31.843621 29673 layer_factory.hpp:77] Creating layer ReLU95
I0619 10:03:31.843627 29673 net.cpp:190] Creating Layer ReLU95
I0619 10:03:31.843631 29673 net.cpp:615] ReLU95 <- Eltwise47
I0619 10:03:31.843639 29673 net.cpp:576] ReLU95 -> Eltwise47 (in-place)
I0619 10:03:31.843647 29673 net.cpp:240] Setting up ReLU95
I0619 10:03:31.843652 29673 net.cpp:247] Top shape: 128 64 8 8 (524288)
I0619 10:03:31.843655 29673 net.cpp:255] Memory required for data: 2805466624
I0619 10:03:31.843659 29673 layer_factory.hpp:77] Creating layer Eltwise47_ReLU95_0_split
I0619 10:03:31.843665 29673 net.cpp:190] Creating Layer Eltwise47_ReLU95_0_split
I0619 10:03:31.843669 29673 net.cpp:615] Eltwise47_ReLU95_0_split <- Eltwise47
I0619 10:03:31.843674 29673 net.cpp:589] Eltwise47_ReLU95_0_split -> Eltwise47_ReLU95_0_split_0
I0619 10:03:31.843683 29673 net.cpp:589] Eltwise47_ReLU95_0_split -> Eltwise47_ReLU95_0_split_1
I0619 10:03:31.843724 29673 net.cpp:240] Setting up Eltwise47_ReLU95_0_split
I0619 10:03:31.843730 29673 net.cpp:247] Top shape: 128 64 8 8 (524288)
I0619 10:03:31.843735 29673 net.cpp:247] Top shape: 128 64 8 8 (524288)
I0619 10:03:31.843739 29673 net.cpp:255] Memory required for data: 2809660928
I0619 10:03:31.843742 29673 layer_factory.hpp:77] Creating layer Convolution96
I0619 10:03:31.843752 29673 net.cpp:190] Creating Layer Convolution96
I0619 10:03:31.843760 29673 net.cpp:615] Convolution96 <- Eltwise47_ReLU95_0_split_0
I0619 10:03:31.843770 29673 net.cpp:589] Convolution96 -> Convolution96
I0619 10:03:31.845391 29673 net.cpp:240] Setting up Convolution96
I0619 10:03:31.845402 29673 net.cpp:247] Top shape: 128 64 8 8 (524288)
I0619 10:03:31.845405 29673 net.cpp:255] Memory required for data: 2811758080
I0619 10:03:31.845414 29673 layer_factory.hpp:77] Creating layer BatchNorm96
I0619 10:03:31.845422 29673 net.cpp:190] Creating Layer BatchNorm96
I0619 10:03:31.845427 29673 net.cpp:615] BatchNorm96 <- Convolution96
I0619 10:03:31.845434 29673 net.cpp:576] BatchNorm96 -> Convolution96 (in-place)
I0619 10:03:31.845660 29673 net.cpp:240] Setting up BatchNorm96
I0619 10:03:31.845667 29673 net.cpp:247] Top shape: 128 64 8 8 (524288)
I0619 10:03:31.845671 29673 net.cpp:255] Memory required for data: 2813855232
I0619 10:03:31.845684 29673 layer_factory.hpp:77] Creating layer Scale96
I0619 10:03:31.845690 29673 net.cpp:190] Creating Layer Scale96
I0619 10:03:31.845695 29673 net.cpp:615] Scale96 <- Convolution96
I0619 10:03:31.845702 29673 net.cpp:576] Scale96 -> Convolution96 (in-place)
I0619 10:03:31.845741 29673 layer_factory.hpp:77] Creating layer Scale96
I0619 10:03:31.845875 29673 net.cpp:240] Setting up Scale96
I0619 10:03:31.845883 29673 net.cpp:247] Top shape: 128 64 8 8 (524288)
I0619 10:03:31.845886 29673 net.cpp:255] Memory required for data: 2815952384
I0619 10:03:31.845896 29673 layer_factory.hpp:77] Creating layer ReLU96
I0619 10:03:31.845903 29673 net.cpp:190] Creating Layer ReLU96
I0619 10:03:31.845907 29673 net.cpp:615] ReLU96 <- Convolution96
I0619 10:03:31.845916 29673 net.cpp:576] ReLU96 -> Convolution96 (in-place)
I0619 10:03:31.845922 29673 net.cpp:240] Setting up ReLU96
I0619 10:03:31.845928 29673 net.cpp:247] Top shape: 128 64 8 8 (524288)
I0619 10:03:31.845932 29673 net.cpp:255] Memory required for data: 2818049536
I0619 10:03:31.845935 29673 layer_factory.hpp:77] Creating layer Convolution97
I0619 10:03:31.845947 29673 net.cpp:190] Creating Layer Convolution97
I0619 10:03:31.845950 29673 net.cpp:615] Convolution97 <- Convolution96
I0619 10:03:31.845957 29673 net.cpp:589] Convolution97 -> Convolution97
I0619 10:03:31.847590 29673 net.cpp:240] Setting up Convolution97
I0619 10:03:31.847600 29673 net.cpp:247] Top shape: 128 64 8 8 (524288)
I0619 10:03:31.847604 29673 net.cpp:255] Memory required for data: 2820146688
I0619 10:03:31.847614 29673 layer_factory.hpp:77] Creating layer BatchNorm97
I0619 10:03:31.847622 29673 net.cpp:190] Creating Layer BatchNorm97
I0619 10:03:31.847627 29673 net.cpp:615] BatchNorm97 <- Convolution97
I0619 10:03:31.847633 29673 net.cpp:576] BatchNorm97 -> Convolution97 (in-place)
I0619 10:03:31.847856 29673 net.cpp:240] Setting up BatchNorm97
I0619 10:03:31.847864 29673 net.cpp:247] Top shape: 128 64 8 8 (524288)
I0619 10:03:31.847867 29673 net.cpp:255] Memory required for data: 2822243840
I0619 10:03:31.847879 29673 layer_factory.hpp:77] Creating layer Scale97
I0619 10:03:31.847887 29673 net.cpp:190] Creating Layer Scale97
I0619 10:03:31.847890 29673 net.cpp:615] Scale97 <- Convolution97
I0619 10:03:31.847895 29673 net.cpp:576] Scale97 -> Convolution97 (in-place)
I0619 10:03:31.847936 29673 layer_factory.hpp:77] Creating layer Scale97
I0619 10:03:31.848070 29673 net.cpp:240] Setting up Scale97
I0619 10:03:31.848078 29673 net.cpp:247] Top shape: 128 64 8 8 (524288)
I0619 10:03:31.848083 29673 net.cpp:255] Memory required for data: 2824340992
I0619 10:03:31.848091 29673 layer_factory.hpp:77] Creating layer Eltwise48
I0619 10:03:31.848100 29673 net.cpp:190] Creating Layer Eltwise48
I0619 10:03:31.848105 29673 net.cpp:615] Eltwise48 <- Eltwise47_ReLU95_0_split_1
I0619 10:03:31.848111 29673 net.cpp:615] Eltwise48 <- Convolution97
I0619 10:03:31.848117 29673 net.cpp:589] Eltwise48 -> Eltwise48
I0619 10:03:31.848137 29673 net.cpp:240] Setting up Eltwise48
I0619 10:03:31.848145 29673 net.cpp:247] Top shape: 128 64 8 8 (524288)
I0619 10:03:31.848148 29673 net.cpp:255] Memory required for data: 2826438144
I0619 10:03:31.848156 29673 layer_factory.hpp:77] Creating layer ReLU97
I0619 10:03:31.848165 29673 net.cpp:190] Creating Layer ReLU97
I0619 10:03:31.848170 29673 net.cpp:615] ReLU97 <- Eltwise48
I0619 10:03:31.848175 29673 net.cpp:576] ReLU97 -> Eltwise48 (in-place)
I0619 10:03:31.848181 29673 net.cpp:240] Setting up ReLU97
I0619 10:03:31.848187 29673 net.cpp:247] Top shape: 128 64 8 8 (524288)
I0619 10:03:31.848191 29673 net.cpp:255] Memory required for data: 2828535296
I0619 10:03:31.848196 29673 layer_factory.hpp:77] Creating layer Eltwise48_ReLU97_0_split
I0619 10:03:31.848201 29673 net.cpp:190] Creating Layer Eltwise48_ReLU97_0_split
I0619 10:03:31.848204 29673 net.cpp:615] Eltwise48_ReLU97_0_split <- Eltwise48
I0619 10:03:31.848211 29673 net.cpp:589] Eltwise48_ReLU97_0_split -> Eltwise48_ReLU97_0_split_0
I0619 10:03:31.848217 29673 net.cpp:589] Eltwise48_ReLU97_0_split -> Eltwise48_ReLU97_0_split_1
I0619 10:03:31.848259 29673 net.cpp:240] Setting up Eltwise48_ReLU97_0_split
I0619 10:03:31.848266 29673 net.cpp:247] Top shape: 128 64 8 8 (524288)
I0619 10:03:31.848271 29673 net.cpp:247] Top shape: 128 64 8 8 (524288)
I0619 10:03:31.848275 29673 net.cpp:255] Memory required for data: 2832729600
I0619 10:03:31.848279 29673 layer_factory.hpp:77] Creating layer Convolution98
I0619 10:03:31.848289 29673 net.cpp:190] Creating Layer Convolution98
I0619 10:03:31.848294 29673 net.cpp:615] Convolution98 <- Eltwise48_ReLU97_0_split_0
I0619 10:03:31.848301 29673 net.cpp:589] Convolution98 -> Convolution98
I0619 10:03:31.849925 29673 net.cpp:240] Setting up Convolution98
I0619 10:03:31.849933 29673 net.cpp:247] Top shape: 128 64 8 8 (524288)
I0619 10:03:31.849937 29673 net.cpp:255] Memory required for data: 2834826752
I0619 10:03:31.849947 29673 layer_factory.hpp:77] Creating layer BatchNorm98
I0619 10:03:31.849956 29673 net.cpp:190] Creating Layer BatchNorm98
I0619 10:03:31.849961 29673 net.cpp:615] BatchNorm98 <- Convolution98
I0619 10:03:31.849969 29673 net.cpp:576] BatchNorm98 -> Convolution98 (in-place)
I0619 10:03:31.850198 29673 net.cpp:240] Setting up BatchNorm98
I0619 10:03:31.850205 29673 net.cpp:247] Top shape: 128 64 8 8 (524288)
I0619 10:03:31.850209 29673 net.cpp:255] Memory required for data: 2836923904
I0619 10:03:31.850221 29673 layer_factory.hpp:77] Creating layer Scale98
I0619 10:03:31.850230 29673 net.cpp:190] Creating Layer Scale98
I0619 10:03:31.850235 29673 net.cpp:615] Scale98 <- Convolution98
I0619 10:03:31.850241 29673 net.cpp:576] Scale98 -> Convolution98 (in-place)
I0619 10:03:31.850282 29673 layer_factory.hpp:77] Creating layer Scale98
I0619 10:03:31.850426 29673 net.cpp:240] Setting up Scale98
I0619 10:03:31.850435 29673 net.cpp:247] Top shape: 128 64 8 8 (524288)
I0619 10:03:31.850438 29673 net.cpp:255] Memory required for data: 2839021056
I0619 10:03:31.850450 29673 layer_factory.hpp:77] Creating layer ReLU98
I0619 10:03:31.850457 29673 net.cpp:190] Creating Layer ReLU98
I0619 10:03:31.850461 29673 net.cpp:615] ReLU98 <- Convolution98
I0619 10:03:31.850467 29673 net.cpp:576] ReLU98 -> Convolution98 (in-place)
I0619 10:03:31.850474 29673 net.cpp:240] Setting up ReLU98
I0619 10:03:31.850481 29673 net.cpp:247] Top shape: 128 64 8 8 (524288)
I0619 10:03:31.850484 29673 net.cpp:255] Memory required for data: 2841118208
I0619 10:03:31.850488 29673 layer_factory.hpp:77] Creating layer Convolution99
I0619 10:03:31.850499 29673 net.cpp:190] Creating Layer Convolution99
I0619 10:03:31.850503 29673 net.cpp:615] Convolution99 <- Convolution98
I0619 10:03:31.850513 29673 net.cpp:589] Convolution99 -> Convolution99
I0619 10:03:31.852138 29673 net.cpp:240] Setting up Convolution99
I0619 10:03:31.852146 29673 net.cpp:247] Top shape: 128 64 8 8 (524288)
I0619 10:03:31.852150 29673 net.cpp:255] Memory required for data: 2843215360
I0619 10:03:31.852159 29673 layer_factory.hpp:77] Creating layer BatchNorm99
I0619 10:03:31.852166 29673 net.cpp:190] Creating Layer BatchNorm99
I0619 10:03:31.852171 29673 net.cpp:615] BatchNorm99 <- Convolution99
I0619 10:03:31.852180 29673 net.cpp:576] BatchNorm99 -> Convolution99 (in-place)
I0619 10:03:31.852411 29673 net.cpp:240] Setting up BatchNorm99
I0619 10:03:31.852419 29673 net.cpp:247] Top shape: 128 64 8 8 (524288)
I0619 10:03:31.852423 29673 net.cpp:255] Memory required for data: 2845312512
I0619 10:03:31.852437 29673 layer_factory.hpp:77] Creating layer Scale99
I0619 10:03:31.852443 29673 net.cpp:190] Creating Layer Scale99
I0619 10:03:31.852447 29673 net.cpp:615] Scale99 <- Convolution99
I0619 10:03:31.852457 29673 net.cpp:576] Scale99 -> Convolution99 (in-place)
I0619 10:03:31.852495 29673 layer_factory.hpp:77] Creating layer Scale99
I0619 10:03:31.852628 29673 net.cpp:240] Setting up Scale99
I0619 10:03:31.852637 29673 net.cpp:247] Top shape: 128 64 8 8 (524288)
I0619 10:03:31.852639 29673 net.cpp:255] Memory required for data: 2847409664
I0619 10:03:31.852649 29673 layer_factory.hpp:77] Creating layer Eltwise49
I0619 10:03:31.852656 29673 net.cpp:190] Creating Layer Eltwise49
I0619 10:03:31.852661 29673 net.cpp:615] Eltwise49 <- Eltwise48_ReLU97_0_split_1
I0619 10:03:31.852666 29673 net.cpp:615] Eltwise49 <- Convolution99
I0619 10:03:31.852675 29673 net.cpp:589] Eltwise49 -> Eltwise49
I0619 10:03:31.852696 29673 net.cpp:240] Setting up Eltwise49
I0619 10:03:31.852704 29673 net.cpp:247] Top shape: 128 64 8 8 (524288)
I0619 10:03:31.852706 29673 net.cpp:255] Memory required for data: 2849506816
I0619 10:03:31.852710 29673 layer_factory.hpp:77] Creating layer ReLU99
I0619 10:03:31.852722 29673 net.cpp:190] Creating Layer ReLU99
I0619 10:03:31.852727 29673 net.cpp:615] ReLU99 <- Eltwise49
I0619 10:03:31.852732 29673 net.cpp:576] ReLU99 -> Eltwise49 (in-place)
I0619 10:03:31.852738 29673 net.cpp:240] Setting up ReLU99
I0619 10:03:31.852744 29673 net.cpp:247] Top shape: 128 64 8 8 (524288)
I0619 10:03:31.852748 29673 net.cpp:255] Memory required for data: 2851603968
I0619 10:03:31.852751 29673 layer_factory.hpp:77] Creating layer Eltwise49_ReLU99_0_split
I0619 10:03:31.852757 29673 net.cpp:190] Creating Layer Eltwise49_ReLU99_0_split
I0619 10:03:31.852761 29673 net.cpp:615] Eltwise49_ReLU99_0_split <- Eltwise49
I0619 10:03:31.852767 29673 net.cpp:589] Eltwise49_ReLU99_0_split -> Eltwise49_ReLU99_0_split_0
I0619 10:03:31.852795 29673 net.cpp:589] Eltwise49_ReLU99_0_split -> Eltwise49_ReLU99_0_split_1
I0619 10:03:31.852843 29673 net.cpp:240] Setting up Eltwise49_ReLU99_0_split
I0619 10:03:31.852852 29673 net.cpp:247] Top shape: 128 64 8 8 (524288)
I0619 10:03:31.852857 29673 net.cpp:247] Top shape: 128 64 8 8 (524288)
I0619 10:03:31.852861 29673 net.cpp:255] Memory required for data: 2855798272
I0619 10:03:31.852865 29673 layer_factory.hpp:77] Creating layer Convolution100
I0619 10:03:31.852876 29673 net.cpp:190] Creating Layer Convolution100
I0619 10:03:31.852881 29673 net.cpp:615] Convolution100 <- Eltwise49_ReLU99_0_split_0
I0619 10:03:31.852890 29673 net.cpp:589] Convolution100 -> Convolution100
I0619 10:03:31.854533 29673 net.cpp:240] Setting up Convolution100
I0619 10:03:31.854543 29673 net.cpp:247] Top shape: 128 64 8 8 (524288)
I0619 10:03:31.854547 29673 net.cpp:255] Memory required for data: 2857895424
I0619 10:03:31.854557 29673 layer_factory.hpp:77] Creating layer BatchNorm100
I0619 10:03:31.854568 29673 net.cpp:190] Creating Layer BatchNorm100
I0619 10:03:31.854573 29673 net.cpp:615] BatchNorm100 <- Convolution100
I0619 10:03:31.854580 29673 net.cpp:576] BatchNorm100 -> Convolution100 (in-place)
I0619 10:03:31.854804 29673 net.cpp:240] Setting up BatchNorm100
I0619 10:03:31.854811 29673 net.cpp:247] Top shape: 128 64 8 8 (524288)
I0619 10:03:31.854815 29673 net.cpp:255] Memory required for data: 2859992576
I0619 10:03:31.854831 29673 layer_factory.hpp:77] Creating layer Scale100
I0619 10:03:31.854838 29673 net.cpp:190] Creating Layer Scale100
I0619 10:03:31.854842 29673 net.cpp:615] Scale100 <- Convolution100
I0619 10:03:31.854848 29673 net.cpp:576] Scale100 -> Convolution100 (in-place)
I0619 10:03:31.854888 29673 layer_factory.hpp:77] Creating layer Scale100
I0619 10:03:31.855022 29673 net.cpp:240] Setting up Scale100
I0619 10:03:31.855031 29673 net.cpp:247] Top shape: 128 64 8 8 (524288)
I0619 10:03:31.855037 29673 net.cpp:255] Memory required for data: 2862089728
I0619 10:03:31.855049 29673 layer_factory.hpp:77] Creating layer ReLU100
I0619 10:03:31.855057 29673 net.cpp:190] Creating Layer ReLU100
I0619 10:03:31.855060 29673 net.cpp:615] ReLU100 <- Convolution100
I0619 10:03:31.855068 29673 net.cpp:576] ReLU100 -> Convolution100 (in-place)
I0619 10:03:31.855075 29673 net.cpp:240] Setting up ReLU100
I0619 10:03:31.855082 29673 net.cpp:247] Top shape: 128 64 8 8 (524288)
I0619 10:03:31.855084 29673 net.cpp:255] Memory required for data: 2864186880
I0619 10:03:31.855088 29673 layer_factory.hpp:77] Creating layer Convolution101
I0619 10:03:31.855098 29673 net.cpp:190] Creating Layer Convolution101
I0619 10:03:31.855103 29673 net.cpp:615] Convolution101 <- Convolution100
I0619 10:03:31.855111 29673 net.cpp:589] Convolution101 -> Convolution101
I0619 10:03:31.857396 29673 net.cpp:240] Setting up Convolution101
I0619 10:03:31.857410 29673 net.cpp:247] Top shape: 128 64 8 8 (524288)
I0619 10:03:31.857414 29673 net.cpp:255] Memory required for data: 2866284032
I0619 10:03:31.857425 29673 layer_factory.hpp:77] Creating layer BatchNorm101
I0619 10:03:31.857435 29673 net.cpp:190] Creating Layer BatchNorm101
I0619 10:03:31.857440 29673 net.cpp:615] BatchNorm101 <- Convolution101
I0619 10:03:31.857448 29673 net.cpp:576] BatchNorm101 -> Convolution101 (in-place)
I0619 10:03:31.857673 29673 net.cpp:240] Setting up BatchNorm101
I0619 10:03:31.857681 29673 net.cpp:247] Top shape: 128 64 8 8 (524288)
I0619 10:03:31.857686 29673 net.cpp:255] Memory required for data: 2868381184
I0619 10:03:31.857700 29673 layer_factory.hpp:77] Creating layer Scale101
I0619 10:03:31.857707 29673 net.cpp:190] Creating Layer Scale101
I0619 10:03:31.857712 29673 net.cpp:615] Scale101 <- Convolution101
I0619 10:03:31.857717 29673 net.cpp:576] Scale101 -> Convolution101 (in-place)
I0619 10:03:31.857759 29673 layer_factory.hpp:77] Creating layer Scale101
I0619 10:03:31.857897 29673 net.cpp:240] Setting up Scale101
I0619 10:03:31.857905 29673 net.cpp:247] Top shape: 128 64 8 8 (524288)
I0619 10:03:31.857908 29673 net.cpp:255] Memory required for data: 2870478336
I0619 10:03:31.857920 29673 layer_factory.hpp:77] Creating layer Eltwise50
I0619 10:03:31.857928 29673 net.cpp:190] Creating Layer Eltwise50
I0619 10:03:31.857933 29673 net.cpp:615] Eltwise50 <- Eltwise49_ReLU99_0_split_1
I0619 10:03:31.857939 29673 net.cpp:615] Eltwise50 <- Convolution101
I0619 10:03:31.857947 29673 net.cpp:589] Eltwise50 -> Eltwise50
I0619 10:03:31.857969 29673 net.cpp:240] Setting up Eltwise50
I0619 10:03:31.857976 29673 net.cpp:247] Top shape: 128 64 8 8 (524288)
I0619 10:03:31.857980 29673 net.cpp:255] Memory required for data: 2872575488
I0619 10:03:31.857985 29673 layer_factory.hpp:77] Creating layer ReLU101
I0619 10:03:31.857990 29673 net.cpp:190] Creating Layer ReLU101
I0619 10:03:31.857995 29673 net.cpp:615] ReLU101 <- Eltwise50
I0619 10:03:31.858001 29673 net.cpp:576] ReLU101 -> Eltwise50 (in-place)
I0619 10:03:31.858008 29673 net.cpp:240] Setting up ReLU101
I0619 10:03:31.858014 29673 net.cpp:247] Top shape: 128 64 8 8 (524288)
I0619 10:03:31.858018 29673 net.cpp:255] Memory required for data: 2874672640
I0619 10:03:31.858022 29673 layer_factory.hpp:77] Creating layer Eltwise50_ReLU101_0_split
I0619 10:03:31.858073 29673 net.cpp:190] Creating Layer Eltwise50_ReLU101_0_split
I0619 10:03:31.858080 29673 net.cpp:615] Eltwise50_ReLU101_0_split <- Eltwise50
I0619 10:03:31.858086 29673 net.cpp:589] Eltwise50_ReLU101_0_split -> Eltwise50_ReLU101_0_split_0
I0619 10:03:31.858094 29673 net.cpp:589] Eltwise50_ReLU101_0_split -> Eltwise50_ReLU101_0_split_1
I0619 10:03:31.858139 29673 net.cpp:240] Setting up Eltwise50_ReLU101_0_split
I0619 10:03:31.858149 29673 net.cpp:247] Top shape: 128 64 8 8 (524288)
I0619 10:03:31.858155 29673 net.cpp:247] Top shape: 128 64 8 8 (524288)
I0619 10:03:31.858157 29673 net.cpp:255] Memory required for data: 2878866944
I0619 10:03:31.858162 29673 layer_factory.hpp:77] Creating layer Convolution102
I0619 10:03:31.858171 29673 net.cpp:190] Creating Layer Convolution102
I0619 10:03:31.858180 29673 net.cpp:615] Convolution102 <- Eltwise50_ReLU101_0_split_0
I0619 10:03:31.858194 29673 net.cpp:589] Convolution102 -> Convolution102
I0619 10:03:31.859834 29673 net.cpp:240] Setting up Convolution102
I0619 10:03:31.859844 29673 net.cpp:247] Top shape: 128 64 8 8 (524288)
I0619 10:03:31.859848 29673 net.cpp:255] Memory required for data: 2880964096
I0619 10:03:31.859858 29673 layer_factory.hpp:77] Creating layer BatchNorm102
I0619 10:03:31.859869 29673 net.cpp:190] Creating Layer BatchNorm102
I0619 10:03:31.859874 29673 net.cpp:615] BatchNorm102 <- Convolution102
I0619 10:03:31.859879 29673 net.cpp:576] BatchNorm102 -> Convolution102 (in-place)
I0619 10:03:31.860103 29673 net.cpp:240] Setting up BatchNorm102
I0619 10:03:31.860111 29673 net.cpp:247] Top shape: 128 64 8 8 (524288)
I0619 10:03:31.860116 29673 net.cpp:255] Memory required for data: 2883061248
I0619 10:03:31.860126 29673 layer_factory.hpp:77] Creating layer Scale102
I0619 10:03:31.860136 29673 net.cpp:190] Creating Layer Scale102
I0619 10:03:31.860141 29673 net.cpp:615] Scale102 <- Convolution102
I0619 10:03:31.860146 29673 net.cpp:576] Scale102 -> Convolution102 (in-place)
I0619 10:03:31.860184 29673 layer_factory.hpp:77] Creating layer Scale102
I0619 10:03:31.860321 29673 net.cpp:240] Setting up Scale102
I0619 10:03:31.860328 29673 net.cpp:247] Top shape: 128 64 8 8 (524288)
I0619 10:03:31.860332 29673 net.cpp:255] Memory required for data: 2885158400
I0619 10:03:31.860342 29673 layer_factory.hpp:77] Creating layer ReLU102
I0619 10:03:31.860350 29673 net.cpp:190] Creating Layer ReLU102
I0619 10:03:31.860355 29673 net.cpp:615] ReLU102 <- Convolution102
I0619 10:03:31.860361 29673 net.cpp:576] ReLU102 -> Convolution102 (in-place)
I0619 10:03:31.860368 29673 net.cpp:240] Setting up ReLU102
I0619 10:03:31.860373 29673 net.cpp:247] Top shape: 128 64 8 8 (524288)
I0619 10:03:31.860378 29673 net.cpp:255] Memory required for data: 2887255552
I0619 10:03:31.860380 29673 layer_factory.hpp:77] Creating layer Convolution103
I0619 10:03:31.860393 29673 net.cpp:190] Creating Layer Convolution103
I0619 10:03:31.860396 29673 net.cpp:615] Convolution103 <- Convolution102
I0619 10:03:31.860404 29673 net.cpp:589] Convolution103 -> Convolution103
I0619 10:03:31.862028 29673 net.cpp:240] Setting up Convolution103
I0619 10:03:31.862037 29673 net.cpp:247] Top shape: 128 64 8 8 (524288)
I0619 10:03:31.862041 29673 net.cpp:255] Memory required for data: 2889352704
I0619 10:03:31.862051 29673 layer_factory.hpp:77] Creating layer BatchNorm103
I0619 10:03:31.862061 29673 net.cpp:190] Creating Layer BatchNorm103
I0619 10:03:31.862064 29673 net.cpp:615] BatchNorm103 <- Convolution103
I0619 10:03:31.862071 29673 net.cpp:576] BatchNorm103 -> Convolution103 (in-place)
I0619 10:03:31.862303 29673 net.cpp:240] Setting up BatchNorm103
I0619 10:03:31.862310 29673 net.cpp:247] Top shape: 128 64 8 8 (524288)
I0619 10:03:31.862314 29673 net.cpp:255] Memory required for data: 2891449856
I0619 10:03:31.862325 29673 layer_factory.hpp:77] Creating layer Scale103
I0619 10:03:31.862332 29673 net.cpp:190] Creating Layer Scale103
I0619 10:03:31.862337 29673 net.cpp:615] Scale103 <- Convolution103
I0619 10:03:31.862342 29673 net.cpp:576] Scale103 -> Convolution103 (in-place)
I0619 10:03:31.862392 29673 layer_factory.hpp:77] Creating layer Scale103
I0619 10:03:31.862527 29673 net.cpp:240] Setting up Scale103
I0619 10:03:31.862534 29673 net.cpp:247] Top shape: 128 64 8 8 (524288)
I0619 10:03:31.862538 29673 net.cpp:255] Memory required for data: 2893547008
I0619 10:03:31.862548 29673 layer_factory.hpp:77] Creating layer Eltwise51
I0619 10:03:31.862557 29673 net.cpp:190] Creating Layer Eltwise51
I0619 10:03:31.862562 29673 net.cpp:615] Eltwise51 <- Eltwise50_ReLU101_0_split_1
I0619 10:03:31.862567 29673 net.cpp:615] Eltwise51 <- Convolution103
I0619 10:03:31.862573 29673 net.cpp:589] Eltwise51 -> Eltwise51
I0619 10:03:31.862597 29673 net.cpp:240] Setting up Eltwise51
I0619 10:03:31.862604 29673 net.cpp:247] Top shape: 128 64 8 8 (524288)
I0619 10:03:31.862612 29673 net.cpp:255] Memory required for data: 2895644160
I0619 10:03:31.862615 29673 layer_factory.hpp:77] Creating layer ReLU103
I0619 10:03:31.862622 29673 net.cpp:190] Creating Layer ReLU103
I0619 10:03:31.862625 29673 net.cpp:615] ReLU103 <- Eltwise51
I0619 10:03:31.862634 29673 net.cpp:576] ReLU103 -> Eltwise51 (in-place)
I0619 10:03:31.862642 29673 net.cpp:240] Setting up ReLU103
I0619 10:03:31.862648 29673 net.cpp:247] Top shape: 128 64 8 8 (524288)
I0619 10:03:31.862651 29673 net.cpp:255] Memory required for data: 2897741312
I0619 10:03:31.862654 29673 layer_factory.hpp:77] Creating layer Eltwise51_ReLU103_0_split
I0619 10:03:31.862660 29673 net.cpp:190] Creating Layer Eltwise51_ReLU103_0_split
I0619 10:03:31.862664 29673 net.cpp:615] Eltwise51_ReLU103_0_split <- Eltwise51
I0619 10:03:31.862670 29673 net.cpp:589] Eltwise51_ReLU103_0_split -> Eltwise51_ReLU103_0_split_0
I0619 10:03:31.862678 29673 net.cpp:589] Eltwise51_ReLU103_0_split -> Eltwise51_ReLU103_0_split_1
I0619 10:03:31.862720 29673 net.cpp:240] Setting up Eltwise51_ReLU103_0_split
I0619 10:03:31.862727 29673 net.cpp:247] Top shape: 128 64 8 8 (524288)
I0619 10:03:31.862732 29673 net.cpp:247] Top shape: 128 64 8 8 (524288)
I0619 10:03:31.862735 29673 net.cpp:255] Memory required for data: 2901935616
I0619 10:03:31.862740 29673 layer_factory.hpp:77] Creating layer Convolution104
I0619 10:03:31.862751 29673 net.cpp:190] Creating Layer Convolution104
I0619 10:03:31.862756 29673 net.cpp:615] Convolution104 <- Eltwise51_ReLU103_0_split_0
I0619 10:03:31.862762 29673 net.cpp:589] Convolution104 -> Convolution104
I0619 10:03:31.864392 29673 net.cpp:240] Setting up Convolution104
I0619 10:03:31.864400 29673 net.cpp:247] Top shape: 128 64 8 8 (524288)
I0619 10:03:31.864404 29673 net.cpp:255] Memory required for data: 2904032768
I0619 10:03:31.864414 29673 layer_factory.hpp:77] Creating layer BatchNorm104
I0619 10:03:31.864423 29673 net.cpp:190] Creating Layer BatchNorm104
I0619 10:03:31.864428 29673 net.cpp:615] BatchNorm104 <- Convolution104
I0619 10:03:31.864436 29673 net.cpp:576] BatchNorm104 -> Convolution104 (in-place)
I0619 10:03:31.864663 29673 net.cpp:240] Setting up BatchNorm104
I0619 10:03:31.864671 29673 net.cpp:247] Top shape: 128 64 8 8 (524288)
I0619 10:03:31.864675 29673 net.cpp:255] Memory required for data: 2906129920
I0619 10:03:31.864689 29673 layer_factory.hpp:77] Creating layer Scale104
I0619 10:03:31.864696 29673 net.cpp:190] Creating Layer Scale104
I0619 10:03:31.864701 29673 net.cpp:615] Scale104 <- Convolution104
I0619 10:03:31.864706 29673 net.cpp:576] Scale104 -> Convolution104 (in-place)
I0619 10:03:31.864751 29673 layer_factory.hpp:77] Creating layer Scale104
I0619 10:03:31.864895 29673 net.cpp:240] Setting up Scale104
I0619 10:03:31.864903 29673 net.cpp:247] Top shape: 128 64 8 8 (524288)
I0619 10:03:31.864907 29673 net.cpp:255] Memory required for data: 2908227072
I0619 10:03:31.864919 29673 layer_factory.hpp:77] Creating layer ReLU104
I0619 10:03:31.864926 29673 net.cpp:190] Creating Layer ReLU104
I0619 10:03:31.864930 29673 net.cpp:615] ReLU104 <- Convolution104
I0619 10:03:31.864938 29673 net.cpp:576] ReLU104 -> Convolution104 (in-place)
I0619 10:03:31.864945 29673 net.cpp:240] Setting up ReLU104
I0619 10:03:31.864951 29673 net.cpp:247] Top shape: 128 64 8 8 (524288)
I0619 10:03:31.864954 29673 net.cpp:255] Memory required for data: 2910324224
I0619 10:03:31.864959 29673 layer_factory.hpp:77] Creating layer Convolution105
I0619 10:03:31.864969 29673 net.cpp:190] Creating Layer Convolution105
I0619 10:03:31.864972 29673 net.cpp:615] Convolution105 <- Convolution104
I0619 10:03:31.864981 29673 net.cpp:589] Convolution105 -> Convolution105
I0619 10:03:31.866616 29673 net.cpp:240] Setting up Convolution105
I0619 10:03:31.866626 29673 net.cpp:247] Top shape: 128 64 8 8 (524288)
I0619 10:03:31.866631 29673 net.cpp:255] Memory required for data: 2912421376
I0619 10:03:31.866641 29673 layer_factory.hpp:77] Creating layer BatchNorm105
I0619 10:03:31.866647 29673 net.cpp:190] Creating Layer BatchNorm105
I0619 10:03:31.866655 29673 net.cpp:615] BatchNorm105 <- Convolution105
I0619 10:03:31.866663 29673 net.cpp:576] BatchNorm105 -> Convolution105 (in-place)
I0619 10:03:31.866890 29673 net.cpp:240] Setting up BatchNorm105
I0619 10:03:31.866899 29673 net.cpp:247] Top shape: 128 64 8 8 (524288)
I0619 10:03:31.866901 29673 net.cpp:255] Memory required for data: 2914518528
I0619 10:03:31.866914 29673 layer_factory.hpp:77] Creating layer Scale105
I0619 10:03:31.866920 29673 net.cpp:190] Creating Layer Scale105
I0619 10:03:31.866925 29673 net.cpp:615] Scale105 <- Convolution105
I0619 10:03:31.866932 29673 net.cpp:576] Scale105 -> Convolution105 (in-place)
I0619 10:03:31.866971 29673 layer_factory.hpp:77] Creating layer Scale105
I0619 10:03:31.867111 29673 net.cpp:240] Setting up Scale105
I0619 10:03:31.867120 29673 net.cpp:247] Top shape: 128 64 8 8 (524288)
I0619 10:03:31.867122 29673 net.cpp:255] Memory required for data: 2916615680
I0619 10:03:31.867131 29673 layer_factory.hpp:77] Creating layer Eltwise52
I0619 10:03:31.867138 29673 net.cpp:190] Creating Layer Eltwise52
I0619 10:03:31.867143 29673 net.cpp:615] Eltwise52 <- Eltwise51_ReLU103_0_split_1
I0619 10:03:31.867149 29673 net.cpp:615] Eltwise52 <- Convolution105
I0619 10:03:31.867157 29673 net.cpp:589] Eltwise52 -> Eltwise52
I0619 10:03:31.867178 29673 net.cpp:240] Setting up Eltwise52
I0619 10:03:31.867185 29673 net.cpp:247] Top shape: 128 64 8 8 (524288)
I0619 10:03:31.867189 29673 net.cpp:255] Memory required for data: 2918712832
I0619 10:03:31.867192 29673 layer_factory.hpp:77] Creating layer ReLU105
I0619 10:03:31.867202 29673 net.cpp:190] Creating Layer ReLU105
I0619 10:03:31.867205 29673 net.cpp:615] ReLU105 <- Eltwise52
I0619 10:03:31.867210 29673 net.cpp:576] ReLU105 -> Eltwise52 (in-place)
I0619 10:03:31.867218 29673 net.cpp:240] Setting up ReLU105
I0619 10:03:31.867223 29673 net.cpp:247] Top shape: 128 64 8 8 (524288)
I0619 10:03:31.867226 29673 net.cpp:255] Memory required for data: 2920809984
I0619 10:03:31.867230 29673 layer_factory.hpp:77] Creating layer Eltwise52_ReLU105_0_split
I0619 10:03:31.867236 29673 net.cpp:190] Creating Layer Eltwise52_ReLU105_0_split
I0619 10:03:31.867240 29673 net.cpp:615] Eltwise52_ReLU105_0_split <- Eltwise52
I0619 10:03:31.867249 29673 net.cpp:589] Eltwise52_ReLU105_0_split -> Eltwise52_ReLU105_0_split_0
I0619 10:03:31.867255 29673 net.cpp:589] Eltwise52_ReLU105_0_split -> Eltwise52_ReLU105_0_split_1
I0619 10:03:31.867295 29673 net.cpp:240] Setting up Eltwise52_ReLU105_0_split
I0619 10:03:31.867302 29673 net.cpp:247] Top shape: 128 64 8 8 (524288)
I0619 10:03:31.867307 29673 net.cpp:247] Top shape: 128 64 8 8 (524288)
I0619 10:03:31.867311 29673 net.cpp:255] Memory required for data: 2925004288
I0619 10:03:31.867314 29673 layer_factory.hpp:77] Creating layer Convolution106
I0619 10:03:31.867326 29673 net.cpp:190] Creating Layer Convolution106
I0619 10:03:31.867331 29673 net.cpp:615] Convolution106 <- Eltwise52_ReLU105_0_split_0
I0619 10:03:31.867338 29673 net.cpp:589] Convolution106 -> Convolution106
I0619 10:03:31.868973 29673 net.cpp:240] Setting up Convolution106
I0619 10:03:31.868981 29673 net.cpp:247] Top shape: 128 64 8 8 (524288)
I0619 10:03:31.868985 29673 net.cpp:255] Memory required for data: 2927101440
I0619 10:03:31.868994 29673 layer_factory.hpp:77] Creating layer BatchNorm106
I0619 10:03:31.869004 29673 net.cpp:190] Creating Layer BatchNorm106
I0619 10:03:31.869009 29673 net.cpp:615] BatchNorm106 <- Convolution106
I0619 10:03:31.869014 29673 net.cpp:576] BatchNorm106 -> Convolution106 (in-place)
I0619 10:03:31.869246 29673 net.cpp:240] Setting up BatchNorm106
I0619 10:03:31.869253 29673 net.cpp:247] Top shape: 128 64 8 8 (524288)
I0619 10:03:31.869257 29673 net.cpp:255] Memory required for data: 2929198592
I0619 10:03:31.869269 29673 layer_factory.hpp:77] Creating layer Scale106
I0619 10:03:31.869276 29673 net.cpp:190] Creating Layer Scale106
I0619 10:03:31.869280 29673 net.cpp:615] Scale106 <- Convolution106
I0619 10:03:31.869287 29673 net.cpp:576] Scale106 -> Convolution106 (in-place)
I0619 10:03:31.869329 29673 layer_factory.hpp:77] Creating layer Scale106
I0619 10:03:31.869468 29673 net.cpp:240] Setting up Scale106
I0619 10:03:31.869477 29673 net.cpp:247] Top shape: 128 64 8 8 (524288)
I0619 10:03:31.869480 29673 net.cpp:255] Memory required for data: 2931295744
I0619 10:03:31.869490 29673 layer_factory.hpp:77] Creating layer ReLU106
I0619 10:03:31.869498 29673 net.cpp:190] Creating Layer ReLU106
I0619 10:03:31.869503 29673 net.cpp:615] ReLU106 <- Convolution106
I0619 10:03:31.869509 29673 net.cpp:576] ReLU106 -> Convolution106 (in-place)
I0619 10:03:31.869515 29673 net.cpp:240] Setting up ReLU106
I0619 10:03:31.869521 29673 net.cpp:247] Top shape: 128 64 8 8 (524288)
I0619 10:03:31.869525 29673 net.cpp:255] Memory required for data: 2933392896
I0619 10:03:31.869529 29673 layer_factory.hpp:77] Creating layer Convolution107
I0619 10:03:31.869540 29673 net.cpp:190] Creating Layer Convolution107
I0619 10:03:31.869544 29673 net.cpp:615] Convolution107 <- Convolution106
I0619 10:03:31.869554 29673 net.cpp:589] Convolution107 -> Convolution107
I0619 10:03:31.871186 29673 net.cpp:240] Setting up Convolution107
I0619 10:03:31.871196 29673 net.cpp:247] Top shape: 128 64 8 8 (524288)
I0619 10:03:31.871199 29673 net.cpp:255] Memory required for data: 2935490048
I0619 10:03:31.871209 29673 layer_factory.hpp:77] Creating layer BatchNorm107
I0619 10:03:31.871218 29673 net.cpp:190] Creating Layer BatchNorm107
I0619 10:03:31.871223 29673 net.cpp:615] BatchNorm107 <- Convolution107
I0619 10:03:31.871232 29673 net.cpp:576] BatchNorm107 -> Convolution107 (in-place)
I0619 10:03:31.871456 29673 net.cpp:240] Setting up BatchNorm107
I0619 10:03:31.871464 29673 net.cpp:247] Top shape: 128 64 8 8 (524288)
I0619 10:03:31.871467 29673 net.cpp:255] Memory required for data: 2937587200
I0619 10:03:31.871479 29673 layer_factory.hpp:77] Creating layer Scale107
I0619 10:03:31.871491 29673 net.cpp:190] Creating Layer Scale107
I0619 10:03:31.871495 29673 net.cpp:615] Scale107 <- Convolution107
I0619 10:03:31.871501 29673 net.cpp:576] Scale107 -> Convolution107 (in-place)
I0619 10:03:31.871542 29673 layer_factory.hpp:77] Creating layer Scale107
I0619 10:03:31.871680 29673 net.cpp:240] Setting up Scale107
I0619 10:03:31.871688 29673 net.cpp:247] Top shape: 128 64 8 8 (524288)
I0619 10:03:31.871692 29673 net.cpp:255] Memory required for data: 2939684352
I0619 10:03:31.871701 29673 layer_factory.hpp:77] Creating layer Eltwise53
I0619 10:03:31.871711 29673 net.cpp:190] Creating Layer Eltwise53
I0619 10:03:31.871716 29673 net.cpp:615] Eltwise53 <- Eltwise52_ReLU105_0_split_1
I0619 10:03:31.871721 29673 net.cpp:615] Eltwise53 <- Convolution107
I0619 10:03:31.871728 29673 net.cpp:589] Eltwise53 -> Eltwise53
I0619 10:03:31.871749 29673 net.cpp:240] Setting up Eltwise53
I0619 10:03:31.871757 29673 net.cpp:247] Top shape: 128 64 8 8 (524288)
I0619 10:03:31.871760 29673 net.cpp:255] Memory required for data: 2941781504
I0619 10:03:31.871764 29673 layer_factory.hpp:77] Creating layer ReLU107
I0619 10:03:31.871769 29673 net.cpp:190] Creating Layer ReLU107
I0619 10:03:31.871774 29673 net.cpp:615] ReLU107 <- Eltwise53
I0619 10:03:31.871781 29673 net.cpp:576] ReLU107 -> Eltwise53 (in-place)
I0619 10:03:31.871788 29673 net.cpp:240] Setting up ReLU107
I0619 10:03:31.871794 29673 net.cpp:247] Top shape: 128 64 8 8 (524288)
I0619 10:03:31.871798 29673 net.cpp:255] Memory required for data: 2943878656
I0619 10:03:31.871801 29673 layer_factory.hpp:77] Creating layer Eltwise53_ReLU107_0_split
I0619 10:03:31.871808 29673 net.cpp:190] Creating Layer Eltwise53_ReLU107_0_split
I0619 10:03:31.871811 29673 net.cpp:615] Eltwise53_ReLU107_0_split <- Eltwise53
I0619 10:03:31.871816 29673 net.cpp:589] Eltwise53_ReLU107_0_split -> Eltwise53_ReLU107_0_split_0
I0619 10:03:31.871824 29673 net.cpp:589] Eltwise53_ReLU107_0_split -> Eltwise53_ReLU107_0_split_1
I0619 10:03:31.871865 29673 net.cpp:240] Setting up Eltwise53_ReLU107_0_split
I0619 10:03:31.871872 29673 net.cpp:247] Top shape: 128 64 8 8 (524288)
I0619 10:03:31.871877 29673 net.cpp:247] Top shape: 128 64 8 8 (524288)
I0619 10:03:31.871881 29673 net.cpp:255] Memory required for data: 2948072960
I0619 10:03:31.871888 29673 layer_factory.hpp:77] Creating layer Convolution108
I0619 10:03:31.871897 29673 net.cpp:190] Creating Layer Convolution108
I0619 10:03:31.871901 29673 net.cpp:615] Convolution108 <- Eltwise53_ReLU107_0_split_0
I0619 10:03:31.871912 29673 net.cpp:589] Convolution108 -> Convolution108
I0619 10:03:31.874212 29673 net.cpp:240] Setting up Convolution108
I0619 10:03:31.874227 29673 net.cpp:247] Top shape: 128 64 8 8 (524288)
I0619 10:03:31.874231 29673 net.cpp:255] Memory required for data: 2950170112
I0619 10:03:31.874241 29673 layer_factory.hpp:77] Creating layer BatchNorm108
I0619 10:03:31.874251 29673 net.cpp:190] Creating Layer BatchNorm108
I0619 10:03:31.874258 29673 net.cpp:615] BatchNorm108 <- Convolution108
I0619 10:03:31.874265 29673 net.cpp:576] BatchNorm108 -> Convolution108 (in-place)
I0619 10:03:31.874510 29673 net.cpp:240] Setting up BatchNorm108
I0619 10:03:31.874518 29673 net.cpp:247] Top shape: 128 64 8 8 (524288)
I0619 10:03:31.874522 29673 net.cpp:255] Memory required for data: 2952267264
I0619 10:03:31.874536 29673 layer_factory.hpp:77] Creating layer Scale108
I0619 10:03:31.874544 29673 net.cpp:190] Creating Layer Scale108
I0619 10:03:31.874549 29673 net.cpp:615] Scale108 <- Convolution108
I0619 10:03:31.874555 29673 net.cpp:576] Scale108 -> Convolution108 (in-place)
I0619 10:03:31.874599 29673 layer_factory.hpp:77] Creating layer Scale108
I0619 10:03:31.874740 29673 net.cpp:240] Setting up Scale108
I0619 10:03:31.874748 29673 net.cpp:247] Top shape: 128 64 8 8 (524288)
I0619 10:03:31.874752 29673 net.cpp:255] Memory required for data: 2954364416
I0619 10:03:31.874761 29673 layer_factory.hpp:77] Creating layer ReLU108
I0619 10:03:31.874768 29673 net.cpp:190] Creating Layer ReLU108
I0619 10:03:31.874773 29673 net.cpp:615] ReLU108 <- Convolution108
I0619 10:03:31.874780 29673 net.cpp:576] ReLU108 -> Convolution108 (in-place)
I0619 10:03:31.874788 29673 net.cpp:240] Setting up ReLU108
I0619 10:03:31.874794 29673 net.cpp:247] Top shape: 128 64 8 8 (524288)
I0619 10:03:31.874797 29673 net.cpp:255] Memory required for data: 2956461568
I0619 10:03:31.874801 29673 layer_factory.hpp:77] Creating layer Convolution109
I0619 10:03:31.874811 29673 net.cpp:190] Creating Layer Convolution109
I0619 10:03:31.874815 29673 net.cpp:615] Convolution109 <- Convolution108
I0619 10:03:31.874825 29673 net.cpp:589] Convolution109 -> Convolution109
I0619 10:03:31.876452 29673 net.cpp:240] Setting up Convolution109
I0619 10:03:31.876461 29673 net.cpp:247] Top shape: 128 64 8 8 (524288)
I0619 10:03:31.876466 29673 net.cpp:255] Memory required for data: 2958558720
I0619 10:03:31.876474 29673 layer_factory.hpp:77] Creating layer BatchNorm109
I0619 10:03:31.876482 29673 net.cpp:190] Creating Layer BatchNorm109
I0619 10:03:31.876487 29673 net.cpp:615] BatchNorm109 <- Convolution109
I0619 10:03:31.876494 29673 net.cpp:576] BatchNorm109 -> Convolution109 (in-place)
I0619 10:03:31.876729 29673 net.cpp:240] Setting up BatchNorm109
I0619 10:03:31.876737 29673 net.cpp:247] Top shape: 128 64 8 8 (524288)
I0619 10:03:31.876741 29673 net.cpp:255] Memory required for data: 2960655872
I0619 10:03:31.876752 29673 layer_factory.hpp:77] Creating layer Scale109
I0619 10:03:31.876760 29673 net.cpp:190] Creating Layer Scale109
I0619 10:03:31.876763 29673 net.cpp:615] Scale109 <- Convolution109
I0619 10:03:31.876771 29673 net.cpp:576] Scale109 -> Convolution109 (in-place)
I0619 10:03:31.876811 29673 layer_factory.hpp:77] Creating layer Scale109
I0619 10:03:31.876950 29673 net.cpp:240] Setting up Scale109
I0619 10:03:31.876957 29673 net.cpp:247] Top shape: 128 64 8 8 (524288)
I0619 10:03:31.876960 29673 net.cpp:255] Memory required for data: 2962753024
I0619 10:03:31.876971 29673 layer_factory.hpp:77] Creating layer Eltwise54
I0619 10:03:31.876977 29673 net.cpp:190] Creating Layer Eltwise54
I0619 10:03:31.876982 29673 net.cpp:615] Eltwise54 <- Eltwise53_ReLU107_0_split_1
I0619 10:03:31.876987 29673 net.cpp:615] Eltwise54 <- Convolution109
I0619 10:03:31.876996 29673 net.cpp:589] Eltwise54 -> Eltwise54
I0619 10:03:31.877022 29673 net.cpp:240] Setting up Eltwise54
I0619 10:03:31.877034 29673 net.cpp:247] Top shape: 128 64 8 8 (524288)
I0619 10:03:31.877038 29673 net.cpp:255] Memory required for data: 2964850176
I0619 10:03:31.877041 29673 layer_factory.hpp:77] Creating layer ReLU109
I0619 10:03:31.877048 29673 net.cpp:190] Creating Layer ReLU109
I0619 10:03:31.877051 29673 net.cpp:615] ReLU109 <- Eltwise54
I0619 10:03:31.877058 29673 net.cpp:576] ReLU109 -> Eltwise54 (in-place)
I0619 10:03:31.877064 29673 net.cpp:240] Setting up ReLU109
I0619 10:03:31.877069 29673 net.cpp:247] Top shape: 128 64 8 8 (524288)
I0619 10:03:31.877074 29673 net.cpp:255] Memory required for data: 2966947328
I0619 10:03:31.877077 29673 layer_factory.hpp:77] Creating layer Pooling4
I0619 10:03:31.877090 29673 net.cpp:190] Creating Layer Pooling4
I0619 10:03:31.877094 29673 net.cpp:615] Pooling4 <- Eltwise54
I0619 10:03:31.877101 29673 net.cpp:589] Pooling4 -> Pooling4
I0619 10:03:31.877130 29673 net.cpp:240] Setting up Pooling4
I0619 10:03:31.877136 29673 net.cpp:247] Top shape: 128 64 1 1 (8192)
I0619 10:03:31.877140 29673 net.cpp:255] Memory required for data: 2966980096
I0619 10:03:31.877143 29673 layer_factory.hpp:77] Creating layer InnerProduct1
I0619 10:03:31.877151 29673 net.cpp:190] Creating Layer InnerProduct1
I0619 10:03:31.877156 29673 net.cpp:615] InnerProduct1 <- Pooling4
I0619 10:03:31.877164 29673 net.cpp:589] InnerProduct1 -> InnerProduct1
I0619 10:03:31.877321 29673 net.cpp:240] Setting up InnerProduct1
I0619 10:03:31.877329 29673 net.cpp:247] Top shape: 128 10 (1280)
I0619 10:03:31.877333 29673 net.cpp:255] Memory required for data: 2966985216
I0619 10:03:31.877342 29673 layer_factory.hpp:77] Creating layer InnerProduct1_InnerProduct1_0_split
I0619 10:03:31.877352 29673 net.cpp:190] Creating Layer InnerProduct1_InnerProduct1_0_split
I0619 10:03:31.877357 29673 net.cpp:615] InnerProduct1_InnerProduct1_0_split <- InnerProduct1
I0619 10:03:31.877363 29673 net.cpp:589] InnerProduct1_InnerProduct1_0_split -> InnerProduct1_InnerProduct1_0_split_0
I0619 10:03:31.877373 29673 net.cpp:589] InnerProduct1_InnerProduct1_0_split -> InnerProduct1_InnerProduct1_0_split_1
I0619 10:03:31.877411 29673 net.cpp:240] Setting up InnerProduct1_InnerProduct1_0_split
I0619 10:03:31.877418 29673 net.cpp:247] Top shape: 128 10 (1280)
I0619 10:03:31.877424 29673 net.cpp:247] Top shape: 128 10 (1280)
I0619 10:03:31.877427 29673 net.cpp:255] Memory required for data: 2966995456
I0619 10:03:31.877431 29673 layer_factory.hpp:77] Creating layer Accuracy
I0619 10:03:31.877439 29673 net.cpp:190] Creating Layer Accuracy
I0619 10:03:31.877444 29673 net.cpp:615] Accuracy <- InnerProduct1_InnerProduct1_0_split_0
I0619 10:03:31.877449 29673 net.cpp:615] Accuracy <- Data2_Data1_1_split_0
I0619 10:03:31.877455 29673 net.cpp:589] Accuracy -> Accuracy
…
