…
stepvalue: 150000
type: "Nesterov"
I0619 11:13:44.722110  2197 solver.cpp:86] Creating training net from train_net file: examples/stochastic_depth/residual_train54.prototxt
I0619 11:13:44.737654  2197 net.cpp:148] Initializing net from parameters: 
state {
  phase: TRAIN
}
layer {
  name: "Data1"
  type: "Data"
  top: "Data1"
  top: "Data2"
  transform_param {
    mirror: true
    crop_size: 32
  }
  data_param {
    source: "/scratch/pas282/caffe/examples/cifar10/cifar10_train_leveldb_padding0"
    batch_size: 128
    backend: LEVELDB
  }
}
layer {
  name: "Convolution1"
  type: "Convolution"
  bottom: "Data1"
  top: "Convolution1"
  convolution_param {
    num_output: 16
    bias_term: true
    pad: 1
    kernel_size: 3
    stride: 1
    weight_filler {
      type: "msra"
    }
    bias_filler {
      type: "constant"
    }
  }
}
layer {
  name: "BatchNorm1"
  type: "BatchNorm"
  bottom: "Convolution1"
  top: "Convolution1"
  param {
    lr_mult: 0
    decay_mult: 0
  }
  param {
    lr_mult: 0
    decay_mult: 0
  }
  param {
    lr_mult: 0
    decay_mult: 0
  }
}
layer {
  name: "Scale1"
  type: "Scale"
  bottom: "Convolution1"
  top: "Convolution1"
  scale_param {
    bias_term: true
  }
}
layer {
  name: "ReLU1"
  type: "ReLU"
  bottom: "Convolution1"
  top: "Convolution1"
}
layer {
  name: "Convolution2"
  type: "Convolution"
  bottom: "Convolution1"
  top: "Convolution2"
  convolution_param {
    num_output: 16
    bias_term: true
    pad: 1
    kernel_size: 3
    stride: 1
    weight_filler {
      type: "msra"
    }
    bias_filler {
      type: "constant"
    }
  }
}
layer {
  name: "BatchNorm2"
  type: "BatchNorm"
  bottom: "Convolution2"
  top: "Convolution2"
  param {
    lr_mult: 0
    decay_mult: 0
  }
  param {
    lr_mult: 0
    decay_mult: 0
  }
  param {
    lr_mult: 0
    decay_mult: 0
  }
}
layer {
  name: "Scale2"
  type: "Scale"
  bottom: "Convolution2"
  top: "Convolution2"
  scale_param {
    bias_term: true
  }
}
layer {
  name: "ReLU2"
  type: "ReLU"
  bottom: "Convolution2"
  top: "Convolution2"
}
layer {
  name: "Convolution3"
  type: "Convolution"
  bottom: "Convolution2"
  top: "Convolution3"
  convolution_param {
    num_output: 16
    bias_term: true
    pad: 1
    kernel_size: 3
    stride: 1
    weight_filler {
      type: "msra"
    }
    bias_filler {
      type: "constant"
    }
  }
}
layer {
  name: "BatchNorm3"
  type: "BatchNorm"
  bottom: "Convolution3"
  top: "Convolution3"
  param {
    lr_mult: 0
    decay_mult: 0
  }
  param {
    lr_mult: 0
    decay_mult: 0
  }
  param {
    lr_mult: 0
    decay_mult: 0
  }
}
layer {
  name: "Scale3"
  type: "Scale"
  bottom: "Convolution3"
  top: "Convolution3"
  scale_param {
    bias_term: true
  }
}
layer {
  name: "Eltwise1"
  type: "Eltwise"
  bottom: "Convolution1"
  bottom: "Convolution3"
  top: "Eltwise1"
  eltwise_param {
    operation: SUM
  }
}
layer {
  name: "ReLU3"
  type: "ReLU"
  bottom: "Eltwise1"
  top: "Eltwise1"
}
layer {
  name: "Convolution4"
  type: "Convolution"
  bottom: "Eltwise1"
  top: "Convolution4"
  convolution_param {
    num_output: 16
    bias_term: true
    pad: 1
    kernel_size: 3
    stride: 1
    weight_filler {
      type: "msra"
    }
    bias_filler {
      type: "constant"
    }
  }
}
layer {
  name: "BatchNorm4"
  type: "BatchNorm"
  bottom: "Convolution4"
  top: "Convolution4"
  param {
    lr_mult: 0
    decay_mult: 0
  }
  param {
    lr_mult: 0
    decay_mult: 0
  }
  param {
    lr_mult: 0
    decay_mult: 0
  }
}
layer {
  name: "Scale4"
  type: "Scale"
  bottom: "Convolution4"
  top: "Convolution4"
  scale_param {
    bias_term: true
  }
}
layer {
  name: "ReLU4"
  type: "ReLU"
  bottom: "Convolution4"
  top: "Convolution4"
}
layer {
  name: "Convolution5"
  type: "Convolution"
  bottom: "Convolution4"
  top: "Convolution5"
  convolution_param {
    num_output: 16
    bias_term: true
    pad: 1
    kernel_size: 3
    stride: 1
    weight_filler {
      type: "msra"
    }
    bias_filler {
      type: "constant"
    }
  }
}
layer {
  name: "BatchNorm5"
  type: "BatchNorm"
  bottom: "Convolution5"
  top: "Convolution5"
  param {
    lr_mult: 0
    decay_mult: 0
  }
  param {
    lr_mult: 0
    decay_mult: 0
  }
  param {
    lr_mult: 0
    decay_mult: 0
  }
}
layer {
  name: "Scale5"
  type: "Scale"
  bottom: "Convolution5"
  top: "Convolution5"
  scale_param {
    bias_term: true
  }
}
layer {
  name: "Eltwise2"
  type: "Eltwise"
  bottom: "Eltwise1"
  bottom: "Convolution5"
  top: "Eltwise2"
  eltwise_param {
    operation: SUM
  }
}
layer {
  name: "ReLU5"
  type: "ReLU"
  bottom: "Eltwise2"
  top: "Eltwise2"
}
layer {
  name: "Convolution6"
  type: "Convolution"
  bottom: "Eltwise2"
  top: "Convolution6"
  convolution_param {
    num_output: 16
    bias_term: true
    pad: 1
    kernel_size: 3
    stride: 1
    weight_filler {
      type: "msra"
    }
    bias_filler {
      type: "constant"
    }
  }
}
layer {
  name: "BatchNorm6"
  type: "BatchNorm"
  bottom: "Convolution6"
  top: "Convolution6"
  param {
    lr_mult: 0
    decay_mult: 0
  }
  param {
    lr_mult: 0
    decay_mult: 0
  }
  param {
    lr_mult: 0
    decay_mult: 0
  }
}
layer {
  name: "Scale6"
  type: "Scale"
  bottom: "Convolution6"
  top: "Convolution6"
  scale_param {
    bias_term: true
  }
}
layer {
  name: "ReLU6"
  type: "ReLU"
  bottom: "Convolution6"
  top: "Convolution6"
}
layer {
  name: "Convolution7"
  type: "Convolution"
  bottom: "Convolution6"
  top: "Convolution7"
  convolution_param {
    num_output: 16
    bias_term: true
    pad: 1
    kernel_size: 3
    stride: 1
    weight_filler {
      type: "msra"
    }
    bias_filler {
      type: "constant"
    }
  }
}
layer {
  name: "BatchNorm7"
  type: "BatchNorm"
  bottom: "Convolution7"
  top: "Convolution7"
  param {
    lr_mult: 0
    decay_mult: 0
  }
  param {
    lr_mult: 0
    decay_mult: 0
  }
  param {
    lr_mult: 0
    decay_mult: 0
  }
}
layer {
  name: "Scale7"
  type: "Scale"
  bottom: "Convolution7"
  top: "Convolution7"
  scale_param {
    bias_term: true
  }
}
layer {
  name: "Eltwise3"
  type: "Eltwise"
  bottom: "Eltwise2"
  bottom: "Convolution7"
  top: "Eltwise3"
  eltwise_param {
    operation: SUM
  }
}
layer {
  name: "ReLU7"
  type: "ReLU"
  bottom: "Eltwise3"
  top: "Eltwise3"
}
layer {
  name: "Convolution8"
  type: "Convolution"
  bottom: "Eltwise3"
  top: "Convolution8"
  convolution_param {
    num_output: 16
    bias_term: true
    pad: 1
    kernel_size: 3
    stride: 1
    weight_filler {
      type: "msra"
    }
    bias_filler {
      type: "constant"
    }
  }
}
layer {
  name: "BatchNorm8"
  type: "BatchNorm"
  bottom: "Convolution8"
  top: "Convolution8"
  param {
    lr_mult: 0
    decay_mult: 0
  }
  param {
    lr_mult: 0
    decay_mult: 0
  }
  param {
    lr_mult: 0
    decay_mult: 0
  }
}
layer {
  name: "Scale8"
  type: "Scale"
  bottom: "Convolution8"
  top: "Convolution8"
  scale_param {
    bias_term: true
  }
}
layer {
  name: "ReLU8"
  type: "ReLU"
  bottom: "Convolution8"
  top: "Convolution8"
}
layer {
  name: "Convolution9"
  type: "Convolution"
  bottom: "Convolution8"
  top: "Convolution9"
  convolution_param {
    num_output: 16
    bias_term: true
    pad: 1
    kernel_size: 3
    stride: 1
    weight_filler {
      type: "msra"
    }
    bias_filler {
      type: "constant"
    }
  }
}
layer {
  name: "BatchNorm9"
  type: "BatchNorm"
  bottom: "Convolution9"
  top: "Convolution9"
  param {
    lr_mult: 0
    decay_mult: 0
  }
  param {
    lr_mult: 0
    decay_mult: 0
  }
  param {
    lr_mult: 0
    decay_mult: 0
  }
}
layer {
  name: "Scale9"
  type: "Scale"
  bottom: "Convolution9"
  top: "Convolution9"
  scale_param {
    bias_term: true
  }
}
layer {
  name: "Eltwise4"
  type: "Eltwise"
  bottom: "Eltwise3"
  bottom: "Convolution9"
  top: "Eltwise4"
  eltwise_param {
    operation: SUM
  }
}
layer {
  name: "ReLU9"
  type: "ReLU"
  bottom: "Eltwise4"
  top: "Eltwise4"
}
layer {
  name: "Convolution10"
  type: "Convolution"
  bottom: "Eltwise4"
  top: "Convolution10"
  convolution_param {
    num_output: 16
    bias_term: true
    pad: 1
    kernel_size: 3
    stride: 1
    weight_filler {
      type: "msra"
    }
    bias_filler {
      type: "constant"
    }
  }
}
layer {
  name: "BatchNorm10"
  type: "BatchNorm"
  bottom: "Convolution10"
  top: "Convolution10"
  param {
    lr_mult: 0
    decay_mult: 0
  }
  param {
    lr_mult: 0
    decay_mult: 0
  }
  param {
    lr_mult: 0
    decay_mult: 0
  }
}
layer {
  name: "Scale10"
  type: "Scale"
  bottom: "Convolution10"
  top: "Convolution10"
  scale_param {
    bias_term: true
  }
}
layer {
  name: "ReLU10"
  type: "ReLU"
  bottom: "Convolution10"
  top: "Convolution10"
}
layer {
  name: "Convolution11"
  type: "Convolution"
  bottom: "Convolution10"
  top: "Convolution11"
  convolution_param {
    num_output: 16
    bias_term: true
    pad: 1
    kernel_size: 3
    stride: 1
    weight_filler {
      type: "msra"
    }
    bias_filler {
      type: "constant"
    }
  }
}
layer {
  name: "BatchNorm11"
  type: "BatchNorm"
  bottom: "Convolution11"
  top: "Convolution11"
  param {
    lr_mult: 0
    decay_mult: 0
  }
  param {
    lr_mult: 0
    decay_mult: 0
  }
  param {
    lr_mult: 0
    decay_mult: 0
  }
}
layer {
  name: "Scale11"
  type: "Scale"
  bottom: "Convolution11"
  top: "Convolution11"
  scale_param {
    bias_term: true
  }
}
layer {
  name: "Eltwise5"
  type: "Eltwise"
  bottom: "Eltwise4"
  bottom: "Convolution11"
  top: "Eltwise5"
  eltwise_param {
    operation: SUM
  }
}
layer {
  name: "ReLU11"
  type: "ReLU"
  bottom: "Eltwise5"
  top: "Eltwise5"
}
layer {
  name: "Convolution12"
  type: "Convolution"
  bottom: "Eltwise5"
  top: "Convolution12"
  convolution_param {
    num_output: 16
    bias_term: true
    pad: 1
    kernel_size: 3
    stride: 1
    weight_filler {
      type: "msra"
    }
    bias_filler {
      type: "constant"
    }
  }
}
layer {
  name: "BatchNorm12"
  type: "BatchNorm"
  bottom: "Convolution12"
  top: "Convolution12"
  param {
    lr_mult: 0
    decay_mult: 0
  }
  param {
    lr_mult: 0
    decay_mult: 0
  }
  param {
    lr_mult: 0
    decay_mult: 0
  }
}
layer {
  name: "Scale12"
  type: "Scale"
  bottom: "Convolution12"
  top: "Convolution12"
  scale_param {
    bias_term: true
  }
}
layer {
  name: "ReLU12"
  type: "ReLU"
  bottom: "Convolution12"
  top: "Convolution12"
}
layer {
  name: "Convolution13"
  type: "Convolution"
  bottom: "Convolution12"
  top: "Convolution13"
  convolution_param {
    num_output: 16
    bias_term: true
    pad: 1
    kernel_size: 3
    stride: 1
    weight_filler {
      type: "msra"
    }
    bias_filler {
      type: "constant"
    }
  }
}
layer {
  name: "BatchNorm13"
  type: "BatchNorm"
  bottom: "Convolution13"
  top: "Convolution13"
  param {
    lr_mult: 0
    decay_mult: 0
  }
  param {
    lr_mult: 0
    decay_mult: 0
  }
  param {
    lr_mult: 0
    decay_mult: 0
  }
}
layer {
  name: "Scale13"
  type: "Scale"
  bottom: "Convolution13"
  top: "Convolution13"
  scale_param {
    bias_term: true
  }
}
layer {
  name: "Eltwise6"
  type: "Eltwise"
  bottom: "Eltwise5"
  bottom: "Convolution13"
  top: "Eltwise6"
  eltwise_param {
    operation: SUM
  }
}
layer {
  name: "ReLU13"
  type: "ReLU"
  bottom: "Eltwise6"
  top: "Eltwise6"
}
layer {
  name: "Convolution14"
  type: "Convolution"
  bottom: "Eltwise6"
  top: "Convolution14"
  convolution_param {
    num_output: 16
    bias_term: true
    pad: 1
    kernel_size: 3
    stride: 1
    weight_filler {
      type: "msra"
    }
    bias_filler {
      type: "constant"
    }
  }
}
layer {
  name: "BatchNorm14"
  type: "BatchNorm"
  bottom: "Convolution14"
  top: "Convolution14"
  param {
    lr_mult: 0
    decay_mult: 0
  }
  param {
    lr_mult: 0
    decay_mult: 0
  }
  param {
    lr_mult: 0
    decay_mult: 0
  }
}
layer {
  name: "Scale14"
  type: "Scale"
  bottom: "Convolution14"
  top: "Convolution14"
  scale_param {
    bias_term: true
  }
}
layer {
  name: "ReLU14"
  type: "ReLU"
  bottom: "Convolution14"
  top: "Convolution14"
}
layer {
  name: "Convolution15"
  type: "Convolution"
  bottom: "Convolution14"
  top: "Convolution15"
  convolution_param {
    num_output: 16
    bias_term: true
    pad: 1
    kernel_size: 3
    stride: 1
    weight_filler {
      type: "msra"
    }
    bias_filler {
      type: "constant"
    }
  }
}
layer {
  name: "BatchNorm15"
  type: "BatchNorm"
  bottom: "Convolution15"
  top: "Convolution15"
  param {
    lr_mult: 0
    decay_mult: 0
  }
  param {
    lr_mult: 0
    decay_mult: 0
  }
  param {
    lr_mult: 0
    decay_mult: 0
  }
}
layer {
  name: "Scale15"
  type: "Scale"
  bottom: "Convolution15"
  top: "Convolution15"
  scale_param {
    bias_term: true
  }
}
layer {
  name: "Eltwise7"
  type: "Eltwise"
  bottom: "Eltwise6"
  bottom: "Convolution15"
  top: "Eltwise7"
  eltwise_param {
    operation: SUM
  }
}
layer {
  name: "ReLU15"
  type: "ReLU"
  bottom: "Eltwise7"
  top: "Eltwise7"
}
layer {
  name: "Convolution16"
  type: "Convolution"
  bottom: "Eltwise7"
  top: "Convolution16"
  convolution_param {
    num_output: 16
    bias_term: true
    pad: 1
    kernel_size: 3
    stride: 1
    weight_filler {
      type: "msra"
    }
    bias_filler {
      type: "constant"
    }
  }
}
layer {
  name: "BatchNorm16"
  type: "BatchNorm"
  bottom: "Convolution16"
  top: "Convolution16"
  param {
    lr_mult: 0
    decay_mult: 0
  }
  param {
    lr_mult: 0
    decay_mult: 0
  }
  param {
    lr_mult: 0
    decay_mult: 0
  }
}
layer {
  name: "Scale16"
  type: "Scale"
  bottom: "Convolution16"
  top: "Convolution16"
  scale_param {
    bias_term: true
  }
}
layer {
  name: "ReLU16"
  type: "ReLU"
  bottom: "Convolution16"
  top: "Convolution16"
}
layer {
  name: "Convolution17"
  type: "Convolution"
  bottom: "Convolution16"
  top: "Convolution17"
  convolution_param {
    num_output: 16
    bias_term: true
    pad: 1
    kernel_size: 3
    stride: 1
    weight_filler {
      type: "msra"
    }
    bias_filler {
      type: "constant"
    }
  }
}
layer {
  name: "BatchNorm17"
  type: "BatchNorm"
  bottom: "Convolution17"
  top: "Convolution17"
  param {
    lr_mult: 0
    decay_mult: 0
  }
  param {
    lr_mult: 0
    decay_mult: 0
  }
  param {
    lr_mult: 0
    decay_mult: 0
  }
}
layer {
  name: "Scale17"
  type: "Scale"
  bottom: "Convolution17"
  top: "Convolution17"
  scale_param {
    bias_term: true
  }
}
layer {
  name: "Eltwise8"
  type: "Eltwise"
  bottom: "Eltwise7"
  bottom: "Convolution17"
  top: "Eltwise8"
  eltwise_param {
    operation: SUM
  }
}
layer {
  name: "ReLU17"
  type: "ReLU"
  bottom: "Eltwise8"
  top: "Eltwise8"
}
layer {
  name: "Convolution18"
  type: "Convolution"
  bottom: "Eltwise8"
  top: "Convolution18"
  convolution_param {
    num_output: 16
    bias_term: true
    pad: 1
    kernel_size: 3
    stride: 1
    weight_filler {
      type: "msra"
    }
    bias_filler {
      type: "constant"
    }
  }
}
layer {
  name: "BatchNorm18"
  type: "BatchNorm"
  bottom: "Convolution18"
  top: "Convolution18"
  param {
    lr_mult: 0
    decay_mult: 0
  }
  param {
    lr_mult: 0
    decay_mult: 0
  }
  param {
    lr_mult: 0
    decay_mult: 0
  }
}
layer {
  name: "Scale18"
  type: "Scale"
  bottom: "Convolution18"
  top: "Convolution18"
  scale_param {
    bias_term: true
  }
}
layer {
  name: "ReLU18"
  type: "ReLU"
  bottom: "Convolution18"
  top: "Convolution18"
}
layer {
  name: "Convolution19"
  type: "Convolution"
  bottom: "Convolution18"
  top: "Convolution19"
  convolution_param {
    num_output: 16
    bias_term: true
    pad: 1
    kernel_size: 3
    stride: 1
    weight_filler {
      type: "msra"
    }
    bias_filler {
      type: "constant"
    }
  }
}
layer {
  name: "BatchNorm19"
  type: "BatchNorm"
  bottom: "Convolution19"
  top: "Convolution19"
  param {
    lr_mult: 0
    decay_mult: 0
  }
  param {
    lr_mult: 0
    decay_mult: 0
  }
  param {
    lr_mult: 0
    decay_mult: 0
  }
}
layer {
  name: "Scale19"
  type: "Scale"
  bottom: "Convolution19"
  top: "Convolution19"
  scale_param {
    bias_term: true
  }
}
layer {
  name: "Eltwise9"
  type: "Eltwise"
  bottom: "Eltwise8"
  bottom: "Convolution19"
  top: "Eltwise9"
  eltwise_param {
    operation: SUM
  }
}
layer {
  name: "ReLU19"
  type: "ReLU"
  bottom: "Eltwise9"
  top: "Eltwise9"
}
layer {
  name: "Convolution20"
  type: "Convolution"
  bottom: "Eltwise9"
  top: "Convolution20"
  convolution_param {
    num_output: 16
    bias_term: true
    pad: 1
    kernel_size: 3
    stride: 1
    weight_filler {
      type: "msra"
    }
    bias_filler {
      type: "constant"
    }
  }
}
layer {
  name: "BatchNorm20"
  type: "BatchNorm"
  bottom: "Convolution20"
  top: "Convolution20"
  param {
    lr_mult: 0
    decay_mult: 0
  }
  param {
    lr_mult: 0
    decay_mult: 0
  }
  param {
    lr_mult: 0
    decay_mult: 0
  }
}
layer {
  name: "Scale20"
  type: "Scale"
  bottom: "Convolution20"
  top: "Convolution20"
  scale_param {
    bias_term: true
  }
}
layer {
  name: "ReLU20"
  type: "ReLU"
  bottom: "Convolution20"
  top: "Convolution20"
}
layer {
  name: "Convolution21"
  type: "Convolution"
  bottom: "Convolution20"
  top: "Convolution21"
  convolution_param {
    num_output: 16
    bias_term: true
    pad: 1
    kernel_size: 3
    stride: 1
    weight_filler {
      type: "msra"
    }
    bias_filler {
      type: "constant"
    }
  }
}
layer {
  name: "BatchNorm21"
  type: "BatchNorm"
  bottom: "Convolution21"
  top: "Convolution21"
  param {
    lr_mult: 0
    decay_mult: 0
  }
  param {
    lr_mult: 0
    decay_mult: 0
  }
  param {
    lr_mult: 0
    decay_mult: 0
  }
}
layer {
  name: "Scale21"
  type: "Scale"
  bottom: "Convolution21"
  top: "Convolution21"
  scale_param {
    bias_term: true
  }
}
layer {
  name: "Eltwise10"
  type: "Eltwise"
  bottom: "Eltwise9"
  bottom: "Convolution21"
  top: "Eltwise10"
  eltwise_param {
    operation: SUM
  }
}
layer {
  name: "ReLU21"
  type: "ReLU"
  bottom: "Eltwise10"
  top: "Eltwise10"
}
layer {
  name: "Convolution22"
  type: "Convolution"
  bottom: "Eltwise10"
  top: "Convolution22"
  convolution_param {
    num_output: 16
    bias_term: true
    pad: 1
    kernel_size: 3
    stride: 1
    weight_filler {
      type: "msra"
    }
    bias_filler {
      type: "constant"
    }
  }
}
layer {
  name: "BatchNorm22"
  type: "BatchNorm"
  bottom: "Convolution22"
  top: "Convolution22"
  param {
    lr_mult: 0
    decay_mult: 0
  }
  param {
    lr_mult: 0
    decay_mult: 0
  }
  param {
    lr_mult: 0
    decay_mult: 0
  }
}
layer {
  name: "Scale22"
  type: "Scale"
  bottom: "Convolution22"
  top: "Convolution22"
  scale_param {
    bias_term: true
  }
}
layer {
  name: "ReLU22"
  type: "ReLU"
  bottom: "Convolution22"
  top: "Convolution22"
}
layer {
  name: "Convolution23"
  type: "Convolution"
  bottom: "Convolution22"
  top: "Convolution23"
  convolution_param {
    num_output: 16
    bias_term: true
    pad: 1
    kernel_size: 3
    stride: 1
    weight_filler {
      type: "msra"
    }
    bias_filler {
      type: "constant"
    }
  }
}
layer {
  name: "BatchNorm23"
  type: "BatchNorm"
  bottom: "Convolution23"
  top: "Convolution23"
  param {
    lr_mult: 0
    decay_mult: 0
  }
  param {
    lr_mult: 0
    decay_mult: 0
  }
  param {
    lr_mult: 0
    decay_mult: 0
  }
}
layer {
  name: "Scale23"
  type: "Scale"
  bottom: "Convolution23"
  top: "Convolution23"
  scale_param {
    bias_term: true
  }
}
layer {
  name: "Eltwise11"
  type: "Eltwise"
  bottom: "Eltwise10"
  bottom: "Convolution23"
  top: "Eltwise11"
  eltwise_param {
    operation: SUM
  }
}
layer {
  name: "ReLU23"
  type: "ReLU"
  bottom: "Eltwise11"
  top: "Eltwise11"
}
layer {
  name: "Convolution24"
  type: "Convolution"
  bottom: "Eltwise11"
  top: "Convolution24"
  convolution_param {
    num_output: 16
    bias_term: true
    pad: 1
    kernel_size: 3
    stride: 1
    weight_filler {
      type: "msra"
    }
    bias_filler {
      type: "constant"
    }
  }
}
layer {
  name: "BatchNorm24"
  type: "BatchNorm"
  bottom: "Convolution24"
  top: "Convolution24"
  param {
    lr_mult: 0
    decay_mult: 0
  }
  param {
    lr_mult: 0
    decay_mult: 0
  }
  param {
    lr_mult: 0
    decay_mult: 0
  }
}
layer {
  name: "Scale24"
  type: "Scale"
  bottom: "Convolution24"
  top: "Convolution24"
  scale_param {
    bias_term: true
  }
}
layer {
  name: "ReLU24"
  type: "ReLU"
  bottom: "Convolution24"
  top: "Convolution24"
}
layer {
  name: "Convolution25"
  type: "Convolution"
  bottom: "Convolution24"
  top: "Convolution25"
  convolution_param {
    num_output: 16
    bias_term: true
    pad: 1
    kernel_size: 3
    stride: 1
    weight_filler {
      type: "msra"
    }
    bias_filler {
      type: "constant"
    }
  }
}
layer {
  name: "BatchNorm25"
  type: "BatchNorm"
  bottom: "Convolution25"
  top: "Convolution25"
  param {
    lr_mult: 0
    decay_mult: 0
  }
  param {
    lr_mult: 0
    decay_mult: 0
  }
  param {
    lr_mult: 0
    decay_mult: 0
  }
}
layer {
  name: "Scale25"
  type: "Scale"
  bottom: "Convolution25"
  top: "Convolution25"
  scale_param {
    bias_term: true
  }
}
layer {
  name: "Eltwise12"
  type: "Eltwise"
  bottom: "Eltwise11"
  bottom: "Convolution25"
  top: "Eltwise12"
  eltwise_param {
    operation: SUM
  }
}
layer {
  name: "ReLU25"
  type: "ReLU"
  bottom: "Eltwise12"
  top: "Eltwise12"
}
layer {
  name: "Convolution26"
  type: "Convolution"
  bottom: "Eltwise12"
  top: "Convolution26"
  convolution_param {
    num_output: 16
    bias_term: true
    pad: 1
    kernel_size: 3
    stride: 1
    weight_filler {
      type: "msra"
    }
    bias_filler {
      type: "constant"
    }
  }
}
layer {
  name: "BatchNorm26"
  type: "BatchNorm"
  bottom: "Convolution26"
  top: "Convolution26"
  param {
    lr_mult: 0
    decay_mult: 0
  }
  param {
    lr_mult: 0
    decay_mult: 0
  }
  param {
    lr_mult: 0
    decay_mult: 0
  }
}
layer {
  name: "Scale26"
  type: "Scale"
  bottom: "Convolution26"
  top: "Convolution26"
  scale_param {
    bias_term: true
  }
}
layer {
  name: "ReLU26"
  type: "ReLU"
  bottom: "Convolution26"
  top: "Convolution26"
}
layer {
  name: "Convolution27"
  type: "Convolution"
  bottom: "Convolution26"
  top: "Convolution27"
  convolution_param {
    num_output: 16
    bias_term: true
    pad: 1
    kernel_size: 3
    stride: 1
    weight_filler {
      type: "msra"
    }
    bias_filler {
      type: "constant"
    }
  }
}
layer {
  name: "BatchNorm27"
  type: "BatchNorm"
  bottom: "Convolution27"
  top: "Convolution27"
  param {
    lr_mult: 0
    decay_mult: 0
  }
  param {
    lr_mult: 0
    decay_mult: 0
  }
  param {
    lr_mult: 0
    decay_mult: 0
  }
}
layer {
  name: "Scale27"
  type: "Scale"
  bottom: "Convolution27"
  top: "Convolution27"
  scale_param {
    bias_term: true
  }
}
layer {
  name: "Eltwise13"
  type: "Eltwise"
  bottom: "Eltwise12"
  bottom: "Convolution27"
  top: "Eltwise13"
  eltwise_param {
    operation: SUM
  }
}
layer {
  name: "ReLU27"
  type: "ReLU"
  bottom: "Eltwise13"
  top: "Eltwise13"
}
layer {
  name: "Convolution28"
  type: "Convolution"
  bottom: "Eltwise13"
  top: "Convolution28"
  convolution_param {
    num_output: 16
    bias_term: true
    pad: 1
    kernel_size: 3
    stride: 1
    weight_filler {
      type: "msra"
    }
    bias_filler {
      type: "constant"
    }
  }
}
layer {
  name: "BatchNorm28"
  type: "BatchNorm"
  bottom: "Convolution28"
  top: "Convolution28"
  param {
    lr_mult: 0
    decay_mult: 0
  }
  param {
    lr_mult: 0
    decay_mult: 0
  }
  param {
    lr_mult: 0
    decay_mult: 0
  }
}
layer {
  name: "Scale28"
  type: "Scale"
  bottom: "Convolution28"
  top: "Convolution28"
  scale_param {
    bias_term: true
  }
}
layer {
  name: "ReLU28"
  type: "ReLU"
  bottom: "Convolution28"
  top: "Convolution28"
}
layer {
  name: "Convolution29"
  type: "Convolution"
  bottom: "Convolution28"
  top: "Convolution29"
  convolution_param {
    num_output: 16
    bias_term: true
    pad: 1
    kernel_size: 3
    stride: 1
    weight_filler {
      type: "msra"
    }
    bias_filler {
      type: "constant"
    }
  }
}
layer {
  name: "BatchNorm29"
  type: "BatchNorm"
  bottom: "Convolution29"
  top: "Convolution29"
  param {
    lr_mult: 0
    decay_mult: 0
  }
  param {
    lr_mult: 0
    decay_mult: 0
  }
  param {
    lr_mult: 0
    decay_mult: 0
  }
}
layer {
  name: "Scale29"
  type: "Scale"
  bottom: "Convolution29"
  top: "Convolution29"
  scale_param {
    bias_term: true
  }
}
layer {
  name: "Eltwise14"
  type: "Eltwise"
  bottom: "Eltwise13"
  bottom: "Convolution29"
  top: "Eltwise14"
  eltwise_param {
    operation: SUM
  }
}
layer {
  name: "ReLU29"
  type: "ReLU"
  bottom: "Eltwise14"
  top: "Eltwise14"
}
layer {
  name: "Convolution30"
  type: "Convolution"
  bottom: "Eltwise14"
  top: "Convolution30"
  convolution_param {
    num_output: 16
    bias_term: true
    pad: 1
    kernel_size: 3
    stride: 1
    weight_filler {
      type: "msra"
    }
    bias_filler {
      type: "constant"
    }
  }
}
layer {
  name: "BatchNorm30"
  type: "BatchNorm"
  bottom: "Convolution30"
  top: "Convolution30"
  param {
    lr_mult: 0
    decay_mult: 0
  }
  param {
    lr_mult: 0
    decay_mult: 0
  }
  param {
    lr_mult: 0
    decay_mult: 0
  }
}
layer {
  name: "Scale30"
  type: "Scale"
  bottom: "Convolution30"
  top: "Convolution30"
  scale_param {
    bias_term: true
  }
}
layer {
  name: "ReLU30"
  type: "ReLU"
  bottom: "Convolution30"
  top: "Convolution30"
}
layer {
  name: "Convolution31"
  type: "Convolution"
  bottom: "Convolution30"
  top: "Convolution31"
  convolution_param {
    num_output: 16
    bias_term: true
    pad: 1
    kernel_size: 3
    stride: 1
    weight_filler {
      type: "msra"
    }
    bias_filler {
      type: "constant"
    }
  }
}
layer {
  name: "BatchNorm31"
  type: "BatchNorm"
  bottom: "Convolution31"
  top: "Convolution31"
  param {
    lr_mult: 0
    decay_mult: 0
  }
  param {
    lr_mult: 0
    decay_mult: 0
  }
  param {
    lr_mult: 0
    decay_mult: 0
  }
}
layer {
  name: "Scale31"
  type: "Scale"
  bottom: "Convolution31"
  top: "Convolution31"
  scale_param {
    bias_term: true
  }
}
layer {
  name: "Eltwise15"
  type: "Eltwise"
  bottom: "Eltwise14"
  bottom: "Convolution31"
  top: "Eltwise15"
  eltwise_param {
    operation: SUM
  }
}
layer {
  name: "ReLU31"
  type: "ReLU"
  bottom: "Eltwise15"
  top: "Eltwise15"
}
layer {
  name: "Convolution32"
  type: "Convolution"
  bottom: "Eltwise15"
  top: "Convolution32"
  convolution_param {
    num_output: 16
    bias_term: true
    pad: 1
    kernel_size: 3
    stride: 1
    weight_filler {
      type: "msra"
    }
    bias_filler {
      type: "constant"
    }
  }
}
layer {
  name: "BatchNorm32"
  type: "BatchNorm"
  bottom: "Convolution32"
  top: "Convolution32"
  param {
    lr_mult: 0
    decay_mult: 0
  }
  param {
    lr_mult: 0
    decay_mult: 0
  }
  param {
    lr_mult: 0
    decay_mult: 0
  }
}
layer {
  name: "Scale32"
  type: "Scale"
  bottom: "Convolution32"
  top: "Convolution32"
  scale_param {
    bias_term: true
  }
}
layer {
  name: "ReLU32"
  type: "ReLU"
  bottom: "Convolution32"
  top: "Convolution32"
}
layer {
  name: "Convolution33"
  type: "Convolution"
  bottom: "Convolution32"
  top: "Convolution33"
  convolution_param {
    num_output: 16
    bias_term: true
    pad: 1
    kernel_size: 3
    stride: 1
    weight_filler {
      type: "msra"
    }
    bias_filler {
      type: "constant"
    }
  }
}
layer {
  name: "BatchNorm33"
  type: "BatchNorm"
  bottom: "Convolution33"
  top: "Convolution33"
  param {
    lr_mult: 0
    decay_mult: 0
  }
  param {
    lr_mult: 0
    decay_mult: 0
  }
  param {
    lr_mult: 0
    decay_mult: 0
  }
}
layer {
  name: "Scale33"
  type: "Scale"
  bottom: "Convolution33"
  top: "Convolution33"
  scale_param {
    bias_term: true
  }
}
layer {
  name: "Eltwise16"
  type: "Eltwise"
  bottom: "Eltwise15"
  bottom: "Convolution33"
  top: "Eltwise16"
  eltwise_param {
    operation: SUM
  }
}
layer {
  name: "ReLU33"
  type: "ReLU"
  bottom: "Eltwise16"
  top: "Eltwise16"
}
layer {
  name: "Convolution34"
  type: "Convolution"
  bottom: "Eltwise16"
  top: "Convolution34"
  convolution_param {
    num_output: 16
    bias_term: true
    pad: 1
    kernel_size: 3
    stride: 1
    weight_filler {
      type: "msra"
    }
    bias_filler {
      type: "constant"
    }
  }
}
layer {
  name: "BatchNorm34"
  type: "BatchNorm"
  bottom: "Convolution34"
  top: "Convolution34"
  param {
    lr_mult: 0
    decay_mult: 0
  }
  param {
    lr_mult: 0
    decay_mult: 0
  }
  param {
    lr_mult: 0
    decay_mult: 0
  }
}
layer {
  name: "Scale34"
  type: "Scale"
  bottom: "Convolution34"
  top: "Convolution34"
  scale_param {
    bias_term: true
  }
}
layer {
  name: "ReLU34"
  type: "ReLU"
  bottom: "Convolution34"
  top: "Convolution34"
}
layer {
  name: "Convolution35"
  type: "Convolution"
  bottom: "Convolution34"
  top: "Convolution35"
  convolution_param {
    num_output: 16
    bias_term: true
    pad: 1
    kernel_size: 3
    stride: 1
    weight_filler {
      type: "msra"
    }
    bias_filler {
      type: "constant"
    }
  }
}
layer {
  name: "BatchNorm35"
  type: "BatchNorm"
  bottom: "Convolution35"
  top: "Convolution35"
  param {
    lr_mult: 0
    decay_mult: 0
  }
  param {
    lr_mult: 0
    decay_mult: 0
  }
  param {
    lr_mult: 0
    decay_mult: 0
  }
}
layer {
  name: "Scale35"
  type: "Scale"
  bottom: "Convolution35"
  top: "Convolution35"
  scale_param {
    bias_term: true
  }
}
layer {
  name: "Eltwise17"
  type: "Eltwise"
  bottom: "Eltwise16"
  bottom: "Convolution35"
  top: "Eltwise17"
  eltwise_param {
    operation: SUM
  }
}
layer {
  name: "ReLU35"
  type: "ReLU"
  bottom: "Eltwise17"
  top: "Eltwise17"
}
layer {
  name: "Convolution36"
  type: "Convolution"
  bottom: "Eltwise17"
  top: "Convolution36"
  convolution_param {
    num_output: 16
    bias_term: true
    pad: 1
    kernel_size: 3
    stride: 1
    weight_filler {
      type: "msra"
    }
    bias_filler {
      type: "constant"
    }
  }
}
layer {
I0619 11:13:44.740275  2197 layer_factory.hpp:77] Creating layer Data1
I0619 11:13:44.741641  2197 net.cpp:190] Creating Layer Data1
I0619 11:13:44.741668  2197 net.cpp:589] Data1 -> Data1
I0619 11:13:44.741729  2197 net.cpp:589] Data1 -> Data2
I0619 11:13:44.779611  2204 db_leveldb.cpp:18] Opened leveldb /scratch/pas282/caffe/examples/cifar10/cifar10_train_leveldb_padding0
I0619 11:13:44.799320  2197 data_layer.cpp:41] output data size: 128,3,32,32
I0619 11:13:44.804743  2197 net.cpp:240] Setting up Data1
I0619 11:13:44.804783  2197 net.cpp:247] Top shape: 128 3 32 32 (393216)
I0619 11:13:44.804795  2197 net.cpp:247] Top shape: 128 (128)
I0619 11:13:44.804802  2197 net.cpp:255] Memory required for data: 1573376
I0619 11:13:44.804819  2197 layer_factory.hpp:77] Creating layer Convolution1
I0619 11:13:44.804872  2197 net.cpp:190] Creating Layer Convolution1
I0619 11:13:44.804884  2197 net.cpp:615] Convolution1 <- Data1
I0619 11:13:44.804908  2197 net.cpp:589] Convolution1 -> Convolution1
I0619 11:13:44.806443  2197 net.cpp:240] Setting up Convolution1
I0619 11:13:44.806468  2197 net.cpp:247] Top shape: 128 16 32 32 (2097152)
I0619 11:13:44.806476  2197 net.cpp:255] Memory required for data: 9961984
I0619 11:13:44.806511  2197 layer_factory.hpp:77] Creating layer BatchNorm1
I0619 11:13:44.806541  2197 net.cpp:190] Creating Layer BatchNorm1
I0619 11:13:44.806550  2197 net.cpp:615] BatchNorm1 <- Convolution1
I0619 11:13:44.806565  2197 net.cpp:576] BatchNorm1 -> Convolution1 (in-place)
I0619 11:13:44.807029  2197 net.cpp:240] Setting up BatchNorm1
I0619 11:13:44.807046  2197 net.cpp:247] Top shape: 128 16 32 32 (2097152)
I0619 11:13:44.807054  2197 net.cpp:255] Memory required for data: 18350592
I0619 11:13:44.807080  2197 layer_factory.hpp:77] Creating layer Scale1
I0619 11:13:44.807097  2197 net.cpp:190] Creating Layer Scale1
I0619 11:13:44.807106  2197 net.cpp:615] Scale1 <- Convolution1
I0619 11:13:44.807116  2197 net.cpp:576] Scale1 -> Convolution1 (in-place)
I0619 11:13:44.807257  2197 layer_factory.hpp:77] Creating layer Scale1
I0619 11:13:44.807459  2197 net.cpp:240] Setting up Scale1
I0619 11:13:44.807479  2197 net.cpp:247] Top shape: 128 16 32 32 (2097152)
I0619 11:13:44.807487  2197 net.cpp:255] Memory required for data: 26739200
I0619 11:13:44.807502  2197 layer_factory.hpp:77] Creating layer ReLU1
I0619 11:13:44.807517  2197 net.cpp:190] Creating Layer ReLU1
I0619 11:13:44.807523  2197 net.cpp:615] ReLU1 <- Convolution1
I0619 11:13:44.807536  2197 net.cpp:576] ReLU1 -> Convolution1 (in-place)
I0619 11:13:44.807564  2197 net.cpp:240] Setting up ReLU1
I0619 11:13:44.807574  2197 net.cpp:247] Top shape: 128 16 32 32 (2097152)
I0619 11:13:44.807579  2197 net.cpp:255] Memory required for data: 35127808
I0619 11:13:44.807586  2197 layer_factory.hpp:77] Creating layer Convolution1_ReLU1_0_split
I0619 11:13:44.807605  2197 net.cpp:190] Creating Layer Convolution1_ReLU1_0_split
I0619 11:13:44.807611  2197 net.cpp:615] Convolution1_ReLU1_0_split <- Convolution1
I0619 11:13:44.807621  2197 net.cpp:589] Convolution1_ReLU1_0_split -> Convolution1_ReLU1_0_split_0
I0619 11:13:44.807633  2197 net.cpp:589] Convolution1_ReLU1_0_split -> Convolution1_ReLU1_0_split_1
I0619 11:13:44.807700  2197 net.cpp:240] Setting up Convolution1_ReLU1_0_split
I0619 11:13:44.807711  2197 net.cpp:247] Top shape: 128 16 32 32 (2097152)
I0619 11:13:44.807721  2197 net.cpp:247] Top shape: 128 16 32 32 (2097152)
I0619 11:13:44.807728  2197 net.cpp:255] Memory required for data: 51905024
I0619 11:13:44.807734  2197 layer_factory.hpp:77] Creating layer Convolution2
I0619 11:13:44.807749  2197 net.cpp:190] Creating Layer Convolution2
I0619 11:13:44.807757  2197 net.cpp:615] Convolution2 <- Convolution1_ReLU1_0_split_0
I0619 11:13:44.807771  2197 net.cpp:589] Convolution2 -> Convolution2
I0619 11:13:44.809226  2197 net.cpp:240] Setting up Convolution2
I0619 11:13:44.809249  2197 net.cpp:247] Top shape: 128 16 32 32 (2097152)
I0619 11:13:44.809257  2197 net.cpp:255] Memory required for data: 60293632
I0619 11:13:44.809278  2197 layer_factory.hpp:77] Creating layer BatchNorm2
I0619 11:13:44.809294  2197 net.cpp:190] Creating Layer BatchNorm2
I0619 11:13:44.809303  2197 net.cpp:615] BatchNorm2 <- Convolution2
I0619 11:13:44.809316  2197 net.cpp:576] BatchNorm2 -> Convolution2 (in-place)
I0619 11:13:44.809687  2197 net.cpp:240] Setting up BatchNorm2
I0619 11:13:44.809701  2197 net.cpp:247] Top shape: 128 16 32 32 (2097152)
I0619 11:13:44.809708  2197 net.cpp:255] Memory required for data: 68682240
I0619 11:13:44.809727  2197 layer_factory.hpp:77] Creating layer Scale2
I0619 11:13:44.809744  2197 net.cpp:190] Creating Layer Scale2
I0619 11:13:44.809752  2197 net.cpp:615] Scale2 <- Convolution2
I0619 11:13:44.809762  2197 net.cpp:576] Scale2 -> Convolution2 (in-place)
I0619 11:13:44.809828  2197 layer_factory.hpp:77] Creating layer Scale2
I0619 11:13:44.810176  2197 net.cpp:240] Setting up Scale2
I0619 11:13:44.810191  2197 net.cpp:247] Top shape: 128 16 32 32 (2097152)
I0619 11:13:44.810199  2197 net.cpp:255] Memory required for data: 77070848
I0619 11:13:44.810214  2197 layer_factory.hpp:77] Creating layer ReLU2
I0619 11:13:44.810225  2197 net.cpp:190] Creating Layer ReLU2
I0619 11:13:44.810231  2197 net.cpp:615] ReLU2 <- Convolution2
I0619 11:13:44.810245  2197 net.cpp:576] ReLU2 -> Convolution2 (in-place)
I0619 11:13:44.810257  2197 net.cpp:240] Setting up ReLU2
I0619 11:13:44.810266  2197 net.cpp:247] Top shape: 128 16 32 32 (2097152)
I0619 11:13:44.810272  2197 net.cpp:255] Memory required for data: 85459456
I0619 11:13:44.810279  2197 layer_factory.hpp:77] Creating layer Convolution3
I0619 11:13:44.810297  2197 net.cpp:190] Creating Layer Convolution3
I0619 11:13:44.810305  2197 net.cpp:615] Convolution3 <- Convolution2
I0619 11:13:44.810317  2197 net.cpp:589] Convolution3 -> Convolution3
I0619 11:13:44.810839  2197 net.cpp:240] Setting up Convolution3
I0619 11:13:44.810853  2197 net.cpp:247] Top shape: 128 16 32 32 (2097152)
I0619 11:13:44.810859  2197 net.cpp:255] Memory required for data: 93848064
I0619 11:13:44.810873  2197 layer_factory.hpp:77] Creating layer BatchNorm3
I0619 11:13:44.810886  2197 net.cpp:190] Creating Layer BatchNorm3
I0619 11:13:44.810899  2197 net.cpp:615] BatchNorm3 <- Convolution3
I0619 11:13:44.810911  2197 net.cpp:576] BatchNorm3 -> Convolution3 (in-place)
I0619 11:13:44.811200  2197 net.cpp:240] Setting up BatchNorm3
I0619 11:13:44.811213  2197 net.cpp:247] Top shape: 128 16 32 32 (2097152)
I0619 11:13:44.811218  2197 net.cpp:255] Memory required for data: 102236672
I0619 11:13:44.811245  2197 layer_factory.hpp:77] Creating layer Scale3
I0619 11:13:44.811257  2197 net.cpp:190] Creating Layer Scale3
I0619 11:13:44.811264  2197 net.cpp:615] Scale3 <- Convolution3
I0619 11:13:44.811274  2197 net.cpp:576] Scale3 -> Convolution3 (in-place)
I0619 11:13:44.811328  2197 layer_factory.hpp:77] Creating layer Scale3
I0619 11:13:44.811503  2197 net.cpp:240] Setting up Scale3
I0619 11:13:44.811516  2197 net.cpp:247] Top shape: 128 16 32 32 (2097152)
I0619 11:13:44.811520  2197 net.cpp:255] Memory required for data: 110625280
I0619 11:13:44.811537  2197 layer_factory.hpp:77] Creating layer Eltwise1
I0619 11:13:44.811549  2197 net.cpp:190] Creating Layer Eltwise1
I0619 11:13:44.811556  2197 net.cpp:615] Eltwise1 <- Convolution1_ReLU1_0_split_1
I0619 11:13:44.811564  2197 net.cpp:615] Eltwise1 <- Convolution3
I0619 11:13:44.811578  2197 net.cpp:589] Eltwise1 -> Eltwise1
I0619 11:13:44.811622  2197 net.cpp:240] Setting up Eltwise1
I0619 11:13:44.811633  2197 net.cpp:247] Top shape: 128 16 32 32 (2097152)
I0619 11:13:44.811638  2197 net.cpp:255] Memory required for data: 119013888
I0619 11:13:44.811645  2197 layer_factory.hpp:77] Creating layer ReLU3
I0619 11:13:44.811661  2197 net.cpp:190] Creating Layer ReLU3
I0619 11:13:44.811668  2197 net.cpp:615] ReLU3 <- Eltwise1
I0619 11:13:44.811677  2197 net.cpp:576] ReLU3 -> Eltwise1 (in-place)
I0619 11:13:44.811687  2197 net.cpp:240] Setting up ReLU3
I0619 11:13:44.811696  2197 net.cpp:247] Top shape: 128 16 32 32 (2097152)
I0619 11:13:44.811702  2197 net.cpp:255] Memory required for data: 127402496
I0619 11:13:44.811707  2197 layer_factory.hpp:77] Creating layer Eltwise1_ReLU3_0_split
I0619 11:13:44.811717  2197 net.cpp:190] Creating Layer Eltwise1_ReLU3_0_split
I0619 11:13:44.811722  2197 net.cpp:615] Eltwise1_ReLU3_0_split <- Eltwise1
I0619 11:13:44.811730  2197 net.cpp:589] Eltwise1_ReLU3_0_split -> Eltwise1_ReLU3_0_split_0
I0619 11:13:44.811743  2197 net.cpp:589] Eltwise1_ReLU3_0_split -> Eltwise1_ReLU3_0_split_1
I0619 11:13:44.811800  2197 net.cpp:240] Setting up Eltwise1_ReLU3_0_split
I0619 11:13:44.811812  2197 net.cpp:247] Top shape: 128 16 32 32 (2097152)
I0619 11:13:44.811820  2197 net.cpp:247] Top shape: 128 16 32 32 (2097152)
I0619 11:13:44.811826  2197 net.cpp:255] Memory required for data: 144179712
I0619 11:13:44.811832  2197 layer_factory.hpp:77] Creating layer Convolution4
I0619 11:13:44.811851  2197 net.cpp:190] Creating Layer Convolution4
I0619 11:13:44.811859  2197 net.cpp:615] Convolution4 <- Eltwise1_ReLU3_0_split_0
I0619 11:13:44.811872  2197 net.cpp:589] Convolution4 -> Convolution4
I0619 11:13:44.812142  2205 blocking_queue.cpp:50] Waiting for data
I0619 11:13:44.812362  2197 net.cpp:240] Setting up Convolution4
I0619 11:13:44.812376  2197 net.cpp:247] Top shape: 128 16 32 32 (2097152)
I0619 11:13:44.812381  2197 net.cpp:255] Memory required for data: 152568320
I0619 11:13:44.812394  2197 layer_factory.hpp:77] Creating layer BatchNorm4
I0619 11:13:44.812419  2197 net.cpp:190] Creating Layer BatchNorm4
I0619 11:13:44.812427  2197 net.cpp:615] BatchNorm4 <- Convolution4
I0619 11:13:44.812438  2197 net.cpp:576] BatchNorm4 -> Convolution4 (in-place)
I0619 11:13:44.812736  2197 net.cpp:240] Setting up BatchNorm4
I0619 11:13:44.812748  2197 net.cpp:247] Top shape: 128 16 32 32 (2097152)
I0619 11:13:44.812753  2197 net.cpp:255] Memory required for data: 160956928
I0619 11:13:44.812770  2197 layer_factory.hpp:77] Creating layer Scale4
I0619 11:13:44.812782  2197 net.cpp:190] Creating Layer Scale4
I0619 11:13:44.812788  2197 net.cpp:615] Scale4 <- Convolution4
I0619 11:13:44.812800  2197 net.cpp:576] Scale4 -> Convolution4 (in-place)
I0619 11:13:44.812854  2197 layer_factory.hpp:77] Creating layer Scale4
I0619 11:13:44.813024  2197 net.cpp:240] Setting up Scale4
I0619 11:13:44.813036  2197 net.cpp:247] Top shape: 128 16 32 32 (2097152)
I0619 11:13:44.813042  2197 net.cpp:255] Memory required for data: 169345536
I0619 11:13:44.813058  2197 layer_factory.hpp:77] Creating layer ReLU4
I0619 11:13:44.813069  2197 net.cpp:190] Creating Layer ReLU4
I0619 11:13:44.813076  2197 net.cpp:615] ReLU4 <- Convolution4
I0619 11:13:44.813084  2197 net.cpp:576] ReLU4 -> Convolution4 (in-place)
I0619 11:13:44.813094  2197 net.cpp:240] Setting up ReLU4
I0619 11:13:44.813102  2197 net.cpp:247] Top shape: 128 16 32 32 (2097152)
I0619 11:13:44.813108  2197 net.cpp:255] Memory required for data: 177734144
I0619 11:13:44.813113  2197 layer_factory.hpp:77] Creating layer Convolution5
I0619 11:13:44.813130  2197 net.cpp:190] Creating Layer Convolution5
I0619 11:13:44.813138  2197 net.cpp:615] Convolution5 <- Convolution4
I0619 11:13:44.813150  2197 net.cpp:589] Convolution5 -> Convolution5
I0619 11:13:44.813660  2197 net.cpp:240] Setting up Convolution5
I0619 11:13:44.813674  2197 net.cpp:247] Top shape: 128 16 32 32 (2097152)
I0619 11:13:44.813680  2197 net.cpp:255] Memory required for data: 186122752
I0619 11:13:44.813694  2197 layer_factory.hpp:77] Creating layer BatchNorm5
I0619 11:13:44.813707  2197 net.cpp:190] Creating Layer BatchNorm5
I0619 11:13:44.813714  2197 net.cpp:615] BatchNorm5 <- Convolution5
I0619 11:13:44.813724  2197 net.cpp:576] BatchNorm5 -> Convolution5 (in-place)
I0619 11:13:44.814121  2197 net.cpp:240] Setting up BatchNorm5
I0619 11:13:44.814133  2197 net.cpp:247] Top shape: 128 16 32 32 (2097152)
I0619 11:13:44.814139  2197 net.cpp:255] Memory required for data: 194511360
I0619 11:13:44.814167  2197 layer_factory.hpp:77] Creating layer Scale5
I0619 11:13:44.814179  2197 net.cpp:190] Creating Layer Scale5
I0619 11:13:44.814187  2197 net.cpp:615] Scale5 <- Convolution5
I0619 11:13:44.814195  2197 net.cpp:576] Scale5 -> Convolution5 (in-place)
I0619 11:13:44.814250  2197 layer_factory.hpp:77] Creating layer Scale5
I0619 11:13:44.814436  2197 net.cpp:240] Setting up Scale5
I0619 11:13:44.814450  2197 net.cpp:247] Top shape: 128 16 32 32 (2097152)
I0619 11:13:44.814455  2197 net.cpp:255] Memory required for data: 202899968
I0619 11:13:44.814468  2197 layer_factory.hpp:77] Creating layer Eltwise2
I0619 11:13:44.814486  2197 net.cpp:190] Creating Layer Eltwise2
I0619 11:13:44.814493  2197 net.cpp:615] Eltwise2 <- Eltwise1_ReLU3_0_split_1
I0619 11:13:44.814502  2197 net.cpp:615] Eltwise2 <- Convolution5
I0619 11:13:44.814512  2197 net.cpp:589] Eltwise2 -> Eltwise2
I0619 11:13:44.814551  2197 net.cpp:240] Setting up Eltwise2
I0619 11:13:44.814561  2197 net.cpp:247] Top shape: 128 16 32 32 (2097152)
I0619 11:13:44.814566  2197 net.cpp:255] Memory required for data: 211288576
I0619 11:13:44.814573  2197 layer_factory.hpp:77] Creating layer ReLU5
I0619 11:13:44.814581  2197 net.cpp:190] Creating Layer ReLU5
I0619 11:13:44.814587  2197 net.cpp:615] ReLU5 <- Eltwise2
I0619 11:13:44.814599  2197 net.cpp:576] ReLU5 -> Eltwise2 (in-place)
I0619 11:13:44.814610  2197 net.cpp:240] Setting up ReLU5
I0619 11:13:44.814618  2197 net.cpp:247] Top shape: 128 16 32 32 (2097152)
I0619 11:13:44.814623  2197 net.cpp:255] Memory required for data: 219677184
I0619 11:13:44.814630  2197 layer_factory.hpp:77] Creating layer Eltwise2_ReLU5_0_split
I0619 11:13:44.814638  2197 net.cpp:190] Creating Layer Eltwise2_ReLU5_0_split
I0619 11:13:44.814645  2197 net.cpp:615] Eltwise2_ReLU5_0_split <- Eltwise2
I0619 11:13:44.814652  2197 net.cpp:589] Eltwise2_ReLU5_0_split -> Eltwise2_ReLU5_0_split_0
I0619 11:13:44.814663  2197 net.cpp:589] Eltwise2_ReLU5_0_split -> Eltwise2_ReLU5_0_split_1
I0619 11:13:44.814719  2197 net.cpp:240] Setting up Eltwise2_ReLU5_0_split
I0619 11:13:44.814729  2197 net.cpp:247] Top shape: 128 16 32 32 (2097152)
I0619 11:13:44.814738  2197 net.cpp:247] Top shape: 128 16 32 32 (2097152)
I0619 11:13:44.814743  2197 net.cpp:255] Memory required for data: 236454400
I0619 11:13:44.814749  2197 layer_factory.hpp:77] Creating layer Convolution6
I0619 11:13:44.814767  2197 net.cpp:190] Creating Layer Convolution6
I0619 11:13:44.814775  2197 net.cpp:615] Convolution6 <- Eltwise2_ReLU5_0_split_0
I0619 11:13:44.814790  2197 net.cpp:589] Convolution6 -> Convolution6
I0619 11:13:44.815277  2197 net.cpp:240] Setting up Convolution6
I0619 11:13:44.815289  2197 net.cpp:247] Top shape: 128 16 32 32 (2097152)
I0619 11:13:44.815295  2197 net.cpp:255] Memory required for data: 244843008
I0619 11:13:44.815310  2197 layer_factory.hpp:77] Creating layer BatchNorm6
I0619 11:13:44.815320  2197 net.cpp:190] Creating Layer BatchNorm6
I0619 11:13:44.815326  2197 net.cpp:615] BatchNorm6 <- Convolution6
I0619 11:13:44.815338  2197 net.cpp:576] BatchNorm6 -> Convolution6 (in-place)
I0619 11:13:44.815634  2197 net.cpp:240] Setting up BatchNorm6
I0619 11:13:44.815644  2197 net.cpp:247] Top shape: 128 16 32 32 (2097152)
I0619 11:13:44.815650  2197 net.cpp:255] Memory required for data: 253231616
I0619 11:13:44.815666  2197 layer_factory.hpp:77] Creating layer Scale6
I0619 11:13:44.815677  2197 net.cpp:190] Creating Layer Scale6
I0619 11:13:44.815682  2197 net.cpp:615] Scale6 <- Convolution6
I0619 11:13:44.815692  2197 net.cpp:576] Scale6 -> Convolution6 (in-place)
I0619 11:13:44.815745  2197 layer_factory.hpp:77] Creating layer Scale6
I0619 11:13:44.815928  2197 net.cpp:240] Setting up Scale6
I0619 11:13:44.815940  2197 net.cpp:247] Top shape: 128 16 32 32 (2097152)
I0619 11:13:44.815946  2197 net.cpp:255] Memory required for data: 261620224
I0619 11:13:44.815960  2197 layer_factory.hpp:77] Creating layer ReLU6
I0619 11:13:44.815970  2197 net.cpp:190] Creating Layer ReLU6
I0619 11:13:44.815976  2197 net.cpp:615] ReLU6 <- Convolution6
I0619 11:13:44.815987  2197 net.cpp:576] ReLU6 -> Convolution6 (in-place)
I0619 11:13:44.815999  2197 net.cpp:240] Setting up ReLU6
I0619 11:13:44.816006  2197 net.cpp:247] Top shape: 128 16 32 32 (2097152)
I0619 11:13:44.816012  2197 net.cpp:255] Memory required for data: 270008832
I0619 11:13:44.816017  2197 layer_factory.hpp:77] Creating layer Convolution7
I0619 11:13:44.816031  2197 net.cpp:190] Creating Layer Convolution7
I0619 11:13:44.816037  2197 net.cpp:615] Convolution7 <- Convolution6
I0619 11:13:44.816051  2197 net.cpp:589] Convolution7 -> Convolution7
I0619 11:13:44.816545  2197 net.cpp:240] Setting up Convolution7
I0619 11:13:44.816558  2197 net.cpp:247] Top shape: 128 16 32 32 (2097152)
I0619 11:13:44.816565  2197 net.cpp:255] Memory required for data: 278397440
I0619 11:13:44.816577  2197 layer_factory.hpp:77] Creating layer BatchNorm7
I0619 11:13:44.816591  2197 net.cpp:190] Creating Layer BatchNorm7
I0619 11:13:44.816598  2197 net.cpp:615] BatchNorm7 <- Convolution7
I0619 11:13:44.816607  2197 net.cpp:576] BatchNorm7 -> Convolution7 (in-place)
I0619 11:13:44.816910  2197 net.cpp:240] Setting up BatchNorm7
I0619 11:13:44.816921  2197 net.cpp:247] Top shape: 128 16 32 32 (2097152)
I0619 11:13:44.816927  2197 net.cpp:255] Memory required for data: 286786048
I0619 11:13:44.816944  2197 layer_factory.hpp:77] Creating layer Scale7
I0619 11:13:44.816962  2197 net.cpp:190] Creating Layer Scale7
I0619 11:13:44.816969  2197 net.cpp:615] Scale7 <- Convolution7
I0619 11:13:44.816979  2197 net.cpp:576] Scale7 -> Convolution7 (in-place)
I0619 11:13:44.817035  2197 layer_factory.hpp:77] Creating layer Scale7
I0619 11:13:44.817215  2197 net.cpp:240] Setting up Scale7
I0619 11:13:44.817226  2197 net.cpp:247] Top shape: 128 16 32 32 (2097152)
I0619 11:13:44.817232  2197 net.cpp:255] Memory required for data: 295174656
I0619 11:13:44.817245  2197 layer_factory.hpp:77] Creating layer Eltwise3
I0619 11:13:44.817256  2197 net.cpp:190] Creating Layer Eltwise3
I0619 11:13:44.817263  2197 net.cpp:615] Eltwise3 <- Eltwise2_ReLU5_0_split_1
I0619 11:13:44.817271  2197 net.cpp:615] Eltwise3 <- Convolution7
I0619 11:13:44.817283  2197 net.cpp:589] Eltwise3 -> Eltwise3
I0619 11:13:44.817319  2197 net.cpp:240] Setting up Eltwise3
I0619 11:13:44.817332  2197 net.cpp:247] Top shape: 128 16 32 32 (2097152)
I0619 11:13:44.817338  2197 net.cpp:255] Memory required for data: 303563264
I0619 11:13:44.817348  2197 layer_factory.hpp:77] Creating layer ReLU7
I0619 11:13:44.817358  2197 net.cpp:190] Creating Layer ReLU7
I0619 11:13:44.817364  2197 net.cpp:615] ReLU7 <- Eltwise3
I0619 11:13:44.817373  2197 net.cpp:576] ReLU7 -> Eltwise3 (in-place)
I0619 11:13:44.817383  2197 net.cpp:240] Setting up ReLU7
I0619 11:13:44.817390  2197 net.cpp:247] Top shape: 128 16 32 32 (2097152)
I0619 11:13:44.817396  2197 net.cpp:255] Memory required for data: 311951872
I0619 11:13:44.817402  2197 layer_factory.hpp:77] Creating layer Eltwise3_ReLU7_0_split
I0619 11:13:44.817411  2197 net.cpp:190] Creating Layer Eltwise3_ReLU7_0_split
I0619 11:13:44.817416  2197 net.cpp:615] Eltwise3_ReLU7_0_split <- Eltwise3
I0619 11:13:44.817428  2197 net.cpp:589] Eltwise3_ReLU7_0_split -> Eltwise3_ReLU7_0_split_0
I0619 11:13:44.817440  2197 net.cpp:589] Eltwise3_ReLU7_0_split -> Eltwise3_ReLU7_0_split_1
I0619 11:13:44.817492  2197 net.cpp:240] Setting up Eltwise3_ReLU7_0_split
I0619 11:13:44.817500  2197 net.cpp:247] Top shape: 128 16 32 32 (2097152)
I0619 11:13:44.817508  2197 net.cpp:247] Top shape: 128 16 32 32 (2097152)
I0619 11:13:44.817514  2197 net.cpp:255] Memory required for data: 328729088
I0619 11:13:44.817522  2197 layer_factory.hpp:77] Creating layer Convolution8
I0619 11:13:44.817538  2197 net.cpp:190] Creating Layer Convolution8
I0619 11:13:44.817545  2197 net.cpp:615] Convolution8 <- Eltwise3_ReLU7_0_split_0
I0619 11:13:44.817556  2197 net.cpp:589] Convolution8 -> Convolution8
I0619 11:13:44.818049  2197 net.cpp:240] Setting up Convolution8
I0619 11:13:44.818061  2197 net.cpp:247] Top shape: 128 16 32 32 (2097152)
I0619 11:13:44.818068  2197 net.cpp:255] Memory required for data: 337117696
I0619 11:13:44.818080  2197 layer_factory.hpp:77] Creating layer BatchNorm8
I0619 11:13:44.818094  2197 net.cpp:190] Creating Layer BatchNorm8
I0619 11:13:44.818101  2197 net.cpp:615] BatchNorm8 <- Convolution8
I0619 11:13:44.818110  2197 net.cpp:576] BatchNorm8 -> Convolution8 (in-place)
I0619 11:13:44.818423  2197 net.cpp:240] Setting up BatchNorm8
I0619 11:13:44.818435  2197 net.cpp:247] Top shape: 128 16 32 32 (2097152)
I0619 11:13:44.818441  2197 net.cpp:255] Memory required for data: 345506304
I0619 11:13:44.818461  2197 layer_factory.hpp:77] Creating layer Scale8
I0619 11:13:44.818472  2197 net.cpp:190] Creating Layer Scale8
I0619 11:13:44.818478  2197 net.cpp:615] Scale8 <- Convolution8
I0619 11:13:44.818487  2197 net.cpp:576] Scale8 -> Convolution8 (in-place)
I0619 11:13:44.818542  2197 layer_factory.hpp:77] Creating layer Scale8
I0619 11:13:44.818717  2197 net.cpp:240] Setting up Scale8
I0619 11:13:44.818728  2197 net.cpp:247] Top shape: 128 16 32 32 (2097152)
I0619 11:13:44.818734  2197 net.cpp:255] Memory required for data: 353894912
I0619 11:13:44.818748  2197 layer_factory.hpp:77] Creating layer ReLU8
I0619 11:13:44.818761  2197 net.cpp:190] Creating Layer ReLU8
I0619 11:13:44.818768  2197 net.cpp:615] ReLU8 <- Convolution8
I0619 11:13:44.818778  2197 net.cpp:576] ReLU8 -> Convolution8 (in-place)
I0619 11:13:44.818786  2197 net.cpp:240] Setting up ReLU8
I0619 11:13:44.818795  2197 net.cpp:247] Top shape: 128 16 32 32 (2097152)
I0619 11:13:44.818800  2197 net.cpp:255] Memory required for data: 362283520
I0619 11:13:44.818806  2197 layer_factory.hpp:77] Creating layer Convolution9
I0619 11:13:44.818825  2197 net.cpp:190] Creating Layer Convolution9
I0619 11:13:44.818832  2197 net.cpp:615] Convolution9 <- Convolution8
I0619 11:13:44.818842  2197 net.cpp:589] Convolution9 -> Convolution9
I0619 11:13:44.819339  2197 net.cpp:240] Setting up Convolution9
I0619 11:13:44.819350  2197 net.cpp:247] Top shape: 128 16 32 32 (2097152)
I0619 11:13:44.819356  2197 net.cpp:255] Memory required for data: 370672128
I0619 11:13:44.819370  2197 layer_factory.hpp:77] Creating layer BatchNorm9
I0619 11:13:44.819383  2197 net.cpp:190] Creating Layer BatchNorm9
I0619 11:13:44.819389  2197 net.cpp:615] BatchNorm9 <- Convolution9
I0619 11:13:44.819399  2197 net.cpp:576] BatchNorm9 -> Convolution9 (in-place)
I0619 11:13:44.819700  2197 net.cpp:240] Setting up BatchNorm9
I0619 11:13:44.819715  2197 net.cpp:247] Top shape: 128 16 32 32 (2097152)
I0619 11:13:44.819721  2197 net.cpp:255] Memory required for data: 379060736
I0619 11:13:44.819738  2197 layer_factory.hpp:77] Creating layer Scale9
I0619 11:13:44.819748  2197 net.cpp:190] Creating Layer Scale9
I0619 11:13:44.819754  2197 net.cpp:615] Scale9 <- Convolution9
I0619 11:13:44.819763  2197 net.cpp:576] Scale9 -> Convolution9 (in-place)
I0619 11:13:44.819826  2197 layer_factory.hpp:77] Creating layer Scale9
I0619 11:13:44.819999  2197 net.cpp:240] Setting up Scale9
I0619 11:13:44.820010  2197 net.cpp:247] Top shape: 128 16 32 32 (2097152)
I0619 11:13:44.820016  2197 net.cpp:255] Memory required for data: 387449344
I0619 11:13:44.820029  2197 layer_factory.hpp:77] Creating layer Eltwise4
I0619 11:13:44.820042  2197 net.cpp:190] Creating Layer Eltwise4
I0619 11:13:44.820050  2197 net.cpp:615] Eltwise4 <- Eltwise3_ReLU7_0_split_1
I0619 11:13:44.820058  2197 net.cpp:615] Eltwise4 <- Convolution9
I0619 11:13:44.820067  2197 net.cpp:589] Eltwise4 -> Eltwise4
I0619 11:13:44.820104  2197 net.cpp:240] Setting up Eltwise4
I0619 11:13:44.820114  2197 net.cpp:247] Top shape: 128 16 32 32 (2097152)
I0619 11:13:44.820121  2197 net.cpp:255] Memory required for data: 395837952
I0619 11:13:44.820125  2197 layer_factory.hpp:77] Creating layer ReLU9
I0619 11:13:44.820135  2197 net.cpp:190] Creating Layer ReLU9
I0619 11:13:44.820142  2197 net.cpp:615] ReLU9 <- Eltwise4
I0619 11:13:44.820152  2197 net.cpp:576] ReLU9 -> Eltwise4 (in-place)
I0619 11:13:44.820163  2197 net.cpp:240] Setting up ReLU9
I0619 11:13:44.820171  2197 net.cpp:247] Top shape: 128 16 32 32 (2097152)
I0619 11:13:44.820176  2197 net.cpp:255] Memory required for data: 404226560
I0619 11:13:44.820183  2197 layer_factory.hpp:77] Creating layer Eltwise4_ReLU9_0_split
I0619 11:13:44.820190  2197 net.cpp:190] Creating Layer Eltwise4_ReLU9_0_split
I0619 11:13:44.820196  2197 net.cpp:615] Eltwise4_ReLU9_0_split <- Eltwise4
I0619 11:13:44.820207  2197 net.cpp:589] Eltwise4_ReLU9_0_split -> Eltwise4_ReLU9_0_split_0
I0619 11:13:44.820219  2197 net.cpp:589] Eltwise4_ReLU9_0_split -> Eltwise4_ReLU9_0_split_1
I0619 11:13:44.820274  2197 net.cpp:240] Setting up Eltwise4_ReLU9_0_split
I0619 11:13:44.820284  2197 net.cpp:247] Top shape: 128 16 32 32 (2097152)
I0619 11:13:44.820292  2197 net.cpp:247] Top shape: 128 16 32 32 (2097152)
I0619 11:13:44.820297  2197 net.cpp:255] Memory required for data: 421003776
I0619 11:13:44.820303  2197 layer_factory.hpp:77] Creating layer Convolution10
I0619 11:13:44.820317  2197 net.cpp:190] Creating Layer Convolution10
I0619 11:13:44.820323  2197 net.cpp:615] Convolution10 <- Eltwise4_ReLU9_0_split_0
I0619 11:13:44.820338  2197 net.cpp:589] Convolution10 -> Convolution10
I0619 11:13:44.820835  2197 net.cpp:240] Setting up Convolution10
I0619 11:13:44.820848  2197 net.cpp:247] Top shape: 128 16 32 32 (2097152)
I0619 11:13:44.820854  2197 net.cpp:255] Memory required for data: 429392384
I0619 11:13:44.820888  2197 layer_factory.hpp:77] Creating layer BatchNorm10
I0619 11:13:44.820900  2197 net.cpp:190] Creating Layer BatchNorm10
I0619 11:13:44.820907  2197 net.cpp:615] BatchNorm10 <- Convolution10
I0619 11:13:44.820917  2197 net.cpp:576] BatchNorm10 -> Convolution10 (in-place)
I0619 11:13:44.821215  2197 net.cpp:240] Setting up BatchNorm10
I0619 11:13:44.821225  2197 net.cpp:247] Top shape: 128 16 32 32 (2097152)
I0619 11:13:44.821231  2197 net.cpp:255] Memory required for data: 437780992
I0619 11:13:44.821249  2197 layer_factory.hpp:77] Creating layer Scale10
I0619 11:13:44.821259  2197 net.cpp:190] Creating Layer Scale10
I0619 11:13:44.821264  2197 net.cpp:615] Scale10 <- Convolution10
I0619 11:13:44.821274  2197 net.cpp:576] Scale10 -> Convolution10 (in-place)
I0619 11:13:44.821329  2197 layer_factory.hpp:77] Creating layer Scale10
I0619 11:13:44.821504  2197 net.cpp:240] Setting up Scale10
I0619 11:13:44.821516  2197 net.cpp:247] Top shape: 128 16 32 32 (2097152)
I0619 11:13:44.821522  2197 net.cpp:255] Memory required for data: 446169600
I0619 11:13:44.821545  2197 layer_factory.hpp:77] Creating layer ReLU10
I0619 11:13:44.821557  2197 net.cpp:190] Creating Layer ReLU10
I0619 11:13:44.821563  2197 net.cpp:615] ReLU10 <- Convolution10
I0619 11:13:44.821579  2197 net.cpp:576] ReLU10 -> Convolution10 (in-place)
I0619 11:13:44.821589  2197 net.cpp:240] Setting up ReLU10
I0619 11:13:44.821597  2197 net.cpp:247] Top shape: 128 16 32 32 (2097152)
I0619 11:13:44.821604  2197 net.cpp:255] Memory required for data: 454558208
I0619 11:13:44.821609  2197 layer_factory.hpp:77] Creating layer Convolution11
I0619 11:13:44.821622  2197 net.cpp:190] Creating Layer Convolution11
I0619 11:13:44.821629  2197 net.cpp:615] Convolution11 <- Convolution10
I0619 11:13:44.821641  2197 net.cpp:589] Convolution11 -> Convolution11
I0619 11:13:44.822149  2197 net.cpp:240] Setting up Convolution11
I0619 11:13:44.822162  2197 net.cpp:247] Top shape: 128 16 32 32 (2097152)
I0619 11:13:44.822168  2197 net.cpp:255] Memory required for data: 462946816
I0619 11:13:44.822182  2197 layer_factory.hpp:77] Creating layer BatchNorm11
I0619 11:13:44.822192  2197 net.cpp:190] Creating Layer BatchNorm11
I0619 11:13:44.822198  2197 net.cpp:615] BatchNorm11 <- Convolution11
I0619 11:13:44.822211  2197 net.cpp:576] BatchNorm11 -> Convolution11 (in-place)
I0619 11:13:44.822542  2197 net.cpp:240] Setting up BatchNorm11
I0619 11:13:44.822554  2197 net.cpp:247] Top shape: 128 16 32 32 (2097152)
I0619 11:13:44.822561  2197 net.cpp:255] Memory required for data: 471335424
I0619 11:13:44.822576  2197 layer_factory.hpp:77] Creating layer Scale11
I0619 11:13:44.822587  2197 net.cpp:190] Creating Layer Scale11
I0619 11:13:44.822592  2197 net.cpp:615] Scale11 <- Convolution11
I0619 11:13:44.822600  2197 net.cpp:576] Scale11 -> Convolution11 (in-place)
I0619 11:13:44.822654  2197 layer_factory.hpp:77] Creating layer Scale11
I0619 11:13:44.822818  2197 net.cpp:240] Setting up Scale11
I0619 11:13:44.822829  2197 net.cpp:247] Top shape: 128 16 32 32 (2097152)
I0619 11:13:44.822834  2197 net.cpp:255] Memory required for data: 479724032
I0619 11:13:44.822846  2197 layer_factory.hpp:77] Creating layer Eltwise5
I0619 11:13:44.822860  2197 net.cpp:190] Creating Layer Eltwise5
I0619 11:13:44.822866  2197 net.cpp:615] Eltwise5 <- Eltwise4_ReLU9_0_split_1
I0619 11:13:44.822873  2197 net.cpp:615] Eltwise5 <- Convolution11
I0619 11:13:44.822881  2197 net.cpp:589] Eltwise5 -> Eltwise5
I0619 11:13:44.822917  2197 net.cpp:240] Setting up Eltwise5
I0619 11:13:44.822927  2197 net.cpp:247] Top shape: 128 16 32 32 (2097152)
I0619 11:13:44.822932  2197 net.cpp:255] Memory required for data: 488112640
I0619 11:13:44.822937  2197 layer_factory.hpp:77] Creating layer ReLU11
I0619 11:13:44.822947  2197 net.cpp:190] Creating Layer ReLU11
I0619 11:13:44.822952  2197 net.cpp:615] ReLU11 <- Eltwise5
I0619 11:13:44.822963  2197 net.cpp:576] ReLU11 -> Eltwise5 (in-place)
I0619 11:13:44.822973  2197 net.cpp:240] Setting up ReLU11
I0619 11:13:44.822980  2197 net.cpp:247] Top shape: 128 16 32 32 (2097152)
I0619 11:13:44.822985  2197 net.cpp:255] Memory required for data: 496501248
I0619 11:13:44.822990  2197 layer_factory.hpp:77] Creating layer Eltwise5_ReLU11_0_split
I0619 11:13:44.822999  2197 net.cpp:190] Creating Layer Eltwise5_ReLU11_0_split
I0619 11:13:44.823004  2197 net.cpp:615] Eltwise5_ReLU11_0_split <- Eltwise5
I0619 11:13:44.823011  2197 net.cpp:589] Eltwise5_ReLU11_0_split -> Eltwise5_ReLU11_0_split_0
I0619 11:13:44.823021  2197 net.cpp:589] Eltwise5_ReLU11_0_split -> Eltwise5_ReLU11_0_split_1
I0619 11:13:44.823072  2197 net.cpp:240] Setting up Eltwise5_ReLU11_0_split
I0619 11:13:44.823081  2197 net.cpp:247] Top shape: 128 16 32 32 (2097152)
I0619 11:13:44.823088  2197 net.cpp:247] Top shape: 128 16 32 32 (2097152)
I0619 11:13:44.823094  2197 net.cpp:255] Memory required for data: 513278464
I0619 11:13:44.823099  2197 layer_factory.hpp:77] Creating layer Convolution12
I0619 11:13:44.823115  2197 net.cpp:190] Creating Layer Convolution12
I0619 11:13:44.823122  2197 net.cpp:615] Convolution12 <- Eltwise5_ReLU11_0_split_0
I0619 11:13:44.823137  2197 net.cpp:589] Convolution12 -> Convolution12
I0619 11:13:44.823601  2197 net.cpp:240] Setting up Convolution12
I0619 11:13:44.823612  2197 net.cpp:247] Top shape: 128 16 32 32 (2097152)
I0619 11:13:44.823617  2197 net.cpp:255] Memory required for data: 521667072
I0619 11:13:44.823629  2197 layer_factory.hpp:77] Creating layer BatchNorm12
I0619 11:13:44.823642  2197 net.cpp:190] Creating Layer BatchNorm12
I0619 11:13:44.823649  2197 net.cpp:615] BatchNorm12 <- Convolution12
I0619 11:13:44.823657  2197 net.cpp:576] BatchNorm12 -> Convolution12 (in-place)
I0619 11:13:44.823947  2197 net.cpp:240] Setting up BatchNorm12
I0619 11:13:44.823958  2197 net.cpp:247] Top shape: 128 16 32 32 (2097152)
I0619 11:13:44.823963  2197 net.cpp:255] Memory required for data: 530055680
I0619 11:13:44.823978  2197 layer_factory.hpp:77] Creating layer Scale12
I0619 11:13:44.823992  2197 net.cpp:190] Creating Layer Scale12
I0619 11:13:44.823998  2197 net.cpp:615] Scale12 <- Convolution12
I0619 11:13:44.824007  2197 net.cpp:576] Scale12 -> Convolution12 (in-place)
I0619 11:13:44.824056  2197 layer_factory.hpp:77] Creating layer Scale12
I0619 11:13:44.824229  2197 net.cpp:240] Setting up Scale12
I0619 11:13:44.824242  2197 net.cpp:247] Top shape: 128 16 32 32 (2097152)
I0619 11:13:44.824249  2197 net.cpp:255] Memory required for data: 538444288
I0619 11:13:44.824260  2197 layer_factory.hpp:77] Creating layer ReLU12
I0619 11:13:44.824270  2197 net.cpp:190] Creating Layer ReLU12
I0619 11:13:44.824275  2197 net.cpp:615] ReLU12 <- Convolution12
I0619 11:13:44.824283  2197 net.cpp:576] ReLU12 -> Convolution12 (in-place)
I0619 11:13:44.824293  2197 net.cpp:240] Setting up ReLU12
I0619 11:13:44.824301  2197 net.cpp:247] Top shape: 128 16 32 32 (2097152)
I0619 11:13:44.824306  2197 net.cpp:255] Memory required for data: 546832896
I0619 11:13:44.824311  2197 layer_factory.hpp:77] Creating layer Convolution13
I0619 11:13:44.824326  2197 net.cpp:190] Creating Layer Convolution13
I0619 11:13:44.824332  2197 net.cpp:615] Convolution13 <- Convolution12
I0619 11:13:44.824344  2197 net.cpp:589] Convolution13 -> Convolution13
I0619 11:13:44.824815  2197 net.cpp:240] Setting up Convolution13
I0619 11:13:44.824826  2197 net.cpp:247] Top shape: 128 16 32 32 (2097152)
I0619 11:13:44.824832  2197 net.cpp:255] Memory required for data: 555221504
I0619 11:13:44.824844  2197 layer_factory.hpp:77] Creating layer BatchNorm13
I0619 11:13:44.824856  2197 net.cpp:190] Creating Layer BatchNorm13
I0619 11:13:44.824863  2197 net.cpp:615] BatchNorm13 <- Convolution13
I0619 11:13:44.824874  2197 net.cpp:576] BatchNorm13 -> Convolution13 (in-place)
I0619 11:13:44.825157  2197 net.cpp:240] Setting up BatchNorm13
I0619 11:13:44.825168  2197 net.cpp:247] Top shape: 128 16 32 32 (2097152)
I0619 11:13:44.825173  2197 net.cpp:255] Memory required for data: 563610112
I0619 11:13:44.825189  2197 layer_factory.hpp:77] Creating layer Scale13
I0619 11:13:44.825201  2197 net.cpp:190] Creating Layer Scale13
I0619 11:13:44.825207  2197 net.cpp:615] Scale13 <- Convolution13
I0619 11:13:44.825215  2197 net.cpp:576] Scale13 -> Convolution13 (in-place)
I0619 11:13:44.825270  2197 layer_factory.hpp:77] Creating layer Scale13
I0619 11:13:44.825446  2197 net.cpp:240] Setting up Scale13
I0619 11:13:44.825458  2197 net.cpp:247] Top shape: 128 16 32 32 (2097152)
I0619 11:13:44.825462  2197 net.cpp:255] Memory required for data: 571998720
I0619 11:13:44.825475  2197 layer_factory.hpp:77] Creating layer Eltwise6
I0619 11:13:44.825485  2197 net.cpp:190] Creating Layer Eltwise6
I0619 11:13:44.825491  2197 net.cpp:615] Eltwise6 <- Eltwise5_ReLU11_0_split_1
I0619 11:13:44.825500  2197 net.cpp:615] Eltwise6 <- Convolution13
I0619 11:13:44.825510  2197 net.cpp:589] Eltwise6 -> Eltwise6
I0619 11:13:44.825551  2197 net.cpp:240] Setting up Eltwise6
I0619 11:13:44.825561  2197 net.cpp:247] Top shape: 128 16 32 32 (2097152)
I0619 11:13:44.825567  2197 net.cpp:255] Memory required for data: 580387328
I0619 11:13:44.825572  2197 layer_factory.hpp:77] Creating layer ReLU13
I0619 11:13:44.825589  2197 net.cpp:190] Creating Layer ReLU13
I0619 11:13:44.825603  2197 net.cpp:615] ReLU13 <- Eltwise6
I0619 11:13:44.825611  2197 net.cpp:576] ReLU13 -> Eltwise6 (in-place)
I0619 11:13:44.825621  2197 net.cpp:240] Setting up ReLU13
I0619 11:13:44.825628  2197 net.cpp:247] Top shape: 128 16 32 32 (2097152)
I0619 11:13:44.825634  2197 net.cpp:255] Memory required for data: 588775936
I0619 11:13:44.825639  2197 layer_factory.hpp:77] Creating layer Eltwise6_ReLU13_0_split
I0619 11:13:44.825647  2197 net.cpp:190] Creating Layer Eltwise6_ReLU13_0_split
I0619 11:13:44.825654  2197 net.cpp:615] Eltwise6_ReLU13_0_split <- Eltwise6
I0619 11:13:44.825661  2197 net.cpp:589] Eltwise6_ReLU13_0_split -> Eltwise6_ReLU13_0_split_0
I0619 11:13:44.825671  2197 net.cpp:589] Eltwise6_ReLU13_0_split -> Eltwise6_ReLU13_0_split_1
I0619 11:13:44.825724  2197 net.cpp:240] Setting up Eltwise6_ReLU13_0_split
I0619 11:13:44.825733  2197 net.cpp:247] Top shape: 128 16 32 32 (2097152)
I0619 11:13:44.825742  2197 net.cpp:247] Top shape: 128 16 32 32 (2097152)
I0619 11:13:44.825747  2197 net.cpp:255] Memory required for data: 605553152
I0619 11:13:44.825752  2197 layer_factory.hpp:77] Creating layer Convolution14
I0619 11:13:44.825767  2197 net.cpp:190] Creating Layer Convolution14
I0619 11:13:44.825773  2197 net.cpp:615] Convolution14 <- Eltwise6_ReLU13_0_split_0
I0619 11:13:44.825784  2197 net.cpp:589] Convolution14 -> Convolution14
I0619 11:13:44.826267  2197 net.cpp:240] Setting up Convolution14
I0619 11:13:44.826278  2197 net.cpp:247] Top shape: 128 16 32 32 (2097152)
I0619 11:13:44.826283  2197 net.cpp:255] Memory required for data: 613941760
I0619 11:13:44.826297  2197 layer_factory.hpp:77] Creating layer BatchNorm14
I0619 11:13:44.826309  2197 net.cpp:190] Creating Layer BatchNorm14
I0619 11:13:44.826316  2197 net.cpp:615] BatchNorm14 <- Convolution14
I0619 11:13:44.826325  2197 net.cpp:576] BatchNorm14 -> Convolution14 (in-place)
I0619 11:13:44.826622  2197 net.cpp:240] Setting up BatchNorm14
I0619 11:13:44.826633  2197 net.cpp:247] Top shape: 128 16 32 32 (2097152)
I0619 11:13:44.826639  2197 net.cpp:255] Memory required for data: 622330368
I0619 11:13:44.826655  2197 layer_factory.hpp:77] Creating layer Scale14
I0619 11:13:44.826665  2197 net.cpp:190] Creating Layer Scale14
I0619 11:13:44.826671  2197 net.cpp:615] Scale14 <- Convolution14
I0619 11:13:44.826688  2197 net.cpp:576] Scale14 -> Convolution14 (in-place)
I0619 11:13:44.826740  2197 layer_factory.hpp:77] Creating layer Scale14
I0619 11:13:44.826902  2197 net.cpp:240] Setting up Scale14
I0619 11:13:44.826913  2197 net.cpp:247] Top shape: 128 16 32 32 (2097152)
I0619 11:13:44.826918  2197 net.cpp:255] Memory required for data: 630718976
I0619 11:13:44.826933  2197 layer_factory.hpp:77] Creating layer ReLU14
I0619 11:13:44.826943  2197 net.cpp:190] Creating Layer ReLU14
I0619 11:13:44.826949  2197 net.cpp:615] ReLU14 <- Convolution14
I0619 11:13:44.826957  2197 net.cpp:576] ReLU14 -> Convolution14 (in-place)
I0619 11:13:44.826967  2197 net.cpp:240] Setting up ReLU14
I0619 11:13:44.826974  2197 net.cpp:247] Top shape: 128 16 32 32 (2097152)
I0619 11:13:44.826979  2197 net.cpp:255] Memory required for data: 639107584
I0619 11:13:44.826984  2197 layer_factory.hpp:77] Creating layer Convolution15
I0619 11:13:44.827000  2197 net.cpp:190] Creating Layer Convolution15
I0619 11:13:44.827006  2197 net.cpp:615] Convolution15 <- Convolution14
I0619 11:13:44.827018  2197 net.cpp:589] Convolution15 -> Convolution15
I0619 11:13:44.827498  2197 net.cpp:240] Setting up Convolution15
I0619 11:13:44.827510  2197 net.cpp:247] Top shape: 128 16 32 32 (2097152)
I0619 11:13:44.827515  2197 net.cpp:255] Memory required for data: 647496192
I0619 11:13:44.827527  2197 layer_factory.hpp:77] Creating layer BatchNorm15
I0619 11:13:44.827540  2197 net.cpp:190] Creating Layer BatchNorm15
I0619 11:13:44.827548  2197 net.cpp:615] BatchNorm15 <- Convolution15
I0619 11:13:44.827558  2197 net.cpp:576] BatchNorm15 -> Convolution15 (in-place)
I0619 11:13:44.827841  2197 net.cpp:240] Setting up BatchNorm15
I0619 11:13:44.827850  2197 net.cpp:247] Top shape: 128 16 32 32 (2097152)
I0619 11:13:44.827860  2197 net.cpp:255] Memory required for data: 655884800
I0619 11:13:44.827875  2197 layer_factory.hpp:77] Creating layer Scale15
I0619 11:13:44.827888  2197 net.cpp:190] Creating Layer Scale15
I0619 11:13:44.827894  2197 net.cpp:615] Scale15 <- Convolution15
I0619 11:13:44.827903  2197 net.cpp:576] Scale15 -> Convolution15 (in-place)
I0619 11:13:44.827951  2197 layer_factory.hpp:77] Creating layer Scale15
I0619 11:13:44.828117  2197 net.cpp:240] Setting up Scale15
I0619 11:13:44.828128  2197 net.cpp:247] Top shape: 128 16 32 32 (2097152)
I0619 11:13:44.828133  2197 net.cpp:255] Memory required for data: 664273408
I0619 11:13:44.828145  2197 layer_factory.hpp:77] Creating layer Eltwise7
I0619 11:13:44.828155  2197 net.cpp:190] Creating Layer Eltwise7
I0619 11:13:44.828161  2197 net.cpp:615] Eltwise7 <- Eltwise6_ReLU13_0_split_1
I0619 11:13:44.828168  2197 net.cpp:615] Eltwise7 <- Convolution15
I0619 11:13:44.828183  2197 net.cpp:589] Eltwise7 -> Eltwise7
I0619 11:13:44.828217  2197 net.cpp:240] Setting up Eltwise7
I0619 11:13:44.828232  2197 net.cpp:247] Top shape: 128 16 32 32 (2097152)
I0619 11:13:44.828238  2197 net.cpp:255] Memory required for data: 672662016
I0619 11:13:44.828243  2197 layer_factory.hpp:77] Creating layer ReLU15
I0619 11:13:44.828251  2197 net.cpp:190] Creating Layer ReLU15
I0619 11:13:44.828258  2197 net.cpp:615] ReLU15 <- Eltwise7
I0619 11:13:44.828265  2197 net.cpp:576] ReLU15 -> Eltwise7 (in-place)
I0619 11:13:44.828274  2197 net.cpp:240] Setting up ReLU15
I0619 11:13:44.828282  2197 net.cpp:247] Top shape: 128 16 32 32 (2097152)
I0619 11:13:44.828287  2197 net.cpp:255] Memory required for data: 681050624
I0619 11:13:44.828292  2197 layer_factory.hpp:77] Creating layer Eltwise7_ReLU15_0_split
I0619 11:13:44.828300  2197 net.cpp:190] Creating Layer Eltwise7_ReLU15_0_split
I0619 11:13:44.828306  2197 net.cpp:615] Eltwise7_ReLU15_0_split <- Eltwise7
I0619 11:13:44.828316  2197 net.cpp:589] Eltwise7_ReLU15_0_split -> Eltwise7_ReLU15_0_split_0
I0619 11:13:44.828326  2197 net.cpp:589] Eltwise7_ReLU15_0_split -> Eltwise7_ReLU15_0_split_1
I0619 11:13:44.828375  2197 net.cpp:240] Setting up Eltwise7_ReLU15_0_split
I0619 11:13:44.828384  2197 net.cpp:247] Top shape: 128 16 32 32 (2097152)
I0619 11:13:44.828392  2197 net.cpp:247] Top shape: 128 16 32 32 (2097152)
I0619 11:13:44.828397  2197 net.cpp:255] Memory required for data: 697827840
I0619 11:13:44.828402  2197 layer_factory.hpp:77] Creating layer Convolution16
I0619 11:13:44.828418  2197 net.cpp:190] Creating Layer Convolution16
I0619 11:13:44.828424  2197 net.cpp:615] Convolution16 <- Eltwise7_ReLU15_0_split_0
I0619 11:13:44.828434  2197 net.cpp:589] Convolution16 -> Convolution16
I0619 11:13:44.828907  2197 net.cpp:240] Setting up Convolution16
I0619 11:13:44.828919  2197 net.cpp:247] Top shape: 128 16 32 32 (2097152)
I0619 11:13:44.828924  2197 net.cpp:255] Memory required for data: 706216448
I0619 11:13:44.828938  2197 layer_factory.hpp:77] Creating layer BatchNorm16
I0619 11:13:44.828949  2197 net.cpp:190] Creating Layer BatchNorm16
I0619 11:13:44.828956  2197 net.cpp:615] BatchNorm16 <- Convolution16
I0619 11:13:44.828964  2197 net.cpp:576] BatchNorm16 -> Convolution16 (in-place)
I0619 11:13:44.829257  2197 net.cpp:240] Setting up BatchNorm16
I0619 11:13:44.829268  2197 net.cpp:247] Top shape: 128 16 32 32 (2097152)
I0619 11:13:44.829273  2197 net.cpp:255] Memory required for data: 714605056
I0619 11:13:44.829293  2197 layer_factory.hpp:77] Creating layer Scale16
I0619 11:13:44.829303  2197 net.cpp:190] Creating Layer Scale16
I0619 11:13:44.829308  2197 net.cpp:615] Scale16 <- Convolution16
I0619 11:13:44.829316  2197 net.cpp:576] Scale16 -> Convolution16 (in-place)
I0619 11:13:44.829368  2197 layer_factory.hpp:77] Creating layer Scale16
I0619 11:13:44.829535  2197 net.cpp:240] Setting up Scale16
I0619 11:13:44.829545  2197 net.cpp:247] Top shape: 128 16 32 32 (2097152)
I0619 11:13:44.829550  2197 net.cpp:255] Memory required for data: 722993664
I0619 11:13:44.829562  2197 layer_factory.hpp:77] Creating layer ReLU16
I0619 11:13:44.829579  2197 net.cpp:190] Creating Layer ReLU16
I0619 11:13:44.829586  2197 net.cpp:615] ReLU16 <- Convolution16
I0619 11:13:44.829594  2197 net.cpp:576] ReLU16 -> Convolution16 (in-place)
I0619 11:13:44.829603  2197 net.cpp:240] Setting up ReLU16
I0619 11:13:44.829612  2197 net.cpp:247] Top shape: 128 16 32 32 (2097152)
I0619 11:13:44.829617  2197 net.cpp:255] Memory required for data: 731382272
I0619 11:13:44.829622  2197 layer_factory.hpp:77] Creating layer Convolution17
I0619 11:13:44.829638  2197 net.cpp:190] Creating Layer Convolution17
I0619 11:13:44.829643  2197 net.cpp:615] Convolution17 <- Convolution16
I0619 11:13:44.829653  2197 net.cpp:589] Convolution17 -> Convolution17
I0619 11:13:44.830127  2197 net.cpp:240] Setting up Convolution17
I0619 11:13:44.830138  2197 net.cpp:247] Top shape: 128 16 32 32 (2097152)
I0619 11:13:44.830144  2197 net.cpp:255] Memory required for data: 739770880
I0619 11:13:44.830157  2197 layer_factory.hpp:77] Creating layer BatchNorm17
I0619 11:13:44.830170  2197 net.cpp:190] Creating Layer BatchNorm17
I0619 11:13:44.830176  2197 net.cpp:615] BatchNorm17 <- Convolution17
I0619 11:13:44.830184  2197 net.cpp:576] BatchNorm17 -> Convolution17 (in-place)
I0619 11:13:44.830487  2197 net.cpp:240] Setting up BatchNorm17
I0619 11:13:44.830498  2197 net.cpp:247] Top shape: 128 16 32 32 (2097152)
I0619 11:13:44.830503  2197 net.cpp:255] Memory required for data: 748159488
I0619 11:13:44.830519  2197 layer_factory.hpp:77] Creating layer Scale17
I0619 11:13:44.830528  2197 net.cpp:190] Creating Layer Scale17
I0619 11:13:44.830534  2197 net.cpp:615] Scale17 <- Convolution17
I0619 11:13:44.830543  2197 net.cpp:576] Scale17 -> Convolution17 (in-place)
I0619 11:13:44.830597  2197 layer_factory.hpp:77] Creating layer Scale17
I0619 11:13:44.830771  2197 net.cpp:240] Setting up Scale17
I0619 11:13:44.830782  2197 net.cpp:247] Top shape: 128 16 32 32 (2097152)
I0619 11:13:44.830787  2197 net.cpp:255] Memory required for data: 756548096
I0619 11:13:44.830803  2197 layer_factory.hpp:77] Creating layer Eltwise8
I0619 11:13:44.830813  2197 net.cpp:190] Creating Layer Eltwise8
I0619 11:13:44.830821  2197 net.cpp:615] Eltwise8 <- Eltwise7_ReLU15_0_split_1
I0619 11:13:44.830828  2197 net.cpp:615] Eltwise8 <- Convolution17
I0619 11:13:44.830839  2197 net.cpp:589] Eltwise8 -> Eltwise8
I0619 11:13:44.830874  2197 net.cpp:240] Setting up Eltwise8
I0619 11:13:44.830883  2197 net.cpp:247] Top shape: 128 16 32 32 (2097152)
I0619 11:13:44.830888  2197 net.cpp:255] Memory required for data: 764936704
I0619 11:13:44.830893  2197 layer_factory.hpp:77] Creating layer ReLU17
I0619 11:13:44.830909  2197 net.cpp:190] Creating Layer ReLU17
I0619 11:13:44.830915  2197 net.cpp:615] ReLU17 <- Eltwise8
I0619 11:13:44.830924  2197 net.cpp:576] ReLU17 -> Eltwise8 (in-place)
I0619 11:13:44.830932  2197 net.cpp:240] Setting up ReLU17
I0619 11:13:44.830940  2197 net.cpp:247] Top shape: 128 16 32 32 (2097152)
I0619 11:13:44.830945  2197 net.cpp:255] Memory required for data: 773325312
I0619 11:13:44.830950  2197 layer_factory.hpp:77] Creating layer Eltwise8_ReLU17_0_split
I0619 11:13:44.830958  2197 net.cpp:190] Creating Layer Eltwise8_ReLU17_0_split
I0619 11:13:44.830965  2197 net.cpp:615] Eltwise8_ReLU17_0_split <- Eltwise8
I0619 11:13:44.830976  2197 net.cpp:589] Eltwise8_ReLU17_0_split -> Eltwise8_ReLU17_0_split_0
I0619 11:13:44.830986  2197 net.cpp:589] Eltwise8_ReLU17_0_split -> Eltwise8_ReLU17_0_split_1
I0619 11:13:44.831038  2197 net.cpp:240] Setting up Eltwise8_ReLU17_0_split
I0619 11:13:44.831048  2197 net.cpp:247] Top shape: 128 16 32 32 (2097152)
I0619 11:13:44.831055  2197 net.cpp:247] Top shape: 128 16 32 32 (2097152)
I0619 11:13:44.831060  2197 net.cpp:255] Memory required for data: 790102528
I0619 11:13:44.831066  2197 layer_factory.hpp:77] Creating layer Convolution18
I0619 11:13:44.831081  2197 net.cpp:190] Creating Layer Convolution18
I0619 11:13:44.831089  2197 net.cpp:615] Convolution18 <- Eltwise8_ReLU17_0_split_0
I0619 11:13:44.831099  2197 net.cpp:589] Convolution18 -> Convolution18
I0619 11:13:44.831578  2197 net.cpp:240] Setting up Convolution18
I0619 11:13:44.831590  2197 net.cpp:247] Top shape: 128 16 32 32 (2097152)
I0619 11:13:44.831596  2197 net.cpp:255] Memory required for data: 798491136
I0619 11:13:44.831609  2197 layer_factory.hpp:77] Creating layer BatchNorm18
I0619 11:13:44.831619  2197 net.cpp:190] Creating Layer BatchNorm18
I0619 11:13:44.831624  2197 net.cpp:615] BatchNorm18 <- Convolution18
I0619 11:13:44.831636  2197 net.cpp:576] BatchNorm18 -> Convolution18 (in-place)
I0619 11:13:44.831926  2197 net.cpp:240] Setting up BatchNorm18
I0619 11:13:44.831936  2197 net.cpp:247] Top shape: 128 16 32 32 (2097152)
I0619 11:13:44.831943  2197 net.cpp:255] Memory required for data: 806879744
I0619 11:13:44.831957  2197 layer_factory.hpp:77] Creating layer Scale18
I0619 11:13:44.831966  2197 net.cpp:190] Creating Layer Scale18
I0619 11:13:44.831972  2197 net.cpp:615] Scale18 <- Convolution18
I0619 11:13:44.831984  2197 net.cpp:576] Scale18 -> Convolution18 (in-place)
I0619 11:13:44.832033  2197 layer_factory.hpp:77] Creating layer Scale18
I0619 11:13:44.832202  2197 net.cpp:240] Setting up Scale18
I0619 11:13:44.832212  2197 net.cpp:247] Top shape: 128 16 32 32 (2097152)
I0619 11:13:44.832217  2197 net.cpp:255] Memory required for data: 815268352
I0619 11:13:44.832231  2197 layer_factory.hpp:77] Creating layer ReLU18
I0619 11:13:44.832239  2197 net.cpp:190] Creating Layer ReLU18
I0619 11:13:44.832245  2197 net.cpp:615] ReLU18 <- Convolution18
I0619 11:13:44.832255  2197 net.cpp:576] ReLU18 -> Convolution18 (in-place)
I0619 11:13:44.832265  2197 net.cpp:240] Setting up ReLU18
I0619 11:13:44.832273  2197 net.cpp:247] Top shape: 128 16 32 32 (2097152)
I0619 11:13:44.832278  2197 net.cpp:255] Memory required for data: 823656960
I0619 11:13:44.832284  2197 layer_factory.hpp:77] Creating layer Convolution19
I0619 11:13:44.832299  2197 net.cpp:190] Creating Layer Convolution19
I0619 11:13:44.832305  2197 net.cpp:615] Convolution19 <- Convolution18
I0619 11:13:44.832314  2197 net.cpp:589] Convolution19 -> Convolution19
I0619 11:13:44.832790  2197 net.cpp:240] Setting up Convolution19
I0619 11:13:44.832803  2197 net.cpp:247] Top shape: 128 16 32 32 (2097152)
I0619 11:13:44.832808  2197 net.cpp:255] Memory required for data: 832045568
I0619 11:13:44.832820  2197 layer_factory.hpp:77] Creating layer BatchNorm19
I0619 11:13:44.832829  2197 net.cpp:190] Creating Layer BatchNorm19
I0619 11:13:44.832835  2197 net.cpp:615] BatchNorm19 <- Convolution19
I0619 11:13:44.832847  2197 net.cpp:576] BatchNorm19 -> Convolution19 (in-place)
I0619 11:13:44.833137  2197 net.cpp:240] Setting up BatchNorm19
I0619 11:13:44.833148  2197 net.cpp:247] Top shape: 128 16 32 32 (2097152)
I0619 11:13:44.833153  2197 net.cpp:255] Memory required for data: 840434176
I0619 11:13:44.833192  2197 layer_factory.hpp:77] Creating layer Scale19
I0619 11:13:44.833204  2197 net.cpp:190] Creating Layer Scale19
I0619 11:13:44.833209  2197 net.cpp:615] Scale19 <- Convolution19
I0619 11:13:44.833221  2197 net.cpp:576] Scale19 -> Convolution19 (in-place)
I0619 11:13:44.833278  2197 layer_factory.hpp:77] Creating layer Scale19
I0619 11:13:44.833446  2197 net.cpp:240] Setting up Scale19
I0619 11:13:44.833456  2197 net.cpp:247] Top shape: 128 16 32 32 (2097152)
I0619 11:13:44.833462  2197 net.cpp:255] Memory required for data: 848822784
I0619 11:13:44.833477  2197 layer_factory.hpp:77] Creating layer Eltwise9
I0619 11:13:44.833487  2197 net.cpp:190] Creating Layer Eltwise9
I0619 11:13:44.833493  2197 net.cpp:615] Eltwise9 <- Eltwise8_ReLU17_0_split_1
I0619 11:13:44.833501  2197 net.cpp:615] Eltwise9 <- Convolution19
I0619 11:13:44.833509  2197 net.cpp:589] Eltwise9 -> Eltwise9
I0619 11:13:44.833544  2197 net.cpp:240] Setting up Eltwise9
I0619 11:13:44.833551  2197 net.cpp:247] Top shape: 128 16 32 32 (2097152)
I0619 11:13:44.833557  2197 net.cpp:255] Memory required for data: 857211392
I0619 11:13:44.833562  2197 layer_factory.hpp:77] Creating layer ReLU19
I0619 11:13:44.833575  2197 net.cpp:190] Creating Layer ReLU19
I0619 11:13:44.833585  2197 net.cpp:615] ReLU19 <- Eltwise9
I0619 11:13:44.833592  2197 net.cpp:576] ReLU19 -> Eltwise9 (in-place)
I0619 11:13:44.833602  2197 net.cpp:240] Setting up ReLU19
I0619 11:13:44.833609  2197 net.cpp:247] Top shape: 128 16 32 32 (2097152)
I0619 11:13:44.833616  2197 net.cpp:255] Memory required for data: 865600000
I0619 11:13:44.833621  2197 layer_factory.hpp:77] Creating layer Eltwise9_ReLU19_0_split
I0619 11:13:44.833628  2197 net.cpp:190] Creating Layer Eltwise9_ReLU19_0_split
I0619 11:13:44.833638  2197 net.cpp:615] Eltwise9_ReLU19_0_split <- Eltwise9
I0619 11:13:44.833647  2197 net.cpp:589] Eltwise9_ReLU19_0_split -> Eltwise9_ReLU19_0_split_0
I0619 11:13:44.833657  2197 net.cpp:589] Eltwise9_ReLU19_0_split -> Eltwise9_ReLU19_0_split_1
I0619 11:13:44.833709  2197 net.cpp:240] Setting up Eltwise9_ReLU19_0_split
I0619 11:13:44.833719  2197 net.cpp:247] Top shape: 128 16 32 32 (2097152)
I0619 11:13:44.833725  2197 net.cpp:247] Top shape: 128 16 32 32 (2097152)
I0619 11:13:44.833730  2197 net.cpp:255] Memory required for data: 882377216
I0619 11:13:44.833735  2197 layer_factory.hpp:77] Creating layer Convolution20
I0619 11:13:44.833751  2197 net.cpp:190] Creating Layer Convolution20
I0619 11:13:44.833758  2197 net.cpp:615] Convolution20 <- Eltwise9_ReLU19_0_split_0
I0619 11:13:44.833767  2197 net.cpp:589] Convolution20 -> Convolution20
I0619 11:13:44.834235  2197 net.cpp:240] Setting up Convolution20
I0619 11:13:44.834246  2197 net.cpp:247] Top shape: 128 16 32 32 (2097152)
I0619 11:13:44.834252  2197 net.cpp:255] Memory required for data: 890765824
I0619 11:13:44.834265  2197 layer_factory.hpp:77] Creating layer BatchNorm20
I0619 11:13:44.834278  2197 net.cpp:190] Creating Layer BatchNorm20
I0619 11:13:44.834285  2197 net.cpp:615] BatchNorm20 <- Convolution20
I0619 11:13:44.834295  2197 net.cpp:576] BatchNorm20 -> Convolution20 (in-place)
I0619 11:13:44.834604  2197 net.cpp:240] Setting up BatchNorm20
I0619 11:13:44.834615  2197 net.cpp:247] Top shape: 128 16 32 32 (2097152)
I0619 11:13:44.834620  2197 net.cpp:255] Memory required for data: 899154432
I0619 11:13:44.834635  2197 layer_factory.hpp:77] Creating layer Scale20
I0619 11:13:44.834645  2197 net.cpp:190] Creating Layer Scale20
I0619 11:13:44.834650  2197 net.cpp:615] Scale20 <- Convolution20
I0619 11:13:44.834661  2197 net.cpp:576] Scale20 -> Convolution20 (in-place)
I0619 11:13:44.834709  2197 layer_factory.hpp:77] Creating layer Scale20
I0619 11:13:44.834874  2197 net.cpp:240] Setting up Scale20
I0619 11:13:44.834884  2197 net.cpp:247] Top shape: 128 16 32 32 (2097152)
I0619 11:13:44.834889  2197 net.cpp:255] Memory required for data: 907543040
I0619 11:13:44.834902  2197 layer_factory.hpp:77] Creating layer ReLU20
I0619 11:13:44.834913  2197 net.cpp:190] Creating Layer ReLU20
I0619 11:13:44.834918  2197 net.cpp:615] ReLU20 <- Convolution20
I0619 11:13:44.834926  2197 net.cpp:576] ReLU20 -> Convolution20 (in-place)
I0619 11:13:44.834935  2197 net.cpp:240] Setting up ReLU20
I0619 11:13:44.834942  2197 net.cpp:247] Top shape: 128 16 32 32 (2097152)
I0619 11:13:44.834947  2197 net.cpp:255] Memory required for data: 915931648
I0619 11:13:44.834952  2197 layer_factory.hpp:77] Creating layer Convolution21
I0619 11:13:44.834969  2197 net.cpp:190] Creating Layer Convolution21
I0619 11:13:44.834975  2197 net.cpp:615] Convolution21 <- Convolution20
I0619 11:13:44.834986  2197 net.cpp:589] Convolution21 -> Convolution21
I0619 11:13:44.835432  2197 net.cpp:240] Setting up Convolution21
I0619 11:13:44.835443  2197 net.cpp:247] Top shape: 128 16 32 32 (2097152)
I0619 11:13:44.835448  2197 net.cpp:255] Memory required for data: 924320256
I0619 11:13:44.835459  2197 layer_factory.hpp:77] Creating layer BatchNorm21
I0619 11:13:44.835472  2197 net.cpp:190] Creating Layer BatchNorm21
I0619 11:13:44.835479  2197 net.cpp:615] BatchNorm21 <- Convolution21
I0619 11:13:44.835489  2197 net.cpp:576] BatchNorm21 -> Convolution21 (in-place)
I0619 11:13:44.835757  2197 net.cpp:240] Setting up BatchNorm21
I0619 11:13:44.835767  2197 net.cpp:247] Top shape: 128 16 32 32 (2097152)
I0619 11:13:44.835778  2197 net.cpp:255] Memory required for data: 932708864
I0619 11:13:44.835793  2197 layer_factory.hpp:77] Creating layer Scale21
I0619 11:13:44.835805  2197 net.cpp:190] Creating Layer Scale21
I0619 11:13:44.835811  2197 net.cpp:615] Scale21 <- Convolution21
I0619 11:13:44.835819  2197 net.cpp:576] Scale21 -> Convolution21 (in-place)
I0619 11:13:44.835865  2197 layer_factory.hpp:77] Creating layer Scale21
I0619 11:13:44.836024  2197 net.cpp:240] Setting up Scale21
I0619 11:13:44.836035  2197 net.cpp:247] Top shape: 128 16 32 32 (2097152)
I0619 11:13:44.836040  2197 net.cpp:255] Memory required for data: 941097472
I0619 11:13:44.836051  2197 layer_factory.hpp:77] Creating layer Eltwise10
I0619 11:13:44.836061  2197 net.cpp:190] Creating Layer Eltwise10
I0619 11:13:44.836066  2197 net.cpp:615] Eltwise10 <- Eltwise9_ReLU19_0_split_1
I0619 11:13:44.836073  2197 net.cpp:615] Eltwise10 <- Convolution21
I0619 11:13:44.836081  2197 net.cpp:589] Eltwise10 -> Eltwise10
I0619 11:13:44.836115  2197 net.cpp:240] Setting up Eltwise10
I0619 11:13:44.836124  2197 net.cpp:247] Top shape: 128 16 32 32 (2097152)
I0619 11:13:44.836129  2197 net.cpp:255] Memory required for data: 949486080
I0619 11:13:44.836134  2197 layer_factory.hpp:77] Creating layer ReLU21
I0619 11:13:44.836144  2197 net.cpp:190] Creating Layer ReLU21
I0619 11:13:44.836150  2197 net.cpp:615] ReLU21 <- Eltwise10
I0619 11:13:44.836158  2197 net.cpp:576] ReLU21 -> Eltwise10 (in-place)
I0619 11:13:44.836168  2197 net.cpp:240] Setting up ReLU21
I0619 11:13:44.836174  2197 net.cpp:247] Top shape: 128 16 32 32 (2097152)
I0619 11:13:44.836179  2197 net.cpp:255] Memory required for data: 957874688
I0619 11:13:44.836184  2197 layer_factory.hpp:77] Creating layer Eltwise10_ReLU21_0_split
I0619 11:13:44.836191  2197 net.cpp:190] Creating Layer Eltwise10_ReLU21_0_split
I0619 11:13:44.836196  2197 net.cpp:615] Eltwise10_ReLU21_0_split <- Eltwise10
I0619 11:13:44.836207  2197 net.cpp:589] Eltwise10_ReLU21_0_split -> Eltwise10_ReLU21_0_split_0
I0619 11:13:44.836217  2197 net.cpp:589] Eltwise10_ReLU21_0_split -> Eltwise10_ReLU21_0_split_1
I0619 11:13:44.836263  2197 net.cpp:240] Setting up Eltwise10_ReLU21_0_split
I0619 11:13:44.836272  2197 net.cpp:247] Top shape: 128 16 32 32 (2097152)
I0619 11:13:44.836278  2197 net.cpp:247] Top shape: 128 16 32 32 (2097152)
I0619 11:13:44.836283  2197 net.cpp:255] Memory required for data: 974651904
I0619 11:13:44.836287  2197 layer_factory.hpp:77] Creating layer Convolution22
I0619 11:13:44.836303  2197 net.cpp:190] Creating Layer Convolution22
I0619 11:13:44.836309  2197 net.cpp:615] Convolution22 <- Eltwise10_ReLU21_0_split_0
I0619 11:13:44.836318  2197 net.cpp:589] Convolution22 -> Convolution22
I0619 11:13:44.836776  2197 net.cpp:240] Setting up Convolution22
I0619 11:13:44.836786  2197 net.cpp:247] Top shape: 128 16 32 32 (2097152)
I0619 11:13:44.836791  2197 net.cpp:255] Memory required for data: 983040512
I0619 11:13:44.836803  2197 layer_factory.hpp:77] Creating layer BatchNorm22
I0619 11:13:44.836814  2197 net.cpp:190] Creating Layer BatchNorm22
I0619 11:13:44.836822  2197 net.cpp:615] BatchNorm22 <- Convolution22
I0619 11:13:44.836829  2197 net.cpp:576] BatchNorm22 -> Convolution22 (in-place)
I0619 11:13:44.837107  2197 net.cpp:240] Setting up BatchNorm22
I0619 11:13:44.837117  2197 net.cpp:247] Top shape: 128 16 32 32 (2097152)
I0619 11:13:44.837122  2197 net.cpp:255] Memory required for data: 991429120
I0619 11:13:44.837139  2197 layer_factory.hpp:77] Creating layer Scale22
I0619 11:13:44.837149  2197 net.cpp:190] Creating Layer Scale22
I0619 11:13:44.837155  2197 net.cpp:615] Scale22 <- Convolution22
I0619 11:13:44.837163  2197 net.cpp:576] Scale22 -> Convolution22 (in-place)
I0619 11:13:44.837213  2197 layer_factory.hpp:77] Creating layer Scale22
I0619 11:13:44.837375  2197 net.cpp:240] Setting up Scale22
I0619 11:13:44.837385  2197 net.cpp:247] Top shape: 128 16 32 32 (2097152)
I0619 11:13:44.837390  2197 net.cpp:255] Memory required for data: 999817728
I0619 11:13:44.837401  2197 layer_factory.hpp:77] Creating layer ReLU22
I0619 11:13:44.837417  2197 net.cpp:190] Creating Layer ReLU22
I0619 11:13:44.837424  2197 net.cpp:615] ReLU22 <- Convolution22
I0619 11:13:44.837431  2197 net.cpp:576] ReLU22 -> Convolution22 (in-place)
I0619 11:13:44.837441  2197 net.cpp:240] Setting up ReLU22
I0619 11:13:44.837448  2197 net.cpp:247] Top shape: 128 16 32 32 (2097152)
I0619 11:13:44.837453  2197 net.cpp:255] Memory required for data: 1008206336
I0619 11:13:44.837458  2197 layer_factory.hpp:77] Creating layer Convolution23
I0619 11:13:44.837473  2197 net.cpp:190] Creating Layer Convolution23
I0619 11:13:44.837479  2197 net.cpp:615] Convolution23 <- Convolution22
I0619 11:13:44.837488  2197 net.cpp:589] Convolution23 -> Convolution23
I0619 11:13:44.837942  2197 net.cpp:240] Setting up Convolution23
I0619 11:13:44.837954  2197 net.cpp:247] Top shape: 128 16 32 32 (2097152)
I0619 11:13:44.837960  2197 net.cpp:255] Memory required for data: 1016594944
I0619 11:13:44.837971  2197 layer_factory.hpp:77] Creating layer BatchNorm23
I0619 11:13:44.837983  2197 net.cpp:190] Creating Layer BatchNorm23
I0619 11:13:44.837990  2197 net.cpp:615] BatchNorm23 <- Convolution23
I0619 11:13:44.837997  2197 net.cpp:576] BatchNorm23 -> Convolution23 (in-place)
I0619 11:13:44.838273  2197 net.cpp:240] Setting up BatchNorm23
I0619 11:13:44.838282  2197 net.cpp:247] Top shape: 128 16 32 32 (2097152)
I0619 11:13:44.838289  2197 net.cpp:255] Memory required for data: 1024983552
I0619 11:13:44.838305  2197 layer_factory.hpp:77] Creating layer Scale23
I0619 11:13:44.838315  2197 net.cpp:190] Creating Layer Scale23
I0619 11:13:44.838320  2197 net.cpp:615] Scale23 <- Convolution23
I0619 11:13:44.838328  2197 net.cpp:576] Scale23 -> Convolution23 (in-place)
I0619 11:13:44.838387  2197 layer_factory.hpp:77] Creating layer Scale23
I0619 11:13:44.838551  2197 net.cpp:240] Setting up Scale23
I0619 11:13:44.838560  2197 net.cpp:247] Top shape: 128 16 32 32 (2097152)
I0619 11:13:44.838565  2197 net.cpp:255] Memory required for data: 1033372160
I0619 11:13:44.838578  2197 layer_factory.hpp:77] Creating layer Eltwise11
I0619 11:13:44.838589  2197 net.cpp:190] Creating Layer Eltwise11
I0619 11:13:44.838596  2197 net.cpp:615] Eltwise11 <- Eltwise10_ReLU21_0_split_1
I0619 11:13:44.838603  2197 net.cpp:615] Eltwise11 <- Convolution23
I0619 11:13:44.838611  2197 net.cpp:589] Eltwise11 -> Eltwise11
I0619 11:13:44.838646  2197 net.cpp:240] Setting up Eltwise11
I0619 11:13:44.838655  2197 net.cpp:247] Top shape: 128 16 32 32 (2097152)
I0619 11:13:44.838660  2197 net.cpp:255] Memory required for data: 1041760768
I0619 11:13:44.838665  2197 layer_factory.hpp:77] Creating layer ReLU23
I0619 11:13:44.838673  2197 net.cpp:190] Creating Layer ReLU23
I0619 11:13:44.838678  2197 net.cpp:615] ReLU23 <- Eltwise11
I0619 11:13:44.838690  2197 net.cpp:576] ReLU23 -> Eltwise11 (in-place)
I0619 11:13:44.838698  2197 net.cpp:240] Setting up ReLU23
I0619 11:13:44.838706  2197 net.cpp:247] Top shape: 128 16 32 32 (2097152)
I0619 11:13:44.838711  2197 net.cpp:255] Memory required for data: 1050149376
I0619 11:13:44.838716  2197 layer_factory.hpp:77] Creating layer Eltwise11_ReLU23_0_split
I0619 11:13:44.838723  2197 net.cpp:190] Creating Layer Eltwise11_ReLU23_0_split
I0619 11:13:44.838728  2197 net.cpp:615] Eltwise11_ReLU23_0_split <- Eltwise11
I0619 11:13:44.838735  2197 net.cpp:589] Eltwise11_ReLU23_0_split -> Eltwise11_ReLU23_0_split_0
I0619 11:13:44.838745  2197 net.cpp:589] Eltwise11_ReLU23_0_split -> Eltwise11_ReLU23_0_split_1
I0619 11:13:44.838795  2197 net.cpp:240] Setting up Eltwise11_ReLU23_0_split
I0619 11:13:44.838804  2197 net.cpp:247] Top shape: 128 16 32 32 (2097152)
I0619 11:13:44.838810  2197 net.cpp:247] Top shape: 128 16 32 32 (2097152)
I0619 11:13:44.838815  2197 net.cpp:255] Memory required for data: 1066926592
I0619 11:13:44.838820  2197 layer_factory.hpp:77] Creating layer Convolution24
I0619 11:13:44.838832  2197 net.cpp:190] Creating Layer Convolution24
I0619 11:13:44.838837  2197 net.cpp:615] Convolution24 <- Eltwise11_ReLU23_0_split_0
I0619 11:13:44.838851  2197 net.cpp:589] Convolution24 -> Convolution24
I0619 11:13:44.839316  2197 net.cpp:240] Setting up Convolution24
I0619 11:13:44.839329  2197 net.cpp:247] Top shape: 128 16 32 32 (2097152)
I0619 11:13:44.839334  2197 net.cpp:255] Memory required for data: 1075315200
I0619 11:13:44.839347  2197 layer_factory.hpp:77] Creating layer BatchNorm24
I0619 11:13:44.839357  2197 net.cpp:190] Creating Layer BatchNorm24
I0619 11:13:44.839364  2197 net.cpp:615] BatchNorm24 <- Convolution24
I0619 11:13:44.839375  2197 net.cpp:576] BatchNorm24 -> Convolution24 (in-place)
I0619 11:13:44.839646  2197 net.cpp:240] Setting up BatchNorm24
I0619 11:13:44.839656  2197 net.cpp:247] Top shape: 128 16 32 32 (2097152)
I0619 11:13:44.839661  2197 net.cpp:255] Memory required for data: 1083703808
I0619 11:13:44.839676  2197 layer_factory.hpp:77] Creating layer Scale24
I0619 11:13:44.839685  2197 net.cpp:190] Creating Layer Scale24
I0619 11:13:44.839691  2197 net.cpp:615] Scale24 <- Convolution24
I0619 11:13:44.839699  2197 net.cpp:576] Scale24 -> Convolution24 (in-place)
I0619 11:13:44.839747  2197 layer_factory.hpp:77] Creating layer Scale24
I0619 11:13:44.839911  2197 net.cpp:240] Setting up Scale24
I0619 11:13:44.839922  2197 net.cpp:247] Top shape: 128 16 32 32 (2097152)
I0619 11:13:44.839927  2197 net.cpp:255] Memory required for data: 1092092416
I0619 11:13:44.839939  2197 layer_factory.hpp:77] Creating layer ReLU24
I0619 11:13:44.839948  2197 net.cpp:190] Creating Layer ReLU24
I0619 11:13:44.839953  2197 net.cpp:615] ReLU24 <- Convolution24
I0619 11:13:44.839963  2197 net.cpp:576] ReLU24 -> Convolution24 (in-place)
I0619 11:13:44.839973  2197 net.cpp:240] Setting up ReLU24
I0619 11:13:44.839980  2197 net.cpp:247] Top shape: 128 16 32 32 (2097152)
I0619 11:13:44.839985  2197 net.cpp:255] Memory required for data: 1100481024
I0619 11:13:44.839990  2197 layer_factory.hpp:77] Creating layer Convolution25
I0619 11:13:44.840003  2197 net.cpp:190] Creating Layer Convolution25
I0619 11:13:44.840008  2197 net.cpp:615] Convolution25 <- Convolution24
I0619 11:13:44.840019  2197 net.cpp:589] Convolution25 -> Convolution25
I0619 11:13:44.840467  2197 net.cpp:240] Setting up Convolution25
I0619 11:13:44.840478  2197 net.cpp:247] Top shape: 128 16 32 32 (2097152)
I0619 11:13:44.840483  2197 net.cpp:255] Memory required for data: 1108869632
I0619 11:13:44.840495  2197 layer_factory.hpp:77] Creating layer BatchNorm25
I0619 11:13:44.840504  2197 net.cpp:190] Creating Layer BatchNorm25
I0619 11:13:44.840510  2197 net.cpp:615] BatchNorm25 <- Convolution25
I0619 11:13:44.840520  2197 net.cpp:576] BatchNorm25 -> Convolution25 (in-place)
I0619 11:13:44.840792  2197 net.cpp:240] Setting up BatchNorm25
I0619 11:13:44.840801  2197 net.cpp:247] Top shape: 128 16 32 32 (2097152)
I0619 11:13:44.840806  2197 net.cpp:255] Memory required for data: 1117258240
I0619 11:13:44.840821  2197 layer_factory.hpp:77] Creating layer Scale25
I0619 11:13:44.840831  2197 net.cpp:190] Creating Layer Scale25
I0619 11:13:44.840836  2197 net.cpp:615] Scale25 <- Convolution25
I0619 11:13:44.840847  2197 net.cpp:576] Scale25 -> Convolution25 (in-place)
I0619 11:13:44.840893  2197 layer_factory.hpp:77] Creating layer Scale25
I0619 11:13:44.841048  2197 net.cpp:240] Setting up Scale25
I0619 11:13:44.841058  2197 net.cpp:247] Top shape: 128 16 32 32 (2097152)
I0619 11:13:44.841063  2197 net.cpp:255] Memory required for data: 1125646848
I0619 11:13:44.841075  2197 layer_factory.hpp:77] Creating layer Eltwise12
I0619 11:13:44.841087  2197 net.cpp:190] Creating Layer Eltwise12
I0619 11:13:44.841094  2197 net.cpp:615] Eltwise12 <- Eltwise11_ReLU23_0_split_1
I0619 11:13:44.841101  2197 net.cpp:615] Eltwise12 <- Convolution25
I0619 11:13:44.841109  2197 net.cpp:589] Eltwise12 -> Eltwise12
I0619 11:13:44.841147  2197 net.cpp:240] Setting up Eltwise12
I0619 11:13:44.841156  2197 net.cpp:247] Top shape: 128 16 32 32 (2097152)
I0619 11:13:44.841161  2197 net.cpp:255] Memory required for data: 1134035456
I0619 11:13:44.841166  2197 layer_factory.hpp:77] Creating layer ReLU25
I0619 11:13:44.841174  2197 net.cpp:190] Creating Layer ReLU25
I0619 11:13:44.841183  2197 net.cpp:615] ReLU25 <- Eltwise12
I0619 11:13:44.841194  2197 net.cpp:576] ReLU25 -> Eltwise12 (in-place)
I0619 11:13:44.841203  2197 net.cpp:240] Setting up ReLU25
I0619 11:13:44.841212  2197 net.cpp:247] Top shape: 128 16 32 32 (2097152)
I0619 11:13:44.841217  2197 net.cpp:255] Memory required for data: 1142424064
I0619 11:13:44.841222  2197 layer_factory.hpp:77] Creating layer Eltwise12_ReLU25_0_split
I0619 11:13:44.841228  2197 net.cpp:190] Creating Layer Eltwise12_ReLU25_0_split
I0619 11:13:44.841233  2197 net.cpp:615] Eltwise12_ReLU25_0_split <- Eltwise12
I0619 11:13:44.841241  2197 net.cpp:589] Eltwise12_ReLU25_0_split -> Eltwise12_ReLU25_0_split_0
I0619 11:13:44.841251  2197 net.cpp:589] Eltwise12_ReLU25_0_split -> Eltwise12_ReLU25_0_split_1
I0619 11:13:44.841315  2197 net.cpp:240] Setting up Eltwise12_ReLU25_0_split
I0619 11:13:44.841325  2197 net.cpp:247] Top shape: 128 16 32 32 (2097152)
I0619 11:13:44.841331  2197 net.cpp:247] Top shape: 128 16 32 32 (2097152)
I0619 11:13:44.841336  2197 net.cpp:255] Memory required for data: 1159201280
I0619 11:13:44.841341  2197 layer_factory.hpp:77] Creating layer Convolution26
I0619 11:13:44.841357  2197 net.cpp:190] Creating Layer Convolution26
I0619 11:13:44.841363  2197 net.cpp:615] Convolution26 <- Eltwise12_ReLU25_0_split_0
I0619 11:13:44.841373  2197 net.cpp:589] Convolution26 -> Convolution26
I0619 11:13:44.841825  2197 net.cpp:240] Setting up Convolution26
I0619 11:13:44.841835  2197 net.cpp:247] Top shape: 128 16 32 32 (2097152)
I0619 11:13:44.841840  2197 net.cpp:255] Memory required for data: 1167589888
I0619 11:13:44.841852  2197 layer_factory.hpp:77] Creating layer BatchNorm26
I0619 11:13:44.841868  2197 net.cpp:190] Creating Layer BatchNorm26
I0619 11:13:44.841874  2197 net.cpp:615] BatchNorm26 <- Convolution26
I0619 11:13:44.841882  2197 net.cpp:576] BatchNorm26 -> Convolution26 (in-place)
I0619 11:13:44.842151  2197 net.cpp:240] Setting up BatchNorm26
I0619 11:13:44.842160  2197 net.cpp:247] Top shape: 128 16 32 32 (2097152)
I0619 11:13:44.842165  2197 net.cpp:255] Memory required for data: 1175978496
I0619 11:13:44.842185  2197 layer_factory.hpp:77] Creating layer Scale26
I0619 11:13:44.842211  2197 net.cpp:190] Creating Layer Scale26
I0619 11:13:44.842217  2197 net.cpp:615] Scale26 <- Convolution26
I0619 11:13:44.842226  2197 net.cpp:576] Scale26 -> Convolution26 (in-place)
I0619 11:13:44.842279  2197 layer_factory.hpp:77] Creating layer Scale26
I0619 11:13:44.842453  2197 net.cpp:240] Setting up Scale26
I0619 11:13:44.842464  2197 net.cpp:247] Top shape: 128 16 32 32 (2097152)
I0619 11:13:44.842469  2197 net.cpp:255] Memory required for data: 1184367104
I0619 11:13:44.842483  2197 layer_factory.hpp:77] Creating layer ReLU26
I0619 11:13:44.842491  2197 net.cpp:190] Creating Layer ReLU26
I0619 11:13:44.842496  2197 net.cpp:615] ReLU26 <- Convolution26
I0619 11:13:44.842507  2197 net.cpp:576] ReLU26 -> Convolution26 (in-place)
I0619 11:13:44.842516  2197 net.cpp:240] Setting up ReLU26
I0619 11:13:44.842525  2197 net.cpp:247] Top shape: 128 16 32 32 (2097152)
I0619 11:13:44.842530  2197 net.cpp:255] Memory required for data: 1192755712
I0619 11:13:44.842535  2197 layer_factory.hpp:77] Creating layer Convolution27
I0619 11:13:44.842546  2197 net.cpp:190] Creating Layer Convolution27
I0619 11:13:44.842551  2197 net.cpp:615] Convolution27 <- Convolution26
I0619 11:13:44.842561  2197 net.cpp:589] Convolution27 -> Convolution27
I0619 11:13:44.843003  2197 net.cpp:240] Setting up Convolution27
I0619 11:13:44.843014  2197 net.cpp:247] Top shape: 128 16 32 32 (2097152)
I0619 11:13:44.843019  2197 net.cpp:255] Memory required for data: 1201144320
I0619 11:13:44.843030  2197 layer_factory.hpp:77] Creating layer BatchNorm27
I0619 11:13:44.843042  2197 net.cpp:190] Creating Layer BatchNorm27
I0619 11:13:44.843049  2197 net.cpp:615] BatchNorm27 <- Convolution27
I0619 11:13:44.843060  2197 net.cpp:576] BatchNorm27 -> Convolution27 (in-place)
I0619 11:13:44.843340  2197 net.cpp:240] Setting up BatchNorm27
I0619 11:13:44.843350  2197 net.cpp:247] Top shape: 128 16 32 32 (2097152)
I0619 11:13:44.843359  2197 net.cpp:255] Memory required for data: 1209532928
I0619 11:13:44.843377  2197 layer_factory.hpp:77] Creating layer Scale27
I0619 11:13:44.843387  2197 net.cpp:190] Creating Layer Scale27
I0619 11:13:44.843394  2197 net.cpp:615] Scale27 <- Convolution27
I0619 11:13:44.843401  2197 net.cpp:576] Scale27 -> Convolution27 (in-place)
I0619 11:13:44.843451  2197 layer_factory.hpp:77] Creating layer Scale27
I0619 11:13:44.843618  2197 net.cpp:240] Setting up Scale27
I0619 11:13:44.843628  2197 net.cpp:247] Top shape: 128 16 32 32 (2097152)
I0619 11:13:44.843633  2197 net.cpp:255] Memory required for data: 1217921536
I0619 11:13:44.843644  2197 layer_factory.hpp:77] Creating layer Eltwise13
I0619 11:13:44.843653  2197 net.cpp:190] Creating Layer Eltwise13
I0619 11:13:44.843660  2197 net.cpp:615] Eltwise13 <- Eltwise12_ReLU25_0_split_1
I0619 11:13:44.843669  2197 net.cpp:615] Eltwise13 <- Convolution27
I0619 11:13:44.843678  2197 net.cpp:589] Eltwise13 -> Eltwise13
I0619 11:13:44.843713  2197 net.cpp:240] Setting up Eltwise13
I0619 11:13:44.843722  2197 net.cpp:247] Top shape: 128 16 32 32 (2097152)
I0619 11:13:44.843727  2197 net.cpp:255] Memory required for data: 1226310144
I0619 11:13:44.843732  2197 layer_factory.hpp:77] Creating layer ReLU27
I0619 11:13:44.843740  2197 net.cpp:190] Creating Layer ReLU27
I0619 11:13:44.843745  2197 net.cpp:615] ReLU27 <- Eltwise13
I0619 11:13:44.843753  2197 net.cpp:576] ReLU27 -> Eltwise13 (in-place)
I0619 11:13:44.843761  2197 net.cpp:240] Setting up ReLU27
I0619 11:13:44.843768  2197 net.cpp:247] Top shape: 128 16 32 32 (2097152)
I0619 11:13:44.843773  2197 net.cpp:255] Memory required for data: 1234698752
I0619 11:13:44.843778  2197 layer_factory.hpp:77] Creating layer Eltwise13_ReLU27_0_split
I0619 11:13:44.843789  2197 net.cpp:190] Creating Layer Eltwise13_ReLU27_0_split
I0619 11:13:44.843794  2197 net.cpp:615] Eltwise13_ReLU27_0_split <- Eltwise13
I0619 11:13:44.843802  2197 net.cpp:589] Eltwise13_ReLU27_0_split -> Eltwise13_ReLU27_0_split_0
I0619 11:13:44.843811  2197 net.cpp:589] Eltwise13_ReLU27_0_split -> Eltwise13_ReLU27_0_split_1
I0619 11:13:44.843861  2197 net.cpp:240] Setting up Eltwise13_ReLU27_0_split
I0619 11:13:44.843869  2197 net.cpp:247] Top shape: 128 16 32 32 (2097152)
I0619 11:13:44.843876  2197 net.cpp:247] Top shape: 128 16 32 32 (2097152)
I0619 11:13:44.843881  2197 net.cpp:255] Memory required for data: 1251475968
I0619 11:13:44.843886  2197 layer_factory.hpp:77] Creating layer Convolution28
I0619 11:13:44.843899  2197 net.cpp:190] Creating Layer Convolution28
I0619 11:13:44.843904  2197 net.cpp:615] Convolution28 <- Eltwise13_ReLU27_0_split_0
I0619 11:13:44.843916  2197 net.cpp:589] Convolution28 -> Convolution28
I0619 11:13:44.844358  2197 net.cpp:240] Setting up Convolution28
I0619 11:13:44.844369  2197 net.cpp:247] Top shape: 128 16 32 32 (2097152)
I0619 11:13:44.844374  2197 net.cpp:255] Memory required for data: 1259864576
I0619 11:13:44.844386  2197 layer_factory.hpp:77] Creating layer BatchNorm28
I0619 11:13:44.844395  2197 net.cpp:190] Creating Layer BatchNorm28
I0619 11:13:44.844401  2197 net.cpp:615] BatchNorm28 <- Convolution28
I0619 11:13:44.844409  2197 net.cpp:576] BatchNorm28 -> Convolution28 (in-place)
I0619 11:13:44.844682  2197 net.cpp:240] Setting up BatchNorm28
I0619 11:13:44.844691  2197 net.cpp:247] Top shape: 128 16 32 32 (2097152)
I0619 11:13:44.844696  2197 net.cpp:255] Memory required for data: 1268253184
I0619 11:13:44.844712  2197 layer_factory.hpp:77] Creating layer Scale28
I0619 11:13:44.844720  2197 net.cpp:190] Creating Layer Scale28
I0619 11:13:44.844725  2197 net.cpp:615] Scale28 <- Convolution28
I0619 11:13:44.844733  2197 net.cpp:576] Scale28 -> Convolution28 (in-place)
I0619 11:13:44.844784  2197 layer_factory.hpp:77] Creating layer Scale28
I0619 11:13:44.844943  2197 net.cpp:240] Setting up Scale28
I0619 11:13:44.844952  2197 net.cpp:247] Top shape: 128 16 32 32 (2097152)
I0619 11:13:44.844956  2197 net.cpp:255] Memory required for data: 1276641792
I0619 11:13:44.844976  2197 layer_factory.hpp:77] Creating layer ReLU28
I0619 11:13:44.844986  2197 net.cpp:190] Creating Layer ReLU28
I0619 11:13:44.844991  2197 net.cpp:615] ReLU28 <- Convolution28
I0619 11:13:44.845002  2197 net.cpp:576] ReLU28 -> Convolution28 (in-place)
I0619 11:13:44.845011  2197 net.cpp:240] Setting up ReLU28
I0619 11:13:44.845018  2197 net.cpp:247] Top shape: 128 16 32 32 (2097152)
I0619 11:13:44.845023  2197 net.cpp:255] Memory required for data: 1285030400
I0619 11:13:44.845028  2197 layer_factory.hpp:77] Creating layer Convolution29
I0619 11:13:44.845041  2197 net.cpp:190] Creating Layer Convolution29
I0619 11:13:44.845046  2197 net.cpp:615] Convolution29 <- Convolution28
I0619 11:13:44.845057  2197 net.cpp:589] Convolution29 -> Convolution29
I0619 11:13:44.845520  2197 net.cpp:240] Setting up Convolution29
I0619 11:13:44.845532  2197 net.cpp:247] Top shape: 128 16 32 32 (2097152)
I0619 11:13:44.845537  2197 net.cpp:255] Memory required for data: 1293419008
I0619 11:13:44.845549  2197 layer_factory.hpp:77] Creating layer BatchNorm29
I0619 11:13:44.845559  2197 net.cpp:190] Creating Layer BatchNorm29
I0619 11:13:44.845566  2197 net.cpp:615] BatchNorm29 <- Convolution29
I0619 11:13:44.845577  2197 net.cpp:576] BatchNorm29 -> Convolution29 (in-place)
I0619 11:13:44.845849  2197 net.cpp:240] Setting up BatchNorm29
I0619 11:13:44.845859  2197 net.cpp:247] Top shape: 128 16 32 32 (2097152)
I0619 11:13:44.845863  2197 net.cpp:255] Memory required for data: 1301807616
I0619 11:13:44.845880  2197 layer_factory.hpp:77] Creating layer Scale29
I0619 11:13:44.845888  2197 net.cpp:190] Creating Layer Scale29
I0619 11:13:44.845895  2197 net.cpp:615] Scale29 <- Convolution29
I0619 11:13:44.845901  2197 net.cpp:576] Scale29 -> Convolution29 (in-place)
I0619 11:13:44.845952  2197 layer_factory.hpp:77] Creating layer Scale29
I0619 11:13:44.846114  2197 net.cpp:240] Setting up Scale29
I0619 11:13:44.846124  2197 net.cpp:247] Top shape: 128 16 32 32 (2097152)
I0619 11:13:44.846129  2197 net.cpp:255] Memory required for data: 1310196224
I0619 11:13:44.846141  2197 layer_factory.hpp:77] Creating layer Eltwise14
I0619 11:13:44.846153  2197 net.cpp:190] Creating Layer Eltwise14
I0619 11:13:44.846159  2197 net.cpp:615] Eltwise14 <- Eltwise13_ReLU27_0_split_1
I0619 11:13:44.846166  2197 net.cpp:615] Eltwise14 <- Convolution29
I0619 11:13:44.846174  2197 net.cpp:589] Eltwise14 -> Eltwise14
I0619 11:13:44.846206  2197 net.cpp:240] Setting up Eltwise14
I0619 11:13:44.846215  2197 net.cpp:247] Top shape: 128 16 32 32 (2097152)
I0619 11:13:44.846220  2197 net.cpp:255] Memory required for data: 1318584832
I0619 11:13:44.846225  2197 layer_factory.hpp:77] Creating layer ReLU29
I0619 11:13:44.846235  2197 net.cpp:190] Creating Layer ReLU29
I0619 11:13:44.846240  2197 net.cpp:615] ReLU29 <- Eltwise14
I0619 11:13:44.846251  2197 net.cpp:576] ReLU29 -> Eltwise14 (in-place)
I0619 11:13:44.846259  2197 net.cpp:240] Setting up ReLU29
I0619 11:13:44.846266  2197 net.cpp:247] Top shape: 128 16 32 32 (2097152)
I0619 11:13:44.846271  2197 net.cpp:255] Memory required for data: 1326973440
I0619 11:13:44.846276  2197 layer_factory.hpp:77] Creating layer Eltwise14_ReLU29_0_split
I0619 11:13:44.846283  2197 net.cpp:190] Creating Layer Eltwise14_ReLU29_0_split
I0619 11:13:44.846289  2197 net.cpp:615] Eltwise14_ReLU29_0_split <- Eltwise14
I0619 11:13:44.846297  2197 net.cpp:589] Eltwise14_ReLU29_0_split -> Eltwise14_ReLU29_0_split_0
I0619 11:13:44.846305  2197 net.cpp:589] Eltwise14_ReLU29_0_split -> Eltwise14_ReLU29_0_split_1
I0619 11:13:44.846366  2197 net.cpp:240] Setting up Eltwise14_ReLU29_0_split
I0619 11:13:44.846386  2197 net.cpp:247] Top shape: 128 16 32 32 (2097152)
I0619 11:13:44.846392  2197 net.cpp:247] Top shape: 128 16 32 32 (2097152)
I0619 11:13:44.846397  2197 net.cpp:255] Memory required for data: 1343750656
I0619 11:13:44.846402  2197 layer_factory.hpp:77] Creating layer Convolution30
I0619 11:13:44.846416  2197 net.cpp:190] Creating Layer Convolution30
I0619 11:13:44.846422  2197 net.cpp:615] Convolution30 <- Eltwise14_ReLU29_0_split_0
I0619 11:13:44.846436  2197 net.cpp:589] Convolution30 -> Convolution30
I0619 11:13:44.846865  2197 net.cpp:240] Setting up Convolution30
I0619 11:13:44.846875  2197 net.cpp:247] Top shape: 128 16 32 32 (2097152)
I0619 11:13:44.846880  2197 net.cpp:255] Memory required for data: 1352139264
I0619 11:13:44.846891  2197 layer_factory.hpp:77] Creating layer BatchNorm30
I0619 11:13:44.846904  2197 net.cpp:190] Creating Layer BatchNorm30
I0619 11:13:44.846909  2197 net.cpp:615] BatchNorm30 <- Convolution30
I0619 11:13:44.846916  2197 net.cpp:576] BatchNorm30 -> Convolution30 (in-place)
I0619 11:13:44.847179  2197 net.cpp:240] Setting up BatchNorm30
I0619 11:13:44.847189  2197 net.cpp:247] Top shape: 128 16 32 32 (2097152)
I0619 11:13:44.847194  2197 net.cpp:255] Memory required for data: 1360527872
I0619 11:13:44.847208  2197 layer_factory.hpp:77] Creating layer Scale30
I0619 11:13:44.847218  2197 net.cpp:190] Creating Layer Scale30
I0619 11:13:44.847224  2197 net.cpp:615] Scale30 <- Convolution30
I0619 11:13:44.847231  2197 net.cpp:576] Scale30 -> Convolution30 (in-place)
I0619 11:13:44.847275  2197 layer_factory.hpp:77] Creating layer Scale30
I0619 11:13:44.847429  2197 net.cpp:240] Setting up Scale30
I0619 11:13:44.847442  2197 net.cpp:247] Top shape: 128 16 32 32 (2097152)
I0619 11:13:44.847447  2197 net.cpp:255] Memory required for data: 1368916480
I0619 11:13:44.847458  2197 layer_factory.hpp:77] Creating layer ReLU30
I0619 11:13:44.847466  2197 net.cpp:190] Creating Layer ReLU30
I0619 11:13:44.847472  2197 net.cpp:615] ReLU30 <- Convolution30
I0619 11:13:44.847479  2197 net.cpp:576] ReLU30 -> Convolution30 (in-place)
I0619 11:13:44.847487  2197 net.cpp:240] Setting up ReLU30
I0619 11:13:44.847494  2197 net.cpp:247] Top shape: 128 16 32 32 (2097152)
I0619 11:13:44.847498  2197 net.cpp:255] Memory required for data: 1377305088
I0619 11:13:44.847503  2197 layer_factory.hpp:77] Creating layer Convolution31
I0619 11:13:44.847517  2197 net.cpp:190] Creating Layer Convolution31
I0619 11:13:44.847523  2197 net.cpp:615] Convolution31 <- Convolution30
I0619 11:13:44.847534  2197 net.cpp:589] Convolution31 -> Convolution31
I0619 11:13:44.847961  2197 net.cpp:240] Setting up Convolution31
I0619 11:13:44.847971  2197 net.cpp:247] Top shape: 128 16 32 32 (2097152)
I0619 11:13:44.847976  2197 net.cpp:255] Memory required for data: 1385693696
I0619 11:13:44.847986  2197 layer_factory.hpp:77] Creating layer BatchNorm31
I0619 11:13:44.847998  2197 net.cpp:190] Creating Layer BatchNorm31
I0619 11:13:44.848004  2197 net.cpp:615] BatchNorm31 <- Convolution31
I0619 11:13:44.848014  2197 net.cpp:576] BatchNorm31 -> Convolution31 (in-place)
I0619 11:13:44.848271  2197 net.cpp:240] Setting up BatchNorm31
I0619 11:13:44.848280  2197 net.cpp:247] Top shape: 128 16 32 32 (2097152)
I0619 11:13:44.848285  2197 net.cpp:255] Memory required for data: 1394082304
I0619 11:13:44.848299  2197 layer_factory.hpp:77] Creating layer Scale31
I0619 11:13:44.848310  2197 net.cpp:190] Creating Layer Scale31
I0619 11:13:44.848316  2197 net.cpp:615] Scale31 <- Convolution31
I0619 11:13:44.848323  2197 net.cpp:576] Scale31 -> Convolution31 (in-place)
I0619 11:13:44.848369  2197 layer_factory.hpp:77] Creating layer Scale31
I0619 11:13:44.848525  2197 net.cpp:240] Setting up Scale31
I0619 11:13:44.848534  2197 net.cpp:247] Top shape: 128 16 32 32 (2097152)
I0619 11:13:44.848539  2197 net.cpp:255] Memory required for data: 1402470912
I0619 11:13:44.848549  2197 layer_factory.hpp:77] Creating layer Eltwise15
I0619 11:13:44.848558  2197 net.cpp:190] Creating Layer Eltwise15
I0619 11:13:44.848564  2197 net.cpp:615] Eltwise15 <- Eltwise14_ReLU29_0_split_1
I0619 11:13:44.848572  2197 net.cpp:615] Eltwise15 <- Convolution31
I0619 11:13:44.848585  2197 net.cpp:589] Eltwise15 -> Eltwise15
I0619 11:13:44.848619  2197 net.cpp:240] Setting up Eltwise15
I0619 11:13:44.848628  2197 net.cpp:247] Top shape: 128 16 32 32 (2097152)
I0619 11:13:44.848633  2197 net.cpp:255] Memory required for data: 1410859520
I0619 11:13:44.848637  2197 layer_factory.hpp:77] Creating layer ReLU31
I0619 11:13:44.848649  2197 net.cpp:190] Creating Layer ReLU31
I0619 11:13:44.848654  2197 net.cpp:615] ReLU31 <- Eltwise15
I0619 11:13:44.848661  2197 net.cpp:576] ReLU31 -> Eltwise15 (in-place)
I0619 11:13:44.848670  2197 net.cpp:240] Setting up ReLU31
I0619 11:13:44.848676  2197 net.cpp:247] Top shape: 128 16 32 32 (2097152)
I0619 11:13:44.848681  2197 net.cpp:255] Memory required for data: 1419248128
I0619 11:13:44.848686  2197 layer_factory.hpp:77] Creating layer Eltwise15_ReLU31_0_split
I0619 11:13:44.848693  2197 net.cpp:190] Creating Layer Eltwise15_ReLU31_0_split
I0619 11:13:44.848698  2197 net.cpp:615] Eltwise15_ReLU31_0_split <- Eltwise15
I0619 11:13:44.848708  2197 net.cpp:589] Eltwise15_ReLU31_0_split -> Eltwise15_ReLU31_0_split_0
I0619 11:13:44.848717  2197 net.cpp:589] Eltwise15_ReLU31_0_split -> Eltwise15_ReLU31_0_split_1
I0619 11:13:44.848767  2197 net.cpp:240] Setting up Eltwise15_ReLU31_0_split
I0619 11:13:44.848774  2197 net.cpp:247] Top shape: 128 16 32 32 (2097152)
I0619 11:13:44.848780  2197 net.cpp:247] Top shape: 128 16 32 32 (2097152)
I0619 11:13:44.848785  2197 net.cpp:255] Memory required for data: 1436025344
I0619 11:13:44.848790  2197 layer_factory.hpp:77] Creating layer Convolution32
I0619 11:13:44.848801  2197 net.cpp:190] Creating Layer Convolution32
I0619 11:13:44.848806  2197 net.cpp:615] Convolution32 <- Eltwise15_ReLU31_0_split_0
I0619 11:13:44.848815  2197 net.cpp:589] Convolution32 -> Convolution32
I0619 11:13:44.849239  2197 net.cpp:240] Setting up Convolution32
I0619 11:13:44.849249  2197 net.cpp:247] Top shape: 128 16 32 32 (2097152)
I0619 11:13:44.849254  2197 net.cpp:255] Memory required for data: 1444413952
I0619 11:13:44.849267  2197 layer_factory.hpp:77] Creating layer BatchNorm32
I0619 11:13:44.849277  2197 net.cpp:190] Creating Layer BatchNorm32
I0619 11:13:44.849283  2197 net.cpp:615] BatchNorm32 <- Convolution32
I0619 11:13:44.849290  2197 net.cpp:576] BatchNorm32 -> Convolution32 (in-place)
I0619 11:13:44.849557  2197 net.cpp:240] Setting up BatchNorm32
I0619 11:13:44.849567  2197 net.cpp:247] Top shape: 128 16 32 32 (2097152)
I0619 11:13:44.849571  2197 net.cpp:255] Memory required for data: 1452802560
I0619 11:13:44.849586  2197 layer_factory.hpp:77] Creating layer Scale32
I0619 11:13:44.849594  2197 net.cpp:190] Creating Layer Scale32
I0619 11:13:44.849601  2197 net.cpp:615] Scale32 <- Convolution32
I0619 11:13:44.849607  2197 net.cpp:576] Scale32 -> Convolution32 (in-place)
I0619 11:13:44.849653  2197 layer_factory.hpp:77] Creating layer Scale32
I0619 11:13:44.849805  2197 net.cpp:240] Setting up Scale32
I0619 11:13:44.849815  2197 net.cpp:247] Top shape: 128 16 32 32 (2097152)
I0619 11:13:44.849819  2197 net.cpp:255] Memory required for data: 1461191168
I0619 11:13:44.849831  2197 layer_factory.hpp:77] Creating layer ReLU32
I0619 11:13:44.849843  2197 net.cpp:190] Creating Layer ReLU32
I0619 11:13:44.849849  2197 net.cpp:615] ReLU32 <- Convolution32
I0619 11:13:44.849856  2197 net.cpp:576] ReLU32 -> Convolution32 (in-place)
I0619 11:13:44.849864  2197 net.cpp:240] Setting up ReLU32
I0619 11:13:44.849871  2197 net.cpp:247] Top shape: 128 16 32 32 (2097152)
I0619 11:13:44.849876  2197 net.cpp:255] Memory required for data: 1469579776
I0619 11:13:44.849880  2197 layer_factory.hpp:77] Creating layer Convolution33
I0619 11:13:44.849895  2197 net.cpp:190] Creating Layer Convolution33
I0619 11:13:44.849900  2197 net.cpp:615] Convolution33 <- Convolution32
I0619 11:13:44.849911  2197 net.cpp:589] Convolution33 -> Convolution33
I0619 11:13:44.850333  2197 net.cpp:240] Setting up Convolution33
I0619 11:13:44.850343  2197 net.cpp:247] Top shape: 128 16 32 32 (2097152)
I0619 11:13:44.850348  2197 net.cpp:255] Memory required for data: 1477968384
I0619 11:13:44.850366  2197 layer_factory.hpp:77] Creating layer BatchNorm33
I0619 11:13:44.850376  2197 net.cpp:190] Creating Layer BatchNorm33
I0619 11:13:44.850381  2197 net.cpp:615] BatchNorm33 <- Convolution33
I0619 11:13:44.850389  2197 net.cpp:576] BatchNorm33 -> Convolution33 (in-place)
I0619 11:13:44.850656  2197 net.cpp:240] Setting up BatchNorm33
I0619 11:13:44.850668  2197 net.cpp:247] Top shape: 128 16 32 32 (2097152)
I0619 11:13:44.850673  2197 net.cpp:255] Memory required for data: 1486356992
I0619 11:13:44.850688  2197 layer_factory.hpp:77] Creating layer Scale33
I0619 11:13:44.850697  2197 net.cpp:190] Creating Layer Scale33
I0619 11:13:44.850702  2197 net.cpp:615] Scale33 <- Convolution33
I0619 11:13:44.850709  2197 net.cpp:576] Scale33 -> Convolution33 (in-place)
I0619 11:13:44.850760  2197 layer_factory.hpp:77] Creating layer Scale33
I0619 11:13:44.850914  2197 net.cpp:240] Setting up Scale33
I0619 11:13:44.850922  2197 net.cpp:247] Top shape: 128 16 32 32 (2097152)
I0619 11:13:44.850927  2197 net.cpp:255] Memory required for data: 1494745600
I0619 11:13:44.850941  2197 layer_factory.hpp:77] Creating layer Eltwise16
I0619 11:13:44.850950  2197 net.cpp:190] Creating Layer Eltwise16
I0619 11:13:44.850956  2197 net.cpp:615] Eltwise16 <- Eltwise15_ReLU31_0_split_1
I0619 11:13:44.850963  2197 net.cpp:615] Eltwise16 <- Convolution33
I0619 11:13:44.850973  2197 net.cpp:589] Eltwise16 -> Eltwise16
I0619 11:13:44.851004  2197 net.cpp:240] Setting up Eltwise16
I0619 11:13:44.851012  2197 net.cpp:247] Top shape: 128 16 32 32 (2097152)
I0619 11:13:44.851016  2197 net.cpp:255] Memory required for data: 1503134208
I0619 11:13:44.851022  2197 layer_factory.hpp:77] Creating layer ReLU33
I0619 11:13:44.851032  2197 net.cpp:190] Creating Layer ReLU33
I0619 11:13:44.851037  2197 net.cpp:615] ReLU33 <- Eltwise16
I0619 11:13:44.851044  2197 net.cpp:576] ReLU33 -> Eltwise16 (in-place)
I0619 11:13:44.851053  2197 net.cpp:240] Setting up ReLU33
I0619 11:13:44.851059  2197 net.cpp:247] Top shape: 128 16 32 32 (2097152)
I0619 11:13:44.851064  2197 net.cpp:255] Memory required for data: 1511522816
I0619 11:13:44.851069  2197 layer_factory.hpp:77] Creating layer Eltwise16_ReLU33_0_split
I0619 11:13:44.851076  2197 net.cpp:190] Creating Layer Eltwise16_ReLU33_0_split
I0619 11:13:44.851083  2197 net.cpp:615] Eltwise16_ReLU33_0_split <- Eltwise16
I0619 11:13:44.851091  2197 net.cpp:589] Eltwise16_ReLU33_0_split -> Eltwise16_ReLU33_0_split_0
I0619 11:13:44.851100  2197 net.cpp:589] Eltwise16_ReLU33_0_split -> Eltwise16_ReLU33_0_split_1
I0619 11:13:44.851147  2197 net.cpp:240] Setting up Eltwise16_ReLU33_0_split
I0619 11:13:44.851156  2197 net.cpp:247] Top shape: 128 16 32 32 (2097152)
I0619 11:13:44.851162  2197 net.cpp:247] Top shape: 128 16 32 32 (2097152)
I0619 11:13:44.851167  2197 net.cpp:255] Memory required for data: 1528300032
I0619 11:13:44.851171  2197 layer_factory.hpp:77] Creating layer Convolution34
I0619 11:13:44.851186  2197 net.cpp:190] Creating Layer Convolution34
I0619 11:13:44.851191  2197 net.cpp:615] Convolution34 <- Eltwise16_ReLU33_0_split_0
I0619 11:13:44.851200  2197 net.cpp:589] Convolution34 -> Convolution34
I0619 11:13:44.851626  2197 net.cpp:240] Setting up Convolution34
I0619 11:13:44.851637  2197 net.cpp:247] Top shape: 128 16 32 32 (2097152)
I0619 11:13:44.851642  2197 net.cpp:255] Memory required for data: 1536688640
I0619 11:13:44.851654  2197 layer_factory.hpp:77] Creating layer BatchNorm34
I0619 11:13:44.851665  2197 net.cpp:190] Creating Layer BatchNorm34
I0619 11:13:44.851671  2197 net.cpp:615] BatchNorm34 <- Convolution34
I0619 11:13:44.851680  2197 net.cpp:576] BatchNorm34 -> Convolution34 (in-place)
I0619 11:13:44.851945  2197 net.cpp:240] Setting up BatchNorm34
I0619 11:13:44.851954  2197 net.cpp:247] Top shape: 128 16 32 32 (2097152)
I0619 11:13:44.851959  2197 net.cpp:255] Memory required for data: 1545077248
I0619 11:13:44.851974  2197 layer_factory.hpp:77] Creating layer Scale34
I0619 11:13:44.851981  2197 net.cpp:190] Creating Layer Scale34
I0619 11:13:44.851987  2197 net.cpp:615] Scale34 <- Convolution34
I0619 11:13:44.851997  2197 net.cpp:576] Scale34 -> Convolution34 (in-place)
I0619 11:13:44.852041  2197 layer_factory.hpp:77] Creating layer Scale34
I0619 11:13:44.852198  2197 net.cpp:240] Setting up Scale34
I0619 11:13:44.852207  2197 net.cpp:247] Top shape: 128 16 32 32 (2097152)
I0619 11:13:44.852211  2197 net.cpp:255] Memory required for data: 1553465856
I0619 11:13:44.852228  2197 layer_factory.hpp:77] Creating layer ReLU34
I0619 11:13:44.852241  2197 net.cpp:190] Creating Layer ReLU34
I0619 11:13:44.852246  2197 net.cpp:615] ReLU34 <- Convolution34
I0619 11:13:44.852252  2197 net.cpp:576] ReLU34 -> Convolution34 (in-place)
I0619 11:13:44.852262  2197 net.cpp:240] Setting up ReLU34
I0619 11:13:44.852268  2197 net.cpp:247] Top shape: 128 16 32 32 (2097152)
I0619 11:13:44.852272  2197 net.cpp:255] Memory required for data: 1561854464
I0619 11:13:44.852277  2197 layer_factory.hpp:77] Creating layer Convolution35
I0619 11:13:44.852291  2197 net.cpp:190] Creating Layer Convolution35
I0619 11:13:44.852298  2197 net.cpp:615] Convolution35 <- Convolution34
I0619 11:13:44.852308  2197 net.cpp:589] Convolution35 -> Convolution35
I0619 11:13:44.852746  2197 net.cpp:240] Setting up Convolution35
I0619 11:13:44.852756  2197 net.cpp:247] Top shape: 128 16 32 32 (2097152)
I0619 11:13:44.852761  2197 net.cpp:255] Memory required for data: 1570243072
I0619 11:13:44.852771  2197 layer_factory.hpp:77] Creating layer BatchNorm35
I0619 11:13:44.852783  2197 net.cpp:190] Creating Layer BatchNorm35
I0619 11:13:44.852788  2197 net.cpp:615] BatchNorm35 <- Convolution35
I0619 11:13:44.852798  2197 net.cpp:576] BatchNorm35 -> Convolution35 (in-place)
I0619 11:13:44.853056  2197 net.cpp:240] Setting up BatchNorm35
I0619 11:13:44.853065  2197 net.cpp:247] Top shape: 128 16 32 32 (2097152)
I0619 11:13:44.853070  2197 net.cpp:255] Memory required for data: 1578631680
I0619 11:13:44.853085  2197 layer_factory.hpp:77] Creating layer Scale35
I0619 11:13:44.853096  2197 net.cpp:190] Creating Layer Scale35
I0619 11:13:44.853101  2197 net.cpp:615] Scale35 <- Convolution35
I0619 11:13:44.853108  2197 net.cpp:576] Scale35 -> Convolution35 (in-place)
I0619 11:13:44.853152  2197 layer_factory.hpp:77] Creating layer Scale35
I0619 11:13:44.853305  2197 net.cpp:240] Setting up Scale35
I0619 11:13:44.853314  2197 net.cpp:247] Top shape: 128 16 32 32 (2097152)
I0619 11:13:44.853319  2197 net.cpp:255] Memory required for data: 1587020288
I0619 11:13:44.853330  2197 layer_factory.hpp:77] Creating layer Eltwise17
I0619 11:13:44.853339  2197 net.cpp:190] Creating Layer Eltwise17
I0619 11:13:44.853345  2197 net.cpp:615] Eltwise17 <- Eltwise16_ReLU33_0_split_1
I0619 11:13:44.853353  2197 net.cpp:615] Eltwise17 <- Convolution35
I0619 11:13:44.853359  2197 net.cpp:589] Eltwise17 -> Eltwise17
I0619 11:13:44.853396  2197 net.cpp:240] Setting up Eltwise17
I0619 11:13:44.853405  2197 net.cpp:247] Top shape: 128 16 32 32 (2097152)
I0619 11:13:44.853410  2197 net.cpp:255] Memory required for data: 1595408896
I0619 11:13:44.853415  2197 layer_factory.hpp:77] Creating layer ReLU35
I0619 11:13:44.853425  2197 net.cpp:190] Creating Layer ReLU35
I0619 11:13:44.853430  2197 net.cpp:615] ReLU35 <- Eltwise17
I0619 11:13:44.853437  2197 net.cpp:576] ReLU35 -> Eltwise17 (in-place)
I0619 11:13:44.853446  2197 net.cpp:240] Setting up ReLU35
I0619 11:13:44.853452  2197 net.cpp:247] Top shape: 128 16 32 32 (2097152)
I0619 11:13:44.853456  2197 net.cpp:255] Memory required for data: 1603797504
I0619 11:13:44.853461  2197 layer_factory.hpp:77] Creating layer Eltwise17_ReLU35_0_split
I0619 11:13:44.853468  2197 net.cpp:190] Creating Layer Eltwise17_ReLU35_0_split
I0619 11:13:44.853473  2197 net.cpp:615] Eltwise17_ReLU35_0_split <- Eltwise17
I0619 11:13:44.853483  2197 net.cpp:589] Eltwise17_ReLU35_0_split -> Eltwise17_ReLU35_0_split_0
I0619 11:13:44.853492  2197 net.cpp:589] Eltwise17_ReLU35_0_split -> Eltwise17_ReLU35_0_split_1
I0619 11:13:44.853538  2197 net.cpp:240] Setting up Eltwise17_ReLU35_0_split
I0619 11:13:44.853545  2197 net.cpp:247] Top shape: 128 16 32 32 (2097152)
I0619 11:13:44.853551  2197 net.cpp:247] Top shape: 128 16 32 32 (2097152)
I0619 11:13:44.853556  2197 net.cpp:255] Memory required for data: 1620574720
I0619 11:13:44.853560  2197 layer_factory.hpp:77] Creating layer Convolution36
I0619 11:13:44.853574  2197 net.cpp:190] Creating Layer Convolution36
I0619 11:13:44.853585  2197 net.cpp:615] Convolution36 <- Eltwise17_ReLU35_0_split_0
I0619 11:13:44.853595  2197 net.cpp:589] Convolution36 -> Convolution36
I0619 11:13:44.854027  2197 net.cpp:240] Setting up Convolution36
I0619 11:13:44.854037  2197 net.cpp:247] Top shape: 128 16 32 32 (2097152)
I0619 11:13:44.854041  2197 net.cpp:255] Memory required for data: 1628963328
I0619 11:13:44.854053  2197 layer_factory.hpp:77] Creating layer BatchNorm36
I0619 11:13:44.854064  2197 net.cpp:190] Creating Layer BatchNorm36
I0619 11:13:44.854070  2197 net.cpp:615] BatchNorm36 <- Convolution36
I0619 11:13:44.854079  2197 net.cpp:576] BatchNorm36 -> Convolution36 (in-place)
I0619 11:13:44.854336  2197 net.cpp:240] Setting up BatchNorm36
I0619 11:13:44.854344  2197 net.cpp:247] Top shape: 128 16 32 32 (2097152)
I0619 11:13:44.854348  2197 net.cpp:255] Memory required for data: 1637351936
I0619 11:13:44.854374  2197 layer_factory.hpp:77] Creating layer Scale36
I0619 11:13:44.854383  2197 net.cpp:190] Creating Layer Scale36
I0619 11:13:44.854389  2197 net.cpp:615] Scale36 <- Convolution36
I0619 11:13:44.854398  2197 net.cpp:576] Scale36 -> Convolution36 (in-place)
I0619 11:13:44.854445  2197 layer_factory.hpp:77] Creating layer Scale36
I0619 11:13:44.854601  2197 net.cpp:240] Setting up Scale36
I0619 11:13:44.854611  2197 net.cpp:247] Top shape: 128 16 32 32 (2097152)
I0619 11:13:44.854616  2197 net.cpp:255] Memory required for data: 1645740544
I0619 11:13:44.854627  2197 layer_factory.hpp:77] Creating layer ReLU36
I0619 11:13:44.854638  2197 net.cpp:190] Creating Layer ReLU36
I0619 11:13:44.854645  2197 net.cpp:615] ReLU36 <- Convolution36
I0619 11:13:44.854651  2197 net.cpp:576] ReLU36 -> Convolution36 (in-place)
I0619 11:13:44.854660  2197 net.cpp:240] Setting up ReLU36
I0619 11:13:44.854666  2197 net.cpp:247] Top shape: 128 16 32 32 (2097152)
I0619 11:13:44.854671  2197 net.cpp:255] Memory required for data: 1654129152
I0619 11:13:44.854676  2197 layer_factory.hpp:77] Creating layer Convolution37
I0619 11:13:44.854689  2197 net.cpp:190] Creating Layer Convolution37
I0619 11:13:44.854696  2197 net.cpp:615] Convolution37 <- Convolution36
I0619 11:13:44.854703  2197 net.cpp:589] Convolution37 -> Convolution37
I0619 11:13:44.855129  2197 net.cpp:240] Setting up Convolution37
I0619 11:13:44.855140  2197 net.cpp:247] Top shape: 128 16 32 32 (2097152)
I0619 11:13:44.855144  2197 net.cpp:255] Memory required for data: 1662517760
I0619 11:13:44.855155  2197 layer_factory.hpp:77] Creating layer BatchNorm37
I0619 11:13:44.855166  2197 net.cpp:190] Creating Layer BatchNorm37
I0619 11:13:44.855172  2197 net.cpp:615] BatchNorm37 <- Convolution37
I0619 11:13:44.855180  2197 net.cpp:576] BatchNorm37 -> Convolution37 (in-place)
I0619 11:13:44.855451  2197 net.cpp:240] Setting up BatchNorm37
I0619 11:13:44.855461  2197 net.cpp:247] Top shape: 128 16 32 32 (2097152)
I0619 11:13:44.855465  2197 net.cpp:255] Memory required for data: 1670906368
I0619 11:13:44.855522  2197 layer_factory.hpp:77] Creating layer Scale37
I0619 11:13:44.855535  2197 net.cpp:190] Creating Layer Scale37
I0619 11:13:44.855541  2197 net.cpp:615] Scale37 <- Convolution37
I0619 11:13:44.855550  2197 net.cpp:576] Scale37 -> Convolution37 (in-place)
I0619 11:13:44.855597  2197 layer_factory.hpp:77] Creating layer Scale37
I0619 11:13:44.855746  2197 net.cpp:240] Setting up Scale37
I0619 11:13:44.855757  2197 net.cpp:247] Top shape: 128 16 32 32 (2097152)
I0619 11:13:44.855762  2197 net.cpp:255] Memory required for data: 1679294976
I0619 11:13:44.855774  2197 layer_factory.hpp:77] Creating layer Eltwise18
I0619 11:13:44.855782  2197 net.cpp:190] Creating Layer Eltwise18
I0619 11:13:44.855788  2197 net.cpp:615] Eltwise18 <- Eltwise17_ReLU35_0_split_1
I0619 11:13:44.855795  2197 net.cpp:615] Eltwise18 <- Convolution37
I0619 11:13:44.855803  2197 net.cpp:589] Eltwise18 -> Eltwise18
I0619 11:13:44.855837  2197 net.cpp:240] Setting up Eltwise18
I0619 11:13:44.855845  2197 net.cpp:247] Top shape: 128 16 32 32 (2097152)
I0619 11:13:44.855850  2197 net.cpp:255] Memory required for data: 1687683584
I0619 11:13:44.855860  2197 layer_factory.hpp:77] Creating layer ReLU37
I0619 11:13:44.855871  2197 net.cpp:190] Creating Layer ReLU37
I0619 11:13:44.855877  2197 net.cpp:615] ReLU37 <- Eltwise18
I0619 11:13:44.855885  2197 net.cpp:576] ReLU37 -> Eltwise18 (in-place)
I0619 11:13:44.855892  2197 net.cpp:240] Setting up ReLU37
I0619 11:13:44.855900  2197 net.cpp:247] Top shape: 128 16 32 32 (2097152)
I0619 11:13:44.855904  2197 net.cpp:255] Memory required for data: 1696072192
I0619 11:13:44.855908  2197 layer_factory.hpp:77] Creating layer Eltwise18_ReLU37_0_split
I0619 11:13:44.855916  2197 net.cpp:190] Creating Layer Eltwise18_ReLU37_0_split
I0619 11:13:44.855921  2197 net.cpp:615] Eltwise18_ReLU37_0_split <- Eltwise18
I0619 11:13:44.855931  2197 net.cpp:589] Eltwise18_ReLU37_0_split -> Eltwise18_ReLU37_0_split_0
I0619 11:13:44.855939  2197 net.cpp:589] Eltwise18_ReLU37_0_split -> Eltwise18_ReLU37_0_split_1
I0619 11:13:44.855989  2197 net.cpp:240] Setting up Eltwise18_ReLU37_0_split
I0619 11:13:44.855998  2197 net.cpp:247] Top shape: 128 16 32 32 (2097152)
I0619 11:13:44.856004  2197 net.cpp:247] Top shape: 128 16 32 32 (2097152)
I0619 11:13:44.856009  2197 net.cpp:255] Memory required for data: 1712849408
I0619 11:13:44.856014  2197 layer_factory.hpp:77] Creating layer Pooling1
I0619 11:13:44.856024  2197 net.cpp:190] Creating Layer Pooling1
I0619 11:13:44.856030  2197 net.cpp:615] Pooling1 <- Eltwise18_ReLU37_0_split_0
I0619 11:13:44.856039  2197 net.cpp:589] Pooling1 -> Pooling1
I0619 11:13:44.856084  2197 net.cpp:240] Setting up Pooling1
I0619 11:13:44.856093  2197 net.cpp:247] Top shape: 128 16 16 16 (524288)
I0619 11:13:44.856097  2197 net.cpp:255] Memory required for data: 1714946560
I0619 11:13:44.856102  2197 layer_factory.hpp:77] Creating layer Input1
I0619 11:13:44.856117  2197 net.cpp:190] Creating Layer Input1
I0619 11:13:44.856123  2197 net.cpp:589] Input1 -> Input1
I0619 11:13:44.856165  2197 net.cpp:240] Setting up Input1
I0619 11:13:44.856173  2197 net.cpp:247] Top shape: 128 16 16 16 (524288)
I0619 11:13:44.856178  2197 net.cpp:255] Memory required for data: 1717043712
I0619 11:13:44.856183  2197 layer_factory.hpp:77] Creating layer Concat1
I0619 11:13:44.856191  2197 net.cpp:190] Creating Layer Concat1
I0619 11:13:44.856197  2197 net.cpp:615] Concat1 <- Pooling1
I0619 11:13:44.856204  2197 net.cpp:615] Concat1 <- Input1
I0619 11:13:44.856215  2197 net.cpp:589] Concat1 -> Concat1
I0619 11:13:44.856250  2197 net.cpp:240] Setting up Concat1
I0619 11:13:44.856261  2197 net.cpp:247] Top shape: 128 32 16 16 (1048576)
I0619 11:13:44.856266  2197 net.cpp:255] Memory required for data: 1721238016
I0619 11:13:44.856271  2197 layer_factory.hpp:77] Creating layer Convolution38
I0619 11:13:44.856282  2197 net.cpp:190] Creating Layer Convolution38
I0619 11:13:44.856288  2197 net.cpp:615] Convolution38 <- Eltwise18_ReLU37_0_split_1
I0619 11:13:44.856299  2197 net.cpp:589] Convolution38 -> Convolution38
I0619 11:13:44.857714  2197 net.cpp:240] Setting up Convolution38
I0619 11:13:44.857733  2197 net.cpp:247] Top shape: 128 32 16 16 (1048576)
I0619 11:13:44.857738  2197 net.cpp:255] Memory required for data: 1725432320
I0619 11:13:44.857751  2197 layer_factory.hpp:77] Creating layer BatchNorm38
I0619 11:13:44.857764  2197 net.cpp:190] Creating Layer BatchNorm38
I0619 11:13:44.857770  2197 net.cpp:615] BatchNorm38 <- Convolution38
I0619 11:13:44.857779  2197 net.cpp:576] BatchNorm38 -> Convolution38 (in-place)
I0619 11:13:44.858041  2197 net.cpp:240] Setting up BatchNorm38
I0619 11:13:44.858050  2197 net.cpp:247] Top shape: 128 32 16 16 (1048576)
I0619 11:13:44.858055  2197 net.cpp:255] Memory required for data: 1729626624
I0619 11:13:44.858072  2197 layer_factory.hpp:77] Creating layer Scale38
I0619 11:13:44.858081  2197 net.cpp:190] Creating Layer Scale38
I0619 11:13:44.858086  2197 net.cpp:615] Scale38 <- Convolution38
I0619 11:13:44.858094  2197 net.cpp:576] Scale38 -> Convolution38 (in-place)
I0619 11:13:44.858144  2197 layer_factory.hpp:77] Creating layer Scale38
I0619 11:13:44.858304  2197 net.cpp:240] Setting up Scale38
I0619 11:13:44.858319  2197 net.cpp:247] Top shape: 128 32 16 16 (1048576)
I0619 11:13:44.858325  2197 net.cpp:255] Memory required for data: 1733820928
I0619 11:13:44.858336  2197 layer_factory.hpp:77] Creating layer ReLU38
I0619 11:13:44.858347  2197 net.cpp:190] Creating Layer ReLU38
I0619 11:13:44.858363  2197 net.cpp:615] ReLU38 <- Convolution38
I0619 11:13:44.858371  2197 net.cpp:576] ReLU38 -> Convolution38 (in-place)
I0619 11:13:44.858381  2197 net.cpp:240] Setting up ReLU38
I0619 11:13:44.858388  2197 net.cpp:247] Top shape: 128 32 16 16 (1048576)
I0619 11:13:44.858392  2197 net.cpp:255] Memory required for data: 1738015232
I0619 11:13:44.858397  2197 layer_factory.hpp:77] Creating layer Convolution39
I0619 11:13:44.858412  2197 net.cpp:190] Creating Layer Convolution39
I0619 11:13:44.858417  2197 net.cpp:615] Convolution39 <- Convolution38
I0619 11:13:44.858427  2197 net.cpp:589] Convolution39 -> Convolution39
I0619 11:13:44.859184  2197 net.cpp:240] Setting up Convolution39
I0619 11:13:44.859194  2197 net.cpp:247] Top shape: 128 32 16 16 (1048576)
I0619 11:13:44.859199  2197 net.cpp:255] Memory required for data: 1742209536
I0619 11:13:44.859210  2197 layer_factory.hpp:77] Creating layer BatchNorm39
I0619 11:13:44.859220  2197 net.cpp:190] Creating Layer BatchNorm39
I0619 11:13:44.859225  2197 net.cpp:615] BatchNorm39 <- Convolution39
I0619 11:13:44.859232  2197 net.cpp:576] BatchNorm39 -> Convolution39 (in-place)
I0619 11:13:44.859482  2197 net.cpp:240] Setting up BatchNorm39
I0619 11:13:44.859490  2197 net.cpp:247] Top shape: 128 32 16 16 (1048576)
I0619 11:13:44.859494  2197 net.cpp:255] Memory required for data: 1746403840
I0619 11:13:44.859510  2197 layer_factory.hpp:77] Creating layer Scale39
I0619 11:13:44.859519  2197 net.cpp:190] Creating Layer Scale39
I0619 11:13:44.859524  2197 net.cpp:615] Scale39 <- Convolution39
I0619 11:13:44.859531  2197 net.cpp:576] Scale39 -> Convolution39 (in-place)
I0619 11:13:44.859576  2197 layer_factory.hpp:77] Creating layer Scale39
I0619 11:13:44.859730  2197 net.cpp:240] Setting up Scale39
I0619 11:13:44.859740  2197 net.cpp:247] Top shape: 128 32 16 16 (1048576)
I0619 11:13:44.859745  2197 net.cpp:255] Memory required for data: 1750598144
I0619 11:13:44.859757  2197 layer_factory.hpp:77] Creating layer Eltwise19
I0619 11:13:44.859766  2197 net.cpp:190] Creating Layer Eltwise19
I0619 11:13:44.859771  2197 net.cpp:615] Eltwise19 <- Concat1
I0619 11:13:44.859778  2197 net.cpp:615] Eltwise19 <- Convolution39
I0619 11:13:44.859791  2197 net.cpp:589] Eltwise19 -> Eltwise19
I0619 11:13:44.859814  2197 net.cpp:240] Setting up Eltwise19
I0619 11:13:44.859822  2197 net.cpp:247] Top shape: 128 32 16 16 (1048576)
I0619 11:13:44.859827  2197 net.cpp:255] Memory required for data: 1754792448
I0619 11:13:44.859832  2197 layer_factory.hpp:77] Creating layer ReLU39
I0619 11:13:44.859838  2197 net.cpp:190] Creating Layer ReLU39
I0619 11:13:44.859843  2197 net.cpp:615] ReLU39 <- Eltwise19
I0619 11:13:44.859853  2197 net.cpp:576] ReLU39 -> Eltwise19 (in-place)
I0619 11:13:44.859861  2197 net.cpp:240] Setting up ReLU39
I0619 11:13:44.859868  2197 net.cpp:247] Top shape: 128 32 16 16 (1048576)
I0619 11:13:44.859871  2197 net.cpp:255] Memory required for data: 1758986752
I0619 11:13:44.859876  2197 layer_factory.hpp:77] Creating layer Eltwise19_ReLU39_0_split
I0619 11:13:44.859884  2197 net.cpp:190] Creating Layer Eltwise19_ReLU39_0_split
I0619 11:13:44.859887  2197 net.cpp:615] Eltwise19_ReLU39_0_split <- Eltwise19
I0619 11:13:44.859894  2197 net.cpp:589] Eltwise19_ReLU39_0_split -> Eltwise19_ReLU39_0_split_0
I0619 11:13:44.859904  2197 net.cpp:589] Eltwise19_ReLU39_0_split -> Eltwise19_ReLU39_0_split_1
I0619 11:13:44.859951  2197 net.cpp:240] Setting up Eltwise19_ReLU39_0_split
I0619 11:13:44.859958  2197 net.cpp:247] Top shape: 128 32 16 16 (1048576)
I0619 11:13:44.859964  2197 net.cpp:247] Top shape: 128 32 16 16 (1048576)
I0619 11:13:44.859968  2197 net.cpp:255] Memory required for data: 1767375360
I0619 11:13:44.859972  2197 layer_factory.hpp:77] Creating layer Convolution40
I0619 11:13:44.859987  2197 net.cpp:190] Creating Layer Convolution40
I0619 11:13:44.859992  2197 net.cpp:615] Convolution40 <- Eltwise19_ReLU39_0_split_0
I0619 11:13:44.860004  2197 net.cpp:589] Convolution40 -> Convolution40
I0619 11:13:44.860740  2197 net.cpp:240] Setting up Convolution40
I0619 11:13:44.860749  2197 net.cpp:247] Top shape: 128 32 16 16 (1048576)
I0619 11:13:44.860754  2197 net.cpp:255] Memory required for data: 1771569664
I0619 11:13:44.860765  2197 layer_factory.hpp:77] Creating layer BatchNorm40
I0619 11:13:44.860774  2197 net.cpp:190] Creating Layer BatchNorm40
I0619 11:13:44.860780  2197 net.cpp:615] BatchNorm40 <- Convolution40
I0619 11:13:44.860790  2197 net.cpp:576] BatchNorm40 -> Convolution40 (in-place)
I0619 11:13:44.861042  2197 net.cpp:240] Setting up BatchNorm40
I0619 11:13:44.861050  2197 net.cpp:247] Top shape: 128 32 16 16 (1048576)
I0619 11:13:44.861054  2197 net.cpp:255] Memory required for data: 1775763968
I0619 11:13:44.861068  2197 layer_factory.hpp:77] Creating layer Scale40
I0619 11:13:44.861076  2197 net.cpp:190] Creating Layer Scale40
I0619 11:13:44.861081  2197 net.cpp:615] Scale40 <- Convolution40
I0619 11:13:44.861088  2197 net.cpp:576] Scale40 -> Convolution40 (in-place)
I0619 11:13:44.861134  2197 layer_factory.hpp:77] Creating layer Scale40
I0619 11:13:44.861287  2197 net.cpp:240] Setting up Scale40
I0619 11:13:44.861297  2197 net.cpp:247] Top shape: 128 32 16 16 (1048576)
I0619 11:13:44.861301  2197 net.cpp:255] Memory required for data: 1779958272
I0619 11:13:44.861312  2197 layer_factory.hpp:77] Creating layer ReLU40
I0619 11:13:44.861323  2197 net.cpp:190] Creating Layer ReLU40
I0619 11:13:44.861328  2197 net.cpp:615] ReLU40 <- Convolution40
I0619 11:13:44.861335  2197 net.cpp:576] ReLU40 -> Convolution40 (in-place)
I0619 11:13:44.861343  2197 net.cpp:240] Setting up ReLU40
I0619 11:13:44.861351  2197 net.cpp:247] Top shape: 128 32 16 16 (1048576)
I0619 11:13:44.861354  2197 net.cpp:255] Memory required for data: 1784152576
I0619 11:13:44.861359  2197 layer_factory.hpp:77] Creating layer Convolution41
I0619 11:13:44.861372  2197 net.cpp:190] Creating Layer Convolution41
I0619 11:13:44.861377  2197 net.cpp:615] Convolution41 <- Convolution40
I0619 11:13:44.861387  2197 net.cpp:589] Convolution41 -> Convolution41
I0619 11:13:44.862128  2197 net.cpp:240] Setting up Convolution41
I0619 11:13:44.862138  2197 net.cpp:247] Top shape: 128 32 16 16 (1048576)
I0619 11:13:44.862141  2197 net.cpp:255] Memory required for data: 1788346880
I0619 11:13:44.862152  2197 layer_factory.hpp:77] Creating layer BatchNorm41
I0619 11:13:44.862164  2197 net.cpp:190] Creating Layer BatchNorm41
I0619 11:13:44.862169  2197 net.cpp:615] BatchNorm41 <- Convolution41
I0619 11:13:44.862176  2197 net.cpp:576] BatchNorm41 -> Convolution41 (in-place)
I0619 11:13:44.862428  2197 net.cpp:240] Setting up BatchNorm41
I0619 11:13:44.862438  2197 net.cpp:247] Top shape: 128 32 16 16 (1048576)
I0619 11:13:44.862443  2197 net.cpp:255] Memory required for data: 1792541184
I0619 11:13:44.862457  2197 layer_factory.hpp:77] Creating layer Scale41
I0619 11:13:44.862464  2197 net.cpp:190] Creating Layer Scale41
I0619 11:13:44.862470  2197 net.cpp:615] Scale41 <- Convolution41
I0619 11:13:44.862480  2197 net.cpp:576] Scale41 -> Convolution41 (in-place)
I0619 11:13:44.862521  2197 layer_factory.hpp:77] Creating layer Scale41
I0619 11:13:44.862665  2197 net.cpp:240] Setting up Scale41
I0619 11:13:44.862679  2197 net.cpp:247] Top shape: 128 32 16 16 (1048576)
I0619 11:13:44.862684  2197 net.cpp:255] Memory required for data: 1796735488
I0619 11:13:44.862694  2197 layer_factory.hpp:77] Creating layer Eltwise20
I0619 11:13:44.862702  2197 net.cpp:190] Creating Layer Eltwise20
I0619 11:13:44.862709  2197 net.cpp:615] Eltwise20 <- Eltwise19_ReLU39_0_split_1
I0619 11:13:44.862715  2197 net.cpp:615] Eltwise20 <- Convolution41
I0619 11:13:44.862722  2197 net.cpp:589] Eltwise20 -> Eltwise20
I0619 11:13:44.862748  2197 net.cpp:240] Setting up Eltwise20
I0619 11:13:44.862756  2197 net.cpp:247] Top shape: 128 32 16 16 (1048576)
I0619 11:13:44.862764  2197 net.cpp:255] Memory required for data: 1800929792
I0619 11:13:44.862769  2197 layer_factory.hpp:77] Creating layer ReLU41
I0619 11:13:44.862777  2197 net.cpp:190] Creating Layer ReLU41
I0619 11:13:44.862782  2197 net.cpp:615] ReLU41 <- Eltwise20
I0619 11:13:44.862792  2197 net.cpp:576] ReLU41 -> Eltwise20 (in-place)
I0619 11:13:44.862799  2197 net.cpp:240] Setting up ReLU41
I0619 11:13:44.862807  2197 net.cpp:247] Top shape: 128 32 16 16 (1048576)
I0619 11:13:44.862810  2197 net.cpp:255] Memory required for data: 1805124096
I0619 11:13:44.862815  2197 layer_factory.hpp:77] Creating layer Eltwise20_ReLU41_0_split
I0619 11:13:44.862823  2197 net.cpp:190] Creating Layer Eltwise20_ReLU41_0_split
I0619 11:13:44.862826  2197 net.cpp:615] Eltwise20_ReLU41_0_split <- Eltwise20
I0619 11:13:44.862833  2197 net.cpp:589] Eltwise20_ReLU41_0_split -> Eltwise20_ReLU41_0_split_0
I0619 11:13:44.862843  2197 net.cpp:589] Eltwise20_ReLU41_0_split -> Eltwise20_ReLU41_0_split_1
I0619 11:13:44.862889  2197 net.cpp:240] Setting up Eltwise20_ReLU41_0_split
I0619 11:13:44.862896  2197 net.cpp:247] Top shape: 128 32 16 16 (1048576)
I0619 11:13:44.862902  2197 net.cpp:247] Top shape: 128 32 16 16 (1048576)
I0619 11:13:44.862906  2197 net.cpp:255] Memory required for data: 1813512704
I0619 11:13:44.862911  2197 layer_factory.hpp:77] Creating layer Convolution42
I0619 11:13:44.862925  2197 net.cpp:190] Creating Layer Convolution42
I0619 11:13:44.862929  2197 net.cpp:615] Convolution42 <- Eltwise20_ReLU41_0_split_0
I0619 11:13:44.862938  2197 net.cpp:589] Convolution42 -> Convolution42
I0619 11:13:44.863677  2197 net.cpp:240] Setting up Convolution42
I0619 11:13:44.863687  2197 net.cpp:247] Top shape: 128 32 16 16 (1048576)
I0619 11:13:44.863692  2197 net.cpp:255] Memory required for data: 1817707008
I0619 11:13:44.863703  2197 layer_factory.hpp:77] Creating layer BatchNorm42
I0619 11:13:44.863714  2197 net.cpp:190] Creating Layer BatchNorm42
I0619 11:13:44.863720  2197 net.cpp:615] BatchNorm42 <- Convolution42
I0619 11:13:44.863729  2197 net.cpp:576] BatchNorm42 -> Convolution42 (in-place)
I0619 11:13:44.863979  2197 net.cpp:240] Setting up BatchNorm42
I0619 11:13:44.863989  2197 net.cpp:247] Top shape: 128 32 16 16 (1048576)
I0619 11:13:44.863993  2197 net.cpp:255] Memory required for data: 1821901312
I0619 11:13:44.864006  2197 layer_factory.hpp:77] Creating layer Scale42
I0619 11:13:44.864017  2197 net.cpp:190] Creating Layer Scale42
I0619 11:13:44.864023  2197 net.cpp:615] Scale42 <- Convolution42
I0619 11:13:44.864030  2197 net.cpp:576] Scale42 -> Convolution42 (in-place)
I0619 11:13:44.864073  2197 layer_factory.hpp:77] Creating layer Scale42
I0619 11:13:44.864222  2197 net.cpp:240] Setting up Scale42
I0619 11:13:44.864230  2197 net.cpp:247] Top shape: 128 32 16 16 (1048576)
I0619 11:13:44.864235  2197 net.cpp:255] Memory required for data: 1826095616
I0619 11:13:44.864246  2197 layer_factory.hpp:77] Creating layer ReLU42
I0619 11:13:44.864253  2197 net.cpp:190] Creating Layer ReLU42
I0619 11:13:44.864259  2197 net.cpp:615] ReLU42 <- Convolution42
I0619 11:13:44.864269  2197 net.cpp:576] ReLU42 -> Convolution42 (in-place)
I0619 11:13:44.864276  2197 net.cpp:240] Setting up ReLU42
I0619 11:13:44.864282  2197 net.cpp:247] Top shape: 128 32 16 16 (1048576)
I0619 11:13:44.864287  2197 net.cpp:255] Memory required for data: 1830289920
I0619 11:13:44.864291  2197 layer_factory.hpp:77] Creating layer Convolution43
I0619 11:13:44.864305  2197 net.cpp:190] Creating Layer Convolution43
I0619 11:13:44.864310  2197 net.cpp:615] Convolution43 <- Convolution42
I0619 11:13:44.864317  2197 net.cpp:589] Convolution43 -> Convolution43
I0619 11:13:44.865047  2197 net.cpp:240] Setting up Convolution43
I0619 11:13:44.865057  2197 net.cpp:247] Top shape: 128 32 16 16 (1048576)
I0619 11:13:44.865061  2197 net.cpp:255] Memory required for data: 1834484224
I0619 11:13:44.865072  2197 layer_factory.hpp:77] Creating layer BatchNorm43
I0619 11:13:44.865082  2197 net.cpp:190] Creating Layer BatchNorm43
I0619 11:13:44.865088  2197 net.cpp:615] BatchNorm43 <- Convolution43
I0619 11:13:44.865098  2197 net.cpp:576] BatchNorm43 -> Convolution43 (in-place)
I0619 11:13:44.865345  2197 net.cpp:240] Setting up BatchNorm43
I0619 11:13:44.865355  2197 net.cpp:247] Top shape: 128 32 16 16 (1048576)
I0619 11:13:44.865360  2197 net.cpp:255] Memory required for data: 1838678528
I0619 11:13:44.865375  2197 layer_factory.hpp:77] Creating layer Scale43
I0619 11:13:44.865382  2197 net.cpp:190] Creating Layer Scale43
I0619 11:13:44.865387  2197 net.cpp:615] Scale43 <- Convolution43
I0619 11:13:44.865394  2197 net.cpp:576] Scale43 -> Convolution43 (in-place)
I0619 11:13:44.865439  2197 layer_factory.hpp:77] Creating layer Scale43
I0619 11:13:44.865593  2197 net.cpp:240] Setting up Scale43
I0619 11:13:44.865602  2197 net.cpp:247] Top shape: 128 32 16 16 (1048576)
I0619 11:13:44.865607  2197 net.cpp:255] Memory required for data: 1842872832
I0619 11:13:44.865617  2197 layer_factory.hpp:77] Creating layer Eltwise21
I0619 11:13:44.865631  2197 net.cpp:190] Creating Layer Eltwise21
I0619 11:13:44.865638  2197 net.cpp:615] Eltwise21 <- Eltwise20_ReLU41_0_split_1
I0619 11:13:44.865643  2197 net.cpp:615] Eltwise21 <- Convolution43
I0619 11:13:44.865651  2197 net.cpp:589] Eltwise21 -> Eltwise21
I0619 11:13:44.865677  2197 net.cpp:240] Setting up Eltwise21
I0619 11:13:44.865685  2197 net.cpp:247] Top shape: 128 32 16 16 (1048576)
I0619 11:13:44.865690  2197 net.cpp:255] Memory required for data: 1847067136
I0619 11:13:44.865694  2197 layer_factory.hpp:77] Creating layer ReLU43
I0619 11:13:44.865701  2197 net.cpp:190] Creating Layer ReLU43
I0619 11:13:44.865706  2197 net.cpp:615] ReLU43 <- Eltwise21
I0619 11:13:44.865713  2197 net.cpp:576] ReLU43 -> Eltwise21 (in-place)
I0619 11:13:44.865721  2197 net.cpp:240] Setting up ReLU43
I0619 11:13:44.865727  2197 net.cpp:247] Top shape: 128 32 16 16 (1048576)
I0619 11:13:44.865731  2197 net.cpp:255] Memory required for data: 1851261440
I0619 11:13:44.865736  2197 layer_factory.hpp:77] Creating layer Eltwise21_ReLU43_0_split
I0619 11:13:44.865746  2197 net.cpp:190] Creating Layer Eltwise21_ReLU43_0_split
I0619 11:13:44.865751  2197 net.cpp:615] Eltwise21_ReLU43_0_split <- Eltwise21
I0619 11:13:44.865757  2197 net.cpp:589] Eltwise21_ReLU43_0_split -> Eltwise21_ReLU43_0_split_0
I0619 11:13:44.865767  2197 net.cpp:589] Eltwise21_ReLU43_0_split -> Eltwise21_ReLU43_0_split_1
I0619 11:13:44.865813  2197 net.cpp:240] Setting up Eltwise21_ReLU43_0_split
I0619 11:13:44.865820  2197 net.cpp:247] Top shape: 128 32 16 16 (1048576)
I0619 11:13:44.865826  2197 net.cpp:247] Top shape: 128 32 16 16 (1048576)
I0619 11:13:44.865830  2197 net.cpp:255] Memory required for data: 1859650048
I0619 11:13:44.865835  2197 layer_factory.hpp:77] Creating layer Convolution44
I0619 11:13:44.865845  2197 net.cpp:190] Creating Layer Convolution44
I0619 11:13:44.865850  2197 net.cpp:615] Convolution44 <- Eltwise21_ReLU43_0_split_0
I0619 11:13:44.865859  2197 net.cpp:589] Convolution44 -> Convolution44
…
I0619 11:13:45.255664  2197 net.cpp:576] BatchNorm92 -> Convolution92 (in-place)
I0619 11:13:45.256029  2197 net.cpp:240] Setting up BatchNorm92
I0619 11:13:45.256042  2197 net.cpp:247] Top shape: 128 64 8 8 (524288)
I0619 11:13:45.256047  2197 net.cpp:255] Memory required for data: 2767717888
I0619 11:13:45.256064  2197 layer_factory.hpp:77] Creating layer Scale92
I0619 11:13:45.256074  2197 net.cpp:190] Creating Layer Scale92
I0619 11:13:45.256081  2197 net.cpp:615] Scale92 <- Convolution92
I0619 11:13:45.256090  2197 net.cpp:576] Scale92 -> Convolution92 (in-place)
I0619 11:13:45.256157  2197 layer_factory.hpp:77] Creating layer Scale92
I0619 11:13:45.256373  2197 net.cpp:240] Setting up Scale92
I0619 11:13:45.256388  2197 net.cpp:247] Top shape: 128 64 8 8 (524288)
I0619 11:13:45.256394  2197 net.cpp:255] Memory required for data: 2769815040
I0619 11:13:45.256408  2197 layer_factory.hpp:77] Creating layer ReLU92
I0619 11:13:45.256418  2197 net.cpp:190] Creating Layer ReLU92
I0619 11:13:45.256425  2197 net.cpp:615] ReLU92 <- Convolution92
I0619 11:13:45.256434  2197 net.cpp:576] ReLU92 -> Convolution92 (in-place)
I0619 11:13:45.256444  2197 net.cpp:240] Setting up ReLU92
I0619 11:13:45.256453  2197 net.cpp:247] Top shape: 128 64 8 8 (524288)
I0619 11:13:45.256458  2197 net.cpp:255] Memory required for data: 2771912192
I0619 11:13:45.256464  2197 layer_factory.hpp:77] Creating layer Convolution93
I0619 11:13:45.256480  2197 net.cpp:190] Creating Layer Convolution93
I0619 11:13:45.256487  2197 net.cpp:615] Convolution93 <- Convolution92
I0619 11:13:45.256500  2197 net.cpp:589] Convolution93 -> Convolution93
I0619 11:13:45.259163  2197 net.cpp:240] Setting up Convolution93
I0619 11:13:45.259176  2197 net.cpp:247] Top shape: 128 64 8 8 (524288)
I0619 11:13:45.259182  2197 net.cpp:255] Memory required for data: 2774009344
I0619 11:13:45.259196  2197 layer_factory.hpp:77] Creating layer BatchNorm93
I0619 11:13:45.259210  2197 net.cpp:190] Creating Layer BatchNorm93
I0619 11:13:45.259217  2197 net.cpp:615] BatchNorm93 <- Convolution93
I0619 11:13:45.259234  2197 net.cpp:576] BatchNorm93 -> Convolution93 (in-place)
I0619 11:13:45.259593  2197 net.cpp:240] Setting up BatchNorm93
I0619 11:13:45.259604  2197 net.cpp:247] Top shape: 128 64 8 8 (524288)
I0619 11:13:45.259609  2197 net.cpp:255] Memory required for data: 2776106496
I0619 11:13:45.259630  2197 layer_factory.hpp:77] Creating layer Scale93
I0619 11:13:45.259641  2197 net.cpp:190] Creating Layer Scale93
I0619 11:13:45.259647  2197 net.cpp:615] Scale93 <- Convolution93
I0619 11:13:45.259656  2197 net.cpp:576] Scale93 -> Convolution93 (in-place)
I0619 11:13:45.259718  2197 layer_factory.hpp:77] Creating layer Scale93
I0619 11:13:45.259934  2197 net.cpp:240] Setting up Scale93
I0619 11:13:45.259945  2197 net.cpp:247] Top shape: 128 64 8 8 (524288)
I0619 11:13:45.259950  2197 net.cpp:255] Memory required for data: 2778203648
I0619 11:13:45.259968  2197 layer_factory.hpp:77] Creating layer Eltwise46
I0619 11:13:45.259979  2197 net.cpp:190] Creating Layer Eltwise46
I0619 11:13:45.259986  2197 net.cpp:615] Eltwise46 <- Eltwise45_ReLU91_0_split_1
I0619 11:13:45.259995  2197 net.cpp:615] Eltwise46 <- Convolution93
I0619 11:13:45.260006  2197 net.cpp:589] Eltwise46 -> Eltwise46
I0619 11:13:45.260038  2197 net.cpp:240] Setting up Eltwise46
I0619 11:13:45.260048  2197 net.cpp:247] Top shape: 128 64 8 8 (524288)
I0619 11:13:45.260053  2197 net.cpp:255] Memory required for data: 2780300800
I0619 11:13:45.260059  2197 layer_factory.hpp:77] Creating layer ReLU93
I0619 11:13:45.260068  2197 net.cpp:190] Creating Layer ReLU93
I0619 11:13:45.260074  2197 net.cpp:615] ReLU93 <- Eltwise46
I0619 11:13:45.260087  2197 net.cpp:576] ReLU93 -> Eltwise46 (in-place)
I0619 11:13:45.260097  2197 net.cpp:240] Setting up ReLU93
I0619 11:13:45.260104  2197 net.cpp:247] Top shape: 128 64 8 8 (524288)
I0619 11:13:45.260110  2197 net.cpp:255] Memory required for data: 2782397952
I0619 11:13:45.260116  2197 layer_factory.hpp:77] Creating layer Eltwise46_ReLU93_0_split
I0619 11:13:45.260124  2197 net.cpp:190] Creating Layer Eltwise46_ReLU93_0_split
I0619 11:13:45.260130  2197 net.cpp:615] Eltwise46_ReLU93_0_split <- Eltwise46
I0619 11:13:45.260139  2197 net.cpp:589] Eltwise46_ReLU93_0_split -> Eltwise46_ReLU93_0_split_0
I0619 11:13:45.260150  2197 net.cpp:589] Eltwise46_ReLU93_0_split -> Eltwise46_ReLU93_0_split_1
I0619 11:13:45.260213  2197 net.cpp:240] Setting up Eltwise46_ReLU93_0_split
I0619 11:13:45.260223  2197 net.cpp:247] Top shape: 128 64 8 8 (524288)
I0619 11:13:45.260231  2197 net.cpp:247] Top shape: 128 64 8 8 (524288)
I0619 11:13:45.260236  2197 net.cpp:255] Memory required for data: 2786592256
I0619 11:13:45.260242  2197 layer_factory.hpp:77] Creating layer Convolution94
I0619 11:13:45.260257  2197 net.cpp:190] Creating Layer Convolution94
I0619 11:13:45.260263  2197 net.cpp:615] Convolution94 <- Eltwise46_ReLU93_0_split_0
I0619 11:13:45.260277  2197 net.cpp:589] Convolution94 -> Convolution94
I0619 11:13:45.263777  2197 net.cpp:240] Setting up Convolution94
I0619 11:13:45.263798  2197 net.cpp:247] Top shape: 128 64 8 8 (524288)
I0619 11:13:45.263804  2197 net.cpp:255] Memory required for data: 2788689408
I0619 11:13:45.263820  2197 layer_factory.hpp:77] Creating layer BatchNorm94
I0619 11:13:45.263833  2197 net.cpp:190] Creating Layer BatchNorm94
I0619 11:13:45.263842  2197 net.cpp:615] BatchNorm94 <- Convolution94
I0619 11:13:45.263851  2197 net.cpp:576] BatchNorm94 -> Convolution94 (in-place)
I0619 11:13:45.264195  2197 net.cpp:240] Setting up BatchNorm94
I0619 11:13:45.264206  2197 net.cpp:247] Top shape: 128 64 8 8 (524288)
I0619 11:13:45.264211  2197 net.cpp:255] Memory required for data: 2790786560
I0619 11:13:45.264230  2197 layer_factory.hpp:77] Creating layer Scale94
I0619 11:13:45.264240  2197 net.cpp:190] Creating Layer Scale94
I0619 11:13:45.264246  2197 net.cpp:615] Scale94 <- Convolution94
I0619 11:13:45.264255  2197 net.cpp:576] Scale94 -> Convolution94 (in-place)
I0619 11:13:45.264317  2197 layer_factory.hpp:77] Creating layer Scale94
I0619 11:13:45.264519  2197 net.cpp:240] Setting up Scale94
I0619 11:13:45.264530  2197 net.cpp:247] Top shape: 128 64 8 8 (524288)
I0619 11:13:45.264541  2197 net.cpp:255] Memory required for data: 2792883712
I0619 11:13:45.264555  2197 layer_factory.hpp:77] Creating layer ReLU94
I0619 11:13:45.264567  2197 net.cpp:190] Creating Layer ReLU94
I0619 11:13:45.264575  2197 net.cpp:615] ReLU94 <- Convolution94
I0619 11:13:45.264583  2197 net.cpp:576] ReLU94 -> Convolution94 (in-place)
I0619 11:13:45.264593  2197 net.cpp:240] Setting up ReLU94
I0619 11:13:45.264601  2197 net.cpp:247] Top shape: 128 64 8 8 (524288)
I0619 11:13:45.264606  2197 net.cpp:255] Memory required for data: 2794980864
I0619 11:13:45.264611  2197 layer_factory.hpp:77] Creating layer Convolution95
I0619 11:13:45.264628  2197 net.cpp:190] Creating Layer Convolution95
I0619 11:13:45.264634  2197 net.cpp:615] Convolution95 <- Convolution94
I0619 11:13:45.264644  2197 net.cpp:589] Convolution95 -> Convolution95
I0619 11:13:45.267133  2197 net.cpp:240] Setting up Convolution95
I0619 11:13:45.267148  2197 net.cpp:247] Top shape: 128 64 8 8 (524288)
I0619 11:13:45.267153  2197 net.cpp:255] Memory required for data: 2797078016
I0619 11:13:45.267166  2197 layer_factory.hpp:77] Creating layer BatchNorm95
I0619 11:13:45.267179  2197 net.cpp:190] Creating Layer BatchNorm95
I0619 11:13:45.267186  2197 net.cpp:615] BatchNorm95 <- Convolution95
I0619 11:13:45.267195  2197 net.cpp:576] BatchNorm95 -> Convolution95 (in-place)
I0619 11:13:45.267657  2197 net.cpp:240] Setting up BatchNorm95
I0619 11:13:45.267673  2197 net.cpp:247] Top shape: 128 64 8 8 (524288)
I0619 11:13:45.267679  2197 net.cpp:255] Memory required for data: 2799175168
I0619 11:13:45.267696  2197 layer_factory.hpp:77] Creating layer Scale95
I0619 11:13:45.267710  2197 net.cpp:190] Creating Layer Scale95
I0619 11:13:45.267717  2197 net.cpp:615] Scale95 <- Convolution95
I0619 11:13:45.267726  2197 net.cpp:576] Scale95 -> Convolution95 (in-place)
I0619 11:13:45.267786  2197 layer_factory.hpp:77] Creating layer Scale95
I0619 11:13:45.267989  2197 net.cpp:240] Setting up Scale95
I0619 11:13:45.268000  2197 net.cpp:247] Top shape: 128 64 8 8 (524288)
I0619 11:13:45.268005  2197 net.cpp:255] Memory required for data: 2801272320
I0619 11:13:45.268019  2197 layer_factory.hpp:77] Creating layer Eltwise47
I0619 11:13:45.268033  2197 net.cpp:190] Creating Layer Eltwise47
I0619 11:13:45.268041  2197 net.cpp:615] Eltwise47 <- Eltwise46_ReLU93_0_split_1
I0619 11:13:45.268049  2197 net.cpp:615] Eltwise47 <- Convolution95
I0619 11:13:45.268059  2197 net.cpp:589] Eltwise47 -> Eltwise47
I0619 11:13:45.268095  2197 net.cpp:240] Setting up Eltwise47
I0619 11:13:45.268103  2197 net.cpp:247] Top shape: 128 64 8 8 (524288)
I0619 11:13:45.268108  2197 net.cpp:255] Memory required for data: 2803369472
I0619 11:13:45.268115  2197 layer_factory.hpp:77] Creating layer ReLU95
I0619 11:13:45.268123  2197 net.cpp:190] Creating Layer ReLU95
I0619 11:13:45.268129  2197 net.cpp:615] ReLU95 <- Eltwise47
I0619 11:13:45.268137  2197 net.cpp:576] ReLU95 -> Eltwise47 (in-place)
I0619 11:13:45.268146  2197 net.cpp:240] Setting up ReLU95
I0619 11:13:45.268154  2197 net.cpp:247] Top shape: 128 64 8 8 (524288)
I0619 11:13:45.268159  2197 net.cpp:255] Memory required for data: 2805466624
I0619 11:13:45.268164  2197 layer_factory.hpp:77] Creating layer Eltwise47_ReLU95_0_split
I0619 11:13:45.268175  2197 net.cpp:190] Creating Layer Eltwise47_ReLU95_0_split
I0619 11:13:45.268182  2197 net.cpp:615] Eltwise47_ReLU95_0_split <- Eltwise47
I0619 11:13:45.268190  2197 net.cpp:589] Eltwise47_ReLU95_0_split -> Eltwise47_ReLU95_0_split_0
I0619 11:13:45.268201  2197 net.cpp:589] Eltwise47_ReLU95_0_split -> Eltwise47_ReLU95_0_split_1
I0619 11:13:45.268262  2197 net.cpp:240] Setting up Eltwise47_ReLU95_0_split
I0619 11:13:45.268271  2197 net.cpp:247] Top shape: 128 64 8 8 (524288)
I0619 11:13:45.268278  2197 net.cpp:247] Top shape: 128 64 8 8 (524288)
I0619 11:13:45.268283  2197 net.cpp:255] Memory required for data: 2809660928
I0619 11:13:45.268290  2197 layer_factory.hpp:77] Creating layer Convolution96
I0619 11:13:45.268303  2197 net.cpp:190] Creating Layer Convolution96
I0619 11:13:45.268314  2197 net.cpp:615] Convolution96 <- Eltwise47_ReLU95_0_split_0
I0619 11:13:45.268326  2197 net.cpp:589] Convolution96 -> Convolution96
I0619 11:13:45.270822  2197 net.cpp:240] Setting up Convolution96
I0619 11:13:45.270835  2197 net.cpp:247] Top shape: 128 64 8 8 (524288)
I0619 11:13:45.270840  2197 net.cpp:255] Memory required for data: 2811758080
I0619 11:13:45.270854  2197 layer_factory.hpp:77] Creating layer BatchNorm96
I0619 11:13:45.270867  2197 net.cpp:190] Creating Layer BatchNorm96
I0619 11:13:45.270874  2197 net.cpp:615] BatchNorm96 <- Convolution96
I0619 11:13:45.270886  2197 net.cpp:576] BatchNorm96 -> Convolution96 (in-place)
I0619 11:13:45.271225  2197 net.cpp:240] Setting up BatchNorm96
I0619 11:13:45.271236  2197 net.cpp:247] Top shape: 128 64 8 8 (524288)
I0619 11:13:45.271241  2197 net.cpp:255] Memory required for data: 2813855232
I0619 11:13:45.271260  2197 layer_factory.hpp:77] Creating layer Scale96
I0619 11:13:45.271270  2197 net.cpp:190] Creating Layer Scale96
I0619 11:13:45.271275  2197 net.cpp:615] Scale96 <- Convolution96
I0619 11:13:45.271284  2197 net.cpp:576] Scale96 -> Convolution96 (in-place)
I0619 11:13:45.271342  2197 layer_factory.hpp:77] Creating layer Scale96
I0619 11:13:45.271544  2197 net.cpp:240] Setting up Scale96
I0619 11:13:45.271555  2197 net.cpp:247] Top shape: 128 64 8 8 (524288)
I0619 11:13:45.271561  2197 net.cpp:255] Memory required for data: 2815952384
I0619 11:13:45.271574  2197 layer_factory.hpp:77] Creating layer ReLU96
I0619 11:13:45.271584  2197 net.cpp:190] Creating Layer ReLU96
I0619 11:13:45.271590  2197 net.cpp:615] ReLU96 <- Convolution96
I0619 11:13:45.271600  2197 net.cpp:576] ReLU96 -> Convolution96 (in-place)
I0619 11:13:45.271608  2197 net.cpp:240] Setting up ReLU96
I0619 11:13:45.271616  2197 net.cpp:247] Top shape: 128 64 8 8 (524288)
I0619 11:13:45.271621  2197 net.cpp:255] Memory required for data: 2818049536
I0619 11:13:45.271627  2197 layer_factory.hpp:77] Creating layer Convolution97
I0619 11:13:45.271643  2197 net.cpp:190] Creating Layer Convolution97
I0619 11:13:45.271649  2197 net.cpp:615] Convolution97 <- Convolution96
I0619 11:13:45.271662  2197 net.cpp:589] Convolution97 -> Convolution97
I0619 11:13:45.274142  2197 net.cpp:240] Setting up Convolution97
I0619 11:13:45.274153  2197 net.cpp:247] Top shape: 128 64 8 8 (524288)
I0619 11:13:45.274159  2197 net.cpp:255] Memory required for data: 2820146688
I0619 11:13:45.274173  2197 layer_factory.hpp:77] Creating layer BatchNorm97
I0619 11:13:45.274185  2197 net.cpp:190] Creating Layer BatchNorm97
I0619 11:13:45.274193  2197 net.cpp:615] BatchNorm97 <- Convolution97
I0619 11:13:45.274204  2197 net.cpp:576] BatchNorm97 -> Convolution97 (in-place)
I0619 11:13:45.274555  2197 net.cpp:240] Setting up BatchNorm97
I0619 11:13:45.274567  2197 net.cpp:247] Top shape: 128 64 8 8 (524288)
I0619 11:13:45.274574  2197 net.cpp:255] Memory required for data: 2822243840
I0619 11:13:45.274593  2197 layer_factory.hpp:77] Creating layer Scale97
I0619 11:13:45.274603  2197 net.cpp:190] Creating Layer Scale97
I0619 11:13:45.274610  2197 net.cpp:615] Scale97 <- Convolution97
I0619 11:13:45.274618  2197 net.cpp:576] Scale97 -> Convolution97 (in-place)
I0619 11:13:45.274679  2197 layer_factory.hpp:77] Creating layer Scale97
I0619 11:13:45.274888  2197 net.cpp:240] Setting up Scale97
I0619 11:13:45.274899  2197 net.cpp:247] Top shape: 128 64 8 8 (524288)
I0619 11:13:45.274904  2197 net.cpp:255] Memory required for data: 2824340992
I0619 11:13:45.274919  2197 layer_factory.hpp:77] Creating layer Eltwise48
I0619 11:13:45.274929  2197 net.cpp:190] Creating Layer Eltwise48
I0619 11:13:45.274935  2197 net.cpp:615] Eltwise48 <- Eltwise47_ReLU95_0_split_1
I0619 11:13:45.274943  2197 net.cpp:615] Eltwise48 <- Convolution97
I0619 11:13:45.274953  2197 net.cpp:589] Eltwise48 -> Eltwise48
I0619 11:13:45.274982  2197 net.cpp:240] Setting up Eltwise48
I0619 11:13:45.274991  2197 net.cpp:247] Top shape: 128 64 8 8 (524288)
I0619 11:13:45.274996  2197 net.cpp:255] Memory required for data: 2826438144
I0619 11:13:45.275005  2197 layer_factory.hpp:77] Creating layer ReLU97
I0619 11:13:45.275014  2197 net.cpp:190] Creating Layer ReLU97
I0619 11:13:45.275019  2197 net.cpp:615] ReLU97 <- Eltwise48
I0619 11:13:45.275030  2197 net.cpp:576] ReLU97 -> Eltwise48 (in-place)
I0619 11:13:45.275039  2197 net.cpp:240] Setting up ReLU97
I0619 11:13:45.275046  2197 net.cpp:247] Top shape: 128 64 8 8 (524288)
I0619 11:13:45.275051  2197 net.cpp:255] Memory required for data: 2828535296
I0619 11:13:45.275058  2197 layer_factory.hpp:77] Creating layer Eltwise48_ReLU97_0_split
I0619 11:13:45.275064  2197 net.cpp:190] Creating Layer Eltwise48_ReLU97_0_split
I0619 11:13:45.275070  2197 net.cpp:615] Eltwise48_ReLU97_0_split <- Eltwise48
I0619 11:13:45.275077  2197 net.cpp:589] Eltwise48_ReLU97_0_split -> Eltwise48_ReLU97_0_split_0
I0619 11:13:45.275087  2197 net.cpp:589] Eltwise48_ReLU97_0_split -> Eltwise48_ReLU97_0_split_1
I0619 11:13:45.275144  2197 net.cpp:240] Setting up Eltwise48_ReLU97_0_split
I0619 11:13:45.275153  2197 net.cpp:247] Top shape: 128 64 8 8 (524288)
I0619 11:13:45.275161  2197 net.cpp:247] Top shape: 128 64 8 8 (524288)
I0619 11:13:45.275166  2197 net.cpp:255] Memory required for data: 2832729600
I0619 11:13:45.275171  2197 layer_factory.hpp:77] Creating layer Convolution98
I0619 11:13:45.275183  2197 net.cpp:190] Creating Layer Convolution98
I0619 11:13:45.275189  2197 net.cpp:615] Convolution98 <- Eltwise48_ReLU97_0_split_0
I0619 11:13:45.275202  2197 net.cpp:589] Convolution98 -> Convolution98
I0619 11:13:45.277532  2197 net.cpp:240] Setting up Convolution98
I0619 11:13:45.277544  2197 net.cpp:247] Top shape: 128 64 8 8 (524288)
I0619 11:13:45.277549  2197 net.cpp:255] Memory required for data: 2834826752
I0619 11:13:45.277562  2197 layer_factory.hpp:77] Creating layer BatchNorm98
I0619 11:13:45.277578  2197 net.cpp:190] Creating Layer BatchNorm98
I0619 11:13:45.277585  2197 net.cpp:615] BatchNorm98 <- Convolution98
I0619 11:13:45.277593  2197 net.cpp:576] BatchNorm98 -> Convolution98 (in-place)
I0619 11:13:45.277915  2197 net.cpp:240] Setting up BatchNorm98
I0619 11:13:45.277925  2197 net.cpp:247] Top shape: 128 64 8 8 (524288)
I0619 11:13:45.277930  2197 net.cpp:255] Memory required for data: 2836923904
I0619 11:13:45.277945  2197 layer_factory.hpp:77] Creating layer Scale98
I0619 11:13:45.277964  2197 net.cpp:190] Creating Layer Scale98
I0619 11:13:45.277971  2197 net.cpp:615] Scale98 <- Convolution98
I0619 11:13:45.277979  2197 net.cpp:576] Scale98 -> Convolution98 (in-place)
I0619 11:13:45.278033  2197 layer_factory.hpp:77] Creating layer Scale98
I0619 11:13:45.278224  2197 net.cpp:240] Setting up Scale98
I0619 11:13:45.278234  2197 net.cpp:247] Top shape: 128 64 8 8 (524288)
I0619 11:13:45.278239  2197 net.cpp:255] Memory required for data: 2839021056
I0619 11:13:45.278251  2197 layer_factory.hpp:77] Creating layer ReLU98
I0619 11:13:45.278264  2197 net.cpp:190] Creating Layer ReLU98
I0619 11:13:45.278270  2197 net.cpp:615] ReLU98 <- Convolution98
I0619 11:13:45.278278  2197 net.cpp:576] ReLU98 -> Convolution98 (in-place)
I0619 11:13:45.278287  2197 net.cpp:240] Setting up ReLU98
I0619 11:13:45.278295  2197 net.cpp:247] Top shape: 128 64 8 8 (524288)
I0619 11:13:45.278298  2197 net.cpp:255] Memory required for data: 2841118208
I0619 11:13:45.278303  2197 layer_factory.hpp:77] Creating layer Convolution99
I0619 11:13:45.278319  2197 net.cpp:190] Creating Layer Convolution99
I0619 11:13:45.278326  2197 net.cpp:615] Convolution99 <- Convolution98
I0619 11:13:45.278334  2197 net.cpp:589] Convolution99 -> Convolution99
I0619 11:13:45.280670  2197 net.cpp:240] Setting up Convolution99
I0619 11:13:45.280683  2197 net.cpp:247] Top shape: 128 64 8 8 (524288)
I0619 11:13:45.280689  2197 net.cpp:255] Memory required for data: 2843215360
I0619 11:13:45.280701  2197 layer_factory.hpp:77] Creating layer BatchNorm99
I0619 11:13:45.280714  2197 net.cpp:190] Creating Layer BatchNorm99
I0619 11:13:45.280719  2197 net.cpp:615] BatchNorm99 <- Convolution99
I0619 11:13:45.280728  2197 net.cpp:576] BatchNorm99 -> Convolution99 (in-place)
I0619 11:13:45.281052  2197 net.cpp:240] Setting up BatchNorm99
I0619 11:13:45.281062  2197 net.cpp:247] Top shape: 128 64 8 8 (524288)
I0619 11:13:45.281067  2197 net.cpp:255] Memory required for data: 2845312512
I0619 11:13:45.281083  2197 layer_factory.hpp:77] Creating layer Scale99
I0619 11:13:45.281093  2197 net.cpp:190] Creating Layer Scale99
I0619 11:13:45.281100  2197 net.cpp:615] Scale99 <- Convolution99
I0619 11:13:45.281107  2197 net.cpp:576] Scale99 -> Convolution99 (in-place)
I0619 11:13:45.281172  2197 layer_factory.hpp:77] Creating layer Scale99
I0619 11:13:45.281357  2197 net.cpp:240] Setting up Scale99
I0619 11:13:45.281366  2197 net.cpp:247] Top shape: 128 64 8 8 (524288)
I0619 11:13:45.281371  2197 net.cpp:255] Memory required for data: 2847409664
I0619 11:13:45.281384  2197 layer_factory.hpp:77] Creating layer Eltwise49
I0619 11:13:45.281396  2197 net.cpp:190] Creating Layer Eltwise49
I0619 11:13:45.281404  2197 net.cpp:615] Eltwise49 <- Eltwise48_ReLU97_0_split_1
I0619 11:13:45.281411  2197 net.cpp:615] Eltwise49 <- Convolution99
I0619 11:13:45.281419  2197 net.cpp:589] Eltwise49 -> Eltwise49
I0619 11:13:45.281450  2197 net.cpp:240] Setting up Eltwise49
I0619 11:13:45.281460  2197 net.cpp:247] Top shape: 128 64 8 8 (524288)
I0619 11:13:45.281463  2197 net.cpp:255] Memory required for data: 2849506816
I0619 11:13:45.281469  2197 layer_factory.hpp:77] Creating layer ReLU99
I0619 11:13:45.281477  2197 net.cpp:190] Creating Layer ReLU99
I0619 11:13:45.281483  2197 net.cpp:615] ReLU99 <- Eltwise49
I0619 11:13:45.281493  2197 net.cpp:576] ReLU99 -> Eltwise49 (in-place)
I0619 11:13:45.281502  2197 net.cpp:240] Setting up ReLU99
I0619 11:13:45.281509  2197 net.cpp:247] Top shape: 128 64 8 8 (524288)
I0619 11:13:45.281514  2197 net.cpp:255] Memory required for data: 2851603968
I0619 11:13:45.281519  2197 layer_factory.hpp:77] Creating layer Eltwise49_ReLU99_0_split
I0619 11:13:45.281527  2197 net.cpp:190] Creating Layer Eltwise49_ReLU99_0_split
I0619 11:13:45.281533  2197 net.cpp:615] Eltwise49_ReLU99_0_split <- Eltwise49
I0619 11:13:45.281540  2197 net.cpp:589] Eltwise49_ReLU99_0_split -> Eltwise49_ReLU99_0_split_0
I0619 11:13:45.281586  2197 net.cpp:589] Eltwise49_ReLU99_0_split -> Eltwise49_ReLU99_0_split_1
I0619 11:13:45.281647  2197 net.cpp:240] Setting up Eltwise49_ReLU99_0_split
I0619 11:13:45.281661  2197 net.cpp:247] Top shape: 128 64 8 8 (524288)
I0619 11:13:45.281668  2197 net.cpp:247] Top shape: 128 64 8 8 (524288)
I0619 11:13:45.281673  2197 net.cpp:255] Memory required for data: 2855798272
I0619 11:13:45.281678  2197 layer_factory.hpp:77] Creating layer Convolution100
I0619 11:13:45.281692  2197 net.cpp:190] Creating Layer Convolution100
I0619 11:13:45.281698  2197 net.cpp:615] Convolution100 <- Eltwise49_ReLU99_0_split_0
I0619 11:13:45.281710  2197 net.cpp:589] Convolution100 -> Convolution100
I0619 11:13:45.284055  2197 net.cpp:240] Setting up Convolution100
I0619 11:13:45.284068  2197 net.cpp:247] Top shape: 128 64 8 8 (524288)
I0619 11:13:45.284073  2197 net.cpp:255] Memory required for data: 2857895424
I0619 11:13:45.284087  2197 layer_factory.hpp:77] Creating layer BatchNorm100
I0619 11:13:45.284101  2197 net.cpp:190] Creating Layer BatchNorm100
I0619 11:13:45.284107  2197 net.cpp:615] BatchNorm100 <- Convolution100
I0619 11:13:45.284116  2197 net.cpp:576] BatchNorm100 -> Convolution100 (in-place)
I0619 11:13:45.284433  2197 net.cpp:240] Setting up BatchNorm100
I0619 11:13:45.284443  2197 net.cpp:247] Top shape: 128 64 8 8 (524288)
I0619 11:13:45.284448  2197 net.cpp:255] Memory required for data: 2859992576
I0619 11:13:45.284463  2197 layer_factory.hpp:77] Creating layer Scale100
I0619 11:13:45.284476  2197 net.cpp:190] Creating Layer Scale100
I0619 11:13:45.284482  2197 net.cpp:615] Scale100 <- Convolution100
I0619 11:13:45.284490  2197 net.cpp:576] Scale100 -> Convolution100 (in-place)
I0619 11:13:45.284548  2197 layer_factory.hpp:77] Creating layer Scale100
I0619 11:13:45.284739  2197 net.cpp:240] Setting up Scale100
I0619 11:13:45.284749  2197 net.cpp:247] Top shape: 128 64 8 8 (524288)
I0619 11:13:45.284764  2197 net.cpp:255] Memory required for data: 2862089728
I0619 11:13:45.284776  2197 layer_factory.hpp:77] Creating layer ReLU100
I0619 11:13:45.284790  2197 net.cpp:190] Creating Layer ReLU100
I0619 11:13:45.284795  2197 net.cpp:615] ReLU100 <- Convolution100
I0619 11:13:45.284803  2197 net.cpp:576] ReLU100 -> Convolution100 (in-place)
I0619 11:13:45.284812  2197 net.cpp:240] Setting up ReLU100
I0619 11:13:45.284821  2197 net.cpp:247] Top shape: 128 64 8 8 (524288)
I0619 11:13:45.284826  2197 net.cpp:255] Memory required for data: 2864186880
I0619 11:13:45.284829  2197 layer_factory.hpp:77] Creating layer Convolution101
I0619 11:13:45.284845  2197 net.cpp:190] Creating Layer Convolution101
I0619 11:13:45.284852  2197 net.cpp:615] Convolution101 <- Convolution100
I0619 11:13:45.284860  2197 net.cpp:589] Convolution101 -> Convolution101
I0619 11:13:45.287955  2197 net.cpp:240] Setting up Convolution101
I0619 11:13:45.287973  2197 net.cpp:247] Top shape: 128 64 8 8 (524288)
I0619 11:13:45.287978  2197 net.cpp:255] Memory required for data: 2866284032
I0619 11:13:45.287992  2197 layer_factory.hpp:77] Creating layer BatchNorm101
I0619 11:13:45.288005  2197 net.cpp:190] Creating Layer BatchNorm101
I0619 11:13:45.288012  2197 net.cpp:615] BatchNorm101 <- Convolution101
I0619 11:13:45.288020  2197 net.cpp:576] BatchNorm101 -> Convolution101 (in-place)
I0619 11:13:45.288324  2197 net.cpp:240] Setting up BatchNorm101
I0619 11:13:45.288333  2197 net.cpp:247] Top shape: 128 64 8 8 (524288)
I0619 11:13:45.288338  2197 net.cpp:255] Memory required for data: 2868381184
I0619 11:13:45.288354  2197 layer_factory.hpp:77] Creating layer Scale101
I0619 11:13:45.288367  2197 net.cpp:190] Creating Layer Scale101
I0619 11:13:45.288372  2197 net.cpp:615] Scale101 <- Convolution101
I0619 11:13:45.288380  2197 net.cpp:576] Scale101 -> Convolution101 (in-place)
I0619 11:13:45.288436  2197 layer_factory.hpp:77] Creating layer Scale101
I0619 11:13:45.288619  2197 net.cpp:240] Setting up Scale101
I0619 11:13:45.288627  2197 net.cpp:247] Top shape: 128 64 8 8 (524288)
I0619 11:13:45.288632  2197 net.cpp:255] Memory required for data: 2870478336
I0619 11:13:45.288645  2197 layer_factory.hpp:77] Creating layer Eltwise50
I0619 11:13:45.288656  2197 net.cpp:190] Creating Layer Eltwise50
I0619 11:13:45.288663  2197 net.cpp:615] Eltwise50 <- Eltwise49_ReLU99_0_split_1
I0619 11:13:45.288671  2197 net.cpp:615] Eltwise50 <- Convolution101
I0619 11:13:45.288678  2197 net.cpp:589] Eltwise50 -> Eltwise50
I0619 11:13:45.288713  2197 net.cpp:240] Setting up Eltwise50
I0619 11:13:45.288722  2197 net.cpp:247] Top shape: 128 64 8 8 (524288)
I0619 11:13:45.288727  2197 net.cpp:255] Memory required for data: 2872575488
I0619 11:13:45.288732  2197 layer_factory.hpp:77] Creating layer ReLU101
I0619 11:13:45.288739  2197 net.cpp:190] Creating Layer ReLU101
I0619 11:13:45.288744  2197 net.cpp:615] ReLU101 <- Eltwise50
I0619 11:13:45.288754  2197 net.cpp:576] ReLU101 -> Eltwise50 (in-place)
I0619 11:13:45.288763  2197 net.cpp:240] Setting up ReLU101
I0619 11:13:45.288770  2197 net.cpp:247] Top shape: 128 64 8 8 (524288)
I0619 11:13:45.288774  2197 net.cpp:255] Memory required for data: 2874672640
I0619 11:13:45.288779  2197 layer_factory.hpp:77] Creating layer Eltwise50_ReLU101_0_split
I0619 11:13:45.288866  2197 net.cpp:190] Creating Layer Eltwise50_ReLU101_0_split
I0619 11:13:45.288874  2197 net.cpp:615] Eltwise50_ReLU101_0_split <- Eltwise50
I0619 11:13:45.288882  2197 net.cpp:589] Eltwise50_ReLU101_0_split -> Eltwise50_ReLU101_0_split_0
I0619 11:13:45.288893  2197 net.cpp:589] Eltwise50_ReLU101_0_split -> Eltwise50_ReLU101_0_split_1
I0619 11:13:45.288954  2197 net.cpp:240] Setting up Eltwise50_ReLU101_0_split
I0619 11:13:45.288961  2197 net.cpp:247] Top shape: 128 64 8 8 (524288)
I0619 11:13:45.288969  2197 net.cpp:247] Top shape: 128 64 8 8 (524288)
I0619 11:13:45.288972  2197 net.cpp:255] Memory required for data: 2878866944
I0619 11:13:45.288978  2197 layer_factory.hpp:77] Creating layer Convolution102
I0619 11:13:45.288996  2197 net.cpp:190] Creating Layer Convolution102
I0619 11:13:45.289006  2197 net.cpp:615] Convolution102 <- Eltwise50_ReLU101_0_split_0
I0619 11:13:45.289019  2197 net.cpp:589] Convolution102 -> Convolution102
I0619 11:13:45.291235  2197 net.cpp:240] Setting up Convolution102
I0619 11:13:45.291249  2197 net.cpp:247] Top shape: 128 64 8 8 (524288)
I0619 11:13:45.291254  2197 net.cpp:255] Memory required for data: 2880964096
I0619 11:13:45.291266  2197 layer_factory.hpp:77] Creating layer BatchNorm102
I0619 11:13:45.291275  2197 net.cpp:190] Creating Layer BatchNorm102
I0619 11:13:45.291282  2197 net.cpp:615] BatchNorm102 <- Convolution102
I0619 11:13:45.291292  2197 net.cpp:576] BatchNorm102 -> Convolution102 (in-place)
I0619 11:13:45.291599  2197 net.cpp:240] Setting up BatchNorm102
I0619 11:13:45.291607  2197 net.cpp:247] Top shape: 128 64 8 8 (524288)
I0619 11:13:45.291612  2197 net.cpp:255] Memory required for data: 2883061248
I0619 11:13:45.291627  2197 layer_factory.hpp:77] Creating layer Scale102
I0619 11:13:45.291636  2197 net.cpp:190] Creating Layer Scale102
I0619 11:13:45.291641  2197 net.cpp:615] Scale102 <- Convolution102
I0619 11:13:45.291653  2197 net.cpp:576] Scale102 -> Convolution102 (in-place)
I0619 11:13:45.291705  2197 layer_factory.hpp:77] Creating layer Scale102
I0619 11:13:45.291887  2197 net.cpp:240] Setting up Scale102
I0619 11:13:45.291898  2197 net.cpp:247] Top shape: 128 64 8 8 (524288)
I0619 11:13:45.291901  2197 net.cpp:255] Memory required for data: 2885158400
I0619 11:13:45.291913  2197 layer_factory.hpp:77] Creating layer ReLU102
I0619 11:13:45.291923  2197 net.cpp:190] Creating Layer ReLU102
I0619 11:13:45.291929  2197 net.cpp:615] ReLU102 <- Convolution102
I0619 11:13:45.291939  2197 net.cpp:576] ReLU102 -> Convolution102 (in-place)
I0619 11:13:45.291947  2197 net.cpp:240] Setting up ReLU102
I0619 11:13:45.291954  2197 net.cpp:247] Top shape: 128 64 8 8 (524288)
I0619 11:13:45.291959  2197 net.cpp:255] Memory required for data: 2887255552
I0619 11:13:45.291963  2197 layer_factory.hpp:77] Creating layer Convolution103
I0619 11:13:45.291978  2197 net.cpp:190] Creating Layer Convolution103
I0619 11:13:45.291983  2197 net.cpp:615] Convolution103 <- Convolution102
I0619 11:13:45.291992  2197 net.cpp:589] Convolution103 -> Convolution103
I0619 11:13:45.294183  2197 net.cpp:240] Setting up Convolution103
I0619 11:13:45.294194  2197 net.cpp:247] Top shape: 128 64 8 8 (524288)
I0619 11:13:45.294199  2197 net.cpp:255] Memory required for data: 2889352704
I0619 11:13:45.294211  2197 layer_factory.hpp:77] Creating layer BatchNorm103
I0619 11:13:45.294230  2197 net.cpp:190] Creating Layer BatchNorm103
I0619 11:13:45.294236  2197 net.cpp:615] BatchNorm103 <- Convolution103
I0619 11:13:45.294245  2197 net.cpp:576] BatchNorm103 -> Convolution103 (in-place)
I0619 11:13:45.294555  2197 net.cpp:240] Setting up BatchNorm103
I0619 11:13:45.294565  2197 net.cpp:247] Top shape: 128 64 8 8 (524288)
I0619 11:13:45.294570  2197 net.cpp:255] Memory required for data: 2891449856
I0619 11:13:45.294585  2197 layer_factory.hpp:77] Creating layer Scale103
I0619 11:13:45.294595  2197 net.cpp:190] Creating Layer Scale103
I0619 11:13:45.294600  2197 net.cpp:615] Scale103 <- Convolution103
I0619 11:13:45.294608  2197 net.cpp:576] Scale103 -> Convolution103 (in-place)
I0619 11:13:45.294661  2197 layer_factory.hpp:77] Creating layer Scale103
I0619 11:13:45.294842  2197 net.cpp:240] Setting up Scale103
I0619 11:13:45.294852  2197 net.cpp:247] Top shape: 128 64 8 8 (524288)
I0619 11:13:45.294857  2197 net.cpp:255] Memory required for data: 2893547008
I0619 11:13:45.294869  2197 layer_factory.hpp:77] Creating layer Eltwise51
I0619 11:13:45.294880  2197 net.cpp:190] Creating Layer Eltwise51
I0619 11:13:45.294886  2197 net.cpp:615] Eltwise51 <- Eltwise50_ReLU101_0_split_1
I0619 11:13:45.294894  2197 net.cpp:615] Eltwise51 <- Convolution103
I0619 11:13:45.294901  2197 net.cpp:589] Eltwise51 -> Eltwise51
I0619 11:13:45.294929  2197 net.cpp:240] Setting up Eltwise51
I0619 11:13:45.294937  2197 net.cpp:247] Top shape: 128 64 8 8 (524288)
I0619 11:13:45.294948  2197 net.cpp:255] Memory required for data: 2895644160
I0619 11:13:45.294953  2197 layer_factory.hpp:77] Creating layer ReLU103
I0619 11:13:45.294965  2197 net.cpp:190] Creating Layer ReLU103
I0619 11:13:45.294970  2197 net.cpp:615] ReLU103 <- Eltwise51
I0619 11:13:45.294977  2197 net.cpp:576] ReLU103 -> Eltwise51 (in-place)
I0619 11:13:45.294986  2197 net.cpp:240] Setting up ReLU103
I0619 11:13:45.294992  2197 net.cpp:247] Top shape: 128 64 8 8 (524288)
I0619 11:13:45.294997  2197 net.cpp:255] Memory required for data: 2897741312
I0619 11:13:45.295002  2197 layer_factory.hpp:77] Creating layer Eltwise51_ReLU103_0_split
I0619 11:13:45.295009  2197 net.cpp:190] Creating Layer Eltwise51_ReLU103_0_split
I0619 11:13:45.295014  2197 net.cpp:615] Eltwise51_ReLU103_0_split <- Eltwise51
I0619 11:13:45.295022  2197 net.cpp:589] Eltwise51_ReLU103_0_split -> Eltwise51_ReLU103_0_split_0
I0619 11:13:45.295032  2197 net.cpp:589] Eltwise51_ReLU103_0_split -> Eltwise51_ReLU103_0_split_1
I0619 11:13:45.295085  2197 net.cpp:240] Setting up Eltwise51_ReLU103_0_split
I0619 11:13:45.295094  2197 net.cpp:247] Top shape: 128 64 8 8 (524288)
I0619 11:13:45.295100  2197 net.cpp:247] Top shape: 128 64 8 8 (524288)
I0619 11:13:45.295105  2197 net.cpp:255] Memory required for data: 2901935616
I0619 11:13:45.295110  2197 layer_factory.hpp:77] Creating layer Convolution104
I0619 11:13:45.295125  2197 net.cpp:190] Creating Layer Convolution104
I0619 11:13:45.295130  2197 net.cpp:615] Convolution104 <- Eltwise51_ReLU103_0_split_0
I0619 11:13:45.295140  2197 net.cpp:589] Convolution104 -> Convolution104
I0619 11:13:45.297334  2197 net.cpp:240] Setting up Convolution104
I0619 11:13:45.297344  2197 net.cpp:247] Top shape: 128 64 8 8 (524288)
I0619 11:13:45.297349  2197 net.cpp:255] Memory required for data: 2904032768
I0619 11:13:45.297363  2197 layer_factory.hpp:77] Creating layer BatchNorm104
I0619 11:13:45.297379  2197 net.cpp:190] Creating Layer BatchNorm104
I0619 11:13:45.297385  2197 net.cpp:615] BatchNorm104 <- Convolution104
I0619 11:13:45.297394  2197 net.cpp:576] BatchNorm104 -> Convolution104 (in-place)
I0619 11:13:45.297704  2197 net.cpp:240] Setting up BatchNorm104
I0619 11:13:45.297714  2197 net.cpp:247] Top shape: 128 64 8 8 (524288)
I0619 11:13:45.297719  2197 net.cpp:255] Memory required for data: 2906129920
I0619 11:13:45.297734  2197 layer_factory.hpp:77] Creating layer Scale104
I0619 11:13:45.297746  2197 net.cpp:190] Creating Layer Scale104
I0619 11:13:45.297752  2197 net.cpp:615] Scale104 <- Convolution104
I0619 11:13:45.297760  2197 net.cpp:576] Scale104 -> Convolution104 (in-place)
I0619 11:13:45.297813  2197 layer_factory.hpp:77] Creating layer Scale104
I0619 11:13:45.297991  2197 net.cpp:240] Setting up Scale104
I0619 11:13:45.298001  2197 net.cpp:247] Top shape: 128 64 8 8 (524288)
I0619 11:13:45.298005  2197 net.cpp:255] Memory required for data: 2908227072
I0619 11:13:45.298017  2197 layer_factory.hpp:77] Creating layer ReLU104
I0619 11:13:45.298028  2197 net.cpp:190] Creating Layer ReLU104
I0619 11:13:45.298034  2197 net.cpp:615] ReLU104 <- Convolution104
I0619 11:13:45.298041  2197 net.cpp:576] ReLU104 -> Convolution104 (in-place)
I0619 11:13:45.298050  2197 net.cpp:240] Setting up ReLU104
I0619 11:13:45.298056  2197 net.cpp:247] Top shape: 128 64 8 8 (524288)
I0619 11:13:45.298061  2197 net.cpp:255] Memory required for data: 2910324224
I0619 11:13:45.298066  2197 layer_factory.hpp:77] Creating layer Convolution105
I0619 11:13:45.298081  2197 net.cpp:190] Creating Layer Convolution105
I0619 11:13:45.298086  2197 net.cpp:615] Convolution105 <- Convolution104
I0619 11:13:45.298097  2197 net.cpp:589] Convolution105 -> Convolution105
I0619 11:13:45.300228  2197 net.cpp:240] Setting up Convolution105
I0619 11:13:45.300240  2197 net.cpp:247] Top shape: 128 64 8 8 (524288)
I0619 11:13:45.300245  2197 net.cpp:255] Memory required for data: 2912421376
I0619 11:13:45.300256  2197 layer_factory.hpp:77] Creating layer BatchNorm105
I0619 11:13:45.300264  2197 net.cpp:190] Creating Layer BatchNorm105
I0619 11:13:45.300274  2197 net.cpp:615] BatchNorm105 <- Convolution105
I0619 11:13:45.300282  2197 net.cpp:576] BatchNorm105 -> Convolution105 (in-place)
I0619 11:13:45.300572  2197 net.cpp:240] Setting up BatchNorm105
I0619 11:13:45.300581  2197 net.cpp:247] Top shape: 128 64 8 8 (524288)
I0619 11:13:45.300586  2197 net.cpp:255] Memory required for data: 2914518528
I0619 11:13:45.300601  2197 layer_factory.hpp:77] Creating layer Scale105
I0619 11:13:45.300609  2197 net.cpp:190] Creating Layer Scale105
I0619 11:13:45.300614  2197 net.cpp:615] Scale105 <- Convolution105
I0619 11:13:45.300621  2197 net.cpp:576] Scale105 -> Convolution105 (in-place)
I0619 11:13:45.300674  2197 layer_factory.hpp:77] Creating layer Scale105
I0619 11:13:45.300846  2197 net.cpp:240] Setting up Scale105
I0619 11:13:45.300858  2197 net.cpp:247] Top shape: 128 64 8 8 (524288)
I0619 11:13:45.300863  2197 net.cpp:255] Memory required for data: 2916615680
I0619 11:13:45.300873  2197 layer_factory.hpp:77] Creating layer Eltwise52
I0619 11:13:45.300882  2197 net.cpp:190] Creating Layer Eltwise52
I0619 11:13:45.300889  2197 net.cpp:615] Eltwise52 <- Eltwise51_ReLU103_0_split_1
I0619 11:13:45.300895  2197 net.cpp:615] Eltwise52 <- Convolution105
I0619 11:13:45.300902  2197 net.cpp:589] Eltwise52 -> Eltwise52
I0619 11:13:45.300931  2197 net.cpp:240] Setting up Eltwise52
I0619 11:13:45.300940  2197 net.cpp:247] Top shape: 128 64 8 8 (524288)
I0619 11:13:45.300943  2197 net.cpp:255] Memory required for data: 2918712832
I0619 11:13:45.300947  2197 layer_factory.hpp:77] Creating layer ReLU105
I0619 11:13:45.300956  2197 net.cpp:190] Creating Layer ReLU105
I0619 11:13:45.300961  2197 net.cpp:615] ReLU105 <- Eltwise52
I0619 11:13:45.300973  2197 net.cpp:576] ReLU105 -> Eltwise52 (in-place)
I0619 11:13:45.300981  2197 net.cpp:240] Setting up ReLU105
I0619 11:13:45.300987  2197 net.cpp:247] Top shape: 128 64 8 8 (524288)
I0619 11:13:45.300992  2197 net.cpp:255] Memory required for data: 2920809984
I0619 11:13:45.300997  2197 layer_factory.hpp:77] Creating layer Eltwise52_ReLU105_0_split
I0619 11:13:45.301003  2197 net.cpp:190] Creating Layer Eltwise52_ReLU105_0_split
I0619 11:13:45.301008  2197 net.cpp:615] Eltwise52_ReLU105_0_split <- Eltwise52
I0619 11:13:45.301015  2197 net.cpp:589] Eltwise52_ReLU105_0_split -> Eltwise52_ReLU105_0_split_0
I0619 11:13:45.301023  2197 net.cpp:589] Eltwise52_ReLU105_0_split -> Eltwise52_ReLU105_0_split_1
I0619 11:13:45.301075  2197 net.cpp:240] Setting up Eltwise52_ReLU105_0_split
I0619 11:13:45.301082  2197 net.cpp:247] Top shape: 128 64 8 8 (524288)
I0619 11:13:45.301089  2197 net.cpp:247] Top shape: 128 64 8 8 (524288)
I0619 11:13:45.301093  2197 net.cpp:255] Memory required for data: 2925004288
I0619 11:13:45.301097  2197 layer_factory.hpp:77] Creating layer Convolution106
I0619 11:13:45.301111  2197 net.cpp:190] Creating Layer Convolution106
I0619 11:13:45.301116  2197 net.cpp:615] Convolution106 <- Eltwise52_ReLU105_0_split_0
I0619 11:13:45.301126  2197 net.cpp:589] Convolution106 -> Convolution106
I0619 11:13:45.306398  2197 net.cpp:240] Setting up Convolution106
I0619 11:13:45.306442  2197 net.cpp:247] Top shape: 128 64 8 8 (524288)
I0619 11:13:45.306448  2197 net.cpp:255] Memory required for data: 2927101440
I0619 11:13:45.306563  2197 layer_factory.hpp:77] Creating layer BatchNorm106
I0619 11:13:45.306635  2197 net.cpp:190] Creating Layer BatchNorm106
I0619 11:13:45.306713  2197 net.cpp:615] BatchNorm106 <- Convolution106
I0619 11:13:45.306733  2197 net.cpp:576] BatchNorm106 -> Convolution106 (in-place)
I0619 11:13:45.307034  2197 net.cpp:240] Setting up BatchNorm106
I0619 11:13:45.307044  2197 net.cpp:247] Top shape: 128 64 8 8 (524288)
I0619 11:13:45.307049  2197 net.cpp:255] Memory required for data: 2929198592
I0619 11:13:45.307063  2197 layer_factory.hpp:77] Creating layer Scale106
I0619 11:13:45.307087  2197 net.cpp:190] Creating Layer Scale106
I0619 11:13:45.307093  2197 net.cpp:615] Scale106 <- Convolution106
I0619 11:13:45.307101  2197 net.cpp:576] Scale106 -> Convolution106 (in-place)
I0619 11:13:45.307155  2197 layer_factory.hpp:77] Creating layer Scale106
I0619 11:13:45.307337  2197 net.cpp:240] Setting up Scale106
I0619 11:13:45.307346  2197 net.cpp:247] Top shape: 128 64 8 8 (524288)
I0619 11:13:45.307351  2197 net.cpp:255] Memory required for data: 2931295744
I0619 11:13:45.307396  2197 layer_factory.hpp:77] Creating layer ReLU106
I0619 11:13:45.307430  2197 net.cpp:190] Creating Layer ReLU106
I0619 11:13:45.307436  2197 net.cpp:615] ReLU106 <- Convolution106
I0619 11:13:45.307443  2197 net.cpp:576] ReLU106 -> Convolution106 (in-place)
I0619 11:13:45.307458  2197 net.cpp:240] Setting up ReLU106
I0619 11:13:45.307466  2197 net.cpp:247] Top shape: 128 64 8 8 (524288)
I0619 11:13:45.307469  2197 net.cpp:255] Memory required for data: 2933392896
I0619 11:13:45.307474  2197 layer_factory.hpp:77] Creating layer Convolution107
I0619 11:13:45.307495  2197 net.cpp:190] Creating Layer Convolution107
I0619 11:13:45.307502  2197 net.cpp:615] Convolution107 <- Convolution106
I0619 11:13:45.307510  2197 net.cpp:589] Convolution107 -> Convolution107
I0619 11:13:45.309792  2197 net.cpp:240] Setting up Convolution107
I0619 11:13:45.309804  2197 net.cpp:247] Top shape: 128 64 8 8 (524288)
I0619 11:13:45.309809  2197 net.cpp:255] Memory required for data: 2935490048
I0619 11:13:45.309821  2197 layer_factory.hpp:77] Creating layer BatchNorm107
I0619 11:13:45.309831  2197 net.cpp:190] Creating Layer BatchNorm107
I0619 11:13:45.309837  2197 net.cpp:615] BatchNorm107 <- Convolution107
I0619 11:13:45.309854  2197 net.cpp:576] BatchNorm107 -> Convolution107 (in-place)
I0619 11:13:45.310150  2197 net.cpp:240] Setting up BatchNorm107
I0619 11:13:45.310159  2197 net.cpp:247] Top shape: 128 64 8 8 (524288)
I0619 11:13:45.310164  2197 net.cpp:255] Memory required for data: 2937587200
I0619 11:13:45.310178  2197 layer_factory.hpp:77] Creating layer Scale107
I0619 11:13:45.310196  2197 net.cpp:190] Creating Layer Scale107
I0619 11:13:45.310202  2197 net.cpp:615] Scale107 <- Convolution107
I0619 11:13:45.310209  2197 net.cpp:576] Scale107 -> Convolution107 (in-place)
I0619 11:13:45.310258  2197 layer_factory.hpp:77] Creating layer Scale107
I0619 11:13:45.310443  2197 net.cpp:240] Setting up Scale107
I0619 11:13:45.310453  2197 net.cpp:247] Top shape: 128 64 8 8 (524288)
I0619 11:13:45.310458  2197 net.cpp:255] Memory required for data: 2939684352
I0619 11:13:45.310469  2197 layer_factory.hpp:77] Creating layer Eltwise53
I0619 11:13:45.310497  2197 net.cpp:190] Creating Layer Eltwise53
I0619 11:13:45.310544  2197 net.cpp:615] Eltwise53 <- Eltwise52_ReLU105_0_split_1
I0619 11:13:45.310551  2197 net.cpp:615] Eltwise53 <- Convolution107
I0619 11:13:45.310559  2197 net.cpp:589] Eltwise53 -> Eltwise53
I0619 11:13:45.310590  2197 net.cpp:240] Setting up Eltwise53
I0619 11:13:45.310600  2197 net.cpp:247] Top shape: 128 64 8 8 (524288)
I0619 11:13:45.310603  2197 net.cpp:255] Memory required for data: 2941781504
I0619 11:13:45.310608  2197 layer_factory.hpp:77] Creating layer ReLU107
I0619 11:13:45.310621  2197 net.cpp:190] Creating Layer ReLU107
I0619 11:13:45.310626  2197 net.cpp:615] ReLU107 <- Eltwise53
I0619 11:13:45.310633  2197 net.cpp:576] ReLU107 -> Eltwise53 (in-place)
I0619 11:13:45.310642  2197 net.cpp:240] Setting up ReLU107
I0619 11:13:45.310647  2197 net.cpp:247] Top shape: 128 64 8 8 (524288)
I0619 11:13:45.310652  2197 net.cpp:255] Memory required for data: 2943878656
I0619 11:13:45.310657  2197 layer_factory.hpp:77] Creating layer Eltwise53_ReLU107_0_split
I0619 11:13:45.310663  2197 net.cpp:190] Creating Layer Eltwise53_ReLU107_0_split
I0619 11:13:45.310667  2197 net.cpp:615] Eltwise53_ReLU107_0_split <- Eltwise53
I0619 11:13:45.310678  2197 net.cpp:589] Eltwise53_ReLU107_0_split -> Eltwise53_ReLU107_0_split_0
I0619 11:13:45.310698  2197 net.cpp:589] Eltwise53_ReLU107_0_split -> Eltwise53_ReLU107_0_split_1
I0619 11:13:45.310752  2197 net.cpp:240] Setting up Eltwise53_ReLU107_0_split
I0619 11:13:45.310761  2197 net.cpp:247] Top shape: 128 64 8 8 (524288)
I0619 11:13:45.310766  2197 net.cpp:247] Top shape: 128 64 8 8 (524288)
I0619 11:13:45.310771  2197 net.cpp:255] Memory required for data: 2948072960
I0619 11:13:45.310780  2197 layer_factory.hpp:77] Creating layer Convolution108
I0619 11:13:45.310809  2197 net.cpp:190] Creating Layer Convolution108
I0619 11:13:45.310816  2197 net.cpp:615] Convolution108 <- Eltwise53_ReLU107_0_split_0
I0619 11:13:45.310834  2197 net.cpp:589] Convolution108 -> Convolution108
I0619 11:13:45.313874  2197 net.cpp:240] Setting up Convolution108
I0619 11:13:45.313891  2197 net.cpp:247] Top shape: 128 64 8 8 (524288)
I0619 11:13:45.313896  2197 net.cpp:255] Memory required for data: 2950170112
I0619 11:13:45.313910  2197 layer_factory.hpp:77] Creating layer BatchNorm108
I0619 11:13:45.313930  2197 net.cpp:190] Creating Layer BatchNorm108
I0619 11:13:45.313937  2197 net.cpp:615] BatchNorm108 <- Convolution108
I0619 11:13:45.313947  2197 net.cpp:576] BatchNorm108 -> Convolution108 (in-place)
I0619 11:13:45.314224  2197 net.cpp:240] Setting up BatchNorm108
I0619 11:13:45.314234  2197 net.cpp:247] Top shape: 128 64 8 8 (524288)
I0619 11:13:45.314239  2197 net.cpp:255] Memory required for data: 2952267264
I0619 11:13:45.314251  2197 layer_factory.hpp:77] Creating layer Scale108
I0619 11:13:45.314268  2197 net.cpp:190] Creating Layer Scale108
I0619 11:13:45.314275  2197 net.cpp:615] Scale108 <- Convolution108
I0619 11:13:45.314280  2197 net.cpp:576] Scale108 -> Convolution108 (in-place)
I0619 11:13:45.314332  2197 layer_factory.hpp:77] Creating layer Scale108
I0619 11:13:45.314515  2197 net.cpp:240] Setting up Scale108
I0619 11:13:45.314527  2197 net.cpp:247] Top shape: 128 64 8 8 (524288)
I0619 11:13:45.314530  2197 net.cpp:255] Memory required for data: 2954364416
I0619 11:13:45.314541  2197 layer_factory.hpp:77] Creating layer ReLU108
I0619 11:13:45.314558  2197 net.cpp:190] Creating Layer ReLU108
I0619 11:13:45.314564  2197 net.cpp:615] ReLU108 <- Convolution108
I0619 11:13:45.314571  2197 net.cpp:576] ReLU108 -> Convolution108 (in-place)
I0619 11:13:45.314579  2197 net.cpp:240] Setting up ReLU108
I0619 11:13:45.314586  2197 net.cpp:247] Top shape: 128 64 8 8 (524288)
I0619 11:13:45.314590  2197 net.cpp:255] Memory required for data: 2956461568
I0619 11:13:45.314594  2197 layer_factory.hpp:77] Creating layer Convolution109
I0619 11:13:45.314612  2197 net.cpp:190] Creating Layer Convolution109
I0619 11:13:45.314617  2197 net.cpp:615] Convolution109 <- Convolution108
I0619 11:13:45.314628  2197 net.cpp:589] Convolution109 -> Convolution109
I0619 11:13:45.316598  2197 net.cpp:240] Setting up Convolution109
I0619 11:13:45.316609  2197 net.cpp:247] Top shape: 128 64 8 8 (524288)
I0619 11:13:45.316613  2197 net.cpp:255] Memory required for data: 2958558720
I0619 11:13:45.316630  2197 layer_factory.hpp:77] Creating layer BatchNorm109
I0619 11:13:45.316639  2197 net.cpp:190] Creating Layer BatchNorm109
I0619 11:13:45.316644  2197 net.cpp:615] BatchNorm109 <- Convolution109
I0619 11:13:45.316654  2197 net.cpp:576] BatchNorm109 -> Convolution109 (in-place)
I0619 11:13:45.316936  2197 net.cpp:240] Setting up BatchNorm109
I0619 11:13:45.316944  2197 net.cpp:247] Top shape: 128 64 8 8 (524288)
I0619 11:13:45.316948  2197 net.cpp:255] Memory required for data: 2960655872
I0619 11:13:45.316963  2197 layer_factory.hpp:77] Creating layer Scale109
I0619 11:13:45.316977  2197 net.cpp:190] Creating Layer Scale109
I0619 11:13:45.316982  2197 net.cpp:615] Scale109 <- Convolution109
I0619 11:13:45.316992  2197 net.cpp:576] Scale109 -> Convolution109 (in-place)
I0619 11:13:45.317040  2197 layer_factory.hpp:77] Creating layer Scale109
I0619 11:13:45.317204  2197 net.cpp:240] Setting up Scale109
I0619 11:13:45.317214  2197 net.cpp:247] Top shape: 128 64 8 8 (524288)
I0619 11:13:45.317217  2197 net.cpp:255] Memory required for data: 2962753024
I0619 11:13:45.317229  2197 layer_factory.hpp:77] Creating layer Eltwise54
I0619 11:13:45.317242  2197 net.cpp:190] Creating Layer Eltwise54
I0619 11:13:45.317250  2197 net.cpp:615] Eltwise54 <- Eltwise53_ReLU107_0_split_1
I0619 11:13:45.317256  2197 net.cpp:615] Eltwise54 <- Convolution109
I0619 11:13:45.317265  2197 net.cpp:589] Eltwise54 -> Eltwise54
I0619 11:13:45.317296  2197 net.cpp:240] Setting up Eltwise54
I0619 11:13:45.317304  2197 net.cpp:247] Top shape: 128 64 8 8 (524288)
I0619 11:13:45.317308  2197 net.cpp:255] Memory required for data: 2964850176
I0619 11:13:45.317313  2197 layer_factory.hpp:77] Creating layer ReLU109
I0619 11:13:45.317322  2197 net.cpp:190] Creating Layer ReLU109
I0619 11:13:45.317327  2197 net.cpp:615] ReLU109 <- Eltwise54
I0619 11:13:45.317333  2197 net.cpp:576] ReLU109 -> Eltwise54 (in-place)
I0619 11:13:45.317342  2197 net.cpp:240] Setting up ReLU109
I0619 11:13:45.317348  2197 net.cpp:247] Top shape: 128 64 8 8 (524288)
I0619 11:13:45.317353  2197 net.cpp:255] Memory required for data: 2966947328
I0619 11:13:45.317363  2197 layer_factory.hpp:77] Creating layer Pooling4
I0619 11:13:45.317370  2197 net.cpp:190] Creating Layer Pooling4
I0619 11:13:45.317375  2197 net.cpp:615] Pooling4 <- Eltwise54
I0619 11:13:45.317446  2197 net.cpp:589] Pooling4 -> Pooling4
I0619 11:13:45.317507  2197 net.cpp:240] Setting up Pooling4
I0619 11:13:45.317517  2197 net.cpp:247] Top shape: 128 64 1 1 (8192)
I0619 11:13:45.317520  2197 net.cpp:255] Memory required for data: 2966980096
I0619 11:13:45.317524  2197 layer_factory.hpp:77] Creating layer InnerProduct1
I0619 11:13:45.317548  2197 net.cpp:190] Creating Layer InnerProduct1
I0619 11:13:45.317553  2197 net.cpp:615] InnerProduct1 <- Pooling4
I0619 11:13:45.317560  2197 net.cpp:589] InnerProduct1 -> InnerProduct1
I0619 11:13:45.318203  2197 net.cpp:240] Setting up InnerProduct1
I0619 11:13:45.318215  2197 net.cpp:247] Top shape: 128 10 (1280)
I0619 11:13:45.318219  2197 net.cpp:255] Memory required for data: 2966985216
I0619 11:13:45.318231  2197 layer_factory.hpp:77] Creating layer InnerProduct1_InnerProduct1_0_split
I0619 11:13:45.318239  2197 net.cpp:190] Creating Layer InnerProduct1_InnerProduct1_0_split
I0619 11:13:45.318244  2197 net.cpp:615] InnerProduct1_InnerProduct1_0_split <- InnerProduct1
I0619 11:13:45.318255  2197 net.cpp:589] InnerProduct1_InnerProduct1_0_split -> InnerProduct1_InnerProduct1_0_split_0
I0619 11:13:45.318264  2197 net.cpp:589] InnerProduct1_InnerProduct1_0_split -> InnerProduct1_InnerProduct1_0_split_1
I0619 11:13:45.318308  2197 net.cpp:240] Setting up InnerProduct1_InnerProduct1_0_split
I0619 11:13:45.318316  2197 net.cpp:247] Top shape: 128 10 (1280)
I0619 11:13:45.318321  2197 net.cpp:247] Top shape: 128 10 (1280)
I0619 11:13:45.318326  2197 net.cpp:255] Memory required for data: 2966995456
I0619 11:13:45.318331  2197 layer_factory.hpp:77] Creating layer Accuracy
I0619 11:13:45.318349  2197 net.cpp:190] Creating Layer Accuracy
I0619 11:13:45.318361  2197 net.cpp:615] Accuracy <- InnerProduct1_InnerProduct1_0_split_0
I0619 11:13:45.318390  2197 net.cpp:615] Accuracy <- Data2_Data1_1_split_0
I0619 11:13:45.318430  2197 net.cpp:589] Accuracy -> Accuracy
…
