…
stepvalue: 100000
stepvalue: 150000
type: "Nesterov"
I0619 14:56:41.993685 17898 solver.cpp:81] Creating training net from train_net file: examples/stochastic_depth/residual_train54.prototxt
I0619 14:56:42.009977 17898 net.cpp:49] Initializing net from parameters: 
state {
  phase: TRAIN
}
layer {
  name: "Data1"
  type: "Data"
  top: "Data1"
  top: "Data2"
  transform_param {
    mirror: true
    crop_size: 32
  }
  data_param {
    source: "/scratch/pas282/caffe/examples/cifar10/cifar10_train_leveldb_padding3"
    batch_size: 128
    backend: LEVELDB
  }
}
layer {
  name: "Convolution1"
  type: "Convolution"
  bottom: "Data1"
  top: "Convolution1"
  convolution_param {
    num_output: 16
    bias_term: true
    pad: 1
    kernel_size: 3
    stride: 1
    weight_filler {
      type: "msra"
    }
    bias_filler {
      type: "constant"
    }
  }
}
layer {
  name: "BatchNorm1"
  type: "BatchNorm"
  bottom: "Convolution1"
  top: "Convolution1"
  param {
    lr_mult: 0
    decay_mult: 0
  }
  param {
    lr_mult: 0
    decay_mult: 0
  }
  param {
    lr_mult: 0
    decay_mult: 0
  }
}
layer {
  name: "Scale1"
  type: "Scale"
  bottom: "Convolution1"
  top: "Convolution1"
  scale_param {
    bias_term: true
  }
}
layer {
  name: "ReLU1"
  type: "ReLU"
  bottom: "Convolution1"
  top: "Convolution1"
}
layer {
  name: "Convolution2"
  type: "Convolution"
  bottom: "Convolution1"
  top: "Convolution2"
  convolution_param {
    num_output: 16
    bias_term: true
    pad: 1
    kernel_size: 3
    stride: 1
    weight_filler {
      type: "msra"
    }
    bias_filler {
      type: "constant"
    }
  }
}
layer {
  name: "BatchNorm2"
  type: "BatchNorm"
  bottom: "Convolution2"
  top: "Convolution2"
  param {
    lr_mult: 0
    decay_mult: 0
  }
  param {
    lr_mult: 0
    decay_mult: 0
  }
  param {
    lr_mult: 0
    decay_mult: 0
  }
}
layer {
  name: "Scale2"
  type: "Scale"
  bottom: "Convolution2"
  top: "Convolution2"
  scale_param {
    bias_term: true
  }
}
layer {
  name: "ReLU2"
  type: "ReLU"
  bottom: "Convolution2"
  top: "Convolution2"
}
layer {
  name: "Convolution3"
  type: "Convolution"
  bottom: "Convolution2"
  top: "Convolution3"
  convolution_param {
    num_output: 16
    bias_term: true
    pad: 1
    kernel_size: 3
    stride: 1
    weight_filler {
      type: "msra"
    }
    bias_filler {
      type: "constant"
    }
  }
}
layer {
  name: "BatchNorm3"
  type: "BatchNorm"
  bottom: "Convolution3"
  top: "Convolution3"
  param {
    lr_mult: 0
    decay_mult: 0
  }
  param {
    lr_mult: 0
    decay_mult: 0
  }
  param {
    lr_mult: 0
    decay_mult: 0
  }
}
layer {
  name: "Scale3"
  type: "Scale"
  bottom: "Convolution3"
  top: "Convolution3"
  scale_param {
    bias_term: true
  }
}
layer {
  name: "Eltwise1"
  type: "Eltwise"
  bottom: "Convolution1"
  bottom: "Convolution3"
  top: "Eltwise1"
  eltwise_param {
    operation: SUM
  }
}
layer {
  name: "ReLU3"
  type: "ReLU"
  bottom: "Eltwise1"
  top: "Eltwise1"
}
layer {
  name: "Convolution4"
  type: "Convolution"
  bottom: "Eltwise1"
  top: "Convolution4"
  convolution_param {
    num_output: 16
    bias_term: true
    pad: 1
    kernel_size: 3
    stride: 1
    weight_filler {
      type: "msra"
    }
    bias_filler {
      type: "constant"
    }
  }
}
layer {
  name: "BatchNorm4"
  type: "BatchNorm"
  bottom: "Convolution4"
  top: "Convolution4"
  param {
    lr_mult: 0
    decay_mult: 0
  }
  param {
    lr_mult: 0
    decay_mult: 0
  }
  param {
    lr_mult: 0
    decay_mult: 0
  }
}
layer {
  name: "Scale4"
  type: "Scale"
  bottom: "Convolution4"
  top: "Convolution4"
  scale_param {
    bias_term: true
  }
}
layer {
  name: "ReLU4"
  type: "ReLU"
  bottom: "Convolution4"
  top: "Convolution4"
}
layer {
  name: "Convolution5"
  type: "Convolution"
  bottom: "Convolution4"
  top: "Convolution5"
  convolution_param {
    num_output: 16
    bias_term: true
    pad: 1
    kernel_size: 3
    stride: 1
    weight_filler {
      type: "msra"
    }
    bias_filler {
      type: "constant"
    }
  }
}
layer {
  name: "BatchNorm5"
  type: "BatchNorm"
  bottom: "Convolution5"
  top: "Convolution5"
  param {
    lr_mult: 0
    decay_mult: 0
  }
  param {
    lr_mult: 0
    decay_mult: 0
  }
  param {
    lr_mult: 0
    decay_mult: 0
  }
}
layer {
  name: "Scale5"
  type: "Scale"
  bottom: "Convolution5"
  top: "Convolution5"
  scale_param {
    bias_term: true
  }
}
layer {
  name: "Eltwise2"
  type: "Eltwise"
  bottom: "Eltwise1"
  bottom: "Convolution5"
  top: "Eltwise2"
  eltwise_param {
    operation: SUM
  }
}
layer {
  name: "ReLU5"
  type: "ReLU"
  bottom: "Eltwise2"
  top: "Eltwise2"
}
layer {
  name: "Convolution6"
  type: "Convolution"
  bottom: "Eltwise2"
  top: "Convolution6"
  convolution_param {
    num_output: 16
    bias_term: true
    pad: 1
    kernel_size: 3
    stride: 1
    weight_filler {
      type: "msra"
    }
    bias_filler {
      type: "constant"
    }
  }
}
layer {
  name: "BatchNorm6"
  type: "BatchNorm"
  bottom: "Convolution6"
  top: "Convolution6"
  param {
    lr_mult: 0
    decay_mult: 0
  }
  param {
    lr_mult: 0
    decay_mult: 0
  }
  param {
    lr_mult: 0
    decay_mult: 0
  }
}
layer {
  name: "Scale6"
  type: "Scale"
  bottom: "Convolution6"
  top: "Convolution6"
  scale_param {
    bias_term: true
  }
}
layer {
  name: "ReLU6"
  type: "ReLU"
  bottom: "Convolution6"
  top: "Convolution6"
}
layer {
  name: "Convolution7"
  type: "Convolution"
  bottom: "Convolution6"
  top: "Convolution7"
  convolution_param {
    num_output: 16
    bias_term: true
    pad: 1
    kernel_size: 3
    stride: 1
    weight_filler {
      type: "msra"
    }
    bias_filler {
      type: "constant"
    }
  }
}
layer {
  name: "BatchNorm7"
  type: "BatchNorm"
  bottom: "Convolution7"
  top: "Convolution7"
  param {
    lr_mult: 0
    decay_mult: 0
  }
  param {
    lr_mult: 0
    decay_mult: 0
  }
  param {
    lr_mult: 0
    decay_mult: 0
  }
}
layer {
  name: "Scale7"
  type: "Scale"
  bottom: "Convolution7"
  top: "Convolution7"
  scale_param {
    bias_term: true
  }
}
layer {
  name: "Eltwise3"
  type: "Eltwise"
  bottom: "Eltwise2"
  bottom: "Convolution7"
  top: "Eltwise3"
  eltwise_param {
    operation: SUM
  }
}
layer {
  name: "ReLU7"
  type: "ReLU"
  bottom: "Eltwise3"
  top: "Eltwise3"
}
layer {
  name: "Convolution8"
  type: "Convolution"
  bottom: "Eltwise3"
  top: "Convolution8"
  convolution_param {
    num_output: 16
    bias_term: true
    pad: 1
    kernel_size: 3
    stride: 1
    weight_filler {
      type: "msra"
    }
    bias_filler {
      type: "constant"
    }
  }
}
layer {
  name: "BatchNorm8"
  type: "BatchNorm"
  bottom: "Convolution8"
  top: "Convolution8"
  param {
    lr_mult: 0
    decay_mult: 0
  }
  param {
    lr_mult: 0
    decay_mult: 0
  }
  param {
    lr_mult: 0
    decay_mult: 0
  }
}
layer {
  name: "Scale8"
  type: "Scale"
  bottom: "Convolution8"
  top: "Convolution8"
  scale_param {
    bias_term: true
  }
}
layer {
  name: "ReLU8"
  type: "ReLU"
  bottom: "Convolution8"
  top: "Convolution8"
}
layer {
  name: "Convolution9"
  type: "Convolution"
  bottom: "Convolution8"
  top: "Convolution9"
  convolution_param {
    num_output: 16
    bias_term: true
    pad: 1
    kernel_size: 3
    stride: 1
    weight_filler {
      type: "msra"
    }
    bias_filler {
      type: "constant"
    }
  }
}
layer {
  name: "BatchNorm9"
  type: "BatchNorm"
  bottom: "Convolution9"
  top: "Convolution9"
  param {
    lr_mult: 0
    decay_mult: 0
  }
  param {
    lr_mult: 0
    decay_mult: 0
  }
  param {
    lr_mult: 0
    decay_mult: 0
  }
}
layer {
  name: "Scale9"
  type: "Scale"
  bottom: "Convolution9"
  top: "Convolution9"
  scale_param {
    bias_term: true
  }
}
layer {
  name: "Eltwise4"
  type: "Eltwise"
  bottom: "Eltwise3"
  bottom: "Convolution9"
  top: "Eltwise4"
  eltwise_param {
    operation: SUM
  }
}
layer {
  name: "ReLU9"
  type: "ReLU"
  bottom: "Eltwise4"
  top: "Eltwise4"
}
layer {
  name: "Convolution10"
  type: "Convolution"
  bottom: "Eltwise4"
  top: "Convolution10"
  convolution_param {
    num_output: 16
    bias_term: true
    pad: 1
    kernel_size: 3
    stride: 1
    weight_filler {
      type: "msra"
    }
    bias_filler {
      type: "constant"
    }
  }
}
layer {
  name: "BatchNorm10"
  type: "BatchNorm"
  bottom: "Convolution10"
  top: "Convolution10"
  param {
    lr_mult: 0
    decay_mult: 0
  }
  param {
    lr_mult: 0
    decay_mult: 0
  }
  param {
    lr_mult: 0
    decay_mult: 0
  }
}
layer {
  name: "Scale10"
  type: "Scale"
  bottom: "Convolution10"
  top: "Convolution10"
  scale_param {
    bias_term: true
  }
}
layer {
  name: "ReLU10"
  type: "ReLU"
  bottom: "Convolution10"
  top: "Convolution10"
}
layer {
  name: "Convolution11"
  type: "Convolution"
  bottom: "Convolution10"
  top: "Convolution11"
  convolution_param {
    num_output: 16
    bias_term: true
    pad: 1
    kernel_size: 3
    stride: 1
    weight_filler {
      type: "msra"
    }
    bias_filler {
      type: "constant"
    }
  }
}
layer {
  name: "BatchNorm11"
  type: "BatchNorm"
  bottom: "Convolution11"
  top: "Convolution11"
  param {
    lr_mult: 0
    decay_mult: 0
  }
  param {
    lr_mult: 0
    decay_mult: 0
  }
  param {
    lr_mult: 0
    decay_mult: 0
  }
}
layer {
  name: "Scale11"
  type: "Scale"
  bottom: "Convolution11"
  top: "Convolution11"
  scale_param {
    bias_term: true
  }
}
layer {
  name: "Eltwise5"
  type: "Eltwise"
  bottom: "Eltwise4"
  bottom: "Convolution11"
  top: "Eltwise5"
  eltwise_param {
    operation: SUM
  }
}
layer {
  name: "ReLU11"
  type: "ReLU"
  bottom: "Eltwise5"
  top: "Eltwise5"
}
layer {
  name: "Convolution12"
  type: "Convolution"
  bottom: "Eltwise5"
  top: "Convolution12"
  convolution_param {
    num_output: 16
    bias_term: true
    pad: 1
    kernel_size: 3
    stride: 1
    weight_filler {
      type: "msra"
    }
    bias_filler {
      type: "constant"
    }
  }
}
layer {
  name: "BatchNorm12"
  type: "BatchNorm"
  bottom: "Convolution12"
  top: "Convolution12"
  param {
    lr_mult: 0
    decay_mult: 0
  }
  param {
    lr_mult: 0
    decay_mult: 0
  }
  param {
    lr_mult: 0
    decay_mult: 0
  }
}
layer {
  name: "Scale12"
  type: "Scale"
  bottom: "Convolution12"
  top: "Convolution12"
  scale_param {
    bias_term: true
  }
}
layer {
  name: "ReLU12"
  type: "ReLU"
  bottom: "Convolution12"
  top: "Convolution12"
}
layer {
  name: "Convolution13"
  type: "Convolution"
  bottom: "Convolution12"
  top: "Convolution13"
  convolution_param {
    num_output: 16
    bias_term: true
    pad: 1
    kernel_size: 3
    stride: 1
    weight_filler {
      type: "msra"
    }
    bias_filler {
      type: "constant"
    }
  }
}
layer {
  name: "BatchNorm13"
  type: "BatchNorm"
  bottom: "Convolution13"
  top: "Convolution13"
  param {
    lr_mult: 0
    decay_mult: 0
  }
  param {
    lr_mult: 0
    decay_mult: 0
  }
  param {
    lr_mult: 0
    decay_mult: 0
  }
}
layer {
  name: "Scale13"
  type: "Scale"
  bottom: "Convolution13"
  top: "Convolution13"
  scale_param {
    bias_term: true
  }
}
layer {
  name: "Eltwise6"
  type: "Eltwise"
  bottom: "Eltwise5"
  bottom: "Convolution13"
  top: "Eltwise6"
  eltwise_param {
    operation: SUM
  }
}
layer {
  name: "ReLU13"
  type: "ReLU"
  bottom: "Eltwise6"
  top: "Eltwise6"
}
layer {
  name: "Convolution14"
  type: "Convolution"
  bottom: "Eltwise6"
  top: "Convolution14"
  convolution_param {
    num_output: 16
    bias_term: true
    pad: 1
    kernel_size: 3
    stride: 1
    weight_filler {
      type: "msra"
    }
    bias_filler {
      type: "constant"
    }
  }
}
layer {
  name: "BatchNorm14"
  type: "BatchNorm"
  bottom: "Convolution14"
  top: "Convolution14"
  param {
    lr_mult: 0
    decay_mult: 0
  }
  param {
    lr_mult: 0
    decay_mult: 0
  }
  param {
    lr_mult: 0
    decay_mult: 0
  }
}
layer {
  name: "Scale14"
  type: "Scale"
  bottom: "Convolution14"
  top: "Convolution14"
  scale_param {
    bias_term: true
  }
}
layer {
  name: "ReLU14"
  type: "ReLU"
  bottom: "Convolution14"
  top: "Convolution14"
}
layer {
  name: "Convolution15"
  type: "Convolution"
  bottom: "Convolution14"
  top: "Convolution15"
  convolution_param {
    num_output: 16
    bias_term: true
    pad: 1
    kernel_size: 3
    stride: 1
    weight_filler {
      type: "msra"
    }
    bias_filler {
      type: "constant"
    }
  }
}
layer {
  name: "BatchNorm15"
  type: "BatchNorm"
  bottom: "Convolution15"
  top: "Convolution15"
  param {
    lr_mult: 0
    decay_mult: 0
  }
  param {
    lr_mult: 0
    decay_mult: 0
  }
  param {
    lr_mult: 0
    decay_mult: 0
  }
}
layer {
  name: "Scale15"
  type: "Scale"
  bottom: "Convolution15"
  top: "Convolution15"
  scale_param {
    bias_term: true
  }
}
layer {
  name: "Eltwise7"
  type: "Eltwise"
  bottom: "Eltwise6"
  bottom: "Convolution15"
  top: "Eltwise7"
  eltwise_param {
    operation: SUM
  }
}
layer {
  name: "ReLU15"
  type: "ReLU"
  bottom: "Eltwise7"
  top: "Eltwise7"
}
layer {
  name: "Convolution16"
  type: "Convolution"
  bottom: "Eltwise7"
  top: "Convolution16"
  convolution_param {
    num_output: 16
    bias_term: true
    pad: 1
    kernel_size: 3
    stride: 1
    weight_filler {
      type: "msra"
    }
    bias_filler {
      type: "constant"
    }
  }
}
layer {
  name: "BatchNorm16"
  type: "BatchNorm"
  bottom: "Convolution16"
  top: "Convolution16"
  param {
    lr_mult: 0
    decay_mult: 0
  }
  param {
    lr_mult: 0
    decay_mult: 0
  }
  param {
    lr_mult: 0
    decay_mult: 0
  }
}
layer {
  name: "Scale16"
  type: "Scale"
  bottom: "Convolution16"
  top: "Convolution16"
  scale_param {
    bias_term: true
  }
}
layer {
  name: "ReLU16"
  type: "ReLU"
  bottom: "Convolution16"
  top: "Convolution16"
}
layer {
  name: "Convolution17"
  type: "Convolution"
  bottom: "Convolution16"
  top: "Convolution17"
  convolution_param {
    num_output: 16
    bias_term: true
    pad: 1
    kernel_size: 3
    stride: 1
    weight_filler {
      type: "msra"
    }
    bias_filler {
      type: "constant"
    }
  }
}
layer {
  name: "BatchNorm17"
  type: "BatchNorm"
  bottom: "Convolution17"
  top: "Convolution17"
  param {
    lr_mult: 0
    decay_mult: 0
  }
  param {
    lr_mult: 0
    decay_mult: 0
  }
  param {
    lr_mult: 0
    decay_mult: 0
  }
}
layer {
  name: "Scale17"
  type: "Scale"
  bottom: "Convolution17"
  top: "Convolution17"
  scale_param {
    bias_term: true
  }
}
layer {
  name: "Eltwise8"
  type: "Eltwise"
  bottom: "Eltwise7"
  bottom: "Convolution17"
  top: "Eltwise8"
  eltwise_param {
    operation: SUM
  }
}
layer {
  name: "ReLU17"
  type: "ReLU"
  bottom: "Eltwise8"
  top: "Eltwise8"
}
layer {
  name: "Convolution18"
  type: "Convolution"
  bottom: "Eltwise8"
  top: "Convolution18"
  convolution_param {
    num_output: 16
    bias_term: true
    pad: 1
    kernel_size: 3
    stride: 1
    weight_filler {
      type: "msra"
    }
    bias_filler {
      type: "constant"
    }
  }
}
layer {
  name: "BatchNorm18"
  type: "BatchNorm"
  bottom: "Convolution18"
  top: "Convolution18"
  param {
    lr_mult: 0
    decay_mult: 0
  }
  param {
    lr_mult: 0
    decay_mult: 0
  }
  param {
    lr_mult: 0
    decay_mult: 0
  }
}
layer {
  name: "Scale18"
  type: "Scale"
  bottom: "Convolution18"
  top: "Convolution18"
  scale_param {
    bias_term: true
  }
}
layer {
  name: "ReLU18"
  type: "ReLU"
  bottom: "Convolution18"
  top: "Convolution18"
}
layer {
  name: "Convolution19"
  type: "Convolution"
  bottom: "Convolution18"
  top: "Convolution19"
  convolution_param {
    num_output: 16
    bias_term: true
    pad: 1
    kernel_size: 3
    stride: 1
    weight_filler {
      type: "msra"
    }
    bias_filler {
      type: "constant"
    }
  }
}
layer {
  name: "BatchNorm19"
  type: "BatchNorm"
  bottom: "Convolution19"
  top: "Convolution19"
  param {
    lr_mult: 0
    decay_mult: 0
  }
  param {
    lr_mult: 0
    decay_mult: 0
  }
  param {
    lr_mult: 0
    decay_mult: 0
  }
}
layer {
  name: "Scale19"
  type: "Scale"
  bottom: "Convolution19"
  top: "Convolution19"
  scale_param {
    bias_term: true
  }
}
layer {
  name: "Eltwise9"
  type: "Eltwise"
  bottom: "Eltwise8"
  bottom: "Convolution19"
  top: "Eltwise9"
  eltwise_param {
    operation: SUM
  }
}
layer {
  name: "ReLU19"
  type: "ReLU"
  bottom: "Eltwise9"
  top: "Eltwise9"
}
layer {
  name: "Convolution20"
  type: "Convolution"
  bottom: "Eltwise9"
  top: "Convolution20"
  convolution_param {
    num_output: 16
    bias_term: true
    pad: 1
    kernel_size: 3
    stride: 1
    weight_filler {
      type: "msra"
    }
    bias_filler {
      type: "constant"
    }
  }
}
layer {
  name: "BatchNorm20"
  type: "BatchNorm"
  bottom: "Convolution20"
  top: "Convolution20"
  param {
    lr_mult: 0
    decay_mult: 0
  }
  param {
    lr_mult: 0
    decay_mult: 0
  }
  param {
    lr_mult: 0
    decay_mult: 0
  }
}
layer {
  name: "Scale20"
  type: "Scale"
  bottom: "Convolution20"
  top: "Convolution20"
  scale_param {
    bias_term: true
  }
}
layer {
  name: "ReLU20"
  type: "ReLU"
  bottom: "Convolution20"
  top: "Convolution20"
}
layer {
  name: "Convolution21"
  type: "Convolution"
  bottom: "Convolution20"
  top: "Convolution21"
  convolution_param {
    num_output: 16
    bias_term: true
    pad: 1
    kernel_size: 3
    stride: 1
    weight_filler {
      type: "msra"
    }
    bias_filler {
      type: "constant"
    }
  }
}
layer {
  name: "BatchNorm21"
  type: "BatchNorm"
  bottom: "Convolution21"
  top: "Convolution21"
  param {
    lr_mult: 0
    decay_mult: 0
  }
  param {
    lr_mult: 0
    decay_mult: 0
  }
  param {
    lr_mult: 0
    decay_mult: 0
  }
}
layer {
  name: "Scale21"
  type: "Scale"
  bottom: "Convolution21"
  top: "Convolution21"
  scale_param {
    bias_term: true
  }
}
layer {
  name: "Eltwise10"
  type: "Eltwise"
  bottom: "Eltwise9"
  bottom: "Convolution21"
  top: "Eltwise10"
  eltwise_param {
    operation: SUM
  }
}
layer {
  name: "ReLU21"
  type: "ReLU"
  bottom: "Eltwise10"
  top: "Eltwise10"
}
layer {
  name: "Convolution22"
  type: "Convolution"
  bottom: "Eltwise10"
  top: "Convolution22"
  convolution_param {
    num_output: 16
    bias_term: true
    pad: 1
    kernel_size: 3
    stride: 1
    weight_filler {
      type: "msra"
    }
    bias_filler {
      type: "constant"
    }
  }
}
layer {
  name: "BatchNorm22"
  type: "BatchNorm"
  bottom: "Convolution22"
  top: "Convolution22"
  param {
    lr_mult: 0
    decay_mult: 0
  }
  param {
    lr_mult: 0
    decay_mult: 0
  }
  param {
    lr_mult: 0
    decay_mult: 0
  }
}
layer {
  name: "Scale22"
  type: "Scale"
  bottom: "Convolution22"
  top: "Convolution22"
  scale_param {
    bias_term: true
  }
}
layer {
  name: "ReLU22"
  type: "ReLU"
  bottom: "Convolution22"
  top: "Convolution22"
}
layer {
  name: "Convolution23"
  type: "Convolution"
  bottom: "Convolution22"
  top: "Convolution23"
  convolution_param {
    num_output: 16
    bias_term: true
    pad: 1
    kernel_size: 3
    stride: 1
    weight_filler {
      type: "msra"
    }
    bias_filler {
      type: "constant"
    }
  }
}
layer {
  name: "BatchNorm23"
  type: "BatchNorm"
  bottom: "Convolution23"
  top: "Convolution23"
  param {
    lr_mult: 0
    decay_mult: 0
  }
  param {
    lr_mult: 0
    decay_mult: 0
  }
  param {
    lr_mult: 0
    decay_mult: 0
  }
}
layer {
  name: "Scale23"
  type: "Scale"
  bottom: "Convolution23"
  top: "Convolution23"
  scale_param {
    bias_term: true
  }
}
layer {
  name: "Eltwise11"
  type: "Eltwise"
  bottom: "Eltwise10"
  bottom: "Convolution23"
  top: "Eltwise11"
  eltwise_param {
    operation: SUM
  }
}
layer {
  name: "ReLU23"
  type: "ReLU"
  bottom: "Eltwise11"
  top: "Eltwise11"
}
layer {
  name: "Convolution24"
  type: "Convolution"
  bottom: "Eltwise11"
  top: "Convolution24"
  convolution_param {
    num_output: 16
    bias_term: true
    pad: 1
    kernel_size: 3
    stride: 1
    weight_filler {
      type: "msra"
    }
    bias_filler {
      type: "constant"
    }
  }
}
layer {
  name: "BatchNorm24"
  type: "BatchNorm"
  bottom: "Convolution24"
  top: "Convolution24"
  param {
    lr_mult: 0
    decay_mult: 0
  }
  param {
    lr_mult: 0
    decay_mult: 0
  }
  param {
    lr_mult: 0
    decay_mult: 0
  }
}
layer {
  name: "Scale24"
  type: "Scale"
  bottom: "Convolution24"
  top: "Convolution24"
  scale_param {
    bias_term: true
  }
}
layer {
  name: "ReLU24"
  type: "ReLU"
  bottom: "Convolution24"
  top: "Convolution24"
}
layer {
  name: "Convolution25"
  type: "Convolution"
  bottom: "Convolution24"
  top: "Convolution25"
  convolution_param {
    num_output: 16
    bias_term: true
    pad: 1
    kernel_size: 3
    stride: 1
    weight_filler {
      type: "msra"
    }
    bias_filler {
      type: "constant"
    }
  }
}
layer {
  name: "BatchNorm25"
  type: "BatchNorm"
  bottom: "Convolution25"
  top: "Convolution25"
  param {
    lr_mult: 0
    decay_mult: 0
  }
  param {
    lr_mult: 0
    decay_mult: 0
  }
  param {
    lr_mult: 0
    decay_mult: 0
  }
}
layer {
  name: "Scale25"
  type: "Scale"
  bottom: "Convolution25"
  top: "Convolution25"
  scale_param {
    bias_term: true
  }
}
layer {
  name: "Eltwise12"
  type: "Eltwise"
  bottom: "Eltwise11"
  bottom: "Convolution25"
  top: "Eltwise12"
  eltwise_param {
    operation: SUM
  }
}
layer {
  name: "ReLU25"
  type: "ReLU"
  bottom: "Eltwise12"
  top: "Eltwise12"
}
layer {
  name: "Convolution26"
  type: "Convolution"
  bottom: "Eltwise12"
  top: "Convolution26"
  convolution_param {
    num_output: 16
    bias_term: true
    pad: 1
    kernel_size: 3
    stride: 1
    weight_filler {
      type: "msra"
    }
    bias_filler {
      type: "constant"
    }
  }
}
layer {
  name: "BatchNorm26"
  type: "BatchNorm"
  bottom: "Convolution26"
  top: "Convolution26"
  param {
    lr_mult: 0
    decay_mult: 0
  }
  param {
    lr_mult: 0
    decay_mult: 0
  }
  param {
    lr_mult: 0
    decay_mult: 0
  }
}
layer {
  name: "Scale26"
  type: "Scale"
  bottom: "Convolution26"
  top: "Convolution26"
  scale_param {
    bias_term: true
  }
}
layer {
  name: "ReLU26"
  type: "ReLU"
  bottom: "Convolution26"
  top: "Convolution26"
}
layer {
  name: "Convolution27"
  type: "Convolution"
  bottom: "Convolution26"
  top: "Convolution27"
  convolution_param {
    num_output: 16
    bias_term: true
    pad: 1
    kernel_size: 3
    stride: 1
    weight_filler {
      type: "msra"
    }
    bias_filler {
      type: "constant"
    }
  }
}
layer {
  name: "BatchNorm27"
  type: "BatchNorm"
  bottom: "Convolution27"
  top: "Convolution27"
  param {
    lr_mult: 0
    decay_mult: 0
  }
  param {
    lr_mult: 0
    decay_mult: 0
  }
  param {
    lr_mult: 0
    decay_mult: 0
  }
}
layer {
  name: "Scale27"
  type: "Scale"
  bottom: "Convolution27"
  top: "Convolution27"
  scale_param {
    bias_term: true
  }
}
layer {
  name: "Eltwise13"
  type: "Eltwise"
  bottom: "Eltwise12"
  bottom: "Convolution27"
  top: "Eltwise13"
  eltwise_param {
    operation: SUM
  }
}
layer {
  name: "ReLU27"
  type: "ReLU"
  bottom: "Eltwise13"
  top: "Eltwise13"
}
layer {
  name: "Convolution28"
  type: "Convolution"
  bottom: "Eltwise13"
  top: "Convolution28"
  convolution_param {
    num_output: 16
    bias_term: true
    pad: 1
    kernel_size: 3
    stride: 1
    weight_filler {
      type: "msra"
    }
    bias_filler {
      type: "constant"
    }
  }
}
layer {
  name: "BatchNorm28"
  type: "BatchNorm"
  bottom: "Convolution28"
  top: "Convolution28"
  param {
    lr_mult: 0
    decay_mult: 0
  }
  param {
    lr_mult: 0
    decay_mult: 0
  }
  param {
    lr_mult: 0
    decay_mult: 0
  }
}
layer {
  name: "Scale28"
  type: "Scale"
  bottom: "Convolution28"
  top: "Convolution28"
  scale_param {
    bias_term: true
  }
}
layer {
  name: "ReLU28"
  type: "ReLU"
  bottom: "Convolution28"
  top: "Convolution28"
}
layer {
  name: "Convolution29"
  type: "Convolution"
  bottom: "Convolution28"
  top: "Convolution29"
  convolution_param {
    num_output: 16
    bias_term: true
    pad: 1
    kernel_size: 3
    stride: 1
    weight_filler {
      type: "msra"
    }
    bias_filler {
      type: "constant"
    }
  }
}
layer {
  name: "BatchNorm29"
  type: "BatchNorm"
  bottom: "Convolution29"
  top: "Convolution29"
  param {
    lr_mult: 0
    decay_mult: 0
  }
  param {
    lr_mult: 0
    decay_mult: 0
  }
  param {
    lr_mult: 0
    decay_mult: 0
  }
}
layer {
  name: "Scale29"
  type: "Scale"
  bottom: "Convolution29"
  top: "Convolution29"
  scale_param {
    bias_term: true
  }
}
layer {
  name: "Eltwise14"
  type: "Eltwise"
  bottom: "Eltwise13"
  bottom: "Convolution29"
  top: "Eltwise14"
  eltwise_param {
    operation: SUM
  }
}
layer {
  name: "ReLU29"
  type: "ReLU"
  bottom: "Eltwise14"
  top: "Eltwise14"
}
layer {
  name: "Convolution30"
  type: "Convolution"
  bottom: "Eltwise14"
  top: "Convolution30"
  convolution_param {
    num_output: 16
    bias_term: true
    pad: 1
    kernel_size: 3
    stride: 1
    weight_filler {
      type: "msra"
    }
    bias_filler {
      type: "constant"
    }
  }
}
layer {
  name: "BatchNorm30"
  type: "BatchNorm"
  bottom: "Convolution30"
  top: "Convolution30"
  param {
    lr_mult: 0
    decay_mult: 0
  }
  param {
    lr_mult: 0
    decay_mult: 0
  }
  param {
    lr_mult: 0
    decay_mult: 0
  }
}
layer {
  name: "Scale30"
  type: "Scale"
  bottom: "Convolution30"
  top: "Convolution30"
  scale_param {
    bias_term: true
  }
}
layer {
  name: "ReLU30"
  type: "ReLU"
  bottom: "Convolution30"
  top: "Convolution30"
}
layer {
  name: "Convolution31"
  type: "Convolution"
  bottom: "Convolution30"
  top: "Convolution31"
  convolution_param {
    num_output: 16
    bias_term: true
    pad: 1
    kernel_size: 3
    stride: 1
    weight_filler {
      type: "msra"
    }
    bias_filler {
      type: "constant"
    }
  }
}
layer {
  name: "BatchNorm31"
  type: "BatchNorm"
  bottom: "Convolution31"
  top: "Convolution31"
  param {
    lr_mult: 0
    decay_mult: 0
  }
  param {
    lr_mult: 0
    decay_mult: 0
  }
  param {
    lr_mult: 0
    decay_mult: 0
  }
}
layer {
  name: "Scale31"
  type: "Scale"
  bottom: "Convolution31"
  top: "Convolution31"
  scale_param {
    bias_term: true
  }
}
layer {
  name: "Eltwise15"
  type: "Eltwise"
  bottom: "Eltwise14"
  bottom: "Convolution31"
  top: "Eltwise15"
  eltwise_param {
    operation: SUM
  }
}
layer {
  name: "ReLU31"
  type: "ReLU"
  bottom: "Eltwise15"
  top: "Eltwise15"
}
layer {
  name: "Convolution32"
  type: "Convolution"
  bottom: "Eltwise15"
  top: "Convolution32"
  convolution_param {
    num_output: 16
    bias_term: true
    pad: 1
    kernel_size: 3
    stride: 1
    weight_filler {
      type: "msra"
    }
    bias_filler {
      type: "constant"
    }
  }
}
layer {
  name: "BatchNorm32"
  type: "BatchNorm"
  bottom: "Convolution32"
  top: "Convolution32"
  param {
    lr_mult: 0
    decay_mult: 0
  }
  param {
    lr_mult: 0
    decay_mult: 0
  }
  param {
    lr_mult: 0
    decay_mult: 0
  }
}
layer {
  name: "Scale32"
  type: "Scale"
  bottom: "Convolution32"
  top: "Convolution32"
  scale_param {
    bias_term: true
  }
}
layer {
  name: "ReLU32"
  type: "ReLU"
  bottom: "Convolution32"
  top: "Convolution32"
}
layer {
  name: "Convolution33"
  type: "Convolution"
  bottom: "Convolution32"
  top: "Convolution33"
  convolution_param {
    num_output: 16
    bias_term: true
    pad: 1
    kernel_size: 3
    stride: 1
    weight_filler {
      type: "msra"
    }
    bias_filler {
      type: "constant"
    }
  }
}
layer {
  name: "BatchNorm33"
  type: "BatchNorm"
  bottom: "Convolution33"
  top: "Convolution33"
  param {
    lr_mult: 0
    decay_mult: 0
  }
  param {
    lr_mult: 0
    decay_mult: 0
  }
  param {
    lr_mult: 0
    decay_mult: 0
  }
}
layer {
  name: "Scale33"
  type: "Scale"
  bottom: "Convolution33"
  top: "Convolution33"
  scale_param {
    bias_term: true
  }
}
layer {
  name: "Eltwise16"
  type: "Eltwise"
  bottom: "Eltwise15"
  bottom: "Convolution33"
  top: "Eltwise16"
  eltwise_param {
    operation: SUM
  }
}
layer {
  name: "ReLU33"
  type: "ReLU"
  bottom: "Eltwise16"
  top: "Eltwise16"
}
layer {
  name: "Convolution34"
  type: "Convolution"
  bottom: "Eltwise16"
  top: "Convolution34"
  convolution_param {
    num_output: 16
    bias_term: true
    pad: 1
    kernel_size: 3
    stride: 1
    weight_filler {
      type: "msra"
    }
    bias_filler {
      type: "constant"
    }
  }
}
layer {
  name: "BatchNorm34"
  type: "BatchNorm"
  bottom: "Convolution34"
  top: "Convolution34"
  param {
    lr_mult: 0
    decay_mult: 0
  }
  param {
    lr_mult: 0
    decay_mult: 0
  }
  param {
    lr_mult: 0
    decay_mult: 0
  }
}
layer {
  name: "Scale34"
  type: "Scale"
  bottom: "Convolution34"
  top: "Convolution34"
  scale_param {
    bias_term: true
  }
}
layer {
  name: "ReLU34"
  type: "ReLU"
  bottom: "Convolution34"
  top: "Convolution34"
}
layer {
  name: "Convolution35"
  type: "Convolution"
  bottom: "Convolution34"
  top: "Convolution35"
  convolution_param {
    num_output: 16
    bias_term: true
    pad: 1
    kernel_size: 3
    stride: 1
    weight_filler {
      type: "msra"
    }
    bias_filler {
      type: "constant"
    }
  }
}
layer {
  name: "BatchNorm35"
  type: "BatchNorm"
  bottom: "Convolution35"
  top: "Convolution35"
  param {
    lr_mult: 0
    decay_mult: 0
  }
  param {
    lr_mult: 0
    decay_mult: 0
  }
  param {
    lr_mult: 0
    decay_mult: 0
  }
}
layer {
  name: "Scale35"
  type: "Scale"
  bottom: "Convolution35"
  top: "Convolution35"
  scale_param {
    bias_term: true
  }
}
layer {
  name: "Eltwise17"
  type: "Eltwise"
  bottom: "Eltwise16"
  bottom: "Convolution35"
  top: "Eltwise17"
  eltwise_param {
    operation: SUM
  }
}
layer {
  name: "ReLU35"
  type: "ReLU"
  bottom: "Eltwise17"
  top: "Eltwise17"
}
layer {
  name: "Convolution36"
  type: "Convolution"
  bottom: "Eltwise17"
  top: "Convolution36"
  convolution_param {
    num_output: 16
    bias_term: true
    pad: 1
    kernel_size: 3
    stride: 1
    weight_filler {
      type: "msra"
    }
    bias_filler {
      type: "constant"
    }
  }
}
layer {
 
I0619 14:56:42.012615 17898 layer_factory.hpp:77] Creating layer Data1
I0619 14:56:42.012871 17898 net.cpp:91] Creating Layer Data1
I0619 14:56:42.012886 17898 net.cpp:399] Data1 -> Data1
I0619 14:56:42.012962 17898 net.cpp:399] Data1 -> Data2
I0619 14:56:42.052469 17902 db_leveldb.cpp:18] Opened leveldb /scratch/pas282/caffe/examples/cifar10/cifar10_train_leveldb_padding3
I0619 14:56:42.073369 17898 data_layer.cpp:41] output data size: 128,3,32,32
I0619 14:56:42.078850 17898 net.cpp:141] Setting up Data1
I0619 14:56:42.078892 17898 net.cpp:148] Top shape: 128 3 32 32 (393216)
I0619 14:56:42.078904 17898 net.cpp:148] Top shape: 128 (128)
I0619 14:56:42.078912 17898 net.cpp:156] Memory required for data: 1573376
I0619 14:56:42.078930 17898 layer_factory.hpp:77] Creating layer Convolution1
I0619 14:56:42.078972 17898 net.cpp:91] Creating Layer Convolution1
I0619 14:56:42.078986 17898 net.cpp:425] Convolution1 <- Data1
I0619 14:56:42.079017 17898 net.cpp:399] Convolution1 -> Convolution1
I0619 14:56:42.080518 17898 net.cpp:141] Setting up Convolution1
I0619 14:56:42.080546 17898 net.cpp:148] Top shape: 128 16 32 32 (2097152)
I0619 14:56:42.080554 17898 net.cpp:156] Memory required for data: 9961984
I0619 14:56:42.080584 17898 layer_factory.hpp:77] Creating layer BatchNorm1
I0619 14:56:42.080608 17898 net.cpp:91] Creating Layer BatchNorm1
I0619 14:56:42.080617 17898 net.cpp:425] BatchNorm1 <- Convolution1
I0619 14:56:42.080636 17898 net.cpp:386] BatchNorm1 -> Convolution1 (in-place)
I0619 14:56:42.080988 17898 net.cpp:141] Setting up BatchNorm1
I0619 14:56:42.081004 17898 net.cpp:148] Top shape: 128 16 32 32 (2097152)
I0619 14:56:42.081012 17898 net.cpp:156] Memory required for data: 18350592
I0619 14:56:42.081034 17898 layer_factory.hpp:77] Creating layer Scale1
I0619 14:56:42.081053 17898 net.cpp:91] Creating Layer Scale1
I0619 14:56:42.081060 17898 net.cpp:425] Scale1 <- Convolution1
I0619 14:56:42.081071 17898 net.cpp:386] Scale1 -> Convolution1 (in-place)
I0619 14:56:42.081138 17898 layer_factory.hpp:77] Creating layer Scale1
I0619 14:56:42.081357 17898 net.cpp:141] Setting up Scale1
I0619 14:56:42.081413 17898 net.cpp:148] Top shape: 128 16 32 32 (2097152)
I0619 14:56:42.081426 17898 net.cpp:156] Memory required for data: 26739200
I0619 14:56:42.081446 17898 layer_factory.hpp:77] Creating layer ReLU1
I0619 14:56:42.081461 17898 net.cpp:91] Creating Layer ReLU1
I0619 14:56:42.081468 17898 net.cpp:425] ReLU1 <- Convolution1
I0619 14:56:42.081480 17898 net.cpp:386] ReLU1 -> Convolution1 (in-place)
I0619 14:56:42.081499 17898 net.cpp:141] Setting up ReLU1
I0619 14:56:42.081509 17898 net.cpp:148] Top shape: 128 16 32 32 (2097152)
I0619 14:56:42.081516 17898 net.cpp:156] Memory required for data: 35127808
I0619 14:56:42.081523 17898 layer_factory.hpp:77] Creating layer Convolution1_ReLU1_0_split
I0619 14:56:42.081542 17898 net.cpp:91] Creating Layer Convolution1_ReLU1_0_split
I0619 14:56:42.081550 17898 net.cpp:425] Convolution1_ReLU1_0_split <- Convolution1
I0619 14:56:42.081562 17898 net.cpp:399] Convolution1_ReLU1_0_split -> Convolution1_ReLU1_0_split_0
I0619 14:56:42.081574 17898 net.cpp:399] Convolution1_ReLU1_0_split -> Convolution1_ReLU1_0_split_1
I0619 14:56:42.081642 17898 net.cpp:141] Setting up Convolution1_ReLU1_0_split
I0619 14:56:42.081655 17898 net.cpp:148] Top shape: 128 16 32 32 (2097152)
I0619 14:56:42.081667 17898 net.cpp:148] Top shape: 128 16 32 32 (2097152)
I0619 14:56:42.081675 17898 net.cpp:156] Memory required for data: 51905024
I0619 14:56:42.081681 17898 layer_factory.hpp:77] Creating layer Convolution2
I0619 14:56:42.081697 17898 net.cpp:91] Creating Layer Convolution2
I0619 14:56:42.081706 17898 net.cpp:425] Convolution2 <- Convolution1_ReLU1_0_split_0
I0619 14:56:42.081722 17898 net.cpp:399] Convolution2 -> Convolution2
I0619 14:56:42.083344 17898 net.cpp:141] Setting up Convolution2
I0619 14:56:42.083371 17898 net.cpp:148] Top shape: 128 16 32 32 (2097152)
I0619 14:56:42.083379 17898 net.cpp:156] Memory required for data: 60293632
I0619 14:56:42.083398 17898 layer_factory.hpp:77] Creating layer BatchNorm2
I0619 14:56:42.083420 17898 net.cpp:91] Creating Layer BatchNorm2
I0619 14:56:42.083428 17898 net.cpp:425] BatchNorm2 <- Convolution2
I0619 14:56:42.083442 17898 net.cpp:386] BatchNorm2 -> Convolution2 (in-place)
I0619 14:56:42.083755 17898 net.cpp:141] Setting up BatchNorm2
I0619 14:56:42.083768 17898 net.cpp:148] Top shape: 128 16 32 32 (2097152)
I0619 14:56:42.083775 17898 net.cpp:156] Memory required for data: 68682240
I0619 14:56:42.083792 17898 layer_factory.hpp:77] Creating layer Scale2
I0619 14:56:42.083809 17898 net.cpp:91] Creating Layer Scale2
I0619 14:56:42.083817 17898 net.cpp:425] Scale2 <- Convolution2
I0619 14:56:42.083827 17898 net.cpp:386] Scale2 -> Convolution2 (in-place)
I0619 14:56:42.083880 17898 layer_factory.hpp:77] Creating layer Scale2
I0619 14:56:42.084069 17898 net.cpp:141] Setting up Scale2
I0619 14:56:42.084084 17898 net.cpp:148] Top shape: 128 16 32 32 (2097152)
I0619 14:56:42.084090 17898 net.cpp:156] Memory required for data: 77070848
I0619 14:56:42.084102 17898 layer_factory.hpp:77] Creating layer ReLU2
I0619 14:56:42.084113 17898 net.cpp:91] Creating Layer ReLU2
I0619 14:56:42.084120 17898 net.cpp:425] ReLU2 <- Convolution2
I0619 14:56:42.084130 17898 net.cpp:386] ReLU2 -> Convolution2 (in-place)
I0619 14:56:42.084146 17898 net.cpp:141] Setting up ReLU2
I0619 14:56:42.084156 17898 net.cpp:148] Top shape: 128 16 32 32 (2097152)
I0619 14:56:42.084161 17898 net.cpp:156] Memory required for data: 85459456
I0619 14:56:42.084167 17898 layer_factory.hpp:77] Creating layer Convolution3
I0619 14:56:42.084192 17898 net.cpp:91] Creating Layer Convolution3
I0619 14:56:42.084199 17898 net.cpp:425] Convolution3 <- Convolution2
I0619 14:56:42.084213 17898 net.cpp:399] Convolution3 -> Convolution3
I0619 14:56:42.084727 17898 net.cpp:141] Setting up Convolution3
I0619 14:56:42.084740 17898 net.cpp:148] Top shape: 128 16 32 32 (2097152)
I0619 14:56:42.084748 17898 net.cpp:156] Memory required for data: 93848064
I0619 14:56:42.084759 17898 layer_factory.hpp:77] Creating layer BatchNorm3
I0619 14:56:42.084777 17898 net.cpp:91] Creating Layer BatchNorm3
I0619 14:56:42.084805 17898 net.cpp:425] BatchNorm3 <- Convolution3
I0619 14:56:42.084817 17898 net.cpp:386] BatchNorm3 -> Convolution3 (in-place)
I0619 14:56:42.085130 17898 net.cpp:141] Setting up BatchNorm3
I0619 14:56:42.085144 17898 net.cpp:148] Top shape: 128 16 32 32 (2097152)
I0619 14:56:42.085150 17898 net.cpp:156] Memory required for data: 102236672
I0619 14:56:42.085171 17898 layer_factory.hpp:77] Creating layer Scale3
I0619 14:56:42.085186 17898 net.cpp:91] Creating Layer Scale3
I0619 14:56:42.085192 17898 net.cpp:425] Scale3 <- Convolution3
I0619 14:56:42.085202 17898 net.cpp:386] Scale3 -> Convolution3 (in-place)
I0619 14:56:42.085271 17898 layer_factory.hpp:77] Creating layer Scale3
I0619 14:56:42.085448 17898 net.cpp:141] Setting up Scale3
I0619 14:56:42.085459 17898 net.cpp:148] Top shape: 128 16 32 32 (2097152)
I0619 14:56:42.085466 17898 net.cpp:156] Memory required for data: 110625280
I0619 14:56:42.085477 17898 layer_factory.hpp:77] Creating layer Eltwise1
I0619 14:56:42.085500 17898 net.cpp:91] Creating Layer Eltwise1
I0619 14:56:42.085506 17898 net.cpp:425] Eltwise1 <- Convolution1_ReLU1_0_split_1
I0619 14:56:42.085515 17898 net.cpp:425] Eltwise1 <- Convolution3
I0619 14:56:42.085525 17898 net.cpp:399] Eltwise1 -> Eltwise1
I0619 14:56:42.085577 17898 net.cpp:141] Setting up Eltwise1
I0619 14:56:42.085587 17898 net.cpp:148] Top shape: 128 16 32 32 (2097152)
I0619 14:56:42.085593 17898 net.cpp:156] Memory required for data: 119013888
I0619 14:56:42.085599 17898 layer_factory.hpp:77] Creating layer ReLU3
I0619 14:56:42.085613 17898 net.cpp:91] Creating Layer ReLU3
I0619 14:56:42.085618 17898 net.cpp:425] ReLU3 <- Eltwise1
I0619 14:56:42.085628 17898 net.cpp:386] ReLU3 -> Eltwise1 (in-place)
I0619 14:56:42.085638 17898 net.cpp:141] Setting up ReLU3
I0619 14:56:42.085647 17898 net.cpp:148] Top shape: 128 16 32 32 (2097152)
I0619 14:56:42.085654 17898 net.cpp:156] Memory required for data: 127402496
I0619 14:56:42.085659 17898 layer_factory.hpp:77] Creating layer Eltwise1_ReLU3_0_split
I0619 14:56:42.085669 17898 net.cpp:91] Creating Layer Eltwise1_ReLU3_0_split
I0619 14:56:42.085677 17898 net.cpp:425] Eltwise1_ReLU3_0_split <- Eltwise1
I0619 14:56:42.085690 17898 net.cpp:399] Eltwise1_ReLU3_0_split -> Eltwise1_ReLU3_0_split_0
I0619 14:56:42.085702 17898 net.cpp:399] Eltwise1_ReLU3_0_split -> Eltwise1_ReLU3_0_split_1
I0619 14:56:42.085892 17898 net.cpp:141] Setting up Eltwise1_ReLU3_0_split
I0619 14:56:42.085908 17898 net.cpp:148] Top shape: 128 16 32 32 (2097152)
I0619 14:56:42.085917 17898 net.cpp:148] Top shape: 128 16 32 32 (2097152)
I0619 14:56:42.085923 17898 net.cpp:156] Memory required for data: 144179712
I0619 14:56:42.085930 17898 layer_factory.hpp:77] Creating layer Convolution4
I0619 14:56:42.085957 17898 net.cpp:91] Creating Layer Convolution4
I0619 14:56:42.085964 17898 net.cpp:425] Convolution4 <- Eltwise1_ReLU3_0_split_0
I0619 14:56:42.085976 17898 net.cpp:399] Convolution4 -> Convolution4
I0619 14:56:42.086494 17898 net.cpp:141] Setting up Convolution4
I0619 14:56:42.086510 17898 net.cpp:148] Top shape: 128 16 32 32 (2097152)
I0619 14:56:42.086518 17898 net.cpp:156] Memory required for data: 152568320
I0619 14:56:42.086529 17898 layer_factory.hpp:77] Creating layer BatchNorm4
I0619 14:56:42.086544 17898 net.cpp:91] Creating Layer BatchNorm4
I0619 14:56:42.086551 17898 net.cpp:425] BatchNorm4 <- Convolution4
I0619 14:56:42.086562 17898 net.cpp:386] BatchNorm4 -> Convolution4 (in-place)
I0619 14:56:42.086887 17898 net.cpp:141] Setting up BatchNorm4
I0619 14:56:42.086905 17898 net.cpp:148] Top shape: 128 16 32 32 (2097152)
I0619 14:56:42.086911 17898 net.cpp:156] Memory required for data: 160956928
I0619 14:56:42.086926 17898 layer_factory.hpp:77] Creating layer Scale4
I0619 14:56:42.086941 17898 net.cpp:91] Creating Layer Scale4
I0619 14:56:42.086949 17898 net.cpp:425] Scale4 <- Convolution4
I0619 14:56:42.086959 17898 net.cpp:386] Scale4 -> Convolution4 (in-place)
I0619 14:56:42.087023 17898 layer_factory.hpp:77] Creating layer Scale4
I0619 14:56:42.087211 17898 net.cpp:141] Setting up Scale4
I0619 14:56:42.087244 17898 net.cpp:148] Top shape: 128 16 32 32 (2097152)
I0619 14:56:42.087251 17898 net.cpp:156] Memory required for data: 169345536
I0619 14:56:42.087266 17898 layer_factory.hpp:77] Creating layer ReLU4
I0619 14:56:42.087277 17898 net.cpp:91] Creating Layer ReLU4
I0619 14:56:42.087283 17898 net.cpp:425] ReLU4 <- Convolution4
I0619 14:56:42.087296 17898 net.cpp:386] ReLU4 -> Convolution4 (in-place)
I0619 14:56:42.087308 17898 net.cpp:141] Setting up ReLU4
I0619 14:56:42.087318 17898 net.cpp:148] Top shape: 128 16 32 32 (2097152)
I0619 14:56:42.087324 17898 net.cpp:156] Memory required for data: 177734144
I0619 14:56:42.087332 17898 layer_factory.hpp:77] Creating layer Convolution5
I0619 14:56:42.087352 17898 net.cpp:91] Creating Layer Convolution5
I0619 14:56:42.087364 17898 net.cpp:425] Convolution5 <- Convolution4
I0619 14:56:42.087375 17898 net.cpp:399] Convolution5 -> Convolution5
I0619 14:56:42.087889 17898 net.cpp:141] Setting up Convolution5
I0619 14:56:42.087905 17898 net.cpp:148] Top shape: 128 16 32 32 (2097152)
I0619 14:56:42.087911 17898 net.cpp:156] Memory required for data: 186122752
I0619 14:56:42.087924 17898 layer_factory.hpp:77] Creating layer BatchNorm5
I0619 14:56:42.087940 17898 net.cpp:91] Creating Layer BatchNorm5
I0619 14:56:42.087949 17898 net.cpp:425] BatchNorm5 <- Convolution5
I0619 14:56:42.087962 17898 net.cpp:386] BatchNorm5 -> Convolution5 (in-place)
I0619 14:56:42.088284 17898 net.cpp:141] Setting up BatchNorm5
I0619 14:56:42.088297 17898 net.cpp:148] Top shape: 128 16 32 32 (2097152)
I0619 14:56:42.088304 17898 net.cpp:156] Memory required for data: 194511360
I0619 14:56:42.088328 17898 layer_factory.hpp:77] Creating layer Scale5
I0619 14:56:42.088340 17898 net.cpp:91] Creating Layer Scale5
I0619 14:56:42.088346 17898 net.cpp:425] Scale5 <- Convolution5
I0619 14:56:42.088356 17898 net.cpp:386] Scale5 -> Convolution5 (in-place)
I0619 14:56:42.088423 17898 layer_factory.hpp:77] Creating layer Scale5
I0619 14:56:42.088625 17898 net.cpp:141] Setting up Scale5
I0619 14:56:42.088639 17898 net.cpp:148] Top shape: 128 16 32 32 (2097152)
I0619 14:56:42.088644 17898 net.cpp:156] Memory required for data: 202899968
I0619 14:56:42.088656 17898 layer_factory.hpp:77] Creating layer Eltwise2
I0619 14:56:42.088670 17898 net.cpp:91] Creating Layer Eltwise2
I0619 14:56:42.088676 17898 net.cpp:425] Eltwise2 <- Eltwise1_ReLU3_0_split_1
I0619 14:56:42.088685 17898 net.cpp:425] Eltwise2 <- Convolution5
I0619 14:56:42.088697 17898 net.cpp:399] Eltwise2 -> Eltwise2
I0619 14:56:42.088817 17898 net.cpp:141] Setting up Eltwise2
I0619 14:56:42.088831 17898 net.cpp:148] Top shape: 128 16 32 32 (2097152)
I0619 14:56:42.088838 17898 net.cpp:156] Memory required for data: 211288576
I0619 14:56:42.088850 17898 layer_factory.hpp:77] Creating layer ReLU5
I0619 14:56:42.088863 17898 net.cpp:91] Creating Layer ReLU5
I0619 14:56:42.088871 17898 net.cpp:425] ReLU5 <- Eltwise2
I0619 14:56:42.088881 17898 net.cpp:386] ReLU5 -> Eltwise2 (in-place)
I0619 14:56:42.088891 17898 net.cpp:141] Setting up ReLU5
I0619 14:56:42.088901 17898 net.cpp:148] Top shape: 128 16 32 32 (2097152)
I0619 14:56:42.088907 17898 net.cpp:156] Memory required for data: 219677184
I0619 14:56:42.088914 17898 layer_factory.hpp:77] Creating layer Eltwise2_ReLU5_0_split
I0619 14:56:42.088923 17898 net.cpp:91] Creating Layer Eltwise2_ReLU5_0_split
I0619 14:56:42.088930 17898 net.cpp:425] Eltwise2_ReLU5_0_split <- Eltwise2
I0619 14:56:42.088939 17898 net.cpp:399] Eltwise2_ReLU5_0_split -> Eltwise2_ReLU5_0_split_0
I0619 14:56:42.088951 17898 net.cpp:399] Eltwise2_ReLU5_0_split -> Eltwise2_ReLU5_0_split_1
I0619 14:56:42.089010 17898 net.cpp:141] Setting up Eltwise2_ReLU5_0_split
I0619 14:56:42.089025 17898 net.cpp:148] Top shape: 128 16 32 32 (2097152)
I0619 14:56:42.089035 17898 net.cpp:148] Top shape: 128 16 32 32 (2097152)
I0619 14:56:42.089041 17898 net.cpp:156] Memory required for data: 236454400
I0619 14:56:42.089047 17898 layer_factory.hpp:77] Creating layer Convolution6
I0619 14:56:42.089066 17898 net.cpp:91] Creating Layer Convolution6
I0619 14:56:42.089092 17898 net.cpp:425] Convolution6 <- Eltwise2_ReLU5_0_split_0
I0619 14:56:42.089107 17898 net.cpp:399] Convolution6 -> Convolution6
I0619 14:56:42.089326 17903 blocking_queue.cpp:50] Waiting for data
I0619 14:56:42.089629 17898 net.cpp:141] Setting up Convolution6
I0619 14:56:42.089644 17898 net.cpp:148] Top shape: 128 16 32 32 (2097152)
I0619 14:56:42.089651 17898 net.cpp:156] Memory required for data: 244843008
I0619 14:56:42.089663 17898 layer_factory.hpp:77] Creating layer BatchNorm6
I0619 14:56:42.089674 17898 net.cpp:91] Creating Layer BatchNorm6
I0619 14:56:42.089681 17898 net.cpp:425] BatchNorm6 <- Convolution6
I0619 14:56:42.089694 17898 net.cpp:386] BatchNorm6 -> Convolution6 (in-place)
I0619 14:56:42.089999 17898 net.cpp:141] Setting up BatchNorm6
I0619 14:56:42.090011 17898 net.cpp:148] Top shape: 128 16 32 32 (2097152)
I0619 14:56:42.090018 17898 net.cpp:156] Memory required for data: 253231616
I0619 14:56:42.090032 17898 layer_factory.hpp:77] Creating layer Scale6
I0619 14:56:42.090044 17898 net.cpp:91] Creating Layer Scale6
I0619 14:56:42.090050 17898 net.cpp:425] Scale6 <- Convolution6
I0619 14:56:42.090060 17898 net.cpp:386] Scale6 -> Convolution6 (in-place)
I0619 14:56:42.090121 17898 layer_factory.hpp:77] Creating layer Scale6
I0619 14:56:42.090297 17898 net.cpp:141] Setting up Scale6
I0619 14:56:42.090309 17898 net.cpp:148] Top shape: 128 16 32 32 (2097152)
I0619 14:56:42.090315 17898 net.cpp:156] Memory required for data: 261620224
I0619 14:56:42.090327 17898 layer_factory.hpp:77] Creating layer ReLU6
I0619 14:56:42.090337 17898 net.cpp:91] Creating Layer ReLU6
I0619 14:56:42.090343 17898 net.cpp:425] ReLU6 <- Convolution6
I0619 14:56:42.090366 17898 net.cpp:386] ReLU6 -> Convolution6 (in-place)
I0619 14:56:42.090379 17898 net.cpp:141] Setting up ReLU6
I0619 14:56:42.090389 17898 net.cpp:148] Top shape: 128 16 32 32 (2097152)
I0619 14:56:42.090394 17898 net.cpp:156] Memory required for data: 270008832
I0619 14:56:42.090401 17898 layer_factory.hpp:77] Creating layer Convolution7
I0619 14:56:42.090417 17898 net.cpp:91] Creating Layer Convolution7
I0619 14:56:42.090425 17898 net.cpp:425] Convolution7 <- Convolution6
I0619 14:56:42.090440 17898 net.cpp:399] Convolution7 -> Convolution7
I0619 14:56:42.090934 17898 net.cpp:141] Setting up Convolution7
I0619 14:56:42.090950 17898 net.cpp:148] Top shape: 128 16 32 32 (2097152)
I0619 14:56:42.090955 17898 net.cpp:156] Memory required for data: 278397440
I0619 14:56:42.090967 17898 layer_factory.hpp:77] Creating layer BatchNorm7
I0619 14:56:42.090978 17898 net.cpp:91] Creating Layer BatchNorm7
I0619 14:56:42.090984 17898 net.cpp:425] BatchNorm7 <- Convolution7
I0619 14:56:42.091001 17898 net.cpp:386] BatchNorm7 -> Convolution7 (in-place)
I0619 14:56:42.091303 17898 net.cpp:141] Setting up BatchNorm7
I0619 14:56:42.091315 17898 net.cpp:148] Top shape: 128 16 32 32 (2097152)
I0619 14:56:42.091322 17898 net.cpp:156] Memory required for data: 286786048
I0619 14:56:42.091336 17898 layer_factory.hpp:77] Creating layer Scale7
I0619 14:56:42.091354 17898 net.cpp:91] Creating Layer Scale7
I0619 14:56:42.091361 17898 net.cpp:425] Scale7 <- Convolution7
I0619 14:56:42.091372 17898 net.cpp:386] Scale7 -> Convolution7 (in-place)
I0619 14:56:42.091423 17898 layer_factory.hpp:77] Creating layer Scale7
I0619 14:56:42.091601 17898 net.cpp:141] Setting up Scale7
I0619 14:56:42.091614 17898 net.cpp:148] Top shape: 128 16 32 32 (2097152)
I0619 14:56:42.091620 17898 net.cpp:156] Memory required for data: 295174656
I0619 14:56:42.091631 17898 layer_factory.hpp:77] Creating layer Eltwise3
I0619 14:56:42.091645 17898 net.cpp:91] Creating Layer Eltwise3
I0619 14:56:42.091652 17898 net.cpp:425] Eltwise3 <- Eltwise2_ReLU5_0_split_1
I0619 14:56:42.091660 17898 net.cpp:425] Eltwise3 <- Convolution7
I0619 14:56:42.091670 17898 net.cpp:399] Eltwise3 -> Eltwise3
I0619 14:56:42.091713 17898 net.cpp:141] Setting up Eltwise3
I0619 14:56:42.091724 17898 net.cpp:148] Top shape: 128 16 32 32 (2097152)
I0619 14:56:42.091730 17898 net.cpp:156] Memory required for data: 303563264
I0619 14:56:42.091770 17898 layer_factory.hpp:77] Creating layer ReLU7
I0619 14:56:42.091781 17898 net.cpp:91] Creating Layer ReLU7
I0619 14:56:42.091789 17898 net.cpp:425] ReLU7 <- Eltwise3
I0619 14:56:42.091801 17898 net.cpp:386] ReLU7 -> Eltwise3 (in-place)
I0619 14:56:42.091819 17898 net.cpp:141] Setting up ReLU7
I0619 14:56:42.091828 17898 net.cpp:148] Top shape: 128 16 32 32 (2097152)
I0619 14:56:42.091835 17898 net.cpp:156] Memory required for data: 311951872
I0619 14:56:42.091841 17898 layer_factory.hpp:77] Creating layer Eltwise3_ReLU7_0_split
I0619 14:56:42.091850 17898 net.cpp:91] Creating Layer Eltwise3_ReLU7_0_split
I0619 14:56:42.091856 17898 net.cpp:425] Eltwise3_ReLU7_0_split <- Eltwise3
I0619 14:56:42.091866 17898 net.cpp:399] Eltwise3_ReLU7_0_split -> Eltwise3_ReLU7_0_split_0
I0619 14:56:42.091876 17898 net.cpp:399] Eltwise3_ReLU7_0_split -> Eltwise3_ReLU7_0_split_1
I0619 14:56:42.091936 17898 net.cpp:141] Setting up Eltwise3_ReLU7_0_split
I0619 14:56:42.091948 17898 net.cpp:148] Top shape: 128 16 32 32 (2097152)
I0619 14:56:42.091955 17898 net.cpp:148] Top shape: 128 16 32 32 (2097152)
I0619 14:56:42.091963 17898 net.cpp:156] Memory required for data: 328729088
I0619 14:56:42.091969 17898 layer_factory.hpp:77] Creating layer Convolution8
I0619 14:56:42.091985 17898 net.cpp:91] Creating Layer Convolution8
I0619 14:56:42.091994 17898 net.cpp:425] Convolution8 <- Eltwise3_ReLU7_0_split_0
I0619 14:56:42.092005 17898 net.cpp:399] Convolution8 -> Convolution8
I0619 14:56:42.092512 17898 net.cpp:141] Setting up Convolution8
I0619 14:56:42.092525 17898 net.cpp:148] Top shape: 128 16 32 32 (2097152)
I0619 14:56:42.092531 17898 net.cpp:156] Memory required for data: 337117696
I0619 14:56:42.092543 17898 layer_factory.hpp:77] Creating layer BatchNorm8
I0619 14:56:42.092557 17898 net.cpp:91] Creating Layer BatchNorm8
I0619 14:56:42.092566 17898 net.cpp:425] BatchNorm8 <- Convolution8
I0619 14:56:42.092577 17898 net.cpp:386] BatchNorm8 -> Convolution8 (in-place)
I0619 14:56:42.092878 17898 net.cpp:141] Setting up BatchNorm8
I0619 14:56:42.092890 17898 net.cpp:148] Top shape: 128 16 32 32 (2097152)
I0619 14:56:42.092896 17898 net.cpp:156] Memory required for data: 345506304
I0619 14:56:42.092911 17898 layer_factory.hpp:77] Creating layer Scale8
I0619 14:56:42.092921 17898 net.cpp:91] Creating Layer Scale8
I0619 14:56:42.092928 17898 net.cpp:425] Scale8 <- Convolution8
I0619 14:56:42.092941 17898 net.cpp:386] Scale8 -> Convolution8 (in-place)
I0619 14:56:42.092994 17898 layer_factory.hpp:77] Creating layer Scale8
I0619 14:56:42.093168 17898 net.cpp:141] Setting up Scale8
I0619 14:56:42.093179 17898 net.cpp:148] Top shape: 128 16 32 32 (2097152)
I0619 14:56:42.093185 17898 net.cpp:156] Memory required for data: 353894912
I0619 14:56:42.093196 17898 layer_factory.hpp:77] Creating layer ReLU8
I0619 14:56:42.093210 17898 net.cpp:91] Creating Layer ReLU8
I0619 14:56:42.093217 17898 net.cpp:425] ReLU8 <- Convolution8
I0619 14:56:42.093226 17898 net.cpp:386] ReLU8 -> Convolution8 (in-place)
I0619 14:56:42.093237 17898 net.cpp:141] Setting up ReLU8
I0619 14:56:42.093245 17898 net.cpp:148] Top shape: 128 16 32 32 (2097152)
I0619 14:56:42.093252 17898 net.cpp:156] Memory required for data: 362283520
I0619 14:56:42.093258 17898 layer_factory.hpp:77] Creating layer Convolution9
I0619 14:56:42.093276 17898 net.cpp:91] Creating Layer Convolution9
I0619 14:56:42.093282 17898 net.cpp:425] Convolution9 <- Convolution8
I0619 14:56:42.093292 17898 net.cpp:399] Convolution9 -> Convolution9
I0619 14:56:42.093801 17898 net.cpp:141] Setting up Convolution9
I0619 14:56:42.093813 17898 net.cpp:148] Top shape: 128 16 32 32 (2097152)
I0619 14:56:42.093819 17898 net.cpp:156] Memory required for data: 370672128
I0619 14:56:42.093832 17898 layer_factory.hpp:77] Creating layer BatchNorm9
I0619 14:56:42.093844 17898 net.cpp:91] Creating Layer BatchNorm9
I0619 14:56:42.093852 17898 net.cpp:425] BatchNorm9 <- Convolution9
I0619 14:56:42.093861 17898 net.cpp:386] BatchNorm9 -> Convolution9 (in-place)
I0619 14:56:42.094169 17898 net.cpp:141] Setting up BatchNorm9
I0619 14:56:42.094198 17898 net.cpp:148] Top shape: 128 16 32 32 (2097152)
I0619 14:56:42.094205 17898 net.cpp:156] Memory required for data: 379060736
I0619 14:56:42.094219 17898 layer_factory.hpp:77] Creating layer Scale9
I0619 14:56:42.094230 17898 net.cpp:91] Creating Layer Scale9
I0619 14:56:42.094238 17898 net.cpp:425] Scale9 <- Convolution9
I0619 14:56:42.094250 17898 net.cpp:386] Scale9 -> Convolution9 (in-place)
I0619 14:56:42.094306 17898 layer_factory.hpp:77] Creating layer Scale9
I0619 14:56:42.094511 17898 net.cpp:141] Setting up Scale9
I0619 14:56:42.094524 17898 net.cpp:148] Top shape: 128 16 32 32 (2097152)
I0619 14:56:42.094532 17898 net.cpp:156] Memory required for data: 387449344
I0619 14:56:42.094543 17898 layer_factory.hpp:77] Creating layer Eltwise4
I0619 14:56:42.094557 17898 net.cpp:91] Creating Layer Eltwise4
I0619 14:56:42.094565 17898 net.cpp:425] Eltwise4 <- Eltwise3_ReLU7_0_split_1
I0619 14:56:42.094574 17898 net.cpp:425] Eltwise4 <- Convolution9
I0619 14:56:42.094584 17898 net.cpp:399] Eltwise4 -> Eltwise4
I0619 14:56:42.094624 17898 net.cpp:141] Setting up Eltwise4
I0619 14:56:42.094636 17898 net.cpp:148] Top shape: 128 16 32 32 (2097152)
I0619 14:56:42.094643 17898 net.cpp:156] Memory required for data: 395837952
I0619 14:56:42.094650 17898 layer_factory.hpp:77] Creating layer ReLU9
I0619 14:56:42.094660 17898 net.cpp:91] Creating Layer ReLU9
I0619 14:56:42.094666 17898 net.cpp:425] ReLU9 <- Eltwise4
I0619 14:56:42.094677 17898 net.cpp:386] ReLU9 -> Eltwise4 (in-place)
I0619 14:56:42.094688 17898 net.cpp:141] Setting up ReLU9
I0619 14:56:42.094697 17898 net.cpp:148] Top shape: 128 16 32 32 (2097152)
I0619 14:56:42.094703 17898 net.cpp:156] Memory required for data: 404226560
I0619 14:56:42.094710 17898 layer_factory.hpp:77] Creating layer Eltwise4_ReLU9_0_split
I0619 14:56:42.094719 17898 net.cpp:91] Creating Layer Eltwise4_ReLU9_0_split
I0619 14:56:42.094725 17898 net.cpp:425] Eltwise4_ReLU9_0_split <- Eltwise4
I0619 14:56:42.094734 17898 net.cpp:399] Eltwise4_ReLU9_0_split -> Eltwise4_ReLU9_0_split_0
I0619 14:56:42.094745 17898 net.cpp:399] Eltwise4_ReLU9_0_split -> Eltwise4_ReLU9_0_split_1
I0619 14:56:42.094801 17898 net.cpp:141] Setting up Eltwise4_ReLU9_0_split
I0619 14:56:42.094811 17898 net.cpp:148] Top shape: 128 16 32 32 (2097152)
I0619 14:56:42.094820 17898 net.cpp:148] Top shape: 128 16 32 32 (2097152)
I0619 14:56:42.094826 17898 net.cpp:156] Memory required for data: 421003776
I0619 14:56:42.094832 17898 layer_factory.hpp:77] Creating layer Convolution10
I0619 14:56:42.094858 17898 net.cpp:91] Creating Layer Convolution10
I0619 14:56:42.094866 17898 net.cpp:425] Convolution10 <- Eltwise4_ReLU9_0_split_0
I0619 14:56:42.094877 17898 net.cpp:399] Convolution10 -> Convolution10
I0619 14:56:42.095351 17898 net.cpp:141] Setting up Convolution10
I0619 14:56:42.095363 17898 net.cpp:148] Top shape: 128 16 32 32 (2097152)
I0619 14:56:42.095369 17898 net.cpp:156] Memory required for data: 429392384
I0619 14:56:42.095398 17898 layer_factory.hpp:77] Creating layer BatchNorm10
I0619 14:56:42.095417 17898 net.cpp:91] Creating Layer BatchNorm10
I0619 14:56:42.095424 17898 net.cpp:425] BatchNorm10 <- Convolution10
I0619 14:56:42.095434 17898 net.cpp:386] BatchNorm10 -> Convolution10 (in-place)
I0619 14:56:42.095729 17898 net.cpp:141] Setting up BatchNorm10
I0619 14:56:42.095741 17898 net.cpp:148] Top shape: 128 16 32 32 (2097152)
I0619 14:56:42.095747 17898 net.cpp:156] Memory required for data: 437780992
I0619 14:56:42.095762 17898 layer_factory.hpp:77] Creating layer Scale10
I0619 14:56:42.095772 17898 net.cpp:91] Creating Layer Scale10
I0619 14:56:42.095778 17898 net.cpp:425] Scale10 <- Convolution10
I0619 14:56:42.095789 17898 net.cpp:386] Scale10 -> Convolution10 (in-place)
I0619 14:56:42.095839 17898 layer_factory.hpp:77] Creating layer Scale10
I0619 14:56:42.096011 17898 net.cpp:141] Setting up Scale10
I0619 14:56:42.096022 17898 net.cpp:148] Top shape: 128 16 32 32 (2097152)
I0619 14:56:42.096029 17898 net.cpp:156] Memory required for data: 446169600
I0619 14:56:42.096043 17898 layer_factory.hpp:77] Creating layer ReLU10
I0619 14:56:42.096068 17898 net.cpp:91] Creating Layer ReLU10
I0619 14:56:42.096079 17898 net.cpp:425] ReLU10 <- Convolution10
I0619 14:56:42.096088 17898 net.cpp:386] ReLU10 -> Convolution10 (in-place)
I0619 14:56:42.096098 17898 net.cpp:141] Setting up ReLU10
I0619 14:56:42.096107 17898 net.cpp:148] Top shape: 128 16 32 32 (2097152)
I0619 14:56:42.096114 17898 net.cpp:156] Memory required for data: 454558208
I0619 14:56:42.096120 17898 layer_factory.hpp:77] Creating layer Convolution11
I0619 14:56:42.096138 17898 net.cpp:91] Creating Layer Convolution11
I0619 14:56:42.096144 17898 net.cpp:425] Convolution11 <- Convolution10
I0619 14:56:42.096154 17898 net.cpp:399] Convolution11 -> Convolution11
I0619 14:56:42.096653 17898 net.cpp:141] Setting up Convolution11
I0619 14:56:42.096667 17898 net.cpp:148] Top shape: 128 16 32 32 (2097152)
I0619 14:56:42.096673 17898 net.cpp:156] Memory required for data: 462946816
I0619 14:56:42.096688 17898 layer_factory.hpp:77] Creating layer BatchNorm11
I0619 14:56:42.096704 17898 net.cpp:91] Creating Layer BatchNorm11
I0619 14:56:42.096710 17898 net.cpp:425] BatchNorm11 <- Convolution11
I0619 14:56:42.096722 17898 net.cpp:386] BatchNorm11 -> Convolution11 (in-place)
I0619 14:56:42.097012 17898 net.cpp:141] Setting up BatchNorm11
I0619 14:56:42.097023 17898 net.cpp:148] Top shape: 128 16 32 32 (2097152)
I0619 14:56:42.097029 17898 net.cpp:156] Memory required for data: 471335424
I0619 14:56:42.097043 17898 layer_factory.hpp:77] Creating layer Scale11
I0619 14:56:42.097053 17898 net.cpp:91] Creating Layer Scale11
I0619 14:56:42.097059 17898 net.cpp:425] Scale11 <- Convolution11
I0619 14:56:42.097069 17898 net.cpp:386] Scale11 -> Convolution11 (in-place)
I0619 14:56:42.097121 17898 layer_factory.hpp:77] Creating layer Scale11
I0619 14:56:42.097282 17898 net.cpp:141] Setting up Scale11
I0619 14:56:42.097293 17898 net.cpp:148] Top shape: 128 16 32 32 (2097152)
I0619 14:56:42.097300 17898 net.cpp:156] Memory required for data: 479724032
I0619 14:56:42.097309 17898 layer_factory.hpp:77] Creating layer Eltwise5
I0619 14:56:42.097319 17898 net.cpp:91] Creating Layer Eltwise5
I0619 14:56:42.097332 17898 net.cpp:425] Eltwise5 <- Eltwise4_ReLU9_0_split_1
I0619 14:56:42.097340 17898 net.cpp:425] Eltwise5 <- Convolution11
I0619 14:56:42.097349 17898 net.cpp:399] Eltwise5 -> Eltwise5
I0619 14:56:42.097383 17898 net.cpp:141] Setting up Eltwise5
I0619 14:56:42.097391 17898 net.cpp:148] Top shape: 128 16 32 32 (2097152)
I0619 14:56:42.097398 17898 net.cpp:156] Memory required for data: 488112640
I0619 14:56:42.097404 17898 layer_factory.hpp:77] Creating layer ReLU11
I0619 14:56:42.097415 17898 net.cpp:91] Creating Layer ReLU11
I0619 14:56:42.097422 17898 net.cpp:425] ReLU11 <- Eltwise5
I0619 14:56:42.097430 17898 net.cpp:386] ReLU11 -> Eltwise5 (in-place)
I0619 14:56:42.097445 17898 net.cpp:141] Setting up ReLU11
I0619 14:56:42.097453 17898 net.cpp:148] Top shape: 128 16 32 32 (2097152)
I0619 14:56:42.097460 17898 net.cpp:156] Memory required for data: 496501248
I0619 14:56:42.097465 17898 layer_factory.hpp:77] Creating layer Eltwise5_ReLU11_0_split
I0619 14:56:42.097475 17898 net.cpp:91] Creating Layer Eltwise5_ReLU11_0_split
I0619 14:56:42.097481 17898 net.cpp:425] Eltwise5_ReLU11_0_split <- Eltwise5
I0619 14:56:42.097488 17898 net.cpp:399] Eltwise5_ReLU11_0_split -> Eltwise5_ReLU11_0_split_0
I0619 14:56:42.097499 17898 net.cpp:399] Eltwise5_ReLU11_0_split -> Eltwise5_ReLU11_0_split_1
I0619 14:56:42.097550 17898 net.cpp:141] Setting up Eltwise5_ReLU11_0_split
I0619 14:56:42.097560 17898 net.cpp:148] Top shape: 128 16 32 32 (2097152)
I0619 14:56:42.097568 17898 net.cpp:148] Top shape: 128 16 32 32 (2097152)
I0619 14:56:42.097573 17898 net.cpp:156] Memory required for data: 513278464
I0619 14:56:42.097579 17898 layer_factory.hpp:77] Creating layer Convolution12
I0619 14:56:42.097595 17898 net.cpp:91] Creating Layer Convolution12
I0619 14:56:42.097602 17898 net.cpp:425] Convolution12 <- Eltwise5_ReLU11_0_split_0
I0619 14:56:42.097617 17898 net.cpp:399] Convolution12 -> Convolution12
I0619 14:56:42.098116 17898 net.cpp:141] Setting up Convolution12
I0619 14:56:42.098129 17898 net.cpp:148] Top shape: 128 16 32 32 (2097152)
I0619 14:56:42.098135 17898 net.cpp:156] Memory required for data: 521667072
I0619 14:56:42.098146 17898 layer_factory.hpp:77] Creating layer BatchNorm12
I0619 14:56:42.098160 17898 net.cpp:91] Creating Layer BatchNorm12
I0619 14:56:42.098166 17898 net.cpp:425] BatchNorm12 <- Convolution12
I0619 14:56:42.098176 17898 net.cpp:386] BatchNorm12 -> Convolution12 (in-place)
I0619 14:56:42.098474 17898 net.cpp:141] Setting up BatchNorm12
I0619 14:56:42.098485 17898 net.cpp:148] Top shape: 128 16 32 32 (2097152)
I0619 14:56:42.098491 17898 net.cpp:156] Memory required for data: 530055680
I0619 14:56:42.098505 17898 layer_factory.hpp:77] Creating layer Scale12
I0619 14:56:42.098515 17898 net.cpp:91] Creating Layer Scale12
I0619 14:56:42.098521 17898 net.cpp:425] Scale12 <- Convolution12
I0619 14:56:42.098533 17898 net.cpp:386] Scale12 -> Convolution12 (in-place)
I0619 14:56:42.098582 17898 layer_factory.hpp:77] Creating layer Scale12
I0619 14:56:42.098754 17898 net.cpp:141] Setting up Scale12
I0619 14:56:42.098767 17898 net.cpp:148] Top shape: 128 16 32 32 (2097152)
I0619 14:56:42.098773 17898 net.cpp:156] Memory required for data: 538444288
I0619 14:56:42.098783 17898 layer_factory.hpp:77] Creating layer ReLU12
I0619 14:56:42.098795 17898 net.cpp:91] Creating Layer ReLU12
I0619 14:56:42.098801 17898 net.cpp:425] ReLU12 <- Convolution12
I0619 14:56:42.098810 17898 net.cpp:386] ReLU12 -> Convolution12 (in-place)
I0619 14:56:42.098820 17898 net.cpp:141] Setting up ReLU12
I0619 14:56:42.098829 17898 net.cpp:148] Top shape: 128 16 32 32 (2097152)
I0619 14:56:42.098834 17898 net.cpp:156] Memory required for data: 546832896
I0619 14:56:42.098840 17898 layer_factory.hpp:77] Creating layer Convolution13
I0619 14:56:42.098856 17898 net.cpp:91] Creating Layer Convolution13
I0619 14:56:42.098863 17898 net.cpp:425] Convolution13 <- Convolution12
I0619 14:56:42.098873 17898 net.cpp:399] Convolution13 -> Convolution13
I0619 14:56:42.099385 17898 net.cpp:141] Setting up Convolution13
I0619 14:56:42.099400 17898 net.cpp:148] Top shape: 128 16 32 32 (2097152)
I0619 14:56:42.099406 17898 net.cpp:156] Memory required for data: 555221504
I0619 14:56:42.099417 17898 layer_factory.hpp:77] Creating layer BatchNorm13
I0619 14:56:42.099428 17898 net.cpp:91] Creating Layer BatchNorm13
I0619 14:56:42.099434 17898 net.cpp:425] BatchNorm13 <- Convolution13
I0619 14:56:42.099450 17898 net.cpp:386] BatchNorm13 -> Convolution13 (in-place)
I0619 14:56:42.099745 17898 net.cpp:141] Setting up BatchNorm13
I0619 14:56:42.099756 17898 net.cpp:148] Top shape: 128 16 32 32 (2097152)
I0619 14:56:42.099761 17898 net.cpp:156] Memory required for data: 563610112
I0619 14:56:42.099774 17898 layer_factory.hpp:77] Creating layer Scale13
I0619 14:56:42.099788 17898 net.cpp:91] Creating Layer Scale13
I0619 14:56:42.099794 17898 net.cpp:425] Scale13 <- Convolution13
I0619 14:56:42.099803 17898 net.cpp:386] Scale13 -> Convolution13 (in-place)
I0619 14:56:42.099854 17898 layer_factory.hpp:77] Creating layer Scale13
I0619 14:56:42.100033 17898 net.cpp:141] Setting up Scale13
I0619 14:56:42.100044 17898 net.cpp:148] Top shape: 128 16 32 32 (2097152)
I0619 14:56:42.100049 17898 net.cpp:156] Memory required for data: 571998720
I0619 14:56:42.100059 17898 layer_factory.hpp:77] Creating layer Eltwise6
I0619 14:56:42.100069 17898 net.cpp:91] Creating Layer Eltwise6
I0619 14:56:42.100076 17898 net.cpp:425] Eltwise6 <- Eltwise5_ReLU11_0_split_1
I0619 14:56:42.100083 17898 net.cpp:425] Eltwise6 <- Convolution13
I0619 14:56:42.100095 17898 net.cpp:399] Eltwise6 -> Eltwise6
I0619 14:56:42.100136 17898 net.cpp:141] Setting up Eltwise6
I0619 14:56:42.100147 17898 net.cpp:148] Top shape: 128 16 32 32 (2097152)
I0619 14:56:42.100152 17898 net.cpp:156] Memory required for data: 580387328
I0619 14:56:42.100158 17898 layer_factory.hpp:77] Creating layer ReLU13
I0619 14:56:42.100177 17898 net.cpp:91] Creating Layer ReLU13
I0619 14:56:42.100213 17898 net.cpp:425] ReLU13 <- Eltwise6
I0619 14:56:42.100222 17898 net.cpp:386] ReLU13 -> Eltwise6 (in-place)
I0619 14:56:42.100234 17898 net.cpp:141] Setting up ReLU13
I0619 14:56:42.100242 17898 net.cpp:148] Top shape: 128 16 32 32 (2097152)
I0619 14:56:42.100249 17898 net.cpp:156] Memory required for data: 588775936
I0619 14:56:42.100255 17898 layer_factory.hpp:77] Creating layer Eltwise6_ReLU13_0_split
I0619 14:56:42.100267 17898 net.cpp:91] Creating Layer Eltwise6_ReLU13_0_split
I0619 14:56:42.100273 17898 net.cpp:425] Eltwise6_ReLU13_0_split <- Eltwise6
I0619 14:56:42.100283 17898 net.cpp:399] Eltwise6_ReLU13_0_split -> Eltwise6_ReLU13_0_split_0
I0619 14:56:42.100294 17898 net.cpp:399] Eltwise6_ReLU13_0_split -> Eltwise6_ReLU13_0_split_1
I0619 14:56:42.100352 17898 net.cpp:141] Setting up Eltwise6_ReLU13_0_split
I0619 14:56:42.100361 17898 net.cpp:148] Top shape: 128 16 32 32 (2097152)
I0619 14:56:42.100369 17898 net.cpp:148] Top shape: 128 16 32 32 (2097152)
I0619 14:56:42.100375 17898 net.cpp:156] Memory required for data: 605553152
I0619 14:56:42.100381 17898 layer_factory.hpp:77] Creating layer Convolution14
I0619 14:56:42.100394 17898 net.cpp:91] Creating Layer Convolution14
I0619 14:56:42.100401 17898 net.cpp:425] Convolution14 <- Eltwise6_ReLU13_0_split_0
I0619 14:56:42.100411 17898 net.cpp:399] Convolution14 -> Convolution14
I0619 14:56:42.100883 17898 net.cpp:141] Setting up Convolution14
I0619 14:56:42.100898 17898 net.cpp:148] Top shape: 128 16 32 32 (2097152)
I0619 14:56:42.100903 17898 net.cpp:156] Memory required for data: 613941760
I0619 14:56:42.100914 17898 layer_factory.hpp:77] Creating layer BatchNorm14
I0619 14:56:42.100927 17898 net.cpp:91] Creating Layer BatchNorm14
I0619 14:56:42.100934 17898 net.cpp:425] BatchNorm14 <- Convolution14
I0619 14:56:42.100942 17898 net.cpp:386] BatchNorm14 -> Convolution14 (in-place)
I0619 14:56:42.101244 17898 net.cpp:141] Setting up BatchNorm14
I0619 14:56:42.101256 17898 net.cpp:148] Top shape: 128 16 32 32 (2097152)
I0619 14:56:42.101263 17898 net.cpp:156] Memory required for data: 622330368
I0619 14:56:42.101275 17898 layer_factory.hpp:77] Creating layer Scale14
I0619 14:56:42.101285 17898 net.cpp:91] Creating Layer Scale14
I0619 14:56:42.101292 17898 net.cpp:425] Scale14 <- Convolution14
I0619 14:56:42.101301 17898 net.cpp:386] Scale14 -> Convolution14 (in-place)
I0619 14:56:42.101354 17898 layer_factory.hpp:77] Creating layer Scale14
I0619 14:56:42.101529 17898 net.cpp:141] Setting up Scale14
I0619 14:56:42.101541 17898 net.cpp:148] Top shape: 128 16 32 32 (2097152)
I0619 14:56:42.101547 17898 net.cpp:156] Memory required for data: 630718976
I0619 14:56:42.101557 17898 layer_factory.hpp:77] Creating layer ReLU14
I0619 14:56:42.101567 17898 net.cpp:91] Creating Layer ReLU14
I0619 14:56:42.101572 17898 net.cpp:425] ReLU14 <- Convolution14
I0619 14:56:42.101583 17898 net.cpp:386] ReLU14 -> Convolution14 (in-place)
I0619 14:56:42.101593 17898 net.cpp:141] Setting up ReLU14
I0619 14:56:42.101603 17898 net.cpp:148] Top shape: 128 16 32 32 (2097152)
I0619 14:56:42.101608 17898 net.cpp:156] Memory required for data: 639107584
I0619 14:56:42.101613 17898 layer_factory.hpp:77] Creating layer Convolution15
I0619 14:56:42.101630 17898 net.cpp:91] Creating Layer Convolution15
I0619 14:56:42.101636 17898 net.cpp:425] Convolution15 <- Convolution14
I0619 14:56:42.101646 17898 net.cpp:399] Convolution15 -> Convolution15
I0619 14:56:42.102121 17898 net.cpp:141] Setting up Convolution15
I0619 14:56:42.102133 17898 net.cpp:148] Top shape: 128 16 32 32 (2097152)
I0619 14:56:42.102139 17898 net.cpp:156] Memory required for data: 647496192
I0619 14:56:42.102150 17898 layer_factory.hpp:77] Creating layer BatchNorm15
I0619 14:56:42.102169 17898 net.cpp:91] Creating Layer BatchNorm15
I0619 14:56:42.102176 17898 net.cpp:425] BatchNorm15 <- Convolution15
I0619 14:56:42.102185 17898 net.cpp:386] BatchNorm15 -> Convolution15 (in-place)
I0619 14:56:42.102478 17898 net.cpp:141] Setting up BatchNorm15
I0619 14:56:42.102494 17898 net.cpp:148] Top shape: 128 16 32 32 (2097152)
I0619 14:56:42.102520 17898 net.cpp:156] Memory required for data: 655884800
I0619 14:56:42.102535 17898 layer_factory.hpp:77] Creating layer Scale15
I0619 14:56:42.102548 17898 net.cpp:91] Creating Layer Scale15
I0619 14:56:42.102555 17898 net.cpp:425] Scale15 <- Convolution15
I0619 14:56:42.102566 17898 net.cpp:386] Scale15 -> Convolution15 (in-place)
I0619 14:56:42.102622 17898 layer_factory.hpp:77] Creating layer Scale15
I0619 14:56:42.102797 17898 net.cpp:141] Setting up Scale15
I0619 14:56:42.102809 17898 net.cpp:148] Top shape: 128 16 32 32 (2097152)
I0619 14:56:42.102814 17898 net.cpp:156] Memory required for data: 664273408
I0619 14:56:42.102825 17898 layer_factory.hpp:77] Creating layer Eltwise7
I0619 14:56:42.102834 17898 net.cpp:91] Creating Layer Eltwise7
I0619 14:56:42.102841 17898 net.cpp:425] Eltwise7 <- Eltwise6_ReLU13_0_split_1
I0619 14:56:42.102849 17898 net.cpp:425] Eltwise7 <- Convolution15
I0619 14:56:42.102861 17898 net.cpp:399] Eltwise7 -> Eltwise7
I0619 14:56:42.102902 17898 net.cpp:141] Setting up Eltwise7
I0619 14:56:42.102911 17898 net.cpp:148] Top shape: 128 16 32 32 (2097152)
I0619 14:56:42.102917 17898 net.cpp:156] Memory required for data: 672662016
I0619 14:56:42.102923 17898 layer_factory.hpp:77] Creating layer ReLU15
I0619 14:56:42.102931 17898 net.cpp:91] Creating Layer ReLU15
I0619 14:56:42.102937 17898 net.cpp:425] ReLU15 <- Eltwise7
I0619 14:56:42.102946 17898 net.cpp:386] ReLU15 -> Eltwise7 (in-place)
I0619 14:56:42.102955 17898 net.cpp:141] Setting up ReLU15
I0619 14:56:42.102963 17898 net.cpp:148] Top shape: 128 16 32 32 (2097152)
I0619 14:56:42.102969 17898 net.cpp:156] Memory required for data: 681050624
I0619 14:56:42.102975 17898 layer_factory.hpp:77] Creating layer Eltwise7_ReLU15_0_split
I0619 14:56:42.102988 17898 net.cpp:91] Creating Layer Eltwise7_ReLU15_0_split
I0619 14:56:42.102993 17898 net.cpp:425] Eltwise7_ReLU15_0_split <- Eltwise7
I0619 14:56:42.103001 17898 net.cpp:399] Eltwise7_ReLU15_0_split -> Eltwise7_ReLU15_0_split_0
I0619 14:56:42.103013 17898 net.cpp:399] Eltwise7_ReLU15_0_split -> Eltwise7_ReLU15_0_split_1
I0619 14:56:42.103068 17898 net.cpp:141] Setting up Eltwise7_ReLU15_0_split
I0619 14:56:42.103078 17898 net.cpp:148] Top shape: 128 16 32 32 (2097152)
I0619 14:56:42.103086 17898 net.cpp:148] Top shape: 128 16 32 32 (2097152)
I0619 14:56:42.103092 17898 net.cpp:156] Memory required for data: 697827840
I0619 14:56:42.103097 17898 layer_factory.hpp:77] Creating layer Convolution16
I0619 14:56:42.103111 17898 net.cpp:91] Creating Layer Convolution16
I0619 14:56:42.103117 17898 net.cpp:425] Convolution16 <- Eltwise7_ReLU15_0_split_0
I0619 14:56:42.103127 17898 net.cpp:399] Convolution16 -> Convolution16
I0619 14:56:42.103603 17898 net.cpp:141] Setting up Convolution16
I0619 14:56:42.103616 17898 net.cpp:148] Top shape: 128 16 32 32 (2097152)
I0619 14:56:42.103621 17898 net.cpp:156] Memory required for data: 706216448
I0619 14:56:42.103632 17898 layer_factory.hpp:77] Creating layer BatchNorm16
I0619 14:56:42.103646 17898 net.cpp:91] Creating Layer BatchNorm16
I0619 14:56:42.103652 17898 net.cpp:425] BatchNorm16 <- Convolution16
I0619 14:56:42.103662 17898 net.cpp:386] BatchNorm16 -> Convolution16 (in-place)
I0619 14:56:42.103958 17898 net.cpp:141] Setting up BatchNorm16
I0619 14:56:42.103971 17898 net.cpp:148] Top shape: 128 16 32 32 (2097152)
I0619 14:56:42.103976 17898 net.cpp:156] Memory required for data: 714605056
I0619 14:56:42.103988 17898 layer_factory.hpp:77] Creating layer Scale16
I0619 14:56:42.103998 17898 net.cpp:91] Creating Layer Scale16
I0619 14:56:42.104006 17898 net.cpp:425] Scale16 <- Convolution16
I0619 14:56:42.104013 17898 net.cpp:386] Scale16 -> Convolution16 (in-place)
I0619 14:56:42.104065 17898 layer_factory.hpp:77] Creating layer Scale16
I0619 14:56:42.104240 17898 net.cpp:141] Setting up Scale16
I0619 14:56:42.104251 17898 net.cpp:148] Top shape: 128 16 32 32 (2097152)
I0619 14:56:42.104256 17898 net.cpp:156] Memory required for data: 722993664
I0619 14:56:42.104266 17898 layer_factory.hpp:77] Creating layer ReLU16
I0619 14:56:42.104287 17898 net.cpp:91] Creating Layer ReLU16
I0619 14:56:42.104308 17898 net.cpp:425] ReLU16 <- Convolution16
I0619 14:56:42.104318 17898 net.cpp:386] ReLU16 -> Convolution16 (in-place)
I0619 14:56:42.104328 17898 net.cpp:141] Setting up ReLU16
I0619 14:56:42.104341 17898 net.cpp:148] Top shape: 128 16 32 32 (2097152)
I0619 14:56:42.104347 17898 net.cpp:156] Memory required for data: 731382272
I0619 14:56:42.104357 17898 layer_factory.hpp:77] Creating layer Convolution17
I0619 14:56:42.104372 17898 net.cpp:91] Creating Layer Convolution17
I0619 14:56:42.104379 17898 net.cpp:425] Convolution17 <- Convolution16
I0619 14:56:42.104389 17898 net.cpp:399] Convolution17 -> Convolution17
I0619 14:56:42.104873 17898 net.cpp:141] Setting up Convolution17
I0619 14:56:42.104887 17898 net.cpp:148] Top shape: 128 16 32 32 (2097152)
I0619 14:56:42.104893 17898 net.cpp:156] Memory required for data: 739770880
I0619 14:56:42.104903 17898 layer_factory.hpp:77] Creating layer BatchNorm17
I0619 14:56:42.104913 17898 net.cpp:91] Creating Layer BatchNorm17
I0619 14:56:42.104923 17898 net.cpp:425] BatchNorm17 <- Convolution17
I0619 14:56:42.104935 17898 net.cpp:386] BatchNorm17 -> Convolution17 (in-place)
I0619 14:56:42.105227 17898 net.cpp:141] Setting up BatchNorm17
I0619 14:56:42.105238 17898 net.cpp:148] Top shape: 128 16 32 32 (2097152)
I0619 14:56:42.105244 17898 net.cpp:156] Memory required for data: 748159488
I0619 14:56:42.105258 17898 layer_factory.hpp:77] Creating layer Scale17
I0619 14:56:42.105271 17898 net.cpp:91] Creating Layer Scale17
I0619 14:56:42.105278 17898 net.cpp:425] Scale17 <- Convolution17
I0619 14:56:42.105288 17898 net.cpp:386] Scale17 -> Convolution17 (in-place)
I0619 14:56:42.105339 17898 layer_factory.hpp:77] Creating layer Scale17
I0619 14:56:42.105514 17898 net.cpp:141] Setting up Scale17
I0619 14:56:42.105525 17898 net.cpp:148] Top shape: 128 16 32 32 (2097152)
I0619 14:56:42.105530 17898 net.cpp:156] Memory required for data: 756548096
I0619 14:56:42.105540 17898 layer_factory.hpp:77] Creating layer Eltwise8
I0619 14:56:42.105550 17898 net.cpp:91] Creating Layer Eltwise8
I0619 14:56:42.105556 17898 net.cpp:425] Eltwise8 <- Eltwise7_ReLU15_0_split_1
I0619 14:56:42.105563 17898 net.cpp:425] Eltwise8 <- Convolution17
I0619 14:56:42.105576 17898 net.cpp:399] Eltwise8 -> Eltwise8
I0619 14:56:42.105612 17898 net.cpp:141] Setting up Eltwise8
I0619 14:56:42.105623 17898 net.cpp:148] Top shape: 128 16 32 32 (2097152)
I0619 14:56:42.105628 17898 net.cpp:156] Memory required for data: 764936704
I0619 14:56:42.105633 17898 layer_factory.hpp:77] Creating layer ReLU17
I0619 14:56:42.105643 17898 net.cpp:91] Creating Layer ReLU17
I0619 14:56:42.105648 17898 net.cpp:425] ReLU17 <- Eltwise8
I0619 14:56:42.105656 17898 net.cpp:386] ReLU17 -> Eltwise8 (in-place)
I0619 14:56:42.105666 17898 net.cpp:141] Setting up ReLU17
I0619 14:56:42.105674 17898 net.cpp:148] Top shape: 128 16 32 32 (2097152)
I0619 14:56:42.105680 17898 net.cpp:156] Memory required for data: 773325312
I0619 14:56:42.105686 17898 layer_factory.hpp:77] Creating layer Eltwise8_ReLU17_0_split
I0619 14:56:42.105695 17898 net.cpp:91] Creating Layer Eltwise8_ReLU17_0_split
I0619 14:56:42.105700 17898 net.cpp:425] Eltwise8_ReLU17_0_split <- Eltwise8
I0619 14:56:42.105715 17898 net.cpp:399] Eltwise8_ReLU17_0_split -> Eltwise8_ReLU17_0_split_0
I0619 14:56:42.105726 17898 net.cpp:399] Eltwise8_ReLU17_0_split -> Eltwise8_ReLU17_0_split_1
I0619 14:56:42.105782 17898 net.cpp:141] Setting up Eltwise8_ReLU17_0_split
I0619 14:56:42.105792 17898 net.cpp:148] Top shape: 128 16 32 32 (2097152)
I0619 14:56:42.105799 17898 net.cpp:148] Top shape: 128 16 32 32 (2097152)
I0619 14:56:42.105805 17898 net.cpp:156] Memory required for data: 790102528
I0619 14:56:42.105810 17898 layer_factory.hpp:77] Creating layer Convolution18
I0619 14:56:42.105823 17898 net.cpp:91] Creating Layer Convolution18
I0619 14:56:42.105830 17898 net.cpp:425] Convolution18 <- Eltwise8_ReLU17_0_split_0
I0619 14:56:42.105840 17898 net.cpp:399] Convolution18 -> Convolution18
I0619 14:56:42.106320 17898 net.cpp:141] Setting up Convolution18
I0619 14:56:42.106364 17898 net.cpp:148] Top shape: 128 16 32 32 (2097152)
I0619 14:56:42.106375 17898 net.cpp:156] Memory required for data: 798491136
I0619 14:56:42.106387 17898 layer_factory.hpp:77] Creating layer BatchNorm18
I0619 14:56:42.106401 17898 net.cpp:91] Creating Layer BatchNorm18
I0619 14:56:42.106408 17898 net.cpp:425] BatchNorm18 <- Convolution18
I0619 14:56:42.106418 17898 net.cpp:386] BatchNorm18 -> Convolution18 (in-place)
I0619 14:56:42.106708 17898 net.cpp:141] Setting up BatchNorm18
I0619 14:56:42.106719 17898 net.cpp:148] Top shape: 128 16 32 32 (2097152)
I0619 14:56:42.106724 17898 net.cpp:156] Memory required for data: 806879744
I0619 14:56:42.106736 17898 layer_factory.hpp:77] Creating layer Scale18
I0619 14:56:42.106748 17898 net.cpp:91] Creating Layer Scale18
I0619 14:56:42.106755 17898 net.cpp:425] Scale18 <- Convolution18
I0619 14:56:42.106763 17898 net.cpp:386] Scale18 -> Convolution18 (in-place)
I0619 14:56:42.106817 17898 layer_factory.hpp:77] Creating layer Scale18
I0619 14:56:42.106989 17898 net.cpp:141] Setting up Scale18
I0619 14:56:42.107000 17898 net.cpp:148] Top shape: 128 16 32 32 (2097152)
I0619 14:56:42.107007 17898 net.cpp:156] Memory required for data: 815268352
I0619 14:56:42.107015 17898 layer_factory.hpp:77] Creating layer ReLU18
I0619 14:56:42.107024 17898 net.cpp:91] Creating Layer ReLU18
I0619 14:56:42.107030 17898 net.cpp:425] ReLU18 <- Convolution18
I0619 14:56:42.107040 17898 net.cpp:386] ReLU18 -> Convolution18 (in-place)
I0619 14:56:42.107050 17898 net.cpp:141] Setting up ReLU18
I0619 14:56:42.107059 17898 net.cpp:148] Top shape: 128 16 32 32 (2097152)
I0619 14:56:42.107064 17898 net.cpp:156] Memory required for data: 823656960
I0619 14:56:42.107069 17898 layer_factory.hpp:77] Creating layer Convolution19
I0619 14:56:42.107084 17898 net.cpp:91] Creating Layer Convolution19
I0619 14:56:42.107090 17898 net.cpp:425] Convolution19 <- Convolution18
I0619 14:56:42.107100 17898 net.cpp:399] Convolution19 -> Convolution19
I0619 14:56:42.107553 17898 net.cpp:141] Setting up Convolution19
I0619 14:56:42.107565 17898 net.cpp:148] Top shape: 128 16 32 32 (2097152)
I0619 14:56:42.107571 17898 net.cpp:156] Memory required for data: 832045568
I0619 14:56:42.107581 17898 layer_factory.hpp:77] Creating layer BatchNorm19
I0619 14:56:42.107592 17898 net.cpp:91] Creating Layer BatchNorm19
I0619 14:56:42.107599 17898 net.cpp:425] BatchNorm19 <- Convolution19
I0619 14:56:42.107607 17898 net.cpp:386] BatchNorm19 -> Convolution19 (in-place)
I0619 14:56:42.107883 17898 net.cpp:141] Setting up BatchNorm19
I0619 14:56:42.107894 17898 net.cpp:148] Top shape: 128 16 32 32 (2097152)
I0619 14:56:42.107899 17898 net.cpp:156] Memory required for data: 840434176
I0619 14:56:42.107939 17898 layer_factory.hpp:77] Creating layer Scale19
I0619 14:56:42.107951 17898 net.cpp:91] Creating Layer Scale19
I0619 14:56:42.107957 17898 net.cpp:425] Scale19 <- Convolution19
I0619 14:56:42.107965 17898 net.cpp:386] Scale19 -> Convolution19 (in-place)
I0619 14:56:42.108016 17898 layer_factory.hpp:77] Creating layer Scale19
I0619 14:56:42.108172 17898 net.cpp:141] Setting up Scale19
I0619 14:56:42.108182 17898 net.cpp:148] Top shape: 128 16 32 32 (2097152)
I0619 14:56:42.108188 17898 net.cpp:156] Memory required for data: 848822784
I0619 14:56:42.108198 17898 layer_factory.hpp:77] Creating layer Eltwise9
I0619 14:56:42.108207 17898 net.cpp:91] Creating Layer Eltwise9
I0619 14:56:42.108213 17898 net.cpp:425] Eltwise9 <- Eltwise8_ReLU17_0_split_1
I0619 14:56:42.108220 17898 net.cpp:425] Eltwise9 <- Convolution19
I0619 14:56:42.108229 17898 net.cpp:399] Eltwise9 -> Eltwise9
I0619 14:56:42.108264 17898 net.cpp:141] Setting up Eltwise9
I0619 14:56:42.108274 17898 net.cpp:148] Top shape: 128 16 32 32 (2097152)
I0619 14:56:42.108279 17898 net.cpp:156] Memory required for data: 857211392
I0619 14:56:42.108284 17898 layer_factory.hpp:77] Creating layer ReLU19
I0619 14:56:42.108295 17898 net.cpp:91] Creating Layer ReLU19
I0619 14:56:42.108301 17898 net.cpp:425] ReLU19 <- Eltwise9
I0619 14:56:42.108314 17898 net.cpp:386] ReLU19 -> Eltwise9 (in-place)
I0619 14:56:42.108340 17898 net.cpp:141] Setting up ReLU19
I0619 14:56:42.108350 17898 net.cpp:148] Top shape: 128 16 32 32 (2097152)
I0619 14:56:42.108355 17898 net.cpp:156] Memory required for data: 865600000
I0619 14:56:42.108361 17898 layer_factory.hpp:77] Creating layer Eltwise9_ReLU19_0_split
I0619 14:56:42.108369 17898 net.cpp:91] Creating Layer Eltwise9_ReLU19_0_split
I0619 14:56:42.108376 17898 net.cpp:425] Eltwise9_ReLU19_0_split <- Eltwise9
I0619 14:56:42.108383 17898 net.cpp:399] Eltwise9_ReLU19_0_split -> Eltwise9_ReLU19_0_split_0
I0619 14:56:42.108397 17898 net.cpp:399] Eltwise9_ReLU19_0_split -> Eltwise9_ReLU19_0_split_1
I0619 14:56:42.108453 17898 net.cpp:141] Setting up Eltwise9_ReLU19_0_split
I0619 14:56:42.108461 17898 net.cpp:148] Top shape: 128 16 32 32 (2097152)
I0619 14:56:42.108469 17898 net.cpp:148] Top shape: 128 16 32 32 (2097152)
I0619 14:56:42.108474 17898 net.cpp:156] Memory required for data: 882377216
I0619 14:56:42.108480 17898 layer_factory.hpp:77] Creating layer Convolution20
I0619 14:56:42.108496 17898 net.cpp:91] Creating Layer Convolution20
I0619 14:56:42.108502 17898 net.cpp:425] Convolution20 <- Eltwise9_ReLU19_0_split_0
I0619 14:56:42.108512 17898 net.cpp:399] Convolution20 -> Convolution20
I0619 14:56:42.108966 17898 net.cpp:141] Setting up Convolution20
I0619 14:56:42.108978 17898 net.cpp:148] Top shape: 128 16 32 32 (2097152)
I0619 14:56:42.108984 17898 net.cpp:156] Memory required for data: 890765824
I0619 14:56:42.108994 17898 layer_factory.hpp:77] Creating layer BatchNorm20
I0619 14:56:42.109007 17898 net.cpp:91] Creating Layer BatchNorm20
I0619 14:56:42.109014 17898 net.cpp:425] BatchNorm20 <- Convolution20
I0619 14:56:42.109025 17898 net.cpp:386] BatchNorm20 -> Convolution20 (in-place)
I0619 14:56:42.109303 17898 net.cpp:141] Setting up BatchNorm20
I0619 14:56:42.109315 17898 net.cpp:148] Top shape: 128 16 32 32 (2097152)
I0619 14:56:42.109320 17898 net.cpp:156] Memory required for data: 899154432
I0619 14:56:42.109333 17898 layer_factory.hpp:77] Creating layer Scale20
I0619 14:56:42.109344 17898 net.cpp:91] Creating Layer Scale20
I0619 14:56:42.109350 17898 net.cpp:425] Scale20 <- Convolution20
I0619 14:56:42.109359 17898 net.cpp:386] Scale20 -> Convolution20 (in-place)
I0619 14:56:42.109407 17898 layer_factory.hpp:77] Creating layer Scale20
I0619 14:56:42.109565 17898 net.cpp:141] Setting up Scale20
I0619 14:56:42.109575 17898 net.cpp:148] Top shape: 128 16 32 32 (2097152)
I0619 14:56:42.109580 17898 net.cpp:156] Memory required for data: 907543040
I0619 14:56:42.109589 17898 layer_factory.hpp:77] Creating layer ReLU20
I0619 14:56:42.109598 17898 net.cpp:91] Creating Layer ReLU20
I0619 14:56:42.109604 17898 net.cpp:425] ReLU20 <- Convolution20
I0619 14:56:42.109612 17898 net.cpp:386] ReLU20 -> Convolution20 (in-place)
I0619 14:56:42.109623 17898 net.cpp:141] Setting up ReLU20
I0619 14:56:42.109632 17898 net.cpp:148] Top shape: 128 16 32 32 (2097152)
I0619 14:56:42.109637 17898 net.cpp:156] Memory required for data: 915931648
I0619 14:56:42.109642 17898 layer_factory.hpp:77] Creating layer Convolution21
I0619 14:56:42.109658 17898 net.cpp:91] Creating Layer Convolution21
I0619 14:56:42.109663 17898 net.cpp:425] Convolution21 <- Convolution20
I0619 14:56:42.109675 17898 net.cpp:399] Convolution21 -> Convolution21
I0619 14:56:42.110126 17898 net.cpp:141] Setting up Convolution21
I0619 14:56:42.110138 17898 net.cpp:148] Top shape: 128 16 32 32 (2097152)
I0619 14:56:42.110144 17898 net.cpp:156] Memory required for data: 924320256
I0619 14:56:42.110154 17898 layer_factory.hpp:77] Creating layer BatchNorm21
I0619 14:56:42.110168 17898 net.cpp:91] Creating Layer BatchNorm21
I0619 14:56:42.110175 17898 net.cpp:425] BatchNorm21 <- Convolution21
I0619 14:56:42.110185 17898 net.cpp:386] BatchNorm21 -> Convolution21 (in-place)
I0619 14:56:42.110476 17898 net.cpp:141] Setting up BatchNorm21
I0619 14:56:42.110487 17898 net.cpp:148] Top shape: 128 16 32 32 (2097152)
I0619 14:56:42.110497 17898 net.cpp:156] Memory required for data: 932708864
I0619 14:56:42.110525 17898 layer_factory.hpp:77] Creating layer Scale21
I0619 14:56:42.110535 17898 net.cpp:91] Creating Layer Scale21
I0619 14:56:42.110541 17898 net.cpp:425] Scale21 <- Convolution21
I0619 14:56:42.110553 17898 net.cpp:386] Scale21 -> Convolution21 (in-place)
I0619 14:56:42.110602 17898 layer_factory.hpp:77] Creating layer Scale21
I0619 14:56:42.110761 17898 net.cpp:141] Setting up Scale21
I0619 14:56:42.110772 17898 net.cpp:148] Top shape: 128 16 32 32 (2097152)
I0619 14:56:42.110777 17898 net.cpp:156] Memory required for data: 941097472
I0619 14:56:42.110787 17898 layer_factory.hpp:77] Creating layer Eltwise10
I0619 14:56:42.110798 17898 net.cpp:91] Creating Layer Eltwise10
I0619 14:56:42.110805 17898 net.cpp:425] Eltwise10 <- Eltwise9_ReLU19_0_split_1
I0619 14:56:42.110812 17898 net.cpp:425] Eltwise10 <- Convolution21
I0619 14:56:42.110821 17898 net.cpp:399] Eltwise10 -> Eltwise10
I0619 14:56:42.110860 17898 net.cpp:141] Setting up Eltwise10
I0619 14:56:42.110870 17898 net.cpp:148] Top shape: 128 16 32 32 (2097152)
I0619 14:56:42.110875 17898 net.cpp:156] Memory required for data: 949486080
I0619 14:56:42.110880 17898 layer_factory.hpp:77] Creating layer ReLU21
I0619 14:56:42.110889 17898 net.cpp:91] Creating Layer ReLU21
I0619 14:56:42.110898 17898 net.cpp:425] ReLU21 <- Eltwise10
I0619 14:56:42.110909 17898 net.cpp:386] ReLU21 -> Eltwise10 (in-place)
I0619 14:56:42.110918 17898 net.cpp:141] Setting up ReLU21
I0619 14:56:42.110926 17898 net.cpp:148] Top shape: 128 16 32 32 (2097152)
I0619 14:56:42.110931 17898 net.cpp:156] Memory required for data: 957874688
I0619 14:56:42.110937 17898 layer_factory.hpp:77] Creating layer Eltwise10_ReLU21_0_split
I0619 14:56:42.110945 17898 net.cpp:91] Creating Layer Eltwise10_ReLU21_0_split
I0619 14:56:42.110950 17898 net.cpp:425] Eltwise10_ReLU21_0_split <- Eltwise10
I0619 14:56:42.110958 17898 net.cpp:399] Eltwise10_ReLU21_0_split -> Eltwise10_ReLU21_0_split_0
I0619 14:56:42.110968 17898 net.cpp:399] Eltwise10_ReLU21_0_split -> Eltwise10_ReLU21_0_split_1
I0619 14:56:42.111018 17898 net.cpp:141] Setting up Eltwise10_ReLU21_0_split
I0619 14:56:42.111027 17898 net.cpp:148] Top shape: 128 16 32 32 (2097152)
I0619 14:56:42.111034 17898 net.cpp:148] Top shape: 128 16 32 32 (2097152)
I0619 14:56:42.111040 17898 net.cpp:156] Memory required for data: 974651904
I0619 14:56:42.111045 17898 layer_factory.hpp:77] Creating layer Convolution22
I0619 14:56:42.111062 17898 net.cpp:91] Creating Layer Convolution22
I0619 14:56:42.111068 17898 net.cpp:425] Convolution22 <- Eltwise10_ReLU21_0_split_0
I0619 14:56:42.111078 17898 net.cpp:399] Convolution22 -> Convolution22
I0619 14:56:42.111528 17898 net.cpp:141] Setting up Convolution22
I0619 14:56:42.111541 17898 net.cpp:148] Top shape: 128 16 32 32 (2097152)
I0619 14:56:42.111546 17898 net.cpp:156] Memory required for data: 983040512
I0619 14:56:42.111555 17898 layer_factory.hpp:77] Creating layer BatchNorm22
I0619 14:56:42.111568 17898 net.cpp:91] Creating Layer BatchNorm22
I0619 14:56:42.111574 17898 net.cpp:425] BatchNorm22 <- Convolution22
I0619 14:56:42.111585 17898 net.cpp:386] BatchNorm22 -> Convolution22 (in-place)
I0619 14:56:42.111862 17898 net.cpp:141] Setting up BatchNorm22
I0619 14:56:42.111872 17898 net.cpp:148] Top shape: 128 16 32 32 (2097152)
I0619 14:56:42.111878 17898 net.cpp:156] Memory required for data: 991429120
I0619 14:56:42.111891 17898 layer_factory.hpp:77] Creating layer Scale22
I0619 14:56:42.111902 17898 net.cpp:91] Creating Layer Scale22
I0619 14:56:42.111908 17898 net.cpp:425] Scale22 <- Convolution22
I0619 14:56:42.111917 17898 net.cpp:386] Scale22 -> Convolution22 (in-place)
I0619 14:56:42.111963 17898 layer_factory.hpp:77] Creating layer Scale22
I0619 14:56:42.112129 17898 net.cpp:141] Setting up Scale22
I0619 14:56:42.112143 17898 net.cpp:148] Top shape: 128 16 32 32 (2097152)
I0619 14:56:42.112149 17898 net.cpp:156] Memory required for data: 999817728
I0619 14:56:42.112159 17898 layer_factory.hpp:77] Creating layer ReLU22
I0619 14:56:42.112171 17898 net.cpp:91] Creating Layer ReLU22
I0619 14:56:42.112190 17898 net.cpp:425] ReLU22 <- Convolution22
I0619 14:56:42.112200 17898 net.cpp:386] ReLU22 -> Convolution22 (in-place)
I0619 14:56:42.112210 17898 net.cpp:141] Setting up ReLU22
I0619 14:56:42.112217 17898 net.cpp:148] Top shape: 128 16 32 32 (2097152)
I0619 14:56:42.112223 17898 net.cpp:156] Memory required for data: 1008206336
I0619 14:56:42.112228 17898 layer_factory.hpp:77] Creating layer Convolution23
I0619 14:56:42.112244 17898 net.cpp:91] Creating Layer Convolution23
I0619 14:56:42.112251 17898 net.cpp:425] Convolution23 <- Convolution22
I0619 14:56:42.112262 17898 net.cpp:399] Convolution23 -> Convolution23
I0619 14:56:42.112715 17898 net.cpp:141] Setting up Convolution23
I0619 14:56:42.112728 17898 net.cpp:148] Top shape: 128 16 32 32 (2097152)
I0619 14:56:42.112735 17898 net.cpp:156] Memory required for data: 1016594944
I0619 14:56:42.112745 17898 layer_factory.hpp:77] Creating layer BatchNorm23
I0619 14:56:42.112756 17898 net.cpp:91] Creating Layer BatchNorm23
I0619 14:56:42.112763 17898 net.cpp:425] BatchNorm23 <- Convolution23
I0619 14:56:42.112773 17898 net.cpp:386] BatchNorm23 -> Convolution23 (in-place)
I0619 14:56:42.113042 17898 net.cpp:141] Setting up BatchNorm23
I0619 14:56:42.113052 17898 net.cpp:148] Top shape: 128 16 32 32 (2097152)
I0619 14:56:42.113059 17898 net.cpp:156] Memory required for data: 1024983552
I0619 14:56:42.113070 17898 layer_factory.hpp:77] Creating layer Scale23
I0619 14:56:42.113080 17898 net.cpp:91] Creating Layer Scale23
I0619 14:56:42.113088 17898 net.cpp:425] Scale23 <- Convolution23
I0619 14:56:42.113098 17898 net.cpp:386] Scale23 -> Convolution23 (in-place)
I0619 14:56:42.113149 17898 layer_factory.hpp:77] Creating layer Scale23
I0619 14:56:42.113309 17898 net.cpp:141] Setting up Scale23
I0619 14:56:42.113322 17898 net.cpp:148] Top shape: 128 16 32 32 (2097152)
I0619 14:56:42.113328 17898 net.cpp:156] Memory required for data: 1033372160
I0619 14:56:42.113338 17898 layer_factory.hpp:77] Creating layer Eltwise11
I0619 14:56:42.113348 17898 net.cpp:91] Creating Layer Eltwise11
I0619 14:56:42.113353 17898 net.cpp:425] Eltwise11 <- Eltwise10_ReLU21_0_split_1
I0619 14:56:42.113361 17898 net.cpp:425] Eltwise11 <- Convolution23
I0619 14:56:42.113369 17898 net.cpp:399] Eltwise11 -> Eltwise11
I0619 14:56:42.113410 17898 net.cpp:141] Setting up Eltwise11
I0619 14:56:42.113420 17898 net.cpp:148] Top shape: 128 16 32 32 (2097152)
I0619 14:56:42.113425 17898 net.cpp:156] Memory required for data: 1041760768
I0619 14:56:42.113430 17898 layer_factory.hpp:77] Creating layer ReLU23
I0619 14:56:42.113440 17898 net.cpp:91] Creating Layer ReLU23
I0619 14:56:42.113448 17898 net.cpp:425] ReLU23 <- Eltwise11
I0619 14:56:42.113456 17898 net.cpp:386] ReLU23 -> Eltwise11 (in-place)
I0619 14:56:42.113464 17898 net.cpp:141] Setting up ReLU23
I0619 14:56:42.113472 17898 net.cpp:148] Top shape: 128 16 32 32 (2097152)
I0619 14:56:42.113478 17898 net.cpp:156] Memory required for data: 1050149376
I0619 14:56:42.113483 17898 layer_factory.hpp:77] Creating layer Eltwise11_ReLU23_0_split
I0619 14:56:42.113492 17898 net.cpp:91] Creating Layer Eltwise11_ReLU23_0_split
I0619 14:56:42.113497 17898 net.cpp:425] Eltwise11_ReLU23_0_split <- Eltwise11
I0619 14:56:42.113504 17898 net.cpp:399] Eltwise11_ReLU23_0_split -> Eltwise11_ReLU23_0_split_0
I0619 14:56:42.113517 17898 net.cpp:399] Eltwise11_ReLU23_0_split -> Eltwise11_ReLU23_0_split_1
I0619 14:56:42.113565 17898 net.cpp:141] Setting up Eltwise11_ReLU23_0_split
I0619 14:56:42.113574 17898 net.cpp:148] Top shape: 128 16 32 32 (2097152)
I0619 14:56:42.113581 17898 net.cpp:148] Top shape: 128 16 32 32 (2097152)
I0619 14:56:42.113586 17898 net.cpp:156] Memory required for data: 1066926592
I0619 14:56:42.113592 17898 layer_factory.hpp:77] Creating layer Convolution24
I0619 14:56:42.113607 17898 net.cpp:91] Creating Layer Convolution24
I0619 14:56:42.113613 17898 net.cpp:425] Convolution24 <- Eltwise11_ReLU23_0_split_0
I0619 14:56:42.113623 17898 net.cpp:399] Convolution24 -> Convolution24
I0619 14:56:42.114079 17898 net.cpp:141] Setting up Convolution24
I0619 14:56:42.114107 17898 net.cpp:148] Top shape: 128 16 32 32 (2097152)
I0619 14:56:42.114114 17898 net.cpp:156] Memory required for data: 1075315200
I0619 14:56:42.114123 17898 layer_factory.hpp:77] Creating layer BatchNorm24
I0619 14:56:42.114136 17898 net.cpp:91] Creating Layer BatchNorm24
I0619 14:56:42.114145 17898 net.cpp:425] BatchNorm24 <- Convolution24
I0619 14:56:42.114153 17898 net.cpp:386] BatchNorm24 -> Convolution24 (in-place)
I0619 14:56:42.114455 17898 net.cpp:141] Setting up BatchNorm24
I0619 14:56:42.114469 17898 net.cpp:148] Top shape: 128 16 32 32 (2097152)
I0619 14:56:42.114475 17898 net.cpp:156] Memory required for data: 1083703808
I0619 14:56:42.114486 17898 layer_factory.hpp:77] Creating layer Scale24
I0619 14:56:42.114496 17898 net.cpp:91] Creating Layer Scale24
I0619 14:56:42.114503 17898 net.cpp:425] Scale24 <- Convolution24
I0619 14:56:42.114518 17898 net.cpp:386] Scale24 -> Convolution24 (in-place)
I0619 14:56:42.114568 17898 layer_factory.hpp:77] Creating layer Scale24
I0619 14:56:42.114728 17898 net.cpp:141] Setting up Scale24
I0619 14:56:42.114738 17898 net.cpp:148] Top shape: 128 16 32 32 (2097152)
I0619 14:56:42.114744 17898 net.cpp:156] Memory required for data: 1092092416
I0619 14:56:42.114754 17898 layer_factory.hpp:77] Creating layer ReLU24
I0619 14:56:42.114766 17898 net.cpp:91] Creating Layer ReLU24
I0619 14:56:42.114774 17898 net.cpp:425] ReLU24 <- Convolution24
I0619 14:56:42.114783 17898 net.cpp:386] ReLU24 -> Convolution24 (in-place)
I0619 14:56:42.114792 17898 net.cpp:141] Setting up ReLU24
I0619 14:56:42.114800 17898 net.cpp:148] Top shape: 128 16 32 32 (2097152)
I0619 14:56:42.114805 17898 net.cpp:156] Memory required for data: 1100481024
I0619 14:56:42.114811 17898 layer_factory.hpp:77] Creating layer Convolution25
I0619 14:56:42.114826 17898 net.cpp:91] Creating Layer Convolution25
I0619 14:56:42.114832 17898 net.cpp:425] Convolution25 <- Convolution24
I0619 14:56:42.114845 17898 net.cpp:399] Convolution25 -> Convolution25
I0619 14:56:42.115293 17898 net.cpp:141] Setting up Convolution25
I0619 14:56:42.115309 17898 net.cpp:148] Top shape: 128 16 32 32 (2097152)
I0619 14:56:42.115314 17898 net.cpp:156] Memory required for data: 1108869632
I0619 14:56:42.115324 17898 layer_factory.hpp:77] Creating layer BatchNorm25
I0619 14:56:42.115336 17898 net.cpp:91] Creating Layer BatchNorm25
I0619 14:56:42.115342 17898 net.cpp:425] BatchNorm25 <- Convolution25
I0619 14:56:42.115351 17898 net.cpp:386] BatchNorm25 -> Convolution25 (in-place)
I0619 14:56:42.115633 17898 net.cpp:141] Setting up BatchNorm25
I0619 14:56:42.115643 17898 net.cpp:148] Top shape: 128 16 32 32 (2097152)
I0619 14:56:42.115648 17898 net.cpp:156] Memory required for data: 1117258240
I0619 14:56:42.115660 17898 layer_factory.hpp:77] Creating layer Scale25
I0619 14:56:42.115670 17898 net.cpp:91] Creating Layer Scale25
I0619 14:56:42.115676 17898 net.cpp:425] Scale25 <- Convolution25
I0619 14:56:42.115687 17898 net.cpp:386] Scale25 -> Convolution25 (in-place)
I0619 14:56:42.115734 17898 layer_factory.hpp:77] Creating layer Scale25
I0619 14:56:42.115890 17898 net.cpp:141] Setting up Scale25
I0619 14:56:42.115900 17898 net.cpp:148] Top shape: 128 16 32 32 (2097152)
I0619 14:56:42.115906 17898 net.cpp:156] Memory required for data: 1125646848
I0619 14:56:42.115916 17898 layer_factory.hpp:77] Creating layer Eltwise12
I0619 14:56:42.115927 17898 net.cpp:91] Creating Layer Eltwise12
I0619 14:56:42.115933 17898 net.cpp:425] Eltwise12 <- Eltwise11_ReLU23_0_split_1
I0619 14:56:42.115942 17898 net.cpp:425] Eltwise12 <- Convolution25
I0619 14:56:42.115949 17898 net.cpp:399] Eltwise12 -> Eltwise12
I0619 14:56:42.115983 17898 net.cpp:141] Setting up Eltwise12
I0619 14:56:42.115993 17898 net.cpp:148] Top shape: 128 16 32 32 (2097152)
I0619 14:56:42.115998 17898 net.cpp:156] Memory required for data: 1134035456
I0619 14:56:42.116003 17898 layer_factory.hpp:77] Creating layer ReLU25
I0619 14:56:42.116011 17898 net.cpp:91] Creating Layer ReLU25
I0619 14:56:42.116017 17898 net.cpp:425] ReLU25 <- Eltwise12
I0619 14:56:42.116031 17898 net.cpp:386] ReLU25 -> Eltwise12 (in-place)
I0619 14:56:42.116057 17898 net.cpp:141] Setting up ReLU25
I0619 14:56:42.116066 17898 net.cpp:148] Top shape: 128 16 32 32 (2097152)
I0619 14:56:42.116071 17898 net.cpp:156] Memory required for data: 1142424064
I0619 14:56:42.116077 17898 layer_factory.hpp:77] Creating layer Eltwise12_ReLU25_0_split
I0619 14:56:42.116086 17898 net.cpp:91] Creating Layer Eltwise12_ReLU25_0_split
I0619 14:56:42.116091 17898 net.cpp:425] Eltwise12_ReLU25_0_split <- Eltwise12
I0619 14:56:42.116099 17898 net.cpp:399] Eltwise12_ReLU25_0_split -> Eltwise12_ReLU25_0_split_0
I0619 14:56:42.116109 17898 net.cpp:399] Eltwise12_ReLU25_0_split -> Eltwise12_ReLU25_0_split_1
I0619 14:56:42.116173 17898 net.cpp:141] Setting up Eltwise12_ReLU25_0_split
I0619 14:56:42.116183 17898 net.cpp:148] Top shape: 128 16 32 32 (2097152)
I0619 14:56:42.116190 17898 net.cpp:148] Top shape: 128 16 32 32 (2097152)
I0619 14:56:42.116196 17898 net.cpp:156] Memory required for data: 1159201280
I0619 14:56:42.116202 17898 layer_factory.hpp:77] Creating layer Convolution26
I0619 14:56:42.116214 17898 net.cpp:91] Creating Layer Convolution26
I0619 14:56:42.116221 17898 net.cpp:425] Convolution26 <- Eltwise12_ReLU25_0_split_0
I0619 14:56:42.116230 17898 net.cpp:399] Convolution26 -> Convolution26
I0619 14:56:42.116696 17898 net.cpp:141] Setting up Convolution26
I0619 14:56:42.116708 17898 net.cpp:148] Top shape: 128 16 32 32 (2097152)
I0619 14:56:42.116714 17898 net.cpp:156] Memory required for data: 1167589888
I0619 14:56:42.116724 17898 layer_factory.hpp:77] Creating layer BatchNorm26
I0619 14:56:42.116736 17898 net.cpp:91] Creating Layer BatchNorm26
I0619 14:56:42.116744 17898 net.cpp:425] BatchNorm26 <- Convolution26
I0619 14:56:42.116751 17898 net.cpp:386] BatchNorm26 -> Convolution26 (in-place)
I0619 14:56:42.117032 17898 net.cpp:141] Setting up BatchNorm26
I0619 14:56:42.117041 17898 net.cpp:148] Top shape: 128 16 32 32 (2097152)
I0619 14:56:42.117048 17898 net.cpp:156] Memory required for data: 1175978496
I0619 14:56:42.117059 17898 layer_factory.hpp:77] Creating layer Scale26
I0619 14:56:42.117087 17898 net.cpp:91] Creating Layer Scale26
I0619 14:56:42.117094 17898 net.cpp:425] Scale26 <- Convolution26
I0619 14:56:42.117103 17898 net.cpp:386] Scale26 -> Convolution26 (in-place)
I0619 14:56:42.117156 17898 layer_factory.hpp:77] Creating layer Scale26
I0619 14:56:42.117319 17898 net.cpp:141] Setting up Scale26
I0619 14:56:42.117329 17898 net.cpp:148] Top shape: 128 16 32 32 (2097152)
I0619 14:56:42.117336 17898 net.cpp:156] Memory required for data: 1184367104
I0619 14:56:42.117346 17898 layer_factory.hpp:77] Creating layer ReLU26
I0619 14:56:42.117354 17898 net.cpp:91] Creating Layer ReLU26
I0619 14:56:42.117360 17898 net.cpp:425] ReLU26 <- Convolution26
I0619 14:56:42.117367 17898 net.cpp:386] ReLU26 -> Convolution26 (in-place)
I0619 14:56:42.117377 17898 net.cpp:141] Setting up ReLU26
I0619 14:56:42.117384 17898 net.cpp:148] Top shape: 128 16 32 32 (2097152)
I0619 14:56:42.117390 17898 net.cpp:156] Memory required for data: 1192755712
I0619 14:56:42.117395 17898 layer_factory.hpp:77] Creating layer Convolution27
I0619 14:56:42.117410 17898 net.cpp:91] Creating Layer Convolution27
I0619 14:56:42.117418 17898 net.cpp:425] Convolution27 <- Convolution26
I0619 14:56:42.117426 17898 net.cpp:399] Convolution27 -> Convolution27
I0619 14:56:42.117882 17898 net.cpp:141] Setting up Convolution27
I0619 14:56:42.117894 17898 net.cpp:148] Top shape: 128 16 32 32 (2097152)
I0619 14:56:42.117899 17898 net.cpp:156] Memory required for data: 1201144320
I0619 14:56:42.117909 17898 layer_factory.hpp:77] Creating layer BatchNorm27
I0619 14:56:42.117921 17898 net.cpp:91] Creating Layer BatchNorm27
I0619 14:56:42.117928 17898 net.cpp:425] BatchNorm27 <- Convolution27
I0619 14:56:42.117938 17898 net.cpp:386] BatchNorm27 -> Convolution27 (in-place)
I0619 14:56:42.118221 17898 net.cpp:141] Setting up BatchNorm27
I0619 14:56:42.118232 17898 net.cpp:148] Top shape: 128 16 32 32 (2097152)
I0619 14:56:42.118242 17898 net.cpp:156] Memory required for data: 1209532928
I0619 14:56:42.118268 17898 layer_factory.hpp:77] Creating layer Scale27
I0619 14:56:42.118280 17898 net.cpp:91] Creating Layer Scale27
I0619 14:56:42.118288 17898 net.cpp:425] Scale27 <- Convolution27
I0619 14:56:42.118296 17898 net.cpp:386] Scale27 -> Convolution27 (in-place)
I0619 14:56:42.118348 17898 layer_factory.hpp:77] Creating layer Scale27
I0619 14:56:42.118531 17898 net.cpp:141] Setting up Scale27
I0619 14:56:42.118542 17898 net.cpp:148] Top shape: 128 16 32 32 (2097152)
I0619 14:56:42.118547 17898 net.cpp:156] Memory required for data: 1217921536
I0619 14:56:42.118556 17898 layer_factory.hpp:77] Creating layer Eltwise13
I0619 14:56:42.118571 17898 net.cpp:91] Creating Layer Eltwise13
I0619 14:56:42.118577 17898 net.cpp:425] Eltwise13 <- Eltwise12_ReLU25_0_split_1
I0619 14:56:42.118589 17898 net.cpp:425] Eltwise13 <- Convolution27
I0619 14:56:42.118597 17898 net.cpp:399] Eltwise13 -> Eltwise13
I0619 14:56:42.118634 17898 net.cpp:141] Setting up Eltwise13
I0619 14:56:42.118643 17898 net.cpp:148] Top shape: 128 16 32 32 (2097152)
I0619 14:56:42.118649 17898 net.cpp:156] Memory required for data: 1226310144
I0619 14:56:42.118654 17898 layer_factory.hpp:77] Creating layer ReLU27
I0619 14:56:42.118665 17898 net.cpp:91] Creating Layer ReLU27
I0619 14:56:42.118671 17898 net.cpp:425] ReLU27 <- Eltwise13
I0619 14:56:42.118680 17898 net.cpp:386] ReLU27 -> Eltwise13 (in-place)
I0619 14:56:42.118687 17898 net.cpp:141] Setting up ReLU27
I0619 14:56:42.118695 17898 net.cpp:148] Top shape: 128 16 32 32 (2097152)
I0619 14:56:42.118700 17898 net.cpp:156] Memory required for data: 1234698752
I0619 14:56:42.118705 17898 layer_factory.hpp:77] Creating layer Eltwise13_ReLU27_0_split
I0619 14:56:42.118712 17898 net.cpp:91] Creating Layer Eltwise13_ReLU27_0_split
I0619 14:56:42.118717 17898 net.cpp:425] Eltwise13_ReLU27_0_split <- Eltwise13
I0619 14:56:42.118727 17898 net.cpp:399] Eltwise13_ReLU27_0_split -> Eltwise13_ReLU27_0_split_0
I0619 14:56:42.118737 17898 net.cpp:399] Eltwise13_ReLU27_0_split -> Eltwise13_ReLU27_0_split_1
I0619 14:56:42.118783 17898 net.cpp:141] Setting up Eltwise13_ReLU27_0_split
I0619 14:56:42.118793 17898 net.cpp:148] Top shape: 128 16 32 32 (2097152)
I0619 14:56:42.118799 17898 net.cpp:148] Top shape: 128 16 32 32 (2097152)
I0619 14:56:42.118804 17898 net.cpp:156] Memory required for data: 1251475968
I0619 14:56:42.118809 17898 layer_factory.hpp:77] Creating layer Convolution28
I0619 14:56:42.118824 17898 net.cpp:91] Creating Layer Convolution28
I0619 14:56:42.118830 17898 net.cpp:425] Convolution28 <- Eltwise13_ReLU27_0_split_0
I0619 14:56:42.118839 17898 net.cpp:399] Convolution28 -> Convolution28
I0619 14:56:42.119282 17898 net.cpp:141] Setting up Convolution28
I0619 14:56:42.119293 17898 net.cpp:148] Top shape: 128 16 32 32 (2097152)
I0619 14:56:42.119298 17898 net.cpp:156] Memory required for data: 1259864576
I0619 14:56:42.119308 17898 layer_factory.hpp:77] Creating layer BatchNorm28
I0619 14:56:42.119318 17898 net.cpp:91] Creating Layer BatchNorm28
I0619 14:56:42.119323 17898 net.cpp:425] BatchNorm28 <- Convolution28
I0619 14:56:42.119333 17898 net.cpp:386] BatchNorm28 -> Convolution28 (in-place)
I0619 14:56:42.119595 17898 net.cpp:141] Setting up BatchNorm28
I0619 14:56:42.119604 17898 net.cpp:148] Top shape: 128 16 32 32 (2097152)
I0619 14:56:42.119609 17898 net.cpp:156] Memory required for data: 1268253184
I0619 14:56:42.119621 17898 layer_factory.hpp:77] Creating layer Scale28
I0619 14:56:42.119633 17898 net.cpp:91] Creating Layer Scale28
I0619 14:56:42.119639 17898 net.cpp:425] Scale28 <- Convolution28
I0619 14:56:42.119647 17898 net.cpp:386] Scale28 -> Convolution28 (in-place)
I0619 14:56:42.119698 17898 layer_factory.hpp:77] Creating layer Scale28
I0619 14:56:42.119849 17898 net.cpp:141] Setting up Scale28
I0619 14:56:42.119859 17898 net.cpp:148] Top shape: 128 16 32 32 (2097152)
I0619 14:56:42.119864 17898 net.cpp:156] Memory required for data: 1276641792
I0619 14:56:42.119874 17898 layer_factory.hpp:77] Creating layer ReLU28
I0619 14:56:42.119884 17898 net.cpp:91] Creating Layer ReLU28
I0619 14:56:42.119905 17898 net.cpp:425] ReLU28 <- Convolution28
I0619 14:56:42.119916 17898 net.cpp:386] ReLU28 -> Convolution28 (in-place)
I0619 14:56:42.119926 17898 net.cpp:141] Setting up ReLU28
I0619 14:56:42.119933 17898 net.cpp:148] Top shape: 128 16 32 32 (2097152)
I0619 14:56:42.119938 17898 net.cpp:156] Memory required for data: 1285030400
I0619 14:56:42.119943 17898 layer_factory.hpp:77] Creating layer Convolution29
I0619 14:56:42.119957 17898 net.cpp:91] Creating Layer Convolution29
I0619 14:56:42.119963 17898 net.cpp:425] Convolution29 <- Convolution28
I0619 14:56:42.119972 17898 net.cpp:399] Convolution29 -> Convolution29
I0619 14:56:42.120409 17898 net.cpp:141] Setting up Convolution29
I0619 14:56:42.120419 17898 net.cpp:148] Top shape: 128 16 32 32 (2097152)
I0619 14:56:42.120425 17898 net.cpp:156] Memory required for data: 1293419008
I0619 14:56:42.120434 17898 layer_factory.hpp:77] Creating layer BatchNorm29
I0619 14:56:42.120455 17898 net.cpp:91] Creating Layer BatchNorm29
I0619 14:56:42.120460 17898 net.cpp:425] BatchNorm29 <- Convolution29
I0619 14:56:42.120471 17898 net.cpp:386] BatchNorm29 -> Convolution29 (in-place)
I0619 14:56:42.120731 17898 net.cpp:141] Setting up BatchNorm29
I0619 14:56:42.120741 17898 net.cpp:148] Top shape: 128 16 32 32 (2097152)
I0619 14:56:42.120746 17898 net.cpp:156] Memory required for data: 1301807616
I0619 14:56:42.120764 17898 layer_factory.hpp:77] Creating layer Scale29
I0619 14:56:42.120785 17898 net.cpp:91] Creating Layer Scale29
I0619 14:56:42.120791 17898 net.cpp:425] Scale29 <- Convolution29
I0619 14:56:42.120800 17898 net.cpp:386] Scale29 -> Convolution29 (in-place)
I0619 14:56:42.120846 17898 layer_factory.hpp:77] Creating layer Scale29
I0619 14:56:42.121001 17898 net.cpp:141] Setting up Scale29
I0619 14:56:42.121011 17898 net.cpp:148] Top shape: 128 16 32 32 (2097152)
I0619 14:56:42.121016 17898 net.cpp:156] Memory required for data: 1310196224
I0619 14:56:42.121026 17898 layer_factory.hpp:77] Creating layer Eltwise14
I0619 14:56:42.121033 17898 net.cpp:91] Creating Layer Eltwise14
I0619 14:56:42.121040 17898 net.cpp:425] Eltwise14 <- Eltwise13_ReLU27_0_split_1
I0619 14:56:42.121047 17898 net.cpp:425] Eltwise14 <- Convolution29
I0619 14:56:42.121057 17898 net.cpp:399] Eltwise14 -> Eltwise14
I0619 14:56:42.121088 17898 net.cpp:141] Setting up Eltwise14
I0619 14:56:42.121101 17898 net.cpp:148] Top shape: 128 16 32 32 (2097152)
I0619 14:56:42.121106 17898 net.cpp:156] Memory required for data: 1318584832
I0619 14:56:42.121111 17898 layer_factory.hpp:77] Creating layer ReLU29
I0619 14:56:42.121119 17898 net.cpp:91] Creating Layer ReLU29
I0619 14:56:42.121125 17898 net.cpp:425] ReLU29 <- Eltwise14
I0619 14:56:42.121132 17898 net.cpp:386] ReLU29 -> Eltwise14 (in-place)
I0619 14:56:42.121141 17898 net.cpp:141] Setting up ReLU29
I0619 14:56:42.121148 17898 net.cpp:148] Top shape: 128 16 32 32 (2097152)
I0619 14:56:42.121153 17898 net.cpp:156] Memory required for data: 1326973440
I0619 14:56:42.121158 17898 layer_factory.hpp:77] Creating layer Eltwise14_ReLU29_0_split
I0619 14:56:42.121166 17898 net.cpp:91] Creating Layer Eltwise14_ReLU29_0_split
I0619 14:56:42.121171 17898 net.cpp:425] Eltwise14_ReLU29_0_split <- Eltwise14
I0619 14:56:42.121188 17898 net.cpp:399] Eltwise14_ReLU29_0_split -> Eltwise14_ReLU29_0_split_0
I0619 14:56:42.121198 17898 net.cpp:399] Eltwise14_ReLU29_0_split -> Eltwise14_ReLU29_0_split_1
I0619 14:56:42.121244 17898 net.cpp:141] Setting up Eltwise14_ReLU29_0_split
I0619 14:56:42.121253 17898 net.cpp:148] Top shape: 128 16 32 32 (2097152)
I0619 14:56:42.121259 17898 net.cpp:148] Top shape: 128 16 32 32 (2097152)
I0619 14:56:42.121264 17898 net.cpp:156] Memory required for data: 1343750656
I0619 14:56:42.121269 17898 layer_factory.hpp:77] Creating layer Convolution30
I0619 14:56:42.121284 17898 net.cpp:91] Creating Layer Convolution30
I0619 14:56:42.121290 17898 net.cpp:425] Convolution30 <- Eltwise14_ReLU29_0_split_0
I0619 14:56:42.121299 17898 net.cpp:399] Convolution30 -> Convolution30
I0619 14:56:42.121737 17898 net.cpp:141] Setting up Convolution30
I0619 14:56:42.121763 17898 net.cpp:148] Top shape: 128 16 32 32 (2097152)
I0619 14:56:42.121769 17898 net.cpp:156] Memory required for data: 1352139264
I0619 14:56:42.121779 17898 layer_factory.hpp:77] Creating layer BatchNorm30
I0619 14:56:42.121791 17898 net.cpp:91] Creating Layer BatchNorm30
I0619 14:56:42.121798 17898 net.cpp:425] BatchNorm30 <- Convolution30
I0619 14:56:42.121805 17898 net.cpp:386] BatchNorm30 -> Convolution30 (in-place)
I0619 14:56:42.122071 17898 net.cpp:141] Setting up BatchNorm30
I0619 14:56:42.122081 17898 net.cpp:148] Top shape: 128 16 32 32 (2097152)
I0619 14:56:42.122087 17898 net.cpp:156] Memory required for data: 1360527872
I0619 14:56:42.122097 17898 layer_factory.hpp:77] Creating layer Scale30
I0619 14:56:42.122108 17898 net.cpp:91] Creating Layer Scale30
I0619 14:56:42.122114 17898 net.cpp:425] Scale30 <- Convolution30
I0619 14:56:42.122123 17898 net.cpp:386] Scale30 -> Convolution30 (in-place)
I0619 14:56:42.122174 17898 layer_factory.hpp:77] Creating layer Scale30
I0619 14:56:42.122334 17898 net.cpp:141] Setting up Scale30
I0619 14:56:42.122344 17898 net.cpp:148] Top shape: 128 16 32 32 (2097152)
I0619 14:56:42.122349 17898 net.cpp:156] Memory required for data: 1368916480
I0619 14:56:42.122372 17898 layer_factory.hpp:77] Creating layer ReLU30
I0619 14:56:42.122381 17898 net.cpp:91] Creating Layer ReLU30
I0619 14:56:42.122386 17898 net.cpp:425] ReLU30 <- Convolution30
I0619 14:56:42.122400 17898 net.cpp:386] ReLU30 -> Convolution30 (in-place)
I0619 14:56:42.122411 17898 net.cpp:141] Setting up ReLU30
I0619 14:56:42.122417 17898 net.cpp:148] Top shape: 128 16 32 32 (2097152)
I0619 14:56:42.122422 17898 net.cpp:156] Memory required for data: 1377305088
I0619 14:56:42.122427 17898 layer_factory.hpp:77] Creating layer Convolution31
I0619 14:56:42.122442 17898 net.cpp:91] Creating Layer Convolution31
I0619 14:56:42.122447 17898 net.cpp:425] Convolution31 <- Convolution30
I0619 14:56:42.122457 17898 net.cpp:399] Convolution31 -> Convolution31
I0619 14:56:42.122887 17898 net.cpp:141] Setting up Convolution31
I0619 14:56:42.122900 17898 net.cpp:148] Top shape: 128 16 32 32 (2097152)
I0619 14:56:42.122905 17898 net.cpp:156] Memory required for data: 1385693696
I0619 14:56:42.122915 17898 layer_factory.hpp:77] Creating layer BatchNorm31
I0619 14:56:42.122925 17898 net.cpp:91] Creating Layer BatchNorm31
I0619 14:56:42.122931 17898 net.cpp:425] BatchNorm31 <- Convolution31
I0619 14:56:42.122948 17898 net.cpp:386] BatchNorm31 -> Convolution31 (in-place)
I0619 14:56:42.123211 17898 net.cpp:141] Setting up BatchNorm31
I0619 14:56:42.123221 17898 net.cpp:148] Top shape: 128 16 32 32 (2097152)
I0619 14:56:42.123226 17898 net.cpp:156] Memory required for data: 1394082304
I0619 14:56:42.123239 17898 layer_factory.hpp:77] Creating layer Scale31
I0619 14:56:42.123250 17898 net.cpp:91] Creating Layer Scale31
I0619 14:56:42.123255 17898 net.cpp:425] Scale31 <- Convolution31
I0619 14:56:42.123268 17898 net.cpp:386] Scale31 -> Convolution31 (in-place)
I0619 14:56:42.123316 17898 layer_factory.hpp:77] Creating layer Scale31
I0619 14:56:42.123469 17898 net.cpp:141] Setting up Scale31
I0619 14:56:42.123479 17898 net.cpp:148] Top shape: 128 16 32 32 (2097152)
I0619 14:56:42.123484 17898 net.cpp:156] Memory required for data: 1402470912
I0619 14:56:42.123493 17898 layer_factory.hpp:77] Creating layer Eltwise15
I0619 14:56:42.123502 17898 net.cpp:91] Creating Layer Eltwise15
I0619 14:56:42.123507 17898 net.cpp:425] Eltwise15 <- Eltwise14_ReLU29_0_split_1
I0619 14:56:42.123514 17898 net.cpp:425] Eltwise15 <- Convolution31
I0619 14:56:42.123525 17898 net.cpp:399] Eltwise15 -> Eltwise15
I0619 14:56:42.123556 17898 net.cpp:141] Setting up Eltwise15
I0619 14:56:42.123567 17898 net.cpp:148] Top shape: 128 16 32 32 (2097152)
I0619 14:56:42.123572 17898 net.cpp:156] Memory required for data: 1410859520
I0619 14:56:42.123577 17898 layer_factory.hpp:77] Creating layer ReLU31
I0619 14:56:42.123585 17898 net.cpp:91] Creating Layer ReLU31
I0619 14:56:42.123595 17898 net.cpp:425] ReLU31 <- Eltwise15
I0619 14:56:42.123617 17898 net.cpp:386] ReLU31 -> Eltwise15 (in-place)
I0619 14:56:42.123626 17898 net.cpp:141] Setting up ReLU31
I0619 14:56:42.123634 17898 net.cpp:148] Top shape: 128 16 32 32 (2097152)
I0619 14:56:42.123639 17898 net.cpp:156] Memory required for data: 1419248128
I0619 14:56:42.123644 17898 layer_factory.hpp:77] Creating layer Eltwise15_ReLU31_0_split
I0619 14:56:42.123652 17898 net.cpp:91] Creating Layer Eltwise15_ReLU31_0_split
I0619 14:56:42.123657 17898 net.cpp:425] Eltwise15_ReLU31_0_split <- Eltwise15
I0619 14:56:42.123667 17898 net.cpp:399] Eltwise15_ReLU31_0_split -> Eltwise15_ReLU31_0_split_0
I0619 14:56:42.123677 17898 net.cpp:399] Eltwise15_ReLU31_0_split -> Eltwise15_ReLU31_0_split_1
I0619 14:56:42.123725 17898 net.cpp:141] Setting up Eltwise15_ReLU31_0_split
I0619 14:56:42.123738 17898 net.cpp:148] Top shape: 128 16 32 32 (2097152)
I0619 14:56:42.123744 17898 net.cpp:148] Top shape: 128 16 32 32 (2097152)
I0619 14:56:42.123749 17898 net.cpp:156] Memory required for data: 1436025344
I0619 14:56:42.123754 17898 layer_factory.hpp:77] Creating layer Convolution32
I0619 14:56:42.123766 17898 net.cpp:91] Creating Layer Convolution32
I0619 14:56:42.123772 17898 net.cpp:425] Convolution32 <- Eltwise15_ReLU31_0_split_0
I0619 14:56:42.123781 17898 net.cpp:399] Convolution32 -> Convolution32
I0619 14:56:42.124209 17898 net.cpp:141] Setting up Convolution32
I0619 14:56:42.124220 17898 net.cpp:148] Top shape: 128 16 32 32 (2097152)
I0619 14:56:42.124225 17898 net.cpp:156] Memory required for data: 1444413952
I0619 14:56:42.124235 17898 layer_factory.hpp:77] Creating layer BatchNorm32
I0619 14:56:42.124248 17898 net.cpp:91] Creating Layer BatchNorm32
I0619 14:56:42.124254 17898 net.cpp:425] BatchNorm32 <- Convolution32
I0619 14:56:42.124263 17898 net.cpp:386] BatchNorm32 -> Convolution32 (in-place)
I0619 14:56:42.124529 17898 net.cpp:141] Setting up BatchNorm32
I0619 14:56:42.124539 17898 net.cpp:148] Top shape: 128 16 32 32 (2097152)
I0619 14:56:42.124544 17898 net.cpp:156] Memory required for data: 1452802560
I0619 14:56:42.124555 17898 layer_factory.hpp:77] Creating layer Scale32
I0619 14:56:42.124567 17898 net.cpp:91] Creating Layer Scale32
I0619 14:56:42.124573 17898 net.cpp:425] Scale32 <- Convolution32
I0619 14:56:42.124580 17898 net.cpp:386] Scale32 -> Convolution32 (in-place)
I0619 14:56:42.124627 17898 layer_factory.hpp:77] Creating layer Scale32
I0619 14:56:42.124781 17898 net.cpp:141] Setting up Scale32
I0619 14:56:42.124793 17898 net.cpp:148] Top shape: 128 16 32 32 (2097152)
I0619 14:56:42.124796 17898 net.cpp:156] Memory required for data: 1461191168
I0619 14:56:42.124806 17898 layer_factory.hpp:77] Creating layer ReLU32
I0619 14:56:42.124814 17898 net.cpp:91] Creating Layer ReLU32
I0619 14:56:42.124819 17898 net.cpp:425] ReLU32 <- Convolution32
I0619 14:56:42.124830 17898 net.cpp:386] ReLU32 -> Convolution32 (in-place)
I0619 14:56:42.124840 17898 net.cpp:141] Setting up ReLU32
I0619 14:56:42.124847 17898 net.cpp:148] Top shape: 128 16 32 32 (2097152)
I0619 14:56:42.124852 17898 net.cpp:156] Memory required for data: 1469579776
I0619 14:56:42.124857 17898 layer_factory.hpp:77] Creating layer Convolution33
I0619 14:56:42.124871 17898 net.cpp:91] Creating Layer Convolution33
I0619 14:56:42.124877 17898 net.cpp:425] Convolution33 <- Convolution32
I0619 14:56:42.124886 17898 net.cpp:399] Convolution33 -> Convolution33
I0619 14:56:42.125309 17898 net.cpp:141] Setting up Convolution33
I0619 14:56:42.125320 17898 net.cpp:148] Top shape: 128 16 32 32 (2097152)
I0619 14:56:42.125325 17898 net.cpp:156] Memory required for data: 1477968384
I0619 14:56:42.125335 17898 layer_factory.hpp:77] Creating layer BatchNorm33
I0619 14:56:42.125344 17898 net.cpp:91] Creating Layer BatchNorm33
I0619 14:56:42.125352 17898 net.cpp:425] BatchNorm33 <- Convolution33
I0619 14:56:42.125360 17898 net.cpp:386] BatchNorm33 -> Convolution33 (in-place)
I0619 14:56:42.125617 17898 net.cpp:141] Setting up BatchNorm33
I0619 14:56:42.125625 17898 net.cpp:148] Top shape: 128 16 32 32 (2097152)
I0619 14:56:42.125634 17898 net.cpp:156] Memory required for data: 1486356992
I0619 14:56:42.125660 17898 layer_factory.hpp:77] Creating layer Scale33
I0619 14:56:42.125674 17898 net.cpp:91] Creating Layer Scale33
I0619 14:56:42.125679 17898 net.cpp:425] Scale33 <- Convolution33
I0619 14:56:42.125687 17898 net.cpp:386] Scale33 -> Convolution33 (in-place)
I0619 14:56:42.125744 17898 layer_factory.hpp:77] Creating layer Scale33
I0619 14:56:42.125902 17898 net.cpp:141] Setting up Scale33
I0619 14:56:42.125912 17898 net.cpp:148] Top shape: 128 16 32 32 (2097152)
I0619 14:56:42.125918 17898 net.cpp:156] Memory required for data: 1494745600
I0619 14:56:42.125927 17898 layer_factory.hpp:77] Creating layer Eltwise16
I0619 14:56:42.125936 17898 net.cpp:91] Creating Layer Eltwise16
I0619 14:56:42.125942 17898 net.cpp:425] Eltwise16 <- Eltwise15_ReLU31_0_split_1
I0619 14:56:42.125948 17898 net.cpp:425] Eltwise16 <- Convolution33
I0619 14:56:42.125959 17898 net.cpp:399] Eltwise16 -> Eltwise16
I0619 14:56:42.125993 17898 net.cpp:141] Setting up Eltwise16
I0619 14:56:42.126003 17898 net.cpp:148] Top shape: 128 16 32 32 (2097152)
I0619 14:56:42.126008 17898 net.cpp:156] Memory required for data: 1503134208
I0619 14:56:42.126013 17898 layer_factory.hpp:77] Creating layer ReLU33
I0619 14:56:42.126027 17898 net.cpp:91] Creating Layer ReLU33
I0619 14:56:42.126032 17898 net.cpp:425] ReLU33 <- Eltwise16
I0619 14:56:42.126039 17898 net.cpp:386] ReLU33 -> Eltwise16 (in-place)
I0619 14:56:42.126049 17898 net.cpp:141] Setting up ReLU33
I0619 14:56:42.126055 17898 net.cpp:148] Top shape: 128 16 32 32 (2097152)
I0619 14:56:42.126060 17898 net.cpp:156] Memory required for data: 1511522816
I0619 14:56:42.126065 17898 layer_factory.hpp:77] Creating layer Eltwise16_ReLU33_0_split
I0619 14:56:42.126073 17898 net.cpp:91] Creating Layer Eltwise16_ReLU33_0_split
I0619 14:56:42.126078 17898 net.cpp:425] Eltwise16_ReLU33_0_split <- Eltwise16
I0619 14:56:42.126088 17898 net.cpp:399] Eltwise16_ReLU33_0_split -> Eltwise16_ReLU33_0_split_0
I0619 14:56:42.126098 17898 net.cpp:399] Eltwise16_ReLU33_0_split -> Eltwise16_ReLU33_0_split_1
I0619 14:56:42.126145 17898 net.cpp:141] Setting up Eltwise16_ReLU33_0_split
I0619 14:56:42.126154 17898 net.cpp:148] Top shape: 128 16 32 32 (2097152)
I0619 14:56:42.126162 17898 net.cpp:148] Top shape: 128 16 32 32 (2097152)
I0619 14:56:42.126166 17898 net.cpp:156] Memory required for data: 1528300032
I0619 14:56:42.126171 17898 layer_factory.hpp:77] Creating layer Convolution34
I0619 14:56:42.126183 17898 net.cpp:91] Creating Layer Convolution34
I0619 14:56:42.126189 17898 net.cpp:425] Convolution34 <- Eltwise16_ReLU33_0_split_0
I0619 14:56:42.126199 17898 net.cpp:399] Convolution34 -> Convolution34
I0619 14:56:42.126641 17898 net.cpp:141] Setting up Convolution34
I0619 14:56:42.126660 17898 net.cpp:148] Top shape: 128 16 32 32 (2097152)
I0619 14:56:42.126665 17898 net.cpp:156] Memory required for data: 1536688640
I0619 14:56:42.126675 17898 layer_factory.hpp:77] Creating layer BatchNorm34
I0619 14:56:42.126687 17898 net.cpp:91] Creating Layer BatchNorm34
I0619 14:56:42.126693 17898 net.cpp:425] BatchNorm34 <- Convolution34
I0619 14:56:42.126700 17898 net.cpp:386] BatchNorm34 -> Convolution34 (in-place)
I0619 14:56:42.126962 17898 net.cpp:141] Setting up BatchNorm34
I0619 14:56:42.126972 17898 net.cpp:148] Top shape: 128 16 32 32 (2097152)
I0619 14:56:42.126977 17898 net.cpp:156] Memory required for data: 1545077248
I0619 14:56:42.126989 17898 layer_factory.hpp:77] Creating layer Scale34
I0619 14:56:42.127001 17898 net.cpp:91] Creating Layer Scale34
I0619 14:56:42.127007 17898 net.cpp:425] Scale34 <- Convolution34
I0619 14:56:42.127014 17898 net.cpp:386] Scale34 -> Convolution34 (in-place)
I0619 14:56:42.127061 17898 layer_factory.hpp:77] Creating layer Scale34
I0619 14:56:42.127225 17898 net.cpp:141] Setting up Scale34
I0619 14:56:42.127235 17898 net.cpp:148] Top shape: 128 16 32 32 (2097152)
I0619 14:56:42.127240 17898 net.cpp:156] Memory required for data: 1553465856
I0619 14:56:42.127250 17898 layer_factory.hpp:77] Creating layer ReLU34
I0619 14:56:42.127262 17898 net.cpp:91] Creating Layer ReLU34
I0619 14:56:42.127281 17898 net.cpp:425] ReLU34 <- Convolution34
I0619 14:56:42.127293 17898 net.cpp:386] ReLU34 -> Convolution34 (in-place)
I0619 14:56:42.127302 17898 net.cpp:141] Setting up ReLU34
I0619 14:56:42.127310 17898 net.cpp:148] Top shape: 128 16 32 32 (2097152)
I0619 14:56:42.127315 17898 net.cpp:156] Memory required for data: 1561854464
I0619 14:56:42.127322 17898 layer_factory.hpp:77] Creating layer Convolution35
I0619 14:56:42.127336 17898 net.cpp:91] Creating Layer Convolution35
I0619 14:56:42.127342 17898 net.cpp:425] Convolution35 <- Convolution34
I0619 14:56:42.127351 17898 net.cpp:399] Convolution35 -> Convolution35
I0619 14:56:42.127790 17898 net.cpp:141] Setting up Convolution35
I0619 14:56:42.127801 17898 net.cpp:148] Top shape: 128 16 32 32 (2097152)
I0619 14:56:42.127807 17898 net.cpp:156] Memory required for data: 1570243072
I0619 14:56:42.127816 17898 layer_factory.hpp:77] Creating layer BatchNorm35
I0619 14:56:42.127828 17898 net.cpp:91] Creating Layer BatchNorm35
I0619 14:56:42.127833 17898 net.cpp:425] BatchNorm35 <- Convolution35
I0619 14:56:42.127841 17898 net.cpp:386] BatchNorm35 -> Convolution35 (in-place)
I0619 14:56:42.128114 17898 net.cpp:141] Setting up BatchNorm35
I0619 14:56:42.128126 17898 net.cpp:148] Top shape: 128 16 32 32 (2097152)
I0619 14:56:42.128131 17898 net.cpp:156] Memory required for data: 1578631680
I0619 14:56:42.128142 17898 layer_factory.hpp:77] Creating layer Scale35
I0619 14:56:42.128154 17898 net.cpp:91] Creating Layer Scale35
I0619 14:56:42.128160 17898 net.cpp:425] Scale35 <- Convolution35
I0619 14:56:42.128168 17898 net.cpp:386] Scale35 -> Convolution35 (in-place)
I0619 14:56:42.128217 17898 layer_factory.hpp:77] Creating layer Scale35
I0619 14:56:42.128373 17898 net.cpp:141] Setting up Scale35
I0619 14:56:42.128383 17898 net.cpp:148] Top shape: 128 16 32 32 (2097152)
I0619 14:56:42.128388 17898 net.cpp:156] Memory required for data: 1587020288
I0619 14:56:42.128397 17898 layer_factory.hpp:77] Creating layer Eltwise17
I0619 14:56:42.128406 17898 net.cpp:91] Creating Layer Eltwise17
I0619 14:56:42.128414 17898 net.cpp:425] Eltwise17 <- Eltwise16_ReLU33_0_split_1
I0619 14:56:42.128422 17898 net.cpp:425] Eltwise17 <- Convolution35
I0619 14:56:42.128432 17898 net.cpp:399] Eltwise17 -> Eltwise17
I0619 14:56:42.128465 17898 net.cpp:141] Setting up Eltwise17
I0619 14:56:42.128474 17898 net.cpp:148] Top shape: 128 16 32 32 (2097152)
I0619 14:56:42.128479 17898 net.cpp:156] Memory required for data: 1595408896
I0619 14:56:42.128484 17898 layer_factory.hpp:77] Creating layer ReLU35
I0619 14:56:42.128492 17898 net.cpp:91] Creating Layer ReLU35
I0619 14:56:42.128499 17898 net.cpp:425] ReLU35 <- Eltwise17
I0619 14:56:42.128505 17898 net.cpp:386] ReLU35 -> Eltwise17 (in-place)
I0619 14:56:42.128514 17898 net.cpp:141] Setting up ReLU35
I0619 14:56:42.128521 17898 net.cpp:148] Top shape: 128 16 32 32 (2097152)
I0619 14:56:42.128526 17898 net.cpp:156] Memory required for data: 1603797504
I0619 14:56:42.128531 17898 layer_factory.hpp:77] Creating layer Eltwise17_ReLU35_0_split
I0619 14:56:42.128541 17898 net.cpp:91] Creating Layer Eltwise17_ReLU35_0_split
I0619 14:56:42.128547 17898 net.cpp:425] Eltwise17_ReLU35_0_split <- Eltwise17
I0619 14:56:42.128554 17898 net.cpp:399] Eltwise17_ReLU35_0_split -> Eltwise17_ReLU35_0_split_0
I0619 14:56:42.128563 17898 net.cpp:399] Eltwise17_ReLU35_0_split -> Eltwise17_ReLU35_0_split_1
I0619 14:56:42.128613 17898 net.cpp:141] Setting up Eltwise17_ReLU35_0_split
I0619 14:56:42.128623 17898 net.cpp:148] Top shape: 128 16 32 32 (2097152)
I0619 14:56:42.128629 17898 net.cpp:148] Top shape: 128 16 32 32 (2097152)
I0619 14:56:42.128634 17898 net.cpp:156] Memory required for data: 1620574720
I0619 14:56:42.128639 17898 layer_factory.hpp:77] Creating layer Convolution36
I0619 14:56:42.128650 17898 net.cpp:91] Creating Layer Convolution36
I0619 14:56:42.128657 17898 net.cpp:425] Convolution36 <- Eltwise17_ReLU35_0_split_0
I0619 14:56:42.128666 17898 net.cpp:399] Convolution36 -> Convolution36
I0619 14:56:42.129118 17898 net.cpp:141] Setting up Convolution36
I0619 14:56:42.129130 17898 net.cpp:148] Top shape: 128 16 32 32 (2097152)
I0619 14:56:42.129137 17898 net.cpp:156] Memory required for data: 1628963328
I0619 14:56:42.129147 17898 layer_factory.hpp:77] Creating layer BatchNorm36
I0619 14:56:42.129158 17898 net.cpp:91] Creating Layer BatchNorm36
I0619 14:56:42.129163 17898 net.cpp:425] BatchNorm36 <- Convolution36
I0619 14:56:42.129171 17898 net.cpp:386] BatchNorm36 -> Convolution36 (in-place)
I0619 14:56:42.129442 17898 net.cpp:141] Setting up BatchNorm36
I0619 14:56:42.129452 17898 net.cpp:148] Top shape: 128 16 32 32 (2097152)
I0619 14:56:42.129457 17898 net.cpp:156] Memory required for data: 1637351936
I0619 14:56:42.129469 17898 layer_factory.hpp:77] Creating layer Scale36
I0619 14:56:42.129478 17898 net.cpp:91] Creating Layer Scale36
I0619 14:56:42.129484 17898 net.cpp:425] Scale36 <- Convolution36
I0619 14:56:42.129492 17898 net.cpp:386] Scale36 -> Convolution36 (in-place)
I0619 14:56:42.129540 17898 layer_factory.hpp:77] Creating layer Scale36
I0619 14:56:42.129696 17898 net.cpp:141] Setting up Scale36
I0619 14:56:42.129706 17898 net.cpp:148] Top shape: 128 16 32 32 (2097152)
I0619 14:56:42.129711 17898 net.cpp:156] Memory required for data: 1645740544
I0619 14:56:42.129720 17898 layer_factory.hpp:77] Creating layer ReLU36
I0619 14:56:42.129729 17898 net.cpp:91] Creating Layer ReLU36
I0619 14:56:42.129734 17898 net.cpp:425] ReLU36 <- Convolution36
I0619 14:56:42.129745 17898 net.cpp:386] ReLU36 -> Convolution36 (in-place)
I0619 14:56:42.129753 17898 net.cpp:141] Setting up ReLU36
I0619 14:56:42.129760 17898 net.cpp:148] Top shape: 128 16 32 32 (2097152)
I0619 14:56:42.129765 17898 net.cpp:156] Memory required for data: 1654129152
I0619 14:56:42.129771 17898 layer_factory.hpp:77] Creating layer Convolution37
I0619 14:56:42.129786 17898 net.cpp:91] Creating Layer Convolution37
I0619 14:56:42.129791 17898 net.cpp:425] Convolution37 <- Convolution36
I0619 14:56:42.129799 17898 net.cpp:399] Convolution37 -> Convolution37
I0619 14:56:42.130234 17898 net.cpp:141] Setting up Convolution37
I0619 14:56:42.130244 17898 net.cpp:148] Top shape: 128 16 32 32 (2097152)
I0619 14:56:42.130249 17898 net.cpp:156] Memory required for data: 1662517760
I0619 14:56:42.130259 17898 layer_factory.hpp:77] Creating layer BatchNorm37
I0619 14:56:42.130270 17898 net.cpp:91] Creating Layer BatchNorm37
I0619 14:56:42.130275 17898 net.cpp:425] BatchNorm37 <- Convolution37
I0619 14:56:42.130283 17898 net.cpp:386] BatchNorm37 -> Convolution37 (in-place)
I0619 14:56:42.130573 17898 net.cpp:141] Setting up BatchNorm37
I0619 14:56:42.130584 17898 net.cpp:148] Top shape: 128 16 32 32 (2097152)
I0619 14:56:42.130589 17898 net.cpp:156] Memory required for data: 1670906368
I0619 14:56:42.130645 17898 layer_factory.hpp:77] Creating layer Scale37
I0619 14:56:42.130657 17898 net.cpp:91] Creating Layer Scale37
I0619 14:56:42.130663 17898 net.cpp:425] Scale37 <- Convolution37
I0619 14:56:42.130671 17898 net.cpp:386] Scale37 -> Convolution37 (in-place)
I0619 14:56:42.130720 17898 layer_factory.hpp:77] Creating layer Scale37
I0619 14:56:42.130872 17898 net.cpp:141] Setting up Scale37
I0619 14:56:42.130883 17898 net.cpp:148] Top shape: 128 16 32 32 (2097152)
I0619 14:56:42.130888 17898 net.cpp:156] Memory required for data: 1679294976
I0619 14:56:42.130897 17898 layer_factory.hpp:77] Creating layer Eltwise18
I0619 14:56:42.130913 17898 net.cpp:91] Creating Layer Eltwise18
I0619 14:56:42.130918 17898 net.cpp:425] Eltwise18 <- Eltwise17_ReLU35_0_split_1
I0619 14:56:42.130925 17898 net.cpp:425] Eltwise18 <- Convolution37
I0619 14:56:42.130934 17898 net.cpp:399] Eltwise18 -> Eltwise18
I0619 14:56:42.130966 17898 net.cpp:141] Setting up Eltwise18
I0619 14:56:42.130975 17898 net.cpp:148] Top shape: 128 16 32 32 (2097152)
I0619 14:56:42.130980 17898 net.cpp:156] Memory required for data: 1687683584
I0619 14:56:42.130985 17898 layer_factory.hpp:77] Creating layer ReLU37
I0619 14:56:42.130992 17898 net.cpp:91] Creating Layer ReLU37
I0619 14:56:42.131002 17898 net.cpp:425] ReLU37 <- Eltwise18
I0619 14:56:42.131029 17898 net.cpp:386] ReLU37 -> Eltwise18 (in-place)
I0619 14:56:42.131039 17898 net.cpp:141] Setting up ReLU37
I0619 14:56:42.131047 17898 net.cpp:148] Top shape: 128 16 32 32 (2097152)
I0619 14:56:42.131052 17898 net.cpp:156] Memory required for data: 1696072192
I0619 14:56:42.131057 17898 layer_factory.hpp:77] Creating layer Eltwise18_ReLU37_0_split
I0619 14:56:42.131064 17898 net.cpp:91] Creating Layer Eltwise18_ReLU37_0_split
I0619 14:56:42.131068 17898 net.cpp:425] Eltwise18_ReLU37_0_split <- Eltwise18
I0619 14:56:42.131077 17898 net.cpp:399] Eltwise18_ReLU37_0_split -> Eltwise18_ReLU37_0_split_0
I0619 14:56:42.131085 17898 net.cpp:399] Eltwise18_ReLU37_0_split -> Eltwise18_ReLU37_0_split_1
I0619 14:56:42.131134 17898 net.cpp:141] Setting up Eltwise18_ReLU37_0_split
I0619 14:56:42.131144 17898 net.cpp:148] Top shape: 128 16 32 32 (2097152)
I0619 14:56:42.131150 17898 net.cpp:148] Top shape: 128 16 32 32 (2097152)
I0619 14:56:42.131155 17898 net.cpp:156] Memory required for data: 1712849408
I0619 14:56:42.131160 17898 layer_factory.hpp:77] Creating layer Pooling1
I0619 14:56:42.131171 17898 net.cpp:91] Creating Layer Pooling1
I0619 14:56:42.131177 17898 net.cpp:425] Pooling1 <- Eltwise18_ReLU37_0_split_0
I0619 14:56:42.131187 17898 net.cpp:399] Pooling1 -> Pooling1
I0619 14:56:42.131237 17898 net.cpp:141] Setting up Pooling1
I0619 14:56:42.131245 17898 net.cpp:148] Top shape: 128 16 16 16 (524288)
I0619 14:56:42.131249 17898 net.cpp:156] Memory required for data: 1714946560
I0619 14:56:42.131254 17898 layer_factory.hpp:77] Creating layer Input1
I0619 14:56:42.131264 17898 net.cpp:91] Creating Layer Input1
I0619 14:56:42.131274 17898 net.cpp:399] Input1 -> Input1
I0619 14:56:42.131311 17898 net.cpp:141] Setting up Input1
I0619 14:56:42.131322 17898 net.cpp:148] Top shape: 128 16 16 16 (524288)
I0619 14:56:42.131327 17898 net.cpp:156] Memory required for data: 1717043712
I0619 14:56:42.131332 17898 layer_factory.hpp:77] Creating layer Concat1
I0619 14:56:42.131341 17898 net.cpp:91] Creating Layer Concat1
I0619 14:56:42.131346 17898 net.cpp:425] Concat1 <- Pooling1
I0619 14:56:42.131353 17898 net.cpp:425] Concat1 <- Input1
I0619 14:56:42.131361 17898 net.cpp:399] Concat1 -> Concat1
I0619 14:56:42.131397 17898 net.cpp:141] Setting up Concat1
I0619 14:56:42.131405 17898 net.cpp:148] Top shape: 128 32 16 16 (1048576)
I0619 14:56:42.131410 17898 net.cpp:156] Memory required for data: 1721238016
I0619 14:56:42.131415 17898 layer_factory.hpp:77] Creating layer Convolution38
I0619 14:56:42.131429 17898 net.cpp:91] Creating Layer Convolution38
I0619 14:56:42.131435 17898 net.cpp:425] Convolution38 <- Eltwise18_ReLU37_0_split_1
I0619 14:56:42.131444 17898 net.cpp:399] Convolution38 -> Convolution38
I0619 14:56:42.132784 17898 net.cpp:141] Setting up Convolution38
I0619 14:56:42.132809 17898 net.cpp:148] Top shape: 128 32 16 16 (1048576)
I0619 14:56:42.132815 17898 net.cpp:156] Memory required for data: 1725432320
I0619 14:56:42.132825 17898 layer_factory.hpp:77] Creating layer BatchNorm38
I0619 14:56:42.132838 17898 net.cpp:91] Creating Layer BatchNorm38
I0619 14:56:42.132844 17898 net.cpp:425] BatchNorm38 <- Convolution38
I0619 14:56:42.132855 17898 net.cpp:386] BatchNorm38 -> Convolution38 (in-place)
I0619 14:56:42.133111 17898 net.cpp:141] Setting up BatchNorm38
I0619 14:56:42.133128 17898 net.cpp:148] Top shape: 128 32 16 16 (1048576)
I0619 14:56:42.133133 17898 net.cpp:156] Memory required for data: 1729626624
I0619 14:56:42.133144 17898 layer_factory.hpp:77] Creating layer Scale38
I0619 14:56:42.133153 17898 net.cpp:91] Creating Layer Scale38
I0619 14:56:42.133159 17898 net.cpp:425] Scale38 <- Convolution38
I0619 14:56:42.133172 17898 net.cpp:386] Scale38 -> Convolution38 (in-place)
I0619 14:56:42.133216 17898 layer_factory.hpp:77] Creating layer Scale38
I0619 14:56:42.133365 17898 net.cpp:141] Setting up Scale38
I0619 14:56:42.133378 17898 net.cpp:148] Top shape: 128 32 16 16 (1048576)
I0619 14:56:42.133383 17898 net.cpp:156] Memory required for data: 1733820928
I0619 14:56:42.133395 17898 layer_factory.hpp:77] Creating layer ReLU38
I0619 14:56:42.133419 17898 net.cpp:91] Creating Layer ReLU38
I0619 14:56:42.133425 17898 net.cpp:425] ReLU38 <- Convolution38
I0619 14:56:42.133433 17898 net.cpp:386] ReLU38 -> Convolution38 (in-place)
I0619 14:56:42.133442 17898 net.cpp:141] Setting up ReLU38
I0619 14:56:42.133450 17898 net.cpp:148] Top shape: 128 32 16 16 (1048576)
I0619 14:56:42.133455 17898 net.cpp:156] Memory required for data: 1738015232
I0619 14:56:42.133460 17898 layer_factory.hpp:77] Creating layer Convolution39
I0619 14:56:42.133474 17898 net.cpp:91] Creating Layer Convolution39
I0619 14:56:42.133481 17898 net.cpp:425] Convolution39 <- Convolution38
I0619 14:56:42.133491 17898 net.cpp:399] Convolution39 -> Convolution39
I0619 14:56:42.134238 17898 net.cpp:141] Setting up Convolution39
I0619 14:56:42.134250 17898 net.cpp:148] Top shape: 128 32 16 16 (1048576)
I0619 14:56:42.134255 17898 net.cpp:156] Memory required for data: 1742209536
I0619 14:56:42.134264 17898 layer_factory.hpp:77] Creating layer BatchNorm39
I0619 14:56:42.134276 17898 net.cpp:91] Creating Layer BatchNorm39
I0619 14:56:42.134284 17898 net.cpp:425] BatchNorm39 <- Convolution39
I0619 14:56:42.134294 17898 net.cpp:386] BatchNorm39 -> Convolution39 (in-place)
I0619 14:56:42.134567 17898 net.cpp:141] Setting up BatchNorm39
I0619 14:56:42.134577 17898 net.cpp:148] Top shape: 128 32 16 16 (1048576)
I0619 14:56:42.134582 17898 net.cpp:156] Memory required for data: 1746403840
I0619 14:56:42.134593 17898 layer_factory.hpp:77] Creating layer Scale39
I0619 14:56:42.134603 17898 net.cpp:91] Creating Layer Scale39
I0619 14:56:42.134608 17898 net.cpp:425] Scale39 <- Convolution39
I0619 14:56:42.134625 17898 net.cpp:386] Scale39 -> Convolution39 (in-place)
I0619 14:56:42.134670 17898 layer_factory.hpp:77] Creating layer Scale39
I0619 14:56:42.134831 17898 net.cpp:141] Setting up Scale39
I0619 14:56:42.134843 17898 net.cpp:148] Top shape: 128 32 16 16 (1048576)
I0619 14:56:42.134848 17898 net.cpp:156] Memory required for data: 1750598144
I0619 14:56:42.134857 17898 layer_factory.hpp:77] Creating layer Eltwise19
I0619 14:56:42.134866 17898 net.cpp:91] Creating Layer Eltwise19
I0619 14:56:42.134871 17898 net.cpp:425] Eltwise19 <- Concat1
I0619 14:56:42.134878 17898 net.cpp:425] Eltwise19 <- Convolution39
I0619 14:56:42.134887 17898 net.cpp:399] Eltwise19 -> Eltwise19
I0619 14:56:42.134915 17898 net.cpp:141] Setting up Eltwise19
I0619 14:56:42.134924 17898 net.cpp:148] Top shape: 128 32 16 16 (1048576)
I0619 14:56:42.134929 17898 net.cpp:156] Memory required for data: 1754792448
I0619 14:56:42.134934 17898 layer_factory.hpp:77] Creating layer ReLU39
I0619 14:56:42.134941 17898 net.cpp:91] Creating Layer ReLU39
I0619 14:56:42.134948 17898 net.cpp:425] ReLU39 <- Eltwise19
I0619 14:56:42.134956 17898 net.cpp:386] ReLU39 -> Eltwise19 (in-place)
I0619 14:56:42.134969 17898 net.cpp:141] Setting up ReLU39
I0619 14:56:42.134976 17898 net.cpp:148] Top shape: 128 32 16 16 (1048576)
I0619 14:56:42.134980 17898 net.cpp:156] Memory required for data: 1758986752
I0619 14:56:42.134989 17898 layer_factory.hpp:77] Creating layer Eltwise19_ReLU39_0_split
I0619 14:56:42.134996 17898 net.cpp:91] Creating Layer Eltwise19_ReLU39_0_split
I0619 14:56:42.135001 17898 net.cpp:425] Eltwise19_ReLU39_0_split <- Eltwise19
I0619 14:56:42.135011 17898 net.cpp:399] Eltwise19_ReLU39_0_split -> Eltwise19_ReLU39_0_split_0
I0619 14:56:42.135020 17898 net.cpp:399] Eltwise19_ReLU39_0_split -> Eltwise19_ReLU39_0_split_1
I0619 14:56:42.135071 17898 net.cpp:141] Setting up Eltwise19_ReLU39_0_split
I0619 14:56:42.135081 17898 net.cpp:148] Top shape: 128 32 16 16 (1048576)
I0619 14:56:42.135087 17898 net.cpp:148] Top shape: 128 32 16 16 (1048576)
I0619 14:56:42.135092 17898 net.cpp:156] Memory required for data: 1767375360
I0619 14:56:42.135097 17898 layer_factory.hpp:77] Creating layer Convolution40
I0619 14:56:42.135109 17898 net.cpp:91] Creating Layer Convolution40
I0619 14:56:42.135115 17898 net.cpp:425] Convolution40 <- Eltwise19_ReLU39_0_split_0
I0619 14:56:42.135128 17898 net.cpp:399] Convolution40 -> Convolution40
I0619 14:56:42.135903 17898 net.cpp:141] Setting up Convolution40
I0619 14:56:42.135915 17898 net.cpp:148] Top shape: 128 32 16 16 (1048576)
I0619 14:56:42.135921 17898 net.cpp:156] Memory required for data: 1771569664
I0619 14:56:42.135931 17898 layer_factory.hpp:77] Creating layer BatchNorm40
I0619 14:56:42.135941 17898 net.cpp:91] Creating Layer BatchNorm40
I0619 14:56:42.135947 17898 net.cpp:425] BatchNorm40 <- Convolution40
I0619 14:56:42.135957 17898 net.cpp:386] BatchNorm40 -> Convolution40 (in-place)
I0619 14:56:42.136209 17898 net.cpp:141] Setting up BatchNorm40
I0619 14:56:42.136219 17898 net.cpp:148] Top shape: 128 32 16 16 (1048576)
I0619 14:56:42.136224 17898 net.cpp:156] Memory required for data: 1775763968
I0619 14:56:42.136235 17898 layer_factory.hpp:77] Creating layer Scale40
I0619 14:56:42.136245 17898 net.cpp:91] Creating Layer Scale40
I0619 14:56:42.136250 17898 net.cpp:425] Scale40 <- Convolution40
I0619 14:56:42.136260 17898 net.cpp:386] Scale40 -> Convolution40 (in-place)
I0619 14:56:42.136303 17898 layer_factory.hpp:77] Creating layer Scale40
I0619 14:56:42.136459 17898 net.cpp:141] Setting up Scale40
I0619 14:56:42.136471 17898 net.cpp:148] Top shape: 128 32 16 16 (1048576)
I0619 14:56:42.136474 17898 net.cpp:156] Memory required for data: 1779958272
I0619 14:56:42.136483 17898 layer_factory.hpp:77] Creating layer ReLU40
I0619 14:56:42.136492 17898 net.cpp:91] Creating Layer ReLU40
I0619 14:56:42.136497 17898 net.cpp:425] ReLU40 <- Convolution40
I0619 14:56:42.136504 17898 net.cpp:386] ReLU40 -> Convolution40 (in-place)
I0619 14:56:42.136512 17898 net.cpp:141] Setting up ReLU40
I0619 14:56:42.136519 17898 net.cpp:148] Top shape: 128 32 16 16 (1048576)
I0619 14:56:42.136524 17898 net.cpp:156] Memory required for data: 1784152576
I0619 14:56:42.136529 17898 layer_factory.hpp:77] Creating layer Convolution41
I0619 14:56:42.136543 17898 net.cpp:91] Creating Layer Convolution41
I0619 14:56:42.136548 17898 net.cpp:425] Convolution41 <- Convolution40
I0619 14:56:42.136559 17898 net.cpp:399] Convolution41 -> Convolution41
I0619 14:56:42.137307 17898 net.cpp:141] Setting up Convolution41
I0619 14:56:42.137318 17898 net.cpp:148] Top shape: 128 32 16 16 (1048576)
I0619 14:56:42.137323 17898 net.cpp:156] Memory required for data: 1788346880
I0619 14:56:42.137332 17898 layer_factory.hpp:77] Creating layer BatchNorm41
I0619 14:56:42.137344 17898 net.cpp:91] Creating Layer BatchNorm41
I0619 14:56:42.137351 17898 net.cpp:425] BatchNorm41 <- Convolution41
I0619 14:56:42.137359 17898 net.cpp:386] BatchNorm41 -> Convolution41 (in-place)
I0619 14:56:42.137609 17898 net.cpp:141] Setting up BatchNorm41
I0619 14:56:42.137619 17898 net.cpp:148] Top shape: 128 32 16 16 (1048576)
I0619 14:56:42.137624 17898 net.cpp:156] Memory required for data: 1792541184
I0619 14:56:42.137634 17898 layer_factory.hpp:77] Creating layer Scale41
I0619 14:56:42.137642 17898 net.cpp:91] Creating Layer Scale41
I0619 14:56:42.137648 17898 net.cpp:425] Scale41 <- Convolution41
I0619 14:56:42.137658 17898 net.cpp:386] Scale41 -> Convolution41 (in-place)
I0619 14:56:42.137699 17898 layer_factory.hpp:77] Creating layer Scale41
I0619 14:56:42.137851 17898 net.cpp:141] Setting up Scale41
I0619 14:56:42.137862 17898 net.cpp:148] Top shape: 128 32 16 16 (1048576)
I0619 14:56:42.137867 17898 net.cpp:156] Memory required for data: 1796735488
I0619 14:56:42.137876 17898 layer_factory.hpp:77] Creating layer Eltwise20
I0619 14:56:42.137884 17898 net.cpp:91] Creating Layer Eltwise20
I0619 14:56:42.137890 17898 net.cpp:425] Eltwise20 <- Eltwise19_ReLU39_0_split_1
I0619 14:56:42.137897 17898 net.cpp:425] Eltwise20 <- Convolution41
I0619 14:56:42.137905 17898 net.cpp:399] Eltwise20 -> Eltwise20
I0619 14:56:42.137931 17898 net.cpp:141] Setting up Eltwise20
I0619 14:56:42.137940 17898 net.cpp:148] Top shape: 128 32 16 16 (1048576)
I0619 14:56:42.137944 17898 net.cpp:156] Memory required for data: 1800929792
I0619 14:56:42.137949 17898 layer_factory.hpp:77] Creating layer ReLU41
I0619 14:56:42.137960 17898 net.cpp:91] Creating Layer ReLU41
I0619 14:56:42.137979 17898 net.cpp:425] ReLU41 <- Eltwise20
I0619 14:56:42.137989 17898 net.cpp:386] ReLU41 -> Eltwise20 (in-place)
I0619 14:56:42.137998 17898 net.cpp:141] Setting up ReLU41
I0619 14:56:42.138005 17898 net.cpp:148] Top shape: 128 32 16 16 (1048576)
I0619 14:56:42.138010 17898 net.cpp:156] Memory required for data: 1805124096
I0619 14:56:42.138015 17898 layer_factory.hpp:77] Creating layer Eltwise20_ReLU41_0_split
I0619 14:56:42.138023 17898 net.cpp:91] Creating Layer Eltwise20_ReLU41_0_split
I0619 14:56:42.138028 17898 net.cpp:425] Eltwise20_ReLU41_0_split <- Eltwise20
I0619 14:56:42.138036 17898 net.cpp:399] Eltwise20_ReLU41_0_split -> Eltwise20_ReLU41_0_split_0
I0619 14:56:42.138046 17898 net.cpp:399] Eltwise20_ReLU41_0_split -> Eltwise20_ReLU41_0_split_1
I0619 14:56:42.138093 17898 net.cpp:141] Setting up Eltwise20_ReLU41_0_split
I0619 14:56:42.138103 17898 net.cpp:148] Top shape: 128 32 16 16 (1048576)
I0619 14:56:42.138109 17898 net.cpp:148] Top shape: 128 32 16 16 (1048576)
I0619 14:56:42.138114 17898 net.cpp:156] Memory required for data: 1813512704
I0619 14:56:42.138118 17898 layer_factory.hpp:77] Creating layer Convolution42
I0619 14:56:42.138133 17898 net.cpp:91] Creating Layer Convolution42
I0619 14:56:42.138139 17898 net.cpp:425] Convolution42 <- Eltwise20_ReLU41_0_split_0
I0619 14:56:42.138147 17898 net.cpp:399] Convolution42 -> Convolution42
I0619 14:56:42.138896 17898 net.cpp:141] Setting up Convolution42
I0619 14:56:42.138908 17898 net.cpp:148] Top shape: 128 32 16 16 (1048576)
I0619 14:56:42.138913 17898 net.cpp:156] Memory required for data: 1817707008
I0619 14:56:42.138922 17898 layer_factory.hpp:77] Creating layer BatchNorm42
I0619 14:56:42.138934 17898 net.cpp:91] Creating Layer BatchNorm42
I0619 14:56:42.138941 17898 net.cpp:425] BatchNorm42 <- Convolution42
I0619 14:56:42.138952 17898 net.cpp:386] BatchNorm42 -> Convolution42 (in-place)
I0619 14:56:42.139197 17898 net.cpp:141] Setting up BatchNorm42
I0619 14:56:42.139207 17898 net.cpp:148] Top shape: 128 32 16 16 (1048576)
I0619 14:56:42.139212 17898 net.cpp:156] Memory required for data: 1821901312
I0619 14:56:42.139222 17898 layer_factory.hpp:77] Creating layer Scale42
I0619 14:56:42.139231 17898 net.cpp:91] Creating Layer Scale42
I0619 14:56:42.139237 17898 net.cpp:425] Scale42 <- Convolution42
I0619 14:56:42.139246 17898 net.cpp:386] Scale42 -> Convolution42 (in-place)
I0619 14:56:42.139289 17898 layer_factory.hpp:77] Creating layer Scale42
I0619 14:56:42.139441 17898 net.cpp:141] Setting up Scale42
I0619 14:56:42.139451 17898 net.cpp:148] Top shape: 128 32 16 16 (1048576)
I0619 14:56:42.139454 17898 net.cpp:156] Memory required for data: 1826095616
I0619 14:56:42.139463 17898 layer_factory.hpp:77] Creating layer ReLU42
I0619 14:56:42.139472 17898 net.cpp:91] Creating Layer ReLU42
I0619 14:56:42.139477 17898 net.cpp:425] ReLU42 <- Convolution42
I0619 14:56:42.139483 17898 net.cpp:386] ReLU42 -> Convolution42 (in-place)
I0619 14:56:42.139492 17898 net.cpp:141] Setting up ReLU42
I0619 14:56:42.139499 17898 net.cpp:148] Top shape: 128 32 16 16 (1048576)
I0619 14:56:42.139503 17898 net.cpp:156] Memory required for data: 1830289920
I0619 14:56:42.139508 17898 layer_factory.hpp:77] Creating layer Convolution43
I0619 14:56:42.139523 17898 net.cpp:91] Creating Layer Convolution43
I0619 14:56:42.139528 17898 net.cpp:425] Convolution43 <- Convolution42
I0619 14:56:42.139539 17898 net.cpp:399] Convolution43 -> Convolution43
I0619 14:56:42.140274 17898 net.cpp:141] Setting up Convolution43
I0619 14:56:42.140285 17898 net.cpp:148] Top shape: 128 32 16 16 (1048576)
I0619 14:56:42.140288 17898 net.cpp:156] Memory required for data: 1834484224
I0619 14:56:42.140297 17898 layer_factory.hpp:77] Creating layer BatchNorm43
I0619 14:56:42.140308 17898 net.cpp:91] Creating Layer BatchNorm43
I0619 14:56:42.140314 17898 net.cpp:425] BatchNorm43 <- Convolution43
I0619 14:56:42.140324 17898 net.cpp:386] BatchNorm43 -> Convolution43 (in-place)
I0619 14:56:42.140568 17898 net.cpp:141] Setting up BatchNorm43
I0619 14:56:42.140579 17898 net.cpp:148] Top shape: 128 32 16 16 (1048576)
I0619 14:56:42.140600 17898 net.cpp:156] Memory required for data: 1838678528
I0619 14:56:42.140612 17898 layer_factory.hpp:77] Creating layer Scale43
I0619 14:56:42.140620 17898 net.cpp:91] Creating Layer Scale43
I0619 14:56:42.140626 17898 net.cpp:425] Scale43 <- Convolution43
I0619 14:56:42.140636 17898 net.cpp:386] Scale43 -> Convolution43 (in-place)
I0619 14:56:42.140681 17898 layer_factory.hpp:77] Creating layer Scale43
I0619 14:56:42.140839 17898 net.cpp:141] Setting up Scale43
I0619 14:56:42.140848 17898 net.cpp:148] Top shape: 128 32 16 16 (1048576)
I0619 14:56:42.140853 17898 net.cpp:156] Memory required for data: 1842872832
I0619 14:56:42.140862 17898 layer_factory.hpp:77] Creating layer Eltwise21
I0619 14:56:42.140872 17898 net.cpp:91] Creating Layer Eltwise21
I0619 14:56:42.140877 17898 net.cpp:425] Eltwise21 <- Eltwise20_ReLU41_0_split_1
I0619 14:56:42.140883 17898 net.cpp:425] Eltwise21 <- Convolution43
I0619 14:56:42.140892 17898 net.cpp:399] Eltwise21 -> Eltwise21
I0619 14:56:42.140918 17898 net.cpp:141] Setting up Eltwise21
I0619 14:56:42.140925 17898 net.cpp:148] Top shape: 128 32 16 16 (1048576)
I0619 14:56:42.140930 17898 net.cpp:156] Memory required for data: 1847067136
I0619 14:56:42.140935 17898 layer_factory.hpp:77] Creating layer ReLU43
I0619 14:56:42.140944 17898 net.cpp:91] Creating Layer ReLU43
I0619 14:56:42.140949 17898 net.cpp:425] ReLU43 <- Eltwise21
I0619 14:56:42.140959 17898 net.cpp:386] ReLU43 -> Eltwise21 (in-place)
I0619 14:56:42.140967 17898 net.cpp:141] Setting up ReLU43
I0619 14:56:42.140974 17898 net.cpp:148] Top shape: 128 32 16 16 (1048576)
I0619 14:56:42.140980 17898 net.cpp:156] Memory required for data: 1851261440
I0619 14:56:42.140985 17898 layer_factory.hpp:77] Creating layer Eltwise21_ReLU43_0_split
I0619 14:56:42.140991 17898 net.cpp:91] Creating Layer Eltwise21_ReLU43_0_split
I0619 14:56:42.140996 17898 net.cpp:425] Eltwise21_ReLU43_0_split <- Eltwise21
I0619 14:56:42.141003 17898 net.cpp:399] Eltwise21_ReLU43_0_split -> Eltwise21_ReLU43_0_split_0
I0619 14:56:42.141012 17898 net.cpp:399] Eltwise21_ReLU43_0_split -> Eltwise21_ReLU43_0_split_1
I0619 14:56:42.141058 17898 net.cpp:141] Setting up Eltwise21_ReLU43_0_split
I0619 14:56:42.141067 17898 net.cpp:148] Top shape: 128 32 16 16 (1048576)
I0619 14:56:42.141073 17898 net.cpp:148] Top shape: 128 32 16 16 (1048576)
I0619 14:56:42.141078 17898 net.cpp:156] Memory required for data: 1859650048
I0619 14:56:42.141083 17898 layer_factory.hpp:77] Creating layer Convolution44
I0619 14:56:42.141096 17898 net.cpp:91] Creating Layer Convolution44
I0619 14:56:42.141103 17898 net.cpp:425] Convolution44 <- Eltwise21_ReLU43_0_split_0
I0619 14:56:42.141111 17898 net.cpp:399] Convolution44 -> Convolution44
I0619 14:56:42.141868 17898 net.cpp:141] Setting up Convolution44
I0619 14:56:42.141880 17898 net.cpp:148] Top shape: 128 32 16 16 (1048576)
…
I0619 14:56:42.508926 17898 net.cpp:91] Creating Layer BatchNorm92
I0619 14:56:42.508931 17898 net.cpp:425] BatchNorm92 <- Convolution92
I0619 14:56:42.508937 17898 net.cpp:386] BatchNorm92 -> Convolution92 (in-place)
I0619 14:56:42.509168 17898 net.cpp:141] Setting up BatchNorm92
I0619 14:56:42.509176 17898 net.cpp:148] Top shape: 128 64 8 8 (524288)
I0619 14:56:42.509181 17898 net.cpp:156] Memory required for data: 2767717888
I0619 14:56:42.509189 17898 layer_factory.hpp:77] Creating layer Scale92
I0619 14:56:42.509196 17898 net.cpp:91] Creating Layer Scale92
I0619 14:56:42.509202 17898 net.cpp:425] Scale92 <- Convolution92
I0619 14:56:42.509207 17898 net.cpp:386] Scale92 -> Convolution92 (in-place)
I0619 14:56:42.509249 17898 layer_factory.hpp:77] Creating layer Scale92
I0619 14:56:42.509382 17898 net.cpp:141] Setting up Scale92
I0619 14:56:42.509390 17898 net.cpp:148] Top shape: 128 64 8 8 (524288)
I0619 14:56:42.509393 17898 net.cpp:156] Memory required for data: 2769815040
I0619 14:56:42.509400 17898 layer_factory.hpp:77] Creating layer ReLU92
I0619 14:56:42.509408 17898 net.cpp:91] Creating Layer ReLU92
I0619 14:56:42.509413 17898 net.cpp:425] ReLU92 <- Convolution92
I0619 14:56:42.509418 17898 net.cpp:386] ReLU92 -> Convolution92 (in-place)
I0619 14:56:42.509425 17898 net.cpp:141] Setting up ReLU92
I0619 14:56:42.509431 17898 net.cpp:148] Top shape: 128 64 8 8 (524288)
I0619 14:56:42.509434 17898 net.cpp:156] Memory required for data: 2771912192
I0619 14:56:42.509438 17898 layer_factory.hpp:77] Creating layer Convolution93
I0619 14:56:42.509449 17898 net.cpp:91] Creating Layer Convolution93
I0619 14:56:42.509454 17898 net.cpp:425] Convolution93 <- Convolution92
I0619 14:56:42.509460 17898 net.cpp:399] Convolution93 -> Convolution93
I0619 14:56:42.511092 17898 net.cpp:141] Setting up Convolution93
I0619 14:56:42.511103 17898 net.cpp:148] Top shape: 128 64 8 8 (524288)
I0619 14:56:42.511107 17898 net.cpp:156] Memory required for data: 2774009344
I0619 14:56:42.511114 17898 layer_factory.hpp:77] Creating layer BatchNorm93
I0619 14:56:42.511121 17898 net.cpp:91] Creating Layer BatchNorm93
I0619 14:56:42.511126 17898 net.cpp:425] BatchNorm93 <- Convolution93
I0619 14:56:42.511134 17898 net.cpp:386] BatchNorm93 -> Convolution93 (in-place)
I0619 14:56:42.511371 17898 net.cpp:141] Setting up BatchNorm93
I0619 14:56:42.511379 17898 net.cpp:148] Top shape: 128 64 8 8 (524288)
I0619 14:56:42.511384 17898 net.cpp:156] Memory required for data: 2776106496
I0619 14:56:42.511391 17898 layer_factory.hpp:77] Creating layer Scale93
I0619 14:56:42.511399 17898 net.cpp:91] Creating Layer Scale93
I0619 14:56:42.511404 17898 net.cpp:425] Scale93 <- Convolution93
I0619 14:56:42.511411 17898 net.cpp:386] Scale93 -> Convolution93 (in-place)
I0619 14:56:42.511451 17898 layer_factory.hpp:77] Creating layer Scale93
I0619 14:56:42.511586 17898 net.cpp:141] Setting up Scale93
I0619 14:56:42.511595 17898 net.cpp:148] Top shape: 128 64 8 8 (524288)
I0619 14:56:42.511598 17898 net.cpp:156] Memory required for data: 2778203648
I0619 14:56:42.511605 17898 layer_factory.hpp:77] Creating layer Eltwise46
I0619 14:56:42.511612 17898 net.cpp:91] Creating Layer Eltwise46
I0619 14:56:42.511620 17898 net.cpp:425] Eltwise46 <- Eltwise45_ReLU91_0_split_1
I0619 14:56:42.511637 17898 net.cpp:425] Eltwise46 <- Convolution93
I0619 14:56:42.511646 17898 net.cpp:399] Eltwise46 -> Eltwise46
I0619 14:56:42.511669 17898 net.cpp:141] Setting up Eltwise46
I0619 14:56:42.511677 17898 net.cpp:148] Top shape: 128 64 8 8 (524288)
I0619 14:56:42.511679 17898 net.cpp:156] Memory required for data: 2780300800
I0619 14:56:42.511683 17898 layer_factory.hpp:77] Creating layer ReLU93
I0619 14:56:42.511694 17898 net.cpp:91] Creating Layer ReLU93
I0619 14:56:42.511699 17898 net.cpp:425] ReLU93 <- Eltwise46
I0619 14:56:42.511704 17898 net.cpp:386] ReLU93 -> Eltwise46 (in-place)
I0619 14:56:42.511711 17898 net.cpp:141] Setting up ReLU93
I0619 14:56:42.511716 17898 net.cpp:148] Top shape: 128 64 8 8 (524288)
I0619 14:56:42.511720 17898 net.cpp:156] Memory required for data: 2782397952
I0619 14:56:42.511724 17898 layer_factory.hpp:77] Creating layer Eltwise46_ReLU93_0_split
I0619 14:56:42.511730 17898 net.cpp:91] Creating Layer Eltwise46_ReLU93_0_split
I0619 14:56:42.511734 17898 net.cpp:425] Eltwise46_ReLU93_0_split <- Eltwise46
I0619 14:56:42.511742 17898 net.cpp:399] Eltwise46_ReLU93_0_split -> Eltwise46_ReLU93_0_split_0
I0619 14:56:42.511749 17898 net.cpp:399] Eltwise46_ReLU93_0_split -> Eltwise46_ReLU93_0_split_1
I0619 14:56:42.511788 17898 net.cpp:141] Setting up Eltwise46_ReLU93_0_split
I0619 14:56:42.511795 17898 net.cpp:148] Top shape: 128 64 8 8 (524288)
I0619 14:56:42.511800 17898 net.cpp:148] Top shape: 128 64 8 8 (524288)
I0619 14:56:42.511803 17898 net.cpp:156] Memory required for data: 2786592256
I0619 14:56:42.511807 17898 layer_factory.hpp:77] Creating layer Convolution94
I0619 14:56:42.511819 17898 net.cpp:91] Creating Layer Convolution94
I0619 14:56:42.511823 17898 net.cpp:425] Convolution94 <- Eltwise46_ReLU93_0_split_0
I0619 14:56:42.511831 17898 net.cpp:399] Convolution94 -> Convolution94
I0619 14:56:42.514066 17898 net.cpp:141] Setting up Convolution94
I0619 14:56:42.514081 17898 net.cpp:148] Top shape: 128 64 8 8 (524288)
I0619 14:56:42.514086 17898 net.cpp:156] Memory required for data: 2788689408
I0619 14:56:42.514094 17898 layer_factory.hpp:77] Creating layer BatchNorm94
I0619 14:56:42.514102 17898 net.cpp:91] Creating Layer BatchNorm94
I0619 14:56:42.514108 17898 net.cpp:425] BatchNorm94 <- Convolution94
I0619 14:56:42.514117 17898 net.cpp:386] BatchNorm94 -> Convolution94 (in-place)
I0619 14:56:42.514351 17898 net.cpp:141] Setting up BatchNorm94
I0619 14:56:42.514369 17898 net.cpp:148] Top shape: 128 64 8 8 (524288)
I0619 14:56:42.514374 17898 net.cpp:156] Memory required for data: 2790786560
I0619 14:56:42.514382 17898 layer_factory.hpp:77] Creating layer Scale94
I0619 14:56:42.514390 17898 net.cpp:91] Creating Layer Scale94
I0619 14:56:42.514394 17898 net.cpp:425] Scale94 <- Convolution94
I0619 14:56:42.514403 17898 net.cpp:386] Scale94 -> Convolution94 (in-place)
I0619 14:56:42.514446 17898 layer_factory.hpp:77] Creating layer Scale94
I0619 14:56:42.514583 17898 net.cpp:141] Setting up Scale94
I0619 14:56:42.514591 17898 net.cpp:148] Top shape: 128 64 8 8 (524288)
I0619 14:56:42.514595 17898 net.cpp:156] Memory required for data: 2792883712
I0619 14:56:42.514602 17898 layer_factory.hpp:77] Creating layer ReLU94
I0619 14:56:42.514608 17898 net.cpp:91] Creating Layer ReLU94
I0619 14:56:42.514613 17898 net.cpp:425] ReLU94 <- Convolution94
I0619 14:56:42.514622 17898 net.cpp:386] ReLU94 -> Convolution94 (in-place)
I0619 14:56:42.514631 17898 net.cpp:141] Setting up ReLU94
I0619 14:56:42.514636 17898 net.cpp:148] Top shape: 128 64 8 8 (524288)
I0619 14:56:42.514639 17898 net.cpp:156] Memory required for data: 2794980864
I0619 14:56:42.514643 17898 layer_factory.hpp:77] Creating layer Convolution95
I0619 14:56:42.514654 17898 net.cpp:91] Creating Layer Convolution95
I0619 14:56:42.514659 17898 net.cpp:425] Convolution95 <- Convolution94
I0619 14:56:42.514665 17898 net.cpp:399] Convolution95 -> Convolution95
I0619 14:56:42.516294 17898 net.cpp:141] Setting up Convolution95
I0619 14:56:42.516306 17898 net.cpp:148] Top shape: 128 64 8 8 (524288)
I0619 14:56:42.516324 17898 net.cpp:156] Memory required for data: 2797078016
I0619 14:56:42.516332 17898 layer_factory.hpp:77] Creating layer BatchNorm95
I0619 14:56:42.516342 17898 net.cpp:91] Creating Layer BatchNorm95
I0619 14:56:42.516347 17898 net.cpp:425] BatchNorm95 <- Convolution95
I0619 14:56:42.516355 17898 net.cpp:386] BatchNorm95 -> Convolution95 (in-place)
I0619 14:56:42.516585 17898 net.cpp:141] Setting up BatchNorm95
I0619 14:56:42.516593 17898 net.cpp:148] Top shape: 128 64 8 8 (524288)
I0619 14:56:42.516597 17898 net.cpp:156] Memory required for data: 2799175168
I0619 14:56:42.516607 17898 layer_factory.hpp:77] Creating layer Scale95
I0619 14:56:42.516615 17898 net.cpp:91] Creating Layer Scale95
I0619 14:56:42.516620 17898 net.cpp:425] Scale95 <- Convolution95
I0619 14:56:42.516626 17898 net.cpp:386] Scale95 -> Convolution95 (in-place)
I0619 14:56:42.516669 17898 layer_factory.hpp:77] Creating layer Scale95
I0619 14:56:42.516804 17898 net.cpp:141] Setting up Scale95
I0619 14:56:42.516813 17898 net.cpp:148] Top shape: 128 64 8 8 (524288)
I0619 14:56:42.516816 17898 net.cpp:156] Memory required for data: 2801272320
I0619 14:56:42.516824 17898 layer_factory.hpp:77] Creating layer Eltwise47
I0619 14:56:42.516832 17898 net.cpp:91] Creating Layer Eltwise47
I0619 14:56:42.516837 17898 net.cpp:425] Eltwise47 <- Eltwise46_ReLU93_0_split_1
I0619 14:56:42.516844 17898 net.cpp:425] Eltwise47 <- Convolution95
I0619 14:56:42.516851 17898 net.cpp:399] Eltwise47 -> Eltwise47
I0619 14:56:42.516873 17898 net.cpp:141] Setting up Eltwise47
I0619 14:56:42.516880 17898 net.cpp:148] Top shape: 128 64 8 8 (524288)
I0619 14:56:42.516883 17898 net.cpp:156] Memory required for data: 2803369472
I0619 14:56:42.516888 17898 layer_factory.hpp:77] Creating layer ReLU95
I0619 14:56:42.516894 17898 net.cpp:91] Creating Layer ReLU95
I0619 14:56:42.516899 17898 net.cpp:425] ReLU95 <- Eltwise47
I0619 14:56:42.516906 17898 net.cpp:386] ReLU95 -> Eltwise47 (in-place)
I0619 14:56:42.516913 17898 net.cpp:141] Setting up ReLU95
I0619 14:56:42.516919 17898 net.cpp:148] Top shape: 128 64 8 8 (524288)
I0619 14:56:42.516922 17898 net.cpp:156] Memory required for data: 2805466624
I0619 14:56:42.516927 17898 layer_factory.hpp:77] Creating layer Eltwise47_ReLU95_0_split
I0619 14:56:42.516932 17898 net.cpp:91] Creating Layer Eltwise47_ReLU95_0_split
I0619 14:56:42.516937 17898 net.cpp:425] Eltwise47_ReLU95_0_split <- Eltwise47
I0619 14:56:42.516942 17898 net.cpp:399] Eltwise47_ReLU95_0_split -> Eltwise47_ReLU95_0_split_0
I0619 14:56:42.516949 17898 net.cpp:399] Eltwise47_ReLU95_0_split -> Eltwise47_ReLU95_0_split_1
I0619 14:56:42.516991 17898 net.cpp:141] Setting up Eltwise47_ReLU95_0_split
I0619 14:56:42.516999 17898 net.cpp:148] Top shape: 128 64 8 8 (524288)
I0619 14:56:42.517004 17898 net.cpp:148] Top shape: 128 64 8 8 (524288)
I0619 14:56:42.517007 17898 net.cpp:156] Memory required for data: 2809660928
I0619 14:56:42.517011 17898 layer_factory.hpp:77] Creating layer Convolution96
I0619 14:56:42.517020 17898 net.cpp:91] Creating Layer Convolution96
I0619 14:56:42.517024 17898 net.cpp:425] Convolution96 <- Eltwise47_ReLU95_0_split_0
I0619 14:56:42.517035 17898 net.cpp:399] Convolution96 -> Convolution96
I0619 14:56:42.518672 17898 net.cpp:141] Setting up Convolution96
I0619 14:56:42.518683 17898 net.cpp:148] Top shape: 128 64 8 8 (524288)
I0619 14:56:42.518687 17898 net.cpp:156] Memory required for data: 2811758080
I0619 14:56:42.518694 17898 layer_factory.hpp:77] Creating layer BatchNorm96
I0619 14:56:42.518702 17898 net.cpp:91] Creating Layer BatchNorm96
I0619 14:56:42.518707 17898 net.cpp:425] BatchNorm96 <- Convolution96
I0619 14:56:42.518718 17898 net.cpp:386] BatchNorm96 -> Convolution96 (in-place)
I0619 14:56:42.518945 17898 net.cpp:141] Setting up BatchNorm96
I0619 14:56:42.518954 17898 net.cpp:148] Top shape: 128 64 8 8 (524288)
I0619 14:56:42.518957 17898 net.cpp:156] Memory required for data: 2813855232
I0619 14:56:42.518966 17898 layer_factory.hpp:77] Creating layer Scale96
I0619 14:56:42.518977 17898 net.cpp:91] Creating Layer Scale96
I0619 14:56:42.518993 17898 net.cpp:425] Scale96 <- Convolution96
I0619 14:56:42.519002 17898 net.cpp:386] Scale96 -> Convolution96 (in-place)
I0619 14:56:42.519044 17898 layer_factory.hpp:77] Creating layer Scale96
I0619 14:56:42.519181 17898 net.cpp:141] Setting up Scale96
I0619 14:56:42.519189 17898 net.cpp:148] Top shape: 128 64 8 8 (524288)
I0619 14:56:42.519193 17898 net.cpp:156] Memory required for data: 2815952384
I0619 14:56:42.519201 17898 layer_factory.hpp:77] Creating layer ReLU96
I0619 14:56:42.519207 17898 net.cpp:91] Creating Layer ReLU96
I0619 14:56:42.519212 17898 net.cpp:425] ReLU96 <- Convolution96
I0619 14:56:42.519217 17898 net.cpp:386] ReLU96 -> Convolution96 (in-place)
I0619 14:56:42.519223 17898 net.cpp:141] Setting up ReLU96
I0619 14:56:42.519229 17898 net.cpp:148] Top shape: 128 64 8 8 (524288)
I0619 14:56:42.519232 17898 net.cpp:156] Memory required for data: 2818049536
I0619 14:56:42.519237 17898 layer_factory.hpp:77] Creating layer Convolution97
I0619 14:56:42.519248 17898 net.cpp:91] Creating Layer Convolution97
I0619 14:56:42.519253 17898 net.cpp:425] Convolution97 <- Convolution96
I0619 14:56:42.519261 17898 net.cpp:399] Convolution97 -> Convolution97
I0619 14:56:42.520885 17898 net.cpp:141] Setting up Convolution97
I0619 14:56:42.520895 17898 net.cpp:148] Top shape: 128 64 8 8 (524288)
I0619 14:56:42.520898 17898 net.cpp:156] Memory required for data: 2820146688
I0619 14:56:42.520905 17898 layer_factory.hpp:77] Creating layer BatchNorm97
I0619 14:56:42.520915 17898 net.cpp:91] Creating Layer BatchNorm97
I0619 14:56:42.520920 17898 net.cpp:425] BatchNorm97 <- Convolution97
I0619 14:56:42.520927 17898 net.cpp:386] BatchNorm97 -> Convolution97 (in-place)
I0619 14:56:42.521154 17898 net.cpp:141] Setting up BatchNorm97
I0619 14:56:42.521162 17898 net.cpp:148] Top shape: 128 64 8 8 (524288)
I0619 14:56:42.521167 17898 net.cpp:156] Memory required for data: 2822243840
I0619 14:56:42.521174 17898 layer_factory.hpp:77] Creating layer Scale97
I0619 14:56:42.521183 17898 net.cpp:91] Creating Layer Scale97
I0619 14:56:42.521188 17898 net.cpp:425] Scale97 <- Convolution97
I0619 14:56:42.521194 17898 net.cpp:386] Scale97 -> Convolution97 (in-place)
I0619 14:56:42.521236 17898 layer_factory.hpp:77] Creating layer Scale97
I0619 14:56:42.521374 17898 net.cpp:141] Setting up Scale97
I0619 14:56:42.521381 17898 net.cpp:148] Top shape: 128 64 8 8 (524288)
I0619 14:56:42.521385 17898 net.cpp:156] Memory required for data: 2824340992
I0619 14:56:42.521392 17898 layer_factory.hpp:77] Creating layer Eltwise48
I0619 14:56:42.521400 17898 net.cpp:91] Creating Layer Eltwise48
I0619 14:56:42.521405 17898 net.cpp:425] Eltwise48 <- Eltwise47_ReLU95_0_split_1
I0619 14:56:42.521411 17898 net.cpp:425] Eltwise48 <- Convolution97
I0619 14:56:42.521417 17898 net.cpp:399] Eltwise48 -> Eltwise48
I0619 14:56:42.521440 17898 net.cpp:141] Setting up Eltwise48
I0619 14:56:42.521447 17898 net.cpp:148] Top shape: 128 64 8 8 (524288)
I0619 14:56:42.521450 17898 net.cpp:156] Memory required for data: 2826438144
I0619 14:56:42.521455 17898 layer_factory.hpp:77] Creating layer ReLU97
I0619 14:56:42.521461 17898 net.cpp:91] Creating Layer ReLU97
I0619 14:56:42.521466 17898 net.cpp:425] ReLU97 <- Eltwise48
I0619 14:56:42.521471 17898 net.cpp:386] ReLU97 -> Eltwise48 (in-place)
I0619 14:56:42.521477 17898 net.cpp:141] Setting up ReLU97
I0619 14:56:42.521482 17898 net.cpp:148] Top shape: 128 64 8 8 (524288)
I0619 14:56:42.521486 17898 net.cpp:156] Memory required for data: 2828535296
I0619 14:56:42.521491 17898 layer_factory.hpp:77] Creating layer Eltwise48_ReLU97_0_split
I0619 14:56:42.521498 17898 net.cpp:91] Creating Layer Eltwise48_ReLU97_0_split
I0619 14:56:42.521502 17898 net.cpp:425] Eltwise48_ReLU97_0_split <- Eltwise48
I0619 14:56:42.521507 17898 net.cpp:399] Eltwise48_ReLU97_0_split -> Eltwise48_ReLU97_0_split_0
I0619 14:56:42.521515 17898 net.cpp:399] Eltwise48_ReLU97_0_split -> Eltwise48_ReLU97_0_split_1
I0619 14:56:42.521556 17898 net.cpp:141] Setting up Eltwise48_ReLU97_0_split
I0619 14:56:42.521566 17898 net.cpp:148] Top shape: 128 64 8 8 (524288)
I0619 14:56:42.521582 17898 net.cpp:148] Top shape: 128 64 8 8 (524288)
I0619 14:56:42.521586 17898 net.cpp:156] Memory required for data: 2832729600
I0619 14:56:42.521590 17898 layer_factory.hpp:77] Creating layer Convolution98
I0619 14:56:42.521600 17898 net.cpp:91] Creating Layer Convolution98
I0619 14:56:42.521605 17898 net.cpp:425] Convolution98 <- Eltwise48_ReLU97_0_split_0
I0619 14:56:42.521612 17898 net.cpp:399] Convolution98 -> Convolution98
I0619 14:56:42.523253 17898 net.cpp:141] Setting up Convolution98
I0619 14:56:42.523267 17898 net.cpp:148] Top shape: 128 64 8 8 (524288)
I0619 14:56:42.523270 17898 net.cpp:156] Memory required for data: 2834826752
I0619 14:56:42.523277 17898 layer_factory.hpp:77] Creating layer BatchNorm98
I0619 14:56:42.523288 17898 net.cpp:91] Creating Layer BatchNorm98
I0619 14:56:42.523293 17898 net.cpp:425] BatchNorm98 <- Convolution98
I0619 14:56:42.523299 17898 net.cpp:386] BatchNorm98 -> Convolution98 (in-place)
I0619 14:56:42.523530 17898 net.cpp:141] Setting up BatchNorm98
I0619 14:56:42.523538 17898 net.cpp:148] Top shape: 128 64 8 8 (524288)
I0619 14:56:42.523541 17898 net.cpp:156] Memory required for data: 2836923904
I0619 14:56:42.523550 17898 layer_factory.hpp:77] Creating layer Scale98
I0619 14:56:42.523557 17898 net.cpp:91] Creating Layer Scale98
I0619 14:56:42.523562 17898 net.cpp:425] Scale98 <- Convolution98
I0619 14:56:42.523568 17898 net.cpp:386] Scale98 -> Convolution98 (in-place)
I0619 14:56:42.523612 17898 layer_factory.hpp:77] Creating layer Scale98
I0619 14:56:42.523746 17898 net.cpp:141] Setting up Scale98
I0619 14:56:42.523756 17898 net.cpp:148] Top shape: 128 64 8 8 (524288)
I0619 14:56:42.523761 17898 net.cpp:156] Memory required for data: 2839021056
I0619 14:56:42.523767 17898 layer_factory.hpp:77] Creating layer ReLU98
I0619 14:56:42.523773 17898 net.cpp:91] Creating Layer ReLU98
I0619 14:56:42.523778 17898 net.cpp:425] ReLU98 <- Convolution98
I0619 14:56:42.523783 17898 net.cpp:386] ReLU98 -> Convolution98 (in-place)
I0619 14:56:42.523790 17898 net.cpp:141] Setting up ReLU98
I0619 14:56:42.523795 17898 net.cpp:148] Top shape: 128 64 8 8 (524288)
I0619 14:56:42.523799 17898 net.cpp:156] Memory required for data: 2841118208
I0619 14:56:42.523803 17898 layer_factory.hpp:77] Creating layer Convolution99
I0619 14:56:42.523814 17898 net.cpp:91] Creating Layer Convolution99
I0619 14:56:42.523818 17898 net.cpp:425] Convolution99 <- Convolution98
I0619 14:56:42.523829 17898 net.cpp:399] Convolution99 -> Convolution99
I0619 14:56:42.525460 17898 net.cpp:141] Setting up Convolution99
I0619 14:56:42.525468 17898 net.cpp:148] Top shape: 128 64 8 8 (524288)
I0619 14:56:42.525472 17898 net.cpp:156] Memory required for data: 2843215360
I0619 14:56:42.525480 17898 layer_factory.hpp:77] Creating layer BatchNorm99
I0619 14:56:42.525488 17898 net.cpp:91] Creating Layer BatchNorm99
I0619 14:56:42.525493 17898 net.cpp:425] BatchNorm99 <- Convolution99
I0619 14:56:42.525499 17898 net.cpp:386] BatchNorm99 -> Convolution99 (in-place)
I0619 14:56:42.525730 17898 net.cpp:141] Setting up BatchNorm99
I0619 14:56:42.525738 17898 net.cpp:148] Top shape: 128 64 8 8 (524288)
I0619 14:56:42.525741 17898 net.cpp:156] Memory required for data: 2845312512
I0619 14:56:42.525750 17898 layer_factory.hpp:77] Creating layer Scale99
I0619 14:56:42.525758 17898 net.cpp:91] Creating Layer Scale99
I0619 14:56:42.525763 17898 net.cpp:425] Scale99 <- Convolution99
I0619 14:56:42.525769 17898 net.cpp:386] Scale99 -> Convolution99 (in-place)
I0619 14:56:42.525807 17898 layer_factory.hpp:77] Creating layer Scale99
I0619 14:56:42.525940 17898 net.cpp:141] Setting up Scale99
I0619 14:56:42.525949 17898 net.cpp:148] Top shape: 128 64 8 8 (524288)
I0619 14:56:42.525952 17898 net.cpp:156] Memory required for data: 2847409664
I0619 14:56:42.525959 17898 layer_factory.hpp:77] Creating layer Eltwise49
I0619 14:56:42.525965 17898 net.cpp:91] Creating Layer Eltwise49
I0619 14:56:42.525970 17898 net.cpp:425] Eltwise49 <- Eltwise48_ReLU97_0_split_1
I0619 14:56:42.525981 17898 net.cpp:425] Eltwise49 <- Convolution99
I0619 14:56:42.526000 17898 net.cpp:399] Eltwise49 -> Eltwise49
I0619 14:56:42.526023 17898 net.cpp:141] Setting up Eltwise49
I0619 14:56:42.526032 17898 net.cpp:148] Top shape: 128 64 8 8 (524288)
I0619 14:56:42.526036 17898 net.cpp:156] Memory required for data: 2849506816
I0619 14:56:42.526041 17898 layer_factory.hpp:77] Creating layer ReLU99
I0619 14:56:42.526046 17898 net.cpp:91] Creating Layer ReLU99
I0619 14:56:42.526051 17898 net.cpp:425] ReLU99 <- Eltwise49
I0619 14:56:42.526057 17898 net.cpp:386] ReLU99 -> Eltwise49 (in-place)
I0619 14:56:42.526062 17898 net.cpp:141] Setting up ReLU99
I0619 14:56:42.526068 17898 net.cpp:148] Top shape: 128 64 8 8 (524288)
I0619 14:56:42.526072 17898 net.cpp:156] Memory required for data: 2851603968
I0619 14:56:42.526075 17898 layer_factory.hpp:77] Creating layer Eltwise49_ReLU99_0_split
I0619 14:56:42.526082 17898 net.cpp:91] Creating Layer Eltwise49_ReLU99_0_split
I0619 14:56:42.526085 17898 net.cpp:425] Eltwise49_ReLU99_0_split <- Eltwise49
I0619 14:56:42.526093 17898 net.cpp:399] Eltwise49_ReLU99_0_split -> Eltwise49_ReLU99_0_split_0
I0619 14:56:42.526123 17898 net.cpp:399] Eltwise49_ReLU99_0_split -> Eltwise49_ReLU99_0_split_1
I0619 14:56:42.526168 17898 net.cpp:141] Setting up Eltwise49_ReLU99_0_split
I0619 14:56:42.526176 17898 net.cpp:148] Top shape: 128 64 8 8 (524288)
I0619 14:56:42.526181 17898 net.cpp:148] Top shape: 128 64 8 8 (524288)
I0619 14:56:42.526185 17898 net.cpp:156] Memory required for data: 2855798272
I0619 14:56:42.526190 17898 layer_factory.hpp:77] Creating layer Convolution100
I0619 14:56:42.526202 17898 net.cpp:91] Creating Layer Convolution100
I0619 14:56:42.526207 17898 net.cpp:425] Convolution100 <- Eltwise49_ReLU99_0_split_0
I0619 14:56:42.526216 17898 net.cpp:399] Convolution100 -> Convolution100
I0619 14:56:42.527866 17898 net.cpp:141] Setting up Convolution100
I0619 14:56:42.527878 17898 net.cpp:148] Top shape: 128 64 8 8 (524288)
I0619 14:56:42.527881 17898 net.cpp:156] Memory required for data: 2857895424
I0619 14:56:42.527889 17898 layer_factory.hpp:77] Creating layer BatchNorm100
I0619 14:56:42.527895 17898 net.cpp:91] Creating Layer BatchNorm100
I0619 14:56:42.527901 17898 net.cpp:425] BatchNorm100 <- Convolution100
I0619 14:56:42.527909 17898 net.cpp:386] BatchNorm100 -> Convolution100 (in-place)
I0619 14:56:42.528141 17898 net.cpp:141] Setting up BatchNorm100
I0619 14:56:42.528149 17898 net.cpp:148] Top shape: 128 64 8 8 (524288)
I0619 14:56:42.528153 17898 net.cpp:156] Memory required for data: 2859992576
I0619 14:56:42.528165 17898 layer_factory.hpp:77] Creating layer Scale100
I0619 14:56:42.528172 17898 net.cpp:91] Creating Layer Scale100
I0619 14:56:42.528177 17898 net.cpp:425] Scale100 <- Convolution100
I0619 14:56:42.528183 17898 net.cpp:386] Scale100 -> Convolution100 (in-place)
I0619 14:56:42.528224 17898 layer_factory.hpp:77] Creating layer Scale100
I0619 14:56:42.528360 17898 net.cpp:141] Setting up Scale100
I0619 14:56:42.528368 17898 net.cpp:148] Top shape: 128 64 8 8 (524288)
I0619 14:56:42.528373 17898 net.cpp:156] Memory required for data: 2862089728
I0619 14:56:42.528379 17898 layer_factory.hpp:77] Creating layer ReLU100
I0619 14:56:42.528388 17898 net.cpp:91] Creating Layer ReLU100
I0619 14:56:42.528393 17898 net.cpp:425] ReLU100 <- Convolution100
I0619 14:56:42.528399 17898 net.cpp:386] ReLU100 -> Convolution100 (in-place)
I0619 14:56:42.528406 17898 net.cpp:141] Setting up ReLU100
I0619 14:56:42.528411 17898 net.cpp:148] Top shape: 128 64 8 8 (524288)
I0619 14:56:42.528415 17898 net.cpp:156] Memory required for data: 2864186880
I0619 14:56:42.528419 17898 layer_factory.hpp:77] Creating layer Convolution101
I0619 14:56:42.528429 17898 net.cpp:91] Creating Layer Convolution101
I0619 14:56:42.528434 17898 net.cpp:425] Convolution101 <- Convolution100
I0619 14:56:42.528442 17898 net.cpp:399] Convolution101 -> Convolution101
I0619 14:56:42.530685 17898 net.cpp:141] Setting up Convolution101
I0619 14:56:42.530700 17898 net.cpp:148] Top shape: 128 64 8 8 (524288)
I0619 14:56:42.530722 17898 net.cpp:156] Memory required for data: 2866284032
I0619 14:56:42.530732 17898 layer_factory.hpp:77] Creating layer BatchNorm101
I0619 14:56:42.530742 17898 net.cpp:91] Creating Layer BatchNorm101
I0619 14:56:42.530747 17898 net.cpp:425] BatchNorm101 <- Convolution101
I0619 14:56:42.530756 17898 net.cpp:386] BatchNorm101 -> Convolution101 (in-place)
I0619 14:56:42.530992 17898 net.cpp:141] Setting up BatchNorm101
I0619 14:56:42.530999 17898 net.cpp:148] Top shape: 128 64 8 8 (524288)
I0619 14:56:42.531003 17898 net.cpp:156] Memory required for data: 2868381184
I0619 14:56:42.531013 17898 layer_factory.hpp:77] Creating layer Scale101
I0619 14:56:42.531021 17898 net.cpp:91] Creating Layer Scale101
I0619 14:56:42.531026 17898 net.cpp:425] Scale101 <- Convolution101
I0619 14:56:42.531031 17898 net.cpp:386] Scale101 -> Convolution101 (in-place)
I0619 14:56:42.531075 17898 layer_factory.hpp:77] Creating layer Scale101
I0619 14:56:42.531214 17898 net.cpp:141] Setting up Scale101
I0619 14:56:42.531224 17898 net.cpp:148] Top shape: 128 64 8 8 (524288)
I0619 14:56:42.531226 17898 net.cpp:156] Memory required for data: 2870478336
I0619 14:56:42.531234 17898 layer_factory.hpp:77] Creating layer Eltwise50
I0619 14:56:42.531242 17898 net.cpp:91] Creating Layer Eltwise50
I0619 14:56:42.531249 17898 net.cpp:425] Eltwise50 <- Eltwise49_ReLU99_0_split_1
I0619 14:56:42.531253 17898 net.cpp:425] Eltwise50 <- Convolution101
I0619 14:56:42.531260 17898 net.cpp:399] Eltwise50 -> Eltwise50
I0619 14:56:42.531283 17898 net.cpp:141] Setting up Eltwise50
I0619 14:56:42.531291 17898 net.cpp:148] Top shape: 128 64 8 8 (524288)
I0619 14:56:42.531294 17898 net.cpp:156] Memory required for data: 2872575488
I0619 14:56:42.531297 17898 layer_factory.hpp:77] Creating layer ReLU101
I0619 14:56:42.531304 17898 net.cpp:91] Creating Layer ReLU101
I0619 14:56:42.531308 17898 net.cpp:425] ReLU101 <- Eltwise50
I0619 14:56:42.531313 17898 net.cpp:386] ReLU101 -> Eltwise50 (in-place)
I0619 14:56:42.531321 17898 net.cpp:141] Setting up ReLU101
I0619 14:56:42.531325 17898 net.cpp:148] Top shape: 128 64 8 8 (524288)
I0619 14:56:42.531329 17898 net.cpp:156] Memory required for data: 2874672640
I0619 14:56:42.531333 17898 layer_factory.hpp:77] Creating layer Eltwise50_ReLU101_0_split
I0619 14:56:42.531383 17898 net.cpp:91] Creating Layer Eltwise50_ReLU101_0_split
I0619 14:56:42.531388 17898 net.cpp:425] Eltwise50_ReLU101_0_split <- Eltwise50
I0619 14:56:42.531395 17898 net.cpp:399] Eltwise50_ReLU101_0_split -> Eltwise50_ReLU101_0_split_0
I0619 14:56:42.531404 17898 net.cpp:399] Eltwise50_ReLU101_0_split -> Eltwise50_ReLU101_0_split_1
I0619 14:56:42.531450 17898 net.cpp:141] Setting up Eltwise50_ReLU101_0_split
I0619 14:56:42.531457 17898 net.cpp:148] Top shape: 128 64 8 8 (524288)
I0619 14:56:42.531462 17898 net.cpp:148] Top shape: 128 64 8 8 (524288)
I0619 14:56:42.531466 17898 net.cpp:156] Memory required for data: 2878866944
I0619 14:56:42.531471 17898 layer_factory.hpp:77] Creating layer Convolution102
I0619 14:56:42.531483 17898 net.cpp:91] Creating Layer Convolution102
I0619 14:56:42.531488 17898 net.cpp:425] Convolution102 <- Eltwise50_ReLU101_0_split_0
I0619 14:56:42.531498 17898 net.cpp:399] Convolution102 -> Convolution102
I0619 14:56:42.533133 17898 net.cpp:141] Setting up Convolution102
I0619 14:56:42.533143 17898 net.cpp:148] Top shape: 128 64 8 8 (524288)
I0619 14:56:42.533146 17898 net.cpp:156] Memory required for data: 2880964096
I0619 14:56:42.533154 17898 layer_factory.hpp:77] Creating layer BatchNorm102
I0619 14:56:42.533161 17898 net.cpp:91] Creating Layer BatchNorm102
I0619 14:56:42.533166 17898 net.cpp:425] BatchNorm102 <- Convolution102
I0619 14:56:42.533174 17898 net.cpp:386] BatchNorm102 -> Convolution102 (in-place)
I0619 14:56:42.533406 17898 net.cpp:141] Setting up BatchNorm102
I0619 14:56:42.533413 17898 net.cpp:148] Top shape: 128 64 8 8 (524288)
I0619 14:56:42.533417 17898 net.cpp:156] Memory required for data: 2883061248
I0619 14:56:42.533427 17898 layer_factory.hpp:77] Creating layer Scale102
I0619 14:56:42.533437 17898 net.cpp:91] Creating Layer Scale102
I0619 14:56:42.533453 17898 net.cpp:425] Scale102 <- Convolution102
I0619 14:56:42.533462 17898 net.cpp:386] Scale102 -> Convolution102 (in-place)
I0619 14:56:42.533506 17898 layer_factory.hpp:77] Creating layer Scale102
I0619 14:56:42.533644 17898 net.cpp:141] Setting up Scale102
I0619 14:56:42.533654 17898 net.cpp:148] Top shape: 128 64 8 8 (524288)
I0619 14:56:42.533658 17898 net.cpp:156] Memory required for data: 2885158400
I0619 14:56:42.533665 17898 layer_factory.hpp:77] Creating layer ReLU102
I0619 14:56:42.533673 17898 net.cpp:91] Creating Layer ReLU102
I0619 14:56:42.533677 17898 net.cpp:425] ReLU102 <- Convolution102
I0619 14:56:42.533682 17898 net.cpp:386] ReLU102 -> Convolution102 (in-place)
I0619 14:56:42.533689 17898 net.cpp:141] Setting up ReLU102
I0619 14:56:42.533695 17898 net.cpp:148] Top shape: 128 64 8 8 (524288)
I0619 14:56:42.533699 17898 net.cpp:156] Memory required for data: 2887255552
I0619 14:56:42.533702 17898 layer_factory.hpp:77] Creating layer Convolution103
I0619 14:56:42.533715 17898 net.cpp:91] Creating Layer Convolution103
I0619 14:56:42.533718 17898 net.cpp:425] Convolution103 <- Convolution102
I0619 14:56:42.533727 17898 net.cpp:399] Convolution103 -> Convolution103
I0619 14:56:42.535364 17898 net.cpp:141] Setting up Convolution103
I0619 14:56:42.535375 17898 net.cpp:148] Top shape: 128 64 8 8 (524288)
I0619 14:56:42.535379 17898 net.cpp:156] Memory required for data: 2889352704
I0619 14:56:42.535387 17898 layer_factory.hpp:77] Creating layer BatchNorm103
I0619 14:56:42.535397 17898 net.cpp:91] Creating Layer BatchNorm103
I0619 14:56:42.535401 17898 net.cpp:425] BatchNorm103 <- Convolution103
I0619 14:56:42.535408 17898 net.cpp:386] BatchNorm103 -> Convolution103 (in-place)
I0619 14:56:42.535636 17898 net.cpp:141] Setting up BatchNorm103
I0619 14:56:42.535645 17898 net.cpp:148] Top shape: 128 64 8 8 (524288)
I0619 14:56:42.535648 17898 net.cpp:156] Memory required for data: 2891449856
I0619 14:56:42.535656 17898 layer_factory.hpp:77] Creating layer Scale103
I0619 14:56:42.535665 17898 net.cpp:91] Creating Layer Scale103
I0619 14:56:42.535670 17898 net.cpp:425] Scale103 <- Convolution103
I0619 14:56:42.535676 17898 net.cpp:386] Scale103 -> Convolution103 (in-place)
I0619 14:56:42.535714 17898 layer_factory.hpp:77] Creating layer Scale103
I0619 14:56:42.535852 17898 net.cpp:141] Setting up Scale103
I0619 14:56:42.535861 17898 net.cpp:148] Top shape: 128 64 8 8 (524288)
I0619 14:56:42.535864 17898 net.cpp:156] Memory required for data: 2893547008
I0619 14:56:42.535871 17898 layer_factory.hpp:77] Creating layer Eltwise51
I0619 14:56:42.535881 17898 net.cpp:91] Creating Layer Eltwise51
I0619 14:56:42.535887 17898 net.cpp:425] Eltwise51 <- Eltwise50_ReLU101_0_split_1
I0619 14:56:42.535892 17898 net.cpp:425] Eltwise51 <- Convolution103
I0619 14:56:42.535898 17898 net.cpp:399] Eltwise51 -> Eltwise51
I0619 14:56:42.535922 17898 net.cpp:141] Setting up Eltwise51
I0619 14:56:42.535928 17898 net.cpp:148] Top shape: 128 64 8 8 (524288)
I0619 14:56:42.535933 17898 net.cpp:156] Memory required for data: 2895644160
I0619 14:56:42.535936 17898 layer_factory.hpp:77] Creating layer ReLU103
I0619 14:56:42.535943 17898 net.cpp:91] Creating Layer ReLU103
I0619 14:56:42.535948 17898 net.cpp:425] ReLU103 <- Eltwise51
I0619 14:56:42.535953 17898 net.cpp:386] ReLU103 -> Eltwise51 (in-place)
I0619 14:56:42.535959 17898 net.cpp:141] Setting up ReLU103
I0619 14:56:42.535964 17898 net.cpp:148] Top shape: 128 64 8 8 (524288)
I0619 14:56:42.535969 17898 net.cpp:156] Memory required for data: 2897741312
I0619 14:56:42.535972 17898 layer_factory.hpp:77] Creating layer Eltwise51_ReLU103_0_split
I0619 14:56:42.535979 17898 net.cpp:91] Creating Layer Eltwise51_ReLU103_0_split
I0619 14:56:42.535981 17898 net.cpp:425] Eltwise51_ReLU103_0_split <- Eltwise51
I0619 14:56:42.535989 17898 net.cpp:399] Eltwise51_ReLU103_0_split -> Eltwise51_ReLU103_0_split_0
I0619 14:56:42.535997 17898 net.cpp:399] Eltwise51_ReLU103_0_split -> Eltwise51_ReLU103_0_split_1
I0619 14:56:42.536042 17898 net.cpp:141] Setting up Eltwise51_ReLU103_0_split
I0619 14:56:42.536062 17898 net.cpp:148] Top shape: 128 64 8 8 (524288)
I0619 14:56:42.536067 17898 net.cpp:148] Top shape: 128 64 8 8 (524288)
I0619 14:56:42.536072 17898 net.cpp:156] Memory required for data: 2901935616
I0619 14:56:42.536075 17898 layer_factory.hpp:77] Creating layer Convolution104
I0619 14:56:42.536085 17898 net.cpp:91] Creating Layer Convolution104
I0619 14:56:42.536090 17898 net.cpp:425] Convolution104 <- Eltwise51_ReLU103_0_split_0
I0619 14:56:42.536098 17898 net.cpp:399] Convolution104 -> Convolution104
I0619 14:56:42.537731 17898 net.cpp:141] Setting up Convolution104
I0619 14:56:42.537740 17898 net.cpp:148] Top shape: 128 64 8 8 (524288)
I0619 14:56:42.537744 17898 net.cpp:156] Memory required for data: 2904032768
I0619 14:56:42.537751 17898 layer_factory.hpp:77] Creating layer BatchNorm104
I0619 14:56:42.537760 17898 net.cpp:91] Creating Layer BatchNorm104
I0619 14:56:42.537765 17898 net.cpp:425] BatchNorm104 <- Convolution104
I0619 14:56:42.537771 17898 net.cpp:386] BatchNorm104 -> Convolution104 (in-place)
I0619 14:56:42.538000 17898 net.cpp:141] Setting up BatchNorm104
I0619 14:56:42.538008 17898 net.cpp:148] Top shape: 128 64 8 8 (524288)
I0619 14:56:42.538012 17898 net.cpp:156] Memory required for data: 2906129920
I0619 14:56:42.538020 17898 layer_factory.hpp:77] Creating layer Scale104
I0619 14:56:42.538028 17898 net.cpp:91] Creating Layer Scale104
I0619 14:56:42.538033 17898 net.cpp:425] Scale104 <- Convolution104
I0619 14:56:42.538038 17898 net.cpp:386] Scale104 -> Convolution104 (in-place)
I0619 14:56:42.538080 17898 layer_factory.hpp:77] Creating layer Scale104
I0619 14:56:42.538216 17898 net.cpp:141] Setting up Scale104
I0619 14:56:42.538224 17898 net.cpp:148] Top shape: 128 64 8 8 (524288)
I0619 14:56:42.538228 17898 net.cpp:156] Memory required for data: 2908227072
I0619 14:56:42.538235 17898 layer_factory.hpp:77] Creating layer ReLU104
I0619 14:56:42.538244 17898 net.cpp:91] Creating Layer ReLU104
I0619 14:56:42.538247 17898 net.cpp:425] ReLU104 <- Convolution104
I0619 14:56:42.538254 17898 net.cpp:386] ReLU104 -> Convolution104 (in-place)
I0619 14:56:42.538260 17898 net.cpp:141] Setting up ReLU104
I0619 14:56:42.538265 17898 net.cpp:148] Top shape: 128 64 8 8 (524288)
I0619 14:56:42.538269 17898 net.cpp:156] Memory required for data: 2910324224
I0619 14:56:42.538274 17898 layer_factory.hpp:77] Creating layer Convolution105
I0619 14:56:42.538285 17898 net.cpp:91] Creating Layer Convolution105
I0619 14:56:42.538288 17898 net.cpp:425] Convolution105 <- Convolution104
I0619 14:56:42.538295 17898 net.cpp:399] Convolution105 -> Convolution105
I0619 14:56:42.539939 17898 net.cpp:141] Setting up Convolution105
I0619 14:56:42.539950 17898 net.cpp:148] Top shape: 128 64 8 8 (524288)
I0619 14:56:42.539954 17898 net.cpp:156] Memory required for data: 2912421376
I0619 14:56:42.539961 17898 layer_factory.hpp:77] Creating layer BatchNorm105
I0619 14:56:42.539970 17898 net.cpp:91] Creating Layer BatchNorm105
I0619 14:56:42.539975 17898 net.cpp:425] BatchNorm105 <- Convolution105
I0619 14:56:42.539981 17898 net.cpp:386] BatchNorm105 -> Convolution105 (in-place)
I0619 14:56:42.540208 17898 net.cpp:141] Setting up BatchNorm105
I0619 14:56:42.540216 17898 net.cpp:148] Top shape: 128 64 8 8 (524288)
I0619 14:56:42.540220 17898 net.cpp:156] Memory required for data: 2914518528
I0619 14:56:42.540230 17898 layer_factory.hpp:77] Creating layer Scale105
I0619 14:56:42.540236 17898 net.cpp:91] Creating Layer Scale105
I0619 14:56:42.540241 17898 net.cpp:425] Scale105 <- Convolution105
I0619 14:56:42.540248 17898 net.cpp:386] Scale105 -> Convolution105 (in-place)
I0619 14:56:42.540287 17898 layer_factory.hpp:77] Creating layer Scale105
I0619 14:56:42.540426 17898 net.cpp:141] Setting up Scale105
I0619 14:56:42.540434 17898 net.cpp:148] Top shape: 128 64 8 8 (524288)
I0619 14:56:42.540437 17898 net.cpp:156] Memory required for data: 2916615680
I0619 14:56:42.540444 17898 layer_factory.hpp:77] Creating layer Eltwise52
I0619 14:56:42.540454 17898 net.cpp:91] Creating Layer Eltwise52
I0619 14:56:42.540472 17898 net.cpp:425] Eltwise52 <- Eltwise51_ReLU103_0_split_1
I0619 14:56:42.540477 17898 net.cpp:425] Eltwise52 <- Convolution105
I0619 14:56:42.540487 17898 net.cpp:399] Eltwise52 -> Eltwise52
I0619 14:56:42.540509 17898 net.cpp:141] Setting up Eltwise52
I0619 14:56:42.540516 17898 net.cpp:148] Top shape: 128 64 8 8 (524288)
I0619 14:56:42.540520 17898 net.cpp:156] Memory required for data: 2918712832
I0619 14:56:42.540524 17898 layer_factory.hpp:77] Creating layer ReLU105
I0619 14:56:42.540532 17898 net.cpp:91] Creating Layer ReLU105
I0619 14:56:42.540536 17898 net.cpp:425] ReLU105 <- Eltwise52
I0619 14:56:42.540542 17898 net.cpp:386] ReLU105 -> Eltwise52 (in-place)
I0619 14:56:42.540549 17898 net.cpp:141] Setting up ReLU105
I0619 14:56:42.540555 17898 net.cpp:148] Top shape: 128 64 8 8 (524288)
I0619 14:56:42.540558 17898 net.cpp:156] Memory required for data: 2920809984
I0619 14:56:42.540561 17898 layer_factory.hpp:77] Creating layer Eltwise52_ReLU105_0_split
I0619 14:56:42.540567 17898 net.cpp:91] Creating Layer Eltwise52_ReLU105_0_split
I0619 14:56:42.540571 17898 net.cpp:425] Eltwise52_ReLU105_0_split <- Eltwise52
I0619 14:56:42.540580 17898 net.cpp:399] Eltwise52_ReLU105_0_split -> Eltwise52_ReLU105_0_split_0
I0619 14:56:42.540587 17898 net.cpp:399] Eltwise52_ReLU105_0_split -> Eltwise52_ReLU105_0_split_1
I0619 14:56:42.540627 17898 net.cpp:141] Setting up Eltwise52_ReLU105_0_split
I0619 14:56:42.540633 17898 net.cpp:148] Top shape: 128 64 8 8 (524288)
I0619 14:56:42.540638 17898 net.cpp:148] Top shape: 128 64 8 8 (524288)
I0619 14:56:42.540642 17898 net.cpp:156] Memory required for data: 2925004288
I0619 14:56:42.540647 17898 layer_factory.hpp:77] Creating layer Convolution106
I0619 14:56:42.540657 17898 net.cpp:91] Creating Layer Convolution106
I0619 14:56:42.540663 17898 net.cpp:425] Convolution106 <- Eltwise52_ReLU105_0_split_0
I0619 14:56:42.540669 17898 net.cpp:399] Convolution106 -> Convolution106
I0619 14:56:42.542310 17898 net.cpp:141] Setting up Convolution106
I0619 14:56:42.542320 17898 net.cpp:148] Top shape: 128 64 8 8 (524288)
I0619 14:56:42.542325 17898 net.cpp:156] Memory required for data: 2927101440
I0619 14:56:42.542331 17898 layer_factory.hpp:77] Creating layer BatchNorm106
I0619 14:56:42.542341 17898 net.cpp:91] Creating Layer BatchNorm106
I0619 14:56:42.542347 17898 net.cpp:425] BatchNorm106 <- Convolution106
I0619 14:56:42.542357 17898 net.cpp:386] BatchNorm106 -> Convolution106 (in-place)
I0619 14:56:42.542601 17898 net.cpp:141] Setting up BatchNorm106
I0619 14:56:42.542610 17898 net.cpp:148] Top shape: 128 64 8 8 (524288)
I0619 14:56:42.542614 17898 net.cpp:156] Memory required for data: 2929198592
I0619 14:56:42.542623 17898 layer_factory.hpp:77] Creating layer Scale106
I0619 14:56:42.542629 17898 net.cpp:91] Creating Layer Scale106
I0619 14:56:42.542634 17898 net.cpp:425] Scale106 <- Convolution106
I0619 14:56:42.542640 17898 net.cpp:386] Scale106 -> Convolution106 (in-place)
I0619 14:56:42.542686 17898 layer_factory.hpp:77] Creating layer Scale106
I0619 14:56:42.542835 17898 net.cpp:141] Setting up Scale106
I0619 14:56:42.542843 17898 net.cpp:148] Top shape: 128 64 8 8 (524288)
I0619 14:56:42.542847 17898 net.cpp:156] Memory required for data: 2931295744
I0619 14:56:42.542855 17898 layer_factory.hpp:77] Creating layer ReLU106
I0619 14:56:42.542860 17898 net.cpp:91] Creating Layer ReLU106
I0619 14:56:42.542865 17898 net.cpp:425] ReLU106 <- Convolution106
I0619 14:56:42.542873 17898 net.cpp:386] ReLU106 -> Convolution106 (in-place)
I0619 14:56:42.542881 17898 net.cpp:141] Setting up ReLU106
I0619 14:56:42.542886 17898 net.cpp:148] Top shape: 128 64 8 8 (524288)
I0619 14:56:42.542889 17898 net.cpp:156] Memory required for data: 2933392896
I0619 14:56:42.542893 17898 layer_factory.hpp:77] Creating layer Convolution107
I0619 14:56:42.542906 17898 net.cpp:91] Creating Layer Convolution107
I0619 14:56:42.542911 17898 net.cpp:425] Convolution107 <- Convolution106
I0619 14:56:42.542917 17898 net.cpp:399] Convolution107 -> Convolution107
I0619 14:56:42.544558 17898 net.cpp:141] Setting up Convolution107
I0619 14:56:42.544579 17898 net.cpp:148] Top shape: 128 64 8 8 (524288)
I0619 14:56:42.544584 17898 net.cpp:156] Memory required for data: 2935490048
I0619 14:56:42.544590 17898 layer_factory.hpp:77] Creating layer BatchNorm107
I0619 14:56:42.544597 17898 net.cpp:91] Creating Layer BatchNorm107
I0619 14:56:42.544602 17898 net.cpp:425] BatchNorm107 <- Convolution107
I0619 14:56:42.544611 17898 net.cpp:386] BatchNorm107 -> Convolution107 (in-place)
I0619 14:56:42.544845 17898 net.cpp:141] Setting up BatchNorm107
I0619 14:56:42.544853 17898 net.cpp:148] Top shape: 128 64 8 8 (524288)
I0619 14:56:42.544857 17898 net.cpp:156] Memory required for data: 2937587200
I0619 14:56:42.544865 17898 layer_factory.hpp:77] Creating layer Scale107
I0619 14:56:42.544872 17898 net.cpp:91] Creating Layer Scale107
I0619 14:56:42.544878 17898 net.cpp:425] Scale107 <- Convolution107
I0619 14:56:42.544885 17898 net.cpp:386] Scale107 -> Convolution107 (in-place)
I0619 14:56:42.544924 17898 layer_factory.hpp:77] Creating layer Scale107
I0619 14:56:42.545063 17898 net.cpp:141] Setting up Scale107
I0619 14:56:42.545071 17898 net.cpp:148] Top shape: 128 64 8 8 (524288)
I0619 14:56:42.545075 17898 net.cpp:156] Memory required for data: 2939684352
I0619 14:56:42.545083 17898 layer_factory.hpp:77] Creating layer Eltwise53
I0619 14:56:42.545089 17898 net.cpp:91] Creating Layer Eltwise53
I0619 14:56:42.545094 17898 net.cpp:425] Eltwise53 <- Eltwise52_ReLU105_0_split_1
I0619 14:56:42.545099 17898 net.cpp:425] Eltwise53 <- Convolution107
I0619 14:56:42.545109 17898 net.cpp:399] Eltwise53 -> Eltwise53
I0619 14:56:42.545130 17898 net.cpp:141] Setting up Eltwise53
I0619 14:56:42.545136 17898 net.cpp:148] Top shape: 128 64 8 8 (524288)
I0619 14:56:42.545140 17898 net.cpp:156] Memory required for data: 2941781504
I0619 14:56:42.545145 17898 layer_factory.hpp:77] Creating layer ReLU107
I0619 14:56:42.545152 17898 net.cpp:91] Creating Layer ReLU107
I0619 14:56:42.545156 17898 net.cpp:425] ReLU107 <- Eltwise53
I0619 14:56:42.545162 17898 net.cpp:386] ReLU107 -> Eltwise53 (in-place)
I0619 14:56:42.545168 17898 net.cpp:141] Setting up ReLU107
I0619 14:56:42.545174 17898 net.cpp:148] Top shape: 128 64 8 8 (524288)
I0619 14:56:42.545178 17898 net.cpp:156] Memory required for data: 2943878656
I0619 14:56:42.545181 17898 layer_factory.hpp:77] Creating layer Eltwise53_ReLU107_0_split
I0619 14:56:42.545188 17898 net.cpp:91] Creating Layer Eltwise53_ReLU107_0_split
I0619 14:56:42.545192 17898 net.cpp:425] Eltwise53_ReLU107_0_split <- Eltwise53
I0619 14:56:42.545197 17898 net.cpp:399] Eltwise53_ReLU107_0_split -> Eltwise53_ReLU107_0_split_0
I0619 14:56:42.545207 17898 net.cpp:399] Eltwise53_ReLU107_0_split -> Eltwise53_ReLU107_0_split_1
I0619 14:56:42.545253 17898 net.cpp:141] Setting up Eltwise53_ReLU107_0_split
I0619 14:56:42.545260 17898 net.cpp:148] Top shape: 128 64 8 8 (524288)
I0619 14:56:42.545265 17898 net.cpp:148] Top shape: 128 64 8 8 (524288)
I0619 14:56:42.545269 17898 net.cpp:156] Memory required for data: 2948072960
I0619 14:56:42.545274 17898 layer_factory.hpp:77] Creating layer Convolution108
I0619 14:56:42.545284 17898 net.cpp:91] Creating Layer Convolution108
I0619 14:56:42.545289 17898 net.cpp:425] Convolution108 <- Eltwise53_ReLU107_0_split_0
I0619 14:56:42.545296 17898 net.cpp:399] Convolution108 -> Convolution108
I0619 14:56:42.547541 17898 net.cpp:141] Setting up Convolution108
I0619 14:56:42.547556 17898 net.cpp:148] Top shape: 128 64 8 8 (524288)
I0619 14:56:42.547561 17898 net.cpp:156] Memory required for data: 2950170112
I0619 14:56:42.547569 17898 layer_factory.hpp:77] Creating layer BatchNorm108
I0619 14:56:42.547577 17898 net.cpp:91] Creating Layer BatchNorm108
I0619 14:56:42.547582 17898 net.cpp:425] BatchNorm108 <- Convolution108
I0619 14:56:42.547591 17898 net.cpp:386] BatchNorm108 -> Convolution108 (in-place)
I0619 14:56:42.547829 17898 net.cpp:141] Setting up BatchNorm108
I0619 14:56:42.547837 17898 net.cpp:148] Top shape: 128 64 8 8 (524288)
I0619 14:56:42.547845 17898 net.cpp:156] Memory required for data: 2952267264
I0619 14:56:42.547868 17898 layer_factory.hpp:77] Creating layer Scale108
I0619 14:56:42.547875 17898 net.cpp:91] Creating Layer Scale108
I0619 14:56:42.547880 17898 net.cpp:425] Scale108 <- Convolution108
I0619 14:56:42.547889 17898 net.cpp:386] Scale108 -> Convolution108 (in-place)
I0619 14:56:42.547932 17898 layer_factory.hpp:77] Creating layer Scale108
I0619 14:56:42.548074 17898 net.cpp:141] Setting up Scale108
I0619 14:56:42.548082 17898 net.cpp:148] Top shape: 128 64 8 8 (524288)
I0619 14:56:42.548086 17898 net.cpp:156] Memory required for data: 2954364416
I0619 14:56:42.548094 17898 layer_factory.hpp:77] Creating layer ReLU108
I0619 14:56:42.548100 17898 net.cpp:91] Creating Layer ReLU108
I0619 14:56:42.548105 17898 net.cpp:425] ReLU108 <- Convolution108
I0619 14:56:42.548110 17898 net.cpp:386] ReLU108 -> Convolution108 (in-place)
I0619 14:56:42.548117 17898 net.cpp:141] Setting up ReLU108
I0619 14:56:42.548123 17898 net.cpp:148] Top shape: 128 64 8 8 (524288)
I0619 14:56:42.548127 17898 net.cpp:156] Memory required for data: 2956461568
I0619 14:56:42.548131 17898 layer_factory.hpp:77] Creating layer Convolution109
I0619 14:56:42.548142 17898 net.cpp:91] Creating Layer Convolution109
I0619 14:56:42.548147 17898 net.cpp:425] Convolution109 <- Convolution108
I0619 14:56:42.548156 17898 net.cpp:399] Convolution109 -> Convolution109
I0619 14:56:42.549793 17898 net.cpp:141] Setting up Convolution109
I0619 14:56:42.549801 17898 net.cpp:148] Top shape: 128 64 8 8 (524288)
I0619 14:56:42.549805 17898 net.cpp:156] Memory required for data: 2958558720
I0619 14:56:42.549813 17898 layer_factory.hpp:77] Creating layer BatchNorm109
I0619 14:56:42.549823 17898 net.cpp:91] Creating Layer BatchNorm109
I0619 14:56:42.549828 17898 net.cpp:425] BatchNorm109 <- Convolution109
I0619 14:56:42.549835 17898 net.cpp:386] BatchNorm109 -> Convolution109 (in-place)
I0619 14:56:42.550068 17898 net.cpp:141] Setting up BatchNorm109
I0619 14:56:42.550076 17898 net.cpp:148] Top shape: 128 64 8 8 (524288)
I0619 14:56:42.550081 17898 net.cpp:156] Memory required for data: 2960655872
I0619 14:56:42.550088 17898 layer_factory.hpp:77] Creating layer Scale109
I0619 14:56:42.550097 17898 net.cpp:91] Creating Layer Scale109
I0619 14:56:42.550102 17898 net.cpp:425] Scale109 <- Convolution109
I0619 14:56:42.550108 17898 net.cpp:386] Scale109 -> Convolution109 (in-place)
I0619 14:56:42.550149 17898 layer_factory.hpp:77] Creating layer Scale109
I0619 14:56:42.550287 17898 net.cpp:141] Setting up Scale109
I0619 14:56:42.550293 17898 net.cpp:148] Top shape: 128 64 8 8 (524288)
I0619 14:56:42.550297 17898 net.cpp:156] Memory required for data: 2962753024
I0619 14:56:42.550304 17898 layer_factory.hpp:77] Creating layer Eltwise54
I0619 14:56:42.550315 17898 net.cpp:91] Creating Layer Eltwise54
I0619 14:56:42.550321 17898 net.cpp:425] Eltwise54 <- Eltwise53_ReLU107_0_split_1
I0619 14:56:42.550328 17898 net.cpp:425] Eltwise54 <- Convolution109
I0619 14:56:42.550333 17898 net.cpp:399] Eltwise54 -> Eltwise54
I0619 14:56:42.550365 17898 net.cpp:141] Setting up Eltwise54
I0619 14:56:42.550374 17898 net.cpp:148] Top shape: 128 64 8 8 (524288)
I0619 14:56:42.550377 17898 net.cpp:156] Memory required for data: 2964850176
I0619 14:56:42.550381 17898 layer_factory.hpp:77] Creating layer ReLU109
I0619 14:56:42.550387 17898 net.cpp:91] Creating Layer ReLU109
I0619 14:56:42.550392 17898 net.cpp:425] ReLU109 <- Eltwise54
I0619 14:56:42.550397 17898 net.cpp:386] ReLU109 -> Eltwise54 (in-place)
I0619 14:56:42.550405 17898 net.cpp:141] Setting up ReLU109
I0619 14:56:42.550410 17898 net.cpp:148] Top shape: 128 64 8 8 (524288)
I0619 14:56:42.550415 17898 net.cpp:156] Memory required for data: 2966947328
I0619 14:56:42.550417 17898 layer_factory.hpp:77] Creating layer Pooling4
I0619 14:56:42.550427 17898 net.cpp:91] Creating Layer Pooling4
I0619 14:56:42.550431 17898 net.cpp:425] Pooling4 <- Eltwise54
I0619 14:56:42.550437 17898 net.cpp:399] Pooling4 -> Pooling4
I0619 14:56:42.550467 17898 net.cpp:141] Setting up Pooling4
I0619 14:56:42.550477 17898 net.cpp:148] Top shape: 128 64 1 1 (8192)
I0619 14:56:42.550492 17898 net.cpp:156] Memory required for data: 2966980096
I0619 14:56:42.550495 17898 layer_factory.hpp:77] Creating layer InnerProduct1
I0619 14:56:42.550504 17898 net.cpp:91] Creating Layer InnerProduct1
I0619 14:56:42.550509 17898 net.cpp:425] InnerProduct1 <- Pooling4
I0619 14:56:42.550518 17898 net.cpp:399] InnerProduct1 -> InnerProduct1
I0619 14:56:42.550676 17898 net.cpp:141] Setting up InnerProduct1
I0619 14:56:42.550686 17898 net.cpp:148] Top shape: 128 10 (1280)
I0619 14:56:42.550690 17898 net.cpp:156] Memory required for data: 2966985216
I0619 14:56:42.550698 17898 layer_factory.hpp:77] Creating layer InnerProduct1_InnerProduct1_0_split
I0619 14:56:42.550704 17898 net.cpp:91] Creating Layer InnerProduct1_InnerProduct1_0_split
I0619 14:56:42.550709 17898 net.cpp:425] InnerProduct1_InnerProduct1_0_split <- InnerProduct1
I0619 14:56:42.550716 17898 net.cpp:399] InnerProduct1_InnerProduct1_0_split -> InnerProduct1_InnerProduct1_0_split_0
I0619 14:56:42.550724 17898 net.cpp:399] InnerProduct1_InnerProduct1_0_split -> InnerProduct1_InnerProduct1_0_split_1
I0619 14:56:42.550762 17898 net.cpp:141] Setting up InnerProduct1_InnerProduct1_0_split
I0619 14:56:42.550770 17898 net.cpp:148] Top shape: 128 10 (1280)
I0619 14:56:42.550775 17898 net.cpp:148] Top shape: 128 10 (1280)
I0619 14:56:42.550777 17898 net.cpp:156] Memory required for data: 2966995456
I0619 14:56:42.550781 17898 layer_factory.hpp:77] Creating layer Accuracy
I0619 14:56:42.550789 17898 net.cpp:91] Creating Layer Accuracy
I0619 14:56:42.550793 17898 net.cpp:425] Accuracy <- InnerProduct1_InnerProduct1_0_split_0
I0619 14:56:42.550798 17898 net.cpp:425] Accuracy <- Data2_Data1_1_split_0
I0619 14:56:42.550806 17898 net.cpp:399] Accuracy -> Accuracy
…
