…
stepvalue: 150000
type: "Nesterov"
I0619 14:48:21.393102 17263 solver.cpp:316] Creating training net from train_net file: examples/stochastic_depth/residual_train54.prototxt
I0619 14:48:21.408360 17263 net.cpp:417] Initializing net from parameters: 
state {
  phase: TRAIN
}
layer {
  name: "Data1"
  type: "Data"
  top: "Data1"
  top: "Data2"
  transform_param {
    mirror: true
    crop_size: 32
  }
  data_param {
    source: "/scratch/pas282/caffe/examples/cifar10/cifar10_train_leveldb_padding1"
    batch_size: 128
    backend: LEVELDB
  }
}
layer {
  name: "Convolution1"
  type: "Convolution"
  bottom: "Data1"
  top: "Convolution1"
  convolution_param {
    num_output: 16
    bias_term: true
    pad: 1
    kernel_size: 3
    stride: 1
    weight_filler {
      type: "msra"
    }
    bias_filler {
      type: "constant"
    }
  }
}
layer {
  name: "BatchNorm1"
  type: "BatchNorm"
  bottom: "Convolution1"
  top: "Convolution1"
  param {
    lr_mult: 0
    decay_mult: 0
  }
  param {
    lr_mult: 0
    decay_mult: 0
  }
  param {
    lr_mult: 0
    decay_mult: 0
  }
}
layer {
  name: "Scale1"
  type: "Scale"
  bottom: "Convolution1"
  top: "Convolution1"
  scale_param {
    bias_term: true
  }
}
layer {
  name: "ReLU1"
  type: "ReLU"
  bottom: "Convolution1"
  top: "Convolution1"
}
layer {
  name: "Convolution2"
  type: "Convolution"
  bottom: "Convolution1"
  top: "Convolution2"
  convolution_param {
    num_output: 16
    bias_term: true
    pad: 1
    kernel_size: 3
    stride: 1
    weight_filler {
      type: "msra"
    }
    bias_filler {
      type: "constant"
    }
  }
}
layer {
  name: "BatchNorm2"
  type: "BatchNorm"
  bottom: "Convolution2"
  top: "Convolution2"
  param {
    lr_mult: 0
    decay_mult: 0
  }
  param {
    lr_mult: 0
    decay_mult: 0
  }
  param {
    lr_mult: 0
    decay_mult: 0
  }
}
layer {
  name: "Scale2"
  type: "Scale"
  bottom: "Convolution2"
  top: "Convolution2"
  scale_param {
    bias_term: true
  }
}
layer {
  name: "ReLU2"
  type: "ReLU"
  bottom: "Convolution2"
  top: "Convolution2"
}
layer {
  name: "Convolution3"
  type: "Convolution"
  bottom: "Convolution2"
  top: "Convolution3"
  convolution_param {
    num_output: 16
    bias_term: true
    pad: 1
    kernel_size: 3
    stride: 1
    weight_filler {
      type: "msra"
    }
    bias_filler {
      type: "constant"
    }
  }
}
layer {
  name: "BatchNorm3"
  type: "BatchNorm"
  bottom: "Convolution3"
  top: "Convolution3"
  param {
    lr_mult: 0
    decay_mult: 0
  }
  param {
    lr_mult: 0
    decay_mult: 0
  }
  param {
    lr_mult: 0
    decay_mult: 0
  }
}
layer {
  name: "Scale3"
  type: "Scale"
  bottom: "Convolution3"
  top: "Convolution3"
  scale_param {
    bias_term: true
  }
}
layer {
  name: "Eltwise1"
  type: "Eltwise"
  bottom: "Convolution1"
  bottom: "Convolution3"
  top: "Eltwise1"
  eltwise_param {
    operation: SUM
  }
}
layer {
  name: "ReLU3"
  type: "ReLU"
  bottom: "Eltwise1"
  top: "Eltwise1"
}
layer {
  name: "Convolution4"
  type: "Convolution"
  bottom: "Eltwise1"
  top: "Convolution4"
  convolution_param {
    num_output: 16
    bias_term: true
    pad: 1
    kernel_size: 3
    stride: 1
    weight_filler {
      type: "msra"
    }
    bias_filler {
      type: "constant"
    }
  }
}
layer {
  name: "BatchNorm4"
  type: "BatchNorm"
  bottom: "Convolution4"
  top: "Convolution4"
  param {
    lr_mult: 0
    decay_mult: 0
  }
  param {
    lr_mult: 0
    decay_mult: 0
  }
  param {
    lr_mult: 0
    decay_mult: 0
  }
}
layer {
  name: "Scale4"
  type: "Scale"
  bottom: "Convolution4"
  top: "Convolution4"
  scale_param {
    bias_term: true
  }
}
layer {
  name: "ReLU4"
  type: "ReLU"
  bottom: "Convolution4"
  top: "Convolution4"
}
layer {
  name: "Convolution5"
  type: "Convolution"
  bottom: "Convolution4"
  top: "Convolution5"
  convolution_param {
    num_output: 16
    bias_term: true
    pad: 1
    kernel_size: 3
    stride: 1
    weight_filler {
      type: "msra"
    }
    bias_filler {
      type: "constant"
    }
  }
}
layer {
  name: "BatchNorm5"
  type: "BatchNorm"
  bottom: "Convolution5"
  top: "Convolution5"
  param {
    lr_mult: 0
    decay_mult: 0
  }
  param {
    lr_mult: 0
    decay_mult: 0
  }
  param {
    lr_mult: 0
    decay_mult: 0
  }
}
layer {
  name: "Scale5"
  type: "Scale"
  bottom: "Convolution5"
  top: "Convolution5"
  scale_param {
    bias_term: true
  }
}
layer {
  name: "Eltwise2"
  type: "Eltwise"
  bottom: "Eltwise1"
  bottom: "Convolution5"
  top: "Eltwise2"
  eltwise_param {
    operation: SUM
  }
}
layer {
  name: "ReLU5"
  type: "ReLU"
  bottom: "Eltwise2"
  top: "Eltwise2"
}
layer {
  name: "Convolution6"
  type: "Convolution"
  bottom: "Eltwise2"
  top: "Convolution6"
  convolution_param {
    num_output: 16
    bias_term: true
    pad: 1
    kernel_size: 3
    stride: 1
    weight_filler {
      type: "msra"
    }
    bias_filler {
      type: "constant"
    }
  }
}
layer {
  name: "BatchNorm6"
  type: "BatchNorm"
  bottom: "Convolution6"
  top: "Convolution6"
  param {
    lr_mult: 0
    decay_mult: 0
  }
  param {
    lr_mult: 0
    decay_mult: 0
  }
  param {
    lr_mult: 0
    decay_mult: 0
  }
}
layer {
  name: "Scale6"
  type: "Scale"
  bottom: "Convolution6"
  top: "Convolution6"
  scale_param {
    bias_term: true
  }
}
layer {
  name: "ReLU6"
  type: "ReLU"
  bottom: "Convolution6"
  top: "Convolution6"
}
layer {
  name: "Convolution7"
  type: "Convolution"
  bottom: "Convolution6"
  top: "Convolution7"
  convolution_param {
    num_output: 16
    bias_term: true
    pad: 1
    kernel_size: 3
    stride: 1
    weight_filler {
      type: "msra"
    }
    bias_filler {
      type: "constant"
    }
  }
}
layer {
  name: "BatchNorm7"
  type: "BatchNorm"
  bottom: "Convolution7"
  top: "Convolution7"
  param {
    lr_mult: 0
    decay_mult: 0
  }
  param {
    lr_mult: 0
    decay_mult: 0
  }
  param {
    lr_mult: 0
    decay_mult: 0
  }
}
layer {
  name: "Scale7"
  type: "Scale"
  bottom: "Convolution7"
  top: "Convolution7"
  scale_param {
    bias_term: true
  }
}
layer {
  name: "Eltwise3"
  type: "Eltwise"
  bottom: "Eltwise2"
  bottom: "Convolution7"
  top: "Eltwise3"
  eltwise_param {
    operation: SUM
  }
}
layer {
  name: "ReLU7"
  type: "ReLU"
  bottom: "Eltwise3"
  top: "Eltwise3"
}
layer {
  name: "Convolution8"
  type: "Convolution"
  bottom: "Eltwise3"
  top: "Convolution8"
  convolution_param {
    num_output: 16
    bias_term: true
    pad: 1
    kernel_size: 3
    stride: 1
    weight_filler {
      type: "msra"
    }
    bias_filler {
      type: "constant"
    }
  }
}
layer {
  name: "BatchNorm8"
  type: "BatchNorm"
  bottom: "Convolution8"
  top: "Convolution8"
  param {
    lr_mult: 0
    decay_mult: 0
  }
  param {
    lr_mult: 0
    decay_mult: 0
  }
  param {
    lr_mult: 0
    decay_mult: 0
  }
}
layer {
  name: "Scale8"
  type: "Scale"
  bottom: "Convolution8"
  top: "Convolution8"
  scale_param {
    bias_term: true
  }
}
layer {
  name: "ReLU8"
  type: "ReLU"
  bottom: "Convolution8"
  top: "Convolution8"
}
layer {
  name: "Convolution9"
  type: "Convolution"
  bottom: "Convolution8"
  top: "Convolution9"
  convolution_param {
    num_output: 16
    bias_term: true
    pad: 1
    kernel_size: 3
    stride: 1
    weight_filler {
      type: "msra"
    }
    bias_filler {
      type: "constant"
    }
  }
}
layer {
  name: "BatchNorm9"
  type: "BatchNorm"
  bottom: "Convolution9"
  top: "Convolution9"
  param {
    lr_mult: 0
    decay_mult: 0
  }
  param {
    lr_mult: 0
    decay_mult: 0
  }
  param {
    lr_mult: 0
    decay_mult: 0
  }
}
layer {
  name: "Scale9"
  type: "Scale"
  bottom: "Convolution9"
  top: "Convolution9"
  scale_param {
    bias_term: true
  }
}
layer {
  name: "Eltwise4"
  type: "Eltwise"
  bottom: "Eltwise3"
  bottom: "Convolution9"
  top: "Eltwise4"
  eltwise_param {
    operation: SUM
  }
}
layer {
  name: "ReLU9"
  type: "ReLU"
  bottom: "Eltwise4"
  top: "Eltwise4"
}
layer {
  name: "Convolution10"
  type: "Convolution"
  bottom: "Eltwise4"
  top: "Convolution10"
  convolution_param {
    num_output: 16
    bias_term: true
    pad: 1
    kernel_size: 3
    stride: 1
    weight_filler {
      type: "msra"
    }
    bias_filler {
      type: "constant"
    }
  }
}
layer {
  name: "BatchNorm10"
  type: "BatchNorm"
  bottom: "Convolution10"
  top: "Convolution10"
  param {
    lr_mult: 0
    decay_mult: 0
  }
  param {
    lr_mult: 0
    decay_mult: 0
  }
  param {
    lr_mult: 0
    decay_mult: 0
  }
}
layer {
  name: "Scale10"
  type: "Scale"
  bottom: "Convolution10"
  top: "Convolution10"
  scale_param {
    bias_term: true
  }
}
layer {
  name: "ReLU10"
  type: "ReLU"
  bottom: "Convolution10"
  top: "Convolution10"
}
layer {
  name: "Convolution11"
  type: "Convolution"
  bottom: "Convolution10"
  top: "Convolution11"
  convolution_param {
    num_output: 16
    bias_term: true
    pad: 1
    kernel_size: 3
    stride: 1
    weight_filler {
      type: "msra"
    }
    bias_filler {
      type: "constant"
    }
  }
}
layer {
  name: "BatchNorm11"
  type: "BatchNorm"
  bottom: "Convolution11"
  top: "Convolution11"
  param {
    lr_mult: 0
    decay_mult: 0
  }
  param {
    lr_mult: 0
    decay_mult: 0
  }
  param {
    lr_mult: 0
    decay_mult: 0
  }
}
layer {
  name: "Scale11"
  type: "Scale"
  bottom: "Convolution11"
  top: "Convolution11"
  scale_param {
    bias_term: true
  }
}
layer {
  name: "Eltwise5"
  type: "Eltwise"
  bottom: "Eltwise4"
  bottom: "Convolution11"
  top: "Eltwise5"
  eltwise_param {
    operation: SUM
  }
}
layer {
  name: "ReLU11"
  type: "ReLU"
  bottom: "Eltwise5"
  top: "Eltwise5"
}
layer {
  name: "Convolution12"
  type: "Convolution"
  bottom: "Eltwise5"
  top: "Convolution12"
  convolution_param {
    num_output: 16
    bias_term: true
    pad: 1
    kernel_size: 3
    stride: 1
    weight_filler {
      type: "msra"
    }
    bias_filler {
      type: "constant"
    }
  }
}
layer {
  name: "BatchNorm12"
  type: "BatchNorm"
  bottom: "Convolution12"
  top: "Convolution12"
  param {
    lr_mult: 0
    decay_mult: 0
  }
  param {
    lr_mult: 0
    decay_mult: 0
  }
  param {
    lr_mult: 0
    decay_mult: 0
  }
}
layer {
  name: "Scale12"
  type: "Scale"
  bottom: "Convolution12"
  top: "Convolution12"
  scale_param {
    bias_term: true
  }
}
layer {
  name: "ReLU12"
  type: "ReLU"
  bottom: "Convolution12"
  top: "Convolution12"
}
layer {
  name: "Convolution13"
  type: "Convolution"
  bottom: "Convolution12"
  top: "Convolution13"
  convolution_param {
    num_output: 16
    bias_term: true
    pad: 1
    kernel_size: 3
    stride: 1
    weight_filler {
      type: "msra"
    }
    bias_filler {
      type: "constant"
    }
  }
}
layer {
  name: "BatchNorm13"
  type: "BatchNorm"
  bottom: "Convolution13"
  top: "Convolution13"
  param {
    lr_mult: 0
    decay_mult: 0
  }
  param {
    lr_mult: 0
    decay_mult: 0
  }
  param {
    lr_mult: 0
    decay_mult: 0
  }
}
layer {
  name: "Scale13"
  type: "Scale"
  bottom: "Convolution13"
  top: "Convolution13"
  scale_param {
    bias_term: true
  }
}
layer {
  name: "Eltwise6"
  type: "Eltwise"
  bottom: "Eltwise5"
  bottom: "Convolution13"
  top: "Eltwise6"
  eltwise_param {
    operation: SUM
  }
}
layer {
  name: "ReLU13"
  type: "ReLU"
  bottom: "Eltwise6"
  top: "Eltwise6"
}
layer {
  name: "Convolution14"
  type: "Convolution"
  bottom: "Eltwise6"
  top: "Convolution14"
  convolution_param {
    num_output: 16
    bias_term: true
    pad: 1
    kernel_size: 3
    stride: 1
    weight_filler {
      type: "msra"
    }
    bias_filler {
      type: "constant"
    }
  }
}
layer {
  name: "BatchNorm14"
  type: "BatchNorm"
  bottom: "Convolution14"
  top: "Convolution14"
  param {
    lr_mult: 0
    decay_mult: 0
  }
  param {
    lr_mult: 0
    decay_mult: 0
  }
  param {
    lr_mult: 0
    decay_mult: 0
  }
}
layer {
  name: "Scale14"
  type: "Scale"
  bottom: "Convolution14"
  top: "Convolution14"
  scale_param {
    bias_term: true
  }
}
layer {
  name: "ReLU14"
  type: "ReLU"
  bottom: "Convolution14"
  top: "Convolution14"
}
layer {
  name: "Convolution15"
  type: "Convolution"
  bottom: "Convolution14"
  top: "Convolution15"
  convolution_param {
    num_output: 16
    bias_term: true
    pad: 1
    kernel_size: 3
    stride: 1
    weight_filler {
      type: "msra"
    }
    bias_filler {
      type: "constant"
    }
  }
}
layer {
  name: "BatchNorm15"
  type: "BatchNorm"
  bottom: "Convolution15"
  top: "Convolution15"
  param {
    lr_mult: 0
    decay_mult: 0
  }
  param {
    lr_mult: 0
    decay_mult: 0
  }
  param {
    lr_mult: 0
    decay_mult: 0
  }
}
layer {
  name: "Scale15"
  type: "Scale"
  bottom: "Convolution15"
  top: "Convolution15"
  scale_param {
    bias_term: true
  }
}
layer {
  name: "Eltwise7"
  type: "Eltwise"
  bottom: "Eltwise6"
  bottom: "Convolution15"
  top: "Eltwise7"
  eltwise_param {
    operation: SUM
  }
}
layer {
  name: "ReLU15"
  type: "ReLU"
  bottom: "Eltwise7"
  top: "Eltwise7"
}
layer {
  name: "Convolution16"
  type: "Convolution"
  bottom: "Eltwise7"
  top: "Convolution16"
  convolution_param {
    num_output: 16
    bias_term: true
    pad: 1
    kernel_size: 3
    stride: 1
    weight_filler {
      type: "msra"
    }
    bias_filler {
      type: "constant"
    }
  }
}
layer {
  name: "BatchNorm16"
  type: "BatchNorm"
  bottom: "Convolution16"
  top: "Convolution16"
  param {
    lr_mult: 0
    decay_mult: 0
  }
  param {
    lr_mult: 0
    decay_mult: 0
  }
  param {
    lr_mult: 0
    decay_mult: 0
  }
}
layer {
  name: "Scale16"
  type: "Scale"
  bottom: "Convolution16"
  top: "Convolution16"
  scale_param {
    bias_term: true
  }
}
layer {
  name: "ReLU16"
  type: "ReLU"
  bottom: "Convolution16"
  top: "Convolution16"
}
layer {
  name: "Convolution17"
  type: "Convolution"
  bottom: "Convolution16"
  top: "Convolution17"
  convolution_param {
    num_output: 16
    bias_term: true
    pad: 1
    kernel_size: 3
    stride: 1
    weight_filler {
      type: "msra"
    }
    bias_filler {
      type: "constant"
    }
  }
}
layer {
  name: "BatchNorm17"
  type: "BatchNorm"
  bottom: "Convolution17"
  top: "Convolution17"
  param {
    lr_mult: 0
    decay_mult: 0
  }
  param {
    lr_mult: 0
    decay_mult: 0
  }
  param {
    lr_mult: 0
    decay_mult: 0
  }
}
layer {
  name: "Scale17"
  type: "Scale"
  bottom: "Convolution17"
  top: "Convolution17"
  scale_param {
    bias_term: true
  }
}
layer {
  name: "Eltwise8"
  type: "Eltwise"
  bottom: "Eltwise7"
  bottom: "Convolution17"
  top: "Eltwise8"
  eltwise_param {
    operation: SUM
  }
}
layer {
  name: "ReLU17"
  type: "ReLU"
  bottom: "Eltwise8"
  top: "Eltwise8"
}
layer {
  name: "Convolution18"
  type: "Convolution"
  bottom: "Eltwise8"
  top: "Convolution18"
  convolution_param {
    num_output: 16
    bias_term: true
    pad: 1
    kernel_size: 3
    stride: 1
    weight_filler {
      type: "msra"
    }
    bias_filler {
      type: "constant"
    }
  }
}
layer {
  name: "BatchNorm18"
  type: "BatchNorm"
  bottom: "Convolution18"
  top: "Convolution18"
  param {
    lr_mult: 0
    decay_mult: 0
  }
  param {
    lr_mult: 0
    decay_mult: 0
  }
  param {
    lr_mult: 0
    decay_mult: 0
  }
}
layer {
  name: "Scale18"
  type: "Scale"
  bottom: "Convolution18"
  top: "Convolution18"
  scale_param {
    bias_term: true
  }
}
layer {
  name: "ReLU18"
  type: "ReLU"
  bottom: "Convolution18"
  top: "Convolution18"
}
layer {
  name: "Convolution19"
  type: "Convolution"
  bottom: "Convolution18"
  top: "Convolution19"
  convolution_param {
    num_output: 16
    bias_term: true
    pad: 1
    kernel_size: 3
    stride: 1
    weight_filler {
      type: "msra"
    }
    bias_filler {
      type: "constant"
    }
  }
}
layer {
  name: "BatchNorm19"
  type: "BatchNorm"
  bottom: "Convolution19"
  top: "Convolution19"
  param {
    lr_mult: 0
    decay_mult: 0
  }
  param {
    lr_mult: 0
    decay_mult: 0
  }
  param {
    lr_mult: 0
    decay_mult: 0
  }
}
layer {
  name: "Scale19"
  type: "Scale"
  bottom: "Convolution19"
  top: "Convolution19"
  scale_param {
    bias_term: true
  }
}
layer {
  name: "Eltwise9"
  type: "Eltwise"
  bottom: "Eltwise8"
  bottom: "Convolution19"
  top: "Eltwise9"
  eltwise_param {
    operation: SUM
  }
}
layer {
  name: "ReLU19"
  type: "ReLU"
  bottom: "Eltwise9"
  top: "Eltwise9"
}
layer {
  name: "Convolution20"
  type: "Convolution"
  bottom: "Eltwise9"
  top: "Convolution20"
  convolution_param {
    num_output: 16
    bias_term: true
    pad: 1
    kernel_size: 3
    stride: 1
    weight_filler {
      type: "msra"
    }
    bias_filler {
      type: "constant"
    }
  }
}
layer {
  name: "BatchNorm20"
  type: "BatchNorm"
  bottom: "Convolution20"
  top: "Convolution20"
  param {
    lr_mult: 0
    decay_mult: 0
  }
  param {
    lr_mult: 0
    decay_mult: 0
  }
  param {
    lr_mult: 0
    decay_mult: 0
  }
}
layer {
  name: "Scale20"
  type: "Scale"
  bottom: "Convolution20"
  top: "Convolution20"
  scale_param {
    bias_term: true
  }
}
layer {
  name: "ReLU20"
  type: "ReLU"
  bottom: "Convolution20"
  top: "Convolution20"
}
layer {
  name: "Convolution21"
  type: "Convolution"
  bottom: "Convolution20"
  top: "Convolution21"
  convolution_param {
    num_output: 16
    bias_term: true
    pad: 1
    kernel_size: 3
    stride: 1
    weight_filler {
      type: "msra"
    }
    bias_filler {
      type: "constant"
    }
  }
}
layer {
  name: "BatchNorm21"
  type: "BatchNorm"
  bottom: "Convolution21"
  top: "Convolution21"
  param {
    lr_mult: 0
    decay_mult: 0
  }
  param {
    lr_mult: 0
    decay_mult: 0
  }
  param {
    lr_mult: 0
    decay_mult: 0
  }
}
layer {
  name: "Scale21"
  type: "Scale"
  bottom: "Convolution21"
  top: "Convolution21"
  scale_param {
    bias_term: true
  }
}
layer {
  name: "Eltwise10"
  type: "Eltwise"
  bottom: "Eltwise9"
  bottom: "Convolution21"
  top: "Eltwise10"
  eltwise_param {
    operation: SUM
  }
}
layer {
  name: "ReLU21"
  type: "ReLU"
  bottom: "Eltwise10"
  top: "Eltwise10"
}
layer {
  name: "Convolution22"
  type: "Convolution"
  bottom: "Eltwise10"
  top: "Convolution22"
  convolution_param {
    num_output: 16
    bias_term: true
    pad: 1
    kernel_size: 3
    stride: 1
    weight_filler {
      type: "msra"
    }
    bias_filler {
      type: "constant"
    }
  }
}
layer {
  name: "BatchNorm22"
  type: "BatchNorm"
  bottom: "Convolution22"
  top: "Convolution22"
  param {
    lr_mult: 0
    decay_mult: 0
  }
  param {
    lr_mult: 0
    decay_mult: 0
  }
  param {
    lr_mult: 0
    decay_mult: 0
  }
}
layer {
  name: "Scale22"
  type: "Scale"
  bottom: "Convolution22"
  top: "Convolution22"
  scale_param {
    bias_term: true
  }
}
layer {
  name: "ReLU22"
  type: "ReLU"
  bottom: "Convolution22"
  top: "Convolution22"
}
layer {
  name: "Convolution23"
  type: "Convolution"
  bottom: "Convolution22"
  top: "Convolution23"
  convolution_param {
    num_output: 16
    bias_term: true
    pad: 1
    kernel_size: 3
    stride: 1
    weight_filler {
      type: "msra"
    }
    bias_filler {
      type: "constant"
    }
  }
}
layer {
  name: "BatchNorm23"
  type: "BatchNorm"
  bottom: "Convolution23"
  top: "Convolution23"
  param {
    lr_mult: 0
    decay_mult: 0
  }
  param {
    lr_mult: 0
    decay_mult: 0
  }
  param {
    lr_mult: 0
    decay_mult: 0
  }
}
layer {
  name: "Scale23"
  type: "Scale"
  bottom: "Convolution23"
  top: "Convolution23"
  scale_param {
    bias_term: true
  }
}
layer {
  name: "Eltwise11"
  type: "Eltwise"
  bottom: "Eltwise10"
  bottom: "Convolution23"
  top: "Eltwise11"
  eltwise_param {
    operation: SUM
  }
}
layer {
  name: "ReLU23"
  type: "ReLU"
  bottom: "Eltwise11"
  top: "Eltwise11"
}
layer {
  name: "Convolution24"
  type: "Convolution"
  bottom: "Eltwise11"
  top: "Convolution24"
  convolution_param {
    num_output: 16
    bias_term: true
    pad: 1
    kernel_size: 3
    stride: 1
    weight_filler {
      type: "msra"
    }
    bias_filler {
      type: "constant"
    }
  }
}
layer {
  name: "BatchNorm24"
  type: "BatchNorm"
  bottom: "Convolution24"
  top: "Convolution24"
  param {
    lr_mult: 0
    decay_mult: 0
  }
  param {
    lr_mult: 0
    decay_mult: 0
  }
  param {
    lr_mult: 0
    decay_mult: 0
  }
}
layer {
  name: "Scale24"
  type: "Scale"
  bottom: "Convolution24"
  top: "Convolution24"
  scale_param {
    bias_term: true
  }
}
layer {
  name: "ReLU24"
  type: "ReLU"
  bottom: "Convolution24"
  top: "Convolution24"
}
layer {
  name: "Convolution25"
  type: "Convolution"
  bottom: "Convolution24"
  top: "Convolution25"
  convolution_param {
    num_output: 16
    bias_term: true
    pad: 1
    kernel_size: 3
    stride: 1
    weight_filler {
      type: "msra"
    }
    bias_filler {
      type: "constant"
    }
  }
}
layer {
  name: "BatchNorm25"
  type: "BatchNorm"
  bottom: "Convolution25"
  top: "Convolution25"
  param {
    lr_mult: 0
    decay_mult: 0
  }
  param {
    lr_mult: 0
    decay_mult: 0
  }
  param {
    lr_mult: 0
    decay_mult: 0
  }
}
layer {
  name: "Scale25"
  type: "Scale"
  bottom: "Convolution25"
  top: "Convolution25"
  scale_param {
    bias_term: true
  }
}
layer {
  name: "Eltwise12"
  type: "Eltwise"
  bottom: "Eltwise11"
  bottom: "Convolution25"
  top: "Eltwise12"
  eltwise_param {
    operation: SUM
  }
}
layer {
  name: "ReLU25"
  type: "ReLU"
  bottom: "Eltwise12"
  top: "Eltwise12"
}
layer {
  name: "Convolution26"
  type: "Convolution"
  bottom: "Eltwise12"
  top: "Convolution26"
  convolution_param {
    num_output: 16
    bias_term: true
    pad: 1
    kernel_size: 3
    stride: 1
    weight_filler {
      type: "msra"
    }
    bias_filler {
      type: "constant"
    }
  }
}
layer {
  name: "BatchNorm26"
  type: "BatchNorm"
  bottom: "Convolution26"
  top: "Convolution26"
  param {
    lr_mult: 0
    decay_mult: 0
  }
  param {
    lr_mult: 0
    decay_mult: 0
  }
  param {
    lr_mult: 0
    decay_mult: 0
  }
}
layer {
  name: "Scale26"
  type: "Scale"
  bottom: "Convolution26"
  top: "Convolution26"
  scale_param {
    bias_term: true
  }
}
layer {
  name: "ReLU26"
  type: "ReLU"
  bottom: "Convolution26"
  top: "Convolution26"
}
layer {
  name: "Convolution27"
  type: "Convolution"
  bottom: "Convolution26"
  top: "Convolution27"
  convolution_param {
    num_output: 16
    bias_term: true
    pad: 1
    kernel_size: 3
    stride: 1
    weight_filler {
      type: "msra"
    }
    bias_filler {
      type: "constant"
    }
  }
}
layer {
  name: "BatchNorm27"
  type: "BatchNorm"
  bottom: "Convolution27"
  top: "Convolution27"
  param {
    lr_mult: 0
    decay_mult: 0
  }
  param {
    lr_mult: 0
    decay_mult: 0
  }
  param {
    lr_mult: 0
    decay_mult: 0
  }
}
layer {
  name: "Scale27"
  type: "Scale"
  bottom: "Convolution27"
  top: "Convolution27"
  scale_param {
    bias_term: true
  }
}
layer {
  name: "Eltwise13"
  type: "Eltwise"
  bottom: "Eltwise12"
  bottom: "Convolution27"
  top: "Eltwise13"
  eltwise_param {
    operation: SUM
  }
}
layer {
  name: "ReLU27"
  type: "ReLU"
  bottom: "Eltwise13"
  top: "Eltwise13"
}
layer {
  name: "Convolution28"
  type: "Convolution"
  bottom: "Eltwise13"
  top: "Convolution28"
  convolution_param {
    num_output: 16
    bias_term: true
    pad: 1
    kernel_size: 3
    stride: 1
    weight_filler {
      type: "msra"
    }
    bias_filler {
      type: "constant"
    }
  }
}
layer {
  name: "BatchNorm28"
  type: "BatchNorm"
  bottom: "Convolution28"
  top: "Convolution28"
  param {
    lr_mult: 0
    decay_mult: 0
  }
  param {
    lr_mult: 0
    decay_mult: 0
  }
  param {
    lr_mult: 0
    decay_mult: 0
  }
}
layer {
  name: "Scale28"
  type: "Scale"
  bottom: "Convolution28"
  top: "Convolution28"
  scale_param {
    bias_term: true
  }
}
layer {
  name: "ReLU28"
  type: "ReLU"
  bottom: "Convolution28"
  top: "Convolution28"
}
layer {
  name: "Convolution29"
  type: "Convolution"
  bottom: "Convolution28"
  top: "Convolution29"
  convolution_param {
    num_output: 16
    bias_term: true
    pad: 1
    kernel_size: 3
    stride: 1
    weight_filler {
      type: "msra"
    }
    bias_filler {
      type: "constant"
    }
  }
}
layer {
  name: "BatchNorm29"
  type: "BatchNorm"
  bottom: "Convolution29"
  top: "Convolution29"
  param {
    lr_mult: 0
    decay_mult: 0
  }
  param {
    lr_mult: 0
    decay_mult: 0
  }
  param {
    lr_mult: 0
    decay_mult: 0
  }
}
layer {
  name: "Scale29"
  type: "Scale"
  bottom: "Convolution29"
  top: "Convolution29"
  scale_param {
    bias_term: true
  }
}
layer {
  name: "Eltwise14"
  type: "Eltwise"
  bottom: "Eltwise13"
  bottom: "Convolution29"
  top: "Eltwise14"
  eltwise_param {
    operation: SUM
  }
}
layer {
  name: "ReLU29"
  type: "ReLU"
  bottom: "Eltwise14"
  top: "Eltwise14"
}
layer {
  name: "Convolution30"
  type: "Convolution"
  bottom: "Eltwise14"
  top: "Convolution30"
  convolution_param {
    num_output: 16
    bias_term: true
    pad: 1
    kernel_size: 3
    stride: 1
    weight_filler {
      type: "msra"
    }
    bias_filler {
      type: "constant"
    }
  }
}
layer {
  name: "BatchNorm30"
  type: "BatchNorm"
  bottom: "Convolution30"
  top: "Convolution30"
  param {
    lr_mult: 0
    decay_mult: 0
  }
  param {
    lr_mult: 0
    decay_mult: 0
  }
  param {
    lr_mult: 0
    decay_mult: 0
  }
}
layer {
  name: "Scale30"
  type: "Scale"
  bottom: "Convolution30"
  top: "Convolution30"
  scale_param {
    bias_term: true
  }
}
layer {
  name: "ReLU30"
  type: "ReLU"
  bottom: "Convolution30"
  top: "Convolution30"
}
layer {
  name: "Convolution31"
  type: "Convolution"
  bottom: "Convolution30"
  top: "Convolution31"
  convolution_param {
    num_output: 16
    bias_term: true
    pad: 1
    kernel_size: 3
    stride: 1
    weight_filler {
      type: "msra"
    }
    bias_filler {
      type: "constant"
    }
  }
}
layer {
  name: "BatchNorm31"
  type: "BatchNorm"
  bottom: "Convolution31"
  top: "Convolution31"
  param {
    lr_mult: 0
    decay_mult: 0
  }
  param {
    lr_mult: 0
    decay_mult: 0
  }
  param {
    lr_mult: 0
    decay_mult: 0
  }
}
layer {
  name: "Scale31"
  type: "Scale"
  bottom: "Convolution31"
  top: "Convolution31"
  scale_param {
    bias_term: true
  }
}
layer {
  name: "Eltwise15"
  type: "Eltwise"
  bottom: "Eltwise14"
  bottom: "Convolution31"
  top: "Eltwise15"
  eltwise_param {
    operation: SUM
  }
}
layer {
  name: "ReLU31"
  type: "ReLU"
  bottom: "Eltwise15"
  top: "Eltwise15"
}
layer {
  name: "Convolution32"
  type: "Convolution"
  bottom: "Eltwise15"
  top: "Convolution32"
  convolution_param {
    num_output: 16
    bias_term: true
    pad: 1
    kernel_size: 3
    stride: 1
    weight_filler {
      type: "msra"
    }
    bias_filler {
      type: "constant"
    }
  }
}
layer {
  name: "BatchNorm32"
  type: "BatchNorm"
  bottom: "Convolution32"
  top: "Convolution32"
  param {
    lr_mult: 0
    decay_mult: 0
  }
  param {
    lr_mult: 0
    decay_mult: 0
  }
  param {
    lr_mult: 0
    decay_mult: 0
  }
}
layer {
  name: "Scale32"
  type: "Scale"
  bottom: "Convolution32"
  top: "Convolution32"
  scale_param {
    bias_term: true
  }
}
layer {
  name: "ReLU32"
  type: "ReLU"
  bottom: "Convolution32"
  top: "Convolution32"
}
layer {
  name: "Convolution33"
  type: "Convolution"
  bottom: "Convolution32"
  top: "Convolution33"
  convolution_param {
    num_output: 16
    bias_term: true
    pad: 1
    kernel_size: 3
    stride: 1
    weight_filler {
      type: "msra"
    }
    bias_filler {
      type: "constant"
    }
  }
}
layer {
  name: "BatchNorm33"
  type: "BatchNorm"
  bottom: "Convolution33"
  top: "Convolution33"
  param {
    lr_mult: 0
    decay_mult: 0
  }
  param {
    lr_mult: 0
    decay_mult: 0
  }
  param {
    lr_mult: 0
    decay_mult: 0
  }
}
layer {
  name: "Scale33"
  type: "Scale"
  bottom: "Convolution33"
  top: "Convolution33"
  scale_param {
    bias_term: true
  }
}
layer {
  name: "Eltwise16"
  type: "Eltwise"
  bottom: "Eltwise15"
  bottom: "Convolution33"
  top: "Eltwise16"
  eltwise_param {
    operation: SUM
  }
}
layer {
  name: "ReLU33"
  type: "ReLU"
  bottom: "Eltwise16"
  top: "Eltwise16"
}
layer {
  name: "Convolution34"
  type: "Convolution"
  bottom: "Eltwise16"
  top: "Convolution34"
  convolution_param {
    num_output: 16
    bias_term: true
    pad: 1
    kernel_size: 3
    stride: 1
    weight_filler {
      type: "msra"
    }
    bias_filler {
      type: "constant"
    }
  }
}
layer {
  name: "BatchNorm34"
  type: "BatchNorm"
  bottom: "Convolution34"
  top: "Convolution34"
  param {
    lr_mult: 0
    decay_mult: 0
  }
  param {
    lr_mult: 0
    decay_mult: 0
  }
  param {
    lr_mult: 0
    decay_mult: 0
  }
}
layer {
  name: "Scale34"
  type: "Scale"
  bottom: "Convolution34"
  top: "Convolution34"
  scale_param {
    bias_term: true
  }
}
layer {
  name: "ReLU34"
  type: "ReLU"
  bottom: "Convolution34"
  top: "Convolution34"
}
layer {
  name: "Convolution35"
  type: "Convolution"
  bottom: "Convolution34"
  top: "Convolution35"
  convolution_param {
    num_output: 16
    bias_term: true
    pad: 1
    kernel_size: 3
    stride: 1
    weight_filler {
      type: "msra"
    }
    bias_filler {
      type: "constant"
    }
  }
}
layer {
  name: "BatchNorm35"
  type: "BatchNorm"
  bottom: "Convolution35"
  top: "Convolution35"
  param {
    lr_mult: 0
    decay_mult: 0
  }
  param {
    lr_mult: 0
    decay_mult: 0
  }
  param {
    lr_mult: 0
    decay_mult: 0
  }
}
layer {
  name: "Scale35"
  type: "Scale"
  bottom: "Convolution35"
  top: "Convolution35"
  scale_param {
    bias_term: true
  }
}
layer {
  name: "Eltwise17"
  type: "Eltwise"
  bottom: "Eltwise16"
  bottom: "Convolution35"
  top: "Eltwise17"
  eltwise_param {
    operation: SUM
  }
}
layer {
  name: "ReLU35"
  type: "ReLU"
  bottom: "Eltwise17"
  top: "Eltwise17"
}
layer {
  name: "Convolution36"
  type: "Convolution"
  bottom: "Eltwise17"
  top: "Convolution36"
  convolution_param {
    num_output: 16
    bias_term: true
    pad: 1
    kernel_size: 3
    stride: 1
    weight_filler {
      type: "msra"
    }
    bias_filler {
      type: "constant"
    }
  }
}
layer {
I0619 14:48:21.410995 17263 layer_factory.hpp:77] Creating layer Data1
I0619 14:48:21.411257 17263 net.cpp:459] Creating Layer Data1
I0619 14:48:21.411273 17263 net.cpp:860] Data1 -> Data1
I0619 14:48:21.411334 17263 net.cpp:860] Data1 -> Data2
I0619 14:48:21.453969 17267 db_leveldb.cpp:18] Opened leveldb /scratch/pas282/caffe/examples/cifar10/cifar10_train_leveldb_padding1
I0619 14:48:21.471935 17263 data_layer.cpp:41] output data size: 128,3,32,32
I0619 14:48:21.477186 17263 net.cpp:509] Setting up Data1
I0619 14:48:21.477226 17263 net.cpp:516] Top shape: 128 3 32 32 (393216)
I0619 14:48:21.477238 17263 net.cpp:516] Top shape: 128 (128)
I0619 14:48:21.477246 17263 net.cpp:524] Memory required for data: 1573376
I0619 14:48:21.477262 17263 layer_factory.hpp:77] Creating layer Convolution1
I0619 14:48:21.477296 17263 net.cpp:459] Creating Layer Convolution1
I0619 14:48:21.477309 17263 net.cpp:886] Convolution1 <- Data1
I0619 14:48:21.477334 17263 net.cpp:860] Convolution1 -> Convolution1
I0619 14:48:21.478888 17263 net.cpp:509] Setting up Convolution1
I0619 14:48:21.478916 17263 net.cpp:516] Top shape: 128 16 32 32 (2097152)
I0619 14:48:21.478924 17263 net.cpp:524] Memory required for data: 9961984
I0619 14:48:21.478963 17263 layer_factory.hpp:77] Creating layer BatchNorm1
I0619 14:48:21.478997 17263 net.cpp:459] Creating Layer BatchNorm1
I0619 14:48:21.479007 17263 net.cpp:886] BatchNorm1 <- Convolution1
I0619 14:48:21.479018 17263 net.cpp:847] BatchNorm1 -> Convolution1 (in-place)
I0619 14:48:21.479514 17263 net.cpp:509] Setting up BatchNorm1
I0619 14:48:21.479533 17263 net.cpp:516] Top shape: 128 16 32 32 (2097152)
I0619 14:48:21.479542 17263 net.cpp:524] Memory required for data: 18350592
I0619 14:48:21.479569 17263 layer_factory.hpp:77] Creating layer Scale1
I0619 14:48:21.479588 17263 net.cpp:459] Creating Layer Scale1
I0619 14:48:21.479594 17263 net.cpp:886] Scale1 <- Convolution1
I0619 14:48:21.479605 17263 net.cpp:847] Scale1 -> Convolution1 (in-place)
I0619 14:48:21.479766 17263 layer_factory.hpp:77] Creating layer Scale1
I0619 14:48:21.479995 17263 net.cpp:509] Setting up Scale1
I0619 14:48:21.480039 17263 net.cpp:516] Top shape: 128 16 32 32 (2097152)
I0619 14:48:21.480048 17263 net.cpp:524] Memory required for data: 26739200
I0619 14:48:21.480065 17263 layer_factory.hpp:77] Creating layer ReLU1
I0619 14:48:21.480080 17263 net.cpp:459] Creating Layer ReLU1
I0619 14:48:21.480088 17263 net.cpp:886] ReLU1 <- Convolution1
I0619 14:48:21.480098 17263 net.cpp:847] ReLU1 -> Convolution1 (in-place)
I0619 14:48:21.480119 17263 net.cpp:509] Setting up ReLU1
I0619 14:48:21.480130 17263 net.cpp:516] Top shape: 128 16 32 32 (2097152)
I0619 14:48:21.480137 17263 net.cpp:524] Memory required for data: 35127808
I0619 14:48:21.480144 17263 layer_factory.hpp:77] Creating layer Convolution1_ReLU1_0_split
I0619 14:48:21.480167 17263 net.cpp:459] Creating Layer Convolution1_ReLU1_0_split
I0619 14:48:21.480175 17263 net.cpp:886] Convolution1_ReLU1_0_split <- Convolution1
I0619 14:48:21.480185 17263 net.cpp:860] Convolution1_ReLU1_0_split -> Convolution1_ReLU1_0_split_0
I0619 14:48:21.480198 17263 net.cpp:860] Convolution1_ReLU1_0_split -> Convolution1_ReLU1_0_split_1
I0619 14:48:21.480269 17263 net.cpp:509] Setting up Convolution1_ReLU1_0_split
I0619 14:48:21.480283 17263 net.cpp:516] Top shape: 128 16 32 32 (2097152)
I0619 14:48:21.480293 17263 net.cpp:516] Top shape: 128 16 32 32 (2097152)
I0619 14:48:21.480299 17263 net.cpp:524] Memory required for data: 51905024
I0619 14:48:21.480306 17263 layer_factory.hpp:77] Creating layer Convolution2
I0619 14:48:21.480322 17263 net.cpp:459] Creating Layer Convolution2
I0619 14:48:21.480330 17263 net.cpp:886] Convolution2 <- Convolution1_ReLU1_0_split_0
I0619 14:48:21.480343 17263 net.cpp:860] Convolution2 -> Convolution2
I0619 14:48:21.481787 17263 net.cpp:509] Setting up Convolution2
I0619 14:48:21.481820 17263 net.cpp:516] Top shape: 128 16 32 32 (2097152)
I0619 14:48:21.481828 17263 net.cpp:524] Memory required for data: 60293632
I0619 14:48:21.481853 17263 layer_factory.hpp:77] Creating layer BatchNorm2
I0619 14:48:21.481868 17263 net.cpp:459] Creating Layer BatchNorm2
I0619 14:48:21.481876 17263 net.cpp:886] BatchNorm2 <- Convolution2
I0619 14:48:21.481891 17263 net.cpp:847] BatchNorm2 -> Convolution2 (in-place)
I0619 14:48:21.482285 17263 net.cpp:509] Setting up BatchNorm2
I0619 14:48:21.482300 17263 net.cpp:516] Top shape: 128 16 32 32 (2097152)
I0619 14:48:21.482307 17263 net.cpp:524] Memory required for data: 68682240
I0619 14:48:21.482327 17263 layer_factory.hpp:77] Creating layer Scale2
I0619 14:48:21.482342 17263 net.cpp:459] Creating Layer Scale2
I0619 14:48:21.482349 17263 net.cpp:886] Scale2 <- Convolution2
I0619 14:48:21.482380 17263 net.cpp:847] Scale2 -> Convolution2 (in-place)
I0619 14:48:21.482447 17263 layer_factory.hpp:77] Creating layer Scale2
I0619 14:48:21.482810 17263 net.cpp:509] Setting up Scale2
I0619 14:48:21.482838 17263 net.cpp:516] Top shape: 128 16 32 32 (2097152)
I0619 14:48:21.482844 17263 net.cpp:524] Memory required for data: 77070848
I0619 14:48:21.482863 17263 layer_factory.hpp:77] Creating layer ReLU2
I0619 14:48:21.482877 17263 net.cpp:459] Creating Layer ReLU2
I0619 14:48:21.482883 17263 net.cpp:886] ReLU2 <- Convolution2
I0619 14:48:21.482893 17263 net.cpp:847] ReLU2 -> Convolution2 (in-place)
I0619 14:48:21.482905 17263 net.cpp:509] Setting up ReLU2
I0619 14:48:21.482914 17263 net.cpp:516] Top shape: 128 16 32 32 (2097152)
I0619 14:48:21.482920 17263 net.cpp:524] Memory required for data: 85459456
I0619 14:48:21.482928 17263 layer_factory.hpp:77] Creating layer Convolution3
I0619 14:48:21.482949 17263 net.cpp:459] Creating Layer Convolution3
I0619 14:48:21.482955 17263 net.cpp:886] Convolution3 <- Convolution2
I0619 14:48:21.482969 17263 net.cpp:860] Convolution3 -> Convolution3
I0619 14:48:21.483479 17263 net.cpp:509] Setting up Convolution3
I0619 14:48:21.483492 17263 net.cpp:516] Top shape: 128 16 32 32 (2097152)
I0619 14:48:21.483500 17263 net.cpp:524] Memory required for data: 93848064
I0619 14:48:21.483515 17263 layer_factory.hpp:77] Creating layer BatchNorm3
I0619 14:48:21.483533 17263 net.cpp:459] Creating Layer BatchNorm3
I0619 14:48:21.483564 17263 net.cpp:886] BatchNorm3 <- Convolution3
I0619 14:48:21.483578 17263 net.cpp:847] BatchNorm3 -> Convolution3 (in-place)
I0619 14:48:21.483885 17263 net.cpp:509] Setting up BatchNorm3
I0619 14:48:21.483898 17263 net.cpp:516] Top shape: 128 16 32 32 (2097152)
I0619 14:48:21.483906 17263 net.cpp:524] Memory required for data: 102236672
I0619 14:48:21.483935 17263 layer_factory.hpp:77] Creating layer Scale3
I0619 14:48:21.483947 17263 net.cpp:459] Creating Layer Scale3
I0619 14:48:21.483954 17263 net.cpp:886] Scale3 <- Convolution3
I0619 14:48:21.483964 17263 net.cpp:847] Scale3 -> Convolution3 (in-place)
I0619 14:48:21.484024 17263 layer_factory.hpp:77] Creating layer Scale3
I0619 14:48:21.484211 17263 net.cpp:509] Setting up Scale3
I0619 14:48:21.484225 17263 net.cpp:516] Top shape: 128 16 32 32 (2097152)
I0619 14:48:21.484231 17263 net.cpp:524] Memory required for data: 110625280
I0619 14:48:21.484246 17263 layer_factory.hpp:77] Creating layer Eltwise1
I0619 14:48:21.484258 17268 blocking_queue.cpp:50] Waiting for data
I0619 14:48:21.484268 17263 net.cpp:459] Creating Layer Eltwise1
I0619 14:48:21.484300 17263 net.cpp:886] Eltwise1 <- Convolution1_ReLU1_0_split_1
I0619 14:48:21.484313 17263 net.cpp:886] Eltwise1 <- Convolution3
I0619 14:48:21.484324 17263 net.cpp:860] Eltwise1 -> Eltwise1
I0619 14:48:21.484378 17263 net.cpp:509] Setting up Eltwise1
I0619 14:48:21.484390 17263 net.cpp:516] Top shape: 128 16 32 32 (2097152)
I0619 14:48:21.484396 17263 net.cpp:524] Memory required for data: 119013888
I0619 14:48:21.484405 17263 layer_factory.hpp:77] Creating layer ReLU3
I0619 14:48:21.484414 17263 net.cpp:459] Creating Layer ReLU3
I0619 14:48:21.484422 17263 net.cpp:886] ReLU3 <- Eltwise1
I0619 14:48:21.484431 17263 net.cpp:847] ReLU3 -> Eltwise1 (in-place)
I0619 14:48:21.484441 17263 net.cpp:509] Setting up ReLU3
I0619 14:48:21.484450 17263 net.cpp:516] Top shape: 128 16 32 32 (2097152)
I0619 14:48:21.484457 17263 net.cpp:524] Memory required for data: 127402496
I0619 14:48:21.484463 17263 layer_factory.hpp:77] Creating layer Eltwise1_ReLU3_0_split
I0619 14:48:21.484475 17263 net.cpp:459] Creating Layer Eltwise1_ReLU3_0_split
I0619 14:48:21.484483 17263 net.cpp:886] Eltwise1_ReLU3_0_split <- Eltwise1
I0619 14:48:21.484490 17263 net.cpp:860] Eltwise1_ReLU3_0_split -> Eltwise1_ReLU3_0_split_0
I0619 14:48:21.484503 17263 net.cpp:860] Eltwise1_ReLU3_0_split -> Eltwise1_ReLU3_0_split_1
I0619 14:48:21.484560 17263 net.cpp:509] Setting up Eltwise1_ReLU3_0_split
I0619 14:48:21.484572 17263 net.cpp:516] Top shape: 128 16 32 32 (2097152)
I0619 14:48:21.484580 17263 net.cpp:516] Top shape: 128 16 32 32 (2097152)
I0619 14:48:21.484586 17263 net.cpp:524] Memory required for data: 144179712
I0619 14:48:21.484593 17263 layer_factory.hpp:77] Creating layer Convolution4
I0619 14:48:21.484611 17263 net.cpp:459] Creating Layer Convolution4
I0619 14:48:21.484617 17263 net.cpp:886] Convolution4 <- Eltwise1_ReLU3_0_split_0
I0619 14:48:21.484632 17263 net.cpp:860] Convolution4 -> Convolution4
I0619 14:48:21.485131 17263 net.cpp:509] Setting up Convolution4
I0619 14:48:21.485144 17263 net.cpp:516] Top shape: 128 16 32 32 (2097152)
I0619 14:48:21.485152 17263 net.cpp:524] Memory required for data: 152568320
I0619 14:48:21.485167 17263 layer_factory.hpp:77] Creating layer BatchNorm4
I0619 14:48:21.485177 17263 net.cpp:459] Creating Layer BatchNorm4
I0619 14:48:21.485183 17263 net.cpp:886] BatchNorm4 <- Convolution4
I0619 14:48:21.485196 17263 net.cpp:847] BatchNorm4 -> Convolution4 (in-place)
I0619 14:48:21.485507 17263 net.cpp:509] Setting up BatchNorm4
I0619 14:48:21.485519 17263 net.cpp:516] Top shape: 128 16 32 32 (2097152)
I0619 14:48:21.485525 17263 net.cpp:524] Memory required for data: 160956928
I0619 14:48:21.485543 17263 layer_factory.hpp:77] Creating layer Scale4
I0619 14:48:21.485554 17263 net.cpp:459] Creating Layer Scale4
I0619 14:48:21.485560 17263 net.cpp:886] Scale4 <- Convolution4
I0619 14:48:21.485570 17263 net.cpp:847] Scale4 -> Convolution4 (in-place)
I0619 14:48:21.485633 17263 layer_factory.hpp:77] Creating layer Scale4
I0619 14:48:21.485829 17263 net.cpp:509] Setting up Scale4
I0619 14:48:21.485843 17263 net.cpp:516] Top shape: 128 16 32 32 (2097152)
I0619 14:48:21.485849 17263 net.cpp:524] Memory required for data: 169345536
I0619 14:48:21.485864 17263 layer_factory.hpp:77] Creating layer ReLU4
I0619 14:48:21.485877 17263 net.cpp:459] Creating Layer ReLU4
I0619 14:48:21.485883 17263 net.cpp:886] ReLU4 <- Convolution4
I0619 14:48:21.485893 17263 net.cpp:847] ReLU4 -> Convolution4 (in-place)
I0619 14:48:21.485904 17263 net.cpp:509] Setting up ReLU4
I0619 14:48:21.485913 17263 net.cpp:516] Top shape: 128 16 32 32 (2097152)
I0619 14:48:21.485918 17263 net.cpp:524] Memory required for data: 177734144
I0619 14:48:21.485924 17263 layer_factory.hpp:77] Creating layer Convolution5
I0619 14:48:21.485945 17263 net.cpp:459] Creating Layer Convolution5
I0619 14:48:21.485952 17263 net.cpp:886] Convolution5 <- Convolution4
I0619 14:48:21.485963 17263 net.cpp:860] Convolution5 -> Convolution5
I0619 14:48:21.486484 17263 net.cpp:509] Setting up Convolution5
I0619 14:48:21.486498 17263 net.cpp:516] Top shape: 128 16 32 32 (2097152)
I0619 14:48:21.486505 17263 net.cpp:524] Memory required for data: 186122752
I0619 14:48:21.486520 17263 layer_factory.hpp:77] Creating layer BatchNorm5
I0619 14:48:21.486531 17263 net.cpp:459] Creating Layer BatchNorm5
I0619 14:48:21.486537 17263 net.cpp:886] BatchNorm5 <- Convolution5
I0619 14:48:21.486560 17263 net.cpp:847] BatchNorm5 -> Convolution5 (in-place)
I0619 14:48:21.486867 17263 net.cpp:509] Setting up BatchNorm5
I0619 14:48:21.486879 17263 net.cpp:516] Top shape: 128 16 32 32 (2097152)
I0619 14:48:21.486886 17263 net.cpp:524] Memory required for data: 194511360
I0619 14:48:21.486920 17263 layer_factory.hpp:77] Creating layer Scale5
I0619 14:48:21.486932 17263 net.cpp:459] Creating Layer Scale5
I0619 14:48:21.486939 17263 net.cpp:886] Scale5 <- Convolution5
I0619 14:48:21.486949 17263 net.cpp:847] Scale5 -> Convolution5 (in-place)
I0619 14:48:21.487010 17263 layer_factory.hpp:77] Creating layer Scale5
I0619 14:48:21.487185 17263 net.cpp:509] Setting up Scale5
I0619 14:48:21.487198 17263 net.cpp:516] Top shape: 128 16 32 32 (2097152)
I0619 14:48:21.487205 17263 net.cpp:524] Memory required for data: 202899968
I0619 14:48:21.487218 17263 layer_factory.hpp:77] Creating layer Eltwise2
I0619 14:48:21.487233 17263 net.cpp:459] Creating Layer Eltwise2
I0619 14:48:21.487241 17263 net.cpp:886] Eltwise2 <- Eltwise1_ReLU3_0_split_1
I0619 14:48:21.487248 17263 net.cpp:886] Eltwise2 <- Convolution5
I0619 14:48:21.487258 17263 net.cpp:860] Eltwise2 -> Eltwise2
I0619 14:48:21.487298 17263 net.cpp:509] Setting up Eltwise2
I0619 14:48:21.487308 17263 net.cpp:516] Top shape: 128 16 32 32 (2097152)
I0619 14:48:21.487314 17263 net.cpp:524] Memory required for data: 211288576
I0619 14:48:21.487321 17263 layer_factory.hpp:77] Creating layer ReLU5
I0619 14:48:21.487330 17263 net.cpp:459] Creating Layer ReLU5
I0619 14:48:21.487337 17263 net.cpp:886] ReLU5 <- Eltwise2
I0619 14:48:21.487351 17263 net.cpp:847] ReLU5 -> Eltwise2 (in-place)
I0619 14:48:21.487362 17263 net.cpp:509] Setting up ReLU5
I0619 14:48:21.487371 17263 net.cpp:516] Top shape: 128 16 32 32 (2097152)
I0619 14:48:21.487376 17263 net.cpp:524] Memory required for data: 219677184
I0619 14:48:21.487383 17263 layer_factory.hpp:77] Creating layer Eltwise2_ReLU5_0_split
I0619 14:48:21.487392 17263 net.cpp:459] Creating Layer Eltwise2_ReLU5_0_split
I0619 14:48:21.487398 17263 net.cpp:886] Eltwise2_ReLU5_0_split <- Eltwise2
I0619 14:48:21.487407 17263 net.cpp:860] Eltwise2_ReLU5_0_split -> Eltwise2_ReLU5_0_split_0
I0619 14:48:21.487417 17263 net.cpp:860] Eltwise2_ReLU5_0_split -> Eltwise2_ReLU5_0_split_1
I0619 14:48:21.487473 17263 net.cpp:509] Setting up Eltwise2_ReLU5_0_split
I0619 14:48:21.487484 17263 net.cpp:516] Top shape: 128 16 32 32 (2097152)
I0619 14:48:21.487493 17263 net.cpp:516] Top shape: 128 16 32 32 (2097152)
I0619 14:48:21.487498 17263 net.cpp:524] Memory required for data: 236454400
I0619 14:48:21.487509 17263 layer_factory.hpp:77] Creating layer Convolution6
I0619 14:48:21.487541 17263 net.cpp:459] Creating Layer Convolution6
I0619 14:48:21.487550 17263 net.cpp:886] Convolution6 <- Eltwise2_ReLU5_0_split_0
I0619 14:48:21.487565 17263 net.cpp:860] Convolution6 -> Convolution6
I0619 14:48:21.488104 17263 net.cpp:509] Setting up Convolution6
I0619 14:48:21.488121 17263 net.cpp:516] Top shape: 128 16 32 32 (2097152)
I0619 14:48:21.488126 17263 net.cpp:524] Memory required for data: 244843008
I0619 14:48:21.488142 17263 layer_factory.hpp:77] Creating layer BatchNorm6
I0619 14:48:21.488152 17263 net.cpp:459] Creating Layer BatchNorm6
I0619 14:48:21.488159 17263 net.cpp:886] BatchNorm6 <- Convolution6
I0619 14:48:21.488168 17263 net.cpp:847] BatchNorm6 -> Convolution6 (in-place)
I0619 14:48:21.488520 17263 net.cpp:509] Setting up BatchNorm6
I0619 14:48:21.488535 17263 net.cpp:516] Top shape: 128 16 32 32 (2097152)
I0619 14:48:21.488541 17263 net.cpp:524] Memory required for data: 253231616
I0619 14:48:21.488561 17263 layer_factory.hpp:77] Creating layer Scale6
I0619 14:48:21.488572 17263 net.cpp:459] Creating Layer Scale6
I0619 14:48:21.488579 17263 net.cpp:886] Scale6 <- Convolution6
I0619 14:48:21.488590 17263 net.cpp:847] Scale6 -> Convolution6 (in-place)
I0619 14:48:21.488737 17263 layer_factory.hpp:77] Creating layer Scale6
I0619 14:48:21.488934 17263 net.cpp:509] Setting up Scale6
I0619 14:48:21.488947 17263 net.cpp:516] Top shape: 128 16 32 32 (2097152)
I0619 14:48:21.488955 17263 net.cpp:524] Memory required for data: 261620224
I0619 14:48:21.488970 17263 layer_factory.hpp:77] Creating layer ReLU6
I0619 14:48:21.488986 17263 net.cpp:459] Creating Layer ReLU6
I0619 14:48:21.488992 17263 net.cpp:886] ReLU6 <- Convolution6
I0619 14:48:21.489002 17263 net.cpp:847] ReLU6 -> Convolution6 (in-place)
I0619 14:48:21.489013 17263 net.cpp:509] Setting up ReLU6
I0619 14:48:21.489022 17263 net.cpp:516] Top shape: 128 16 32 32 (2097152)
I0619 14:48:21.489028 17263 net.cpp:524] Memory required for data: 270008832
I0619 14:48:21.489034 17263 layer_factory.hpp:77] Creating layer Convolution7
I0619 14:48:21.489051 17263 net.cpp:459] Creating Layer Convolution7
I0619 14:48:21.489058 17263 net.cpp:886] Convolution7 <- Convolution6
I0619 14:48:21.489071 17263 net.cpp:860] Convolution7 -> Convolution7
I0619 14:48:21.489576 17263 net.cpp:509] Setting up Convolution7
I0619 14:48:21.489593 17263 net.cpp:516] Top shape: 128 16 32 32 (2097152)
I0619 14:48:21.489599 17263 net.cpp:524] Memory required for data: 278397440
I0619 14:48:21.489614 17263 layer_factory.hpp:77] Creating layer BatchNorm7
I0619 14:48:21.489624 17263 net.cpp:459] Creating Layer BatchNorm7
I0619 14:48:21.489630 17263 net.cpp:886] BatchNorm7 <- Convolution7
I0619 14:48:21.489646 17263 net.cpp:847] BatchNorm7 -> Convolution7 (in-place)
I0619 14:48:21.489961 17263 net.cpp:509] Setting up BatchNorm7
I0619 14:48:21.489974 17263 net.cpp:516] Top shape: 128 16 32 32 (2097152)
I0619 14:48:21.489981 17263 net.cpp:524] Memory required for data: 286786048
I0619 14:48:21.489998 17263 layer_factory.hpp:77] Creating layer Scale7
I0619 14:48:21.490012 17263 net.cpp:459] Creating Layer Scale7
I0619 14:48:21.490020 17263 net.cpp:886] Scale7 <- Convolution7
I0619 14:48:21.490032 17263 net.cpp:847] Scale7 -> Convolution7 (in-place)
I0619 14:48:21.490084 17263 layer_factory.hpp:77] Creating layer Scale7
I0619 14:48:21.490269 17263 net.cpp:509] Setting up Scale7
I0619 14:48:21.490281 17263 net.cpp:516] Top shape: 128 16 32 32 (2097152)
I0619 14:48:21.490288 17263 net.cpp:524] Memory required for data: 295174656
I0619 14:48:21.490303 17263 layer_factory.hpp:77] Creating layer Eltwise3
I0619 14:48:21.490316 17263 net.cpp:459] Creating Layer Eltwise3
I0619 14:48:21.490324 17263 net.cpp:886] Eltwise3 <- Eltwise2_ReLU5_0_split_1
I0619 14:48:21.490331 17263 net.cpp:886] Eltwise3 <- Convolution7
I0619 14:48:21.490340 17263 net.cpp:860] Eltwise3 -> Eltwise3
I0619 14:48:21.490397 17263 net.cpp:509] Setting up Eltwise3
I0619 14:48:21.490409 17263 net.cpp:516] Top shape: 128 16 32 32 (2097152)
I0619 14:48:21.490420 17263 net.cpp:524] Memory required for data: 303563264
I0619 14:48:21.490461 17263 layer_factory.hpp:77] Creating layer ReLU7
I0619 14:48:21.490473 17263 net.cpp:459] Creating Layer ReLU7
I0619 14:48:21.490480 17263 net.cpp:886] ReLU7 <- Eltwise3
I0619 14:48:21.490492 17263 net.cpp:847] ReLU7 -> Eltwise3 (in-place)
I0619 14:48:21.490504 17263 net.cpp:509] Setting up ReLU7
I0619 14:48:21.490514 17263 net.cpp:516] Top shape: 128 16 32 32 (2097152)
I0619 14:48:21.490520 17263 net.cpp:524] Memory required for data: 311951872
I0619 14:48:21.490527 17263 layer_factory.hpp:77] Creating layer Eltwise3_ReLU7_0_split
I0619 14:48:21.490535 17263 net.cpp:459] Creating Layer Eltwise3_ReLU7_0_split
I0619 14:48:21.490542 17263 net.cpp:886] Eltwise3_ReLU7_0_split <- Eltwise3
I0619 14:48:21.490551 17263 net.cpp:860] Eltwise3_ReLU7_0_split -> Eltwise3_ReLU7_0_split_0
I0619 14:48:21.490563 17263 net.cpp:860] Eltwise3_ReLU7_0_split -> Eltwise3_ReLU7_0_split_1
I0619 14:48:21.490625 17263 net.cpp:509] Setting up Eltwise3_ReLU7_0_split
I0619 14:48:21.490636 17263 net.cpp:516] Top shape: 128 16 32 32 (2097152)
I0619 14:48:21.490644 17263 net.cpp:516] Top shape: 128 16 32 32 (2097152)
I0619 14:48:21.490650 17263 net.cpp:524] Memory required for data: 328729088
I0619 14:48:21.490656 17263 layer_factory.hpp:77] Creating layer Convolution8
I0619 14:48:21.490674 17263 net.cpp:459] Creating Layer Convolution8
I0619 14:48:21.490680 17263 net.cpp:886] Convolution8 <- Eltwise3_ReLU7_0_split_0
I0619 14:48:21.490691 17263 net.cpp:860] Convolution8 -> Convolution8
I0619 14:48:21.491210 17263 net.cpp:509] Setting up Convolution8
I0619 14:48:21.491225 17263 net.cpp:516] Top shape: 128 16 32 32 (2097152)
I0619 14:48:21.491232 17263 net.cpp:524] Memory required for data: 337117696
I0619 14:48:21.491246 17263 layer_factory.hpp:77] Creating layer BatchNorm8
I0619 14:48:21.491261 17263 net.cpp:459] Creating Layer BatchNorm8
I0619 14:48:21.491268 17263 net.cpp:886] BatchNorm8 <- Convolution8
I0619 14:48:21.491279 17263 net.cpp:847] BatchNorm8 -> Convolution8 (in-place)
I0619 14:48:21.491590 17263 net.cpp:509] Setting up BatchNorm8
I0619 14:48:21.491601 17263 net.cpp:516] Top shape: 128 16 32 32 (2097152)
I0619 14:48:21.491608 17263 net.cpp:524] Memory required for data: 345506304
I0619 14:48:21.491626 17263 layer_factory.hpp:77] Creating layer Scale8
I0619 14:48:21.491638 17263 net.cpp:459] Creating Layer Scale8
I0619 14:48:21.491646 17263 net.cpp:886] Scale8 <- Convolution8
I0619 14:48:21.491654 17263 net.cpp:847] Scale8 -> Convolution8 (in-place)
I0619 14:48:21.491709 17263 layer_factory.hpp:77] Creating layer Scale8
I0619 14:48:21.491894 17263 net.cpp:509] Setting up Scale8
I0619 14:48:21.491906 17263 net.cpp:516] Top shape: 128 16 32 32 (2097152)
I0619 14:48:21.491912 17263 net.cpp:524] Memory required for data: 353894912
I0619 14:48:21.491926 17263 layer_factory.hpp:77] Creating layer ReLU8
I0619 14:48:21.491936 17263 net.cpp:459] Creating Layer ReLU8
I0619 14:48:21.491943 17263 net.cpp:886] ReLU8 <- Convolution8
I0619 14:48:21.491955 17263 net.cpp:847] ReLU8 -> Convolution8 (in-place)
I0619 14:48:21.491966 17263 net.cpp:509] Setting up ReLU8
I0619 14:48:21.491974 17263 net.cpp:516] Top shape: 128 16 32 32 (2097152)
I0619 14:48:21.491981 17263 net.cpp:524] Memory required for data: 362283520
I0619 14:48:21.491986 17263 layer_factory.hpp:77] Creating layer Convolution9
I0619 14:48:21.492003 17263 net.cpp:459] Creating Layer Convolution9
I0619 14:48:21.492010 17263 net.cpp:886] Convolution9 <- Convolution8
I0619 14:48:21.492020 17263 net.cpp:860] Convolution9 -> Convolution9
I0619 14:48:21.492532 17263 net.cpp:509] Setting up Convolution9
I0619 14:48:21.492545 17263 net.cpp:516] Top shape: 128 16 32 32 (2097152)
I0619 14:48:21.492552 17263 net.cpp:524] Memory required for data: 370672128
I0619 14:48:21.492568 17263 layer_factory.hpp:77] Creating layer BatchNorm9
I0619 14:48:21.492581 17263 net.cpp:459] Creating Layer BatchNorm9
I0619 14:48:21.492588 17263 net.cpp:886] BatchNorm9 <- Convolution9
I0619 14:48:21.492597 17263 net.cpp:847] BatchNorm9 -> Convolution9 (in-place)
I0619 14:48:21.492930 17263 net.cpp:509] Setting up BatchNorm9
I0619 14:48:21.492944 17263 net.cpp:516] Top shape: 128 16 32 32 (2097152)
I0619 14:48:21.492950 17263 net.cpp:524] Memory required for data: 379060736
I0619 14:48:21.492970 17263 layer_factory.hpp:77] Creating layer Scale9
I0619 14:48:21.492982 17263 net.cpp:459] Creating Layer Scale9
I0619 14:48:21.492990 17263 net.cpp:886] Scale9 <- Convolution9
I0619 14:48:21.492998 17263 net.cpp:847] Scale9 -> Convolution9 (in-place)
I0619 14:48:21.493057 17263 layer_factory.hpp:77] Creating layer Scale9
I0619 14:48:21.493238 17263 net.cpp:509] Setting up Scale9
I0619 14:48:21.493250 17263 net.cpp:516] Top shape: 128 16 32 32 (2097152)
I0619 14:48:21.493257 17263 net.cpp:524] Memory required for data: 387449344
I0619 14:48:21.493271 17263 layer_factory.hpp:77] Creating layer Eltwise4
I0619 14:48:21.493284 17263 net.cpp:459] Creating Layer Eltwise4
I0619 14:48:21.493291 17263 net.cpp:886] Eltwise4 <- Eltwise3_ReLU7_0_split_1
I0619 14:48:21.493299 17263 net.cpp:886] Eltwise4 <- Convolution9
I0619 14:48:21.493309 17263 net.cpp:860] Eltwise4 -> Eltwise4
I0619 14:48:21.493350 17263 net.cpp:509] Setting up Eltwise4
I0619 14:48:21.493360 17263 net.cpp:516] Top shape: 128 16 32 32 (2097152)
I0619 14:48:21.493367 17263 net.cpp:524] Memory required for data: 395837952
I0619 14:48:21.493376 17263 layer_factory.hpp:77] Creating layer ReLU9
I0619 14:48:21.493386 17263 net.cpp:459] Creating Layer ReLU9
I0619 14:48:21.493394 17263 net.cpp:886] ReLU9 <- Eltwise4
I0619 14:48:21.493409 17263 net.cpp:847] ReLU9 -> Eltwise4 (in-place)
I0619 14:48:21.493420 17263 net.cpp:509] Setting up ReLU9
I0619 14:48:21.493429 17263 net.cpp:516] Top shape: 128 16 32 32 (2097152)
I0619 14:48:21.493435 17263 net.cpp:524] Memory required for data: 404226560
I0619 14:48:21.493441 17263 layer_factory.hpp:77] Creating layer Eltwise4_ReLU9_0_split
I0619 14:48:21.493453 17263 net.cpp:459] Creating Layer Eltwise4_ReLU9_0_split
I0619 14:48:21.493458 17263 net.cpp:886] Eltwise4_ReLU9_0_split <- Eltwise4
I0619 14:48:21.493468 17263 net.cpp:860] Eltwise4_ReLU9_0_split -> Eltwise4_ReLU9_0_split_0
I0619 14:48:21.493479 17263 net.cpp:860] Eltwise4_ReLU9_0_split -> Eltwise4_ReLU9_0_split_1
I0619 14:48:21.493535 17263 net.cpp:509] Setting up Eltwise4_ReLU9_0_split
I0619 14:48:21.493546 17263 net.cpp:516] Top shape: 128 16 32 32 (2097152)
I0619 14:48:21.493553 17263 net.cpp:516] Top shape: 128 16 32 32 (2097152)
I0619 14:48:21.493559 17263 net.cpp:524] Memory required for data: 421003776
I0619 14:48:21.493566 17263 layer_factory.hpp:77] Creating layer Convolution10
I0619 14:48:21.493579 17263 net.cpp:459] Creating Layer Convolution10
I0619 14:48:21.493587 17263 net.cpp:886] Convolution10 <- Eltwise4_ReLU9_0_split_0
I0619 14:48:21.493600 17263 net.cpp:860] Convolution10 -> Convolution10
I0619 14:48:21.494109 17263 net.cpp:509] Setting up Convolution10
I0619 14:48:21.494122 17263 net.cpp:516] Top shape: 128 16 32 32 (2097152)
I0619 14:48:21.494129 17263 net.cpp:524] Memory required for data: 429392384
I0619 14:48:21.494158 17263 layer_factory.hpp:77] Creating layer BatchNorm10
I0619 14:48:21.494174 17263 net.cpp:459] Creating Layer BatchNorm10
I0619 14:48:21.494180 17263 net.cpp:886] BatchNorm10 <- Convolution10
I0619 14:48:21.494190 17263 net.cpp:847] BatchNorm10 -> Convolution10 (in-place)
I0619 14:48:21.494526 17263 net.cpp:509] Setting up BatchNorm10
I0619 14:48:21.494550 17263 net.cpp:516] Top shape: 128 16 32 32 (2097152)
I0619 14:48:21.494556 17263 net.cpp:524] Memory required for data: 437780992
I0619 14:48:21.494573 17263 layer_factory.hpp:77] Creating layer Scale10
I0619 14:48:21.494583 17263 net.cpp:459] Creating Layer Scale10
I0619 14:48:21.494590 17263 net.cpp:886] Scale10 <- Convolution10
I0619 14:48:21.494601 17263 net.cpp:847] Scale10 -> Convolution10 (in-place)
I0619 14:48:21.494654 17263 layer_factory.hpp:77] Creating layer Scale10
I0619 14:48:21.494825 17263 net.cpp:509] Setting up Scale10
I0619 14:48:21.494837 17263 net.cpp:516] Top shape: 128 16 32 32 (2097152)
I0619 14:48:21.494846 17263 net.cpp:524] Memory required for data: 446169600
I0619 14:48:21.494879 17263 layer_factory.hpp:77] Creating layer ReLU10
I0619 14:48:21.494891 17263 net.cpp:459] Creating Layer ReLU10
I0619 14:48:21.494899 17263 net.cpp:886] ReLU10 <- Convolution10
I0619 14:48:21.494907 17263 net.cpp:847] ReLU10 -> Convolution10 (in-place)
I0619 14:48:21.494917 17263 net.cpp:509] Setting up ReLU10
I0619 14:48:21.494926 17263 net.cpp:516] Top shape: 128 16 32 32 (2097152)
I0619 14:48:21.494932 17263 net.cpp:524] Memory required for data: 454558208
I0619 14:48:21.494938 17263 layer_factory.hpp:77] Creating layer Convolution11
I0619 14:48:21.494956 17263 net.cpp:459] Creating Layer Convolution11
I0619 14:48:21.494962 17263 net.cpp:886] Convolution11 <- Convolution10
I0619 14:48:21.494972 17263 net.cpp:860] Convolution11 -> Convolution11
I0619 14:48:21.495463 17263 net.cpp:509] Setting up Convolution11
I0619 14:48:21.495478 17263 net.cpp:516] Top shape: 128 16 32 32 (2097152)
I0619 14:48:21.495484 17263 net.cpp:524] Memory required for data: 462946816
I0619 14:48:21.495497 17263 layer_factory.hpp:77] Creating layer BatchNorm11
I0619 14:48:21.495512 17263 net.cpp:459] Creating Layer BatchNorm11
I0619 14:48:21.495519 17263 net.cpp:886] BatchNorm11 <- Convolution11
I0619 14:48:21.495528 17263 net.cpp:847] BatchNorm11 -> Convolution11 (in-place)
I0619 14:48:21.495825 17263 net.cpp:509] Setting up BatchNorm11
I0619 14:48:21.495836 17263 net.cpp:516] Top shape: 128 16 32 32 (2097152)
I0619 14:48:21.495841 17263 net.cpp:524] Memory required for data: 471335424
I0619 14:48:21.495857 17263 layer_factory.hpp:77] Creating layer Scale11
I0619 14:48:21.495868 17263 net.cpp:459] Creating Layer Scale11
I0619 14:48:21.495874 17263 net.cpp:886] Scale11 <- Convolution11
I0619 14:48:21.495883 17263 net.cpp:847] Scale11 -> Convolution11 (in-place)
I0619 14:48:21.495939 17263 layer_factory.hpp:77] Creating layer Scale11
I0619 14:48:21.496109 17263 net.cpp:509] Setting up Scale11
I0619 14:48:21.496120 17263 net.cpp:516] Top shape: 128 16 32 32 (2097152)
I0619 14:48:21.496127 17263 net.cpp:524] Memory required for data: 479724032
I0619 14:48:21.496145 17263 layer_factory.hpp:77] Creating layer Eltwise5
I0619 14:48:21.496155 17263 net.cpp:459] Creating Layer Eltwise5
I0619 14:48:21.496161 17263 net.cpp:886] Eltwise5 <- Eltwise4_ReLU9_0_split_1
I0619 14:48:21.496170 17263 net.cpp:886] Eltwise5 <- Convolution11
I0619 14:48:21.496181 17263 net.cpp:860] Eltwise5 -> Eltwise5
I0619 14:48:21.496217 17263 net.cpp:509] Setting up Eltwise5
I0619 14:48:21.496228 17263 net.cpp:516] Top shape: 128 16 32 32 (2097152)
I0619 14:48:21.496234 17263 net.cpp:524] Memory required for data: 488112640
I0619 14:48:21.496240 17263 layer_factory.hpp:77] Creating layer ReLU11
I0619 14:48:21.496265 17263 net.cpp:459] Creating Layer ReLU11
I0619 14:48:21.496273 17263 net.cpp:886] ReLU11 <- Eltwise5
I0619 14:48:21.496282 17263 net.cpp:847] ReLU11 -> Eltwise5 (in-place)
I0619 14:48:21.496292 17263 net.cpp:509] Setting up ReLU11
I0619 14:48:21.496300 17263 net.cpp:516] Top shape: 128 16 32 32 (2097152)
I0619 14:48:21.496306 17263 net.cpp:524] Memory required for data: 496501248
I0619 14:48:21.496312 17263 layer_factory.hpp:77] Creating layer Eltwise5_ReLU11_0_split
I0619 14:48:21.496320 17263 net.cpp:459] Creating Layer Eltwise5_ReLU11_0_split
I0619 14:48:21.496326 17263 net.cpp:886] Eltwise5_ReLU11_0_split <- Eltwise5
I0619 14:48:21.496337 17263 net.cpp:860] Eltwise5_ReLU11_0_split -> Eltwise5_ReLU11_0_split_0
I0619 14:48:21.496348 17263 net.cpp:860] Eltwise5_ReLU11_0_split -> Eltwise5_ReLU11_0_split_1
I0619 14:48:21.496402 17263 net.cpp:509] Setting up Eltwise5_ReLU11_0_split
I0619 14:48:21.496413 17263 net.cpp:516] Top shape: 128 16 32 32 (2097152)
I0619 14:48:21.496420 17263 net.cpp:516] Top shape: 128 16 32 32 (2097152)
I0619 14:48:21.496426 17263 net.cpp:524] Memory required for data: 513278464
I0619 14:48:21.496433 17263 layer_factory.hpp:77] Creating layer Convolution12
I0619 14:48:21.496448 17263 net.cpp:459] Creating Layer Convolution12
I0619 14:48:21.496459 17263 net.cpp:886] Convolution12 <- Eltwise5_ReLU11_0_split_0
I0619 14:48:21.496491 17263 net.cpp:860] Convolution12 -> Convolution12
I0619 14:48:21.496969 17263 net.cpp:509] Setting up Convolution12
I0619 14:48:21.496983 17263 net.cpp:516] Top shape: 128 16 32 32 (2097152)
I0619 14:48:21.496989 17263 net.cpp:524] Memory required for data: 521667072
I0619 14:48:21.497002 17263 layer_factory.hpp:77] Creating layer BatchNorm12
I0619 14:48:21.497012 17263 net.cpp:459] Creating Layer BatchNorm12
I0619 14:48:21.497020 17263 net.cpp:886] BatchNorm12 <- Convolution12
I0619 14:48:21.497032 17263 net.cpp:847] BatchNorm12 -> Convolution12 (in-place)
I0619 14:48:21.497321 17263 net.cpp:509] Setting up BatchNorm12
I0619 14:48:21.497333 17263 net.cpp:516] Top shape: 128 16 32 32 (2097152)
I0619 14:48:21.497339 17263 net.cpp:524] Memory required for data: 530055680
I0619 14:48:21.497357 17263 layer_factory.hpp:77] Creating layer Scale12
I0619 14:48:21.497367 17263 net.cpp:459] Creating Layer Scale12
I0619 14:48:21.497375 17263 net.cpp:886] Scale12 <- Convolution12
I0619 14:48:21.497386 17263 net.cpp:847] Scale12 -> Convolution12 (in-place)
I0619 14:48:21.497440 17263 layer_factory.hpp:77] Creating layer Scale12
I0619 14:48:21.497612 17263 net.cpp:509] Setting up Scale12
I0619 14:48:21.497624 17263 net.cpp:516] Top shape: 128 16 32 32 (2097152)
I0619 14:48:21.497630 17263 net.cpp:524] Memory required for data: 538444288
I0619 14:48:21.497644 17263 layer_factory.hpp:77] Creating layer ReLU12
I0619 14:48:21.497658 17263 net.cpp:459] Creating Layer ReLU12
I0619 14:48:21.497664 17263 net.cpp:886] ReLU12 <- Convolution12
I0619 14:48:21.497673 17263 net.cpp:847] ReLU12 -> Convolution12 (in-place)
I0619 14:48:21.497684 17263 net.cpp:509] Setting up ReLU12
I0619 14:48:21.497692 17263 net.cpp:516] Top shape: 128 16 32 32 (2097152)
I0619 14:48:21.497699 17263 net.cpp:524] Memory required for data: 546832896
I0619 14:48:21.497704 17263 layer_factory.hpp:77] Creating layer Convolution13
I0619 14:48:21.497720 17263 net.cpp:459] Creating Layer Convolution13
I0619 14:48:21.497726 17263 net.cpp:886] Convolution13 <- Convolution12
I0619 14:48:21.497736 17263 net.cpp:860] Convolution13 -> Convolution13
I0619 14:48:21.498220 17263 net.cpp:509] Setting up Convolution13
I0619 14:48:21.498234 17263 net.cpp:516] Top shape: 128 16 32 32 (2097152)
I0619 14:48:21.498239 17263 net.cpp:524] Memory required for data: 555221504
I0619 14:48:21.498252 17263 layer_factory.hpp:77] Creating layer BatchNorm13
I0619 14:48:21.498265 17263 net.cpp:459] Creating Layer BatchNorm13
I0619 14:48:21.498272 17263 net.cpp:886] BatchNorm13 <- Convolution13
I0619 14:48:21.498281 17263 net.cpp:847] BatchNorm13 -> Convolution13 (in-place)
I0619 14:48:21.498591 17263 net.cpp:509] Setting up BatchNorm13
I0619 14:48:21.498605 17263 net.cpp:516] Top shape: 128 16 32 32 (2097152)
I0619 14:48:21.498610 17263 net.cpp:524] Memory required for data: 563610112
I0619 14:48:21.498626 17263 layer_factory.hpp:77] Creating layer Scale13
I0619 14:48:21.498639 17263 net.cpp:459] Creating Layer Scale13
I0619 14:48:21.498646 17263 net.cpp:886] Scale13 <- Convolution13
I0619 14:48:21.498654 17263 net.cpp:847] Scale13 -> Convolution13 (in-place)
I0619 14:48:21.498703 17263 layer_factory.hpp:77] Creating layer Scale13
I0619 14:48:21.498880 17263 net.cpp:509] Setting up Scale13
I0619 14:48:21.498894 17263 net.cpp:516] Top shape: 128 16 32 32 (2097152)
I0619 14:48:21.498900 17263 net.cpp:524] Memory required for data: 571998720
I0619 14:48:21.498914 17263 layer_factory.hpp:77] Creating layer Eltwise6
I0619 14:48:21.498924 17263 net.cpp:459] Creating Layer Eltwise6
I0619 14:48:21.498930 17263 net.cpp:886] Eltwise6 <- Eltwise5_ReLU11_0_split_1
I0619 14:48:21.498939 17263 net.cpp:886] Eltwise6 <- Convolution13
I0619 14:48:21.498946 17263 net.cpp:860] Eltwise6 -> Eltwise6
I0619 14:48:21.498991 17263 net.cpp:509] Setting up Eltwise6
I0619 14:48:21.499001 17263 net.cpp:516] Top shape: 128 16 32 32 (2097152)
I0619 14:48:21.499007 17263 net.cpp:524] Memory required for data: 580387328
I0619 14:48:21.499013 17263 layer_factory.hpp:77] Creating layer ReLU13
I0619 14:48:21.499063 17263 net.cpp:459] Creating Layer ReLU13
I0619 14:48:21.499071 17263 net.cpp:886] ReLU13 <- Eltwise6
I0619 14:48:21.499083 17263 net.cpp:847] ReLU13 -> Eltwise6 (in-place)
I0619 14:48:21.499095 17263 net.cpp:509] Setting up ReLU13
I0619 14:48:21.499104 17263 net.cpp:516] Top shape: 128 16 32 32 (2097152)
I0619 14:48:21.499110 17263 net.cpp:524] Memory required for data: 588775936
I0619 14:48:21.499116 17263 layer_factory.hpp:77] Creating layer Eltwise6_ReLU13_0_split
I0619 14:48:21.499125 17263 net.cpp:459] Creating Layer Eltwise6_ReLU13_0_split
I0619 14:48:21.499132 17263 net.cpp:886] Eltwise6_ReLU13_0_split <- Eltwise6
I0619 14:48:21.499141 17263 net.cpp:860] Eltwise6_ReLU13_0_split -> Eltwise6_ReLU13_0_split_0
I0619 14:48:21.499152 17263 net.cpp:860] Eltwise6_ReLU13_0_split -> Eltwise6_ReLU13_0_split_1
I0619 14:48:21.499208 17263 net.cpp:509] Setting up Eltwise6_ReLU13_0_split
I0619 14:48:21.499219 17263 net.cpp:516] Top shape: 128 16 32 32 (2097152)
I0619 14:48:21.499228 17263 net.cpp:516] Top shape: 128 16 32 32 (2097152)
I0619 14:48:21.499233 17263 net.cpp:524] Memory required for data: 605553152
I0619 14:48:21.499239 17263 layer_factory.hpp:77] Creating layer Convolution14
I0619 14:48:21.499255 17263 net.cpp:459] Creating Layer Convolution14
I0619 14:48:21.499261 17263 net.cpp:886] Convolution14 <- Eltwise6_ReLU13_0_split_0
I0619 14:48:21.499272 17263 net.cpp:860] Convolution14 -> Convolution14
I0619 14:48:21.499757 17263 net.cpp:509] Setting up Convolution14
I0619 14:48:21.499769 17263 net.cpp:516] Top shape: 128 16 32 32 (2097152)
I0619 14:48:21.499774 17263 net.cpp:524] Memory required for data: 613941760
I0619 14:48:21.499788 17263 layer_factory.hpp:77] Creating layer BatchNorm14
I0619 14:48:21.499799 17263 net.cpp:459] Creating Layer BatchNorm14
I0619 14:48:21.499805 17263 net.cpp:886] BatchNorm14 <- Convolution14
I0619 14:48:21.499816 17263 net.cpp:847] BatchNorm14 -> Convolution14 (in-place)
I0619 14:48:21.500128 17263 net.cpp:509] Setting up BatchNorm14
I0619 14:48:21.500140 17263 net.cpp:516] Top shape: 128 16 32 32 (2097152)
I0619 14:48:21.500146 17263 net.cpp:524] Memory required for data: 622330368
I0619 14:48:21.500164 17263 layer_factory.hpp:77] Creating layer Scale14
I0619 14:48:21.500174 17263 net.cpp:459] Creating Layer Scale14
I0619 14:48:21.500181 17263 net.cpp:886] Scale14 <- Convolution14
I0619 14:48:21.500193 17263 net.cpp:847] Scale14 -> Convolution14 (in-place)
I0619 14:48:21.500247 17263 layer_factory.hpp:77] Creating layer Scale14
I0619 14:48:21.500414 17263 net.cpp:509] Setting up Scale14
I0619 14:48:21.500425 17263 net.cpp:516] Top shape: 128 16 32 32 (2097152)
I0619 14:48:21.500432 17263 net.cpp:524] Memory required for data: 630718976
I0619 14:48:21.500444 17263 layer_factory.hpp:77] Creating layer ReLU14
I0619 14:48:21.500458 17263 net.cpp:459] Creating Layer ReLU14
I0619 14:48:21.500463 17263 net.cpp:886] ReLU14 <- Convolution14
I0619 14:48:21.500471 17263 net.cpp:847] ReLU14 -> Convolution14 (in-place)
I0619 14:48:21.500483 17263 net.cpp:509] Setting up ReLU14
I0619 14:48:21.500491 17263 net.cpp:516] Top shape: 128 16 32 32 (2097152)
I0619 14:48:21.500496 17263 net.cpp:524] Memory required for data: 639107584
I0619 14:48:21.500502 17263 layer_factory.hpp:77] Creating layer Convolution15
I0619 14:48:21.500519 17263 net.cpp:459] Creating Layer Convolution15
I0619 14:48:21.500526 17263 net.cpp:886] Convolution15 <- Convolution14
I0619 14:48:21.500540 17263 net.cpp:860] Convolution15 -> Convolution15
I0619 14:48:21.501039 17263 net.cpp:509] Setting up Convolution15
I0619 14:48:21.501051 17263 net.cpp:516] Top shape: 128 16 32 32 (2097152)
I0619 14:48:21.501056 17263 net.cpp:524] Memory required for data: 647496192
I0619 14:48:21.501070 17263 layer_factory.hpp:77] Creating layer BatchNorm15
I0619 14:48:21.501080 17263 net.cpp:459] Creating Layer BatchNorm15
I0619 14:48:21.501087 17263 net.cpp:886] BatchNorm15 <- Convolution15
I0619 14:48:21.501098 17263 net.cpp:847] BatchNorm15 -> Convolution15 (in-place)
I0619 14:48:21.501401 17263 net.cpp:509] Setting up BatchNorm15
I0619 14:48:21.501430 17263 net.cpp:516] Top shape: 128 16 32 32 (2097152)
I0619 14:48:21.501436 17263 net.cpp:524] Memory required for data: 655884800
I0619 14:48:21.501453 17263 layer_factory.hpp:77] Creating layer Scale15
I0619 14:48:21.501464 17263 net.cpp:459] Creating Layer Scale15
I0619 14:48:21.501471 17263 net.cpp:886] Scale15 <- Convolution15
I0619 14:48:21.501482 17263 net.cpp:847] Scale15 -> Convolution15 (in-place)
I0619 14:48:21.501534 17263 layer_factory.hpp:77] Creating layer Scale15
I0619 14:48:21.501708 17263 net.cpp:509] Setting up Scale15
I0619 14:48:21.501720 17263 net.cpp:516] Top shape: 128 16 32 32 (2097152)
I0619 14:48:21.501726 17263 net.cpp:524] Memory required for data: 664273408
I0619 14:48:21.501739 17263 layer_factory.hpp:77] Creating layer Eltwise7
I0619 14:48:21.501751 17263 net.cpp:459] Creating Layer Eltwise7
I0619 14:48:21.501759 17263 net.cpp:886] Eltwise7 <- Eltwise6_ReLU13_0_split_1
I0619 14:48:21.501766 17263 net.cpp:886] Eltwise7 <- Convolution15
I0619 14:48:21.501775 17263 net.cpp:860] Eltwise7 -> Eltwise7
I0619 14:48:21.501812 17263 net.cpp:509] Setting up Eltwise7
I0619 14:48:21.501822 17263 net.cpp:516] Top shape: 128 16 32 32 (2097152)
I0619 14:48:21.501827 17263 net.cpp:524] Memory required for data: 672662016
I0619 14:48:21.501834 17263 layer_factory.hpp:77] Creating layer ReLU15
I0619 14:48:21.501843 17263 net.cpp:459] Creating Layer ReLU15
I0619 14:48:21.501849 17263 net.cpp:886] ReLU15 <- Eltwise7
I0619 14:48:21.501860 17263 net.cpp:847] ReLU15 -> Eltwise7 (in-place)
I0619 14:48:21.501871 17263 net.cpp:509] Setting up ReLU15
I0619 14:48:21.501879 17263 net.cpp:516] Top shape: 128 16 32 32 (2097152)
I0619 14:48:21.501885 17263 net.cpp:524] Memory required for data: 681050624
I0619 14:48:21.501891 17263 layer_factory.hpp:77] Creating layer Eltwise7_ReLU15_0_split
I0619 14:48:21.501900 17263 net.cpp:459] Creating Layer Eltwise7_ReLU15_0_split
I0619 14:48:21.501905 17263 net.cpp:886] Eltwise7_ReLU15_0_split <- Eltwise7
I0619 14:48:21.501915 17263 net.cpp:860] Eltwise7_ReLU15_0_split -> Eltwise7_ReLU15_0_split_0
I0619 14:48:21.501926 17263 net.cpp:860] Eltwise7_ReLU15_0_split -> Eltwise7_ReLU15_0_split_1
I0619 14:48:21.501979 17263 net.cpp:509] Setting up Eltwise7_ReLU15_0_split
I0619 14:48:21.501989 17263 net.cpp:516] Top shape: 128 16 32 32 (2097152)
I0619 14:48:21.501996 17263 net.cpp:516] Top shape: 128 16 32 32 (2097152)
I0619 14:48:21.502002 17263 net.cpp:524] Memory required for data: 697827840
I0619 14:48:21.502008 17263 layer_factory.hpp:77] Creating layer Convolution16
I0619 14:48:21.502023 17263 net.cpp:459] Creating Layer Convolution16
I0619 14:48:21.502030 17263 net.cpp:886] Convolution16 <- Eltwise7_ReLU15_0_split_0
I0619 14:48:21.502040 17263 net.cpp:860] Convolution16 -> Convolution16
I0619 14:48:21.502545 17263 net.cpp:509] Setting up Convolution16
I0619 14:48:21.502559 17263 net.cpp:516] Top shape: 128 16 32 32 (2097152)
I0619 14:48:21.502565 17263 net.cpp:524] Memory required for data: 706216448
I0619 14:48:21.502579 17263 layer_factory.hpp:77] Creating layer BatchNorm16
I0619 14:48:21.502593 17263 net.cpp:459] Creating Layer BatchNorm16
I0619 14:48:21.502599 17263 net.cpp:886] BatchNorm16 <- Convolution16
I0619 14:48:21.502610 17263 net.cpp:847] BatchNorm16 -> Convolution16 (in-place)
I0619 14:48:21.502907 17263 net.cpp:509] Setting up BatchNorm16
I0619 14:48:21.502918 17263 net.cpp:516] Top shape: 128 16 32 32 (2097152)
I0619 14:48:21.502923 17263 net.cpp:524] Memory required for data: 714605056
I0619 14:48:21.502940 17263 layer_factory.hpp:77] Creating layer Scale16
I0619 14:48:21.502953 17263 net.cpp:459] Creating Layer Scale16
I0619 14:48:21.502959 17263 net.cpp:886] Scale16 <- Convolution16
I0619 14:48:21.502969 17263 net.cpp:847] Scale16 -> Convolution16 (in-place)
I0619 14:48:21.503024 17263 layer_factory.hpp:77] Creating layer Scale16
I0619 14:48:21.503196 17263 net.cpp:509] Setting up Scale16
I0619 14:48:21.503207 17263 net.cpp:516] Top shape: 128 16 32 32 (2097152)
I0619 14:48:21.503212 17263 net.cpp:524] Memory required for data: 722993664
I0619 14:48:21.503247 17263 layer_factory.hpp:77] Creating layer ReLU16
I0619 14:48:21.503258 17263 net.cpp:459] Creating Layer ReLU16
I0619 14:48:21.503265 17263 net.cpp:886] ReLU16 <- Convolution16
I0619 14:48:21.503276 17263 net.cpp:847] ReLU16 -> Convolution16 (in-place)
I0619 14:48:21.503288 17263 net.cpp:509] Setting up ReLU16
I0619 14:48:21.503296 17263 net.cpp:516] Top shape: 128 16 32 32 (2097152)
I0619 14:48:21.503303 17263 net.cpp:524] Memory required for data: 731382272
I0619 14:48:21.503307 17263 layer_factory.hpp:77] Creating layer Convolution17
I0619 14:48:21.503336 17263 net.cpp:459] Creating Layer Convolution17
I0619 14:48:21.503345 17263 net.cpp:886] Convolution17 <- Convolution16
I0619 14:48:21.503355 17263 net.cpp:860] Convolution17 -> Convolution17
I0619 14:48:21.503849 17263 net.cpp:509] Setting up Convolution17
I0619 14:48:21.503861 17263 net.cpp:516] Top shape: 128 16 32 32 (2097152)
I0619 14:48:21.503867 17263 net.cpp:524] Memory required for data: 739770880
I0619 14:48:21.503881 17263 layer_factory.hpp:77] Creating layer BatchNorm17
I0619 14:48:21.503906 17263 net.cpp:459] Creating Layer BatchNorm17
I0619 14:48:21.503912 17263 net.cpp:886] BatchNorm17 <- Convolution17
I0619 14:48:21.503921 17263 net.cpp:847] BatchNorm17 -> Convolution17 (in-place)
I0619 14:48:21.504221 17263 net.cpp:509] Setting up BatchNorm17
I0619 14:48:21.504233 17263 net.cpp:516] Top shape: 128 16 32 32 (2097152)
I0619 14:48:21.504238 17263 net.cpp:524] Memory required for data: 748159488
I0619 14:48:21.504257 17263 layer_factory.hpp:77] Creating layer Scale17
I0619 14:48:21.504267 17263 net.cpp:459] Creating Layer Scale17
I0619 14:48:21.504273 17263 net.cpp:886] Scale17 <- Convolution17
I0619 14:48:21.504282 17263 net.cpp:847] Scale17 -> Convolution17 (in-place)
I0619 14:48:21.504338 17263 layer_factory.hpp:77] Creating layer Scale17
I0619 14:48:21.504511 17263 net.cpp:509] Setting up Scale17
I0619 14:48:21.504523 17263 net.cpp:516] Top shape: 128 16 32 32 (2097152)
I0619 14:48:21.504528 17263 net.cpp:524] Memory required for data: 756548096
I0619 14:48:21.504540 17263 layer_factory.hpp:77] Creating layer Eltwise8
I0619 14:48:21.504556 17263 net.cpp:459] Creating Layer Eltwise8
I0619 14:48:21.504565 17263 net.cpp:886] Eltwise8 <- Eltwise7_ReLU15_0_split_1
I0619 14:48:21.504572 17263 net.cpp:886] Eltwise8 <- Convolution17
I0619 14:48:21.504582 17263 net.cpp:860] Eltwise8 -> Eltwise8
I0619 14:48:21.504623 17263 net.cpp:509] Setting up Eltwise8
I0619 14:48:21.504633 17263 net.cpp:516] Top shape: 128 16 32 32 (2097152)
I0619 14:48:21.504638 17263 net.cpp:524] Memory required for data: 764936704
I0619 14:48:21.504644 17263 layer_factory.hpp:77] Creating layer ReLU17
I0619 14:48:21.504653 17263 net.cpp:459] Creating Layer ReLU17
I0619 14:48:21.504659 17263 net.cpp:886] ReLU17 <- Eltwise8
I0619 14:48:21.504670 17263 net.cpp:847] ReLU17 -> Eltwise8 (in-place)
I0619 14:48:21.504680 17263 net.cpp:509] Setting up ReLU17
I0619 14:48:21.504688 17263 net.cpp:516] Top shape: 128 16 32 32 (2097152)
I0619 14:48:21.504694 17263 net.cpp:524] Memory required for data: 773325312
I0619 14:48:21.504700 17263 layer_factory.hpp:77] Creating layer Eltwise8_ReLU17_0_split
I0619 14:48:21.504709 17263 net.cpp:459] Creating Layer Eltwise8_ReLU17_0_split
I0619 14:48:21.504714 17263 net.cpp:886] Eltwise8_ReLU17_0_split <- Eltwise8
I0619 14:48:21.504722 17263 net.cpp:860] Eltwise8_ReLU17_0_split -> Eltwise8_ReLU17_0_split_0
I0619 14:48:21.504732 17263 net.cpp:860] Eltwise8_ReLU17_0_split -> Eltwise8_ReLU17_0_split_1
I0619 14:48:21.504787 17263 net.cpp:509] Setting up Eltwise8_ReLU17_0_split
I0619 14:48:21.504796 17263 net.cpp:516] Top shape: 128 16 32 32 (2097152)
I0619 14:48:21.504804 17263 net.cpp:516] Top shape: 128 16 32 32 (2097152)
I0619 14:48:21.504811 17263 net.cpp:524] Memory required for data: 790102528
I0619 14:48:21.504815 17263 layer_factory.hpp:77] Creating layer Convolution18
I0619 14:48:21.504828 17263 net.cpp:459] Creating Layer Convolution18
I0619 14:48:21.504834 17263 net.cpp:886] Convolution18 <- Eltwise8_ReLU17_0_split_0
I0619 14:48:21.504851 17263 net.cpp:860] Convolution18 -> Convolution18
I0619 14:48:21.505357 17263 net.cpp:509] Setting up Convolution18
I0619 14:48:21.505370 17263 net.cpp:516] Top shape: 128 16 32 32 (2097152)
I0619 14:48:21.505376 17263 net.cpp:524] Memory required for data: 798491136
I0619 14:48:21.505390 17263 layer_factory.hpp:77] Creating layer BatchNorm18
I0619 14:48:21.505401 17263 net.cpp:459] Creating Layer BatchNorm18
I0619 14:48:21.505408 17263 net.cpp:886] BatchNorm18 <- Convolution18
I0619 14:48:21.505419 17263 net.cpp:847] BatchNorm18 -> Convolution18 (in-place)
I0619 14:48:21.505729 17263 net.cpp:509] Setting up BatchNorm18
I0619 14:48:21.505741 17263 net.cpp:516] Top shape: 128 16 32 32 (2097152)
I0619 14:48:21.505748 17263 net.cpp:524] Memory required for data: 806879744
I0619 14:48:21.505764 17263 layer_factory.hpp:77] Creating layer Scale18
I0619 14:48:21.505774 17263 net.cpp:459] Creating Layer Scale18
I0619 14:48:21.505779 17263 net.cpp:886] Scale18 <- Convolution18
I0619 14:48:21.505787 17263 net.cpp:847] Scale18 -> Convolution18 (in-place)
I0619 14:48:21.505843 17263 layer_factory.hpp:77] Creating layer Scale18
I0619 14:48:21.506036 17263 net.cpp:509] Setting up Scale18
I0619 14:48:21.506048 17263 net.cpp:516] Top shape: 128 16 32 32 (2097152)
I0619 14:48:21.506057 17263 net.cpp:524] Memory required for data: 815268352
I0619 14:48:21.506073 17263 layer_factory.hpp:77] Creating layer ReLU18
I0619 14:48:21.506083 17263 net.cpp:459] Creating Layer ReLU18
I0619 14:48:21.506090 17263 net.cpp:886] ReLU18 <- Convolution18
I0619 14:48:21.506101 17263 net.cpp:847] ReLU18 -> Convolution18 (in-place)
I0619 14:48:21.506113 17263 net.cpp:509] Setting up ReLU18
I0619 14:48:21.506120 17263 net.cpp:516] Top shape: 128 16 32 32 (2097152)
I0619 14:48:21.506126 17263 net.cpp:524] Memory required for data: 823656960
I0619 14:48:21.506131 17263 layer_factory.hpp:77] Creating layer Convolution19
I0619 14:48:21.506145 17263 net.cpp:459] Creating Layer Convolution19
I0619 14:48:21.506151 17263 net.cpp:886] Convolution19 <- Convolution18
I0619 14:48:21.506163 17263 net.cpp:860] Convolution19 -> Convolution19
I0619 14:48:21.506670 17263 net.cpp:509] Setting up Convolution19
I0619 14:48:21.506685 17263 net.cpp:516] Top shape: 128 16 32 32 (2097152)
I0619 14:48:21.506691 17263 net.cpp:524] Memory required for data: 832045568
I0619 14:48:21.506705 17263 layer_factory.hpp:77] Creating layer BatchNorm19
I0619 14:48:21.506716 17263 net.cpp:459] Creating Layer BatchNorm19
I0619 14:48:21.506722 17263 net.cpp:886] BatchNorm19 <- Convolution19
I0619 14:48:21.506733 17263 net.cpp:847] BatchNorm19 -> Convolution19 (in-place)
I0619 14:48:21.507040 17263 net.cpp:509] Setting up BatchNorm19
I0619 14:48:21.507050 17263 net.cpp:516] Top shape: 128 16 32 32 (2097152)
I0619 14:48:21.507056 17263 net.cpp:524] Memory required for data: 840434176
I0619 14:48:21.507094 17263 layer_factory.hpp:77] Creating layer Scale19
I0619 14:48:21.507105 17263 net.cpp:459] Creating Layer Scale19
I0619 14:48:21.507112 17263 net.cpp:886] Scale19 <- Convolution19
I0619 14:48:21.507120 17263 net.cpp:847] Scale19 -> Convolution19 (in-place)
I0619 14:48:21.507177 17263 layer_factory.hpp:77] Creating layer Scale19
I0619 14:48:21.507344 17263 net.cpp:509] Setting up Scale19
I0619 14:48:21.507355 17263 net.cpp:516] Top shape: 128 16 32 32 (2097152)
I0619 14:48:21.507361 17263 net.cpp:524] Memory required for data: 848822784
I0619 14:48:21.507375 17263 layer_factory.hpp:77] Creating layer Eltwise9
I0619 14:48:21.507387 17263 net.cpp:459] Creating Layer Eltwise9
I0619 14:48:21.507395 17263 net.cpp:886] Eltwise9 <- Eltwise8_ReLU17_0_split_1
I0619 14:48:21.507402 17263 net.cpp:886] Eltwise9 <- Convolution19
I0619 14:48:21.507411 17263 net.cpp:860] Eltwise9 -> Eltwise9
I0619 14:48:21.507443 17263 net.cpp:509] Setting up Eltwise9
I0619 14:48:21.507452 17263 net.cpp:516] Top shape: 128 16 32 32 (2097152)
I0619 14:48:21.507457 17263 net.cpp:524] Memory required for data: 857211392
I0619 14:48:21.507463 17263 layer_factory.hpp:77] Creating layer ReLU19
I0619 14:48:21.507474 17263 net.cpp:459] Creating Layer ReLU19
I0619 14:48:21.507498 17263 net.cpp:886] ReLU19 <- Eltwise9
I0619 14:48:21.507509 17263 net.cpp:847] ReLU19 -> Eltwise9 (in-place)
I0619 14:48:21.507520 17263 net.cpp:509] Setting up ReLU19
I0619 14:48:21.507529 17263 net.cpp:516] Top shape: 128 16 32 32 (2097152)
I0619 14:48:21.507534 17263 net.cpp:524] Memory required for data: 865600000
I0619 14:48:21.507539 17263 layer_factory.hpp:77] Creating layer Eltwise9_ReLU19_0_split
I0619 14:48:21.507546 17263 net.cpp:459] Creating Layer Eltwise9_ReLU19_0_split
I0619 14:48:21.507552 17263 net.cpp:886] Eltwise9_ReLU19_0_split <- Eltwise9
I0619 14:48:21.507560 17263 net.cpp:860] Eltwise9_ReLU19_0_split -> Eltwise9_ReLU19_0_split_0
I0619 14:48:21.507572 17263 net.cpp:860] Eltwise9_ReLU19_0_split -> Eltwise9_ReLU19_0_split_1
I0619 14:48:21.507627 17263 net.cpp:509] Setting up Eltwise9_ReLU19_0_split
I0619 14:48:21.507637 17263 net.cpp:516] Top shape: 128 16 32 32 (2097152)
I0619 14:48:21.507645 17263 net.cpp:516] Top shape: 128 16 32 32 (2097152)
I0619 14:48:21.507650 17263 net.cpp:524] Memory required for data: 882377216
I0619 14:48:21.507657 17263 layer_factory.hpp:77] Creating layer Convolution20
I0619 14:48:21.507668 17263 net.cpp:459] Creating Layer Convolution20
I0619 14:48:21.507674 17263 net.cpp:886] Convolution20 <- Eltwise9_ReLU19_0_split_0
I0619 14:48:21.507690 17263 net.cpp:860] Convolution20 -> Convolution20
I0619 14:48:21.508137 17263 net.cpp:509] Setting up Convolution20
I0619 14:48:21.508149 17263 net.cpp:516] Top shape: 128 16 32 32 (2097152)
I0619 14:48:21.508155 17263 net.cpp:524] Memory required for data: 890765824
I0619 14:48:21.508169 17263 layer_factory.hpp:77] Creating layer BatchNorm20
I0619 14:48:21.508178 17263 net.cpp:459] Creating Layer BatchNorm20
I0619 14:48:21.508185 17263 net.cpp:886] BatchNorm20 <- Convolution20
I0619 14:48:21.508196 17263 net.cpp:847] BatchNorm20 -> Convolution20 (in-place)
I0619 14:48:21.508479 17263 net.cpp:509] Setting up BatchNorm20
I0619 14:48:21.508491 17263 net.cpp:516] Top shape: 128 16 32 32 (2097152)
I0619 14:48:21.508496 17263 net.cpp:524] Memory required for data: 899154432
I0619 14:48:21.508510 17263 layer_factory.hpp:77] Creating layer Scale20
I0619 14:48:21.508520 17263 net.cpp:459] Creating Layer Scale20
I0619 14:48:21.508527 17263 net.cpp:886] Scale20 <- Convolution20
I0619 14:48:21.508534 17263 net.cpp:847] Scale20 -> Convolution20 (in-place)
I0619 14:48:21.508582 17263 layer_factory.hpp:77] Creating layer Scale20
I0619 14:48:21.508747 17263 net.cpp:509] Setting up Scale20
I0619 14:48:21.508759 17263 net.cpp:516] Top shape: 128 16 32 32 (2097152)
I0619 14:48:21.508764 17263 net.cpp:524] Memory required for data: 907543040
I0619 14:48:21.508775 17263 layer_factory.hpp:77] Creating layer ReLU20
I0619 14:48:21.508785 17263 net.cpp:459] Creating Layer ReLU20
I0619 14:48:21.508790 17263 net.cpp:886] ReLU20 <- Convolution20
I0619 14:48:21.508801 17263 net.cpp:847] ReLU20 -> Convolution20 (in-place)
I0619 14:48:21.508810 17263 net.cpp:509] Setting up ReLU20
I0619 14:48:21.508818 17263 net.cpp:516] Top shape: 128 16 32 32 (2097152)
I0619 14:48:21.508823 17263 net.cpp:524] Memory required for data: 915931648
I0619 14:48:21.508828 17263 layer_factory.hpp:77] Creating layer Convolution21
I0619 14:48:21.508844 17263 net.cpp:459] Creating Layer Convolution21
I0619 14:48:21.508851 17263 net.cpp:886] Convolution21 <- Convolution20
I0619 14:48:21.508860 17263 net.cpp:860] Convolution21 -> Convolution21
I0619 14:48:21.509322 17263 net.cpp:509] Setting up Convolution21
I0619 14:48:21.509335 17263 net.cpp:516] Top shape: 128 16 32 32 (2097152)
I0619 14:48:21.509341 17263 net.cpp:524] Memory required for data: 924320256
I0619 14:48:21.509352 17263 layer_factory.hpp:77] Creating layer BatchNorm21
I0619 14:48:21.509362 17263 net.cpp:459] Creating Layer BatchNorm21
I0619 14:48:21.509368 17263 net.cpp:886] BatchNorm21 <- Convolution21
I0619 14:48:21.509382 17263 net.cpp:847] BatchNorm21 -> Convolution21 (in-place)
I0619 14:48:21.509663 17263 net.cpp:509] Setting up BatchNorm21
I0619 14:48:21.509677 17263 net.cpp:516] Top shape: 128 16 32 32 (2097152)
I0619 14:48:21.509699 17263 net.cpp:524] Memory required for data: 932708864
I0619 14:48:21.509717 17263 layer_factory.hpp:77] Creating layer Scale21
I0619 14:48:21.509728 17263 net.cpp:459] Creating Layer Scale21
I0619 14:48:21.509734 17263 net.cpp:886] Scale21 <- Convolution21
I0619 14:48:21.509747 17263 net.cpp:847] Scale21 -> Convolution21 (in-place)
I0619 14:48:21.509796 17263 layer_factory.hpp:77] Creating layer Scale21
I0619 14:48:21.509955 17263 net.cpp:509] Setting up Scale21
I0619 14:48:21.509968 17263 net.cpp:516] Top shape: 128 16 32 32 (2097152)
I0619 14:48:21.509973 17263 net.cpp:524] Memory required for data: 941097472
I0619 14:48:21.509985 17263 layer_factory.hpp:77] Creating layer Eltwise10
I0619 14:48:21.509999 17263 net.cpp:459] Creating Layer Eltwise10
I0619 14:48:21.510005 17263 net.cpp:886] Eltwise10 <- Eltwise9_ReLU19_0_split_1
I0619 14:48:21.510013 17263 net.cpp:886] Eltwise10 <- Convolution21
I0619 14:48:21.510023 17263 net.cpp:860] Eltwise10 -> Eltwise10
I0619 14:48:21.510058 17263 net.cpp:509] Setting up Eltwise10
I0619 14:48:21.510067 17263 net.cpp:516] Top shape: 128 16 32 32 (2097152)
I0619 14:48:21.510073 17263 net.cpp:524] Memory required for data: 949486080
I0619 14:48:21.510078 17263 layer_factory.hpp:77] Creating layer ReLU21
I0619 14:48:21.510087 17263 net.cpp:459] Creating Layer ReLU21
I0619 14:48:21.510093 17263 net.cpp:886] ReLU21 <- Eltwise10
I0619 14:48:21.510103 17263 net.cpp:847] ReLU21 -> Eltwise10 (in-place)
I0619 14:48:21.510113 17263 net.cpp:509] Setting up ReLU21
I0619 14:48:21.510120 17263 net.cpp:516] Top shape: 128 16 32 32 (2097152)
I0619 14:48:21.510126 17263 net.cpp:524] Memory required for data: 957874688
I0619 14:48:21.510131 17263 layer_factory.hpp:77] Creating layer Eltwise10_ReLU21_0_split
I0619 14:48:21.510139 17263 net.cpp:459] Creating Layer Eltwise10_ReLU21_0_split
I0619 14:48:21.510144 17263 net.cpp:886] Eltwise10_ReLU21_0_split <- Eltwise10
I0619 14:48:21.510152 17263 net.cpp:860] Eltwise10_ReLU21_0_split -> Eltwise10_ReLU21_0_split_0
I0619 14:48:21.510162 17263 net.cpp:860] Eltwise10_ReLU21_0_split -> Eltwise10_ReLU21_0_split_1
I0619 14:48:21.510213 17263 net.cpp:509] Setting up Eltwise10_ReLU21_0_split
I0619 14:48:21.510222 17263 net.cpp:516] Top shape: 128 16 32 32 (2097152)
I0619 14:48:21.510231 17263 net.cpp:516] Top shape: 128 16 32 32 (2097152)
I0619 14:48:21.510236 17263 net.cpp:524] Memory required for data: 974651904
I0619 14:48:21.510241 17263 layer_factory.hpp:77] Creating layer Convolution22
I0619 14:48:21.510257 17263 net.cpp:459] Creating Layer Convolution22
I0619 14:48:21.510263 17263 net.cpp:886] Convolution22 <- Eltwise10_ReLU21_0_split_0
I0619 14:48:21.510273 17263 net.cpp:860] Convolution22 -> Convolution22
I0619 14:48:21.510738 17263 net.cpp:509] Setting up Convolution22
I0619 14:48:21.510751 17263 net.cpp:516] Top shape: 128 16 32 32 (2097152)
I0619 14:48:21.510756 17263 net.cpp:524] Memory required for data: 983040512
I0619 14:48:21.510771 17263 layer_factory.hpp:77] Creating layer BatchNorm22
I0619 14:48:21.510784 17263 net.cpp:459] Creating Layer BatchNorm22
I0619 14:48:21.510790 17263 net.cpp:886] BatchNorm22 <- Convolution22
I0619 14:48:21.510802 17263 net.cpp:847] BatchNorm22 -> Convolution22 (in-place)
I0619 14:48:21.511087 17263 net.cpp:509] Setting up BatchNorm22
I0619 14:48:21.511097 17263 net.cpp:516] Top shape: 128 16 32 32 (2097152)
I0619 14:48:21.511102 17263 net.cpp:524] Memory required for data: 991429120
I0619 14:48:21.511117 17263 layer_factory.hpp:77] Creating layer Scale22
I0619 14:48:21.511129 17263 net.cpp:459] Creating Layer Scale22
I0619 14:48:21.511135 17263 net.cpp:886] Scale22 <- Convolution22
I0619 14:48:21.511144 17263 net.cpp:847] Scale22 -> Convolution22 (in-place)
I0619 14:48:21.511193 17263 layer_factory.hpp:77] Creating layer Scale22
I0619 14:48:21.511364 17263 net.cpp:509] Setting up Scale22
I0619 14:48:21.511375 17263 net.cpp:516] Top shape: 128 16 32 32 (2097152)
I0619 14:48:21.511381 17263 net.cpp:524] Memory required for data: 999817728
I0619 14:48:21.511399 17263 layer_factory.hpp:77] Creating layer ReLU22
I0619 14:48:21.511423 17263 net.cpp:459] Creating Layer ReLU22
I0619 14:48:21.511430 17263 net.cpp:886] ReLU22 <- Convolution22
I0619 14:48:21.511441 17263 net.cpp:847] ReLU22 -> Convolution22 (in-place)
I0619 14:48:21.511451 17263 net.cpp:509] Setting up ReLU22
I0619 14:48:21.511459 17263 net.cpp:516] Top shape: 128 16 32 32 (2097152)
I0619 14:48:21.511466 17263 net.cpp:524] Memory required for data: 1008206336
I0619 14:48:21.511471 17263 layer_factory.hpp:77] Creating layer Convolution23
I0619 14:48:21.511485 17263 net.cpp:459] Creating Layer Convolution23
I0619 14:48:21.511492 17263 net.cpp:886] Convolution23 <- Convolution22
I0619 14:48:21.511502 17263 net.cpp:860] Convolution23 -> Convolution23
I0619 14:48:21.511976 17263 net.cpp:509] Setting up Convolution23
I0619 14:48:21.511991 17263 net.cpp:516] Top shape: 128 16 32 32 (2097152)
I0619 14:48:21.511997 17263 net.cpp:524] Memory required for data: 1016594944
I0619 14:48:21.512011 17263 layer_factory.hpp:77] Creating layer BatchNorm23
I0619 14:48:21.512023 17263 net.cpp:459] Creating Layer BatchNorm23
I0619 14:48:21.512030 17263 net.cpp:886] BatchNorm23 <- Convolution23
I0619 14:48:21.512042 17263 net.cpp:847] BatchNorm23 -> Convolution23 (in-place)
I0619 14:48:21.512329 17263 net.cpp:509] Setting up BatchNorm23
I0619 14:48:21.512341 17263 net.cpp:516] Top shape: 128 16 32 32 (2097152)
I0619 14:48:21.512346 17263 net.cpp:524] Memory required for data: 1024983552
I0619 14:48:21.512362 17263 layer_factory.hpp:77] Creating layer Scale23
I0619 14:48:21.512373 17263 net.cpp:459] Creating Layer Scale23
I0619 14:48:21.512380 17263 net.cpp:886] Scale23 <- Convolution23
I0619 14:48:21.512388 17263 net.cpp:847] Scale23 -> Convolution23 (in-place)
I0619 14:48:21.512439 17263 layer_factory.hpp:77] Creating layer Scale23
I0619 14:48:21.512600 17263 net.cpp:509] Setting up Scale23
I0619 14:48:21.512610 17263 net.cpp:516] Top shape: 128 16 32 32 (2097152)
I0619 14:48:21.512616 17263 net.cpp:524] Memory required for data: 1033372160
I0619 14:48:21.512629 17263 layer_factory.hpp:77] Creating layer Eltwise11
I0619 14:48:21.512637 17263 net.cpp:459] Creating Layer Eltwise11
I0619 14:48:21.512645 17263 net.cpp:886] Eltwise11 <- Eltwise10_ReLU21_0_split_1
I0619 14:48:21.512651 17263 net.cpp:886] Eltwise11 <- Convolution23
I0619 14:48:21.512665 17263 net.cpp:860] Eltwise11 -> Eltwise11
I0619 14:48:21.512699 17263 net.cpp:509] Setting up Eltwise11
I0619 14:48:21.512711 17263 net.cpp:516] Top shape: 128 16 32 32 (2097152)
I0619 14:48:21.512717 17263 net.cpp:524] Memory required for data: 1041760768
I0619 14:48:21.512722 17263 layer_factory.hpp:77] Creating layer ReLU23
I0619 14:48:21.512730 17263 net.cpp:459] Creating Layer ReLU23
I0619 14:48:21.512735 17263 net.cpp:886] ReLU23 <- Eltwise11
I0619 14:48:21.512743 17263 net.cpp:847] ReLU23 -> Eltwise11 (in-place)
I0619 14:48:21.512753 17263 net.cpp:509] Setting up ReLU23
I0619 14:48:21.512759 17263 net.cpp:516] Top shape: 128 16 32 32 (2097152)
I0619 14:48:21.512765 17263 net.cpp:524] Memory required for data: 1050149376
I0619 14:48:21.512770 17263 layer_factory.hpp:77] Creating layer Eltwise11_ReLU23_0_split
I0619 14:48:21.512778 17263 net.cpp:459] Creating Layer Eltwise11_ReLU23_0_split
I0619 14:48:21.512784 17263 net.cpp:886] Eltwise11_ReLU23_0_split <- Eltwise11
I0619 14:48:21.512794 17263 net.cpp:860] Eltwise11_ReLU23_0_split -> Eltwise11_ReLU23_0_split_0
I0619 14:48:21.512804 17263 net.cpp:860] Eltwise11_ReLU23_0_split -> Eltwise11_ReLU23_0_split_1
I0619 14:48:21.512852 17263 net.cpp:509] Setting up Eltwise11_ReLU23_0_split
I0619 14:48:21.512866 17263 net.cpp:516] Top shape: 128 16 32 32 (2097152)
I0619 14:48:21.512873 17263 net.cpp:516] Top shape: 128 16 32 32 (2097152)
I0619 14:48:21.512879 17263 net.cpp:524] Memory required for data: 1066926592
I0619 14:48:21.512884 17263 layer_factory.hpp:77] Creating layer Convolution24
I0619 14:48:21.512897 17263 net.cpp:459] Creating Layer Convolution24
I0619 14:48:21.512902 17263 net.cpp:886] Convolution24 <- Eltwise11_ReLU23_0_split_0
I0619 14:48:21.512933 17263 net.cpp:860] Convolution24 -> Convolution24
I0619 14:48:21.513387 17263 net.cpp:509] Setting up Convolution24
I0619 14:48:21.513401 17263 net.cpp:516] Top shape: 128 16 32 32 (2097152)
I0619 14:48:21.513406 17263 net.cpp:524] Memory required for data: 1075315200
I0619 14:48:21.513419 17263 layer_factory.hpp:77] Creating layer BatchNorm24
I0619 14:48:21.513432 17263 net.cpp:459] Creating Layer BatchNorm24
I0619 14:48:21.513437 17263 net.cpp:886] BatchNorm24 <- Convolution24
I0619 14:48:21.513445 17263 net.cpp:847] BatchNorm24 -> Convolution24 (in-place)
I0619 14:48:21.513726 17263 net.cpp:509] Setting up BatchNorm24
I0619 14:48:21.513737 17263 net.cpp:516] Top shape: 128 16 32 32 (2097152)
I0619 14:48:21.513742 17263 net.cpp:524] Memory required for data: 1083703808
I0619 14:48:21.513758 17263 layer_factory.hpp:77] Creating layer Scale24
I0619 14:48:21.513769 17263 net.cpp:459] Creating Layer Scale24
I0619 14:48:21.513775 17263 net.cpp:886] Scale24 <- Convolution24
I0619 14:48:21.513783 17263 net.cpp:847] Scale24 -> Convolution24 (in-place)
I0619 14:48:21.513833 17263 layer_factory.hpp:77] Creating layer Scale24
I0619 14:48:21.513999 17263 net.cpp:509] Setting up Scale24
I0619 14:48:21.514009 17263 net.cpp:516] Top shape: 128 16 32 32 (2097152)
I0619 14:48:21.514015 17263 net.cpp:524] Memory required for data: 1092092416
I0619 14:48:21.514027 17263 layer_factory.hpp:77] Creating layer ReLU24
I0619 14:48:21.514039 17263 net.cpp:459] Creating Layer ReLU24
I0619 14:48:21.514045 17263 net.cpp:886] ReLU24 <- Convolution24
I0619 14:48:21.514052 17263 net.cpp:847] ReLU24 -> Convolution24 (in-place)
I0619 14:48:21.514061 17263 net.cpp:509] Setting up ReLU24
I0619 14:48:21.514070 17263 net.cpp:516] Top shape: 128 16 32 32 (2097152)
I0619 14:48:21.514075 17263 net.cpp:524] Memory required for data: 1100481024
I0619 14:48:21.514081 17263 layer_factory.hpp:77] Creating layer Convolution25
I0619 14:48:21.514094 17263 net.cpp:459] Creating Layer Convolution25
I0619 14:48:21.514101 17263 net.cpp:886] Convolution25 <- Convolution24
I0619 14:48:21.514111 17263 net.cpp:860] Convolution25 -> Convolution25
I0619 14:48:21.514575 17263 net.cpp:509] Setting up Convolution25
I0619 14:48:21.514588 17263 net.cpp:516] Top shape: 128 16 32 32 (2097152)
I0619 14:48:21.514593 17263 net.cpp:524] Memory required for data: 1108869632
I0619 14:48:21.514606 17263 layer_factory.hpp:77] Creating layer BatchNorm25
I0619 14:48:21.514616 17263 net.cpp:459] Creating Layer BatchNorm25
I0619 14:48:21.514622 17263 net.cpp:886] BatchNorm25 <- Convolution25
I0619 14:48:21.514631 17263 net.cpp:847] BatchNorm25 -> Convolution25 (in-place)
I0619 14:48:21.514915 17263 net.cpp:509] Setting up BatchNorm25
I0619 14:48:21.514925 17263 net.cpp:516] Top shape: 128 16 32 32 (2097152)
I0619 14:48:21.514931 17263 net.cpp:524] Memory required for data: 1117258240
I0619 14:48:21.514946 17263 layer_factory.hpp:77] Creating layer Scale25
I0619 14:48:21.514955 17263 net.cpp:459] Creating Layer Scale25
I0619 14:48:21.514961 17263 net.cpp:886] Scale25 <- Convolution25
I0619 14:48:21.514969 17263 net.cpp:847] Scale25 -> Convolution25 (in-place)
I0619 14:48:21.515022 17263 layer_factory.hpp:77] Creating layer Scale25
I0619 14:48:21.515180 17263 net.cpp:509] Setting up Scale25
I0619 14:48:21.515192 17263 net.cpp:516] Top shape: 128 16 32 32 (2097152)
I0619 14:48:21.515197 17263 net.cpp:524] Memory required for data: 1125646848
I0619 14:48:21.515211 17263 layer_factory.hpp:77] Creating layer Eltwise12
I0619 14:48:21.515220 17263 net.cpp:459] Creating Layer Eltwise12
I0619 14:48:21.515228 17263 net.cpp:886] Eltwise12 <- Eltwise11_ReLU23_0_split_1
I0619 14:48:21.515234 17263 net.cpp:886] Eltwise12 <- Convolution25
I0619 14:48:21.515245 17263 net.cpp:860] Eltwise12 -> Eltwise12
I0619 14:48:21.515278 17263 net.cpp:509] Setting up Eltwise12
I0619 14:48:21.515287 17263 net.cpp:516] Top shape: 128 16 32 32 (2097152)
I0619 14:48:21.515292 17263 net.cpp:524] Memory required for data: 1134035456
I0619 14:48:21.515297 17263 layer_factory.hpp:77] Creating layer ReLU25
I0619 14:48:21.515313 17263 net.cpp:459] Creating Layer ReLU25
I0619 14:48:21.515336 17263 net.cpp:886] ReLU25 <- Eltwise12
I0619 14:48:21.515346 17263 net.cpp:847] ReLU25 -> Eltwise12 (in-place)
I0619 14:48:21.515355 17263 net.cpp:509] Setting up ReLU25
I0619 14:48:21.515364 17263 net.cpp:516] Top shape: 128 16 32 32 (2097152)
I0619 14:48:21.515369 17263 net.cpp:524] Memory required for data: 1142424064
I0619 14:48:21.515375 17263 layer_factory.hpp:77] Creating layer Eltwise12_ReLU25_0_split
I0619 14:48:21.515383 17263 net.cpp:459] Creating Layer Eltwise12_ReLU25_0_split
I0619 14:48:21.515388 17263 net.cpp:886] Eltwise12_ReLU25_0_split <- Eltwise12
I0619 14:48:21.515399 17263 net.cpp:860] Eltwise12_ReLU25_0_split -> Eltwise12_ReLU25_0_split_0
I0619 14:48:21.515410 17263 net.cpp:860] Eltwise12_ReLU25_0_split -> Eltwise12_ReLU25_0_split_1
I0619 14:48:21.515471 17263 net.cpp:509] Setting up Eltwise12_ReLU25_0_split
I0619 14:48:21.515481 17263 net.cpp:516] Top shape: 128 16 32 32 (2097152)
I0619 14:48:21.515489 17263 net.cpp:516] Top shape: 128 16 32 32 (2097152)
I0619 14:48:21.515496 17263 net.cpp:524] Memory required for data: 1159201280
I0619 14:48:21.515501 17263 layer_factory.hpp:77] Creating layer Convolution26
I0619 14:48:21.515516 17263 net.cpp:459] Creating Layer Convolution26
I0619 14:48:21.515522 17263 net.cpp:886] Convolution26 <- Eltwise12_ReLU25_0_split_0
I0619 14:48:21.515532 17263 net.cpp:860] Convolution26 -> Convolution26
I0619 14:48:21.515995 17263 net.cpp:509] Setting up Convolution26
I0619 14:48:21.516007 17263 net.cpp:516] Top shape: 128 16 32 32 (2097152)
I0619 14:48:21.516013 17263 net.cpp:524] Memory required for data: 1167589888
I0619 14:48:21.516026 17263 layer_factory.hpp:77] Creating layer BatchNorm26
I0619 14:48:21.516041 17263 net.cpp:459] Creating Layer BatchNorm26
I0619 14:48:21.516047 17263 net.cpp:886] BatchNorm26 <- Convolution26
I0619 14:48:21.516055 17263 net.cpp:847] BatchNorm26 -> Convolution26 (in-place)
I0619 14:48:21.516340 17263 net.cpp:509] Setting up BatchNorm26
I0619 14:48:21.516350 17263 net.cpp:516] Top shape: 128 16 32 32 (2097152)
I0619 14:48:21.516355 17263 net.cpp:524] Memory required for data: 1175978496
I0619 14:48:21.516371 17263 layer_factory.hpp:77] Creating layer Scale26
I0619 14:48:21.516398 17263 net.cpp:459] Creating Layer Scale26
I0619 14:48:21.516405 17263 net.cpp:886] Scale26 <- Convolution26
I0619 14:48:21.516414 17263 net.cpp:847] Scale26 -> Convolution26 (in-place)
I0619 14:48:21.516466 17263 layer_factory.hpp:77] Creating layer Scale26
I0619 14:48:21.516626 17263 net.cpp:509] Setting up Scale26
I0619 14:48:21.516638 17263 net.cpp:516] Top shape: 128 16 32 32 (2097152)
I0619 14:48:21.516644 17263 net.cpp:524] Memory required for data: 1184367104
I0619 14:48:21.516659 17263 layer_factory.hpp:77] Creating layer ReLU26
I0619 14:48:21.516667 17263 net.cpp:459] Creating Layer ReLU26
I0619 14:48:21.516674 17263 net.cpp:886] ReLU26 <- Convolution26
I0619 14:48:21.516681 17263 net.cpp:847] ReLU26 -> Convolution26 (in-place)
I0619 14:48:21.516691 17263 net.cpp:509] Setting up ReLU26
I0619 14:48:21.516700 17263 net.cpp:516] Top shape: 128 16 32 32 (2097152)
I0619 14:48:21.516705 17263 net.cpp:524] Memory required for data: 1192755712
I0619 14:48:21.516710 17263 layer_factory.hpp:77] Creating layer Convolution27
I0619 14:48:21.516724 17263 net.cpp:459] Creating Layer Convolution27
I0619 14:48:21.516731 17263 net.cpp:886] Convolution27 <- Convolution26
I0619 14:48:21.516739 17263 net.cpp:860] Convolution27 -> Convolution27
I0619 14:48:21.517194 17263 net.cpp:509] Setting up Convolution27
I0619 14:48:21.517206 17263 net.cpp:516] Top shape: 128 16 32 32 (2097152)
I0619 14:48:21.517212 17263 net.cpp:524] Memory required for data: 1201144320
I0619 14:48:21.517225 17263 layer_factory.hpp:77] Creating layer BatchNorm27
I0619 14:48:21.517236 17263 net.cpp:459] Creating Layer BatchNorm27
I0619 14:48:21.517242 17263 net.cpp:886] BatchNorm27 <- Convolution27
I0619 14:48:21.517252 17263 net.cpp:847] BatchNorm27 -> Convolution27 (in-place)
I0619 14:48:21.517537 17263 net.cpp:509] Setting up BatchNorm27
I0619 14:48:21.517565 17263 net.cpp:516] Top shape: 128 16 32 32 (2097152)
I0619 14:48:21.517570 17263 net.cpp:524] Memory required for data: 1209532928
I0619 14:48:21.517586 17263 layer_factory.hpp:77] Creating layer Scale27
I0619 14:48:21.517599 17263 net.cpp:459] Creating Layer Scale27
I0619 14:48:21.517606 17263 net.cpp:886] Scale27 <- Convolution27
I0619 14:48:21.517614 17263 net.cpp:847] Scale27 -> Convolution27 (in-place)
I0619 14:48:21.517664 17263 layer_factory.hpp:77] Creating layer Scale27
I0619 14:48:21.517834 17263 net.cpp:509] Setting up Scale27
I0619 14:48:21.517845 17263 net.cpp:516] Top shape: 128 16 32 32 (2097152)
I0619 14:48:21.517851 17263 net.cpp:524] Memory required for data: 1217921536
I0619 14:48:21.517864 17263 layer_factory.hpp:77] Creating layer Eltwise13
I0619 14:48:21.517874 17263 net.cpp:459] Creating Layer Eltwise13
I0619 14:48:21.517880 17263 net.cpp:886] Eltwise13 <- Eltwise12_ReLU25_0_split_1
I0619 14:48:21.517887 17263 net.cpp:886] Eltwise13 <- Convolution27
I0619 14:48:21.517899 17263 net.cpp:860] Eltwise13 -> Eltwise13
I0619 14:48:21.517932 17263 net.cpp:509] Setting up Eltwise13
I0619 14:48:21.517945 17263 net.cpp:516] Top shape: 128 16 32 32 (2097152)
I0619 14:48:21.517951 17263 net.cpp:524] Memory required for data: 1226310144
I0619 14:48:21.517956 17263 layer_factory.hpp:77] Creating layer ReLU27
I0619 14:48:21.517963 17263 net.cpp:459] Creating Layer ReLU27
I0619 14:48:21.517969 17263 net.cpp:886] ReLU27 <- Eltwise13
I0619 14:48:21.517976 17263 net.cpp:847] ReLU27 -> Eltwise13 (in-place)
I0619 14:48:21.517985 17263 net.cpp:509] Setting up ReLU27
I0619 14:48:21.517993 17263 net.cpp:516] Top shape: 128 16 32 32 (2097152)
I0619 14:48:21.517998 17263 net.cpp:524] Memory required for data: 1234698752
I0619 14:48:21.518003 17263 layer_factory.hpp:77] Creating layer Eltwise13_ReLU27_0_split
I0619 14:48:21.518012 17263 net.cpp:459] Creating Layer Eltwise13_ReLU27_0_split
I0619 14:48:21.518018 17263 net.cpp:886] Eltwise13_ReLU27_0_split <- Eltwise13
I0619 14:48:21.518030 17263 net.cpp:860] Eltwise13_ReLU27_0_split -> Eltwise13_ReLU27_0_split_0
I0619 14:48:21.518041 17263 net.cpp:860] Eltwise13_ReLU27_0_split -> Eltwise13_ReLU27_0_split_1
I0619 14:48:21.518090 17263 net.cpp:509] Setting up Eltwise13_ReLU27_0_split
I0619 14:48:21.518100 17263 net.cpp:516] Top shape: 128 16 32 32 (2097152)
I0619 14:48:21.518106 17263 net.cpp:516] Top shape: 128 16 32 32 (2097152)
I0619 14:48:21.518111 17263 net.cpp:524] Memory required for data: 1251475968
I0619 14:48:21.518117 17263 layer_factory.hpp:77] Creating layer Convolution28
I0619 14:48:21.518132 17263 net.cpp:459] Creating Layer Convolution28
I0619 14:48:21.518138 17263 net.cpp:886] Convolution28 <- Eltwise13_ReLU27_0_split_0
I0619 14:48:21.518148 17263 net.cpp:860] Convolution28 -> Convolution28
I0619 14:48:21.518622 17263 net.cpp:509] Setting up Convolution28
I0619 14:48:21.518636 17263 net.cpp:516] Top shape: 128 16 32 32 (2097152)
I0619 14:48:21.518641 17263 net.cpp:524] Memory required for data: 1259864576
I0619 14:48:21.518654 17263 layer_factory.hpp:77] Creating layer BatchNorm28
I0619 14:48:21.518666 17263 net.cpp:459] Creating Layer BatchNorm28
I0619 14:48:21.518673 17263 net.cpp:886] BatchNorm28 <- Convolution28
I0619 14:48:21.518682 17263 net.cpp:847] BatchNorm28 -> Convolution28 (in-place)
I0619 14:48:21.518962 17263 net.cpp:509] Setting up BatchNorm28
I0619 14:48:21.518972 17263 net.cpp:516] Top shape: 128 16 32 32 (2097152)
I0619 14:48:21.518977 17263 net.cpp:524] Memory required for data: 1268253184
I0619 14:48:21.518995 17263 layer_factory.hpp:77] Creating layer Scale28
I0619 14:48:21.519003 17263 net.cpp:459] Creating Layer Scale28
I0619 14:48:21.519009 17263 net.cpp:886] Scale28 <- Convolution28
I0619 14:48:21.519016 17263 net.cpp:847] Scale28 -> Convolution28 (in-place)
I0619 14:48:21.519063 17263 layer_factory.hpp:77] Creating layer Scale28
I0619 14:48:21.519214 17263 net.cpp:509] Setting up Scale28
I0619 14:48:21.519224 17263 net.cpp:516] Top shape: 128 16 32 32 (2097152)
I0619 14:48:21.519233 17263 net.cpp:524] Memory required for data: 1276641792
I0619 14:48:21.519263 17263 layer_factory.hpp:77] Creating layer ReLU28
I0619 14:48:21.519275 17263 net.cpp:459] Creating Layer ReLU28
I0619 14:48:21.519281 17263 net.cpp:886] ReLU28 <- Convolution28
I0619 14:48:21.519289 17263 net.cpp:847] ReLU28 -> Convolution28 (in-place)
I0619 14:48:21.519299 17263 net.cpp:509] Setting up ReLU28
I0619 14:48:21.519305 17263 net.cpp:516] Top shape: 128 16 32 32 (2097152)
I0619 14:48:21.519310 17263 net.cpp:524] Memory required for data: 1285030400
I0619 14:48:21.519316 17263 layer_factory.hpp:77] Creating layer Convolution29
I0619 14:48:21.519330 17263 net.cpp:459] Creating Layer Convolution29
I0619 14:48:21.519336 17263 net.cpp:886] Convolution29 <- Convolution28
I0619 14:48:21.519345 17263 net.cpp:860] Convolution29 -> Convolution29
I0619 14:48:21.519783 17263 net.cpp:509] Setting up Convolution29
I0619 14:48:21.519795 17263 net.cpp:516] Top shape: 128 16 32 32 (2097152)
I0619 14:48:21.519800 17263 net.cpp:524] Memory required for data: 1293419008
I0619 14:48:21.519812 17263 layer_factory.hpp:77] Creating layer BatchNorm29
I0619 14:48:21.519824 17263 net.cpp:459] Creating Layer BatchNorm29
I0619 14:48:21.519831 17263 net.cpp:886] BatchNorm29 <- Convolution29
I0619 14:48:21.519839 17263 net.cpp:847] BatchNorm29 -> Convolution29 (in-place)
I0619 14:48:21.520112 17263 net.cpp:509] Setting up BatchNorm29
I0619 14:48:21.520123 17263 net.cpp:516] Top shape: 128 16 32 32 (2097152)
I0619 14:48:21.520128 17263 net.cpp:524] Memory required for data: 1301807616
I0619 14:48:21.520141 17263 layer_factory.hpp:77] Creating layer Scale29
I0619 14:48:21.520150 17263 net.cpp:459] Creating Layer Scale29
I0619 14:48:21.520156 17263 net.cpp:886] Scale29 <- Convolution29
I0619 14:48:21.520164 17263 net.cpp:847] Scale29 -> Convolution29 (in-place)
I0619 14:48:21.520212 17263 layer_factory.hpp:77] Creating layer Scale29
I0619 14:48:21.520370 17263 net.cpp:509] Setting up Scale29
I0619 14:48:21.520380 17263 net.cpp:516] Top shape: 128 16 32 32 (2097152)
I0619 14:48:21.520385 17263 net.cpp:524] Memory required for data: 1310196224
I0619 14:48:21.520397 17263 layer_factory.hpp:77] Creating layer Eltwise14
I0619 14:48:21.520407 17263 net.cpp:459] Creating Layer Eltwise14
I0619 14:48:21.520413 17263 net.cpp:886] Eltwise14 <- Eltwise13_ReLU27_0_split_1
I0619 14:48:21.520421 17263 net.cpp:886] Eltwise14 <- Convolution29
I0619 14:48:21.520431 17263 net.cpp:860] Eltwise14 -> Eltwise14
I0619 14:48:21.520460 17263 net.cpp:509] Setting up Eltwise14
I0619 14:48:21.520469 17263 net.cpp:516] Top shape: 128 16 32 32 (2097152)
I0619 14:48:21.520474 17263 net.cpp:524] Memory required for data: 1318584832
I0619 14:48:21.520479 17263 layer_factory.hpp:77] Creating layer ReLU29
I0619 14:48:21.520489 17263 net.cpp:459] Creating Layer ReLU29
I0619 14:48:21.520494 17263 net.cpp:886] ReLU29 <- Eltwise14
I0619 14:48:21.520503 17263 net.cpp:847] ReLU29 -> Eltwise14 (in-place)
I0619 14:48:21.520510 17263 net.cpp:509] Setting up ReLU29
I0619 14:48:21.520517 17263 net.cpp:516] Top shape: 128 16 32 32 (2097152)
I0619 14:48:21.520522 17263 net.cpp:524] Memory required for data: 1326973440
I0619 14:48:21.520527 17263 layer_factory.hpp:77] Creating layer Eltwise14_ReLU29_0_split
I0619 14:48:21.520535 17263 net.cpp:459] Creating Layer Eltwise14_ReLU29_0_split
I0619 14:48:21.520540 17263 net.cpp:886] Eltwise14_ReLU29_0_split <- Eltwise14
I0619 14:48:21.520547 17263 net.cpp:860] Eltwise14_ReLU29_0_split -> Eltwise14_ReLU29_0_split_0
I0619 14:48:21.520557 17263 net.cpp:860] Eltwise14_ReLU29_0_split -> Eltwise14_ReLU29_0_split_1
I0619 14:48:21.520606 17263 net.cpp:509] Setting up Eltwise14_ReLU29_0_split
I0619 14:48:21.520615 17263 net.cpp:516] Top shape: 128 16 32 32 (2097152)
I0619 14:48:21.520622 17263 net.cpp:516] Top shape: 128 16 32 32 (2097152)
I0619 14:48:21.520627 17263 net.cpp:524] Memory required for data: 1343750656
I0619 14:48:21.520632 17263 layer_factory.hpp:77] Creating layer Convolution30
I0619 14:48:21.520643 17263 net.cpp:459] Creating Layer Convolution30
I0619 14:48:21.520653 17263 net.cpp:886] Convolution30 <- Eltwise14_ReLU29_0_split_0
I0619 14:48:21.520681 17263 net.cpp:860] Convolution30 -> Convolution30
I0619 14:48:21.521118 17263 net.cpp:509] Setting up Convolution30
I0619 14:48:21.521131 17263 net.cpp:516] Top shape: 128 16 32 32 (2097152)
I0619 14:48:21.521136 17263 net.cpp:524] Memory required for data: 1352139264
I0619 14:48:21.521148 17263 layer_factory.hpp:77] Creating layer BatchNorm30
I0619 14:48:21.521157 17263 net.cpp:459] Creating Layer BatchNorm30
I0619 14:48:21.521163 17263 net.cpp:886] BatchNorm30 <- Convolution30
I0619 14:48:21.521173 17263 net.cpp:847] BatchNorm30 -> Convolution30 (in-place)
I0619 14:48:21.521436 17263 net.cpp:509] Setting up BatchNorm30
I0619 14:48:21.521446 17263 net.cpp:516] Top shape: 128 16 32 32 (2097152)
I0619 14:48:21.521451 17263 net.cpp:524] Memory required for data: 1360527872
I0619 14:48:21.521466 17263 layer_factory.hpp:77] Creating layer Scale30
I0619 14:48:21.521474 17263 net.cpp:459] Creating Layer Scale30
I0619 14:48:21.521481 17263 net.cpp:886] Scale30 <- Convolution30
I0619 14:48:21.521492 17263 net.cpp:847] Scale30 -> Convolution30 (in-place)
I0619 14:48:21.521538 17263 layer_factory.hpp:77] Creating layer Scale30
I0619 14:48:21.521692 17263 net.cpp:509] Setting up Scale30
I0619 14:48:21.521703 17263 net.cpp:516] Top shape: 128 16 32 32 (2097152)
I0619 14:48:21.521708 17263 net.cpp:524] Memory required for data: 1368916480
I0619 14:48:21.521719 17263 layer_factory.hpp:77] Creating layer ReLU30
I0619 14:48:21.521729 17263 net.cpp:459] Creating Layer ReLU30
I0619 14:48:21.521735 17263 net.cpp:886] ReLU30 <- Convolution30
I0619 14:48:21.521744 17263 net.cpp:847] ReLU30 -> Convolution30 (in-place)
I0619 14:48:21.521751 17263 net.cpp:509] Setting up ReLU30
I0619 14:48:21.521759 17263 net.cpp:516] Top shape: 128 16 32 32 (2097152)
I0619 14:48:21.521764 17263 net.cpp:524] Memory required for data: 1377305088
I0619 14:48:21.521769 17263 layer_factory.hpp:77] Creating layer Convolution31
I0619 14:48:21.521782 17263 net.cpp:459] Creating Layer Convolution31
I0619 14:48:21.521788 17263 net.cpp:886] Convolution31 <- Convolution30
I0619 14:48:21.521797 17263 net.cpp:860] Convolution31 -> Convolution31
I0619 14:48:21.522250 17263 net.cpp:509] Setting up Convolution31
I0619 14:48:21.522264 17263 net.cpp:516] Top shape: 128 16 32 32 (2097152)
I0619 14:48:21.522269 17263 net.cpp:524] Memory required for data: 1385693696
I0619 14:48:21.522281 17263 layer_factory.hpp:77] Creating layer BatchNorm31
I0619 14:48:21.522294 17263 net.cpp:459] Creating Layer BatchNorm31
I0619 14:48:21.522300 17263 net.cpp:886] BatchNorm31 <- Convolution31
I0619 14:48:21.522306 17263 net.cpp:847] BatchNorm31 -> Convolution31 (in-place)
I0619 14:48:21.522585 17263 net.cpp:509] Setting up BatchNorm31
I0619 14:48:21.522596 17263 net.cpp:516] Top shape: 128 16 32 32 (2097152)
I0619 14:48:21.522603 17263 net.cpp:524] Memory required for data: 1394082304
I0619 14:48:21.522616 17263 layer_factory.hpp:77] Creating layer Scale31
I0619 14:48:21.522625 17263 net.cpp:459] Creating Layer Scale31
I0619 14:48:21.522631 17263 net.cpp:886] Scale31 <- Convolution31
I0619 14:48:21.522641 17263 net.cpp:847] Scale31 -> Convolution31 (in-place)
I0619 14:48:21.522687 17263 layer_factory.hpp:77] Creating layer Scale31
I0619 14:48:21.522840 17263 net.cpp:509] Setting up Scale31
I0619 14:48:21.522850 17263 net.cpp:516] Top shape: 128 16 32 32 (2097152)
I0619 14:48:21.522855 17263 net.cpp:524] Memory required for data: 1402470912
I0619 14:48:21.522869 17263 layer_factory.hpp:77] Creating layer Eltwise15
I0619 14:48:21.522878 17263 net.cpp:459] Creating Layer Eltwise15
I0619 14:48:21.522884 17263 net.cpp:886] Eltwise15 <- Eltwise14_ReLU29_0_split_1
I0619 14:48:21.522891 17263 net.cpp:886] Eltwise15 <- Convolution31
I0619 14:48:21.522899 17263 net.cpp:860] Eltwise15 -> Eltwise15
I0619 14:48:21.522934 17263 net.cpp:509] Setting up Eltwise15
I0619 14:48:21.522943 17263 net.cpp:516] Top shape: 128 16 32 32 (2097152)
I0619 14:48:21.522948 17263 net.cpp:524] Memory required for data: 1410859520
I0619 14:48:21.522956 17263 layer_factory.hpp:77] Creating layer ReLU31
I0619 14:48:21.522982 17263 net.cpp:459] Creating Layer ReLU31
I0619 14:48:21.522989 17263 net.cpp:886] ReLU31 <- Eltwise15
I0619 14:48:21.522996 17263 net.cpp:847] ReLU31 -> Eltwise15 (in-place)
I0619 14:48:21.523005 17263 net.cpp:509] Setting up ReLU31
I0619 14:48:21.523013 17263 net.cpp:516] Top shape: 128 16 32 32 (2097152)
I0619 14:48:21.523018 17263 net.cpp:524] Memory required for data: 1419248128
I0619 14:48:21.523025 17263 layer_factory.hpp:77] Creating layer Eltwise15_ReLU31_0_split
I0619 14:48:21.523031 17263 net.cpp:459] Creating Layer Eltwise15_ReLU31_0_split
I0619 14:48:21.523036 17263 net.cpp:886] Eltwise15_ReLU31_0_split <- Eltwise15
I0619 14:48:21.523044 17263 net.cpp:860] Eltwise15_ReLU31_0_split -> Eltwise15_ReLU31_0_split_0
I0619 14:48:21.523056 17263 net.cpp:860] Eltwise15_ReLU31_0_split -> Eltwise15_ReLU31_0_split_1
I0619 14:48:21.523105 17263 net.cpp:509] Setting up Eltwise15_ReLU31_0_split
I0619 14:48:21.523114 17263 net.cpp:516] Top shape: 128 16 32 32 (2097152)
I0619 14:48:21.523121 17263 net.cpp:516] Top shape: 128 16 32 32 (2097152)
I0619 14:48:21.523126 17263 net.cpp:524] Memory required for data: 1436025344
I0619 14:48:21.523131 17263 layer_factory.hpp:77] Creating layer Convolution32
I0619 14:48:21.523149 17263 net.cpp:459] Creating Layer Convolution32
I0619 14:48:21.523154 17263 net.cpp:886] Convolution32 <- Eltwise15_ReLU31_0_split_0
I0619 14:48:21.523164 17263 net.cpp:860] Convolution32 -> Convolution32
I0619 14:48:21.523597 17263 net.cpp:509] Setting up Convolution32
I0619 14:48:21.523608 17263 net.cpp:516] Top shape: 128 16 32 32 (2097152)
I0619 14:48:21.523613 17263 net.cpp:524] Memory required for data: 1444413952
I0619 14:48:21.523625 17263 layer_factory.hpp:77] Creating layer BatchNorm32
I0619 14:48:21.523638 17263 net.cpp:459] Creating Layer BatchNorm32
I0619 14:48:21.523643 17263 net.cpp:886] BatchNorm32 <- Convolution32
I0619 14:48:21.523653 17263 net.cpp:847] BatchNorm32 -> Convolution32 (in-place)
I0619 14:48:21.523917 17263 net.cpp:509] Setting up BatchNorm32
I0619 14:48:21.523926 17263 net.cpp:516] Top shape: 128 16 32 32 (2097152)
I0619 14:48:21.523931 17263 net.cpp:524] Memory required for data: 1452802560
I0619 14:48:21.523946 17263 layer_factory.hpp:77] Creating layer Scale32
I0619 14:48:21.523958 17263 net.cpp:459] Creating Layer Scale32
I0619 14:48:21.523964 17263 net.cpp:886] Scale32 <- Convolution32
I0619 14:48:21.523972 17263 net.cpp:847] Scale32 -> Convolution32 (in-place)
I0619 14:48:21.524019 17263 layer_factory.hpp:77] Creating layer Scale32
I0619 14:48:21.524173 17263 net.cpp:509] Setting up Scale32
I0619 14:48:21.524183 17263 net.cpp:516] Top shape: 128 16 32 32 (2097152)
I0619 14:48:21.524188 17263 net.cpp:524] Memory required for data: 1461191168
I0619 14:48:21.524200 17263 layer_factory.hpp:77] Creating layer ReLU32
I0619 14:48:21.524209 17263 net.cpp:459] Creating Layer ReLU32
I0619 14:48:21.524214 17263 net.cpp:886] ReLU32 <- Convolution32
I0619 14:48:21.524224 17263 net.cpp:847] ReLU32 -> Convolution32 (in-place)
I0619 14:48:21.524233 17263 net.cpp:509] Setting up ReLU32
I0619 14:48:21.524240 17263 net.cpp:516] Top shape: 128 16 32 32 (2097152)
I0619 14:48:21.524245 17263 net.cpp:524] Memory required for data: 1469579776
I0619 14:48:21.524250 17263 layer_factory.hpp:77] Creating layer Convolution33
I0619 14:48:21.524265 17263 net.cpp:459] Creating Layer Convolution33
I0619 14:48:21.524269 17263 net.cpp:886] Convolution33 <- Convolution32
I0619 14:48:21.524278 17263 net.cpp:860] Convolution33 -> Convolution33
I0619 14:48:21.524706 17263 net.cpp:509] Setting up Convolution33
I0619 14:48:21.524718 17263 net.cpp:516] Top shape: 128 16 32 32 (2097152)
I0619 14:48:21.524722 17263 net.cpp:524] Memory required for data: 1477968384
I0619 14:48:21.524734 17263 layer_factory.hpp:77] Creating layer BatchNorm33
I0619 14:48:21.524745 17263 net.cpp:459] Creating Layer BatchNorm33
I0619 14:48:21.524751 17263 net.cpp:886] BatchNorm33 <- Convolution33
I0619 14:48:21.524758 17263 net.cpp:847] BatchNorm33 -> Convolution33 (in-place)
I0619 14:48:21.525046 17263 net.cpp:509] Setting up BatchNorm33
I0619 14:48:21.525058 17263 net.cpp:516] Top shape: 128 16 32 32 (2097152)
I0619 14:48:21.525063 17263 net.cpp:524] Memory required for data: 1486356992
I0619 14:48:21.525080 17263 layer_factory.hpp:77] Creating layer Scale33
I0619 14:48:21.525089 17263 net.cpp:459] Creating Layer Scale33
I0619 14:48:21.525094 17263 net.cpp:886] Scale33 <- Convolution33
I0619 14:48:21.525102 17263 net.cpp:847] Scale33 -> Convolution33 (in-place)
I0619 14:48:21.525151 17263 layer_factory.hpp:77] Creating layer Scale33
I0619 14:48:21.525307 17263 net.cpp:509] Setting up Scale33
I0619 14:48:21.525317 17263 net.cpp:516] Top shape: 128 16 32 32 (2097152)
I0619 14:48:21.525323 17263 net.cpp:524] Memory required for data: 1494745600
I0619 14:48:21.525334 17263 layer_factory.hpp:77] Creating layer Eltwise16
I0619 14:48:21.525346 17263 net.cpp:459] Creating Layer Eltwise16
I0619 14:48:21.525352 17263 net.cpp:886] Eltwise16 <- Eltwise15_ReLU31_0_split_1
I0619 14:48:21.525359 17263 net.cpp:886] Eltwise16 <- Convolution33
I0619 14:48:21.525367 17263 net.cpp:860] Eltwise16 -> Eltwise16
I0619 14:48:21.525400 17263 net.cpp:509] Setting up Eltwise16
I0619 14:48:21.525409 17263 net.cpp:516] Top shape: 128 16 32 32 (2097152)
I0619 14:48:21.525414 17263 net.cpp:524] Memory required for data: 1503134208
I0619 14:48:21.525419 17263 layer_factory.hpp:77] Creating layer ReLU33
I0619 14:48:21.525427 17263 net.cpp:459] Creating Layer ReLU33
I0619 14:48:21.525432 17263 net.cpp:886] ReLU33 <- Eltwise16
I0619 14:48:21.525442 17263 net.cpp:847] ReLU33 -> Eltwise16 (in-place)
I0619 14:48:21.525451 17263 net.cpp:509] Setting up ReLU33
I0619 14:48:21.525459 17263 net.cpp:516] Top shape: 128 16 32 32 (2097152)
I0619 14:48:21.525465 17263 net.cpp:524] Memory required for data: 1511522816
I0619 14:48:21.525470 17263 layer_factory.hpp:77] Creating layer Eltwise16_ReLU33_0_split
I0619 14:48:21.525476 17263 net.cpp:459] Creating Layer Eltwise16_ReLU33_0_split
I0619 14:48:21.525481 17263 net.cpp:886] Eltwise16_ReLU33_0_split <- Eltwise16
I0619 14:48:21.525488 17263 net.cpp:860] Eltwise16_ReLU33_0_split -> Eltwise16_ReLU33_0_split_0
I0619 14:48:21.525498 17263 net.cpp:860] Eltwise16_ReLU33_0_split -> Eltwise16_ReLU33_0_split_1
I0619 14:48:21.525547 17263 net.cpp:509] Setting up Eltwise16_ReLU33_0_split
I0619 14:48:21.525555 17263 net.cpp:516] Top shape: 128 16 32 32 (2097152)
I0619 14:48:21.525563 17263 net.cpp:516] Top shape: 128 16 32 32 (2097152)
I0619 14:48:21.525568 17263 net.cpp:524] Memory required for data: 1528300032
I0619 14:48:21.525573 17263 layer_factory.hpp:77] Creating layer Convolution34
I0619 14:48:21.525584 17263 net.cpp:459] Creating Layer Convolution34
I0619 14:48:21.525589 17263 net.cpp:886] Convolution34 <- Eltwise16_ReLU33_0_split_0
I0619 14:48:21.525601 17263 net.cpp:860] Convolution34 -> Convolution34
I0619 14:48:21.526027 17263 net.cpp:509] Setting up Convolution34
I0619 14:48:21.526039 17263 net.cpp:516] Top shape: 128 16 32 32 (2097152)
I0619 14:48:21.526044 17263 net.cpp:524] Memory required for data: 1536688640
I0619 14:48:21.526057 17263 layer_factory.hpp:77] Creating layer BatchNorm34
I0619 14:48:21.526064 17263 net.cpp:459] Creating Layer BatchNorm34
I0619 14:48:21.526070 17263 net.cpp:886] BatchNorm34 <- Convolution34
I0619 14:48:21.526080 17263 net.cpp:847] BatchNorm34 -> Convolution34 (in-place)
I0619 14:48:21.526361 17263 net.cpp:509] Setting up BatchNorm34
I0619 14:48:21.526373 17263 net.cpp:516] Top shape: 128 16 32 32 (2097152)
I0619 14:48:21.526378 17263 net.cpp:524] Memory required for data: 1545077248
I0619 14:48:21.526394 17263 layer_factory.hpp:77] Creating layer Scale34
I0619 14:48:21.526403 17263 net.cpp:459] Creating Layer Scale34
I0619 14:48:21.526409 17263 net.cpp:886] Scale34 <- Convolution34
I0619 14:48:21.526417 17263 net.cpp:847] Scale34 -> Convolution34 (in-place)
I0619 14:48:21.526466 17263 layer_factory.hpp:77] Creating layer Scale34
I0619 14:48:21.526625 17263 net.cpp:509] Setting up Scale34
I0619 14:48:21.526635 17263 net.cpp:516] Top shape: 128 16 32 32 (2097152)
I0619 14:48:21.526659 17263 net.cpp:524] Memory required for data: 1553465856
I0619 14:48:21.526674 17263 layer_factory.hpp:77] Creating layer ReLU34
I0619 14:48:21.526682 17263 net.cpp:459] Creating Layer ReLU34
I0619 14:48:21.526689 17263 net.cpp:886] ReLU34 <- Convolution34
I0619 14:48:21.526700 17263 net.cpp:847] ReLU34 -> Convolution34 (in-place)
I0619 14:48:21.526710 17263 net.cpp:509] Setting up ReLU34
I0619 14:48:21.526716 17263 net.cpp:516] Top shape: 128 16 32 32 (2097152)
I0619 14:48:21.526721 17263 net.cpp:524] Memory required for data: 1561854464
I0619 14:48:21.526726 17263 layer_factory.hpp:77] Creating layer Convolution35
I0619 14:48:21.526738 17263 net.cpp:459] Creating Layer Convolution35
I0619 14:48:21.526743 17263 net.cpp:886] Convolution35 <- Convolution34
I0619 14:48:21.526754 17263 net.cpp:860] Convolution35 -> Convolution35
I0619 14:48:21.527204 17263 net.cpp:509] Setting up Convolution35
I0619 14:48:21.527216 17263 net.cpp:516] Top shape: 128 16 32 32 (2097152)
I0619 14:48:21.527221 17263 net.cpp:524] Memory required for data: 1570243072
I0619 14:48:21.527233 17263 layer_factory.hpp:77] Creating layer BatchNorm35
I0619 14:48:21.527242 17263 net.cpp:459] Creating Layer BatchNorm35
I0619 14:48:21.527247 17263 net.cpp:886] BatchNorm35 <- Convolution35
I0619 14:48:21.527257 17263 net.cpp:847] BatchNorm35 -> Convolution35 (in-place)
I0619 14:48:21.527520 17263 net.cpp:509] Setting up BatchNorm35
I0619 14:48:21.527530 17263 net.cpp:516] Top shape: 128 16 32 32 (2097152)
I0619 14:48:21.527536 17263 net.cpp:524] Memory required for data: 1578631680
I0619 14:48:21.527550 17263 layer_factory.hpp:77] Creating layer Scale35
I0619 14:48:21.527559 17263 net.cpp:459] Creating Layer Scale35
I0619 14:48:21.527565 17263 net.cpp:886] Scale35 <- Convolution35
I0619 14:48:21.527575 17263 net.cpp:847] Scale35 -> Convolution35 (in-place)
I0619 14:48:21.527621 17263 layer_factory.hpp:77] Creating layer Scale35
I0619 14:48:21.527776 17263 net.cpp:509] Setting up Scale35
I0619 14:48:21.527786 17263 net.cpp:516] Top shape: 128 16 32 32 (2097152)
I0619 14:48:21.527791 17263 net.cpp:524] Memory required for data: 1587020288
I0619 14:48:21.527803 17263 layer_factory.hpp:77] Creating layer Eltwise17
I0619 14:48:21.527814 17263 net.cpp:459] Creating Layer Eltwise17
I0619 14:48:21.527820 17263 net.cpp:886] Eltwise17 <- Eltwise16_ReLU33_0_split_1
I0619 14:48:21.527827 17263 net.cpp:886] Eltwise17 <- Convolution35
I0619 14:48:21.527835 17263 net.cpp:860] Eltwise17 -> Eltwise17
I0619 14:48:21.527869 17263 net.cpp:509] Setting up Eltwise17
I0619 14:48:21.527878 17263 net.cpp:516] Top shape: 128 16 32 32 (2097152)
I0619 14:48:21.527884 17263 net.cpp:524] Memory required for data: 1595408896
I0619 14:48:21.527889 17263 layer_factory.hpp:77] Creating layer ReLU35
I0619 14:48:21.527895 17263 net.cpp:459] Creating Layer ReLU35
I0619 14:48:21.527901 17263 net.cpp:886] ReLU35 <- Eltwise17
I0619 14:48:21.527910 17263 net.cpp:847] ReLU35 -> Eltwise17 (in-place)
I0619 14:48:21.527920 17263 net.cpp:509] Setting up ReLU35
I0619 14:48:21.527927 17263 net.cpp:516] Top shape: 128 16 32 32 (2097152)
I0619 14:48:21.527932 17263 net.cpp:524] Memory required for data: 1603797504
I0619 14:48:21.527937 17263 layer_factory.hpp:77] Creating layer Eltwise17_ReLU35_0_split
I0619 14:48:21.527945 17263 net.cpp:459] Creating Layer Eltwise17_ReLU35_0_split
I0619 14:48:21.527951 17263 net.cpp:886] Eltwise17_ReLU35_0_split <- Eltwise17
I0619 14:48:21.527957 17263 net.cpp:860] Eltwise17_ReLU35_0_split -> Eltwise17_ReLU35_0_split_0
I0619 14:48:21.527966 17263 net.cpp:860] Eltwise17_ReLU35_0_split -> Eltwise17_ReLU35_0_split_1
I0619 14:48:21.528023 17263 net.cpp:509] Setting up Eltwise17_ReLU35_0_split
I0619 14:48:21.528031 17263 net.cpp:516] Top shape: 128 16 32 32 (2097152)
I0619 14:48:21.528038 17263 net.cpp:516] Top shape: 128 16 32 32 (2097152)
I0619 14:48:21.528043 17263 net.cpp:524] Memory required for data: 1620574720
I0619 14:48:21.528051 17263 layer_factory.hpp:77] Creating layer Convolution36
I0619 14:48:21.528069 17263 net.cpp:459] Creating Layer Convolution36
I0619 14:48:21.528090 17263 net.cpp:886] Convolution36 <- Eltwise17_ReLU35_0_split_0
I0619 14:48:21.528100 17263 net.cpp:860] Convolution36 -> Convolution36
I0619 14:48:21.528544 17263 net.cpp:509] Setting up Convolution36
I0619 14:48:21.528556 17263 net.cpp:516] Top shape: 128 16 32 32 (2097152)
I0619 14:48:21.528561 17263 net.cpp:524] Memory required for data: 1628963328
I0619 14:48:21.528574 17263 layer_factory.hpp:77] Creating layer BatchNorm36
I0619 14:48:21.528587 17263 net.cpp:459] Creating Layer BatchNorm36
I0619 14:48:21.528594 17263 net.cpp:886] BatchNorm36 <- Convolution36
I0619 14:48:21.528604 17263 net.cpp:847] BatchNorm36 -> Convolution36 (in-place)
I0619 14:48:21.528869 17263 net.cpp:509] Setting up BatchNorm36
I0619 14:48:21.528879 17263 net.cpp:516] Top shape: 128 16 32 32 (2097152)
I0619 14:48:21.528884 17263 net.cpp:524] Memory required for data: 1637351936
I0619 14:48:21.528898 17263 layer_factory.hpp:77] Creating layer Scale36
I0619 14:48:21.528910 17263 net.cpp:459] Creating Layer Scale36
I0619 14:48:21.528916 17263 net.cpp:886] Scale36 <- Convolution36
I0619 14:48:21.528923 17263 net.cpp:847] Scale36 -> Convolution36 (in-place)
I0619 14:48:21.528972 17263 layer_factory.hpp:77] Creating layer Scale36
I0619 14:48:21.529132 17263 net.cpp:509] Setting up Scale36
I0619 14:48:21.529142 17263 net.cpp:516] Top shape: 128 16 32 32 (2097152)
I0619 14:48:21.529147 17263 net.cpp:524] Memory required for data: 1645740544
I0619 14:48:21.529160 17263 layer_factory.hpp:77] Creating layer ReLU36
I0619 14:48:21.529167 17263 net.cpp:459] Creating Layer ReLU36
I0619 14:48:21.529172 17263 net.cpp:886] ReLU36 <- Convolution36
I0619 14:48:21.529182 17263 net.cpp:847] ReLU36 -> Convolution36 (in-place)
I0619 14:48:21.529191 17263 net.cpp:509] Setting up ReLU36
I0619 14:48:21.529198 17263 net.cpp:516] Top shape: 128 16 32 32 (2097152)
I0619 14:48:21.529203 17263 net.cpp:524] Memory required for data: 1654129152
I0619 14:48:21.529208 17263 layer_factory.hpp:77] Creating layer Convolution37
I0619 14:48:21.529222 17263 net.cpp:459] Creating Layer Convolution37
I0619 14:48:21.529228 17263 net.cpp:886] Convolution37 <- Convolution36
I0619 14:48:21.529237 17263 net.cpp:860] Convolution37 -> Convolution37
I0619 14:48:21.529670 17263 net.cpp:509] Setting up Convolution37
I0619 14:48:21.529680 17263 net.cpp:516] Top shape: 128 16 32 32 (2097152)
I0619 14:48:21.529685 17263 net.cpp:524] Memory required for data: 1662517760
I0619 14:48:21.529697 17263 layer_factory.hpp:77] Creating layer BatchNorm37
I0619 14:48:21.529708 17263 net.cpp:459] Creating Layer BatchNorm37
I0619 14:48:21.529714 17263 net.cpp:886] BatchNorm37 <- Convolution37
I0619 14:48:21.529724 17263 net.cpp:847] BatchNorm37 -> Convolution37 (in-place)
I0619 14:48:21.529999 17263 net.cpp:509] Setting up BatchNorm37
I0619 14:48:21.530009 17263 net.cpp:516] Top shape: 128 16 32 32 (2097152)
I0619 14:48:21.530014 17263 net.cpp:524] Memory required for data: 1670906368
I0619 14:48:21.530064 17263 layer_factory.hpp:77] Creating layer Scale37
I0619 14:48:21.530076 17263 net.cpp:459] Creating Layer Scale37
I0619 14:48:21.530083 17263 net.cpp:886] Scale37 <- Convolution37
I0619 14:48:21.530092 17263 net.cpp:847] Scale37 -> Convolution37 (in-place)
I0619 14:48:21.530140 17263 layer_factory.hpp:77] Creating layer Scale37
I0619 14:48:21.530298 17263 net.cpp:509] Setting up Scale37
I0619 14:48:21.530309 17263 net.cpp:516] Top shape: 128 16 32 32 (2097152)
I0619 14:48:21.530314 17263 net.cpp:524] Memory required for data: 1679294976
I0619 14:48:21.530326 17263 layer_factory.hpp:77] Creating layer Eltwise18
I0619 14:48:21.530338 17263 net.cpp:459] Creating Layer Eltwise18
I0619 14:48:21.530344 17263 net.cpp:886] Eltwise18 <- Eltwise17_ReLU35_0_split_1
I0619 14:48:21.530350 17263 net.cpp:886] Eltwise18 <- Convolution37
I0619 14:48:21.530369 17263 net.cpp:860] Eltwise18 -> Eltwise18
I0619 14:48:21.530406 17263 net.cpp:509] Setting up Eltwise18
I0619 14:48:21.530416 17263 net.cpp:516] Top shape: 128 16 32 32 (2097152)
I0619 14:48:21.530424 17263 net.cpp:524] Memory required for data: 1687683584
I0619 14:48:21.530448 17263 layer_factory.hpp:77] Creating layer ReLU37
I0619 14:48:21.530458 17263 net.cpp:459] Creating Layer ReLU37
I0619 14:48:21.530464 17263 net.cpp:886] ReLU37 <- Eltwise18
I0619 14:48:21.530474 17263 net.cpp:847] ReLU37 -> Eltwise18 (in-place)
I0619 14:48:21.530484 17263 net.cpp:509] Setting up ReLU37
I0619 14:48:21.530493 17263 net.cpp:516] Top shape: 128 16 32 32 (2097152)
I0619 14:48:21.530498 17263 net.cpp:524] Memory required for data: 1696072192
I0619 14:48:21.530503 17263 layer_factory.hpp:77] Creating layer Eltwise18_ReLU37_0_split
I0619 14:48:21.530509 17263 net.cpp:459] Creating Layer Eltwise18_ReLU37_0_split
I0619 14:48:21.530514 17263 net.cpp:886] Eltwise18_ReLU37_0_split <- Eltwise18
I0619 14:48:21.530522 17263 net.cpp:860] Eltwise18_ReLU37_0_split -> Eltwise18_ReLU37_0_split_0
I0619 14:48:21.530531 17263 net.cpp:860] Eltwise18_ReLU37_0_split -> Eltwise18_ReLU37_0_split_1
I0619 14:48:21.530587 17263 net.cpp:509] Setting up Eltwise18_ReLU37_0_split
I0619 14:48:21.530597 17263 net.cpp:516] Top shape: 128 16 32 32 (2097152)
I0619 14:48:21.530604 17263 net.cpp:516] Top shape: 128 16 32 32 (2097152)
I0619 14:48:21.530609 17263 net.cpp:524] Memory required for data: 1712849408
I0619 14:48:21.530614 17263 layer_factory.hpp:77] Creating layer Pooling1
I0619 14:48:21.530622 17263 net.cpp:459] Creating Layer Pooling1
I0619 14:48:21.530628 17263 net.cpp:886] Pooling1 <- Eltwise18_ReLU37_0_split_0
I0619 14:48:21.530639 17263 net.cpp:860] Pooling1 -> Pooling1
I0619 14:48:21.530695 17263 net.cpp:509] Setting up Pooling1
I0619 14:48:21.530704 17263 net.cpp:516] Top shape: 128 16 16 16 (524288)
I0619 14:48:21.530709 17263 net.cpp:524] Memory required for data: 1714946560
I0619 14:48:21.530714 17263 layer_factory.hpp:77] Creating layer Input1
I0619 14:48:21.530722 17263 net.cpp:459] Creating Layer Input1
I0619 14:48:21.530732 17263 net.cpp:860] Input1 -> Input1
I0619 14:48:21.530768 17263 net.cpp:509] Setting up Input1
I0619 14:48:21.530779 17263 net.cpp:516] Top shape: 128 16 16 16 (524288)
I0619 14:48:21.530784 17263 net.cpp:524] Memory required for data: 1717043712
I0619 14:48:21.530789 17263 layer_factory.hpp:77] Creating layer Concat1
I0619 14:48:21.530797 17263 net.cpp:459] Creating Layer Concat1
I0619 14:48:21.530803 17263 net.cpp:886] Concat1 <- Pooling1
I0619 14:48:21.530809 17263 net.cpp:886] Concat1 <- Input1
I0619 14:48:21.530817 17263 net.cpp:860] Concat1 -> Concat1
I0619 14:48:21.530851 17263 net.cpp:509] Setting up Concat1
I0619 14:48:21.530860 17263 net.cpp:516] Top shape: 128 32 16 16 (1048576)
I0619 14:48:21.530865 17263 net.cpp:524] Memory required for data: 1721238016
I0619 14:48:21.530870 17263 layer_factory.hpp:77] Creating layer Convolution38
I0619 14:48:21.530884 17263 net.cpp:459] Creating Layer Convolution38
I0619 14:48:21.530890 17263 net.cpp:886] Convolution38 <- Eltwise18_ReLU37_0_split_1
I0619 14:48:21.530901 17263 net.cpp:860] Convolution38 -> Convolution38
I0619 14:48:21.532157 17263 net.cpp:509] Setting up Convolution38
I0619 14:48:21.532176 17263 net.cpp:516] Top shape: 128 32 16 16 (1048576)
I0619 14:48:21.532182 17263 net.cpp:524] Memory required for data: 1725432320
I0619 14:48:21.532196 17263 layer_factory.hpp:77] Creating layer BatchNorm38
I0619 14:48:21.532209 17263 net.cpp:459] Creating Layer BatchNorm38
I0619 14:48:21.532215 17263 net.cpp:886] BatchNorm38 <- Convolution38
I0619 14:48:21.532225 17263 net.cpp:847] BatchNorm38 -> Convolution38 (in-place)
I0619 14:48:21.532482 17263 net.cpp:509] Setting up BatchNorm38
I0619 14:48:21.532491 17263 net.cpp:516] Top shape: 128 32 16 16 (1048576)
I0619 14:48:21.532496 17263 net.cpp:524] Memory required for data: 1729626624
I0619 14:48:21.532511 17263 layer_factory.hpp:77] Creating layer Scale38
I0619 14:48:21.532522 17263 net.cpp:459] Creating Layer Scale38
I0619 14:48:21.532528 17263 net.cpp:886] Scale38 <- Convolution38
I0619 14:48:21.532536 17263 net.cpp:847] Scale38 -> Convolution38 (in-place)
I0619 14:48:21.532579 17263 layer_factory.hpp:77] Creating layer Scale38
I0619 14:48:21.532740 17263 net.cpp:509] Setting up Scale38
I0619 14:48:21.532766 17263 net.cpp:516] Top shape: 128 32 16 16 (1048576)
I0619 14:48:21.532773 17263 net.cpp:524] Memory required for data: 1733820928
I0619 14:48:21.532785 17263 layer_factory.hpp:77] Creating layer ReLU38
I0619 14:48:21.532794 17263 net.cpp:459] Creating Layer ReLU38
I0619 14:48:21.532799 17263 net.cpp:886] ReLU38 <- Convolution38
I0619 14:48:21.532810 17263 net.cpp:847] ReLU38 -> Convolution38 (in-place)
I0619 14:48:21.532819 17263 net.cpp:509] Setting up ReLU38
I0619 14:48:21.532826 17263 net.cpp:516] Top shape: 128 32 16 16 (1048576)
I0619 14:48:21.532831 17263 net.cpp:524] Memory required for data: 1738015232
I0619 14:48:21.532836 17263 layer_factory.hpp:77] Creating layer Convolution39
I0619 14:48:21.532850 17263 net.cpp:459] Creating Layer Convolution39
I0619 14:48:21.532855 17263 net.cpp:886] Convolution39 <- Convolution38
I0619 14:48:21.532863 17263 net.cpp:860] Convolution39 -> Convolution39
I0619 14:48:21.533613 17263 net.cpp:509] Setting up Convolution39
I0619 14:48:21.533627 17263 net.cpp:516] Top shape: 128 32 16 16 (1048576)
I0619 14:48:21.533632 17263 net.cpp:524] Memory required for data: 1742209536
I0619 14:48:21.533643 17263 layer_factory.hpp:77] Creating layer BatchNorm39
I0619 14:48:21.533654 17263 net.cpp:459] Creating Layer BatchNorm39
I0619 14:48:21.533660 17263 net.cpp:886] BatchNorm39 <- Convolution39
I0619 14:48:21.533668 17263 net.cpp:847] BatchNorm39 -> Convolution39 (in-place)
I0619 14:48:21.533921 17263 net.cpp:509] Setting up BatchNorm39
I0619 14:48:21.533929 17263 net.cpp:516] Top shape: 128 32 16 16 (1048576)
I0619 14:48:21.533934 17263 net.cpp:524] Memory required for data: 1746403840
I0619 14:48:21.533948 17263 layer_factory.hpp:77] Creating layer Scale39
I0619 14:48:21.533962 17263 net.cpp:459] Creating Layer Scale39
I0619 14:48:21.533967 17263 net.cpp:886] Scale39 <- Convolution39
I0619 14:48:21.533974 17263 net.cpp:847] Scale39 -> Convolution39 (in-place)
I0619 14:48:21.534019 17263 layer_factory.hpp:77] Creating layer Scale39
I0619 14:48:21.534171 17263 net.cpp:509] Setting up Scale39
I0619 14:48:21.534181 17263 net.cpp:516] Top shape: 128 32 16 16 (1048576)
I0619 14:48:21.534186 17263 net.cpp:524] Memory required for data: 1750598144
I0619 14:48:21.534198 17263 layer_factory.hpp:77] Creating layer Eltwise19
I0619 14:48:21.534209 17263 net.cpp:459] Creating Layer Eltwise19
I0619 14:48:21.534215 17263 net.cpp:886] Eltwise19 <- Concat1
I0619 14:48:21.534224 17263 net.cpp:886] Eltwise19 <- Convolution39
I0619 14:48:21.534231 17263 net.cpp:860] Eltwise19 -> Eltwise19
I0619 14:48:21.534258 17263 net.cpp:509] Setting up Eltwise19
I0619 14:48:21.534266 17263 net.cpp:516] Top shape: 128 32 16 16 (1048576)
I0619 14:48:21.534271 17263 net.cpp:524] Memory required for data: 1754792448
I0619 14:48:21.534276 17263 layer_factory.hpp:77] Creating layer ReLU39
I0619 14:48:21.534283 17263 net.cpp:459] Creating Layer ReLU39
I0619 14:48:21.534288 17263 net.cpp:886] ReLU39 <- Eltwise19
I0619 14:48:21.534296 17263 net.cpp:847] ReLU39 -> Eltwise19 (in-place)
I0619 14:48:21.534303 17263 net.cpp:509] Setting up ReLU39
I0619 14:48:21.534310 17263 net.cpp:516] Top shape: 128 32 16 16 (1048576)
I0619 14:48:21.534314 17263 net.cpp:524] Memory required for data: 1758986752
I0619 14:48:21.534319 17263 layer_factory.hpp:77] Creating layer Eltwise19_ReLU39_0_split
I0619 14:48:21.534329 17263 net.cpp:459] Creating Layer Eltwise19_ReLU39_0_split
I0619 14:48:21.534334 17263 net.cpp:886] Eltwise19_ReLU39_0_split <- Eltwise19
I0619 14:48:21.534342 17263 net.cpp:860] Eltwise19_ReLU39_0_split -> Eltwise19_ReLU39_0_split_0
I0619 14:48:21.534350 17263 net.cpp:860] Eltwise19_ReLU39_0_split -> Eltwise19_ReLU39_0_split_1
I0619 14:48:21.534409 17263 net.cpp:509] Setting up Eltwise19_ReLU39_0_split
I0619 14:48:21.534418 17263 net.cpp:516] Top shape: 128 32 16 16 (1048576)
I0619 14:48:21.534425 17263 net.cpp:516] Top shape: 128 32 16 16 (1048576)
I0619 14:48:21.534430 17263 net.cpp:524] Memory required for data: 1767375360
I0619 14:48:21.534438 17263 layer_factory.hpp:77] Creating layer Convolution40
I0619 14:48:21.534466 17263 net.cpp:459] Creating Layer Convolution40
I0619 14:48:21.534471 17263 net.cpp:886] Convolution40 <- Eltwise19_ReLU39_0_split_0
I0619 14:48:21.534481 17263 net.cpp:860] Convolution40 -> Convolution40
I0619 14:48:21.535233 17263 net.cpp:509] Setting up Convolution40
I0619 14:48:21.535245 17263 net.cpp:516] Top shape: 128 32 16 16 (1048576)
I0619 14:48:21.535250 17263 net.cpp:524] Memory required for data: 1771569664
I0619 14:48:21.535264 17263 layer_factory.hpp:77] Creating layer BatchNorm40
I0619 14:48:21.535274 17263 net.cpp:459] Creating Layer BatchNorm40
I0619 14:48:21.535279 17263 net.cpp:886] BatchNorm40 <- Convolution40
I0619 14:48:21.535290 17263 net.cpp:847] BatchNorm40 -> Convolution40 (in-place)
I0619 14:48:21.535543 17263 net.cpp:509] Setting up BatchNorm40
I0619 14:48:21.535553 17263 net.cpp:516] Top shape: 128 32 16 16 (1048576)
I0619 14:48:21.535558 17263 net.cpp:524] Memory required for data: 1775763968
I0619 14:48:21.535572 17263 layer_factory.hpp:77] Creating layer Scale40
I0619 14:48:21.535579 17263 net.cpp:459] Creating Layer Scale40
I0619 14:48:21.535585 17263 net.cpp:886] Scale40 <- Convolution40
I0619 14:48:21.535593 17263 net.cpp:847] Scale40 -> Convolution40 (in-place)
I0619 14:48:21.535636 17263 layer_factory.hpp:77] Creating layer Scale40
I0619 14:48:21.535790 17263 net.cpp:509] Setting up Scale40
I0619 14:48:21.535801 17263 net.cpp:516] Top shape: 128 32 16 16 (1048576)
I0619 14:48:21.535806 17263 net.cpp:524] Memory required for data: 1779958272
I0619 14:48:21.535817 17263 layer_factory.hpp:77] Creating layer ReLU40
I0619 14:48:21.535825 17263 net.cpp:459] Creating Layer ReLU40
I0619 14:48:21.535830 17263 net.cpp:886] ReLU40 <- Convolution40
I0619 14:48:21.535840 17263 net.cpp:847] ReLU40 -> Convolution40 (in-place)
I0619 14:48:21.535850 17263 net.cpp:509] Setting up ReLU40
I0619 14:48:21.535856 17263 net.cpp:516] Top shape: 128 32 16 16 (1048576)
I0619 14:48:21.535861 17263 net.cpp:524] Memory required for data: 1784152576
I0619 14:48:21.535866 17263 layer_factory.hpp:77] Creating layer Convolution41
I0619 14:48:21.535876 17263 net.cpp:459] Creating Layer Convolution41
I0619 14:48:21.535881 17263 net.cpp:886] Convolution41 <- Convolution40
I0619 14:48:21.535892 17263 net.cpp:860] Convolution41 -> Convolution41
I0619 14:48:21.536633 17263 net.cpp:509] Setting up Convolution41
I0619 14:48:21.536644 17263 net.cpp:516] Top shape: 128 32 16 16 (1048576)
I0619 14:48:21.536650 17263 net.cpp:524] Memory required for data: 1788346880
I0619 14:48:21.536661 17263 layer_factory.hpp:77] Creating layer BatchNorm41
I0619 14:48:21.536669 17263 net.cpp:459] Creating Layer BatchNorm41
I0619 14:48:21.536675 17263 net.cpp:886] BatchNorm41 <- Convolution41
I0619 14:48:21.536685 17263 net.cpp:847] BatchNorm41 -> Convolution41 (in-place)
I0619 14:48:21.536934 17263 net.cpp:509] Setting up BatchNorm41
I0619 14:48:21.536943 17263 net.cpp:516] Top shape: 128 32 16 16 (1048576)
I0619 14:48:21.536948 17263 net.cpp:524] Memory required for data: 1792541184
I0619 14:48:21.536962 17263 layer_factory.hpp:77] Creating layer Scale41
I0619 14:48:21.536969 17263 net.cpp:459] Creating Layer Scale41
I0619 14:48:21.536974 17263 net.cpp:886] Scale41 <- Convolution41
I0619 14:48:21.536981 17263 net.cpp:847] Scale41 -> Convolution41 (in-place)
I0619 14:48:21.537026 17263 layer_factory.hpp:77] Creating layer Scale41
I0619 14:48:21.537173 17263 net.cpp:509] Setting up Scale41
I0619 14:48:21.537184 17263 net.cpp:516] Top shape: 128 32 16 16 (1048576)
I0619 14:48:21.537189 17263 net.cpp:524] Memory required for data: 1796735488
I0619 14:48:21.537199 17263 layer_factory.hpp:77] Creating layer Eltwise20
I0619 14:48:21.537209 17263 net.cpp:459] Creating Layer Eltwise20
I0619 14:48:21.537215 17263 net.cpp:886] Eltwise20 <- Eltwise19_ReLU39_0_split_1
I0619 14:48:21.537222 17263 net.cpp:886] Eltwise20 <- Convolution41
I0619 14:48:21.537230 17263 net.cpp:860] Eltwise20 -> Eltwise20
I0619 14:48:21.537253 17263 net.cpp:509] Setting up Eltwise20
I0619 14:48:21.537266 17263 net.cpp:516] Top shape: 128 32 16 16 (1048576)
I0619 14:48:21.537284 17263 net.cpp:524] Memory required for data: 1800929792
I0619 14:48:21.537291 17263 layer_factory.hpp:77] Creating layer ReLU41
I0619 14:48:21.537302 17263 net.cpp:459] Creating Layer ReLU41
I0619 14:48:21.537307 17263 net.cpp:886] ReLU41 <- Eltwise20
I0619 14:48:21.537314 17263 net.cpp:847] ReLU41 -> Eltwise20 (in-place)
I0619 14:48:21.537323 17263 net.cpp:509] Setting up ReLU41
I0619 14:48:21.537330 17263 net.cpp:516] Top shape: 128 32 16 16 (1048576)
I0619 14:48:21.537335 17263 net.cpp:524] Memory required for data: 1805124096
I0619 14:48:21.537340 17263 layer_factory.hpp:77] Creating layer Eltwise20_ReLU41_0_split
I0619 14:48:21.537349 17263 net.cpp:459] Creating Layer Eltwise20_ReLU41_0_split
I0619 14:48:21.537354 17263 net.cpp:886] Eltwise20_ReLU41_0_split <- Eltwise20
I0619 14:48:21.537361 17263 net.cpp:860] Eltwise20_ReLU41_0_split -> Eltwise20_ReLU41_0_split_0
I0619 14:48:21.537371 17263 net.cpp:860] Eltwise20_ReLU41_0_split -> Eltwise20_ReLU41_0_split_1
I0619 14:48:21.537420 17263 net.cpp:509] Setting up Eltwise20_ReLU41_0_split
I0619 14:48:21.537430 17263 net.cpp:516] Top shape: 128 32 16 16 (1048576)
I0619 14:48:21.537436 17263 net.cpp:516] Top shape: 128 32 16 16 (1048576)
I0619 14:48:21.537441 17263 net.cpp:524] Memory required for data: 1813512704
I0619 14:48:21.537446 17263 layer_factory.hpp:77] Creating layer Convolution42
I0619 14:48:21.537458 17263 net.cpp:459] Creating Layer Convolution42
I0619 14:48:21.537464 17263 net.cpp:886] Convolution42 <- Eltwise20_ReLU41_0_split_0
I0619 14:48:21.537472 17263 net.cpp:860] Convolution42 -> Convolution42
I0619 14:48:21.538220 17263 net.cpp:509] Setting up Convolution42
I0619 14:48:21.538231 17263 net.cpp:516] Top shape: 128 32 16 16 (1048576)
I0619 14:48:21.538236 17263 net.cpp:524] Memory required for data: 1817707008
I0619 14:48:21.538249 17263 layer_factory.hpp:77] Creating layer BatchNorm42
I0619 14:48:21.538262 17263 net.cpp:459] Creating Layer BatchNorm42
I0619 14:48:21.538267 17263 net.cpp:886] BatchNorm42 <- Convolution42
I0619 14:48:21.538278 17263 net.cpp:847] BatchNorm42 -> Convolution42 (in-place)
I0619 14:48:21.538537 17263 net.cpp:509] Setting up BatchNorm42
I0619 14:48:21.538547 17263 net.cpp:516] Top shape: 128 32 16 16 (1048576)
I0619 14:48:21.538552 17263 net.cpp:524] Memory required for data: 1821901312
I0619 14:48:21.538568 17263 layer_factory.hpp:77] Creating layer Scale42
I0619 14:48:21.538575 17263 net.cpp:459] Creating Layer Scale42
I0619 14:48:21.538581 17263 net.cpp:886] Scale42 <- Convolution42
I0619 14:48:21.538591 17263 net.cpp:847] Scale42 -> Convolution42 (in-place)
I0619 14:48:21.538635 17263 layer_factory.hpp:77] Creating layer Scale42
I0619 14:48:21.538781 17263 net.cpp:509] Setting up Scale42
I0619 14:48:21.538791 17263 net.cpp:516] Top shape: 128 32 16 16 (1048576)
I0619 14:48:21.538795 17263 net.cpp:524] Memory required for data: 1826095616
I0619 14:48:21.538807 17263 layer_factory.hpp:77] Creating layer ReLU42
I0619 14:48:21.538815 17263 net.cpp:459] Creating Layer ReLU42
I0619 14:48:21.538820 17263 net.cpp:886] ReLU42 <- Convolution42
I0619 14:48:21.538827 17263 net.cpp:847] ReLU42 -> Convolution42 (in-place)
I0619 14:48:21.538836 17263 net.cpp:509] Setting up ReLU42
I0619 14:48:21.538842 17263 net.cpp:516] Top shape: 128 32 16 16 (1048576)
I0619 14:48:21.538847 17263 net.cpp:524] Memory required for data: 1830289920
I0619 14:48:21.538852 17263 layer_factory.hpp:77] Creating layer Convolution43
I0619 14:48:21.538866 17263 net.cpp:459] Creating Layer Convolution43
I0619 14:48:21.538872 17263 net.cpp:886] Convolution43 <- Convolution42
I0619 14:48:21.538882 17263 net.cpp:860] Convolution43 -> Convolution43
I0619 14:48:21.539616 17263 net.cpp:509] Setting up Convolution43
I0619 14:48:21.539626 17263 net.cpp:516] Top shape: 128 32 16 16 (1048576)
I0619 14:48:21.539631 17263 net.cpp:524] Memory required for data: 1834484224
I0619 14:48:21.539644 17263 layer_factory.hpp:77] Creating layer BatchNorm43
I0619 14:48:21.539654 17263 net.cpp:459] Creating Layer BatchNorm43
I0619 14:48:21.539662 17263 net.cpp:886] BatchNorm43 <- Convolution43
I0619 14:48:21.539691 17263 net.cpp:847] BatchNorm43 -> Convolution43 (in-place)
I0619 14:48:21.539947 17263 net.cpp:509] Setting up BatchNorm43
I0619 14:48:21.539955 17263 net.cpp:516] Top shape: 128 32 16 16 (1048576)
I0619 14:48:21.539960 17263 net.cpp:524] Memory required for data: 1838678528
I0619 14:48:21.539975 17263 layer_factory.hpp:77] Creating layer Scale43
I0619 14:48:21.539985 17263 net.cpp:459] Creating Layer Scale43
I0619 14:48:21.539991 17263 net.cpp:886] Scale43 <- Convolution43
I0619 14:48:21.540001 17263 net.cpp:847] Scale43 -> Convolution43 (in-place)
I0619 14:48:21.540045 17263 layer_factory.hpp:77] Creating layer Scale43
I0619 14:48:21.540197 17263 net.cpp:509] Setting up Scale43
I0619 14:48:21.540207 17263 net.cpp:516] Top shape: 128 32 16 16 (1048576)
I0619 14:48:21.540212 17263 net.cpp:524] Memory required for data: 1842872832
I0619 14:48:21.540223 17263 layer_factory.hpp:77] Creating layer Eltwise21
I0619 14:48:21.540231 17263 net.cpp:459] Creating Layer Eltwise21
I0619 14:48:21.540237 17263 net.cpp:886] Eltwise21 <- Eltwise20_ReLU41_0_split_1
I0619 14:48:21.540244 17263 net.cpp:886] Eltwise21 <- Convolution43
I0619 14:48:21.540254 17263 net.cpp:860] Eltwise21 -> Eltwise21
I0619 14:48:21.540278 17263 net.cpp:509] Setting up Eltwise21
I0619 14:48:21.540287 17263 net.cpp:516] Top shape: 128 32 16 16 (1048576)
I0619 14:48:21.540292 17263 net.cpp:524] Memory required for data: 1847067136
I0619 14:48:21.540295 17263 layer_factory.hpp:77] Creating layer ReLU43
I0619 14:48:21.540305 17263 net.cpp:459] Creating Layer ReLU43
I0619 14:48:21.540310 17263 net.cpp:886] ReLU43 <- Eltwise21
I0619 14:48:21.540318 17263 net.cpp:847] ReLU43 -> Eltwise21 (in-place)
I0619 14:48:21.540325 17263 net.cpp:509] Setting up ReLU43
I0619 14:48:21.540333 17263 net.cpp:516] Top shape: 128 32 16 16 (1048576)
I0619 14:48:21.540336 17263 net.cpp:524] Memory required for data: 1851261440
I0619 14:48:21.540341 17263 layer_factory.hpp:77] Creating layer Eltwise21_ReLU43_0_split
I0619 14:48:21.540349 17263 net.cpp:459] Creating Layer Eltwise21_ReLU43_0_split
I0619 14:48:21.540354 17263 net.cpp:886] Eltwise21_ReLU43_0_split <- Eltwise21
I0619 14:48:21.540362 17263 net.cpp:860] Eltwise21_ReLU43_0_split -> Eltwise21_ReLU43_0_split_0
I0619 14:48:21.540371 17263 net.cpp:860] Eltwise21_ReLU43_0_split -> Eltwise21_ReLU43_0_split_1
I0619 14:48:21.540416 17263 net.cpp:509] Setting up Eltwise21_ReLU43_0_split
I0619 14:48:21.540424 17263 net.cpp:516] Top shape: 128 32 16 16 (1048576)
I0619 14:48:21.540431 17263 net.cpp:516] Top shape: 128 32 16 16 (1048576)
I0619 14:48:21.540436 17263 net.cpp:524] Memory required for data: 1859650048
I0619 14:48:21.540441 17263 layer_factory.hpp:77] Creating layer Convolution44
I0619 14:48:21.540454 17263 net.cpp:459] Creating Layer Convolution44
I0619 14:48:21.540459 17263 net.cpp:886] Convolution44 <- Eltwise21_ReLU43_0_split_0
I0619 14:48:21.540468 17263 net.cpp:860] Convolution44 -> Convolution44
…
I0619 14:48:21.947346 17263 net.cpp:847] BatchNorm92 -> Convolution92 (in-place)
I0619 14:48:21.947738 17263 net.cpp:509] Setting up BatchNorm92
I0619 14:48:21.947752 17263 net.cpp:516] Top shape: 128 64 8 8 (524288)
I0619 14:48:21.947759 17263 net.cpp:524] Memory required for data: 2767717888
I0619 14:48:21.947780 17263 layer_factory.hpp:77] Creating layer Scale92
I0619 14:48:21.947793 17263 net.cpp:459] Creating Layer Scale92
I0619 14:48:21.947800 17263 net.cpp:886] Scale92 <- Convolution92
I0619 14:48:21.947810 17263 net.cpp:847] Scale92 -> Convolution92 (in-place)
I0619 14:48:21.947882 17263 layer_factory.hpp:77] Creating layer Scale92
I0619 14:48:21.948123 17263 net.cpp:509] Setting up Scale92
I0619 14:48:21.948137 17263 net.cpp:516] Top shape: 128 64 8 8 (524288)
I0619 14:48:21.948143 17263 net.cpp:524] Memory required for data: 2769815040
I0619 14:48:21.948160 17263 layer_factory.hpp:77] Creating layer ReLU92
I0619 14:48:21.948174 17263 net.cpp:459] Creating Layer ReLU92
I0619 14:48:21.948182 17263 net.cpp:886] ReLU92 <- Convolution92
I0619 14:48:21.948192 17263 net.cpp:847] ReLU92 -> Convolution92 (in-place)
I0619 14:48:21.948204 17263 net.cpp:509] Setting up ReLU92
I0619 14:48:21.948213 17263 net.cpp:516] Top shape: 128 64 8 8 (524288)
I0619 14:48:21.948220 17263 net.cpp:524] Memory required for data: 2771912192
I0619 14:48:21.948226 17263 layer_factory.hpp:77] Creating layer Convolution93
I0619 14:48:21.948246 17263 net.cpp:459] Creating Layer Convolution93
I0619 14:48:21.948253 17263 net.cpp:886] Convolution93 <- Convolution92
I0619 14:48:21.948264 17263 net.cpp:860] Convolution93 -> Convolution93
I0619 14:48:21.951151 17263 net.cpp:509] Setting up Convolution93
I0619 14:48:21.951169 17263 net.cpp:516] Top shape: 128 64 8 8 (524288)
I0619 14:48:21.951175 17263 net.cpp:524] Memory required for data: 2774009344
I0619 14:48:21.951192 17263 layer_factory.hpp:77] Creating layer BatchNorm93
I0619 14:48:21.951208 17263 net.cpp:459] Creating Layer BatchNorm93
I0619 14:48:21.951221 17263 net.cpp:886] BatchNorm93 <- Convolution93
I0619 14:48:21.951253 17263 net.cpp:847] BatchNorm93 -> Convolution93 (in-place)
I0619 14:48:21.951648 17263 net.cpp:509] Setting up BatchNorm93
I0619 14:48:21.951663 17263 net.cpp:516] Top shape: 128 64 8 8 (524288)
I0619 14:48:21.951669 17263 net.cpp:524] Memory required for data: 2776106496
I0619 14:48:21.951690 17263 layer_factory.hpp:77] Creating layer Scale93
I0619 14:48:21.951705 17263 net.cpp:459] Creating Layer Scale93
I0619 14:48:21.951714 17263 net.cpp:886] Scale93 <- Convolution93
I0619 14:48:21.951724 17263 net.cpp:847] Scale93 -> Convolution93 (in-place)
I0619 14:48:21.951789 17263 layer_factory.hpp:77] Creating layer Scale93
I0619 14:48:21.952023 17263 net.cpp:509] Setting up Scale93
I0619 14:48:21.952035 17263 net.cpp:516] Top shape: 128 64 8 8 (524288)
I0619 14:48:21.952041 17263 net.cpp:524] Memory required for data: 2778203648
I0619 14:48:21.952057 17263 layer_factory.hpp:77] Creating layer Eltwise46
I0619 14:48:21.952072 17263 net.cpp:459] Creating Layer Eltwise46
I0619 14:48:21.952081 17263 net.cpp:886] Eltwise46 <- Eltwise45_ReLU91_0_split_1
I0619 14:48:21.952091 17263 net.cpp:886] Eltwise46 <- Convolution93
I0619 14:48:21.952102 17263 net.cpp:860] Eltwise46 -> Eltwise46
I0619 14:48:21.952139 17263 net.cpp:509] Setting up Eltwise46
I0619 14:48:21.952152 17263 net.cpp:516] Top shape: 128 64 8 8 (524288)
I0619 14:48:21.952157 17263 net.cpp:524] Memory required for data: 2780300800
I0619 14:48:21.952164 17263 layer_factory.hpp:77] Creating layer ReLU93
I0619 14:48:21.952174 17263 net.cpp:459] Creating Layer ReLU93
I0619 14:48:21.952183 17263 net.cpp:886] ReLU93 <- Eltwise46
I0619 14:48:21.952191 17263 net.cpp:847] ReLU93 -> Eltwise46 (in-place)
I0619 14:48:21.952203 17263 net.cpp:509] Setting up ReLU93
I0619 14:48:21.952213 17263 net.cpp:516] Top shape: 128 64 8 8 (524288)
I0619 14:48:21.952219 17263 net.cpp:524] Memory required for data: 2782397952
I0619 14:48:21.952225 17263 layer_factory.hpp:77] Creating layer Eltwise46_ReLU93_0_split
I0619 14:48:21.952239 17263 net.cpp:459] Creating Layer Eltwise46_ReLU93_0_split
I0619 14:48:21.952245 17263 net.cpp:886] Eltwise46_ReLU93_0_split <- Eltwise46
I0619 14:48:21.952255 17263 net.cpp:860] Eltwise46_ReLU93_0_split -> Eltwise46_ReLU93_0_split_0
I0619 14:48:21.952268 17263 net.cpp:860] Eltwise46_ReLU93_0_split -> Eltwise46_ReLU93_0_split_1
I0619 14:48:21.952337 17263 net.cpp:509] Setting up Eltwise46_ReLU93_0_split
I0619 14:48:21.952348 17263 net.cpp:516] Top shape: 128 64 8 8 (524288)
I0619 14:48:21.952358 17263 net.cpp:516] Top shape: 128 64 8 8 (524288)
I0619 14:48:21.952363 17263 net.cpp:524] Memory required for data: 2786592256
I0619 14:48:21.952370 17263 layer_factory.hpp:77] Creating layer Convolution94
I0619 14:48:21.952388 17263 net.cpp:459] Creating Layer Convolution94
I0619 14:48:21.952394 17263 net.cpp:886] Convolution94 <- Eltwise46_ReLU93_0_split_0
I0619 14:48:21.952407 17263 net.cpp:860] Convolution94 -> Convolution94
I0619 14:48:21.956207 17263 net.cpp:509] Setting up Convolution94
I0619 14:48:21.956231 17263 net.cpp:516] Top shape: 128 64 8 8 (524288)
I0619 14:48:21.956238 17263 net.cpp:524] Memory required for data: 2788689408
I0619 14:48:21.956256 17263 layer_factory.hpp:77] Creating layer BatchNorm94
I0619 14:48:21.956274 17263 net.cpp:459] Creating Layer BatchNorm94
I0619 14:48:21.956282 17263 net.cpp:886] BatchNorm94 <- Convolution94
I0619 14:48:21.956295 17263 net.cpp:847] BatchNorm94 -> Convolution94 (in-place)
I0619 14:48:21.956662 17263 net.cpp:509] Setting up BatchNorm94
I0619 14:48:21.956675 17263 net.cpp:516] Top shape: 128 64 8 8 (524288)
I0619 14:48:21.956681 17263 net.cpp:524] Memory required for data: 2790786560
I0619 14:48:21.956706 17263 layer_factory.hpp:77] Creating layer Scale94
I0619 14:48:21.956717 17263 net.cpp:459] Creating Layer Scale94
I0619 14:48:21.956725 17263 net.cpp:886] Scale94 <- Convolution94
I0619 14:48:21.956735 17263 net.cpp:847] Scale94 -> Convolution94 (in-place)
I0619 14:48:21.956801 17263 layer_factory.hpp:77] Creating layer Scale94
I0619 14:48:21.957026 17263 net.cpp:509] Setting up Scale94
I0619 14:48:21.957062 17263 net.cpp:516] Top shape: 128 64 8 8 (524288)
I0619 14:48:21.957068 17263 net.cpp:524] Memory required for data: 2792883712
I0619 14:48:21.957088 17263 layer_factory.hpp:77] Creating layer ReLU94
I0619 14:48:21.957100 17263 net.cpp:459] Creating Layer ReLU94
I0619 14:48:21.957108 17263 net.cpp:886] ReLU94 <- Convolution94
I0619 14:48:21.957124 17263 net.cpp:847] ReLU94 -> Convolution94 (in-place)
I0619 14:48:21.957137 17263 net.cpp:509] Setting up ReLU94
I0619 14:48:21.957145 17263 net.cpp:516] Top shape: 128 64 8 8 (524288)
I0619 14:48:21.957152 17263 net.cpp:524] Memory required for data: 2794980864
I0619 14:48:21.957159 17263 layer_factory.hpp:77] Creating layer Convolution95
I0619 14:48:21.957173 17263 net.cpp:459] Creating Layer Convolution95
I0619 14:48:21.957180 17263 net.cpp:886] Convolution95 <- Convolution94
I0619 14:48:21.957195 17263 net.cpp:860] Convolution95 -> Convolution95
I0619 14:48:21.959872 17263 net.cpp:509] Setting up Convolution95
I0619 14:48:21.959888 17263 net.cpp:516] Top shape: 128 64 8 8 (524288)
I0619 14:48:21.959895 17263 net.cpp:524] Memory required for data: 2797078016
I0619 14:48:21.959911 17263 layer_factory.hpp:77] Creating layer BatchNorm95
I0619 14:48:21.959923 17263 net.cpp:459] Creating Layer BatchNorm95
I0619 14:48:21.959930 17263 net.cpp:886] BatchNorm95 <- Convolution95
I0619 14:48:21.959944 17263 net.cpp:847] BatchNorm95 -> Convolution95 (in-place)
I0619 14:48:21.960314 17263 net.cpp:509] Setting up BatchNorm95
I0619 14:48:21.960325 17263 net.cpp:516] Top shape: 128 64 8 8 (524288)
I0619 14:48:21.960332 17263 net.cpp:524] Memory required for data: 2799175168
I0619 14:48:21.960350 17263 layer_factory.hpp:77] Creating layer Scale95
I0619 14:48:21.960361 17263 net.cpp:459] Creating Layer Scale95
I0619 14:48:21.960368 17263 net.cpp:886] Scale95 <- Convolution95
I0619 14:48:21.960381 17263 net.cpp:847] Scale95 -> Convolution95 (in-place)
I0619 14:48:21.960443 17263 layer_factory.hpp:77] Creating layer Scale95
I0619 14:48:21.960662 17263 net.cpp:509] Setting up Scale95
I0619 14:48:21.960675 17263 net.cpp:516] Top shape: 128 64 8 8 (524288)
I0619 14:48:21.960680 17263 net.cpp:524] Memory required for data: 2801272320
I0619 14:48:21.960695 17263 layer_factory.hpp:77] Creating layer Eltwise47
I0619 14:48:21.960707 17263 net.cpp:459] Creating Layer Eltwise47
I0619 14:48:21.960716 17263 net.cpp:886] Eltwise47 <- Eltwise46_ReLU93_0_split_1
I0619 14:48:21.960726 17263 net.cpp:886] Eltwise47 <- Convolution95
I0619 14:48:21.960738 17263 net.cpp:860] Eltwise47 -> Eltwise47
I0619 14:48:21.960772 17263 net.cpp:509] Setting up Eltwise47
I0619 14:48:21.960783 17263 net.cpp:516] Top shape: 128 64 8 8 (524288)
I0619 14:48:21.960788 17263 net.cpp:524] Memory required for data: 2803369472
I0619 14:48:21.960795 17263 layer_factory.hpp:77] Creating layer ReLU95
I0619 14:48:21.960808 17263 net.cpp:459] Creating Layer ReLU95
I0619 14:48:21.960815 17263 net.cpp:886] ReLU95 <- Eltwise47
I0619 14:48:21.960824 17263 net.cpp:847] ReLU95 -> Eltwise47 (in-place)
I0619 14:48:21.960834 17263 net.cpp:509] Setting up ReLU95
I0619 14:48:21.960844 17263 net.cpp:516] Top shape: 128 64 8 8 (524288)
I0619 14:48:21.960850 17263 net.cpp:524] Memory required for data: 2805466624
I0619 14:48:21.960855 17263 layer_factory.hpp:77] Creating layer Eltwise47_ReLU95_0_split
I0619 14:48:21.960865 17263 net.cpp:459] Creating Layer Eltwise47_ReLU95_0_split
I0619 14:48:21.960871 17263 net.cpp:886] Eltwise47_ReLU95_0_split <- Eltwise47
I0619 14:48:21.960883 17263 net.cpp:860] Eltwise47_ReLU95_0_split -> Eltwise47_ReLU95_0_split_0
I0619 14:48:21.960896 17263 net.cpp:860] Eltwise47_ReLU95_0_split -> Eltwise47_ReLU95_0_split_1
I0619 14:48:21.960959 17263 net.cpp:509] Setting up Eltwise47_ReLU95_0_split
I0619 14:48:21.960970 17263 net.cpp:516] Top shape: 128 64 8 8 (524288)
I0619 14:48:21.960978 17263 net.cpp:516] Top shape: 128 64 8 8 (524288)
I0619 14:48:21.960984 17263 net.cpp:524] Memory required for data: 2809660928
I0619 14:48:21.960995 17263 layer_factory.hpp:77] Creating layer Convolution96
I0619 14:48:21.961014 17263 net.cpp:459] Creating Layer Convolution96
I0619 14:48:21.961041 17263 net.cpp:886] Convolution96 <- Eltwise47_ReLU95_0_split_0
I0619 14:48:21.961055 17263 net.cpp:860] Convolution96 -> Convolution96
I0619 14:48:21.967978 17263 net.cpp:509] Setting up Convolution96
I0619 14:48:21.968049 17263 net.cpp:516] Top shape: 128 64 8 8 (524288)
I0619 14:48:21.968056 17263 net.cpp:524] Memory required for data: 2811758080
I0619 14:48:21.968240 17263 layer_factory.hpp:77] Creating layer BatchNorm96
I0619 14:48:21.968314 17263 net.cpp:459] Creating Layer BatchNorm96
I0619 14:48:21.968433 17263 net.cpp:886] BatchNorm96 <- Convolution96
I0619 14:48:21.968456 17263 net.cpp:847] BatchNorm96 -> Convolution96 (in-place)
I0619 14:48:21.968822 17263 net.cpp:509] Setting up BatchNorm96
I0619 14:48:21.968837 17263 net.cpp:516] Top shape: 128 64 8 8 (524288)
I0619 14:48:21.968842 17263 net.cpp:524] Memory required for data: 2813855232
I0619 14:48:21.968878 17263 layer_factory.hpp:77] Creating layer Scale96
I0619 14:48:21.968897 17263 net.cpp:459] Creating Layer Scale96
I0619 14:48:21.968905 17263 net.cpp:886] Scale96 <- Convolution96
I0619 14:48:21.968914 17263 net.cpp:847] Scale96 -> Convolution96 (in-place)
I0619 14:48:21.968982 17263 layer_factory.hpp:77] Creating layer Scale96
I0619 14:48:21.969182 17263 net.cpp:509] Setting up Scale96
I0619 14:48:21.969194 17263 net.cpp:516] Top shape: 128 64 8 8 (524288)
I0619 14:48:21.969199 17263 net.cpp:524] Memory required for data: 2815952384
I0619 14:48:21.969216 17263 layer_factory.hpp:77] Creating layer ReLU96
I0619 14:48:21.969234 17263 net.cpp:459] Creating Layer ReLU96
I0619 14:48:21.969243 17263 net.cpp:886] ReLU96 <- Convolution96
I0619 14:48:21.969251 17263 net.cpp:847] ReLU96 -> Convolution96 (in-place)
I0619 14:48:21.969262 17263 net.cpp:509] Setting up ReLU96
I0619 14:48:21.969270 17263 net.cpp:516] Top shape: 128 64 8 8 (524288)
I0619 14:48:21.969275 17263 net.cpp:524] Memory required for data: 2818049536
I0619 14:48:21.969281 17263 layer_factory.hpp:77] Creating layer Convolution97
I0619 14:48:21.969323 17263 net.cpp:459] Creating Layer Convolution97
I0619 14:48:21.969331 17263 net.cpp:886] Convolution97 <- Convolution96
I0619 14:48:21.969343 17263 net.cpp:860] Convolution97 -> Convolution97
I0619 14:48:21.972103 17263 net.cpp:509] Setting up Convolution97
I0619 14:48:21.972121 17263 net.cpp:516] Top shape: 128 64 8 8 (524288)
I0619 14:48:21.972126 17263 net.cpp:524] Memory required for data: 2820146688
I0619 14:48:21.972141 17263 layer_factory.hpp:77] Creating layer BatchNorm97
I0619 14:48:21.972177 17263 net.cpp:459] Creating Layer BatchNorm97
I0619 14:48:21.972185 17263 net.cpp:886] BatchNorm97 <- Convolution97
I0619 14:48:21.972194 17263 net.cpp:847] BatchNorm97 -> Convolution97 (in-place)
I0619 14:48:21.972545 17263 net.cpp:509] Setting up BatchNorm97
I0619 14:48:21.972558 17263 net.cpp:516] Top shape: 128 64 8 8 (524288)
I0619 14:48:21.972564 17263 net.cpp:524] Memory required for data: 2822243840
I0619 14:48:21.972590 17263 layer_factory.hpp:77] Creating layer Scale97
I0619 14:48:21.972615 17263 net.cpp:459] Creating Layer Scale97
I0619 14:48:21.972622 17263 net.cpp:886] Scale97 <- Convolution97
I0619 14:48:21.972631 17263 net.cpp:847] Scale97 -> Convolution97 (in-place)
I0619 14:48:21.972694 17263 layer_factory.hpp:77] Creating layer Scale97
I0619 14:48:21.972903 17263 net.cpp:509] Setting up Scale97
I0619 14:48:21.972915 17263 net.cpp:516] Top shape: 128 64 8 8 (524288)
I0619 14:48:21.972921 17263 net.cpp:524] Memory required for data: 2824340992
I0619 14:48:21.972935 17263 layer_factory.hpp:77] Creating layer Eltwise48
I0619 14:48:21.972961 17263 net.cpp:459] Creating Layer Eltwise48
I0619 14:48:21.973032 17263 net.cpp:886] Eltwise48 <- Eltwise47_ReLU95_0_split_1
I0619 14:48:21.973042 17263 net.cpp:886] Eltwise48 <- Convolution97
I0619 14:48:21.973052 17263 net.cpp:860] Eltwise48 -> Eltwise48
I0619 14:48:21.973099 17263 net.cpp:509] Setting up Eltwise48
I0619 14:48:21.973110 17263 net.cpp:516] Top shape: 128 64 8 8 (524288)
I0619 14:48:21.973121 17263 net.cpp:524] Memory required for data: 2826438144
I0619 14:48:21.973146 17263 layer_factory.hpp:77] Creating layer ReLU97
I0619 14:48:21.973156 17263 net.cpp:459] Creating Layer ReLU97
I0619 14:48:21.973163 17263 net.cpp:886] ReLU97 <- Eltwise48
I0619 14:48:21.973172 17263 net.cpp:847] ReLU97 -> Eltwise48 (in-place)
I0619 14:48:21.973183 17263 net.cpp:509] Setting up ReLU97
I0619 14:48:21.973192 17263 net.cpp:516] Top shape: 128 64 8 8 (524288)
I0619 14:48:21.973197 17263 net.cpp:524] Memory required for data: 2828535296
I0619 14:48:21.973203 17263 layer_factory.hpp:77] Creating layer Eltwise48_ReLU97_0_split
I0619 14:48:21.973217 17263 net.cpp:459] Creating Layer Eltwise48_ReLU97_0_split
I0619 14:48:21.973222 17263 net.cpp:886] Eltwise48_ReLU97_0_split <- Eltwise48
I0619 14:48:21.973232 17263 net.cpp:860] Eltwise48_ReLU97_0_split -> Eltwise48_ReLU97_0_split_0
I0619 14:48:21.973243 17263 net.cpp:860] Eltwise48_ReLU97_0_split -> Eltwise48_ReLU97_0_split_1
I0619 14:48:21.973311 17263 net.cpp:509] Setting up Eltwise48_ReLU97_0_split
I0619 14:48:21.973323 17263 net.cpp:516] Top shape: 128 64 8 8 (524288)
I0619 14:48:21.973331 17263 net.cpp:516] Top shape: 128 64 8 8 (524288)
I0619 14:48:21.973337 17263 net.cpp:524] Memory required for data: 2832729600
I0619 14:48:21.973351 17263 layer_factory.hpp:77] Creating layer Convolution98
I0619 14:48:21.973376 17263 net.cpp:459] Creating Layer Convolution98
I0619 14:48:21.973382 17263 net.cpp:886] Convolution98 <- Eltwise48_ReLU97_0_split_0
I0619 14:48:21.973397 17263 net.cpp:860] Convolution98 -> Convolution98
I0619 14:48:21.975920 17263 net.cpp:509] Setting up Convolution98
I0619 14:48:21.975935 17263 net.cpp:516] Top shape: 128 64 8 8 (524288)
I0619 14:48:21.975942 17263 net.cpp:524] Memory required for data: 2834826752
I0619 14:48:21.975957 17263 layer_factory.hpp:77] Creating layer BatchNorm98
I0619 14:48:21.975980 17263 net.cpp:459] Creating Layer BatchNorm98
I0619 14:48:21.975989 17263 net.cpp:886] BatchNorm98 <- Convolution98
I0619 14:48:21.976001 17263 net.cpp:847] BatchNorm98 -> Convolution98 (in-place)
I0619 14:48:21.976353 17263 net.cpp:509] Setting up BatchNorm98
I0619 14:48:21.976366 17263 net.cpp:516] Top shape: 128 64 8 8 (524288)
I0619 14:48:21.976372 17263 net.cpp:524] Memory required for data: 2836923904
I0619 14:48:21.976389 17263 layer_factory.hpp:77] Creating layer Scale98
I0619 14:48:21.976408 17263 net.cpp:459] Creating Layer Scale98
I0619 14:48:21.976415 17263 net.cpp:886] Scale98 <- Convolution98
I0619 14:48:21.976426 17263 net.cpp:847] Scale98 -> Convolution98 (in-place)
I0619 14:48:21.976487 17263 layer_factory.hpp:77] Creating layer Scale98
I0619 14:48:21.976711 17263 net.cpp:509] Setting up Scale98
I0619 14:48:21.976723 17263 net.cpp:516] Top shape: 128 64 8 8 (524288)
I0619 14:48:21.976729 17263 net.cpp:524] Memory required for data: 2839021056
I0619 14:48:21.976747 17263 layer_factory.hpp:77] Creating layer ReLU98
I0619 14:48:21.976770 17263 net.cpp:459] Creating Layer ReLU98
I0619 14:48:21.976778 17263 net.cpp:886] ReLU98 <- Convolution98
I0619 14:48:21.976793 17263 net.cpp:847] ReLU98 -> Convolution98 (in-place)
I0619 14:48:21.976804 17263 net.cpp:509] Setting up ReLU98
I0619 14:48:21.976812 17263 net.cpp:516] Top shape: 128 64 8 8 (524288)
I0619 14:48:21.976819 17263 net.cpp:524] Memory required for data: 2841118208
I0619 14:48:21.976824 17263 layer_factory.hpp:77] Creating layer Convolution99
I0619 14:48:21.976856 17263 net.cpp:459] Creating Layer Convolution99
I0619 14:48:21.976863 17263 net.cpp:886] Convolution99 <- Convolution98
I0619 14:48:21.976874 17263 net.cpp:860] Convolution99 -> Convolution99
I0619 14:48:21.979367 17263 net.cpp:509] Setting up Convolution99
I0619 14:48:21.979382 17263 net.cpp:516] Top shape: 128 64 8 8 (524288)
I0619 14:48:21.979387 17263 net.cpp:524] Memory required for data: 2843215360
I0619 14:48:21.979401 17263 layer_factory.hpp:77] Creating layer BatchNorm99
I0619 14:48:21.979424 17263 net.cpp:459] Creating Layer BatchNorm99
I0619 14:48:21.979432 17263 net.cpp:886] BatchNorm99 <- Convolution99
I0619 14:48:21.979447 17263 net.cpp:847] BatchNorm99 -> Convolution99 (in-place)
I0619 14:48:21.979791 17263 net.cpp:509] Setting up BatchNorm99
I0619 14:48:21.979804 17263 net.cpp:516] Top shape: 128 64 8 8 (524288)
I0619 14:48:21.979809 17263 net.cpp:524] Memory required for data: 2845312512
I0619 14:48:21.979830 17263 layer_factory.hpp:77] Creating layer Scale99
I0619 14:48:21.979840 17263 net.cpp:459] Creating Layer Scale99
I0619 14:48:21.979846 17263 net.cpp:886] Scale99 <- Convolution99
I0619 14:48:21.979854 17263 net.cpp:847] Scale99 -> Convolution99 (in-place)
I0619 14:48:21.979910 17263 layer_factory.hpp:77] Creating layer Scale99
I0619 14:48:21.980105 17263 net.cpp:509] Setting up Scale99
I0619 14:48:21.980116 17263 net.cpp:516] Top shape: 128 64 8 8 (524288)
I0619 14:48:21.980121 17263 net.cpp:524] Memory required for data: 2847409664
I0619 14:48:21.980135 17263 layer_factory.hpp:77] Creating layer Eltwise49
I0619 14:48:21.980159 17263 net.cpp:459] Creating Layer Eltwise49
I0619 14:48:21.980167 17263 net.cpp:886] Eltwise49 <- Eltwise48_ReLU97_0_split_1
I0619 14:48:21.980175 17263 net.cpp:886] Eltwise49 <- Convolution99
I0619 14:48:21.980185 17263 net.cpp:860] Eltwise49 -> Eltwise49
I0619 14:48:21.980214 17263 net.cpp:509] Setting up Eltwise49
I0619 14:48:21.980224 17263 net.cpp:516] Top shape: 128 64 8 8 (524288)
I0619 14:48:21.980229 17263 net.cpp:524] Memory required for data: 2849506816
I0619 14:48:21.980235 17263 layer_factory.hpp:77] Creating layer ReLU99
I0619 14:48:21.980253 17263 net.cpp:459] Creating Layer ReLU99
I0619 14:48:21.980259 17263 net.cpp:886] ReLU99 <- Eltwise49
I0619 14:48:21.980268 17263 net.cpp:847] ReLU99 -> Eltwise49 (in-place)
I0619 14:48:21.980278 17263 net.cpp:509] Setting up ReLU99
I0619 14:48:21.980285 17263 net.cpp:516] Top shape: 128 64 8 8 (524288)
I0619 14:48:21.980290 17263 net.cpp:524] Memory required for data: 2851603968
I0619 14:48:21.980296 17263 layer_factory.hpp:77] Creating layer Eltwise49_ReLU99_0_split
I0619 14:48:21.980304 17263 net.cpp:459] Creating Layer Eltwise49_ReLU99_0_split
I0619 14:48:21.980309 17263 net.cpp:886] Eltwise49_ReLU99_0_split <- Eltwise49
I0619 14:48:21.980317 17263 net.cpp:860] Eltwise49_ReLU99_0_split -> Eltwise49_ReLU99_0_split_0
I0619 14:48:21.981722 17263 net.cpp:860] Eltwise49_ReLU99_0_split -> Eltwise49_ReLU99_0_split_1
I0619 14:48:21.981794 17263 net.cpp:509] Setting up Eltwise49_ReLU99_0_split
I0619 14:48:21.981809 17263 net.cpp:516] Top shape: 128 64 8 8 (524288)
I0619 14:48:21.981817 17263 net.cpp:516] Top shape: 128 64 8 8 (524288)
I0619 14:48:21.981822 17263 net.cpp:524] Memory required for data: 2855798272
I0619 14:48:21.981840 17263 layer_factory.hpp:77] Creating layer Convolution100
I0619 14:48:21.981873 17263 net.cpp:459] Creating Layer Convolution100
I0619 14:48:21.981879 17263 net.cpp:886] Convolution100 <- Eltwise49_ReLU99_0_split_0
I0619 14:48:21.981894 17263 net.cpp:860] Convolution100 -> Convolution100
I0619 14:48:21.984259 17263 net.cpp:509] Setting up Convolution100
I0619 14:48:21.984273 17263 net.cpp:516] Top shape: 128 64 8 8 (524288)
I0619 14:48:21.984279 17263 net.cpp:524] Memory required for data: 2857895424
I0619 14:48:21.984293 17263 layer_factory.hpp:77] Creating layer BatchNorm100
I0619 14:48:21.984316 17263 net.cpp:459] Creating Layer BatchNorm100
I0619 14:48:21.984323 17263 net.cpp:886] BatchNorm100 <- Convolution100
I0619 14:48:21.984339 17263 net.cpp:847] BatchNorm100 -> Convolution100 (in-place)
I0619 14:48:21.984671 17263 net.cpp:509] Setting up BatchNorm100
I0619 14:48:21.984683 17263 net.cpp:516] Top shape: 128 64 8 8 (524288)
I0619 14:48:21.984688 17263 net.cpp:524] Memory required for data: 2859992576
I0619 14:48:21.984705 17263 layer_factory.hpp:77] Creating layer Scale100
I0619 14:48:21.984726 17263 net.cpp:459] Creating Layer Scale100
I0619 14:48:21.984733 17263 net.cpp:886] Scale100 <- Convolution100
I0619 14:48:21.984748 17263 net.cpp:847] Scale100 -> Convolution100 (in-place)
I0619 14:48:21.984805 17263 layer_factory.hpp:77] Creating layer Scale100
I0619 14:48:21.985002 17263 net.cpp:509] Setting up Scale100
I0619 14:48:21.985014 17263 net.cpp:516] Top shape: 128 64 8 8 (524288)
I0619 14:48:21.985038 17263 net.cpp:524] Memory required for data: 2862089728
I0619 14:48:21.985052 17263 layer_factory.hpp:77] Creating layer ReLU100
I0619 14:48:21.985077 17263 net.cpp:459] Creating Layer ReLU100
I0619 14:48:21.985085 17263 net.cpp:886] ReLU100 <- Convolution100
I0619 14:48:21.985096 17263 net.cpp:847] ReLU100 -> Convolution100 (in-place)
I0619 14:48:21.985106 17263 net.cpp:509] Setting up ReLU100
I0619 14:48:21.985115 17263 net.cpp:516] Top shape: 128 64 8 8 (524288)
I0619 14:48:21.985121 17263 net.cpp:524] Memory required for data: 2864186880
I0619 14:48:21.985131 17263 layer_factory.hpp:77] Creating layer Convolution101
I0619 14:48:21.985170 17263 net.cpp:459] Creating Layer Convolution101
I0619 14:48:21.985177 17263 net.cpp:886] Convolution101 <- Convolution100
I0619 14:48:21.985188 17263 net.cpp:860] Convolution101 -> Convolution101
I0619 14:48:21.988740 17263 net.cpp:509] Setting up Convolution101
I0619 14:48:21.988762 17263 net.cpp:516] Top shape: 128 64 8 8 (524288)
I0619 14:48:21.988770 17263 net.cpp:524] Memory required for data: 2866284032
I0619 14:48:21.988785 17263 layer_factory.hpp:77] Creating layer BatchNorm101
I0619 14:48:21.988803 17263 net.cpp:459] Creating Layer BatchNorm101
I0619 14:48:21.988811 17263 net.cpp:886] BatchNorm101 <- Convolution101
I0619 14:48:21.988822 17263 net.cpp:847] BatchNorm101 -> Convolution101 (in-place)
I0619 14:48:21.989156 17263 net.cpp:509] Setting up BatchNorm101
I0619 14:48:21.989167 17263 net.cpp:516] Top shape: 128 64 8 8 (524288)
I0619 14:48:21.989173 17263 net.cpp:524] Memory required for data: 2868381184
I0619 14:48:21.989202 17263 layer_factory.hpp:77] Creating layer Scale101
I0619 14:48:21.989231 17263 net.cpp:459] Creating Layer Scale101
I0619 14:48:21.989238 17263 net.cpp:886] Scale101 <- Convolution101
I0619 14:48:21.989249 17263 net.cpp:847] Scale101 -> Convolution101 (in-place)
I0619 14:48:21.989310 17263 layer_factory.hpp:77] Creating layer Scale101
I0619 14:48:21.989507 17263 net.cpp:509] Setting up Scale101
I0619 14:48:21.989519 17263 net.cpp:516] Top shape: 128 64 8 8 (524288)
I0619 14:48:21.989524 17263 net.cpp:524] Memory required for data: 2870478336
I0619 14:48:21.989538 17263 layer_factory.hpp:77] Creating layer Eltwise50
I0619 14:48:21.989555 17263 net.cpp:459] Creating Layer Eltwise50
I0619 14:48:21.989563 17263 net.cpp:886] Eltwise50 <- Eltwise49_ReLU99_0_split_1
I0619 14:48:21.989572 17263 net.cpp:886] Eltwise50 <- Convolution101
I0619 14:48:21.989583 17263 net.cpp:860] Eltwise50 -> Eltwise50
I0619 14:48:21.989614 17263 net.cpp:509] Setting up Eltwise50
I0619 14:48:21.989626 17263 net.cpp:516] Top shape: 128 64 8 8 (524288)
I0619 14:48:21.989631 17263 net.cpp:524] Memory required for data: 2872575488
I0619 14:48:21.989644 17263 layer_factory.hpp:77] Creating layer ReLU101
I0619 14:48:21.989660 17263 net.cpp:459] Creating Layer ReLU101
I0619 14:48:21.989667 17263 net.cpp:886] ReLU101 <- Eltwise50
I0619 14:48:21.989675 17263 net.cpp:847] ReLU101 -> Eltwise50 (in-place)
I0619 14:48:21.989686 17263 net.cpp:509] Setting up ReLU101
I0619 14:48:21.989693 17263 net.cpp:516] Top shape: 128 64 8 8 (524288)
I0619 14:48:21.989698 17263 net.cpp:524] Memory required for data: 2874672640
I0619 14:48:21.989704 17263 layer_factory.hpp:77] Creating layer Eltwise50_ReLU101_0_split
I0619 14:48:21.991256 17263 net.cpp:459] Creating Layer Eltwise50_ReLU101_0_split
I0619 14:48:21.991268 17263 net.cpp:886] Eltwise50_ReLU101_0_split <- Eltwise50
I0619 14:48:21.991278 17263 net.cpp:860] Eltwise50_ReLU101_0_split -> Eltwise50_ReLU101_0_split_0
I0619 14:48:21.991291 17263 net.cpp:860] Eltwise50_ReLU101_0_split -> Eltwise50_ReLU101_0_split_1
I0619 14:48:21.991353 17263 net.cpp:509] Setting up Eltwise50_ReLU101_0_split
I0619 14:48:21.991363 17263 net.cpp:516] Top shape: 128 64 8 8 (524288)
I0619 14:48:21.991369 17263 net.cpp:516] Top shape: 128 64 8 8 (524288)
I0619 14:48:21.991374 17263 net.cpp:524] Memory required for data: 2878866944
I0619 14:48:21.991385 17263 layer_factory.hpp:77] Creating layer Convolution102
I0619 14:48:21.991436 17263 net.cpp:459] Creating Layer Convolution102
I0619 14:48:21.991446 17263 net.cpp:886] Convolution102 <- Eltwise50_ReLU101_0_split_0
I0619 14:48:21.991456 17263 net.cpp:860] Convolution102 -> Convolution102
I0619 14:48:21.993676 17263 net.cpp:509] Setting up Convolution102
I0619 14:48:21.993690 17263 net.cpp:516] Top shape: 128 64 8 8 (524288)
I0619 14:48:21.993695 17263 net.cpp:524] Memory required for data: 2880964096
I0619 14:48:21.993710 17263 layer_factory.hpp:77] Creating layer BatchNorm102
I0619 14:48:21.993732 17263 net.cpp:459] Creating Layer BatchNorm102
I0619 14:48:21.993739 17263 net.cpp:886] BatchNorm102 <- Convolution102
I0619 14:48:21.993747 17263 net.cpp:847] BatchNorm102 -> Convolution102 (in-place)
I0619 14:48:21.994055 17263 net.cpp:509] Setting up BatchNorm102
I0619 14:48:21.994066 17263 net.cpp:516] Top shape: 128 64 8 8 (524288)
I0619 14:48:21.994071 17263 net.cpp:524] Memory required for data: 2883061248
I0619 14:48:21.994087 17263 layer_factory.hpp:77] Creating layer Scale102
I0619 14:48:21.994108 17263 net.cpp:459] Creating Layer Scale102
I0619 14:48:21.994115 17263 net.cpp:886] Scale102 <- Convolution102
I0619 14:48:21.994123 17263 net.cpp:847] Scale102 -> Convolution102 (in-place)
I0619 14:48:21.994184 17263 layer_factory.hpp:77] Creating layer Scale102
I0619 14:48:21.994374 17263 net.cpp:509] Setting up Scale102
I0619 14:48:21.994387 17263 net.cpp:516] Top shape: 128 64 8 8 (524288)
I0619 14:48:21.994393 17263 net.cpp:524] Memory required for data: 2885158400
I0619 14:48:21.994406 17263 layer_factory.hpp:77] Creating layer ReLU102
I0619 14:48:21.994429 17263 net.cpp:459] Creating Layer ReLU102
I0619 14:48:21.994436 17263 net.cpp:886] ReLU102 <- Convolution102
I0619 14:48:21.994444 17263 net.cpp:847] ReLU102 -> Convolution102 (in-place)
I0619 14:48:21.994453 17263 net.cpp:509] Setting up ReLU102
I0619 14:48:21.994462 17263 net.cpp:516] Top shape: 128 64 8 8 (524288)
I0619 14:48:21.994467 17263 net.cpp:524] Memory required for data: 2887255552
I0619 14:48:21.994472 17263 layer_factory.hpp:77] Creating layer Convolution103
I0619 14:48:21.994494 17263 net.cpp:459] Creating Layer Convolution103
I0619 14:48:21.994500 17263 net.cpp:886] Convolution103 <- Convolution102
I0619 14:48:21.994511 17263 net.cpp:860] Convolution103 -> Convolution103
I0619 14:48:21.996718 17263 net.cpp:509] Setting up Convolution103
I0619 14:48:21.996731 17263 net.cpp:516] Top shape: 128 64 8 8 (524288)
I0619 14:48:21.996737 17263 net.cpp:524] Memory required for data: 2889352704
I0619 14:48:21.996757 17263 layer_factory.hpp:77] Creating layer BatchNorm103
I0619 14:48:21.996781 17263 net.cpp:459] Creating Layer BatchNorm103
I0619 14:48:21.996788 17263 net.cpp:886] BatchNorm103 <- Convolution103
I0619 14:48:21.996799 17263 net.cpp:847] BatchNorm103 -> Convolution103 (in-place)
I0619 14:48:21.997105 17263 net.cpp:509] Setting up BatchNorm103
I0619 14:48:21.997115 17263 net.cpp:516] Top shape: 128 64 8 8 (524288)
I0619 14:48:21.997122 17263 net.cpp:524] Memory required for data: 2891449856
I0619 14:48:21.997136 17263 layer_factory.hpp:77] Creating layer Scale103
I0619 14:48:21.997149 17263 net.cpp:459] Creating Layer Scale103
I0619 14:48:21.997156 17263 net.cpp:886] Scale103 <- Convolution103
I0619 14:48:21.997164 17263 net.cpp:847] Scale103 -> Convolution103 (in-place)
I0619 14:48:21.997218 17263 layer_factory.hpp:77] Creating layer Scale103
I0619 14:48:21.997400 17263 net.cpp:509] Setting up Scale103
I0619 14:48:21.997411 17263 net.cpp:516] Top shape: 128 64 8 8 (524288)
I0619 14:48:21.997416 17263 net.cpp:524] Memory required for data: 2893547008
I0619 14:48:21.997433 17263 layer_factory.hpp:77] Creating layer Eltwise51
I0619 14:48:21.997449 17263 net.cpp:459] Creating Layer Eltwise51
I0619 14:48:21.997457 17263 net.cpp:886] Eltwise51 <- Eltwise50_ReLU101_0_split_1
I0619 14:48:21.997464 17263 net.cpp:886] Eltwise51 <- Convolution103
I0619 14:48:21.997474 17263 net.cpp:860] Eltwise51 -> Eltwise51
I0619 14:48:21.997503 17263 net.cpp:509] Setting up Eltwise51
I0619 14:48:21.997517 17263 net.cpp:516] Top shape: 128 64 8 8 (524288)
I0619 14:48:21.997539 17263 net.cpp:524] Memory required for data: 2895644160
I0619 14:48:21.997545 17263 layer_factory.hpp:77] Creating layer ReLU103
I0619 14:48:21.997553 17263 net.cpp:459] Creating Layer ReLU103
I0619 14:48:21.997560 17263 net.cpp:886] ReLU103 <- Eltwise51
I0619 14:48:21.997570 17263 net.cpp:847] ReLU103 -> Eltwise51 (in-place)
I0619 14:48:21.997581 17263 net.cpp:509] Setting up ReLU103
I0619 14:48:21.997588 17263 net.cpp:516] Top shape: 128 64 8 8 (524288)
I0619 14:48:21.997593 17263 net.cpp:524] Memory required for data: 2897741312
I0619 14:48:21.997606 17263 layer_factory.hpp:77] Creating layer Eltwise51_ReLU103_0_split
I0619 14:48:21.997613 17263 net.cpp:459] Creating Layer Eltwise51_ReLU103_0_split
I0619 14:48:21.997618 17263 net.cpp:886] Eltwise51_ReLU103_0_split <- Eltwise51
I0619 14:48:21.997627 17263 net.cpp:860] Eltwise51_ReLU103_0_split -> Eltwise51_ReLU103_0_split_0
I0619 14:48:21.997637 17263 net.cpp:860] Eltwise51_ReLU103_0_split -> Eltwise51_ReLU103_0_split_1
I0619 14:48:21.997695 17263 net.cpp:509] Setting up Eltwise51_ReLU103_0_split
I0619 14:48:21.997705 17263 net.cpp:516] Top shape: 128 64 8 8 (524288)
I0619 14:48:21.997711 17263 net.cpp:516] Top shape: 128 64 8 8 (524288)
I0619 14:48:21.997717 17263 net.cpp:524] Memory required for data: 2901935616
I0619 14:48:21.997722 17263 layer_factory.hpp:77] Creating layer Convolution104
I0619 14:48:21.997735 17263 net.cpp:459] Creating Layer Convolution104
I0619 14:48:21.997741 17263 net.cpp:886] Convolution104 <- Eltwise51_ReLU103_0_split_0
I0619 14:48:21.997755 17263 net.cpp:860] Convolution104 -> Convolution104
I0619 14:48:21.999972 17263 net.cpp:509] Setting up Convolution104
I0619 14:48:21.999985 17263 net.cpp:516] Top shape: 128 64 8 8 (524288)
I0619 14:48:21.999991 17263 net.cpp:524] Memory required for data: 2904032768
I0619 14:48:22.000005 17263 layer_factory.hpp:77] Creating layer BatchNorm104
I0619 14:48:22.000015 17263 net.cpp:459] Creating Layer BatchNorm104
I0619 14:48:22.000022 17263 net.cpp:886] BatchNorm104 <- Convolution104
I0619 14:48:22.000032 17263 net.cpp:847] BatchNorm104 -> Convolution104 (in-place)
I0619 14:48:22.000347 17263 net.cpp:509] Setting up BatchNorm104
I0619 14:48:22.000358 17263 net.cpp:516] Top shape: 128 64 8 8 (524288)
I0619 14:48:22.000365 17263 net.cpp:524] Memory required for data: 2906129920
I0619 14:48:22.000380 17263 layer_factory.hpp:77] Creating layer Scale104
I0619 14:48:22.000401 17263 net.cpp:459] Creating Layer Scale104
I0619 14:48:22.000408 17263 net.cpp:886] Scale104 <- Convolution104
I0619 14:48:22.000416 17263 net.cpp:847] Scale104 -> Convolution104 (in-place)
I0619 14:48:22.000470 17263 layer_factory.hpp:77] Creating layer Scale104
I0619 14:48:22.000649 17263 net.cpp:509] Setting up Scale104
I0619 14:48:22.000659 17263 net.cpp:516] Top shape: 128 64 8 8 (524288)
I0619 14:48:22.000665 17263 net.cpp:524] Memory required for data: 2908227072
I0619 14:48:22.000685 17263 layer_factory.hpp:77] Creating layer ReLU104
I0619 14:48:22.000700 17263 net.cpp:459] Creating Layer ReLU104
I0619 14:48:22.000707 17263 net.cpp:886] ReLU104 <- Convolution104
I0619 14:48:22.000717 17263 net.cpp:847] ReLU104 -> Convolution104 (in-place)
I0619 14:48:22.000727 17263 net.cpp:509] Setting up ReLU104
I0619 14:48:22.000735 17263 net.cpp:516] Top shape: 128 64 8 8 (524288)
I0619 14:48:22.000740 17263 net.cpp:524] Memory required for data: 2910324224
I0619 14:48:22.000744 17263 layer_factory.hpp:77] Creating layer Convolution105
I0619 14:48:22.000773 17263 net.cpp:459] Creating Layer Convolution105
I0619 14:48:22.000779 17263 net.cpp:886] Convolution105 <- Convolution104
I0619 14:48:22.000789 17263 net.cpp:860] Convolution105 -> Convolution105
I0619 14:48:22.002984 17263 net.cpp:509] Setting up Convolution105
I0619 14:48:22.002996 17263 net.cpp:516] Top shape: 128 64 8 8 (524288)
I0619 14:48:22.003001 17263 net.cpp:524] Memory required for data: 2912421376
I0619 14:48:22.003013 17263 layer_factory.hpp:77] Creating layer BatchNorm105
I0619 14:48:22.003028 17263 net.cpp:459] Creating Layer BatchNorm105
I0619 14:48:22.003051 17263 net.cpp:886] BatchNorm105 <- Convolution105
I0619 14:48:22.003059 17263 net.cpp:847] BatchNorm105 -> Convolution105 (in-place)
I0619 14:48:22.003355 17263 net.cpp:509] Setting up BatchNorm105
I0619 14:48:22.003365 17263 net.cpp:516] Top shape: 128 64 8 8 (524288)
I0619 14:48:22.003371 17263 net.cpp:524] Memory required for data: 2914518528
I0619 14:48:22.003386 17263 layer_factory.hpp:77] Creating layer Scale105
I0619 14:48:22.003413 17263 net.cpp:459] Creating Layer Scale105
I0619 14:48:22.003420 17263 net.cpp:886] Scale105 <- Convolution105
I0619 14:48:22.003427 17263 net.cpp:847] Scale105 -> Convolution105 (in-place)
I0619 14:48:22.003484 17263 layer_factory.hpp:77] Creating layer Scale105
I0619 14:48:22.003659 17263 net.cpp:509] Setting up Scale105
I0619 14:48:22.003669 17263 net.cpp:516] Top shape: 128 64 8 8 (524288)
I0619 14:48:22.003674 17263 net.cpp:524] Memory required for data: 2916615680
I0619 14:48:22.003686 17263 layer_factory.hpp:77] Creating layer Eltwise52
I0619 14:48:22.003710 17263 net.cpp:459] Creating Layer Eltwise52
I0619 14:48:22.003716 17263 net.cpp:886] Eltwise52 <- Eltwise51_ReLU103_0_split_1
I0619 14:48:22.003729 17263 net.cpp:886] Eltwise52 <- Convolution105
I0619 14:48:22.003737 17263 net.cpp:860] Eltwise52 -> Eltwise52
I0619 14:48:22.003767 17263 net.cpp:509] Setting up Eltwise52
I0619 14:48:22.003775 17263 net.cpp:516] Top shape: 128 64 8 8 (524288)
I0619 14:48:22.003779 17263 net.cpp:524] Memory required for data: 2918712832
I0619 14:48:22.003785 17263 layer_factory.hpp:77] Creating layer ReLU105
I0619 14:48:22.003795 17263 net.cpp:459] Creating Layer ReLU105
I0619 14:48:22.003800 17263 net.cpp:886] ReLU105 <- Eltwise52
I0619 14:48:22.003808 17263 net.cpp:847] ReLU105 -> Eltwise52 (in-place)
I0619 14:48:22.003816 17263 net.cpp:509] Setting up ReLU105
I0619 14:48:22.003823 17263 net.cpp:516] Top shape: 128 64 8 8 (524288)
I0619 14:48:22.003828 17263 net.cpp:524] Memory required for data: 2920809984
I0619 14:48:22.003832 17263 layer_factory.hpp:77] Creating layer Eltwise52_ReLU105_0_split
I0619 14:48:22.003841 17263 net.cpp:459] Creating Layer Eltwise52_ReLU105_0_split
I0619 14:48:22.003846 17263 net.cpp:886] Eltwise52_ReLU105_0_split <- Eltwise52
I0619 14:48:22.003854 17263 net.cpp:860] Eltwise52_ReLU105_0_split -> Eltwise52_ReLU105_0_split_0
I0619 14:48:22.003864 17263 net.cpp:860] Eltwise52_ReLU105_0_split -> Eltwise52_ReLU105_0_split_1
I0619 14:48:22.003916 17263 net.cpp:509] Setting up Eltwise52_ReLU105_0_split
I0619 14:48:22.003926 17263 net.cpp:516] Top shape: 128 64 8 8 (524288)
I0619 14:48:22.003931 17263 net.cpp:516] Top shape: 128 64 8 8 (524288)
I0619 14:48:22.003937 17263 net.cpp:524] Memory required for data: 2925004288
I0619 14:48:22.003942 17263 layer_factory.hpp:77] Creating layer Convolution106
I0619 14:48:22.003974 17263 net.cpp:459] Creating Layer Convolution106
I0619 14:48:22.003981 17263 net.cpp:886] Convolution106 <- Eltwise52_ReLU105_0_split_0
I0619 14:48:22.003990 17263 net.cpp:860] Convolution106 -> Convolution106
I0619 14:48:22.006083 17263 net.cpp:509] Setting up Convolution106
I0619 14:48:22.006094 17263 net.cpp:516] Top shape: 128 64 8 8 (524288)
I0619 14:48:22.006099 17263 net.cpp:524] Memory required for data: 2927101440
I0619 14:48:22.006111 17263 layer_factory.hpp:77] Creating layer BatchNorm106
I0619 14:48:22.006129 17263 net.cpp:459] Creating Layer BatchNorm106
I0619 14:48:22.006136 17263 net.cpp:886] BatchNorm106 <- Convolution106
I0619 14:48:22.006146 17263 net.cpp:847] BatchNorm106 -> Convolution106 (in-place)
I0619 14:48:22.006444 17263 net.cpp:509] Setting up BatchNorm106
I0619 14:48:22.006455 17263 net.cpp:516] Top shape: 128 64 8 8 (524288)
I0619 14:48:22.006460 17263 net.cpp:524] Memory required for data: 2929198592
I0619 14:48:22.006475 17263 layer_factory.hpp:77] Creating layer Scale106
I0619 14:48:22.006502 17263 net.cpp:459] Creating Layer Scale106
I0619 14:48:22.006510 17263 net.cpp:886] Scale106 <- Convolution106
I0619 14:48:22.006520 17263 net.cpp:847] Scale106 -> Convolution106 (in-place)
I0619 14:48:22.006594 17263 layer_factory.hpp:77] Creating layer Scale106
I0619 14:48:22.006769 17263 net.cpp:509] Setting up Scale106
I0619 14:48:22.006779 17263 net.cpp:516] Top shape: 128 64 8 8 (524288)
I0619 14:48:22.006784 17263 net.cpp:524] Memory required for data: 2931295744
I0619 14:48:22.006803 17263 layer_factory.hpp:77] Creating layer ReLU106
I0619 14:48:22.006817 17263 net.cpp:459] Creating Layer ReLU106
I0619 14:48:22.006824 17263 net.cpp:886] ReLU106 <- Convolution106
I0619 14:48:22.006831 17263 net.cpp:847] ReLU106 -> Convolution106 (in-place)
I0619 14:48:22.006844 17263 net.cpp:509] Setting up ReLU106
I0619 14:48:22.006850 17263 net.cpp:516] Top shape: 128 64 8 8 (524288)
I0619 14:48:22.006855 17263 net.cpp:524] Memory required for data: 2933392896
I0619 14:48:22.006860 17263 layer_factory.hpp:77] Creating layer Convolution107
I0619 14:48:22.006891 17263 net.cpp:459] Creating Layer Convolution107
I0619 14:48:22.006896 17263 net.cpp:886] Convolution107 <- Convolution106
I0619 14:48:22.006907 17263 net.cpp:860] Convolution107 -> Convolution107
I0619 14:48:22.008994 17263 net.cpp:509] Setting up Convolution107
I0619 14:48:22.009006 17263 net.cpp:516] Top shape: 128 64 8 8 (524288)
I0619 14:48:22.009011 17263 net.cpp:524] Memory required for data: 2935490048
I0619 14:48:22.009023 17263 layer_factory.hpp:77] Creating layer BatchNorm107
I0619 14:48:22.009044 17263 net.cpp:459] Creating Layer BatchNorm107
I0619 14:48:22.009050 17263 net.cpp:886] BatchNorm107 <- Convolution107
I0619 14:48:22.009062 17263 net.cpp:847] BatchNorm107 -> Convolution107 (in-place)
I0619 14:48:22.009357 17263 net.cpp:509] Setting up BatchNorm107
I0619 14:48:22.009366 17263 net.cpp:516] Top shape: 128 64 8 8 (524288)
I0619 14:48:22.009371 17263 net.cpp:524] Memory required for data: 2937587200
I0619 14:48:22.009387 17263 layer_factory.hpp:77] Creating layer Scale107
I0619 14:48:22.009408 17263 net.cpp:459] Creating Layer Scale107
I0619 14:48:22.009415 17263 net.cpp:886] Scale107 <- Convolution107
I0619 14:48:22.009424 17263 net.cpp:847] Scale107 -> Convolution107 (in-place)
I0619 14:48:22.009476 17263 layer_factory.hpp:77] Creating layer Scale107
I0619 14:48:22.009649 17263 net.cpp:509] Setting up Scale107
I0619 14:48:22.009659 17263 net.cpp:516] Top shape: 128 64 8 8 (524288)
I0619 14:48:22.009663 17263 net.cpp:524] Memory required for data: 2939684352
I0619 14:48:22.009675 17263 layer_factory.hpp:77] Creating layer Eltwise53
I0619 14:48:22.009690 17263 net.cpp:459] Creating Layer Eltwise53
I0619 14:48:22.009697 17263 net.cpp:886] Eltwise53 <- Eltwise52_ReLU105_0_split_1
I0619 14:48:22.009704 17263 net.cpp:886] Eltwise53 <- Convolution107
I0619 14:48:22.009714 17263 net.cpp:860] Eltwise53 -> Eltwise53
I0619 14:48:22.009742 17263 net.cpp:509] Setting up Eltwise53
I0619 14:48:22.009750 17263 net.cpp:516] Top shape: 128 64 8 8 (524288)
I0619 14:48:22.009755 17263 net.cpp:524] Memory required for data: 2941781504
I0619 14:48:22.009769 17263 layer_factory.hpp:77] Creating layer ReLU107
I0619 14:48:22.009779 17263 net.cpp:459] Creating Layer ReLU107
I0619 14:48:22.009784 17263 net.cpp:886] ReLU107 <- Eltwise53
I0619 14:48:22.009793 17263 net.cpp:847] ReLU107 -> Eltwise53 (in-place)
I0619 14:48:22.009800 17263 net.cpp:509] Setting up ReLU107
I0619 14:48:22.009807 17263 net.cpp:516] Top shape: 128 64 8 8 (524288)
I0619 14:48:22.009812 17263 net.cpp:524] Memory required for data: 2943878656
I0619 14:48:22.009817 17263 layer_factory.hpp:77] Creating layer Eltwise53_ReLU107_0_split
I0619 14:48:22.009824 17263 net.cpp:459] Creating Layer Eltwise53_ReLU107_0_split
I0619 14:48:22.009829 17263 net.cpp:886] Eltwise53_ReLU107_0_split <- Eltwise53
I0619 14:48:22.009836 17263 net.cpp:860] Eltwise53_ReLU107_0_split -> Eltwise53_ReLU107_0_split_0
I0619 14:48:22.009848 17263 net.cpp:860] Eltwise53_ReLU107_0_split -> Eltwise53_ReLU107_0_split_1
I0619 14:48:22.009899 17263 net.cpp:509] Setting up Eltwise53_ReLU107_0_split
I0619 14:48:22.009907 17263 net.cpp:516] Top shape: 128 64 8 8 (524288)
I0619 14:48:22.009917 17263 net.cpp:516] Top shape: 128 64 8 8 (524288)
I0619 14:48:22.009938 17263 net.cpp:524] Memory required for data: 2948072960
I0619 14:48:22.009943 17263 layer_factory.hpp:77] Creating layer Convolution108
I0619 14:48:22.009974 17263 net.cpp:459] Creating Layer Convolution108
I0619 14:48:22.009981 17263 net.cpp:886] Convolution108 <- Eltwise53_ReLU107_0_split_0
I0619 14:48:22.009996 17263 net.cpp:860] Convolution108 -> Convolution108
I0619 14:48:22.012866 17263 net.cpp:509] Setting up Convolution108
I0619 14:48:22.012886 17263 net.cpp:516] Top shape: 128 64 8 8 (524288)
I0619 14:48:22.012892 17263 net.cpp:524] Memory required for data: 2950170112
I0619 14:48:22.012905 17263 layer_factory.hpp:77] Creating layer BatchNorm108
I0619 14:48:22.012929 17263 net.cpp:459] Creating Layer BatchNorm108
I0619 14:48:22.012938 17263 net.cpp:886] BatchNorm108 <- Convolution108
I0619 14:48:22.012948 17263 net.cpp:847] BatchNorm108 -> Convolution108 (in-place)
I0619 14:48:22.013248 17263 net.cpp:509] Setting up BatchNorm108
I0619 14:48:22.013259 17263 net.cpp:516] Top shape: 128 64 8 8 (524288)
I0619 14:48:22.013264 17263 net.cpp:524] Memory required for data: 2952267264
I0619 14:48:22.013285 17263 layer_factory.hpp:77] Creating layer Scale108
I0619 14:48:22.013303 17263 net.cpp:459] Creating Layer Scale108
I0619 14:48:22.013309 17263 net.cpp:886] Scale108 <- Convolution108
I0619 14:48:22.013317 17263 net.cpp:847] Scale108 -> Convolution108 (in-place)
I0619 14:48:22.013370 17263 layer_factory.hpp:77] Creating layer Scale108
I0619 14:48:22.013547 17263 net.cpp:509] Setting up Scale108
I0619 14:48:22.013558 17263 net.cpp:516] Top shape: 128 64 8 8 (524288)
I0619 14:48:22.013563 17263 net.cpp:524] Memory required for data: 2954364416
I0619 14:48:22.013576 17263 layer_factory.hpp:77] Creating layer ReLU108
I0619 14:48:22.013592 17263 net.cpp:459] Creating Layer ReLU108
I0619 14:48:22.013599 17263 net.cpp:886] ReLU108 <- Convolution108
I0619 14:48:22.013609 17263 net.cpp:847] ReLU108 -> Convolution108 (in-place)
I0619 14:48:22.013619 17263 net.cpp:509] Setting up ReLU108
I0619 14:48:22.013627 17263 net.cpp:516] Top shape: 128 64 8 8 (524288)
I0619 14:48:22.013631 17263 net.cpp:524] Memory required for data: 2956461568
I0619 14:48:22.013636 17263 layer_factory.hpp:77] Creating layer Convolution109
I0619 14:48:22.013649 17263 net.cpp:459] Creating Layer Convolution109
I0619 14:48:22.013655 17263 net.cpp:886] Convolution109 <- Convolution108
I0619 14:48:22.013664 17263 net.cpp:860] Convolution109 -> Convolution109
I0619 14:48:22.015735 17263 net.cpp:509] Setting up Convolution109
I0619 14:48:22.015749 17263 net.cpp:516] Top shape: 128 64 8 8 (524288)
I0619 14:48:22.015754 17263 net.cpp:524] Memory required for data: 2958558720
I0619 14:48:22.015766 17263 layer_factory.hpp:77] Creating layer BatchNorm109
I0619 14:48:22.015777 17263 net.cpp:459] Creating Layer BatchNorm109
I0619 14:48:22.015784 17263 net.cpp:886] BatchNorm109 <- Convolution109
I0619 14:48:22.015790 17263 net.cpp:847] BatchNorm109 -> Convolution109 (in-place)
I0619 14:48:22.016080 17263 net.cpp:509] Setting up BatchNorm109
I0619 14:48:22.016090 17263 net.cpp:516] Top shape: 128 64 8 8 (524288)
I0619 14:48:22.016095 17263 net.cpp:524] Memory required for data: 2960655872
I0619 14:48:22.016118 17263 layer_factory.hpp:77] Creating layer Scale109
I0619 14:48:22.016126 17263 net.cpp:459] Creating Layer Scale109
I0619 14:48:22.016131 17263 net.cpp:886] Scale109 <- Convolution109
I0619 14:48:22.016139 17263 net.cpp:847] Scale109 -> Convolution109 (in-place)
I0619 14:48:22.016192 17263 layer_factory.hpp:77] Creating layer Scale109
I0619 14:48:22.016355 17263 net.cpp:509] Setting up Scale109
I0619 14:48:22.016366 17263 net.cpp:516] Top shape: 128 64 8 8 (524288)
I0619 14:48:22.016369 17263 net.cpp:524] Memory required for data: 2962753024
I0619 14:48:22.016381 17263 layer_factory.hpp:77] Creating layer Eltwise54
I0619 14:48:22.016391 17263 net.cpp:459] Creating Layer Eltwise54
I0619 14:48:22.016397 17263 net.cpp:886] Eltwise54 <- Eltwise53_ReLU107_0_split_1
I0619 14:48:22.016408 17263 net.cpp:886] Eltwise54 <- Convolution109
I0619 14:48:22.016415 17263 net.cpp:860] Eltwise54 -> Eltwise54
I0619 14:48:22.016460 17263 net.cpp:509] Setting up Eltwise54
I0619 14:48:22.016470 17263 net.cpp:516] Top shape: 128 64 8 8 (524288)
I0619 14:48:22.016474 17263 net.cpp:524] Memory required for data: 2964850176
I0619 14:48:22.016479 17263 layer_factory.hpp:77] Creating layer ReLU109
I0619 14:48:22.016490 17263 net.cpp:459] Creating Layer ReLU109
I0619 14:48:22.016495 17263 net.cpp:886] ReLU109 <- Eltwise54
I0619 14:48:22.016510 17263 net.cpp:847] ReLU109 -> Eltwise54 (in-place)
I0619 14:48:22.016520 17263 net.cpp:509] Setting up ReLU109
I0619 14:48:22.016525 17263 net.cpp:516] Top shape: 128 64 8 8 (524288)
I0619 14:48:22.016530 17263 net.cpp:524] Memory required for data: 2966947328
I0619 14:48:22.016535 17263 layer_factory.hpp:77] Creating layer Pooling4
I0619 14:48:22.016543 17263 net.cpp:459] Creating Layer Pooling4
I0619 14:48:22.016548 17263 net.cpp:886] Pooling4 <- Eltwise54
I0619 14:48:22.016556 17263 net.cpp:860] Pooling4 -> Pooling4
I0619 14:48:22.016594 17263 net.cpp:509] Setting up Pooling4
I0619 14:48:22.016602 17263 net.cpp:516] Top shape: 128 64 1 1 (8192)
I0619 14:48:22.016607 17263 net.cpp:524] Memory required for data: 2966980096
I0619 14:48:22.016611 17263 layer_factory.hpp:77] Creating layer InnerProduct1
I0619 14:48:22.016633 17263 net.cpp:459] Creating Layer InnerProduct1
I0619 14:48:22.016638 17263 net.cpp:886] InnerProduct1 <- Pooling4
I0619 14:48:22.016646 17263 net.cpp:860] InnerProduct1 -> InnerProduct1
I0619 14:48:22.017246 17263 net.cpp:509] Setting up InnerProduct1
I0619 14:48:22.017257 17263 net.cpp:516] Top shape: 128 10 (1280)
I0619 14:48:22.017262 17263 net.cpp:524] Memory required for data: 2966985216
I0619 14:48:22.017276 17263 layer_factory.hpp:77] Creating layer InnerProduct1_InnerProduct1_0_split
I0619 14:48:22.017283 17263 net.cpp:459] Creating Layer InnerProduct1_InnerProduct1_0_split
I0619 14:48:22.017289 17263 net.cpp:886] InnerProduct1_InnerProduct1_0_split <- InnerProduct1
I0619 14:48:22.017297 17263 net.cpp:860] InnerProduct1_InnerProduct1_0_split -> InnerProduct1_InnerProduct1_0_split_0
I0619 14:48:22.017309 17263 net.cpp:860] InnerProduct1_InnerProduct1_0_split -> InnerProduct1_InnerProduct1_0_split_1
I0619 14:48:22.017355 17263 net.cpp:509] Setting up InnerProduct1_InnerProduct1_0_split
I0619 14:48:22.017364 17263 net.cpp:516] Top shape: 128 10 (1280)
I0619 14:48:22.017370 17263 net.cpp:516] Top shape: 128 10 (1280)
I0619 14:48:22.017374 17263 net.cpp:524] Memory required for data: 2966995456
I0619 14:48:22.017379 17263 layer_factory.hpp:77] Creating layer Accuracy
I0619 14:48:22.017387 17263 net.cpp:459] Creating Layer Accuracy
I0619 14:48:22.017393 17263 net.cpp:886] Accuracy <- InnerProduct1_InnerProduct1_0_split_0
I0619 14:48:22.017402 17263 net.cpp:886] Accuracy <- Data2_Data1_1_split_0
I0619 14:48:22.017410 17263 net.cpp:860] Accuracy -> Accuracy
…
