…
stepvalue: 32000
stepvalue: 48000
type: "Nesterov"
I0525 23:43:48.785209 15117 solver.cpp:86] Creating training net from train_net file: examples/stochastic_depth/residual_train.prototxt
I0525 23:43:48.790164 15117 net.cpp:148] Initializing net from parameters: 
state {
  phase: TRAIN
}
layer {
  name: "Data1"
  type: "Data"
  top: "Data1"
  top: "Data2"
  transform_param {
    mirror: true
    crop_size: 32
  }
  data_param {
    source: "/scratch/pas282/caffe/examples/cifar10/cifar10_train_leveldb_padding1"
    batch_size: 128
    backend: LEVELDB
  }
}
layer {
  name: "Convolution1"
  type: "Convolution"
  bottom: "Data1"
  top: "Convolution1"
  convolution_param {
    num_output: 16
    bias_term: true
    pad: 1
    kernel_size: 3
    stride: 1
    weight_filler {
      type: "msra"
    }
    bias_filler {
      type: "constant"
    }
  }
}
layer {
  name: "BatchNorm1"
  type: "BatchNorm"
  bottom: "Convolution1"
  top: "Convolution1"
  param {
    lr_mult: 0
    decay_mult: 0
  }
  param {
    lr_mult: 0
    decay_mult: 0
  }
  param {
    lr_mult: 0
    decay_mult: 0
  }
}
layer {
  name: "Scale1"
  type: "Scale"
  bottom: "Convolution1"
  top: "Convolution1"
  scale_param {
    bias_term: true
  }
}
layer {
  name: "ReLU1"
  type: "ReLU"
  bottom: "Convolution1"
  top: "Convolution1"
}
layer {
  name: "Convolution2"
  type: "Convolution"
  bottom: "Convolution1"
  top: "Convolution2"
  convolution_param {
    num_output: 16
    bias_term: true
    pad: 1
    kernel_size: 3
    stride: 1
    weight_filler {
      type: "msra"
    }
    bias_filler {
      type: "constant"
    }
  }
}
layer {
  name: "BatchNorm2"
  type: "BatchNorm"
  bottom: "Convolution2"
  top: "Convolution2"
  param {
    lr_mult: 0
    decay_mult: 0
  }
  param {
    lr_mult: 0
    decay_mult: 0
  }
  param {
    lr_mult: 0
    decay_mult: 0
  }
}
layer {
  name: "Scale2"
  type: "Scale"
  bottom: "Convolution2"
  top: "Convolution2"
  scale_param {
    bias_term: true
  }
}
layer {
  name: "ReLU2"
  type: "ReLU"
  bottom: "Convolution2"
  top: "Convolution2"
}
layer {
  name: "Convolution3"
  type: "Convolution"
  bottom: "Convolution2"
  top: "Convolution3"
  convolution_param {
    num_output: 16
    bias_term: true
    pad: 1
    kernel_size: 3
    stride: 1
    weight_filler {
      type: "msra"
    }
    bias_filler {
      type: "constant"
    }
  }
}
layer {
  name: "BatchNorm3"
  type: "BatchNorm"
  bottom: "Convolution3"
  top: "Convolution3"
  param {
    lr_mult: 0
    decay_mult: 0
  }
  param {
    lr_mult: 0
    decay_mult: 0
  }
  param {
    lr_mult: 0
    decay_mult: 0
  }
}
layer {
  name: "Scale3"
  type: "Scale"
  bottom: "Convolution3"
  top: "Convolution3"
  scale_param {
    bias_term: true
  }
}
layer {
  name: "Eltwise1"
  type: "Eltwise"
  bottom: "Convolution1"
  bottom: "Convolution3"
  top: "Eltwise1"
  eltwise_param {
    operation: SUM
  }
}
layer {
  name: "ReLU3"
  type: "ReLU"
  bottom: "Eltwise1"
  top: "Eltwise1"
}
layer {
  name: "Convolution4"
  type: "Convolution"
  bottom: "Eltwise1"
  top: "Convolution4"
  convolution_param {
    num_output: 16
    bias_term: true
    pad: 1
    kernel_size: 3
    stride: 1
    weight_filler {
      type: "msra"
    }
    bias_filler {
      type: "constant"
    }
  }
}
layer {
  name: "BatchNorm4"
  type: "BatchNorm"
  bottom: "Convolution4"
  top: "Convolution4"
  param {
    lr_mult: 0
    decay_mult: 0
  }
  param {
    lr_mult: 0
    decay_mult: 0
  }
  param {
    lr_mult: 0
    decay_mult: 0
  }
}
layer {
  name: "Scale4"
  type: "Scale"
  bottom: "Convolution4"
  top: "Convolution4"
  scale_param {
    bias_term: true
  }
}
layer {
  name: "ReLU4"
  type: "ReLU"
  bottom: "Convolution4"
  top: "Convolution4"
}
layer {
  name: "Convolution5"
  type: "Convolution"
  bottom: "Convolution4"
  top: "Convolution5"
  convolution_param {
    num_output: 16
    bias_term: true
    pad: 1
    kernel_size: 3
    stride: 1
    weight_filler {
      type: "msra"
    }
    bias_filler {
      type: "constant"
    }
  }
}
layer {
  name: "BatchNorm5"
  type: "BatchNorm"
  bottom: "Convolution5"
  top: "Convolution5"
  param {
    lr_mult: 0
    decay_mult: 0
  }
  param {
    lr_mult: 0
    decay_mult: 0
  }
  param {
    lr_mult: 0
    decay_mult: 0
  }
}
layer {
  name: "Scale5"
  type: "Scale"
  bottom: "Convolution5"
  top: "Convolution5"
  scale_param {
    bias_term: true
  }
}
layer {
  name: "Eltwise2"
  type: "Eltwise"
  bottom: "Eltwise1"
  bottom: "Convolution5"
  top: "Eltwise2"
  eltwise_param {
    operation: SUM
  }
}
layer {
  name: "ReLU5"
  type: "ReLU"
  bottom: "Eltwise2"
  top: "Eltwise2"
}
layer {
  name: "Convolution6"
  type: "Convolution"
  bottom: "Eltwise2"
  top: "Convolution6"
  convolution_param {
    num_output: 16
    bias_term: true
    pad: 1
    kernel_size: 3
    stride: 1
    weight_filler {
      type: "msra"
    }
    bias_filler {
      type: "constant"
    }
  }
}
layer {
  name: "BatchNorm6"
  type: "BatchNorm"
  bottom: "Convolution6"
  top: "Convolution6"
  param {
    lr_mult: 0
    decay_mult: 0
  }
  param {
    lr_mult: 0
    decay_mult: 0
  }
  param {
    lr_mult: 0
    decay_mult: 0
  }
}
layer {
  name: "Scale6"
  type: "Scale"
  bottom: "Convolution6"
  top: "Convolution6"
  scale_param {
    bias_term: true
  }
}
layer {
  name: "ReLU6"
  type: "ReLU"
  bottom: "Convolution6"
  top: "Convolution6"
}
layer {
  name: "Convolution7"
  type: "Convolution"
  bottom: "Convolution6"
  top: "Convolution7"
  convolution_param {
    num_output: 16
    bias_term: true
    pad: 1
    kernel_size: 3
    stride: 1
    weight_filler {
      type: "msra"
    }
    bias_filler {
      type: "constant"
    }
  }
}
layer {
  name: "BatchNorm7"
  type: "BatchNorm"
  bottom: "Convolution7"
  top: "Convolution7"
  param {
    lr_mult: 0
    decay_mult: 0
  }
  param {
    lr_mult: 0
    decay_mult: 0
  }
  param {
    lr_mult: 0
    decay_mult: 0
  }
}
layer {
  name: "Scale7"
  type: "Scale"
  bottom: "Convolution7"
  top: "Convolution7"
  scale_param {
    bias_term: true
  }
}
layer {
  name: "Eltwise3"
  type: "Eltwise"
  bottom: "Eltwise2"
  bottom: "Convolution7"
  top: "Eltwise3"
  eltwise_param {
    operation: SUM
  }
}
layer {
  name: "ReLU7"
  type: "ReLU"
  bottom: "Eltwise3"
  top: "Eltwise3"
}
layer {
  name: "Convolution8"
  type: "Convolution"
  bottom: "Eltwise3"
  top: "Convolution8"
  convolution_param {
    num_output: 16
    bias_term: true
    pad: 1
    kernel_size: 3
    stride: 1
    weight_filler {
      type: "msra"
    }
    bias_filler {
      type: "constant"
    }
  }
}
layer {
  name: "BatchNorm8"
  type: "BatchNorm"
  bottom: "Convolution8"
  top: "Convolution8"
  param {
    lr_mult: 0
    decay_mult: 0
  }
  param {
    lr_mult: 0
    decay_mult: 0
  }
  param {
    lr_mult: 0
    decay_mult: 0
  }
}
layer {
  name: "Scale8"
  type: "Scale"
  bottom: "Convolution8"
  top: "Convolution8"
  scale_param {
    bias_term: true
  }
}
layer {
  name: "ReLU8"
  type: "ReLU"
  bottom: "Convolution8"
  top: "Convolution8"
}
layer {
  name: "Convolution9"
  type: "Convolution"
  bottom: "Convolution8"
  top: "Convolution9"
  convolution_param {
    num_output: 16
    bias_term: true
    pad: 1
    kernel_size: 3
    stride: 1
    weight_filler {
      type: "msra"
    }
    bias_filler {
      type: "constant"
    }
  }
}
layer {
  name: "BatchNorm9"
  type: "BatchNorm"
  bottom: "Convolution9"
  top: "Convolution9"
  param {
    lr_mult: 0
    decay_mult: 0
  }
  param {
    lr_mult: 0
    decay_mult: 0
  }
  param {
    lr_mult: 0
    decay_mult: 0
  }
}
layer {
  name: "Scale9"
  type: "Scale"
  bottom: "Convolution9"
  top: "Convolution9"
  scale_param {
    bias_term: true
  }
}
layer {
  name: "Eltwise4"
  type: "Eltwise"
  bottom: "Eltwise3"
  bottom: "Convolution9"
  top: "Eltwise4"
  eltwise_param {
    operation: SUM
  }
}
layer {
  name: "ReLU9"
  type: "ReLU"
  bottom: "Eltwise4"
  top: "Eltwise4"
}
layer {
  name: "Pooling1"
  type: "Pooling"
  bottom: "Eltwise4"
  top: "Pooling1"
  pooling_param {
    pool: AVE
    kernel_size: 2
    stride: 2
  }
}
layer {
  name: "Input1"
  type: "Input"
  top: "Input1"
  input_param {
    shape {
      dim: 128
      dim: 16
      dim: 16
      dim: 16
    }
  }
}
layer {
  name: "Concat1"
  type: "Concat"
  bottom: "Pooling1"
  bottom: "Input1"
  top: "Concat1"
  concat_param {
    axis: 1
  }
}
layer {
  name: "Convolution10"
  type: "Convolution"
  bottom: "Eltwise4"
  top: "Convolution10"
  convolution_param {
    num_output: 32
    bias_term: true
    pad: 1
    kernel_size: 3
    stride: 2
    weight_filler {
      type: "msra"
    }
    bias_filler {
      type: "constant"
    }
  }
}
layer {
  name: "BatchNorm10"
  type: "BatchNorm"
  bottom: "Convolution10"
  top: "Convolution10"
  param {
    lr_mult: 0
    decay_mult: 0
  }
  param {
    lr_mult: 0
    decay_mult: 0
  }
  param {
    lr_mult: 0
    decay_mult: 0
  }
}
layer {
  name: "Scale10"
  type: "Scale"
  bottom: "Convolution10"
  top: "Convolution10"
  scale_param {
    bias_term: true
  }
}
layer {
  name: "ReLU10"
  type: "ReLU"
  bottom: "Convolution10"
  top: "Convolution10"
}
layer {
  name: "Convolution11"
  type: "Convolution"
  bottom: "Convolution10"
  top: "Convolution11"
  convolution_param {
    num_output: 32
    bias_term: true
    pad: 1
    kernel_size: 3
    stride: 1
    weight_filler {
      type: "msra"
    }
    bias_filler {
      type: "constant"
    }
  }
}
layer {
  name: "BatchNorm11"
  type: "BatchNorm"
  bottom: "Convolution11"
  top: "Convolution11"
  param {
    lr_mult: 0
    decay_mult: 0
  }
  param {
    lr_mult: 0
    decay_mult: 0
  }
  param {
    lr_mult: 0
    decay_mult: 0
  }
}
layer {
  name: "Scale11"
  type: "Scale"
  bottom: "Convolution11"
  top: "Convolution11"
  scale_param {
    bias_term: true
  }
}
layer {
  name: "Eltwise5"
  type: "Eltwise"
  bottom: "Concat1"
  bottom: "Convolution11"
  top: "Eltwise5"
  eltwise_param {
    operation: SUM
  }
}
layer {
  name: "ReLU11"
  type: "ReLU"
  bottom: "Eltwise5"
  top: "Eltwise5"
}
layer {
  name: "Convolution12"
  type: "Convolution"
  bottom: "Eltwise5"
  top: "Convolution12"
  convolution_param {
    num_output: 32
    bias_term: true
    pad: 1
    kernel_size: 3
    stride: 1
    weight_filler {
      type: "msra"
    }
    bias_filler {
      type: "constant"
    }
  }
}
layer {
  name: "BatchNorm12"
  type: "BatchNorm"
  bottom: "Convolution12"
  top: "Convolution12"
  param {
    lr_mult: 0
    decay_mult: 0
  }
  param {
    lr_mult: 0
    decay_mult: 0
  }
  param {
    lr_mult: 0
    decay_mult: 0
  }
}
layer {
  name: "Scale12"
  type: "Scale"
  bottom: "Convolution12"
  top: "Convolution12"
  scale_param {
    bias_term: true
  }
}
layer {
  name: "ReLU12"
  type: "ReLU"
  bottom: "Convolution12"
  top: "Convolution12"
}
layer {
  name: "Convolution13"
  type: "Convolution"
  bottom: "Convolution12"
  top: "Convolution13"
  convolution_param {
    num_output: 32
    bias_term: true
    pad: 1
    kernel_size: 3
    stride: 1
    weight_filler {
      type: "msra"
    }
    bias_filler {
      type: "constant"
    }
  }
}
layer {
  name: "BatchNorm13"
  type: "BatchNorm"
  bottom: "Convolution13"
  top: "Convolution13"
  param {
    lr_mult: 0
    decay_mult: 0
  }
  param {
    lr_mult: 0
    decay_mult: 0
  }
  param {
    lr_mult: 0
    decay_mult: 0
  }
}
layer {
  name: "Scale13"
  type: "Scale"
  bottom: "Convolution13"
  top: "Convolution13"
  scale_param {
    bias_term: true
  }
}
layer {
  name: "Eltwise6"
  type: "Eltwise"
  bottom: "Eltwise5"
  bottom: "Convolution13"
  top: "Eltwise6"
  eltwise_param {
    operation: SUM
  }
}
layer {
  name: "ReLU13"
  type: "ReLU"
  bottom: "Eltwise6"
  top: "Eltwise6"
}
layer {
  name: "Convolution14"
  type: "Convolution"
  bottom: "Eltwise6"
  top: "Convolution14"
  convolution_param {
    num_output: 32
    bias_term: true
    pad: 1
    kernel_size: 3
    stride: 1
    weight_filler {
      type: "msra"
    }
    bias_filler {
      type: "constant"
    }
  }
}
layer {
  name: "BatchNorm14"
  type: "BatchNorm"
  bottom: "Convolution14"
  top: "Convolution14"
  param {
    lr_mult: 0
    decay_mult: 0
  }
  param {
    lr_mult: 0
    decay_mult: 0
  }
  param {
    lr_mult: 0
    decay_mult: 0
  }
}
layer {
  name: "Scale14"
  type: "Scale"
  bottom: "Convolution14"
  top: "Convolution14"
  scale_param {
    bias_term: true
  }
}
layer {
  name: "ReLU14"
  type: "ReLU"
  bottom: "Convolution14"
  top: "Convolution14"
}
layer {
  name: "Convolution15"
  type: "Convolution"
  bottom: "Convolution14"
  top: "Convolution15"
  convolution_param {
    num_output: 32
    bias_term: true
    pad: 1
    kernel_size: 3
    stride: 1
    weight_filler {
      type: "msra"
    }
    bias_filler {
      type: "constant"
    }
  }
}
layer {
  name: "BatchNorm15"
  type: "BatchNorm"
  bottom: "Convolution15"
  top: "Convolution15"
  param {
    lr_mult: 0
    decay_mult: 0
  }
  param {
    lr_mult: 0
    decay_mult: 0
  }
  param {
    lr_mult: 0
    decay_mult: 0
  }
}
layer {
  name: "Scale15"
  type: "Scale"
  bottom: "Convolution15"
  top: "Convolution15"
  scale_param {
    bias_term: true
  }
}
layer {
  name: "Eltwise7"
  type: "Eltwise"
  bottom: "Eltwise6"
  bottom: "Convolution15"
  top: "Eltwise7"
  eltwise_param {
    operation: SUM
  }
}
layer {
  name: "ReLU15"
  type: "ReLU"
  bottom: "Eltwise7"
  top: "Eltwise7"
}
layer {
  name: "Convolution16"
  type: "Convolution"
  bottom: "Eltwise7"
  top: "Convolution16"
  convolution_param {
    num_output: 32
    bias_term: true
    pad: 1
    kernel_size: 3
    stride: 1
    weight_filler {
      type: "msra"
    }
    bias_filler {
      type: "constant"
    }
  }
}
layer {
  name: "BatchNorm16"
  type: "BatchNorm"
  bottom: "Convolution16"
  top: "Convolution16"
  param {
    lr_mult: 0
    decay_mult: 0
  }
  param {
    lr_mult: 0
    decay_mult: 0
  }
  param {
    lr_mult: 0
    decay_mult: 0
  }
}
layer {
  name: "Scale16"
  type: "Scale"
  bottom: "Convolution16"
  top: "Convolution16"
  scale_param {
    bias_term: true
  }
}
layer {
  name: "ReLU16"
  type: "ReLU"
  bottom: "Convolution16"
  top: "Convolution16"
}
layer {
  name: "Convolution17"
  type: "Convolution"
  bottom: "Convolution16"
  top: "Convolution17"
  convolution_param {
    num_output: 32
    bias_term: true
    pad: 1
    kernel_size: 3
    stride: 1
    weight_filler {
      type: "msra"
    }
    bias_filler {
      type: "constant"
    }
  }
}
layer {
  name: "BatchNorm17"
  type: "BatchNorm"
  bottom: "Convolution17"
  top: "Convolution17"
  param {
    lr_mult: 0
    decay_mult: 0
  }
  param {
    lr_mult: 0
    decay_mult: 0
  }
  param {
    lr_mult: 0
    decay_mult: 0
  }
}
layer {
  name: "Scale17"
  type: "Scale"
  bottom: "Convolution17"
  top: "Convolution17"
  scale_param {
    bias_term: true
  }
}
layer {
  name: "Eltwise8"
  type: "Eltwise"
  bottom: "Eltwise7"
  bottom: "Convolution17"
  top: "Eltwise8"
  eltwise_param {
    operation: SUM
  }
}
layer {
  name: "ReLU17"
  type: "ReLU"
  bottom: "Eltwise8"
  top: "Eltwise8"
}
layer {
  name: "Convolution18"
  type: "Convolution"
  bottom: "Eltwise8"
  top: "Convolution18"
  convolution_param {
    num_output: 32
    bias_term: true
    pad: 1
    kernel_size: 3
    stride: 1
    weight_filler {
      type: "msra"
    }
    bias_filler {
      type: "constant"
    }
  }
}
layer {
  name: "BatchNorm18"
  type: "BatchNorm"
  bottom: "Convolution18"
  top: "Convolution18"
  param {
    lr_mult: 0
    decay_mult: 0
  }
  param {
    lr_mult: 0
    decay_mult: 0
  }
  param {
    lr_mult: 0
    decay_mult: 0
  }
}
layer {
  name: "Scale18"
  type: "Scale"
  bottom: "Convolution18"
  top: "Convolution18"
  scale_param {
    bias_term: true
  }
}
layer {
  name: "ReLU18"
  type: "ReLU"
  bottom: "Convolution18"
  top: "Convolution18"
}
layer {
  name: "Convolution19"
  type: "Convolution"
  bottom: "Convolution18"
  top: "Convolution19"
  convolution_param {
    num_output: 32
    bias_term: true
    pad: 1
    kernel_size: 3
    stride: 1
    weight_filler {
      type: "msra"
    }
    bias_filler {
      type: "constant"
    }
  }
}
layer {
  name: "BatchNorm19"
  type: "BatchNorm"
  bottom: "Convolution19"
  top: "Convolution19"
  param {
    lr_mult: 0
    decay_mult: 0
  }
  param {
    lr_mult: 0
    decay_mult: 0
  }
  param {
    lr_mult: 0
    decay_mult: 0
  }
}
layer {
  name: "Scale19"
  type: "Scale"
  bottom: "Convolution19"
  top: "Convolution19"
  scale_param {
    bias_term: true
  }
}
layer {
  name: "Eltwise9"
  type: "Eltwise"
  bottom: "Eltwise8"
  bottom: "Convolution19"
  top: "Eltwise9"
  eltwise_param {
    operation: SUM
  }
}
layer {
  name: "ReLU19"
  type: "ReLU"
  bottom: "Eltwise9"
  top: "Eltwise9"
}
layer {
  name: "Pooling2"
  type: "Pooling"
  bottom: "Eltwise9"
  top: "Pooling2"
  pooling_param {
    pool: AVE
    kernel_size: 2
    stride: 2
  }
}
layer {
  name: "Input2"
  type: "Input"
  top: "Input2"
  input_param {
    shape {
      dim: 128
      dim: 32
      dim: 8
      dim: 8
    }
  }
}
layer {
  name: "Concat2"
  type: "Concat"
  bottom: "Pooling2"
  bottom: "Input2"
  top: "Concat2"
  concat_param {
    axis: 1
  }
}
layer {
  name: "Convolution20"
  type: "Convolution"
  bottom: "Eltwise9"
  top: "Convolution20"
  convolution_param {
    num_output: 64
    bias_term: true
    pad: 1
    kernel_size: 3
    stride: 2
    weight_filler {
      type: "msra"
    }
    bias_filler {
      type: "constant"
    }
  }
}
layer {
  name: "BatchNorm20"
  type: "BatchNorm"
  bottom: "Convolution20"
  top: "Convolution20"
  param {
    lr_mult: 0
    decay_mult: 0
  }
  param {
    lr_mult: 0
    decay_mult: 0
  }
  param {
    lr_mult: 0
    decay_mult: 0
  }
}
layer {
  name: "Scale20"
  type: "Scale"
  bottom: "Convolution20"
  top: "Convolution20"
  scale_param {
    bias_term: true
  }
}
layer {
  name: "ReLU20"
  type: "ReLU"
  bottom: "Convolution20"
  top: "Convolution20"
}
layer {
  name: "Convolution21"
  type: "Convolution"
  bottom: "Convolution20"
  top: "Convolution21"
  convolution_param {
    num_output: 64
    bias_term: true
    pad: 1
    kernel_size: 3
    stride: 1
    weight_filler {
      type: "msra"
    }
    bias_filler {
      type: "constant"
    }
  }
}
layer {
  name: "BatchNorm21"
  type: "BatchNorm"
  bottom: "Convolution21"
  top: "Convolution21"
  param {
    lr_mult: 0
    decay_mult: 0
  }
  param {
    lr_mult: 0
    decay_mult: 0
  }
  param {
    lr_mult: 0
    decay_mult: 0
  }
}
layer {
  name: "Scale21"
  type: "Scale"
  bottom: "Convolution21"
  top: "Convolution21"
  scale_param {
    bias_term: true
  }
}
layer {
  name: "Eltwise10"
  type: "Eltwise"
  bottom: "Concat2"
  bottom: "Convolution21"
  top: "Eltwise10"
  eltwise_param {
    operation: SUM
  }
}
layer {
  name: "ReLU21"
  type: "ReLU"
  bottom: "Eltwise10"
  top: "Eltwise10"
}
layer {
  name: "Convolution22"
  type: "Convolution"
  bottom: "Eltwise10"
  top: "Convolution22"
  convolution_param {
    num_output: 64
    bias_term: true
    pad: 1
    kernel_size: 3
    stride: 1
    weight_filler {
      type: "msra"
    }
    bias_filler {
      type: "constant"
    }
  }
}
layer {
  name: "BatchNorm22"
  type: "BatchNorm"
  bottom: "Convolution22"
  top: "Convolution22"
  param {
    lr_mult: 0
    decay_mult: 0
  }
  param {
    lr_mult: 0
    decay_mult: 0
  }
  param {
    lr_mult: 0
    decay_mult: 0
  }
}
layer {
  name: "Scale22"
  type: "Scale"
  bottom: "Convolution22"
  top: "Convolution22"
  scale_param {
    bias_term: true
  }
}
layer {
  name: "ReLU22"
  type: "ReLU"
  bottom: "Convolution22"
  top: "Convolution22"
}
layer {
  name: "Convolution23"
  type: "Convolution"
  bottom: "Convolution22"
  top: "Convolution23"
  convolution_param {
    num_output: 64
    bias_term: true
    pad: 1
    kernel_size: 3
    stride: 1
    weight_filler {
      type: "msra"
    }
    bias_filler {
      type: "constant"
    }
  }
}
layer {
  name: "BatchNorm23"
  type: "BatchNorm"
  bottom: "Convolution23"
  top: "Convolution23"
  param {
    lr_mult: 0
    decay_mult: 0
  }
  param {
    lr_mult: 0
    decay_mult: 0
  }
  param {
    lr_mult: 0
    decay_mult: 0
  }
}
layer {
  name: "Scale23"
  type: "Scale"
  bottom: "Convolution23"
  top: "Convolution23"
  scale_param {
    bias_term: true
  }
}
layer {
  name: "Eltwise11"
  type: "Eltwise"
  bottom: "Eltwise10"
  bottom: "Convolution23"
  top: "Eltwise11"
  eltwise_param {
    operation: SUM
  }
}
layer {
  name: "ReLU23"
  type: "ReLU"
  bottom: "Eltwise11"
  top: "Eltwise11"
}
layer {
  name: "Convolution24"
  type: "Convolution"
  bottom: "Eltwise11"
  top: "Convolution24"
  convolution_param {
    num_output: 64
    bias_term: true
    pad: 1
    kernel_size: 3
    stride: 1
    weight_filler {
      type: "msra"
    }
    bias_filler {
      type: "constant"
    }
  }
}
layer {
  name: "BatchNorm24"
  type: "BatchNorm"
  bottom: "Convolution24"
  top: "Convolution24"
  param {
    lr_mult: 0
    decay_mult: 0
  }
  param {
    lr_mult: 0
    decay_mult: 0
  }
  param {
    lr_mult: 0
    decay_mult: 0
  }
}
layer {
  name: "Scale24"
  type: "Scale"
  bottom: "Convolution24"
  top: "Convolution24"
  scale_param {
    bias_term: true
  }
}
layer {
  name: "ReLU24"
  type: "ReLU"
  bottom: "Convolution24"
  top: "Convolution24"
}
layer {
  name: "Convolution25"
  type: "Convolution"
  bottom: "Convolution24"
  top: "Convolution25"
  convolution_param {
    num_output: 64
    bias_term: true
    pad: 1
    kernel_size: 3
    stride: 1
    weight_filler {
      type: "msra"
    }
    bias_filler {
      type: "constant"
    }
  }
}
layer {
  name: "BatchNorm25"
  type: "BatchNorm"
  bottom: "Convolution25"
  top: "Convolution25"
  param {
    lr_mult: 0
    decay_mult: 0
  }
  param {
    lr_mult: 0
    decay_mult: 0
  }
  param {
    lr_mult: 0
    decay_mult: 0
  }
}
layer {
  name: "Scale25"
  type: "Scale"
  bottom: "Convolution25"
  top: "Convolution25"
  scale_param {
    bias_term: true
  }
}
layer {
  name: "Eltwise12"
  type: "Eltwise"
  bottom: "Eltwise11"
  bottom: "Convolution25"
  top: "Eltwise12"
  eltwise_param {
    operation: SUM
  }
}
layer {
  name: "ReLU25"
  type: "ReLU"
  bottom: "Eltwise12"
  top: "Eltwise12"
}
layer {
  name: "Convolution26"
  type: "Convolution"
  bottom: "Eltwise12"
  top: "Convolution26"
  convolution_param {
    num_output: 64
    bias_term: true
    pad: 1
    kernel_size: 3
    stride: 1
    weight_filler {
      type: "msra"
    }
    bias_filler {
      type: "constant"
    }
  }
}
layer {
  name: "BatchNorm26"
  type: "BatchNorm"
  bottom: "Convolution26"
  top: "Convolution26"
  param {
    lr_mult: 0
    decay_mult: 0
  }
  param {
    lr_mult: 0
    decay_mult: 0
  }
  param {
    lr_mult: 0
    decay_mult: 0
  }
}
layer {
  name: "Scale26"
  type: "Scale"
  bottom: "Convolution26"
  top: "Convolution26"
  scale_param {
    bias_term: true
  }
}
layer {
  name: "ReLU26"
  type: "ReLU"
  bottom: "Convolution26"
  top: "Convolution26"
}
layer {
  name: "Convolution27"
  type: "Convolution"
  bottom: "Convolution26"
  top: "Convolution27"
  convolution_param {
    num_output: 64
    bias_term: true
    pad: 1
    kernel_size: 3
    stride: 1
    weight_filler {
      type: "msra"
    }
    bias_filler {
      type: "constant"
    }
  }
}
layer {
  name: "BatchNorm27"
  type: "BatchNorm"
  bottom: "Convolution27"
  top: "Convolution27"
  param {
    lr_mult: 0
    decay_mult: 0
  }
  param {
    lr_mult: 0
    decay_mult: 0
  }
  param {
    lr_mult: 0
    decay_mult: 0
  }
}
layer {
  name: "Scale27"
  type: "Scale"
  bottom: "Convolution27"
  top: "Convolution27"
  scale_param {
    bias_term: true
  }
}
layer {
  name: "Eltwise13"
  type: "Eltwise"
  bottom: "Eltwise12"
  bottom: "Convolution27"
  top: "Eltwise13"
  eltwise_param {
    operation: SUM
  }
}
layer {
  name: "ReLU27"
  type: "ReLU"
  bottom: "Eltwise13"
  top: "Eltwise13"
}
layer {
  name: "Convolution28"
  type: "Convolution"
  bottom: "Eltwise13"
  top: "Convolution28"
  convolution_param {
    num_output: 64
    bias_term: true
    pad: 1
    kernel_size: 3
    stride: 1
    weight_filler {
      type: "msra"
    }
    bias_filler {
      type: "constant"
    }
  }
}
layer {
  name: "BatchNorm28"
  type: "BatchNorm"
  bottom: "Convolution28"
  top: "Convolution28"
  param {
    lr_mult: 0
    decay_mult: 0
  }
  param {
    lr_mult: 0
    decay_mult: 0
  }
  param {
    lr_mult: 0
    decay_mult: 0
  }
}
layer {
  name: "Scale28"
  type: "Scale"
  bottom: "Convolution28"
  top: "Convolution28"
  scale_param {
    bias_term: true
  }
}
layer {
  name: "ReLU28"
  type: "ReLU"
  bottom: "Convolution28"
  top: "Convolution28"
}
layer {
  name: "Convolution29"
  type: "Convolution"
  bottom: "Convolution28"
  top: "Convolution29"
  convolution_param {
    num_output: 64
    bias_term: true
    pad: 1
    kernel_size: 3
    stride: 1
    weight_filler {
      type: "msra"
    }
    bias_filler {
      type: "constant"
    }
  }
}
layer {
  name: "BatchNorm29"
  type: "BatchNorm"
  bottom: "Convolution29"
  top: "Convolution29"
  param {
    lr_mult: 0
    decay_mult: 0
  }
  param {
    lr_mult: 0
    decay_mult: 0
  }
  param {
    lr_mult: 0
    decay_mult: 0
  }
}
layer {
  name: "Scale29"
  type: "Scale"
  bottom: "Convolution29"
  top: "Convolution29"
  scale_param {
    bias_term: true
  }
}
layer {
  name: "Eltwise14"
  type: "Eltwise"
  bottom: "Eltwise13"
  bottom: "Convolution29"
  top: "Eltwise14"
  eltwise_param {
    operation: SUM
  }
}
layer {
  name: "ReLU29"
  type: "ReLU"
  bottom: "Eltwise14"
  top: "Eltwise14"
}
layer {
  name: "Pooling3"
  type: "Pooling"
  bottom: "Eltwise14"
  top: "Pooling3"
  pooling_param {
    pool: AVE
    global_pooling: true
  }
}
layer {
  name: "InnerProduct1"
  type: "InnerProduct"
  bottom: "Pooling3"
  top: "InnerProduct1"
  inner_product_param {
    num_output: 10
    bias_term: true
    weight_filler {
      type: "msra"
    }
  }
}
layer {
  name: "SoftmaxWithLoss1"
  type: "SoftmaxWithLoss"
  bottom: "InnerProduct1"
  bottom: "Data2"
  top: "SoftmaxWithLoss1"
}
I0525 23:43:48.791024 15117 layer_factory.hpp:77] Creating layer Data1
I0525 23:43:48.792445 15117 net.cpp:190] Creating Layer Data1
I0525 23:43:48.792501 15117 net.cpp:579] Data1 -> Data1
I0525 23:43:48.792572 15117 net.cpp:579] Data1 -> Data2
I0525 23:43:48.834004 15121 db_leveldb.cpp:18] Opened leveldb /scratch/pas282/caffe/examples/cifar10/cifar10_train_leveldb_padding1
I0525 23:43:48.852670 15117 data_layer.cpp:41] output data size: 128,3,32,32
I0525 23:43:48.858400 15117 net.cpp:240] Setting up Data1
I0525 23:43:48.858461 15117 net.cpp:247] Top shape: 128 3 32 32 (393216)
I0525 23:43:48.858469 15117 net.cpp:247] Top shape: 128 (128)
I0525 23:43:48.858474 15117 net.cpp:255] Memory required for data: 1573376
I0525 23:43:48.858490 15117 layer_factory.hpp:77] Creating layer Convolution1
I0525 23:43:48.858527 15117 net.cpp:190] Creating Layer Convolution1
I0525 23:43:48.858538 15117 net.cpp:605] Convolution1 <- Data1
I0525 23:43:48.858561 15117 net.cpp:579] Convolution1 -> Convolution1
I0525 23:43:48.859711 15117 net.cpp:240] Setting up Convolution1
I0525 23:43:48.859750 15117 net.cpp:247] Top shape: 128 16 32 32 (2097152)
I0525 23:43:48.859755 15117 net.cpp:255] Memory required for data: 9961984
I0525 23:43:48.859783 15117 layer_factory.hpp:77] Creating layer BatchNorm1
I0525 23:43:48.859808 15117 net.cpp:190] Creating Layer BatchNorm1
I0525 23:43:48.859819 15117 net.cpp:605] BatchNorm1 <- Convolution1
I0525 23:43:48.859828 15117 net.cpp:566] BatchNorm1 -> Convolution1 (in-place)
I0525 23:43:48.860182 15117 net.cpp:240] Setting up BatchNorm1
I0525 23:43:48.860195 15117 net.cpp:247] Top shape: 128 16 32 32 (2097152)
I0525 23:43:48.860199 15117 net.cpp:255] Memory required for data: 18350592
I0525 23:43:48.860219 15117 layer_factory.hpp:77] Creating layer Scale1
I0525 23:43:48.860229 15117 net.cpp:190] Creating Layer Scale1
I0525 23:43:48.860234 15117 net.cpp:605] Scale1 <- Convolution1
I0525 23:43:48.860239 15117 net.cpp:566] Scale1 -> Convolution1 (in-place)
I0525 23:43:48.860290 15117 layer_factory.hpp:77] Creating layer Scale1
I0525 23:43:48.860438 15117 net.cpp:240] Setting up Scale1
I0525 23:43:48.860447 15117 net.cpp:247] Top shape: 128 16 32 32 (2097152)
I0525 23:43:48.860451 15117 net.cpp:255] Memory required for data: 26739200
I0525 23:43:48.860460 15117 layer_factory.hpp:77] Creating layer ReLU1
I0525 23:43:48.860476 15117 net.cpp:190] Creating Layer ReLU1
I0525 23:43:48.860479 15117 net.cpp:605] ReLU1 <- Convolution1
I0525 23:43:48.860486 15117 net.cpp:566] ReLU1 -> Convolution1 (in-place)
I0525 23:43:48.860502 15117 net.cpp:240] Setting up ReLU1
I0525 23:43:48.860507 15117 net.cpp:247] Top shape: 128 16 32 32 (2097152)
I0525 23:43:48.860510 15117 net.cpp:255] Memory required for data: 35127808
I0525 23:43:48.860513 15117 layer_factory.hpp:77] Creating layer Convolution1_ReLU1_0_split
I0525 23:43:48.860528 15117 net.cpp:190] Creating Layer Convolution1_ReLU1_0_split
I0525 23:43:48.860532 15117 net.cpp:605] Convolution1_ReLU1_0_split <- Convolution1
I0525 23:43:48.860538 15117 net.cpp:579] Convolution1_ReLU1_0_split -> Convolution1_ReLU1_0_split_0
I0525 23:43:48.860545 15117 net.cpp:579] Convolution1_ReLU1_0_split -> Convolution1_ReLU1_0_split_1
I0525 23:43:48.860581 15117 net.cpp:240] Setting up Convolution1_ReLU1_0_split
I0525 23:43:48.860589 15117 net.cpp:247] Top shape: 128 16 32 32 (2097152)
I0525 23:43:48.860594 15117 net.cpp:247] Top shape: 128 16 32 32 (2097152)
I0525 23:43:48.860599 15117 net.cpp:255] Memory required for data: 51905024
I0525 23:43:48.860602 15117 layer_factory.hpp:77] Creating layer Convolution2
I0525 23:43:48.860615 15117 net.cpp:190] Creating Layer Convolution2
I0525 23:43:48.860618 15117 net.cpp:605] Convolution2 <- Convolution1_ReLU1_0_split_0
I0525 23:43:48.860627 15117 net.cpp:579] Convolution2 -> Convolution2
I0525 23:43:48.862936 15117 net.cpp:240] Setting up Convolution2
I0525 23:43:48.862978 15117 net.cpp:247] Top shape: 128 16 32 32 (2097152)
I0525 23:43:48.862984 15117 net.cpp:255] Memory required for data: 60293632
I0525 23:43:48.863008 15117 layer_factory.hpp:77] Creating layer BatchNorm2
I0525 23:43:48.863026 15117 net.cpp:190] Creating Layer BatchNorm2
I0525 23:43:48.863034 15117 net.cpp:605] BatchNorm2 <- Convolution2
I0525 23:43:48.863042 15117 net.cpp:566] BatchNorm2 -> Convolution2 (in-place)
I0525 23:43:48.863260 15117 net.cpp:240] Setting up BatchNorm2
I0525 23:43:48.863271 15117 net.cpp:247] Top shape: 128 16 32 32 (2097152)
I0525 23:43:48.863276 15117 net.cpp:255] Memory required for data: 68682240
I0525 23:43:48.863291 15117 layer_factory.hpp:77] Creating layer Scale2
I0525 23:43:48.863302 15117 net.cpp:190] Creating Layer Scale2
I0525 23:43:48.863307 15117 net.cpp:605] Scale2 <- Convolution2
I0525 23:43:48.863313 15117 net.cpp:566] Scale2 -> Convolution2 (in-place)
I0525 23:43:48.863353 15117 layer_factory.hpp:77] Creating layer Scale2
I0525 23:43:48.863487 15117 net.cpp:240] Setting up Scale2
I0525 23:43:48.863497 15117 net.cpp:247] Top shape: 128 16 32 32 (2097152)
I0525 23:43:48.863500 15117 net.cpp:255] Memory required for data: 77070848
I0525 23:43:48.863508 15117 layer_factory.hpp:77] Creating layer ReLU2
I0525 23:43:48.863519 15117 net.cpp:190] Creating Layer ReLU2
I0525 23:43:48.863524 15117 net.cpp:605] ReLU2 <- Convolution2
I0525 23:43:48.863529 15117 net.cpp:566] ReLU2 -> Convolution2 (in-place)
I0525 23:43:48.863538 15117 net.cpp:240] Setting up ReLU2
I0525 23:43:48.863543 15117 net.cpp:247] Top shape: 128 16 32 32 (2097152)
I0525 23:43:48.863546 15117 net.cpp:255] Memory required for data: 85459456
I0525 23:43:48.863550 15117 layer_factory.hpp:77] Creating layer Convolution3
I0525 23:43:48.863569 15117 net.cpp:190] Creating Layer Convolution3
I0525 23:43:48.863572 15117 net.cpp:605] Convolution3 <- Convolution2
I0525 23:43:48.863579 15117 net.cpp:579] Convolution3 -> Convolution3
I0525 23:43:48.863865 15117 net.cpp:240] Setting up Convolution3
I0525 23:43:48.863873 15117 net.cpp:247] Top shape: 128 16 32 32 (2097152)
I0525 23:43:48.863878 15117 net.cpp:255] Memory required for data: 93848064
I0525 23:43:48.863893 15117 layer_factory.hpp:77] Creating layer BatchNorm3
I0525 23:43:48.863934 15117 net.cpp:190] Creating Layer BatchNorm3
I0525 23:43:48.863939 15117 net.cpp:605] BatchNorm3 <- Convolution3
I0525 23:43:48.863945 15117 net.cpp:566] BatchNorm3 -> Convolution3 (in-place)
I0525 23:43:48.864116 15117 net.cpp:240] Setting up BatchNorm3
I0525 23:43:48.864125 15117 net.cpp:247] Top shape: 128 16 32 32 (2097152)
I0525 23:43:48.864128 15117 net.cpp:255] Memory required for data: 102236672
I0525 23:43:48.864148 15117 layer_factory.hpp:77] Creating layer Scale3
I0525 23:43:48.864156 15117 net.cpp:190] Creating Layer Scale3
I0525 23:43:48.864161 15117 net.cpp:605] Scale3 <- Convolution3
I0525 23:43:48.864166 15117 net.cpp:566] Scale3 -> Convolution3 (in-place)
I0525 23:43:48.864202 15117 layer_factory.hpp:77] Creating layer Scale3
I0525 23:43:48.864320 15117 net.cpp:240] Setting up Scale3
I0525 23:43:48.864328 15117 net.cpp:247] Top shape: 128 16 32 32 (2097152)
I0525 23:43:48.864332 15117 net.cpp:255] Memory required for data: 110625280
I0525 23:43:48.864343 15117 layer_factory.hpp:77] Creating layer Eltwise1
I0525 23:43:48.864352 15117 net.cpp:190] Creating Layer Eltwise1
I0525 23:43:48.864356 15117 net.cpp:605] Eltwise1 <- Convolution1_ReLU1_0_split_1
I0525 23:43:48.864362 15117 net.cpp:605] Eltwise1 <- Convolution3
I0525 23:43:48.864370 15117 net.cpp:579] Eltwise1 -> Eltwise1
I0525 23:43:48.864403 15117 net.cpp:240] Setting up Eltwise1
I0525 23:43:48.864409 15117 net.cpp:247] Top shape: 128 16 32 32 (2097152)
I0525 23:43:48.864413 15117 net.cpp:255] Memory required for data: 119013888
I0525 23:43:48.864418 15117 layer_factory.hpp:77] Creating layer ReLU3
I0525 23:43:48.864426 15117 net.cpp:190] Creating Layer ReLU3
I0525 23:43:48.864430 15117 net.cpp:605] ReLU3 <- Eltwise1
I0525 23:43:48.864435 15117 net.cpp:566] ReLU3 -> Eltwise1 (in-place)
I0525 23:43:48.864442 15117 net.cpp:240] Setting up ReLU3
I0525 23:43:48.864446 15117 net.cpp:247] Top shape: 128 16 32 32 (2097152)
I0525 23:43:48.864450 15117 net.cpp:255] Memory required for data: 127402496
I0525 23:43:48.864454 15117 layer_factory.hpp:77] Creating layer Eltwise1_ReLU3_0_split
I0525 23:43:48.864460 15117 net.cpp:190] Creating Layer Eltwise1_ReLU3_0_split
I0525 23:43:48.864464 15117 net.cpp:605] Eltwise1_ReLU3_0_split <- Eltwise1
I0525 23:43:48.864470 15117 net.cpp:579] Eltwise1_ReLU3_0_split -> Eltwise1_ReLU3_0_split_0
I0525 23:43:48.864476 15117 net.cpp:579] Eltwise1_ReLU3_0_split -> Eltwise1_ReLU3_0_split_1
I0525 23:43:48.864516 15117 net.cpp:240] Setting up Eltwise1_ReLU3_0_split
I0525 23:43:48.864524 15117 net.cpp:247] Top shape: 128 16 32 32 (2097152)
I0525 23:43:48.864529 15117 net.cpp:247] Top shape: 128 16 32 32 (2097152)
I0525 23:43:48.864532 15117 net.cpp:255] Memory required for data: 144179712
I0525 23:43:48.864537 15117 layer_factory.hpp:77] Creating layer Convolution4
I0525 23:43:48.864550 15117 net.cpp:190] Creating Layer Convolution4
I0525 23:43:48.864555 15117 net.cpp:605] Convolution4 <- Eltwise1_ReLU3_0_split_0
I0525 23:43:48.864562 15117 net.cpp:579] Convolution4 -> Convolution4
I0525 23:43:48.864804 15122 blocking_queue.cpp:50] Waiting for data
I0525 23:43:48.864967 15117 net.cpp:240] Setting up Convolution4
I0525 23:43:48.864977 15117 net.cpp:247] Top shape: 128 16 32 32 (2097152)
I0525 23:43:48.864981 15117 net.cpp:255] Memory required for data: 152568320
I0525 23:43:48.864990 15117 layer_factory.hpp:77] Creating layer BatchNorm4
I0525 23:43:48.865002 15117 net.cpp:190] Creating Layer BatchNorm4
I0525 23:43:48.865007 15117 net.cpp:605] BatchNorm4 <- Convolution4
I0525 23:43:48.865013 15117 net.cpp:566] BatchNorm4 -> Convolution4 (in-place)
I0525 23:43:48.865203 15117 net.cpp:240] Setting up BatchNorm4
I0525 23:43:48.865211 15117 net.cpp:247] Top shape: 128 16 32 32 (2097152)
I0525 23:43:48.865216 15117 net.cpp:255] Memory required for data: 160956928
I0525 23:43:48.865226 15117 layer_factory.hpp:77] Creating layer Scale4
I0525 23:43:48.865236 15117 net.cpp:190] Creating Layer Scale4
I0525 23:43:48.865242 15117 net.cpp:605] Scale4 <- Convolution4
I0525 23:43:48.865252 15117 net.cpp:566] Scale4 -> Convolution4 (in-place)
I0525 23:43:48.865314 15117 layer_factory.hpp:77] Creating layer Scale4
I0525 23:43:48.865414 15117 net.cpp:240] Setting up Scale4
I0525 23:43:48.865424 15117 net.cpp:247] Top shape: 128 16 32 32 (2097152)
I0525 23:43:48.865428 15117 net.cpp:255] Memory required for data: 169345536
I0525 23:43:48.865437 15117 layer_factory.hpp:77] Creating layer ReLU4
I0525 23:43:48.865444 15117 net.cpp:190] Creating Layer ReLU4
I0525 23:43:48.865448 15117 net.cpp:605] ReLU4 <- Convolution4
I0525 23:43:48.865453 15117 net.cpp:566] ReLU4 -> Convolution4 (in-place)
I0525 23:43:48.865460 15117 net.cpp:240] Setting up ReLU4
I0525 23:43:48.865465 15117 net.cpp:247] Top shape: 128 16 32 32 (2097152)
I0525 23:43:48.865469 15117 net.cpp:255] Memory required for data: 177734144
I0525 23:43:48.865473 15117 layer_factory.hpp:77] Creating layer Convolution5
I0525 23:43:48.865485 15117 net.cpp:190] Creating Layer Convolution5
I0525 23:43:48.865489 15117 net.cpp:605] Convolution5 <- Convolution4
I0525 23:43:48.865497 15117 net.cpp:579] Convolution5 -> Convolution5
I0525 23:43:48.865779 15117 net.cpp:240] Setting up Convolution5
I0525 23:43:48.865787 15117 net.cpp:247] Top shape: 128 16 32 32 (2097152)
I0525 23:43:48.865792 15117 net.cpp:255] Memory required for data: 186122752
I0525 23:43:48.865799 15117 layer_factory.hpp:77] Creating layer BatchNorm5
I0525 23:43:48.865810 15117 net.cpp:190] Creating Layer BatchNorm5
I0525 23:43:48.865814 15117 net.cpp:605] BatchNorm5 <- Convolution5
I0525 23:43:48.865821 15117 net.cpp:566] BatchNorm5 -> Convolution5 (in-place)
I0525 23:43:48.865993 15117 net.cpp:240] Setting up BatchNorm5
I0525 23:43:48.865999 15117 net.cpp:247] Top shape: 128 16 32 32 (2097152)
I0525 23:43:48.866003 15117 net.cpp:255] Memory required for data: 194511360
I0525 23:43:48.866025 15117 layer_factory.hpp:77] Creating layer Scale5
I0525 23:43:48.866034 15117 net.cpp:190] Creating Layer Scale5
I0525 23:43:48.866037 15117 net.cpp:605] Scale5 <- Convolution5
I0525 23:43:48.866044 15117 net.cpp:566] Scale5 -> Convolution5 (in-place)
I0525 23:43:48.866078 15117 layer_factory.hpp:77] Creating layer Scale5
I0525 23:43:48.866183 15117 net.cpp:240] Setting up Scale5
I0525 23:43:48.866190 15117 net.cpp:247] Top shape: 128 16 32 32 (2097152)
I0525 23:43:48.866194 15117 net.cpp:255] Memory required for data: 202899968
I0525 23:43:48.866204 15117 layer_factory.hpp:77] Creating layer Eltwise2
I0525 23:43:48.866214 15117 net.cpp:190] Creating Layer Eltwise2
I0525 23:43:48.866219 15117 net.cpp:605] Eltwise2 <- Eltwise1_ReLU3_0_split_1
I0525 23:43:48.866224 15117 net.cpp:605] Eltwise2 <- Convolution5
I0525 23:43:48.866230 15117 net.cpp:579] Eltwise2 -> Eltwise2
I0525 23:43:48.866253 15117 net.cpp:240] Setting up Eltwise2
I0525 23:43:48.866260 15117 net.cpp:247] Top shape: 128 16 32 32 (2097152)
I0525 23:43:48.866263 15117 net.cpp:255] Memory required for data: 211288576
I0525 23:43:48.866266 15117 layer_factory.hpp:77] Creating layer ReLU5
I0525 23:43:48.866276 15117 net.cpp:190] Creating Layer ReLU5
I0525 23:43:48.866279 15117 net.cpp:605] ReLU5 <- Eltwise2
I0525 23:43:48.866286 15117 net.cpp:566] ReLU5 -> Eltwise2 (in-place)
I0525 23:43:48.866291 15117 net.cpp:240] Setting up ReLU5
I0525 23:43:48.866297 15117 net.cpp:247] Top shape: 128 16 32 32 (2097152)
I0525 23:43:48.866300 15117 net.cpp:255] Memory required for data: 219677184
I0525 23:43:48.866304 15117 layer_factory.hpp:77] Creating layer Eltwise2_ReLU5_0_split
I0525 23:43:48.866310 15117 net.cpp:190] Creating Layer Eltwise2_ReLU5_0_split
I0525 23:43:48.866314 15117 net.cpp:605] Eltwise2_ReLU5_0_split <- Eltwise2
I0525 23:43:48.866319 15117 net.cpp:579] Eltwise2_ReLU5_0_split -> Eltwise2_ReLU5_0_split_0
I0525 23:43:48.866327 15117 net.cpp:579] Eltwise2_ReLU5_0_split -> Eltwise2_ReLU5_0_split_1
I0525 23:43:48.866370 15117 net.cpp:240] Setting up Eltwise2_ReLU5_0_split
I0525 23:43:48.866377 15117 net.cpp:247] Top shape: 128 16 32 32 (2097152)
I0525 23:43:48.866382 15117 net.cpp:247] Top shape: 128 16 32 32 (2097152)
I0525 23:43:48.866392 15117 net.cpp:255] Memory required for data: 236454400
I0525 23:43:48.866420 15117 layer_factory.hpp:77] Creating layer Convolution6
I0525 23:43:48.866432 15117 net.cpp:190] Creating Layer Convolution6
I0525 23:43:48.866437 15117 net.cpp:605] Convolution6 <- Eltwise2_ReLU5_0_split_0
I0525 23:43:48.866444 15117 net.cpp:579] Convolution6 -> Convolution6
I0525 23:43:48.866739 15117 net.cpp:240] Setting up Convolution6
I0525 23:43:48.866749 15117 net.cpp:247] Top shape: 128 16 32 32 (2097152)
I0525 23:43:48.866751 15117 net.cpp:255] Memory required for data: 244843008
I0525 23:43:48.866760 15117 layer_factory.hpp:77] Creating layer BatchNorm6
I0525 23:43:48.870380 15117 net.cpp:190] Creating Layer BatchNorm6
I0525 23:43:48.870419 15117 net.cpp:605] BatchNorm6 <- Convolution6
I0525 23:43:48.870435 15117 net.cpp:566] BatchNorm6 -> Convolution6 (in-place)
I0525 23:43:48.870708 15117 net.cpp:240] Setting up BatchNorm6
I0525 23:43:48.870719 15117 net.cpp:247] Top shape: 128 16 32 32 (2097152)
I0525 23:43:48.870723 15117 net.cpp:255] Memory required for data: 253231616
I0525 23:43:48.870740 15117 layer_factory.hpp:77] Creating layer Scale6
I0525 23:43:48.870750 15117 net.cpp:190] Creating Layer Scale6
I0525 23:43:48.870754 15117 net.cpp:605] Scale6 <- Convolution6
I0525 23:43:48.870764 15117 net.cpp:566] Scale6 -> Convolution6 (in-place)
I0525 23:43:48.870800 15117 layer_factory.hpp:77] Creating layer Scale6
I0525 23:43:48.870908 15117 net.cpp:240] Setting up Scale6
I0525 23:43:48.870915 15117 net.cpp:247] Top shape: 128 16 32 32 (2097152)
I0525 23:43:48.870919 15117 net.cpp:255] Memory required for data: 261620224
I0525 23:43:48.870929 15117 layer_factory.hpp:77] Creating layer ReLU6
I0525 23:43:48.870937 15117 net.cpp:190] Creating Layer ReLU6
I0525 23:43:48.870941 15117 net.cpp:605] ReLU6 <- Convolution6
I0525 23:43:48.870947 15117 net.cpp:566] ReLU6 -> Convolution6 (in-place)
I0525 23:43:48.870954 15117 net.cpp:240] Setting up ReLU6
I0525 23:43:48.870959 15117 net.cpp:247] Top shape: 128 16 32 32 (2097152)
I0525 23:43:48.870964 15117 net.cpp:255] Memory required for data: 270008832
I0525 23:43:48.870967 15117 layer_factory.hpp:77] Creating layer Convolution7
I0525 23:43:48.870982 15117 net.cpp:190] Creating Layer Convolution7
I0525 23:43:48.870986 15117 net.cpp:605] Convolution7 <- Convolution6
I0525 23:43:48.870995 15117 net.cpp:579] Convolution7 -> Convolution7
I0525 23:43:48.871304 15117 net.cpp:240] Setting up Convolution7
I0525 23:43:48.871315 15117 net.cpp:247] Top shape: 128 16 32 32 (2097152)
I0525 23:43:48.871318 15117 net.cpp:255] Memory required for data: 278397440
I0525 23:43:48.871327 15117 layer_factory.hpp:77] Creating layer BatchNorm7
I0525 23:43:48.871337 15117 net.cpp:190] Creating Layer BatchNorm7
I0525 23:43:48.871341 15117 net.cpp:605] BatchNorm7 <- Convolution7
I0525 23:43:48.871350 15117 net.cpp:566] BatchNorm7 -> Convolution7 (in-place)
I0525 23:43:48.871518 15117 net.cpp:240] Setting up BatchNorm7
I0525 23:43:48.871526 15117 net.cpp:247] Top shape: 128 16 32 32 (2097152)
I0525 23:43:48.871529 15117 net.cpp:255] Memory required for data: 286786048
I0525 23:43:48.871539 15117 layer_factory.hpp:77] Creating layer Scale7
I0525 23:43:48.871554 15117 net.cpp:190] Creating Layer Scale7
I0525 23:43:48.871559 15117 net.cpp:605] Scale7 <- Convolution7
I0525 23:43:48.871564 15117 net.cpp:566] Scale7 -> Convolution7 (in-place)
I0525 23:43:48.871598 15117 layer_factory.hpp:77] Creating layer Scale7
I0525 23:43:48.871701 15117 net.cpp:240] Setting up Scale7
I0525 23:43:48.871707 15117 net.cpp:247] Top shape: 128 16 32 32 (2097152)
I0525 23:43:48.871711 15117 net.cpp:255] Memory required for data: 295174656
I0525 23:43:48.871719 15117 layer_factory.hpp:77] Creating layer Eltwise3
I0525 23:43:48.871758 15117 net.cpp:190] Creating Layer Eltwise3
I0525 23:43:48.871767 15117 net.cpp:605] Eltwise3 <- Eltwise2_ReLU5_0_split_1
I0525 23:43:48.871772 15117 net.cpp:605] Eltwise3 <- Convolution7
I0525 23:43:48.871778 15117 net.cpp:579] Eltwise3 -> Eltwise3
I0525 23:43:48.871812 15117 net.cpp:240] Setting up Eltwise3
I0525 23:43:48.871825 15117 net.cpp:247] Top shape: 128 16 32 32 (2097152)
I0525 23:43:48.871856 15117 net.cpp:255] Memory required for data: 303563264
I0525 23:43:48.871861 15117 layer_factory.hpp:77] Creating layer ReLU7
I0525 23:43:48.871868 15117 net.cpp:190] Creating Layer ReLU7
I0525 23:43:48.871872 15117 net.cpp:605] ReLU7 <- Eltwise3
I0525 23:43:48.871881 15117 net.cpp:566] ReLU7 -> Eltwise3 (in-place)
I0525 23:43:48.871887 15117 net.cpp:240] Setting up ReLU7
I0525 23:43:48.871892 15117 net.cpp:247] Top shape: 128 16 32 32 (2097152)
I0525 23:43:48.871896 15117 net.cpp:255] Memory required for data: 311951872
I0525 23:43:48.871899 15117 layer_factory.hpp:77] Creating layer Eltwise3_ReLU7_0_split
I0525 23:43:48.871906 15117 net.cpp:190] Creating Layer Eltwise3_ReLU7_0_split
I0525 23:43:48.871909 15117 net.cpp:605] Eltwise3_ReLU7_0_split <- Eltwise3
I0525 23:43:48.871914 15117 net.cpp:579] Eltwise3_ReLU7_0_split -> Eltwise3_ReLU7_0_split_0
I0525 23:43:48.871920 15117 net.cpp:579] Eltwise3_ReLU7_0_split -> Eltwise3_ReLU7_0_split_1
I0525 23:43:48.871954 15117 net.cpp:240] Setting up Eltwise3_ReLU7_0_split
I0525 23:43:48.871960 15117 net.cpp:247] Top shape: 128 16 32 32 (2097152)
I0525 23:43:48.871965 15117 net.cpp:247] Top shape: 128 16 32 32 (2097152)
I0525 23:43:48.871968 15117 net.cpp:255] Memory required for data: 328729088
I0525 23:43:48.871973 15117 layer_factory.hpp:77] Creating layer Convolution8
I0525 23:43:48.871984 15117 net.cpp:190] Creating Layer Convolution8
I0525 23:43:48.871987 15117 net.cpp:605] Convolution8 <- Eltwise3_ReLU7_0_split_0
I0525 23:43:48.871996 15117 net.cpp:579] Convolution8 -> Convolution8
I0525 23:43:48.872287 15117 net.cpp:240] Setting up Convolution8
I0525 23:43:48.872298 15117 net.cpp:247] Top shape: 128 16 32 32 (2097152)
I0525 23:43:48.872303 15117 net.cpp:255] Memory required for data: 337117696
I0525 23:43:48.872311 15117 layer_factory.hpp:77] Creating layer BatchNorm8
I0525 23:43:48.872318 15117 net.cpp:190] Creating Layer BatchNorm8
I0525 23:43:48.872323 15117 net.cpp:605] BatchNorm8 <- Convolution8
I0525 23:43:48.872328 15117 net.cpp:566] BatchNorm8 -> Convolution8 (in-place)
I0525 23:43:48.872505 15117 net.cpp:240] Setting up BatchNorm8
I0525 23:43:48.872512 15117 net.cpp:247] Top shape: 128 16 32 32 (2097152)
I0525 23:43:48.872516 15117 net.cpp:255] Memory required for data: 345506304
I0525 23:43:48.872526 15117 layer_factory.hpp:77] Creating layer Scale8
I0525 23:43:48.872534 15117 net.cpp:190] Creating Layer Scale8
I0525 23:43:48.872537 15117 net.cpp:605] Scale8 <- Convolution8
I0525 23:43:48.872544 15117 net.cpp:566] Scale8 -> Convolution8 (in-place)
I0525 23:43:48.872577 15117 layer_factory.hpp:77] Creating layer Scale8
I0525 23:43:48.872681 15117 net.cpp:240] Setting up Scale8
I0525 23:43:48.872689 15117 net.cpp:247] Top shape: 128 16 32 32 (2097152)
I0525 23:43:48.872692 15117 net.cpp:255] Memory required for data: 353894912
I0525 23:43:48.872702 15117 layer_factory.hpp:77] Creating layer ReLU8
I0525 23:43:48.872710 15117 net.cpp:190] Creating Layer ReLU8
I0525 23:43:48.872714 15117 net.cpp:605] ReLU8 <- Convolution8
I0525 23:43:48.872721 15117 net.cpp:566] ReLU8 -> Convolution8 (in-place)
I0525 23:43:48.872730 15117 net.cpp:240] Setting up ReLU8
I0525 23:43:48.872735 15117 net.cpp:247] Top shape: 128 16 32 32 (2097152)
I0525 23:43:48.872738 15117 net.cpp:255] Memory required for data: 362283520
I0525 23:43:48.872742 15117 layer_factory.hpp:77] Creating layer Convolution9
I0525 23:43:48.872751 15117 net.cpp:190] Creating Layer Convolution9
I0525 23:43:48.872756 15117 net.cpp:605] Convolution9 <- Convolution8
I0525 23:43:48.872763 15117 net.cpp:579] Convolution9 -> Convolution9
I0525 23:43:48.873045 15117 net.cpp:240] Setting up Convolution9
I0525 23:43:48.873054 15117 net.cpp:247] Top shape: 128 16 32 32 (2097152)
I0525 23:43:48.873059 15117 net.cpp:255] Memory required for data: 370672128
I0525 23:43:48.873066 15117 layer_factory.hpp:77] Creating layer BatchNorm9
I0525 23:43:48.873075 15117 net.cpp:190] Creating Layer BatchNorm9
I0525 23:43:48.873083 15117 net.cpp:605] BatchNorm9 <- Convolution9
I0525 23:43:48.873127 15117 net.cpp:566] BatchNorm9 -> Convolution9 (in-place)
I0525 23:43:48.873311 15117 net.cpp:240] Setting up BatchNorm9
I0525 23:43:48.873320 15117 net.cpp:247] Top shape: 128 16 32 32 (2097152)
I0525 23:43:48.873323 15117 net.cpp:255] Memory required for data: 379060736
I0525 23:43:48.873335 15117 layer_factory.hpp:77] Creating layer Scale9
I0525 23:43:48.873342 15117 net.cpp:190] Creating Layer Scale9
I0525 23:43:48.873347 15117 net.cpp:605] Scale9 <- Convolution9
I0525 23:43:48.873352 15117 net.cpp:566] Scale9 -> Convolution9 (in-place)
I0525 23:43:48.873401 15117 layer_factory.hpp:77] Creating layer Scale9
I0525 23:43:48.873508 15117 net.cpp:240] Setting up Scale9
I0525 23:43:48.873517 15117 net.cpp:247] Top shape: 128 16 32 32 (2097152)
I0525 23:43:48.873519 15117 net.cpp:255] Memory required for data: 387449344
I0525 23:43:48.873528 15117 layer_factory.hpp:77] Creating layer Eltwise4
I0525 23:43:48.873536 15117 net.cpp:190] Creating Layer Eltwise4
I0525 23:43:48.873541 15117 net.cpp:605] Eltwise4 <- Eltwise3_ReLU7_0_split_1
I0525 23:43:48.873548 15117 net.cpp:605] Eltwise4 <- Convolution9
I0525 23:43:48.873554 15117 net.cpp:579] Eltwise4 -> Eltwise4
I0525 23:43:48.873576 15117 net.cpp:240] Setting up Eltwise4
I0525 23:43:48.873582 15117 net.cpp:247] Top shape: 128 16 32 32 (2097152)
I0525 23:43:48.873586 15117 net.cpp:255] Memory required for data: 395837952
I0525 23:43:48.873590 15117 layer_factory.hpp:77] Creating layer ReLU9
I0525 23:43:48.873600 15117 net.cpp:190] Creating Layer ReLU9
I0525 23:43:48.873603 15117 net.cpp:605] ReLU9 <- Eltwise4
I0525 23:43:48.873608 15117 net.cpp:566] ReLU9 -> Eltwise4 (in-place)
I0525 23:43:48.873615 15117 net.cpp:240] Setting up ReLU9
I0525 23:43:48.873620 15117 net.cpp:247] Top shape: 128 16 32 32 (2097152)
I0525 23:43:48.873623 15117 net.cpp:255] Memory required for data: 404226560
I0525 23:43:48.873627 15117 layer_factory.hpp:77] Creating layer Eltwise4_ReLU9_0_split
I0525 23:43:48.873636 15117 net.cpp:190] Creating Layer Eltwise4_ReLU9_0_split
I0525 23:43:48.873638 15117 net.cpp:605] Eltwise4_ReLU9_0_split <- Eltwise4
I0525 23:43:48.873643 15117 net.cpp:579] Eltwise4_ReLU9_0_split -> Eltwise4_ReLU9_0_split_0
I0525 23:43:48.873649 15117 net.cpp:579] Eltwise4_ReLU9_0_split -> Eltwise4_ReLU9_0_split_1
I0525 23:43:48.873683 15117 net.cpp:240] Setting up Eltwise4_ReLU9_0_split
I0525 23:43:48.873689 15117 net.cpp:247] Top shape: 128 16 32 32 (2097152)
I0525 23:43:48.873694 15117 net.cpp:247] Top shape: 128 16 32 32 (2097152)
I0525 23:43:48.873697 15117 net.cpp:255] Memory required for data: 421003776
I0525 23:43:48.873702 15117 layer_factory.hpp:77] Creating layer Pooling1
I0525 23:43:48.873709 15117 net.cpp:190] Creating Layer Pooling1
I0525 23:43:48.873713 15117 net.cpp:605] Pooling1 <- Eltwise4_ReLU9_0_split_0
I0525 23:43:48.873720 15117 net.cpp:579] Pooling1 -> Pooling1
I0525 23:43:48.873765 15117 net.cpp:240] Setting up Pooling1
I0525 23:43:48.873772 15117 net.cpp:247] Top shape: 128 16 16 16 (524288)
I0525 23:43:48.873776 15117 net.cpp:255] Memory required for data: 423100928
I0525 23:43:48.873780 15117 layer_factory.hpp:77] Creating layer Input1
I0525 23:43:48.873790 15117 net.cpp:190] Creating Layer Input1
I0525 23:43:48.873795 15117 net.cpp:579] Input1 -> Input1
I0525 23:43:48.873827 15117 net.cpp:240] Setting up Input1
I0525 23:43:48.873833 15117 net.cpp:247] Top shape: 128 16 16 16 (524288)
I0525 23:43:48.873837 15117 net.cpp:255] Memory required for data: 425198080
I0525 23:43:48.873842 15117 layer_factory.hpp:77] Creating layer Concat1
I0525 23:43:48.873852 15117 net.cpp:190] Creating Layer Concat1
I0525 23:43:48.873855 15117 net.cpp:605] Concat1 <- Pooling1
I0525 23:43:48.873860 15117 net.cpp:605] Concat1 <- Input1
I0525 23:43:48.873867 15117 net.cpp:579] Concat1 -> Concat1
I0525 23:43:48.873894 15117 net.cpp:240] Setting up Concat1
I0525 23:43:48.873900 15117 net.cpp:247] Top shape: 128 32 16 16 (1048576)
I0525 23:43:48.873904 15117 net.cpp:255] Memory required for data: 429392384
I0525 23:43:48.873913 15117 layer_factory.hpp:77] Creating layer Convolution10
I0525 23:43:48.873944 15117 net.cpp:190] Creating Layer Convolution10
I0525 23:43:48.873949 15117 net.cpp:605] Convolution10 <- Eltwise4_ReLU9_0_split_1
I0525 23:43:48.873955 15117 net.cpp:579] Convolution10 -> Convolution10
I0525 23:43:48.875489 15117 net.cpp:240] Setting up Convolution10
I0525 23:43:48.875531 15117 net.cpp:247] Top shape: 128 32 16 16 (1048576)
I0525 23:43:48.875536 15117 net.cpp:255] Memory required for data: 433586688
I0525 23:43:48.875572 15117 layer_factory.hpp:77] Creating layer BatchNorm10
I0525 23:43:48.875588 15117 net.cpp:190] Creating Layer BatchNorm10
I0525 23:43:48.875594 15117 net.cpp:605] BatchNorm10 <- Convolution10
I0525 23:43:48.875602 15117 net.cpp:566] BatchNorm10 -> Convolution10 (in-place)
I0525 23:43:48.875783 15117 net.cpp:240] Setting up BatchNorm10
I0525 23:43:48.875790 15117 net.cpp:247] Top shape: 128 32 16 16 (1048576)
I0525 23:43:48.875794 15117 net.cpp:255] Memory required for data: 437780992
I0525 23:43:48.875805 15117 layer_factory.hpp:77] Creating layer Scale10
I0525 23:43:48.875814 15117 net.cpp:190] Creating Layer Scale10
I0525 23:43:48.875818 15117 net.cpp:605] Scale10 <- Convolution10
I0525 23:43:48.875826 15117 net.cpp:566] Scale10 -> Convolution10 (in-place)
I0525 23:43:48.875859 15117 layer_factory.hpp:77] Creating layer Scale10
I0525 23:43:48.875962 15117 net.cpp:240] Setting up Scale10
I0525 23:43:48.875972 15117 net.cpp:247] Top shape: 128 32 16 16 (1048576)
I0525 23:43:48.875975 15117 net.cpp:255] Memory required for data: 441975296
I0525 23:43:48.875984 15117 layer_factory.hpp:77] Creating layer ReLU10
I0525 23:43:48.875993 15117 net.cpp:190] Creating Layer ReLU10
I0525 23:43:48.875998 15117 net.cpp:605] ReLU10 <- Convolution10
I0525 23:43:48.876003 15117 net.cpp:566] ReLU10 -> Convolution10 (in-place)
I0525 23:43:48.876010 15117 net.cpp:240] Setting up ReLU10
I0525 23:43:48.876015 15117 net.cpp:247] Top shape: 128 32 16 16 (1048576)
I0525 23:43:48.876019 15117 net.cpp:255] Memory required for data: 446169600
I0525 23:43:48.876024 15117 layer_factory.hpp:77] Creating layer Convolution11
I0525 23:43:48.876037 15117 net.cpp:190] Creating Layer Convolution11
I0525 23:43:48.876041 15117 net.cpp:605] Convolution11 <- Convolution10
I0525 23:43:48.876049 15117 net.cpp:579] Convolution11 -> Convolution11
I0525 23:43:48.876597 15117 net.cpp:240] Setting up Convolution11
I0525 23:43:48.876611 15117 net.cpp:247] Top shape: 128 32 16 16 (1048576)
I0525 23:43:48.876616 15117 net.cpp:255] Memory required for data: 450363904
I0525 23:43:48.876626 15117 layer_factory.hpp:77] Creating layer BatchNorm11
I0525 23:43:48.876637 15117 net.cpp:190] Creating Layer BatchNorm11
I0525 23:43:48.876642 15117 net.cpp:605] BatchNorm11 <- Convolution11
I0525 23:43:48.876653 15117 net.cpp:566] BatchNorm11 -> Convolution11 (in-place)
I0525 23:43:48.876823 15117 net.cpp:240] Setting up BatchNorm11
I0525 23:43:48.876832 15117 net.cpp:247] Top shape: 128 32 16 16 (1048576)
I0525 23:43:48.876835 15117 net.cpp:255] Memory required for data: 454558208
I0525 23:43:48.876845 15117 layer_factory.hpp:77] Creating layer Scale11
I0525 23:43:48.876857 15117 net.cpp:190] Creating Layer Scale11
I0525 23:43:48.876862 15117 net.cpp:605] Scale11 <- Convolution11
I0525 23:43:48.876866 15117 net.cpp:566] Scale11 -> Convolution11 (in-place)
I0525 23:43:48.876899 15117 layer_factory.hpp:77] Creating layer Scale11
I0525 23:43:48.877007 15117 net.cpp:240] Setting up Scale11
I0525 23:43:48.877014 15117 net.cpp:247] Top shape: 128 32 16 16 (1048576)
I0525 23:43:48.877018 15117 net.cpp:255] Memory required for data: 458752512
I0525 23:43:48.877027 15117 layer_factory.hpp:77] Creating layer Eltwise5
I0525 23:43:48.877038 15117 net.cpp:190] Creating Layer Eltwise5
I0525 23:43:48.877041 15117 net.cpp:605] Eltwise5 <- Concat1
I0525 23:43:48.877048 15117 net.cpp:605] Eltwise5 <- Convolution11
I0525 23:43:48.877056 15117 net.cpp:579] Eltwise5 -> Eltwise5
I0525 23:43:48.877076 15117 net.cpp:240] Setting up Eltwise5
I0525 23:43:48.877082 15117 net.cpp:247] Top shape: 128 32 16 16 (1048576)
I0525 23:43:48.877094 15117 net.cpp:255] Memory required for data: 462946816
I0525 23:43:48.877128 15117 layer_factory.hpp:77] Creating layer ReLU11
I0525 23:43:48.877141 15117 net.cpp:190] Creating Layer ReLU11
I0525 23:43:48.877146 15117 net.cpp:605] ReLU11 <- Eltwise5
I0525 23:43:48.877151 15117 net.cpp:566] ReLU11 -> Eltwise5 (in-place)
I0525 23:43:48.877158 15117 net.cpp:240] Setting up ReLU11
I0525 23:43:48.877163 15117 net.cpp:247] Top shape: 128 32 16 16 (1048576)
I0525 23:43:48.877167 15117 net.cpp:255] Memory required for data: 467141120
I0525 23:43:48.877171 15117 layer_factory.hpp:77] Creating layer Eltwise5_ReLU11_0_split
I0525 23:43:48.877177 15117 net.cpp:190] Creating Layer Eltwise5_ReLU11_0_split
I0525 23:43:48.877182 15117 net.cpp:605] Eltwise5_ReLU11_0_split <- Eltwise5
I0525 23:43:48.877187 15117 net.cpp:579] Eltwise5_ReLU11_0_split -> Eltwise5_ReLU11_0_split_0
I0525 23:43:48.877195 15117 net.cpp:579] Eltwise5_ReLU11_0_split -> Eltwise5_ReLU11_0_split_1
I0525 23:43:48.877235 15117 net.cpp:240] Setting up Eltwise5_ReLU11_0_split
I0525 23:43:48.877243 15117 net.cpp:247] Top shape: 128 32 16 16 (1048576)
I0525 23:43:48.877249 15117 net.cpp:247] Top shape: 128 32 16 16 (1048576)
I0525 23:43:48.877251 15117 net.cpp:255] Memory required for data: 475529728
I0525 23:43:48.877255 15117 layer_factory.hpp:77] Creating layer Convolution12
I0525 23:43:48.877269 15117 net.cpp:190] Creating Layer Convolution12
I0525 23:43:48.877274 15117 net.cpp:605] Convolution12 <- Eltwise5_ReLU11_0_split_0
I0525 23:43:48.877279 15117 net.cpp:579] Convolution12 -> Convolution12
I0525 23:43:48.877827 15117 net.cpp:240] Setting up Convolution12
I0525 23:43:48.877840 15117 net.cpp:247] Top shape: 128 32 16 16 (1048576)
I0525 23:43:48.877845 15117 net.cpp:255] Memory required for data: 479724032
I0525 23:43:48.877854 15117 layer_factory.hpp:77] Creating layer BatchNorm12
I0525 23:43:48.877866 15117 net.cpp:190] Creating Layer BatchNorm12
I0525 23:43:48.877871 15117 net.cpp:605] BatchNorm12 <- Convolution12
I0525 23:43:48.877876 15117 net.cpp:566] BatchNorm12 -> Convolution12 (in-place)
I0525 23:43:48.878052 15117 net.cpp:240] Setting up BatchNorm12
I0525 23:43:48.878062 15117 net.cpp:247] Top shape: 128 32 16 16 (1048576)
I0525 23:43:48.878065 15117 net.cpp:255] Memory required for data: 483918336
I0525 23:43:48.878077 15117 layer_factory.hpp:77] Creating layer Scale12
I0525 23:43:48.878087 15117 net.cpp:190] Creating Layer Scale12
I0525 23:43:48.878090 15117 net.cpp:605] Scale12 <- Convolution12
I0525 23:43:48.878095 15117 net.cpp:566] Scale12 -> Convolution12 (in-place)
I0525 23:43:48.878130 15117 layer_factory.hpp:77] Creating layer Scale12
I0525 23:43:48.882396 15117 net.cpp:240] Setting up Scale12
I0525 23:43:48.882441 15117 net.cpp:247] Top shape: 128 32 16 16 (1048576)
I0525 23:43:48.882446 15117 net.cpp:255] Memory required for data: 488112640
I0525 23:43:48.882464 15117 layer_factory.hpp:77] Creating layer ReLU12
I0525 23:43:48.882480 15117 net.cpp:190] Creating Layer ReLU12
I0525 23:43:48.882488 15117 net.cpp:605] ReLU12 <- Convolution12
I0525 23:43:48.882496 15117 net.cpp:566] ReLU12 -> Convolution12 (in-place)
I0525 23:43:48.882509 15117 net.cpp:240] Setting up ReLU12
I0525 23:43:48.882514 15117 net.cpp:247] Top shape: 128 32 16 16 (1048576)
I0525 23:43:48.882519 15117 net.cpp:255] Memory required for data: 492306944
I0525 23:43:48.882522 15117 layer_factory.hpp:77] Creating layer Convolution13
I0525 23:43:48.882539 15117 net.cpp:190] Creating Layer Convolution13
I0525 23:43:48.882542 15117 net.cpp:605] Convolution13 <- Convolution12
I0525 23:43:48.882551 15117 net.cpp:579] Convolution13 -> Convolution13
I0525 23:43:48.883168 15117 net.cpp:240] Setting up Convolution13
I0525 23:43:48.883183 15117 net.cpp:247] Top shape: 128 32 16 16 (1048576)
I0525 23:43:48.883188 15117 net.cpp:255] Memory required for data: 496501248
I0525 23:43:48.883198 15117 layer_factory.hpp:77] Creating layer BatchNorm13
I0525 23:43:48.883220 15117 net.cpp:190] Creating Layer BatchNorm13
I0525 23:43:48.883226 15117 net.cpp:605] BatchNorm13 <- Convolution13
I0525 23:43:48.883275 15117 net.cpp:566] BatchNorm13 -> Convolution13 (in-place)
I0525 23:43:48.883460 15117 net.cpp:240] Setting up BatchNorm13
I0525 23:43:48.883469 15117 net.cpp:247] Top shape: 128 32 16 16 (1048576)
I0525 23:43:48.883473 15117 net.cpp:255] Memory required for data: 500695552
I0525 23:43:48.883486 15117 layer_factory.hpp:77] Creating layer Scale13
I0525 23:43:48.883494 15117 net.cpp:190] Creating Layer Scale13
I0525 23:43:48.883498 15117 net.cpp:605] Scale13 <- Convolution13
I0525 23:43:48.883507 15117 net.cpp:566] Scale13 -> Convolution13 (in-place)
I0525 23:43:48.883538 15117 layer_factory.hpp:77] Creating layer Scale13
I0525 23:43:48.883646 15117 net.cpp:240] Setting up Scale13
I0525 23:43:48.883656 15117 net.cpp:247] Top shape: 128 32 16 16 (1048576)
I0525 23:43:48.883659 15117 net.cpp:255] Memory required for data: 504889856
I0525 23:43:48.883667 15117 layer_factory.hpp:77] Creating layer Eltwise6
I0525 23:43:48.883677 15117 net.cpp:190] Creating Layer Eltwise6
I0525 23:43:48.883682 15117 net.cpp:605] Eltwise6 <- Eltwise5_ReLU11_0_split_1
I0525 23:43:48.883687 15117 net.cpp:605] Eltwise6 <- Convolution13
I0525 23:43:48.883692 15117 net.cpp:579] Eltwise6 -> Eltwise6
I0525 23:43:48.883715 15117 net.cpp:240] Setting up Eltwise6
I0525 23:43:48.883721 15117 net.cpp:247] Top shape: 128 32 16 16 (1048576)
I0525 23:43:48.883725 15117 net.cpp:255] Memory required for data: 509084160
I0525 23:43:48.883729 15117 layer_factory.hpp:77] Creating layer ReLU13
I0525 23:43:48.883735 15117 net.cpp:190] Creating Layer ReLU13
I0525 23:43:48.883739 15117 net.cpp:605] ReLU13 <- Eltwise6
I0525 23:43:48.883746 15117 net.cpp:566] ReLU13 -> Eltwise6 (in-place)
I0525 23:43:48.883752 15117 net.cpp:240] Setting up ReLU13
I0525 23:43:48.883757 15117 net.cpp:247] Top shape: 128 32 16 16 (1048576)
I0525 23:43:48.883761 15117 net.cpp:255] Memory required for data: 513278464
I0525 23:43:48.883765 15117 layer_factory.hpp:77] Creating layer Eltwise6_ReLU13_0_split
I0525 23:43:48.883771 15117 net.cpp:190] Creating Layer Eltwise6_ReLU13_0_split
I0525 23:43:48.883775 15117 net.cpp:605] Eltwise6_ReLU13_0_split <- Eltwise6
I0525 23:43:48.883780 15117 net.cpp:579] Eltwise6_ReLU13_0_split -> Eltwise6_ReLU13_0_split_0
I0525 23:43:48.883786 15117 net.cpp:579] Eltwise6_ReLU13_0_split -> Eltwise6_ReLU13_0_split_1
I0525 23:43:48.883819 15117 net.cpp:240] Setting up Eltwise6_ReLU13_0_split
I0525 23:43:48.883826 15117 net.cpp:247] Top shape: 128 32 16 16 (1048576)
I0525 23:43:48.883831 15117 net.cpp:247] Top shape: 128 32 16 16 (1048576)
I0525 23:43:48.883834 15117 net.cpp:255] Memory required for data: 521667072
I0525 23:43:48.883837 15117 layer_factory.hpp:77] Creating layer Convolution14
I0525 23:43:48.883851 15117 net.cpp:190] Creating Layer Convolution14
I0525 23:43:48.883854 15117 net.cpp:605] Convolution14 <- Eltwise6_ReLU13_0_split_0
I0525 23:43:48.883862 15117 net.cpp:579] Convolution14 -> Convolution14
I0525 23:43:48.884404 15117 net.cpp:240] Setting up Convolution14
I0525 23:43:48.884418 15117 net.cpp:247] Top shape: 128 32 16 16 (1048576)
I0525 23:43:48.884423 15117 net.cpp:255] Memory required for data: 525861376
I0525 23:43:48.884433 15117 layer_factory.hpp:77] Creating layer BatchNorm14
I0525 23:43:48.884443 15117 net.cpp:190] Creating Layer BatchNorm14
I0525 23:43:48.884452 15117 net.cpp:605] BatchNorm14 <- Convolution14
I0525 23:43:48.884459 15117 net.cpp:566] BatchNorm14 -> Convolution14 (in-place)
I0525 23:43:48.884655 15117 net.cpp:240] Setting up BatchNorm14
I0525 23:43:48.884665 15117 net.cpp:247] Top shape: 128 32 16 16 (1048576)
I0525 23:43:48.884668 15117 net.cpp:255] Memory required for data: 530055680
I0525 23:43:48.884680 15117 layer_factory.hpp:77] Creating layer Scale14
I0525 23:43:48.884690 15117 net.cpp:190] Creating Layer Scale14
I0525 23:43:48.884694 15117 net.cpp:605] Scale14 <- Convolution14
I0525 23:43:48.884701 15117 net.cpp:566] Scale14 -> Convolution14 (in-place)
I0525 23:43:48.884739 15117 layer_factory.hpp:77] Creating layer Scale14
I0525 23:43:48.884863 15117 net.cpp:240] Setting up Scale14
I0525 23:43:48.884881 15117 net.cpp:247] Top shape: 128 32 16 16 (1048576)
I0525 23:43:48.884920 15117 net.cpp:255] Memory required for data: 534249984
I0525 23:43:48.884932 15117 layer_factory.hpp:77] Creating layer ReLU14
I0525 23:43:48.884939 15117 net.cpp:190] Creating Layer ReLU14
I0525 23:43:48.884943 15117 net.cpp:605] ReLU14 <- Convolution14
I0525 23:43:48.884951 15117 net.cpp:566] ReLU14 -> Convolution14 (in-place)
I0525 23:43:48.884958 15117 net.cpp:240] Setting up ReLU14
I0525 23:43:48.884964 15117 net.cpp:247] Top shape: 128 32 16 16 (1048576)
I0525 23:43:48.884968 15117 net.cpp:255] Memory required for data: 538444288
I0525 23:43:48.884971 15117 layer_factory.hpp:77] Creating layer Convolution15
I0525 23:43:48.884984 15117 net.cpp:190] Creating Layer Convolution15
I0525 23:43:48.884987 15117 net.cpp:605] Convolution15 <- Convolution14
I0525 23:43:48.884994 15117 net.cpp:579] Convolution15 -> Convolution15
I0525 23:43:48.885540 15117 net.cpp:240] Setting up Convolution15
I0525 23:43:48.885555 15117 net.cpp:247] Top shape: 128 32 16 16 (1048576)
I0525 23:43:48.885558 15117 net.cpp:255] Memory required for data: 542638592
I0525 23:43:48.885567 15117 layer_factory.hpp:77] Creating layer BatchNorm15
I0525 23:43:48.885577 15117 net.cpp:190] Creating Layer BatchNorm15
I0525 23:43:48.885582 15117 net.cpp:605] BatchNorm15 <- Convolution15
I0525 23:43:48.885588 15117 net.cpp:566] BatchNorm15 -> Convolution15 (in-place)
I0525 23:43:48.885762 15117 net.cpp:240] Setting up BatchNorm15
I0525 23:43:48.885771 15117 net.cpp:247] Top shape: 128 32 16 16 (1048576)
I0525 23:43:48.885774 15117 net.cpp:255] Memory required for data: 546832896
I0525 23:43:48.885787 15117 layer_factory.hpp:77] Creating layer Scale15
I0525 23:43:48.885795 15117 net.cpp:190] Creating Layer Scale15
I0525 23:43:48.885799 15117 net.cpp:605] Scale15 <- Convolution15
I0525 23:43:48.885805 15117 net.cpp:566] Scale15 -> Convolution15 (in-place)
I0525 23:43:48.885841 15117 layer_factory.hpp:77] Creating layer Scale15
I0525 23:43:48.885951 15117 net.cpp:240] Setting up Scale15
I0525 23:43:48.885958 15117 net.cpp:247] Top shape: 128 32 16 16 (1048576)
I0525 23:43:48.885962 15117 net.cpp:255] Memory required for data: 551027200
I0525 23:43:48.885970 15117 layer_factory.hpp:77] Creating layer Eltwise7
I0525 23:43:48.885982 15117 net.cpp:190] Creating Layer Eltwise7
I0525 23:43:48.885988 15117 net.cpp:605] Eltwise7 <- Eltwise6_ReLU13_0_split_1
I0525 23:43:48.885993 15117 net.cpp:605] Eltwise7 <- Convolution15
I0525 23:43:48.885998 15117 net.cpp:579] Eltwise7 -> Eltwise7
I0525 23:43:48.886021 15117 net.cpp:240] Setting up Eltwise7
I0525 23:43:48.886028 15117 net.cpp:247] Top shape: 128 32 16 16 (1048576)
I0525 23:43:48.886031 15117 net.cpp:255] Memory required for data: 555221504
I0525 23:43:48.886035 15117 layer_factory.hpp:77] Creating layer ReLU15
I0525 23:43:48.886041 15117 net.cpp:190] Creating Layer ReLU15
I0525 23:43:48.886045 15117 net.cpp:605] ReLU15 <- Eltwise7
I0525 23:43:48.886050 15117 net.cpp:566] ReLU15 -> Eltwise7 (in-place)
I0525 23:43:48.886057 15117 net.cpp:240] Setting up ReLU15
I0525 23:43:48.886062 15117 net.cpp:247] Top shape: 128 32 16 16 (1048576)
I0525 23:43:48.886066 15117 net.cpp:255] Memory required for data: 559415808
I0525 23:43:48.886070 15117 layer_factory.hpp:77] Creating layer Eltwise7_ReLU15_0_split
I0525 23:43:48.886075 15117 net.cpp:190] Creating Layer Eltwise7_ReLU15_0_split
I0525 23:43:48.886080 15117 net.cpp:605] Eltwise7_ReLU15_0_split <- Eltwise7
I0525 23:43:48.886086 15117 net.cpp:579] Eltwise7_ReLU15_0_split -> Eltwise7_ReLU15_0_split_0
I0525 23:43:48.886093 15117 net.cpp:579] Eltwise7_ReLU15_0_split -> Eltwise7_ReLU15_0_split_1
I0525 23:43:48.886129 15117 net.cpp:240] Setting up Eltwise7_ReLU15_0_split
I0525 23:43:48.886137 15117 net.cpp:247] Top shape: 128 32 16 16 (1048576)
I0525 23:43:48.886142 15117 net.cpp:247] Top shape: 128 32 16 16 (1048576)
I0525 23:43:48.886144 15117 net.cpp:255] Memory required for data: 567804416
I0525 23:43:48.886148 15117 layer_factory.hpp:77] Creating layer Convolution16
I0525 23:43:48.886164 15117 net.cpp:190] Creating Layer Convolution16
I0525 23:43:48.886193 15117 net.cpp:605] Convolution16 <- Eltwise7_ReLU15_0_split_0
I0525 23:43:48.886200 15117 net.cpp:579] Convolution16 -> Convolution16
I0525 23:43:48.886760 15117 net.cpp:240] Setting up Convolution16
I0525 23:43:48.886775 15117 net.cpp:247] Top shape: 128 32 16 16 (1048576)
I0525 23:43:48.886780 15117 net.cpp:255] Memory required for data: 571998720
I0525 23:43:48.886790 15117 layer_factory.hpp:77] Creating layer BatchNorm16
I0525 23:43:48.886801 15117 net.cpp:190] Creating Layer BatchNorm16
I0525 23:43:48.886806 15117 net.cpp:605] BatchNorm16 <- Convolution16
I0525 23:43:48.886811 15117 net.cpp:566] BatchNorm16 -> Convolution16 (in-place)
I0525 23:43:48.886989 15117 net.cpp:240] Setting up BatchNorm16
I0525 23:43:48.886996 15117 net.cpp:247] Top shape: 128 32 16 16 (1048576)
I0525 23:43:48.887001 15117 net.cpp:255] Memory required for data: 576193024
I0525 23:43:48.887012 15117 layer_factory.hpp:77] Creating layer Scale16
I0525 23:43:48.887019 15117 net.cpp:190] Creating Layer Scale16
I0525 23:43:48.887023 15117 net.cpp:605] Scale16 <- Convolution16
I0525 23:43:48.887029 15117 net.cpp:566] Scale16 -> Convolution16 (in-place)
I0525 23:43:48.887063 15117 layer_factory.hpp:77] Creating layer Scale16
I0525 23:43:48.887171 15117 net.cpp:240] Setting up Scale16
I0525 23:43:48.887179 15117 net.cpp:247] Top shape: 128 32 16 16 (1048576)
I0525 23:43:48.887182 15117 net.cpp:255] Memory required for data: 580387328
I0525 23:43:48.887193 15117 layer_factory.hpp:77] Creating layer ReLU16
I0525 23:43:48.887202 15117 net.cpp:190] Creating Layer ReLU16
I0525 23:43:48.887207 15117 net.cpp:605] ReLU16 <- Convolution16
I0525 23:43:48.887213 15117 net.cpp:566] ReLU16 -> Convolution16 (in-place)
I0525 23:43:48.887220 15117 net.cpp:240] Setting up ReLU16
I0525 23:43:48.887225 15117 net.cpp:247] Top shape: 128 32 16 16 (1048576)
I0525 23:43:48.887229 15117 net.cpp:255] Memory required for data: 584581632
I0525 23:43:48.887233 15117 layer_factory.hpp:77] Creating layer Convolution17
I0525 23:43:48.887243 15117 net.cpp:190] Creating Layer Convolution17
I0525 23:43:48.887248 15117 net.cpp:605] Convolution17 <- Convolution16
I0525 23:43:48.887256 15117 net.cpp:579] Convolution17 -> Convolution17
I0525 23:43:48.887794 15117 net.cpp:240] Setting up Convolution17
I0525 23:43:48.887806 15117 net.cpp:247] Top shape: 128 32 16 16 (1048576)
I0525 23:43:48.887810 15117 net.cpp:255] Memory required for data: 588775936
I0525 23:43:48.887820 15117 layer_factory.hpp:77] Creating layer BatchNorm17
I0525 23:43:48.887828 15117 net.cpp:190] Creating Layer BatchNorm17
I0525 23:43:48.887833 15117 net.cpp:605] BatchNorm17 <- Convolution17
I0525 23:43:48.887841 15117 net.cpp:566] BatchNorm17 -> Convolution17 (in-place)
I0525 23:43:48.888023 15117 net.cpp:240] Setting up BatchNorm17
I0525 23:43:48.888032 15117 net.cpp:247] Top shape: 128 32 16 16 (1048576)
I0525 23:43:48.888036 15117 net.cpp:255] Memory required for data: 592970240
I0525 23:43:48.888047 15117 layer_factory.hpp:77] Creating layer Scale17
I0525 23:43:48.888056 15117 net.cpp:190] Creating Layer Scale17
I0525 23:43:48.888061 15117 net.cpp:605] Scale17 <- Convolution17
I0525 23:43:48.888065 15117 net.cpp:566] Scale17 -> Convolution17 (in-place)
I0525 23:43:48.888100 15117 layer_factory.hpp:77] Creating layer Scale17
I0525 23:43:48.888206 15117 net.cpp:240] Setting up Scale17
I0525 23:43:48.888213 15117 net.cpp:247] Top shape: 128 32 16 16 (1048576)
I0525 23:43:48.888217 15117 net.cpp:255] Memory required for data: 597164544
I0525 23:43:48.888226 15117 layer_factory.hpp:77] Creating layer Eltwise8
I0525 23:43:48.888237 15117 net.cpp:190] Creating Layer Eltwise8
I0525 23:43:48.888243 15117 net.cpp:605] Eltwise8 <- Eltwise7_ReLU15_0_split_1
I0525 23:43:48.888248 15117 net.cpp:605] Eltwise8 <- Convolution17
I0525 23:43:48.888254 15117 net.cpp:579] Eltwise8 -> Eltwise8
I0525 23:43:48.888275 15117 net.cpp:240] Setting up Eltwise8
I0525 23:43:48.888281 15117 net.cpp:247] Top shape: 128 32 16 16 (1048576)
I0525 23:43:48.888293 15117 net.cpp:255] Memory required for data: 601358848
I0525 23:43:48.888329 15117 layer_factory.hpp:77] Creating layer ReLU17
I0525 23:43:48.888348 15117 net.cpp:190] Creating Layer ReLU17
I0525 23:43:48.888353 15117 net.cpp:605] ReLU17 <- Eltwise8
I0525 23:43:48.888360 15117 net.cpp:566] ReLU17 -> Eltwise8 (in-place)
I0525 23:43:48.888365 15117 net.cpp:240] Setting up ReLU17
I0525 23:43:48.888371 15117 net.cpp:247] Top shape: 128 32 16 16 (1048576)
I0525 23:43:48.888375 15117 net.cpp:255] Memory required for data: 605553152
I0525 23:43:48.888378 15117 layer_factory.hpp:77] Creating layer Eltwise8_ReLU17_0_split
I0525 23:43:48.888387 15117 net.cpp:190] Creating Layer Eltwise8_ReLU17_0_split
I0525 23:43:48.888391 15117 net.cpp:605] Eltwise8_ReLU17_0_split <- Eltwise8
I0525 23:43:48.888396 15117 net.cpp:579] Eltwise8_ReLU17_0_split -> Eltwise8_ReLU17_0_split_0
I0525 23:43:48.888403 15117 net.cpp:579] Eltwise8_ReLU17_0_split -> Eltwise8_ReLU17_0_split_1
I0525 23:43:48.888442 15117 net.cpp:240] Setting up Eltwise8_ReLU17_0_split
I0525 23:43:48.888448 15117 net.cpp:247] Top shape: 128 32 16 16 (1048576)
I0525 23:43:48.888453 15117 net.cpp:247] Top shape: 128 32 16 16 (1048576)
I0525 23:43:48.888458 15117 net.cpp:255] Memory required for data: 613941760
I0525 23:43:48.888461 15117 layer_factory.hpp:77] Creating layer Convolution18
I0525 23:43:48.888475 15117 net.cpp:190] Creating Layer Convolution18
I0525 23:43:48.888479 15117 net.cpp:605] Convolution18 <- Eltwise8_ReLU17_0_split_0
I0525 23:43:48.888486 15117 net.cpp:579] Convolution18 -> Convolution18
I0525 23:43:48.889039 15117 net.cpp:240] Setting up Convolution18
I0525 23:43:48.889053 15117 net.cpp:247] Top shape: 128 32 16 16 (1048576)
I0525 23:43:48.889057 15117 net.cpp:255] Memory required for data: 618136064
I0525 23:43:48.889067 15117 layer_factory.hpp:77] Creating layer BatchNorm18
I0525 23:43:48.889088 15117 net.cpp:190] Creating Layer BatchNorm18
I0525 23:43:48.889094 15117 net.cpp:605] BatchNorm18 <- Convolution18
I0525 23:43:48.889101 15117 net.cpp:566] BatchNorm18 -> Convolution18 (in-place)
I0525 23:43:48.889278 15117 net.cpp:240] Setting up BatchNorm18
I0525 23:43:48.889286 15117 net.cpp:247] Top shape: 128 32 16 16 (1048576)
I0525 23:43:48.889289 15117 net.cpp:255] Memory required for data: 622330368
I0525 23:43:48.889300 15117 layer_factory.hpp:77] Creating layer Scale18
I0525 23:43:48.889308 15117 net.cpp:190] Creating Layer Scale18
I0525 23:43:48.889312 15117 net.cpp:605] Scale18 <- Convolution18
I0525 23:43:48.889320 15117 net.cpp:566] Scale18 -> Convolution18 (in-place)
I0525 23:43:48.889354 15117 layer_factory.hpp:77] Creating layer Scale18
I0525 23:43:48.889467 15117 net.cpp:240] Setting up Scale18
I0525 23:43:48.889475 15117 net.cpp:247] Top shape: 128 32 16 16 (1048576)
I0525 23:43:48.889479 15117 net.cpp:255] Memory required for data: 626524672
I0525 23:43:48.889488 15117 layer_factory.hpp:77] Creating layer ReLU18
I0525 23:43:48.889495 15117 net.cpp:190] Creating Layer ReLU18
I0525 23:43:48.889499 15117 net.cpp:605] ReLU18 <- Convolution18
I0525 23:43:48.889505 15117 net.cpp:566] ReLU18 -> Convolution18 (in-place)
I0525 23:43:48.889511 15117 net.cpp:240] Setting up ReLU18
I0525 23:43:48.889518 15117 net.cpp:247] Top shape: 128 32 16 16 (1048576)
I0525 23:43:48.889520 15117 net.cpp:255] Memory required for data: 630718976
I0525 23:43:48.889524 15117 layer_factory.hpp:77] Creating layer Convolution19
I0525 23:43:48.889536 15117 net.cpp:190] Creating Layer Convolution19
I0525 23:43:48.889541 15117 net.cpp:605] Convolution19 <- Convolution18
I0525 23:43:48.889549 15117 net.cpp:579] Convolution19 -> Convolution19
I0525 23:43:48.890089 15117 net.cpp:240] Setting up Convolution19
I0525 23:43:48.890100 15117 net.cpp:247] Top shape: 128 32 16 16 (1048576)
I0525 23:43:48.890105 15117 net.cpp:255] Memory required for data: 634913280
I0525 23:43:48.890115 15117 layer_factory.hpp:77] Creating layer BatchNorm19
I0525 23:43:48.890125 15117 net.cpp:190] Creating Layer BatchNorm19
I0525 23:43:48.890130 15117 net.cpp:605] BatchNorm19 <- Convolution19
I0525 23:43:48.890144 15117 net.cpp:566] BatchNorm19 -> Convolution19 (in-place)
I0525 23:43:48.890363 15117 net.cpp:240] Setting up BatchNorm19
I0525 23:43:48.890373 15117 net.cpp:247] Top shape: 128 32 16 16 (1048576)
I0525 23:43:48.890377 15117 net.cpp:255] Memory required for data: 639107584
I0525 23:43:48.890418 15117 layer_factory.hpp:77] Creating layer Scale19
I0525 23:43:48.890429 15117 net.cpp:190] Creating Layer Scale19
I0525 23:43:48.890434 15117 net.cpp:605] Scale19 <- Convolution19
I0525 23:43:48.890439 15117 net.cpp:566] Scale19 -> Convolution19 (in-place)
I0525 23:43:48.890478 15117 layer_factory.hpp:77] Creating layer Scale19
I0525 23:43:48.890589 15117 net.cpp:240] Setting up Scale19
I0525 23:43:48.890597 15117 net.cpp:247] Top shape: 128 32 16 16 (1048576)
I0525 23:43:48.890600 15117 net.cpp:255] Memory required for data: 643301888
I0525 23:43:48.890609 15117 layer_factory.hpp:77] Creating layer Eltwise9
I0525 23:43:48.890619 15117 net.cpp:190] Creating Layer Eltwise9
I0525 23:43:48.890624 15117 net.cpp:605] Eltwise9 <- Eltwise8_ReLU17_0_split_1
I0525 23:43:48.890628 15117 net.cpp:605] Eltwise9 <- Convolution19
I0525 23:43:48.890635 15117 net.cpp:579] Eltwise9 -> Eltwise9
I0525 23:43:48.890653 15117 net.cpp:240] Setting up Eltwise9
I0525 23:43:48.890661 15117 net.cpp:247] Top shape: 128 32 16 16 (1048576)
I0525 23:43:48.890663 15117 net.cpp:255] Memory required for data: 647496192
I0525 23:43:48.890667 15117 layer_factory.hpp:77] Creating layer ReLU19
I0525 23:43:48.890677 15117 net.cpp:190] Creating Layer ReLU19
I0525 23:43:48.890681 15117 net.cpp:605] ReLU19 <- Eltwise9
I0525 23:43:48.890686 15117 net.cpp:566] ReLU19 -> Eltwise9 (in-place)
I0525 23:43:48.890694 15117 net.cpp:240] Setting up ReLU19
I0525 23:43:48.890699 15117 net.cpp:247] Top shape: 128 32 16 16 (1048576)
I0525 23:43:48.890703 15117 net.cpp:255] Memory required for data: 651690496
I0525 23:43:48.890707 15117 layer_factory.hpp:77] Creating layer Eltwise9_ReLU19_0_split
I0525 23:43:48.890713 15117 net.cpp:190] Creating Layer Eltwise9_ReLU19_0_split
I0525 23:43:48.890717 15117 net.cpp:605] Eltwise9_ReLU19_0_split <- Eltwise9
I0525 23:43:48.890722 15117 net.cpp:579] Eltwise9_ReLU19_0_split -> Eltwise9_ReLU19_0_split_0
I0525 23:43:48.890728 15117 net.cpp:579] Eltwise9_ReLU19_0_split -> Eltwise9_ReLU19_0_split_1
I0525 23:43:48.890763 15117 net.cpp:240] Setting up Eltwise9_ReLU19_0_split
I0525 23:43:48.890769 15117 net.cpp:247] Top shape: 128 32 16 16 (1048576)
I0525 23:43:48.890774 15117 net.cpp:247] Top shape: 128 32 16 16 (1048576)
I0525 23:43:48.890777 15117 net.cpp:255] Memory required for data: 660079104
I0525 23:43:48.890781 15117 layer_factory.hpp:77] Creating layer Pooling2
I0525 23:43:48.890789 15117 net.cpp:190] Creating Layer Pooling2
I0525 23:43:48.890794 15117 net.cpp:605] Pooling2 <- Eltwise9_ReLU19_0_split_0
I0525 23:43:48.890805 15117 net.cpp:579] Pooling2 -> Pooling2
I0525 23:43:48.890828 15117 net.cpp:240] Setting up Pooling2
I0525 23:43:48.890835 15117 net.cpp:247] Top shape: 128 32 8 8 (262144)
I0525 23:43:48.890838 15117 net.cpp:255] Memory required for data: 661127680
I0525 23:43:48.890842 15117 layer_factory.hpp:77] Creating layer Input2
I0525 23:43:48.890852 15117 net.cpp:190] Creating Layer Input2
I0525 23:43:48.890857 15117 net.cpp:579] Input2 -> Input2
I0525 23:43:48.890882 15117 net.cpp:240] Setting up Input2
I0525 23:43:48.890888 15117 net.cpp:247] Top shape: 128 32 8 8 (262144)
I0525 23:43:48.890892 15117 net.cpp:255] Memory required for data: 662176256
I0525 23:43:48.890897 15117 layer_factory.hpp:77] Creating layer Concat2
I0525 23:43:48.890908 15117 net.cpp:190] Creating Layer Concat2
I0525 23:43:48.890911 15117 net.cpp:605] Concat2 <- Pooling2
I0525 23:43:48.890916 15117 net.cpp:605] Concat2 <- Input2
I0525 23:43:48.890923 15117 net.cpp:579] Concat2 -> Concat2
I0525 23:43:48.890949 15117 net.cpp:240] Setting up Concat2
I0525 23:43:48.890955 15117 net.cpp:247] Top shape: 128 64 8 8 (524288)
I0525 23:43:48.890959 15117 net.cpp:255] Memory required for data: 664273408
I0525 23:43:48.890964 15117 layer_factory.hpp:77] Creating layer Convolution20
I0525 23:43:48.891001 15117 net.cpp:190] Creating Layer Convolution20
I0525 23:43:48.891006 15117 net.cpp:605] Convolution20 <- Eltwise9_ReLU19_0_split_1
I0525 23:43:48.891013 15117 net.cpp:579] Convolution20 -> Convolution20
I0525 23:43:48.892761 15117 net.cpp:240] Setting up Convolution20
I0525 23:43:48.892807 15117 net.cpp:247] Top shape: 128 64 8 8 (524288)
I0525 23:43:48.892810 15117 net.cpp:255] Memory required for data: 666370560
I0525 23:43:48.892827 15117 layer_factory.hpp:77] Creating layer BatchNorm20
I0525 23:43:48.892843 15117 net.cpp:190] Creating Layer BatchNorm20
I0525 23:43:48.892850 15117 net.cpp:605] BatchNorm20 <- Convolution20
I0525 23:43:48.892859 15117 net.cpp:566] BatchNorm20 -> Convolution20 (in-place)
I0525 23:43:48.893054 15117 net.cpp:240] Setting up BatchNorm20
I0525 23:43:48.893061 15117 net.cpp:247] Top shape: 128 64 8 8 (524288)
I0525 23:43:48.893065 15117 net.cpp:255] Memory required for data: 668467712
I0525 23:43:48.893076 15117 layer_factory.hpp:77] Creating layer Scale20
I0525 23:43:48.893090 15117 net.cpp:190] Creating Layer Scale20
I0525 23:43:48.893095 15117 net.cpp:605] Scale20 <- Convolution20
I0525 23:43:48.893100 15117 net.cpp:566] Scale20 -> Convolution20 (in-place)
I0525 23:43:48.893138 15117 layer_factory.hpp:77] Creating layer Scale20
I0525 23:43:48.893255 15117 net.cpp:240] Setting up Scale20
I0525 23:43:48.893262 15117 net.cpp:247] Top shape: 128 64 8 8 (524288)
I0525 23:43:48.893266 15117 net.cpp:255] Memory required for data: 670564864
I0525 23:43:48.893275 15117 layer_factory.hpp:77] Creating layer ReLU20
I0525 23:43:48.893293 15117 net.cpp:190] Creating Layer ReLU20
I0525 23:43:48.893298 15117 net.cpp:605] ReLU20 <- Convolution20
I0525 23:43:48.893304 15117 net.cpp:566] ReLU20 -> Convolution20 (in-place)
I0525 23:43:48.893311 15117 net.cpp:240] Setting up ReLU20
I0525 23:43:48.893316 15117 net.cpp:247] Top shape: 128 64 8 8 (524288)
I0525 23:43:48.893321 15117 net.cpp:255] Memory required for data: 672662016
I0525 23:43:48.893324 15117 layer_factory.hpp:77] Creating layer Convolution21
I0525 23:43:48.893338 15117 net.cpp:190] Creating Layer Convolution21
I0525 23:43:48.893342 15117 net.cpp:605] Convolution21 <- Convolution20
I0525 23:43:48.893349 15117 net.cpp:579] Convolution21 -> Convolution21
I0525 23:43:48.894901 15117 net.cpp:240] Setting up Convolution21
I0525 23:43:48.894932 15117 net.cpp:247] Top shape: 128 64 8 8 (524288)
I0525 23:43:48.894937 15117 net.cpp:255] Memory required for data: 674759168
I0525 23:43:48.894953 15117 layer_factory.hpp:77] Creating layer BatchNorm21
I0525 23:43:48.894966 15117 net.cpp:190] Creating Layer BatchNorm21
I0525 23:43:48.894973 15117 net.cpp:605] BatchNorm21 <- Convolution21
I0525 23:43:48.894980 15117 net.cpp:566] BatchNorm21 -> Convolution21 (in-place)
I0525 23:43:48.895170 15117 net.cpp:240] Setting up BatchNorm21
I0525 23:43:48.895179 15117 net.cpp:247] Top shape: 128 64 8 8 (524288)
I0525 23:43:48.895182 15117 net.cpp:255] Memory required for data: 676856320
I0525 23:43:48.895193 15117 layer_factory.hpp:77] Creating layer Scale21
I0525 23:43:48.895202 15117 net.cpp:190] Creating Layer Scale21
I0525 23:43:48.895206 15117 net.cpp:605] Scale21 <- Convolution21
I0525 23:43:48.895211 15117 net.cpp:566] Scale21 -> Convolution21 (in-place)
I0525 23:43:48.895251 15117 layer_factory.hpp:77] Creating layer Scale21
I0525 23:43:48.895365 15117 net.cpp:240] Setting up Scale21
I0525 23:43:48.895373 15117 net.cpp:247] Top shape: 128 64 8 8 (524288)
I0525 23:43:48.895377 15117 net.cpp:255] Memory required for data: 678953472
I0525 23:43:48.895388 15117 layer_factory.hpp:77] Creating layer Eltwise10
I0525 23:43:48.895397 15117 net.cpp:190] Creating Layer Eltwise10
I0525 23:43:48.895403 15117 net.cpp:605] Eltwise10 <- Concat2
I0525 23:43:48.895408 15117 net.cpp:605] Eltwise10 <- Convolution21
I0525 23:43:48.895416 15117 net.cpp:579] Eltwise10 -> Eltwise10
I0525 23:43:48.895438 15117 net.cpp:240] Setting up Eltwise10
I0525 23:43:48.895445 15117 net.cpp:247] Top shape: 128 64 8 8 (524288)
I0525 23:43:48.895455 15117 net.cpp:255] Memory required for data: 681050624
I0525 23:43:48.895490 15117 layer_factory.hpp:77] Creating layer ReLU21
I0525 23:43:48.895498 15117 net.cpp:190] Creating Layer ReLU21
I0525 23:43:48.895503 15117 net.cpp:605] ReLU21 <- Eltwise10
I0525 23:43:48.895509 15117 net.cpp:566] ReLU21 -> Eltwise10 (in-place)
I0525 23:43:48.895516 15117 net.cpp:240] Setting up ReLU21
I0525 23:43:48.895522 15117 net.cpp:247] Top shape: 128 64 8 8 (524288)
I0525 23:43:48.895526 15117 net.cpp:255] Memory required for data: 683147776
I0525 23:43:48.895529 15117 layer_factory.hpp:77] Creating layer Eltwise10_ReLU21_0_split
I0525 23:43:48.895536 15117 net.cpp:190] Creating Layer Eltwise10_ReLU21_0_split
I0525 23:43:48.895539 15117 net.cpp:605] Eltwise10_ReLU21_0_split <- Eltwise10
I0525 23:43:48.895545 15117 net.cpp:579] Eltwise10_ReLU21_0_split -> Eltwise10_ReLU21_0_split_0
I0525 23:43:48.895551 15117 net.cpp:579] Eltwise10_ReLU21_0_split -> Eltwise10_ReLU21_0_split_1
I0525 23:43:48.895589 15117 net.cpp:240] Setting up Eltwise10_ReLU21_0_split
I0525 23:43:48.895596 15117 net.cpp:247] Top shape: 128 64 8 8 (524288)
I0525 23:43:48.895601 15117 net.cpp:247] Top shape: 128 64 8 8 (524288)
I0525 23:43:48.895604 15117 net.cpp:255] Memory required for data: 687342080
I0525 23:43:48.895608 15117 layer_factory.hpp:77] Creating layer Convolution22
I0525 23:43:48.895622 15117 net.cpp:190] Creating Layer Convolution22
I0525 23:43:48.895625 15117 net.cpp:605] Convolution22 <- Eltwise10_ReLU21_0_split_0
I0525 23:43:48.895632 15117 net.cpp:579] Convolution22 -> Convolution22
I0525 23:43:48.897198 15117 net.cpp:240] Setting up Convolution22
I0525 23:43:48.897230 15117 net.cpp:247] Top shape: 128 64 8 8 (524288)
I0525 23:43:48.897234 15117 net.cpp:255] Memory required for data: 689439232
I0525 23:43:48.897248 15117 layer_factory.hpp:77] Creating layer BatchNorm22
I0525 23:43:48.897264 15117 net.cpp:190] Creating Layer BatchNorm22
I0525 23:43:48.897271 15117 net.cpp:605] BatchNorm22 <- Convolution22
I0525 23:43:48.897281 15117 net.cpp:566] BatchNorm22 -> Convolution22 (in-place)
I0525 23:43:48.897480 15117 net.cpp:240] Setting up BatchNorm22
I0525 23:43:48.897487 15117 net.cpp:247] Top shape: 128 64 8 8 (524288)
I0525 23:43:48.897491 15117 net.cpp:255] Memory required for data: 691536384
I0525 23:43:48.897505 15117 layer_factory.hpp:77] Creating layer Scale22
I0525 23:43:48.897513 15117 net.cpp:190] Creating Layer Scale22
I0525 23:43:48.897518 15117 net.cpp:605] Scale22 <- Convolution22
I0525 23:43:48.897523 15117 net.cpp:566] Scale22 -> Convolution22 (in-place)
I0525 23:43:48.897563 15117 layer_factory.hpp:77] Creating layer Scale22
I0525 23:43:48.897677 15117 net.cpp:240] Setting up Scale22
I0525 23:43:48.897685 15117 net.cpp:247] Top shape: 128 64 8 8 (524288)
I0525 23:43:48.897688 15117 net.cpp:255] Memory required for data: 693633536
I0525 23:43:48.897697 15117 layer_factory.hpp:77] Creating layer ReLU22
I0525 23:43:48.897706 15117 net.cpp:190] Creating Layer ReLU22
I0525 23:43:48.897709 15117 net.cpp:605] ReLU22 <- Convolution22
I0525 23:43:48.897716 15117 net.cpp:566] ReLU22 -> Convolution22 (in-place)
I0525 23:43:48.897723 15117 net.cpp:240] Setting up ReLU22
I0525 23:43:48.897728 15117 net.cpp:247] Top shape: 128 64 8 8 (524288)
I0525 23:43:48.897732 15117 net.cpp:255] Memory required for data: 695730688
I0525 23:43:48.897737 15117 layer_factory.hpp:77] Creating layer Convolution23
I0525 23:43:48.897748 15117 net.cpp:190] Creating Layer Convolution23
I0525 23:43:48.897753 15117 net.cpp:605] Convolution23 <- Convolution22
I0525 23:43:48.897760 15117 net.cpp:579] Convolution23 -> Convolution23
I0525 23:43:48.899304 15117 net.cpp:240] Setting up Convolution23
I0525 23:43:48.899338 15117 net.cpp:247] Top shape: 128 64 8 8 (524288)
I0525 23:43:48.899341 15117 net.cpp:255] Memory required for data: 697827840
I0525 23:43:48.899356 15117 layer_factory.hpp:77] Creating layer BatchNorm23
I0525 23:43:48.899370 15117 net.cpp:190] Creating Layer BatchNorm23
I0525 23:43:48.899377 15117 net.cpp:605] BatchNorm23 <- Convolution23
I0525 23:43:48.899394 15117 net.cpp:566] BatchNorm23 -> Convolution23 (in-place)
I0525 23:43:48.899618 15117 net.cpp:240] Setting up BatchNorm23
I0525 23:43:48.899627 15117 net.cpp:247] Top shape: 128 64 8 8 (524288)
I0525 23:43:48.899631 15117 net.cpp:255] Memory required for data: 699924992
I0525 23:43:48.899642 15117 layer_factory.hpp:77] Creating layer Scale23
I0525 23:43:48.899652 15117 net.cpp:190] Creating Layer Scale23
I0525 23:43:48.899657 15117 net.cpp:605] Scale23 <- Convolution23
I0525 23:43:48.899663 15117 net.cpp:566] Scale23 -> Convolution23 (in-place)
I0525 23:43:48.899700 15117 layer_factory.hpp:77] Creating layer Scale23
I0525 23:43:48.899816 15117 net.cpp:240] Setting up Scale23
I0525 23:43:48.899823 15117 net.cpp:247] Top shape: 128 64 8 8 (524288)
I0525 23:43:48.899827 15117 net.cpp:255] Memory required for data: 702022144
I0525 23:43:48.899835 15117 layer_factory.hpp:77] Creating layer Eltwise11
I0525 23:43:48.899844 15117 net.cpp:190] Creating Layer Eltwise11
I0525 23:43:48.899849 15117 net.cpp:605] Eltwise11 <- Eltwise10_ReLU21_0_split_1
I0525 23:43:48.899854 15117 net.cpp:605] Eltwise11 <- Convolution23
I0525 23:43:48.899863 15117 net.cpp:579] Eltwise11 -> Eltwise11
I0525 23:43:48.899883 15117 net.cpp:240] Setting up Eltwise11
I0525 23:43:48.899890 15117 net.cpp:247] Top shape: 128 64 8 8 (524288)
I0525 23:43:48.899894 15117 net.cpp:255] Memory required for data: 704119296
I0525 23:43:48.899899 15117 layer_factory.hpp:77] Creating layer ReLU23
I0525 23:43:48.899905 15117 net.cpp:190] Creating Layer ReLU23
I0525 23:43:48.899909 15117 net.cpp:605] ReLU23 <- Eltwise11
I0525 23:43:48.899914 15117 net.cpp:566] ReLU23 -> Eltwise11 (in-place)
I0525 23:43:48.899920 15117 net.cpp:240] Setting up ReLU23
I0525 23:43:48.899925 15117 net.cpp:247] Top shape: 128 64 8 8 (524288)
I0525 23:43:48.899930 15117 net.cpp:255] Memory required for data: 706216448
I0525 23:43:48.899933 15117 layer_factory.hpp:77] Creating layer Eltwise11_ReLU23_0_split
I0525 23:43:48.899940 15117 net.cpp:190] Creating Layer Eltwise11_ReLU23_0_split
I0525 23:43:48.899943 15117 net.cpp:605] Eltwise11_ReLU23_0_split <- Eltwise11
I0525 23:43:48.899950 15117 net.cpp:579] Eltwise11_ReLU23_0_split -> Eltwise11_ReLU23_0_split_0
I0525 23:43:48.899968 15117 net.cpp:579] Eltwise11_ReLU23_0_split -> Eltwise11_ReLU23_0_split_1
I0525 23:43:48.900002 15117 net.cpp:240] Setting up Eltwise11_ReLU23_0_split
I0525 23:43:48.900010 15117 net.cpp:247] Top shape: 128 64 8 8 (524288)
I0525 23:43:48.900015 15117 net.cpp:247] Top shape: 128 64 8 8 (524288)
I0525 23:43:48.900018 15117 net.cpp:255] Memory required for data: 710410752
I0525 23:43:48.900022 15117 layer_factory.hpp:77] Creating layer Convolution24
I0525 23:43:48.900034 15117 net.cpp:190] Creating Layer Convolution24
I0525 23:43:48.900038 15117 net.cpp:605] Convolution24 <- Eltwise11_ReLU23_0_split_0
I0525 23:43:48.900048 15117 net.cpp:579] Convolution24 -> Convolution24
I0525 23:43:48.901628 15117 net.cpp:240] Setting up Convolution24
I0525 23:43:48.901660 15117 net.cpp:247] Top shape: 128 64 8 8 (524288)
I0525 23:43:48.901664 15117 net.cpp:255] Memory required for data: 712507904
I0525 23:43:48.901680 15117 layer_factory.hpp:77] Creating layer BatchNorm24
I0525 23:43:48.901700 15117 net.cpp:190] Creating Layer BatchNorm24
I0525 23:43:48.901707 15117 net.cpp:605] BatchNorm24 <- Convolution24
I0525 23:43:48.901716 15117 net.cpp:566] BatchNorm24 -> Convolution24 (in-place)
I0525 23:43:48.901906 15117 net.cpp:240] Setting up BatchNorm24
I0525 23:43:48.901912 15117 net.cpp:247] Top shape: 128 64 8 8 (524288)
I0525 23:43:48.901916 15117 net.cpp:255] Memory required for data: 714605056
I0525 23:43:48.901927 15117 layer_factory.hpp:77] Creating layer Scale24
I0525 23:43:48.901938 15117 net.cpp:190] Creating Layer Scale24
I0525 23:43:48.901942 15117 net.cpp:605] Scale24 <- Convolution24
I0525 23:43:48.901948 15117 net.cpp:566] Scale24 -> Convolution24 (in-place)
I0525 23:43:48.901984 15117 layer_factory.hpp:77] Creating layer Scale24
I0525 23:43:48.902101 15117 net.cpp:240] Setting up Scale24
I0525 23:43:48.902109 15117 net.cpp:247] Top shape: 128 64 8 8 (524288)
I0525 23:43:48.902158 15117 net.cpp:255] Memory required for data: 716702208
I0525 23:43:48.902166 15117 layer_factory.hpp:77] Creating layer ReLU24
I0525 23:43:48.902176 15117 net.cpp:190] Creating Layer ReLU24
I0525 23:43:48.902181 15117 net.cpp:605] ReLU24 <- Convolution24
I0525 23:43:48.902187 15117 net.cpp:566] ReLU24 -> Convolution24 (in-place)
I0525 23:43:48.902194 15117 net.cpp:240] Setting up ReLU24
I0525 23:43:48.902199 15117 net.cpp:247] Top shape: 128 64 8 8 (524288)
I0525 23:43:48.902202 15117 net.cpp:255] Memory required for data: 718799360
I0525 23:43:48.902206 15117 layer_factory.hpp:77] Creating layer Convolution25
I0525 23:43:48.902220 15117 net.cpp:190] Creating Layer Convolution25
I0525 23:43:48.902225 15117 net.cpp:605] Convolution25 <- Convolution24
I0525 23:43:48.902230 15117 net.cpp:579] Convolution25 -> Convolution25
I0525 23:43:48.903796 15117 net.cpp:240] Setting up Convolution25
I0525 23:43:48.903830 15117 net.cpp:247] Top shape: 128 64 8 8 (524288)
I0525 23:43:48.903833 15117 net.cpp:255] Memory required for data: 720896512
I0525 23:43:48.903848 15117 layer_factory.hpp:77] Creating layer BatchNorm25
I0525 23:43:48.903863 15117 net.cpp:190] Creating Layer BatchNorm25
I0525 23:43:48.903870 15117 net.cpp:605] BatchNorm25 <- Convolution25
I0525 23:43:48.903878 15117 net.cpp:566] BatchNorm25 -> Convolution25 (in-place)
I0525 23:43:48.904073 15117 net.cpp:240] Setting up BatchNorm25
I0525 23:43:48.904081 15117 net.cpp:247] Top shape: 128 64 8 8 (524288)
I0525 23:43:48.904085 15117 net.cpp:255] Memory required for data: 722993664
I0525 23:43:48.904096 15117 layer_factory.hpp:77] Creating layer Scale25
I0525 23:43:48.904129 15117 net.cpp:190] Creating Layer Scale25
I0525 23:43:48.904134 15117 net.cpp:605] Scale25 <- Convolution25
I0525 23:43:48.904140 15117 net.cpp:566] Scale25 -> Convolution25 (in-place)
I0525 23:43:48.904181 15117 layer_factory.hpp:77] Creating layer Scale25
I0525 23:43:48.904306 15117 net.cpp:240] Setting up Scale25
I0525 23:43:48.904314 15117 net.cpp:247] Top shape: 128 64 8 8 (524288)
I0525 23:43:48.904319 15117 net.cpp:255] Memory required for data: 725090816
I0525 23:43:48.904327 15117 layer_factory.hpp:77] Creating layer Eltwise12
I0525 23:43:48.904336 15117 net.cpp:190] Creating Layer Eltwise12
I0525 23:43:48.904345 15117 net.cpp:605] Eltwise12 <- Eltwise11_ReLU23_0_split_1
I0525 23:43:48.904350 15117 net.cpp:605] Eltwise12 <- Convolution25
I0525 23:43:48.904357 15117 net.cpp:579] Eltwise12 -> Eltwise12
I0525 23:43:48.904376 15117 net.cpp:240] Setting up Eltwise12
I0525 23:43:48.904383 15117 net.cpp:247] Top shape: 128 64 8 8 (524288)
I0525 23:43:48.904386 15117 net.cpp:255] Memory required for data: 727187968
I0525 23:43:48.904391 15117 layer_factory.hpp:77] Creating layer ReLU25
I0525 23:43:48.904400 15117 net.cpp:190] Creating Layer ReLU25
I0525 23:43:48.904405 15117 net.cpp:605] ReLU25 <- Eltwise12
I0525 23:43:48.904410 15117 net.cpp:566] ReLU25 -> Eltwise12 (in-place)
I0525 23:43:48.904417 15117 net.cpp:240] Setting up ReLU25
I0525 23:43:48.904422 15117 net.cpp:247] Top shape: 128 64 8 8 (524288)
I0525 23:43:48.904425 15117 net.cpp:255] Memory required for data: 729285120
I0525 23:43:48.904429 15117 layer_factory.hpp:77] Creating layer Eltwise12_ReLU25_0_split
I0525 23:43:48.904435 15117 net.cpp:190] Creating Layer Eltwise12_ReLU25_0_split
I0525 23:43:48.904439 15117 net.cpp:605] Eltwise12_ReLU25_0_split <- Eltwise12
I0525 23:43:48.904444 15117 net.cpp:579] Eltwise12_ReLU25_0_split -> Eltwise12_ReLU25_0_split_0
I0525 23:43:48.904451 15117 net.cpp:579] Eltwise12_ReLU25_0_split -> Eltwise12_ReLU25_0_split_1
I0525 23:43:48.904486 15117 net.cpp:240] Setting up Eltwise12_ReLU25_0_split
I0525 23:43:48.904492 15117 net.cpp:247] Top shape: 128 64 8 8 (524288)
I0525 23:43:48.904497 15117 net.cpp:247] Top shape: 128 64 8 8 (524288)
I0525 23:43:48.904501 15117 net.cpp:255] Memory required for data: 733479424
I0525 23:43:48.904505 15117 layer_factory.hpp:77] Creating layer Convolution26
I0525 23:43:48.904520 15117 net.cpp:190] Creating Layer Convolution26
I0525 23:43:48.904531 15117 net.cpp:605] Convolution26 <- Eltwise12_ReLU25_0_split_0
I0525 23:43:48.904570 15117 net.cpp:579] Convolution26 -> Convolution26
I0525 23:43:48.906136 15117 net.cpp:240] Setting up Convolution26
I0525 23:43:48.906168 15117 net.cpp:247] Top shape: 128 64 8 8 (524288)
I0525 23:43:48.906172 15117 net.cpp:255] Memory required for data: 735576576
I0525 23:43:48.906186 15117 layer_factory.hpp:77] Creating layer BatchNorm26
I0525 23:43:48.906201 15117 net.cpp:190] Creating Layer BatchNorm26
I0525 23:43:48.906208 15117 net.cpp:605] BatchNorm26 <- Convolution26
I0525 23:43:48.906218 15117 net.cpp:566] BatchNorm26 -> Convolution26 (in-place)
I0525 23:43:48.910521 15117 net.cpp:240] Setting up BatchNorm26
I0525 23:43:48.910558 15117 net.cpp:247] Top shape: 128 64 8 8 (524288)
I0525 23:43:48.910563 15117 net.cpp:255] Memory required for data: 737673728
I0525 23:43:48.910585 15117 layer_factory.hpp:77] Creating layer Scale26
I0525 23:43:48.910606 15117 net.cpp:190] Creating Layer Scale26
I0525 23:43:48.910614 15117 net.cpp:605] Scale26 <- Convolution26
I0525 23:43:48.910624 15117 net.cpp:566] Scale26 -> Convolution26 (in-place)
I0525 23:43:48.910671 15117 layer_factory.hpp:77] Creating layer Scale26
I0525 23:43:48.910786 15117 net.cpp:240] Setting up Scale26
I0525 23:43:48.910794 15117 net.cpp:247] Top shape: 128 64 8 8 (524288)
I0525 23:43:48.910797 15117 net.cpp:255] Memory required for data: 739770880
I0525 23:43:48.910807 15117 layer_factory.hpp:77] Creating layer ReLU26
I0525 23:43:48.910816 15117 net.cpp:190] Creating Layer ReLU26
I0525 23:43:48.910821 15117 net.cpp:605] ReLU26 <- Convolution26
I0525 23:43:48.910827 15117 net.cpp:566] ReLU26 -> Convolution26 (in-place)
I0525 23:43:48.910835 15117 net.cpp:240] Setting up ReLU26
I0525 23:43:48.910840 15117 net.cpp:247] Top shape: 128 64 8 8 (524288)
I0525 23:43:48.910843 15117 net.cpp:255] Memory required for data: 741868032
I0525 23:43:48.910847 15117 layer_factory.hpp:77] Creating layer Convolution27
I0525 23:43:48.910861 15117 net.cpp:190] Creating Layer Convolution27
I0525 23:43:48.910866 15117 net.cpp:605] Convolution27 <- Convolution26
I0525 23:43:48.910871 15117 net.cpp:579] Convolution27 -> Convolution27
I0525 23:43:48.913249 15117 net.cpp:240] Setting up Convolution27
I0525 23:43:48.913296 15117 net.cpp:247] Top shape: 128 64 8 8 (524288)
I0525 23:43:48.913301 15117 net.cpp:255] Memory required for data: 743965184
I0525 23:43:48.913319 15117 layer_factory.hpp:77] Creating layer BatchNorm27
I0525 23:43:48.913342 15117 net.cpp:190] Creating Layer BatchNorm27
I0525 23:43:48.913350 15117 net.cpp:605] BatchNorm27 <- Convolution27
I0525 23:43:48.913359 15117 net.cpp:566] BatchNorm27 -> Convolution27 (in-place)
I0525 23:43:48.913554 15117 net.cpp:240] Setting up BatchNorm27
I0525 23:43:48.913563 15117 net.cpp:247] Top shape: 128 64 8 8 (524288)
I0525 23:43:48.913566 15117 net.cpp:255] Memory required for data: 746062336
I0525 23:43:48.913578 15117 layer_factory.hpp:77] Creating layer Scale27
I0525 23:43:48.913588 15117 net.cpp:190] Creating Layer Scale27
I0525 23:43:48.913592 15117 net.cpp:605] Scale27 <- Convolution27
I0525 23:43:48.913597 15117 net.cpp:566] Scale27 -> Convolution27 (in-place)
I0525 23:43:48.913636 15117 layer_factory.hpp:77] Creating layer Scale27
I0525 23:43:48.913750 15117 net.cpp:240] Setting up Scale27
I0525 23:43:48.913758 15117 net.cpp:247] Top shape: 128 64 8 8 (524288)
I0525 23:43:48.913763 15117 net.cpp:255] Memory required for data: 748159488
I0525 23:43:48.913771 15117 layer_factory.hpp:77] Creating layer Eltwise13
I0525 23:43:48.913782 15117 net.cpp:190] Creating Layer Eltwise13
I0525 23:43:48.913789 15117 net.cpp:605] Eltwise13 <- Eltwise12_ReLU25_0_split_1
I0525 23:43:48.913794 15117 net.cpp:605] Eltwise13 <- Convolution27
I0525 23:43:48.913800 15117 net.cpp:579] Eltwise13 -> Eltwise13
I0525 23:43:48.913822 15117 net.cpp:240] Setting up Eltwise13
I0525 23:43:48.913828 15117 net.cpp:247] Top shape: 128 64 8 8 (524288)
I0525 23:43:48.913832 15117 net.cpp:255] Memory required for data: 750256640
I0525 23:43:48.913842 15117 layer_factory.hpp:77] Creating layer ReLU27
I0525 23:43:48.913880 15117 net.cpp:190] Creating Layer ReLU27
I0525 23:43:48.913884 15117 net.cpp:605] ReLU27 <- Eltwise13
I0525 23:43:48.913892 15117 net.cpp:566] ReLU27 -> Eltwise13 (in-place)
I0525 23:43:48.913900 15117 net.cpp:240] Setting up ReLU27
I0525 23:43:48.913905 15117 net.cpp:247] Top shape: 128 64 8 8 (524288)
I0525 23:43:48.913909 15117 net.cpp:255] Memory required for data: 752353792
I0525 23:43:48.913913 15117 layer_factory.hpp:77] Creating layer Eltwise13_ReLU27_0_split
I0525 23:43:48.913919 15117 net.cpp:190] Creating Layer Eltwise13_ReLU27_0_split
I0525 23:43:48.913923 15117 net.cpp:605] Eltwise13_ReLU27_0_split <- Eltwise13
I0525 23:43:48.913928 15117 net.cpp:579] Eltwise13_ReLU27_0_split -> Eltwise13_ReLU27_0_split_0
I0525 23:43:48.913934 15117 net.cpp:579] Eltwise13_ReLU27_0_split -> Eltwise13_ReLU27_0_split_1
I0525 23:43:48.913972 15117 net.cpp:240] Setting up Eltwise13_ReLU27_0_split
I0525 23:43:48.913980 15117 net.cpp:247] Top shape: 128 64 8 8 (524288)
I0525 23:43:48.913985 15117 net.cpp:247] Top shape: 128 64 8 8 (524288)
I0525 23:43:48.913987 15117 net.cpp:255] Memory required for data: 756548096
I0525 23:43:48.913991 15117 layer_factory.hpp:77] Creating layer Convolution28
I0525 23:43:48.914003 15117 net.cpp:190] Creating Layer Convolution28
I0525 23:43:48.914007 15117 net.cpp:605] Convolution28 <- Eltwise13_ReLU27_0_split_0
I0525 23:43:48.914017 15117 net.cpp:579] Convolution28 -> Convolution28
I0525 23:43:48.915585 15117 net.cpp:240] Setting up Convolution28
I0525 23:43:48.915621 15117 net.cpp:247] Top shape: 128 64 8 8 (524288)
I0525 23:43:48.915626 15117 net.cpp:255] Memory required for data: 758645248
I0525 23:43:48.915642 15117 layer_factory.hpp:77] Creating layer BatchNorm28
I0525 23:43:48.915657 15117 net.cpp:190] Creating Layer BatchNorm28
I0525 23:43:48.915663 15117 net.cpp:605] BatchNorm28 <- Convolution28
I0525 23:43:48.915674 15117 net.cpp:566] BatchNorm28 -> Convolution28 (in-place)
I0525 23:43:48.915873 15117 net.cpp:240] Setting up BatchNorm28
I0525 23:43:48.915880 15117 net.cpp:247] Top shape: 128 64 8 8 (524288)
I0525 23:43:48.915884 15117 net.cpp:255] Memory required for data: 760742400
I0525 23:43:48.915895 15117 layer_factory.hpp:77] Creating layer Scale28
I0525 23:43:48.915904 15117 net.cpp:190] Creating Layer Scale28
I0525 23:43:48.915909 15117 net.cpp:605] Scale28 <- Convolution28
I0525 23:43:48.915915 15117 net.cpp:566] Scale28 -> Convolution28 (in-place)
I0525 23:43:48.915953 15117 layer_factory.hpp:77] Creating layer Scale28
I0525 23:43:48.916081 15117 net.cpp:240] Setting up Scale28
I0525 23:43:48.916090 15117 net.cpp:247] Top shape: 128 64 8 8 (524288)
I0525 23:43:48.916093 15117 net.cpp:255] Memory required for data: 762839552
I0525 23:43:48.916102 15117 layer_factory.hpp:77] Creating layer ReLU28
I0525 23:43:48.916110 15117 net.cpp:190] Creating Layer ReLU28
I0525 23:43:48.916115 15117 net.cpp:605] ReLU28 <- Convolution28
I0525 23:43:48.916122 15117 net.cpp:566] ReLU28 -> Convolution28 (in-place)
I0525 23:43:48.916129 15117 net.cpp:240] Setting up ReLU28
I0525 23:43:48.916134 15117 net.cpp:247] Top shape: 128 64 8 8 (524288)
I0525 23:43:48.916138 15117 net.cpp:255] Memory required for data: 764936704
I0525 23:43:48.916142 15117 layer_factory.hpp:77] Creating layer Convolution29
I0525 23:43:48.916157 15117 net.cpp:190] Creating Layer Convolution29
I0525 23:43:48.916160 15117 net.cpp:605] Convolution29 <- Convolution28
I0525 23:43:48.916167 15117 net.cpp:579] Convolution29 -> Convolution29
I0525 23:43:48.917733 15117 net.cpp:240] Setting up Convolution29
I0525 23:43:48.917768 15117 net.cpp:247] Top shape: 128 64 8 8 (524288)
I0525 23:43:48.917773 15117 net.cpp:255] Memory required for data: 767033856
I0525 23:43:48.917788 15117 layer_factory.hpp:77] Creating layer BatchNorm29
I0525 23:43:48.917803 15117 net.cpp:190] Creating Layer BatchNorm29
I0525 23:43:48.917810 15117 net.cpp:605] BatchNorm29 <- Convolution29
I0525 23:43:48.917819 15117 net.cpp:566] BatchNorm29 -> Convolution29 (in-place)
I0525 23:43:48.918061 15117 net.cpp:240] Setting up BatchNorm29
I0525 23:43:48.918102 15117 net.cpp:247] Top shape: 128 64 8 8 (524288)
I0525 23:43:48.918107 15117 net.cpp:255] Memory required for data: 769131008
I0525 23:43:48.918119 15117 layer_factory.hpp:77] Creating layer Scale29
I0525 23:43:48.918129 15117 net.cpp:190] Creating Layer Scale29
I0525 23:43:48.918133 15117 net.cpp:605] Scale29 <- Convolution29
I0525 23:43:48.918139 15117 net.cpp:566] Scale29 -> Convolution29 (in-place)
I0525 23:43:48.918185 15117 layer_factory.hpp:77] Creating layer Scale29
I0525 23:43:48.918305 15117 net.cpp:240] Setting up Scale29
I0525 23:43:48.918313 15117 net.cpp:247] Top shape: 128 64 8 8 (524288)
I0525 23:43:48.918318 15117 net.cpp:255] Memory required for data: 771228160
I0525 23:43:48.918325 15117 layer_factory.hpp:77] Creating layer Eltwise14
I0525 23:43:48.918336 15117 net.cpp:190] Creating Layer Eltwise14
I0525 23:43:48.918342 15117 net.cpp:605] Eltwise14 <- Eltwise13_ReLU27_0_split_1
I0525 23:43:48.918349 15117 net.cpp:605] Eltwise14 <- Convolution29
I0525 23:43:48.918360 15117 net.cpp:579] Eltwise14 -> Eltwise14
I0525 23:43:48.918381 15117 net.cpp:240] Setting up Eltwise14
I0525 23:43:48.918387 15117 net.cpp:247] Top shape: 128 64 8 8 (524288)
I0525 23:43:48.918391 15117 net.cpp:255] Memory required for data: 773325312
I0525 23:43:48.918395 15117 layer_factory.hpp:77] Creating layer ReLU29
I0525 23:43:48.918406 15117 net.cpp:190] Creating Layer ReLU29
I0525 23:43:48.918411 15117 net.cpp:605] ReLU29 <- Eltwise14
I0525 23:43:48.918416 15117 net.cpp:566] ReLU29 -> Eltwise14 (in-place)
I0525 23:43:48.918424 15117 net.cpp:240] Setting up ReLU29
I0525 23:43:48.918429 15117 net.cpp:247] Top shape: 128 64 8 8 (524288)
I0525 23:43:48.918433 15117 net.cpp:255] Memory required for data: 775422464
I0525 23:43:48.918437 15117 layer_factory.hpp:77] Creating layer Pooling3
I0525 23:43:48.918445 15117 net.cpp:190] Creating Layer Pooling3
I0525 23:43:48.918449 15117 net.cpp:605] Pooling3 <- Eltwise14
I0525 23:43:48.918455 15117 net.cpp:579] Pooling3 -> Pooling3
I0525 23:43:48.918493 15117 net.cpp:240] Setting up Pooling3
I0525 23:43:48.918500 15117 net.cpp:247] Top shape: 128 64 1 1 (8192)
I0525 23:43:48.918504 15117 net.cpp:255] Memory required for data: 775455232
I0525 23:43:48.918509 15117 layer_factory.hpp:77] Creating layer InnerProduct1
I0525 23:43:48.918516 15117 net.cpp:190] Creating Layer InnerProduct1
I0525 23:43:48.918520 15117 net.cpp:605] InnerProduct1 <- Pooling3
I0525 23:43:48.918527 15117 net.cpp:579] InnerProduct1 -> InnerProduct1
I0525 23:43:48.918680 15117 net.cpp:240] Setting up InnerProduct1
I0525 23:43:48.918690 15117 net.cpp:247] Top shape: 128 10 (1280)
I0525 23:43:48.918694 15117 net.cpp:255] Memory required for data: 775460352
I0525 23:43:48.918704 15117 layer_factory.hpp:77] Creating layer SoftmaxWithLoss1
I0525 23:43:48.918723 15117 net.cpp:190] Creating Layer SoftmaxWithLoss1
I0525 23:43:48.918727 15117 net.cpp:605] SoftmaxWithLoss1 <- InnerProduct1
I0525 23:43:48.918733 15117 net.cpp:605] SoftmaxWithLoss1 <- Data2
I0525 23:43:48.918742 15117 net.cpp:579] SoftmaxWithLoss1 -> SoftmaxWithLoss1
…
I0525 23:43:48.919705 15117 net.cpp:374] Network initialization done.
I0525 23:43:48.924062 15117 solver.cpp:186] Creating test net (#0) specified by test_net file: examples/stochastic_depth/residual_test.prototxt
I0525 23:43:48.925216 15117 net.cpp:148] Initializing net from parameters: 
state {
  phase: TEST
}
layer {
  name: "Data1"
  type: "Data"
  top: "Data1"
  top: "Data2"
  transform_param {
    mirror: true
    crop_size: 32
  }
  data_param {
    source: "/scratch/pas282/caffe/examples/cifar10/cifar10_test_leveldb_padding1"
    batch_size: 100
    backend: LEVELDB
  }
}
layer {
  name: "Convolution1"
  type: "Convolution"
  bottom: "Data1"
  top: "Convolution1"
  convolution_param {
    num_output: 16
    bias_term: true
    pad: 1
    kernel_size: 3
    stride: 1
    weight_filler {
      type: "msra"
    }
    bias_filler {
      type: "constant"
    }
  }
}
layer {
  name: "BatchNorm1"
  type: "BatchNorm"
  bottom: "Convolution1"
  top: "Convolution1"
  param {
    lr_mult: 0
    decay_mult: 0
  }
  param {
    lr_mult: 0
    decay_mult: 0
  }
  param {
    lr_mult: 0
    decay_mult: 0
  }
}
layer {
  name: "Scale1"
  type: "Scale"
  bottom: "Convolution1"
  top: "Convolution1"
  scale_param {
    bias_term: true
  }
}
layer {
  name: "ReLU1"
  type: "ReLU"
  bottom: "Convolution1"
  top: "Convolution1"
}
layer {
  name: "Convolution2"
  type: "Convolution"
  bottom: "Convolution1"
  top: "Convolution2"
  convolution_param {
    num_output: 16
    bias_term: true
    pad: 1
    kernel_size: 3
    stride: 1
    weight_filler {
      type: "msra"
    }
    bias_filler {
      type: "constant"
    }
  }
}
layer {
  name: "BatchNorm2"
  type: "BatchNorm"
  bottom: "Convolution2"
  top: "Convolution2"
  param {
    lr_mult: 0
    decay_mult: 0
  }
  param {
    lr_mult: 0
    decay_mult: 0
  }
  param {
    lr_mult: 0
    decay_mult: 0
  }
}
layer {
  name: "Scale2"
  type: "Scale"
  bottom: "Convolution2"
  top: "Convolution2"
  scale_param {
    bias_term: true
  }
}
layer {
  name: "ReLU2"
  type: "ReLU"
  bottom: "Convolution2"
  top: "Convolution2"
}
layer {
  name: "Convolution3"
  type: "Convolution"
  bottom: "Convolution2"
  top: "Convolution3"
  convolution_param {
    num_output: 16
    bias_term: true
    pad: 1
    kernel_size: 3
    stride: 1
    weight_filler {
      type: "msra"
    }
    bias_filler {
      type: "constant"
    }
  }
}
layer {
  name: "BatchNorm3"
  type: "BatchNorm"
  bottom: "Convolution3"
  top: "Convolution3"
  param {
    lr_mult: 0
    decay_mult: 0
  }
  param {
    lr_mult: 0
    decay_mult: 0
  }
  param {
    lr_mult: 0
    decay_mult: 0
  }
}
layer {
  name: "Scale3"
  type: "Scale"
  bottom: "Convolution3"
  top: "Convolution3"
  scale_param {
    bias_term: true
  }
}
layer {
  name: "Eltwise1"
  type: "Eltwise"
  bottom: "Convolution1"
  bottom: "Convolution3"
  top: "Eltwise1"
  eltwise_param {
    operation: SUM
  }
}
layer {
  name: "ReLU3"
  type: "ReLU"
  bottom: "Eltwise1"
  top: "Eltwise1"
}
layer {
  name: "Convolution4"
  type: "Convolution"
  bottom: "Eltwise1"
  top: "Convolution4"
  convolution_param {
    num_output: 16
    bias_term: true
    pad: 1
    kernel_size: 3
    stride: 1
    weight_filler {
      type: "msra"
    }
    bias_filler {
      type: "constant"
    }
  }
}
layer {
  name: "BatchNorm4"
  type: "BatchNorm"
  bottom: "Convolution4"
  top: "Convolution4"
  param {
    lr_mult: 0
    decay_mult: 0
  }
  param {
    lr_mult: 0
    decay_mult: 0
  }
  param {
    lr_mult: 0
    decay_mult: 0
  }
}
layer {
  name: "Scale4"
  type: "Scale"
  bottom: "Convolution4"
  top: "Convolution4"
  scale_param {
    bias_term: true
  }
}
layer {
  name: "ReLU4"
  type: "ReLU"
  bottom: "Convolution4"
  top: "Convolution4"
}
layer {
  name: "Convolution5"
  type: "Convolution"
  bottom: "Convolution4"
  top: "Convolution5"
  convolution_param {
    num_output: 16
    bias_term: true
    pad: 1
    kernel_size: 3
    stride: 1
    weight_filler {
      type: "msra"
    }
    bias_filler {
      type: "constant"
    }
  }
}
layer {
  name: "BatchNorm5"
  type: "BatchNorm"
  bottom: "Convolution5"
  top: "Convolution5"
  param {
    lr_mult: 0
    decay_mult: 0
  }
  param {
    lr_mult: 0
    decay_mult: 0
  }
  param {
    lr_mult: 0
    decay_mult: 0
  }
}
layer {
  name: "Scale5"
  type: "Scale"
  bottom: "Convolution5"
  top: "Convolution5"
  scale_param {
    bias_term: true
  }
}
layer {
  name: "Eltwise2"
  type: "Eltwise"
  bottom: "Eltwise1"
  bottom: "Convolution5"
  top: "Eltwise2"
  eltwise_param {
    operation: SUM
  }
}
layer {
  name: "ReLU5"
  type: "ReLU"
  bottom: "Eltwise2"
  top: "Eltwise2"
}
layer {
  name: "Convolution6"
  type: "Convolution"
  bottom: "Eltwise2"
  top: "Convolution6"
  convolution_param {
    num_output: 16
    bias_term: true
    pad: 1
    kernel_size: 3
    stride: 1
    weight_filler {
      type: "msra"
    }
    bias_filler {
      type: "constant"
    }
  }
}
layer {
  name: "BatchNorm6"
  type: "BatchNorm"
  bottom: "Convolution6"
  top: "Convolution6"
  param {
    lr_mult: 0
    decay_mult: 0
  }
  param {
    lr_mult: 0
    decay_mult: 0
  }
  param {
    lr_mult: 0
    decay_mult: 0
  }
}
layer {
  name: "Scale6"
  type: "Scale"
  bottom: "Convolution6"
  top: "Convolution6"
  scale_param {
    bias_term: true
  }
}
layer {
  name: "ReLU6"
  type: "ReLU"
  bottom: "Convolution6"
  top: "Convolution6"
}
layer {
  name: "Convolution7"
  type: "Convolution"
  bottom: "Convolution6"
  top: "Convolution7"
  convolution_param {
    num_output: 16
    bias_term: true
    pad: 1
    kernel_size: 3
    stride: 1
    weight_filler {
      type: "msra"
    }
    bias_filler {
      type: "constant"
    }
  }
}
layer {
  name: "BatchNorm7"
  type: "BatchNorm"
  bottom: "Convolution7"
  top: "Convolution7"
  param {
    lr_mult: 0
    decay_mult: 0
  }
  param {
    lr_mult: 0
    decay_mult: 0
  }
  param {
    lr_mult: 0
    decay_mult: 0
  }
}
layer {
  name: "Scale7"
  type: "Scale"
  bottom: "Convolution7"
  top: "Convolution7"
  scale_param {
    bias_term: true
  }
}
layer {
  name: "Eltwise3"
  type: "Eltwise"
  bottom: "Eltwise2"
  bottom: "Convolution7"
  top: "Eltwise3"
  eltwise_param {
    operation: SUM
  }
}
layer {
  name: "ReLU7"
  type: "ReLU"
  bottom: "Eltwise3"
  top: "Eltwise3"
}
layer {
  name: "Convolution8"
  type: "Convolution"
  bottom: "Eltwise3"
  top: "Convolution8"
  convolution_param {
    num_output: 16
    bias_term: true
    pad: 1
    kernel_size: 3
    stride: 1
    weight_filler {
      type: "msra"
    }
    bias_filler {
      type: "constant"
    }
  }
}
layer {
  name: "BatchNorm8"
  type: "BatchNorm"
  bottom: "Convolution8"
  top: "Convolution8"
  param {
    lr_mult: 0
    decay_mult: 0
  }
  param {
    lr_mult: 0
    decay_mult: 0
  }
  param {
    lr_mult: 0
    decay_mult: 0
  }
}
layer {
  name: "Scale8"
  type: "Scale"
  bottom: "Convolution8"
  top: "Convolution8"
  scale_param {
    bias_term: true
  }
}
layer {
  name: "ReLU8"
  type: "ReLU"
  bottom: "Convolution8"
  top: "Convolution8"
}
layer {
  name: "Convolution9"
  type: "Convolution"
  bottom: "Convolution8"
  top: "Convolution9"
  convolution_param {
    num_output: 16
    bias_term: true
    pad: 1
    kernel_size: 3
    stride: 1
    weight_filler {
      type: "msra"
    }
    bias_filler {
      type: "constant"
    }
  }
}
layer {
  name: "BatchNorm9"
  type: "BatchNorm"
  bottom: "Convolution9"
  top: "Convolution9"
  param {
    lr_mult: 0
    decay_mult: 0
  }
  param {
    lr_mult: 0
    decay_mult: 0
  }
  param {
    lr_mult: 0
    decay_mult: 0
  }
}
layer {
  name: "Scale9"
  type: "Scale"
  bottom: "Convolution9"
  top: "Convolution9"
  scale_param {
    bias_term: true
  }
}
layer {
  name: "Eltwise4"
  type: "Eltwise"
  bottom: "Eltwise3"
  bottom: "Convolution9"
  top: "Eltwise4"
  eltwise_param {
    operation: SUM
  }
}
layer {
  name: "ReLU9"
  type: "ReLU"
  bottom: "Eltwise4"
  top: "Eltwise4"
}
layer {
  name: "Pooling1"
  type: "Pooling"
  bottom: "Eltwise4"
  top: "Pooling1"
  pooling_param {
    pool: AVE
    kernel_size: 2
    stride: 2
  }
}
layer {
  name: "Input1"
  type: "Input"
  top: "Input1"
  input_param {
    shape {
      dim: 100
      dim: 16
      dim: 16
      dim: 16
    }
  }
}
layer {
  name: "Concat1"
  type: "Concat"
  bottom: "Pooling1"
  bottom: "Input1"
  top: "Concat1"
  concat_param {
    axis: 1
  }
}
layer {
  name: "Convolution10"
  type: "Convolution"
  bottom: "Eltwise4"
  top: "Convolution10"
  convolution_param {
    num_output: 32
    bias_term: true
    pad: 1
    kernel_size: 3
    stride: 2
    weight_filler {
      type: "msra"
    }
    bias_filler {
      type: "constant"
    }
  }
}
layer {
  name: "BatchNorm10"
  type: "BatchNorm"
  bottom: "Convolution10"
  top: "Convolution10"
  param {
    lr_mult: 0
    decay_mult: 0
  }
  param {
    lr_mult: 0
    decay_mult: 0
  }
  param {
    lr_mult: 0
    decay_mult: 0
  }
}
layer {
  name: "Scale10"
  type: "Scale"
  bottom: "Convolution10"
  top: "Convolution10"
  scale_param {
    bias_term: true
  }
}
layer {
  name: "ReLU10"
  type: "ReLU"
  bottom: "Convolution10"
  top: "Convolution10"
}
layer {
  name: "Convolution11"
  type: "Convolution"
  bottom: "Convolution10"
  top: "Convolution11"
  convolution_param {
    num_output: 32
    bias_term: true
    pad: 1
    kernel_size: 3
    stride: 1
    weight_filler {
      type: "msra"
    }
    bias_filler {
      type: "constant"
    }
  }
}
layer {
  name: "BatchNorm11"
  type: "BatchNorm"
  bottom: "Convolution11"
  top: "Convolution11"
  param {
    lr_mult: 0
    decay_mult: 0
  }
  param {
    lr_mult: 0
    decay_mult: 0
  }
  param {
    lr_mult: 0
    decay_mult: 0
  }
}
layer {
  name: "Scale11"
  type: "Scale"
  bottom: "Convolution11"
  top: "Convolution11"
  scale_param {
    bias_term: true
  }
}
layer {
  name: "Eltwise5"
  type: "Eltwise"
  bottom: "Concat1"
  bottom: "Convolution11"
  top: "Eltwise5"
  eltwise_param {
    operation: SUM
  }
}
layer {
  name: "ReLU11"
  type: "ReLU"
  bottom: "Eltwise5"
  top: "Eltwise5"
}
layer {
  name: "Convolution12"
  type: "Convolution"
  bottom: "Eltwise5"
  top: "Convolution12"
  convolution_param {
    num_output: 32
    bias_term: true
    pad: 1
    kernel_size: 3
    stride: 1
    weight_filler {
      type: "msra"
    }
    bias_filler {
      type: "constant"
    }
  }
}
layer {
  name: "BatchNorm12"
  type: "BatchNorm"
  bottom: "Convolution12"
  top: "Convolution12"
  param {
    lr_mult: 0
    decay_mult: 0
  }
  param {
    lr_mult: 0
    decay_mult: 0
  }
  param {
    lr_mult: 0
    decay_mult: 0
  }
}
layer {
  name: "Scale12"
  type: "Scale"
  bottom: "Convolution12"
  top: "Convolution12"
  scale_param {
    bias_term: true
  }
}
layer {
  name: "ReLU12"
  type: "ReLU"
  bottom: "Convolution12"
  top: "Convolution12"
}
layer {
  name: "Convolution13"
  type: "Convolution"
  bottom: "Convolution12"
  top: "Convolution13"
  convolution_param {
    num_output: 32
    bias_term: true
    pad: 1
    kernel_size: 3
    stride: 1
    weight_filler {
      type: "msra"
    }
    bias_filler {
      type: "constant"
    }
  }
}
layer {
  name: "BatchNorm13"
  type: "BatchNorm"
  bottom: "Convolution13"
  top: "Convolution13"
  param {
    lr_mult: 0
    decay_mult: 0
  }
  param {
    lr_mult: 0
    decay_mult: 0
  }
  param {
    lr_mult: 0
    decay_mult: 0
  }
}
layer {
  name: "Scale13"
  type: "Scale"
  bottom: "Convolution13"
  top: "Convolution13"
  scale_param {
    bias_term: true
  }
}
layer {
  name: "Eltwise6"
  type: "Eltwise"
  bottom: "Eltwise5"
  bottom: "Convolution13"
  top: "Eltwise6"
  eltwise_param {
    operation: SUM
  }
}
layer {
  name: "ReLU13"
  type: "ReLU"
  bottom: "Eltwise6"
  top: "Eltwise6"
}
layer {
  name: "Convolution14"
  type: "Convolution"
  bottom: "Eltwise6"
  top: "Convolution14"
  convolution_param {
    num_output: 32
    bias_term: true
    pad: 1
    kernel_size: 3
    stride: 1
    weight_filler {
      type: "msra"
    }
    bias_filler {
      type: "constant"
    }
  }
}
layer {
  name: "BatchNorm14"
  type: "BatchNorm"
  bottom: "Convolution14"
  top: "Convolution14"
  param {
    lr_mult: 0
    decay_mult: 0
  }
  param {
    lr_mult: 0
    decay_mult: 0
  }
  param {
    lr_mult: 0
    decay_mult: 0
  }
}
layer {
  name: "Scale14"
  type: "Scale"
  bottom: "Convolution14"
  top: "Convolution14"
  scale_param {
    bias_term: true
  }
}
layer {
  name: "ReLU14"
  type: "ReLU"
  bottom: "Convolution14"
  top: "Convolution14"
}
layer {
  name: "Convolution15"
  type: "Convolution"
  bottom: "Convolution14"
  top: "Convolution15"
  convolution_param {
    num_output: 32
    bias_term: true
    pad: 1
    kernel_size: 3
    stride: 1
    weight_filler {
      type: "msra"
    }
    bias_filler {
      type: "constant"
    }
  }
}
layer {
  name: "BatchNorm15"
  type: "BatchNorm"
  bottom: "Convolution15"
  top: "Convolution15"
  param {
    lr_mult: 0
    decay_mult: 0
  }
  param {
    lr_mult: 0
    decay_mult: 0
  }
  param {
    lr_mult: 0
    decay_mult: 0
  }
}
layer {
  name: "Scale15"
  type: "Scale"
  bottom: "Convolution15"
  top: "Convolution15"
  scale_param {
    bias_term: true
  }
}
layer {
  name: "Eltwise7"
  type: "Eltwise"
  bottom: "Eltwise6"
  bottom: "Convolution15"
  top: "Eltwise7"
  eltwise_param {
    operation: SUM
  }
}
layer {
  name: "ReLU15"
  type: "ReLU"
  bottom: "Eltwise7"
  top: "Eltwise7"
}
layer {
  name: "Convolution16"
  type: "Convolution"
  bottom: "Eltwise7"
  top: "Convolution16"
  convolution_param {
    num_output: 32
    bias_term: true
    pad: 1
    kernel_size: 3
    stride: 1
    weight_filler {
      type: "msra"
    }
    bias_filler {
      type: "constant"
    }
  }
}
layer {
  name: "BatchNorm16"
  type: "BatchNorm"
  bottom: "Convolution16"
  top: "Convolution16"
  param {
    lr_mult: 0
    decay_mult: 0
  }
  param {
    lr_mult: 0
    decay_mult: 0
  }
  param {
    lr_mult: 0
    decay_mult: 0
  }
}
layer {
  name: "Scale16"
  type: "Scale"
  bottom: "Convolution16"
  top: "Convolution16"
  scale_param {
    bias_term: true
  }
}
layer {
  name: "ReLU16"
  type: "ReLU"
  bottom: "Convolution16"
  top: "Convolution16"
}
layer {
  name: "Convolution17"
  type: "Convolution"
  bottom: "Convolution16"
  top: "Convolution17"
  convolution_param {
    num_output: 32
    bias_term: true
    pad: 1
    kernel_size: 3
    stride: 1
    weight_filler {
      type: "msra"
    }
    bias_filler {
      type: "constant"
    }
  }
}
layer {
  name: "BatchNorm17"
  type: "BatchNorm"
  bottom: "Convolution17"
  top: "Convolution17"
  param {
    lr_mult: 0
    decay_mult: 0
  }
  param {
    lr_mult: 0
    decay_mult: 0
  }
  param {
    lr_mult: 0
    decay_mult: 0
  }
}
layer {
  name: "Scale17"
  type: "Scale"
  bottom: "Convolution17"
  top: "Convolution17"
  scale_param {
    bias_term: true
  }
}
layer {
  name: "Eltwise8"
  type: "Eltwise"
  bottom: "Eltwise7"
  bottom: "Convolution17"
  top: "Eltwise8"
  eltwise_param {
    operation: SUM
  }
}
layer {
  name: "ReLU17"
  type: "ReLU"
  bottom: "Eltwise8"
  top: "Eltwise8"
}
layer {
  name: "Convolution18"
  type: "Convolution"
  bottom: "Eltwise8"
  top: "Convolution18"
  convolution_param {
    num_output: 32
    bias_term: true
    pad: 1
    kernel_size: 3
    stride: 1
    weight_filler {
      type: "msra"
    }
    bias_filler {
      type: "constant"
    }
  }
}
layer {
  name: "BatchNorm18"
  type: "BatchNorm"
  bottom: "Convolution18"
  top: "Convolution18"
  param {
    lr_mult: 0
    decay_mult: 0
  }
  param {
    lr_mult: 0
    decay_mult: 0
  }
  param {
    lr_mult: 0
    decay_mult: 0
  }
}
layer {
  name: "Scale18"
  type: "Scale"
  bottom: "Convolution18"
  top: "Convolution18"
  scale_param {
    bias_term: true
  }
}
layer {
  name: "ReLU18"
  type: "ReLU"
  bottom: "Convolution18"
  top: "Convolution18"
}
layer {
  name: "Convolution19"
  type: "Convolution"
  bottom: "Convolution18"
  top: "Convolution19"
  convolution_param {
    num_output: 32
    bias_term: true
    pad: 1
    kernel_size: 3
    stride: 1
    weight_filler {
      type: "msra"
    }
    bias_filler {
      type: "constant"
    }
  }
}
layer {
  name: "BatchNorm19"
  type: "BatchNorm"
  bottom: "Convolution19"
  top: "Convolution19"
  param {
    lr_mult: 0
    decay_mult: 0
  }
  param {
    lr_mult: 0
    decay_mult: 0
  }
  param {
    lr_mult: 0
    decay_mult: 0
  }
}
layer {
  name: "Scale19"
  type: "Scale"
  bottom: "Convolution19"
  top: "Convolution19"
  scale_param {
    bias_term: true
  }
}
layer {
  name: "Eltwise9"
  type: "Eltwise"
  bottom: "Eltwise8"
  bottom: "Convolution19"
  top: "Eltwise9"
  eltwise_param {
    operation: SUM
  }
}
layer {
  name: "ReLU19"
  type: "ReLU"
  bottom: "Eltwise9"
  top: "Eltwise9"
}
layer {
  name: "Pooling2"
  type: "Pooling"
  bottom: "Eltwise9"
  top: "Pooling2"
  pooling_param {
    pool: AVE
    kernel_size: 2
    stride: 2
  }
}
layer {
  name: "Input2"
  type: "Input"
  top: "Input2"
  input_param {
    shape {
      dim: 100
      dim: 32
      dim: 8
      dim: 8
    }
  }
}
layer {
  name: "Concat2"
  type: "Concat"
  bottom: "Pooling2"
  bottom: "Input2"
  top: "Concat2"
  concat_param {
    axis: 1
  }
}
layer {
  name: "Convolution20"
  type: "Convolution"
  bottom: "Eltwise9"
  top: "Convolution20"
  convolution_param {
    num_output: 64
    bias_term: true
    pad: 1
    kernel_size: 3
    stride: 2
    weight_filler {
      type: "msra"
    }
    bias_filler {
      type: "constant"
    }
  }
}
layer {
  name: "BatchNorm20"
  type: "BatchNorm"
  bottom: "Convolution20"
  top: "Convolution20"
  param {
    lr_mult: 0
    decay_mult: 0
  }
  param {
    lr_mult: 0
    decay_mult: 0
  }
  param {
    lr_mult: 0
    decay_mult: 0
  }
}
layer {
  name: "Scale20"
  type: "Scale"
  bottom: "Convolution20"
  top: "Convolution20"
  scale_param {
    bias_term: true
  }
}
layer {
  name: "ReLU20"
  type: "ReLU"
  bottom: "Convolution20"
  top: "Convolution20"
}
layer {
  name: "Convolution21"
  type: "Convolution"
  bottom: "Convolution20"
  top: "Convolution21"
  convolution_param {
    num_output: 64
    bias_term: true
    pad: 1
    kernel_size: 3
    stride: 1
    weight_filler {
      type: "msra"
    }
    bias_filler {
      type: "constant"
    }
  }
}
layer {
  name: "BatchNorm21"
  type: "BatchNorm"
  bottom: "Convolution21"
  top: "Convolution21"
  param {
    lr_mult: 0
    decay_mult: 0
  }
  param {
    lr_mult: 0
    decay_mult: 0
  }
  param {
    lr_mult: 0
    decay_mult: 0
  }
}
layer {
  name: "Scale21"
  type: "Scale"
  bottom: "Convolution21"
  top: "Convolution21"
  scale_param {
    bias_term: true
  }
}
layer {
  name: "Eltwise10"
  type: "Eltwise"
  bottom: "Concat2"
  bottom: "Convolution21"
  top: "Eltwise10"
  eltwise_param {
    operation: SUM
  }
}
layer {
  name: "ReLU21"
  type: "ReLU"
  bottom: "Eltwise10"
  top: "Eltwise10"
}
layer {
  name: "Convolution22"
  type: "Convolution"
  bottom: "Eltwise10"
  top: "Convolution22"
  convolution_param {
    num_output: 64
    bias_term: true
    pad: 1
    kernel_size: 3
    stride: 1
    weight_filler {
      type: "msra"
    }
    bias_filler {
      type: "constant"
    }
  }
}
layer {
  name: "BatchNorm22"
  type: "BatchNorm"
  bottom: "Convolution22"
  top: "Convolution22"
  param {
    lr_mult: 0
    decay_mult: 0
  }
  param {
    lr_mult: 0
    decay_mult: 0
  }
  param {
    lr_mult: 0
    decay_mult: 0
  }
}
layer {
  name: "Scale22"
  type: "Scale"
  bottom: "Convolution22"
  top: "Convolution22"
  scale_param {
    bias_term: true
  }
}
layer {
  name: "ReLU22"
  type: "ReLU"
  bottom: "Convolution22"
  top: "Convolution22"
}
layer {
  name: "Convolution23"
  type: "Convolution"
  bottom: "Convolution22"
  top: "Convolution23"
  convolution_param {
    num_output: 64
    bias_term: true
    pad: 1
    kernel_size: 3
    stride: 1
    weight_filler {
      type: "msra"
    }
    bias_filler {
      type: "constant"
    }
  }
}
layer {
  name: "BatchNorm23"
  type: "BatchNorm"
  bottom: "Convolution23"
  top: "Convolution23"
  param {
    lr_mult: 0
    decay_mult: 0
  }
  param {
    lr_mult: 0
    decay_mult: 0
  }
  param {
    lr_mult: 0
    decay_mult: 0
  }
}
layer {
  name: "Scale23"
  type: "Scale"
  bottom: "Convolution23"
  top: "Convolution23"
  scale_param {
    bias_term: true
  }
}
layer {
  name: "Eltwise11"
  type: "Eltwise"
  bottom: "Eltwise10"
  bottom: "Convolution23"
  top: "Eltwise11"
  eltwise_param {
    operation: SUM
  }
}
layer {
  name: "ReLU23"
  type: "ReLU"
  bottom: "Eltwise11"
  top: "Eltwise11"
}
layer {
  name: "Convolution24"
  type: "Convolution"
  bottom: "Eltwise11"
  top: "Convolution24"
  convolution_param {
    num_output: 64
    bias_term: true
    pad: 1
    kernel_size: 3
    stride: 1
    weight_filler {
      type: "msra"
    }
    bias_filler {
      type: "constant"
    }
  }
}
layer {
  name: "BatchNorm24"
  type: "BatchNorm"
  bottom: "Convolution24"
  top: "Convolution24"
  param {
    lr_mult: 0
    decay_mult: 0
  }
  param {
    lr_mult: 0
    decay_mult: 0
  }
  param {
    lr_mult: 0
    decay_mult: 0
  }
}
layer {
  name: "Scale24"
  type: "Scale"
  bottom: "Convolution24"
  top: "Convolution24"
  scale_param {
    bias_term: true
  }
}
layer {
  name: "ReLU24"
  type: "ReLU"
  bottom: "Convolution24"
  top: "Convolution24"
}
layer {
  name: "Convolution25"
  type: "Convolution"
  bottom: "Convolution24"
  top: "Convolution25"
  convolution_param {
    num_output: 64
    bias_term: true
    pad: 1
    kernel_size: 3
    stride: 1
    weight_filler {
      type: "msra"
    }
    bias_filler {
      type: "constant"
    }
  }
}
layer {
  name: "BatchNorm25"
  type: "BatchNorm"
  bottom: "Convolution25"
  top: "Convolution25"
  param {
    lr_mult: 0
    decay_mult: 0
  }
  param {
    lr_mult: 0
    decay_mult: 0
  }
  param {
    lr_mult: 0
    decay_mult: 0
  }
}
layer {
  name: "Scale25"
  type: "Scale"
  bottom: "Convolution25"
  top: "Convolution25"
  scale_param {
    bias_term: true
  }
}
layer {
  name: "Eltwise12"
  type: "Eltwise"
  bottom: "Eltwise11"
  bottom: "Convolution25"
  top: "Eltwise12"
  eltwise_param {
    operation: SUM
  }
}
layer {
  name: "ReLU25"
  type: "ReLU"
  bottom: "Eltwise12"
  top: "Eltwise12"
}
layer {
  name: "Convolution26"
  type: "Convolution"
  bottom: "Eltwise12"
  top: "Convolution26"
  convolution_param {
    num_output: 64
    bias_term: true
    pad: 1
    kernel_size: 3
    stride: 1
    weight_filler {
      type: "msra"
    }
    bias_filler {
      type: "constant"
    }
  }
}
layer {
  name: "BatchNorm26"
  type: "BatchNorm"
  bottom: "Convolution26"
  top: "Convolution26"
  param {
    lr_mult: 0
    decay_mult: 0
  }
  param {
    lr_mult: 0
    decay_mult: 0
  }
  param {
    lr_mult: 0
    decay_mult: 0
  }
}
layer {
  name: "Scale26"
  type: "Scale"
  bottom: "Convolution26"
  top: "Convolution26"
  scale_param {
    bias_term: true
  }
}
layer {
  name: "ReLU26"
  type: "ReLU"
  bottom: "Convolution26"
  top: "Convolution26"
}
layer {
  name: "Convolution27"
  type: "Convolution"
  bottom: "Convolution26"
  top: "Convolution27"
  convolution_param {
    num_output: 64
    bias_term: true
    pad: 1
    kernel_size: 3
    stride: 1
    weight_filler {
      type: "msra"
    }
    bias_filler {
      type: "constant"
    }
  }
}
layer {
  name: "BatchNorm27"
  type: "BatchNorm"
  bottom: "Convolution27"
  top: "Convolution27"
  param {
    lr_mult: 0
    decay_mult: 0
  }
  param {
    lr_mult: 0
    decay_mult: 0
  }
  param {
    lr_mult: 0
    decay_mult: 0
  }
}
layer {
  name: "Scale27"
  type: "Scale"
  bottom: "Convolution27"
  top: "Convolution27"
  scale_param {
    bias_term: true
  }
}
layer {
  name: "Eltwise13"
  type: "Eltwise"
  bottom: "Eltwise12"
  bottom: "Convolution27"
  top: "Eltwise13"
  eltwise_param {
    operation: SUM
  }
}
layer {
  name: "ReLU27"
  type: "ReLU"
  bottom: "Eltwise13"
  top: "Eltwise13"
}
layer {
  name: "Convolution28"
  type: "Convolution"
  bottom: "Eltwise13"
  top: "Convolution28"
  convolution_param {
    num_output: 64
    bias_term: true
    pad: 1
    kernel_size: 3
    stride: 1
    weight_filler {
      type: "msra"
    }
    bias_filler {
      type: "constant"
    }
  }
}
layer {
  name: "BatchNorm28"
  type: "BatchNorm"
  bottom: "Convolution28"
  top: "Convolution28"
  param {
    lr_mult: 0
    decay_mult: 0
  }
  param {
    lr_mult: 0
    decay_mult: 0
  }
  param {
    lr_mult: 0
    decay_mult: 0
  }
}
layer {
  name: "Scale28"
  type: "Scale"
  bottom: "Convolution28"
  top: "Convolution28"
  scale_param {
    bias_term: true
  }
}
layer {
  name: "ReLU28"
  type: "ReLU"
  bottom: "Convolution28"
  top: "Convolution28"
}
layer {
  name: "Convolution29"
  type: "Convolution"
  bottom: "Convolution28"
  top: "Convolution29"
  convolution_param {
    num_output: 64
    bias_term: true
    pad: 1
    kernel_size: 3
    stride: 1
    weight_filler {
      type: "msra"
    }
    bias_filler {
      type: "constant"
    }
  }
}
layer {
  name: "BatchNorm29"
  type: "BatchNorm"
  bottom: "Convolution29"
  top: "Convolution29"
  param {
    lr_mult: 0
    decay_mult: 0
  }
  param {
    lr_mult: 0
    decay_mult: 0
  }
  param {
    lr_mult: 0
    decay_mult: 0
  }
}
layer {
  name: "Scale29"
  type: "Scale"
  bottom: "Convolution29"
  top: "Convolution29"
  scale_param {
    bias_term: true
  }
}
layer {
  name: "Eltwise14"
  type: "Eltwise"
  bottom: "Eltwise13"
  bottom: "Convolution29"
  top: "Eltwise14"
  eltwise_param {
    operation: SUM
  }
}
layer {
  name: "ReLU29"
  type: "ReLU"
  bottom: "Eltwise14"
  top: "Eltwise14"
}
layer {
  name: "Pooling3"
  type: "Pooling"
  bottom: "Eltwise14"
  top: "Pooling3"
  pooling_param {
    pool: AVE
    global_pooling: true
  }
}
layer {
  name: "InnerProduct1"
  type: "InnerProduct"
  bottom: "Pooling3"
  top: "InnerProduct1"
  inner_product_param {
    num_output: 10
    bias_term: true
    weight_filler {
      type: "msra"
    }
  }
}
layer {
  name: "Accuracy"
  type: "Accuracy"
  bottom: "InnerProduct1"
  bottom: "Data2"
  top: "Accuracy"
  include {
    phase: TEST
  }
}
layer {
  name: "SoftmaxWithLoss1"
  type: "SoftmaxWithLoss"
  bottom: "InnerProduct1"
  bottom: "Data2"
  top: "SoftmaxWithLoss1"
}
I0525 23:43:48.925961 15117 layer_factory.hpp:77] Creating layer Data1
I0525 23:43:48.926146 15117 net.cpp:190] Creating Layer Data1
I0525 23:43:48.926175 15117 net.cpp:579] Data1 -> Data1
I0525 23:43:48.926194 15117 net.cpp:579] Data1 -> Data2
I0525 23:43:48.962142 15123 db_leveldb.cpp:18] Opened leveldb /scratch/pas282/caffe/examples/cifar10/cifar10_test_leveldb_padding1
I0525 23:43:48.962724 15117 data_layer.cpp:41] output data size: 100,3,32,32
I0525 23:43:48.974416 15117 net.cpp:240] Setting up Data1
I0525 23:43:48.974477 15117 net.cpp:247] Top shape: 100 3 32 32 (307200)
I0525 23:43:48.974485 15117 net.cpp:247] Top shape: 100 (100)
I0525 23:43:48.974489 15117 net.cpp:255] Memory required for data: 1229200
I0525 23:43:48.974498 15117 layer_factory.hpp:77] Creating layer Data2_Data1_1_split
I0525 23:43:48.975296 15117 net.cpp:190] Creating Layer Data2_Data1_1_split
I0525 23:43:48.975322 15117 net.cpp:605] Data2_Data1_1_split <- Data2
I0525 23:43:48.975335 15117 net.cpp:579] Data2_Data1_1_split -> Data2_Data1_1_split_0
I0525 23:43:48.975352 15117 net.cpp:579] Data2_Data1_1_split -> Data2_Data1_1_split_1
I0525 23:43:48.975515 15117 net.cpp:240] Setting up Data2_Data1_1_split
I0525 23:43:48.975533 15117 net.cpp:247] Top shape: 100 (100)
I0525 23:43:48.975538 15117 net.cpp:247] Top shape: 100 (100)
I0525 23:43:48.975541 15117 net.cpp:255] Memory required for data: 1230000
I0525 23:43:48.975548 15117 layer_factory.hpp:77] Creating layer Convolution1
I0525 23:43:48.975571 15117 net.cpp:190] Creating Layer Convolution1
I0525 23:43:48.975576 15117 net.cpp:605] Convolution1 <- Data1
I0525 23:43:48.975589 15117 net.cpp:579] Convolution1 -> Convolution1
I0525 23:43:48.975898 15117 net.cpp:240] Setting up Convolution1
I0525 23:43:48.975909 15117 net.cpp:247] Top shape: 100 16 32 32 (1638400)
I0525 23:43:48.975914 15117 net.cpp:255] Memory required for data: 7783600
I0525 23:43:48.975929 15117 layer_factory.hpp:77] Creating layer BatchNorm1
I0525 23:43:48.975939 15117 net.cpp:190] Creating Layer BatchNorm1
I0525 23:43:48.975944 15117 net.cpp:605] BatchNorm1 <- Convolution1
I0525 23:43:48.975951 15117 net.cpp:566] BatchNorm1 -> Convolution1 (in-place)
I0525 23:43:48.976146 15117 net.cpp:240] Setting up BatchNorm1
I0525 23:43:48.976155 15117 net.cpp:247] Top shape: 100 16 32 32 (1638400)
I0525 23:43:48.976158 15117 net.cpp:255] Memory required for data: 14337200
I0525 23:43:48.976172 15117 layer_factory.hpp:77] Creating layer Scale1
I0525 23:43:48.976183 15117 net.cpp:190] Creating Layer Scale1
I0525 23:43:48.976187 15117 net.cpp:605] Scale1 <- Convolution1
I0525 23:43:48.976197 15117 net.cpp:566] Scale1 -> Convolution1 (in-place)
I0525 23:43:48.976240 15117 layer_factory.hpp:77] Creating layer Scale1
I0525 23:43:48.976364 15117 net.cpp:240] Setting up Scale1
I0525 23:43:48.976404 15117 net.cpp:247] Top shape: 100 16 32 32 (1638400)
I0525 23:43:48.976408 15117 net.cpp:255] Memory required for data: 20890800
I0525 23:43:48.976418 15117 layer_factory.hpp:77] Creating layer ReLU1
I0525 23:43:48.976428 15117 net.cpp:190] Creating Layer ReLU1
I0525 23:43:48.976433 15117 net.cpp:605] ReLU1 <- Convolution1
I0525 23:43:48.976438 15117 net.cpp:566] ReLU1 -> Convolution1 (in-place)
I0525 23:43:48.976445 15117 net.cpp:240] Setting up ReLU1
I0525 23:43:48.976451 15117 net.cpp:247] Top shape: 100 16 32 32 (1638400)
I0525 23:43:48.976454 15117 net.cpp:255] Memory required for data: 27444400
I0525 23:43:48.976459 15117 layer_factory.hpp:77] Creating layer Convolution1_ReLU1_0_split
I0525 23:43:48.976464 15117 net.cpp:190] Creating Layer Convolution1_ReLU1_0_split
I0525 23:43:48.976469 15117 net.cpp:605] Convolution1_ReLU1_0_split <- Convolution1
I0525 23:43:48.976475 15117 net.cpp:579] Convolution1_ReLU1_0_split -> Convolution1_ReLU1_0_split_0
I0525 23:43:48.976483 15117 net.cpp:579] Convolution1_ReLU1_0_split -> Convolution1_ReLU1_0_split_1
I0525 23:43:48.976521 15117 net.cpp:240] Setting up Convolution1_ReLU1_0_split
I0525 23:43:48.976526 15117 net.cpp:247] Top shape: 100 16 32 32 (1638400)
I0525 23:43:48.976531 15117 net.cpp:247] Top shape: 100 16 32 32 (1638400)
I0525 23:43:48.976536 15117 net.cpp:255] Memory required for data: 40551600
I0525 23:43:48.976539 15117 layer_factory.hpp:77] Creating layer Convolution2
I0525 23:43:48.976552 15117 net.cpp:190] Creating Layer Convolution2
I0525 23:43:48.976555 15117 net.cpp:605] Convolution2 <- Convolution1_ReLU1_0_split_0
I0525 23:43:48.976562 15117 net.cpp:579] Convolution2 -> Convolution2
I0525 23:43:48.976879 15117 net.cpp:240] Setting up Convolution2
I0525 23:43:48.976888 15117 net.cpp:247] Top shape: 100 16 32 32 (1638400)
I0525 23:43:48.976892 15117 net.cpp:255] Memory required for data: 47105200
I0525 23:43:48.976907 15117 layer_factory.hpp:77] Creating layer BatchNorm2
I0525 23:43:48.976917 15117 net.cpp:190] Creating Layer BatchNorm2
I0525 23:43:48.976922 15117 net.cpp:605] BatchNorm2 <- Convolution2
I0525 23:43:48.976928 15117 net.cpp:566] BatchNorm2 -> Convolution2 (in-place)
I0525 23:43:48.977141 15117 net.cpp:240] Setting up BatchNorm2
I0525 23:43:48.977152 15117 net.cpp:247] Top shape: 100 16 32 32 (1638400)
I0525 23:43:48.977156 15117 net.cpp:255] Memory required for data: 53658800
I0525 23:43:48.977170 15117 layer_factory.hpp:77] Creating layer Scale2
I0525 23:43:48.977179 15117 net.cpp:190] Creating Layer Scale2
I0525 23:43:48.977183 15117 net.cpp:605] Scale2 <- Convolution2
I0525 23:43:48.977188 15117 net.cpp:566] Scale2 -> Convolution2 (in-place)
I0525 23:43:48.977242 15117 layer_factory.hpp:77] Creating layer Scale2
I0525 23:43:48.977355 15117 net.cpp:240] Setting up Scale2
I0525 23:43:48.977361 15117 net.cpp:247] Top shape: 100 16 32 32 (1638400)
I0525 23:43:48.977365 15117 net.cpp:255] Memory required for data: 60212400
I0525 23:43:48.977378 15117 layer_factory.hpp:77] Creating layer ReLU2
I0525 23:43:48.977387 15117 net.cpp:190] Creating Layer ReLU2
I0525 23:43:48.977391 15117 net.cpp:605] ReLU2 <- Convolution2
I0525 23:43:48.977401 15117 net.cpp:566] ReLU2 -> Convolution2 (in-place)
I0525 23:43:48.977408 15117 net.cpp:240] Setting up ReLU2
I0525 23:43:48.977413 15117 net.cpp:247] Top shape: 100 16 32 32 (1638400)
I0525 23:43:48.977417 15117 net.cpp:255] Memory required for data: 66766000
I0525 23:43:48.977421 15117 layer_factory.hpp:77] Creating layer Convolution3
I0525 23:43:48.977432 15117 net.cpp:190] Creating Layer Convolution3
I0525 23:43:48.977435 15117 net.cpp:605] Convolution3 <- Convolution2
I0525 23:43:48.977443 15117 net.cpp:579] Convolution3 -> Convolution3
I0525 23:43:48.977951 15117 net.cpp:240] Setting up Convolution3
I0525 23:43:48.977967 15117 net.cpp:247] Top shape: 100 16 32 32 (1638400)
I0525 23:43:48.977970 15117 net.cpp:255] Memory required for data: 73319600
I0525 23:43:48.977980 15117 layer_factory.hpp:77] Creating layer BatchNorm3
I0525 23:43:48.977995 15117 net.cpp:190] Creating Layer BatchNorm3
I0525 23:43:48.978027 15117 net.cpp:605] BatchNorm3 <- Convolution3
I0525 23:43:48.978037 15117 net.cpp:566] BatchNorm3 -> Convolution3 (in-place)
I0525 23:43:48.978241 15117 net.cpp:240] Setting up BatchNorm3
I0525 23:43:48.978250 15117 net.cpp:247] Top shape: 100 16 32 32 (1638400)
I0525 23:43:48.978253 15117 net.cpp:255] Memory required for data: 79873200
I0525 23:43:48.978269 15117 layer_factory.hpp:77] Creating layer Scale3
I0525 23:43:48.978281 15117 net.cpp:190] Creating Layer Scale3
I0525 23:43:48.978286 15117 net.cpp:605] Scale3 <- Convolution3
I0525 23:43:48.978292 15117 net.cpp:566] Scale3 -> Convolution3 (in-place)
I0525 23:43:48.978335 15117 layer_factory.hpp:77] Creating layer Scale3
I0525 23:43:48.978457 15117 net.cpp:240] Setting up Scale3
I0525 23:43:48.978466 15117 net.cpp:247] Top shape: 100 16 32 32 (1638400)
I0525 23:43:48.978469 15117 net.cpp:255] Memory required for data: 86426800
I0525 23:43:48.978478 15117 layer_factory.hpp:77] Creating layer Eltwise1
I0525 23:43:48.978487 15117 net.cpp:190] Creating Layer Eltwise1
I0525 23:43:48.978492 15117 net.cpp:605] Eltwise1 <- Convolution1_ReLU1_0_split_1
I0525 23:43:48.978497 15117 net.cpp:605] Eltwise1 <- Convolution3
I0525 23:43:48.978503 15117 net.cpp:579] Eltwise1 -> Eltwise1
I0525 23:43:48.978530 15117 net.cpp:240] Setting up Eltwise1
I0525 23:43:48.978536 15117 net.cpp:247] Top shape: 100 16 32 32 (1638400)
I0525 23:43:48.978540 15117 net.cpp:255] Memory required for data: 92980400
I0525 23:43:48.978543 15117 layer_factory.hpp:77] Creating layer ReLU3
I0525 23:43:48.978552 15117 net.cpp:190] Creating Layer ReLU3
I0525 23:43:48.978556 15117 net.cpp:605] ReLU3 <- Eltwise1
I0525 23:43:48.978562 15117 net.cpp:566] ReLU3 -> Eltwise1 (in-place)
I0525 23:43:48.978569 15117 net.cpp:240] Setting up ReLU3
I0525 23:43:48.978574 15117 net.cpp:247] Top shape: 100 16 32 32 (1638400)
I0525 23:43:48.978576 15117 net.cpp:255] Memory required for data: 99534000
I0525 23:43:48.978580 15117 layer_factory.hpp:77] Creating layer Eltwise1_ReLU3_0_split
I0525 23:43:48.978590 15117 net.cpp:190] Creating Layer Eltwise1_ReLU3_0_split
I0525 23:43:48.978593 15117 net.cpp:605] Eltwise1_ReLU3_0_split <- Eltwise1
I0525 23:43:48.978601 15117 net.cpp:579] Eltwise1_ReLU3_0_split -> Eltwise1_ReLU3_0_split_0
I0525 23:43:48.978608 15117 net.cpp:579] Eltwise1_ReLU3_0_split -> Eltwise1_ReLU3_0_split_1
I0525 23:43:48.978641 15117 net.cpp:240] Setting up Eltwise1_ReLU3_0_split
I0525 23:43:48.978647 15117 net.cpp:247] Top shape: 100 16 32 32 (1638400)
I0525 23:43:48.978653 15117 net.cpp:247] Top shape: 100 16 32 32 (1638400)
I0525 23:43:48.978657 15117 net.cpp:255] Memory required for data: 112641200
I0525 23:43:48.978660 15117 layer_factory.hpp:77] Creating layer Convolution4
I0525 23:43:48.978674 15117 net.cpp:190] Creating Layer Convolution4
I0525 23:43:48.978678 15117 net.cpp:605] Convolution4 <- Eltwise1_ReLU3_0_split_0
I0525 23:43:48.978684 15117 net.cpp:579] Convolution4 -> Convolution4
I0525 23:43:48.979182 15117 net.cpp:240] Setting up Convolution4
I0525 23:43:48.979195 15117 net.cpp:247] Top shape: 100 16 32 32 (1638400)
I0525 23:43:48.979199 15117 net.cpp:255] Memory required for data: 119194800
I0525 23:43:48.979212 15117 layer_factory.hpp:77] Creating layer BatchNorm4
I0525 23:43:48.979223 15117 net.cpp:190] Creating Layer BatchNorm4
I0525 23:43:48.979228 15117 net.cpp:605] BatchNorm4 <- Convolution4
I0525 23:43:48.979234 15117 net.cpp:566] BatchNorm4 -> Convolution4 (in-place)
I0525 23:43:48.979439 15117 net.cpp:240] Setting up BatchNorm4
I0525 23:43:48.979447 15117 net.cpp:247] Top shape: 100 16 32 32 (1638400)
I0525 23:43:48.979451 15117 net.cpp:255] Memory required for data: 125748400
I0525 23:43:48.979465 15117 layer_factory.hpp:77] Creating layer Scale4
I0525 23:43:48.979473 15117 net.cpp:190] Creating Layer Scale4
I0525 23:43:48.979477 15117 net.cpp:605] Scale4 <- Convolution4
I0525 23:43:48.979485 15117 net.cpp:566] Scale4 -> Convolution4 (in-place)
I0525 23:43:48.979529 15117 layer_factory.hpp:77] Creating layer Scale4
I0525 23:43:48.979650 15117 net.cpp:240] Setting up Scale4
I0525 23:43:48.979686 15117 net.cpp:247] Top shape: 100 16 32 32 (1638400)
I0525 23:43:48.979691 15117 net.cpp:255] Memory required for data: 132302000
I0525 23:43:48.979701 15117 layer_factory.hpp:77] Creating layer ReLU4
I0525 23:43:48.979709 15117 net.cpp:190] Creating Layer ReLU4
I0525 23:43:48.979713 15117 net.cpp:605] ReLU4 <- Convolution4
I0525 23:43:48.979719 15117 net.cpp:566] ReLU4 -> Convolution4 (in-place)
I0525 23:43:48.979727 15117 net.cpp:240] Setting up ReLU4
I0525 23:43:48.979732 15117 net.cpp:247] Top shape: 100 16 32 32 (1638400)
I0525 23:43:48.979737 15117 net.cpp:255] Memory required for data: 138855600
I0525 23:43:48.979740 15117 layer_factory.hpp:77] Creating layer Convolution5
I0525 23:43:48.979750 15117 net.cpp:190] Creating Layer Convolution5
I0525 23:43:48.979754 15117 net.cpp:605] Convolution5 <- Convolution4
I0525 23:43:48.979763 15117 net.cpp:579] Convolution5 -> Convolution5
I0525 23:43:48.980093 15117 net.cpp:240] Setting up Convolution5
I0525 23:43:48.980103 15117 net.cpp:247] Top shape: 100 16 32 32 (1638400)
I0525 23:43:48.980106 15117 net.cpp:255] Memory required for data: 145409200
I0525 23:43:48.980114 15117 layer_factory.hpp:77] Creating layer BatchNorm5
I0525 23:43:48.980123 15117 net.cpp:190] Creating Layer BatchNorm5
I0525 23:43:48.980128 15117 net.cpp:605] BatchNorm5 <- Convolution5
I0525 23:43:48.980135 15117 net.cpp:566] BatchNorm5 -> Convolution5 (in-place)
I0525 23:43:48.980326 15117 net.cpp:240] Setting up BatchNorm5
I0525 23:43:48.980334 15117 net.cpp:247] Top shape: 100 16 32 32 (1638400)
I0525 23:43:48.980339 15117 net.cpp:255] Memory required for data: 151962800
I0525 23:43:48.980356 15117 layer_factory.hpp:77] Creating layer Scale5
I0525 23:43:48.980366 15117 net.cpp:190] Creating Layer Scale5
I0525 23:43:48.980371 15117 net.cpp:605] Scale5 <- Convolution5
I0525 23:43:48.980377 15117 net.cpp:566] Scale5 -> Convolution5 (in-place)
I0525 23:43:48.980427 15117 layer_factory.hpp:77] Creating layer Scale5
I0525 23:43:48.982410 15117 net.cpp:240] Setting up Scale5
I0525 23:43:48.982457 15117 net.cpp:247] Top shape: 100 16 32 32 (1638400)
I0525 23:43:48.982461 15117 net.cpp:255] Memory required for data: 158516400
I0525 23:43:48.982481 15117 layer_factory.hpp:77] Creating layer Eltwise2
I0525 23:43:48.982498 15117 net.cpp:190] Creating Layer Eltwise2
I0525 23:43:48.982506 15117 net.cpp:605] Eltwise2 <- Eltwise1_ReLU3_0_split_1
I0525 23:43:48.982516 15117 net.cpp:605] Eltwise2 <- Convolution5
I0525 23:43:48.982523 15117 net.cpp:579] Eltwise2 -> Eltwise2
I0525 23:43:48.982612 15117 net.cpp:240] Setting up Eltwise2
I0525 23:43:48.982620 15117 net.cpp:247] Top shape: 100 16 32 32 (1638400)
I0525 23:43:48.982623 15117 net.cpp:255] Memory required for data: 165070000
I0525 23:43:48.982627 15117 layer_factory.hpp:77] Creating layer ReLU5
I0525 23:43:48.982635 15117 net.cpp:190] Creating Layer ReLU5
I0525 23:43:48.982640 15117 net.cpp:605] ReLU5 <- Eltwise2
I0525 23:43:48.982645 15117 net.cpp:566] ReLU5 -> Eltwise2 (in-place)
I0525 23:43:48.982651 15117 net.cpp:240] Setting up ReLU5
I0525 23:43:48.982656 15117 net.cpp:247] Top shape: 100 16 32 32 (1638400)
I0525 23:43:48.982661 15117 net.cpp:255] Memory required for data: 171623600
I0525 23:43:48.982664 15117 layer_factory.hpp:77] Creating layer Eltwise2_ReLU5_0_split
I0525 23:43:48.982673 15117 net.cpp:190] Creating Layer Eltwise2_ReLU5_0_split
I0525 23:43:48.982681 15117 net.cpp:605] Eltwise2_ReLU5_0_split <- Eltwise2
…
I0525 23:43:48.995396 15117 net.cpp:605] ReLU12 <- Convolution12
I0525 23:43:48.995404 15117 net.cpp:566] ReLU12 -> Convolution12 (in-place)
I0525 23:43:48.995411 15117 net.cpp:240] Setting up ReLU12
I0525 23:43:48.995416 15117 net.cpp:247] Top shape: 100 32 16 16 (819200)
I0525 23:43:48.995420 15117 net.cpp:255] Memory required for data: 384615600
I0525 23:43:48.995424 15117 layer_factory.hpp:77] Creating layer Convolution13
I0525 23:43:48.995446 15117 net.cpp:190] Creating Layer Convolution13
I0525 23:43:48.995451 15117 net.cpp:605] Convolution13 <- Convolution12
I0525 23:43:48.995457 15117 net.cpp:579] Convolution13 -> Convolution13
I0525 23:43:48.996019 15117 net.cpp:240] Setting up Convolution13
I0525 23:43:48.996032 15117 net.cpp:247] Top shape: 100 32 16 16 (819200)
I0525 23:43:48.996037 15117 net.cpp:255] Memory required for data: 387892400
I0525 23:43:48.996047 15117 layer_factory.hpp:77] Creating layer BatchNorm13
I0525 23:43:48.996057 15117 net.cpp:190] Creating Layer BatchNorm13
I0525 23:43:48.996062 15117 net.cpp:605] BatchNorm13 <- Convolution13
I0525 23:43:48.996069 15117 net.cpp:566] BatchNorm13 -> Convolution13 (in-place)
I0525 23:43:48.998392 15117 net.cpp:240] Setting up BatchNorm13
I0525 23:43:48.998440 15117 net.cpp:247] Top shape: 100 32 16 16 (819200)
I0525 23:43:48.998482 15117 net.cpp:255] Memory required for data: 391169200
I0525 23:43:48.998508 15117 layer_factory.hpp:77] Creating layer Scale13
I0525 23:43:48.998527 15117 net.cpp:190] Creating Layer Scale13
I0525 23:43:48.998533 15117 net.cpp:605] Scale13 <- Convolution13
I0525 23:43:48.998541 15117 net.cpp:566] Scale13 -> Convolution13 (in-place)
I0525 23:43:48.998656 15117 layer_factory.hpp:77] Creating layer Scale13
I0525 23:43:48.998795 15117 net.cpp:240] Setting up Scale13
I0525 23:43:48.998802 15117 net.cpp:247] Top shape: 100 32 16 16 (819200)
I0525 23:43:48.998810 15117 net.cpp:255] Memory required for data: 394446000
I0525 23:43:48.998817 15117 layer_factory.hpp:77] Creating layer Eltwise6
I0525 23:43:48.998826 15117 net.cpp:190] Creating Layer Eltwise6
I0525 23:43:48.998832 15117 net.cpp:605] Eltwise6 <- Eltwise5_ReLU11_0_split_1
I0525 23:43:48.998849 15117 net.cpp:605] Eltwise6 <- Convolution13
I0525 23:43:48.998857 15117 net.cpp:579] Eltwise6 -> Eltwise6
I0525 23:43:48.998880 15117 net.cpp:240] Setting up Eltwise6
I0525 23:43:48.998889 15117 net.cpp:247] Top shape: 100 32 16 16 (819200)
I0525 23:43:48.998893 15117 net.cpp:255] Memory required for data: 397722800
I0525 23:43:48.998896 15117 layer_factory.hpp:77] Creating layer ReLU13
I0525 23:43:48.998904 15117 net.cpp:190] Creating Layer ReLU13
I0525 23:43:48.998908 15117 net.cpp:605] ReLU13 <- Eltwise6
I0525 23:43:48.998914 15117 net.cpp:566] ReLU13 -> Eltwise6 (in-place)
I0525 23:43:48.998919 15117 net.cpp:240] Setting up ReLU13
I0525 23:43:48.998924 15117 net.cpp:247] Top shape: 100 32 16 16 (819200)
I0525 23:43:48.998929 15117 net.cpp:255] Memory required for data: 400999600
I0525 23:43:48.998931 15117 layer_factory.hpp:77] Creating layer Eltwise6_ReLU13_0_split
I0525 23:43:48.998939 15117 net.cpp:190] Creating Layer Eltwise6_ReLU13_0_split
I0525 23:43:48.998942 15117 net.cpp:605] Eltwise6_ReLU13_0_split <- Eltwise6
I0525 23:43:48.998950 15117 net.cpp:579] Eltwise6_ReLU13_0_split -> Eltwise6_ReLU13_0_split_0
I0525 23:43:48.998956 15117 net.cpp:579] Eltwise6_ReLU13_0_split -> Eltwise6_ReLU13_0_split_1
I0525 23:43:48.998991 15117 net.cpp:240] Setting up Eltwise6_ReLU13_0_split
I0525 23:43:48.998998 15117 net.cpp:247] Top shape: 100 32 16 16 (819200)
I0525 23:43:48.999003 15117 net.cpp:247] Top shape: 100 32 16 16 (819200)
I0525 23:43:48.999007 15117 net.cpp:255] Memory required for data: 407553200
I0525 23:43:48.999011 15117 layer_factory.hpp:77] Creating layer Convolution14
I0525 23:43:48.999022 15117 net.cpp:190] Creating Layer Convolution14
I0525 23:43:48.999025 15117 net.cpp:605] Convolution14 <- Eltwise6_ReLU13_0_split_0
I0525 23:43:48.999032 15117 net.cpp:579] Convolution14 -> Convolution14
I0525 23:43:48.999665 15117 net.cpp:240] Setting up Convolution14
I0525 23:43:48.999682 15117 net.cpp:247] Top shape: 100 32 16 16 (819200)
I0525 23:43:48.999686 15117 net.cpp:255] Memory required for data: 410830000
I0525 23:43:48.999696 15117 layer_factory.hpp:77] Creating layer BatchNorm14
I0525 23:43:48.999708 15117 net.cpp:190] Creating Layer BatchNorm14
I0525 23:43:48.999714 15117 net.cpp:605] BatchNorm14 <- Convolution14
I0525 23:43:48.999721 15117 net.cpp:566] BatchNorm14 -> Convolution14 (in-place)
I0525 23:43:48.999917 15117 net.cpp:240] Setting up BatchNorm14
I0525 23:43:48.999923 15117 net.cpp:247] Top shape: 100 32 16 16 (819200)
I0525 23:43:48.999927 15117 net.cpp:255] Memory required for data: 414106800
I0525 23:43:48.999938 15117 layer_factory.hpp:77] Creating layer Scale14
I0525 23:43:48.999946 15117 net.cpp:190] Creating Layer Scale14
I0525 23:43:48.999951 15117 net.cpp:605] Scale14 <- Convolution14
I0525 23:43:48.999958 15117 net.cpp:566] Scale14 -> Convolution14 (in-place)
I0525 23:43:49.000005 15117 layer_factory.hpp:77] Creating layer Scale14
I0525 23:43:49.000125 15117 net.cpp:240] Setting up Scale14
I0525 23:43:49.000134 15117 net.cpp:247] Top shape: 100 32 16 16 (819200)
I0525 23:43:49.000138 15117 net.cpp:255] Memory required for data: 417383600
I0525 23:43:49.000155 15117 layer_factory.hpp:77] Creating layer ReLU14
I0525 23:43:49.000193 15117 net.cpp:190] Creating Layer ReLU14
I0525 23:43:49.000198 15117 net.cpp:605] ReLU14 <- Convolution14
I0525 23:43:49.000205 15117 net.cpp:566] ReLU14 -> Convolution14 (in-place)
I0525 23:43:49.000212 15117 net.cpp:240] Setting up ReLU14
I0525 23:43:49.000218 15117 net.cpp:247] Top shape: 100 32 16 16 (819200)
I0525 23:43:49.000221 15117 net.cpp:255] Memory required for data: 420660400
I0525 23:43:49.000226 15117 layer_factory.hpp:77] Creating layer Convolution15
I0525 23:43:49.000237 15117 net.cpp:190] Creating Layer Convolution15
I0525 23:43:49.000242 15117 net.cpp:605] Convolution15 <- Convolution14
I0525 23:43:49.000249 15117 net.cpp:579] Convolution15 -> Convolution15
I0525 23:43:49.000814 15117 net.cpp:240] Setting up Convolution15
I0525 23:43:49.000829 15117 net.cpp:247] Top shape: 100 32 16 16 (819200)
I0525 23:43:49.000833 15117 net.cpp:255] Memory required for data: 423937200
I0525 23:43:49.000843 15117 layer_factory.hpp:77] Creating layer BatchNorm15
I0525 23:43:49.000851 15117 net.cpp:190] Creating Layer BatchNorm15
I0525 23:43:49.000856 15117 net.cpp:605] BatchNorm15 <- Convolution15
I0525 23:43:49.000864 15117 net.cpp:566] BatchNorm15 -> Convolution15 (in-place)
I0525 23:43:49.001075 15117 net.cpp:240] Setting up BatchNorm15
I0525 23:43:49.001085 15117 net.cpp:247] Top shape: 100 32 16 16 (819200)
I0525 23:43:49.001088 15117 net.cpp:255] Memory required for data: 427214000
I0525 23:43:49.001099 15117 layer_factory.hpp:77] Creating layer Scale15
I0525 23:43:49.001107 15117 net.cpp:190] Creating Layer Scale15
I0525 23:43:49.001112 15117 net.cpp:605] Scale15 <- Convolution15
I0525 23:43:49.001117 15117 net.cpp:566] Scale15 -> Convolution15 (in-place)
I0525 23:43:49.001165 15117 layer_factory.hpp:77] Creating layer Scale15
I0525 23:43:49.001278 15117 net.cpp:240] Setting up Scale15
I0525 23:43:49.001286 15117 net.cpp:247] Top shape: 100 32 16 16 (819200)
I0525 23:43:49.001289 15117 net.cpp:255] Memory required for data: 430490800
I0525 23:43:49.001298 15117 layer_factory.hpp:77] Creating layer Eltwise7
I0525 23:43:49.001309 15117 net.cpp:190] Creating Layer Eltwise7
I0525 23:43:49.001315 15117 net.cpp:605] Eltwise7 <- Eltwise6_ReLU13_0_split_1
I0525 23:43:49.001322 15117 net.cpp:605] Eltwise7 <- Convolution15
I0525 23:43:49.001327 15117 net.cpp:579] Eltwise7 -> Eltwise7
I0525 23:43:49.001348 15117 net.cpp:240] Setting up Eltwise7
I0525 23:43:49.001355 15117 net.cpp:247] Top shape: 100 32 16 16 (819200)
I0525 23:43:49.001358 15117 net.cpp:255] Memory required for data: 433767600
I0525 23:43:49.001363 15117 layer_factory.hpp:77] Creating layer ReLU15
I0525 23:43:49.001373 15117 net.cpp:190] Creating Layer ReLU15
I0525 23:43:49.001376 15117 net.cpp:605] ReLU15 <- Eltwise7
I0525 23:43:49.001382 15117 net.cpp:566] ReLU15 -> Eltwise7 (in-place)
I0525 23:43:49.001389 15117 net.cpp:240] Setting up ReLU15
I0525 23:43:49.001394 15117 net.cpp:247] Top shape: 100 32 16 16 (819200)
I0525 23:43:49.001399 15117 net.cpp:255] Memory required for data: 437044400
I0525 23:43:49.001401 15117 layer_factory.hpp:77] Creating layer Eltwise7_ReLU15_0_split
I0525 23:43:49.001408 15117 net.cpp:190] Creating Layer Eltwise7_ReLU15_0_split
I0525 23:43:49.001412 15117 net.cpp:605] Eltwise7_ReLU15_0_split <- Eltwise7
I0525 23:43:49.001417 15117 net.cpp:579] Eltwise7_ReLU15_0_split -> Eltwise7_ReLU15_0_split_0
I0525 23:43:49.001425 15117 net.cpp:579] Eltwise7_ReLU15_0_split -> Eltwise7_ReLU15_0_split_1
I0525 23:43:49.001461 15117 net.cpp:240] Setting up Eltwise7_ReLU15_0_split
I0525 23:43:49.001467 15117 net.cpp:247] Top shape: 100 32 16 16 (819200)
I0525 23:43:49.001472 15117 net.cpp:247] Top shape: 100 32 16 16 (819200)
I0525 23:43:49.001477 15117 net.cpp:255] Memory required for data: 443598000
I0525 23:43:49.001480 15117 layer_factory.hpp:77] Creating layer Convolution16
I0525 23:43:49.001494 15117 net.cpp:190] Creating Layer Convolution16
I0525 23:43:49.001499 15117 net.cpp:605] Convolution16 <- Eltwise7_ReLU15_0_split_0
I0525 23:43:49.001507 15117 net.cpp:579] Convolution16 -> Convolution16
I0525 23:43:49.002120 15117 net.cpp:240] Setting up Convolution16
I0525 23:43:49.002136 15117 net.cpp:247] Top shape: 100 32 16 16 (819200)
I0525 23:43:49.002140 15117 net.cpp:255] Memory required for data: 446874800
I0525 23:43:49.002151 15117 layer_factory.hpp:77] Creating layer BatchNorm16
I0525 23:43:49.002388 15117 net.cpp:190] Creating Layer BatchNorm16
I0525 23:43:49.002400 15117 net.cpp:605] BatchNorm16 <- Convolution16
I0525 23:43:49.002413 15117 net.cpp:566] BatchNorm16 -> Convolution16 (in-place)
I0525 23:43:49.002629 15117 net.cpp:240] Setting up BatchNorm16
I0525 23:43:49.002638 15117 net.cpp:247] Top shape: 100 32 16 16 (819200)
I0525 23:43:49.002642 15117 net.cpp:255] Memory required for data: 450151600
I0525 23:43:49.002655 15117 layer_factory.hpp:77] Creating layer Scale16
I0525 23:43:49.002665 15117 net.cpp:190] Creating Layer Scale16
I0525 23:43:49.002670 15117 net.cpp:605] Scale16 <- Convolution16
I0525 23:43:49.002674 15117 net.cpp:566] Scale16 -> Convolution16 (in-place)
I0525 23:43:49.002720 15117 layer_factory.hpp:77] Creating layer Scale16
I0525 23:43:49.002836 15117 net.cpp:240] Setting up Scale16
I0525 23:43:49.002845 15117 net.cpp:247] Top shape: 100 32 16 16 (819200)
I0525 23:43:49.002848 15117 net.cpp:255] Memory required for data: 453428400
I0525 23:43:49.002856 15117 layer_factory.hpp:77] Creating layer ReLU16
I0525 23:43:49.002864 15117 net.cpp:190] Creating Layer ReLU16
I0525 23:43:49.002868 15117 net.cpp:605] ReLU16 <- Convolution16
I0525 23:43:49.002876 15117 net.cpp:566] ReLU16 -> Convolution16 (in-place)
I0525 23:43:49.002883 15117 net.cpp:240] Setting up ReLU16
I0525 23:43:49.002889 15117 net.cpp:247] Top shape: 100 32 16 16 (819200)
I0525 23:43:49.002892 15117 net.cpp:255] Memory required for data: 456705200
I0525 23:43:49.002897 15117 layer_factory.hpp:77] Creating layer Convolution17
I0525 23:43:49.002912 15117 net.cpp:190] Creating Layer Convolution17
I0525 23:43:49.002918 15117 net.cpp:605] Convolution17 <- Convolution16
I0525 23:43:49.002923 15117 net.cpp:579] Convolution17 -> Convolution17
I0525 23:43:49.003530 15117 net.cpp:240] Setting up Convolution17
I0525 23:43:49.003550 15117 net.cpp:247] Top shape: 100 32 16 16 (819200)
I0525 23:43:49.003553 15117 net.cpp:255] Memory required for data: 459982000
I0525 23:43:49.003564 15117 layer_factory.hpp:77] Creating layer BatchNorm17
I0525 23:43:49.003576 15117 net.cpp:190] Creating Layer BatchNorm17
I0525 23:43:49.003582 15117 net.cpp:605] BatchNorm17 <- Convolution17
I0525 23:43:49.003587 15117 net.cpp:566] BatchNorm17 -> Convolution17 (in-place)
I0525 23:43:49.003787 15117 net.cpp:240] Setting up BatchNorm17
I0525 23:43:49.003795 15117 net.cpp:247] Top shape: 100 32 16 16 (819200)
I0525 23:43:49.003799 15117 net.cpp:255] Memory required for data: 463258800
I0525 23:43:49.003813 15117 layer_factory.hpp:77] Creating layer Scale17
I0525 23:43:49.003820 15117 net.cpp:190] Creating Layer Scale17
I0525 23:43:49.003824 15117 net.cpp:605] Scale17 <- Convolution17
I0525 23:43:49.003830 15117 net.cpp:566] Scale17 -> Convolution17 (in-place)
I0525 23:43:49.004336 15117 layer_factory.hpp:77] Creating layer Scale17
I0525 23:43:49.004503 15117 net.cpp:240] Setting up Scale17
I0525 23:43:49.004515 15117 net.cpp:247] Top shape: 100 32 16 16 (819200)
I0525 23:43:49.004519 15117 net.cpp:255] Memory required for data: 466535600
I0525 23:43:49.004534 15117 layer_factory.hpp:77] Creating layer Eltwise8
I0525 23:43:49.004544 15117 net.cpp:190] Creating Layer Eltwise8
I0525 23:43:49.004551 15117 net.cpp:605] Eltwise8 <- Eltwise7_ReLU15_0_split_1
I0525 23:43:49.004557 15117 net.cpp:605] Eltwise8 <- Convolution17
I0525 23:43:49.004566 15117 net.cpp:579] Eltwise8 -> Eltwise8
I0525 23:43:49.004590 15117 net.cpp:240] Setting up Eltwise8
I0525 23:43:49.004595 15117 net.cpp:247] Top shape: 100 32 16 16 (819200)
I0525 23:43:49.004600 15117 net.cpp:255] Memory required for data: 469812400
I0525 23:43:49.004602 15117 layer_factory.hpp:77] Creating layer ReLU17
I0525 23:43:49.004611 15117 net.cpp:190] Creating Layer ReLU17
I0525 23:43:49.004621 15117 net.cpp:605] ReLU17 <- Eltwise8
I0525 23:43:49.004662 15117 net.cpp:566] ReLU17 -> Eltwise8 (in-place)
I0525 23:43:49.004669 15117 net.cpp:240] Setting up ReLU17
I0525 23:43:49.004674 15117 net.cpp:247] Top shape: 100 32 16 16 (819200)
I0525 23:43:49.004678 15117 net.cpp:255] Memory required for data: 473089200
I0525 23:43:49.004683 15117 layer_factory.hpp:77] Creating layer Eltwise8_ReLU17_0_split
I0525 23:43:49.004688 15117 net.cpp:190] Creating Layer Eltwise8_ReLU17_0_split
I0525 23:43:49.004693 15117 net.cpp:605] Eltwise8_ReLU17_0_split <- Eltwise8
I0525 23:43:49.004698 15117 net.cpp:579] Eltwise8_ReLU17_0_split -> Eltwise8_ReLU17_0_split_0
I0525 23:43:49.004704 15117 net.cpp:579] Eltwise8_ReLU17_0_split -> Eltwise8_ReLU17_0_split_1
I0525 23:43:49.004745 15117 net.cpp:240] Setting up Eltwise8_ReLU17_0_split
I0525 23:43:49.004752 15117 net.cpp:247] Top shape: 100 32 16 16 (819200)
I0525 23:43:49.004757 15117 net.cpp:247] Top shape: 100 32 16 16 (819200)
I0525 23:43:49.004760 15117 net.cpp:255] Memory required for data: 479642800
I0525 23:43:49.004765 15117 layer_factory.hpp:77] Creating layer Convolution18
I0525 23:43:49.004776 15117 net.cpp:190] Creating Layer Convolution18
I0525 23:43:49.004781 15117 net.cpp:605] Convolution18 <- Eltwise8_ReLU17_0_split_0
I0525 23:43:49.004789 15117 net.cpp:579] Convolution18 -> Convolution18
I0525 23:43:49.006227 15117 net.cpp:240] Setting up Convolution18
I0525 23:43:49.006269 15117 net.cpp:247] Top shape: 100 32 16 16 (819200)
I0525 23:43:49.006273 15117 net.cpp:255] Memory required for data: 482919600
I0525 23:43:49.006289 15117 layer_factory.hpp:77] Creating layer BatchNorm18
I0525 23:43:49.006306 15117 net.cpp:190] Creating Layer BatchNorm18
I0525 23:43:49.006314 15117 net.cpp:605] BatchNorm18 <- Convolution18
I0525 23:43:49.006325 15117 net.cpp:566] BatchNorm18 -> Convolution18 (in-place)
I0525 23:43:49.006525 15117 net.cpp:240] Setting up BatchNorm18
I0525 23:43:49.006534 15117 net.cpp:247] Top shape: 100 32 16 16 (819200)
I0525 23:43:49.006538 15117 net.cpp:255] Memory required for data: 486196400
I0525 23:43:49.006548 15117 layer_factory.hpp:77] Creating layer Scale18
I0525 23:43:49.006557 15117 net.cpp:190] Creating Layer Scale18
I0525 23:43:49.006562 15117 net.cpp:605] Scale18 <- Convolution18
I0525 23:43:49.006572 15117 net.cpp:566] Scale18 -> Convolution18 (in-place)
I0525 23:43:49.006615 15117 layer_factory.hpp:77] Creating layer Scale18
I0525 23:43:49.006736 15117 net.cpp:240] Setting up Scale18
I0525 23:43:49.006743 15117 net.cpp:247] Top shape: 100 32 16 16 (819200)
I0525 23:43:49.006747 15117 net.cpp:255] Memory required for data: 489473200
I0525 23:43:49.006757 15117 layer_factory.hpp:77] Creating layer ReLU18
I0525 23:43:49.006763 15117 net.cpp:190] Creating Layer ReLU18
I0525 23:43:49.006768 15117 net.cpp:605] ReLU18 <- Convolution18
I0525 23:43:49.006777 15117 net.cpp:566] ReLU18 -> Convolution18 (in-place)
I0525 23:43:49.006783 15117 net.cpp:240] Setting up ReLU18
I0525 23:43:49.006789 15117 net.cpp:247] Top shape: 100 32 16 16 (819200)
I0525 23:43:49.006793 15117 net.cpp:255] Memory required for data: 492750000
I0525 23:43:49.006796 15117 layer_factory.hpp:77] Creating layer Convolution19
I0525 23:43:49.006810 15117 net.cpp:190] Creating Layer Convolution19
I0525 23:43:49.006815 15117 net.cpp:605] Convolution19 <- Convolution18
I0525 23:43:49.006821 15117 net.cpp:579] Convolution19 -> Convolution19
I0525 23:43:49.007381 15117 net.cpp:240] Setting up Convolution19
I0525 23:43:49.007397 15117 net.cpp:247] Top shape: 100 32 16 16 (819200)
I0525 23:43:49.007401 15117 net.cpp:255] Memory required for data: 496026800
I0525 23:43:49.007411 15117 layer_factory.hpp:77] Creating layer BatchNorm19
I0525 23:43:49.007424 15117 net.cpp:190] Creating Layer BatchNorm19
I0525 23:43:49.007429 15117 net.cpp:605] BatchNorm19 <- Convolution19
I0525 23:43:49.007434 15117 net.cpp:566] BatchNorm19 -> Convolution19 (in-place)
I0525 23:43:49.007613 15117 net.cpp:240] Setting up BatchNorm19
I0525 23:43:49.007622 15117 net.cpp:247] Top shape: 100 32 16 16 (819200)
I0525 23:43:49.007632 15117 net.cpp:255] Memory required for data: 499303600
I0525 23:43:49.007704 15117 layer_factory.hpp:77] Creating layer Scale19
I0525 23:43:49.007714 15117 net.cpp:190] Creating Layer Scale19
I0525 23:43:49.007717 15117 net.cpp:605] Scale19 <- Convolution19
I0525 23:43:49.007725 15117 net.cpp:566] Scale19 -> Convolution19 (in-place)
I0525 23:43:49.007773 15117 layer_factory.hpp:77] Creating layer Scale19
I0525 23:43:49.007889 15117 net.cpp:240] Setting up Scale19
I0525 23:43:49.007896 15117 net.cpp:247] Top shape: 100 32 16 16 (819200)
I0525 23:43:49.007899 15117 net.cpp:255] Memory required for data: 502580400
I0525 23:43:49.007907 15117 layer_factory.hpp:77] Creating layer Eltwise9
I0525 23:43:49.007916 15117 net.cpp:190] Creating Layer Eltwise9
I0525 23:43:49.007922 15117 net.cpp:605] Eltwise9 <- Eltwise8_ReLU17_0_split_1
I0525 23:43:49.007930 15117 net.cpp:605] Eltwise9 <- Convolution19
I0525 23:43:49.007936 15117 net.cpp:579] Eltwise9 -> Eltwise9
I0525 23:43:49.007956 15117 net.cpp:240] Setting up Eltwise9
I0525 23:43:49.007966 15117 net.cpp:247] Top shape: 100 32 16 16 (819200)
I0525 23:43:49.007968 15117 net.cpp:255] Memory required for data: 505857200
I0525 23:43:49.007972 15117 layer_factory.hpp:77] Creating layer ReLU19
I0525 23:43:49.007979 15117 net.cpp:190] Creating Layer ReLU19
I0525 23:43:49.007983 15117 net.cpp:605] ReLU19 <- Eltwise9
I0525 23:43:49.007988 15117 net.cpp:566] ReLU19 -> Eltwise9 (in-place)
I0525 23:43:49.007995 15117 net.cpp:240] Setting up ReLU19
I0525 23:43:49.008000 15117 net.cpp:247] Top shape: 100 32 16 16 (819200)
I0525 23:43:49.008004 15117 net.cpp:255] Memory required for data: 509134000
I0525 23:43:49.008008 15117 layer_factory.hpp:77] Creating layer Eltwise9_ReLU19_0_split
I0525 23:43:49.008013 15117 net.cpp:190] Creating Layer Eltwise9_ReLU19_0_split
I0525 23:43:49.008018 15117 net.cpp:605] Eltwise9_ReLU19_0_split <- Eltwise9
I0525 23:43:49.008028 15117 net.cpp:579] Eltwise9_ReLU19_0_split -> Eltwise9_ReLU19_0_split_0
I0525 23:43:49.008035 15117 net.cpp:579] Eltwise9_ReLU19_0_split -> Eltwise9_ReLU19_0_split_1
I0525 23:43:49.008070 15117 net.cpp:240] Setting up Eltwise9_ReLU19_0_split
I0525 23:43:49.008076 15117 net.cpp:247] Top shape: 100 32 16 16 (819200)
I0525 23:43:49.008081 15117 net.cpp:247] Top shape: 100 32 16 16 (819200)
I0525 23:43:49.008085 15117 net.cpp:255] Memory required for data: 515687600
I0525 23:43:49.008090 15117 layer_factory.hpp:77] Creating layer Pooling2
I0525 23:43:49.008100 15117 net.cpp:190] Creating Layer Pooling2
I0525 23:43:49.008103 15117 net.cpp:605] Pooling2 <- Eltwise9_ReLU19_0_split_0
I0525 23:43:49.008108 15117 net.cpp:579] Pooling2 -> Pooling2
I0525 23:43:49.008132 15117 net.cpp:240] Setting up Pooling2
I0525 23:43:49.008138 15117 net.cpp:247] Top shape: 100 32 8 8 (204800)
I0525 23:43:49.008141 15117 net.cpp:255] Memory required for data: 516506800
I0525 23:43:49.008146 15117 layer_factory.hpp:77] Creating layer Input2
I0525 23:43:49.008154 15117 net.cpp:190] Creating Layer Input2
I0525 23:43:49.008162 15117 net.cpp:579] Input2 -> Input2
I0525 23:43:49.008186 15117 net.cpp:240] Setting up Input2
I0525 23:43:49.008193 15117 net.cpp:247] Top shape: 100 32 8 8 (204800)
I0525 23:43:49.008196 15117 net.cpp:255] Memory required for data: 517326000
I0525 23:43:49.008200 15117 layer_factory.hpp:77] Creating layer Concat2
I0525 23:43:49.008208 15117 net.cpp:190] Creating Layer Concat2
I0525 23:43:49.008213 15117 net.cpp:605] Concat2 <- Pooling2
I0525 23:43:49.008218 15117 net.cpp:605] Concat2 <- Input2
I0525 23:43:49.008225 15117 net.cpp:579] Concat2 -> Concat2
I0525 23:43:49.008249 15117 net.cpp:240] Setting up Concat2
I0525 23:43:49.008257 15117 net.cpp:247] Top shape: 100 64 8 8 (409600)
I0525 23:43:49.008261 15117 net.cpp:255] Memory required for data: 518964400
I0525 23:43:49.008265 15117 layer_factory.hpp:77] Creating layer Convolution20
I0525 23:43:49.008276 15117 net.cpp:190] Creating Layer Convolution20
I0525 23:43:49.008281 15117 net.cpp:605] Convolution20 <- Eltwise9_ReLU19_0_split_1
I0525 23:43:49.008291 15117 net.cpp:579] Convolution20 -> Convolution20
I0525 23:43:49.009238 15117 net.cpp:240] Setting up Convolution20
I0525 23:43:49.009268 15117 net.cpp:247] Top shape: 100 64 8 8 (409600)
I0525 23:43:49.009271 15117 net.cpp:255] Memory required for data: 520602800
I0525 23:43:49.009285 15117 layer_factory.hpp:77] Creating layer BatchNorm20
I0525 23:43:49.009300 15117 net.cpp:190] Creating Layer BatchNorm20
I0525 23:43:49.009307 15117 net.cpp:605] BatchNorm20 <- Convolution20
I0525 23:43:49.009315 15117 net.cpp:566] BatchNorm20 -> Convolution20 (in-place)
I0525 23:43:49.009517 15117 net.cpp:240] Setting up BatchNorm20
I0525 23:43:49.009524 15117 net.cpp:247] Top shape: 100 64 8 8 (409600)
I0525 23:43:49.009529 15117 net.cpp:255] Memory required for data: 522241200
I0525 23:43:49.009541 15117 layer_factory.hpp:77] Creating layer Scale20
I0525 23:43:49.009552 15117 net.cpp:190] Creating Layer Scale20
I0525 23:43:49.009557 15117 net.cpp:605] Scale20 <- Convolution20
I0525 23:43:49.009562 15117 net.cpp:566] Scale20 -> Convolution20 (in-place)
I0525 23:43:49.009613 15117 layer_factory.hpp:77] Creating layer Scale20
I0525 23:43:49.009732 15117 net.cpp:240] Setting up Scale20
I0525 23:43:49.009739 15117 net.cpp:247] Top shape: 100 64 8 8 (409600)
I0525 23:43:49.009742 15117 net.cpp:255] Memory required for data: 523879600
I0525 23:43:49.009752 15117 layer_factory.hpp:77] Creating layer ReLU20
I0525 23:43:49.009762 15117 net.cpp:190] Creating Layer ReLU20
I0525 23:43:49.009766 15117 net.cpp:605] ReLU20 <- Convolution20
I0525 23:43:49.009771 15117 net.cpp:566] ReLU20 -> Convolution20 (in-place)
I0525 23:43:49.009778 15117 net.cpp:240] Setting up ReLU20
I0525 23:43:49.009785 15117 net.cpp:247] Top shape: 100 64 8 8 (409600)
I0525 23:43:49.009789 15117 net.cpp:255] Memory required for data: 525518000
I0525 23:43:49.009793 15117 layer_factory.hpp:77] Creating layer Convolution21
I0525 23:43:49.009805 15117 net.cpp:190] Creating Layer Convolution21
I0525 23:43:49.009810 15117 net.cpp:605] Convolution21 <- Convolution20
I0525 23:43:49.009819 15117 net.cpp:579] Convolution21 -> Convolution21
I0525 23:43:49.012624 15117 net.cpp:240] Setting up Convolution21
I0525 23:43:49.012665 15117 net.cpp:247] Top shape: 100 64 8 8 (409600)
I0525 23:43:49.012670 15117 net.cpp:255] Memory required for data: 527156400
I0525 23:43:49.012688 15117 layer_factory.hpp:77] Creating layer BatchNorm21
I0525 23:43:49.012703 15117 net.cpp:190] Creating Layer BatchNorm21
I0525 23:43:49.012712 15117 net.cpp:605] BatchNorm21 <- Convolution21
I0525 23:43:49.012723 15117 net.cpp:566] BatchNorm21 -> Convolution21 (in-place)
I0525 23:43:49.012936 15117 net.cpp:240] Setting up BatchNorm21
I0525 23:43:49.012944 15117 net.cpp:247] Top shape: 100 64 8 8 (409600)
I0525 23:43:49.012948 15117 net.cpp:255] Memory required for data: 528794800
I0525 23:43:49.012959 15117 layer_factory.hpp:77] Creating layer Scale21
I0525 23:43:49.012969 15117 net.cpp:190] Creating Layer Scale21
I0525 23:43:49.012972 15117 net.cpp:605] Scale21 <- Convolution21
I0525 23:43:49.012980 15117 net.cpp:566] Scale21 -> Convolution21 (in-place)
I0525 23:43:49.013028 15117 layer_factory.hpp:77] Creating layer Scale21
I0525 23:43:49.013151 15117 net.cpp:240] Setting up Scale21
I0525 23:43:49.013159 15117 net.cpp:247] Top shape: 100 64 8 8 (409600)
I0525 23:43:49.013164 15117 net.cpp:255] Memory required for data: 530433200
I0525 23:43:49.013172 15117 layer_factory.hpp:77] Creating layer Eltwise10
I0525 23:43:49.013183 15117 net.cpp:190] Creating Layer Eltwise10
I0525 23:43:49.013188 15117 net.cpp:605] Eltwise10 <- Concat2
I0525 23:43:49.013193 15117 net.cpp:605] Eltwise10 <- Convolution21
I0525 23:43:49.013200 15117 net.cpp:579] Eltwise10 -> Eltwise10
I0525 23:43:49.013228 15117 net.cpp:240] Setting up Eltwise10
I0525 23:43:49.013234 15117 net.cpp:247] Top shape: 100 64 8 8 (409600)
I0525 23:43:49.013237 15117 net.cpp:255] Memory required for data: 532071600
I0525 23:43:49.013242 15117 layer_factory.hpp:77] Creating layer ReLU21
I0525 23:43:49.013248 15117 net.cpp:190] Creating Layer ReLU21
I0525 23:43:49.013252 15117 net.cpp:605] ReLU21 <- Eltwise10
I0525 23:43:49.013295 15117 net.cpp:566] ReLU21 -> Eltwise10 (in-place)
I0525 23:43:49.013303 15117 net.cpp:240] Setting up ReLU21
I0525 23:43:49.013309 15117 net.cpp:247] Top shape: 100 64 8 8 (409600)
I0525 23:43:49.013312 15117 net.cpp:255] Memory required for data: 533710000
I0525 23:43:49.013317 15117 layer_factory.hpp:77] Creating layer Eltwise10_ReLU21_0_split
I0525 23:43:49.013324 15117 net.cpp:190] Creating Layer Eltwise10_ReLU21_0_split
I0525 23:43:49.013327 15117 net.cpp:605] Eltwise10_ReLU21_0_split <- Eltwise10
I0525 23:43:49.013332 15117 net.cpp:579] Eltwise10_ReLU21_0_split -> Eltwise10_ReLU21_0_split_0
I0525 23:43:49.013339 15117 net.cpp:579] Eltwise10_ReLU21_0_split -> Eltwise10_ReLU21_0_split_1
I0525 23:43:49.013376 15117 net.cpp:240] Setting up Eltwise10_ReLU21_0_split
I0525 23:43:49.013382 15117 net.cpp:247] Top shape: 100 64 8 8 (409600)
I0525 23:43:49.013387 15117 net.cpp:247] Top shape: 100 64 8 8 (409600)
I0525 23:43:49.013391 15117 net.cpp:255] Memory required for data: 536986800
I0525 23:43:49.013394 15117 layer_factory.hpp:77] Creating layer Convolution22
I0525 23:43:49.013406 15117 net.cpp:190] Creating Layer Convolution22
I0525 23:43:49.013411 15117 net.cpp:605] Convolution22 <- Eltwise10_ReLU21_0_split_0
I0525 23:43:49.013419 15117 net.cpp:579] Convolution22 -> Convolution22
I0525 23:43:49.015121 15117 net.cpp:240] Setting up Convolution22
I0525 23:43:49.015162 15117 net.cpp:247] Top shape: 100 64 8 8 (409600)
I0525 23:43:49.015167 15117 net.cpp:255] Memory required for data: 538625200
I0525 23:43:49.015184 15117 layer_factory.hpp:77] Creating layer BatchNorm22
I0525 23:43:49.015199 15117 net.cpp:190] Creating Layer BatchNorm22
I0525 23:43:49.015208 15117 net.cpp:605] BatchNorm22 <- Convolution22
I0525 23:43:49.015219 15117 net.cpp:566] BatchNorm22 -> Convolution22 (in-place)
I0525 23:43:49.015429 15117 net.cpp:240] Setting up BatchNorm22
I0525 23:43:49.015435 15117 net.cpp:247] Top shape: 100 64 8 8 (409600)
I0525 23:43:49.015439 15117 net.cpp:255] Memory required for data: 540263600
I0525 23:43:49.015450 15117 layer_factory.hpp:77] Creating layer Scale22
I0525 23:43:49.015460 15117 net.cpp:190] Creating Layer Scale22
I0525 23:43:49.015463 15117 net.cpp:605] Scale22 <- Convolution22
I0525 23:43:49.015471 15117 net.cpp:566] Scale22 -> Convolution22 (in-place)
I0525 23:43:49.015518 15117 layer_factory.hpp:77] Creating layer Scale22
I0525 23:43:49.015638 15117 net.cpp:240] Setting up Scale22
I0525 23:43:49.015645 15117 net.cpp:247] Top shape: 100 64 8 8 (409600)
I0525 23:43:49.015650 15117 net.cpp:255] Memory required for data: 541902000
I0525 23:43:49.015658 15117 layer_factory.hpp:77] Creating layer ReLU22
I0525 23:43:49.015666 15117 net.cpp:190] Creating Layer ReLU22
I0525 23:43:49.015671 15117 net.cpp:605] ReLU22 <- Convolution22
I0525 23:43:49.015678 15117 net.cpp:566] ReLU22 -> Convolution22 (in-place)
I0525 23:43:49.015715 15117 net.cpp:240] Setting up ReLU22
I0525 23:43:49.015722 15117 net.cpp:247] Top shape: 100 64 8 8 (409600)
I0525 23:43:49.015727 15117 net.cpp:255] Memory required for data: 543540400
I0525 23:43:49.015730 15117 layer_factory.hpp:77] Creating layer Convolution23
I0525 23:43:49.015745 15117 net.cpp:190] Creating Layer Convolution23
I0525 23:43:49.015749 15117 net.cpp:605] Convolution23 <- Convolution22
I0525 23:43:49.015756 15117 net.cpp:579] Convolution23 -> Convolution23
I0525 23:43:49.017426 15117 net.cpp:240] Setting up Convolution23
I0525 23:43:49.017462 15117 net.cpp:247] Top shape: 100 64 8 8 (409600)
I0525 23:43:49.017467 15117 net.cpp:255] Memory required for data: 545178800
I0525 23:43:49.017482 15117 layer_factory.hpp:77] Creating layer BatchNorm23
I0525 23:43:49.017508 15117 net.cpp:190] Creating Layer BatchNorm23
I0525 23:43:49.017516 15117 net.cpp:605] BatchNorm23 <- Convolution23
I0525 23:43:49.017524 15117 net.cpp:566] BatchNorm23 -> Convolution23 (in-place)
I0525 23:43:49.017722 15117 net.cpp:240] Setting up BatchNorm23
I0525 23:43:49.017729 15117 net.cpp:247] Top shape: 100 64 8 8 (409600)
I0525 23:43:49.017734 15117 net.cpp:255] Memory required for data: 546817200
I0525 23:43:49.017783 15117 layer_factory.hpp:77] Creating layer Scale23
I0525 23:43:49.017796 15117 net.cpp:190] Creating Layer Scale23
I0525 23:43:49.017801 15117 net.cpp:605] Scale23 <- Convolution23
I0525 23:43:49.017807 15117 net.cpp:566] Scale23 -> Convolution23 (in-place)
I0525 23:43:49.017887 15117 layer_factory.hpp:77] Creating layer Scale23
I0525 23:43:49.018015 15117 net.cpp:240] Setting up Scale23
I0525 23:43:49.018023 15117 net.cpp:247] Top shape: 100 64 8 8 (409600)
I0525 23:43:49.018028 15117 net.cpp:255] Memory required for data: 548455600
I0525 23:43:49.018038 15117 layer_factory.hpp:77] Creating layer Eltwise11
I0525 23:43:49.018049 15117 net.cpp:190] Creating Layer Eltwise11
I0525 23:43:49.018054 15117 net.cpp:605] Eltwise11 <- Eltwise10_ReLU21_0_split_1
I0525 23:43:49.018059 15117 net.cpp:605] Eltwise11 <- Convolution23
I0525 23:43:49.018067 15117 net.cpp:579] Eltwise11 -> Eltwise11
I0525 23:43:49.018093 15117 net.cpp:240] Setting up Eltwise11
I0525 23:43:49.018100 15117 net.cpp:247] Top shape: 100 64 8 8 (409600)
I0525 23:43:49.018103 15117 net.cpp:255] Memory required for data: 550094000
I0525 23:43:49.018107 15117 layer_factory.hpp:77] Creating layer ReLU23
I0525 23:43:49.018116 15117 net.cpp:190] Creating Layer ReLU23
I0525 23:43:49.018121 15117 net.cpp:605] ReLU23 <- Eltwise11
I0525 23:43:49.018156 15117 net.cpp:566] ReLU23 -> Eltwise11 (in-place)
I0525 23:43:49.018163 15117 net.cpp:240] Setting up ReLU23
I0525 23:43:49.018169 15117 net.cpp:247] Top shape: 100 64 8 8 (409600)
I0525 23:43:49.018172 15117 net.cpp:255] Memory required for data: 551732400
I0525 23:43:49.018177 15117 layer_factory.hpp:77] Creating layer Eltwise11_ReLU23_0_split
I0525 23:43:49.018183 15117 net.cpp:190] Creating Layer Eltwise11_ReLU23_0_split
I0525 23:43:49.018187 15117 net.cpp:605] Eltwise11_ReLU23_0_split <- Eltwise11
I0525 23:43:49.018193 15117 net.cpp:579] Eltwise11_ReLU23_0_split -> Eltwise11_ReLU23_0_split_0
I0525 23:43:49.018198 15117 net.cpp:579] Eltwise11_ReLU23_0_split -> Eltwise11_ReLU23_0_split_1
I0525 23:43:49.018235 15117 net.cpp:240] Setting up Eltwise11_ReLU23_0_split
I0525 23:43:49.018241 15117 net.cpp:247] Top shape: 100 64 8 8 (409600)
I0525 23:43:49.018246 15117 net.cpp:247] Top shape: 100 64 8 8 (409600)
I0525 23:43:49.018250 15117 net.cpp:255] Memory required for data: 555009200
I0525 23:43:49.018254 15117 layer_factory.hpp:77] Creating layer Convolution24
I0525 23:43:49.018267 15117 net.cpp:190] Creating Layer Convolution24
I0525 23:43:49.018271 15117 net.cpp:605] Convolution24 <- Eltwise11_ReLU23_0_split_0
I0525 23:43:49.018278 15117 net.cpp:579] Convolution24 -> Convolution24
I0525 23:43:49.020773 15117 net.cpp:240] Setting up Convolution24
I0525 23:43:49.020823 15117 net.cpp:247] Top shape: 100 64 8 8 (409600)
I0525 23:43:49.020828 15117 net.cpp:255] Memory required for data: 556647600
I0525 23:43:49.020845 15117 layer_factory.hpp:77] Creating layer BatchNorm24
I0525 23:43:49.020862 15117 net.cpp:190] Creating Layer BatchNorm24
I0525 23:43:49.020870 15117 net.cpp:605] BatchNorm24 <- Convolution24
I0525 23:43:49.020879 15117 net.cpp:566] BatchNorm24 -> Convolution24 (in-place)
I0525 23:43:49.021124 15117 net.cpp:240] Setting up BatchNorm24
I0525 23:43:49.021134 15117 net.cpp:247] Top shape: 100 64 8 8 (409600)
I0525 23:43:49.021138 15117 net.cpp:255] Memory required for data: 558286000
I0525 23:43:49.021150 15117 layer_factory.hpp:77] Creating layer Scale24
I0525 23:43:49.021160 15117 net.cpp:190] Creating Layer Scale24
I0525 23:43:49.021164 15117 net.cpp:605] Scale24 <- Convolution24
I0525 23:43:49.021170 15117 net.cpp:566] Scale24 -> Convolution24 (in-place)
I0525 23:43:49.021229 15117 layer_factory.hpp:77] Creating layer Scale24
I0525 23:43:49.021363 15117 net.cpp:240] Setting up Scale24
I0525 23:43:49.021370 15117 net.cpp:247] Top shape: 100 64 8 8 (409600)
I0525 23:43:49.021374 15117 net.cpp:255] Memory required for data: 559924400
I0525 23:43:49.021384 15117 layer_factory.hpp:77] Creating layer ReLU24
I0525 23:43:49.021392 15117 net.cpp:190] Creating Layer ReLU24
I0525 23:43:49.021402 15117 net.cpp:605] ReLU24 <- Convolution24
I0525 23:43:49.021440 15117 net.cpp:566] ReLU24 -> Convolution24 (in-place)
I0525 23:43:49.021448 15117 net.cpp:240] Setting up ReLU24
I0525 23:43:49.021453 15117 net.cpp:247] Top shape: 100 64 8 8 (409600)
I0525 23:43:49.021457 15117 net.cpp:255] Memory required for data: 561562800
I0525 23:43:49.021461 15117 layer_factory.hpp:77] Creating layer Convolution25
I0525 23:43:49.021476 15117 net.cpp:190] Creating Layer Convolution25
I0525 23:43:49.021481 15117 net.cpp:605] Convolution25 <- Convolution24
I0525 23:43:49.021488 15117 net.cpp:579] Convolution25 -> Convolution25
I0525 23:43:49.023178 15117 net.cpp:240] Setting up Convolution25
I0525 23:43:49.023217 15117 net.cpp:247] Top shape: 100 64 8 8 (409600)
I0525 23:43:49.023222 15117 net.cpp:255] Memory required for data: 563201200
I0525 23:43:49.023241 15117 layer_factory.hpp:77] Creating layer BatchNorm25
I0525 23:43:49.023282 15117 net.cpp:190] Creating Layer BatchNorm25
I0525 23:43:49.023291 15117 net.cpp:605] BatchNorm25 <- Convolution25
I0525 23:43:49.023300 15117 net.cpp:566] BatchNorm25 -> Convolution25 (in-place)
I0525 23:43:49.023502 15117 net.cpp:240] Setting up BatchNorm25
I0525 23:43:49.023510 15117 net.cpp:247] Top shape: 100 64 8 8 (409600)
I0525 23:43:49.023514 15117 net.cpp:255] Memory required for data: 564839600
I0525 23:43:49.023526 15117 layer_factory.hpp:77] Creating layer Scale25
I0525 23:43:49.023537 15117 net.cpp:190] Creating Layer Scale25
I0525 23:43:49.023541 15117 net.cpp:605] Scale25 <- Convolution25
I0525 23:43:49.023547 15117 net.cpp:566] Scale25 -> Convolution25 (in-place)
I0525 23:43:49.023597 15117 layer_factory.hpp:77] Creating layer Scale25
I0525 23:43:49.023718 15117 net.cpp:240] Setting up Scale25
I0525 23:43:49.023726 15117 net.cpp:247] Top shape: 100 64 8 8 (409600)
I0525 23:43:49.023730 15117 net.cpp:255] Memory required for data: 566478000
I0525 23:43:49.023738 15117 layer_factory.hpp:77] Creating layer Eltwise12
I0525 23:43:49.023748 15117 net.cpp:190] Creating Layer Eltwise12
I0525 23:43:49.023754 15117 net.cpp:605] Eltwise12 <- Eltwise11_ReLU23_0_split_1
I0525 23:43:49.023761 15117 net.cpp:605] Eltwise12 <- Convolution25
I0525 23:43:49.023768 15117 net.cpp:579] Eltwise12 -> Eltwise12
I0525 23:43:49.023793 15117 net.cpp:240] Setting up Eltwise12
I0525 23:43:49.023799 15117 net.cpp:247] Top shape: 100 64 8 8 (409600)
I0525 23:43:49.023803 15117 net.cpp:255] Memory required for data: 568116400
I0525 23:43:49.023808 15117 layer_factory.hpp:77] Creating layer ReLU25
I0525 23:43:49.023818 15117 net.cpp:190] Creating Layer ReLU25
I0525 23:43:49.023821 15117 net.cpp:605] ReLU25 <- Eltwise12
I0525 23:43:49.023826 15117 net.cpp:566] ReLU25 -> Eltwise12 (in-place)
I0525 23:43:49.023833 15117 net.cpp:240] Setting up ReLU25
I0525 23:43:49.023838 15117 net.cpp:247] Top shape: 100 64 8 8 (409600)
I0525 23:43:49.023843 15117 net.cpp:255] Memory required for data: 569754800
I0525 23:43:49.023846 15117 layer_factory.hpp:77] Creating layer Eltwise12_ReLU25_0_split
I0525 23:43:49.023854 15117 net.cpp:190] Creating Layer Eltwise12_ReLU25_0_split
I0525 23:43:49.023857 15117 net.cpp:605] Eltwise12_ReLU25_0_split <- Eltwise12
I0525 23:43:49.023862 15117 net.cpp:579] Eltwise12_ReLU25_0_split -> Eltwise12_ReLU25_0_split_0
I0525 23:43:49.023869 15117 net.cpp:579] Eltwise12_ReLU25_0_split -> Eltwise12_ReLU25_0_split_1
I0525 23:43:49.023908 15117 net.cpp:240] Setting up Eltwise12_ReLU25_0_split
I0525 23:43:49.023916 15117 net.cpp:247] Top shape: 100 64 8 8 (409600)
I0525 23:43:49.023921 15117 net.cpp:247] Top shape: 100 64 8 8 (409600)
I0525 23:43:49.023923 15117 net.cpp:255] Memory required for data: 573031600
I0525 23:43:49.023927 15117 layer_factory.hpp:77] Creating layer Convolution26
I0525 23:43:49.023942 15117 net.cpp:190] Creating Layer Convolution26
I0525 23:43:49.023947 15117 net.cpp:605] Convolution26 <- Eltwise12_ReLU25_0_split_0
I0525 23:43:49.023954 15117 net.cpp:579] Convolution26 -> Convolution26
I0525 23:43:49.026698 15117 net.cpp:240] Setting up Convolution26
I0525 23:43:49.026744 15117 net.cpp:247] Top shape: 100 64 8 8 (409600)
I0525 23:43:49.026779 15117 net.cpp:255] Memory required for data: 574670000
I0525 23:43:49.026795 15117 layer_factory.hpp:77] Creating layer BatchNorm26
I0525 23:43:49.026823 15117 net.cpp:190] Creating Layer BatchNorm26
I0525 23:43:49.026830 15117 net.cpp:605] BatchNorm26 <- Convolution26
I0525 23:43:49.026841 15117 net.cpp:566] BatchNorm26 -> Convolution26 (in-place)
I0525 23:43:49.027043 15117 net.cpp:240] Setting up BatchNorm26
I0525 23:43:49.027051 15117 net.cpp:247] Top shape: 100 64 8 8 (409600)
I0525 23:43:49.027055 15117 net.cpp:255] Memory required for data: 576308400
I0525 23:43:49.027065 15117 layer_factory.hpp:77] Creating layer Scale26
I0525 23:43:49.027076 15117 net.cpp:190] Creating Layer Scale26
I0525 23:43:49.027081 15117 net.cpp:605] Scale26 <- Convolution26
I0525 23:43:49.027086 15117 net.cpp:566] Scale26 -> Convolution26 (in-place)
I0525 23:43:49.027137 15117 layer_factory.hpp:77] Creating layer Scale26
I0525 23:43:49.027254 15117 net.cpp:240] Setting up Scale26
I0525 23:43:49.027261 15117 net.cpp:247] Top shape: 100 64 8 8 (409600)
I0525 23:43:49.027266 15117 net.cpp:255] Memory required for data: 577946800
I0525 23:43:49.027274 15117 layer_factory.hpp:77] Creating layer ReLU26
I0525 23:43:49.027281 15117 net.cpp:190] Creating Layer ReLU26
I0525 23:43:49.027287 15117 net.cpp:605] ReLU26 <- Convolution26
I0525 23:43:49.027294 15117 net.cpp:566] ReLU26 -> Convolution26 (in-place)
I0525 23:43:49.027302 15117 net.cpp:240] Setting up ReLU26
I0525 23:43:49.027307 15117 net.cpp:247] Top shape: 100 64 8 8 (409600)
I0525 23:43:49.027310 15117 net.cpp:255] Memory required for data: 579585200
I0525 23:43:49.027314 15117 layer_factory.hpp:77] Creating layer Convolution27
I0525 23:43:49.027325 15117 net.cpp:190] Creating Layer Convolution27
I0525 23:43:49.027330 15117 net.cpp:605] Convolution27 <- Convolution26
I0525 23:43:49.027338 15117 net.cpp:579] Convolution27 -> Convolution27
I0525 23:43:49.029021 15117 net.cpp:240] Setting up Convolution27
I0525 23:43:49.029057 15117 net.cpp:247] Top shape: 100 64 8 8 (409600)
I0525 23:43:49.029062 15117 net.cpp:255] Memory required for data: 581223600
I0525 23:43:49.029078 15117 layer_factory.hpp:77] Creating layer BatchNorm27
I0525 23:43:49.029093 15117 net.cpp:190] Creating Layer BatchNorm27
I0525 23:43:49.029101 15117 net.cpp:605] BatchNorm27 <- Convolution27
I0525 23:43:49.029110 15117 net.cpp:566] BatchNorm27 -> Convolution27 (in-place)
I0525 23:43:49.029316 15117 net.cpp:240] Setting up BatchNorm27
I0525 23:43:49.029325 15117 net.cpp:247] Top shape: 100 64 8 8 (409600)
I0525 23:43:49.029328 15117 net.cpp:255] Memory required for data: 582862000
I0525 23:43:49.029340 15117 layer_factory.hpp:77] Creating layer Scale27
I0525 23:43:49.029351 15117 net.cpp:190] Creating Layer Scale27
I0525 23:43:49.029356 15117 net.cpp:605] Scale27 <- Convolution27
I0525 23:43:49.029361 15117 net.cpp:566] Scale27 -> Convolution27 (in-place)
I0525 23:43:49.029413 15117 layer_factory.hpp:77] Creating layer Scale27
I0525 23:43:49.029532 15117 net.cpp:240] Setting up Scale27
I0525 23:43:49.029539 15117 net.cpp:247] Top shape: 100 64 8 8 (409600)
I0525 23:43:49.029543 15117 net.cpp:255] Memory required for data: 584500400
I0525 23:43:49.029597 15117 layer_factory.hpp:77] Creating layer Eltwise13
I0525 23:43:49.029609 15117 net.cpp:190] Creating Layer Eltwise13
I0525 23:43:49.029616 15117 net.cpp:605] Eltwise13 <- Eltwise12_ReLU25_0_split_1
I0525 23:43:49.029623 15117 net.cpp:605] Eltwise13 <- Convolution27
I0525 23:43:49.029631 15117 net.cpp:579] Eltwise13 -> Eltwise13
I0525 23:43:49.029667 15117 net.cpp:240] Setting up Eltwise13
I0525 23:43:49.029673 15117 net.cpp:247] Top shape: 100 64 8 8 (409600)
I0525 23:43:49.029677 15117 net.cpp:255] Memory required for data: 586138800
I0525 23:43:49.029681 15117 layer_factory.hpp:77] Creating layer ReLU27
I0525 23:43:49.029692 15117 net.cpp:190] Creating Layer ReLU27
I0525 23:43:49.029697 15117 net.cpp:605] ReLU27 <- Eltwise13
I0525 23:43:49.029702 15117 net.cpp:566] ReLU27 -> Eltwise13 (in-place)
I0525 23:43:49.029716 15117 net.cpp:240] Setting up ReLU27
I0525 23:43:49.029750 15117 net.cpp:247] Top shape: 100 64 8 8 (409600)
I0525 23:43:49.029754 15117 net.cpp:255] Memory required for data: 587777200
I0525 23:43:49.029758 15117 layer_factory.hpp:77] Creating layer Eltwise13_ReLU27_0_split
I0525 23:43:49.029765 15117 net.cpp:190] Creating Layer Eltwise13_ReLU27_0_split
I0525 23:43:49.029769 15117 net.cpp:605] Eltwise13_ReLU27_0_split <- Eltwise13
I0525 23:43:49.029774 15117 net.cpp:579] Eltwise13_ReLU27_0_split -> Eltwise13_ReLU27_0_split_0
I0525 23:43:49.029781 15117 net.cpp:579] Eltwise13_ReLU27_0_split -> Eltwise13_ReLU27_0_split_1
I0525 23:43:49.029820 15117 net.cpp:240] Setting up Eltwise13_ReLU27_0_split
I0525 23:43:49.029827 15117 net.cpp:247] Top shape: 100 64 8 8 (409600)
I0525 23:43:49.029831 15117 net.cpp:247] Top shape: 100 64 8 8 (409600)
I0525 23:43:49.029835 15117 net.cpp:255] Memory required for data: 591054000
I0525 23:43:49.029839 15117 layer_factory.hpp:77] Creating layer Convolution28
I0525 23:43:49.029850 15117 net.cpp:190] Creating Layer Convolution28
I0525 23:43:49.029855 15117 net.cpp:605] Convolution28 <- Eltwise13_ReLU27_0_split_0
I0525 23:43:49.029865 15117 net.cpp:579] Convolution28 -> Convolution28
I0525 23:43:49.031507 15117 net.cpp:240] Setting up Convolution28
I0525 23:43:49.031543 15117 net.cpp:247] Top shape: 100 64 8 8 (409600)
I0525 23:43:49.031548 15117 net.cpp:255] Memory required for data: 592692400
I0525 23:43:49.031563 15117 layer_factory.hpp:77] Creating layer BatchNorm28
I0525 23:43:49.031580 15117 net.cpp:190] Creating Layer BatchNorm28
I0525 23:43:49.031589 15117 net.cpp:605] BatchNorm28 <- Convolution28
I0525 23:43:49.031596 15117 net.cpp:566] BatchNorm28 -> Convolution28 (in-place)
I0525 23:43:49.031831 15117 net.cpp:240] Setting up BatchNorm28
I0525 23:43:49.031841 15117 net.cpp:247] Top shape: 100 64 8 8 (409600)
I0525 23:43:49.031844 15117 net.cpp:255] Memory required for data: 594330800
I0525 23:43:49.031857 15117 layer_factory.hpp:77] Creating layer Scale28
I0525 23:43:49.031872 15117 net.cpp:190] Creating Layer Scale28
I0525 23:43:49.031877 15117 net.cpp:605] Scale28 <- Convolution28
I0525 23:43:49.031883 15117 net.cpp:566] Scale28 -> Convolution28 (in-place)
I0525 23:43:49.031934 15117 layer_factory.hpp:77] Creating layer Scale28
I0525 23:43:49.032052 15117 net.cpp:240] Setting up Scale28
I0525 23:43:49.032061 15117 net.cpp:247] Top shape: 100 64 8 8 (409600)
I0525 23:43:49.032064 15117 net.cpp:255] Memory required for data: 595969200
I0525 23:43:49.032075 15117 layer_factory.hpp:77] Creating layer ReLU28
I0525 23:43:49.032083 15117 net.cpp:190] Creating Layer ReLU28
I0525 23:43:49.032088 15117 net.cpp:605] ReLU28 <- Convolution28
I0525 23:43:49.032093 15117 net.cpp:566] ReLU28 -> Convolution28 (in-place)
I0525 23:43:49.032099 15117 net.cpp:240] Setting up ReLU28
I0525 23:43:49.032104 15117 net.cpp:247] Top shape: 100 64 8 8 (409600)
I0525 23:43:49.032109 15117 net.cpp:255] Memory required for data: 597607600
I0525 23:43:49.032112 15117 layer_factory.hpp:77] Creating layer Convolution29
I0525 23:43:49.032126 15117 net.cpp:190] Creating Layer Convolution29
I0525 23:43:49.032131 15117 net.cpp:605] Convolution29 <- Convolution28
I0525 23:43:49.032140 15117 net.cpp:579] Convolution29 -> Convolution29
I0525 23:43:49.033769 15117 net.cpp:240] Setting up Convolution29
I0525 23:43:49.033804 15117 net.cpp:247] Top shape: 100 64 8 8 (409600)
I0525 23:43:49.033809 15117 net.cpp:255] Memory required for data: 599246000
I0525 23:43:49.033825 15117 layer_factory.hpp:77] Creating layer BatchNorm29
I0525 23:43:49.033864 15117 net.cpp:190] Creating Layer BatchNorm29
I0525 23:43:49.033871 15117 net.cpp:605] BatchNorm29 <- Convolution29
I0525 23:43:49.033884 15117 net.cpp:566] BatchNorm29 -> Convolution29 (in-place)
I0525 23:43:49.034101 15117 net.cpp:240] Setting up BatchNorm29
I0525 23:43:49.034111 15117 net.cpp:247] Top shape: 100 64 8 8 (409600)
I0525 23:43:49.034114 15117 net.cpp:255] Memory required for data: 600884400
I0525 23:43:49.034132 15117 layer_factory.hpp:77] Creating layer Scale29
I0525 23:43:49.034173 15117 net.cpp:190] Creating Layer Scale29
I0525 23:43:49.034178 15117 net.cpp:605] Scale29 <- Convolution29
I0525 23:43:49.034186 15117 net.cpp:566] Scale29 -> Convolution29 (in-place)
I0525 23:43:49.034237 15117 layer_factory.hpp:77] Creating layer Scale29
I0525 23:43:49.034364 15117 net.cpp:240] Setting up Scale29
I0525 23:43:49.034373 15117 net.cpp:247] Top shape: 100 64 8 8 (409600)
I0525 23:43:49.034376 15117 net.cpp:255] Memory required for data: 602522800
I0525 23:43:49.034385 15117 layer_factory.hpp:77] Creating layer Eltwise14
I0525 23:43:49.034396 15117 net.cpp:190] Creating Layer Eltwise14
I0525 23:43:49.034402 15117 net.cpp:605] Eltwise14 <- Eltwise13_ReLU27_0_split_1
I0525 23:43:49.034409 15117 net.cpp:605] Eltwise14 <- Convolution29
I0525 23:43:49.034415 15117 net.cpp:579] Eltwise14 -> Eltwise14
I0525 23:43:49.034442 15117 net.cpp:240] Setting up Eltwise14
I0525 23:43:49.034449 15117 net.cpp:247] Top shape: 100 64 8 8 (409600)
I0525 23:43:49.034452 15117 net.cpp:255] Memory required for data: 604161200
I0525 23:43:49.034456 15117 layer_factory.hpp:77] Creating layer ReLU29
I0525 23:43:49.034463 15117 net.cpp:190] Creating Layer ReLU29
I0525 23:43:49.034468 15117 net.cpp:605] ReLU29 <- Eltwise14
I0525 23:43:49.034481 15117 net.cpp:566] ReLU29 -> Eltwise14 (in-place)
I0525 23:43:49.034487 15117 net.cpp:240] Setting up ReLU29
I0525 23:43:49.034492 15117 net.cpp:247] Top shape: 100 64 8 8 (409600)
I0525 23:43:49.034497 15117 net.cpp:255] Memory required for data: 605799600
I0525 23:43:49.034499 15117 layer_factory.hpp:77] Creating layer Pooling3
I0525 23:43:49.034508 15117 net.cpp:190] Creating Layer Pooling3
I0525 23:43:49.034512 15117 net.cpp:605] Pooling3 <- Eltwise14
I0525 23:43:49.034518 15117 net.cpp:579] Pooling3 -> Pooling3
I0525 23:43:49.034543 15117 net.cpp:240] Setting up Pooling3
I0525 23:43:49.034550 15117 net.cpp:247] Top shape: 100 64 1 1 (6400)
I0525 23:43:49.034554 15117 net.cpp:255] Memory required for data: 605825200
I0525 23:43:49.034557 15117 layer_factory.hpp:77] Creating layer InnerProduct1
I0525 23:43:49.034569 15117 net.cpp:190] Creating Layer InnerProduct1
I0525 23:43:49.034574 15117 net.cpp:605] InnerProduct1 <- Pooling3
I0525 23:43:49.034579 15117 net.cpp:579] InnerProduct1 -> InnerProduct1
I0525 23:43:49.034742 15117 net.cpp:240] Setting up InnerProduct1
I0525 23:43:49.034751 15117 net.cpp:247] Top shape: 100 10 (1000)
I0525 23:43:49.034755 15117 net.cpp:255] Memory required for data: 605829200
I0525 23:43:49.034765 15117 layer_factory.hpp:77] Creating layer InnerProduct1_InnerProduct1_0_split
I0525 23:43:49.034773 15117 net.cpp:190] Creating Layer InnerProduct1_InnerProduct1_0_split
I0525 23:43:49.034777 15117 net.cpp:605] InnerProduct1_InnerProduct1_0_split <- InnerProduct1
I0525 23:43:49.034783 15117 net.cpp:579] InnerProduct1_InnerProduct1_0_split -> InnerProduct1_InnerProduct1_0_split_0
I0525 23:43:49.034790 15117 net.cpp:579] InnerProduct1_InnerProduct1_0_split -> InnerProduct1_InnerProduct1_0_split_1
I0525 23:43:49.034827 15117 net.cpp:240] Setting up InnerProduct1_InnerProduct1_0_split
I0525 23:43:49.034834 15117 net.cpp:247] Top shape: 100 10 (1000)
I0525 23:43:49.034838 15117 net.cpp:247] Top shape: 100 10 (1000)
I0525 23:43:49.034842 15117 net.cpp:255] Memory required for data: 605837200
I0525 23:43:49.034847 15117 layer_factory.hpp:77] Creating layer Accuracy
I0525 23:43:49.034854 15117 net.cpp:190] Creating Layer Accuracy
I0525 23:43:49.034858 15117 net.cpp:605] Accuracy <- InnerProduct1_InnerProduct1_0_split_0
I0525 23:43:49.034863 15117 net.cpp:605] Accuracy <- Data2_Data1_1_split_0
I0525 23:43:49.034873 15117 net.cpp:579] Accuracy -> Accuracy
…
