…
stepvalue: 32000
stepvalue: 48000
type: "Nesterov"
I0525 23:46:16.761736 15394 solver.cpp:86] Creating training net from train_net file: examples/stochastic_depth/residual_train.prototxt
I0525 23:46:16.767319 15394 net.cpp:148] Initializing net from parameters: 
state {
  phase: TRAIN
}
layer {
  name: "Data1"
  type: "Data"
  top: "Data1"
  top: "Data2"
  transform_param {
    mirror: true
    crop_size: 32
  }
  data_param {
    source: "/scratch/pas282/caffe/examples/cifar10/cifar10_train_leveldb_padding0"
    batch_size: 128
    backend: LEVELDB
  }
}
layer {
  name: "Convolution1"
  type: "Convolution"
  bottom: "Data1"
  top: "Convolution1"
  convolution_param {
    num_output: 16
    bias_term: true
    pad: 1
    kernel_size: 3
    stride: 1
    weight_filler {
      type: "msra"
    }
    bias_filler {
      type: "constant"
    }
  }
}
layer {
  name: "BatchNorm1"
  type: "BatchNorm"
  bottom: "Convolution1"
  top: "Convolution1"
  param {
    lr_mult: 0
    decay_mult: 0
  }
  param {
    lr_mult: 0
    decay_mult: 0
  }
  param {
    lr_mult: 0
    decay_mult: 0
  }
}
layer {
  name: "Scale1"
  type: "Scale"
  bottom: "Convolution1"
  top: "Convolution1"
  scale_param {
    bias_term: true
  }
}
layer {
  name: "ReLU1"
  type: "ReLU"
  bottom: "Convolution1"
  top: "Convolution1"
}
layer {
  name: "Convolution2"
  type: "Convolution"
  bottom: "Convolution1"
  top: "Convolution2"
  convolution_param {
    num_output: 16
    bias_term: true
    pad: 1
    kernel_size: 3
    stride: 1
    weight_filler {
      type: "msra"
    }
    bias_filler {
      type: "constant"
    }
  }
}
layer {
  name: "BatchNorm2"
  type: "BatchNorm"
  bottom: "Convolution2"
  top: "Convolution2"
  param {
    lr_mult: 0
    decay_mult: 0
  }
  param {
    lr_mult: 0
    decay_mult: 0
  }
  param {
    lr_mult: 0
    decay_mult: 0
  }
}
layer {
  name: "Scale2"
  type: "Scale"
  bottom: "Convolution2"
  top: "Convolution2"
  scale_param {
    bias_term: true
  }
}
layer {
  name: "ReLU2"
  type: "ReLU"
  bottom: "Convolution2"
  top: "Convolution2"
}
layer {
  name: "Convolution3"
  type: "Convolution"
  bottom: "Convolution2"
  top: "Convolution3"
  convolution_param {
    num_output: 16
    bias_term: true
    pad: 1
    kernel_size: 3
    stride: 1
    weight_filler {
      type: "msra"
    }
    bias_filler {
      type: "constant"
    }
  }
}
layer {
  name: "BatchNorm3"
  type: "BatchNorm"
  bottom: "Convolution3"
  top: "Convolution3"
  param {
    lr_mult: 0
    decay_mult: 0
  }
  param {
    lr_mult: 0
    decay_mult: 0
  }
  param {
    lr_mult: 0
    decay_mult: 0
  }
}
layer {
  name: "Scale3"
  type: "Scale"
  bottom: "Convolution3"
  top: "Convolution3"
  scale_param {
    bias_term: true
  }
}
layer {
  name: "Eltwise1"
  type: "Eltwise"
  bottom: "Convolution1"
  bottom: "Convolution3"
  top: "Eltwise1"
  eltwise_param {
    operation: SUM
  }
}
layer {
  name: "ReLU3"
  type: "ReLU"
  bottom: "Eltwise1"
  top: "Eltwise1"
}
layer {
  name: "Convolution4"
  type: "Convolution"
  bottom: "Eltwise1"
  top: "Convolution4"
  convolution_param {
    num_output: 16
    bias_term: true
    pad: 1
    kernel_size: 3
    stride: 1
    weight_filler {
      type: "msra"
    }
    bias_filler {
      type: "constant"
    }
  }
}
layer {
  name: "BatchNorm4"
  type: "BatchNorm"
  bottom: "Convolution4"
  top: "Convolution4"
  param {
    lr_mult: 0
    decay_mult: 0
  }
  param {
    lr_mult: 0
    decay_mult: 0
  }
  param {
    lr_mult: 0
    decay_mult: 0
  }
}
layer {
  name: "Scale4"
  type: "Scale"
  bottom: "Convolution4"
  top: "Convolution4"
  scale_param {
    bias_term: true
  }
}
layer {
  name: "ReLU4"
  type: "ReLU"
  bottom: "Convolution4"
  top: "Convolution4"
}
layer {
  name: "Convolution5"
  type: "Convolution"
  bottom: "Convolution4"
  top: "Convolution5"
  convolution_param {
    num_output: 16
    bias_term: true
    pad: 1
    kernel_size: 3
    stride: 1
    weight_filler {
      type: "msra"
    }
    bias_filler {
      type: "constant"
    }
  }
}
layer {
  name: "BatchNorm5"
  type: "BatchNorm"
  bottom: "Convolution5"
  top: "Convolution5"
  param {
    lr_mult: 0
    decay_mult: 0
  }
  param {
    lr_mult: 0
    decay_mult: 0
  }
  param {
    lr_mult: 0
    decay_mult: 0
  }
}
layer {
  name: "Scale5"
  type: "Scale"
  bottom: "Convolution5"
  top: "Convolution5"
  scale_param {
    bias_term: true
  }
}
layer {
  name: "Eltwise2"
  type: "Eltwise"
  bottom: "Eltwise1"
  bottom: "Convolution5"
  top: "Eltwise2"
  eltwise_param {
    operation: SUM
  }
}
layer {
  name: "ReLU5"
  type: "ReLU"
  bottom: "Eltwise2"
  top: "Eltwise2"
}
layer {
  name: "Convolution6"
  type: "Convolution"
  bottom: "Eltwise2"
  top: "Convolution6"
  convolution_param {
    num_output: 16
    bias_term: true
    pad: 1
    kernel_size: 3
    stride: 1
    weight_filler {
      type: "msra"
    }
    bias_filler {
      type: "constant"
    }
  }
}
layer {
  name: "BatchNorm6"
  type: "BatchNorm"
  bottom: "Convolution6"
  top: "Convolution6"
  param {
    lr_mult: 0
    decay_mult: 0
  }
  param {
    lr_mult: 0
    decay_mult: 0
  }
  param {
    lr_mult: 0
    decay_mult: 0
  }
}
layer {
  name: "Scale6"
  type: "Scale"
  bottom: "Convolution6"
  top: "Convolution6"
  scale_param {
    bias_term: true
  }
}
layer {
  name: "ReLU6"
  type: "ReLU"
  bottom: "Convolution6"
  top: "Convolution6"
}
layer {
  name: "Convolution7"
  type: "Convolution"
  bottom: "Convolution6"
  top: "Convolution7"
  convolution_param {
    num_output: 16
    bias_term: true
    pad: 1
    kernel_size: 3
    stride: 1
    weight_filler {
      type: "msra"
    }
    bias_filler {
      type: "constant"
    }
  }
}
layer {
  name: "BatchNorm7"
  type: "BatchNorm"
  bottom: "Convolution7"
  top: "Convolution7"
  param {
    lr_mult: 0
    decay_mult: 0
  }
  param {
    lr_mult: 0
    decay_mult: 0
  }
  param {
    lr_mult: 0
    decay_mult: 0
  }
}
layer {
  name: "Scale7"
  type: "Scale"
  bottom: "Convolution7"
  top: "Convolution7"
  scale_param {
    bias_term: true
  }
}
layer {
  name: "Eltwise3"
  type: "Eltwise"
  bottom: "Eltwise2"
  bottom: "Convolution7"
  top: "Eltwise3"
  eltwise_param {
    operation: SUM
  }
}
layer {
  name: "ReLU7"
  type: "ReLU"
  bottom: "Eltwise3"
  top: "Eltwise3"
}
layer {
  name: "Convolution8"
  type: "Convolution"
  bottom: "Eltwise3"
  top: "Convolution8"
  convolution_param {
    num_output: 16
    bias_term: true
    pad: 1
    kernel_size: 3
    stride: 1
    weight_filler {
      type: "msra"
    }
    bias_filler {
      type: "constant"
    }
  }
}
layer {
  name: "BatchNorm8"
  type: "BatchNorm"
  bottom: "Convolution8"
  top: "Convolution8"
  param {
    lr_mult: 0
    decay_mult: 0
  }
  param {
    lr_mult: 0
    decay_mult: 0
  }
  param {
    lr_mult: 0
    decay_mult: 0
  }
}
layer {
  name: "Scale8"
  type: "Scale"
  bottom: "Convolution8"
  top: "Convolution8"
  scale_param {
    bias_term: true
  }
}
layer {
  name: "ReLU8"
  type: "ReLU"
  bottom: "Convolution8"
  top: "Convolution8"
}
layer {
  name: "Convolution9"
  type: "Convolution"
  bottom: "Convolution8"
  top: "Convolution9"
  convolution_param {
    num_output: 16
    bias_term: true
    pad: 1
    kernel_size: 3
    stride: 1
    weight_filler {
      type: "msra"
    }
    bias_filler {
      type: "constant"
    }
  }
}
layer {
  name: "BatchNorm9"
  type: "BatchNorm"
  bottom: "Convolution9"
  top: "Convolution9"
  param {
    lr_mult: 0
    decay_mult: 0
  }
  param {
    lr_mult: 0
    decay_mult: 0
  }
  param {
    lr_mult: 0
    decay_mult: 0
  }
}
layer {
  name: "Scale9"
  type: "Scale"
  bottom: "Convolution9"
  top: "Convolution9"
  scale_param {
    bias_term: true
  }
}
layer {
  name: "Eltwise4"
  type: "Eltwise"
  bottom: "Eltwise3"
  bottom: "Convolution9"
  top: "Eltwise4"
  eltwise_param {
    operation: SUM
  }
}
layer {
  name: "ReLU9"
  type: "ReLU"
  bottom: "Eltwise4"
  top: "Eltwise4"
}
layer {
  name: "Pooling1"
  type: "Pooling"
  bottom: "Eltwise4"
  top: "Pooling1"
  pooling_param {
    pool: AVE
    kernel_size: 2
    stride: 2
  }
}
layer {
  name: "Input1"
  type: "Input"
  top: "Input1"
  input_param {
    shape {
      dim: 128
      dim: 16
      dim: 16
      dim: 16
    }
  }
}
layer {
  name: "Concat1"
  type: "Concat"
  bottom: "Pooling1"
  bottom: "Input1"
  top: "Concat1"
  concat_param {
    axis: 1
  }
}
layer {
  name: "Convolution10"
  type: "Convolution"
  bottom: "Eltwise4"
  top: "Convolution10"
  convolution_param {
    num_output: 32
    bias_term: true
    pad: 1
    kernel_size: 3
    stride: 2
    weight_filler {
      type: "msra"
    }
    bias_filler {
      type: "constant"
    }
  }
}
layer {
  name: "BatchNorm10"
  type: "BatchNorm"
  bottom: "Convolution10"
  top: "Convolution10"
  param {
    lr_mult: 0
    decay_mult: 0
  }
  param {
    lr_mult: 0
    decay_mult: 0
  }
  param {
    lr_mult: 0
    decay_mult: 0
  }
}
layer {
  name: "Scale10"
  type: "Scale"
  bottom: "Convolution10"
  top: "Convolution10"
  scale_param {
    bias_term: true
  }
}
layer {
  name: "ReLU10"
  type: "ReLU"
  bottom: "Convolution10"
  top: "Convolution10"
}
layer {
  name: "Convolution11"
  type: "Convolution"
  bottom: "Convolution10"
  top: "Convolution11"
  convolution_param {
    num_output: 32
    bias_term: true
    pad: 1
    kernel_size: 3
    stride: 1
    weight_filler {
      type: "msra"
    }
    bias_filler {
      type: "constant"
    }
  }
}
layer {
  name: "BatchNorm11"
  type: "BatchNorm"
  bottom: "Convolution11"
  top: "Convolution11"
  param {
    lr_mult: 0
    decay_mult: 0
  }
  param {
    lr_mult: 0
    decay_mult: 0
  }
  param {
    lr_mult: 0
    decay_mult: 0
  }
}
layer {
  name: "Scale11"
  type: "Scale"
  bottom: "Convolution11"
  top: "Convolution11"
  scale_param {
    bias_term: true
  }
}
layer {
  name: "Eltwise5"
  type: "Eltwise"
  bottom: "Concat1"
  bottom: "Convolution11"
  top: "Eltwise5"
  eltwise_param {
    operation: SUM
  }
}
layer {
  name: "ReLU11"
  type: "ReLU"
  bottom: "Eltwise5"
  top: "Eltwise5"
}
layer {
  name: "Convolution12"
  type: "Convolution"
  bottom: "Eltwise5"
  top: "Convolution12"
  convolution_param {
    num_output: 32
    bias_term: true
    pad: 1
    kernel_size: 3
    stride: 1
    weight_filler {
      type: "msra"
    }
    bias_filler {
      type: "constant"
    }
  }
}
layer {
  name: "BatchNorm12"
  type: "BatchNorm"
  bottom: "Convolution12"
  top: "Convolution12"
  param {
    lr_mult: 0
    decay_mult: 0
  }
  param {
    lr_mult: 0
    decay_mult: 0
  }
  param {
    lr_mult: 0
    decay_mult: 0
  }
}
layer {
  name: "Scale12"
  type: "Scale"
  bottom: "Convolution12"
  top: "Convolution12"
  scale_param {
    bias_term: true
  }
}
layer {
  name: "ReLU12"
  type: "ReLU"
  bottom: "Convolution12"
  top: "Convolution12"
}
layer {
  name: "Convolution13"
  type: "Convolution"
  bottom: "Convolution12"
  top: "Convolution13"
  convolution_param {
    num_output: 32
    bias_term: true
    pad: 1
    kernel_size: 3
    stride: 1
    weight_filler {
      type: "msra"
    }
    bias_filler {
      type: "constant"
    }
  }
}
layer {
  name: "BatchNorm13"
  type: "BatchNorm"
  bottom: "Convolution13"
  top: "Convolution13"
  param {
    lr_mult: 0
    decay_mult: 0
  }
  param {
    lr_mult: 0
    decay_mult: 0
  }
  param {
    lr_mult: 0
    decay_mult: 0
  }
}
layer {
  name: "Scale13"
  type: "Scale"
  bottom: "Convolution13"
  top: "Convolution13"
  scale_param {
    bias_term: true
  }
}
layer {
  name: "Eltwise6"
  type: "Eltwise"
  bottom: "Eltwise5"
  bottom: "Convolution13"
  top: "Eltwise6"
  eltwise_param {
    operation: SUM
  }
}
layer {
  name: "ReLU13"
  type: "ReLU"
  bottom: "Eltwise6"
  top: "Eltwise6"
}
layer {
  name: "Convolution14"
  type: "Convolution"
  bottom: "Eltwise6"
  top: "Convolution14"
  convolution_param {
    num_output: 32
    bias_term: true
    pad: 1
    kernel_size: 3
    stride: 1
    weight_filler {
      type: "msra"
    }
    bias_filler {
      type: "constant"
    }
  }
}
layer {
  name: "BatchNorm14"
  type: "BatchNorm"
  bottom: "Convolution14"
  top: "Convolution14"
  param {
    lr_mult: 0
    decay_mult: 0
  }
  param {
    lr_mult: 0
    decay_mult: 0
  }
  param {
    lr_mult: 0
    decay_mult: 0
  }
}
layer {
  name: "Scale14"
  type: "Scale"
  bottom: "Convolution14"
  top: "Convolution14"
  scale_param {
    bias_term: true
  }
}
layer {
  name: "ReLU14"
  type: "ReLU"
  bottom: "Convolution14"
  top: "Convolution14"
}
layer {
  name: "Convolution15"
  type: "Convolution"
  bottom: "Convolution14"
  top: "Convolution15"
  convolution_param {
    num_output: 32
    bias_term: true
    pad: 1
    kernel_size: 3
    stride: 1
    weight_filler {
      type: "msra"
    }
    bias_filler {
      type: "constant"
    }
  }
}
layer {
  name: "BatchNorm15"
  type: "BatchNorm"
  bottom: "Convolution15"
  top: "Convolution15"
  param {
    lr_mult: 0
    decay_mult: 0
  }
  param {
    lr_mult: 0
    decay_mult: 0
  }
  param {
    lr_mult: 0
    decay_mult: 0
  }
}
layer {
  name: "Scale15"
  type: "Scale"
  bottom: "Convolution15"
  top: "Convolution15"
  scale_param {
    bias_term: true
  }
}
layer {
  name: "Eltwise7"
  type: "Eltwise"
  bottom: "Eltwise6"
  bottom: "Convolution15"
  top: "Eltwise7"
  eltwise_param {
    operation: SUM
  }
}
layer {
  name: "ReLU15"
  type: "ReLU"
  bottom: "Eltwise7"
  top: "Eltwise7"
}
layer {
  name: "Convolution16"
  type: "Convolution"
  bottom: "Eltwise7"
  top: "Convolution16"
  convolution_param {
    num_output: 32
    bias_term: true
    pad: 1
    kernel_size: 3
    stride: 1
    weight_filler {
      type: "msra"
    }
    bias_filler {
      type: "constant"
    }
  }
}
layer {
  name: "BatchNorm16"
  type: "BatchNorm"
  bottom: "Convolution16"
  top: "Convolution16"
  param {
    lr_mult: 0
    decay_mult: 0
  }
  param {
    lr_mult: 0
    decay_mult: 0
  }
  param {
    lr_mult: 0
    decay_mult: 0
  }
}
layer {
  name: "Scale16"
  type: "Scale"
  bottom: "Convolution16"
  top: "Convolution16"
  scale_param {
    bias_term: true
  }
}
layer {
  name: "ReLU16"
  type: "ReLU"
  bottom: "Convolution16"
  top: "Convolution16"
}
layer {
  name: "Convolution17"
  type: "Convolution"
  bottom: "Convolution16"
  top: "Convolution17"
  convolution_param {
    num_output: 32
    bias_term: true
    pad: 1
    kernel_size: 3
    stride: 1
    weight_filler {
      type: "msra"
    }
    bias_filler {
      type: "constant"
    }
  }
}
layer {
  name: "BatchNorm17"
  type: "BatchNorm"
  bottom: "Convolution17"
  top: "Convolution17"
  param {
    lr_mult: 0
    decay_mult: 0
  }
  param {
    lr_mult: 0
    decay_mult: 0
  }
  param {
    lr_mult: 0
    decay_mult: 0
  }
}
layer {
  name: "Scale17"
  type: "Scale"
  bottom: "Convolution17"
  top: "Convolution17"
  scale_param {
    bias_term: true
  }
}
layer {
  name: "Eltwise8"
  type: "Eltwise"
  bottom: "Eltwise7"
  bottom: "Convolution17"
  top: "Eltwise8"
  eltwise_param {
    operation: SUM
  }
}
layer {
  name: "ReLU17"
  type: "ReLU"
  bottom: "Eltwise8"
  top: "Eltwise8"
}
layer {
  name: "Convolution18"
  type: "Convolution"
  bottom: "Eltwise8"
  top: "Convolution18"
  convolution_param {
    num_output: 32
    bias_term: true
    pad: 1
    kernel_size: 3
    stride: 1
    weight_filler {
      type: "msra"
    }
    bias_filler {
      type: "constant"
    }
  }
}
layer {
  name: "BatchNorm18"
  type: "BatchNorm"
  bottom: "Convolution18"
  top: "Convolution18"
  param {
    lr_mult: 0
    decay_mult: 0
  }
  param {
    lr_mult: 0
    decay_mult: 0
  }
  param {
    lr_mult: 0
    decay_mult: 0
  }
}
layer {
  name: "Scale18"
  type: "Scale"
  bottom: "Convolution18"
  top: "Convolution18"
  scale_param {
    bias_term: true
  }
}
layer {
  name: "ReLU18"
  type: "ReLU"
  bottom: "Convolution18"
  top: "Convolution18"
}
layer {
  name: "Convolution19"
  type: "Convolution"
  bottom: "Convolution18"
  top: "Convolution19"
  convolution_param {
    num_output: 32
    bias_term: true
    pad: 1
    kernel_size: 3
    stride: 1
    weight_filler {
      type: "msra"
    }
    bias_filler {
      type: "constant"
    }
  }
}
layer {
  name: "BatchNorm19"
  type: "BatchNorm"
  bottom: "Convolution19"
  top: "Convolution19"
  param {
    lr_mult: 0
    decay_mult: 0
  }
  param {
    lr_mult: 0
    decay_mult: 0
  }
  param {
    lr_mult: 0
    decay_mult: 0
  }
}
layer {
  name: "Scale19"
  type: "Scale"
  bottom: "Convolution19"
  top: "Convolution19"
  scale_param {
    bias_term: true
  }
}
layer {
  name: "Eltwise9"
  type: "Eltwise"
  bottom: "Eltwise8"
  bottom: "Convolution19"
  top: "Eltwise9"
  eltwise_param {
    operation: SUM
  }
}
layer {
  name: "ReLU19"
  type: "ReLU"
  bottom: "Eltwise9"
  top: "Eltwise9"
}
layer {
  name: "Pooling2"
  type: "Pooling"
  bottom: "Eltwise9"
  top: "Pooling2"
  pooling_param {
    pool: AVE
    kernel_size: 2
    stride: 2
  }
}
layer {
  name: "Input2"
  type: "Input"
  top: "Input2"
  input_param {
    shape {
      dim: 128
      dim: 32
      dim: 8
      dim: 8
    }
  }
}
layer {
  name: "Concat2"
  type: "Concat"
  bottom: "Pooling2"
  bottom: "Input2"
  top: "Concat2"
  concat_param {
    axis: 1
  }
}
layer {
  name: "Convolution20"
  type: "Convolution"
  bottom: "Eltwise9"
  top: "Convolution20"
  convolution_param {
    num_output: 64
    bias_term: true
    pad: 1
    kernel_size: 3
    stride: 2
    weight_filler {
      type: "msra"
    }
    bias_filler {
      type: "constant"
    }
  }
}
layer {
  name: "BatchNorm20"
  type: "BatchNorm"
  bottom: "Convolution20"
  top: "Convolution20"
  param {
    lr_mult: 0
    decay_mult: 0
  }
  param {
    lr_mult: 0
    decay_mult: 0
  }
  param {
    lr_mult: 0
    decay_mult: 0
  }
}
layer {
  name: "Scale20"
  type: "Scale"
  bottom: "Convolution20"
  top: "Convolution20"
  scale_param {
    bias_term: true
  }
}
layer {
  name: "ReLU20"
  type: "ReLU"
  bottom: "Convolution20"
  top: "Convolution20"
}
layer {
  name: "Convolution21"
  type: "Convolution"
  bottom: "Convolution20"
  top: "Convolution21"
  convolution_param {
    num_output: 64
    bias_term: true
    pad: 1
    kernel_size: 3
    stride: 1
    weight_filler {
      type: "msra"
    }
    bias_filler {
      type: "constant"
    }
  }
}
layer {
  name: "BatchNorm21"
  type: "BatchNorm"
  bottom: "Convolution21"
  top: "Convolution21"
  param {
    lr_mult: 0
    decay_mult: 0
  }
  param {
    lr_mult: 0
    decay_mult: 0
  }
  param {
    lr_mult: 0
    decay_mult: 0
  }
}
layer {
  name: "Scale21"
  type: "Scale"
  bottom: "Convolution21"
  top: "Convolution21"
  scale_param {
    bias_term: true
  }
}
layer {
  name: "Eltwise10"
  type: "Eltwise"
  bottom: "Concat2"
  bottom: "Convolution21"
  top: "Eltwise10"
  eltwise_param {
    operation: SUM
  }
}
layer {
  name: "ReLU21"
  type: "ReLU"
  bottom: "Eltwise10"
  top: "Eltwise10"
}
layer {
  name: "Convolution22"
  type: "Convolution"
  bottom: "Eltwise10"
  top: "Convolution22"
  convolution_param {
    num_output: 64
    bias_term: true
    pad: 1
    kernel_size: 3
    stride: 1
    weight_filler {
      type: "msra"
    }
    bias_filler {
      type: "constant"
    }
  }
}
layer {
  name: "BatchNorm22"
  type: "BatchNorm"
  bottom: "Convolution22"
  top: "Convolution22"
  param {
    lr_mult: 0
    decay_mult: 0
  }
  param {
    lr_mult: 0
    decay_mult: 0
  }
  param {
    lr_mult: 0
    decay_mult: 0
  }
}
layer {
  name: "Scale22"
  type: "Scale"
  bottom: "Convolution22"
  top: "Convolution22"
  scale_param {
    bias_term: true
  }
}
layer {
  name: "ReLU22"
  type: "ReLU"
  bottom: "Convolution22"
  top: "Convolution22"
}
layer {
  name: "Convolution23"
  type: "Convolution"
  bottom: "Convolution22"
  top: "Convolution23"
  convolution_param {
    num_output: 64
    bias_term: true
    pad: 1
    kernel_size: 3
    stride: 1
    weight_filler {
      type: "msra"
    }
    bias_filler {
      type: "constant"
    }
  }
}
layer {
  name: "BatchNorm23"
  type: "BatchNorm"
  bottom: "Convolution23"
  top: "Convolution23"
  param {
    lr_mult: 0
    decay_mult: 0
  }
  param {
    lr_mult: 0
    decay_mult: 0
  }
  param {
    lr_mult: 0
    decay_mult: 0
  }
}
layer {
  name: "Scale23"
  type: "Scale"
  bottom: "Convolution23"
  top: "Convolution23"
  scale_param {
    bias_term: true
  }
}
layer {
  name: "Eltwise11"
  type: "Eltwise"
  bottom: "Eltwise10"
  bottom: "Convolution23"
  top: "Eltwise11"
  eltwise_param {
    operation: SUM
  }
}
layer {
  name: "ReLU23"
  type: "ReLU"
  bottom: "Eltwise11"
  top: "Eltwise11"
}
layer {
  name: "Convolution24"
  type: "Convolution"
  bottom: "Eltwise11"
  top: "Convolution24"
  convolution_param {
    num_output: 64
    bias_term: true
    pad: 1
    kernel_size: 3
    stride: 1
    weight_filler {
      type: "msra"
    }
    bias_filler {
      type: "constant"
    }
  }
}
layer {
  name: "BatchNorm24"
  type: "BatchNorm"
  bottom: "Convolution24"
  top: "Convolution24"
  param {
    lr_mult: 0
    decay_mult: 0
  }
  param {
    lr_mult: 0
    decay_mult: 0
  }
  param {
    lr_mult: 0
    decay_mult: 0
  }
}
layer {
  name: "Scale24"
  type: "Scale"
  bottom: "Convolution24"
  top: "Convolution24"
  scale_param {
    bias_term: true
  }
}
layer {
  name: "ReLU24"
  type: "ReLU"
  bottom: "Convolution24"
  top: "Convolution24"
}
layer {
  name: "Convolution25"
  type: "Convolution"
  bottom: "Convolution24"
  top: "Convolution25"
  convolution_param {
    num_output: 64
    bias_term: true
    pad: 1
    kernel_size: 3
    stride: 1
    weight_filler {
      type: "msra"
    }
    bias_filler {
      type: "constant"
    }
  }
}
layer {
  name: "BatchNorm25"
  type: "BatchNorm"
  bottom: "Convolution25"
  top: "Convolution25"
  param {
    lr_mult: 0
    decay_mult: 0
  }
  param {
    lr_mult: 0
    decay_mult: 0
  }
  param {
    lr_mult: 0
    decay_mult: 0
  }
}
layer {
  name: "Scale25"
  type: "Scale"
  bottom: "Convolution25"
  top: "Convolution25"
  scale_param {
    bias_term: true
  }
}
layer {
  name: "Eltwise12"
  type: "Eltwise"
  bottom: "Eltwise11"
  bottom: "Convolution25"
  top: "Eltwise12"
  eltwise_param {
    operation: SUM
  }
}
layer {
  name: "ReLU25"
  type: "ReLU"
  bottom: "Eltwise12"
  top: "Eltwise12"
}
layer {
  name: "Convolution26"
  type: "Convolution"
  bottom: "Eltwise12"
  top: "Convolution26"
  convolution_param {
    num_output: 64
    bias_term: true
    pad: 1
    kernel_size: 3
    stride: 1
    weight_filler {
      type: "msra"
    }
    bias_filler {
      type: "constant"
    }
  }
}
layer {
  name: "BatchNorm26"
  type: "BatchNorm"
  bottom: "Convolution26"
  top: "Convolution26"
  param {
    lr_mult: 0
    decay_mult: 0
  }
  param {
    lr_mult: 0
    decay_mult: 0
  }
  param {
    lr_mult: 0
    decay_mult: 0
  }
}
layer {
  name: "Scale26"
  type: "Scale"
  bottom: "Convolution26"
  top: "Convolution26"
  scale_param {
    bias_term: true
  }
}
layer {
  name: "ReLU26"
  type: "ReLU"
  bottom: "Convolution26"
  top: "Convolution26"
}
layer {
  name: "Convolution27"
  type: "Convolution"
  bottom: "Convolution26"
  top: "Convolution27"
  convolution_param {
    num_output: 64
    bias_term: true
    pad: 1
    kernel_size: 3
    stride: 1
    weight_filler {
      type: "msra"
    }
    bias_filler {
      type: "constant"
    }
  }
}
layer {
  name: "BatchNorm27"
  type: "BatchNorm"
  bottom: "Convolution27"
  top: "Convolution27"
  param {
    lr_mult: 0
    decay_mult: 0
  }
  param {
    lr_mult: 0
    decay_mult: 0
  }
  param {
    lr_mult: 0
    decay_mult: 0
  }
}
layer {
  name: "Scale27"
  type: "Scale"
  bottom: "Convolution27"
  top: "Convolution27"
  scale_param {
    bias_term: true
  }
}
layer {
  name: "Eltwise13"
  type: "Eltwise"
  bottom: "Eltwise12"
  bottom: "Convolution27"
  top: "Eltwise13"
  eltwise_param {
    operation: SUM
  }
}
layer {
  name: "ReLU27"
  type: "ReLU"
  bottom: "Eltwise13"
  top: "Eltwise13"
}
layer {
  name: "Convolution28"
  type: "Convolution"
  bottom: "Eltwise13"
  top: "Convolution28"
  convolution_param {
    num_output: 64
    bias_term: true
    pad: 1
    kernel_size: 3
    stride: 1
    weight_filler {
      type: "msra"
    }
    bias_filler {
      type: "constant"
    }
  }
}
layer {
  name: "BatchNorm28"
  type: "BatchNorm"
  bottom: "Convolution28"
  top: "Convolution28"
  param {
    lr_mult: 0
    decay_mult: 0
  }
  param {
    lr_mult: 0
    decay_mult: 0
  }
  param {
    lr_mult: 0
    decay_mult: 0
  }
}
layer {
  name: "Scale28"
  type: "Scale"
  bottom: "Convolution28"
  top: "Convolution28"
  scale_param {
    bias_term: true
  }
}
layer {
  name: "ReLU28"
  type: "ReLU"
  bottom: "Convolution28"
  top: "Convolution28"
}
layer {
  name: "Convolution29"
  type: "Convolution"
  bottom: "Convolution28"
  top: "Convolution29"
  convolution_param {
    num_output: 64
    bias_term: true
    pad: 1
    kernel_size: 3
    stride: 1
    weight_filler {
      type: "msra"
    }
    bias_filler {
      type: "constant"
    }
  }
}
layer {
  name: "BatchNorm29"
  type: "BatchNorm"
  bottom: "Convolution29"
  top: "Convolution29"
  param {
    lr_mult: 0
    decay_mult: 0
  }
  param {
    lr_mult: 0
    decay_mult: 0
  }
  param {
    lr_mult: 0
    decay_mult: 0
  }
}
layer {
  name: "Scale29"
  type: "Scale"
  bottom: "Convolution29"
  top: "Convolution29"
  scale_param {
    bias_term: true
  }
}
layer {
  name: "Eltwise14"
  type: "Eltwise"
  bottom: "Eltwise13"
  bottom: "Convolution29"
  top: "Eltwise14"
  eltwise_param {
    operation: SUM
  }
}
layer {
  name: "ReLU29"
  type: "ReLU"
  bottom: "Eltwise14"
  top: "Eltwise14"
}
layer {
  name: "Pooling3"
  type: "Pooling"
  bottom: "Eltwise14"
  top: "Pooling3"
  pooling_param {
    pool: AVE
    global_pooling: true
  }
}
layer {
  name: "InnerProduct1"
  type: "InnerProduct"
  bottom: "Pooling3"
  top: "InnerProduct1"
  inner_product_param {
    num_output: 10
    bias_term: true
    weight_filler {
      type: "msra"
    }
  }
}
layer {
  name: "SoftmaxWithLoss1"
  type: "SoftmaxWithLoss"
  bottom: "InnerProduct1"
  bottom: "Data2"
  top: "SoftmaxWithLoss1"
}
I0525 23:46:16.768141 15394 layer_factory.hpp:77] Creating layer Data1
I0525 23:46:16.769392 15394 net.cpp:190] Creating Layer Data1
I0525 23:46:16.769453 15394 net.cpp:579] Data1 -> Data1
I0525 23:46:16.769529 15394 net.cpp:579] Data1 -> Data2
I0525 23:46:16.805218 15398 db_leveldb.cpp:18] Opened leveldb /scratch/pas282/caffe/examples/cifar10/cifar10_train_leveldb_padding0
I0525 23:46:16.833379 15394 data_layer.cpp:41] output data size: 128,3,32,32
I0525 23:46:16.838162 15394 net.cpp:240] Setting up Data1
I0525 23:46:16.838234 15394 net.cpp:247] Top shape: 128 3 32 32 (393216)
I0525 23:46:16.838241 15394 net.cpp:247] Top shape: 128 (128)
I0525 23:46:16.838245 15394 net.cpp:255] Memory required for data: 1573376
I0525 23:46:16.838264 15394 layer_factory.hpp:77] Creating layer Convolution1
I0525 23:46:16.842442 15394 net.cpp:190] Creating Layer Convolution1
I0525 23:46:16.842500 15394 net.cpp:605] Convolution1 <- Data1
I0525 23:46:16.842536 15394 net.cpp:579] Convolution1 -> Convolution1
I0525 23:46:16.843880 15394 net.cpp:240] Setting up Convolution1
I0525 23:46:16.843929 15394 net.cpp:247] Top shape: 128 16 32 32 (2097152)
I0525 23:46:16.843933 15394 net.cpp:255] Memory required for data: 9961984
I0525 23:46:16.843967 15394 layer_factory.hpp:77] Creating layer BatchNorm1
I0525 23:46:16.843991 15394 net.cpp:190] Creating Layer BatchNorm1
I0525 23:46:16.843998 15394 net.cpp:605] BatchNorm1 <- Convolution1
I0525 23:46:16.844007 15394 net.cpp:566] BatchNorm1 -> Convolution1 (in-place)
I0525 23:46:16.844218 15394 net.cpp:240] Setting up BatchNorm1
I0525 23:46:16.844229 15394 net.cpp:247] Top shape: 128 16 32 32 (2097152)
I0525 23:46:16.844233 15394 net.cpp:255] Memory required for data: 18350592
I0525 23:46:16.844252 15394 layer_factory.hpp:77] Creating layer Scale1
I0525 23:46:16.844264 15394 net.cpp:190] Creating Layer Scale1
I0525 23:46:16.844269 15394 net.cpp:605] Scale1 <- Convolution1
I0525 23:46:16.844274 15394 net.cpp:566] Scale1 -> Convolution1 (in-place)
I0525 23:46:16.844321 15394 layer_factory.hpp:77] Creating layer Scale1
I0525 23:46:16.844460 15394 net.cpp:240] Setting up Scale1
I0525 23:46:16.844468 15394 net.cpp:247] Top shape: 128 16 32 32 (2097152)
I0525 23:46:16.844472 15394 net.cpp:255] Memory required for data: 26739200
I0525 23:46:16.844481 15394 layer_factory.hpp:77] Creating layer ReLU1
I0525 23:46:16.844493 15394 net.cpp:190] Creating Layer ReLU1
I0525 23:46:16.844498 15394 net.cpp:605] ReLU1 <- Convolution1
I0525 23:46:16.844504 15394 net.cpp:566] ReLU1 -> Convolution1 (in-place)
I0525 23:46:16.844522 15394 net.cpp:240] Setting up ReLU1
I0525 23:46:16.844527 15394 net.cpp:247] Top shape: 128 16 32 32 (2097152)
I0525 23:46:16.844530 15394 net.cpp:255] Memory required for data: 35127808
I0525 23:46:16.844534 15394 layer_factory.hpp:77] Creating layer Convolution1_ReLU1_0_split
I0525 23:46:16.844549 15394 net.cpp:190] Creating Layer Convolution1_ReLU1_0_split
I0525 23:46:16.844554 15394 net.cpp:605] Convolution1_ReLU1_0_split <- Convolution1
I0525 23:46:16.844560 15394 net.cpp:579] Convolution1_ReLU1_0_split -> Convolution1_ReLU1_0_split_0
I0525 23:46:16.844568 15394 net.cpp:579] Convolution1_ReLU1_0_split -> Convolution1_ReLU1_0_split_1
I0525 23:46:16.844612 15394 net.cpp:240] Setting up Convolution1_ReLU1_0_split
I0525 23:46:16.844621 15394 net.cpp:247] Top shape: 128 16 32 32 (2097152)
I0525 23:46:16.844626 15394 net.cpp:247] Top shape: 128 16 32 32 (2097152)
I0525 23:46:16.844630 15394 net.cpp:255] Memory required for data: 51905024
I0525 23:46:16.844633 15394 layer_factory.hpp:77] Creating layer Convolution2
I0525 23:46:16.844648 15394 net.cpp:190] Creating Layer Convolution2
I0525 23:46:16.844652 15394 net.cpp:605] Convolution2 <- Convolution1_ReLU1_0_split_0
I0525 23:46:16.844660 15394 net.cpp:579] Convolution2 -> Convolution2
I0525 23:46:16.848340 15399 blocking_queue.cpp:50] Waiting for data
I0525 23:46:16.851632 15394 net.cpp:240] Setting up Convolution2
I0525 23:46:16.851685 15394 net.cpp:247] Top shape: 128 16 32 32 (2097152)
I0525 23:46:16.851689 15394 net.cpp:255] Memory required for data: 60293632
I0525 23:46:16.851717 15394 layer_factory.hpp:77] Creating layer BatchNorm2
I0525 23:46:16.851737 15394 net.cpp:190] Creating Layer BatchNorm2
I0525 23:46:16.851742 15394 net.cpp:605] BatchNorm2 <- Convolution2
I0525 23:46:16.851757 15394 net.cpp:566] BatchNorm2 -> Convolution2 (in-place)
I0525 23:46:16.851943 15394 net.cpp:240] Setting up BatchNorm2
I0525 23:46:16.851953 15394 net.cpp:247] Top shape: 128 16 32 32 (2097152)
I0525 23:46:16.851955 15394 net.cpp:255] Memory required for data: 68682240
I0525 23:46:16.851970 15394 layer_factory.hpp:77] Creating layer Scale2
I0525 23:46:16.851984 15394 net.cpp:190] Creating Layer Scale2
I0525 23:46:16.851989 15394 net.cpp:605] Scale2 <- Convolution2
I0525 23:46:16.851995 15394 net.cpp:566] Scale2 -> Convolution2 (in-place)
I0525 23:46:16.852038 15394 layer_factory.hpp:77] Creating layer Scale2
I0525 23:46:16.852149 15394 net.cpp:240] Setting up Scale2
I0525 23:46:16.852159 15394 net.cpp:247] Top shape: 128 16 32 32 (2097152)
I0525 23:46:16.852161 15394 net.cpp:255] Memory required for data: 77070848
I0525 23:46:16.852170 15394 layer_factory.hpp:77] Creating layer ReLU2
I0525 23:46:16.852180 15394 net.cpp:190] Creating Layer ReLU2
I0525 23:46:16.852185 15394 net.cpp:605] ReLU2 <- Convolution2
I0525 23:46:16.852191 15394 net.cpp:566] ReLU2 -> Convolution2 (in-place)
I0525 23:46:16.852200 15394 net.cpp:240] Setting up ReLU2
I0525 23:46:16.852206 15394 net.cpp:247] Top shape: 128 16 32 32 (2097152)
I0525 23:46:16.852210 15394 net.cpp:255] Memory required for data: 85459456
I0525 23:46:16.852213 15394 layer_factory.hpp:77] Creating layer Convolution3
I0525 23:46:16.852227 15394 net.cpp:190] Creating Layer Convolution3
I0525 23:46:16.852231 15394 net.cpp:605] Convolution3 <- Convolution2
I0525 23:46:16.852238 15394 net.cpp:579] Convolution3 -> Convolution3
I0525 23:46:16.852555 15394 net.cpp:240] Setting up Convolution3
I0525 23:46:16.852566 15394 net.cpp:247] Top shape: 128 16 32 32 (2097152)
I0525 23:46:16.852571 15394 net.cpp:255] Memory required for data: 93848064
I0525 23:46:16.852587 15394 layer_factory.hpp:77] Creating layer BatchNorm3
I0525 23:46:16.852599 15394 net.cpp:190] Creating Layer BatchNorm3
I0525 23:46:16.852604 15394 net.cpp:605] BatchNorm3 <- Convolution3
I0525 23:46:16.852610 15394 net.cpp:566] BatchNorm3 -> Convolution3 (in-place)
I0525 23:46:16.852797 15394 net.cpp:240] Setting up BatchNorm3
I0525 23:46:16.852805 15394 net.cpp:247] Top shape: 128 16 32 32 (2097152)
I0525 23:46:16.852809 15394 net.cpp:255] Memory required for data: 102236672
I0525 23:46:16.852826 15394 layer_factory.hpp:77] Creating layer Scale3
I0525 23:46:16.852835 15394 net.cpp:190] Creating Layer Scale3
I0525 23:46:16.852841 15394 net.cpp:605] Scale3 <- Convolution3
I0525 23:46:16.852847 15394 net.cpp:566] Scale3 -> Convolution3 (in-place)
I0525 23:46:16.852890 15394 layer_factory.hpp:77] Creating layer Scale3
I0525 23:46:16.853003 15394 net.cpp:240] Setting up Scale3
I0525 23:46:16.853011 15394 net.cpp:247] Top shape: 128 16 32 32 (2097152)
I0525 23:46:16.853014 15394 net.cpp:255] Memory required for data: 110625280
I0525 23:46:16.853023 15394 layer_factory.hpp:77] Creating layer Eltwise1
I0525 23:46:16.853031 15394 net.cpp:190] Creating Layer Eltwise1
I0525 23:46:16.853039 15394 net.cpp:605] Eltwise1 <- Convolution1_ReLU1_0_split_1
I0525 23:46:16.853044 15394 net.cpp:605] Eltwise1 <- Convolution3
I0525 23:46:16.853051 15394 net.cpp:579] Eltwise1 -> Eltwise1
I0525 23:46:16.853088 15394 net.cpp:240] Setting up Eltwise1
I0525 23:46:16.853096 15394 net.cpp:247] Top shape: 128 16 32 32 (2097152)
I0525 23:46:16.853099 15394 net.cpp:255] Memory required for data: 119013888
I0525 23:46:16.853102 15394 layer_factory.hpp:77] Creating layer ReLU3
I0525 23:46:16.853113 15394 net.cpp:190] Creating Layer ReLU3
I0525 23:46:16.853117 15394 net.cpp:605] ReLU3 <- Eltwise1
I0525 23:46:16.853123 15394 net.cpp:566] ReLU3 -> Eltwise1 (in-place)
I0525 23:46:16.853129 15394 net.cpp:240] Setting up ReLU3
I0525 23:46:16.853135 15394 net.cpp:247] Top shape: 128 16 32 32 (2097152)
I0525 23:46:16.853138 15394 net.cpp:255] Memory required for data: 127402496
I0525 23:46:16.853142 15394 layer_factory.hpp:77] Creating layer Eltwise1_ReLU3_0_split
I0525 23:46:16.853148 15394 net.cpp:190] Creating Layer Eltwise1_ReLU3_0_split
I0525 23:46:16.853152 15394 net.cpp:605] Eltwise1_ReLU3_0_split <- Eltwise1
I0525 23:46:16.853158 15394 net.cpp:579] Eltwise1_ReLU3_0_split -> Eltwise1_ReLU3_0_split_0
I0525 23:46:16.853166 15394 net.cpp:579] Eltwise1_ReLU3_0_split -> Eltwise1_ReLU3_0_split_1
I0525 23:46:16.853205 15394 net.cpp:240] Setting up Eltwise1_ReLU3_0_split
I0525 23:46:16.853214 15394 net.cpp:247] Top shape: 128 16 32 32 (2097152)
I0525 23:46:16.853219 15394 net.cpp:247] Top shape: 128 16 32 32 (2097152)
I0525 23:46:16.853221 15394 net.cpp:255] Memory required for data: 144179712
I0525 23:46:16.853225 15394 layer_factory.hpp:77] Creating layer Convolution4
I0525 23:46:16.853241 15394 net.cpp:190] Creating Layer Convolution4
I0525 23:46:16.853246 15394 net.cpp:605] Convolution4 <- Eltwise1_ReLU3_0_split_0
I0525 23:46:16.853253 15394 net.cpp:579] Convolution4 -> Convolution4
I0525 23:46:16.853546 15394 net.cpp:240] Setting up Convolution4
I0525 23:46:16.853556 15394 net.cpp:247] Top shape: 128 16 32 32 (2097152)
I0525 23:46:16.853559 15394 net.cpp:255] Memory required for data: 152568320
I0525 23:46:16.853569 15394 layer_factory.hpp:77] Creating layer BatchNorm4
I0525 23:46:16.853579 15394 net.cpp:190] Creating Layer BatchNorm4
I0525 23:46:16.853584 15394 net.cpp:605] BatchNorm4 <- Convolution4
I0525 23:46:16.853591 15394 net.cpp:566] BatchNorm4 -> Convolution4 (in-place)
I0525 23:46:16.853772 15394 net.cpp:240] Setting up BatchNorm4
I0525 23:46:16.853781 15394 net.cpp:247] Top shape: 128 16 32 32 (2097152)
I0525 23:46:16.853785 15394 net.cpp:255] Memory required for data: 160956928
I0525 23:46:16.853795 15394 layer_factory.hpp:77] Creating layer Scale4
I0525 23:46:16.853807 15394 net.cpp:190] Creating Layer Scale4
I0525 23:46:16.853812 15394 net.cpp:605] Scale4 <- Convolution4
I0525 23:46:16.853817 15394 net.cpp:566] Scale4 -> Convolution4 (in-place)
I0525 23:46:16.853865 15394 layer_factory.hpp:77] Creating layer Scale4
I0525 23:46:16.854001 15394 net.cpp:240] Setting up Scale4
I0525 23:46:16.854010 15394 net.cpp:247] Top shape: 128 16 32 32 (2097152)
I0525 23:46:16.854013 15394 net.cpp:255] Memory required for data: 169345536
I0525 23:46:16.854022 15394 layer_factory.hpp:77] Creating layer ReLU4
I0525 23:46:16.854029 15394 net.cpp:190] Creating Layer ReLU4
I0525 23:46:16.854034 15394 net.cpp:605] ReLU4 <- Convolution4
I0525 23:46:16.854043 15394 net.cpp:566] ReLU4 -> Convolution4 (in-place)
I0525 23:46:16.854049 15394 net.cpp:240] Setting up ReLU4
I0525 23:46:16.854054 15394 net.cpp:247] Top shape: 128 16 32 32 (2097152)
I0525 23:46:16.854058 15394 net.cpp:255] Memory required for data: 177734144
I0525 23:46:16.854061 15394 layer_factory.hpp:77] Creating layer Convolution5
I0525 23:46:16.854074 15394 net.cpp:190] Creating Layer Convolution5
I0525 23:46:16.854077 15394 net.cpp:605] Convolution5 <- Convolution4
I0525 23:46:16.854084 15394 net.cpp:579] Convolution5 -> Convolution5
I0525 23:46:16.854383 15394 net.cpp:240] Setting up Convolution5
I0525 23:46:16.854394 15394 net.cpp:247] Top shape: 128 16 32 32 (2097152)
I0525 23:46:16.854398 15394 net.cpp:255] Memory required for data: 186122752
I0525 23:46:16.854405 15394 layer_factory.hpp:77] Creating layer BatchNorm5
I0525 23:46:16.854415 15394 net.cpp:190] Creating Layer BatchNorm5
I0525 23:46:16.854419 15394 net.cpp:605] BatchNorm5 <- Convolution5
I0525 23:46:16.854428 15394 net.cpp:566] BatchNorm5 -> Convolution5 (in-place)
I0525 23:46:16.854600 15394 net.cpp:240] Setting up BatchNorm5
I0525 23:46:16.854609 15394 net.cpp:247] Top shape: 128 16 32 32 (2097152)
I0525 23:46:16.854612 15394 net.cpp:255] Memory required for data: 194511360
I0525 23:46:16.854634 15394 layer_factory.hpp:77] Creating layer Scale5
I0525 23:46:16.854643 15394 net.cpp:190] Creating Layer Scale5
I0525 23:46:16.854647 15394 net.cpp:605] Scale5 <- Convolution5
I0525 23:46:16.854653 15394 net.cpp:566] Scale5 -> Convolution5 (in-place)
I0525 23:46:16.854693 15394 layer_factory.hpp:77] Creating layer Scale5
I0525 23:46:16.854801 15394 net.cpp:240] Setting up Scale5
I0525 23:46:16.854809 15394 net.cpp:247] Top shape: 128 16 32 32 (2097152)
I0525 23:46:16.854812 15394 net.cpp:255] Memory required for data: 202899968
I0525 23:46:16.854821 15394 layer_factory.hpp:77] Creating layer Eltwise2
I0525 23:46:16.854831 15394 net.cpp:190] Creating Layer Eltwise2
I0525 23:46:16.854837 15394 net.cpp:605] Eltwise2 <- Eltwise1_ReLU3_0_split_1
I0525 23:46:16.854842 15394 net.cpp:605] Eltwise2 <- Convolution5
I0525 23:46:16.854847 15394 net.cpp:579] Eltwise2 -> Eltwise2
I0525 23:46:16.854872 15394 net.cpp:240] Setting up Eltwise2
I0525 23:46:16.854879 15394 net.cpp:247] Top shape: 128 16 32 32 (2097152)
I0525 23:46:16.854882 15394 net.cpp:255] Memory required for data: 211288576
I0525 23:46:16.854885 15394 layer_factory.hpp:77] Creating layer ReLU5
I0525 23:46:16.854894 15394 net.cpp:190] Creating Layer ReLU5
I0525 23:46:16.854898 15394 net.cpp:605] ReLU5 <- Eltwise2
I0525 23:46:16.854904 15394 net.cpp:566] ReLU5 -> Eltwise2 (in-place)
I0525 23:46:16.854910 15394 net.cpp:240] Setting up ReLU5
I0525 23:46:16.854915 15394 net.cpp:247] Top shape: 128 16 32 32 (2097152)
I0525 23:46:16.854919 15394 net.cpp:255] Memory required for data: 219677184
I0525 23:46:16.854923 15394 layer_factory.hpp:77] Creating layer Eltwise2_ReLU5_0_split
I0525 23:46:16.854929 15394 net.cpp:190] Creating Layer Eltwise2_ReLU5_0_split
I0525 23:46:16.854933 15394 net.cpp:605] Eltwise2_ReLU5_0_split <- Eltwise2
I0525 23:46:16.854938 15394 net.cpp:579] Eltwise2_ReLU5_0_split -> Eltwise2_ReLU5_0_split_0
I0525 23:46:16.854944 15394 net.cpp:579] Eltwise2_ReLU5_0_split -> Eltwise2_ReLU5_0_split_1
I0525 23:46:16.854980 15394 net.cpp:240] Setting up Eltwise2_ReLU5_0_split
I0525 23:46:16.854987 15394 net.cpp:247] Top shape: 128 16 32 32 (2097152)
I0525 23:46:16.854992 15394 net.cpp:247] Top shape: 128 16 32 32 (2097152)
I0525 23:46:16.854995 15394 net.cpp:255] Memory required for data: 236454400
I0525 23:46:16.855006 15394 layer_factory.hpp:77] Creating layer Convolution6
I0525 23:46:16.855020 15394 net.cpp:190] Creating Layer Convolution6
I0525 23:46:16.855024 15394 net.cpp:605] Convolution6 <- Eltwise2_ReLU5_0_split_0
I0525 23:46:16.855031 15394 net.cpp:579] Convolution6 -> Convolution6
I0525 23:46:16.855330 15394 net.cpp:240] Setting up Convolution6
I0525 23:46:16.855340 15394 net.cpp:247] Top shape: 128 16 32 32 (2097152)
I0525 23:46:16.855345 15394 net.cpp:255] Memory required for data: 244843008
I0525 23:46:16.855353 15394 layer_factory.hpp:77] Creating layer BatchNorm6
I0525 23:46:16.855363 15394 net.cpp:190] Creating Layer BatchNorm6
I0525 23:46:16.855367 15394 net.cpp:605] BatchNorm6 <- Convolution6
I0525 23:46:16.855372 15394 net.cpp:566] BatchNorm6 -> Convolution6 (in-place)
I0525 23:46:16.858409 15394 net.cpp:240] Setting up BatchNorm6
I0525 23:46:16.858463 15394 net.cpp:247] Top shape: 128 16 32 32 (2097152)
I0525 23:46:16.858467 15394 net.cpp:255] Memory required for data: 253231616
I0525 23:46:16.858491 15394 layer_factory.hpp:77] Creating layer Scale6
I0525 23:46:16.858512 15394 net.cpp:190] Creating Layer Scale6
I0525 23:46:16.858520 15394 net.cpp:605] Scale6 <- Convolution6
I0525 23:46:16.858530 15394 net.cpp:566] Scale6 -> Convolution6 (in-place)
I0525 23:46:16.858621 15394 layer_factory.hpp:77] Creating layer Scale6
I0525 23:46:16.858755 15394 net.cpp:240] Setting up Scale6
I0525 23:46:16.858767 15394 net.cpp:247] Top shape: 128 16 32 32 (2097152)
I0525 23:46:16.858770 15394 net.cpp:255] Memory required for data: 261620224
I0525 23:46:16.858780 15394 layer_factory.hpp:77] Creating layer ReLU6
I0525 23:46:16.858788 15394 net.cpp:190] Creating Layer ReLU6
I0525 23:46:16.858793 15394 net.cpp:605] ReLU6 <- Convolution6
I0525 23:46:16.858798 15394 net.cpp:566] ReLU6 -> Convolution6 (in-place)
I0525 23:46:16.858805 15394 net.cpp:240] Setting up ReLU6
I0525 23:46:16.858811 15394 net.cpp:247] Top shape: 128 16 32 32 (2097152)
I0525 23:46:16.858814 15394 net.cpp:255] Memory required for data: 270008832
I0525 23:46:16.858817 15394 layer_factory.hpp:77] Creating layer Convolution7
I0525 23:46:16.858832 15394 net.cpp:190] Creating Layer Convolution7
I0525 23:46:16.858836 15394 net.cpp:605] Convolution7 <- Convolution6
I0525 23:46:16.858845 15394 net.cpp:579] Convolution7 -> Convolution7
I0525 23:46:16.859179 15394 net.cpp:240] Setting up Convolution7
I0525 23:46:16.859190 15394 net.cpp:247] Top shape: 128 16 32 32 (2097152)
I0525 23:46:16.859194 15394 net.cpp:255] Memory required for data: 278397440
I0525 23:46:16.859203 15394 layer_factory.hpp:77] Creating layer BatchNorm7
I0525 23:46:16.859215 15394 net.cpp:190] Creating Layer BatchNorm7
I0525 23:46:16.859218 15394 net.cpp:605] BatchNorm7 <- Convolution7
I0525 23:46:16.859227 15394 net.cpp:566] BatchNorm7 -> Convolution7 (in-place)
I0525 23:46:16.859411 15394 net.cpp:240] Setting up BatchNorm7
I0525 23:46:16.859421 15394 net.cpp:247] Top shape: 128 16 32 32 (2097152)
I0525 23:46:16.859423 15394 net.cpp:255] Memory required for data: 286786048
I0525 23:46:16.859433 15394 layer_factory.hpp:77] Creating layer Scale7
I0525 23:46:16.859450 15394 net.cpp:190] Creating Layer Scale7
I0525 23:46:16.859455 15394 net.cpp:605] Scale7 <- Convolution7
I0525 23:46:16.859462 15394 net.cpp:566] Scale7 -> Convolution7 (in-place)
I0525 23:46:16.859506 15394 layer_factory.hpp:77] Creating layer Scale7
I0525 23:46:16.859624 15394 net.cpp:240] Setting up Scale7
I0525 23:46:16.859633 15394 net.cpp:247] Top shape: 128 16 32 32 (2097152)
I0525 23:46:16.859637 15394 net.cpp:255] Memory required for data: 295174656
I0525 23:46:16.859645 15394 layer_factory.hpp:77] Creating layer Eltwise3
I0525 23:46:16.859657 15394 net.cpp:190] Creating Layer Eltwise3
I0525 23:46:16.859661 15394 net.cpp:605] Eltwise3 <- Eltwise2_ReLU5_0_split_1
I0525 23:46:16.859666 15394 net.cpp:605] Eltwise3 <- Convolution7
I0525 23:46:16.859673 15394 net.cpp:579] Eltwise3 -> Eltwise3
I0525 23:46:16.859701 15394 net.cpp:240] Setting up Eltwise3
I0525 23:46:16.859709 15394 net.cpp:247] Top shape: 128 16 32 32 (2097152)
I0525 23:46:16.859722 15394 net.cpp:255] Memory required for data: 303563264
I0525 23:46:16.859727 15394 layer_factory.hpp:77] Creating layer ReLU7
I0525 23:46:16.859736 15394 net.cpp:190] Creating Layer ReLU7
I0525 23:46:16.859740 15394 net.cpp:605] ReLU7 <- Eltwise3
I0525 23:46:16.859748 15394 net.cpp:566] ReLU7 -> Eltwise3 (in-place)
I0525 23:46:16.859756 15394 net.cpp:240] Setting up ReLU7
I0525 23:46:16.859761 15394 net.cpp:247] Top shape: 128 16 32 32 (2097152)
I0525 23:46:16.859766 15394 net.cpp:255] Memory required for data: 311951872
I0525 23:46:16.859768 15394 layer_factory.hpp:77] Creating layer Eltwise3_ReLU7_0_split
I0525 23:46:16.859776 15394 net.cpp:190] Creating Layer Eltwise3_ReLU7_0_split
I0525 23:46:16.859781 15394 net.cpp:605] Eltwise3_ReLU7_0_split <- Eltwise3
I0525 23:46:16.859786 15394 net.cpp:579] Eltwise3_ReLU7_0_split -> Eltwise3_ReLU7_0_split_0
I0525 23:46:16.859792 15394 net.cpp:579] Eltwise3_ReLU7_0_split -> Eltwise3_ReLU7_0_split_1
I0525 23:46:16.859828 15394 net.cpp:240] Setting up Eltwise3_ReLU7_0_split
I0525 23:46:16.859835 15394 net.cpp:247] Top shape: 128 16 32 32 (2097152)
I0525 23:46:16.859839 15394 net.cpp:247] Top shape: 128 16 32 32 (2097152)
I0525 23:46:16.859843 15394 net.cpp:255] Memory required for data: 328729088
I0525 23:46:16.859846 15394 layer_factory.hpp:77] Creating layer Convolution8
I0525 23:46:16.859856 15394 net.cpp:190] Creating Layer Convolution8
I0525 23:46:16.859861 15394 net.cpp:605] Convolution8 <- Eltwise3_ReLU7_0_split_0
I0525 23:46:16.859869 15394 net.cpp:579] Convolution8 -> Convolution8
I0525 23:46:16.860180 15394 net.cpp:240] Setting up Convolution8
I0525 23:46:16.860191 15394 net.cpp:247] Top shape: 128 16 32 32 (2097152)
I0525 23:46:16.860195 15394 net.cpp:255] Memory required for data: 337117696
I0525 23:46:16.860205 15394 layer_factory.hpp:77] Creating layer BatchNorm8
I0525 23:46:16.860214 15394 net.cpp:190] Creating Layer BatchNorm8
I0525 23:46:16.860219 15394 net.cpp:605] BatchNorm8 <- Convolution8
I0525 23:46:16.860226 15394 net.cpp:566] BatchNorm8 -> Convolution8 (in-place)
I0525 23:46:16.860412 15394 net.cpp:240] Setting up BatchNorm8
I0525 23:46:16.860421 15394 net.cpp:247] Top shape: 128 16 32 32 (2097152)
I0525 23:46:16.860424 15394 net.cpp:255] Memory required for data: 345506304
I0525 23:46:16.860435 15394 layer_factory.hpp:77] Creating layer Scale8
I0525 23:46:16.860443 15394 net.cpp:190] Creating Layer Scale8
I0525 23:46:16.860447 15394 net.cpp:605] Scale8 <- Convolution8
I0525 23:46:16.860453 15394 net.cpp:566] Scale8 -> Convolution8 (in-place)
I0525 23:46:16.860492 15394 layer_factory.hpp:77] Creating layer Scale8
I0525 23:46:16.860608 15394 net.cpp:240] Setting up Scale8
I0525 23:46:16.860618 15394 net.cpp:247] Top shape: 128 16 32 32 (2097152)
I0525 23:46:16.860621 15394 net.cpp:255] Memory required for data: 353894912
I0525 23:46:16.860630 15394 layer_factory.hpp:77] Creating layer ReLU8
I0525 23:46:16.860638 15394 net.cpp:190] Creating Layer ReLU8
I0525 23:46:16.860642 15394 net.cpp:605] ReLU8 <- Convolution8
I0525 23:46:16.860651 15394 net.cpp:566] ReLU8 -> Convolution8 (in-place)
I0525 23:46:16.860657 15394 net.cpp:240] Setting up ReLU8
I0525 23:46:16.860662 15394 net.cpp:247] Top shape: 128 16 32 32 (2097152)
I0525 23:46:16.860666 15394 net.cpp:255] Memory required for data: 362283520
I0525 23:46:16.860669 15394 layer_factory.hpp:77] Creating layer Convolution9
I0525 23:46:16.860679 15394 net.cpp:190] Creating Layer Convolution9
I0525 23:46:16.860683 15394 net.cpp:605] Convolution9 <- Convolution8
I0525 23:46:16.860694 15394 net.cpp:579] Convolution9 -> Convolution9
I0525 23:46:16.861021 15394 net.cpp:240] Setting up Convolution9
I0525 23:46:16.861032 15394 net.cpp:247] Top shape: 128 16 32 32 (2097152)
I0525 23:46:16.861035 15394 net.cpp:255] Memory required for data: 370672128
I0525 23:46:16.861045 15394 layer_factory.hpp:77] Creating layer BatchNorm9
I0525 23:46:16.861054 15394 net.cpp:190] Creating Layer BatchNorm9
I0525 23:46:16.861058 15394 net.cpp:605] BatchNorm9 <- Convolution9
I0525 23:46:16.866425 15394 net.cpp:566] BatchNorm9 -> Convolution9 (in-place)
I0525 23:46:16.870573 15394 net.cpp:240] Setting up BatchNorm9
I0525 23:46:16.870611 15394 net.cpp:247] Top shape: 128 16 32 32 (2097152)
I0525 23:46:16.870615 15394 net.cpp:255] Memory required for data: 379060736
I0525 23:46:16.870638 15394 layer_factory.hpp:77] Creating layer Scale9
I0525 23:46:16.870656 15394 net.cpp:190] Creating Layer Scale9
I0525 23:46:16.870663 15394 net.cpp:605] Scale9 <- Convolution9
I0525 23:46:16.870676 15394 net.cpp:566] Scale9 -> Convolution9 (in-place)
I0525 23:46:16.870728 15394 layer_factory.hpp:77] Creating layer Scale9
I0525 23:46:16.870852 15394 net.cpp:240] Setting up Scale9
I0525 23:46:16.870860 15394 net.cpp:247] Top shape: 128 16 32 32 (2097152)
I0525 23:46:16.870864 15394 net.cpp:255] Memory required for data: 387449344
I0525 23:46:16.870875 15394 layer_factory.hpp:77] Creating layer Eltwise4
I0525 23:46:16.870887 15394 net.cpp:190] Creating Layer Eltwise4
I0525 23:46:16.870893 15394 net.cpp:605] Eltwise4 <- Eltwise3_ReLU7_0_split_1
I0525 23:46:16.870898 15394 net.cpp:605] Eltwise4 <- Convolution9
I0525 23:46:16.870905 15394 net.cpp:579] Eltwise4 -> Eltwise4
I0525 23:46:16.870957 15394 net.cpp:240] Setting up Eltwise4
I0525 23:46:16.870968 15394 net.cpp:247] Top shape: 128 16 32 32 (2097152)
I0525 23:46:16.870971 15394 net.cpp:255] Memory required for data: 395837952
I0525 23:46:16.870975 15394 layer_factory.hpp:77] Creating layer ReLU9
I0525 23:46:16.870983 15394 net.cpp:190] Creating Layer ReLU9
I0525 23:46:16.870987 15394 net.cpp:605] ReLU9 <- Eltwise4
I0525 23:46:16.870995 15394 net.cpp:566] ReLU9 -> Eltwise4 (in-place)
I0525 23:46:16.871003 15394 net.cpp:240] Setting up ReLU9
I0525 23:46:16.871008 15394 net.cpp:247] Top shape: 128 16 32 32 (2097152)
I0525 23:46:16.871012 15394 net.cpp:255] Memory required for data: 404226560
I0525 23:46:16.871016 15394 layer_factory.hpp:77] Creating layer Eltwise4_ReLU9_0_split
I0525 23:46:16.871022 15394 net.cpp:190] Creating Layer Eltwise4_ReLU9_0_split
I0525 23:46:16.871026 15394 net.cpp:605] Eltwise4_ReLU9_0_split <- Eltwise4
I0525 23:46:16.871032 15394 net.cpp:579] Eltwise4_ReLU9_0_split -> Eltwise4_ReLU9_0_split_0
I0525 23:46:16.871038 15394 net.cpp:579] Eltwise4_ReLU9_0_split -> Eltwise4_ReLU9_0_split_1
I0525 23:46:16.871085 15394 net.cpp:240] Setting up Eltwise4_ReLU9_0_split
I0525 23:46:16.871093 15394 net.cpp:247] Top shape: 128 16 32 32 (2097152)
I0525 23:46:16.871098 15394 net.cpp:247] Top shape: 128 16 32 32 (2097152)
I0525 23:46:16.871101 15394 net.cpp:255] Memory required for data: 421003776
I0525 23:46:16.871105 15394 layer_factory.hpp:77] Creating layer Pooling1
I0525 23:46:16.871114 15394 net.cpp:190] Creating Layer Pooling1
I0525 23:46:16.871119 15394 net.cpp:605] Pooling1 <- Eltwise4_ReLU9_0_split_0
I0525 23:46:16.871129 15394 net.cpp:579] Pooling1 -> Pooling1
I0525 23:46:16.871173 15394 net.cpp:240] Setting up Pooling1
I0525 23:46:16.871181 15394 net.cpp:247] Top shape: 128 16 16 16 (524288)
I0525 23:46:16.871183 15394 net.cpp:255] Memory required for data: 423100928
I0525 23:46:16.871187 15394 layer_factory.hpp:77] Creating layer Input1
I0525 23:46:16.871198 15394 net.cpp:190] Creating Layer Input1
I0525 23:46:16.871206 15394 net.cpp:579] Input1 -> Input1
I0525 23:46:16.871239 15394 net.cpp:240] Setting up Input1
I0525 23:46:16.871248 15394 net.cpp:247] Top shape: 128 16 16 16 (524288)
I0525 23:46:16.871251 15394 net.cpp:255] Memory required for data: 425198080
I0525 23:46:16.871254 15394 layer_factory.hpp:77] Creating layer Concat1
I0525 23:46:16.871263 15394 net.cpp:190] Creating Layer Concat1
I0525 23:46:16.871268 15394 net.cpp:605] Concat1 <- Pooling1
I0525 23:46:16.871273 15394 net.cpp:605] Concat1 <- Input1
I0525 23:46:16.871279 15394 net.cpp:579] Concat1 -> Concat1
I0525 23:46:16.871311 15394 net.cpp:240] Setting up Concat1
I0525 23:46:16.871318 15394 net.cpp:247] Top shape: 128 32 16 16 (1048576)
I0525 23:46:16.871322 15394 net.cpp:255] Memory required for data: 429392384
I0525 23:46:16.871326 15394 layer_factory.hpp:77] Creating layer Convolution10
I0525 23:46:16.871351 15394 net.cpp:190] Creating Layer Convolution10
I0525 23:46:16.871357 15394 net.cpp:605] Convolution10 <- Eltwise4_ReLU9_0_split_1
I0525 23:46:16.871366 15394 net.cpp:579] Convolution10 -> Convolution10
I0525 23:46:16.872642 15394 net.cpp:240] Setting up Convolution10
I0525 23:46:16.872680 15394 net.cpp:247] Top shape: 128 32 16 16 (1048576)
I0525 23:46:16.872684 15394 net.cpp:255] Memory required for data: 433586688
I0525 23:46:16.872720 15394 layer_factory.hpp:77] Creating layer BatchNorm10
I0525 23:46:16.872736 15394 net.cpp:190] Creating Layer BatchNorm10
I0525 23:46:16.872743 15394 net.cpp:605] BatchNorm10 <- Convolution10
I0525 23:46:16.872753 15394 net.cpp:566] BatchNorm10 -> Convolution10 (in-place)
I0525 23:46:16.872938 15394 net.cpp:240] Setting up BatchNorm10
I0525 23:46:16.872951 15394 net.cpp:247] Top shape: 128 32 16 16 (1048576)
I0525 23:46:16.872954 15394 net.cpp:255] Memory required for data: 437780992
I0525 23:46:16.872966 15394 layer_factory.hpp:77] Creating layer Scale10
I0525 23:46:16.872975 15394 net.cpp:190] Creating Layer Scale10
I0525 23:46:16.872979 15394 net.cpp:605] Scale10 <- Convolution10
I0525 23:46:16.872990 15394 net.cpp:566] Scale10 -> Convolution10 (in-place)
I0525 23:46:16.873028 15394 layer_factory.hpp:77] Creating layer Scale10
I0525 23:46:16.873143 15394 net.cpp:240] Setting up Scale10
I0525 23:46:16.873153 15394 net.cpp:247] Top shape: 128 32 16 16 (1048576)
I0525 23:46:16.873157 15394 net.cpp:255] Memory required for data: 441975296
I0525 23:46:16.873168 15394 layer_factory.hpp:77] Creating layer ReLU10
I0525 23:46:16.873175 15394 net.cpp:190] Creating Layer ReLU10
I0525 23:46:16.873180 15394 net.cpp:605] ReLU10 <- Convolution10
I0525 23:46:16.873186 15394 net.cpp:566] ReLU10 -> Convolution10 (in-place)
I0525 23:46:16.873193 15394 net.cpp:240] Setting up ReLU10
I0525 23:46:16.873198 15394 net.cpp:247] Top shape: 128 32 16 16 (1048576)
I0525 23:46:16.873203 15394 net.cpp:255] Memory required for data: 446169600
I0525 23:46:16.873205 15394 layer_factory.hpp:77] Creating layer Convolution11
I0525 23:46:16.873220 15394 net.cpp:190] Creating Layer Convolution11
I0525 23:46:16.873224 15394 net.cpp:605] Convolution11 <- Convolution10
I0525 23:46:16.873234 15394 net.cpp:579] Convolution11 -> Convolution11
I0525 23:46:16.873800 15394 net.cpp:240] Setting up Convolution11
I0525 23:46:16.873813 15394 net.cpp:247] Top shape: 128 32 16 16 (1048576)
I0525 23:46:16.873817 15394 net.cpp:255] Memory required for data: 450363904
I0525 23:46:16.873826 15394 layer_factory.hpp:77] Creating layer BatchNorm11
I0525 23:46:16.873838 15394 net.cpp:190] Creating Layer BatchNorm11
I0525 23:46:16.873843 15394 net.cpp:605] BatchNorm11 <- Convolution11
I0525 23:46:16.873857 15394 net.cpp:566] BatchNorm11 -> Convolution11 (in-place)
I0525 23:46:16.874033 15394 net.cpp:240] Setting up BatchNorm11
I0525 23:46:16.874042 15394 net.cpp:247] Top shape: 128 32 16 16 (1048576)
I0525 23:46:16.874045 15394 net.cpp:255] Memory required for data: 454558208
I0525 23:46:16.874056 15394 layer_factory.hpp:77] Creating layer Scale11
I0525 23:46:16.874066 15394 net.cpp:190] Creating Layer Scale11
I0525 23:46:16.874070 15394 net.cpp:605] Scale11 <- Convolution11
I0525 23:46:16.874078 15394 net.cpp:566] Scale11 -> Convolution11 (in-place)
I0525 23:46:16.874114 15394 layer_factory.hpp:77] Creating layer Scale11
I0525 23:46:16.874227 15394 net.cpp:240] Setting up Scale11
I0525 23:46:16.874234 15394 net.cpp:247] Top shape: 128 32 16 16 (1048576)
I0525 23:46:16.874238 15394 net.cpp:255] Memory required for data: 458752512
I0525 23:46:16.874246 15394 layer_factory.hpp:77] Creating layer Eltwise5
I0525 23:46:16.874255 15394 net.cpp:190] Creating Layer Eltwise5
I0525 23:46:16.874260 15394 net.cpp:605] Eltwise5 <- Concat1
I0525 23:46:16.874265 15394 net.cpp:605] Eltwise5 <- Convolution11
I0525 23:46:16.874275 15394 net.cpp:579] Eltwise5 -> Eltwise5
I0525 23:46:16.874297 15394 net.cpp:240] Setting up Eltwise5
I0525 23:46:16.874305 15394 net.cpp:247] Top shape: 128 32 16 16 (1048576)
I0525 23:46:16.874308 15394 net.cpp:255] Memory required for data: 462946816
I0525 23:46:16.874320 15394 layer_factory.hpp:77] Creating layer ReLU11
I0525 23:46:16.874331 15394 net.cpp:190] Creating Layer ReLU11
I0525 23:46:16.874336 15394 net.cpp:605] ReLU11 <- Eltwise5
I0525 23:46:16.874341 15394 net.cpp:566] ReLU11 -> Eltwise5 (in-place)
I0525 23:46:16.874349 15394 net.cpp:240] Setting up ReLU11
I0525 23:46:16.874363 15394 net.cpp:247] Top shape: 128 32 16 16 (1048576)
I0525 23:46:16.874367 15394 net.cpp:255] Memory required for data: 467141120
I0525 23:46:16.874372 15394 layer_factory.hpp:77] Creating layer Eltwise5_ReLU11_0_split
I0525 23:46:16.874378 15394 net.cpp:190] Creating Layer Eltwise5_ReLU11_0_split
I0525 23:46:16.874382 15394 net.cpp:605] Eltwise5_ReLU11_0_split <- Eltwise5
I0525 23:46:16.874387 15394 net.cpp:579] Eltwise5_ReLU11_0_split -> Eltwise5_ReLU11_0_split_0
I0525 23:46:16.874398 15394 net.cpp:579] Eltwise5_ReLU11_0_split -> Eltwise5_ReLU11_0_split_1
I0525 23:46:16.874439 15394 net.cpp:240] Setting up Eltwise5_ReLU11_0_split
I0525 23:46:16.874446 15394 net.cpp:247] Top shape: 128 32 16 16 (1048576)
I0525 23:46:16.874455 15394 net.cpp:247] Top shape: 128 32 16 16 (1048576)
I0525 23:46:16.874459 15394 net.cpp:255] Memory required for data: 475529728
I0525 23:46:16.874462 15394 layer_factory.hpp:77] Creating layer Convolution12
I0525 23:46:16.874474 15394 net.cpp:190] Creating Layer Convolution12
I0525 23:46:16.874477 15394 net.cpp:605] Convolution12 <- Eltwise5_ReLU11_0_split_0
I0525 23:46:16.874485 15394 net.cpp:579] Convolution12 -> Convolution12
I0525 23:46:16.875022 15394 net.cpp:240] Setting up Convolution12
I0525 23:46:16.875036 15394 net.cpp:247] Top shape: 128 32 16 16 (1048576)
I0525 23:46:16.875039 15394 net.cpp:255] Memory required for data: 479724032
I0525 23:46:16.875049 15394 layer_factory.hpp:77] Creating layer BatchNorm12
I0525 23:46:16.875059 15394 net.cpp:190] Creating Layer BatchNorm12
I0525 23:46:16.875064 15394 net.cpp:605] BatchNorm12 <- Convolution12
I0525 23:46:16.875071 15394 net.cpp:566] BatchNorm12 -> Convolution12 (in-place)
I0525 23:46:16.875248 15394 net.cpp:240] Setting up BatchNorm12
I0525 23:46:16.875257 15394 net.cpp:247] Top shape: 128 32 16 16 (1048576)
I0525 23:46:16.875262 15394 net.cpp:255] Memory required for data: 483918336
I0525 23:46:16.875272 15394 layer_factory.hpp:77] Creating layer Scale12
I0525 23:46:16.875280 15394 net.cpp:190] Creating Layer Scale12
I0525 23:46:16.875284 15394 net.cpp:605] Scale12 <- Convolution12
I0525 23:46:16.875290 15394 net.cpp:566] Scale12 -> Convolution12 (in-place)
I0525 23:46:16.875334 15394 layer_factory.hpp:77] Creating layer Scale12
I0525 23:46:16.878415 15394 net.cpp:240] Setting up Scale12
I0525 23:46:16.878463 15394 net.cpp:247] Top shape: 128 32 16 16 (1048576)
I0525 23:46:16.878468 15394 net.cpp:255] Memory required for data: 488112640
I0525 23:46:16.878494 15394 layer_factory.hpp:77] Creating layer ReLU12
I0525 23:46:16.878512 15394 net.cpp:190] Creating Layer ReLU12
I0525 23:46:16.878520 15394 net.cpp:605] ReLU12 <- Convolution12
I0525 23:46:16.878532 15394 net.cpp:566] ReLU12 -> Convolution12 (in-place)
I0525 23:46:16.878546 15394 net.cpp:240] Setting up ReLU12
I0525 23:46:16.878552 15394 net.cpp:247] Top shape: 128 32 16 16 (1048576)
I0525 23:46:16.878556 15394 net.cpp:255] Memory required for data: 492306944
I0525 23:46:16.878559 15394 layer_factory.hpp:77] Creating layer Convolution13
I0525 23:46:16.878573 15394 net.cpp:190] Creating Layer Convolution13
I0525 23:46:16.878578 15394 net.cpp:605] Convolution13 <- Convolution12
I0525 23:46:16.878587 15394 net.cpp:579] Convolution13 -> Convolution13
I0525 23:46:16.879228 15394 net.cpp:240] Setting up Convolution13
I0525 23:46:16.879251 15394 net.cpp:247] Top shape: 128 32 16 16 (1048576)
I0525 23:46:16.879253 15394 net.cpp:255] Memory required for data: 496501248
I0525 23:46:16.879268 15394 layer_factory.hpp:77] Creating layer BatchNorm13
I0525 23:46:16.879297 15394 net.cpp:190] Creating Layer BatchNorm13
I0525 23:46:16.879304 15394 net.cpp:605] BatchNorm13 <- Convolution13
I0525 23:46:16.879314 15394 net.cpp:566] BatchNorm13 -> Convolution13 (in-place)
I0525 23:46:16.879523 15394 net.cpp:240] Setting up BatchNorm13
I0525 23:46:16.879534 15394 net.cpp:247] Top shape: 128 32 16 16 (1048576)
I0525 23:46:16.879539 15394 net.cpp:255] Memory required for data: 500695552
I0525 23:46:16.879551 15394 layer_factory.hpp:77] Creating layer Scale13
I0525 23:46:16.879562 15394 net.cpp:190] Creating Layer Scale13
I0525 23:46:16.879566 15394 net.cpp:605] Scale13 <- Convolution13
I0525 23:46:16.879576 15394 net.cpp:566] Scale13 -> Convolution13 (in-place)
I0525 23:46:16.879618 15394 layer_factory.hpp:77] Creating layer Scale13
I0525 23:46:16.879735 15394 net.cpp:240] Setting up Scale13
I0525 23:46:16.879745 15394 net.cpp:247] Top shape: 128 32 16 16 (1048576)
I0525 23:46:16.879748 15394 net.cpp:255] Memory required for data: 504889856
I0525 23:46:16.879757 15394 layer_factory.hpp:77] Creating layer Eltwise6
I0525 23:46:16.879766 15394 net.cpp:190] Creating Layer Eltwise6
I0525 23:46:16.879771 15394 net.cpp:605] Eltwise6 <- Eltwise5_ReLU11_0_split_1
I0525 23:46:16.879776 15394 net.cpp:605] Eltwise6 <- Convolution13
I0525 23:46:16.879791 15394 net.cpp:579] Eltwise6 -> Eltwise6
I0525 23:46:16.879814 15394 net.cpp:240] Setting up Eltwise6
I0525 23:46:16.879822 15394 net.cpp:247] Top shape: 128 32 16 16 (1048576)
I0525 23:46:16.879824 15394 net.cpp:255] Memory required for data: 509084160
I0525 23:46:16.879828 15394 layer_factory.hpp:77] Creating layer ReLU13
I0525 23:46:16.879837 15394 net.cpp:190] Creating Layer ReLU13
I0525 23:46:16.879842 15394 net.cpp:605] ReLU13 <- Eltwise6
I0525 23:46:16.879848 15394 net.cpp:566] ReLU13 -> Eltwise6 (in-place)
I0525 23:46:16.879853 15394 net.cpp:240] Setting up ReLU13
I0525 23:46:16.879858 15394 net.cpp:247] Top shape: 128 32 16 16 (1048576)
I0525 23:46:16.879861 15394 net.cpp:255] Memory required for data: 513278464
I0525 23:46:16.879865 15394 layer_factory.hpp:77] Creating layer Eltwise6_ReLU13_0_split
I0525 23:46:16.879873 15394 net.cpp:190] Creating Layer Eltwise6_ReLU13_0_split
I0525 23:46:16.879876 15394 net.cpp:605] Eltwise6_ReLU13_0_split <- Eltwise6
I0525 23:46:16.879881 15394 net.cpp:579] Eltwise6_ReLU13_0_split -> Eltwise6_ReLU13_0_split_0
I0525 23:46:16.879890 15394 net.cpp:579] Eltwise6_ReLU13_0_split -> Eltwise6_ReLU13_0_split_1
I0525 23:46:16.879925 15394 net.cpp:240] Setting up Eltwise6_ReLU13_0_split
I0525 23:46:16.879931 15394 net.cpp:247] Top shape: 128 32 16 16 (1048576)
I0525 23:46:16.879936 15394 net.cpp:247] Top shape: 128 32 16 16 (1048576)
I0525 23:46:16.879940 15394 net.cpp:255] Memory required for data: 521667072
I0525 23:46:16.879943 15394 layer_factory.hpp:77] Creating layer Convolution14
I0525 23:46:16.879957 15394 net.cpp:190] Creating Layer Convolution14
I0525 23:46:16.879962 15394 net.cpp:605] Convolution14 <- Eltwise6_ReLU13_0_split_0
I0525 23:46:16.879969 15394 net.cpp:579] Convolution14 -> Convolution14
I0525 23:46:16.880523 15394 net.cpp:240] Setting up Convolution14
I0525 23:46:16.880538 15394 net.cpp:247] Top shape: 128 32 16 16 (1048576)
I0525 23:46:16.880542 15394 net.cpp:255] Memory required for data: 525861376
I0525 23:46:16.880553 15394 layer_factory.hpp:77] Creating layer BatchNorm14
I0525 23:46:16.880566 15394 net.cpp:190] Creating Layer BatchNorm14
I0525 23:46:16.880570 15394 net.cpp:605] BatchNorm14 <- Convolution14
I0525 23:46:16.880578 15394 net.cpp:566] BatchNorm14 -> Convolution14 (in-place)
I0525 23:46:16.880786 15394 net.cpp:240] Setting up BatchNorm14
I0525 23:46:16.880797 15394 net.cpp:247] Top shape: 128 32 16 16 (1048576)
I0525 23:46:16.880800 15394 net.cpp:255] Memory required for data: 530055680
I0525 23:46:16.880812 15394 layer_factory.hpp:77] Creating layer Scale14
I0525 23:46:16.880825 15394 net.cpp:190] Creating Layer Scale14
I0525 23:46:16.880830 15394 net.cpp:605] Scale14 <- Convolution14
I0525 23:46:16.880834 15394 net.cpp:566] Scale14 -> Convolution14 (in-place)
I0525 23:46:16.880875 15394 layer_factory.hpp:77] Creating layer Scale14
I0525 23:46:16.880996 15394 net.cpp:240] Setting up Scale14
I0525 23:46:16.881005 15394 net.cpp:247] Top shape: 128 32 16 16 (1048576)
I0525 23:46:16.881016 15394 net.cpp:255] Memory required for data: 534249984
I0525 23:46:16.881026 15394 layer_factory.hpp:77] Creating layer ReLU14
I0525 23:46:16.881036 15394 net.cpp:190] Creating Layer ReLU14
I0525 23:46:16.881041 15394 net.cpp:605] ReLU14 <- Convolution14
I0525 23:46:16.881047 15394 net.cpp:566] ReLU14 -> Convolution14 (in-place)
I0525 23:46:16.881053 15394 net.cpp:240] Setting up ReLU14
I0525 23:46:16.881058 15394 net.cpp:247] Top shape: 128 32 16 16 (1048576)
I0525 23:46:16.881062 15394 net.cpp:255] Memory required for data: 538444288
I0525 23:46:16.881065 15394 layer_factory.hpp:77] Creating layer Convolution15
I0525 23:46:16.881078 15394 net.cpp:190] Creating Layer Convolution15
I0525 23:46:16.881083 15394 net.cpp:605] Convolution15 <- Convolution14
I0525 23:46:16.881088 15394 net.cpp:579] Convolution15 -> Convolution15
I0525 23:46:16.881628 15394 net.cpp:240] Setting up Convolution15
I0525 23:46:16.881644 15394 net.cpp:247] Top shape: 128 32 16 16 (1048576)
I0525 23:46:16.881647 15394 net.cpp:255] Memory required for data: 542638592
I0525 23:46:16.881656 15394 layer_factory.hpp:77] Creating layer BatchNorm15
I0525 23:46:16.881667 15394 net.cpp:190] Creating Layer BatchNorm15
I0525 23:46:16.881674 15394 net.cpp:605] BatchNorm15 <- Convolution15
I0525 23:46:16.881680 15394 net.cpp:566] BatchNorm15 -> Convolution15 (in-place)
I0525 23:46:16.881860 15394 net.cpp:240] Setting up BatchNorm15
I0525 23:46:16.881868 15394 net.cpp:247] Top shape: 128 32 16 16 (1048576)
I0525 23:46:16.881872 15394 net.cpp:255] Memory required for data: 546832896
I0525 23:46:16.881886 15394 layer_factory.hpp:77] Creating layer Scale15
I0525 23:46:16.881894 15394 net.cpp:190] Creating Layer Scale15
I0525 23:46:16.881899 15394 net.cpp:605] Scale15 <- Convolution15
I0525 23:46:16.881904 15394 net.cpp:566] Scale15 -> Convolution15 (in-place)
I0525 23:46:16.881943 15394 layer_factory.hpp:77] Creating layer Scale15
I0525 23:46:16.882061 15394 net.cpp:240] Setting up Scale15
I0525 23:46:16.882069 15394 net.cpp:247] Top shape: 128 32 16 16 (1048576)
I0525 23:46:16.882073 15394 net.cpp:255] Memory required for data: 551027200
I0525 23:46:16.882084 15394 layer_factory.hpp:77] Creating layer Eltwise7
I0525 23:46:16.882093 15394 net.cpp:190] Creating Layer Eltwise7
I0525 23:46:16.882099 15394 net.cpp:605] Eltwise7 <- Eltwise6_ReLU13_0_split_1
I0525 23:46:16.882105 15394 net.cpp:605] Eltwise7 <- Convolution15
I0525 23:46:16.882113 15394 net.cpp:579] Eltwise7 -> Eltwise7
I0525 23:46:16.882138 15394 net.cpp:240] Setting up Eltwise7
I0525 23:46:16.882144 15394 net.cpp:247] Top shape: 128 32 16 16 (1048576)
I0525 23:46:16.882148 15394 net.cpp:255] Memory required for data: 555221504
I0525 23:46:16.882151 15394 layer_factory.hpp:77] Creating layer ReLU15
I0525 23:46:16.882158 15394 net.cpp:190] Creating Layer ReLU15
I0525 23:46:16.882163 15394 net.cpp:605] ReLU15 <- Eltwise7
I0525 23:46:16.882170 15394 net.cpp:566] ReLU15 -> Eltwise7 (in-place)
I0525 23:46:16.882177 15394 net.cpp:240] Setting up ReLU15
I0525 23:46:16.882182 15394 net.cpp:247] Top shape: 128 32 16 16 (1048576)
I0525 23:46:16.882186 15394 net.cpp:255] Memory required for data: 559415808
I0525 23:46:16.882189 15394 layer_factory.hpp:77] Creating layer Eltwise7_ReLU15_0_split
I0525 23:46:16.882196 15394 net.cpp:190] Creating Layer Eltwise7_ReLU15_0_split
I0525 23:46:16.882200 15394 net.cpp:605] Eltwise7_ReLU15_0_split <- Eltwise7
I0525 23:46:16.882205 15394 net.cpp:579] Eltwise7_ReLU15_0_split -> Eltwise7_ReLU15_0_split_0
I0525 23:46:16.882212 15394 net.cpp:579] Eltwise7_ReLU15_0_split -> Eltwise7_ReLU15_0_split_1
I0525 23:46:16.882248 15394 net.cpp:240] Setting up Eltwise7_ReLU15_0_split
I0525 23:46:16.882256 15394 net.cpp:247] Top shape: 128 32 16 16 (1048576)
I0525 23:46:16.882261 15394 net.cpp:247] Top shape: 128 32 16 16 (1048576)
I0525 23:46:16.882264 15394 net.cpp:255] Memory required for data: 567804416
I0525 23:46:16.882268 15394 layer_factory.hpp:77] Creating layer Convolution16
I0525 23:46:16.882278 15394 net.cpp:190] Creating Layer Convolution16
I0525 23:46:16.882290 15394 net.cpp:605] Convolution16 <- Eltwise7_ReLU15_0_split_0
I0525 23:46:16.882302 15394 net.cpp:579] Convolution16 -> Convolution16
I0525 23:46:16.886418 15394 net.cpp:240] Setting up Convolution16
I0525 23:46:16.886472 15394 net.cpp:247] Top shape: 128 32 16 16 (1048576)
I0525 23:46:16.886476 15394 net.cpp:255] Memory required for data: 571998720
I0525 23:46:16.886499 15394 layer_factory.hpp:77] Creating layer BatchNorm16
I0525 23:46:16.886514 15394 net.cpp:190] Creating Layer BatchNorm16
I0525 23:46:16.886523 15394 net.cpp:605] BatchNorm16 <- Convolution16
I0525 23:46:16.886535 15394 net.cpp:566] BatchNorm16 -> Convolution16 (in-place)
I0525 23:46:16.886790 15394 net.cpp:240] Setting up BatchNorm16
I0525 23:46:16.886801 15394 net.cpp:247] Top shape: 128 32 16 16 (1048576)
I0525 23:46:16.886806 15394 net.cpp:255] Memory required for data: 576193024
I0525 23:46:16.886817 15394 layer_factory.hpp:77] Creating layer Scale16
I0525 23:46:16.886828 15394 net.cpp:190] Creating Layer Scale16
I0525 23:46:16.886833 15394 net.cpp:605] Scale16 <- Convolution16
I0525 23:46:16.886840 15394 net.cpp:566] Scale16 -> Convolution16 (in-place)
I0525 23:46:16.886886 15394 layer_factory.hpp:77] Creating layer Scale16
I0525 23:46:16.887006 15394 net.cpp:240] Setting up Scale16
I0525 23:46:16.887017 15394 net.cpp:247] Top shape: 128 32 16 16 (1048576)
I0525 23:46:16.887019 15394 net.cpp:255] Memory required for data: 580387328
I0525 23:46:16.887029 15394 layer_factory.hpp:77] Creating layer ReLU16
I0525 23:46:16.887039 15394 net.cpp:190] Creating Layer ReLU16
I0525 23:46:16.887045 15394 net.cpp:605] ReLU16 <- Convolution16
I0525 23:46:16.887051 15394 net.cpp:566] ReLU16 -> Convolution16 (in-place)
I0525 23:46:16.887059 15394 net.cpp:240] Setting up ReLU16
I0525 23:46:16.887064 15394 net.cpp:247] Top shape: 128 32 16 16 (1048576)
I0525 23:46:16.887068 15394 net.cpp:255] Memory required for data: 584581632
I0525 23:46:16.887073 15394 layer_factory.hpp:77] Creating layer Convolution17
I0525 23:46:16.887086 15394 net.cpp:190] Creating Layer Convolution17
I0525 23:46:16.887090 15394 net.cpp:605] Convolution17 <- Convolution16
I0525 23:46:16.887099 15394 net.cpp:579] Convolution17 -> Convolution17
I0525 23:46:16.887673 15394 net.cpp:240] Setting up Convolution17
I0525 23:46:16.887688 15394 net.cpp:247] Top shape: 128 32 16 16 (1048576)
I0525 23:46:16.887692 15394 net.cpp:255] Memory required for data: 588775936
I0525 23:46:16.887701 15394 layer_factory.hpp:77] Creating layer BatchNorm17
I0525 23:46:16.887712 15394 net.cpp:190] Creating Layer BatchNorm17
I0525 23:46:16.887717 15394 net.cpp:605] BatchNorm17 <- Convolution17
I0525 23:46:16.887724 15394 net.cpp:566] BatchNorm17 -> Convolution17 (in-place)
I0525 23:46:16.887922 15394 net.cpp:240] Setting up BatchNorm17
I0525 23:46:16.887931 15394 net.cpp:247] Top shape: 128 32 16 16 (1048576)
I0525 23:46:16.887934 15394 net.cpp:255] Memory required for data: 592970240
I0525 23:46:16.887946 15394 layer_factory.hpp:77] Creating layer Scale17
I0525 23:46:16.887956 15394 net.cpp:190] Creating Layer Scale17
I0525 23:46:16.887960 15394 net.cpp:605] Scale17 <- Convolution17
I0525 23:46:16.887969 15394 net.cpp:566] Scale17 -> Convolution17 (in-place)
I0525 23:46:16.888005 15394 layer_factory.hpp:77] Creating layer Scale17
I0525 23:46:16.888118 15394 net.cpp:240] Setting up Scale17
I0525 23:46:16.888128 15394 net.cpp:247] Top shape: 128 32 16 16 (1048576)
I0525 23:46:16.888133 15394 net.cpp:255] Memory required for data: 597164544
I0525 23:46:16.888141 15394 layer_factory.hpp:77] Creating layer Eltwise8
I0525 23:46:16.888150 15394 net.cpp:190] Creating Layer Eltwise8
I0525 23:46:16.888157 15394 net.cpp:605] Eltwise8 <- Eltwise7_ReLU15_0_split_1
I0525 23:46:16.888162 15394 net.cpp:605] Eltwise8 <- Convolution17
I0525 23:46:16.888170 15394 net.cpp:579] Eltwise8 -> Eltwise8
I0525 23:46:16.888206 15394 net.cpp:240] Setting up Eltwise8
I0525 23:46:16.888212 15394 net.cpp:247] Top shape: 128 32 16 16 (1048576)
I0525 23:46:16.888216 15394 net.cpp:255] Memory required for data: 601358848
I0525 23:46:16.888228 15394 layer_factory.hpp:77] Creating layer ReLU17
I0525 23:46:16.888236 15394 net.cpp:190] Creating Layer ReLU17
I0525 23:46:16.888241 15394 net.cpp:605] ReLU17 <- Eltwise8
I0525 23:46:16.888248 15394 net.cpp:566] ReLU17 -> Eltwise8 (in-place)
I0525 23:46:16.888255 15394 net.cpp:240] Setting up ReLU17
I0525 23:46:16.888262 15394 net.cpp:247] Top shape: 128 32 16 16 (1048576)
I0525 23:46:16.888264 15394 net.cpp:255] Memory required for data: 605553152
I0525 23:46:16.888268 15394 layer_factory.hpp:77] Creating layer Eltwise8_ReLU17_0_split
I0525 23:46:16.888274 15394 net.cpp:190] Creating Layer Eltwise8_ReLU17_0_split
I0525 23:46:16.888278 15394 net.cpp:605] Eltwise8_ReLU17_0_split <- Eltwise8
I0525 23:46:16.888283 15394 net.cpp:579] Eltwise8_ReLU17_0_split -> Eltwise8_ReLU17_0_split_0
I0525 23:46:16.888290 15394 net.cpp:579] Eltwise8_ReLU17_0_split -> Eltwise8_ReLU17_0_split_1
I0525 23:46:16.888329 15394 net.cpp:240] Setting up Eltwise8_ReLU17_0_split
I0525 23:46:16.888335 15394 net.cpp:247] Top shape: 128 32 16 16 (1048576)
I0525 23:46:16.888339 15394 net.cpp:247] Top shape: 128 32 16 16 (1048576)
I0525 23:46:16.888342 15394 net.cpp:255] Memory required for data: 613941760
I0525 23:46:16.888346 15394 layer_factory.hpp:77] Creating layer Convolution18
I0525 23:46:16.888360 15394 net.cpp:190] Creating Layer Convolution18
I0525 23:46:16.888365 15394 net.cpp:605] Convolution18 <- Eltwise8_ReLU17_0_split_0
I0525 23:46:16.888371 15394 net.cpp:579] Convolution18 -> Convolution18
I0525 23:46:16.888916 15394 net.cpp:240] Setting up Convolution18
I0525 23:46:16.888926 15394 net.cpp:247] Top shape: 128 32 16 16 (1048576)
I0525 23:46:16.888931 15394 net.cpp:255] Memory required for data: 618136064
I0525 23:46:16.888942 15394 layer_factory.hpp:77] Creating layer BatchNorm18
I0525 23:46:16.888962 15394 net.cpp:190] Creating Layer BatchNorm18
I0525 23:46:16.888967 15394 net.cpp:605] BatchNorm18 <- Convolution18
I0525 23:46:16.888974 15394 net.cpp:566] BatchNorm18 -> Convolution18 (in-place)
I0525 23:46:16.889149 15394 net.cpp:240] Setting up BatchNorm18
I0525 23:46:16.889158 15394 net.cpp:247] Top shape: 128 32 16 16 (1048576)
I0525 23:46:16.889163 15394 net.cpp:255] Memory required for data: 622330368
I0525 23:46:16.889173 15394 layer_factory.hpp:77] Creating layer Scale18
I0525 23:46:16.889186 15394 net.cpp:190] Creating Layer Scale18
I0525 23:46:16.889190 15394 net.cpp:605] Scale18 <- Convolution18
I0525 23:46:16.889196 15394 net.cpp:566] Scale18 -> Convolution18 (in-place)
I0525 23:46:16.889235 15394 layer_factory.hpp:77] Creating layer Scale18
I0525 23:46:16.889351 15394 net.cpp:240] Setting up Scale18
I0525 23:46:16.889360 15394 net.cpp:247] Top shape: 128 32 16 16 (1048576)
I0525 23:46:16.889364 15394 net.cpp:255] Memory required for data: 626524672
I0525 23:46:16.889372 15394 layer_factory.hpp:77] Creating layer ReLU18
I0525 23:46:16.889379 15394 net.cpp:190] Creating Layer ReLU18
I0525 23:46:16.889384 15394 net.cpp:605] ReLU18 <- Convolution18
I0525 23:46:16.889391 15394 net.cpp:566] ReLU18 -> Convolution18 (in-place)
I0525 23:46:16.889400 15394 net.cpp:240] Setting up ReLU18
I0525 23:46:16.889405 15394 net.cpp:247] Top shape: 128 32 16 16 (1048576)
I0525 23:46:16.889407 15394 net.cpp:255] Memory required for data: 630718976
I0525 23:46:16.889411 15394 layer_factory.hpp:77] Creating layer Convolution19
I0525 23:46:16.889423 15394 net.cpp:190] Creating Layer Convolution19
I0525 23:46:16.889428 15394 net.cpp:605] Convolution19 <- Convolution18
I0525 23:46:16.889435 15394 net.cpp:579] Convolution19 -> Convolution19
I0525 23:46:16.889969 15394 net.cpp:240] Setting up Convolution19
I0525 23:46:16.889982 15394 net.cpp:247] Top shape: 128 32 16 16 (1048576)
I0525 23:46:16.889986 15394 net.cpp:255] Memory required for data: 634913280
I0525 23:46:16.889994 15394 layer_factory.hpp:77] Creating layer BatchNorm19
I0525 23:46:16.890005 15394 net.cpp:190] Creating Layer BatchNorm19
I0525 23:46:16.890009 15394 net.cpp:605] BatchNorm19 <- Convolution19
I0525 23:46:16.890015 15394 net.cpp:566] BatchNorm19 -> Convolution19 (in-place)
I0525 23:46:16.890213 15394 net.cpp:240] Setting up BatchNorm19
I0525 23:46:16.890224 15394 net.cpp:247] Top shape: 128 32 16 16 (1048576)
I0525 23:46:16.890228 15394 net.cpp:255] Memory required for data: 639107584
I0525 23:46:16.890269 15394 layer_factory.hpp:77] Creating layer Scale19
I0525 23:46:16.890288 15394 net.cpp:190] Creating Layer Scale19
I0525 23:46:16.890293 15394 net.cpp:605] Scale19 <- Convolution19
I0525 23:46:16.890300 15394 net.cpp:566] Scale19 -> Convolution19 (in-place)
I0525 23:46:16.890339 15394 layer_factory.hpp:77] Creating layer Scale19
I0525 23:46:16.890475 15394 net.cpp:240] Setting up Scale19
I0525 23:46:16.890485 15394 net.cpp:247] Top shape: 128 32 16 16 (1048576)
I0525 23:46:16.890488 15394 net.cpp:255] Memory required for data: 643301888
I0525 23:46:16.890496 15394 layer_factory.hpp:77] Creating layer Eltwise9
I0525 23:46:16.890506 15394 net.cpp:190] Creating Layer Eltwise9
I0525 23:46:16.890511 15394 net.cpp:605] Eltwise9 <- Eltwise8_ReLU17_0_split_1
I0525 23:46:16.890516 15394 net.cpp:605] Eltwise9 <- Convolution19
I0525 23:46:16.890522 15394 net.cpp:579] Eltwise9 -> Eltwise9
I0525 23:46:16.890547 15394 net.cpp:240] Setting up Eltwise9
I0525 23:46:16.890555 15394 net.cpp:247] Top shape: 128 32 16 16 (1048576)
I0525 23:46:16.890558 15394 net.cpp:255] Memory required for data: 647496192
I0525 23:46:16.890563 15394 layer_factory.hpp:77] Creating layer ReLU19
I0525 23:46:16.890569 15394 net.cpp:190] Creating Layer ReLU19
I0525 23:46:16.890575 15394 net.cpp:605] ReLU19 <- Eltwise9
I0525 23:46:16.890580 15394 net.cpp:566] ReLU19 -> Eltwise9 (in-place)
I0525 23:46:16.890588 15394 net.cpp:240] Setting up ReLU19
I0525 23:46:16.890593 15394 net.cpp:247] Top shape: 128 32 16 16 (1048576)
I0525 23:46:16.890596 15394 net.cpp:255] Memory required for data: 651690496
I0525 23:46:16.890600 15394 layer_factory.hpp:77] Creating layer Eltwise9_ReLU19_0_split
I0525 23:46:16.890609 15394 net.cpp:190] Creating Layer Eltwise9_ReLU19_0_split
I0525 23:46:16.890612 15394 net.cpp:605] Eltwise9_ReLU19_0_split <- Eltwise9
I0525 23:46:16.890617 15394 net.cpp:579] Eltwise9_ReLU19_0_split -> Eltwise9_ReLU19_0_split_0
I0525 23:46:16.890626 15394 net.cpp:579] Eltwise9_ReLU19_0_split -> Eltwise9_ReLU19_0_split_1
I0525 23:46:16.890666 15394 net.cpp:240] Setting up Eltwise9_ReLU19_0_split
I0525 23:46:16.890673 15394 net.cpp:247] Top shape: 128 32 16 16 (1048576)
I0525 23:46:16.890678 15394 net.cpp:247] Top shape: 128 32 16 16 (1048576)
I0525 23:46:16.890681 15394 net.cpp:255] Memory required for data: 660079104
I0525 23:46:16.890684 15394 layer_factory.hpp:77] Creating layer Pooling2
I0525 23:46:16.890696 15394 net.cpp:190] Creating Layer Pooling2
I0525 23:46:16.890700 15394 net.cpp:605] Pooling2 <- Eltwise9_ReLU19_0_split_0
I0525 23:46:16.890707 15394 net.cpp:579] Pooling2 -> Pooling2
I0525 23:46:16.890730 15394 net.cpp:240] Setting up Pooling2
I0525 23:46:16.890738 15394 net.cpp:247] Top shape: 128 32 8 8 (262144)
I0525 23:46:16.890740 15394 net.cpp:255] Memory required for data: 661127680
I0525 23:46:16.890744 15394 layer_factory.hpp:77] Creating layer Input2
I0525 23:46:16.890754 15394 net.cpp:190] Creating Layer Input2
I0525 23:46:16.890763 15394 net.cpp:579] Input2 -> Input2
I0525 23:46:16.890791 15394 net.cpp:240] Setting up Input2
I0525 23:46:16.890797 15394 net.cpp:247] Top shape: 128 32 8 8 (262144)
I0525 23:46:16.890800 15394 net.cpp:255] Memory required for data: 662176256
I0525 23:46:16.890805 15394 layer_factory.hpp:77] Creating layer Concat2
I0525 23:46:16.890812 15394 net.cpp:190] Creating Layer Concat2
I0525 23:46:16.890816 15394 net.cpp:605] Concat2 <- Pooling2
I0525 23:46:16.890821 15394 net.cpp:605] Concat2 <- Input2
I0525 23:46:16.890828 15394 net.cpp:579] Concat2 -> Concat2
I0525 23:46:16.890856 15394 net.cpp:240] Setting up Concat2
I0525 23:46:16.890863 15394 net.cpp:247] Top shape: 128 64 8 8 (524288)
I0525 23:46:16.890866 15394 net.cpp:255] Memory required for data: 664273408
I0525 23:46:16.890871 15394 layer_factory.hpp:77] Creating layer Convolution20
I0525 23:46:16.890883 15394 net.cpp:190] Creating Layer Convolution20
I0525 23:46:16.890895 15394 net.cpp:605] Convolution20 <- Eltwise9_ReLU19_0_split_1
I0525 23:46:16.890907 15394 net.cpp:579] Convolution20 -> Convolution20
I0525 23:46:16.892737 15394 net.cpp:240] Setting up Convolution20
I0525 23:46:16.892789 15394 net.cpp:247] Top shape: 128 64 8 8 (524288)
I0525 23:46:16.892794 15394 net.cpp:255] Memory required for data: 666370560
I0525 23:46:16.892812 15394 layer_factory.hpp:77] Creating layer BatchNorm20
I0525 23:46:16.892830 15394 net.cpp:190] Creating Layer BatchNorm20
I0525 23:46:16.892840 15394 net.cpp:605] BatchNorm20 <- Convolution20
I0525 23:46:16.892849 15394 net.cpp:566] BatchNorm20 -> Convolution20 (in-place)
I0525 23:46:16.893085 15394 net.cpp:240] Setting up BatchNorm20
I0525 23:46:16.893098 15394 net.cpp:247] Top shape: 128 64 8 8 (524288)
I0525 23:46:16.893102 15394 net.cpp:255] Memory required for data: 668467712
I0525 23:46:16.893115 15394 layer_factory.hpp:77] Creating layer Scale20
I0525 23:46:16.893126 15394 net.cpp:190] Creating Layer Scale20
I0525 23:46:16.893131 15394 net.cpp:605] Scale20 <- Convolution20
I0525 23:46:16.893136 15394 net.cpp:566] Scale20 -> Convolution20 (in-place)
I0525 23:46:16.900354 15394 layer_factory.hpp:77] Creating layer Scale20
I0525 23:46:16.900626 15394 net.cpp:240] Setting up Scale20
I0525 23:46:16.900645 15394 net.cpp:247] Top shape: 128 64 8 8 (524288)
I0525 23:46:16.900648 15394 net.cpp:255] Memory required for data: 670564864
I0525 23:46:16.900666 15394 layer_factory.hpp:77] Creating layer ReLU20
I0525 23:46:16.900677 15394 net.cpp:190] Creating Layer ReLU20
I0525 23:46:16.900687 15394 net.cpp:605] ReLU20 <- Convolution20
I0525 23:46:16.900696 15394 net.cpp:566] ReLU20 -> Convolution20 (in-place)
I0525 23:46:16.900707 15394 net.cpp:240] Setting up ReLU20
I0525 23:46:16.900712 15394 net.cpp:247] Top shape: 128 64 8 8 (524288)
I0525 23:46:16.900715 15394 net.cpp:255] Memory required for data: 672662016
I0525 23:46:16.900718 15394 layer_factory.hpp:77] Creating layer Convolution21
I0525 23:46:16.900733 15394 net.cpp:190] Creating Layer Convolution21
I0525 23:46:16.900738 15394 net.cpp:605] Convolution21 <- Convolution20
I0525 23:46:16.900746 15394 net.cpp:579] Convolution21 -> Convolution21
I0525 23:46:16.902334 15394 net.cpp:240] Setting up Convolution21
I0525 23:46:16.902393 15394 net.cpp:247] Top shape: 128 64 8 8 (524288)
I0525 23:46:16.902398 15394 net.cpp:255] Memory required for data: 674759168
I0525 23:46:16.902415 15394 layer_factory.hpp:77] Creating layer BatchNorm21
I0525 23:46:16.902429 15394 net.cpp:190] Creating Layer BatchNorm21
I0525 23:46:16.902436 15394 net.cpp:605] BatchNorm21 <- Convolution21
I0525 23:46:16.902451 15394 net.cpp:566] BatchNorm21 -> Convolution21 (in-place)
I0525 23:46:16.902660 15394 net.cpp:240] Setting up BatchNorm21
I0525 23:46:16.902672 15394 net.cpp:247] Top shape: 128 64 8 8 (524288)
I0525 23:46:16.902675 15394 net.cpp:255] Memory required for data: 676856320
I0525 23:46:16.902689 15394 layer_factory.hpp:77] Creating layer Scale21
I0525 23:46:16.902699 15394 net.cpp:190] Creating Layer Scale21
I0525 23:46:16.902704 15394 net.cpp:605] Scale21 <- Convolution21
I0525 23:46:16.902711 15394 net.cpp:566] Scale21 -> Convolution21 (in-place)
I0525 23:46:16.902753 15394 layer_factory.hpp:77] Creating layer Scale21
I0525 23:46:16.902878 15394 net.cpp:240] Setting up Scale21
I0525 23:46:16.902886 15394 net.cpp:247] Top shape: 128 64 8 8 (524288)
I0525 23:46:16.902890 15394 net.cpp:255] Memory required for data: 678953472
I0525 23:46:16.902899 15394 layer_factory.hpp:77] Creating layer Eltwise10
I0525 23:46:16.902909 15394 net.cpp:190] Creating Layer Eltwise10
I0525 23:46:16.902914 15394 net.cpp:605] Eltwise10 <- Concat2
I0525 23:46:16.902920 15394 net.cpp:605] Eltwise10 <- Convolution21
I0525 23:46:16.902935 15394 net.cpp:579] Eltwise10 -> Eltwise10
I0525 23:46:16.902961 15394 net.cpp:240] Setting up Eltwise10
I0525 23:46:16.902967 15394 net.cpp:247] Top shape: 128 64 8 8 (524288)
I0525 23:46:16.902971 15394 net.cpp:255] Memory required for data: 681050624
I0525 23:46:16.902987 15394 layer_factory.hpp:77] Creating layer ReLU21
I0525 23:46:16.902998 15394 net.cpp:190] Creating Layer ReLU21
I0525 23:46:16.903003 15394 net.cpp:605] ReLU21 <- Eltwise10
I0525 23:46:16.903009 15394 net.cpp:566] ReLU21 -> Eltwise10 (in-place)
I0525 23:46:16.903017 15394 net.cpp:240] Setting up ReLU21
I0525 23:46:16.903022 15394 net.cpp:247] Top shape: 128 64 8 8 (524288)
I0525 23:46:16.903025 15394 net.cpp:255] Memory required for data: 683147776
I0525 23:46:16.903028 15394 layer_factory.hpp:77] Creating layer Eltwise10_ReLU21_0_split
I0525 23:46:16.903035 15394 net.cpp:190] Creating Layer Eltwise10_ReLU21_0_split
I0525 23:46:16.903039 15394 net.cpp:605] Eltwise10_ReLU21_0_split <- Eltwise10
I0525 23:46:16.903048 15394 net.cpp:579] Eltwise10_ReLU21_0_split -> Eltwise10_ReLU21_0_split_0
I0525 23:46:16.903055 15394 net.cpp:579] Eltwise10_ReLU21_0_split -> Eltwise10_ReLU21_0_split_1
I0525 23:46:16.903091 15394 net.cpp:240] Setting up Eltwise10_ReLU21_0_split
I0525 23:46:16.903098 15394 net.cpp:247] Top shape: 128 64 8 8 (524288)
I0525 23:46:16.903102 15394 net.cpp:247] Top shape: 128 64 8 8 (524288)
I0525 23:46:16.903105 15394 net.cpp:255] Memory required for data: 687342080
I0525 23:46:16.903110 15394 layer_factory.hpp:77] Creating layer Convolution22
I0525 23:46:16.903123 15394 net.cpp:190] Creating Layer Convolution22
I0525 23:46:16.903128 15394 net.cpp:605] Convolution22 <- Eltwise10_ReLU21_0_split_0
I0525 23:46:16.903136 15394 net.cpp:579] Convolution22 -> Convolution22
I0525 23:46:16.904716 15394 net.cpp:240] Setting up Convolution22
I0525 23:46:16.904752 15394 net.cpp:247] Top shape: 128 64 8 8 (524288)
I0525 23:46:16.904758 15394 net.cpp:255] Memory required for data: 689439232
I0525 23:46:16.904775 15394 layer_factory.hpp:77] Creating layer BatchNorm22
I0525 23:46:16.904790 15394 net.cpp:190] Creating Layer BatchNorm22
I0525 23:46:16.904798 15394 net.cpp:605] BatchNorm22 <- Convolution22
I0525 23:46:16.904806 15394 net.cpp:566] BatchNorm22 -> Convolution22 (in-place)
I0525 23:46:16.905024 15394 net.cpp:240] Setting up BatchNorm22
I0525 23:46:16.905036 15394 net.cpp:247] Top shape: 128 64 8 8 (524288)
I0525 23:46:16.905040 15394 net.cpp:255] Memory required for data: 691536384
I0525 23:46:16.905051 15394 layer_factory.hpp:77] Creating layer Scale22
I0525 23:46:16.905062 15394 net.cpp:190] Creating Layer Scale22
I0525 23:46:16.905067 15394 net.cpp:605] Scale22 <- Convolution22
I0525 23:46:16.905074 15394 net.cpp:566] Scale22 -> Convolution22 (in-place)
I0525 23:46:16.905120 15394 layer_factory.hpp:77] Creating layer Scale22
I0525 23:46:16.905244 15394 net.cpp:240] Setting up Scale22
I0525 23:46:16.905253 15394 net.cpp:247] Top shape: 128 64 8 8 (524288)
I0525 23:46:16.905256 15394 net.cpp:255] Memory required for data: 693633536
I0525 23:46:16.905266 15394 layer_factory.hpp:77] Creating layer ReLU22
I0525 23:46:16.905277 15394 net.cpp:190] Creating Layer ReLU22
I0525 23:46:16.905282 15394 net.cpp:605] ReLU22 <- Convolution22
I0525 23:46:16.905287 15394 net.cpp:566] ReLU22 -> Convolution22 (in-place)
I0525 23:46:16.905294 15394 net.cpp:240] Setting up ReLU22
I0525 23:46:16.905299 15394 net.cpp:247] Top shape: 128 64 8 8 (524288)
I0525 23:46:16.905303 15394 net.cpp:255] Memory required for data: 695730688
I0525 23:46:16.905306 15394 layer_factory.hpp:77] Creating layer Convolution23
I0525 23:46:16.905321 15394 net.cpp:190] Creating Layer Convolution23
I0525 23:46:16.905325 15394 net.cpp:605] Convolution23 <- Convolution22
I0525 23:46:16.905335 15394 net.cpp:579] Convolution23 -> Convolution23
I0525 23:46:16.906909 15394 net.cpp:240] Setting up Convolution23
I0525 23:46:16.906952 15394 net.cpp:247] Top shape: 128 64 8 8 (524288)
I0525 23:46:16.906957 15394 net.cpp:255] Memory required for data: 697827840
I0525 23:46:16.906973 15394 layer_factory.hpp:77] Creating layer BatchNorm23
I0525 23:46:16.906986 15394 net.cpp:190] Creating Layer BatchNorm23
I0525 23:46:16.906993 15394 net.cpp:605] BatchNorm23 <- Convolution23
I0525 23:46:16.907004 15394 net.cpp:566] BatchNorm23 -> Convolution23 (in-place)
I0525 23:46:16.907222 15394 net.cpp:240] Setting up BatchNorm23
I0525 23:46:16.907234 15394 net.cpp:247] Top shape: 128 64 8 8 (524288)
I0525 23:46:16.907238 15394 net.cpp:255] Memory required for data: 699924992
I0525 23:46:16.907253 15394 layer_factory.hpp:77] Creating layer Scale23
I0525 23:46:16.907265 15394 net.cpp:190] Creating Layer Scale23
I0525 23:46:16.907270 15394 net.cpp:605] Scale23 <- Convolution23
I0525 23:46:16.907277 15394 net.cpp:566] Scale23 -> Convolution23 (in-place)
I0525 23:46:16.907318 15394 layer_factory.hpp:77] Creating layer Scale23
I0525 23:46:16.907444 15394 net.cpp:240] Setting up Scale23
I0525 23:46:16.907454 15394 net.cpp:247] Top shape: 128 64 8 8 (524288)
I0525 23:46:16.907457 15394 net.cpp:255] Memory required for data: 702022144
I0525 23:46:16.907465 15394 layer_factory.hpp:77] Creating layer Eltwise11
I0525 23:46:16.907476 15394 net.cpp:190] Creating Layer Eltwise11
I0525 23:46:16.907483 15394 net.cpp:605] Eltwise11 <- Eltwise10_ReLU21_0_split_1
I0525 23:46:16.907488 15394 net.cpp:605] Eltwise11 <- Convolution23
I0525 23:46:16.907496 15394 net.cpp:579] Eltwise11 -> Eltwise11
I0525 23:46:16.907522 15394 net.cpp:240] Setting up Eltwise11
I0525 23:46:16.907529 15394 net.cpp:247] Top shape: 128 64 8 8 (524288)
I0525 23:46:16.907533 15394 net.cpp:255] Memory required for data: 704119296
I0525 23:46:16.907537 15394 layer_factory.hpp:77] Creating layer ReLU23
I0525 23:46:16.907544 15394 net.cpp:190] Creating Layer ReLU23
I0525 23:46:16.907548 15394 net.cpp:605] ReLU23 <- Eltwise11
I0525 23:46:16.907554 15394 net.cpp:566] ReLU23 -> Eltwise11 (in-place)
I0525 23:46:16.907562 15394 net.cpp:240] Setting up ReLU23
I0525 23:46:16.907567 15394 net.cpp:247] Top shape: 128 64 8 8 (524288)
I0525 23:46:16.907569 15394 net.cpp:255] Memory required for data: 706216448
I0525 23:46:16.907573 15394 layer_factory.hpp:77] Creating layer Eltwise11_ReLU23_0_split
I0525 23:46:16.907580 15394 net.cpp:190] Creating Layer Eltwise11_ReLU23_0_split
I0525 23:46:16.907583 15394 net.cpp:605] Eltwise11_ReLU23_0_split <- Eltwise11
I0525 23:46:16.907591 15394 net.cpp:579] Eltwise11_ReLU23_0_split -> Eltwise11_ReLU23_0_split_0
I0525 23:46:16.907609 15394 net.cpp:579] Eltwise11_ReLU23_0_split -> Eltwise11_ReLU23_0_split_1
I0525 23:46:16.907649 15394 net.cpp:240] Setting up Eltwise11_ReLU23_0_split
I0525 23:46:16.907656 15394 net.cpp:247] Top shape: 128 64 8 8 (524288)
I0525 23:46:16.907661 15394 net.cpp:247] Top shape: 128 64 8 8 (524288)
I0525 23:46:16.907665 15394 net.cpp:255] Memory required for data: 710410752
I0525 23:46:16.907668 15394 layer_factory.hpp:77] Creating layer Convolution24
I0525 23:46:16.907682 15394 net.cpp:190] Creating Layer Convolution24
I0525 23:46:16.907687 15394 net.cpp:605] Convolution24 <- Eltwise11_ReLU23_0_split_0
I0525 23:46:16.907694 15394 net.cpp:579] Convolution24 -> Convolution24
I0525 23:46:16.909276 15394 net.cpp:240] Setting up Convolution24
I0525 23:46:16.909312 15394 net.cpp:247] Top shape: 128 64 8 8 (524288)
I0525 23:46:16.909317 15394 net.cpp:255] Memory required for data: 712507904
I0525 23:46:16.909333 15394 layer_factory.hpp:77] Creating layer BatchNorm24
I0525 23:46:16.909348 15394 net.cpp:190] Creating Layer BatchNorm24
I0525 23:46:16.909356 15394 net.cpp:605] BatchNorm24 <- Convolution24
I0525 23:46:16.909368 15394 net.cpp:566] BatchNorm24 -> Convolution24 (in-place)
I0525 23:46:16.909569 15394 net.cpp:240] Setting up BatchNorm24
I0525 23:46:16.909579 15394 net.cpp:247] Top shape: 128 64 8 8 (524288)
I0525 23:46:16.909582 15394 net.cpp:255] Memory required for data: 714605056
I0525 23:46:16.909596 15394 layer_factory.hpp:77] Creating layer Scale24
I0525 23:46:16.909616 15394 net.cpp:190] Creating Layer Scale24
I0525 23:46:16.909622 15394 net.cpp:605] Scale24 <- Convolution24
I0525 23:46:16.909628 15394 net.cpp:566] Scale24 -> Convolution24 (in-place)
I0525 23:46:16.909675 15394 layer_factory.hpp:77] Creating layer Scale24
I0525 23:46:16.909802 15394 net.cpp:240] Setting up Scale24
I0525 23:46:16.909812 15394 net.cpp:247] Top shape: 128 64 8 8 (524288)
I0525 23:46:16.909816 15394 net.cpp:255] Memory required for data: 716702208
I0525 23:46:16.909832 15394 layer_factory.hpp:77] Creating layer ReLU24
I0525 23:46:16.909845 15394 net.cpp:190] Creating Layer ReLU24
I0525 23:46:16.909850 15394 net.cpp:605] ReLU24 <- Convolution24
I0525 23:46:16.909857 15394 net.cpp:566] ReLU24 -> Convolution24 (in-place)
I0525 23:46:16.909864 15394 net.cpp:240] Setting up ReLU24
I0525 23:46:16.909869 15394 net.cpp:247] Top shape: 128 64 8 8 (524288)
I0525 23:46:16.909873 15394 net.cpp:255] Memory required for data: 718799360
I0525 23:46:16.909876 15394 layer_factory.hpp:77] Creating layer Convolution25
I0525 23:46:16.909893 15394 net.cpp:190] Creating Layer Convolution25
I0525 23:46:16.909898 15394 net.cpp:605] Convolution25 <- Convolution24
I0525 23:46:16.909909 15394 net.cpp:579] Convolution25 -> Convolution25
I0525 23:46:16.911478 15394 net.cpp:240] Setting up Convolution25
I0525 23:46:16.911517 15394 net.cpp:247] Top shape: 128 64 8 8 (524288)
I0525 23:46:16.911521 15394 net.cpp:255] Memory required for data: 720896512
I0525 23:46:16.911537 15394 layer_factory.hpp:77] Creating layer BatchNorm25
I0525 23:46:16.911550 15394 net.cpp:190] Creating Layer BatchNorm25
I0525 23:46:16.911556 15394 net.cpp:605] BatchNorm25 <- Convolution25
I0525 23:46:16.911566 15394 net.cpp:566] BatchNorm25 -> Convolution25 (in-place)
I0525 23:46:16.911767 15394 net.cpp:240] Setting up BatchNorm25
I0525 23:46:16.911777 15394 net.cpp:247] Top shape: 128 64 8 8 (524288)
I0525 23:46:16.911780 15394 net.cpp:255] Memory required for data: 722993664
I0525 23:46:16.911794 15394 layer_factory.hpp:77] Creating layer Scale25
I0525 23:46:16.911828 15394 net.cpp:190] Creating Layer Scale25
I0525 23:46:16.911834 15394 net.cpp:605] Scale25 <- Convolution25
I0525 23:46:16.911840 15394 net.cpp:566] Scale25 -> Convolution25 (in-place)
I0525 23:46:16.911891 15394 layer_factory.hpp:77] Creating layer Scale25
I0525 23:46:16.912027 15394 net.cpp:240] Setting up Scale25
I0525 23:46:16.912039 15394 net.cpp:247] Top shape: 128 64 8 8 (524288)
I0525 23:46:16.912042 15394 net.cpp:255] Memory required for data: 725090816
I0525 23:46:16.912052 15394 layer_factory.hpp:77] Creating layer Eltwise12
I0525 23:46:16.912065 15394 net.cpp:190] Creating Layer Eltwise12
I0525 23:46:16.912071 15394 net.cpp:605] Eltwise12 <- Eltwise11_ReLU23_0_split_1
I0525 23:46:16.912077 15394 net.cpp:605] Eltwise12 <- Convolution25
I0525 23:46:16.912083 15394 net.cpp:579] Eltwise12 -> Eltwise12
I0525 23:46:16.912107 15394 net.cpp:240] Setting up Eltwise12
I0525 23:46:16.912114 15394 net.cpp:247] Top shape: 128 64 8 8 (524288)
I0525 23:46:16.912118 15394 net.cpp:255] Memory required for data: 727187968
I0525 23:46:16.912122 15394 layer_factory.hpp:77] Creating layer ReLU25
I0525 23:46:16.912132 15394 net.cpp:190] Creating Layer ReLU25
I0525 23:46:16.912137 15394 net.cpp:605] ReLU25 <- Eltwise12
I0525 23:46:16.912142 15394 net.cpp:566] ReLU25 -> Eltwise12 (in-place)
I0525 23:46:16.912148 15394 net.cpp:240] Setting up ReLU25
I0525 23:46:16.912153 15394 net.cpp:247] Top shape: 128 64 8 8 (524288)
I0525 23:46:16.912158 15394 net.cpp:255] Memory required for data: 729285120
I0525 23:46:16.912160 15394 layer_factory.hpp:77] Creating layer Eltwise12_ReLU25_0_split
I0525 23:46:16.912168 15394 net.cpp:190] Creating Layer Eltwise12_ReLU25_0_split
I0525 23:46:16.912173 15394 net.cpp:605] Eltwise12_ReLU25_0_split <- Eltwise12
I0525 23:46:16.912178 15394 net.cpp:579] Eltwise12_ReLU25_0_split -> Eltwise12_ReLU25_0_split_0
I0525 23:46:16.912184 15394 net.cpp:579] Eltwise12_ReLU25_0_split -> Eltwise12_ReLU25_0_split_1
I0525 23:46:16.912228 15394 net.cpp:240] Setting up Eltwise12_ReLU25_0_split
I0525 23:46:16.912235 15394 net.cpp:247] Top shape: 128 64 8 8 (524288)
I0525 23:46:16.912240 15394 net.cpp:247] Top shape: 128 64 8 8 (524288)
I0525 23:46:16.912243 15394 net.cpp:255] Memory required for data: 733479424
I0525 23:46:16.912247 15394 layer_factory.hpp:77] Creating layer Convolution26
I0525 23:46:16.912261 15394 net.cpp:190] Creating Layer Convolution26
I0525 23:46:16.912266 15394 net.cpp:605] Convolution26 <- Eltwise12_ReLU25_0_split_0
I0525 23:46:16.912282 15394 net.cpp:579] Convolution26 -> Convolution26
I0525 23:46:16.913866 15394 net.cpp:240] Setting up Convolution26
I0525 23:46:16.913903 15394 net.cpp:247] Top shape: 128 64 8 8 (524288)
I0525 23:46:16.913908 15394 net.cpp:255] Memory required for data: 735576576
I0525 23:46:16.913923 15394 layer_factory.hpp:77] Creating layer BatchNorm26
I0525 23:46:16.913939 15394 net.cpp:190] Creating Layer BatchNorm26
I0525 23:46:16.913947 15394 net.cpp:605] BatchNorm26 <- Convolution26
I0525 23:46:16.913957 15394 net.cpp:566] BatchNorm26 -> Convolution26 (in-place)
I0525 23:46:16.914176 15394 net.cpp:240] Setting up BatchNorm26
I0525 23:46:16.914187 15394 net.cpp:247] Top shape: 128 64 8 8 (524288)
I0525 23:46:16.914191 15394 net.cpp:255] Memory required for data: 737673728
I0525 23:46:16.914204 15394 layer_factory.hpp:77] Creating layer Scale26
I0525 23:46:16.914217 15394 net.cpp:190] Creating Layer Scale26
I0525 23:46:16.914223 15394 net.cpp:605] Scale26 <- Convolution26
I0525 23:46:16.914229 15394 net.cpp:566] Scale26 -> Convolution26 (in-place)
I0525 23:46:16.914275 15394 layer_factory.hpp:77] Creating layer Scale26
I0525 23:46:16.916972 15394 net.cpp:240] Setting up Scale26
I0525 23:46:16.917028 15394 net.cpp:247] Top shape: 128 64 8 8 (524288)
I0525 23:46:16.917033 15394 net.cpp:255] Memory required for data: 739770880
I0525 23:46:16.917060 15394 layer_factory.hpp:77] Creating layer ReLU26
I0525 23:46:16.917078 15394 net.cpp:190] Creating Layer ReLU26
I0525 23:46:16.917086 15394 net.cpp:605] ReLU26 <- Convolution26
I0525 23:46:16.917099 15394 net.cpp:566] ReLU26 -> Convolution26 (in-place)
I0525 23:46:16.917114 15394 net.cpp:240] Setting up ReLU26
I0525 23:46:16.917119 15394 net.cpp:247] Top shape: 128 64 8 8 (524288)
I0525 23:46:16.917122 15394 net.cpp:255] Memory required for data: 741868032
I0525 23:46:16.917125 15394 layer_factory.hpp:77] Creating layer Convolution27
I0525 23:46:16.917143 15394 net.cpp:190] Creating Layer Convolution27
I0525 23:46:16.917147 15394 net.cpp:605] Convolution27 <- Convolution26
I0525 23:46:16.917156 15394 net.cpp:579] Convolution27 -> Convolution27
I0525 23:46:16.919740 15394 net.cpp:240] Setting up Convolution27
I0525 23:46:16.919791 15394 net.cpp:247] Top shape: 128 64 8 8 (524288)
I0525 23:46:16.919795 15394 net.cpp:255] Memory required for data: 743965184
I0525 23:46:16.919812 15394 layer_factory.hpp:77] Creating layer BatchNorm27
I0525 23:46:16.919831 15394 net.cpp:190] Creating Layer BatchNorm27
I0525 23:46:16.919839 15394 net.cpp:605] BatchNorm27 <- Convolution27
I0525 23:46:16.919850 15394 net.cpp:566] BatchNorm27 -> Convolution27 (in-place)
I0525 23:46:16.920066 15394 net.cpp:240] Setting up BatchNorm27
I0525 23:46:16.920076 15394 net.cpp:247] Top shape: 128 64 8 8 (524288)
I0525 23:46:16.920080 15394 net.cpp:255] Memory required for data: 746062336
I0525 23:46:16.920094 15394 layer_factory.hpp:77] Creating layer Scale27
I0525 23:46:16.920111 15394 net.cpp:190] Creating Layer Scale27
I0525 23:46:16.920116 15394 net.cpp:605] Scale27 <- Convolution27
I0525 23:46:16.920122 15394 net.cpp:566] Scale27 -> Convolution27 (in-place)
I0525 23:46:16.920169 15394 layer_factory.hpp:77] Creating layer Scale27
I0525 23:46:16.920295 15394 net.cpp:240] Setting up Scale27
I0525 23:46:16.920305 15394 net.cpp:247] Top shape: 128 64 8 8 (524288)
I0525 23:46:16.920308 15394 net.cpp:255] Memory required for data: 748159488
I0525 23:46:16.920320 15394 layer_factory.hpp:77] Creating layer Eltwise13
I0525 23:46:16.920328 15394 net.cpp:190] Creating Layer Eltwise13
I0525 23:46:16.920336 15394 net.cpp:605] Eltwise13 <- Eltwise12_ReLU25_0_split_1
I0525 23:46:16.920342 15394 net.cpp:605] Eltwise13 <- Convolution27
I0525 23:46:16.920351 15394 net.cpp:579] Eltwise13 -> Eltwise13
I0525 23:46:16.920374 15394 net.cpp:240] Setting up Eltwise13
I0525 23:46:16.920382 15394 net.cpp:247] Top shape: 128 64 8 8 (524288)
I0525 23:46:16.920385 15394 net.cpp:255] Memory required for data: 750256640
I0525 23:46:16.920388 15394 layer_factory.hpp:77] Creating layer ReLU27
I0525 23:46:16.920406 15394 net.cpp:190] Creating Layer ReLU27
I0525 23:46:16.920413 15394 net.cpp:605] ReLU27 <- Eltwise13
I0525 23:46:16.920420 15394 net.cpp:566] ReLU27 -> Eltwise13 (in-place)
I0525 23:46:16.920428 15394 net.cpp:240] Setting up ReLU27
I0525 23:46:16.920434 15394 net.cpp:247] Top shape: 128 64 8 8 (524288)
I0525 23:46:16.920438 15394 net.cpp:255] Memory required for data: 752353792
I0525 23:46:16.920441 15394 layer_factory.hpp:77] Creating layer Eltwise13_ReLU27_0_split
I0525 23:46:16.920447 15394 net.cpp:190] Creating Layer Eltwise13_ReLU27_0_split
I0525 23:46:16.920451 15394 net.cpp:605] Eltwise13_ReLU27_0_split <- Eltwise13
I0525 23:46:16.920457 15394 net.cpp:579] Eltwise13_ReLU27_0_split -> Eltwise13_ReLU27_0_split_0
I0525 23:46:16.920464 15394 net.cpp:579] Eltwise13_ReLU27_0_split -> Eltwise13_ReLU27_0_split_1
I0525 23:46:16.920502 15394 net.cpp:240] Setting up Eltwise13_ReLU27_0_split
I0525 23:46:16.920509 15394 net.cpp:247] Top shape: 128 64 8 8 (524288)
I0525 23:46:16.920513 15394 net.cpp:247] Top shape: 128 64 8 8 (524288)
I0525 23:46:16.920517 15394 net.cpp:255] Memory required for data: 756548096
I0525 23:46:16.920521 15394 layer_factory.hpp:77] Creating layer Convolution28
I0525 23:46:16.920531 15394 net.cpp:190] Creating Layer Convolution28
I0525 23:46:16.920536 15394 net.cpp:605] Convolution28 <- Eltwise13_ReLU27_0_split_0
I0525 23:46:16.920545 15394 net.cpp:579] Convolution28 -> Convolution28
I0525 23:46:16.922127 15394 net.cpp:240] Setting up Convolution28
I0525 23:46:16.922166 15394 net.cpp:247] Top shape: 128 64 8 8 (524288)
I0525 23:46:16.922170 15394 net.cpp:255] Memory required for data: 758645248
I0525 23:46:16.922186 15394 layer_factory.hpp:77] Creating layer BatchNorm28
I0525 23:46:16.922201 15394 net.cpp:190] Creating Layer BatchNorm28
I0525 23:46:16.922209 15394 net.cpp:605] BatchNorm28 <- Convolution28
I0525 23:46:16.922219 15394 net.cpp:566] BatchNorm28 -> Convolution28 (in-place)
I0525 23:46:16.922448 15394 net.cpp:240] Setting up BatchNorm28
I0525 23:46:16.922461 15394 net.cpp:247] Top shape: 128 64 8 8 (524288)
I0525 23:46:16.922466 15394 net.cpp:255] Memory required for data: 760742400
I0525 23:46:16.922482 15394 layer_factory.hpp:77] Creating layer Scale28
I0525 23:46:16.922494 15394 net.cpp:190] Creating Layer Scale28
I0525 23:46:16.922500 15394 net.cpp:605] Scale28 <- Convolution28
I0525 23:46:16.922508 15394 net.cpp:566] Scale28 -> Convolution28 (in-place)
I0525 23:46:16.922551 15394 layer_factory.hpp:77] Creating layer Scale28
I0525 23:46:16.922680 15394 net.cpp:240] Setting up Scale28
I0525 23:46:16.922689 15394 net.cpp:247] Top shape: 128 64 8 8 (524288)
I0525 23:46:16.922693 15394 net.cpp:255] Memory required for data: 762839552
I0525 23:46:16.922701 15394 layer_factory.hpp:77] Creating layer ReLU28
I0525 23:46:16.922709 15394 net.cpp:190] Creating Layer ReLU28
I0525 23:46:16.922713 15394 net.cpp:605] ReLU28 <- Convolution28
I0525 23:46:16.922722 15394 net.cpp:566] ReLU28 -> Convolution28 (in-place)
I0525 23:46:16.922731 15394 net.cpp:240] Setting up ReLU28
I0525 23:46:16.922736 15394 net.cpp:247] Top shape: 128 64 8 8 (524288)
I0525 23:46:16.922739 15394 net.cpp:255] Memory required for data: 764936704
I0525 23:46:16.922744 15394 layer_factory.hpp:77] Creating layer Convolution29
I0525 23:46:16.922757 15394 net.cpp:190] Creating Layer Convolution29
I0525 23:46:16.922761 15394 net.cpp:605] Convolution29 <- Convolution28
I0525 23:46:16.922768 15394 net.cpp:579] Convolution29 -> Convolution29
I0525 23:46:16.924352 15394 net.cpp:240] Setting up Convolution29
I0525 23:46:16.924391 15394 net.cpp:247] Top shape: 128 64 8 8 (524288)
I0525 23:46:16.924396 15394 net.cpp:255] Memory required for data: 767033856
I0525 23:46:16.924412 15394 layer_factory.hpp:77] Creating layer BatchNorm29
I0525 23:46:16.924428 15394 net.cpp:190] Creating Layer BatchNorm29
I0525 23:46:16.924434 15394 net.cpp:605] BatchNorm29 <- Convolution29
I0525 23:46:16.924443 15394 net.cpp:566] BatchNorm29 -> Convolution29 (in-place)
I0525 23:46:16.924649 15394 net.cpp:240] Setting up BatchNorm29
I0525 23:46:16.924667 15394 net.cpp:247] Top shape: 128 64 8 8 (524288)
I0525 23:46:16.924672 15394 net.cpp:255] Memory required for data: 769131008
I0525 23:46:16.924686 15394 layer_factory.hpp:77] Creating layer Scale29
I0525 23:46:16.924697 15394 net.cpp:190] Creating Layer Scale29
I0525 23:46:16.924702 15394 net.cpp:605] Scale29 <- Convolution29
I0525 23:46:16.924708 15394 net.cpp:566] Scale29 -> Convolution29 (in-place)
I0525 23:46:16.924757 15394 layer_factory.hpp:77] Creating layer Scale29
I0525 23:46:16.924885 15394 net.cpp:240] Setting up Scale29
I0525 23:46:16.924895 15394 net.cpp:247] Top shape: 128 64 8 8 (524288)
I0525 23:46:16.924898 15394 net.cpp:255] Memory required for data: 771228160
I0525 23:46:16.924907 15394 layer_factory.hpp:77] Creating layer Eltwise14
I0525 23:46:16.924918 15394 net.cpp:190] Creating Layer Eltwise14
I0525 23:46:16.924926 15394 net.cpp:605] Eltwise14 <- Eltwise13_ReLU27_0_split_1
I0525 23:46:16.924931 15394 net.cpp:605] Eltwise14 <- Convolution29
I0525 23:46:16.924937 15394 net.cpp:579] Eltwise14 -> Eltwise14
I0525 23:46:16.924962 15394 net.cpp:240] Setting up Eltwise14
I0525 23:46:16.924969 15394 net.cpp:247] Top shape: 128 64 8 8 (524288)
I0525 23:46:16.924973 15394 net.cpp:255] Memory required for data: 773325312
I0525 23:46:16.924975 15394 layer_factory.hpp:77] Creating layer ReLU29
I0525 23:46:16.924985 15394 net.cpp:190] Creating Layer ReLU29
I0525 23:46:16.924990 15394 net.cpp:605] ReLU29 <- Eltwise14
I0525 23:46:16.924995 15394 net.cpp:566] ReLU29 -> Eltwise14 (in-place)
I0525 23:46:16.925003 15394 net.cpp:240] Setting up ReLU29
I0525 23:46:16.925007 15394 net.cpp:247] Top shape: 128 64 8 8 (524288)
I0525 23:46:16.925011 15394 net.cpp:255] Memory required for data: 775422464
I0525 23:46:16.925015 15394 layer_factory.hpp:77] Creating layer Pooling3
I0525 23:46:16.925024 15394 net.cpp:190] Creating Layer Pooling3
I0525 23:46:16.925029 15394 net.cpp:605] Pooling3 <- Eltwise14
I0525 23:46:16.925035 15394 net.cpp:579] Pooling3 -> Pooling3
I0525 23:46:16.925067 15394 net.cpp:240] Setting up Pooling3
I0525 23:46:16.925074 15394 net.cpp:247] Top shape: 128 64 1 1 (8192)
I0525 23:46:16.925077 15394 net.cpp:255] Memory required for data: 775455232
I0525 23:46:16.925081 15394 layer_factory.hpp:77] Creating layer InnerProduct1
I0525 23:46:16.925091 15394 net.cpp:190] Creating Layer InnerProduct1
I0525 23:46:16.925094 15394 net.cpp:605] InnerProduct1 <- Pooling3
I0525 23:46:16.925101 15394 net.cpp:579] InnerProduct1 -> InnerProduct1
I0525 23:46:16.925266 15394 net.cpp:240] Setting up InnerProduct1
I0525 23:46:16.925277 15394 net.cpp:247] Top shape: 128 10 (1280)
I0525 23:46:16.925281 15394 net.cpp:255] Memory required for data: 775460352
I0525 23:46:16.925290 15394 layer_factory.hpp:77] Creating layer SoftmaxWithLoss1
I0525 23:46:16.925314 15394 net.cpp:190] Creating Layer SoftmaxWithLoss1
I0525 23:46:16.925318 15394 net.cpp:605] SoftmaxWithLoss1 <- InnerProduct1
I0525 23:46:16.925323 15394 net.cpp:605] SoftmaxWithLoss1 <- Data2
I0525 23:46:16.925333 15394 net.cpp:579] SoftmaxWithLoss1 -> SoftmaxWithLoss1
…
I0525 23:46:16.926213 15394 net.cpp:374] Network initialization done.
I0525 23:46:16.934427 15394 solver.cpp:186] Creating test net (#0) specified by test_net file: examples/stochastic_depth/residual_test.prototxt
I0525 23:46:16.935611 15394 net.cpp:148] Initializing net from parameters: 
state {
  phase: TEST
}
layer {
  name: "Data1"
  type: "Data"
  top: "Data1"
  top: "Data2"
  transform_param {
    mirror: true
    crop_size: 32
  }
  data_param {
    source: "/scratch/pas282/caffe/examples/cifar10/cifar10_test_leveldb_padding0"
    batch_size: 100
    backend: LEVELDB
  }
}
layer {
  name: "Convolution1"
  type: "Convolution"
  bottom: "Data1"
  top: "Convolution1"
  convolution_param {
    num_output: 16
    bias_term: true
    pad: 1
    kernel_size: 3
    stride: 1
    weight_filler {
      type: "msra"
    }
    bias_filler {
      type: "constant"
    }
  }
}
layer {
  name: "BatchNorm1"
  type: "BatchNorm"
  bottom: "Convolution1"
  top: "Convolution1"
  param {
    lr_mult: 0
    decay_mult: 0
  }
  param {
    lr_mult: 0
    decay_mult: 0
  }
  param {
    lr_mult: 0
    decay_mult: 0
  }
}
layer {
  name: "Scale1"
  type: "Scale"
  bottom: "Convolution1"
  top: "Convolution1"
  scale_param {
    bias_term: true
  }
}
layer {
  name: "ReLU1"
  type: "ReLU"
  bottom: "Convolution1"
  top: "Convolution1"
}
layer {
  name: "Convolution2"
  type: "Convolution"
  bottom: "Convolution1"
  top: "Convolution2"
  convolution_param {
    num_output: 16
    bias_term: true
    pad: 1
    kernel_size: 3
    stride: 1
    weight_filler {
      type: "msra"
    }
    bias_filler {
      type: "constant"
    }
  }
}
layer {
  name: "BatchNorm2"
  type: "BatchNorm"
  bottom: "Convolution2"
  top: "Convolution2"
  param {
    lr_mult: 0
    decay_mult: 0
  }
  param {
    lr_mult: 0
    decay_mult: 0
  }
  param {
    lr_mult: 0
    decay_mult: 0
  }
}
layer {
  name: "Scale2"
  type: "Scale"
  bottom: "Convolution2"
  top: "Convolution2"
  scale_param {
    bias_term: true
  }
}
layer {
  name: "ReLU2"
  type: "ReLU"
  bottom: "Convolution2"
  top: "Convolution2"
}
layer {
  name: "Convolution3"
  type: "Convolution"
  bottom: "Convolution2"
  top: "Convolution3"
  convolution_param {
    num_output: 16
    bias_term: true
    pad: 1
    kernel_size: 3
    stride: 1
    weight_filler {
      type: "msra"
    }
    bias_filler {
      type: "constant"
    }
  }
}
layer {
  name: "BatchNorm3"
  type: "BatchNorm"
  bottom: "Convolution3"
  top: "Convolution3"
  param {
    lr_mult: 0
    decay_mult: 0
  }
  param {
    lr_mult: 0
    decay_mult: 0
  }
  param {
    lr_mult: 0
    decay_mult: 0
  }
}
layer {
  name: "Scale3"
  type: "Scale"
  bottom: "Convolution3"
  top: "Convolution3"
  scale_param {
    bias_term: true
  }
}
layer {
  name: "Eltwise1"
  type: "Eltwise"
  bottom: "Convolution1"
  bottom: "Convolution3"
  top: "Eltwise1"
  eltwise_param {
    operation: SUM
  }
}
layer {
  name: "ReLU3"
  type: "ReLU"
  bottom: "Eltwise1"
  top: "Eltwise1"
}
layer {
  name: "Convolution4"
  type: "Convolution"
  bottom: "Eltwise1"
  top: "Convolution4"
  convolution_param {
    num_output: 16
    bias_term: true
    pad: 1
    kernel_size: 3
    stride: 1
    weight_filler {
      type: "msra"
    }
    bias_filler {
      type: "constant"
    }
  }
}
layer {
  name: "BatchNorm4"
  type: "BatchNorm"
  bottom: "Convolution4"
  top: "Convolution4"
  param {
    lr_mult: 0
    decay_mult: 0
  }
  param {
    lr_mult: 0
    decay_mult: 0
  }
  param {
    lr_mult: 0
    decay_mult: 0
  }
}
layer {
  name: "Scale4"
  type: "Scale"
  bottom: "Convolution4"
  top: "Convolution4"
  scale_param {
    bias_term: true
  }
}
layer {
  name: "ReLU4"
  type: "ReLU"
  bottom: "Convolution4"
  top: "Convolution4"
}
layer {
  name: "Convolution5"
  type: "Convolution"
  bottom: "Convolution4"
  top: "Convolution5"
  convolution_param {
    num_output: 16
    bias_term: true
    pad: 1
    kernel_size: 3
    stride: 1
    weight_filler {
      type: "msra"
    }
    bias_filler {
      type: "constant"
    }
  }
}
layer {
  name: "BatchNorm5"
  type: "BatchNorm"
  bottom: "Convolution5"
  top: "Convolution5"
  param {
    lr_mult: 0
    decay_mult: 0
  }
  param {
    lr_mult: 0
    decay_mult: 0
  }
  param {
    lr_mult: 0
    decay_mult: 0
  }
}
layer {
  name: "Scale5"
  type: "Scale"
  bottom: "Convolution5"
  top: "Convolution5"
  scale_param {
    bias_term: true
  }
}
layer {
  name: "Eltwise2"
  type: "Eltwise"
  bottom: "Eltwise1"
  bottom: "Convolution5"
  top: "Eltwise2"
  eltwise_param {
    operation: SUM
  }
}
layer {
  name: "ReLU5"
  type: "ReLU"
  bottom: "Eltwise2"
  top: "Eltwise2"
}
layer {
  name: "Convolution6"
  type: "Convolution"
  bottom: "Eltwise2"
  top: "Convolution6"
  convolution_param {
    num_output: 16
    bias_term: true
    pad: 1
    kernel_size: 3
    stride: 1
    weight_filler {
      type: "msra"
    }
    bias_filler {
      type: "constant"
    }
  }
}
layer {
  name: "BatchNorm6"
  type: "BatchNorm"
  bottom: "Convolution6"
  top: "Convolution6"
  param {
    lr_mult: 0
    decay_mult: 0
  }
  param {
    lr_mult: 0
    decay_mult: 0
  }
  param {
    lr_mult: 0
    decay_mult: 0
  }
}
layer {
  name: "Scale6"
  type: "Scale"
  bottom: "Convolution6"
  top: "Convolution6"
  scale_param {
    bias_term: true
  }
}
layer {
  name: "ReLU6"
  type: "ReLU"
  bottom: "Convolution6"
  top: "Convolution6"
}
layer {
  name: "Convolution7"
  type: "Convolution"
  bottom: "Convolution6"
  top: "Convolution7"
  convolution_param {
    num_output: 16
    bias_term: true
    pad: 1
    kernel_size: 3
    stride: 1
    weight_filler {
      type: "msra"
    }
    bias_filler {
      type: "constant"
    }
  }
}
layer {
  name: "BatchNorm7"
  type: "BatchNorm"
  bottom: "Convolution7"
  top: "Convolution7"
  param {
    lr_mult: 0
    decay_mult: 0
  }
  param {
    lr_mult: 0
    decay_mult: 0
  }
  param {
    lr_mult: 0
    decay_mult: 0
  }
}
layer {
  name: "Scale7"
  type: "Scale"
  bottom: "Convolution7"
  top: "Convolution7"
  scale_param {
    bias_term: true
  }
}
layer {
  name: "Eltwise3"
  type: "Eltwise"
  bottom: "Eltwise2"
  bottom: "Convolution7"
  top: "Eltwise3"
  eltwise_param {
    operation: SUM
  }
}
layer {
  name: "ReLU7"
  type: "ReLU"
  bottom: "Eltwise3"
  top: "Eltwise3"
}
layer {
  name: "Convolution8"
  type: "Convolution"
  bottom: "Eltwise3"
  top: "Convolution8"
  convolution_param {
    num_output: 16
    bias_term: true
    pad: 1
    kernel_size: 3
    stride: 1
    weight_filler {
      type: "msra"
    }
    bias_filler {
      type: "constant"
    }
  }
}
layer {
  name: "BatchNorm8"
  type: "BatchNorm"
  bottom: "Convolution8"
  top: "Convolution8"
  param {
    lr_mult: 0
    decay_mult: 0
  }
  param {
    lr_mult: 0
    decay_mult: 0
  }
  param {
    lr_mult: 0
    decay_mult: 0
  }
}
layer {
  name: "Scale8"
  type: "Scale"
  bottom: "Convolution8"
  top: "Convolution8"
  scale_param {
    bias_term: true
  }
}
layer {
  name: "ReLU8"
  type: "ReLU"
  bottom: "Convolution8"
  top: "Convolution8"
}
layer {
  name: "Convolution9"
  type: "Convolution"
  bottom: "Convolution8"
  top: "Convolution9"
  convolution_param {
    num_output: 16
    bias_term: true
    pad: 1
    kernel_size: 3
    stride: 1
    weight_filler {
      type: "msra"
    }
    bias_filler {
      type: "constant"
    }
  }
}
layer {
  name: "BatchNorm9"
  type: "BatchNorm"
  bottom: "Convolution9"
  top: "Convolution9"
  param {
    lr_mult: 0
    decay_mult: 0
  }
  param {
    lr_mult: 0
    decay_mult: 0
  }
  param {
    lr_mult: 0
    decay_mult: 0
  }
}
layer {
  name: "Scale9"
  type: "Scale"
  bottom: "Convolution9"
  top: "Convolution9"
  scale_param {
    bias_term: true
  }
}
layer {
  name: "Eltwise4"
  type: "Eltwise"
  bottom: "Eltwise3"
  bottom: "Convolution9"
  top: "Eltwise4"
  eltwise_param {
    operation: SUM
  }
}
layer {
  name: "ReLU9"
  type: "ReLU"
  bottom: "Eltwise4"
  top: "Eltwise4"
}
layer {
  name: "Pooling1"
  type: "Pooling"
  bottom: "Eltwise4"
  top: "Pooling1"
  pooling_param {
    pool: AVE
    kernel_size: 2
    stride: 2
  }
}
layer {
  name: "Input1"
  type: "Input"
  top: "Input1"
  input_param {
    shape {
      dim: 100
      dim: 16
      dim: 16
      dim: 16
    }
  }
}
layer {
  name: "Concat1"
  type: "Concat"
  bottom: "Pooling1"
  bottom: "Input1"
  top: "Concat1"
  concat_param {
    axis: 1
  }
}
layer {
  name: "Convolution10"
  type: "Convolution"
  bottom: "Eltwise4"
  top: "Convolution10"
  convolution_param {
    num_output: 32
    bias_term: true
    pad: 1
    kernel_size: 3
    stride: 2
    weight_filler {
      type: "msra"
    }
    bias_filler {
      type: "constant"
    }
  }
}
layer {
  name: "BatchNorm10"
  type: "BatchNorm"
  bottom: "Convolution10"
  top: "Convolution10"
  param {
    lr_mult: 0
    decay_mult: 0
  }
  param {
    lr_mult: 0
    decay_mult: 0
  }
  param {
    lr_mult: 0
    decay_mult: 0
  }
}
layer {
  name: "Scale10"
  type: "Scale"
  bottom: "Convolution10"
  top: "Convolution10"
  scale_param {
    bias_term: true
  }
}
layer {
  name: "ReLU10"
  type: "ReLU"
  bottom: "Convolution10"
  top: "Convolution10"
}
layer {
  name: "Convolution11"
  type: "Convolution"
  bottom: "Convolution10"
  top: "Convolution11"
  convolution_param {
    num_output: 32
    bias_term: true
    pad: 1
    kernel_size: 3
    stride: 1
    weight_filler {
      type: "msra"
    }
    bias_filler {
      type: "constant"
    }
  }
}
layer {
  name: "BatchNorm11"
  type: "BatchNorm"
  bottom: "Convolution11"
  top: "Convolution11"
  param {
    lr_mult: 0
    decay_mult: 0
  }
  param {
    lr_mult: 0
    decay_mult: 0
  }
  param {
    lr_mult: 0
    decay_mult: 0
  }
}
layer {
  name: "Scale11"
  type: "Scale"
  bottom: "Convolution11"
  top: "Convolution11"
  scale_param {
    bias_term: true
  }
}
layer {
  name: "Eltwise5"
  type: "Eltwise"
  bottom: "Concat1"
  bottom: "Convolution11"
  top: "Eltwise5"
  eltwise_param {
    operation: SUM
  }
}
layer {
  name: "ReLU11"
  type: "ReLU"
  bottom: "Eltwise5"
  top: "Eltwise5"
}
layer {
  name: "Convolution12"
  type: "Convolution"
  bottom: "Eltwise5"
  top: "Convolution12"
  convolution_param {
    num_output: 32
    bias_term: true
    pad: 1
    kernel_size: 3
    stride: 1
    weight_filler {
      type: "msra"
    }
    bias_filler {
      type: "constant"
    }
  }
}
layer {
  name: "BatchNorm12"
  type: "BatchNorm"
  bottom: "Convolution12"
  top: "Convolution12"
  param {
    lr_mult: 0
    decay_mult: 0
  }
  param {
    lr_mult: 0
    decay_mult: 0
  }
  param {
    lr_mult: 0
    decay_mult: 0
  }
}
layer {
  name: "Scale12"
  type: "Scale"
  bottom: "Convolution12"
  top: "Convolution12"
  scale_param {
    bias_term: true
  }
}
layer {
  name: "ReLU12"
  type: "ReLU"
  bottom: "Convolution12"
  top: "Convolution12"
}
layer {
  name: "Convolution13"
  type: "Convolution"
  bottom: "Convolution12"
  top: "Convolution13"
  convolution_param {
    num_output: 32
    bias_term: true
    pad: 1
    kernel_size: 3
    stride: 1
    weight_filler {
      type: "msra"
    }
    bias_filler {
      type: "constant"
    }
  }
}
layer {
  name: "BatchNorm13"
  type: "BatchNorm"
  bottom: "Convolution13"
  top: "Convolution13"
  param {
    lr_mult: 0
    decay_mult: 0
  }
  param {
    lr_mult: 0
    decay_mult: 0
  }
  param {
    lr_mult: 0
    decay_mult: 0
  }
}
layer {
  name: "Scale13"
  type: "Scale"
  bottom: "Convolution13"
  top: "Convolution13"
  scale_param {
    bias_term: true
  }
}
layer {
  name: "Eltwise6"
  type: "Eltwise"
  bottom: "Eltwise5"
  bottom: "Convolution13"
  top: "Eltwise6"
  eltwise_param {
    operation: SUM
  }
}
layer {
  name: "ReLU13"
  type: "ReLU"
  bottom: "Eltwise6"
  top: "Eltwise6"
}
layer {
  name: "Convolution14"
  type: "Convolution"
  bottom: "Eltwise6"
  top: "Convolution14"
  convolution_param {
    num_output: 32
    bias_term: true
    pad: 1
    kernel_size: 3
    stride: 1
    weight_filler {
      type: "msra"
    }
    bias_filler {
      type: "constant"
    }
  }
}
layer {
  name: "BatchNorm14"
  type: "BatchNorm"
  bottom: "Convolution14"
  top: "Convolution14"
  param {
    lr_mult: 0
    decay_mult: 0
  }
  param {
    lr_mult: 0
    decay_mult: 0
  }
  param {
    lr_mult: 0
    decay_mult: 0
  }
}
layer {
  name: "Scale14"
  type: "Scale"
  bottom: "Convolution14"
  top: "Convolution14"
  scale_param {
    bias_term: true
  }
}
layer {
  name: "ReLU14"
  type: "ReLU"
  bottom: "Convolution14"
  top: "Convolution14"
}
layer {
  name: "Convolution15"
  type: "Convolution"
  bottom: "Convolution14"
  top: "Convolution15"
  convolution_param {
    num_output: 32
    bias_term: true
    pad: 1
    kernel_size: 3
    stride: 1
    weight_filler {
      type: "msra"
    }
    bias_filler {
      type: "constant"
    }
  }
}
layer {
  name: "BatchNorm15"
  type: "BatchNorm"
  bottom: "Convolution15"
  top: "Convolution15"
  param {
    lr_mult: 0
    decay_mult: 0
  }
  param {
    lr_mult: 0
    decay_mult: 0
  }
  param {
    lr_mult: 0
    decay_mult: 0
  }
}
layer {
  name: "Scale15"
  type: "Scale"
  bottom: "Convolution15"
  top: "Convolution15"
  scale_param {
    bias_term: true
  }
}
layer {
  name: "Eltwise7"
  type: "Eltwise"
  bottom: "Eltwise6"
  bottom: "Convolution15"
  top: "Eltwise7"
  eltwise_param {
    operation: SUM
  }
}
layer {
  name: "ReLU15"
  type: "ReLU"
  bottom: "Eltwise7"
  top: "Eltwise7"
}
layer {
  name: "Convolution16"
  type: "Convolution"
  bottom: "Eltwise7"
  top: "Convolution16"
  convolution_param {
    num_output: 32
    bias_term: true
    pad: 1
    kernel_size: 3
    stride: 1
    weight_filler {
      type: "msra"
    }
    bias_filler {
      type: "constant"
    }
  }
}
layer {
  name: "BatchNorm16"
  type: "BatchNorm"
  bottom: "Convolution16"
  top: "Convolution16"
  param {
    lr_mult: 0
    decay_mult: 0
  }
  param {
    lr_mult: 0
    decay_mult: 0
  }
  param {
    lr_mult: 0
    decay_mult: 0
  }
}
layer {
  name: "Scale16"
  type: "Scale"
  bottom: "Convolution16"
  top: "Convolution16"
  scale_param {
    bias_term: true
  }
}
layer {
  name: "ReLU16"
  type: "ReLU"
  bottom: "Convolution16"
  top: "Convolution16"
}
layer {
  name: "Convolution17"
  type: "Convolution"
  bottom: "Convolution16"
  top: "Convolution17"
  convolution_param {
    num_output: 32
    bias_term: true
    pad: 1
    kernel_size: 3
    stride: 1
    weight_filler {
      type: "msra"
    }
    bias_filler {
      type: "constant"
    }
  }
}
layer {
  name: "BatchNorm17"
  type: "BatchNorm"
  bottom: "Convolution17"
  top: "Convolution17"
  param {
    lr_mult: 0
    decay_mult: 0
  }
  param {
    lr_mult: 0
    decay_mult: 0
  }
  param {
    lr_mult: 0
    decay_mult: 0
  }
}
layer {
  name: "Scale17"
  type: "Scale"
  bottom: "Convolution17"
  top: "Convolution17"
  scale_param {
    bias_term: true
  }
}
layer {
  name: "Eltwise8"
  type: "Eltwise"
  bottom: "Eltwise7"
  bottom: "Convolution17"
  top: "Eltwise8"
  eltwise_param {
    operation: SUM
  }
}
layer {
  name: "ReLU17"
  type: "ReLU"
  bottom: "Eltwise8"
  top: "Eltwise8"
}
layer {
  name: "Convolution18"
  type: "Convolution"
  bottom: "Eltwise8"
  top: "Convolution18"
  convolution_param {
    num_output: 32
    bias_term: true
    pad: 1
    kernel_size: 3
    stride: 1
    weight_filler {
      type: "msra"
    }
    bias_filler {
      type: "constant"
    }
  }
}
layer {
  name: "BatchNorm18"
  type: "BatchNorm"
  bottom: "Convolution18"
  top: "Convolution18"
  param {
    lr_mult: 0
    decay_mult: 0
  }
  param {
    lr_mult: 0
    decay_mult: 0
  }
  param {
    lr_mult: 0
    decay_mult: 0
  }
}
layer {
  name: "Scale18"
  type: "Scale"
  bottom: "Convolution18"
  top: "Convolution18"
  scale_param {
    bias_term: true
  }
}
layer {
  name: "ReLU18"
  type: "ReLU"
  bottom: "Convolution18"
  top: "Convolution18"
}
layer {
  name: "Convolution19"
  type: "Convolution"
  bottom: "Convolution18"
  top: "Convolution19"
  convolution_param {
    num_output: 32
    bias_term: true
    pad: 1
    kernel_size: 3
    stride: 1
    weight_filler {
      type: "msra"
    }
    bias_filler {
      type: "constant"
    }
  }
}
layer {
  name: "BatchNorm19"
  type: "BatchNorm"
  bottom: "Convolution19"
  top: "Convolution19"
  param {
    lr_mult: 0
    decay_mult: 0
  }
  param {
    lr_mult: 0
    decay_mult: 0
  }
  param {
    lr_mult: 0
    decay_mult: 0
  }
}
layer {
  name: "Scale19"
  type: "Scale"
  bottom: "Convolution19"
  top: "Convolution19"
  scale_param {
    bias_term: true
  }
}
layer {
  name: "Eltwise9"
  type: "Eltwise"
  bottom: "Eltwise8"
  bottom: "Convolution19"
  top: "Eltwise9"
  eltwise_param {
    operation: SUM
  }
}
layer {
  name: "ReLU19"
  type: "ReLU"
  bottom: "Eltwise9"
  top: "Eltwise9"
}
layer {
  name: "Pooling2"
  type: "Pooling"
  bottom: "Eltwise9"
  top: "Pooling2"
  pooling_param {
    pool: AVE
    kernel_size: 2
    stride: 2
  }
}
layer {
  name: "Input2"
  type: "Input"
  top: "Input2"
  input_param {
    shape {
      dim: 100
      dim: 32
      dim: 8
      dim: 8
    }
  }
}
layer {
  name: "Concat2"
  type: "Concat"
  bottom: "Pooling2"
  bottom: "Input2"
  top: "Concat2"
  concat_param {
    axis: 1
  }
}
layer {
  name: "Convolution20"
  type: "Convolution"
  bottom: "Eltwise9"
  top: "Convolution20"
  convolution_param {
    num_output: 64
    bias_term: true
    pad: 1
    kernel_size: 3
    stride: 2
    weight_filler {
      type: "msra"
    }
    bias_filler {
      type: "constant"
    }
  }
}
layer {
  name: "BatchNorm20"
  type: "BatchNorm"
  bottom: "Convolution20"
  top: "Convolution20"
  param {
    lr_mult: 0
    decay_mult: 0
  }
  param {
    lr_mult: 0
    decay_mult: 0
  }
  param {
    lr_mult: 0
    decay_mult: 0
  }
}
layer {
  name: "Scale20"
  type: "Scale"
  bottom: "Convolution20"
  top: "Convolution20"
  scale_param {
    bias_term: true
  }
}
layer {
  name: "ReLU20"
  type: "ReLU"
  bottom: "Convolution20"
  top: "Convolution20"
}
layer {
  name: "Convolution21"
  type: "Convolution"
  bottom: "Convolution20"
  top: "Convolution21"
  convolution_param {
    num_output: 64
    bias_term: true
    pad: 1
    kernel_size: 3
    stride: 1
    weight_filler {
      type: "msra"
    }
    bias_filler {
      type: "constant"
    }
  }
}
layer {
  name: "BatchNorm21"
  type: "BatchNorm"
  bottom: "Convolution21"
  top: "Convolution21"
  param {
    lr_mult: 0
    decay_mult: 0
  }
  param {
    lr_mult: 0
    decay_mult: 0
  }
  param {
    lr_mult: 0
    decay_mult: 0
  }
}
layer {
  name: "Scale21"
  type: "Scale"
  bottom: "Convolution21"
  top: "Convolution21"
  scale_param {
    bias_term: true
  }
}
layer {
  name: "Eltwise10"
  type: "Eltwise"
  bottom: "Concat2"
  bottom: "Convolution21"
  top: "Eltwise10"
  eltwise_param {
    operation: SUM
  }
}
layer {
  name: "ReLU21"
  type: "ReLU"
  bottom: "Eltwise10"
  top: "Eltwise10"
}
layer {
  name: "Convolution22"
  type: "Convolution"
  bottom: "Eltwise10"
  top: "Convolution22"
  convolution_param {
    num_output: 64
    bias_term: true
    pad: 1
    kernel_size: 3
    stride: 1
    weight_filler {
      type: "msra"
    }
    bias_filler {
      type: "constant"
    }
  }
}
layer {
  name: "BatchNorm22"
  type: "BatchNorm"
  bottom: "Convolution22"
  top: "Convolution22"
  param {
    lr_mult: 0
    decay_mult: 0
  }
  param {
    lr_mult: 0
    decay_mult: 0
  }
  param {
    lr_mult: 0
    decay_mult: 0
  }
}
layer {
  name: "Scale22"
  type: "Scale"
  bottom: "Convolution22"
  top: "Convolution22"
  scale_param {
    bias_term: true
  }
}
layer {
  name: "ReLU22"
  type: "ReLU"
  bottom: "Convolution22"
  top: "Convolution22"
}
layer {
  name: "Convolution23"
  type: "Convolution"
  bottom: "Convolution22"
  top: "Convolution23"
  convolution_param {
    num_output: 64
    bias_term: true
    pad: 1
    kernel_size: 3
    stride: 1
    weight_filler {
      type: "msra"
    }
    bias_filler {
      type: "constant"
    }
  }
}
layer {
  name: "BatchNorm23"
  type: "BatchNorm"
  bottom: "Convolution23"
  top: "Convolution23"
  param {
    lr_mult: 0
    decay_mult: 0
  }
  param {
    lr_mult: 0
    decay_mult: 0
  }
  param {
    lr_mult: 0
    decay_mult: 0
  }
}
layer {
  name: "Scale23"
  type: "Scale"
  bottom: "Convolution23"
  top: "Convolution23"
  scale_param {
    bias_term: true
  }
}
layer {
  name: "Eltwise11"
  type: "Eltwise"
  bottom: "Eltwise10"
  bottom: "Convolution23"
  top: "Eltwise11"
  eltwise_param {
    operation: SUM
  }
}
layer {
  name: "ReLU23"
  type: "ReLU"
  bottom: "Eltwise11"
  top: "Eltwise11"
}
layer {
  name: "Convolution24"
  type: "Convolution"
  bottom: "Eltwise11"
  top: "Convolution24"
  convolution_param {
    num_output: 64
    bias_term: true
    pad: 1
    kernel_size: 3
    stride: 1
    weight_filler {
      type: "msra"
    }
    bias_filler {
      type: "constant"
    }
  }
}
layer {
  name: "BatchNorm24"
  type: "BatchNorm"
  bottom: "Convolution24"
  top: "Convolution24"
  param {
    lr_mult: 0
    decay_mult: 0
  }
  param {
    lr_mult: 0
    decay_mult: 0
  }
  param {
    lr_mult: 0
    decay_mult: 0
  }
}
layer {
  name: "Scale24"
  type: "Scale"
  bottom: "Convolution24"
  top: "Convolution24"
  scale_param {
    bias_term: true
  }
}
layer {
  name: "ReLU24"
  type: "ReLU"
  bottom: "Convolution24"
  top: "Convolution24"
}
layer {
  name: "Convolution25"
  type: "Convolution"
  bottom: "Convolution24"
  top: "Convolution25"
  convolution_param {
    num_output: 64
    bias_term: true
    pad: 1
    kernel_size: 3
    stride: 1
    weight_filler {
      type: "msra"
    }
    bias_filler {
      type: "constant"
    }
  }
}
layer {
  name: "BatchNorm25"
  type: "BatchNorm"
  bottom: "Convolution25"
  top: "Convolution25"
  param {
    lr_mult: 0
    decay_mult: 0
  }
  param {
    lr_mult: 0
    decay_mult: 0
  }
  param {
    lr_mult: 0
    decay_mult: 0
  }
}
layer {
  name: "Scale25"
  type: "Scale"
  bottom: "Convolution25"
  top: "Convolution25"
  scale_param {
    bias_term: true
  }
}
layer {
  name: "Eltwise12"
  type: "Eltwise"
  bottom: "Eltwise11"
  bottom: "Convolution25"
  top: "Eltwise12"
  eltwise_param {
    operation: SUM
  }
}
layer {
  name: "ReLU25"
  type: "ReLU"
  bottom: "Eltwise12"
  top: "Eltwise12"
}
layer {
  name: "Convolution26"
  type: "Convolution"
  bottom: "Eltwise12"
  top: "Convolution26"
  convolution_param {
    num_output: 64
    bias_term: true
    pad: 1
    kernel_size: 3
    stride: 1
    weight_filler {
      type: "msra"
    }
    bias_filler {
      type: "constant"
    }
  }
}
layer {
  name: "BatchNorm26"
  type: "BatchNorm"
  bottom: "Convolution26"
  top: "Convolution26"
  param {
    lr_mult: 0
    decay_mult: 0
  }
  param {
    lr_mult: 0
    decay_mult: 0
  }
  param {
    lr_mult: 0
    decay_mult: 0
  }
}
layer {
  name: "Scale26"
  type: "Scale"
  bottom: "Convolution26"
  top: "Convolution26"
  scale_param {
    bias_term: true
  }
}
layer {
  name: "ReLU26"
  type: "ReLU"
  bottom: "Convolution26"
  top: "Convolution26"
}
layer {
  name: "Convolution27"
  type: "Convolution"
  bottom: "Convolution26"
  top: "Convolution27"
  convolution_param {
    num_output: 64
    bias_term: true
    pad: 1
    kernel_size: 3
    stride: 1
    weight_filler {
      type: "msra"
    }
    bias_filler {
      type: "constant"
    }
  }
}
layer {
  name: "BatchNorm27"
  type: "BatchNorm"
  bottom: "Convolution27"
  top: "Convolution27"
  param {
    lr_mult: 0
    decay_mult: 0
  }
  param {
    lr_mult: 0
    decay_mult: 0
  }
  param {
    lr_mult: 0
    decay_mult: 0
  }
}
layer {
  name: "Scale27"
  type: "Scale"
  bottom: "Convolution27"
  top: "Convolution27"
  scale_param {
    bias_term: true
  }
}
layer {
  name: "Eltwise13"
  type: "Eltwise"
  bottom: "Eltwise12"
  bottom: "Convolution27"
  top: "Eltwise13"
  eltwise_param {
    operation: SUM
  }
}
layer {
  name: "ReLU27"
  type: "ReLU"
  bottom: "Eltwise13"
  top: "Eltwise13"
}
layer {
  name: "Convolution28"
  type: "Convolution"
  bottom: "Eltwise13"
  top: "Convolution28"
  convolution_param {
    num_output: 64
    bias_term: true
    pad: 1
    kernel_size: 3
    stride: 1
    weight_filler {
      type: "msra"
    }
    bias_filler {
      type: "constant"
    }
  }
}
layer {
  name: "BatchNorm28"
  type: "BatchNorm"
  bottom: "Convolution28"
  top: "Convolution28"
  param {
    lr_mult: 0
    decay_mult: 0
  }
  param {
    lr_mult: 0
    decay_mult: 0
  }
  param {
    lr_mult: 0
    decay_mult: 0
  }
}
layer {
  name: "Scale28"
  type: "Scale"
  bottom: "Convolution28"
  top: "Convolution28"
  scale_param {
    bias_term: true
  }
}
layer {
  name: "ReLU28"
  type: "ReLU"
  bottom: "Convolution28"
  top: "Convolution28"
}
layer {
  name: "Convolution29"
  type: "Convolution"
  bottom: "Convolution28"
  top: "Convolution29"
  convolution_param {
    num_output: 64
    bias_term: true
    pad: 1
    kernel_size: 3
    stride: 1
    weight_filler {
      type: "msra"
    }
    bias_filler {
      type: "constant"
    }
  }
}
layer {
  name: "BatchNorm29"
  type: "BatchNorm"
  bottom: "Convolution29"
  top: "Convolution29"
  param {
    lr_mult: 0
    decay_mult: 0
  }
  param {
    lr_mult: 0
    decay_mult: 0
  }
  param {
    lr_mult: 0
    decay_mult: 0
  }
}
layer {
  name: "Scale29"
  type: "Scale"
  bottom: "Convolution29"
  top: "Convolution29"
  scale_param {
    bias_term: true
  }
}
layer {
  name: "Eltwise14"
  type: "Eltwise"
  bottom: "Eltwise13"
  bottom: "Convolution29"
  top: "Eltwise14"
  eltwise_param {
    operation: SUM
  }
}
layer {
  name: "ReLU29"
  type: "ReLU"
  bottom: "Eltwise14"
  top: "Eltwise14"
}
layer {
  name: "Pooling3"
  type: "Pooling"
  bottom: "Eltwise14"
  top: "Pooling3"
  pooling_param {
    pool: AVE
    global_pooling: true
  }
}
layer {
  name: "InnerProduct1"
  type: "InnerProduct"
  bottom: "Pooling3"
  top: "InnerProduct1"
  inner_product_param {
    num_output: 10
    bias_term: true
    weight_filler {
      type: "msra"
    }
  }
}
layer {
  name: "Accuracy"
  type: "Accuracy"
  bottom: "InnerProduct1"
  bottom: "Data2"
  top: "Accuracy"
  include {
    phase: TEST
  }
}
layer {
  name: "SoftmaxWithLoss1"
  type: "SoftmaxWithLoss"
  bottom: "InnerProduct1"
  bottom: "Data2"
  top: "SoftmaxWithLoss1"
}
I0525 23:46:16.936329 15394 layer_factory.hpp:77] Creating layer Data1
I0525 23:46:16.936556 15394 net.cpp:190] Creating Layer Data1
I0525 23:46:16.936573 15394 net.cpp:579] Data1 -> Data1
I0525 23:46:16.936594 15394 net.cpp:579] Data1 -> Data2
I0525 23:46:16.993352 15400 db_leveldb.cpp:18] Opened leveldb /scratch/pas282/caffe/examples/cifar10/cifar10_test_leveldb_padding0
I0525 23:46:16.993968 15394 data_layer.cpp:41] output data size: 100,3,32,32
I0525 23:46:17.000449 15394 net.cpp:240] Setting up Data1
I0525 23:46:17.000504 15394 net.cpp:247] Top shape: 100 3 32 32 (307200)
I0525 23:46:17.000510 15394 net.cpp:247] Top shape: 100 (100)
I0525 23:46:17.000514 15394 net.cpp:255] Memory required for data: 1229200
I0525 23:46:17.000524 15394 layer_factory.hpp:77] Creating layer Data2_Data1_1_split
I0525 23:46:17.000541 15394 net.cpp:190] Creating Layer Data2_Data1_1_split
I0525 23:46:17.000547 15394 net.cpp:605] Data2_Data1_1_split <- Data2
I0525 23:46:17.000558 15394 net.cpp:579] Data2_Data1_1_split -> Data2_Data1_1_split_0
I0525 23:46:17.006484 15394 net.cpp:579] Data2_Data1_1_split -> Data2_Data1_1_split_1
I0525 23:46:17.006644 15394 net.cpp:240] Setting up Data2_Data1_1_split
I0525 23:46:17.006659 15394 net.cpp:247] Top shape: 100 (100)
I0525 23:46:17.006664 15394 net.cpp:247] Top shape: 100 (100)
I0525 23:46:17.006667 15394 net.cpp:255] Memory required for data: 1230000
I0525 23:46:17.006675 15394 layer_factory.hpp:77] Creating layer Convolution1
I0525 23:46:17.006698 15394 net.cpp:190] Creating Layer Convolution1
I0525 23:46:17.006705 15394 net.cpp:605] Convolution1 <- Data1
I0525 23:46:17.006727 15394 net.cpp:579] Convolution1 -> Convolution1
I0525 23:46:17.007068 15394 net.cpp:240] Setting up Convolution1
I0525 23:46:17.007081 15394 net.cpp:247] Top shape: 100 16 32 32 (1638400)
I0525 23:46:17.007086 15394 net.cpp:255] Memory required for data: 7783600
I0525 23:46:17.007100 15394 layer_factory.hpp:77] Creating layer BatchNorm1
I0525 23:46:17.007113 15394 net.cpp:190] Creating Layer BatchNorm1
I0525 23:46:17.007118 15394 net.cpp:605] BatchNorm1 <- Convolution1
I0525 23:46:17.007125 15394 net.cpp:566] BatchNorm1 -> Convolution1 (in-place)
I0525 23:46:17.007344 15394 net.cpp:240] Setting up BatchNorm1
I0525 23:46:17.007354 15394 net.cpp:247] Top shape: 100 16 32 32 (1638400)
I0525 23:46:17.007357 15394 net.cpp:255] Memory required for data: 14337200
I0525 23:46:17.007374 15394 layer_factory.hpp:77] Creating layer Scale1
I0525 23:46:17.007390 15394 net.cpp:190] Creating Layer Scale1
I0525 23:46:17.007395 15394 net.cpp:605] Scale1 <- Convolution1
I0525 23:46:17.007400 15394 net.cpp:566] Scale1 -> Convolution1 (in-place)
I0525 23:46:17.007458 15394 layer_factory.hpp:77] Creating layer Scale1
I0525 23:46:17.007583 15394 net.cpp:240] Setting up Scale1
I0525 23:46:17.007592 15394 net.cpp:247] Top shape: 100 16 32 32 (1638400)
I0525 23:46:17.007603 15394 net.cpp:255] Memory required for data: 20890800
I0525 23:46:17.007612 15394 layer_factory.hpp:77] Creating layer ReLU1
I0525 23:46:17.007621 15394 net.cpp:190] Creating Layer ReLU1
I0525 23:46:17.007627 15394 net.cpp:605] ReLU1 <- Convolution1
I0525 23:46:17.007637 15394 net.cpp:566] ReLU1 -> Convolution1 (in-place)
I0525 23:46:17.007644 15394 net.cpp:240] Setting up ReLU1
I0525 23:46:17.007649 15394 net.cpp:247] Top shape: 100 16 32 32 (1638400)
I0525 23:46:17.007652 15394 net.cpp:255] Memory required for data: 27444400
I0525 23:46:17.007657 15394 layer_factory.hpp:77] Creating layer Convolution1_ReLU1_0_split
I0525 23:46:17.007663 15394 net.cpp:190] Creating Layer Convolution1_ReLU1_0_split
I0525 23:46:17.007668 15394 net.cpp:605] Convolution1_ReLU1_0_split <- Convolution1
I0525 23:46:17.007673 15394 net.cpp:579] Convolution1_ReLU1_0_split -> Convolution1_ReLU1_0_split_0
I0525 23:46:17.007683 15394 net.cpp:579] Convolution1_ReLU1_0_split -> Convolution1_ReLU1_0_split_1
I0525 23:46:17.007772 15394 net.cpp:240] Setting up Convolution1_ReLU1_0_split
I0525 23:46:17.007784 15394 net.cpp:247] Top shape: 100 16 32 32 (1638400)
I0525 23:46:17.007788 15394 net.cpp:247] Top shape: 100 16 32 32 (1638400)
I0525 23:46:17.007791 15394 net.cpp:255] Memory required for data: 40551600
I0525 23:46:17.007797 15394 layer_factory.hpp:77] Creating layer Convolution2
I0525 23:46:17.007809 15394 net.cpp:190] Creating Layer Convolution2
I0525 23:46:17.007813 15394 net.cpp:605] Convolution2 <- Convolution1_ReLU1_0_split_0
I0525 23:46:17.007822 15394 net.cpp:579] Convolution2 -> Convolution2
I0525 23:46:17.008291 15394 net.cpp:240] Setting up Convolution2
I0525 23:46:17.008306 15394 net.cpp:247] Top shape: 100 16 32 32 (1638400)
I0525 23:46:17.008311 15394 net.cpp:255] Memory required for data: 47105200
I0525 23:46:17.008325 15394 layer_factory.hpp:77] Creating layer BatchNorm2
I0525 23:46:17.008339 15394 net.cpp:190] Creating Layer BatchNorm2
I0525 23:46:17.008344 15394 net.cpp:605] BatchNorm2 <- Convolution2
I0525 23:46:17.008354 15394 net.cpp:566] BatchNorm2 -> Convolution2 (in-place)
I0525 23:46:17.008569 15394 net.cpp:240] Setting up BatchNorm2
I0525 23:46:17.008579 15394 net.cpp:247] Top shape: 100 16 32 32 (1638400)
I0525 23:46:17.008582 15394 net.cpp:255] Memory required for data: 53658800
I0525 23:46:17.008594 15394 layer_factory.hpp:77] Creating layer Scale2
I0525 23:46:17.008605 15394 net.cpp:190] Creating Layer Scale2
I0525 23:46:17.008608 15394 net.cpp:605] Scale2 <- Convolution2
I0525 23:46:17.008615 15394 net.cpp:566] Scale2 -> Convolution2 (in-place)
I0525 23:46:17.008666 15394 layer_factory.hpp:77] Creating layer Scale2
I0525 23:46:17.008790 15394 net.cpp:240] Setting up Scale2
I0525 23:46:17.008798 15394 net.cpp:247] Top shape: 100 16 32 32 (1638400)
I0525 23:46:17.008803 15394 net.cpp:255] Memory required for data: 60212400
I0525 23:46:17.008812 15394 layer_factory.hpp:77] Creating layer ReLU2
I0525 23:46:17.008819 15394 net.cpp:190] Creating Layer ReLU2
I0525 23:46:17.008824 15394 net.cpp:605] ReLU2 <- Convolution2
I0525 23:46:17.008833 15394 net.cpp:566] ReLU2 -> Convolution2 (in-place)
I0525 23:46:17.008841 15394 net.cpp:240] Setting up ReLU2
I0525 23:46:17.008846 15394 net.cpp:247] Top shape: 100 16 32 32 (1638400)
I0525 23:46:17.008851 15394 net.cpp:255] Memory required for data: 66766000
I0525 23:46:17.008853 15394 layer_factory.hpp:77] Creating layer Convolution3
I0525 23:46:17.008864 15394 net.cpp:190] Creating Layer Convolution3
I0525 23:46:17.008868 15394 net.cpp:605] Convolution3 <- Convolution2
I0525 23:46:17.008877 15394 net.cpp:579] Convolution3 -> Convolution3
I0525 23:46:17.009205 15394 net.cpp:240] Setting up Convolution3
I0525 23:46:17.009217 15394 net.cpp:247] Top shape: 100 16 32 32 (1638400)
I0525 23:46:17.009222 15394 net.cpp:255] Memory required for data: 73319600
I0525 23:46:17.009230 15394 layer_factory.hpp:77] Creating layer BatchNorm3
I0525 23:46:17.009238 15394 net.cpp:190] Creating Layer BatchNorm3
I0525 23:46:17.009250 15394 net.cpp:605] BatchNorm3 <- Convolution3
I0525 23:46:17.009259 15394 net.cpp:566] BatchNorm3 -> Convolution3 (in-place)
I0525 23:46:17.009459 15394 net.cpp:240] Setting up BatchNorm3
I0525 23:46:17.009469 15394 net.cpp:247] Top shape: 100 16 32 32 (1638400)
I0525 23:46:17.009472 15394 net.cpp:255] Memory required for data: 79873200
I0525 23:46:17.009486 15394 layer_factory.hpp:77] Creating layer Scale3
I0525 23:46:17.009500 15394 net.cpp:190] Creating Layer Scale3
I0525 23:46:17.009503 15394 net.cpp:605] Scale3 <- Convolution3
I0525 23:46:17.009510 15394 net.cpp:566] Scale3 -> Convolution3 (in-place)
I0525 23:46:17.009557 15394 layer_factory.hpp:77] Creating layer Scale3
I0525 23:46:17.009676 15394 net.cpp:240] Setting up Scale3
I0525 23:46:17.009685 15394 net.cpp:247] Top shape: 100 16 32 32 (1638400)
I0525 23:46:17.009688 15394 net.cpp:255] Memory required for data: 86426800
I0525 23:46:17.009696 15394 layer_factory.hpp:77] Creating layer Eltwise1
I0525 23:46:17.009704 15394 net.cpp:190] Creating Layer Eltwise1
I0525 23:46:17.009709 15394 net.cpp:605] Eltwise1 <- Convolution1_ReLU1_0_split_1
I0525 23:46:17.009714 15394 net.cpp:605] Eltwise1 <- Convolution3
I0525 23:46:17.009722 15394 net.cpp:579] Eltwise1 -> Eltwise1
I0525 23:46:17.009753 15394 net.cpp:240] Setting up Eltwise1
I0525 23:46:17.009760 15394 net.cpp:247] Top shape: 100 16 32 32 (1638400)
I0525 23:46:17.009764 15394 net.cpp:255] Memory required for data: 92980400
I0525 23:46:17.009768 15394 layer_factory.hpp:77] Creating layer ReLU3
I0525 23:46:17.009774 15394 net.cpp:190] Creating Layer ReLU3
I0525 23:46:17.009778 15394 net.cpp:605] ReLU3 <- Eltwise1
I0525 23:46:17.009784 15394 net.cpp:566] ReLU3 -> Eltwise1 (in-place)
I0525 23:46:17.009793 15394 net.cpp:240] Setting up ReLU3
I0525 23:46:17.009798 15394 net.cpp:247] Top shape: 100 16 32 32 (1638400)
I0525 23:46:17.009800 15394 net.cpp:255] Memory required for data: 99534000
I0525 23:46:17.009804 15394 layer_factory.hpp:77] Creating layer Eltwise1_ReLU3_0_split
I0525 23:46:17.009816 15394 net.cpp:190] Creating Layer Eltwise1_ReLU3_0_split
I0525 23:46:17.009821 15394 net.cpp:605] Eltwise1_ReLU3_0_split <- Eltwise1
I0525 23:46:17.009826 15394 net.cpp:579] Eltwise1_ReLU3_0_split -> Eltwise1_ReLU3_0_split_0
I0525 23:46:17.009834 15394 net.cpp:579] Eltwise1_ReLU3_0_split -> Eltwise1_ReLU3_0_split_1
I0525 23:46:17.009871 15394 net.cpp:240] Setting up Eltwise1_ReLU3_0_split
I0525 23:46:17.009878 15394 net.cpp:247] Top shape: 100 16 32 32 (1638400)
I0525 23:46:17.009882 15394 net.cpp:247] Top shape: 100 16 32 32 (1638400)
I0525 23:46:17.009886 15394 net.cpp:255] Memory required for data: 112641200
I0525 23:46:17.009889 15394 layer_factory.hpp:77] Creating layer Convolution4
I0525 23:46:17.009901 15394 net.cpp:190] Creating Layer Convolution4
I0525 23:46:17.009904 15394 net.cpp:605] Convolution4 <- Eltwise1_ReLU3_0_split_0
I0525 23:46:17.009914 15394 net.cpp:579] Convolution4 -> Convolution4
I0525 23:46:17.010313 15394 net.cpp:240] Setting up Convolution4
I0525 23:46:17.010327 15394 net.cpp:247] Top shape: 100 16 32 32 (1638400)
I0525 23:46:17.010331 15394 net.cpp:255] Memory required for data: 119194800
I0525 23:46:17.010340 15394 layer_factory.hpp:77] Creating layer BatchNorm4
I0525 23:46:17.010351 15394 net.cpp:190] Creating Layer BatchNorm4
I0525 23:46:17.010362 15394 net.cpp:605] BatchNorm4 <- Convolution4
I0525 23:46:17.010368 15394 net.cpp:566] BatchNorm4 -> Convolution4 (in-place)
I0525 23:46:17.010715 15394 net.cpp:240] Setting up BatchNorm4
I0525 23:46:17.010730 15394 net.cpp:247] Top shape: 100 16 32 32 (1638400)
I0525 23:46:17.010735 15394 net.cpp:255] Memory required for data: 125748400
I0525 23:46:17.010746 15394 layer_factory.hpp:77] Creating layer Scale4
I0525 23:46:17.010757 15394 net.cpp:190] Creating Layer Scale4
I0525 23:46:17.010761 15394 net.cpp:605] Scale4 <- Convolution4
I0525 23:46:17.010768 15394 net.cpp:566] Scale4 -> Convolution4 (in-place)
I0525 23:46:17.010820 15394 layer_factory.hpp:77] Creating layer Scale4
I0525 23:46:17.010957 15394 net.cpp:240] Setting up Scale4
I0525 23:46:17.010974 15394 net.cpp:247] Top shape: 100 16 32 32 (1638400)
I0525 23:46:17.010978 15394 net.cpp:255] Memory required for data: 132302000
I0525 23:46:17.010987 15394 layer_factory.hpp:77] Creating layer ReLU4
I0525 23:46:17.010998 15394 net.cpp:190] Creating Layer ReLU4
I0525 23:46:17.011001 15394 net.cpp:605] ReLU4 <- Convolution4
I0525 23:46:17.011008 15394 net.cpp:566] ReLU4 -> Convolution4 (in-place)
I0525 23:46:17.011014 15394 net.cpp:240] Setting up ReLU4
I0525 23:46:17.011020 15394 net.cpp:247] Top shape: 100 16 32 32 (1638400)
I0525 23:46:17.011023 15394 net.cpp:255] Memory required for data: 138855600
I0525 23:46:17.011026 15394 layer_factory.hpp:77] Creating layer Convolution5
I0525 23:46:17.011040 15394 net.cpp:190] Creating Layer Convolution5
I0525 23:46:17.011044 15394 net.cpp:605] Convolution5 <- Convolution4
I0525 23:46:17.011051 15394 net.cpp:579] Convolution5 -> Convolution5
I0525 23:46:17.011385 15394 net.cpp:240] Setting up Convolution5
I0525 23:46:17.011396 15394 net.cpp:247] Top shape: 100 16 32 32 (1638400)
I0525 23:46:17.011399 15394 net.cpp:255] Memory required for data: 145409200
I0525 23:46:17.011409 15394 layer_factory.hpp:77] Creating layer BatchNorm5
I0525 23:46:17.011418 15394 net.cpp:190] Creating Layer BatchNorm5
I0525 23:46:17.011423 15394 net.cpp:605] BatchNorm5 <- Convolution5
I0525 23:46:17.011428 15394 net.cpp:566] BatchNorm5 -> Convolution5 (in-place)
I0525 23:46:17.011628 15394 net.cpp:240] Setting up BatchNorm5
I0525 23:46:17.011637 15394 net.cpp:247] Top shape: 100 16 32 32 (1638400)
I0525 23:46:17.011641 15394 net.cpp:255] Memory required for data: 151962800
I0525 23:46:17.011664 15394 layer_factory.hpp:77] Creating layer Scale5
I0525 23:46:17.011673 15394 net.cpp:190] Creating Layer Scale5
I0525 23:46:17.011678 15394 net.cpp:605] Scale5 <- Convolution5
I0525 23:46:17.011684 15394 net.cpp:566] Scale5 -> Convolution5 (in-place)
I0525 23:46:17.011734 15394 layer_factory.hpp:77] Creating layer Scale5
I0525 23:46:17.011862 15394 net.cpp:240] Setting up Scale5
I0525 23:46:17.011871 15394 net.cpp:247] Top shape: 100 16 32 32 (1638400)
I0525 23:46:17.011874 15394 net.cpp:255] Memory required for data: 158516400
I0525 23:46:17.011883 15394 layer_factory.hpp:77] Creating layer Eltwise2
I0525 23:46:17.011903 15394 net.cpp:190] Creating Layer Eltwise2
I0525 23:46:17.011909 15394 net.cpp:605] Eltwise2 <- Eltwise1_ReLU3_0_split_1
I0525 23:46:17.011914 15394 net.cpp:605] Eltwise2 <- Convolution5
I0525 23:46:17.011920 15394 net.cpp:579] Eltwise2 -> Eltwise2
I0525 23:46:17.011953 15394 net.cpp:240] Setting up Eltwise2
I0525 23:46:17.011961 15394 net.cpp:247] Top shape: 100 16 32 32 (1638400)
I0525 23:46:17.011965 15394 net.cpp:255] Memory required for data: 165070000
I0525 23:46:17.011970 15394 layer_factory.hpp:77] Creating layer ReLU5
I0525 23:46:17.011976 15394 net.cpp:190] Creating Layer ReLU5
I0525 23:46:17.011981 15394 net.cpp:605] ReLU5 <- Eltwise2
I0525 23:46:17.011991 15394 net.cpp:566] ReLU5 -> Eltwise2 (in-place)
I0525 23:46:17.011997 15394 net.cpp:240] Setting up ReLU5
I0525 23:46:17.012002 15394 net.cpp:247] Top shape: 100 16 32 32 (1638400)
I0525 23:46:17.012006 15394 net.cpp:255] Memory required for data: 171623600
I0525 23:46:17.012009 15394 layer_factory.hpp:77] Creating layer Eltwise2_ReLU5_0_split
I0525 23:46:17.012017 15394 net.cpp:190] Creating Layer Eltwise2_ReLU5_0_split
I0525 23:46:17.012019 15394 net.cpp:605] Eltwise2_ReLU5_0_split <- Eltwise2
…
I0525 23:46:17.029074 15394 net.cpp:605] ReLU12 <- Convolution12
I0525 23:46:17.029080 15394 net.cpp:566] ReLU12 -> Convolution12 (in-place)
I0525 23:46:17.029088 15394 net.cpp:240] Setting up ReLU12
I0525 23:46:17.029091 15394 net.cpp:247] Top shape: 100 32 16 16 (819200)
I0525 23:46:17.029095 15394 net.cpp:255] Memory required for data: 384615600
I0525 23:46:17.029098 15394 layer_factory.hpp:77] Creating layer Convolution13
I0525 23:46:17.029124 15394 net.cpp:190] Creating Layer Convolution13
I0525 23:46:17.029129 15394 net.cpp:605] Convolution13 <- Convolution12
I0525 23:46:17.029135 15394 net.cpp:579] Convolution13 -> Convolution13
I0525 23:46:17.030902 15394 net.cpp:240] Setting up Convolution13
I0525 23:46:17.030948 15394 net.cpp:247] Top shape: 100 32 16 16 (819200)
I0525 23:46:17.030952 15394 net.cpp:255] Memory required for data: 387892400
I0525 23:46:17.030968 15394 layer_factory.hpp:77] Creating layer BatchNorm13
I0525 23:46:17.030985 15394 net.cpp:190] Creating Layer BatchNorm13
I0525 23:46:17.030992 15394 net.cpp:605] BatchNorm13 <- Convolution13
I0525 23:46:17.031002 15394 net.cpp:566] BatchNorm13 -> Convolution13 (in-place)
I0525 23:46:17.031195 15394 net.cpp:240] Setting up BatchNorm13
I0525 23:46:17.031204 15394 net.cpp:247] Top shape: 100 32 16 16 (819200)
I0525 23:46:17.031219 15394 net.cpp:255] Memory required for data: 391169200
I0525 23:46:17.031231 15394 layer_factory.hpp:77] Creating layer Scale13
I0525 23:46:17.031244 15394 net.cpp:190] Creating Layer Scale13
I0525 23:46:17.031249 15394 net.cpp:605] Scale13 <- Convolution13
I0525 23:46:17.031253 15394 net.cpp:566] Scale13 -> Convolution13 (in-place)
I0525 23:46:17.031301 15394 layer_factory.hpp:77] Creating layer Scale13
I0525 23:46:17.031419 15394 net.cpp:240] Setting up Scale13
I0525 23:46:17.031427 15394 net.cpp:247] Top shape: 100 32 16 16 (819200)
I0525 23:46:17.031430 15394 net.cpp:255] Memory required for data: 394446000
I0525 23:46:17.031438 15394 layer_factory.hpp:77] Creating layer Eltwise6
I0525 23:46:17.031461 15394 net.cpp:190] Creating Layer Eltwise6
I0525 23:46:17.031467 15394 net.cpp:605] Eltwise6 <- Eltwise5_ReLU11_0_split_1
I0525 23:46:17.031472 15394 net.cpp:605] Eltwise6 <- Convolution13
I0525 23:46:17.031479 15394 net.cpp:579] Eltwise6 -> Eltwise6
I0525 23:46:17.031505 15394 net.cpp:240] Setting up Eltwise6
I0525 23:46:17.031512 15394 net.cpp:247] Top shape: 100 32 16 16 (819200)
I0525 23:46:17.031514 15394 net.cpp:255] Memory required for data: 397722800
I0525 23:46:17.031518 15394 layer_factory.hpp:77] Creating layer ReLU13
I0525 23:46:17.031524 15394 net.cpp:190] Creating Layer ReLU13
I0525 23:46:17.031528 15394 net.cpp:605] ReLU13 <- Eltwise6
I0525 23:46:17.031533 15394 net.cpp:566] ReLU13 -> Eltwise6 (in-place)
I0525 23:46:17.031539 15394 net.cpp:240] Setting up ReLU13
I0525 23:46:17.031544 15394 net.cpp:247] Top shape: 100 32 16 16 (819200)
I0525 23:46:17.031548 15394 net.cpp:255] Memory required for data: 400999600
I0525 23:46:17.031550 15394 layer_factory.hpp:77] Creating layer Eltwise6_ReLU13_0_split
I0525 23:46:17.031559 15394 net.cpp:190] Creating Layer Eltwise6_ReLU13_0_split
I0525 23:46:17.031563 15394 net.cpp:605] Eltwise6_ReLU13_0_split <- Eltwise6
I0525 23:46:17.032667 15394 net.cpp:579] Eltwise6_ReLU13_0_split -> Eltwise6_ReLU13_0_split_0
I0525 23:46:17.032721 15394 net.cpp:579] Eltwise6_ReLU13_0_split -> Eltwise6_ReLU13_0_split_1
I0525 23:46:17.032821 15394 net.cpp:240] Setting up Eltwise6_ReLU13_0_split
I0525 23:46:17.032832 15394 net.cpp:247] Top shape: 100 32 16 16 (819200)
I0525 23:46:17.032837 15394 net.cpp:247] Top shape: 100 32 16 16 (819200)
I0525 23:46:17.032840 15394 net.cpp:255] Memory required for data: 407553200
I0525 23:46:17.032847 15394 layer_factory.hpp:77] Creating layer Convolution14
I0525 23:46:17.032863 15394 net.cpp:190] Creating Layer Convolution14
I0525 23:46:17.032868 15394 net.cpp:605] Convolution14 <- Eltwise6_ReLU13_0_split_0
I0525 23:46:17.032877 15394 net.cpp:579] Convolution14 -> Convolution14
I0525 23:46:17.033494 15394 net.cpp:240] Setting up Convolution14
I0525 23:46:17.033514 15394 net.cpp:247] Top shape: 100 32 16 16 (819200)
I0525 23:46:17.033519 15394 net.cpp:255] Memory required for data: 410830000
I0525 23:46:17.033530 15394 layer_factory.hpp:77] Creating layer BatchNorm14
I0525 23:46:17.033540 15394 net.cpp:190] Creating Layer BatchNorm14
I0525 23:46:17.033545 15394 net.cpp:605] BatchNorm14 <- Convolution14
I0525 23:46:17.033555 15394 net.cpp:566] BatchNorm14 -> Convolution14 (in-place)
I0525 23:46:17.034906 15394 net.cpp:240] Setting up BatchNorm14
I0525 23:46:17.034940 15394 net.cpp:247] Top shape: 100 32 16 16 (819200)
I0525 23:46:17.034945 15394 net.cpp:255] Memory required for data: 414106800
I0525 23:46:17.034965 15394 layer_factory.hpp:77] Creating layer Scale14
I0525 23:46:17.034979 15394 net.cpp:190] Creating Layer Scale14
I0525 23:46:17.034986 15394 net.cpp:605] Scale14 <- Convolution14
I0525 23:46:17.034994 15394 net.cpp:566] Scale14 -> Convolution14 (in-place)
I0525 23:46:17.035056 15394 layer_factory.hpp:77] Creating layer Scale14
I0525 23:46:17.035183 15394 net.cpp:240] Setting up Scale14
I0525 23:46:17.035190 15394 net.cpp:247] Top shape: 100 32 16 16 (819200)
I0525 23:46:17.035194 15394 net.cpp:255] Memory required for data: 417383600
I0525 23:46:17.035203 15394 layer_factory.hpp:77] Creating layer ReLU14
I0525 23:46:17.035219 15394 net.cpp:190] Creating Layer ReLU14
I0525 23:46:17.035224 15394 net.cpp:605] ReLU14 <- Convolution14
I0525 23:46:17.035230 15394 net.cpp:566] ReLU14 -> Convolution14 (in-place)
I0525 23:46:17.035238 15394 net.cpp:240] Setting up ReLU14
I0525 23:46:17.035241 15394 net.cpp:247] Top shape: 100 32 16 16 (819200)
I0525 23:46:17.035245 15394 net.cpp:255] Memory required for data: 420660400
I0525 23:46:17.035248 15394 layer_factory.hpp:77] Creating layer Convolution15
I0525 23:46:17.035261 15394 net.cpp:190] Creating Layer Convolution15
I0525 23:46:17.035265 15394 net.cpp:605] Convolution15 <- Convolution14
I0525 23:46:17.035271 15394 net.cpp:579] Convolution15 -> Convolution15
I0525 23:46:17.037247 15394 net.cpp:240] Setting up Convolution15
I0525 23:46:17.037298 15394 net.cpp:247] Top shape: 100 32 16 16 (819200)
I0525 23:46:17.037303 15394 net.cpp:255] Memory required for data: 423937200
I0525 23:46:17.037324 15394 layer_factory.hpp:77] Creating layer BatchNorm15
I0525 23:46:17.037343 15394 net.cpp:190] Creating Layer BatchNorm15
I0525 23:46:17.037353 15394 net.cpp:605] BatchNorm15 <- Convolution15
I0525 23:46:17.037365 15394 net.cpp:566] BatchNorm15 -> Convolution15 (in-place)
I0525 23:46:17.037657 15394 net.cpp:240] Setting up BatchNorm15
I0525 23:46:17.037667 15394 net.cpp:247] Top shape: 100 32 16 16 (819200)
I0525 23:46:17.037670 15394 net.cpp:255] Memory required for data: 427214000
I0525 23:46:17.037683 15394 layer_factory.hpp:77] Creating layer Scale15
I0525 23:46:17.037694 15394 net.cpp:190] Creating Layer Scale15
I0525 23:46:17.037698 15394 net.cpp:605] Scale15 <- Convolution15
I0525 23:46:17.037704 15394 net.cpp:566] Scale15 -> Convolution15 (in-place)
I0525 23:46:17.037760 15394 layer_factory.hpp:77] Creating layer Scale15
I0525 23:46:17.037881 15394 net.cpp:240] Setting up Scale15
I0525 23:46:17.037890 15394 net.cpp:247] Top shape: 100 32 16 16 (819200)
I0525 23:46:17.037894 15394 net.cpp:255] Memory required for data: 430490800
I0525 23:46:17.037902 15394 layer_factory.hpp:77] Creating layer Eltwise7
I0525 23:46:17.037914 15394 net.cpp:190] Creating Layer Eltwise7
I0525 23:46:17.037919 15394 net.cpp:605] Eltwise7 <- Eltwise6_ReLU13_0_split_1
I0525 23:46:17.037925 15394 net.cpp:605] Eltwise7 <- Convolution15
I0525 23:46:17.037931 15394 net.cpp:579] Eltwise7 -> Eltwise7
I0525 23:46:17.037956 15394 net.cpp:240] Setting up Eltwise7
I0525 23:46:17.037962 15394 net.cpp:247] Top shape: 100 32 16 16 (819200)
I0525 23:46:17.037966 15394 net.cpp:255] Memory required for data: 433767600
I0525 23:46:17.037969 15394 layer_factory.hpp:77] Creating layer ReLU15
I0525 23:46:17.037978 15394 net.cpp:190] Creating Layer ReLU15
I0525 23:46:17.037981 15394 net.cpp:605] ReLU15 <- Eltwise7
I0525 23:46:17.037989 15394 net.cpp:566] ReLU15 -> Eltwise7 (in-place)
I0525 23:46:17.037997 15394 net.cpp:240] Setting up ReLU15
I0525 23:46:17.038002 15394 net.cpp:247] Top shape: 100 32 16 16 (819200)
I0525 23:46:17.038004 15394 net.cpp:255] Memory required for data: 437044400
I0525 23:46:17.038008 15394 layer_factory.hpp:77] Creating layer Eltwise7_ReLU15_0_split
I0525 23:46:17.038014 15394 net.cpp:190] Creating Layer Eltwise7_ReLU15_0_split
I0525 23:46:17.038018 15394 net.cpp:605] Eltwise7_ReLU15_0_split <- Eltwise7
I0525 23:46:17.038022 15394 net.cpp:579] Eltwise7_ReLU15_0_split -> Eltwise7_ReLU15_0_split_0
I0525 23:46:17.038029 15394 net.cpp:579] Eltwise7_ReLU15_0_split -> Eltwise7_ReLU15_0_split_1
I0525 23:46:17.038065 15394 net.cpp:240] Setting up Eltwise7_ReLU15_0_split
I0525 23:46:17.038071 15394 net.cpp:247] Top shape: 100 32 16 16 (819200)
I0525 23:46:17.038076 15394 net.cpp:247] Top shape: 100 32 16 16 (819200)
I0525 23:46:17.038079 15394 net.cpp:255] Memory required for data: 443598000
I0525 23:46:17.038084 15394 layer_factory.hpp:77] Creating layer Convolution16
I0525 23:46:17.038099 15394 net.cpp:190] Creating Layer Convolution16
I0525 23:46:17.038103 15394 net.cpp:605] Convolution16 <- Eltwise7_ReLU15_0_split_0
I0525 23:46:17.038110 15394 net.cpp:579] Convolution16 -> Convolution16
I0525 23:46:17.038727 15394 net.cpp:240] Setting up Convolution16
I0525 23:46:17.038753 15394 net.cpp:247] Top shape: 100 32 16 16 (819200)
I0525 23:46:17.038758 15394 net.cpp:255] Memory required for data: 446874800
I0525 23:46:17.038769 15394 layer_factory.hpp:77] Creating layer BatchNorm16
I0525 23:46:17.038782 15394 net.cpp:190] Creating Layer BatchNorm16
I0525 23:46:17.038787 15394 net.cpp:605] BatchNorm16 <- Convolution16
I0525 23:46:17.038795 15394 net.cpp:566] BatchNorm16 -> Convolution16 (in-place)
I0525 23:46:17.038990 15394 net.cpp:240] Setting up BatchNorm16
I0525 23:46:17.038997 15394 net.cpp:247] Top shape: 100 32 16 16 (819200)
I0525 23:46:17.039001 15394 net.cpp:255] Memory required for data: 450151600
I0525 23:46:17.039012 15394 layer_factory.hpp:77] Creating layer Scale16
I0525 23:46:17.039024 15394 net.cpp:190] Creating Layer Scale16
I0525 23:46:17.039028 15394 net.cpp:605] Scale16 <- Convolution16
I0525 23:46:17.039033 15394 net.cpp:566] Scale16 -> Convolution16 (in-place)
I0525 23:46:17.039082 15394 layer_factory.hpp:77] Creating layer Scale16
I0525 23:46:17.039211 15394 net.cpp:240] Setting up Scale16
I0525 23:46:17.039218 15394 net.cpp:247] Top shape: 100 32 16 16 (819200)
I0525 23:46:17.039222 15394 net.cpp:255] Memory required for data: 453428400
I0525 23:46:17.039230 15394 layer_factory.hpp:77] Creating layer ReLU16
I0525 23:46:17.039240 15394 net.cpp:190] Creating Layer ReLU16
I0525 23:46:17.039245 15394 net.cpp:605] ReLU16 <- Convolution16
I0525 23:46:17.039250 15394 net.cpp:566] ReLU16 -> Convolution16 (in-place)
I0525 23:46:17.039258 15394 net.cpp:240] Setting up ReLU16
I0525 23:46:17.039261 15394 net.cpp:247] Top shape: 100 32 16 16 (819200)
I0525 23:46:17.039264 15394 net.cpp:255] Memory required for data: 456705200
I0525 23:46:17.039268 15394 layer_factory.hpp:77] Creating layer Convolution17
I0525 23:46:17.039283 15394 net.cpp:190] Creating Layer Convolution17
I0525 23:46:17.039288 15394 net.cpp:605] Convolution17 <- Convolution16
I0525 23:46:17.039295 15394 net.cpp:579] Convolution17 -> Convolution17
I0525 23:46:17.039897 15394 net.cpp:240] Setting up Convolution17
I0525 23:46:17.039912 15394 net.cpp:247] Top shape: 100 32 16 16 (819200)
I0525 23:46:17.039916 15394 net.cpp:255] Memory required for data: 459982000
I0525 23:46:17.039926 15394 layer_factory.hpp:77] Creating layer BatchNorm17
I0525 23:46:17.039935 15394 net.cpp:190] Creating Layer BatchNorm17
I0525 23:46:17.039940 15394 net.cpp:605] BatchNorm17 <- Convolution17
I0525 23:46:17.039945 15394 net.cpp:566] BatchNorm17 -> Convolution17 (in-place)
I0525 23:46:17.042387 15394 net.cpp:240] Setting up BatchNorm17
I0525 23:46:17.042429 15394 net.cpp:247] Top shape: 100 32 16 16 (819200)
I0525 23:46:17.042433 15394 net.cpp:255] Memory required for data: 463258800
I0525 23:46:17.042459 15394 layer_factory.hpp:77] Creating layer Scale17
I0525 23:46:17.042476 15394 net.cpp:190] Creating Layer Scale17
I0525 23:46:17.042484 15394 net.cpp:605] Scale17 <- Convolution17
I0525 23:46:17.042493 15394 net.cpp:566] Scale17 -> Convolution17 (in-place)
I0525 23:46:17.042630 15394 layer_factory.hpp:77] Creating layer Scale17
I0525 23:46:17.042786 15394 net.cpp:240] Setting up Scale17
I0525 23:46:17.042793 15394 net.cpp:247] Top shape: 100 32 16 16 (819200)
I0525 23:46:17.042796 15394 net.cpp:255] Memory required for data: 466535600
I0525 23:46:17.042807 15394 layer_factory.hpp:77] Creating layer Eltwise8
I0525 23:46:17.042817 15394 net.cpp:190] Creating Layer Eltwise8
I0525 23:46:17.042824 15394 net.cpp:605] Eltwise8 <- Eltwise7_ReLU15_0_split_1
I0525 23:46:17.042830 15394 net.cpp:605] Eltwise8 <- Convolution17
I0525 23:46:17.042840 15394 net.cpp:579] Eltwise8 -> Eltwise8
I0525 23:46:17.042865 15394 net.cpp:240] Setting up Eltwise8
I0525 23:46:17.042870 15394 net.cpp:247] Top shape: 100 32 16 16 (819200)
I0525 23:46:17.042873 15394 net.cpp:255] Memory required for data: 469812400
I0525 23:46:17.042877 15394 layer_factory.hpp:77] Creating layer ReLU17
I0525 23:46:17.042886 15394 net.cpp:190] Creating Layer ReLU17
I0525 23:46:17.042889 15394 net.cpp:605] ReLU17 <- Eltwise8
I0525 23:46:17.042903 15394 net.cpp:566] ReLU17 -> Eltwise8 (in-place)
I0525 23:46:17.042911 15394 net.cpp:240] Setting up ReLU17
I0525 23:46:17.042915 15394 net.cpp:247] Top shape: 100 32 16 16 (819200)
I0525 23:46:17.042918 15394 net.cpp:255] Memory required for data: 473089200
I0525 23:46:17.042922 15394 layer_factory.hpp:77] Creating layer Eltwise8_ReLU17_0_split
I0525 23:46:17.042928 15394 net.cpp:190] Creating Layer Eltwise8_ReLU17_0_split
I0525 23:46:17.042932 15394 net.cpp:605] Eltwise8_ReLU17_0_split <- Eltwise8
I0525 23:46:17.042937 15394 net.cpp:579] Eltwise8_ReLU17_0_split -> Eltwise8_ReLU17_0_split_0
I0525 23:46:17.042943 15394 net.cpp:579] Eltwise8_ReLU17_0_split -> Eltwise8_ReLU17_0_split_1
I0525 23:46:17.042984 15394 net.cpp:240] Setting up Eltwise8_ReLU17_0_split
I0525 23:46:17.042990 15394 net.cpp:247] Top shape: 100 32 16 16 (819200)
I0525 23:46:17.042995 15394 net.cpp:247] Top shape: 100 32 16 16 (819200)
I0525 23:46:17.042999 15394 net.cpp:255] Memory required for data: 479642800
I0525 23:46:17.043001 15394 layer_factory.hpp:77] Creating layer Convolution18
I0525 23:46:17.043016 15394 net.cpp:190] Creating Layer Convolution18
I0525 23:46:17.043020 15394 net.cpp:605] Convolution18 <- Eltwise8_ReLU17_0_split_0
I0525 23:46:17.043030 15394 net.cpp:579] Convolution18 -> Convolution18
I0525 23:46:17.044555 15394 net.cpp:240] Setting up Convolution18
I0525 23:46:17.044600 15394 net.cpp:247] Top shape: 100 32 16 16 (819200)
I0525 23:46:17.044605 15394 net.cpp:255] Memory required for data: 482919600
I0525 23:46:17.044621 15394 layer_factory.hpp:77] Creating layer BatchNorm18
I0525 23:46:17.044641 15394 net.cpp:190] Creating Layer BatchNorm18
I0525 23:46:17.044648 15394 net.cpp:605] BatchNorm18 <- Convolution18
I0525 23:46:17.044658 15394 net.cpp:566] BatchNorm18 -> Convolution18 (in-place)
I0525 23:46:17.044874 15394 net.cpp:240] Setting up BatchNorm18
I0525 23:46:17.044883 15394 net.cpp:247] Top shape: 100 32 16 16 (819200)
I0525 23:46:17.044885 15394 net.cpp:255] Memory required for data: 486196400
I0525 23:46:17.044896 15394 layer_factory.hpp:77] Creating layer Scale18
I0525 23:46:17.044909 15394 net.cpp:190] Creating Layer Scale18
I0525 23:46:17.044912 15394 net.cpp:605] Scale18 <- Convolution18
I0525 23:46:17.044919 15394 net.cpp:566] Scale18 -> Convolution18 (in-place)
I0525 23:46:17.044971 15394 layer_factory.hpp:77] Creating layer Scale18
I0525 23:46:17.045112 15394 net.cpp:240] Setting up Scale18
I0525 23:46:17.045120 15394 net.cpp:247] Top shape: 100 32 16 16 (819200)
I0525 23:46:17.045125 15394 net.cpp:255] Memory required for data: 489473200
I0525 23:46:17.045132 15394 layer_factory.hpp:77] Creating layer ReLU18
I0525 23:46:17.045142 15394 net.cpp:190] Creating Layer ReLU18
I0525 23:46:17.045147 15394 net.cpp:605] ReLU18 <- Convolution18
I0525 23:46:17.045153 15394 net.cpp:566] ReLU18 -> Convolution18 (in-place)
I0525 23:46:17.045161 15394 net.cpp:240] Setting up ReLU18
I0525 23:46:17.045166 15394 net.cpp:247] Top shape: 100 32 16 16 (819200)
I0525 23:46:17.045168 15394 net.cpp:255] Memory required for data: 492750000
I0525 23:46:17.045172 15394 layer_factory.hpp:77] Creating layer Convolution19
I0525 23:46:17.045186 15394 net.cpp:190] Creating Layer Convolution19
I0525 23:46:17.045189 15394 net.cpp:605] Convolution19 <- Convolution18
I0525 23:46:17.045197 15394 net.cpp:579] Convolution19 -> Convolution19
I0525 23:46:17.045769 15394 net.cpp:240] Setting up Convolution19
I0525 23:46:17.045783 15394 net.cpp:247] Top shape: 100 32 16 16 (819200)
I0525 23:46:17.045788 15394 net.cpp:255] Memory required for data: 496026800
I0525 23:46:17.045797 15394 layer_factory.hpp:77] Creating layer BatchNorm19
I0525 23:46:17.045810 15394 net.cpp:190] Creating Layer BatchNorm19
I0525 23:46:17.045814 15394 net.cpp:605] BatchNorm19 <- Convolution19
I0525 23:46:17.045820 15394 net.cpp:566] BatchNorm19 -> Convolution19 (in-place)
I0525 23:46:17.046010 15394 net.cpp:240] Setting up BatchNorm19
I0525 23:46:17.046016 15394 net.cpp:247] Top shape: 100 32 16 16 (819200)
I0525 23:46:17.046020 15394 net.cpp:255] Memory required for data: 499303600
I0525 23:46:17.046073 15394 layer_factory.hpp:77] Creating layer Scale19
I0525 23:46:17.046085 15394 net.cpp:190] Creating Layer Scale19
I0525 23:46:17.046090 15394 net.cpp:605] Scale19 <- Convolution19
I0525 23:46:17.046097 15394 net.cpp:566] Scale19 -> Convolution19 (in-place)
I0525 23:46:17.046149 15394 layer_factory.hpp:77] Creating layer Scale19
I0525 23:46:17.046263 15394 net.cpp:240] Setting up Scale19
I0525 23:46:17.046272 15394 net.cpp:247] Top shape: 100 32 16 16 (819200)
I0525 23:46:17.046274 15394 net.cpp:255] Memory required for data: 502580400
I0525 23:46:17.046283 15394 layer_factory.hpp:77] Creating layer Eltwise9
I0525 23:46:17.046294 15394 net.cpp:190] Creating Layer Eltwise9
I0525 23:46:17.046301 15394 net.cpp:605] Eltwise9 <- Eltwise8_ReLU17_0_split_1
I0525 23:46:17.046306 15394 net.cpp:605] Eltwise9 <- Convolution19
I0525 23:46:17.046313 15394 net.cpp:579] Eltwise9 -> Eltwise9
I0525 23:46:17.046334 15394 net.cpp:240] Setting up Eltwise9
I0525 23:46:17.046340 15394 net.cpp:247] Top shape: 100 32 16 16 (819200)
I0525 23:46:17.046344 15394 net.cpp:255] Memory required for data: 505857200
I0525 23:46:17.046347 15394 layer_factory.hpp:77] Creating layer ReLU19
I0525 23:46:17.046365 15394 net.cpp:190] Creating Layer ReLU19
I0525 23:46:17.046370 15394 net.cpp:605] ReLU19 <- Eltwise9
I0525 23:46:17.046375 15394 net.cpp:566] ReLU19 -> Eltwise9 (in-place)
I0525 23:46:17.046381 15394 net.cpp:240] Setting up ReLU19
I0525 23:46:17.046386 15394 net.cpp:247] Top shape: 100 32 16 16 (819200)
I0525 23:46:17.046388 15394 net.cpp:255] Memory required for data: 509134000
I0525 23:46:17.046392 15394 layer_factory.hpp:77] Creating layer Eltwise9_ReLU19_0_split
I0525 23:46:17.046402 15394 net.cpp:190] Creating Layer Eltwise9_ReLU19_0_split
I0525 23:46:17.046406 15394 net.cpp:605] Eltwise9_ReLU19_0_split <- Eltwise9
I0525 23:46:17.046411 15394 net.cpp:579] Eltwise9_ReLU19_0_split -> Eltwise9_ReLU19_0_split_0
I0525 23:46:17.046418 15394 net.cpp:579] Eltwise9_ReLU19_0_split -> Eltwise9_ReLU19_0_split_1
I0525 23:46:17.046458 15394 net.cpp:240] Setting up Eltwise9_ReLU19_0_split
I0525 23:46:17.046463 15394 net.cpp:247] Top shape: 100 32 16 16 (819200)
I0525 23:46:17.046468 15394 net.cpp:247] Top shape: 100 32 16 16 (819200)
I0525 23:46:17.046470 15394 net.cpp:255] Memory required for data: 515687600
I0525 23:46:17.046474 15394 layer_factory.hpp:77] Creating layer Pooling2
I0525 23:46:17.046483 15394 net.cpp:190] Creating Layer Pooling2
I0525 23:46:17.046486 15394 net.cpp:605] Pooling2 <- Eltwise9_ReLU19_0_split_0
I0525 23:46:17.046491 15394 net.cpp:579] Pooling2 -> Pooling2
I0525 23:46:17.046515 15394 net.cpp:240] Setting up Pooling2
I0525 23:46:17.046521 15394 net.cpp:247] Top shape: 100 32 8 8 (204800)
I0525 23:46:17.046525 15394 net.cpp:255] Memory required for data: 516506800
I0525 23:46:17.046527 15394 layer_factory.hpp:77] Creating layer Input2
I0525 23:46:17.046541 15394 net.cpp:190] Creating Layer Input2
I0525 23:46:17.046546 15394 net.cpp:579] Input2 -> Input2
I0525 23:46:17.046571 15394 net.cpp:240] Setting up Input2
I0525 23:46:17.046576 15394 net.cpp:247] Top shape: 100 32 8 8 (204800)
I0525 23:46:17.046578 15394 net.cpp:255] Memory required for data: 517326000
I0525 23:46:17.046582 15394 layer_factory.hpp:77] Creating layer Concat2
I0525 23:46:17.046592 15394 net.cpp:190] Creating Layer Concat2
I0525 23:46:17.046597 15394 net.cpp:605] Concat2 <- Pooling2
I0525 23:46:17.046600 15394 net.cpp:605] Concat2 <- Input2
I0525 23:46:17.046607 15394 net.cpp:579] Concat2 -> Concat2
I0525 23:46:17.046633 15394 net.cpp:240] Setting up Concat2
I0525 23:46:17.046638 15394 net.cpp:247] Top shape: 100 64 8 8 (409600)
I0525 23:46:17.046641 15394 net.cpp:255] Memory required for data: 518964400
I0525 23:46:17.046645 15394 layer_factory.hpp:77] Creating layer Convolution20
I0525 23:46:17.046658 15394 net.cpp:190] Creating Layer Convolution20
I0525 23:46:17.046663 15394 net.cpp:605] Convolution20 <- Eltwise9_ReLU19_0_split_1
I0525 23:46:17.046672 15394 net.cpp:579] Convolution20 -> Convolution20
I0525 23:46:17.047616 15394 net.cpp:240] Setting up Convolution20
I0525 23:46:17.047648 15394 net.cpp:247] Top shape: 100 64 8 8 (409600)
I0525 23:46:17.047653 15394 net.cpp:255] Memory required for data: 520602800
I0525 23:46:17.047667 15394 layer_factory.hpp:77] Creating layer BatchNorm20
I0525 23:46:17.047683 15394 net.cpp:190] Creating Layer BatchNorm20
I0525 23:46:17.047689 15394 net.cpp:605] BatchNorm20 <- Convolution20
I0525 23:46:17.047698 15394 net.cpp:566] BatchNorm20 -> Convolution20 (in-place)
I0525 23:46:17.047905 15394 net.cpp:240] Setting up BatchNorm20
I0525 23:46:17.047914 15394 net.cpp:247] Top shape: 100 64 8 8 (409600)
I0525 23:46:17.047916 15394 net.cpp:255] Memory required for data: 522241200
I0525 23:46:17.047927 15394 layer_factory.hpp:77] Creating layer Scale20
I0525 23:46:17.047940 15394 net.cpp:190] Creating Layer Scale20
I0525 23:46:17.047943 15394 net.cpp:605] Scale20 <- Convolution20
I0525 23:46:17.047950 15394 net.cpp:566] Scale20 -> Convolution20 (in-place)
I0525 23:46:17.048002 15394 layer_factory.hpp:77] Creating layer Scale20
I0525 23:46:17.048120 15394 net.cpp:240] Setting up Scale20
I0525 23:46:17.048127 15394 net.cpp:247] Top shape: 100 64 8 8 (409600)
I0525 23:46:17.048130 15394 net.cpp:255] Memory required for data: 523879600
I0525 23:46:17.048141 15394 layer_factory.hpp:77] Creating layer ReLU20
I0525 23:46:17.048148 15394 net.cpp:190] Creating Layer ReLU20
I0525 23:46:17.048152 15394 net.cpp:605] ReLU20 <- Convolution20
I0525 23:46:17.048161 15394 net.cpp:566] ReLU20 -> Convolution20 (in-place)
I0525 23:46:17.048167 15394 net.cpp:240] Setting up ReLU20
I0525 23:46:17.048171 15394 net.cpp:247] Top shape: 100 64 8 8 (409600)
I0525 23:46:17.048174 15394 net.cpp:255] Memory required for data: 525518000
I0525 23:46:17.048178 15394 layer_factory.hpp:77] Creating layer Convolution21
I0525 23:46:17.048190 15394 net.cpp:190] Creating Layer Convolution21
I0525 23:46:17.048193 15394 net.cpp:605] Convolution21 <- Convolution20
I0525 23:46:17.048202 15394 net.cpp:579] Convolution21 -> Convolution21
I0525 23:46:17.049799 15394 net.cpp:240] Setting up Convolution21
I0525 23:46:17.049830 15394 net.cpp:247] Top shape: 100 64 8 8 (409600)
I0525 23:46:17.049834 15394 net.cpp:255] Memory required for data: 527156400
I0525 23:46:17.049849 15394 layer_factory.hpp:77] Creating layer BatchNorm21
I0525 23:46:17.049863 15394 net.cpp:190] Creating Layer BatchNorm21
I0525 23:46:17.049870 15394 net.cpp:605] BatchNorm21 <- Convolution21
I0525 23:46:17.049880 15394 net.cpp:566] BatchNorm21 -> Convolution21 (in-place)
I0525 23:46:17.050086 15394 net.cpp:240] Setting up BatchNorm21
I0525 23:46:17.050093 15394 net.cpp:247] Top shape: 100 64 8 8 (409600)
I0525 23:46:17.050097 15394 net.cpp:255] Memory required for data: 528794800
I0525 23:46:17.050108 15394 layer_factory.hpp:77] Creating layer Scale21
I0525 23:46:17.050119 15394 net.cpp:190] Creating Layer Scale21
I0525 23:46:17.050124 15394 net.cpp:605] Scale21 <- Convolution21
I0525 23:46:17.050129 15394 net.cpp:566] Scale21 -> Convolution21 (in-place)
I0525 23:46:17.050181 15394 layer_factory.hpp:77] Creating layer Scale21
I0525 23:46:17.050313 15394 net.cpp:240] Setting up Scale21
I0525 23:46:17.050323 15394 net.cpp:247] Top shape: 100 64 8 8 (409600)
I0525 23:46:17.050326 15394 net.cpp:255] Memory required for data: 530433200
I0525 23:46:17.050334 15394 layer_factory.hpp:77] Creating layer Eltwise10
I0525 23:46:17.050345 15394 net.cpp:190] Creating Layer Eltwise10
I0525 23:46:17.050351 15394 net.cpp:605] Eltwise10 <- Concat2
I0525 23:46:17.050366 15394 net.cpp:605] Eltwise10 <- Convolution21
I0525 23:46:17.050374 15394 net.cpp:579] Eltwise10 -> Eltwise10
I0525 23:46:17.050405 15394 net.cpp:240] Setting up Eltwise10
I0525 23:46:17.050411 15394 net.cpp:247] Top shape: 100 64 8 8 (409600)
I0525 23:46:17.050415 15394 net.cpp:255] Memory required for data: 532071600
I0525 23:46:17.050418 15394 layer_factory.hpp:77] Creating layer ReLU21
I0525 23:46:17.050426 15394 net.cpp:190] Creating Layer ReLU21
I0525 23:46:17.050429 15394 net.cpp:605] ReLU21 <- Eltwise10
I0525 23:46:17.050436 15394 net.cpp:566] ReLU21 -> Eltwise10 (in-place)
I0525 23:46:17.050448 15394 net.cpp:240] Setting up ReLU21
I0525 23:46:17.050453 15394 net.cpp:247] Top shape: 100 64 8 8 (409600)
I0525 23:46:17.050457 15394 net.cpp:255] Memory required for data: 533710000
I0525 23:46:17.050460 15394 layer_factory.hpp:77] Creating layer Eltwise10_ReLU21_0_split
I0525 23:46:17.050467 15394 net.cpp:190] Creating Layer Eltwise10_ReLU21_0_split
I0525 23:46:17.050470 15394 net.cpp:605] Eltwise10_ReLU21_0_split <- Eltwise10
I0525 23:46:17.050475 15394 net.cpp:579] Eltwise10_ReLU21_0_split -> Eltwise10_ReLU21_0_split_0
I0525 23:46:17.050482 15394 net.cpp:579] Eltwise10_ReLU21_0_split -> Eltwise10_ReLU21_0_split_1
I0525 23:46:17.050518 15394 net.cpp:240] Setting up Eltwise10_ReLU21_0_split
I0525 23:46:17.050524 15394 net.cpp:247] Top shape: 100 64 8 8 (409600)
I0525 23:46:17.050529 15394 net.cpp:247] Top shape: 100 64 8 8 (409600)
I0525 23:46:17.050531 15394 net.cpp:255] Memory required for data: 536986800
I0525 23:46:17.050535 15394 layer_factory.hpp:77] Creating layer Convolution22
I0525 23:46:17.050546 15394 net.cpp:190] Creating Layer Convolution22
I0525 23:46:17.050550 15394 net.cpp:605] Convolution22 <- Eltwise10_ReLU21_0_split_0
I0525 23:46:17.050560 15394 net.cpp:579] Convolution22 -> Convolution22
I0525 23:46:17.052186 15394 net.cpp:240] Setting up Convolution22
I0525 23:46:17.052213 15394 net.cpp:247] Top shape: 100 64 8 8 (409600)
I0525 23:46:17.052217 15394 net.cpp:255] Memory required for data: 538625200
I0525 23:46:17.052234 15394 layer_factory.hpp:77] Creating layer BatchNorm22
I0525 23:46:17.052248 15394 net.cpp:190] Creating Layer BatchNorm22
I0525 23:46:17.052256 15394 net.cpp:605] BatchNorm22 <- Convolution22
I0525 23:46:17.052265 15394 net.cpp:566] BatchNorm22 -> Convolution22 (in-place)
I0525 23:46:17.052474 15394 net.cpp:240] Setting up BatchNorm22
I0525 23:46:17.052481 15394 net.cpp:247] Top shape: 100 64 8 8 (409600)
I0525 23:46:17.052484 15394 net.cpp:255] Memory required for data: 540263600
I0525 23:46:17.052495 15394 layer_factory.hpp:77] Creating layer Scale22
I0525 23:46:17.052506 15394 net.cpp:190] Creating Layer Scale22
I0525 23:46:17.052510 15394 net.cpp:605] Scale22 <- Convolution22
I0525 23:46:17.052516 15394 net.cpp:566] Scale22 -> Convolution22 (in-place)
I0525 23:46:17.052569 15394 layer_factory.hpp:77] Creating layer Scale22
I0525 23:46:17.052695 15394 net.cpp:240] Setting up Scale22
I0525 23:46:17.052701 15394 net.cpp:247] Top shape: 100 64 8 8 (409600)
I0525 23:46:17.052705 15394 net.cpp:255] Memory required for data: 541902000
I0525 23:46:17.052713 15394 layer_factory.hpp:77] Creating layer ReLU22
I0525 23:46:17.052723 15394 net.cpp:190] Creating Layer ReLU22
I0525 23:46:17.052727 15394 net.cpp:605] ReLU22 <- Convolution22
I0525 23:46:17.052732 15394 net.cpp:566] ReLU22 -> Convolution22 (in-place)
I0525 23:46:17.052739 15394 net.cpp:240] Setting up ReLU22
I0525 23:46:17.052743 15394 net.cpp:247] Top shape: 100 64 8 8 (409600)
I0525 23:46:17.052747 15394 net.cpp:255] Memory required for data: 543540400
I0525 23:46:17.052750 15394 layer_factory.hpp:77] Creating layer Convolution23
I0525 23:46:17.052765 15394 net.cpp:190] Creating Layer Convolution23
I0525 23:46:17.052769 15394 net.cpp:605] Convolution23 <- Convolution22
I0525 23:46:17.052778 15394 net.cpp:579] Convolution23 -> Convolution23
I0525 23:46:17.054420 15394 net.cpp:240] Setting up Convolution23
I0525 23:46:17.054458 15394 net.cpp:247] Top shape: 100 64 8 8 (409600)
I0525 23:46:17.054463 15394 net.cpp:255] Memory required for data: 545178800
I0525 23:46:17.054481 15394 layer_factory.hpp:77] Creating layer BatchNorm23
I0525 23:46:17.054507 15394 net.cpp:190] Creating Layer BatchNorm23
I0525 23:46:17.054515 15394 net.cpp:605] BatchNorm23 <- Convolution23
I0525 23:46:17.054525 15394 net.cpp:566] BatchNorm23 -> Convolution23 (in-place)
I0525 23:46:17.054734 15394 net.cpp:240] Setting up BatchNorm23
I0525 23:46:17.054743 15394 net.cpp:247] Top shape: 100 64 8 8 (409600)
I0525 23:46:17.054746 15394 net.cpp:255] Memory required for data: 546817200
I0525 23:46:17.054765 15394 layer_factory.hpp:77] Creating layer Scale23
I0525 23:46:17.054775 15394 net.cpp:190] Creating Layer Scale23
I0525 23:46:17.054780 15394 net.cpp:605] Scale23 <- Convolution23
I0525 23:46:17.054785 15394 net.cpp:566] Scale23 -> Convolution23 (in-place)
I0525 23:46:17.054837 15394 layer_factory.hpp:77] Creating layer Scale23
I0525 23:46:17.054957 15394 net.cpp:240] Setting up Scale23
I0525 23:46:17.054965 15394 net.cpp:247] Top shape: 100 64 8 8 (409600)
I0525 23:46:17.054968 15394 net.cpp:255] Memory required for data: 548455600
I0525 23:46:17.054976 15394 layer_factory.hpp:77] Creating layer Eltwise11
I0525 23:46:17.054988 15394 net.cpp:190] Creating Layer Eltwise11
I0525 23:46:17.054994 15394 net.cpp:605] Eltwise11 <- Eltwise10_ReLU21_0_split_1
I0525 23:46:17.055001 15394 net.cpp:605] Eltwise11 <- Convolution23
I0525 23:46:17.055006 15394 net.cpp:579] Eltwise11 -> Eltwise11
I0525 23:46:17.055032 15394 net.cpp:240] Setting up Eltwise11
I0525 23:46:17.055038 15394 net.cpp:247] Top shape: 100 64 8 8 (409600)
I0525 23:46:17.055042 15394 net.cpp:255] Memory required for data: 550094000
I0525 23:46:17.055044 15394 layer_factory.hpp:77] Creating layer ReLU23
I0525 23:46:17.055054 15394 net.cpp:190] Creating Layer ReLU23
I0525 23:46:17.055058 15394 net.cpp:605] ReLU23 <- Eltwise11
I0525 23:46:17.055063 15394 net.cpp:566] ReLU23 -> Eltwise11 (in-place)
I0525 23:46:17.055069 15394 net.cpp:240] Setting up ReLU23
I0525 23:46:17.055074 15394 net.cpp:247] Top shape: 100 64 8 8 (409600)
I0525 23:46:17.055078 15394 net.cpp:255] Memory required for data: 551732400
I0525 23:46:17.055081 15394 layer_factory.hpp:77] Creating layer Eltwise11_ReLU23_0_split
I0525 23:46:17.055088 15394 net.cpp:190] Creating Layer Eltwise11_ReLU23_0_split
I0525 23:46:17.055091 15394 net.cpp:605] Eltwise11_ReLU23_0_split <- Eltwise11
I0525 23:46:17.055096 15394 net.cpp:579] Eltwise11_ReLU23_0_split -> Eltwise11_ReLU23_0_split_0
I0525 23:46:17.055102 15394 net.cpp:579] Eltwise11_ReLU23_0_split -> Eltwise11_ReLU23_0_split_1
I0525 23:46:17.055136 15394 net.cpp:240] Setting up Eltwise11_ReLU23_0_split
I0525 23:46:17.055142 15394 net.cpp:247] Top shape: 100 64 8 8 (409600)
I0525 23:46:17.055146 15394 net.cpp:247] Top shape: 100 64 8 8 (409600)
I0525 23:46:17.055150 15394 net.cpp:255] Memory required for data: 555009200
I0525 23:46:17.055153 15394 layer_factory.hpp:77] Creating layer Convolution24
I0525 23:46:17.055167 15394 net.cpp:190] Creating Layer Convolution24
I0525 23:46:17.055171 15394 net.cpp:605] Convolution24 <- Eltwise11_ReLU23_0_split_0
I0525 23:46:17.055178 15394 net.cpp:579] Convolution24 -> Convolution24
I0525 23:46:17.057682 15394 net.cpp:240] Setting up Convolution24
I0525 23:46:17.057728 15394 net.cpp:247] Top shape: 100 64 8 8 (409600)
I0525 23:46:17.057731 15394 net.cpp:255] Memory required for data: 556647600
I0525 23:46:17.057749 15394 layer_factory.hpp:77] Creating layer BatchNorm24
I0525 23:46:17.057770 15394 net.cpp:190] Creating Layer BatchNorm24
I0525 23:46:17.057780 15394 net.cpp:605] BatchNorm24 <- Convolution24
I0525 23:46:17.057786 15394 net.cpp:566] BatchNorm24 -> Convolution24 (in-place)
I0525 23:46:17.058020 15394 net.cpp:240] Setting up BatchNorm24
I0525 23:46:17.058028 15394 net.cpp:247] Top shape: 100 64 8 8 (409600)
I0525 23:46:17.058032 15394 net.cpp:255] Memory required for data: 558286000
I0525 23:46:17.058043 15394 layer_factory.hpp:77] Creating layer Scale24
I0525 23:46:17.058053 15394 net.cpp:190] Creating Layer Scale24
I0525 23:46:17.058058 15394 net.cpp:605] Scale24 <- Convolution24
I0525 23:46:17.058063 15394 net.cpp:566] Scale24 -> Convolution24 (in-place)
I0525 23:46:17.058120 15394 layer_factory.hpp:77] Creating layer Scale24
I0525 23:46:17.058253 15394 net.cpp:240] Setting up Scale24
I0525 23:46:17.058260 15394 net.cpp:247] Top shape: 100 64 8 8 (409600)
I0525 23:46:17.058264 15394 net.cpp:255] Memory required for data: 559924400
I0525 23:46:17.058272 15394 layer_factory.hpp:77] Creating layer ReLU24
I0525 23:46:17.058280 15394 net.cpp:190] Creating Layer ReLU24
I0525 23:46:17.058284 15394 net.cpp:605] ReLU24 <- Convolution24
I0525 23:46:17.058297 15394 net.cpp:566] ReLU24 -> Convolution24 (in-place)
I0525 23:46:17.058305 15394 net.cpp:240] Setting up ReLU24
I0525 23:46:17.058310 15394 net.cpp:247] Top shape: 100 64 8 8 (409600)
I0525 23:46:17.058313 15394 net.cpp:255] Memory required for data: 561562800
I0525 23:46:17.058317 15394 layer_factory.hpp:77] Creating layer Convolution25
I0525 23:46:17.058331 15394 net.cpp:190] Creating Layer Convolution25
I0525 23:46:17.058336 15394 net.cpp:605] Convolution25 <- Convolution24
I0525 23:46:17.058341 15394 net.cpp:579] Convolution25 -> Convolution25
I0525 23:46:17.059952 15394 net.cpp:240] Setting up Convolution25
I0525 23:46:17.059988 15394 net.cpp:247] Top shape: 100 64 8 8 (409600)
I0525 23:46:17.059991 15394 net.cpp:255] Memory required for data: 563201200
I0525 23:46:17.060008 15394 layer_factory.hpp:77] Creating layer BatchNorm25
I0525 23:46:17.060058 15394 net.cpp:190] Creating Layer BatchNorm25
I0525 23:46:17.060067 15394 net.cpp:605] BatchNorm25 <- Convolution25
I0525 23:46:17.060076 15394 net.cpp:566] BatchNorm25 -> Convolution25 (in-place)
I0525 23:46:17.060293 15394 net.cpp:240] Setting up BatchNorm25
I0525 23:46:17.060302 15394 net.cpp:247] Top shape: 100 64 8 8 (409600)
I0525 23:46:17.060305 15394 net.cpp:255] Memory required for data: 564839600
I0525 23:46:17.060319 15394 layer_factory.hpp:77] Creating layer Scale25
I0525 23:46:17.060330 15394 net.cpp:190] Creating Layer Scale25
I0525 23:46:17.060335 15394 net.cpp:605] Scale25 <- Convolution25
I0525 23:46:17.060340 15394 net.cpp:566] Scale25 -> Convolution25 (in-place)
I0525 23:46:17.060396 15394 layer_factory.hpp:77] Creating layer Scale25
I0525 23:46:17.060516 15394 net.cpp:240] Setting up Scale25
I0525 23:46:17.060523 15394 net.cpp:247] Top shape: 100 64 8 8 (409600)
I0525 23:46:17.060528 15394 net.cpp:255] Memory required for data: 566478000
I0525 23:46:17.060535 15394 layer_factory.hpp:77] Creating layer Eltwise12
I0525 23:46:17.060546 15394 net.cpp:190] Creating Layer Eltwise12
I0525 23:46:17.060554 15394 net.cpp:605] Eltwise12 <- Eltwise11_ReLU23_0_split_1
I0525 23:46:17.060559 15394 net.cpp:605] Eltwise12 <- Convolution25
I0525 23:46:17.060564 15394 net.cpp:579] Eltwise12 -> Eltwise12
I0525 23:46:17.060595 15394 net.cpp:240] Setting up Eltwise12
I0525 23:46:17.060601 15394 net.cpp:247] Top shape: 100 64 8 8 (409600)
I0525 23:46:17.060605 15394 net.cpp:255] Memory required for data: 568116400
I0525 23:46:17.060608 15394 layer_factory.hpp:77] Creating layer ReLU25
I0525 23:46:17.060616 15394 net.cpp:190] Creating Layer ReLU25
I0525 23:46:17.060619 15394 net.cpp:605] ReLU25 <- Eltwise12
I0525 23:46:17.060624 15394 net.cpp:566] ReLU25 -> Eltwise12 (in-place)
I0525 23:46:17.060631 15394 net.cpp:240] Setting up ReLU25
I0525 23:46:17.060636 15394 net.cpp:247] Top shape: 100 64 8 8 (409600)
I0525 23:46:17.060639 15394 net.cpp:255] Memory required for data: 569754800
I0525 23:46:17.060642 15394 layer_factory.hpp:77] Creating layer Eltwise12_ReLU25_0_split
I0525 23:46:17.060649 15394 net.cpp:190] Creating Layer Eltwise12_ReLU25_0_split
I0525 23:46:17.060652 15394 net.cpp:605] Eltwise12_ReLU25_0_split <- Eltwise12
I0525 23:46:17.060657 15394 net.cpp:579] Eltwise12_ReLU25_0_split -> Eltwise12_ReLU25_0_split_0
I0525 23:46:17.060664 15394 net.cpp:579] Eltwise12_ReLU25_0_split -> Eltwise12_ReLU25_0_split_1
I0525 23:46:17.060700 15394 net.cpp:240] Setting up Eltwise12_ReLU25_0_split
I0525 23:46:17.060705 15394 net.cpp:247] Top shape: 100 64 8 8 (409600)
I0525 23:46:17.060710 15394 net.cpp:247] Top shape: 100 64 8 8 (409600)
I0525 23:46:17.060714 15394 net.cpp:255] Memory required for data: 573031600
I0525 23:46:17.060716 15394 layer_factory.hpp:77] Creating layer Convolution26
I0525 23:46:17.060731 15394 net.cpp:190] Creating Layer Convolution26
I0525 23:46:17.060736 15394 net.cpp:605] Convolution26 <- Eltwise12_ReLU25_0_split_0
I0525 23:46:17.060742 15394 net.cpp:579] Convolution26 -> Convolution26
I0525 23:46:17.062341 15394 net.cpp:240] Setting up Convolution26
I0525 23:46:17.062381 15394 net.cpp:247] Top shape: 100 64 8 8 (409600)
I0525 23:46:17.062392 15394 net.cpp:255] Memory required for data: 574670000
I0525 23:46:17.062409 15394 layer_factory.hpp:77] Creating layer BatchNorm26
I0525 23:46:17.062436 15394 net.cpp:190] Creating Layer BatchNorm26
I0525 23:46:17.062445 15394 net.cpp:605] BatchNorm26 <- Convolution26
I0525 23:46:17.062454 15394 net.cpp:566] BatchNorm26 -> Convolution26 (in-place)
I0525 23:46:17.062666 15394 net.cpp:240] Setting up BatchNorm26
I0525 23:46:17.062674 15394 net.cpp:247] Top shape: 100 64 8 8 (409600)
I0525 23:46:17.062677 15394 net.cpp:255] Memory required for data: 576308400
I0525 23:46:17.062690 15394 layer_factory.hpp:77] Creating layer Scale26
I0525 23:46:17.062701 15394 net.cpp:190] Creating Layer Scale26
I0525 23:46:17.062705 15394 net.cpp:605] Scale26 <- Convolution26
I0525 23:46:17.062711 15394 net.cpp:566] Scale26 -> Convolution26 (in-place)
I0525 23:46:17.062765 15394 layer_factory.hpp:77] Creating layer Scale26
I0525 23:46:17.062890 15394 net.cpp:240] Setting up Scale26
I0525 23:46:17.062896 15394 net.cpp:247] Top shape: 100 64 8 8 (409600)
I0525 23:46:17.062899 15394 net.cpp:255] Memory required for data: 577946800
I0525 23:46:17.062908 15394 layer_factory.hpp:77] Creating layer ReLU26
I0525 23:46:17.062919 15394 net.cpp:190] Creating Layer ReLU26
I0525 23:46:17.062923 15394 net.cpp:605] ReLU26 <- Convolution26
I0525 23:46:17.062928 15394 net.cpp:566] ReLU26 -> Convolution26 (in-place)
I0525 23:46:17.062935 15394 net.cpp:240] Setting up ReLU26
I0525 23:46:17.062940 15394 net.cpp:247] Top shape: 100 64 8 8 (409600)
I0525 23:46:17.062943 15394 net.cpp:255] Memory required for data: 579585200
I0525 23:46:17.062947 15394 layer_factory.hpp:77] Creating layer Convolution27
I0525 23:46:17.062963 15394 net.cpp:190] Creating Layer Convolution27
I0525 23:46:17.062968 15394 net.cpp:605] Convolution27 <- Convolution26
I0525 23:46:17.062973 15394 net.cpp:579] Convolution27 -> Convolution27
I0525 23:46:17.064566 15394 net.cpp:240] Setting up Convolution27
I0525 23:46:17.064594 15394 net.cpp:247] Top shape: 100 64 8 8 (409600)
I0525 23:46:17.064599 15394 net.cpp:255] Memory required for data: 581223600
I0525 23:46:17.064612 15394 layer_factory.hpp:77] Creating layer BatchNorm27
I0525 23:46:17.064627 15394 net.cpp:190] Creating Layer BatchNorm27
I0525 23:46:17.064635 15394 net.cpp:605] BatchNorm27 <- Convolution27
I0525 23:46:17.064645 15394 net.cpp:566] BatchNorm27 -> Convolution27 (in-place)
I0525 23:46:17.064848 15394 net.cpp:240] Setting up BatchNorm27
I0525 23:46:17.064856 15394 net.cpp:247] Top shape: 100 64 8 8 (409600)
I0525 23:46:17.064858 15394 net.cpp:255] Memory required for data: 582862000
I0525 23:46:17.064869 15394 layer_factory.hpp:77] Creating layer Scale27
I0525 23:46:17.064882 15394 net.cpp:190] Creating Layer Scale27
I0525 23:46:17.064885 15394 net.cpp:605] Scale27 <- Convolution27
I0525 23:46:17.064891 15394 net.cpp:566] Scale27 -> Convolution27 (in-place)
I0525 23:46:17.064944 15394 layer_factory.hpp:77] Creating layer Scale27
I0525 23:46:17.065073 15394 net.cpp:240] Setting up Scale27
I0525 23:46:17.065081 15394 net.cpp:247] Top shape: 100 64 8 8 (409600)
I0525 23:46:17.065085 15394 net.cpp:255] Memory required for data: 584500400
I0525 23:46:17.065093 15394 layer_factory.hpp:77] Creating layer Eltwise13
I0525 23:46:17.065104 15394 net.cpp:190] Creating Layer Eltwise13
I0525 23:46:17.065109 15394 net.cpp:605] Eltwise13 <- Eltwise12_ReLU25_0_split_1
I0525 23:46:17.065114 15394 net.cpp:605] Eltwise13 <- Convolution27
I0525 23:46:17.065124 15394 net.cpp:579] Eltwise13 -> Eltwise13
I0525 23:46:17.065151 15394 net.cpp:240] Setting up Eltwise13
I0525 23:46:17.065157 15394 net.cpp:247] Top shape: 100 64 8 8 (409600)
I0525 23:46:17.065160 15394 net.cpp:255] Memory required for data: 586138800
I0525 23:46:17.065163 15394 layer_factory.hpp:77] Creating layer ReLU27
I0525 23:46:17.065174 15394 net.cpp:190] Creating Layer ReLU27
I0525 23:46:17.065178 15394 net.cpp:605] ReLU27 <- Eltwise13
I0525 23:46:17.065182 15394 net.cpp:566] ReLU27 -> Eltwise13 (in-place)
I0525 23:46:17.065189 15394 net.cpp:240] Setting up ReLU27
I0525 23:46:17.065199 15394 net.cpp:247] Top shape: 100 64 8 8 (409600)
I0525 23:46:17.065203 15394 net.cpp:255] Memory required for data: 587777200
I0525 23:46:17.065207 15394 layer_factory.hpp:77] Creating layer Eltwise13_ReLU27_0_split
I0525 23:46:17.065213 15394 net.cpp:190] Creating Layer Eltwise13_ReLU27_0_split
I0525 23:46:17.065217 15394 net.cpp:605] Eltwise13_ReLU27_0_split <- Eltwise13
I0525 23:46:17.065222 15394 net.cpp:579] Eltwise13_ReLU27_0_split -> Eltwise13_ReLU27_0_split_0
I0525 23:46:17.065228 15394 net.cpp:579] Eltwise13_ReLU27_0_split -> Eltwise13_ReLU27_0_split_1
I0525 23:46:17.065263 15394 net.cpp:240] Setting up Eltwise13_ReLU27_0_split
I0525 23:46:17.065269 15394 net.cpp:247] Top shape: 100 64 8 8 (409600)
I0525 23:46:17.065274 15394 net.cpp:247] Top shape: 100 64 8 8 (409600)
I0525 23:46:17.065276 15394 net.cpp:255] Memory required for data: 591054000
I0525 23:46:17.065279 15394 layer_factory.hpp:77] Creating layer Convolution28
I0525 23:46:17.065292 15394 net.cpp:190] Creating Layer Convolution28
I0525 23:46:17.065296 15394 net.cpp:605] Convolution28 <- Eltwise13_ReLU27_0_split_0
I0525 23:46:17.065304 15394 net.cpp:579] Convolution28 -> Convolution28
I0525 23:46:17.066900 15394 net.cpp:240] Setting up Convolution28
I0525 23:46:17.066928 15394 net.cpp:247] Top shape: 100 64 8 8 (409600)
I0525 23:46:17.066933 15394 net.cpp:255] Memory required for data: 592692400
I0525 23:46:17.066948 15394 layer_factory.hpp:77] Creating layer BatchNorm28
I0525 23:46:17.066967 15394 net.cpp:190] Creating Layer BatchNorm28
I0525 23:46:17.066977 15394 net.cpp:605] BatchNorm28 <- Convolution28
I0525 23:46:17.066985 15394 net.cpp:566] BatchNorm28 -> Convolution28 (in-place)
I0525 23:46:17.067188 15394 net.cpp:240] Setting up BatchNorm28
I0525 23:46:17.067195 15394 net.cpp:247] Top shape: 100 64 8 8 (409600)
I0525 23:46:17.067199 15394 net.cpp:255] Memory required for data: 594330800
I0525 23:46:17.067210 15394 layer_factory.hpp:77] Creating layer Scale28
I0525 23:46:17.067222 15394 net.cpp:190] Creating Layer Scale28
I0525 23:46:17.067226 15394 net.cpp:605] Scale28 <- Convolution28
I0525 23:46:17.067231 15394 net.cpp:566] Scale28 -> Convolution28 (in-place)
I0525 23:46:17.067283 15394 layer_factory.hpp:77] Creating layer Scale28
I0525 23:46:17.067404 15394 net.cpp:240] Setting up Scale28
I0525 23:46:17.067410 15394 net.cpp:247] Top shape: 100 64 8 8 (409600)
I0525 23:46:17.067414 15394 net.cpp:255] Memory required for data: 595969200
I0525 23:46:17.067425 15394 layer_factory.hpp:77] Creating layer ReLU28
I0525 23:46:17.067432 15394 net.cpp:190] Creating Layer ReLU28
I0525 23:46:17.067436 15394 net.cpp:605] ReLU28 <- Convolution28
I0525 23:46:17.067443 15394 net.cpp:566] ReLU28 -> Convolution28 (in-place)
I0525 23:46:17.067451 15394 net.cpp:240] Setting up ReLU28
I0525 23:46:17.067456 15394 net.cpp:247] Top shape: 100 64 8 8 (409600)
I0525 23:46:17.067458 15394 net.cpp:255] Memory required for data: 597607600
I0525 23:46:17.067462 15394 layer_factory.hpp:77] Creating layer Convolution29
I0525 23:46:17.067476 15394 net.cpp:190] Creating Layer Convolution29
I0525 23:46:17.067479 15394 net.cpp:605] Convolution29 <- Convolution28
I0525 23:46:17.067487 15394 net.cpp:579] Convolution29 -> Convolution29
I0525 23:46:17.069082 15394 net.cpp:240] Setting up Convolution29
I0525 23:46:17.069110 15394 net.cpp:247] Top shape: 100 64 8 8 (409600)
I0525 23:46:17.069114 15394 net.cpp:255] Memory required for data: 599246000
I0525 23:46:17.069129 15394 layer_factory.hpp:77] Creating layer BatchNorm29
I0525 23:46:17.069146 15394 net.cpp:190] Creating Layer BatchNorm29
I0525 23:46:17.069154 15394 net.cpp:605] BatchNorm29 <- Convolution29
I0525 23:46:17.069161 15394 net.cpp:566] BatchNorm29 -> Convolution29 (in-place)
I0525 23:46:17.069381 15394 net.cpp:240] Setting up BatchNorm29
I0525 23:46:17.069391 15394 net.cpp:247] Top shape: 100 64 8 8 (409600)
I0525 23:46:17.069393 15394 net.cpp:255] Memory required for data: 600884400
I0525 23:46:17.069404 15394 layer_factory.hpp:77] Creating layer Scale29
I0525 23:46:17.069422 15394 net.cpp:190] Creating Layer Scale29
I0525 23:46:17.069430 15394 net.cpp:605] Scale29 <- Convolution29
I0525 23:46:17.069437 15394 net.cpp:566] Scale29 -> Convolution29 (in-place)
I0525 23:46:17.069494 15394 layer_factory.hpp:77] Creating layer Scale29
I0525 23:46:17.069614 15394 net.cpp:240] Setting up Scale29
I0525 23:46:17.069620 15394 net.cpp:247] Top shape: 100 64 8 8 (409600)
I0525 23:46:17.069624 15394 net.cpp:255] Memory required for data: 602522800
I0525 23:46:17.069631 15394 layer_factory.hpp:77] Creating layer Eltwise14
I0525 23:46:17.069644 15394 net.cpp:190] Creating Layer Eltwise14
I0525 23:46:17.069650 15394 net.cpp:605] Eltwise14 <- Eltwise13_ReLU27_0_split_1
I0525 23:46:17.069655 15394 net.cpp:605] Eltwise14 <- Convolution29
I0525 23:46:17.069661 15394 net.cpp:579] Eltwise14 -> Eltwise14
I0525 23:46:17.069689 15394 net.cpp:240] Setting up Eltwise14
I0525 23:46:17.069694 15394 net.cpp:247] Top shape: 100 64 8 8 (409600)
I0525 23:46:17.069697 15394 net.cpp:255] Memory required for data: 604161200
I0525 23:46:17.069700 15394 layer_factory.hpp:77] Creating layer ReLU29
I0525 23:46:17.069708 15394 net.cpp:190] Creating Layer ReLU29
I0525 23:46:17.069711 15394 net.cpp:605] ReLU29 <- Eltwise14
I0525 23:46:17.069718 15394 net.cpp:566] ReLU29 -> Eltwise14 (in-place)
I0525 23:46:17.069725 15394 net.cpp:240] Setting up ReLU29
I0525 23:46:17.069730 15394 net.cpp:247] Top shape: 100 64 8 8 (409600)
I0525 23:46:17.069732 15394 net.cpp:255] Memory required for data: 605799600
I0525 23:46:17.069736 15394 layer_factory.hpp:77] Creating layer Pooling3
I0525 23:46:17.069746 15394 net.cpp:190] Creating Layer Pooling3
I0525 23:46:17.069749 15394 net.cpp:605] Pooling3 <- Eltwise14
I0525 23:46:17.069756 15394 net.cpp:579] Pooling3 -> Pooling3
I0525 23:46:17.069782 15394 net.cpp:240] Setting up Pooling3
I0525 23:46:17.069787 15394 net.cpp:247] Top shape: 100 64 1 1 (6400)
I0525 23:46:17.069790 15394 net.cpp:255] Memory required for data: 605825200
I0525 23:46:17.069793 15394 layer_factory.hpp:77] Creating layer InnerProduct1
I0525 23:46:17.069807 15394 net.cpp:190] Creating Layer InnerProduct1
I0525 23:46:17.069810 15394 net.cpp:605] InnerProduct1 <- Pooling3
I0525 23:46:17.069816 15394 net.cpp:579] InnerProduct1 -> InnerProduct1
I0525 23:46:17.069990 15394 net.cpp:240] Setting up InnerProduct1
I0525 23:46:17.069999 15394 net.cpp:247] Top shape: 100 10 (1000)
I0525 23:46:17.070003 15394 net.cpp:255] Memory required for data: 605829200
I0525 23:46:17.070010 15394 layer_factory.hpp:77] Creating layer InnerProduct1_InnerProduct1_0_split
I0525 23:46:17.070020 15394 net.cpp:190] Creating Layer InnerProduct1_InnerProduct1_0_split
I0525 23:46:17.070024 15394 net.cpp:605] InnerProduct1_InnerProduct1_0_split <- InnerProduct1
I0525 23:46:17.070030 15394 net.cpp:579] InnerProduct1_InnerProduct1_0_split -> InnerProduct1_InnerProduct1_0_split_0
I0525 23:46:17.070037 15394 net.cpp:579] InnerProduct1_InnerProduct1_0_split -> InnerProduct1_InnerProduct1_0_split_1
I0525 23:46:17.070075 15394 net.cpp:240] Setting up InnerProduct1_InnerProduct1_0_split
I0525 23:46:17.070080 15394 net.cpp:247] Top shape: 100 10 (1000)
I0525 23:46:17.070085 15394 net.cpp:247] Top shape: 100 10 (1000)
I0525 23:46:17.070088 15394 net.cpp:255] Memory required for data: 605837200
I0525 23:46:17.070091 15394 layer_factory.hpp:77] Creating layer Accuracy
I0525 23:46:17.070099 15394 net.cpp:190] Creating Layer Accuracy
I0525 23:46:17.070103 15394 net.cpp:605] Accuracy <- InnerProduct1_InnerProduct1_0_split_0
I0525 23:46:17.070109 15394 net.cpp:605] Accuracy <- Data2_Data1_1_split_0
I0525 23:46:17.070118 15394 net.cpp:579] Accuracy -> Accuracy
…
