layer {
  name: "Data1"
  type: "Data"
  top: "Data1"
  top: "Data2"
  transform_param {
    mirror: true
    crop_size: 32
  }
  data_param {
    source: "examples/cifar10/cifar10_test_leveldb_padding1"
    batch_size: 2
    backend: LEVELDB
  }
}
layer {
  name: "Convolution1"
  type: "Convolution"
  bottom: "Data1"
  top: "Convolution1"
  convolution_param {
    num_output: 16
    bias_term: true
    pad: 1
    kernel_size: 3
    stride: 1
    weight_filler {
      type: "msra"
    }
    bias_filler {
      type: "constant"
    }
  }
}
layer {
  name: "BatchNorm1"
  type: "BatchNorm"
  bottom: "Convolution1"
  top: "Convolution1"
  param {
    lr_mult: 0
    decay_mult: 0
  }
  param {
    lr_mult: 0
    decay_mult: 0
  }
  param {
    lr_mult: 0
    decay_mult: 0
  }
}
layer {
  name: "Scale1"
  type: "Scale"
  bottom: "Convolution1"
  top: "Convolution1"
  scale_param {
    bias_term: true
  }
}
layer {
  name: "ReLU1"
  type: "ReLU"
  bottom: "Convolution1"
  top: "Convolution1"
}
layer {
  name: "Convolution2"
  type: "Convolution"
  bottom: "Convolution1"
  top: "Convolution2"
  convolution_param {
    num_output: 16
    bias_term: true
    pad: 1
    kernel_size: 3
    stride: 1
    weight_filler {
      type: "msra"
    }
    bias_filler {
      type: "constant"
    }
  }
}
layer {
  name: "BatchNorm2"
  type: "BatchNorm"
  bottom: "Convolution2"
  top: "Convolution2"
  param {
    lr_mult: 0
    decay_mult: 0
  }
  param {
    lr_mult: 0
    decay_mult: 0
  }
  param {
    lr_mult: 0
    decay_mult: 0
  }
}
layer {
  name: "Scale2"
  type: "Scale"
  bottom: "Convolution2"
  top: "Convolution2"
  scale_param {
    bias_term: true
  }
}
layer {
  name: "ReLU2"
  type: "ReLU"
  bottom: "Convolution2"
  top: "Convolution2"
}
layer {
  name: "Convolution3"
  type: "Convolution"
  bottom: "Convolution2"
  top: "Convolution3"
  convolution_param {
    num_output: 16
    bias_term: true
    pad: 1
    kernel_size: 3
    stride: 1
    weight_filler {
      type: "msra"
    }
    bias_filler {
      type: "constant"
    }
  }
}
layer {
  name: "BatchNorm3"
  type: "BatchNorm"
  bottom: "Convolution3"
  top: "Convolution3"
  param {
    lr_mult: 0
    decay_mult: 0
  }
  param {
    lr_mult: 0
    decay_mult: 0
  }
  param {
    lr_mult: 0
    decay_mult: 0
  }
}
layer {
  name: "Scale3"
  type: "Scale"
  bottom: "Convolution3"
  top: "Convolution3"
  scale_param {
    bias_term: true
  }
}
layer {
  name: "Eltwise1"
  type: "Eltwise"
  bottom: "Convolution1"
  bottom: "Convolution3"
  top: "Eltwise1"
  eltwise_param {
    operation: SUM
  }
}
layer {
  name: "ReLU3"
  type: "ReLU"
  bottom: "Eltwise1"
  top: "Eltwise1"
}
layer {
  name: "Convolution4"
  type: "Convolution"
  bottom: "Eltwise1"
  top: "Convolution4"
  convolution_param {
    num_output: 16
    bias_term: true
    pad: 1
    kernel_size: 3
    stride: 1
    weight_filler {
      type: "msra"
    }
    bias_filler {
      type: "constant"
    }
  }
}
layer {
  name: "BatchNorm4"
  type: "BatchNorm"
  bottom: "Convolution4"
  top: "Convolution4"
  param {
    lr_mult: 0
    decay_mult: 0
  }
  param {
    lr_mult: 0
    decay_mult: 0
  }
  param {
    lr_mult: 0
    decay_mult: 0
  }
}
layer {
  name: "Scale4"
  type: "Scale"
  bottom: "Convolution4"
  top: "Convolution4"
  scale_param {
    bias_term: true
  }
}
layer {
  name: "ReLU4"
  type: "ReLU"
  bottom: "Convolution4"
  top: "Convolution4"
}
layer {
  name: "Convolution5"
  type: "Convolution"
  bottom: "Convolution4"
  top: "Convolution5"
  convolution_param {
    num_output: 16
    bias_term: true
    pad: 1
    kernel_size: 3
    stride: 1
    weight_filler {
      type: "msra"
    }
    bias_filler {
      type: "constant"
    }
  }
}
layer {
  name: "BatchNorm5"
  type: "BatchNorm"
  bottom: "Convolution5"
  top: "Convolution5"
  param {
    lr_mult: 0
    decay_mult: 0
  }
  param {
    lr_mult: 0
    decay_mult: 0
  }
  param {
    lr_mult: 0
    decay_mult: 0
  }
}
layer {
  name: "Scale5"
  type: "Scale"
  bottom: "Convolution5"
  top: "Convolution5"
  scale_param {
    bias_term: true
  }
}
layer {
  name: "Eltwise2"
  type: "Eltwise"
  bottom: "Eltwise1"
  bottom: "Convolution5"
  top: "Eltwise2"
  eltwise_param {
    operation: SUM
  }
}
layer {
  name: "ReLU5"
  type: "ReLU"
  bottom: "Eltwise2"
  top: "Eltwise2"
}
layer {
  name: "Convolution6"
  type: "Convolution"
  bottom: "Eltwise2"
  top: "Convolution6"
  convolution_param {
    num_output: 16
    bias_term: true
    pad: 1
    kernel_size: 3
    stride: 1
    weight_filler {
      type: "msra"
    }
    bias_filler {
      type: "constant"
    }
  }
}
layer {
  name: "BatchNorm6"
  type: "BatchNorm"
  bottom: "Convolution6"
  top: "Convolution6"
  param {
    lr_mult: 0
    decay_mult: 0
  }
  param {
    lr_mult: 0
    decay_mult: 0
  }
  param {
    lr_mult: 0
    decay_mult: 0
  }
}
layer {
  name: "Scale6"
  type: "Scale"
  bottom: "Convolution6"
  top: "Convolution6"
  scale_param {
    bias_term: true
  }
}
layer {
  name: "ReLU6"
  type: "ReLU"
  bottom: "Convolution6"
  top: "Convolution6"
}
layer {
  name: "Convolution7"
  type: "Convolution"
  bottom: "Convolution6"
  top: "Convolution7"
  convolution_param {
    num_output: 16
    bias_term: true
    pad: 1
    kernel_size: 3
    stride: 1
    weight_filler {
      type: "msra"
    }
    bias_filler {
      type: "constant"
    }
  }
}
layer {
  name: "BatchNorm7"
  type: "BatchNorm"
  bottom: "Convolution7"
  top: "Convolution7"
  param {
    lr_mult: 0
    decay_mult: 0
  }
  param {
    lr_mult: 0
    decay_mult: 0
  }
  param {
    lr_mult: 0
    decay_mult: 0
  }
}
layer {
  name: "Scale7"
  type: "Scale"
  bottom: "Convolution7"
  top: "Convolution7"
  scale_param {
    bias_term: true
  }
}
layer {
  name: "Eltwise3"
  type: "Eltwise"
  bottom: "Eltwise2"
  bottom: "Convolution7"
  top: "Eltwise3"
  eltwise_param {
    operation: SUM
  }
}
layer {
  name: "ReLU7"
  type: "ReLU"
  bottom: "Eltwise3"
  top: "Eltwise3"
}
layer {
  name: "Convolution8"
  type: "Convolution"
  bottom: "Eltwise3"
  top: "Convolution8"
  convolution_param {
    num_output: 16
    bias_term: true
    pad: 1
    kernel_size: 3
    stride: 1
    weight_filler {
      type: "msra"
    }
    bias_filler {
      type: "constant"
    }
  }
}
layer {
  name: "BatchNorm8"
  type: "BatchNorm"
  bottom: "Convolution8"
  top: "Convolution8"
  param {
    lr_mult: 0
    decay_mult: 0
  }
  param {
    lr_mult: 0
    decay_mult: 0
  }
  param {
    lr_mult: 0
    decay_mult: 0
  }
}
layer {
  name: "Scale8"
  type: "Scale"
  bottom: "Convolution8"
  top: "Convolution8"
  scale_param {
    bias_term: true
  }
}
layer {
  name: "ReLU8"
  type: "ReLU"
  bottom: "Convolution8"
  top: "Convolution8"
}
layer {
  name: "Convolution9"
  type: "Convolution"
  bottom: "Convolution8"
  top: "Convolution9"
  convolution_param {
    num_output: 16
    bias_term: true
    pad: 1
    kernel_size: 3
    stride: 1
    weight_filler {
      type: "msra"
    }
    bias_filler {
      type: "constant"
    }
  }
}
layer {
  name: "BatchNorm9"
  type: "BatchNorm"
  bottom: "Convolution9"
  top: "Convolution9"
  param {
    lr_mult: 0
    decay_mult: 0
  }
  param {
    lr_mult: 0
    decay_mult: 0
  }
  param {
    lr_mult: 0
    decay_mult: 0
  }
}
layer {
  name: "Scale9"
  type: "Scale"
  bottom: "Convolution9"
  top: "Convolution9"
  scale_param {
    bias_term: true
  }
}
layer {
  name: "Eltwise4"
  type: "Eltwise"
  bottom: "Eltwise3"
  bottom: "Convolution9"
  top: "Eltwise4"
  eltwise_param {
    operation: SUM
  }
}
layer {
  name: "ReLU9"
  type: "ReLU"
  bottom: "Eltwise4"
  top: "Eltwise4"
}
layer {
  name: "Convolution10"
  type: "Convolution"
  bottom: "Eltwise4"
  top: "Convolution10"
  convolution_param {
    num_output: 16
    bias_term: true
    pad: 1
    kernel_size: 3
    stride: 1
    weight_filler {
      type: "msra"
    }
    bias_filler {
      type: "constant"
    }
  }
}
layer {
  name: "BatchNorm10"
  type: "BatchNorm"
  bottom: "Convolution10"
  top: "Convolution10"
  param {
    lr_mult: 0
    decay_mult: 0
  }
  param {
    lr_mult: 0
    decay_mult: 0
  }
  param {
    lr_mult: 0
    decay_mult: 0
  }
}
layer {
  name: "Scale10"
  type: "Scale"
  bottom: "Convolution10"
  top: "Convolution10"
  scale_param {
    bias_term: true
  }
}
layer {
  name: "ReLU10"
  type: "ReLU"
  bottom: "Convolution10"
  top: "Convolution10"
}
layer {
  name: "Convolution11"
  type: "Convolution"
  bottom: "Convolution10"
  top: "Convolution11"
  convolution_param {
    num_output: 16
    bias_term: true
    pad: 1
    kernel_size: 3
    stride: 1
    weight_filler {
      type: "msra"
    }
    bias_filler {
      type: "constant"
    }
  }
}
layer {
  name: "BatchNorm11"
  type: "BatchNorm"
  bottom: "Convolution11"
  top: "Convolution11"
  param {
    lr_mult: 0
    decay_mult: 0
  }
  param {
    lr_mult: 0
    decay_mult: 0
  }
  param {
    lr_mult: 0
    decay_mult: 0
  }
}
layer {
  name: "Scale11"
  type: "Scale"
  bottom: "Convolution11"
  top: "Convolution11"
  scale_param {
    bias_term: true
  }
}
layer {
  name: "Eltwise5"
  type: "Eltwise"
  bottom: "Eltwise4"
  bottom: "Convolution11"
  top: "Eltwise5"
  eltwise_param {
    operation: SUM
  }
}
layer {
  name: "ReLU11"
  type: "ReLU"
  bottom: "Eltwise5"
  top: "Eltwise5"
}
layer {
  name: "Convolution12"
  type: "Convolution"
  bottom: "Eltwise5"
  top: "Convolution12"
  convolution_param {
    num_output: 16
    bias_term: true
    pad: 1
    kernel_size: 3
    stride: 1
    weight_filler {
      type: "msra"
    }
    bias_filler {
      type: "constant"
    }
  }
}
layer {
  name: "BatchNorm12"
  type: "BatchNorm"
  bottom: "Convolution12"
  top: "Convolution12"
  param {
    lr_mult: 0
    decay_mult: 0
  }
  param {
    lr_mult: 0
    decay_mult: 0
  }
  param {
    lr_mult: 0
    decay_mult: 0
  }
}
layer {
  name: "Scale12"
  type: "Scale"
  bottom: "Convolution12"
  top: "Convolution12"
  scale_param {
    bias_term: true
  }
}
layer {
  name: "ReLU12"
  type: "ReLU"
  bottom: "Convolution12"
  top: "Convolution12"
}
layer {
  name: "Convolution13"
  type: "Convolution"
  bottom: "Convolution12"
  top: "Convolution13"
  convolution_param {
    num_output: 16
    bias_term: true
    pad: 1
    kernel_size: 3
    stride: 1
    weight_filler {
      type: "msra"
    }
    bias_filler {
      type: "constant"
    }
  }
}
layer {
  name: "BatchNorm13"
  type: "BatchNorm"
  bottom: "Convolution13"
  top: "Convolution13"
  param {
    lr_mult: 0
    decay_mult: 0
  }
  param {
    lr_mult: 0
    decay_mult: 0
  }
  param {
    lr_mult: 0
    decay_mult: 0
  }
}
layer {
  name: "Scale13"
  type: "Scale"
  bottom: "Convolution13"
  top: "Convolution13"
  scale_param {
    bias_term: true
  }
}
layer {
  name: "Eltwise6"
  type: "Eltwise"
  bottom: "Eltwise5"
  bottom: "Convolution13"
  top: "Eltwise6"
  eltwise_param {
    operation: SUM
  }
}
layer {
  name: "ReLU13"
  type: "ReLU"
  bottom: "Eltwise6"
  top: "Eltwise6"
}
layer {
  name: "Convolution14"
  type: "Convolution"
  bottom: "Eltwise6"
  top: "Convolution14"
  convolution_param {
    num_output: 16
    bias_term: true
    pad: 1
    kernel_size: 3
    stride: 1
    weight_filler {
      type: "msra"
    }
    bias_filler {
      type: "constant"
    }
  }
}
layer {
  name: "BatchNorm14"
  type: "BatchNorm"
  bottom: "Convolution14"
  top: "Convolution14"
  param {
    lr_mult: 0
    decay_mult: 0
  }
  param {
    lr_mult: 0
    decay_mult: 0
  }
  param {
    lr_mult: 0
    decay_mult: 0
  }
}
layer {
  name: "Scale14"
  type: "Scale"
  bottom: "Convolution14"
  top: "Convolution14"
  scale_param {
    bias_term: true
  }
}
layer {
  name: "ReLU14"
  type: "ReLU"
  bottom: "Convolution14"
  top: "Convolution14"
}
layer {
  name: "Convolution15"
  type: "Convolution"
  bottom: "Convolution14"
  top: "Convolution15"
  convolution_param {
    num_output: 16
    bias_term: true
    pad: 1
    kernel_size: 3
    stride: 1
    weight_filler {
      type: "msra"
    }
    bias_filler {
      type: "constant"
    }
  }
}
layer {
  name: "BatchNorm15"
  type: "BatchNorm"
  bottom: "Convolution15"
  top: "Convolution15"
  param {
    lr_mult: 0
    decay_mult: 0
  }
  param {
    lr_mult: 0
    decay_mult: 0
  }
  param {
    lr_mult: 0
    decay_mult: 0
  }
}
layer {
  name: "Scale15"
  type: "Scale"
  bottom: "Convolution15"
  top: "Convolution15"
  scale_param {
    bias_term: true
  }
}
layer {
  name: "Eltwise7"
  type: "Eltwise"
  bottom: "Eltwise6"
  bottom: "Convolution15"
  top: "Eltwise7"
  eltwise_param {
    operation: SUM
  }
}
layer {
  name: "ReLU15"
  type: "ReLU"
  bottom: "Eltwise7"
  top: "Eltwise7"
}
layer {
  name: "Convolution16"
  type: "Convolution"
  bottom: "Eltwise7"
  top: "Convolution16"
  convolution_param {
    num_output: 16
    bias_term: true
    pad: 1
    kernel_size: 3
    stride: 1
    weight_filler {
      type: "msra"
    }
    bias_filler {
      type: "constant"
    }
  }
}
layer {
  name: "BatchNorm16"
  type: "BatchNorm"
  bottom: "Convolution16"
  top: "Convolution16"
  param {
    lr_mult: 0
    decay_mult: 0
  }
  param {
    lr_mult: 0
    decay_mult: 0
  }
  param {
    lr_mult: 0
    decay_mult: 0
  }
}
layer {
  name: "Scale16"
  type: "Scale"
  bottom: "Convolution16"
  top: "Convolution16"
  scale_param {
    bias_term: true
  }
}
layer {
  name: "ReLU16"
  type: "ReLU"
  bottom: "Convolution16"
  top: "Convolution16"
}
layer {
  name: "Convolution17"
  type: "Convolution"
  bottom: "Convolution16"
  top: "Convolution17"
  convolution_param {
    num_output: 16
    bias_term: true
    pad: 1
    kernel_size: 3
    stride: 1
    weight_filler {
      type: "msra"
    }
    bias_filler {
      type: "constant"
    }
  }
}
layer {
  name: "BatchNorm17"
  type: "BatchNorm"
  bottom: "Convolution17"
  top: "Convolution17"
  param {
    lr_mult: 0
    decay_mult: 0
  }
  param {
    lr_mult: 0
    decay_mult: 0
  }
  param {
    lr_mult: 0
    decay_mult: 0
  }
}
layer {
  name: "Scale17"
  type: "Scale"
  bottom: "Convolution17"
  top: "Convolution17"
  scale_param {
    bias_term: true
  }
}
layer {
  name: "Eltwise8"
  type: "Eltwise"
  bottom: "Eltwise7"
  bottom: "Convolution17"
  top: "Eltwise8"
  eltwise_param {
    operation: SUM
  }
}
layer {
  name: "ReLU17"
  type: "ReLU"
  bottom: "Eltwise8"
  top: "Eltwise8"
}
layer {
  name: "Convolution18"
  type: "Convolution"
  bottom: "Eltwise8"
  top: "Convolution18"
  convolution_param {
    num_output: 16
    bias_term: true
    pad: 1
    kernel_size: 3
    stride: 1
    weight_filler {
      type: "msra"
    }
    bias_filler {
      type: "constant"
    }
  }
}
layer {
  name: "BatchNorm18"
  type: "BatchNorm"
  bottom: "Convolution18"
  top: "Convolution18"
  param {
    lr_mult: 0
    decay_mult: 0
  }
  param {
    lr_mult: 0
    decay_mult: 0
  }
  param {
    lr_mult: 0
    decay_mult: 0
  }
}
layer {
  name: "Scale18"
  type: "Scale"
  bottom: "Convolution18"
  top: "Convolution18"
  scale_param {
    bias_term: true
  }
}
layer {
  name: "ReLU18"
  type: "ReLU"
  bottom: "Convolution18"
  top: "Convolution18"
}
layer {
  name: "Convolution19"
  type: "Convolution"
  bottom: "Convolution18"
  top: "Convolution19"
  convolution_param {
    num_output: 16
    bias_term: true
    pad: 1
    kernel_size: 3
    stride: 1
    weight_filler {
      type: "msra"
    }
    bias_filler {
      type: "constant"
    }
  }
}
layer {
  name: "BatchNorm19"
  type: "BatchNorm"
  bottom: "Convolution19"
  top: "Convolution19"
  param {
    lr_mult: 0
    decay_mult: 0
  }
  param {
    lr_mult: 0
    decay_mult: 0
  }
  param {
    lr_mult: 0
    decay_mult: 0
  }
}
layer {
  name: "Scale19"
  type: "Scale"
  bottom: "Convolution19"
  top: "Convolution19"
  scale_param {
    bias_term: true
  }
}
layer {
  name: "Eltwise9"
  type: "Eltwise"
  bottom: "Eltwise8"
  bottom: "Convolution19"
  top: "Eltwise9"
  eltwise_param {
    operation: SUM
  }
}
layer {
  name: "ReLU19"
  type: "ReLU"
  bottom: "Eltwise9"
  top: "Eltwise9"
}
layer {
  name: "Convolution20"
  type: "Convolution"
  bottom: "Eltwise9"
  top: "Convolution20"
  convolution_param {
    num_output: 16
    bias_term: true
    pad: 1
    kernel_size: 3
    stride: 1
    weight_filler {
      type: "msra"
    }
    bias_filler {
      type: "constant"
    }
  }
}
layer {
  name: "BatchNorm20"
  type: "BatchNorm"
  bottom: "Convolution20"
  top: "Convolution20"
  param {
    lr_mult: 0
    decay_mult: 0
  }
  param {
    lr_mult: 0
    decay_mult: 0
  }
  param {
    lr_mult: 0
    decay_mult: 0
  }
}
layer {
  name: "Scale20"
  type: "Scale"
  bottom: "Convolution20"
  top: "Convolution20"
  scale_param {
    bias_term: true
  }
}
layer {
  name: "ReLU20"
  type: "ReLU"
  bottom: "Convolution20"
  top: "Convolution20"
}
layer {
  name: "Convolution21"
  type: "Convolution"
  bottom: "Convolution20"
  top: "Convolution21"
  convolution_param {
    num_output: 16
    bias_term: true
    pad: 1
    kernel_size: 3
    stride: 1
    weight_filler {
      type: "msra"
    }
    bias_filler {
      type: "constant"
    }
  }
}
layer {
  name: "BatchNorm21"
  type: "BatchNorm"
  bottom: "Convolution21"
  top: "Convolution21"
  param {
    lr_mult: 0
    decay_mult: 0
  }
  param {
    lr_mult: 0
    decay_mult: 0
  }
  param {
    lr_mult: 0
    decay_mult: 0
  }
}
layer {
  name: "Scale21"
  type: "Scale"
  bottom: "Convolution21"
  top: "Convolution21"
  scale_param {
    bias_term: true
  }
}
layer {
  name: "Eltwise10"
  type: "Eltwise"
  bottom: "Eltwise9"
  bottom: "Convolution21"
  top: "Eltwise10"
  eltwise_param {
    operation: SUM
  }
}
layer {
  name: "ReLU21"
  type: "ReLU"
  bottom: "Eltwise10"
  top: "Eltwise10"
}
layer {
  name: "Convolution22"
  type: "Convolution"
  bottom: "Eltwise10"
  top: "Convolution22"
  convolution_param {
    num_output: 16
    bias_term: true
    pad: 1
    kernel_size: 3
    stride: 1
    weight_filler {
      type: "msra"
    }
    bias_filler {
      type: "constant"
    }
  }
}
layer {
  name: "BatchNorm22"
  type: "BatchNorm"
  bottom: "Convolution22"
  top: "Convolution22"
  param {
    lr_mult: 0
    decay_mult: 0
  }
  param {
    lr_mult: 0
    decay_mult: 0
  }
  param {
    lr_mult: 0
    decay_mult: 0
  }
}
layer {
  name: "Scale22"
  type: "Scale"
  bottom: "Convolution22"
  top: "Convolution22"
  scale_param {
    bias_term: true
  }
}
layer {
  name: "ReLU22"
  type: "ReLU"
  bottom: "Convolution22"
  top: "Convolution22"
}
layer {
  name: "Convolution23"
  type: "Convolution"
  bottom: "Convolution22"
  top: "Convolution23"
  convolution_param {
    num_output: 16
    bias_term: true
    pad: 1
    kernel_size: 3
    stride: 1
    weight_filler {
      type: "msra"
    }
    bias_filler {
      type: "constant"
    }
  }
}
layer {
  name: "BatchNorm23"
  type: "BatchNorm"
  bottom: "Convolution23"
  top: "Convolution23"
  param {
    lr_mult: 0
    decay_mult: 0
  }
  param {
    lr_mult: 0
    decay_mult: 0
  }
  param {
    lr_mult: 0
    decay_mult: 0
  }
}
layer {
  name: "Scale23"
  type: "Scale"
  bottom: "Convolution23"
  top: "Convolution23"
  scale_param {
    bias_term: true
  }
}
layer {
  name: "Eltwise11"
  type: "Eltwise"
  bottom: "Eltwise10"
  bottom: "Convolution23"
  top: "Eltwise11"
  eltwise_param {
    operation: SUM
  }
}
layer {
  name: "ReLU23"
  type: "ReLU"
  bottom: "Eltwise11"
  top: "Eltwise11"
}
layer {
  name: "Convolution24"
  type: "Convolution"
  bottom: "Eltwise11"
  top: "Convolution24"
  convolution_param {
    num_output: 16
    bias_term: true
    pad: 1
    kernel_size: 3
    stride: 1
    weight_filler {
      type: "msra"
    }
    bias_filler {
      type: "constant"
    }
  }
}
layer {
  name: "BatchNorm24"
  type: "BatchNorm"
  bottom: "Convolution24"
  top: "Convolution24"
  param {
    lr_mult: 0
    decay_mult: 0
  }
  param {
    lr_mult: 0
    decay_mult: 0
  }
  param {
    lr_mult: 0
    decay_mult: 0
  }
}
layer {
  name: "Scale24"
  type: "Scale"
  bottom: "Convolution24"
  top: "Convolution24"
  scale_param {
    bias_term: true
  }
}
layer {
  name: "ReLU24"
  type: "ReLU"
  bottom: "Convolution24"
  top: "Convolution24"
}
layer {
  name: "Convolution25"
  type: "Convolution"
  bottom: "Convolution24"
  top: "Convolution25"
  convolution_param {
    num_output: 16
    bias_term: true
    pad: 1
    kernel_size: 3
    stride: 1
    weight_filler {
      type: "msra"
    }
    bias_filler {
      type: "constant"
    }
  }
}
layer {
  name: "BatchNorm25"
  type: "BatchNorm"
  bottom: "Convolution25"
  top: "Convolution25"
  param {
    lr_mult: 0
    decay_mult: 0
  }
  param {
    lr_mult: 0
    decay_mult: 0
  }
  param {
    lr_mult: 0
    decay_mult: 0
  }
}
layer {
  name: "Scale25"
  type: "Scale"
  bottom: "Convolution25"
  top: "Convolution25"
  scale_param {
    bias_term: true
  }
}
layer {
  name: "Eltwise12"
  type: "Eltwise"
  bottom: "Eltwise11"
  bottom: "Convolution25"
  top: "Eltwise12"
  eltwise_param {
    operation: SUM
  }
}
layer {
  name: "ReLU25"
  type: "ReLU"
  bottom: "Eltwise12"
  top: "Eltwise12"
}
layer {
  name: "Convolution26"
  type: "Convolution"
  bottom: "Eltwise12"
  top: "Convolution26"
  convolution_param {
    num_output: 16
    bias_term: true
    pad: 1
    kernel_size: 3
    stride: 1
    weight_filler {
      type: "msra"
    }
    bias_filler {
      type: "constant"
    }
  }
}
layer {
  name: "BatchNorm26"
  type: "BatchNorm"
  bottom: "Convolution26"
  top: "Convolution26"
  param {
    lr_mult: 0
    decay_mult: 0
  }
  param {
    lr_mult: 0
    decay_mult: 0
  }
  param {
    lr_mult: 0
    decay_mult: 0
  }
}
layer {
  name: "Scale26"
  type: "Scale"
  bottom: "Convolution26"
  top: "Convolution26"
  scale_param {
    bias_term: true
  }
}
layer {
  name: "ReLU26"
  type: "ReLU"
  bottom: "Convolution26"
  top: "Convolution26"
}
layer {
  name: "Convolution27"
  type: "Convolution"
  bottom: "Convolution26"
  top: "Convolution27"
  convolution_param {
    num_output: 16
    bias_term: true
    pad: 1
    kernel_size: 3
    stride: 1
    weight_filler {
      type: "msra"
    }
    bias_filler {
      type: "constant"
    }
  }
}
layer {
  name: "BatchNorm27"
  type: "BatchNorm"
  bottom: "Convolution27"
  top: "Convolution27"
  param {
    lr_mult: 0
    decay_mult: 0
  }
  param {
    lr_mult: 0
    decay_mult: 0
  }
  param {
    lr_mult: 0
    decay_mult: 0
  }
}
layer {
  name: "Scale27"
  type: "Scale"
  bottom: "Convolution27"
  top: "Convolution27"
  scale_param {
    bias_term: true
  }
}
layer {
  name: "Eltwise13"
  type: "Eltwise"
  bottom: "Eltwise12"
  bottom: "Convolution27"
  top: "Eltwise13"
  eltwise_param {
    operation: SUM
  }
}
layer {
  name: "ReLU27"
  type: "ReLU"
  bottom: "Eltwise13"
  top: "Eltwise13"
}
layer {
  name: "Convolution28"
  type: "Convolution"
  bottom: "Eltwise13"
  top: "Convolution28"
  convolution_param {
    num_output: 16
    bias_term: true
    pad: 1
    kernel_size: 3
    stride: 1
    weight_filler {
      type: "msra"
    }
    bias_filler {
      type: "constant"
    }
  }
}
layer {
  name: "BatchNorm28"
  type: "BatchNorm"
  bottom: "Convolution28"
  top: "Convolution28"
  param {
    lr_mult: 0
    decay_mult: 0
  }
  param {
    lr_mult: 0
    decay_mult: 0
  }
  param {
    lr_mult: 0
    decay_mult: 0
  }
}
layer {
  name: "Scale28"
  type: "Scale"
  bottom: "Convolution28"
  top: "Convolution28"
  scale_param {
    bias_term: true
  }
}
layer {
  name: "ReLU28"
  type: "ReLU"
  bottom: "Convolution28"
  top: "Convolution28"
}
layer {
  name: "Convolution29"
  type: "Convolution"
  bottom: "Convolution28"
  top: "Convolution29"
  convolution_param {
    num_output: 16
    bias_term: true
    pad: 1
    kernel_size: 3
    stride: 1
    weight_filler {
      type: "msra"
    }
    bias_filler {
      type: "constant"
    }
  }
}
layer {
  name: "BatchNorm29"
  type: "BatchNorm"
  bottom: "Convolution29"
  top: "Convolution29"
  param {
    lr_mult: 0
    decay_mult: 0
  }
  param {
    lr_mult: 0
    decay_mult: 0
  }
  param {
    lr_mult: 0
    decay_mult: 0
  }
}
layer {
  name: "Scale29"
  type: "Scale"
  bottom: "Convolution29"
  top: "Convolution29"
  scale_param {
    bias_term: true
  }
}
layer {
  name: "Eltwise14"
  type: "Eltwise"
  bottom: "Eltwise13"
  bottom: "Convolution29"
  top: "Eltwise14"
  eltwise_param {
    operation: SUM
  }
}
layer {
  name: "ReLU29"
  type: "ReLU"
  bottom: "Eltwise14"
  top: "Eltwise14"
}
layer {
  name: "Convolution30"
  type: "Convolution"
  bottom: "Eltwise14"
  top: "Convolution30"
  convolution_param {
    num_output: 16
    bias_term: true
    pad: 1
    kernel_size: 3
    stride: 1
    weight_filler {
      type: "msra"
    }
    bias_filler {
      type: "constant"
    }
  }
}
layer {
  name: "BatchNorm30"
  type: "BatchNorm"
  bottom: "Convolution30"
  top: "Convolution30"
  param {
    lr_mult: 0
    decay_mult: 0
  }
  param {
    lr_mult: 0
    decay_mult: 0
  }
  param {
    lr_mult: 0
    decay_mult: 0
  }
}
layer {
  name: "Scale30"
  type: "Scale"
  bottom: "Convolution30"
  top: "Convolution30"
  scale_param {
    bias_term: true
  }
}
layer {
  name: "ReLU30"
  type: "ReLU"
  bottom: "Convolution30"
  top: "Convolution30"
}
layer {
  name: "Convolution31"
  type: "Convolution"
  bottom: "Convolution30"
  top: "Convolution31"
  convolution_param {
    num_output: 16
    bias_term: true
    pad: 1
    kernel_size: 3
    stride: 1
    weight_filler {
      type: "msra"
    }
    bias_filler {
      type: "constant"
    }
  }
}
layer {
  name: "BatchNorm31"
  type: "BatchNorm"
  bottom: "Convolution31"
  top: "Convolution31"
  param {
    lr_mult: 0
    decay_mult: 0
  }
  param {
    lr_mult: 0
    decay_mult: 0
  }
  param {
    lr_mult: 0
    decay_mult: 0
  }
}
layer {
  name: "Scale31"
  type: "Scale"
  bottom: "Convolution31"
  top: "Convolution31"
  scale_param {
    bias_term: true
  }
}
layer {
  name: "Eltwise15"
  type: "Eltwise"
  bottom: "Eltwise14"
  bottom: "Convolution31"
  top: "Eltwise15"
  eltwise_param {
    operation: SUM
  }
}
layer {
  name: "ReLU31"
  type: "ReLU"
  bottom: "Eltwise15"
  top: "Eltwise15"
}
layer {
  name: "Convolution32"
  type: "Convolution"
  bottom: "Eltwise15"
  top: "Convolution32"
  convolution_param {
    num_output: 16
    bias_term: true
    pad: 1
    kernel_size: 3
    stride: 1
    weight_filler {
      type: "msra"
    }
    bias_filler {
      type: "constant"
    }
  }
}
layer {
  name: "BatchNorm32"
  type: "BatchNorm"
  bottom: "Convolution32"
  top: "Convolution32"
  param {
    lr_mult: 0
    decay_mult: 0
  }
  param {
    lr_mult: 0
    decay_mult: 0
  }
  param {
    lr_mult: 0
    decay_mult: 0
  }
}
layer {
  name: "Scale32"
  type: "Scale"
  bottom: "Convolution32"
  top: "Convolution32"
  scale_param {
    bias_term: true
  }
}
layer {
  name: "ReLU32"
  type: "ReLU"
  bottom: "Convolution32"
  top: "Convolution32"
}
layer {
  name: "Convolution33"
  type: "Convolution"
  bottom: "Convolution32"
  top: "Convolution33"
  convolution_param {
    num_output: 16
    bias_term: true
    pad: 1
    kernel_size: 3
    stride: 1
    weight_filler {
      type: "msra"
    }
    bias_filler {
      type: "constant"
    }
  }
}
layer {
  name: "BatchNorm33"
  type: "BatchNorm"
  bottom: "Convolution33"
  top: "Convolution33"
  param {
    lr_mult: 0
    decay_mult: 0
  }
  param {
    lr_mult: 0
    decay_mult: 0
  }
  param {
    lr_mult: 0
    decay_mult: 0
  }
}
layer {
  name: "Scale33"
  type: "Scale"
  bottom: "Convolution33"
  top: "Convolution33"
  scale_param {
    bias_term: true
  }
}
layer {
  name: "Eltwise16"
  type: "Eltwise"
  bottom: "Eltwise15"
  bottom: "Convolution33"
  top: "Eltwise16"
  eltwise_param {
    operation: SUM
  }
}
layer {
  name: "ReLU33"
  type: "ReLU"
  bottom: "Eltwise16"
  top: "Eltwise16"
}
layer {
  name: "Convolution34"
  type: "Convolution"
  bottom: "Eltwise16"
  top: "Convolution34"
  convolution_param {
    num_output: 16
    bias_term: true
    pad: 1
    kernel_size: 3
    stride: 1
    weight_filler {
      type: "msra"
    }
    bias_filler {
      type: "constant"
    }
  }
}
layer {
  name: "BatchNorm34"
  type: "BatchNorm"
  bottom: "Convolution34"
  top: "Convolution34"
  param {
    lr_mult: 0
    decay_mult: 0
  }
  param {
    lr_mult: 0
    decay_mult: 0
  }
  param {
    lr_mult: 0
    decay_mult: 0
  }
}
layer {
  name: "Scale34"
  type: "Scale"
  bottom: "Convolution34"
  top: "Convolution34"
  scale_param {
    bias_term: true
  }
}
layer {
  name: "ReLU34"
  type: "ReLU"
  bottom: "Convolution34"
  top: "Convolution34"
}
layer {
  name: "Convolution35"
  type: "Convolution"
  bottom: "Convolution34"
  top: "Convolution35"
  convolution_param {
    num_output: 16
    bias_term: true
    pad: 1
    kernel_size: 3
    stride: 1
    weight_filler {
      type: "msra"
    }
    bias_filler {
      type: "constant"
    }
  }
}
layer {
  name: "BatchNorm35"
  type: "BatchNorm"
  bottom: "Convolution35"
  top: "Convolution35"
  param {
    lr_mult: 0
    decay_mult: 0
  }
  param {
    lr_mult: 0
    decay_mult: 0
  }
  param {
    lr_mult: 0
    decay_mult: 0
  }
}
layer {
  name: "Scale35"
  type: "Scale"
  bottom: "Convolution35"
  top: "Convolution35"
  scale_param {
    bias_term: true
  }
}
layer {
  name: "Eltwise17"
  type: "Eltwise"
  bottom: "Eltwise16"
  bottom: "Convolution35"
  top: "Eltwise17"
  eltwise_param {
    operation: SUM
  }
}
layer {
  name: "ReLU35"
  type: "ReLU"
  bottom: "Eltwise17"
  top: "Eltwise17"
}
layer {
  name: "Convolution36"
  type: "Convolution"
  bottom: "Eltwise17"
  top: "Convolution36"
  convolution_param {
    num_output: 16
    bias_term: true
    pad: 1
    kernel_size: 3
    stride: 1
    weight_filler {
      type: "msra"
    }
    bias_filler {
      type: "constant"
    }
  }
}
layer {
  name: "BatchNorm36"
  type: "BatchNorm"
  bottom: "Convolution36"
  top: "Convolution36"
  param {
    lr_mult: 0
    decay_mult: 0
  }
  param {
    lr_mult: 0
    decay_mult: 0
  }
  param {
    lr_mult: 0
    decay_mult: 0
  }
}
layer {
  name: "Scale36"
  type: "Scale"
  bottom: "Convolution36"
  top: "Convolution36"
  scale_param {
    bias_term: true
  }
}
layer {
  name: "ReLU36"
  type: "ReLU"
  bottom: "Convolution36"
  top: "Convolution36"
}
layer {
  name: "Convolution37"
  type: "Convolution"
  bottom: "Convolution36"
  top: "Convolution37"
  convolution_param {
    num_output: 16
    bias_term: true
    pad: 1
    kernel_size: 3
    stride: 1
    weight_filler {
      type: "msra"
    }
    bias_filler {
      type: "constant"
    }
  }
}
layer {
  name: "BatchNorm37"
  type: "BatchNorm"
  bottom: "Convolution37"
  top: "Convolution37"
  param {
    lr_mult: 0
    decay_mult: 0
  }
  param {
    lr_mult: 0
    decay_mult: 0
  }
  param {
    lr_mult: 0
    decay_mult: 0
  }
}
layer {
  name: "Scale37"
  type: "Scale"
  bottom: "Convolution37"
  top: "Convolution37"
  scale_param {
    bias_term: true
  }
}
layer {
  name: "Eltwise18"
  type: "Eltwise"
  bottom: "Eltwise17"
  bottom: "Convolution37"
  top: "Eltwise18"
  eltwise_param {
    operation: SUM
  }
}
layer {
  name: "ReLU37"
  type: "ReLU"
  bottom: "Eltwise18"
  top: "Eltwise18"
}
layer {
  name: "Convolution38"
  type: "Convolution"
  bottom: "Eltwise18"
  top: "Convolution38"
  convolution_param {
    num_output: 16
    bias_term: true
    pad: 1
    kernel_size: 3
    stride: 1
    weight_filler {
      type: "msra"
    }
    bias_filler {
      type: "constant"
    }
  }
}
layer {
  name: "BatchNorm38"
  type: "BatchNorm"
  bottom: "Convolution38"
  top: "Convolution38"
  param {
    lr_mult: 0
    decay_mult: 0
  }
  param {
    lr_mult: 0
    decay_mult: 0
  }
  param {
    lr_mult: 0
    decay_mult: 0
  }
}
layer {
  name: "Scale38"
  type: "Scale"
  bottom: "Convolution38"
  top: "Convolution38"
  scale_param {
    bias_term: true
  }
}
layer {
  name: "ReLU38"
  type: "ReLU"
  bottom: "Convolution38"
  top: "Convolution38"
}
layer {
  name: "Convolution39"
  type: "Convolution"
  bottom: "Convolution38"
  top: "Convolution39"
  convolution_param {
    num_output: 16
    bias_term: true
    pad: 1
    kernel_size: 3
    stride: 1
    weight_filler {
      type: "msra"
    }
    bias_filler {
      type: "constant"
    }
  }
}
layer {
  name: "BatchNorm39"
  type: "BatchNorm"
  bottom: "Convolution39"
  top: "Convolution39"
  param {
    lr_mult: 0
    decay_mult: 0
  }
  param {
    lr_mult: 0
    decay_mult: 0
  }
  param {
    lr_mult: 0
    decay_mult: 0
  }
}
layer {
  name: "Scale39"
  type: "Scale"
  bottom: "Convolution39"
  top: "Convolution39"
  scale_param {
    bias_term: true
  }
}
layer {
  name: "Eltwise19"
  type: "Eltwise"
  bottom: "Eltwise18"
  bottom: "Convolution39"
  top: "Eltwise19"
  eltwise_param {
    operation: SUM
  }
}
layer {
  name: "ReLU39"
  type: "ReLU"
  bottom: "Eltwise19"
  top: "Eltwise19"
}
layer {
  name: "Convolution40"
  type: "Convolution"
  bottom: "Eltwise19"
  top: "Convolution40"
  convolution_param {
    num_output: 16
    bias_term: true
    pad: 1
    kernel_size: 3
    stride: 1
    weight_filler {
      type: "msra"
    }
    bias_filler {
      type: "constant"
    }
  }
}
layer {
  name: "BatchNorm40"
  type: "BatchNorm"
  bottom: "Convolution40"
  top: "Convolution40"
  param {
    lr_mult: 0
    decay_mult: 0
  }
  param {
    lr_mult: 0
    decay_mult: 0
  }
  param {
    lr_mult: 0
    decay_mult: 0
  }
}
layer {
  name: "Scale40"
  type: "Scale"
  bottom: "Convolution40"
  top: "Convolution40"
  scale_param {
    bias_term: true
  }
}
layer {
  name: "ReLU40"
  type: "ReLU"
  bottom: "Convolution40"
  top: "Convolution40"
}
layer {
  name: "Convolution41"
  type: "Convolution"
  bottom: "Convolution40"
  top: "Convolution41"
  convolution_param {
    num_output: 16
    bias_term: true
    pad: 1
    kernel_size: 3
    stride: 1
    weight_filler {
      type: "msra"
    }
    bias_filler {
      type: "constant"
    }
  }
}
layer {
  name: "BatchNorm41"
  type: "BatchNorm"
  bottom: "Convolution41"
  top: "Convolution41"
  param {
    lr_mult: 0
    decay_mult: 0
  }
  param {
    lr_mult: 0
    decay_mult: 0
  }
  param {
    lr_mult: 0
    decay_mult: 0
  }
}
layer {
  name: "Scale41"
  type: "Scale"
  bottom: "Convolution41"
  top: "Convolution41"
  scale_param {
    bias_term: true
  }
}
layer {
  name: "Eltwise20"
  type: "Eltwise"
  bottom: "Eltwise19"
  bottom: "Convolution41"
  top: "Eltwise20"
  eltwise_param {
    operation: SUM
  }
}
layer {
  name: "ReLU41"
  type: "ReLU"
  bottom: "Eltwise20"
  top: "Eltwise20"
}
layer {
  name: "Convolution42"
  type: "Convolution"
  bottom: "Eltwise20"
  top: "Convolution42"
  convolution_param {
    num_output: 16
    bias_term: true
    pad: 1
    kernel_size: 3
    stride: 1
    weight_filler {
      type: "msra"
    }
    bias_filler {
      type: "constant"
    }
  }
}
layer {
  name: "BatchNorm42"
  type: "BatchNorm"
  bottom: "Convolution42"
  top: "Convolution42"
  param {
    lr_mult: 0
    decay_mult: 0
  }
  param {
    lr_mult: 0
    decay_mult: 0
  }
  param {
    lr_mult: 0
    decay_mult: 0
  }
}
layer {
  name: "Scale42"
  type: "Scale"
  bottom: "Convolution42"
  top: "Convolution42"
  scale_param {
    bias_term: true
  }
}
layer {
  name: "ReLU42"
  type: "ReLU"
  bottom: "Convolution42"
  top: "Convolution42"
}
layer {
  name: "Convolution43"
  type: "Convolution"
  bottom: "Convolution42"
  top: "Convolution43"
  convolution_param {
    num_output: 16
    bias_term: true
    pad: 1
    kernel_size: 3
    stride: 1
    weight_filler {
      type: "msra"
    }
    bias_filler {
      type: "constant"
    }
  }
}
layer {
  name: "BatchNorm43"
  type: "BatchNorm"
  bottom: "Convolution43"
  top: "Convolution43"
  param {
    lr_mult: 0
    decay_mult: 0
  }
  param {
    lr_mult: 0
    decay_mult: 0
  }
  param {
    lr_mult: 0
    decay_mult: 0
  }
}
layer {
  name: "Scale43"
  type: "Scale"
  bottom: "Convolution43"
  top: "Convolution43"
  scale_param {
    bias_term: true
  }
}
layer {
  name: "Eltwise21"
  type: "Eltwise"
  bottom: "Eltwise20"
  bottom: "Convolution43"
  top: "Eltwise21"
  eltwise_param {
    operation: SUM
  }
}
layer {
  name: "ReLU43"
  type: "ReLU"
  bottom: "Eltwise21"
  top: "Eltwise21"
}
layer {
  name: "Convolution44"
  type: "Convolution"
  bottom: "Eltwise21"
  top: "Convolution44"
  convolution_param {
    num_output: 16
    bias_term: true
    pad: 1
    kernel_size: 3
    stride: 1
    weight_filler {
      type: "msra"
    }
    bias_filler {
      type: "constant"
    }
  }
}
layer {
  name: "BatchNorm44"
  type: "BatchNorm"
  bottom: "Convolution44"
  top: "Convolution44"
  param {
    lr_mult: 0
    decay_mult: 0
  }
  param {
    lr_mult: 0
    decay_mult: 0
  }
  param {
    lr_mult: 0
    decay_mult: 0
  }
}
layer {
  name: "Scale44"
  type: "Scale"
  bottom: "Convolution44"
  top: "Convolution44"
  scale_param {
    bias_term: true
  }
}
layer {
  name: "ReLU44"
  type: "ReLU"
  bottom: "Convolution44"
  top: "Convolution44"
}
layer {
  name: "Convolution45"
  type: "Convolution"
  bottom: "Convolution44"
  top: "Convolution45"
  convolution_param {
    num_output: 16
    bias_term: true
    pad: 1
    kernel_size: 3
    stride: 1
    weight_filler {
      type: "msra"
    }
    bias_filler {
      type: "constant"
    }
  }
}
layer {
  name: "BatchNorm45"
  type: "BatchNorm"
  bottom: "Convolution45"
  top: "Convolution45"
  param {
    lr_mult: 0
    decay_mult: 0
  }
  param {
    lr_mult: 0
    decay_mult: 0
  }
  param {
    lr_mult: 0
    decay_mult: 0
  }
}
layer {
  name: "Scale45"
  type: "Scale"
  bottom: "Convolution45"
  top: "Convolution45"
  scale_param {
    bias_term: true
  }
}
layer {
  name: "Eltwise22"
  type: "Eltwise"
  bottom: "Eltwise21"
  bottom: "Convolution45"
  top: "Eltwise22"
  eltwise_param {
    operation: SUM
  }
}
layer {
  name: "ReLU45"
  type: "ReLU"
  bottom: "Eltwise22"
  top: "Eltwise22"
}
layer {
  name: "Convolution46"
  type: "Convolution"
  bottom: "Eltwise22"
  top: "Convolution46"
  convolution_param {
    num_output: 16
    bias_term: true
    pad: 1
    kernel_size: 3
    stride: 1
    weight_filler {
      type: "msra"
    }
    bias_filler {
      type: "constant"
    }
  }
}
layer {
  name: "BatchNorm46"
  type: "BatchNorm"
  bottom: "Convolution46"
  top: "Convolution46"
  param {
    lr_mult: 0
    decay_mult: 0
  }
  param {
    lr_mult: 0
    decay_mult: 0
  }
  param {
    lr_mult: 0
    decay_mult: 0
  }
}
layer {
  name: "Scale46"
  type: "Scale"
  bottom: "Convolution46"
  top: "Convolution46"
  scale_param {
    bias_term: true
  }
}
layer {
  name: "ReLU46"
  type: "ReLU"
  bottom: "Convolution46"
  top: "Convolution46"
}
layer {
  name: "Convolution47"
  type: "Convolution"
  bottom: "Convolution46"
  top: "Convolution47"
  convolution_param {
    num_output: 16
    bias_term: true
    pad: 1
    kernel_size: 3
    stride: 1
    weight_filler {
      type: "msra"
    }
    bias_filler {
      type: "constant"
    }
  }
}
layer {
  name: "BatchNorm47"
  type: "BatchNorm"
  bottom: "Convolution47"
  top: "Convolution47"
  param {
    lr_mult: 0
    decay_mult: 0
  }
  param {
    lr_mult: 0
    decay_mult: 0
  }
  param {
    lr_mult: 0
    decay_mult: 0
  }
}
layer {
  name: "Scale47"
  type: "Scale"
  bottom: "Convolution47"
  top: "Convolution47"
  scale_param {
    bias_term: true
  }
}
layer {
  name: "Eltwise23"
  type: "Eltwise"
  bottom: "Eltwise22"
  bottom: "Convolution47"
  top: "Eltwise23"
  eltwise_param {
    operation: SUM
  }
}
layer {
  name: "ReLU47"
  type: "ReLU"
  bottom: "Eltwise23"
  top: "Eltwise23"
}
layer {
  name: "Convolution48"
  type: "Convolution"
  bottom: "Eltwise23"
  top: "Convolution48"
  convolution_param {
    num_output: 16
    bias_term: true
    pad: 1
    kernel_size: 3
    stride: 1
    weight_filler {
      type: "msra"
    }
    bias_filler {
      type: "constant"
    }
  }
}
layer {
  name: "BatchNorm48"
  type: "BatchNorm"
  bottom: "Convolution48"
  top: "Convolution48"
  param {
    lr_mult: 0
    decay_mult: 0
  }
  param {
    lr_mult: 0
    decay_mult: 0
  }
  param {
    lr_mult: 0
    decay_mult: 0
  }
}
layer {
  name: "Scale48"
  type: "Scale"
  bottom: "Convolution48"
  top: "Convolution48"
  scale_param {
    bias_term: true
  }
}
layer {
  name: "ReLU48"
  type: "ReLU"
  bottom: "Convolution48"
  top: "Convolution48"
}
layer {
  name: "Convolution49"
  type: "Convolution"
  bottom: "Convolution48"
  top: "Convolution49"
  convolution_param {
    num_output: 16
    bias_term: true
    pad: 1
    kernel_size: 3
    stride: 1
    weight_filler {
      type: "msra"
    }
    bias_filler {
      type: "constant"
    }
  }
}
layer {
  name: "BatchNorm49"
  type: "BatchNorm"
  bottom: "Convolution49"
  top: "Convolution49"
  param {
    lr_mult: 0
    decay_mult: 0
  }
  param {
    lr_mult: 0
    decay_mult: 0
  }
  param {
    lr_mult: 0
    decay_mult: 0
  }
}
layer {
  name: "Scale49"
  type: "Scale"
  bottom: "Convolution49"
  top: "Convolution49"
  scale_param {
    bias_term: true
  }
}
layer {
  name: "Eltwise24"
  type: "Eltwise"
  bottom: "Eltwise23"
  bottom: "Convolution49"
  top: "Eltwise24"
  eltwise_param {
    operation: SUM
  }
}
layer {
  name: "ReLU49"
  type: "ReLU"
  bottom: "Eltwise24"
  top: "Eltwise24"
}
layer {
  name: "Convolution50"
  type: "Convolution"
  bottom: "Eltwise24"
  top: "Convolution50"
  convolution_param {
    num_output: 16
    bias_term: true
    pad: 1
    kernel_size: 3
    stride: 1
    weight_filler {
      type: "msra"
    }
    bias_filler {
      type: "constant"
    }
  }
}
layer {
  name: "BatchNorm50"
  type: "BatchNorm"
  bottom: "Convolution50"
  top: "Convolution50"
  param {
    lr_mult: 0
    decay_mult: 0
  }
  param {
    lr_mult: 0
    decay_mult: 0
  }
  param {
    lr_mult: 0
    decay_mult: 0
  }
}
layer {
  name: "Scale50"
  type: "Scale"
  bottom: "Convolution50"
  top: "Convolution50"
  scale_param {
    bias_term: true
  }
}
layer {
  name: "ReLU50"
  type: "ReLU"
  bottom: "Convolution50"
  top: "Convolution50"
}
layer {
  name: "Convolution51"
  type: "Convolution"
  bottom: "Convolution50"
  top: "Convolution51"
  convolution_param {
    num_output: 16
    bias_term: true
    pad: 1
    kernel_size: 3
    stride: 1
    weight_filler {
      type: "msra"
    }
    bias_filler {
      type: "constant"
    }
  }
}
layer {
  name: "BatchNorm51"
  type: "BatchNorm"
  bottom: "Convolution51"
  top: "Convolution51"
  param {
    lr_mult: 0
    decay_mult: 0
  }
  param {
    lr_mult: 0
    decay_mult: 0
  }
  param {
    lr_mult: 0
    decay_mult: 0
  }
}
layer {
  name: "Scale51"
  type: "Scale"
  bottom: "Convolution51"
  top: "Convolution51"
  scale_param {
    bias_term: true
  }
}
layer {
  name: "Eltwise25"
  type: "Eltwise"
  bottom: "Eltwise24"
  bottom: "Convolution51"
  top: "Eltwise25"
  eltwise_param {
    operation: SUM
  }
}
layer {
  name: "ReLU51"
  type: "ReLU"
  bottom: "Eltwise25"
  top: "Eltwise25"
}
layer {
  name: "Convolution52"
  type: "Convolution"
  bottom: "Eltwise25"
  top: "Convolution52"
  convolution_param {
    num_output: 16
    bias_term: true
    pad: 1
    kernel_size: 3
    stride: 1
    weight_filler {
      type: "msra"
    }
    bias_filler {
      type: "constant"
    }
  }
}
layer {
  name: "BatchNorm52"
  type: "BatchNorm"
  bottom: "Convolution52"
  top: "Convolution52"
  param {
    lr_mult: 0
    decay_mult: 0
  }
  param {
    lr_mult: 0
    decay_mult: 0
  }
  param {
    lr_mult: 0
    decay_mult: 0
  }
}
layer {
  name: "Scale52"
  type: "Scale"
  bottom: "Convolution52"
  top: "Convolution52"
  scale_param {
    bias_term: true
  }
}
layer {
  name: "ReLU52"
  type: "ReLU"
  bottom: "Convolution52"
  top: "Convolution52"
}
layer {
  name: "Convolution53"
  type: "Convolution"
  bottom: "Convolution52"
  top: "Convolution53"
  convolution_param {
    num_output: 16
    bias_term: true
    pad: 1
    kernel_size: 3
    stride: 1
    weight_filler {
      type: "msra"
    }
    bias_filler {
      type: "constant"
    }
  }
}
layer {
  name: "BatchNorm53"
  type: "BatchNorm"
  bottom: "Convolution53"
  top: "Convolution53"
  param {
    lr_mult: 0
    decay_mult: 0
  }
  param {
    lr_mult: 0
    decay_mult: 0
  }
  param {
    lr_mult: 0
    decay_mult: 0
  }
}
layer {
  name: "Scale53"
  type: "Scale"
  bottom: "Convolution53"
  top: "Convolution53"
  scale_param {
    bias_term: true
  }
}
layer {
  name: "Eltwise26"
  type: "Eltwise"
  bottom: "Eltwise25"
  bottom: "Convolution53"
  top: "Eltwise26"
  eltwise_param {
    operation: SUM
  }
}
layer {
  name: "ReLU53"
  type: "ReLU"
  bottom: "Eltwise26"
  top: "Eltwise26"
}
layer {
  name: "Convolution54"
  type: "Convolution"
  bottom: "Eltwise26"
  top: "Convolution54"
  convolution_param {
    num_output: 16
    bias_term: true
    pad: 1
    kernel_size: 3
    stride: 1
    weight_filler {
      type: "msra"
    }
    bias_filler {
      type: "constant"
    }
  }
}
layer {
  name: "BatchNorm54"
  type: "BatchNorm"
  bottom: "Convolution54"
  top: "Convolution54"
  param {
    lr_mult: 0
    decay_mult: 0
  }
  param {
    lr_mult: 0
    decay_mult: 0
  }
  param {
    lr_mult: 0
    decay_mult: 0
  }
}
layer {
  name: "Scale54"
  type: "Scale"
  bottom: "Convolution54"
  top: "Convolution54"
  scale_param {
    bias_term: true
  }
}
layer {
  name: "ReLU54"
  type: "ReLU"
  bottom: "Convolution54"
  top: "Convolution54"
}
layer {
  name: "Convolution55"
  type: "Convolution"
  bottom: "Convolution54"
  top: "Convolution55"
  convolution_param {
    num_output: 16
    bias_term: true
    pad: 1
    kernel_size: 3
    stride: 1
    weight_filler {
      type: "msra"
    }
    bias_filler {
      type: "constant"
    }
  }
}
layer {
  name: "BatchNorm55"
  type: "BatchNorm"
  bottom: "Convolution55"
  top: "Convolution55"
  param {
    lr_mult: 0
    decay_mult: 0
  }
  param {
    lr_mult: 0
    decay_mult: 0
  }
  param {
    lr_mult: 0
    decay_mult: 0
  }
}
layer {
  name: "Scale55"
  type: "Scale"
  bottom: "Convolution55"
  top: "Convolution55"
  scale_param {
    bias_term: true
  }
}
layer {
  name: "Eltwise27"
  type: "Eltwise"
  bottom: "Eltwise26"
  bottom: "Convolution55"
  top: "Eltwise27"
  eltwise_param {
    operation: SUM
  }
}
layer {
  name: "ReLU55"
  type: "ReLU"
  bottom: "Eltwise27"
  top: "Eltwise27"
}
layer {
  name: "Convolution56"
  type: "Convolution"
  bottom: "Eltwise27"
  top: "Convolution56"
  convolution_param {
    num_output: 16
    bias_term: true
    pad: 1
    kernel_size: 3
    stride: 1
    weight_filler {
      type: "msra"
    }
    bias_filler {
      type: "constant"
    }
  }
}
layer {
  name: "BatchNorm56"
  type: "BatchNorm"
  bottom: "Convolution56"
  top: "Convolution56"
  param {
    lr_mult: 0
    decay_mult: 0
  }
  param {
    lr_mult: 0
    decay_mult: 0
  }
  param {
    lr_mult: 0
    decay_mult: 0
  }
}
layer {
  name: "Scale56"
  type: "Scale"
  bottom: "Convolution56"
  top: "Convolution56"
  scale_param {
    bias_term: true
  }
}
layer {
  name: "ReLU56"
  type: "ReLU"
  bottom: "Convolution56"
  top: "Convolution56"
}
layer {
  name: "Convolution57"
  type: "Convolution"
  bottom: "Convolution56"
  top: "Convolution57"
  convolution_param {
    num_output: 16
    bias_term: true
    pad: 1
    kernel_size: 3
    stride: 1
    weight_filler {
      type: "msra"
    }
    bias_filler {
      type: "constant"
    }
  }
}
layer {
  name: "BatchNorm57"
  type: "BatchNorm"
  bottom: "Convolution57"
  top: "Convolution57"
  param {
    lr_mult: 0
    decay_mult: 0
  }
  param {
    lr_mult: 0
    decay_mult: 0
  }
  param {
    lr_mult: 0
    decay_mult: 0
  }
}
layer {
  name: "Scale57"
  type: "Scale"
  bottom: "Convolution57"
  top: "Convolution57"
  scale_param {
    bias_term: true
  }
}
layer {
  name: "Eltwise28"
  type: "Eltwise"
  bottom: "Eltwise27"
  bottom: "Convolution57"
  top: "Eltwise28"
  eltwise_param {
    operation: SUM
  }
}
layer {
  name: "ReLU57"
  type: "ReLU"
  bottom: "Eltwise28"
  top: "Eltwise28"
}
layer {
  name: "Convolution58"
  type: "Convolution"
  bottom: "Eltwise28"
  top: "Convolution58"
  convolution_param {
    num_output: 16
    bias_term: true
    pad: 1
    kernel_size: 3
    stride: 1
    weight_filler {
      type: "msra"
    }
    bias_filler {
      type: "constant"
    }
  }
}
layer {
  name: "BatchNorm58"
  type: "BatchNorm"
  bottom: "Convolution58"
  top: "Convolution58"
  param {
    lr_mult: 0
    decay_mult: 0
  }
  param {
    lr_mult: 0
    decay_mult: 0
  }
  param {
    lr_mult: 0
    decay_mult: 0
  }
}
layer {
  name: "Scale58"
  type: "Scale"
  bottom: "Convolution58"
  top: "Convolution58"
  scale_param {
    bias_term: true
  }
}
layer {
  name: "ReLU58"
  type: "ReLU"
  bottom: "Convolution58"
  top: "Convolution58"
}
layer {
  name: "Convolution59"
  type: "Convolution"
  bottom: "Convolution58"
  top: "Convolution59"
  convolution_param {
    num_output: 16
    bias_term: true
    pad: 1
    kernel_size: 3
    stride: 1
    weight_filler {
      type: "msra"
    }
    bias_filler {
      type: "constant"
    }
  }
}
layer {
  name: "BatchNorm59"
  type: "BatchNorm"
  bottom: "Convolution59"
  top: "Convolution59"
  param {
    lr_mult: 0
    decay_mult: 0
  }
  param {
    lr_mult: 0
    decay_mult: 0
  }
  param {
    lr_mult: 0
    decay_mult: 0
  }
}
layer {
  name: "Scale59"
  type: "Scale"
  bottom: "Convolution59"
  top: "Convolution59"
  scale_param {
    bias_term: true
  }
}
layer {
  name: "Eltwise29"
  type: "Eltwise"
  bottom: "Eltwise28"
  bottom: "Convolution59"
  top: "Eltwise29"
  eltwise_param {
    operation: SUM
  }
}
layer {
  name: "ReLU59"
  type: "ReLU"
  bottom: "Eltwise29"
  top: "Eltwise29"
}
layer {
  name: "Convolution60"
  type: "Convolution"
  bottom: "Eltwise29"
  top: "Convolution60"
  convolution_param {
    num_output: 16
    bias_term: true
    pad: 1
    kernel_size: 3
    stride: 1
    weight_filler {
      type: "msra"
    }
    bias_filler {
      type: "constant"
    }
  }
}
layer {
  name: "BatchNorm60"
  type: "BatchNorm"
  bottom: "Convolution60"
  top: "Convolution60"
  param {
    lr_mult: 0
    decay_mult: 0
  }
  param {
    lr_mult: 0
    decay_mult: 0
  }
  param {
    lr_mult: 0
    decay_mult: 0
  }
}
layer {
  name: "Scale60"
  type: "Scale"
  bottom: "Convolution60"
  top: "Convolution60"
  scale_param {
    bias_term: true
  }
}
layer {
  name: "ReLU60"
  type: "ReLU"
  bottom: "Convolution60"
  top: "Convolution60"
}
layer {
  name: "Convolution61"
  type: "Convolution"
  bottom: "Convolution60"
  top: "Convolution61"
  convolution_param {
    num_output: 16
    bias_term: true
    pad: 1
    kernel_size: 3
    stride: 1
    weight_filler {
      type: "msra"
    }
    bias_filler {
      type: "constant"
    }
  }
}
layer {
  name: "BatchNorm61"
  type: "BatchNorm"
  bottom: "Convolution61"
  top: "Convolution61"
  param {
    lr_mult: 0
    decay_mult: 0
  }
  param {
    lr_mult: 0
    decay_mult: 0
  }
  param {
    lr_mult: 0
    decay_mult: 0
  }
}
layer {
  name: "Scale61"
  type: "Scale"
  bottom: "Convolution61"
  top: "Convolution61"
  scale_param {
    bias_term: true
  }
}
layer {
  name: "Eltwise30"
  type: "Eltwise"
  bottom: "Eltwise29"
  bottom: "Convolution61"
  top: "Eltwise30"
  eltwise_param {
    operation: SUM
  }
}
layer {
  name: "ReLU61"
  type: "ReLU"
  bottom: "Eltwise30"
  top: "Eltwise30"
}
layer {
  name: "Convolution62"
  type: "Convolution"
  bottom: "Eltwise30"
  top: "Convolution62"
  convolution_param {
    num_output: 16
    bias_term: true
    pad: 1
    kernel_size: 3
    stride: 1
    weight_filler {
      type: "msra"
    }
    bias_filler {
      type: "constant"
    }
  }
}
layer {
  name: "BatchNorm62"
  type: "BatchNorm"
  bottom: "Convolution62"
  top: "Convolution62"
  param {
    lr_mult: 0
    decay_mult: 0
  }
  param {
    lr_mult: 0
    decay_mult: 0
  }
  param {
    lr_mult: 0
    decay_mult: 0
  }
}
layer {
  name: "Scale62"
  type: "Scale"
  bottom: "Convolution62"
  top: "Convolution62"
  scale_param {
    bias_term: true
  }
}
layer {
  name: "ReLU62"
  type: "ReLU"
  bottom: "Convolution62"
  top: "Convolution62"
}
layer {
  name: "Convolution63"
  type: "Convolution"
  bottom: "Convolution62"
  top: "Convolution63"
  convolution_param {
    num_output: 16
    bias_term: true
    pad: 1
    kernel_size: 3
    stride: 1
    weight_filler {
      type: "msra"
    }
    bias_filler {
      type: "constant"
    }
  }
}
layer {
  name: "BatchNorm63"
  type: "BatchNorm"
  bottom: "Convolution63"
  top: "Convolution63"
  param {
    lr_mult: 0
    decay_mult: 0
  }
  param {
    lr_mult: 0
    decay_mult: 0
  }
  param {
    lr_mult: 0
    decay_mult: 0
  }
}
layer {
  name: "Scale63"
  type: "Scale"
  bottom: "Convolution63"
  top: "Convolution63"
  scale_param {
    bias_term: true
  }
}
layer {
  name: "Eltwise31"
  type: "Eltwise"
  bottom: "Eltwise30"
  bottom: "Convolution63"
  top: "Eltwise31"
  eltwise_param {
    operation: SUM
  }
}
layer {
  name: "ReLU63"
  type: "ReLU"
  bottom: "Eltwise31"
  top: "Eltwise31"
}
layer {
  name: "Convolution64"
  type: "Convolution"
  bottom: "Eltwise31"
  top: "Convolution64"
  convolution_param {
    num_output: 16
    bias_term: true
    pad: 1
    kernel_size: 3
    stride: 1
    weight_filler {
      type: "msra"
    }
    bias_filler {
      type: "constant"
    }
  }
}
layer {
  name: "BatchNorm64"
  type: "BatchNorm"
  bottom: "Convolution64"
  top: "Convolution64"
  param {
    lr_mult: 0
    decay_mult: 0
  }
  param {
    lr_mult: 0
    decay_mult: 0
  }
  param {
    lr_mult: 0
    decay_mult: 0
  }
}
layer {
  name: "Scale64"
  type: "Scale"
  bottom: "Convolution64"
  top: "Convolution64"
  scale_param {
    bias_term: true
  }
}
layer {
  name: "ReLU64"
  type: "ReLU"
  bottom: "Convolution64"
  top: "Convolution64"
}
layer {
  name: "Convolution65"
  type: "Convolution"
  bottom: "Convolution64"
  top: "Convolution65"
  convolution_param {
    num_output: 16
    bias_term: true
    pad: 1
    kernel_size: 3
    stride: 1
    weight_filler {
      type: "msra"
    }
    bias_filler {
      type: "constant"
    }
  }
}
layer {
  name: "BatchNorm65"
  type: "BatchNorm"
  bottom: "Convolution65"
  top: "Convolution65"
  param {
    lr_mult: 0
    decay_mult: 0
  }
  param {
    lr_mult: 0
    decay_mult: 0
  }
  param {
    lr_mult: 0
    decay_mult: 0
  }
}
layer {
  name: "Scale65"
  type: "Scale"
  bottom: "Convolution65"
  top: "Convolution65"
  scale_param {
    bias_term: true
  }
}
layer {
  name: "Eltwise32"
  type: "Eltwise"
  bottom: "Eltwise31"
  bottom: "Convolution65"
  top: "Eltwise32"
  eltwise_param {
    operation: SUM
  }
}
layer {
  name: "ReLU65"
  type: "ReLU"
  bottom: "Eltwise32"
  top: "Eltwise32"
}
layer {
  name: "Convolution66"
  type: "Convolution"
  bottom: "Eltwise32"
  top: "Convolution66"
  convolution_param {
    num_output: 16
    bias_term: true
    pad: 1
    kernel_size: 3
    stride: 1
    weight_filler {
      type: "msra"
    }
    bias_filler {
      type: "constant"
    }
  }
}
layer {
  name: "BatchNorm66"
  type: "BatchNorm"
  bottom: "Convolution66"
  top: "Convolution66"
  param {
    lr_mult: 0
    decay_mult: 0
  }
  param {
    lr_mult: 0
    decay_mult: 0
  }
  param {
    lr_mult: 0
    decay_mult: 0
  }
}
layer {
  name: "Scale66"
  type: "Scale"
  bottom: "Convolution66"
  top: "Convolution66"
  scale_param {
    bias_term: true
  }
}
layer {
  name: "ReLU66"
  type: "ReLU"
  bottom: "Convolution66"
  top: "Convolution66"
}
layer {
  name: "Convolution67"
  type: "Convolution"
  bottom: "Convolution66"
  top: "Convolution67"
  convolution_param {
    num_output: 16
    bias_term: true
    pad: 1
    kernel_size: 3
    stride: 1
    weight_filler {
      type: "msra"
    }
    bias_filler {
      type: "constant"
    }
  }
}
layer {
  name: "BatchNorm67"
  type: "BatchNorm"
  bottom: "Convolution67"
  top: "Convolution67"
  param {
    lr_mult: 0
    decay_mult: 0
  }
  param {
    lr_mult: 0
    decay_mult: 0
  }
  param {
    lr_mult: 0
    decay_mult: 0
  }
}
layer {
  name: "Scale67"
  type: "Scale"
  bottom: "Convolution67"
  top: "Convolution67"
  scale_param {
    bias_term: true
  }
}
layer {
  name: "Eltwise33"
  type: "Eltwise"
  bottom: "Eltwise32"
  bottom: "Convolution67"
  top: "Eltwise33"
  eltwise_param {
    operation: SUM
  }
}
layer {
  name: "ReLU67"
  type: "ReLU"
  bottom: "Eltwise33"
  top: "Eltwise33"
}
layer {
  name: "Convolution68"
  type: "Convolution"
  bottom: "Eltwise33"
  top: "Convolution68"
  convolution_param {
    num_output: 16
    bias_term: true
    pad: 1
    kernel_size: 3
    stride: 1
    weight_filler {
      type: "msra"
    }
    bias_filler {
      type: "constant"
    }
  }
}
layer {
  name: "BatchNorm68"
  type: "BatchNorm"
  bottom: "Convolution68"
  top: "Convolution68"
  param {
    lr_mult: 0
    decay_mult: 0
  }
  param {
    lr_mult: 0
    decay_mult: 0
  }
  param {
    lr_mult: 0
    decay_mult: 0
  }
}
layer {
  name: "Scale68"
  type: "Scale"
  bottom: "Convolution68"
  top: "Convolution68"
  scale_param {
    bias_term: true
  }
}
layer {
  name: "ReLU68"
  type: "ReLU"
  bottom: "Convolution68"
  top: "Convolution68"
}
layer {
  name: "Convolution69"
  type: "Convolution"
  bottom: "Convolution68"
  top: "Convolution69"
  convolution_param {
    num_output: 16
    bias_term: true
    pad: 1
    kernel_size: 3
    stride: 1
    weight_filler {
      type: "msra"
    }
    bias_filler {
      type: "constant"
    }
  }
}
layer {
  name: "BatchNorm69"
  type: "BatchNorm"
  bottom: "Convolution69"
  top: "Convolution69"
  param {
    lr_mult: 0
    decay_mult: 0
  }
  param {
    lr_mult: 0
    decay_mult: 0
  }
  param {
    lr_mult: 0
    decay_mult: 0
  }
}
layer {
  name: "Scale69"
  type: "Scale"
  bottom: "Convolution69"
  top: "Convolution69"
  scale_param {
    bias_term: true
  }
}
layer {
  name: "Eltwise34"
  type: "Eltwise"
  bottom: "Eltwise33"
  bottom: "Convolution69"
  top: "Eltwise34"
  eltwise_param {
    operation: SUM
  }
}
layer {
  name: "ReLU69"
  type: "ReLU"
  bottom: "Eltwise34"
  top: "Eltwise34"
}
layer {
  name: "Convolution70"
  type: "Convolution"
  bottom: "Eltwise34"
  top: "Convolution70"
  convolution_param {
    num_output: 16
    bias_term: true
    pad: 1
    kernel_size: 3
    stride: 1
    weight_filler {
      type: "msra"
    }
    bias_filler {
      type: "constant"
    }
  }
}
layer {
  name: "BatchNorm70"
  type: "BatchNorm"
  bottom: "Convolution70"
  top: "Convolution70"
  param {
    lr_mult: 0
    decay_mult: 0
  }
  param {
    lr_mult: 0
    decay_mult: 0
  }
  param {
    lr_mult: 0
    decay_mult: 0
  }
}
layer {
  name: "Scale70"
  type: "Scale"
  bottom: "Convolution70"
  top: "Convolution70"
  scale_param {
    bias_term: true
  }
}
layer {
  name: "ReLU70"
  type: "ReLU"
  bottom: "Convolution70"
  top: "Convolution70"
}
layer {
  name: "Convolution71"
  type: "Convolution"
  bottom: "Convolution70"
  top: "Convolution71"
  convolution_param {
    num_output: 16
    bias_term: true
    pad: 1
    kernel_size: 3
    stride: 1
    weight_filler {
      type: "msra"
    }
    bias_filler {
      type: "constant"
    }
  }
}
layer {
  name: "BatchNorm71"
  type: "BatchNorm"
  bottom: "Convolution71"
  top: "Convolution71"
  param {
    lr_mult: 0
    decay_mult: 0
  }
  param {
    lr_mult: 0
    decay_mult: 0
  }
  param {
    lr_mult: 0
    decay_mult: 0
  }
}
layer {
  name: "Scale71"
  type: "Scale"
  bottom: "Convolution71"
  top: "Convolution71"
  scale_param {
    bias_term: true
  }
}
layer {
  name: "Eltwise35"
  type: "Eltwise"
  bottom: "Eltwise34"
  bottom: "Convolution71"
  top: "Eltwise35"
  eltwise_param {
    operation: SUM
  }
}
layer {
  name: "ReLU71"
  type: "ReLU"
  bottom: "Eltwise35"
  top: "Eltwise35"
}
layer {
  name: "Convolution72"
  type: "Convolution"
  bottom: "Eltwise35"
  top: "Convolution72"
  convolution_param {
    num_output: 16
    bias_term: true
    pad: 1
    kernel_size: 3
    stride: 1
    weight_filler {
      type: "msra"
    }
    bias_filler {
      type: "constant"
    }
  }
}
layer {
  name: "BatchNorm72"
  type: "BatchNorm"
  bottom: "Convolution72"
  top: "Convolution72"
  param {
    lr_mult: 0
    decay_mult: 0
  }
  param {
    lr_mult: 0
    decay_mult: 0
  }
  param {
    lr_mult: 0
    decay_mult: 0
  }
}
layer {
  name: "Scale72"
  type: "Scale"
  bottom: "Convolution72"
  top: "Convolution72"
  scale_param {
    bias_term: true
  }
}
layer {
  name: "ReLU72"
  type: "ReLU"
  bottom: "Convolution72"
  top: "Convolution72"
}
layer {
  name: "Convolution73"
  type: "Convolution"
  bottom: "Convolution72"
  top: "Convolution73"
  convolution_param {
    num_output: 16
    bias_term: true
    pad: 1
    kernel_size: 3
    stride: 1
    weight_filler {
      type: "msra"
    }
    bias_filler {
      type: "constant"
    }
  }
}
layer {
  name: "BatchNorm73"
  type: "BatchNorm"
  bottom: "Convolution73"
  top: "Convolution73"
  param {
    lr_mult: 0
    decay_mult: 0
  }
  param {
    lr_mult: 0
    decay_mult: 0
  }
  param {
    lr_mult: 0
    decay_mult: 0
  }
}
layer {
  name: "Scale73"
  type: "Scale"
  bottom: "Convolution73"
  top: "Convolution73"
  scale_param {
    bias_term: true
  }
}
layer {
  name: "Eltwise36"
  type: "Eltwise"
  bottom: "Eltwise35"
  bottom: "Convolution73"
  top: "Eltwise36"
  eltwise_param {
    operation: SUM
  }
}
layer {
  name: "ReLU73"
  type: "ReLU"
  bottom: "Eltwise36"
  top: "Eltwise36"
}
layer {
  name: "Convolution74"
  type: "Convolution"
  bottom: "Eltwise36"
  top: "Convolution74"
  convolution_param {
    num_output: 16
    bias_term: true
    pad: 1
    kernel_size: 3
    stride: 1
    weight_filler {
      type: "msra"
    }
    bias_filler {
      type: "constant"
    }
  }
}
layer {
  name: "BatchNorm74"
  type: "BatchNorm"
  bottom: "Convolution74"
  top: "Convolution74"
  param {
    lr_mult: 0
    decay_mult: 0
  }
  param {
    lr_mult: 0
    decay_mult: 0
  }
  param {
    lr_mult: 0
    decay_mult: 0
  }
}
layer {
  name: "Scale74"
  type: "Scale"
  bottom: "Convolution74"
  top: "Convolution74"
  scale_param {
    bias_term: true
  }
}
layer {
  name: "ReLU74"
  type: "ReLU"
  bottom: "Convolution74"
  top: "Convolution74"
}
layer {
  name: "Convolution75"
  type: "Convolution"
  bottom: "Convolution74"
  top: "Convolution75"
  convolution_param {
    num_output: 16
    bias_term: true
    pad: 1
    kernel_size: 3
    stride: 1
    weight_filler {
      type: "msra"
    }
    bias_filler {
      type: "constant"
    }
  }
}
layer {
  name: "BatchNorm75"
  type: "BatchNorm"
  bottom: "Convolution75"
  top: "Convolution75"
  param {
    lr_mult: 0
    decay_mult: 0
  }
  param {
    lr_mult: 0
    decay_mult: 0
  }
  param {
    lr_mult: 0
    decay_mult: 0
  }
}
layer {
  name: "Scale75"
  type: "Scale"
  bottom: "Convolution75"
  top: "Convolution75"
  scale_param {
    bias_term: true
  }
}
layer {
  name: "Eltwise37"
  type: "Eltwise"
  bottom: "Eltwise36"
  bottom: "Convolution75"
  top: "Eltwise37"
  eltwise_param {
    operation: SUM
  }
}
layer {
  name: "ReLU75"
  type: "ReLU"
  bottom: "Eltwise37"
  top: "Eltwise37"
}
layer {
  name: "Convolution76"
  type: "Convolution"
  bottom: "Eltwise37"
  top: "Convolution76"
  convolution_param {
    num_output: 16
    bias_term: true
    pad: 1
    kernel_size: 3
    stride: 1
    weight_filler {
      type: "msra"
    }
    bias_filler {
      type: "constant"
    }
  }
}
layer {
  name: "BatchNorm76"
  type: "BatchNorm"
  bottom: "Convolution76"
  top: "Convolution76"
  param {
    lr_mult: 0
    decay_mult: 0
  }
  param {
    lr_mult: 0
    decay_mult: 0
  }
  param {
    lr_mult: 0
    decay_mult: 0
  }
}
layer {
  name: "Scale76"
  type: "Scale"
  bottom: "Convolution76"
  top: "Convolution76"
  scale_param {
    bias_term: true
  }
}
layer {
  name: "ReLU76"
  type: "ReLU"
  bottom: "Convolution76"
  top: "Convolution76"
}
layer {
  name: "Convolution77"
  type: "Convolution"
  bottom: "Convolution76"
  top: "Convolution77"
  convolution_param {
    num_output: 16
    bias_term: true
    pad: 1
    kernel_size: 3
    stride: 1
    weight_filler {
      type: "msra"
    }
    bias_filler {
      type: "constant"
    }
  }
}
layer {
  name: "BatchNorm77"
  type: "BatchNorm"
  bottom: "Convolution77"
  top: "Convolution77"
  param {
    lr_mult: 0
    decay_mult: 0
  }
  param {
    lr_mult: 0
    decay_mult: 0
  }
  param {
    lr_mult: 0
    decay_mult: 0
  }
}
layer {
  name: "Scale77"
  type: "Scale"
  bottom: "Convolution77"
  top: "Convolution77"
  scale_param {
    bias_term: true
  }
}
layer {
  name: "Eltwise38"
  type: "Eltwise"
  bottom: "Eltwise37"
  bottom: "Convolution77"
  top: "Eltwise38"
  eltwise_param {
    operation: SUM
  }
}
layer {
  name: "ReLU77"
  type: "ReLU"
  bottom: "Eltwise38"
  top: "Eltwise38"
}
layer {
  name: "Convolution78"
  type: "Convolution"
  bottom: "Eltwise38"
  top: "Convolution78"
  convolution_param {
    num_output: 16
    bias_term: true
    pad: 1
    kernel_size: 3
    stride: 1
    weight_filler {
      type: "msra"
    }
    bias_filler {
      type: "constant"
    }
  }
}
layer {
  name: "BatchNorm78"
  type: "BatchNorm"
  bottom: "Convolution78"
  top: "Convolution78"
  param {
    lr_mult: 0
    decay_mult: 0
  }
  param {
    lr_mult: 0
    decay_mult: 0
  }
  param {
    lr_mult: 0
    decay_mult: 0
  }
}
layer {
  name: "Scale78"
  type: "Scale"
  bottom: "Convolution78"
  top: "Convolution78"
  scale_param {
    bias_term: true
  }
}
layer {
  name: "ReLU78"
  type: "ReLU"
  bottom: "Convolution78"
  top: "Convolution78"
}
layer {
  name: "Convolution79"
  type: "Convolution"
  bottom: "Convolution78"
  top: "Convolution79"
  convolution_param {
    num_output: 16
    bias_term: true
    pad: 1
    kernel_size: 3
    stride: 1
    weight_filler {
      type: "msra"
    }
    bias_filler {
      type: "constant"
    }
  }
}
layer {
  name: "BatchNorm79"
  type: "BatchNorm"
  bottom: "Convolution79"
  top: "Convolution79"
  param {
    lr_mult: 0
    decay_mult: 0
  }
  param {
    lr_mult: 0
    decay_mult: 0
  }
  param {
    lr_mult: 0
    decay_mult: 0
  }
}
layer {
  name: "Scale79"
  type: "Scale"
  bottom: "Convolution79"
  top: "Convolution79"
  scale_param {
    bias_term: true
  }
}
layer {
  name: "Eltwise39"
  type: "Eltwise"
  bottom: "Eltwise38"
  bottom: "Convolution79"
  top: "Eltwise39"
  eltwise_param {
    operation: SUM
  }
}
layer {
  name: "ReLU79"
  type: "ReLU"
  bottom: "Eltwise39"
  top: "Eltwise39"
}
layer {
  name: "Convolution80"
  type: "Convolution"
  bottom: "Eltwise39"
  top: "Convolution80"
  convolution_param {
    num_output: 16
    bias_term: true
    pad: 1
    kernel_size: 3
    stride: 1
    weight_filler {
      type: "msra"
    }
    bias_filler {
      type: "constant"
    }
  }
}
layer {
  name: "BatchNorm80"
  type: "BatchNorm"
  bottom: "Convolution80"
  top: "Convolution80"
  param {
    lr_mult: 0
    decay_mult: 0
  }
  param {
    lr_mult: 0
    decay_mult: 0
  }
  param {
    lr_mult: 0
    decay_mult: 0
  }
}
layer {
  name: "Scale80"
  type: "Scale"
  bottom: "Convolution80"
  top: "Convolution80"
  scale_param {
    bias_term: true
  }
}
layer {
  name: "ReLU80"
  type: "ReLU"
  bottom: "Convolution80"
  top: "Convolution80"
}
layer {
  name: "Convolution81"
  type: "Convolution"
  bottom: "Convolution80"
  top: "Convolution81"
  convolution_param {
    num_output: 16
    bias_term: true
    pad: 1
    kernel_size: 3
    stride: 1
    weight_filler {
      type: "msra"
    }
    bias_filler {
      type: "constant"
    }
  }
}
layer {
  name: "BatchNorm81"
  type: "BatchNorm"
  bottom: "Convolution81"
  top: "Convolution81"
  param {
    lr_mult: 0
    decay_mult: 0
  }
  param {
    lr_mult: 0
    decay_mult: 0
  }
  param {
    lr_mult: 0
    decay_mult: 0
  }
}
layer {
  name: "Scale81"
  type: "Scale"
  bottom: "Convolution81"
  top: "Convolution81"
  scale_param {
    bias_term: true
  }
}
layer {
  name: "Eltwise40"
  type: "Eltwise"
  bottom: "Eltwise39"
  bottom: "Convolution81"
  top: "Eltwise40"
  eltwise_param {
    operation: SUM
  }
}
layer {
  name: "ReLU81"
  type: "ReLU"
  bottom: "Eltwise40"
  top: "Eltwise40"
}
layer {
  name: "Convolution82"
  type: "Convolution"
  bottom: "Eltwise40"
  top: "Convolution82"
  convolution_param {
    num_output: 16
    bias_term: true
    pad: 1
    kernel_size: 3
    stride: 1
    weight_filler {
      type: "msra"
    }
    bias_filler {
      type: "constant"
    }
  }
}
layer {
  name: "BatchNorm82"
  type: "BatchNorm"
  bottom: "Convolution82"
  top: "Convolution82"
  param {
    lr_mult: 0
    decay_mult: 0
  }
  param {
    lr_mult: 0
    decay_mult: 0
  }
  param {
    lr_mult: 0
    decay_mult: 0
  }
}
layer {
  name: "Scale82"
  type: "Scale"
  bottom: "Convolution82"
  top: "Convolution82"
  scale_param {
    bias_term: true
  }
}
layer {
  name: "ReLU82"
  type: "ReLU"
  bottom: "Convolution82"
  top: "Convolution82"
}
layer {
  name: "Convolution83"
  type: "Convolution"
  bottom: "Convolution82"
  top: "Convolution83"
  convolution_param {
    num_output: 16
    bias_term: true
    pad: 1
    kernel_size: 3
    stride: 1
    weight_filler {
      type: "msra"
    }
    bias_filler {
      type: "constant"
    }
  }
}
layer {
  name: "BatchNorm83"
  type: "BatchNorm"
  bottom: "Convolution83"
  top: "Convolution83"
  param {
    lr_mult: 0
    decay_mult: 0
  }
  param {
    lr_mult: 0
    decay_mult: 0
  }
  param {
    lr_mult: 0
    decay_mult: 0
  }
}
layer {
  name: "Scale83"
  type: "Scale"
  bottom: "Convolution83"
  top: "Convolution83"
  scale_param {
    bias_term: true
  }
}
layer {
  name: "Eltwise41"
  type: "Eltwise"
  bottom: "Eltwise40"
  bottom: "Convolution83"
  top: "Eltwise41"
  eltwise_param {
    operation: SUM
  }
}
layer {
  name: "ReLU83"
  type: "ReLU"
  bottom: "Eltwise41"
  top: "Eltwise41"
}
layer {
  name: "Convolution84"
  type: "Convolution"
  bottom: "Eltwise41"
  top: "Convolution84"
  convolution_param {
    num_output: 16
    bias_term: true
    pad: 1
    kernel_size: 3
    stride: 1
    weight_filler {
      type: "msra"
    }
    bias_filler {
      type: "constant"
    }
  }
}
layer {
  name: "BatchNorm84"
  type: "BatchNorm"
  bottom: "Convolution84"
  top: "Convolution84"
  param {
    lr_mult: 0
    decay_mult: 0
  }
  param {
    lr_mult: 0
    decay_mult: 0
  }
  param {
    lr_mult: 0
    decay_mult: 0
  }
}
layer {
  name: "Scale84"
  type: "Scale"
  bottom: "Convolution84"
  top: "Convolution84"
  scale_param {
    bias_term: true
  }
}
layer {
  name: "ReLU84"
  type: "ReLU"
  bottom: "Convolution84"
  top: "Convolution84"
}
layer {
  name: "Convolution85"
  type: "Convolution"
  bottom: "Convolution84"
  top: "Convolution85"
  convolution_param {
    num_output: 16
    bias_term: true
    pad: 1
    kernel_size: 3
    stride: 1
    weight_filler {
      type: "msra"
    }
    bias_filler {
      type: "constant"
    }
  }
}
layer {
  name: "BatchNorm85"
  type: "BatchNorm"
  bottom: "Convolution85"
  top: "Convolution85"
  param {
    lr_mult: 0
    decay_mult: 0
  }
  param {
    lr_mult: 0
    decay_mult: 0
  }
  param {
    lr_mult: 0
    decay_mult: 0
  }
}
layer {
  name: "Scale85"
  type: "Scale"
  bottom: "Convolution85"
  top: "Convolution85"
  scale_param {
    bias_term: true
  }
}
layer {
  name: "Eltwise42"
  type: "Eltwise"
  bottom: "Eltwise41"
  bottom: "Convolution85"
  top: "Eltwise42"
  eltwise_param {
    operation: SUM
  }
}
layer {
  name: "ReLU85"
  type: "ReLU"
  bottom: "Eltwise42"
  top: "Eltwise42"
}
layer {
  name: "Convolution86"
  type: "Convolution"
  bottom: "Eltwise42"
  top: "Convolution86"
  convolution_param {
    num_output: 16
    bias_term: true
    pad: 1
    kernel_size: 3
    stride: 1
    weight_filler {
      type: "msra"
    }
    bias_filler {
      type: "constant"
    }
  }
}
layer {
  name: "BatchNorm86"
  type: "BatchNorm"
  bottom: "Convolution86"
  top: "Convolution86"
  param {
    lr_mult: 0
    decay_mult: 0
  }
  param {
    lr_mult: 0
    decay_mult: 0
  }
  param {
    lr_mult: 0
    decay_mult: 0
  }
}
layer {
  name: "Scale86"
  type: "Scale"
  bottom: "Convolution86"
  top: "Convolution86"
  scale_param {
    bias_term: true
  }
}
layer {
  name: "ReLU86"
  type: "ReLU"
  bottom: "Convolution86"
  top: "Convolution86"
}
layer {
  name: "Convolution87"
  type: "Convolution"
  bottom: "Convolution86"
  top: "Convolution87"
  convolution_param {
    num_output: 16
    bias_term: true
    pad: 1
    kernel_size: 3
    stride: 1
    weight_filler {
      type: "msra"
    }
    bias_filler {
      type: "constant"
    }
  }
}
layer {
  name: "BatchNorm87"
  type: "BatchNorm"
  bottom: "Convolution87"
  top: "Convolution87"
  param {
    lr_mult: 0
    decay_mult: 0
  }
  param {
    lr_mult: 0
    decay_mult: 0
  }
  param {
    lr_mult: 0
    decay_mult: 0
  }
}
layer {
  name: "Scale87"
  type: "Scale"
  bottom: "Convolution87"
  top: "Convolution87"
  scale_param {
    bias_term: true
  }
}
layer {
  name: "Eltwise43"
  type: "Eltwise"
  bottom: "Eltwise42"
  bottom: "Convolution87"
  top: "Eltwise43"
  eltwise_param {
    operation: SUM
  }
}
layer {
  name: "ReLU87"
  type: "ReLU"
  bottom: "Eltwise43"
  top: "Eltwise43"
}
layer {
  name: "Convolution88"
  type: "Convolution"
  bottom: "Eltwise43"
  top: "Convolution88"
  convolution_param {
    num_output: 16
    bias_term: true
    pad: 1
    kernel_size: 3
    stride: 1
    weight_filler {
      type: "msra"
    }
    bias_filler {
      type: "constant"
    }
  }
}
layer {
  name: "BatchNorm88"
  type: "BatchNorm"
  bottom: "Convolution88"
  top: "Convolution88"
  param {
    lr_mult: 0
    decay_mult: 0
  }
  param {
    lr_mult: 0
    decay_mult: 0
  }
  param {
    lr_mult: 0
    decay_mult: 0
  }
}
layer {
  name: "Scale88"
  type: "Scale"
  bottom: "Convolution88"
  top: "Convolution88"
  scale_param {
    bias_term: true
  }
}
layer {
  name: "ReLU88"
  type: "ReLU"
  bottom: "Convolution88"
  top: "Convolution88"
}
layer {
  name: "Convolution89"
  type: "Convolution"
  bottom: "Convolution88"
  top: "Convolution89"
  convolution_param {
    num_output: 16
    bias_term: true
    pad: 1
    kernel_size: 3
    stride: 1
    weight_filler {
      type: "msra"
    }
    bias_filler {
      type: "constant"
    }
  }
}
layer {
  name: "BatchNorm89"
  type: "BatchNorm"
  bottom: "Convolution89"
  top: "Convolution89"
  param {
    lr_mult: 0
    decay_mult: 0
  }
  param {
    lr_mult: 0
    decay_mult: 0
  }
  param {
    lr_mult: 0
    decay_mult: 0
  }
}
layer {
  name: "Scale89"
  type: "Scale"
  bottom: "Convolution89"
  top: "Convolution89"
  scale_param {
    bias_term: true
  }
}
layer {
  name: "Eltwise44"
  type: "Eltwise"
  bottom: "Eltwise43"
  bottom: "Convolution89"
  top: "Eltwise44"
  eltwise_param {
    operation: SUM
  }
}
layer {
  name: "ReLU89"
  type: "ReLU"
  bottom: "Eltwise44"
  top: "Eltwise44"
}
layer {
  name: "Convolution90"
  type: "Convolution"
  bottom: "Eltwise44"
  top: "Convolution90"
  convolution_param {
    num_output: 16
    bias_term: true
    pad: 1
    kernel_size: 3
    stride: 1
    weight_filler {
      type: "msra"
    }
    bias_filler {
      type: "constant"
    }
  }
}
layer {
  name: "BatchNorm90"
  type: "BatchNorm"
  bottom: "Convolution90"
  top: "Convolution90"
  param {
    lr_mult: 0
    decay_mult: 0
  }
  param {
    lr_mult: 0
    decay_mult: 0
  }
  param {
    lr_mult: 0
    decay_mult: 0
  }
}
layer {
  name: "Scale90"
  type: "Scale"
  bottom: "Convolution90"
  top: "Convolution90"
  scale_param {
    bias_term: true
  }
}
layer {
  name: "ReLU90"
  type: "ReLU"
  bottom: "Convolution90"
  top: "Convolution90"
}
layer {
  name: "Convolution91"
  type: "Convolution"
  bottom: "Convolution90"
  top: "Convolution91"
  convolution_param {
    num_output: 16
    bias_term: true
    pad: 1
    kernel_size: 3
    stride: 1
    weight_filler {
      type: "msra"
    }
    bias_filler {
      type: "constant"
    }
  }
}
layer {
  name: "BatchNorm91"
  type: "BatchNorm"
  bottom: "Convolution91"
  top: "Convolution91"
  param {
    lr_mult: 0
    decay_mult: 0
  }
  param {
    lr_mult: 0
    decay_mult: 0
  }
  param {
    lr_mult: 0
    decay_mult: 0
  }
}
layer {
  name: "Scale91"
  type: "Scale"
  bottom: "Convolution91"
  top: "Convolution91"
  scale_param {
    bias_term: true
  }
}
layer {
  name: "Eltwise45"
  type: "Eltwise"
  bottom: "Eltwise44"
  bottom: "Convolution91"
  top: "Eltwise45"
  eltwise_param {
    operation: SUM
  }
}
layer {
  name: "ReLU91"
  type: "ReLU"
  bottom: "Eltwise45"
  top: "Eltwise45"
}
layer {
  name: "Convolution92"
  type: "Convolution"
  bottom: "Eltwise45"
  top: "Convolution92"
  convolution_param {
    num_output: 16
    bias_term: true
    pad: 1
    kernel_size: 3
    stride: 1
    weight_filler {
      type: "msra"
    }
    bias_filler {
      type: "constant"
    }
  }
}
layer {
  name: "BatchNorm92"
  type: "BatchNorm"
  bottom: "Convolution92"
  top: "Convolution92"
  param {
    lr_mult: 0
    decay_mult: 0
  }
  param {
    lr_mult: 0
    decay_mult: 0
  }
  param {
    lr_mult: 0
    decay_mult: 0
  }
}
layer {
  name: "Scale92"
  type: "Scale"
  bottom: "Convolution92"
  top: "Convolution92"
  scale_param {
    bias_term: true
  }
}
layer {
  name: "ReLU92"
  type: "ReLU"
  bottom: "Convolution92"
  top: "Convolution92"
}
layer {
  name: "Convolution93"
  type: "Convolution"
  bottom: "Convolution92"
  top: "Convolution93"
  convolution_param {
    num_output: 16
    bias_term: true
    pad: 1
    kernel_size: 3
    stride: 1
    weight_filler {
      type: "msra"
    }
    bias_filler {
      type: "constant"
    }
  }
}
layer {
  name: "BatchNorm93"
  type: "BatchNorm"
  bottom: "Convolution93"
  top: "Convolution93"
  param {
    lr_mult: 0
    decay_mult: 0
  }
  param {
    lr_mult: 0
    decay_mult: 0
  }
  param {
    lr_mult: 0
    decay_mult: 0
  }
}
layer {
  name: "Scale93"
  type: "Scale"
  bottom: "Convolution93"
  top: "Convolution93"
  scale_param {
    bias_term: true
  }
}
layer {
  name: "Eltwise46"
  type: "Eltwise"
  bottom: "Eltwise45"
  bottom: "Convolution93"
  top: "Eltwise46"
  eltwise_param {
    operation: SUM
  }
}
layer {
  name: "ReLU93"
  type: "ReLU"
  bottom: "Eltwise46"
  top: "Eltwise46"
}
layer {
  name: "Convolution94"
  type: "Convolution"
  bottom: "Eltwise46"
  top: "Convolution94"
  convolution_param {
    num_output: 16
    bias_term: true
    pad: 1
    kernel_size: 3
    stride: 1
    weight_filler {
      type: "msra"
    }
    bias_filler {
      type: "constant"
    }
  }
}
layer {
  name: "BatchNorm94"
  type: "BatchNorm"
  bottom: "Convolution94"
  top: "Convolution94"
  param {
    lr_mult: 0
    decay_mult: 0
  }
  param {
    lr_mult: 0
    decay_mult: 0
  }
  param {
    lr_mult: 0
    decay_mult: 0
  }
}
layer {
  name: "Scale94"
  type: "Scale"
  bottom: "Convolution94"
  top: "Convolution94"
  scale_param {
    bias_term: true
  }
}
layer {
  name: "ReLU94"
  type: "ReLU"
  bottom: "Convolution94"
  top: "Convolution94"
}
layer {
  name: "Convolution95"
  type: "Convolution"
  bottom: "Convolution94"
  top: "Convolution95"
  convolution_param {
    num_output: 16
    bias_term: true
    pad: 1
    kernel_size: 3
    stride: 1
    weight_filler {
      type: "msra"
    }
    bias_filler {
      type: "constant"
    }
  }
}
layer {
  name: "BatchNorm95"
  type: "BatchNorm"
  bottom: "Convolution95"
  top: "Convolution95"
  param {
    lr_mult: 0
    decay_mult: 0
  }
  param {
    lr_mult: 0
    decay_mult: 0
  }
  param {
    lr_mult: 0
    decay_mult: 0
  }
}
layer {
  name: "Scale95"
  type: "Scale"
  bottom: "Convolution95"
  top: "Convolution95"
  scale_param {
    bias_term: true
  }
}
layer {
  name: "Eltwise47"
  type: "Eltwise"
  bottom: "Eltwise46"
  bottom: "Convolution95"
  top: "Eltwise47"
  eltwise_param {
    operation: SUM
  }
}
layer {
  name: "ReLU95"
  type: "ReLU"
  bottom: "Eltwise47"
  top: "Eltwise47"
}
layer {
  name: "Convolution96"
  type: "Convolution"
  bottom: "Eltwise47"
  top: "Convolution96"
  convolution_param {
    num_output: 16
    bias_term: true
    pad: 1
    kernel_size: 3
    stride: 1
    weight_filler {
      type: "msra"
    }
    bias_filler {
      type: "constant"
    }
  }
}
layer {
  name: "BatchNorm96"
  type: "BatchNorm"
  bottom: "Convolution96"
  top: "Convolution96"
  param {
    lr_mult: 0
    decay_mult: 0
  }
  param {
    lr_mult: 0
    decay_mult: 0
  }
  param {
    lr_mult: 0
    decay_mult: 0
  }
}
layer {
  name: "Scale96"
  type: "Scale"
  bottom: "Convolution96"
  top: "Convolution96"
  scale_param {
    bias_term: true
  }
}
layer {
  name: "ReLU96"
  type: "ReLU"
  bottom: "Convolution96"
  top: "Convolution96"
}
layer {
  name: "Convolution97"
  type: "Convolution"
  bottom: "Convolution96"
  top: "Convolution97"
  convolution_param {
    num_output: 16
    bias_term: true
    pad: 1
    kernel_size: 3
    stride: 1
    weight_filler {
      type: "msra"
    }
    bias_filler {
      type: "constant"
    }
  }
}
layer {
  name: "BatchNorm97"
  type: "BatchNorm"
  bottom: "Convolution97"
  top: "Convolution97"
  param {
    lr_mult: 0
    decay_mult: 0
  }
  param {
    lr_mult: 0
    decay_mult: 0
  }
  param {
    lr_mult: 0
    decay_mult: 0
  }
}
layer {
  name: "Scale97"
  type: "Scale"
  bottom: "Convolution97"
  top: "Convolution97"
  scale_param {
    bias_term: true
  }
}
layer {
  name: "Eltwise48"
  type: "Eltwise"
  bottom: "Eltwise47"
  bottom: "Convolution97"
  top: "Eltwise48"
  eltwise_param {
    operation: SUM
  }
}
layer {
  name: "ReLU97"
  type: "ReLU"
  bottom: "Eltwise48"
  top: "Eltwise48"
}
layer {
  name: "Convolution98"
  type: "Convolution"
  bottom: "Eltwise48"
  top: "Convolution98"
  convolution_param {
    num_output: 16
    bias_term: true
    pad: 1
    kernel_size: 3
    stride: 1
    weight_filler {
      type: "msra"
    }
    bias_filler {
      type: "constant"
    }
  }
}
layer {
  name: "BatchNorm98"
  type: "BatchNorm"
  bottom: "Convolution98"
  top: "Convolution98"
  param {
    lr_mult: 0
    decay_mult: 0
  }
  param {
    lr_mult: 0
    decay_mult: 0
  }
  param {
    lr_mult: 0
    decay_mult: 0
  }
}
layer {
  name: "Scale98"
  type: "Scale"
  bottom: "Convolution98"
  top: "Convolution98"
  scale_param {
    bias_term: true
  }
}
layer {
  name: "ReLU98"
  type: "ReLU"
  bottom: "Convolution98"
  top: "Convolution98"
}
layer {
  name: "Convolution99"
  type: "Convolution"
  bottom: "Convolution98"
  top: "Convolution99"
  convolution_param {
    num_output: 16
    bias_term: true
    pad: 1
    kernel_size: 3
    stride: 1
    weight_filler {
      type: "msra"
    }
    bias_filler {
      type: "constant"
    }
  }
}
layer {
  name: "BatchNorm99"
  type: "BatchNorm"
  bottom: "Convolution99"
  top: "Convolution99"
  param {
    lr_mult: 0
    decay_mult: 0
  }
  param {
    lr_mult: 0
    decay_mult: 0
  }
  param {
    lr_mult: 0
    decay_mult: 0
  }
}
layer {
  name: "Scale99"
  type: "Scale"
  bottom: "Convolution99"
  top: "Convolution99"
  scale_param {
    bias_term: true
  }
}
layer {
  name: "Eltwise49"
  type: "Eltwise"
  bottom: "Eltwise48"
  bottom: "Convolution99"
  top: "Eltwise49"
  eltwise_param {
    operation: SUM
  }
}
layer {
  name: "ReLU99"
  type: "ReLU"
  bottom: "Eltwise49"
  top: "Eltwise49"
}
layer {
  name: "Convolution100"
  type: "Convolution"
  bottom: "Eltwise49"
  top: "Convolution100"
  convolution_param {
    num_output: 16
    bias_term: true
    pad: 1
    kernel_size: 3
    stride: 1
    weight_filler {
      type: "msra"
    }
    bias_filler {
      type: "constant"
    }
  }
}
layer {
  name: "BatchNorm100"
  type: "BatchNorm"
  bottom: "Convolution100"
  top: "Convolution100"
  param {
    lr_mult: 0
    decay_mult: 0
  }
  param {
    lr_mult: 0
    decay_mult: 0
  }
  param {
    lr_mult: 0
    decay_mult: 0
  }
}
layer {
  name: "Scale100"
  type: "Scale"
  bottom: "Convolution100"
  top: "Convolution100"
  scale_param {
    bias_term: true
  }
}
layer {
  name: "ReLU100"
  type: "ReLU"
  bottom: "Convolution100"
  top: "Convolution100"
}
layer {
  name: "Convolution101"
  type: "Convolution"
  bottom: "Convolution100"
  top: "Convolution101"
  convolution_param {
    num_output: 16
    bias_term: true
    pad: 1
    kernel_size: 3
    stride: 1
    weight_filler {
      type: "msra"
    }
    bias_filler {
      type: "constant"
    }
  }
}
layer {
  name: "BatchNorm101"
  type: "BatchNorm"
  bottom: "Convolution101"
  top: "Convolution101"
  param {
    lr_mult: 0
    decay_mult: 0
  }
  param {
    lr_mult: 0
    decay_mult: 0
  }
  param {
    lr_mult: 0
    decay_mult: 0
  }
}
layer {
  name: "Scale101"
  type: "Scale"
  bottom: "Convolution101"
  top: "Convolution101"
  scale_param {
    bias_term: true
  }
}
layer {
  name: "Eltwise50"
  type: "Eltwise"
  bottom: "Eltwise49"
  bottom: "Convolution101"
  top: "Eltwise50"
  eltwise_param {
    operation: SUM
  }
}
layer {
  name: "ReLU101"
  type: "ReLU"
  bottom: "Eltwise50"
  top: "Eltwise50"
}
layer {
  name: "Convolution102"
  type: "Convolution"
  bottom: "Eltwise50"
  top: "Convolution102"
  convolution_param {
    num_output: 16
    bias_term: true
    pad: 1
    kernel_size: 3
    stride: 1
    weight_filler {
      type: "msra"
    }
    bias_filler {
      type: "constant"
    }
  }
}
layer {
  name: "BatchNorm102"
  type: "BatchNorm"
  bottom: "Convolution102"
  top: "Convolution102"
  param {
    lr_mult: 0
    decay_mult: 0
  }
  param {
    lr_mult: 0
    decay_mult: 0
  }
  param {
    lr_mult: 0
    decay_mult: 0
  }
}
layer {
  name: "Scale102"
  type: "Scale"
  bottom: "Convolution102"
  top: "Convolution102"
  scale_param {
    bias_term: true
  }
}
layer {
  name: "ReLU102"
  type: "ReLU"
  bottom: "Convolution102"
  top: "Convolution102"
}
layer {
  name: "Convolution103"
  type: "Convolution"
  bottom: "Convolution102"
  top: "Convolution103"
  convolution_param {
    num_output: 16
    bias_term: true
    pad: 1
    kernel_size: 3
    stride: 1
    weight_filler {
      type: "msra"
    }
    bias_filler {
      type: "constant"
    }
  }
}
layer {
  name: "BatchNorm103"
  type: "BatchNorm"
  bottom: "Convolution103"
  top: "Convolution103"
  param {
    lr_mult: 0
    decay_mult: 0
  }
  param {
    lr_mult: 0
    decay_mult: 0
  }
  param {
    lr_mult: 0
    decay_mult: 0
  }
}
layer {
  name: "Scale103"
  type: "Scale"
  bottom: "Convolution103"
  top: "Convolution103"
  scale_param {
    bias_term: true
  }
}
layer {
  name: "Eltwise51"
  type: "Eltwise"
  bottom: "Eltwise50"
  bottom: "Convolution103"
  top: "Eltwise51"
  eltwise_param {
    operation: SUM
  }
}
layer {
  name: "ReLU103"
  type: "ReLU"
  bottom: "Eltwise51"
  top: "Eltwise51"
}
layer {
  name: "Convolution104"
  type: "Convolution"
  bottom: "Eltwise51"
  top: "Convolution104"
  convolution_param {
    num_output: 16
    bias_term: true
    pad: 1
    kernel_size: 3
    stride: 1
    weight_filler {
      type: "msra"
    }
    bias_filler {
      type: "constant"
    }
  }
}
layer {
  name: "BatchNorm104"
  type: "BatchNorm"
  bottom: "Convolution104"
  top: "Convolution104"
  param {
    lr_mult: 0
    decay_mult: 0
  }
  param {
    lr_mult: 0
    decay_mult: 0
  }
  param {
    lr_mult: 0
    decay_mult: 0
  }
}
layer {
  name: "Scale104"
  type: "Scale"
  bottom: "Convolution104"
  top: "Convolution104"
  scale_param {
    bias_term: true
  }
}
layer {
  name: "ReLU104"
  type: "ReLU"
  bottom: "Convolution104"
  top: "Convolution104"
}
layer {
  name: "Convolution105"
  type: "Convolution"
  bottom: "Convolution104"
  top: "Convolution105"
  convolution_param {
    num_output: 16
    bias_term: true
    pad: 1
    kernel_size: 3
    stride: 1
    weight_filler {
      type: "msra"
    }
    bias_filler {
      type: "constant"
    }
  }
}
layer {
  name: "BatchNorm105"
  type: "BatchNorm"
  bottom: "Convolution105"
  top: "Convolution105"
  param {
    lr_mult: 0
    decay_mult: 0
  }
  param {
    lr_mult: 0
    decay_mult: 0
  }
  param {
    lr_mult: 0
    decay_mult: 0
  }
}
layer {
  name: "Scale105"
  type: "Scale"
  bottom: "Convolution105"
  top: "Convolution105"
  scale_param {
    bias_term: true
  }
}
layer {
  name: "Eltwise52"
  type: "Eltwise"
  bottom: "Eltwise51"
  bottom: "Convolution105"
  top: "Eltwise52"
  eltwise_param {
    operation: SUM
  }
}
layer {
  name: "ReLU105"
  type: "ReLU"
  bottom: "Eltwise52"
  top: "Eltwise52"
}
layer {
  name: "Convolution106"
  type: "Convolution"
  bottom: "Eltwise52"
  top: "Convolution106"
  convolution_param {
    num_output: 16
    bias_term: true
    pad: 1
    kernel_size: 3
    stride: 1
    weight_filler {
      type: "msra"
    }
    bias_filler {
      type: "constant"
    }
  }
}
layer {
  name: "BatchNorm106"
  type: "BatchNorm"
  bottom: "Convolution106"
  top: "Convolution106"
  param {
    lr_mult: 0
    decay_mult: 0
  }
  param {
    lr_mult: 0
    decay_mult: 0
  }
  param {
    lr_mult: 0
    decay_mult: 0
  }
}
layer {
  name: "Scale106"
  type: "Scale"
  bottom: "Convolution106"
  top: "Convolution106"
  scale_param {
    bias_term: true
  }
}
layer {
  name: "ReLU106"
  type: "ReLU"
  bottom: "Convolution106"
  top: "Convolution106"
}
layer {
  name: "Convolution107"
  type: "Convolution"
  bottom: "Convolution106"
  top: "Convolution107"
  convolution_param {
    num_output: 16
    bias_term: true
    pad: 1
    kernel_size: 3
    stride: 1
    weight_filler {
      type: "msra"
    }
    bias_filler {
      type: "constant"
    }
  }
}
layer {
  name: "BatchNorm107"
  type: "BatchNorm"
  bottom: "Convolution107"
  top: "Convolution107"
  param {
    lr_mult: 0
    decay_mult: 0
  }
  param {
    lr_mult: 0
    decay_mult: 0
  }
  param {
    lr_mult: 0
    decay_mult: 0
  }
}
layer {
  name: "Scale107"
  type: "Scale"
  bottom: "Convolution107"
  top: "Convolution107"
  scale_param {
    bias_term: true
  }
}
layer {
  name: "Eltwise53"
  type: "Eltwise"
  bottom: "Eltwise52"
  bottom: "Convolution107"
  top: "Eltwise53"
  eltwise_param {
    operation: SUM
  }
}
layer {
  name: "ReLU107"
  type: "ReLU"
  bottom: "Eltwise53"
  top: "Eltwise53"
}
layer {
  name: "Convolution108"
  type: "Convolution"
  bottom: "Eltwise53"
  top: "Convolution108"
  convolution_param {
    num_output: 16
    bias_term: true
    pad: 1
    kernel_size: 3
    stride: 1
    weight_filler {
      type: "msra"
    }
    bias_filler {
      type: "constant"
    }
  }
}
layer {
  name: "BatchNorm108"
  type: "BatchNorm"
  bottom: "Convolution108"
  top: "Convolution108"
  param {
    lr_mult: 0
    decay_mult: 0
  }
  param {
    lr_mult: 0
    decay_mult: 0
  }
  param {
    lr_mult: 0
    decay_mult: 0
  }
}
layer {
  name: "Scale108"
  type: "Scale"
  bottom: "Convolution108"
  top: "Convolution108"
  scale_param {
    bias_term: true
  }
}
layer {
  name: "ReLU108"
  type: "ReLU"
  bottom: "Convolution108"
  top: "Convolution108"
}
layer {
  name: "Convolution109"
  type: "Convolution"
  bottom: "Convolution108"
  top: "Convolution109"
  convolution_param {
    num_output: 16
    bias_term: true
    pad: 1
    kernel_size: 3
    stride: 1
    weight_filler {
      type: "msra"
    }
    bias_filler {
      type: "constant"
    }
  }
}
layer {
  name: "BatchNorm109"
  type: "BatchNorm"
  bottom: "Convolution109"
  top: "Convolution109"
  param {
    lr_mult: 0
    decay_mult: 0
  }
  param {
    lr_mult: 0
    decay_mult: 0
  }
  param {
    lr_mult: 0
    decay_mult: 0
  }
}
layer {
  name: "Scale109"
  type: "Scale"
  bottom: "Convolution109"
  top: "Convolution109"
  scale_param {
    bias_term: true
  }
}
layer {
  name: "Eltwise54"
  type: "Eltwise"
  bottom: "Eltwise53"
  bottom: "Convolution109"
  top: "Eltwise54"
  eltwise_param {
    operation: SUM
  }
}
layer {
  name: "ReLU109"
  type: "ReLU"
  bottom: "Eltwise54"
  top: "Eltwise54"
}
layer {
  name: "Convolution110"
  type: "Convolution"
  bottom: "Eltwise54"
  top: "Convolution110"
  convolution_param {
    num_output: 16
    bias_term: true
    pad: 1
    kernel_size: 3
    stride: 1
    weight_filler {
      type: "msra"
    }
    bias_filler {
      type: "constant"
    }
  }
}
layer {
  name: "BatchNorm110"
  type: "BatchNorm"
  bottom: "Convolution110"
  top: "Convolution110"
  param {
    lr_mult: 0
    decay_mult: 0
  }
  param {
    lr_mult: 0
    decay_mult: 0
  }
  param {
    lr_mult: 0
    decay_mult: 0
  }
}
layer {
  name: "Scale110"
  type: "Scale"
  bottom: "Convolution110"
  top: "Convolution110"
  scale_param {
    bias_term: true
  }
}
layer {
  name: "ReLU110"
  type: "ReLU"
  bottom: "Convolution110"
  top: "Convolution110"
}
layer {
  name: "Convolution111"
  type: "Convolution"
  bottom: "Convolution110"
  top: "Convolution111"
  convolution_param {
    num_output: 16
    bias_term: true
    pad: 1
    kernel_size: 3
    stride: 1
    weight_filler {
      type: "msra"
    }
    bias_filler {
      type: "constant"
    }
  }
}
layer {
  name: "BatchNorm111"
  type: "BatchNorm"
  bottom: "Convolution111"
  top: "Convolution111"
  param {
    lr_mult: 0
    decay_mult: 0
  }
  param {
    lr_mult: 0
    decay_mult: 0
  }
  param {
    lr_mult: 0
    decay_mult: 0
  }
}
layer {
  name: "Scale111"
  type: "Scale"
  bottom: "Convolution111"
  top: "Convolution111"
  scale_param {
    bias_term: true
  }
}
layer {
  name: "Eltwise55"
  type: "Eltwise"
  bottom: "Eltwise54"
  bottom: "Convolution111"
  top: "Eltwise55"
  eltwise_param {
    operation: SUM
  }
}
layer {
  name: "ReLU111"
  type: "ReLU"
  bottom: "Eltwise55"
  top: "Eltwise55"
}
layer {
  name: "Convolution112"
  type: "Convolution"
  bottom: "Eltwise55"
  top: "Convolution112"
  convolution_param {
    num_output: 16
    bias_term: true
    pad: 1
    kernel_size: 3
    stride: 1
    weight_filler {
      type: "msra"
    }
    bias_filler {
      type: "constant"
    }
  }
}
layer {
  name: "BatchNorm112"
  type: "BatchNorm"
  bottom: "Convolution112"
  top: "Convolution112"
  param {
    lr_mult: 0
    decay_mult: 0
  }
  param {
    lr_mult: 0
    decay_mult: 0
  }
  param {
    lr_mult: 0
    decay_mult: 0
  }
}
layer {
  name: "Scale112"
  type: "Scale"
  bottom: "Convolution112"
  top: "Convolution112"
  scale_param {
    bias_term: true
  }
}
layer {
  name: "ReLU112"
  type: "ReLU"
  bottom: "Convolution112"
  top: "Convolution112"
}
layer {
  name: "Convolution113"
  type: "Convolution"
  bottom: "Convolution112"
  top: "Convolution113"
  convolution_param {
    num_output: 16
    bias_term: true
    pad: 1
    kernel_size: 3
    stride: 1
    weight_filler {
      type: "msra"
    }
    bias_filler {
      type: "constant"
    }
  }
}
layer {
  name: "BatchNorm113"
  type: "BatchNorm"
  bottom: "Convolution113"
  top: "Convolution113"
  param {
    lr_mult: 0
    decay_mult: 0
  }
  param {
    lr_mult: 0
    decay_mult: 0
  }
  param {
    lr_mult: 0
    decay_mult: 0
  }
}
layer {
  name: "Scale113"
  type: "Scale"
  bottom: "Convolution113"
  top: "Convolution113"
  scale_param {
    bias_term: true
  }
}
layer {
  name: "Eltwise56"
  type: "Eltwise"
  bottom: "Eltwise55"
  bottom: "Convolution113"
  top: "Eltwise56"
  eltwise_param {
    operation: SUM
  }
}
layer {
  name: "ReLU113"
  type: "ReLU"
  bottom: "Eltwise56"
  top: "Eltwise56"
}
layer {
  name: "Convolution114"
  type: "Convolution"
  bottom: "Eltwise56"
  top: "Convolution114"
  convolution_param {
    num_output: 16
    bias_term: true
    pad: 1
    kernel_size: 3
    stride: 1
    weight_filler {
      type: "msra"
    }
    bias_filler {
      type: "constant"
    }
  }
}
layer {
  name: "BatchNorm114"
  type: "BatchNorm"
  bottom: "Convolution114"
  top: "Convolution114"
  param {
    lr_mult: 0
    decay_mult: 0
  }
  param {
    lr_mult: 0
    decay_mult: 0
  }
  param {
    lr_mult: 0
    decay_mult: 0
  }
}
layer {
  name: "Scale114"
  type: "Scale"
  bottom: "Convolution114"
  top: "Convolution114"
  scale_param {
    bias_term: true
  }
}
layer {
  name: "ReLU114"
  type: "ReLU"
  bottom: "Convolution114"
  top: "Convolution114"
}
layer {
  name: "Convolution115"
  type: "Convolution"
  bottom: "Convolution114"
  top: "Convolution115"
  convolution_param {
    num_output: 16
    bias_term: true
    pad: 1
    kernel_size: 3
    stride: 1
    weight_filler {
      type: "msra"
    }
    bias_filler {
      type: "constant"
    }
  }
}
layer {
  name: "BatchNorm115"
  type: "BatchNorm"
  bottom: "Convolution115"
  top: "Convolution115"
  param {
    lr_mult: 0
    decay_mult: 0
  }
  param {
    lr_mult: 0
    decay_mult: 0
  }
  param {
    lr_mult: 0
    decay_mult: 0
  }
}
layer {
  name: "Scale115"
  type: "Scale"
  bottom: "Convolution115"
  top: "Convolution115"
  scale_param {
    bias_term: true
  }
}
layer {
  name: "Eltwise57"
  type: "Eltwise"
  bottom: "Eltwise56"
  bottom: "Convolution115"
  top: "Eltwise57"
  eltwise_param {
    operation: SUM
  }
}
layer {
  name: "ReLU115"
  type: "ReLU"
  bottom: "Eltwise57"
  top: "Eltwise57"
}
layer {
  name: "Convolution116"
  type: "Convolution"
  bottom: "Eltwise57"
  top: "Convolution116"
  convolution_param {
    num_output: 16
    bias_term: true
    pad: 1
    kernel_size: 3
    stride: 1
    weight_filler {
      type: "msra"
    }
    bias_filler {
      type: "constant"
    }
  }
}
layer {
  name: "BatchNorm116"
  type: "BatchNorm"
  bottom: "Convolution116"
  top: "Convolution116"
  param {
    lr_mult: 0
    decay_mult: 0
  }
  param {
    lr_mult: 0
    decay_mult: 0
  }
  param {
    lr_mult: 0
    decay_mult: 0
  }
}
layer {
  name: "Scale116"
  type: "Scale"
  bottom: "Convolution116"
  top: "Convolution116"
  scale_param {
    bias_term: true
  }
}
layer {
  name: "ReLU116"
  type: "ReLU"
  bottom: "Convolution116"
  top: "Convolution116"
}
layer {
  name: "Convolution117"
  type: "Convolution"
  bottom: "Convolution116"
  top: "Convolution117"
  convolution_param {
    num_output: 16
    bias_term: true
    pad: 1
    kernel_size: 3
    stride: 1
    weight_filler {
      type: "msra"
    }
    bias_filler {
      type: "constant"
    }
  }
}
layer {
  name: "BatchNorm117"
  type: "BatchNorm"
  bottom: "Convolution117"
  top: "Convolution117"
  param {
    lr_mult: 0
    decay_mult: 0
  }
  param {
    lr_mult: 0
    decay_mult: 0
  }
  param {
    lr_mult: 0
    decay_mult: 0
  }
}
layer {
  name: "Scale117"
  type: "Scale"
  bottom: "Convolution117"
  top: "Convolution117"
  scale_param {
    bias_term: true
  }
}
layer {
  name: "Eltwise58"
  type: "Eltwise"
  bottom: "Eltwise57"
  bottom: "Convolution117"
  top: "Eltwise58"
  eltwise_param {
    operation: SUM
  }
}
layer {
  name: "ReLU117"
  type: "ReLU"
  bottom: "Eltwise58"
  top: "Eltwise58"
}
layer {
  name: "Convolution118"
  type: "Convolution"
  bottom: "Eltwise58"
  top: "Convolution118"
  convolution_param {
    num_output: 16
    bias_term: true
    pad: 1
    kernel_size: 3
    stride: 1
    weight_filler {
      type: "msra"
    }
    bias_filler {
      type: "constant"
    }
  }
}
layer {
  name: "BatchNorm118"
  type: "BatchNorm"
  bottom: "Convolution118"
  top: "Convolution118"
  param {
    lr_mult: 0
    decay_mult: 0
  }
  param {
    lr_mult: 0
    decay_mult: 0
  }
  param {
    lr_mult: 0
    decay_mult: 0
  }
}
layer {
  name: "Scale118"
  type: "Scale"
  bottom: "Convolution118"
  top: "Convolution118"
  scale_param {
    bias_term: true
  }
}
layer {
  name: "ReLU118"
  type: "ReLU"
  bottom: "Convolution118"
  top: "Convolution118"
}
layer {
  name: "Convolution119"
  type: "Convolution"
  bottom: "Convolution118"
  top: "Convolution119"
  convolution_param {
    num_output: 16
    bias_term: true
    pad: 1
    kernel_size: 3
    stride: 1
    weight_filler {
      type: "msra"
    }
    bias_filler {
      type: "constant"
    }
  }
}
layer {
  name: "BatchNorm119"
  type: "BatchNorm"
  bottom: "Convolution119"
  top: "Convolution119"
  param {
    lr_mult: 0
    decay_mult: 0
  }
  param {
    lr_mult: 0
    decay_mult: 0
  }
  param {
    lr_mult: 0
    decay_mult: 0
  }
}
layer {
  name: "Scale119"
  type: "Scale"
  bottom: "Convolution119"
  top: "Convolution119"
  scale_param {
    bias_term: true
  }
}
layer {
  name: "Eltwise59"
  type: "Eltwise"
  bottom: "Eltwise58"
  bottom: "Convolution119"
  top: "Eltwise59"
  eltwise_param {
    operation: SUM
  }
}
layer {
  name: "ReLU119"
  type: "ReLU"
  bottom: "Eltwise59"
  top: "Eltwise59"
}
layer {
  name: "Convolution120"
  type: "Convolution"
  bottom: "Eltwise59"
  top: "Convolution120"
  convolution_param {
    num_output: 16
    bias_term: true
    pad: 1
    kernel_size: 3
    stride: 1
    weight_filler {
      type: "msra"
    }
    bias_filler {
      type: "constant"
    }
  }
}
layer {
  name: "BatchNorm120"
  type: "BatchNorm"
  bottom: "Convolution120"
  top: "Convolution120"
  param {
    lr_mult: 0
    decay_mult: 0
  }
  param {
    lr_mult: 0
    decay_mult: 0
  }
  param {
    lr_mult: 0
    decay_mult: 0
  }
}
layer {
  name: "Scale120"
  type: "Scale"
  bottom: "Convolution120"
  top: "Convolution120"
  scale_param {
    bias_term: true
  }
}
layer {
  name: "ReLU120"
  type: "ReLU"
  bottom: "Convolution120"
  top: "Convolution120"
}
layer {
  name: "Convolution121"
  type: "Convolution"
  bottom: "Convolution120"
  top: "Convolution121"
  convolution_param {
    num_output: 16
    bias_term: true
    pad: 1
    kernel_size: 3
    stride: 1
    weight_filler {
      type: "msra"
    }
    bias_filler {
      type: "constant"
    }
  }
}
layer {
  name: "BatchNorm121"
  type: "BatchNorm"
  bottom: "Convolution121"
  top: "Convolution121"
  param {
    lr_mult: 0
    decay_mult: 0
  }
  param {
    lr_mult: 0
    decay_mult: 0
  }
  param {
    lr_mult: 0
    decay_mult: 0
  }
}
layer {
  name: "Scale121"
  type: "Scale"
  bottom: "Convolution121"
  top: "Convolution121"
  scale_param {
    bias_term: true
  }
}
layer {
  name: "Eltwise60"
  type: "Eltwise"
  bottom: "Eltwise59"
  bottom: "Convolution121"
  top: "Eltwise60"
  eltwise_param {
    operation: SUM
  }
}
layer {
  name: "ReLU121"
  type: "ReLU"
  bottom: "Eltwise60"
  top: "Eltwise60"
}
layer {
  name: "Convolution122"
  type: "Convolution"
  bottom: "Eltwise60"
  top: "Convolution122"
  convolution_param {
    num_output: 16
    bias_term: true
    pad: 1
    kernel_size: 3
    stride: 1
    weight_filler {
      type: "msra"
    }
    bias_filler {
      type: "constant"
    }
  }
}
layer {
  name: "BatchNorm122"
  type: "BatchNorm"
  bottom: "Convolution122"
  top: "Convolution122"
  param {
    lr_mult: 0
    decay_mult: 0
  }
  param {
    lr_mult: 0
    decay_mult: 0
  }
  param {
    lr_mult: 0
    decay_mult: 0
  }
}
layer {
  name: "Scale122"
  type: "Scale"
  bottom: "Convolution122"
  top: "Convolution122"
  scale_param {
    bias_term: true
  }
}
layer {
  name: "ReLU122"
  type: "ReLU"
  bottom: "Convolution122"
  top: "Convolution122"
}
layer {
  name: "Convolution123"
  type: "Convolution"
  bottom: "Convolution122"
  top: "Convolution123"
  convolution_param {
    num_output: 16
    bias_term: true
    pad: 1
    kernel_size: 3
    stride: 1
    weight_filler {
      type: "msra"
    }
    bias_filler {
      type: "constant"
    }
  }
}
layer {
  name: "BatchNorm123"
  type: "BatchNorm"
  bottom: "Convolution123"
  top: "Convolution123"
  param {
    lr_mult: 0
    decay_mult: 0
  }
  param {
    lr_mult: 0
    decay_mult: 0
  }
  param {
    lr_mult: 0
    decay_mult: 0
  }
}
layer {
  name: "Scale123"
  type: "Scale"
  bottom: "Convolution123"
  top: "Convolution123"
  scale_param {
    bias_term: true
  }
}
layer {
  name: "Eltwise61"
  type: "Eltwise"
  bottom: "Eltwise60"
  bottom: "Convolution123"
  top: "Eltwise61"
  eltwise_param {
    operation: SUM
  }
}
layer {
  name: "ReLU123"
  type: "ReLU"
  bottom: "Eltwise61"
  top: "Eltwise61"
}
layer {
  name: "Convolution124"
  type: "Convolution"
  bottom: "Eltwise61"
  top: "Convolution124"
  convolution_param {
    num_output: 16
    bias_term: true
    pad: 1
    kernel_size: 3
    stride: 1
    weight_filler {
      type: "msra"
    }
    bias_filler {
      type: "constant"
    }
  }
}
layer {
  name: "BatchNorm124"
  type: "BatchNorm"
  bottom: "Convolution124"
  top: "Convolution124"
  param {
    lr_mult: 0
    decay_mult: 0
  }
  param {
    lr_mult: 0
    decay_mult: 0
  }
  param {
    lr_mult: 0
    decay_mult: 0
  }
}
layer {
  name: "Scale124"
  type: "Scale"
  bottom: "Convolution124"
  top: "Convolution124"
  scale_param {
    bias_term: true
  }
}
layer {
  name: "ReLU124"
  type: "ReLU"
  bottom: "Convolution124"
  top: "Convolution124"
}
layer {
  name: "Convolution125"
  type: "Convolution"
  bottom: "Convolution124"
  top: "Convolution125"
  convolution_param {
    num_output: 16
    bias_term: true
    pad: 1
    kernel_size: 3
    stride: 1
    weight_filler {
      type: "msra"
    }
    bias_filler {
      type: "constant"
    }
  }
}
layer {
  name: "BatchNorm125"
  type: "BatchNorm"
  bottom: "Convolution125"
  top: "Convolution125"
  param {
    lr_mult: 0
    decay_mult: 0
  }
  param {
    lr_mult: 0
    decay_mult: 0
  }
  param {
    lr_mult: 0
    decay_mult: 0
  }
}
layer {
  name: "Scale125"
  type: "Scale"
  bottom: "Convolution125"
  top: "Convolution125"
  scale_param {
    bias_term: true
  }
}
layer {
  name: "Eltwise62"
  type: "Eltwise"
  bottom: "Eltwise61"
  bottom: "Convolution125"
  top: "Eltwise62"
  eltwise_param {
    operation: SUM
  }
}
layer {
  name: "ReLU125"
  type: "ReLU"
  bottom: "Eltwise62"
  top: "Eltwise62"
}
layer {
  name: "Convolution126"
  type: "Convolution"
  bottom: "Eltwise62"
  top: "Convolution126"
  convolution_param {
    num_output: 16
    bias_term: true
    pad: 1
    kernel_size: 3
    stride: 1
    weight_filler {
      type: "msra"
    }
    bias_filler {
      type: "constant"
    }
  }
}
layer {
  name: "BatchNorm126"
  type: "BatchNorm"
  bottom: "Convolution126"
  top: "Convolution126"
  param {
    lr_mult: 0
    decay_mult: 0
  }
  param {
    lr_mult: 0
    decay_mult: 0
  }
  param {
    lr_mult: 0
    decay_mult: 0
  }
}
layer {
  name: "Scale126"
  type: "Scale"
  bottom: "Convolution126"
  top: "Convolution126"
  scale_param {
    bias_term: true
  }
}
layer {
  name: "ReLU126"
  type: "ReLU"
  bottom: "Convolution126"
  top: "Convolution126"
}
layer {
  name: "Convolution127"
  type: "Convolution"
  bottom: "Convolution126"
  top: "Convolution127"
  convolution_param {
    num_output: 16
    bias_term: true
    pad: 1
    kernel_size: 3
    stride: 1
    weight_filler {
      type: "msra"
    }
    bias_filler {
      type: "constant"
    }
  }
}
layer {
  name: "BatchNorm127"
  type: "BatchNorm"
  bottom: "Convolution127"
  top: "Convolution127"
  param {
    lr_mult: 0
    decay_mult: 0
  }
  param {
    lr_mult: 0
    decay_mult: 0
  }
  param {
    lr_mult: 0
    decay_mult: 0
  }
}
layer {
  name: "Scale127"
  type: "Scale"
  bottom: "Convolution127"
  top: "Convolution127"
  scale_param {
    bias_term: true
  }
}
layer {
  name: "Eltwise63"
  type: "Eltwise"
  bottom: "Eltwise62"
  bottom: "Convolution127"
  top: "Eltwise63"
  eltwise_param {
    operation: SUM
  }
}
layer {
  name: "ReLU127"
  type: "ReLU"
  bottom: "Eltwise63"
  top: "Eltwise63"
}
layer {
  name: "Convolution128"
  type: "Convolution"
  bottom: "Eltwise63"
  top: "Convolution128"
  convolution_param {
    num_output: 16
    bias_term: true
    pad: 1
    kernel_size: 3
    stride: 1
    weight_filler {
      type: "msra"
    }
    bias_filler {
      type: "constant"
    }
  }
}
layer {
  name: "BatchNorm128"
  type: "BatchNorm"
  bottom: "Convolution128"
  top: "Convolution128"
  param {
    lr_mult: 0
    decay_mult: 0
  }
  param {
    lr_mult: 0
    decay_mult: 0
  }
  param {
    lr_mult: 0
    decay_mult: 0
  }
}
layer {
  name: "Scale128"
  type: "Scale"
  bottom: "Convolution128"
  top: "Convolution128"
  scale_param {
    bias_term: true
  }
}
layer {
  name: "ReLU128"
  type: "ReLU"
  bottom: "Convolution128"
  top: "Convolution128"
}
layer {
  name: "Convolution129"
  type: "Convolution"
  bottom: "Convolution128"
  top: "Convolution129"
  convolution_param {
    num_output: 16
    bias_term: true
    pad: 1
    kernel_size: 3
    stride: 1
    weight_filler {
      type: "msra"
    }
    bias_filler {
      type: "constant"
    }
  }
}
layer {
  name: "BatchNorm129"
  type: "BatchNorm"
  bottom: "Convolution129"
  top: "Convolution129"
  param {
    lr_mult: 0
    decay_mult: 0
  }
  param {
    lr_mult: 0
    decay_mult: 0
  }
  param {
    lr_mult: 0
    decay_mult: 0
  }
}
layer {
  name: "Scale129"
  type: "Scale"
  bottom: "Convolution129"
  top: "Convolution129"
  scale_param {
    bias_term: true
  }
}
layer {
  name: "Eltwise64"
  type: "Eltwise"
  bottom: "Eltwise63"
  bottom: "Convolution129"
  top: "Eltwise64"
  eltwise_param {
    operation: SUM
  }
}
layer {
  name: "ReLU129"
  type: "ReLU"
  bottom: "Eltwise64"
  top: "Eltwise64"
}
layer {
  name: "Convolution130"
  type: "Convolution"
  bottom: "Eltwise64"
  top: "Convolution130"
  convolution_param {
    num_output: 16
    bias_term: true
    pad: 1
    kernel_size: 3
    stride: 1
    weight_filler {
      type: "msra"
    }
    bias_filler {
      type: "constant"
    }
  }
}
layer {
  name: "BatchNorm130"
  type: "BatchNorm"
  bottom: "Convolution130"
  top: "Convolution130"
  param {
    lr_mult: 0
    decay_mult: 0
  }
  param {
    lr_mult: 0
    decay_mult: 0
  }
  param {
    lr_mult: 0
    decay_mult: 0
  }
}
layer {
  name: "Scale130"
  type: "Scale"
  bottom: "Convolution130"
  top: "Convolution130"
  scale_param {
    bias_term: true
  }
}
layer {
  name: "ReLU130"
  type: "ReLU"
  bottom: "Convolution130"
  top: "Convolution130"
}
layer {
  name: "Convolution131"
  type: "Convolution"
  bottom: "Convolution130"
  top: "Convolution131"
  convolution_param {
    num_output: 16
    bias_term: true
    pad: 1
    kernel_size: 3
    stride: 1
    weight_filler {
      type: "msra"
    }
    bias_filler {
      type: "constant"
    }
  }
}
layer {
  name: "BatchNorm131"
  type: "BatchNorm"
  bottom: "Convolution131"
  top: "Convolution131"
  param {
    lr_mult: 0
    decay_mult: 0
  }
  param {
    lr_mult: 0
    decay_mult: 0
  }
  param {
    lr_mult: 0
    decay_mult: 0
  }
}
layer {
  name: "Scale131"
  type: "Scale"
  bottom: "Convolution131"
  top: "Convolution131"
  scale_param {
    bias_term: true
  }
}
layer {
  name: "Eltwise65"
  type: "Eltwise"
  bottom: "Eltwise64"
  bottom: "Convolution131"
  top: "Eltwise65"
  eltwise_param {
    operation: SUM
  }
}
layer {
  name: "ReLU131"
  type: "ReLU"
  bottom: "Eltwise65"
  top: "Eltwise65"
}
layer {
  name: "Convolution132"
  type: "Convolution"
  bottom: "Eltwise65"
  top: "Convolution132"
  convolution_param {
    num_output: 16
    bias_term: true
    pad: 1
    kernel_size: 3
    stride: 1
    weight_filler {
      type: "msra"
    }
    bias_filler {
      type: "constant"
    }
  }
}
layer {
  name: "BatchNorm132"
  type: "BatchNorm"
  bottom: "Convolution132"
  top: "Convolution132"
  param {
    lr_mult: 0
    decay_mult: 0
  }
  param {
    lr_mult: 0
    decay_mult: 0
  }
  param {
    lr_mult: 0
    decay_mult: 0
  }
}
layer {
  name: "Scale132"
  type: "Scale"
  bottom: "Convolution132"
  top: "Convolution132"
  scale_param {
    bias_term: true
  }
}
layer {
  name: "ReLU132"
  type: "ReLU"
  bottom: "Convolution132"
  top: "Convolution132"
}
layer {
  name: "Convolution133"
  type: "Convolution"
  bottom: "Convolution132"
  top: "Convolution133"
  convolution_param {
    num_output: 16
    bias_term: true
    pad: 1
    kernel_size: 3
    stride: 1
    weight_filler {
      type: "msra"
    }
    bias_filler {
      type: "constant"
    }
  }
}
layer {
  name: "BatchNorm133"
  type: "BatchNorm"
  bottom: "Convolution133"
  top: "Convolution133"
  param {
    lr_mult: 0
    decay_mult: 0
  }
  param {
    lr_mult: 0
    decay_mult: 0
  }
  param {
    lr_mult: 0
    decay_mult: 0
  }
}
layer {
  name: "Scale133"
  type: "Scale"
  bottom: "Convolution133"
  top: "Convolution133"
  scale_param {
    bias_term: true
  }
}
layer {
  name: "Eltwise66"
  type: "Eltwise"
  bottom: "Eltwise65"
  bottom: "Convolution133"
  top: "Eltwise66"
  eltwise_param {
    operation: SUM
  }
}
layer {
  name: "ReLU133"
  type: "ReLU"
  bottom: "Eltwise66"
  top: "Eltwise66"
}
layer {
  name: "Convolution134"
  type: "Convolution"
  bottom: "Eltwise66"
  top: "Convolution134"
  convolution_param {
    num_output: 16
    bias_term: true
    pad: 1
    kernel_size: 3
    stride: 1
    weight_filler {
      type: "msra"
    }
    bias_filler {
      type: "constant"
    }
  }
}
layer {
  name: "BatchNorm134"
  type: "BatchNorm"
  bottom: "Convolution134"
  top: "Convolution134"
  param {
    lr_mult: 0
    decay_mult: 0
  }
  param {
    lr_mult: 0
    decay_mult: 0
  }
  param {
    lr_mult: 0
    decay_mult: 0
  }
}
layer {
  name: "Scale134"
  type: "Scale"
  bottom: "Convolution134"
  top: "Convolution134"
  scale_param {
    bias_term: true
  }
}
layer {
  name: "ReLU134"
  type: "ReLU"
  bottom: "Convolution134"
  top: "Convolution134"
}
layer {
  name: "Convolution135"
  type: "Convolution"
  bottom: "Convolution134"
  top: "Convolution135"
  convolution_param {
    num_output: 16
    bias_term: true
    pad: 1
    kernel_size: 3
    stride: 1
    weight_filler {
      type: "msra"
    }
    bias_filler {
      type: "constant"
    }
  }
}
layer {
  name: "BatchNorm135"
  type: "BatchNorm"
  bottom: "Convolution135"
  top: "Convolution135"
  param {
    lr_mult: 0
    decay_mult: 0
  }
  param {
    lr_mult: 0
    decay_mult: 0
  }
  param {
    lr_mult: 0
    decay_mult: 0
  }
}
layer {
  name: "Scale135"
  type: "Scale"
  bottom: "Convolution135"
  top: "Convolution135"
  scale_param {
    bias_term: true
  }
}
layer {
  name: "Eltwise67"
  type: "Eltwise"
  bottom: "Eltwise66"
  bottom: "Convolution135"
  top: "Eltwise67"
  eltwise_param {
    operation: SUM
  }
}
layer {
  name: "ReLU135"
  type: "ReLU"
  bottom: "Eltwise67"
  top: "Eltwise67"
}
layer {
  name: "Convolution136"
  type: "Convolution"
  bottom: "Eltwise67"
  top: "Convolution136"
  convolution_param {
    num_output: 16
    bias_term: true
    pad: 1
    kernel_size: 3
    stride: 1
    weight_filler {
      type: "msra"
    }
    bias_filler {
      type: "constant"
    }
  }
}
layer {
  name: "BatchNorm136"
  type: "BatchNorm"
  bottom: "Convolution136"
  top: "Convolution136"
  param {
    lr_mult: 0
    decay_mult: 0
  }
  param {
    lr_mult: 0
    decay_mult: 0
  }
  param {
    lr_mult: 0
    decay_mult: 0
  }
}
layer {
  name: "Scale136"
  type: "Scale"
  bottom: "Convolution136"
  top: "Convolution136"
  scale_param {
    bias_term: true
  }
}
layer {
  name: "ReLU136"
  type: "ReLU"
  bottom: "Convolution136"
  top: "Convolution136"
}
layer {
  name: "Convolution137"
  type: "Convolution"
  bottom: "Convolution136"
  top: "Convolution137"
  convolution_param {
    num_output: 16
    bias_term: true
    pad: 1
    kernel_size: 3
    stride: 1
    weight_filler {
      type: "msra"
    }
    bias_filler {
      type: "constant"
    }
  }
}
layer {
  name: "BatchNorm137"
  type: "BatchNorm"
  bottom: "Convolution137"
  top: "Convolution137"
  param {
    lr_mult: 0
    decay_mult: 0
  }
  param {
    lr_mult: 0
    decay_mult: 0
  }
  param {
    lr_mult: 0
    decay_mult: 0
  }
}
layer {
  name: "Scale137"
  type: "Scale"
  bottom: "Convolution137"
  top: "Convolution137"
  scale_param {
    bias_term: true
  }
}
layer {
  name: "Eltwise68"
  type: "Eltwise"
  bottom: "Eltwise67"
  bottom: "Convolution137"
  top: "Eltwise68"
  eltwise_param {
    operation: SUM
  }
}
layer {
  name: "ReLU137"
  type: "ReLU"
  bottom: "Eltwise68"
  top: "Eltwise68"
}
layer {
  name: "Convolution138"
  type: "Convolution"
  bottom: "Eltwise68"
  top: "Convolution138"
  convolution_param {
    num_output: 16
    bias_term: true
    pad: 1
    kernel_size: 3
    stride: 1
    weight_filler {
      type: "msra"
    }
    bias_filler {
      type: "constant"
    }
  }
}
layer {
  name: "BatchNorm138"
  type: "BatchNorm"
  bottom: "Convolution138"
  top: "Convolution138"
  param {
    lr_mult: 0
    decay_mult: 0
  }
  param {
    lr_mult: 0
    decay_mult: 0
  }
  param {
    lr_mult: 0
    decay_mult: 0
  }
}
layer {
  name: "Scale138"
  type: "Scale"
  bottom: "Convolution138"
  top: "Convolution138"
  scale_param {
    bias_term: true
  }
}
layer {
  name: "ReLU138"
  type: "ReLU"
  bottom: "Convolution138"
  top: "Convolution138"
}
layer {
  name: "Convolution139"
  type: "Convolution"
  bottom: "Convolution138"
  top: "Convolution139"
  convolution_param {
    num_output: 16
    bias_term: true
    pad: 1
    kernel_size: 3
    stride: 1
    weight_filler {
      type: "msra"
    }
    bias_filler {
      type: "constant"
    }
  }
}
layer {
  name: "BatchNorm139"
  type: "BatchNorm"
  bottom: "Convolution139"
  top: "Convolution139"
  param {
    lr_mult: 0
    decay_mult: 0
  }
  param {
    lr_mult: 0
    decay_mult: 0
  }
  param {
    lr_mult: 0
    decay_mult: 0
  }
}
layer {
  name: "Scale139"
  type: "Scale"
  bottom: "Convolution139"
  top: "Convolution139"
  scale_param {
    bias_term: true
  }
}
layer {
  name: "Eltwise69"
  type: "Eltwise"
  bottom: "Eltwise68"
  bottom: "Convolution139"
  top: "Eltwise69"
  eltwise_param {
    operation: SUM
  }
}
layer {
  name: "ReLU139"
  type: "ReLU"
  bottom: "Eltwise69"
  top: "Eltwise69"
}
layer {
  name: "Convolution140"
  type: "Convolution"
  bottom: "Eltwise69"
  top: "Convolution140"
  convolution_param {
    num_output: 16
    bias_term: true
    pad: 1
    kernel_size: 3
    stride: 1
    weight_filler {
      type: "msra"
    }
    bias_filler {
      type: "constant"
    }
  }
}
layer {
  name: "BatchNorm140"
  type: "BatchNorm"
  bottom: "Convolution140"
  top: "Convolution140"
  param {
    lr_mult: 0
    decay_mult: 0
  }
  param {
    lr_mult: 0
    decay_mult: 0
  }
  param {
    lr_mult: 0
    decay_mult: 0
  }
}
layer {
  name: "Scale140"
  type: "Scale"
  bottom: "Convolution140"
  top: "Convolution140"
  scale_param {
    bias_term: true
  }
}
layer {
  name: "ReLU140"
  type: "ReLU"
  bottom: "Convolution140"
  top: "Convolution140"
}
layer {
  name: "Convolution141"
  type: "Convolution"
  bottom: "Convolution140"
  top: "Convolution141"
  convolution_param {
    num_output: 16
    bias_term: true
    pad: 1
    kernel_size: 3
    stride: 1
    weight_filler {
      type: "msra"
    }
    bias_filler {
      type: "constant"
    }
  }
}
layer {
  name: "BatchNorm141"
  type: "BatchNorm"
  bottom: "Convolution141"
  top: "Convolution141"
  param {
    lr_mult: 0
    decay_mult: 0
  }
  param {
    lr_mult: 0
    decay_mult: 0
  }
  param {
    lr_mult: 0
    decay_mult: 0
  }
}
layer {
  name: "Scale141"
  type: "Scale"
  bottom: "Convolution141"
  top: "Convolution141"
  scale_param {
    bias_term: true
  }
}
layer {
  name: "Eltwise70"
  type: "Eltwise"
  bottom: "Eltwise69"
  bottom: "Convolution141"
  top: "Eltwise70"
  eltwise_param {
    operation: SUM
  }
}
layer {
  name: "ReLU141"
  type: "ReLU"
  bottom: "Eltwise70"
  top: "Eltwise70"
}
layer {
  name: "Convolution142"
  type: "Convolution"
  bottom: "Eltwise70"
  top: "Convolution142"
  convolution_param {
    num_output: 16
    bias_term: true
    pad: 1
    kernel_size: 3
    stride: 1
    weight_filler {
      type: "msra"
    }
    bias_filler {
      type: "constant"
    }
  }
}
layer {
  name: "BatchNorm142"
  type: "BatchNorm"
  bottom: "Convolution142"
  top: "Convolution142"
  param {
    lr_mult: 0
    decay_mult: 0
  }
  param {
    lr_mult: 0
    decay_mult: 0
  }
  param {
    lr_mult: 0
    decay_mult: 0
  }
}
layer {
  name: "Scale142"
  type: "Scale"
  bottom: "Convolution142"
  top: "Convolution142"
  scale_param {
    bias_term: true
  }
}
layer {
  name: "ReLU142"
  type: "ReLU"
  bottom: "Convolution142"
  top: "Convolution142"
}
layer {
  name: "Convolution143"
  type: "Convolution"
  bottom: "Convolution142"
  top: "Convolution143"
  convolution_param {
    num_output: 16
    bias_term: true
    pad: 1
    kernel_size: 3
    stride: 1
    weight_filler {
      type: "msra"
    }
    bias_filler {
      type: "constant"
    }
  }
}
layer {
  name: "BatchNorm143"
  type: "BatchNorm"
  bottom: "Convolution143"
  top: "Convolution143"
  param {
    lr_mult: 0
    decay_mult: 0
  }
  param {
    lr_mult: 0
    decay_mult: 0
  }
  param {
    lr_mult: 0
    decay_mult: 0
  }
}
layer {
  name: "Scale143"
  type: "Scale"
  bottom: "Convolution143"
  top: "Convolution143"
  scale_param {
    bias_term: true
  }
}
layer {
  name: "Eltwise71"
  type: "Eltwise"
  bottom: "Eltwise70"
  bottom: "Convolution143"
  top: "Eltwise71"
  eltwise_param {
    operation: SUM
  }
}
layer {
  name: "ReLU143"
  type: "ReLU"
  bottom: "Eltwise71"
  top: "Eltwise71"
}
layer {
  name: "Convolution144"
  type: "Convolution"
  bottom: "Eltwise71"
  top: "Convolution144"
  convolution_param {
    num_output: 16
    bias_term: true
    pad: 1
    kernel_size: 3
    stride: 1
    weight_filler {
      type: "msra"
    }
    bias_filler {
      type: "constant"
    }
  }
}
layer {
  name: "BatchNorm144"
  type: "BatchNorm"
  bottom: "Convolution144"
  top: "Convolution144"
  param {
    lr_mult: 0
    decay_mult: 0
  }
  param {
    lr_mult: 0
    decay_mult: 0
  }
  param {
    lr_mult: 0
    decay_mult: 0
  }
}
layer {
  name: "Scale144"
  type: "Scale"
  bottom: "Convolution144"
  top: "Convolution144"
  scale_param {
    bias_term: true
  }
}
layer {
  name: "ReLU144"
  type: "ReLU"
  bottom: "Convolution144"
  top: "Convolution144"
}
layer {
  name: "Convolution145"
  type: "Convolution"
  bottom: "Convolution144"
  top: "Convolution145"
  convolution_param {
    num_output: 16
    bias_term: true
    pad: 1
    kernel_size: 3
    stride: 1
    weight_filler {
      type: "msra"
    }
    bias_filler {
      type: "constant"
    }
  }
}
layer {
  name: "BatchNorm145"
  type: "BatchNorm"
  bottom: "Convolution145"
  top: "Convolution145"
  param {
    lr_mult: 0
    decay_mult: 0
  }
  param {
    lr_mult: 0
    decay_mult: 0
  }
  param {
    lr_mult: 0
    decay_mult: 0
  }
}
layer {
  name: "Scale145"
  type: "Scale"
  bottom: "Convolution145"
  top: "Convolution145"
  scale_param {
    bias_term: true
  }
}
layer {
  name: "Eltwise72"
  type: "Eltwise"
  bottom: "Eltwise71"
  bottom: "Convolution145"
  top: "Eltwise72"
  eltwise_param {
    operation: SUM
  }
}
layer {
  name: "ReLU145"
  type: "ReLU"
  bottom: "Eltwise72"
  top: "Eltwise72"
}
layer {
  name: "Convolution146"
  type: "Convolution"
  bottom: "Eltwise72"
  top: "Convolution146"
  convolution_param {
    num_output: 16
    bias_term: true
    pad: 1
    kernel_size: 3
    stride: 1
    weight_filler {
      type: "msra"
    }
    bias_filler {
      type: "constant"
    }
  }
}
layer {
  name: "BatchNorm146"
  type: "BatchNorm"
  bottom: "Convolution146"
  top: "Convolution146"
  param {
    lr_mult: 0
    decay_mult: 0
  }
  param {
    lr_mult: 0
    decay_mult: 0
  }
  param {
    lr_mult: 0
    decay_mult: 0
  }
}
layer {
  name: "Scale146"
  type: "Scale"
  bottom: "Convolution146"
  top: "Convolution146"
  scale_param {
    bias_term: true
  }
}
layer {
  name: "ReLU146"
  type: "ReLU"
  bottom: "Convolution146"
  top: "Convolution146"
}
layer {
  name: "Convolution147"
  type: "Convolution"
  bottom: "Convolution146"
  top: "Convolution147"
  convolution_param {
    num_output: 16
    bias_term: true
    pad: 1
    kernel_size: 3
    stride: 1
    weight_filler {
      type: "msra"
    }
    bias_filler {
      type: "constant"
    }
  }
}
layer {
  name: "BatchNorm147"
  type: "BatchNorm"
  bottom: "Convolution147"
  top: "Convolution147"
  param {
    lr_mult: 0
    decay_mult: 0
  }
  param {
    lr_mult: 0
    decay_mult: 0
  }
  param {
    lr_mult: 0
    decay_mult: 0
  }
}
layer {
  name: "Scale147"
  type: "Scale"
  bottom: "Convolution147"
  top: "Convolution147"
  scale_param {
    bias_term: true
  }
}
layer {
  name: "Eltwise73"
  type: "Eltwise"
  bottom: "Eltwise72"
  bottom: "Convolution147"
  top: "Eltwise73"
  eltwise_param {
    operation: SUM
  }
}
layer {
  name: "ReLU147"
  type: "ReLU"
  bottom: "Eltwise73"
  top: "Eltwise73"
}
layer {
  name: "Convolution148"
  type: "Convolution"
  bottom: "Eltwise73"
  top: "Convolution148"
  convolution_param {
    num_output: 16
    bias_term: true
    pad: 1
    kernel_size: 3
    stride: 1
    weight_filler {
      type: "msra"
    }
    bias_filler {
      type: "constant"
    }
  }
}
layer {
  name: "BatchNorm148"
  type: "BatchNorm"
  bottom: "Convolution148"
  top: "Convolution148"
  param {
    lr_mult: 0
    decay_mult: 0
  }
  param {
    lr_mult: 0
    decay_mult: 0
  }
  param {
    lr_mult: 0
    decay_mult: 0
  }
}
layer {
  name: "Scale148"
  type: "Scale"
  bottom: "Convolution148"
  top: "Convolution148"
  scale_param {
    bias_term: true
  }
}
layer {
  name: "ReLU148"
  type: "ReLU"
  bottom: "Convolution148"
  top: "Convolution148"
}
layer {
  name: "Convolution149"
  type: "Convolution"
  bottom: "Convolution148"
  top: "Convolution149"
  convolution_param {
    num_output: 16
    bias_term: true
    pad: 1
    kernel_size: 3
    stride: 1
    weight_filler {
      type: "msra"
    }
    bias_filler {
      type: "constant"
    }
  }
}
layer {
  name: "BatchNorm149"
  type: "BatchNorm"
  bottom: "Convolution149"
  top: "Convolution149"
  param {
    lr_mult: 0
    decay_mult: 0
  }
  param {
    lr_mult: 0
    decay_mult: 0
  }
  param {
    lr_mult: 0
    decay_mult: 0
  }
}
layer {
  name: "Scale149"
  type: "Scale"
  bottom: "Convolution149"
  top: "Convolution149"
  scale_param {
    bias_term: true
  }
}
layer {
  name: "Eltwise74"
  type: "Eltwise"
  bottom: "Eltwise73"
  bottom: "Convolution149"
  top: "Eltwise74"
  eltwise_param {
    operation: SUM
  }
}
layer {
  name: "ReLU149"
  type: "ReLU"
  bottom: "Eltwise74"
  top: "Eltwise74"
}
layer {
  name: "Convolution150"
  type: "Convolution"
  bottom: "Eltwise74"
  top: "Convolution150"
  convolution_param {
    num_output: 16
    bias_term: true
    pad: 1
    kernel_size: 3
    stride: 1
    weight_filler {
      type: "msra"
    }
    bias_filler {
      type: "constant"
    }
  }
}
layer {
  name: "BatchNorm150"
  type: "BatchNorm"
  bottom: "Convolution150"
  top: "Convolution150"
  param {
    lr_mult: 0
    decay_mult: 0
  }
  param {
    lr_mult: 0
    decay_mult: 0
  }
  param {
    lr_mult: 0
    decay_mult: 0
  }
}
layer {
  name: "Scale150"
  type: "Scale"
  bottom: "Convolution150"
  top: "Convolution150"
  scale_param {
    bias_term: true
  }
}
layer {
  name: "ReLU150"
  type: "ReLU"
  bottom: "Convolution150"
  top: "Convolution150"
}
layer {
  name: "Convolution151"
  type: "Convolution"
  bottom: "Convolution150"
  top: "Convolution151"
  convolution_param {
    num_output: 16
    bias_term: true
    pad: 1
    kernel_size: 3
    stride: 1
    weight_filler {
      type: "msra"
    }
    bias_filler {
      type: "constant"
    }
  }
}
layer {
  name: "BatchNorm151"
  type: "BatchNorm"
  bottom: "Convolution151"
  top: "Convolution151"
  param {
    lr_mult: 0
    decay_mult: 0
  }
  param {
    lr_mult: 0
    decay_mult: 0
  }
  param {
    lr_mult: 0
    decay_mult: 0
  }
}
layer {
  name: "Scale151"
  type: "Scale"
  bottom: "Convolution151"
  top: "Convolution151"
  scale_param {
    bias_term: true
  }
}
layer {
  name: "Eltwise75"
  type: "Eltwise"
  bottom: "Eltwise74"
  bottom: "Convolution151"
  top: "Eltwise75"
  eltwise_param {
    operation: SUM
  }
}
layer {
  name: "ReLU151"
  type: "ReLU"
  bottom: "Eltwise75"
  top: "Eltwise75"
}
layer {
  name: "Convolution152"
  type: "Convolution"
  bottom: "Eltwise75"
  top: "Convolution152"
  convolution_param {
    num_output: 16
    bias_term: true
    pad: 1
    kernel_size: 3
    stride: 1
    weight_filler {
      type: "msra"
    }
    bias_filler {
      type: "constant"
    }
  }
}
layer {
  name: "BatchNorm152"
  type: "BatchNorm"
  bottom: "Convolution152"
  top: "Convolution152"
  param {
    lr_mult: 0
    decay_mult: 0
  }
  param {
    lr_mult: 0
    decay_mult: 0
  }
  param {
    lr_mult: 0
    decay_mult: 0
  }
}
layer {
  name: "Scale152"
  type: "Scale"
  bottom: "Convolution152"
  top: "Convolution152"
  scale_param {
    bias_term: true
  }
}
layer {
  name: "ReLU152"
  type: "ReLU"
  bottom: "Convolution152"
  top: "Convolution152"
}
layer {
  name: "Convolution153"
  type: "Convolution"
  bottom: "Convolution152"
  top: "Convolution153"
  convolution_param {
    num_output: 16
    bias_term: true
    pad: 1
    kernel_size: 3
    stride: 1
    weight_filler {
      type: "msra"
    }
    bias_filler {
      type: "constant"
    }
  }
}
layer {
  name: "BatchNorm153"
  type: "BatchNorm"
  bottom: "Convolution153"
  top: "Convolution153"
  param {
    lr_mult: 0
    decay_mult: 0
  }
  param {
    lr_mult: 0
    decay_mult: 0
  }
  param {
    lr_mult: 0
    decay_mult: 0
  }
}
layer {
  name: "Scale153"
  type: "Scale"
  bottom: "Convolution153"
  top: "Convolution153"
  scale_param {
    bias_term: true
  }
}
layer {
  name: "Eltwise76"
  type: "Eltwise"
  bottom: "Eltwise75"
  bottom: "Convolution153"
  top: "Eltwise76"
  eltwise_param {
    operation: SUM
  }
}
layer {
  name: "ReLU153"
  type: "ReLU"
  bottom: "Eltwise76"
  top: "Eltwise76"
}
layer {
  name: "Convolution154"
  type: "Convolution"
  bottom: "Eltwise76"
  top: "Convolution154"
  convolution_param {
    num_output: 16
    bias_term: true
    pad: 1
    kernel_size: 3
    stride: 1
    weight_filler {
      type: "msra"
    }
    bias_filler {
      type: "constant"
    }
  }
}
layer {
  name: "BatchNorm154"
  type: "BatchNorm"
  bottom: "Convolution154"
  top: "Convolution154"
  param {
    lr_mult: 0
    decay_mult: 0
  }
  param {
    lr_mult: 0
    decay_mult: 0
  }
  param {
    lr_mult: 0
    decay_mult: 0
  }
}
layer {
  name: "Scale154"
  type: "Scale"
  bottom: "Convolution154"
  top: "Convolution154"
  scale_param {
    bias_term: true
  }
}
layer {
  name: "ReLU154"
  type: "ReLU"
  bottom: "Convolution154"
  top: "Convolution154"
}
layer {
  name: "Convolution155"
  type: "Convolution"
  bottom: "Convolution154"
  top: "Convolution155"
  convolution_param {
    num_output: 16
    bias_term: true
    pad: 1
    kernel_size: 3
    stride: 1
    weight_filler {
      type: "msra"
    }
    bias_filler {
      type: "constant"
    }
  }
}
layer {
  name: "BatchNorm155"
  type: "BatchNorm"
  bottom: "Convolution155"
  top: "Convolution155"
  param {
    lr_mult: 0
    decay_mult: 0
  }
  param {
    lr_mult: 0
    decay_mult: 0
  }
  param {
    lr_mult: 0
    decay_mult: 0
  }
}
layer {
  name: "Scale155"
  type: "Scale"
  bottom: "Convolution155"
  top: "Convolution155"
  scale_param {
    bias_term: true
  }
}
layer {
  name: "Eltwise77"
  type: "Eltwise"
  bottom: "Eltwise76"
  bottom: "Convolution155"
  top: "Eltwise77"
  eltwise_param {
    operation: SUM
  }
}
layer {
  name: "ReLU155"
  type: "ReLU"
  bottom: "Eltwise77"
  top: "Eltwise77"
}
layer {
  name: "Convolution156"
  type: "Convolution"
  bottom: "Eltwise77"
  top: "Convolution156"
  convolution_param {
    num_output: 16
    bias_term: true
    pad: 1
    kernel_size: 3
    stride: 1
    weight_filler {
      type: "msra"
    }
    bias_filler {
      type: "constant"
    }
  }
}
layer {
  name: "BatchNorm156"
  type: "BatchNorm"
  bottom: "Convolution156"
  top: "Convolution156"
  param {
    lr_mult: 0
    decay_mult: 0
  }
  param {
    lr_mult: 0
    decay_mult: 0
  }
  param {
    lr_mult: 0
    decay_mult: 0
  }
}
layer {
  name: "Scale156"
  type: "Scale"
  bottom: "Convolution156"
  top: "Convolution156"
  scale_param {
    bias_term: true
  }
}
layer {
  name: "ReLU156"
  type: "ReLU"
  bottom: "Convolution156"
  top: "Convolution156"
}
layer {
  name: "Convolution157"
  type: "Convolution"
  bottom: "Convolution156"
  top: "Convolution157"
  convolution_param {
    num_output: 16
    bias_term: true
    pad: 1
    kernel_size: 3
    stride: 1
    weight_filler {
      type: "msra"
    }
    bias_filler {
      type: "constant"
    }
  }
}
layer {
  name: "BatchNorm157"
  type: "BatchNorm"
  bottom: "Convolution157"
  top: "Convolution157"
  param {
    lr_mult: 0
    decay_mult: 0
  }
  param {
    lr_mult: 0
    decay_mult: 0
  }
  param {
    lr_mult: 0
    decay_mult: 0
  }
}
layer {
  name: "Scale157"
  type: "Scale"
  bottom: "Convolution157"
  top: "Convolution157"
  scale_param {
    bias_term: true
  }
}
layer {
  name: "Eltwise78"
  type: "Eltwise"
  bottom: "Eltwise77"
  bottom: "Convolution157"
  top: "Eltwise78"
  eltwise_param {
    operation: SUM
  }
}
layer {
  name: "ReLU157"
  type: "ReLU"
  bottom: "Eltwise78"
  top: "Eltwise78"
}
layer {
  name: "Convolution158"
  type: "Convolution"
  bottom: "Eltwise78"
  top: "Convolution158"
  convolution_param {
    num_output: 16
    bias_term: true
    pad: 1
    kernel_size: 3
    stride: 1
    weight_filler {
      type: "msra"
    }
    bias_filler {
      type: "constant"
    }
  }
}
layer {
  name: "BatchNorm158"
  type: "BatchNorm"
  bottom: "Convolution158"
  top: "Convolution158"
  param {
    lr_mult: 0
    decay_mult: 0
  }
  param {
    lr_mult: 0
    decay_mult: 0
  }
  param {
    lr_mult: 0
    decay_mult: 0
  }
}
layer {
  name: "Scale158"
  type: "Scale"
  bottom: "Convolution158"
  top: "Convolution158"
  scale_param {
    bias_term: true
  }
}
layer {
  name: "ReLU158"
  type: "ReLU"
  bottom: "Convolution158"
  top: "Convolution158"
}
layer {
  name: "Convolution159"
  type: "Convolution"
  bottom: "Convolution158"
  top: "Convolution159"
  convolution_param {
    num_output: 16
    bias_term: true
    pad: 1
    kernel_size: 3
    stride: 1
    weight_filler {
      type: "msra"
    }
    bias_filler {
      type: "constant"
    }
  }
}
layer {
  name: "BatchNorm159"
  type: "BatchNorm"
  bottom: "Convolution159"
  top: "Convolution159"
  param {
    lr_mult: 0
    decay_mult: 0
  }
  param {
    lr_mult: 0
    decay_mult: 0
  }
  param {
    lr_mult: 0
    decay_mult: 0
  }
}
layer {
  name: "Scale159"
  type: "Scale"
  bottom: "Convolution159"
  top: "Convolution159"
  scale_param {
    bias_term: true
  }
}
layer {
  name: "Eltwise79"
  type: "Eltwise"
  bottom: "Eltwise78"
  bottom: "Convolution159"
  top: "Eltwise79"
  eltwise_param {
    operation: SUM
  }
}
layer {
  name: "ReLU159"
  type: "ReLU"
  bottom: "Eltwise79"
  top: "Eltwise79"
}
layer {
  name: "Convolution160"
  type: "Convolution"
  bottom: "Eltwise79"
  top: "Convolution160"
  convolution_param {
    num_output: 16
    bias_term: true
    pad: 1
    kernel_size: 3
    stride: 1
    weight_filler {
      type: "msra"
    }
    bias_filler {
      type: "constant"
    }
  }
}
layer {
  name: "BatchNorm160"
  type: "BatchNorm"
  bottom: "Convolution160"
  top: "Convolution160"
  param {
    lr_mult: 0
    decay_mult: 0
  }
  param {
    lr_mult: 0
    decay_mult: 0
  }
  param {
    lr_mult: 0
    decay_mult: 0
  }
}
layer {
  name: "Scale160"
  type: "Scale"
  bottom: "Convolution160"
  top: "Convolution160"
  scale_param {
    bias_term: true
  }
}
layer {
  name: "ReLU160"
  type: "ReLU"
  bottom: "Convolution160"
  top: "Convolution160"
}
layer {
  name: "Convolution161"
  type: "Convolution"
  bottom: "Convolution160"
  top: "Convolution161"
  convolution_param {
    num_output: 16
    bias_term: true
    pad: 1
    kernel_size: 3
    stride: 1
    weight_filler {
      type: "msra"
    }
    bias_filler {
      type: "constant"
    }
  }
}
layer {
  name: "BatchNorm161"
  type: "BatchNorm"
  bottom: "Convolution161"
  top: "Convolution161"
  param {
    lr_mult: 0
    decay_mult: 0
  }
  param {
    lr_mult: 0
    decay_mult: 0
  }
  param {
    lr_mult: 0
    decay_mult: 0
  }
}
layer {
  name: "Scale161"
  type: "Scale"
  bottom: "Convolution161"
  top: "Convolution161"
  scale_param {
    bias_term: true
  }
}
layer {
  name: "Eltwise80"
  type: "Eltwise"
  bottom: "Eltwise79"
  bottom: "Convolution161"
  top: "Eltwise80"
  eltwise_param {
    operation: SUM
  }
}
layer {
  name: "ReLU161"
  type: "ReLU"
  bottom: "Eltwise80"
  top: "Eltwise80"
}
layer {
  name: "Convolution162"
  type: "Convolution"
  bottom: "Eltwise80"
  top: "Convolution162"
  convolution_param {
    num_output: 16
    bias_term: true
    pad: 1
    kernel_size: 3
    stride: 1
    weight_filler {
      type: "msra"
    }
    bias_filler {
      type: "constant"
    }
  }
}
layer {
  name: "BatchNorm162"
  type: "BatchNorm"
  bottom: "Convolution162"
  top: "Convolution162"
  param {
    lr_mult: 0
    decay_mult: 0
  }
  param {
    lr_mult: 0
    decay_mult: 0
  }
  param {
    lr_mult: 0
    decay_mult: 0
  }
}
layer {
  name: "Scale162"
  type: "Scale"
  bottom: "Convolution162"
  top: "Convolution162"
  scale_param {
    bias_term: true
  }
}
layer {
  name: "ReLU162"
  type: "ReLU"
  bottom: "Convolution162"
  top: "Convolution162"
}
layer {
  name: "Convolution163"
  type: "Convolution"
  bottom: "Convolution162"
  top: "Convolution163"
  convolution_param {
    num_output: 16
    bias_term: true
    pad: 1
    kernel_size: 3
    stride: 1
    weight_filler {
      type: "msra"
    }
    bias_filler {
      type: "constant"
    }
  }
}
layer {
  name: "BatchNorm163"
  type: "BatchNorm"
  bottom: "Convolution163"
  top: "Convolution163"
  param {
    lr_mult: 0
    decay_mult: 0
  }
  param {
    lr_mult: 0
    decay_mult: 0
  }
  param {
    lr_mult: 0
    decay_mult: 0
  }
}
layer {
  name: "Scale163"
  type: "Scale"
  bottom: "Convolution163"
  top: "Convolution163"
  scale_param {
    bias_term: true
  }
}
layer {
  name: "Eltwise81"
  type: "Eltwise"
  bottom: "Eltwise80"
  bottom: "Convolution163"
  top: "Eltwise81"
  eltwise_param {
    operation: SUM
  }
}
layer {
  name: "ReLU163"
  type: "ReLU"
  bottom: "Eltwise81"
  top: "Eltwise81"
}
layer {
  name: "Convolution164"
  type: "Convolution"
  bottom: "Eltwise81"
  top: "Convolution164"
  convolution_param {
    num_output: 16
    bias_term: true
    pad: 1
    kernel_size: 3
    stride: 1
    weight_filler {
      type: "msra"
    }
    bias_filler {
      type: "constant"
    }
  }
}
layer {
  name: "BatchNorm164"
  type: "BatchNorm"
  bottom: "Convolution164"
  top: "Convolution164"
  param {
    lr_mult: 0
    decay_mult: 0
  }
  param {
    lr_mult: 0
    decay_mult: 0
  }
  param {
    lr_mult: 0
    decay_mult: 0
  }
}
layer {
  name: "Scale164"
  type: "Scale"
  bottom: "Convolution164"
  top: "Convolution164"
  scale_param {
    bias_term: true
  }
}
layer {
  name: "ReLU164"
  type: "ReLU"
  bottom: "Convolution164"
  top: "Convolution164"
}
layer {
  name: "Convolution165"
  type: "Convolution"
  bottom: "Convolution164"
  top: "Convolution165"
  convolution_param {
    num_output: 16
    bias_term: true
    pad: 1
    kernel_size: 3
    stride: 1
    weight_filler {
      type: "msra"
    }
    bias_filler {
      type: "constant"
    }
  }
}
layer {
  name: "BatchNorm165"
  type: "BatchNorm"
  bottom: "Convolution165"
  top: "Convolution165"
  param {
    lr_mult: 0
    decay_mult: 0
  }
  param {
    lr_mult: 0
    decay_mult: 0
  }
  param {
    lr_mult: 0
    decay_mult: 0
  }
}
layer {
  name: "Scale165"
  type: "Scale"
  bottom: "Convolution165"
  top: "Convolution165"
  scale_param {
    bias_term: true
  }
}
layer {
  name: "Eltwise82"
  type: "Eltwise"
  bottom: "Eltwise81"
  bottom: "Convolution165"
  top: "Eltwise82"
  eltwise_param {
    operation: SUM
  }
}
layer {
  name: "ReLU165"
  type: "ReLU"
  bottom: "Eltwise82"
  top: "Eltwise82"
}
layer {
  name: "Convolution166"
  type: "Convolution"
  bottom: "Eltwise82"
  top: "Convolution166"
  convolution_param {
    num_output: 16
    bias_term: true
    pad: 1
    kernel_size: 3
    stride: 1
    weight_filler {
      type: "msra"
    }
    bias_filler {
      type: "constant"
    }
  }
}
layer {
  name: "BatchNorm166"
  type: "BatchNorm"
  bottom: "Convolution166"
  top: "Convolution166"
  param {
    lr_mult: 0
    decay_mult: 0
  }
  param {
    lr_mult: 0
    decay_mult: 0
  }
  param {
    lr_mult: 0
    decay_mult: 0
  }
}
layer {
  name: "Scale166"
  type: "Scale"
  bottom: "Convolution166"
  top: "Convolution166"
  scale_param {
    bias_term: true
  }
}
layer {
  name: "ReLU166"
  type: "ReLU"
  bottom: "Convolution166"
  top: "Convolution166"
}
layer {
  name: "Convolution167"
  type: "Convolution"
  bottom: "Convolution166"
  top: "Convolution167"
  convolution_param {
    num_output: 16
    bias_term: true
    pad: 1
    kernel_size: 3
    stride: 1
    weight_filler {
      type: "msra"
    }
    bias_filler {
      type: "constant"
    }
  }
}
layer {
  name: "BatchNorm167"
  type: "BatchNorm"
  bottom: "Convolution167"
  top: "Convolution167"
  param {
    lr_mult: 0
    decay_mult: 0
  }
  param {
    lr_mult: 0
    decay_mult: 0
  }
  param {
    lr_mult: 0
    decay_mult: 0
  }
}
layer {
  name: "Scale167"
  type: "Scale"
  bottom: "Convolution167"
  top: "Convolution167"
  scale_param {
    bias_term: true
  }
}
layer {
  name: "Eltwise83"
  type: "Eltwise"
  bottom: "Eltwise82"
  bottom: "Convolution167"
  top: "Eltwise83"
  eltwise_param {
    operation: SUM
  }
}
layer {
  name: "ReLU167"
  type: "ReLU"
  bottom: "Eltwise83"
  top: "Eltwise83"
}
layer {
  name: "Convolution168"
  type: "Convolution"
  bottom: "Eltwise83"
  top: "Convolution168"
  convolution_param {
    num_output: 16
    bias_term: true
    pad: 1
    kernel_size: 3
    stride: 1
    weight_filler {
      type: "msra"
    }
    bias_filler {
      type: "constant"
    }
  }
}
layer {
  name: "BatchNorm168"
  type: "BatchNorm"
  bottom: "Convolution168"
  top: "Convolution168"
  param {
    lr_mult: 0
    decay_mult: 0
  }
  param {
    lr_mult: 0
    decay_mult: 0
  }
  param {
    lr_mult: 0
    decay_mult: 0
  }
}
layer {
  name: "Scale168"
  type: "Scale"
  bottom: "Convolution168"
  top: "Convolution168"
  scale_param {
    bias_term: true
  }
}
layer {
  name: "ReLU168"
  type: "ReLU"
  bottom: "Convolution168"
  top: "Convolution168"
}
layer {
  name: "Convolution169"
  type: "Convolution"
  bottom: "Convolution168"
  top: "Convolution169"
  convolution_param {
    num_output: 16
    bias_term: true
    pad: 1
    kernel_size: 3
    stride: 1
    weight_filler {
      type: "msra"
    }
    bias_filler {
      type: "constant"
    }
  }
}
layer {
  name: "BatchNorm169"
  type: "BatchNorm"
  bottom: "Convolution169"
  top: "Convolution169"
  param {
    lr_mult: 0
    decay_mult: 0
  }
  param {
    lr_mult: 0
    decay_mult: 0
  }
  param {
    lr_mult: 0
    decay_mult: 0
  }
}
layer {
  name: "Scale169"
  type: "Scale"
  bottom: "Convolution169"
  top: "Convolution169"
  scale_param {
    bias_term: true
  }
}
layer {
  name: "Eltwise84"
  type: "Eltwise"
  bottom: "Eltwise83"
  bottom: "Convolution169"
  top: "Eltwise84"
  eltwise_param {
    operation: SUM
  }
}
layer {
  name: "ReLU169"
  type: "ReLU"
  bottom: "Eltwise84"
  top: "Eltwise84"
}
layer {
  name: "Convolution170"
  type: "Convolution"
  bottom: "Eltwise84"
  top: "Convolution170"
  convolution_param {
    num_output: 16
    bias_term: true
    pad: 1
    kernel_size: 3
    stride: 1
    weight_filler {
      type: "msra"
    }
    bias_filler {
      type: "constant"
    }
  }
}
layer {
  name: "BatchNorm170"
  type: "BatchNorm"
  bottom: "Convolution170"
  top: "Convolution170"
  param {
    lr_mult: 0
    decay_mult: 0
  }
  param {
    lr_mult: 0
    decay_mult: 0
  }
  param {
    lr_mult: 0
    decay_mult: 0
  }
}
layer {
  name: "Scale170"
  type: "Scale"
  bottom: "Convolution170"
  top: "Convolution170"
  scale_param {
    bias_term: true
  }
}
layer {
  name: "ReLU170"
  type: "ReLU"
  bottom: "Convolution170"
  top: "Convolution170"
}
layer {
  name: "Convolution171"
  type: "Convolution"
  bottom: "Convolution170"
  top: "Convolution171"
  convolution_param {
    num_output: 16
    bias_term: true
    pad: 1
    kernel_size: 3
    stride: 1
    weight_filler {
      type: "msra"
    }
    bias_filler {
      type: "constant"
    }
  }
}
layer {
  name: "BatchNorm171"
  type: "BatchNorm"
  bottom: "Convolution171"
  top: "Convolution171"
  param {
    lr_mult: 0
    decay_mult: 0
  }
  param {
    lr_mult: 0
    decay_mult: 0
  }
  param {
    lr_mult: 0
    decay_mult: 0
  }
}
layer {
  name: "Scale171"
  type: "Scale"
  bottom: "Convolution171"
  top: "Convolution171"
  scale_param {
    bias_term: true
  }
}
layer {
  name: "Eltwise85"
  type: "Eltwise"
  bottom: "Eltwise84"
  bottom: "Convolution171"
  top: "Eltwise85"
  eltwise_param {
    operation: SUM
  }
}
layer {
  name: "ReLU171"
  type: "ReLU"
  bottom: "Eltwise85"
  top: "Eltwise85"
}
layer {
  name: "Convolution172"
  type: "Convolution"
  bottom: "Eltwise85"
  top: "Convolution172"
  convolution_param {
    num_output: 16
    bias_term: true
    pad: 1
    kernel_size: 3
    stride: 1
    weight_filler {
      type: "msra"
    }
    bias_filler {
      type: "constant"
    }
  }
}
layer {
  name: "BatchNorm172"
  type: "BatchNorm"
  bottom: "Convolution172"
  top: "Convolution172"
  param {
    lr_mult: 0
    decay_mult: 0
  }
  param {
    lr_mult: 0
    decay_mult: 0
  }
  param {
    lr_mult: 0
    decay_mult: 0
  }
}
layer {
  name: "Scale172"
  type: "Scale"
  bottom: "Convolution172"
  top: "Convolution172"
  scale_param {
    bias_term: true
  }
}
layer {
  name: "ReLU172"
  type: "ReLU"
  bottom: "Convolution172"
  top: "Convolution172"
}
layer {
  name: "Convolution173"
  type: "Convolution"
  bottom: "Convolution172"
  top: "Convolution173"
  convolution_param {
    num_output: 16
    bias_term: true
    pad: 1
    kernel_size: 3
    stride: 1
    weight_filler {
      type: "msra"
    }
    bias_filler {
      type: "constant"
    }
  }
}
layer {
  name: "BatchNorm173"
  type: "BatchNorm"
  bottom: "Convolution173"
  top: "Convolution173"
  param {
    lr_mult: 0
    decay_mult: 0
  }
  param {
    lr_mult: 0
    decay_mult: 0
  }
  param {
    lr_mult: 0
    decay_mult: 0
  }
}
layer {
  name: "Scale173"
  type: "Scale"
  bottom: "Convolution173"
  top: "Convolution173"
  scale_param {
    bias_term: true
  }
}
layer {
  name: "Eltwise86"
  type: "Eltwise"
  bottom: "Eltwise85"
  bottom: "Convolution173"
  top: "Eltwise86"
  eltwise_param {
    operation: SUM
  }
}
layer {
  name: "ReLU173"
  type: "ReLU"
  bottom: "Eltwise86"
  top: "Eltwise86"
}
layer {
  name: "Convolution174"
  type: "Convolution"
  bottom: "Eltwise86"
  top: "Convolution174"
  convolution_param {
    num_output: 16
    bias_term: true
    pad: 1
    kernel_size: 3
    stride: 1
    weight_filler {
      type: "msra"
    }
    bias_filler {
      type: "constant"
    }
  }
}
layer {
  name: "BatchNorm174"
  type: "BatchNorm"
  bottom: "Convolution174"
  top: "Convolution174"
  param {
    lr_mult: 0
    decay_mult: 0
  }
  param {
    lr_mult: 0
    decay_mult: 0
  }
  param {
    lr_mult: 0
    decay_mult: 0
  }
}
layer {
  name: "Scale174"
  type: "Scale"
  bottom: "Convolution174"
  top: "Convolution174"
  scale_param {
    bias_term: true
  }
}
layer {
  name: "ReLU174"
  type: "ReLU"
  bottom: "Convolution174"
  top: "Convolution174"
}
layer {
  name: "Convolution175"
  type: "Convolution"
  bottom: "Convolution174"
  top: "Convolution175"
  convolution_param {
    num_output: 16
    bias_term: true
    pad: 1
    kernel_size: 3
    stride: 1
    weight_filler {
      type: "msra"
    }
    bias_filler {
      type: "constant"
    }
  }
}
layer {
  name: "BatchNorm175"
  type: "BatchNorm"
  bottom: "Convolution175"
  top: "Convolution175"
  param {
    lr_mult: 0
    decay_mult: 0
  }
  param {
    lr_mult: 0
    decay_mult: 0
  }
  param {
    lr_mult: 0
    decay_mult: 0
  }
}
layer {
  name: "Scale175"
  type: "Scale"
  bottom: "Convolution175"
  top: "Convolution175"
  scale_param {
    bias_term: true
  }
}
layer {
  name: "Eltwise87"
  type: "Eltwise"
  bottom: "Eltwise86"
  bottom: "Convolution175"
  top: "Eltwise87"
  eltwise_param {
    operation: SUM
  }
}
layer {
  name: "ReLU175"
  type: "ReLU"
  bottom: "Eltwise87"
  top: "Eltwise87"
}
layer {
  name: "Convolution176"
  type: "Convolution"
  bottom: "Eltwise87"
  top: "Convolution176"
  convolution_param {
    num_output: 16
    bias_term: true
    pad: 1
    kernel_size: 3
    stride: 1
    weight_filler {
      type: "msra"
    }
    bias_filler {
      type: "constant"
    }
  }
}
layer {
  name: "BatchNorm176"
  type: "BatchNorm"
  bottom: "Convolution176"
  top: "Convolution176"
  param {
    lr_mult: 0
    decay_mult: 0
  }
  param {
    lr_mult: 0
    decay_mult: 0
  }
  param {
    lr_mult: 0
    decay_mult: 0
  }
}
layer {
  name: "Scale176"
  type: "Scale"
  bottom: "Convolution176"
  top: "Convolution176"
  scale_param {
    bias_term: true
  }
}
layer {
  name: "ReLU176"
  type: "ReLU"
  bottom: "Convolution176"
  top: "Convolution176"
}
layer {
  name: "Convolution177"
  type: "Convolution"
  bottom: "Convolution176"
  top: "Convolution177"
  convolution_param {
    num_output: 16
    bias_term: true
    pad: 1
    kernel_size: 3
    stride: 1
    weight_filler {
      type: "msra"
    }
    bias_filler {
      type: "constant"
    }
  }
}
layer {
  name: "BatchNorm177"
  type: "BatchNorm"
  bottom: "Convolution177"
  top: "Convolution177"
  param {
    lr_mult: 0
    decay_mult: 0
  }
  param {
    lr_mult: 0
    decay_mult: 0
  }
  param {
    lr_mult: 0
    decay_mult: 0
  }
}
layer {
  name: "Scale177"
  type: "Scale"
  bottom: "Convolution177"
  top: "Convolution177"
…
  top: "Convolution1023"
  convolution_param {
    num_output: 64
    bias_term: true
    pad: 1
    kernel_size: 3
    stride: 1
    weight_filler {
      type: "msra"
    }
    bias_filler {
      type: "constant"
    }
  }
}
layer {
  name: "BatchNorm1023"
  type: "BatchNorm"
  bottom: "Convolution1023"
  top: "Convolution1023"
  param {
    lr_mult: 0
    decay_mult: 0
  }
  param {
    lr_mult: 0
    decay_mult: 0
  }
  param {
    lr_mult: 0
    decay_mult: 0
  }
}
layer {
  name: "Scale1023"
  type: "Scale"
  bottom: "Convolution1023"
  top: "Convolution1023"
  scale_param {
    bias_term: true
  }
}
layer {
  name: "Eltwise511"
  type: "Eltwise"
  bottom: "Eltwise510"
  bottom: "Convolution1023"
  top: "Eltwise511"
  eltwise_param {
    operation: SUM
  }
}
layer {
  name: "ReLU1023"
  type: "ReLU"
  bottom: "Eltwise511"
  top: "Eltwise511"
}
layer {
  name: "Convolution1024"
  type: "Convolution"
  bottom: "Eltwise511"
  top: "Convolution1024"
  convolution_param {
    num_output: 64
    bias_term: true
    pad: 1
    kernel_size: 3
    stride: 1
    weight_filler {
      type: "msra"
    }
    bias_filler {
      type: "constant"
    }
  }
}
layer {
  name: "BatchNorm1024"
  type: "BatchNorm"
  bottom: "Convolution1024"
  top: "Convolution1024"
  param {
    lr_mult: 0
    decay_mult: 0
  }
  param {
    lr_mult: 0
    decay_mult: 0
  }
  param {
    lr_mult: 0
    decay_mult: 0
  }
}
layer {
  name: "Scale1024"
  type: "Scale"
  bottom: "Convolution1024"
  top: "Convolution1024"
  scale_param {
    bias_term: true
  }
}
layer {
  name: "ReLU1024"
  type: "ReLU"
  bottom: "Convolution1024"
  top: "Convolution1024"
}
layer {
  name: "Convolution1025"
  type: "Convolution"
  bottom: "Convolution1024"
  top: "Convolution1025"
  convolution_param {
    num_output: 64
    bias_term: true
    pad: 1
    kernel_size: 3
    stride: 1
    weight_filler {
      type: "msra"
    }
    bias_filler {
      type: "constant"
    }
  }
}
layer {
  name: "BatchNorm1025"
  type: "BatchNorm"
  bottom: "Convolution1025"
  top: "Convolution1025"
  param {
    lr_mult: 0
    decay_mult: 0
  }
  param {
    lr_mult: 0
    decay_mult: 0
  }
  param {
    lr_mult: 0
    decay_mult: 0
  }
}
layer {
  name: "Scale1025"
  type: "Scale"
  bottom: "Convolution1025"
  top: "Convolution1025"
  scale_param {
    bias_term: true
  }
}
layer {
  name: "Eltwise512"
  type: "Eltwise"
  bottom: "Eltwise511"
  bottom: "Convolution1025"
  top: "Eltwise512"
  eltwise_param {
    operation: SUM
  }
}
layer {
  name: "ReLU1025"
  type: "ReLU"
  bottom: "Eltwise512"
  top: "Eltwise512"
}
layer {
  name: "Convolution1026"
  type: "Convolution"
  bottom: "Eltwise512"
  top: "Convolution1026"
  convolution_param {
    num_output: 64
    bias_term: true
    pad: 1
    kernel_size: 3
    stride: 1
    weight_filler {
      type: "msra"
    }
    bias_filler {
      type: "constant"
    }
  }
}
layer {
  name: "BatchNorm1026"
  type: "BatchNorm"
  bottom: "Convolution1026"
  top: "Convolution1026"
  param {
    lr_mult: 0
    decay_mult: 0
  }
  param {
    lr_mult: 0
    decay_mult: 0
  }
  param {
    lr_mult: 0
    decay_mult: 0
  }
}
layer {
  name: "Scale1026"
  type: "Scale"
  bottom: "Convolution1026"
  top: "Convolution1026"
  scale_param {
    bias_term: true
  }
}
layer {
  name: "ReLU1026"
  type: "ReLU"
  bottom: "Convolution1026"
  top: "Convolution1026"
}
layer {
  name: "Convolution1027"
  type: "Convolution"
  bottom: "Convolution1026"
  top: "Convolution1027"
  convolution_param {
    num_output: 64
    bias_term: true
    pad: 1
    kernel_size: 3
    stride: 1
    weight_filler {
      type: "msra"
    }
    bias_filler {
      type: "constant"
    }
  }
}
layer {
  name: "BatchNorm1027"
  type: "BatchNorm"
  bottom: "Convolution1027"
  top: "Convolution1027"
  param {
    lr_mult: 0
    decay_mult: 0
  }
  param {
    lr_mult: 0
    decay_mult: 0
  }
  param {
    lr_mult: 0
    decay_mult: 0
  }
}
layer {
  name: "Scale1027"
  type: "Scale"
  bottom: "Convolution1027"
  top: "Convolution1027"
  scale_param {
    bias_term: true
  }
}
layer {
  name: "Eltwise513"
  type: "Eltwise"
  bottom: "Eltwise512"
  bottom: "Convolution1027"
  top: "Eltwise513"
  eltwise_param {
    operation: SUM
  }
}
layer {
  name: "ReLU1027"
  type: "ReLU"
  bottom: "Eltwise513"
  top: "Eltwise513"
}
layer {
  name: "Convolution1028"
  type: "Convolution"
  bottom: "Eltwise513"
  top: "Convolution1028"
  convolution_param {
    num_output: 64
    bias_term: true
    pad: 1
    kernel_size: 3
    stride: 1
    weight_filler {
      type: "msra"
    }
    bias_filler {
      type: "constant"
    }
  }
}
layer {
  name: "BatchNorm1028"
  type: "BatchNorm"
  bottom: "Convolution1028"
  top: "Convolution1028"
  param {
    lr_mult: 0
    decay_mult: 0
  }
  param {
    lr_mult: 0
    decay_mult: 0
  }
  param {
    lr_mult: 0
    decay_mult: 0
  }
}
layer {
  name: "Scale1028"
  type: "Scale"
  bottom: "Convolution1028"
  top: "Convolution1028"
  scale_param {
    bias_term: true
  }
}
layer {
  name: "ReLU1028"
  type: "ReLU"
  bottom: "Convolution1028"
  top: "Convolution1028"
}
layer {
  name: "Convolution1029"
  type: "Convolution"
  bottom: "Convolution1028"
  top: "Convolution1029"
  convolution_param {
    num_output: 64
    bias_term: true
    pad: 1
    kernel_size: 3
    stride: 1
    weight_filler {
      type: "msra"
    }
    bias_filler {
      type: "constant"
    }
  }
}
layer {
  name: "BatchNorm1029"
  type: "BatchNorm"
  bottom: "Convolution1029"
  top: "Convolution1029"
  param {
    lr_mult: 0
    decay_mult: 0
  }
  param {
    lr_mult: 0
    decay_mult: 0
  }
  param {
    lr_mult: 0
    decay_mult: 0
  }
}
layer {
  name: "Scale1029"
  type: "Scale"
  bottom: "Convolution1029"
  top: "Convolution1029"
  scale_param {
    bias_term: true
  }
}
layer {
  name: "Eltwise514"
  type: "Eltwise"
  bottom: "Eltwise513"
  bottom: "Convolution1029"
  top: "Eltwise514"
  eltwise_param {
    operation: SUM
  }
}
layer {
  name: "ReLU1029"
  type: "ReLU"
  bottom: "Eltwise514"
  top: "Eltwise514"
}
layer {
  name: "Convolution1030"
  type: "Convolution"
  bottom: "Eltwise514"
  top: "Convolution1030"
  convolution_param {
    num_output: 64
    bias_term: true
    pad: 1
    kernel_size: 3
    stride: 1
    weight_filler {
      type: "msra"
    }
    bias_filler {
      type: "constant"
    }
  }
}
layer {
  name: "BatchNorm1030"
  type: "BatchNorm"
  bottom: "Convolution1030"
  top: "Convolution1030"
  param {
    lr_mult: 0
    decay_mult: 0
  }
  param {
    lr_mult: 0
    decay_mult: 0
  }
  param {
    lr_mult: 0
    decay_mult: 0
  }
}
layer {
  name: "Scale1030"
  type: "Scale"
  bottom: "Convolution1030"
  top: "Convolution1030"
  scale_param {
    bias_term: true
  }
}
layer {
  name: "ReLU1030"
  type: "ReLU"
  bottom: "Convolution1030"
  top: "Convolution1030"
}
layer {
  name: "Convolution1031"
  type: "Convolution"
  bottom: "Convolution1030"
  top: "Convolution1031"
  convolution_param {
    num_output: 64
    bias_term: true
    pad: 1
    kernel_size: 3
    stride: 1
    weight_filler {
      type: "msra"
    }
    bias_filler {
      type: "constant"
    }
  }
}
layer {
  name: "BatchNorm1031"
  type: "BatchNorm"
  bottom: "Convolution1031"
  top: "Convolution1031"
  param {
    lr_mult: 0
    decay_mult: 0
  }
  param {
    lr_mult: 0
    decay_mult: 0
  }
  param {
    lr_mult: 0
    decay_mult: 0
  }
}
layer {
  name: "Scale1031"
  type: "Scale"
  bottom: "Convolution1031"
  top: "Convolution1031"
  scale_param {
    bias_term: true
  }
}
layer {
  name: "Eltwise515"
  type: "Eltwise"
  bottom: "Eltwise514"
  bottom: "Convolution1031"
  top: "Eltwise515"
  eltwise_param {
    operation: SUM
  }
}
layer {
  name: "ReLU1031"
  type: "ReLU"
  bottom: "Eltwise515"
  top: "Eltwise515"
}
layer {
  name: "Convolution1032"
  type: "Convolution"
  bottom: "Eltwise515"
  top: "Convolution1032"
  convolution_param {
    num_output: 64
    bias_term: true
    pad: 1
    kernel_size: 3
    stride: 1
    weight_filler {
      type: "msra"
    }
    bias_filler {
      type: "constant"
    }
  }
}
layer {
  name: "BatchNorm1032"
  type: "BatchNorm"
  bottom: "Convolution1032"
  top: "Convolution1032"
  param {
    lr_mult: 0
    decay_mult: 0
  }
  param {
    lr_mult: 0
    decay_mult: 0
  }
  param {
    lr_mult: 0
    decay_mult: 0
  }
}
layer {
  name: "Scale1032"
  type: "Scale"
  bottom: "Convolution1032"
  top: "Convolution1032"
  scale_param {
    bias_term: true
  }
}
layer {
  name: "ReLU1032"
  type: "ReLU"
  bottom: "Convolution1032"
  top: "Convolution1032"
}
layer {
  name: "Convolution1033"
  type: "Convolution"
  bottom: "Convolution1032"
  top: "Convolution1033"
  convolution_param {
    num_output: 64
    bias_term: true
    pad: 1
    kernel_size: 3
    stride: 1
    weight_filler {
      type: "msra"
    }
    bias_filler {
      type: "constant"
    }
  }
}
layer {
  name: "BatchNorm1033"
  type: "BatchNorm"
  bottom: "Convolution1033"
  top: "Convolution1033"
  param {
    lr_mult: 0
    decay_mult: 0
  }
  param {
    lr_mult: 0
    decay_mult: 0
  }
  param {
    lr_mult: 0
    decay_mult: 0
  }
}
layer {
  name: "Scale1033"
  type: "Scale"
  bottom: "Convolution1033"
  top: "Convolution1033"
  scale_param {
    bias_term: true
  }
}
layer {
  name: "Eltwise516"
  type: "Eltwise"
  bottom: "Eltwise515"
  bottom: "Convolution1033"
  top: "Eltwise516"
  eltwise_param {
    operation: SUM
  }
}
layer {
  name: "ReLU1033"
  type: "ReLU"
  bottom: "Eltwise516"
  top: "Eltwise516"
}
layer {
  name: "Convolution1034"
  type: "Convolution"
  bottom: "Eltwise516"
  top: "Convolution1034"
  convolution_param {
    num_output: 64
    bias_term: true
    pad: 1
    kernel_size: 3
    stride: 1
    weight_filler {
      type: "msra"
    }
    bias_filler {
      type: "constant"
    }
  }
}
layer {
  name: "BatchNorm1034"
  type: "BatchNorm"
  bottom: "Convolution1034"
  top: "Convolution1034"
  param {
    lr_mult: 0
    decay_mult: 0
  }
  param {
    lr_mult: 0
    decay_mult: 0
  }
  param {
    lr_mult: 0
    decay_mult: 0
  }
}
layer {
  name: "Scale1034"
  type: "Scale"
  bottom: "Convolution1034"
  top: "Convolution1034"
  scale_param {
    bias_term: true
  }
}
layer {
  name: "ReLU1034"
  type: "ReLU"
  bottom: "Convolution1034"
  top: "Convolution1034"
}
layer {
  name: "Convolution1035"
  type: "Convolution"
  bottom: "Convolution1034"
  top: "Convolution1035"
  convolution_param {
    num_output: 64
    bias_term: true
    pad: 1
    kernel_size: 3
    stride: 1
    weight_filler {
      type: "msra"
    }
    bias_filler {
      type: "constant"
    }
  }
}
layer {
  name: "BatchNorm1035"
  type: "BatchNorm"
  bottom: "Convolution1035"
  top: "Convolution1035"
  param {
    lr_mult: 0
    decay_mult: 0
  }
  param {
    lr_mult: 0
    decay_mult: 0
  }
  param {
    lr_mult: 0
    decay_mult: 0
  }
}
layer {
  name: "Scale1035"
  type: "Scale"
  bottom: "Convolution1035"
  top: "Convolution1035"
  scale_param {
    bias_term: true
  }
}
layer {
  name: "Eltwise517"
  type: "Eltwise"
  bottom: "Eltwise516"
  bottom: "Convolution1035"
  top: "Eltwise517"
  eltwise_param {
    operation: SUM
  }
}
layer {
  name: "ReLU1035"
  type: "ReLU"
  bottom: "Eltwise517"
  top: "Eltwise517"
}
layer {
  name: "Convolution1036"
  type: "Convolution"
  bottom: "Eltwise517"
  top: "Convolution1036"
  convolution_param {
    num_output: 64
    bias_term: true
    pad: 1
    kernel_size: 3
    stride: 1
    weight_filler {
      type: "msra"
    }
    bias_filler {
      type: "constant"
    }
  }
}
layer {
  name: "BatchNorm1036"
  type: "BatchNorm"
  bottom: "Convolution1036"
  top: "Convolution1036"
  param {
    lr_mult: 0
    decay_mult: 0
  }
  param {
    lr_mult: 0
    decay_mult: 0
  }
  param {
    lr_mult: 0
    decay_mult: 0
  }
}
layer {
  name: "Scale1036"
  type: "Scale"
  bottom: "Convolution1036"
  top: "Convolution1036"
  scale_param {
    bias_term: true
  }
}
layer {
  name: "ReLU1036"
  type: "ReLU"
  bottom: "Convolution1036"
  top: "Convolution1036"
}
layer {
  name: "Convolution1037"
  type: "Convolution"
  bottom: "Convolution1036"
  top: "Convolution1037"
  convolution_param {
    num_output: 64
    bias_term: true
    pad: 1
    kernel_size: 3
    stride: 1
    weight_filler {
      type: "msra"
    }
    bias_filler {
      type: "constant"
    }
  }
}
layer {
  name: "BatchNorm1037"
  type: "BatchNorm"
  bottom: "Convolution1037"
  top: "Convolution1037"
  param {
    lr_mult: 0
    decay_mult: 0
  }
  param {
    lr_mult: 0
    decay_mult: 0
  }
  param {
    lr_mult: 0
    decay_mult: 0
  }
}
layer {
  name: "Scale1037"
  type: "Scale"
  bottom: "Convolution1037"
  top: "Convolution1037"
  scale_param {
    bias_term: true
  }
}
layer {
  name: "Eltwise518"
  type: "Eltwise"
  bottom: "Eltwise517"
  bottom: "Convolution1037"
  top: "Eltwise518"
  eltwise_param {
    operation: SUM
  }
}
layer {
  name: "ReLU1037"
  type: "ReLU"
  bottom: "Eltwise518"
  top: "Eltwise518"
}
layer {
  name: "Convolution1038"
  type: "Convolution"
  bottom: "Eltwise518"
  top: "Convolution1038"
  convolution_param {
    num_output: 64
    bias_term: true
    pad: 1
    kernel_size: 3
    stride: 1
    weight_filler {
      type: "msra"
    }
    bias_filler {
      type: "constant"
    }
  }
}
layer {
  name: "BatchNorm1038"
  type: "BatchNorm"
  bottom: "Convolution1038"
  top: "Convolution1038"
  param {
    lr_mult: 0
    decay_mult: 0
  }
  param {
    lr_mult: 0
    decay_mult: 0
  }
  param {
    lr_mult: 0
    decay_mult: 0
  }
}
layer {
  name: "Scale1038"
  type: "Scale"
  bottom: "Convolution1038"
  top: "Convolution1038"
  scale_param {
    bias_term: true
  }
}
layer {
  name: "ReLU1038"
  type: "ReLU"
  bottom: "Convolution1038"
  top: "Convolution1038"
}
layer {
  name: "Convolution1039"
  type: "Convolution"
  bottom: "Convolution1038"
  top: "Convolution1039"
  convolution_param {
    num_output: 64
    bias_term: true
    pad: 1
    kernel_size: 3
    stride: 1
    weight_filler {
      type: "msra"
    }
    bias_filler {
      type: "constant"
    }
  }
}
layer {
  name: "BatchNorm1039"
  type: "BatchNorm"
  bottom: "Convolution1039"
  top: "Convolution1039"
  param {
    lr_mult: 0
    decay_mult: 0
  }
  param {
    lr_mult: 0
    decay_mult: 0
  }
  param {
    lr_mult: 0
    decay_mult: 0
  }
}
layer {
  name: "Scale1039"
  type: "Scale"
  bottom: "Convolution1039"
  top: "Convolution1039"
  scale_param {
    bias_term: true
  }
}
layer {
  name: "Eltwise519"
  type: "Eltwise"
  bottom: "Eltwise518"
  bottom: "Convolution1039"
  top: "Eltwise519"
  eltwise_param {
    operation: SUM
  }
}
layer {
  name: "ReLU1039"
  type: "ReLU"
  bottom: "Eltwise519"
  top: "Eltwise519"
}
layer {
  name: "Convolution1040"
  type: "Convolution"
  bottom: "Eltwise519"
  top: "Convolution1040"
  convolution_param {
    num_output: 64
    bias_term: true
    pad: 1
    kernel_size: 3
    stride: 1
    weight_filler {
      type: "msra"
    }
    bias_filler {
      type: "constant"
    }
  }
}
layer {
  name: "BatchNorm1040"
  type: "BatchNorm"
  bottom: "Convolution1040"
  top: "Convolution1040"
  param {
    lr_mult: 0
    decay_mult: 0
  }
  param {
    lr_mult: 0
    decay_mult: 0
  }
  param {
    lr_mult: 0
    decay_mult: 0
  }
}
layer {
  name: "Scale1040"
  type: "Scale"
  bottom: "Convolution1040"
  top: "Convolution1040"
  scale_param {
    bias_term: true
  }
}
layer {
  name: "ReLU1040"
  type: "ReLU"
  bottom: "Convolution1040"
  top: "Convolution1040"
}
layer {
  name: "Convolution1041"
  type: "Convolution"
  bottom: "Convolution1040"
  top: "Convolution1041"
  convolution_param {
    num_output: 64
    bias_term: true
    pad: 1
    kernel_size: 3
    stride: 1
    weight_filler {
      type: "msra"
    }
    bias_filler {
      type: "constant"
    }
  }
}
layer {
  name: "BatchNorm1041"
  type: "BatchNorm"
  bottom: "Convolution1041"
  top: "Convolution1041"
  param {
    lr_mult: 0
    decay_mult: 0
  }
  param {
    lr_mult: 0
    decay_mult: 0
  }
  param {
    lr_mult: 0
    decay_mult: 0
  }
}
layer {
  name: "Scale1041"
  type: "Scale"
  bottom: "Convolution1041"
  top: "Convolution1041"
  scale_param {
    bias_term: true
  }
}
layer {
  name: "Eltwise520"
  type: "Eltwise"
  bottom: "Eltwise519"
  bottom: "Convolution1041"
  top: "Eltwise520"
  eltwise_param {
    operation: SUM
  }
}
layer {
  name: "ReLU1041"
  type: "ReLU"
  bottom: "Eltwise520"
  top: "Eltwise520"
}
layer {
  name: "Convolution1042"
  type: "Convolution"
  bottom: "Eltwise520"
  top: "Convolution1042"
  convolution_param {
    num_output: 64
    bias_term: true
    pad: 1
    kernel_size: 3
    stride: 1
    weight_filler {
      type: "msra"
    }
    bias_filler {
      type: "constant"
    }
  }
}
layer {
  name: "BatchNorm1042"
  type: "BatchNorm"
  bottom: "Convolution1042"
  top: "Convolution1042"
  param {
    lr_mult: 0
    decay_mult: 0
  }
  param {
    lr_mult: 0
    decay_mult: 0
  }
  param {
    lr_mult: 0
    decay_mult: 0
  }
}
layer {
  name: "Scale1042"
  type: "Scale"
  bottom: "Convolution1042"
  top: "Convolution1042"
  scale_param {
    bias_term: true
  }
}
layer {
  name: "ReLU1042"
  type: "ReLU"
  bottom: "Convolution1042"
  top: "Convolution1042"
}
layer {
  name: "Convolution1043"
  type: "Convolution"
  bottom: "Convolution1042"
  top: "Convolution1043"
  convolution_param {
    num_output: 64
    bias_term: true
    pad: 1
    kernel_size: 3
    stride: 1
    weight_filler {
      type: "msra"
    }
    bias_filler {
      type: "constant"
    }
  }
}
layer {
  name: "BatchNorm1043"
  type: "BatchNorm"
  bottom: "Convolution1043"
  top: "Convolution1043"
  param {
    lr_mult: 0
    decay_mult: 0
  }
  param {
    lr_mult: 0
    decay_mult: 0
  }
  param {
    lr_mult: 0
    decay_mult: 0
  }
}
layer {
  name: "Scale1043"
  type: "Scale"
  bottom: "Convolution1043"
  top: "Convolution1043"
  scale_param {
    bias_term: true
  }
}
layer {
  name: "Eltwise521"
  type: "Eltwise"
  bottom: "Eltwise520"
  bottom: "Convolution1043"
  top: "Eltwise521"
  eltwise_param {
    operation: SUM
  }
}
layer {
  name: "ReLU1043"
  type: "ReLU"
  bottom: "Eltwise521"
  top: "Eltwise521"
}
layer {
  name: "Convolution1044"
  type: "Convolution"
  bottom: "Eltwise521"
  top: "Convolution1044"
  convolution_param {
    num_output: 64
    bias_term: true
    pad: 1
    kernel_size: 3
    stride: 1
    weight_filler {
      type: "msra"
    }
    bias_filler {
      type: "constant"
    }
  }
}
layer {
  name: "BatchNorm1044"
  type: "BatchNorm"
  bottom: "Convolution1044"
  top: "Convolution1044"
  param {
    lr_mult: 0
    decay_mult: 0
  }
  param {
    lr_mult: 0
    decay_mult: 0
  }
  param {
    lr_mult: 0
    decay_mult: 0
  }
}
layer {
  name: "Scale1044"
  type: "Scale"
  bottom: "Convolution1044"
  top: "Convolution1044"
  scale_param {
    bias_term: true
  }
}
layer {
  name: "ReLU1044"
  type: "ReLU"
  bottom: "Convolution1044"
  top: "Convolution1044"
}
layer {
  name: "Convolution1045"
  type: "Convolution"
  bottom: "Convolution1044"
  top: "Convolution1045"
  convolution_param {
    num_output: 64
    bias_term: true
    pad: 1
    kernel_size: 3
    stride: 1
    weight_filler {
      type: "msra"
    }
    bias_filler {
      type: "constant"
    }
  }
}
layer {
  name: "BatchNorm1045"
  type: "BatchNorm"
  bottom: "Convolution1045"
  top: "Convolution1045"
  param {
    lr_mult: 0
    decay_mult: 0
  }
  param {
    lr_mult: 0
    decay_mult: 0
  }
  param {
    lr_mult: 0
    decay_mult: 0
  }
}
layer {
  name: "Scale1045"
  type: "Scale"
  bottom: "Convolution1045"
  top: "Convolution1045"
  scale_param {
    bias_term: true
  }
}
layer {
  name: "Eltwise522"
  type: "Eltwise"
  bottom: "Eltwise521"
  bottom: "Convolution1045"
  top: "Eltwise522"
  eltwise_param {
    operation: SUM
  }
}
layer {
  name: "ReLU1045"
  type: "ReLU"
  bottom: "Eltwise522"
  top: "Eltwise522"
}
layer {
  name: "Convolution1046"
  type: "Convolution"
  bottom: "Eltwise522"
  top: "Convolution1046"
  convolution_param {
    num_output: 64
    bias_term: true
    pad: 1
    kernel_size: 3
    stride: 1
    weight_filler {
      type: "msra"
    }
    bias_filler {
      type: "constant"
    }
  }
}
layer {
  name: "BatchNorm1046"
  type: "BatchNorm"
  bottom: "Convolution1046"
  top: "Convolution1046"
  param {
    lr_mult: 0
    decay_mult: 0
  }
  param {
    lr_mult: 0
    decay_mult: 0
  }
  param {
    lr_mult: 0
    decay_mult: 0
  }
}
layer {
  name: "Scale1046"
  type: "Scale"
  bottom: "Convolution1046"
  top: "Convolution1046"
  scale_param {
    bias_term: true
  }
}
layer {
  name: "ReLU1046"
  type: "ReLU"
  bottom: "Convolution1046"
  top: "Convolution1046"
}
layer {
  name: "Convolution1047"
  type: "Convolution"
  bottom: "Convolution1046"
  top: "Convolution1047"
  convolution_param {
    num_output: 64
    bias_term: true
    pad: 1
    kernel_size: 3
    stride: 1
    weight_filler {
      type: "msra"
    }
    bias_filler {
      type: "constant"
    }
  }
}
layer {
  name: "BatchNorm1047"
  type: "BatchNorm"
  bottom: "Convolution1047"
  top: "Convolution1047"
  param {
    lr_mult: 0
    decay_mult: 0
  }
  param {
    lr_mult: 0
    decay_mult: 0
  }
  param {
    lr_mult: 0
    decay_mult: 0
  }
}
layer {
  name: "Scale1047"
  type: "Scale"
  bottom: "Convolution1047"
  top: "Convolution1047"
  scale_param {
    bias_term: true
  }
}
layer {
  name: "Eltwise523"
  type: "Eltwise"
  bottom: "Eltwise522"
  bottom: "Convolution1047"
  top: "Eltwise523"
  eltwise_param {
    operation: SUM
  }
}
layer {
  name: "ReLU1047"
  type: "ReLU"
  bottom: "Eltwise523"
  top: "Eltwise523"
}
layer {
  name: "Convolution1048"
  type: "Convolution"
  bottom: "Eltwise523"
  top: "Convolution1048"
  convolution_param {
    num_output: 64
    bias_term: true
    pad: 1
    kernel_size: 3
    stride: 1
    weight_filler {
      type: "msra"
    }
    bias_filler {
      type: "constant"
    }
  }
}
layer {
  name: "BatchNorm1048"
  type: "BatchNorm"
  bottom: "Convolution1048"
  top: "Convolution1048"
  param {
    lr_mult: 0
    decay_mult: 0
  }
  param {
    lr_mult: 0
    decay_mult: 0
  }
  param {
    lr_mult: 0
    decay_mult: 0
  }
}
layer {
  name: "Scale1048"
  type: "Scale"
  bottom: "Convolution1048"
  top: "Convolution1048"
  scale_param {
    bias_term: true
  }
}
layer {
  name: "ReLU1048"
  type: "ReLU"
  bottom: "Convolution1048"
  top: "Convolution1048"
}
layer {
  name: "Convolution1049"
  type: "Convolution"
  bottom: "Convolution1048"
  top: "Convolution1049"
  convolution_param {
    num_output: 64
    bias_term: true
    pad: 1
    kernel_size: 3
    stride: 1
    weight_filler {
      type: "msra"
    }
    bias_filler {
      type: "constant"
    }
  }
}
layer {
  name: "BatchNorm1049"
  type: "BatchNorm"
  bottom: "Convolution1049"
  top: "Convolution1049"
  param {
    lr_mult: 0
    decay_mult: 0
  }
  param {
    lr_mult: 0
    decay_mult: 0
  }
  param {
    lr_mult: 0
    decay_mult: 0
  }
}
layer {
  name: "Scale1049"
  type: "Scale"
  bottom: "Convolution1049"
  top: "Convolution1049"
  scale_param {
    bias_term: true
  }
}
layer {
  name: "Eltwise524"
  type: "Eltwise"
  bottom: "Eltwise523"
  bottom: "Convolution1049"
  top: "Eltwise524"
  eltwise_param {
    operation: SUM
  }
}
layer {
  name: "ReLU1049"
  type: "ReLU"
  bottom: "Eltwise524"
  top: "Eltwise524"
}
layer {
  name: "Convolution1050"
  type: "Convolution"
  bottom: "Eltwise524"
  top: "Convolution1050"
  convolution_param {
    num_output: 64
    bias_term: true
    pad: 1
    kernel_size: 3
    stride: 1
    weight_filler {
      type: "msra"
    }
    bias_filler {
      type: "constant"
    }
  }
}
layer {
  name: "BatchNorm1050"
  type: "BatchNorm"
  bottom: "Convolution1050"
  top: "Convolution1050"
  param {
    lr_mult: 0
    decay_mult: 0
  }
  param {
    lr_mult: 0
    decay_mult: 0
  }
  param {
    lr_mult: 0
    decay_mult: 0
  }
}
layer {
  name: "Scale1050"
  type: "Scale"
  bottom: "Convolution1050"
  top: "Convolution1050"
  scale_param {
    bias_term: true
  }
}
layer {
  name: "ReLU1050"
  type: "ReLU"
  bottom: "Convolution1050"
  top: "Convolution1050"
}
layer {
  name: "Convolution1051"
  type: "Convolution"
  bottom: "Convolution1050"
  top: "Convolution1051"
  convolution_param {
    num_output: 64
    bias_term: true
    pad: 1
    kernel_size: 3
    stride: 1
    weight_filler {
      type: "msra"
    }
    bias_filler {
      type: "constant"
    }
  }
}
layer {
  name: "BatchNorm1051"
  type: "BatchNorm"
  bottom: "Convolution1051"
  top: "Convolution1051"
  param {
    lr_mult: 0
    decay_mult: 0
  }
  param {
    lr_mult: 0
    decay_mult: 0
  }
  param {
    lr_mult: 0
    decay_mult: 0
  }
}
layer {
  name: "Scale1051"
  type: "Scale"
  bottom: "Convolution1051"
  top: "Convolution1051"
  scale_param {
    bias_term: true
  }
}
layer {
  name: "Eltwise525"
  type: "Eltwise"
  bottom: "Eltwise524"
  bottom: "Convolution1051"
  top: "Eltwise525"
  eltwise_param {
    operation: SUM
  }
}
layer {
  name: "ReLU1051"
  type: "ReLU"
  bottom: "Eltwise525"
  top: "Eltwise525"
}
layer {
  name: "Convolution1052"
  type: "Convolution"
  bottom: "Eltwise525"
  top: "Convolution1052"
  convolution_param {
    num_output: 64
    bias_term: true
    pad: 1
    kernel_size: 3
    stride: 1
    weight_filler {
      type: "msra"
    }
    bias_filler {
      type: "constant"
    }
  }
}
layer {
  name: "BatchNorm1052"
  type: "BatchNorm"
  bottom: "Convolution1052"
  top: "Convolution1052"
  param {
    lr_mult: 0
    decay_mult: 0
  }
  param {
    lr_mult: 0
    decay_mult: 0
  }
  param {
    lr_mult: 0
    decay_mult: 0
  }
}
layer {
  name: "Scale1052"
  type: "Scale"
  bottom: "Convolution1052"
  top: "Convolution1052"
  scale_param {
    bias_term: true
  }
}
layer {
  name: "ReLU1052"
  type: "ReLU"
  bottom: "Convolution1052"
  top: "Convolution1052"
}
layer {
  name: "Convolution1053"
  type: "Convolution"
  bottom: "Convolution1052"
  top: "Convolution1053"
  convolution_param {
    num_output: 64
    bias_term: true
    pad: 1
    kernel_size: 3
    stride: 1
    weight_filler {
      type: "msra"
    }
    bias_filler {
      type: "constant"
    }
  }
}
layer {
  name: "BatchNorm1053"
  type: "BatchNorm"
  bottom: "Convolution1053"
  top: "Convolution1053"
  param {
    lr_mult: 0
    decay_mult: 0
  }
  param {
    lr_mult: 0
    decay_mult: 0
  }
  param {
    lr_mult: 0
    decay_mult: 0
  }
}
layer {
  name: "Scale1053"
  type: "Scale"
  bottom: "Convolution1053"
  top: "Convolution1053"
  scale_param {
    bias_term: true
  }
}
layer {
  name: "Eltwise526"
  type: "Eltwise"
  bottom: "Eltwise525"
  bottom: "Convolution1053"
  top: "Eltwise526"
  eltwise_param {
    operation: SUM
  }
}
layer {
  name: "ReLU1053"
  type: "ReLU"
  bottom: "Eltwise526"
  top: "Eltwise526"
}
layer {
  name: "Convolution1054"
  type: "Convolution"
  bottom: "Eltwise526"
  top: "Convolution1054"
  convolution_param {
    num_output: 64
    bias_term: true
    pad: 1
    kernel_size: 3
    stride: 1
    weight_filler {
      type: "msra"
    }
    bias_filler {
      type: "constant"
    }
  }
}
layer {
  name: "BatchNorm1054"
  type: "BatchNorm"
  bottom: "Convolution1054"
  top: "Convolution1054"
  param {
    lr_mult: 0
    decay_mult: 0
  }
  param {
    lr_mult: 0
    decay_mult: 0
  }
  param {
    lr_mult: 0
    decay_mult: 0
  }
}
layer {
  name: "Scale1054"
  type: "Scale"
  bottom: "Convolution1054"
  top: "Convolution1054"
  scale_param {
    bias_term: true
  }
}
layer {
  name: "ReLU1054"
  type: "ReLU"
  bottom: "Convolution1054"
  top: "Convolution1054"
}
layer {
  name: "Convolution1055"
  type: "Convolution"
  bottom: "Convolution1054"
  top: "Convolution1055"
  convolution_param {
    num_output: 64
    bias_term: true
    pad: 1
    kernel_size: 3
    stride: 1
    weight_filler {
      type: "msra"
    }
    bias_filler {
      type: "constant"
    }
  }
}
layer {
  name: "BatchNorm1055"
  type: "BatchNorm"
  bottom: "Convolution1055"
  top: "Convolution1055"
  param {
    lr_mult: 0
    decay_mult: 0
  }
  param {
    lr_mult: 0
    decay_mult: 0
  }
  param {
    lr_mult: 0
    decay_mult: 0
  }
}
layer {
  name: "Scale1055"
  type: "Scale"
  bottom: "Convolution1055"
  top: "Convolution1055"
  scale_param {
    bias_term: true
  }
}
layer {
  name: "Eltwise527"
  type: "Eltwise"
  bottom: "Eltwise526"
  bottom: "Convolution1055"
  top: "Eltwise527"
  eltwise_param {
    operation: SUM
  }
}
layer {
  name: "ReLU1055"
  type: "ReLU"
  bottom: "Eltwise527"
  top: "Eltwise527"
}
layer {
  name: "Convolution1056"
  type: "Convolution"
  bottom: "Eltwise527"
  top: "Convolution1056"
  convolution_param {
    num_output: 64
    bias_term: true
    pad: 1
    kernel_size: 3
    stride: 1
    weight_filler {
      type: "msra"
    }
    bias_filler {
      type: "constant"
    }
  }
}
layer {
  name: "BatchNorm1056"
  type: "BatchNorm"
  bottom: "Convolution1056"
  top: "Convolution1056"
  param {
    lr_mult: 0
    decay_mult: 0
  }
  param {
    lr_mult: 0
    decay_mult: 0
  }
  param {
    lr_mult: 0
    decay_mult: 0
  }
}
layer {
  name: "Scale1056"
  type: "Scale"
  bottom: "Convolution1056"
  top: "Convolution1056"
  scale_param {
    bias_term: true
  }
}
layer {
  name: "ReLU1056"
  type: "ReLU"
  bottom: "Convolution1056"
  top: "Convolution1056"
}
layer {
  name: "Convolution1057"
  type: "Convolution"
  bottom: "Convolution1056"
  top: "Convolution1057"
  convolution_param {
    num_output: 64
    bias_term: true
    pad: 1
    kernel_size: 3
    stride: 1
    weight_filler {
      type: "msra"
    }
    bias_filler {
      type: "constant"
    }
  }
}
layer {
  name: "BatchNorm1057"
  type: "BatchNorm"
  bottom: "Convolution1057"
  top: "Convolution1057"
  param {
    lr_mult: 0
    decay_mult: 0
  }
  param {
    lr_mult: 0
    decay_mult: 0
  }
  param {
    lr_mult: 0
    decay_mult: 0
  }
}
layer {
  name: "Scale1057"
  type: "Scale"
  bottom: "Convolution1057"
  top: "Convolution1057"
  scale_param {
    bias_term: true
  }
}
layer {
  name: "Eltwise528"
  type: "Eltwise"
  bottom: "Eltwise527"
  bottom: "Convolution1057"
  top: "Eltwise528"
  eltwise_param {
    operation: SUM
  }
}
layer {
  name: "ReLU1057"
  type: "ReLU"
  bottom: "Eltwise528"
  top: "Eltwise528"
}
layer {
  name: "Convolution1058"
  type: "Convolution"
  bottom: "Eltwise528"
  top: "Convolution1058"
  convolution_param {
    num_output: 64
    bias_term: true
    pad: 1
    kernel_size: 3
    stride: 1
    weight_filler {
      type: "msra"
    }
    bias_filler {
      type: "constant"
    }
  }
}
layer {
  name: "BatchNorm1058"
  type: "BatchNorm"
  bottom: "Convolution1058"
  top: "Convolution1058"
  param {
    lr_mult: 0
    decay_mult: 0
  }
  param {
    lr_mult: 0
    decay_mult: 0
  }
  param {
    lr_mult: 0
    decay_mult: 0
  }
}
layer {
  name: "Scale1058"
  type: "Scale"
  bottom: "Convolution1058"
  top: "Convolution1058"
  scale_param {
    bias_term: true
  }
}
layer {
  name: "ReLU1058"
  type: "ReLU"
  bottom: "Convolution1058"
  top: "Convolution1058"
}
layer {
  name: "Convolution1059"
  type: "Convolution"
  bottom: "Convolution1058"
  top: "Convolution1059"
  convolution_param {
    num_output: 64
    bias_term: true
    pad: 1
    kernel_size: 3
    stride: 1
    weight_filler {
      type: "msra"
    }
    bias_filler {
      type: "constant"
    }
  }
}
layer {
  name: "BatchNorm1059"
  type: "BatchNorm"
  bottom: "Convolution1059"
  top: "Convolution1059"
  param {
    lr_mult: 0
    decay_mult: 0
  }
  param {
    lr_mult: 0
    decay_mult: 0
  }
  param {
    lr_mult: 0
    decay_mult: 0
  }
}
layer {
  name: "Scale1059"
  type: "Scale"
  bottom: "Convolution1059"
  top: "Convolution1059"
  scale_param {
    bias_term: true
  }
}
layer {
  name: "Eltwise529"
  type: "Eltwise"
  bottom: "Eltwise528"
  bottom: "Convolution1059"
  top: "Eltwise529"
  eltwise_param {
    operation: SUM
  }
}
layer {
  name: "ReLU1059"
  type: "ReLU"
  bottom: "Eltwise529"
  top: "Eltwise529"
}
layer {
  name: "Convolution1060"
  type: "Convolution"
  bottom: "Eltwise529"
  top: "Convolution1060"
  convolution_param {
    num_output: 64
    bias_term: true
    pad: 1
    kernel_size: 3
    stride: 1
    weight_filler {
      type: "msra"
    }
    bias_filler {
      type: "constant"
    }
  }
}
layer {
  name: "BatchNorm1060"
  type: "BatchNorm"
  bottom: "Convolution1060"
  top: "Convolution1060"
  param {
    lr_mult: 0
    decay_mult: 0
  }
  param {
    lr_mult: 0
    decay_mult: 0
  }
  param {
    lr_mult: 0
    decay_mult: 0
  }
}
layer {
  name: "Scale1060"
  type: "Scale"
  bottom: "Convolution1060"
  top: "Convolution1060"
  scale_param {
    bias_term: true
  }
}
layer {
  name: "ReLU1060"
  type: "ReLU"
  bottom: "Convolution1060"
  top: "Convolution1060"
}
layer {
  name: "Convolution1061"
  type: "Convolution"
  bottom: "Convolution1060"
  top: "Convolution1061"
  convolution_param {
    num_output: 64
    bias_term: true
    pad: 1
    kernel_size: 3
    stride: 1
    weight_filler {
      type: "msra"
    }
    bias_filler {
      type: "constant"
    }
  }
}
layer {
  name: "BatchNorm1061"
  type: "BatchNorm"
  bottom: "Convolution1061"
  top: "Convolution1061"
  param {
    lr_mult: 0
    decay_mult: 0
  }
  param {
    lr_mult: 0
    decay_mult: 0
  }
  param {
    lr_mult: 0
    decay_mult: 0
  }
}
layer {
  name: "Scale1061"
  type: "Scale"
  bottom: "Convolution1061"
  top: "Convolution1061"
  scale_param {
    bias_term: true
  }
}
layer {
  name: "Eltwise530"
  type: "Eltwise"
  bottom: "Eltwise529"
  bottom: "Convolution1061"
  top: "Eltwise530"
  eltwise_param {
    operation: SUM
  }
}
layer {
  name: "ReLU1061"
  type: "ReLU"
  bottom: "Eltwise530"
  top: "Eltwise530"
}
layer {
  name: "Convolution1062"
  type: "Convolution"
  bottom: "Eltwise530"
  top: "Convolution1062"
  convolution_param {
    num_output: 64
    bias_term: true
    pad: 1
    kernel_size: 3
    stride: 1
    weight_filler {
      type: "msra"
    }
    bias_filler {
      type: "constant"
    }
  }
}
layer {
  name: "BatchNorm1062"
  type: "BatchNorm"
  bottom: "Convolution1062"
  top: "Convolution1062"
  param {
    lr_mult: 0
    decay_mult: 0
  }
  param {
    lr_mult: 0
    decay_mult: 0
  }
  param {
    lr_mult: 0
    decay_mult: 0
  }
}
layer {
  name: "Scale1062"
  type: "Scale"
  bottom: "Convolution1062"
  top: "Convolution1062"
  scale_param {
    bias_term: true
  }
}
layer {
  name: "ReLU1062"
  type: "ReLU"
  bottom: "Convolution1062"
  top: "Convolution1062"
}
layer {
  name: "Convolution1063"
  type: "Convolution"
  bottom: "Convolution1062"
  top: "Convolution1063"
  convolution_param {
    num_output: 64
    bias_term: true
    pad: 1
    kernel_size: 3
    stride: 1
    weight_filler {
      type: "msra"
    }
    bias_filler {
      type: "constant"
    }
  }
}
layer {
  name: "BatchNorm1063"
  type: "BatchNorm"
  bottom: "Convolution1063"
  top: "Convolution1063"
  param {
    lr_mult: 0
    decay_mult: 0
  }
  param {
    lr_mult: 0
    decay_mult: 0
  }
  param {
    lr_mult: 0
    decay_mult: 0
  }
}
layer {
  name: "Scale1063"
  type: "Scale"
  bottom: "Convolution1063"
  top: "Convolution1063"
  scale_param {
    bias_term: true
  }
}
layer {
  name: "Eltwise531"
  type: "Eltwise"
  bottom: "Eltwise530"
  bottom: "Convolution1063"
  top: "Eltwise531"
  eltwise_param {
    operation: SUM
  }
}
layer {
  name: "ReLU1063"
  type: "ReLU"
  bottom: "Eltwise531"
  top: "Eltwise531"
}
layer {
  name: "Convolution1064"
  type: "Convolution"
  bottom: "Eltwise531"
  top: "Convolution1064"
  convolution_param {
    num_output: 64
    bias_term: true
    pad: 1
    kernel_size: 3
    stride: 1
    weight_filler {
      type: "msra"
    }
    bias_filler {
      type: "constant"
    }
  }
}
layer {
  name: "BatchNorm1064"
  type: "BatchNorm"
  bottom: "Convolution1064"
  top: "Convolution1064"
  param {
    lr_mult: 0
    decay_mult: 0
  }
  param {
    lr_mult: 0
    decay_mult: 0
  }
  param {
    lr_mult: 0
    decay_mult: 0
  }
}
layer {
  name: "Scale1064"
  type: "Scale"
  bottom: "Convolution1064"
  top: "Convolution1064"
  scale_param {
    bias_term: true
  }
}
layer {
  name: "ReLU1064"
  type: "ReLU"
  bottom: "Convolution1064"
  top: "Convolution1064"
}
layer {
  name: "Convolution1065"
  type: "Convolution"
  bottom: "Convolution1064"
  top: "Convolution1065"
  convolution_param {
    num_output: 64
    bias_term: true
    pad: 1
    kernel_size: 3
    stride: 1
    weight_filler {
      type: "msra"
    }
    bias_filler {
      type: "constant"
    }
  }
}
layer {
  name: "BatchNorm1065"
  type: "BatchNorm"
  bottom: "Convolution1065"
  top: "Convolution1065"
  param {
    lr_mult: 0
    decay_mult: 0
  }
  param {
    lr_mult: 0
    decay_mult: 0
  }
  param {
    lr_mult: 0
    decay_mult: 0
  }
}
layer {
  name: "Scale1065"
  type: "Scale"
  bottom: "Convolution1065"
  top: "Convolution1065"
  scale_param {
    bias_term: true
  }
}
layer {
  name: "Eltwise532"
  type: "Eltwise"
  bottom: "Eltwise531"
  bottom: "Convolution1065"
  top: "Eltwise532"
  eltwise_param {
    operation: SUM
  }
}
layer {
  name: "ReLU1065"
  type: "ReLU"
  bottom: "Eltwise532"
  top: "Eltwise532"
}
layer {
  name: "Convolution1066"
  type: "Convolution"
  bottom: "Eltwise532"
  top: "Convolution1066"
  convolution_param {
    num_output: 64
    bias_term: true
    pad: 1
    kernel_size: 3
    stride: 1
    weight_filler {
      type: "msra"
    }
    bias_filler {
      type: "constant"
    }
  }
}
layer {
  name: "BatchNorm1066"
  type: "BatchNorm"
  bottom: "Convolution1066"
  top: "Convolution1066"
  param {
    lr_mult: 0
    decay_mult: 0
  }
  param {
    lr_mult: 0
    decay_mult: 0
  }
  param {
    lr_mult: 0
    decay_mult: 0
  }
}
layer {
  name: "Scale1066"
  type: "Scale"
  bottom: "Convolution1066"
  top: "Convolution1066"
  scale_param {
    bias_term: true
  }
}
layer {
  name: "ReLU1066"
  type: "ReLU"
  bottom: "Convolution1066"
  top: "Convolution1066"
}
layer {
  name: "Convolution1067"
  type: "Convolution"
  bottom: "Convolution1066"
  top: "Convolution1067"
  convolution_param {
    num_output: 64
    bias_term: true
    pad: 1
    kernel_size: 3
    stride: 1
    weight_filler {
      type: "msra"
    }
    bias_filler {
      type: "constant"
    }
  }
}
layer {
  name: "BatchNorm1067"
  type: "BatchNorm"
  bottom: "Convolution1067"
  top: "Convolution1067"
  param {
    lr_mult: 0
    decay_mult: 0
  }
  param {
    lr_mult: 0
    decay_mult: 0
  }
  param {
    lr_mult: 0
    decay_mult: 0
  }
}
layer {
  name: "Scale1067"
  type: "Scale"
  bottom: "Convolution1067"
  top: "Convolution1067"
  scale_param {
    bias_term: true
  }
}
layer {
  name: "Eltwise533"
  type: "Eltwise"
  bottom: "Eltwise532"
  bottom: "Convolution1067"
  top: "Eltwise533"
  eltwise_param {
    operation: SUM
  }
}
layer {
  name: "ReLU1067"
  type: "ReLU"
  bottom: "Eltwise533"
  top: "Eltwise533"
}
layer {
  name: "Convolution1068"
  type: "Convolution"
  bottom: "Eltwise533"
  top: "Convolution1068"
  convolution_param {
    num_output: 64
    bias_term: true
    pad: 1
    kernel_size: 3
    stride: 1
    weight_filler {
      type: "msra"
    }
    bias_filler {
      type: "constant"
    }
  }
}
layer {
  name: "BatchNorm1068"
  type: "BatchNorm"
  bottom: "Convolution1068"
  top: "Convolution1068"
  param {
    lr_mult: 0
    decay_mult: 0
  }
  param {
    lr_mult: 0
    decay_mult: 0
  }
  param {
    lr_mult: 0
    decay_mult: 0
  }
}
layer {
  name: "Scale1068"
  type: "Scale"
  bottom: "Convolution1068"
  top: "Convolution1068"
  scale_param {
    bias_term: true
  }
}
layer {
  name: "ReLU1068"
  type: "ReLU"
  bottom: "Convolution1068"
  top: "Convolution1068"
}
layer {
  name: "Convolution1069"
  type: "Convolution"
  bottom: "Convolution1068"
  top: "Convolution1069"
  convolution_param {
    num_output: 64
    bias_term: true
    pad: 1
    kernel_size: 3
    stride: 1
    weight_filler {
      type: "msra"
    }
    bias_filler {
      type: "constant"
    }
  }
}
layer {
  name: "BatchNorm1069"
  type: "BatchNorm"
  bottom: "Convolution1069"
  top: "Convolution1069"
  param {
    lr_mult: 0
    decay_mult: 0
  }
  param {
    lr_mult: 0
    decay_mult: 0
  }
  param {
    lr_mult: 0
    decay_mult: 0
  }
}
layer {
  name: "Scale1069"
  type: "Scale"
  bottom: "Convolution1069"
  top: "Convolution1069"
  scale_param {
    bias_term: true
  }
}
layer {
  name: "Eltwise534"
  type: "Eltwise"
  bottom: "Eltwise533"
  bottom: "Convolution1069"
  top: "Eltwise534"
  eltwise_param {
    operation: SUM
  }
}
layer {
  name: "ReLU1069"
  type: "ReLU"
  bottom: "Eltwise534"
  top: "Eltwise534"
}
layer {
  name: "Convolution1070"
  type: "Convolution"
  bottom: "Eltwise534"
  top: "Convolution1070"
  convolution_param {
    num_output: 64
    bias_term: true
    pad: 1
    kernel_size: 3
    stride: 1
    weight_filler {
      type: "msra"
    }
    bias_filler {
      type: "constant"
    }
  }
}
layer {
  name: "BatchNorm1070"
  type: "BatchNorm"
  bottom: "Convolution1070"
  top: "Convolution1070"
  param {
    lr_mult: 0
    decay_mult: 0
  }
  param {
    lr_mult: 0
    decay_mult: 0
  }
  param {
    lr_mult: 0
    decay_mult: 0
  }
}
layer {
  name: "Scale1070"
  type: "Scale"
  bottom: "Convolution1070"
  top: "Convolution1070"
  scale_param {
    bias_term: true
  }
}
layer {
  name: "ReLU1070"
  type: "ReLU"
  bottom: "Convolution1070"
  top: "Convolution1070"
}
layer {
  name: "Convolution1071"
  type: "Convolution"
  bottom: "Convolution1070"
  top: "Convolution1071"
  convolution_param {
    num_output: 64
    bias_term: true
    pad: 1
    kernel_size: 3
    stride: 1
    weight_filler {
      type: "msra"
    }
    bias_filler {
      type: "constant"
    }
  }
}
layer {
  name: "BatchNorm1071"
  type: "BatchNorm"
  bottom: "Convolution1071"
  top: "Convolution1071"
  param {
    lr_mult: 0
    decay_mult: 0
  }
  param {
    lr_mult: 0
    decay_mult: 0
  }
  param {
    lr_mult: 0
    decay_mult: 0
  }
}
layer {
  name: "Scale1071"
  type: "Scale"
  bottom: "Convolution1071"
  top: "Convolution1071"
  scale_param {
    bias_term: true
  }
}
layer {
  name: "Eltwise535"
  type: "Eltwise"
  bottom: "Eltwise534"
  bottom: "Convolution1071"
  top: "Eltwise535"
  eltwise_param {
    operation: SUM
  }
}
layer {
  name: "ReLU1071"
  type: "ReLU"
  bottom: "Eltwise535"
  top: "Eltwise535"
}
layer {
  name: "Convolution1072"
  type: "Convolution"
  bottom: "Eltwise535"
  top: "Convolution1072"
  convolution_param {
    num_output: 64
    bias_term: true
    pad: 1
    kernel_size: 3
    stride: 1
    weight_filler {
      type: "msra"
    }
    bias_filler {
      type: "constant"
    }
  }
}
layer {
  name: "BatchNorm1072"
  type: "BatchNorm"
  bottom: "Convolution1072"
  top: "Convolution1072"
  param {
    lr_mult: 0
    decay_mult: 0
  }
  param {
    lr_mult: 0
    decay_mult: 0
  }
  param {
    lr_mult: 0
    decay_mult: 0
  }
}
layer {
  name: "Scale1072"
  type: "Scale"
  bottom: "Convolution1072"
  top: "Convolution1072"
  scale_param {
    bias_term: true
  }
}
layer {
  name: "ReLU1072"
  type: "ReLU"
  bottom: "Convolution1072"
  top: "Convolution1072"
}
layer {
  name: "Convolution1073"
  type: "Convolution"
  bottom: "Convolution1072"
  top: "Convolution1073"
  convolution_param {
    num_output: 64
    bias_term: true
    pad: 1
    kernel_size: 3
    stride: 1
    weight_filler {
      type: "msra"
    }
    bias_filler {
      type: "constant"
    }
  }
}
layer {
  name: "BatchNorm1073"
  type: "BatchNorm"
  bottom: "Convolution1073"
  top: "Convolution1073"
  param {
    lr_mult: 0
    decay_mult: 0
  }
  param {
    lr_mult: 0
    decay_mult: 0
  }
  param {
    lr_mult: 0
    decay_mult: 0
  }
}
layer {
  name: "Scale1073"
  type: "Scale"
  bottom: "Convolution1073"
  top: "Convolution1073"
  scale_param {
    bias_term: true
  }
}
layer {
  name: "Eltwise536"
  type: "Eltwise"
  bottom: "Eltwise535"
  bottom: "Convolution1073"
  top: "Eltwise536"
  eltwise_param {
    operation: SUM
  }
}
layer {
  name: "ReLU1073"
  type: "ReLU"
  bottom: "Eltwise536"
  top: "Eltwise536"
}
layer {
  name: "Convolution1074"
  type: "Convolution"
  bottom: "Eltwise536"
  top: "Convolution1074"
  convolution_param {
    num_output: 64
    bias_term: true
    pad: 1
    kernel_size: 3
    stride: 1
    weight_filler {
      type: "msra"
    }
    bias_filler {
      type: "constant"
    }
  }
}
layer {
  name: "BatchNorm1074"
  type: "BatchNorm"
  bottom: "Convolution1074"
  top: "Convolution1074"
  param {
    lr_mult: 0
    decay_mult: 0
  }
  param {
    lr_mult: 0
    decay_mult: 0
  }
  param {
    lr_mult: 0
    decay_mult: 0
  }
}
layer {
  name: "Scale1074"
  type: "Scale"
  bottom: "Convolution1074"
  top: "Convolution1074"
  scale_param {
    bias_term: true
  }
}
layer {
  name: "ReLU1074"
  type: "ReLU"
  bottom: "Convolution1074"
  top: "Convolution1074"
}
layer {
  name: "Convolution1075"
  type: "Convolution"
  bottom: "Convolution1074"
  top: "Convolution1075"
  convolution_param {
    num_output: 64
    bias_term: true
    pad: 1
    kernel_size: 3
    stride: 1
    weight_filler {
      type: "msra"
    }
    bias_filler {
      type: "constant"
    }
  }
}
layer {
  name: "BatchNorm1075"
  type: "BatchNorm"
  bottom: "Convolution1075"
  top: "Convolution1075"
  param {
    lr_mult: 0
    decay_mult: 0
  }
  param {
    lr_mult: 0
    decay_mult: 0
  }
  param {
    lr_mult: 0
    decay_mult: 0
  }
}
layer {
  name: "Scale1075"
  type: "Scale"
  bottom: "Convolution1075"
  top: "Convolution1075"
  scale_param {
    bias_term: true
  }
}
layer {
  name: "Eltwise537"
  type: "Eltwise"
  bottom: "Eltwise536"
  bottom: "Convolution1075"
  top: "Eltwise537"
  eltwise_param {
    operation: SUM
  }
}
layer {
  name: "ReLU1075"
  type: "ReLU"
  bottom: "Eltwise537"
  top: "Eltwise537"
}
layer {
  name: "Convolution1076"
  type: "Convolution"
  bottom: "Eltwise537"
  top: "Convolution1076"
  convolution_param {
    num_output: 64
    bias_term: true
    pad: 1
    kernel_size: 3
    stride: 1
    weight_filler {
      type: "msra"
    }
    bias_filler {
      type: "constant"
    }
  }
}
layer {
  name: "BatchNorm1076"
  type: "BatchNorm"
  bottom: "Convolution1076"
  top: "Convolution1076"
  param {
    lr_mult: 0
    decay_mult: 0
  }
  param {
    lr_mult: 0
    decay_mult: 0
  }
  param {
    lr_mult: 0
    decay_mult: 0
  }
}
layer {
  name: "Scale1076"
  type: "Scale"
  bottom: "Convolution1076"
  top: "Convolution1076"
  scale_param {
    bias_term: true
  }
}
layer {
  name: "ReLU1076"
  type: "ReLU"
  bottom: "Convolution1076"
  top: "Convolution1076"
}
layer {
  name: "Convolution1077"
  type: "Convolution"
  bottom: "Convolution1076"
  top: "Convolution1077"
  convolution_param {
    num_output: 64
    bias_term: true
    pad: 1
    kernel_size: 3
    stride: 1
    weight_filler {
      type: "msra"
    }
    bias_filler {
      type: "constant"
    }
  }
}
layer {
  name: "BatchNorm1077"
  type: "BatchNorm"
  bottom: "Convolution1077"
  top: "Convolution1077"
  param {
    lr_mult: 0
    decay_mult: 0
  }
  param {
    lr_mult: 0
    decay_mult: 0
  }
  param {
    lr_mult: 0
    decay_mult: 0
  }
}
layer {
  name: "Scale1077"
  type: "Scale"
  bottom: "Convolution1077"
  top: "Convolution1077"
  scale_param {
    bias_term: true
  }
}
layer {
  name: "Eltwise538"
  type: "Eltwise"
  bottom: "Eltwise537"
  bottom: "Convolution1077"
  top: "Eltwise538"
  eltwise_param {
    operation: SUM
  }
}
layer {
  name: "ReLU1077"
  type: "ReLU"
  bottom: "Eltwise538"
  top: "Eltwise538"
}
layer {
  name: "Convolution1078"
  type: "Convolution"
  bottom: "Eltwise538"
  top: "Convolution1078"
  convolution_param {
    num_output: 64
    bias_term: true
    pad: 1
    kernel_size: 3
    stride: 1
    weight_filler {
      type: "msra"
    }
    bias_filler {
      type: "constant"
    }
  }
}
layer {
  name: "BatchNorm1078"
  type: "BatchNorm"
  bottom: "Convolution1078"
  top: "Convolution1078"
  param {
    lr_mult: 0
    decay_mult: 0
  }
  param {
    lr_mult: 0
    decay_mult: 0
  }
  param {
    lr_mult: 0
    decay_mult: 0
  }
}
layer {
  name: "Scale1078"
  type: "Scale"
  bottom: "Convolution1078"
  top: "Convolution1078"
  scale_param {
    bias_term: true
  }
}
layer {
  name: "ReLU1078"
  type: "ReLU"
  bottom: "Convolution1078"
  top: "Convolution1078"
}
layer {
  name: "Convolution1079"
  type: "Convolution"
  bottom: "Convolution1078"
  top: "Convolution1079"
  convolution_param {
    num_output: 64
    bias_term: true
    pad: 1
    kernel_size: 3
    stride: 1
    weight_filler {
      type: "msra"
    }
    bias_filler {
      type: "constant"
    }
  }
}
layer {
  name: "BatchNorm1079"
  type: "BatchNorm"
  bottom: "Convolution1079"
  top: "Convolution1079"
  param {
    lr_mult: 0
    decay_mult: 0
  }
  param {
    lr_mult: 0
    decay_mult: 0
  }
  param {
    lr_mult: 0
    decay_mult: 0
  }
}
layer {
  name: "Scale1079"
  type: "Scale"
  bottom: "Convolution1079"
  top: "Convolution1079"
  scale_param {
    bias_term: true
  }
}
layer {
  name: "Eltwise539"
  type: "Eltwise"
  bottom: "Eltwise538"
  bottom: "Convolution1079"
  top: "Eltwise539"
  eltwise_param {
    operation: SUM
  }
}
layer {
  name: "ReLU1079"
  type: "ReLU"
  bottom: "Eltwise539"
  top: "Eltwise539"
}
layer {
  name: "Pooling3"
  type: "Pooling"
  bottom: "Eltwise539"
  top: "Pooling3"
  pooling_param {
    pool: AVE
    global_pooling: true
  }
}
layer {
  name: "InnerProduct1"
  type: "InnerProduct"
  bottom: "Pooling3"
  top: "InnerProduct1"
  inner_product_param {
    num_output: 10
    bias_term: true
    weight_filler {
      type: "msra"
    }
  }
}
layer {
  name: "SoftmaxWithLoss1"
  type: "SoftmaxWithLoss"
  bottom: "InnerProduct1"
  bottom: "Data2"
  top: "SoftmaxWithLoss1"
}

